ecg_afib_detection/checkpoints/ptbxl/250hz/resnet1d/fold_1/last.pt (torch, 339167 bytes, 44 tensors)

stem.0.weight f4 [64, 12, 7]
0.0609429 0.07393162 -0.03074141 0.09850273 -0.0066830916 0.04031902 -0.025989814 0.06781165
0.09231319 -0.086722136 0.066266395 -0.005583694 0.06243605 0.0033615492 0.09937547 0.017853165
0.096900046 -0.0039549954 -0.10115493 -0.011094502 -0.08306036 0.021579543 -0.011974396 0.09297509
-0.061653506 -0.047694713 -0.03409682 -0.07887623 -0.031958222 -0.14246549 0.07752922 -0.09088372
0.11477134 0.040466867 -0.019644381 0.110439345 0.04484901 0.093994275 -0.014239683 -0.08184049
-0.012276247 -0.0712953 0.055156626 0.09855575 0.05543766 -0.06133221 0.04949703 0.006623858
0.039696917 -0.07071034 -0.118116446 -0.048618045 -0.07943187 0.104462564 0.053794846 0.067967094
0.046970565 0.0024317035 0.08604031 -0.073220015 0.017999323 -0.056159355 0.05785014 -0.062472135
0.0002459072 -0.060385153 0.059881303 -0.08512166 -0.07384245 -0.06863261 0.100937925 0.026205815
0.08382053 -0.11624568 -0.13434036 -0.1089613 -0.09392725 0.06948042 0.066111945 0.119902834
-0.021960609 -0.037692215 0.09657328 -0.0045301802 0.088770635 -0.04188224 0.030857801 -0.118766755
-0.09257737 -0.010174126 -0.038815588 0.048086118 0.10867668 0.098403074 -0.06797141 -0.062334772
0.06954629 -0.09184429 -0.06157444 -0.11131591 -0.05968287 0.03954304 -0.009929789 -0.074248195
0.021202149 -0.1292154 -0.10540096 -0.050096743 -0.07378551 -0.03968019 0.1527902 0.08583408
0.07977626 -0.08743949 -0.06711047 -0.039470572 0.019109633 -0.09887035 -0.067384794 -0.023732105
0.03239173 -0.018989902 0.0045889732 -0.07692102 -0.0897014 -0.07989105 -0.04753901 -0.09169999
0.090225354 -0.017612351 0.10305812 0.046666533 -0.07432641 0.077438906 -0.024761643 -0.032192342
-0.083366804 -0.114673436 0.0064107864 -0.06704562 0.053635616 -0.07652296 0.10157176 -0.06609276
-0.02022916 -0.0010074266 0.006272297 0.09904556 0.109172896 -0.07591111 0.035601202 -0.050780617
-0.032035947 -0.12530027 0.09737043 -0.09126491 0.046816934 0.02776216 0.019014288 -0.084314175
0.060499836 0.08153233 0.056518435 -0.067904875 0.059457123 -0.0221749 -0.071496226 0.055567276
0.04652112 -0.04395788 -0.0500755 -0.0006356293 0.06709158 -0.03330421 -0.084592424 -0.07448072
-0.111578934 0.016273033 0.086795926 -0.0739599 0.066734605 0.103759564 -0.024758108 -0.06883549
0.030806663 0.040152065 0.039155032 -0.009471416 -0.0062508243 0.0131783895 -0.016942237 -0.029207401
0.057112284 0.06374297 -0.045353226 -0.051477157 0.05275937 0.036293633 0.061734393 0.062429026
-0.07009802 -0.022654608 0.09373822 0.034328733 -0.0012376145 -0.055001967 -0.039441675 -0.050067466
0.020414094 0.09721307 0.116482 0.08879981 -0.066973604 -0.050460305 -0.016621962 0.08995049
-0.014184634 -0.016253205 0.04413383 -0.054731682 -0.09488864 0.04866131 -0.0884113 -0.06902552
-0.05931143 0.11427786 0.11654167 0.063597016 -0.060529206 -0.09790493 -0.08534166 0.12826194
0.099454455 0.1389279 0.10312466 0.0673761 0.03352075 -0.053753376 -0.08049336 -0.08883774
0.057382103 -0.04085795 -0.01630521 -0.065386266 -0.035181474 -0.08558734 -0.07799237 0.029831758
-0.03651951 0.062300514 -0.04060776 -0.09075679 -0.057070173 -0.114415124 -0.08942908 -0.15693355
00000000: 439f 793d 7669 973d 69d5 fbbc cdbb c93d
00000010: d6fd dabb 8f25 253d 97e8 d4bc d6e0 8a3d
00000020: b30e bd3d 609b b1bd adb6 873d 6cf7 b6bb
00000030: f2bc 7f3d 704d 5c3b 5e85 cb3d cd40 923c
00000040: 8873 c63d e898 81bb 512a cfbd b7c5 35bc
00000050: 8d1b aabd 95c7 b03c 4230 44bc b969 be3d
00000060: 6388 7cbd 885b 43bd 1ba9 0bbd dc89 a1bd
00000070: a0e6 02bd 79e2 11be a4c7 9e3d 3e21 babd
00000080: 3c0d eb3d 96c0 253d 41ed a0bc 062e e23d
00000090: 98b3 373d 1280 c03d 8f4d 69bc fd9b a7bd
000000a0: 5022 49bc 4503 92bd eaeb 613d 99d7 c93d
000000b0: 9a12 633d 7c37 7bbd 66bd 4a3d f30c d93b
000000c0: 3c99 223d 95d0 90bd 09e7 f1bd b723 47bd
000000d0: 2dad a2bd 78f0 d53d fc57 5c3d 5532 8b3d
000000e0: 3564 403d 375d 1f3b e735 b03d 60f4 95bd
000000f0: 5173 933c 5a07 66bd 45f4 6c3d c8e2 7fbd
00000100: 1bed 8039 6c56 77bd 1946 753d 4454 aebd
00000110: b63a 97bd 418f 8cbd 8bb8 ce3d 94ad d63c
00000120: 19aa ab3d 3712 eebd 8590 09be 1a27 dfbd
00000130: ee5c c0bd c04b 8e3d b365 873d 9e8f f53d
00000140: bce6 b3bc 2763 1abd 36c8 c53d e871 94bb
00000150: 61cd b53d b68c 2bbd 80c9 fc3c fc3b f3bd
00000160: 3499 bdbd 61b1 26bc 18fd 1ebd f3f5 443d
00000170: e191 de3d 8d87 c93d 9834 8bbd bf52 7fbd
00000180: 496e 8e3d dc18 bcbd 7b35 7cbd 99f9 e3bd
00000190: 0676 74bd e2f7 213d 8eb0 22bc 700f 98bd
000001a0: 21b0 ad3c 0b51 04be 75dc d7bd 3e32 4dbd
000001b0: dc1c 97bd b287 22bd 0975 1c3e c7c9 af3d
000001c0: bc61 a33d 7a13 b3bd 3771 89bd e5ab 21bd
000001d0: ce8b 9c3c 8a7c cabd 0a01 8abd d569 c2bc
000001e0: 31ad 043d b690 9bbc 195f 963b c588 9dbd
000001f0: 5eb5 b7bd eb9d a3bd 44b8 42bd 34cd bbbd
00000200: 12c8 b83d c747 90bc 2310 d33d 6825 3f3d
00000210: 7238 98bd 4a98 9e3d eed8 cabc 1edc 03bd
00000220: 37bc aabd e8d9 eabd 9311 d23b 374f 89bd
00000230: 05b1 5b3d 12b8 9cbd db04 d03d a45b 87bd
00000240: a0b7 a5bc a10b 84ba d787 cd3b 66d8 ca3d
00000250: 0a96 df3d 4977 9bbd 91d2 113d 56ff 4fbd
00000260: 2038 03bd b74e 00be 266a c73d 19e9 babd
00000270: 1dc3 3f3d 786d e33c dac3 9b3c e9ac acbd
00000280: adce 773d 6cfa a63d e07f 673d b611 8bbd
00000290: 5089 733d 23a8 b5bc 9d6c 92bd 839a 633d
000002a0: ee8c 3e3d 2e0d 34bd f81b 4dbd 5ca0 26ba
000002b0: 4f67 893d ff69 08bd cb3e adbd 5989 98bd
000002c0: 7f83 e4bd 064f 853c 10c2 b13d 4a78 97bd
000002d0: 27ac 883d e57f d43d 84d1 cabc 9ff9 8cbd
000002e0: 415e fc3c 7e76 243d 0761 203d ff2d 1bbc
000002f0: b7d3 ccbb 2cea 573c 72ca 8abc 5c44 efbc
00000300: 92ee 693d ad8b 823d 4ec4 39bd b6d9 52bd
00000310: 361a 583d a2a8 143d 34dd 7c3d 94b5 7f3d
00000320: 8d8f 8fbd 2896 b9bc d3f9 bf3d 499c 0c3d
00000330: 7437 a2ba be49 61bd 988d 21bd 8b13 4dbd
00000340: 753b a73c a517 c73d 1d8e ee3d addc b53d
00000350: 7529 89bd 77af 4ebd c82a 88bc f637 b83d
00000360: ab66 68bc 7125 85bc adc5 343d 542e 60bd
00000370: fa54 c2bd 1551 473d fc10 b5bd 405d 8dbd
00000380: 8bf0 72bd 830a ea3d 66ad ee3d 273f 823d
00000390: 79ed 77bd 6182 c8bd 9cc7 aebd 1957 033e
000003a0: c7ae cb3d 1e43 0e3e 0633 d33d 7bfc 893d
000003b0: 0e4d 093d 802c 5cbd b4d9 a4bd 90f0 b5bd
000003c0: 7f09 6b3d aa5a 27bd 8192 85bc 3ce9 85bd
000003d0: 731a 10bd 6a48 afbd 77ba 9fbd bb61 f43c
000003e0: 7b95 15bd d32e 7f3d 5354 26bd b2de b9bd
000003f0: 6ac2 69bd 7a52 eabd 9826 b7bd 30b3 20be

stem.0.bias f4 [64]
-0.044899333 0.033361685 0.016137224 -0.02257528 0.08502659 0.14523263 -0.049926743 -0.043899797
0.023732515 0.022084167 0.11295722 -0.019888185 0.05986103 0.050026838 0.077756435 0.023983207
0.03421024 -0.03172932 0.094511144 -0.06267538 -0.10916981 0.0408856 0.07168019 -0.021788253
-0.01629606 -0.028910168 0.07210492 -0.0041420544 -0.10861231 -0.034941897 -0.03487146 0.010778742
-0.08767401 0.09062236 0.042805023 -0.12242443 0.054665465 0.053600546 0.082290016 0.04295423
-0.04488272 -0.10141703 -0.092274375 -0.068726614 0.10656511 -0.1092985 0.05117495 -0.122445166
-0.10198522 -0.04207821 -0.041109376 -0.08919118 -0.015945103 -0.015937675 0.01907795 0.012483683
-0.01447541 -0.019270763 -0.0454942 -0.08640774 0.08236504 0.050331995 -0.10892444 -0.08965504
00000000: 5de8 37bd 43a6 083d 3632 843c cbef b8bc
00000010: 6c22 ae3d ddb7 143e fc7f 4cbd 46d0 33bd
00000020: b16a c23c dbe9 b43c 1d56 e73d 8cec a2bc
00000030: d730 753d f1e8 4c3d c43e 9f3d 6e78 c43c
00000040: 0920 0c3d 9af6 01bd 0f8f c13d f35b 80bd
00000050: 6c94 dfbd a977 273d 10cd 923d 477d b2bc
00000060: 517f 85bc 04d5 ecbc bfab 933d 12ba 87bb
00000070: 2170 debd 3c1f 0fbd 60d5 0ebd 5299 303c
00000080: 6e8e b3bd 3798 b93d 5254 2f3d a9b9 fabd
00000090: e5e8 5f3d 3f8c 5b3d ab87 a83d c6f0 2f3d
000000a0: f1d6 37bd bbb3 cfbd 59fa bcbd 8ac0 8cbd
000000b0: cf3e da3d e4d7 dfbd d39c 513d 88c4 fabd
000000c0: a1dd d0bd 335a 2cbd 4e62 28bd dea9 b6bd
000000d0: 4e9f 82bc ba8f 82bc 5c49 9c3c 5d88 4c3c
000000e0: 452a 6dbc b8dd 9dbc 2058 3abd 8bf6 b0bd
000000f0: 01af a83d ec28 4e3d c713 dfbd 109d b7bd

stem.1.weight f4 [64]
0.95695794 0.9778702 1.0296311 1.0214491 0.9685135 1.0095117 1.0120372 1.0172218
1.0372912 0.9923154 1.0054241 0.96738744 1.0299742 1.0260484 0.98974484 0.97456425
1.0159246 1.0201097 0.95579153 0.9838117 0.96988434 0.96025956 0.99148136 0.96266294
1.0136539 1.027027 1.0250051 1.0219533 0.9648214 0.98701906 0.9990706 0.94452786
0.9945051 0.9971706 0.9674321 0.9996081 0.99224126 1.0730189 0.9697834 0.9717311
0.94643426 0.9834269 0.9861836 0.9588773 0.9899312 1.0127952 0.9885023 1.0785947
0.9397762 0.97388834 1.0201017 0.97775596 0.9977898 1.0066336 1.0266469 1.011175
1.0070848 0.9808741 0.95330286 0.95417374 0.8966966 1.0303358 1.0426438 1.0035334
00000000: 32fb 743f b455 7a3f f4ca 833f d8be 823f
00000010: 80f0 773f ae37 813f 6f8a 813f 5334 823f
00000020: f5c5 843f 6208 7e3f bdb1 803f b4a6 773f
00000030: 32d6 833f 8e55 833f eb5f 7d3f 0b7d 793f
00000040: d109 823f f492 823f c1ae 743f 15db 7b3f
00000050: 574a 783f 92d3 753f b9d1 7d3f 1471 763f
00000060: 69bf 813f 9f75 833f 5e33 833f 5ecf 823f
00000070: 89fe 763f 48ad 7c3f 17c3 7f3f 94cc 713f
00000080: e397 7e3f 9346 7f3f a1a9 773f 51e6 7f3f
00000090: 8603 7e3f af58 893f ba43 783f 5fc3 783f
000000a0: 8449 723f dec1 7b3f 8776 7c3f fc78 753f
000000b0: 226c 7d3f 46a3 813f 7d0e 7d3f 640f 8a3f
000000c0: 2c95 703f bf50 793f b192 823f 374e 7a3f
000000d0: 276f 7f3f 5fd9 803f 2a69 833f 2f6e 813f
000000e0: 28e8 803f 911a 7b3f a80b 743f bb44 743f
000000f0: e98d 653f 0be2 833f 5a75 853f c873 803f

stem.1.bias f4 [64]
-0.026709693 -0.03384711 -0.012667465 -0.04196087 0.010896097 0.012862345 -0.013470775 -0.064632915
-0.011952397 -0.039923195 -0.026657306 -0.07550121 0.061647244 0.06723198 0.0055694617 -0.011501881
0.0069418605 -0.027618298 -0.0030920599 -0.059439626 0.0212157 -0.04584924 -0.01184123 -0.03940083
0.04652062 0.015009425 0.031160954 -0.075412095 -0.008956237 -0.002372579 0.018236782 -0.045987636
-0.0063759983 -0.05762883 -0.04183519 0.004125537 0.0025059744 -0.07818732 -0.012263903 0.0017255442
0.0746735 -0.012288948 0.08378148 -0.0662503 -0.052402403 0.002490772 -0.020290103 -0.02870599
-0.013634779 -0.06226953 0.05493214 0.055872492 -0.039424304 -0.011200914 0.024918826 -0.03442582
-0.07520519 -0.006904095 -0.036443617 -0.058509693 -0.07383868 0.048867002 -0.00014013423 0.0024354605
00000000: 49ce dabc 44a3 0abd 338b 4fbc 29df 2bbd
00000010: 8b85 323c 96bc 523c 87b4 5cbc 435e 84bd
00000020: fdd3 43bc 8186 23bd 6c60 dabc 61a0 9abd
00000030: d281 7c3d ecb0 893d 0880 b63b 6372 3cbc
00000040: 8c78 e33b c53f e2bc 28a4 4abb f776 73bd
00000050: 8ccc ad3c 6acc 3bbd b801 42bc c462 21bd
00000060: 688c 3e3d 17ea 753c 4245 ff3c a871 9abd
00000070: 2ebd 12bc 457d 1bbb 4e65 953c 885d 3cbd
00000080: c0ed d0bb 350c 6cbd 605b 2bbd 832f 873b
00000090: 463b 243b ac20 a0bd 8aee 48bc a82b e23a
000000a0: 6cee 983d 9557 49bc a095 ab3d 3dae 87bd
000000b0: e7a3 56bd 383c 233b 6e37 a6bc d328 ebbc
000000c0: 6864 5fbc 560e 7fbd 8600 613d 8eda 643d
000000d0: 617b 21bd 0a84 37bc 9122 cc3c 1702 0dbd
000000e0: 2e05 9abd bf3b e2bb e745 15bd dca7 6fbd
000000f0: bc38 97bd c428 483d fff0 12b9 3f9c 1f3b

stem.1.running_mean f4 [64]
-0.044855434 0.033301905 0.016178736 -0.022514615 0.085115775 0.14519116 -0.04988792 -0.04398247
0.023725703 0.022084983 0.11268568 -0.019962225 0.059812874 0.050123863 0.07776877 0.02401394
0.03417976 -0.031762846 0.09454835 -0.06268244 -0.10924287 0.04090805 0.07173739 -0.021735527
-0.016280668 -0.028884273 0.072067596 -0.004217087 -0.10853991 -0.035054117 -0.034876354 0.010744487
-0.087742254 0.09058534 0.042858716 -0.122434676 0.05458818 0.05336464 0.08231456 0.042979017
-0.04484693 -0.10144784 -0.092243396 -0.068794146 0.10687685 -0.1093966 0.05117306 -0.122457184
-0.10199572 -0.04199666 -0.041084167 -0.08920255 -0.016043892 -0.01593497 0.018832574 0.012581613
-0.014550934 -0.019261612 -0.045512304 -0.08617412 0.082416415 0.050317902 -0.10891372 -0.08964709
00000000: 55ba 37bd 9467 083d 4589 843c 9270 b8bc
00000010: 2e51 ae3d feac 143e 4757 4cbd f626 34bd
00000020: 685c c23c 91eb b43c c0c7 e63d d287 a3bc
00000030: 58fe 743d ae4e 4d3d 3c45 9f3d e2b8 c43c
00000040: 1300 0c3d c219 02bd 91a2 c13d a75f 80bd
00000050: baba dfbd 338f 273d 0deb 923d b40e b2bc
00000060: 095f 85bc b69e ecbc 2d98 933d 7d2f 8abb
00000070: 2c4a debd e894 0fbd 82da 0ebd a509 303c
00000080: 36b2 b3bd cf84 b93d 9f8c 2f3d 08bf fabd
00000090: db97 5f3d e194 5a3d 8994 a83d c40a 303d
000000a0: 6ab1 37bd e3c3 cfbd 1bea bcbd f2e3 8cbd
000000b0: 40e2 da3d 530b e0bd d89a 513d d5ca fabd
000000c0: 22e3 d0bd b104 2cbd df47 28bd d4af b6bd
000000d0: 7b6e 83bc 0e8a 82bc c546 9a3c 1c23 4e3c
000000e0: 0a67 6ebc 87ca 9dbc 1c6b 3abd 0f7c b0bd
000000f0: f0c9 a83d 251a 4e3d 280e dfbd e598 b7bd

stem.1.running_var f4 [64]
0.47326207 1.0003631 0.3155678 1.0517583 0.62110317 1.3322273 0.28121415 1.0720118
0.17159528 0.73508286 1.7405899 1.0608841 0.4573315 0.35695872 0.4189295 0.61709255
0.7291021 0.29707268 0.81552404 0.22243685 0.41973838 0.8615395 0.21792957 0.4514306
0.3885976 0.72772026 1.8061997 1.9698666 0.36370698 0.78432506 0.8391035 1.2907163
1.2288254 0.75507903 1.4130505 0.28414986 0.4469649 1.4864256 2.0777678 0.6929368
0.36483258 1.7593544 2.3058875 0.35920715 1.7784499 0.4990811 0.7216008 0.46615577
0.7550765 0.3820156 0.4155461 0.31868404 1.0126408 0.56017095 0.5698085 0.36150002
0.58127457 0.41349906 0.4645791 1.3134832 1.1853039 0.19027509 0.3568987 0.69725573
00000000: 684f f23e e60b 803f 1a92 a13e 04a0 863f
00000010: 9e00 1f3f 6d86 aa3f 4dfb 8f3e af37 893f
00000020: acb6 2f3e 642e 3c3f a6cb de3f 0dcb 873f
00000030: 5b27 ea3e 4bc3 b63e ed7d d63e c7f9 1d3f
00000040: 6fa6 3a3f e919 983e 2fc6 503f 7cc6 633e
00000050: f3e7 d63e da8d 5c3f ee28 5f3e e921 e73e
00000060: 44f6 c63e e04b 3a3f 8d31 e73f 9724 fc3f
00000070: cd37 ba3e 87c9 483f 7dcf 563f 3136 a53f
00000080: 274a 9d3f dc4c 413f d7de b43f 177c 913e
00000090: 95d8 e43e 3243 be3f 26fa 0440 4e64 313f
000000a0: 56cb ba3e 8632 e13f a993 1340 00ea b73e
000000b0: 3fa4 e33f 8f87 ff3e d4ba 383f f8ab ee3e
000000c0: b24c 413f 8c97 c33e 75c2 d43e 8e2a a33e
000000d0: 379e 813f 5d67 0f3f f8de 113f 8816 b93e
000000e0: 69ce 143f 26b6 d33e 50dd ed3e 3820 a83f
000000f0: 0ab8 973f 79d7 423e 6dbb b63e 5a7f 323f

block1.conv1.weight f4 [64, 64, 3]
-0.031399257 0.01014148 0.021945758 -0.032515418 0.063401215 0.031636205 -0.019821053 -0.045429643
0.0945649 0.03147271 -0.03814377 -0.07512169 0.0437097 0.051551726 0.02099624 0.07426604
-0.039385516 0.027484901 0.03069324 -0.028867057 0.030741164 -0.04549851 -0.04261729 0.050739467
0.05070289 -0.025716968 0.022313701 0.029083785 -0.013665436 -0.037619792 -0.11350984 0.024116829
0.02523583 -0.0030585371 -0.025446782 -0.070831314 -0.018159116 0.01967109 -0.007995292 0.075947315
0.007658274 -0.014613674 0.026944712 0.016682597 -0.07905726 0.03787694 -0.061656754 -0.011729894
-0.021924617 0.054616444 -0.063017145 0.058017716 -0.016343508 0.07777046 0.025789572 -0.020278389
0.043840896 0.035227638 0.027862418 -0.06510187 -0.0306976 0.058645286 0.016210375 0.00543784
0.002817061 -0.014191471 -0.04444242 -0.0043061953 0.08356832 -0.0032740426 0.0102146575 0.0529463
-0.024128176 0.065311156 0.08154313 -0.03642914 -0.07072252 0.025669485 0.045475125 0.019029353
0.040870044 -0.04074906 -0.071515806 -0.02335786 0.013362796 0.055154223 0.031831488 -0.0029832204
0.004899662 0.01087285 -0.061907127 -0.048116524 0.01668811 0.05510672 0.06796306 0.042389456
-0.0624126 0.05842105 0.060536973 -0.053869247 -0.018191233 0.047129586 0.005561306 0.053104565
0.034098968 0.07014772 0.06320065 0.12520696 0.070635796 -0.037833307 0.044998527 -0.006854202
-0.019884903 0.036274146 -0.02970854 -0.054372348 -0.058357228 -0.049575903 0.0014796571 0.08678322
0.049906746 0.015583274 0.06540535 -0.09711745 -0.05112613 0.042702258 -0.06554778 0.06198231
0.021574546 -0.058920156 0.040308073 0.012447263 0.07210529 0.06741138 0.005827584 0.06903052
0.026610967 0.016317837 0.009429312 -0.06326304 -0.04664796 0.111898944 0.01617616 0.12433591
0.06628065 -0.030097878 0.03742576 -0.003466455 0.0595765 -0.0046388586 0.069651335 -0.052355725
0.05168106 0.04962932 -0.018889997 0.00595659 -0.060888037 0.009832548 0.017800173 -0.025987025
0.050084375 -0.0009476425 -0.011488786 0.06412724 0.014086235 0.04617055 0.040854644 -0.03153726
-0.013996185 0.053083654 -0.04174441 0.039913 0.06269104 0.029848535 0.018279137 0.03498829
-0.059177082 0.08236661 0.067559496 -0.015042556 -0.009338706 -0.009824839 0.06652267 -0.03436037
0.016297327 -0.05947743 -0.001431218 0.029870959 0.015467302 0.051534567 0.041094646 0.08213288
0.0033783396 -0.011021569 -0.04368696 0.019020066 -0.03677682 0.054805256 -0.013260124 0.012526234
-0.049755313 -0.047298852 -0.023294022 -0.09114913 -0.020114789 0.035304636 0.037190568 0.103136405
0.010409041 0.010706049 -0.024026683 0.08855997 0.06464259 0.11429848 0.020009909 0.07250582
0.03889162 0.070076756 0.004691574 -0.037825506 -0.053496152 -0.05793584 0.0018106246 -0.037769347
0.02305118 0.06182669 0.064203195 -0.04175697 0.06143395 -0.043725647 -0.072401896 -0.02851963
-0.05840374 -0.023207504 0.0032923901 -0.036945045 0.02713046 -0.025334936 -0.050747156 0.0014012397
-0.034467928 -0.06806061 -0.06478704 -0.042148378 -0.043302875 0.04653838 0.015397146 0.061483975
0.020565875 -0.029801475 -0.03785965 -0.043000225 0.058690194 -0.042001244 -0.06514551 0.0825446
00000000: 829c 00bd 7328 263c 97c7 b33c e32e 05bd
00000010: 7fd8 813d f794 013d c35f a2bc 6f14 3abd
00000020: 3eab c13d 87e9 003d a43c 1cbd 67d9 99bd
00000030: f108 333d e727 533d 4f00 ac3c cb18 983d
00000040: b552 21bd 0428 e13c 6470 fb3c 9b7a ecbc
00000050: e5d4 fb3c a55c 3abd 788f 2ebd 30d4 4f3d
00000060: d5ad 4f3d 64ac d2bc 39cb b63c 1e41 ee3c
00000070: fee4 5fbc 3617 1abd d977 e8bd a890 c53c
00000080: 5fbb ce3c bd71 48bb c575 d0bc 0210 91bd
00000090: 6dc2 94bc 4425 a13c affe 02bc 448a 9b3d
000000a0: 42f2 fa3b 316e 6fbc 28bb dc3c f1a9 883c
000000b0: c6e8 a1bd da24 1b3d cb8b 7cbd be2e 40bc
000000c0: 419b b3bc 7eb5 5f3d 220f 81bd fca3 6d3d
000000d0: d2e2 85bc 1e46 9f3d a744 d33c dd1e a6bc
000000e0: 8392 333d db4a 103d ba3f e43c 2154 85bd
000000f0: 8979 fbbc 0a36 703d 9fcb 843c e82f b23b
00000100: 719e 383b 5883 68bc 4109 36bd fc1a 8dbb
00000110: de25 ab3d 5291 56bb 615b 273c 38de 583d
00000120: 74a8 c5bc dbc1 853d 1600 a73d b936 15bd
00000130: f8d6 90bd d048 d23c 2044 3a3d 72e3 9b3c
00000140: 5967 273d 7de8 26bd e176 92bd fc58 bfbc
00000150: a1ef 5a3c 65e9 613d bc61 023d 2282 43bb
00000160: 588d a03b 0a24 323c 5492 7dbd d515 45bd
00000170: 81b5 883c 96b7 613d 3830 8b3d 91a0 2d3d
00000180: 5ba4 7fbd e94a 6f3d 9ef5 773d 00a6 5cbd
00000190: c805 95bc f40a 413d 9e3b b63b 2c84 593d
000001a0: 5cab 0b3d 9ca9 8f3d 586f 813d 4136 003e
000001b0: 80a9 903d 19f7 1abd 6050 383d 3799 e0bb
000001c0: aae5 a2bc 3394 143d 535f f3bc 8ab5 5ebd
000001d0: fd07 6fbd 1a10 4bbd 0ef1 c13a 67bb b13d
000001e0: 046b 4c3d fd50 7f3c 3df3 853d 83e5 c6bd
000001f0: a269 51bd 90e8 2e3d ea3d 86bd 2ae1 7d3d
00000200: 1abd b03c 4356 71bd 141a 253d 9bef 4b3c
00000210: f0ab 933d fa0e 8a3d 51f5 be3b e05f 8d3d
00000220: 3eff d93c fcac 853c 677d 1a3c 0d90 81bd
00000230: ee11 3fbd 462b e53d de83 843c d3a3 fe3d
00000240: 26be 873d d38f f6bc c14b 193d 772d 63bb
00000250: 7d06 743d 9101 98bb 5ca5 8e3d f572 56bd
00000260: 85af 533d 1d48 4b3d 32bf 9abc 802f c33b
00000270: bc65 79bd b218 213c abd1 913c bee2 d4bc
00000280: 4625 4d3d 366b 78ba 763b 3cbc 2455 833d
00000290: f4c9 663c 551d 3d3d 3357 273d 372d 01bd
000002a0: 4150 65bc 3f6e 593d 30fc 2abd d07b 233d
000002b0: 2964 803d ea84 f43c 21be 953c e24f 0f3d
000002c0: ab63 72bd d3af a83d a25c 8a3d 0e75 76bc
000002d0: 5f01 19bc 5df8 20bc 0a3d 883d 76bd 0cbd
000002e0: f981 853c 9b9e 73bd b597 bbba f1b3 f43c
000002f0: 916a 7d3c e915 533d dc52 283d 4935 a83d
00000300: 2267 5d3b d093 34bc 19f1 32bd f8cf 9b3c
00000310: 4aa3 16bd 7a7b 603d fe40 59bc d53a 4d3c
00000320: 3acc 4bbd 71bc 41bd 1bd3 bebc 65ac babd
00000330: c5c7 a4bc 989b 103d 2355 183d 2e39 d33d
00000340: af8a 2a3c 6d68 2f3c 9bd3 c4bc ee5e b53d
00000350: 5663 843d 5215 ea3d d2eb a33c ee7d 943d
00000360: d24c 1f3d 6784 8f3d c6bb 993b ebee 1abd
00000370: c81e 5bbd 224e 6dbd 7b52 ed3a 08b4 1abd
00000380: d4d5 bc3c fc3d 7d3d f77c 833d 5b09 2bbd
00000390: 2aa2 7b3d aa19 33bd 7247 94bd 00a2 e9bc
000003a0: c338 6fbd aa1d bebc 24c5 573b b053 17bd
000003b0: b340 de3c 368b cfbc 40dc 4fbd cda9 b73a
000003c0: 3e2e 0dbd 5c63 8bbd 11af 84bd c7a3 2cbd
000003d0: 5b5e 31bd 079f 3e3d 5044 7c3c 9fd6 7b3d
000003e0: c479 a83c 3922 f4bc b812 1bbd 0121 30bd
000003f0: 2165 703d 7f09 2cbd 026b 85bd 250d a93d

block1.conv1.bias f4 [64]
-0.07314893 -0.10117319 0.054878898 -0.077369235 -0.06305304 -0.014931478 0.065605946 0.042934466
-0.06535977 -0.016189156 0.0011588489 -0.08372949 0.06820736 0.034397915 -0.058207415 0.045940667
0.11155724 -0.03897419 -0.01632273 0.024326144 0.012938913 -0.026189381 0.030017855 0.0135401115
-0.017769689 -0.057916485 -0.00912599 -0.08168733 0.032842334 0.0061108405 0.051435217 0.0042747115
0.06202797 0.046840258 0.004562219 -0.030211093 0.0094187865 -0.07082086 0.012521672 0.060148258
-0.020481838 -0.1278704 0.04413401 0.021781515 -0.0043417183 0.024572244 0.016152035 0.030613745
0.024608452 -0.031083453 0.034340676 -0.028838765 0.037802126 -0.05800266 -0.000106919644 0.03972164
-0.071799554 -0.016244296 0.009239392 -0.023285417 -0.020152759 -0.028342262 0.061830375 0.07484222
00000000: 1bcf 95bd e433 cfbd b2c8 603d c373 9ebd
00000010: f421 81bd 28a3 74bc 695c 863d 0ddc 2f3d
00000020: 58db 85bd 1f9f 84bc 84e4 973a 5e7a abbd
00000030: 4db0 8b3d d4e4 0c3d e66a 6ebd 482c 3c3d
00000040: 1f78 e43d 66a3 1fbd 3fb7 85bc 9f47 c73c
00000050: bcfd 533c 1d8b d6bc 01e8 f53c 58d7 5d3c
00000060: bd91 91bc d639 6dbd 2d85 15bc b04b a7bd
00000070: af85 063d 723d c83b bcad 523d e112 8c3b
00000080: 0a11 7e3d 92db 3f3d ab7e 953b 417d f7bc
00000090: 4151 1a3c 870a 91bd b327 4d3c 055e 763d
000000a0: 87c9 a7bc 75f0 02be ddc5 343d 266f b23c
000000b0: f944 8ebb bb4b c93c 4651 843c adc9 fa3c
000000c0: aa97 c93c baa2 febc cfa8 0c3d 463f ecbc
000000d0: 67d6 1a3d 3294 6dbd 0c3a e0b8 29b3 223d
000000e0: a50b 93bd c212 85bc d260 173c 0fc1 bebc
000000f0: 6617 a5bc 082e e8bc d941 7d3d e146 993d

block1.bn1.weight f4 [64]
0.9831626 0.94683206 0.949776 1.0087005 0.9920488 1.1133165 1.0259172 1.0591506
0.9362894 1.0379571 0.97817 1.0098615 1.0147083 1.0371704 0.9807661 0.99201274
0.98308265 0.9644308 0.9259807 0.9805518 1.0418779 1.0205811 1.0030652 1.0222639
1.0024987 1.0681937 0.952751 0.9969917 0.9892553 0.96128327 0.9805064 0.9801044
1.0751144 1.0084122 1.0065944 1.016953 0.9717903 0.9659131 0.9597217 0.97590214
1.0351019 0.9686054 0.9940881 1.0458462 0.9198694 1.0033994 1.0247447 0.9677351
1.0056583 0.95811445 0.96873623 0.95407164 0.96447307 1.0874255 1.014327 1.0037795
0.9917461 0.9973279 1.0908216 0.9689414 0.8742576 0.97515833 0.9771894 0.95361596
00000000: 8bb0 7b3f 9663 723f 8524 733f 191d 813f
00000010: e9f6 7d3f 2881 8e3f 4151 833f 3f92 873f
00000020: aab0 6f3f c7db 843f 5969 7a3f 2443 813f
00000030: f6e1 813f 00c2 843f 7d13 7b3f 8cf4 7d3f
00000040: 4eab 7b3f f0e4 763f 120d 6d3f 7105 7b3f
00000050: 415c 853f 67a2 823f 7164 803f 8bd9 823f
00000060: e151 803f 92ba 883f 7de7 733f d93a 7f3f
00000070: d63f 7d3f a916 763f 7802 7b3f 1fe8 7a3f
00000080: 599d 893f a713 813f 16d8 803f 842b 823f
00000090: 40c7 783f 1546 773f 52b0 753f b9d4 793f
000000a0: 387e 843f 86f6 773f 8f7c 7e3f 4ade 853f
000000b0: 907c 6b3f 646f 803f d62a 833f 7dbd 773f
000000c0: 69b9 803f fd46 753f 19ff 773f 0a3e 743f
000000d0: b5e7 763f c230 8b3f 78d5 813f d97b 803f
000000e0: 13e3 7d3f e250 7f3f 0ba0 8b3f 8b0c 783f
000000f0: 59cf 5f3f faa3 793f 1629 7a3f 2d20 743f

block1.bn1.bias f4 [64]
-0.043313656 -0.0515644 -0.04408244 -0.07995032 -0.07237171 0.064779006 -0.06862909 -0.038738478
0.041270766 -0.01849338 -0.008449046 -0.060305294 -0.020519478 -0.046314392 -0.05889765 0.01384417
-0.052352164 -0.022862677 -0.02677231 -0.028336538 0.009522516 -0.018858861 -0.005556051 -0.008283112
0.0068398104 -0.009102781 -0.042277347 -0.03644368 -0.038919542 -0.057567097 -0.02085489 0.0038123752
0.02725605 0.021350892 -0.022230465 0.053414952 -0.030402306 -0.041473657 -0.038734384 -0.012919102
-0.08852527 -0.026775904 0.018835047 -0.030870484 -0.093144536 0.006070569 -0.060755976 -0.043747775
-0.002291374 -0.08989336 -0.05605661 -0.051673777 -0.035618775 0.022658389 -0.017263483 -0.065085776
-0.0040199137 -0.05970219 0.021725401 -0.0612734 -0.08501342 -0.038856298 0.033187114 -0.04302951
00000000: a969 31bd 3135 53bd ca8f 34bd febc a3bd
00000010: 9e37 94bd dbaa 843d 698d 8cbd 3dac 1ebd
00000020: 890b 293d 6e7f 97bc de6d 0abc af02 77bd
00000030: 7718 a8bc 29b4 3dbd aa3e 71bd a8d2 623c
00000040: 396f 56bd 824a bbbc 9a51 dbbc 0722 e8bc
00000050: 5404 1c3c e67d 9abc 890f b6bb e4b5 07bc
00000060: 7d20 e03b d523 15bc 032b 2dbd f845 15bd
00000070: 196a 1fbd 7acb 6bbd e0d7 aabc 0bd9 793b
00000080: 1448 df3c 11e8 ae3c aa1c b6bc a3c9 5a3d
00000090: 420e f9bc 48e0 29bd f2a7 1ebd a4aa 53bc
000000a0: bd4c b5bd 2459 dbbc f54b 9a3c 19e4 fcbc
000000b0: 90c2 bebd a0eb c63b 42db 78bd de30 33bd
000000c0: e02a 16bb 031a b8bd 9e9b 65bd e2a7 53bd
000000d0: fee4 11bd 169e b93c 266c 8dbc b14b 85bd
000000e0: 7bb9 83bb 498a 74bd 78f9 b13c d1f9 7abd
000000f0: 841b aebd c827 1fbd 36ef 073d b63f 30bd

block1.bn1.running_mean f4 [64]
0.6141502 -0.07267133 -0.86924434 -0.07918858 0.42346996 -0.18981406 0.19830583 -0.12530488
-0.67786366 -0.6853786 -0.31586525 0.1362365 -0.16890942 -0.7075669 -0.5861652 0.5734392
-0.13691443 0.2363311 -0.2075694 -0.25555295 -0.3035865 -0.10773854 -0.479544 -0.6833543
-0.22495711 -0.65341085 -0.74644387 -0.19244011 -0.45617354 -0.40590078 -0.9865895 -0.54935503
0.36371106 -0.44403967 -0.0012263906 -0.61379194 0.34964645 -0.5078529 -0.44797003 -0.2606411
-0.03506366 -0.8313714 -0.81396896 0.076106496 0.53660613 0.18410474 0.3831897 -0.8164579
-0.60991985 -0.42628878 -0.4506495 0.5724699 -0.23427734 -0.4264226 0.12796746 0.9330627
-0.14072597 -0.27042422 -0.83860266 -0.2615062 0.8862248 0.117187954 -0.6670761 0.03912384
00000000: f338 1d3f b5d4 94bd cc86 5ebf 9f2d a2bd
00000010: 0ed1 d83e 9e5e 42be af10 4b3e ec4f 00be
00000020: 7988 2dbf f974 2fbf 17b9 a1be 9581 0b3e
00000030: 97f6 2cbe 1b23 35bf ec0e 16bf e9cc 123f
00000040: 4c33 0cbe c800 723e 138d 54be d6d7 82be
00000050: b16f 9bbe 06a6 dcbd cb86 f5be 4ff0 2ebf
00000060: 285b 66be ef45 27bf f216 3fbf 050f 45be
00000070: 948f e9be 3ad2 cfbe 2191 7cbf 88a2 0cbf
00000080: 5638 ba3e 2b59 e3be d7be a0ba 7821 1dbf
00000090: dc04 b33e a602 02bf 545c e5be c072 85be
000000a0: ea9e 0fbd c2d4 54bf 4560 50bf b9dd 9b3d
000000b0: 055f 093f f485 3c3e 7131 c43e 6303 51bf
000000c0: b523 1cbf 8642 dabe 88bb e6be 638d 123f
000000d0: 66e6 6fbe 1054 dabe e709 033e 32dd 6e3f
000000e0: 781a 10be 0b75 8abe aaae 56bf 24e4 85be
000000f0: a1df 623f 3d00 f03d 80c5 2abf 5240 203d

block1.bn1.running_var f4 [64]
1.2584144 0.409504 0.7019556 0.9898733 0.9130971 0.33424687 0.33602026 0.2050072
1.1467191 0.6923757 0.4142725 0.34090644 0.8322686 0.8444112 1.4695497 0.32689536
0.85760134 0.71875614 0.82479674 1.0168544 0.4126454 0.60381 0.245155 1.0631491
0.37736177 0.7498055 0.6647828 0.26020262 0.48504797 0.62121147 0.99937135 0.52323
0.6787447 0.57217115 0.45330396 0.5398999 0.37979046 0.6869879 0.58709645 1.2114211
0.23788218 1.2410866 0.8232645 0.3169906 1.1142133 0.5332934 0.6657345 1.0027635
0.5313768 0.9158008 1.0300192 1.0898015 0.5837537 0.37608474 0.6081509 1.123698
0.30887792 0.45571274 0.79982316 0.24367887 0.8315975 0.34131464 0.5040299 0.17797042
00000000: b913 a13f 82aa d13e 5db3 333f 5668 7d3f
00000010: bbc0 693f 6822 ab3e d90a ac3e 68ed 513e
00000020: b1c7 923f 893f 313f 861b d43e 4a8b ae3e
00000030: 8e0f 553f 552b 583f 341a bc3f d45e a73e
00000040: c38b 5b3f 6700 383f e125 533f 4928 823f
00000050: 4246 d33e 4b93 1a3f ea09 7b3e 4515 883f
00000060: 9035 c13e 41f3 3f3f 352f 2a3f 4739 853e
00000070: 3558 f83e b707 1f3f cdd6 7f3f 67f2 053f
00000080: 36c2 2d3f cf79 123f 7517 e83e e136 0a3f
00000090: e573 c23e 70de 2f3f f44b 163f d90f 9b3f
000000a0: 6397 733e eddb 9e3f 76c1 523f 984c a23e
000000b0: 8b9e 8e3f eb85 083f 946d 2a3f 8e5a 803f
000000c0: 4f08 083f ec71 6a3f abd7 833f 9e7e 8b3f
000000d0: e270 153f 2e8e c03e c7af 1b3f 56d5 8f3f
000000e0: 3f25 9e3e 2e53 e93e 36c1 4c3f f486 793e
000000f0: 93e3 543f cbc0 ae3e 1b08 013f e13d 363e

block1.conv2.weight f4 [64, 64, 3]
-0.032197982 -0.04758481 -0.08689276 -0.08007197 -0.07082582 0.03849341 0.027868504 -0.012333398
0.021509383 0.047849163 0.049749278 0.0557002 0.013043171 -0.042489234 -0.01496792 -0.11881286
-0.041622236 -0.08566656 -0.023318442 -0.06519333 -0.09128112 0.04698022 0.040564965 -0.024202706
0.05832548 0.055499014 0.0067085186 0.046870835 0.015958525 -0.04574905 0.05435938 -0.08305934
-0.05909561 -0.088319145 -0.054868855 0.08621665 -0.074715704 -0.03811705 -0.054713998 0.06608134
0.011243742 0.00031150194 -0.09085702 -0.033746414 -0.0124847 -0.080196455 -0.051394995 -0.024750207
0.08747331 0.048077095 0.05146414 0.049814727 0.009257874 -0.021043224 0.05259247 0.009285176
-0.027733583 0.014190486 -0.042844847 0.01613101 0.08677159 0.034150098 -0.06356235 0.05253501
-0.0061586425 -0.066462785 0.04840204 0.027126892 0.032532297 0.022683553 -0.055489182 -0.0769038
0.05071702 0.0077995155 0.08780921 0.013066298 -0.09252395 -0.018218203 0.04728068 -0.065868944
0.014888329 -0.04195259 0.048293896 0.05916035 -0.014854358 0.032774266 -0.024834383 -0.009524958
-0.027178347 0.047436975 0.059456162 -0.0059675425 -0.019552013 -0.019469397 0.05310101 -0.0011911952
0.025548812 -0.037751272 -0.026116002 -0.06500575 -0.070256636 -0.029091924 -0.021598129 0.03452648
0.06359295 0.034831494 0.045610424 -0.03001324 -0.07648834 -0.093398914 0.02316137 -0.0070793377
-0.025447551 -0.08396089 0.021652808 -0.055635896 0.07012296 -0.09291196 0.003092434 0.050051816
-0.09237143 0.014933762 -0.0076811495 0.02851237 0.032034133 -0.074728936 -0.010756254 0.0796296
0.045954883 -0.03156315 0.06834536 -0.07633018 -0.061397403 -0.034473054 0.019597791 -0.06528282
-0.024464983 -0.051958077 -0.0775037 0.016276782 -0.017820941 -0.047571637 -0.0026498446 0.034459934
-0.029519735 0.066750534 -0.05788664 0.003620882 0.033374153 0.021967608 -0.005610904 -0.027825061
-0.062193774 0.03129626 -0.033731498 0.053861097 0.081038885 -0.059003048 0.05473825 0.04533291
-0.049965046 -0.089971565 0.033782944 0.10764746 0.07488218 -0.08618581 -0.08424335 -0.0909216
0.003893415 0.030959865 -0.018959025 -0.09657061 -0.066158354 0.0016588271 0.023331577 0.043572135
0.10827155 0.0041291583 -0.04716256 0.022673445 -0.05752369 0.050296552 -0.033409696 -0.025170958
0.017191254 -0.007214138 0.042505614 0.027252046 0.043705147 -0.05513818 -0.06537639 -0.06894118
-0.09527637 -0.100610636 -0.10204731 0.06831208 0.043440197 0.025979092 0.07686029 0.046947394
-0.003782376 0.027275993 0.0034826896 0.07627804 -0.008278966 -0.07622239 -0.0028423006 -0.11567563
0.016166935 -0.041116025 0.00663196 -0.029046228 -0.01571138 0.033282712 0.023705374 -0.0747194
-0.025984224 -0.04131002 -0.04427885 0.004181016 -0.008567725 0.12566203 -0.064932644 -0.009543727
0.026951388 -0.059607115 -0.025416136 0.05017655 -0.051884007 -0.036530927 0.03154053 -0.017789537
-0.004026144 0.04232321 -0.04916991 -0.06597205 0.05422231 -0.08630359 -0.08372875 -0.043757718
0.00928859 0.060110796 -0.03613757 -0.06438533 0.04923215 0.053072046 0.0077156113 -0.061803333
0.05452817 -0.02000627 -0.058465645 0.062199328 -0.019779593 0.038105443 -0.011175778 0.055651672
00000000: 08e2 03bd 4ae8 42bd d5f4 b1bd c6fc a3bd
00000010: 210d 91bd 44ab 1d3d 7d4c e43c 0512 4abc
00000020: 7234 b03c 7cfd 433d e6c5 4b3d e525 643d
00000030: 06b3 553c 3109 2ebd 023c 75bc 2854 f3bd
00000040: 147c 2abd f371 afbd 5106 bfbc 1584 85bd
00000050: 99f1 babd 556e 403d 7327 263d c144 c6bc
00000060: b3e6 6e3d ef52 633d 22d3 db3b a2fb 3f3d
00000070: 74bb 823c 5b63 3bbd f1a7 5e3d 041b aabd
00000080: 3d0e 72bd abe0 b4bd 2abe 60bd 5b92 b03d
00000090: 8c04 99bd a020 1cbd c91b 60bd a755 873d
000000a0: ac37 383c 1551 a339 3f13 babd ae39 0abd
000000b0: a18c 4cbc 0a3e a4bd 8f83 52bd f2c0 cabc
000000c0: 3525 b33d 7dec 443d 10cc 523d 870a 4c3d
000000d0: 57ae 173c d762 acbc 346b 573d da20 183c
000000e0: 8a31 e3bc 367f 683c 147e 2fbd 2e25 843c
000000f0: 4eb5 b13d f9e0 0b3d fa2c 82bd f32e 573d
00000100: 70ce c9bb a41d 88bd 3841 463d 3739 de3c
00000110: 9640 053d dcd2 b93c a048 63bd bd7f 9dbd
00000120: a6bc 4f3d 1493 ff3b 51d5 b33d 0714 563c
00000130: 327d bdbd 573e 95bc 63a9 413d 4ce6 86bd
00000140: 2eee 733c 7bd6 2bbd d2cf 453d 2052 723d
00000150: b15f 73bc 4f3e 063d 7a71 cbbc 920e 1cbc
00000160: 20a5 debc 464d 423d 4e88 733d 608b c3bb
00000170: 8b2b a0bc 497e 9fbc 7280 593d e121 9cba
00000180: be4b d13c 14a1 1abd 3af1 d5bc bc21 85bd
00000190: b6e2 8fbd 3052 eebc 8fee b0bc a36b 0d3d
000001a0: 053d 823d 78ab 0e3d ffd1 3a3d 54de f5bc
000001b0: eba5 9cbd ee47 bfbd eabc bd3c caf9 e7bb
000001c0: 6277 d0bc b0f3 abbd 3b61 b13c 77e2 63bd
000001d0: a09c 8f3d a048 bebd 6faa 4a3b 2203 4d3d
000001e0: 3b2d bdbd bdac 743c 27b2 fbbb c692 e93c
000001f0: 3936 033d 7c0b 99bd 003b 30bc d814 a33d
00000200: 303b 3c3d 5d48 01bd a7f8 8b3d ff52 9cbd
00000210: d87b 7bbd 9e33 0dbd 8c8b a03c 00b3 85bd
00000220: ca6a c8bc fed1 54bd 43ba 9ebd e356 853c
00000230: 39fd 91bc 7ada 42bd 04a9 2dbb dc25 0d3d
00000240: 5fd3 f1bc 81b4 883d 8b1a 6dbd 524c 6d3b
00000250: 56b3 083d 6af5 b33c addb b7bb 62f1 e3bc
00000260: e6be 7ebd 8230 003d 0a2a 0abd 749d 5c3d
00000270: b7f7 a53d 2ead 71bd 3735 603d 00af 393d
00000280: 26a8 4cbd 0343 b8bd fc5f 0a3d 4676 dc3d
00000290: d45b 993d 3082 b0bd c787 acbd 1b35 babd
000002a0: aa28 7f3b 8b9f fd3c f54f 9bbc d0c6 c5bd
000002b0: 087e 87bd 006d d93a dd21 bf3c b278 323d
000002c0: 79bd dd3d e44d 873b 872d 41bd a9bd b93c
000002d0: f69d 6bbd c203 4e3d 9bd8 08bd 5333 cebc
000002e0: acd4 8c3c 9364 ecbb 5e1a 2e3d af3f df3c
000002f0: 2b04 333d 92d8 61bd 0fe4 85bd 0931 8dbd
00000300: 4220 c3bd f30c cebd 2efe d0bd 34e7 8b3d
00000310: 59ee 313d 1bd2 d43c ed68 9d3d e94b 403d
00000320: bde1 77bb e771 df3c d63d 643b a937 9c3d
00000330: 80a4 07bc 7c1a 9cbd e445 3abb 58e7 ecbd
00000340: 8570 843c 4769 28bd ea50 d93b 5bf2 edbc
00000350: 27b5 80bc 7453 083d c631 c23c 7c06 99bd
00000360: dedc d4bc b234 29bd bd5d 35bd e700 893b
00000370: a55f 0cbc 8cad 003e 68fb 84bd 4b5d 1cbc
00000380: 28c9 dc3c 9726 74bd 8035 d0bc ed85 4d3d
00000390: 5384 54bd 74a1 15bd a530 013d 5dbb 91bc
000003a0: beed 83bb 1a5b 2d3d 6366 49bd 5b1c 87bd
000003b0: 3718 5e3d f0bf b0bd fb79 abbd 4b3b 33bd
000003c0: 2c2f 183c bd36 763d fd04 14bd 75dc 83bd
000003d0: a7a7 493d 1362 593d 3dd3 fc3b 7e25 7dbd
000003e0: ee58 5f3d 30e4 a3bc ac79 6fbd b9c4 7e3d
000003f0: d008 a2bc 7414 1c3d 9c1a 37bc 02f3 633d

block1.conv2.bias f4 [64]
0.09898447 -0.054566782 -0.034769405 -0.0017927706 0.02666221 -0.0033805727 -0.051902507 -0.049267076
0.0077227238 -0.003838048 -0.05971968 0.06896267 0.0120208105 0.07755359 -0.08995419 0.01555578
0.08278163 -0.09510346 0.056854133 -0.040818304 0.03586561 -0.03076557 0.022796694 -0.06766185
-0.0031850857 -0.037249126 0.06011933 -0.035894193 0.04697847 -0.030188108 -0.014707318 -0.044143163
0.060121823 -0.010146053 0.038978424 -0.0011812529 -0.03208754 -0.032447234 -0.06488606 -0.027110437
-0.020055903 -0.052544527 0.019902453 -0.021277761 0.009162403 0.023947753 -0.037883874 -0.0018470157
-0.03350453 -0.016878678 -0.030148776 0.040255066 0.00049813115 -0.0540299 -0.057913616 0.041503783
-0.07347865 -0.012082024 0.05489952 -0.011680924 0.086971976 0.0665253 0.02151802 0.071561925
00000000: 5fb8 ca3d 6b81 5fbd 5d6a 0ebd 66fb eaba
00000010: b56a da3c 998c 5dbb b997 54bd 46cc 49bd
00000020: e70e fd3b c387 7bbb a09c 74bd 4d3c 8d3d
00000030: eff2 443c 6bd4 9e3d e739 b8bd acdd 7e3c
00000040: 6a89 a93d 9ac5 c2bd e1df 683d 1831 27bd
00000050: d1e7 123d 1408 fcbc 22c0 ba3c 4c92 8abd
00000060: dfbc 50bb 8a92 18bd b03f 763d ca05 13bd
00000070: 7f6c 403d 0d4d f7bc f6f6 70bc 76cf 34bd
00000080: 4d42 763d a13b 26bc d7a7 1f3d 45d4 9aba
00000090: 396e 03bd 64e7 04bd fce2 84bd b516 debc
000000a0: 474c a4bc ee38 57bd 780a a33c b34e aebc
000000b0: e71d 163c 142e c43c 1f2c 1bbd 9017 f2ba
000000c0: 0c3c 09bd 2745 8abc 91fa f6bc 7fe2 243d
000000d0: 0495 023a 754e 5dbd d436 6dbd dfff 293d
000000e0: f97b 96bd aef3 45bc 52de 603d 5961 3fbc
000000f0: 5d1e b23d 6b3e 883d 8f46 b03c 0f8f 923d

block1.bn2.weight f4 [64]
1.0352372 1.0132463 1.0357378 1.0185359 1.0439698 1.0354482 1.0380245 1.0310111
1.0232159 1.0702977 1.016069 1.069283 1.0401517 1.0463076 1.0530202 1.0183918
0.9969309 1.0220404 0.9328731 1.0103695 1.0066607 1.0187685 1.0099676 0.9656404
1.0203252 1.024924 1.0104772 0.9795598 1.0987515 1.0288914 1.048668 1.0364457
1.0125862 0.9932525 1.0208994 1.0101962 1.0267993 1.0884889 1.0653377 1.0534667
1.0768279 0.9967581 1.0453768 1.0187277 1.0173583 1.0515918 1.0338776 1.0223354
1.0185286 1.0495875 0.983778 1.0349358 1.0711029 1.0422136 1.0511974 1.0395267
0.9931805 1.0809667 1.0408912 1.0145456 1.0568835 1.0556878 0.95749456 1.0519992
00000000: a782 843f 0eb2 813f 0e93 843f 625f 823f
00000010: cda0 853f 9189 843f fddd 843f 2cf8 833f
00000020: bdf8 823f 84ff 883f 8d0e 823f 44de 883f
00000030: b123 853f 68ed 853f 5ec9 863f aa5a 823f
00000040: dd36 7f3f 38d2 823f c5d0 6e3f ca53 813f
00000050: 42da 803f 0267 823f 9e46 813f 3634 773f
00000060: 049a 823f b630 833f 5157 813f 6ec4 7a3f
00000070: e4a3 8c3f b7b2 833f c13a 863f 41aa 843f
00000080: 6d9c 813f cc45 7e3f d5ac 823f 1c4e 813f
00000090: 296e 833f 9b53 8b3f fc5c 883f ffd7 863f
000000a0: 7fd5 893f 8a2b 7f3f e8ce 853f ab65 823f
000000b0: cc38 823f 8f9a 863f 1a56 843f e3db 823f
000000c0: 255f 823f e258 863f e0d8 7b3f c778 843f
000000d0: e619 893f 4167 853f a38d 863f 360f 853f
000000e0: 1441 7e3f 1e5d 8a3f ec3b 853f a1dc 813f
000000f0: f547 873f c720 873f 5d1e 753f e9a7 863f

block1.bn2.bias f4 [64]
0.013016265 0.006719826 0.022955775 0.001367538 -0.0051488425 -0.0007210872 -0.104843006 0.026810585
0.025072487 -0.009953604 -0.020144194 0.013729719 0.01870063 -0.02978204 0.010352853 5.9945407e-05
-0.04872799 -0.029485282 -0.025418848 -0.019984912 -0.065282665 0.011533676 -0.005874523 -0.044415586
-0.025886822 0.028273186 0.019703684 0.0043270853 -0.027956428 0.03218406 0.02416086 -0.05406864
-0.0053994944 -0.06919796 -0.0007126333 0.0015367385 -0.002332813 -0.02377513 0.00093081285 -0.06221299
0.04272054 0.027181672 -0.0030115922 -0.03402527 -0.015787879 0.005490556 -0.0146613335 -0.011196433
-0.006718319 -0.0683528 -0.023016348 0.03942151 0.010262615 0.037168056 -0.06563578 0.015039742
0.0082798805 0.036239002 -0.012569609 0.0031129236 -0.06056168 -0.02770399 0.00084940286 0.035393357
00000000: 2c42 553c fc31 dc3b c00d bc3c f63e b33a
00000010: 9fb7 a8bb 5807 3dba eeb7 d6bd dfa1 db3c
00000020: d164 cd3c 7114 23bc 7005 a5bc 9ef2 603c
00000030: 1032 993c 77f9 f3bc 039f 293c e46d 7b38
00000040: 0097 47bd 1e8b f1bc 303b d0bc 66b7 a3bc
00000050: ebb2 85bd bef7 3c3c 127f c0bb 1eed 35bd
00000060: 9a10 d4bc 2b9d e73c 9f69 a13c 39ca 8d3b
00000070: e104 e5bc 6fd3 033d ffec c53c 1477 5dbd
00000080: 3eee b0bb a9b7 8dbd 03d0 3aba 636c c93a
00000090: 1ce2 18bb 10c4 c2bc cb01 743a 0cd3 7ebd
000000a0: bcfb 2e3d 19ac de3c 225e 45bb 155e 0bbd
000000b0: 9555 81bc 1fea b33b 1736 70bc 3e71 37bc
000000c0: 5825 dcbb 8efc 8bbd c88c bcbc 7378 213d
000000d0: 8724 283c 883d 183d 0d6c 86bd 4069 763c
000000e0: 56a8 073c 596f 143d c3f0 4dbc 3102 4c3b
000000f0: 860f 78bd 7af3 e2bc 76aa 5e3a a0f8 103d

block1.bn2.running_mean f4 [64]
-0.24559666 -0.4439541 0.08622225 -0.7619068 -0.35828826 -0.49594527 -0.003201164 -0.6708419
-0.39460424 -0.025067613 -0.20441726 -0.29201442 -0.59402263 -0.7143597 0.09623223 0.16761336
0.7993878 0.30312085 0.51426417 0.11122614 0.31238282 -0.097855724 -0.37219962 -0.2648405
-0.003773545 -0.4231301 0.01971788 -0.6649388 -0.48553476 -0.2815985 -0.6295278 0.17115238
0.4477991 0.5466962 0.06753687 0.14384711 0.1470875 -0.5038339 -0.07691788 -0.1593748
-0.21353507 0.58262044 -0.14342235 0.13930537 0.14306064 0.012222569 0.085273445 0.24092928
0.40928498 0.0139322635 -0.4396547 -0.6206304 0.14880437 -0.30599394 -0.18533403 -0.0016414059
-0.36776954 -0.63440204 0.019758722 -0.44015825 -0.30479398 -0.016855977 -0.04899213 -0.2770148
00000000: b17d 7bbe f44d e3be 4a95 b03d 530c 43bf
00000010: 8f71 b7be 8aec fdbe 9fca 51bb 4bbc 2bbf
00000020: 9109 cabe 985a cdbc c252 51be ea82 95be
00000030: de11 18bf 47e0 36bf 6715 c53d d6a2 2b3e
00000040: aea4 4c3f a832 9b3e d1a6 033f 88ca e33d
00000050: a4f0 9f3e 9568 c8bd f390 bebe 2d99 87be
00000060: 944d 77bb 82a4 d8be 6487 a13c 6e39 2abf
00000070: 0398 f8be ae2d 90be bc28 21bf 9242 2f3e
00000080: ec45 e53e 48f4 0b3f c550 8a3d a84c 133e
00000090: 1b9e 163e 42fb 00bf 1f87 9dbd 2633 23be
000000a0: f0a8 5abe 9d26 153f 4fdd 12be 11a6 0e3e
000000b0: 7d7e 123e 2c41 483c d8a3 ae3d 2ab6 763e
000000c0: cd8d d13e 2644 643c 6c1a e1be a2e1 1ebf
000000d0: 2c60 183e 3dab 9cbe 34c8 3dbe 7124 d7ba
000000e0: 4a4c bcbe 2c68 22bf 0bdd a13c 6c5c e1be
000000f0: f50d 9cbe 8c15 8abc f9ab 48bd e2d4 8dbe

block1.bn2.running_var f4 [64]
0.74212956 0.3172257 0.18385532 0.66652775 0.4390309 0.28436536 0.19134124 0.8889241
0.37753063 0.20899813 0.27965364 0.21851486 0.61540955 0.856599 0.16205052 0.45740876
0.7492924 0.17478533 0.27215642 0.2974148 0.40355536 0.35397688 0.49964193 0.43467408
0.2122372 0.8226362 0.29910675 0.78628165 0.5389351 0.25626773 0.68069303 0.22919041
0.33148018 1.047299 0.30409026 0.12464574 0.2050398 0.296213 0.23948948 0.25468785
0.4089574 0.2538179 0.25162643 0.34110335 0.24782857 0.32497704 0.16332081 0.20289117
0.24824049 0.24261394 0.5754088 0.65581 0.32303062 0.5523284 0.32154793 0.36564133
0.80835736 0.4661448 0.23280348 0.79405177 0.359648 0.16043371 0.335228 0.5551219
00000000: 34fc 3d3f 686b a23e 9244 3c3e 90a1 2a3f
00000010: a8c8 e03e 5698 913e f5ee 433e 8890 633f
00000020: b24b c13e 9b03 563e c32e 8f3e 5cc2 5f3e
00000030: 7b8b 1d3f 124a 5b3f 92f0 253e 7b31 ea3e
00000040: a0d1 3f3f edfa 323e 1658 8b3e c146 983e
00000050: cf9e ce3e 753c b53e 11d1 ff3e 9a8d de3e
00000060: b554 593e 4998 523f 8524 993e c149 493f
00000070: a7f7 093f 8635 833e e641 2e3f e4b0 6a3e
00000080: c5b7 a93e e50d 863f b8b1 9b3e 4446 ff3d
00000090: f4f5 513e 3ba9 973e bb3c 753e 7266 823e
000000a0: dd62 d13e 6bf4 813e 2ed5 803e 19a5 ae3e
000000b0: c6c6 7d3e 6463 a63e 923d 273e b4c2 4f3e
000000c0: c132 7e3e ca6f 783e fe4d 133f 2ae3 273f
000000d0: 4564 a53e 6565 0d3f eea1 a43e 5735 bb3e
000000e0: 82f0 4e3f 88aa ee3e 0964 6e3e fa46 4b3f
000000f0: c823 b83e bc48 243e 01a3 ab3e 781c 0e3f

block2.conv1.weight f4 [64, 64, 3]
-0.0038877344 0.039010536 -0.026773002 0.11317934 0.042284027 0.03650954 0.047125112 -0.042818785
-0.08550793 -0.10451034 -0.011784179 0.027474018 0.014858517 -0.042300195 0.028321289 -0.09090447
-0.020498043 -0.04536935 -0.06391144 -0.0670516 -0.049422875 -0.018816566 -0.0015983102 0.0054981112
0.022264589 -0.057342134 0.014360762 -0.03129294 0.055017687 -0.0515185 0.022636468 0.0022937357
-0.015355932 0.09899153 0.057682592 -0.0661529 0.040969677 3.8807448e-06 0.03517408 0.025216922
0.08308807 0.053975385 -0.009236025 -0.06397244 0.047892854 -0.07103536 0.04645753 0.034027427
-0.011332316 -5.6747558e-05 -0.06291847 -0.060195923 -0.016888468 -0.06281385 0.026080415 -0.043237466
-0.032631777 -0.04006847 0.013814837 -0.040250182 -0.029212367 0.00027273694 -0.01286058 0.05585362
0.031124147 0.053922683 0.09614925 0.029575728 0.048543077 0.060922414 -0.01087365 0.02059963
-0.07956717 0.03706308 0.012442201 -0.047486655 0.054143988 0.018019892 -0.0033683851 -0.056110978
-0.04022589 -0.056911826 -0.049926978 0.07011037 0.048275523 0.090091124 0.037531015 0.08723639
0.028006077 -0.06355963 0.10802493 -0.055386446 -0.0049693217 -0.0036152615 0.044932663 -0.043412503
0.015098985 -0.004534658 -0.05926933 -0.017246464 -0.02030025 0.051197283 -0.07285974 0.0064552263
0.07459379 -0.048194215 0.065203525 -0.019161636 0.06699356 -0.0053141164 0.06416089 -0.13432315
-0.021497529 -0.0830425 0.014437427 -0.079151616 -0.08186488 -0.016000208 -0.04841461 0.05445139
-0.04260505 -0.012939656 0.0048528267 0.043 -0.0065108603 0.036741022 -0.083770566 -0.008941411
-0.08421265 -0.039709426 -0.081357464 -0.094633676 0.044585373 -0.07281906 0.025484648 -0.08060059
0.040776875 -0.049305618 -0.051152714 0.015669174 -0.07718141 -0.07139488 -0.07643843 0.039718203
0.042724997 -0.04991933 0.0341834 -0.08543615 0.011716205 -0.12423738 0.09590063 -0.020156002
-0.043269593 0.036550943 -0.05473729 0.06041024 -0.018167883 0.037164237 0.046107672 0.009154938
-0.042342816 -0.0036014272 -0.07817301 -0.041102063 -0.0765291 -0.058370043 -0.08001988 -0.087593265
-0.07616689 -0.09738575 -0.02517277 0.034775402 0.09928595 0.07500981 -0.026055302 7.413127e-05
-0.06840655 0.027171982 -0.0075121047 0.05998381 -0.05291754 0.016716657 -0.028792638 -0.020878641
0.012800044 0.028353818 0.015042269 -0.054371957 -0.08112644 0.03416134 -0.040419165 0.025552183
0.06361047 -0.076904394 -0.056586355 0.0087171905 -0.03571091 -0.012589962 0.049419507 0.025420886
0.090499654 -0.071156286 -0.08861395 -0.113430545 -0.0126734115 -0.084073894 -0.003434511 0.043365877
0.026684426 0.008182242 -0.08561857 -0.01565696 -0.058848098 -0.093037605 -0.06355499 -0.06953363
-0.08186038 -0.022787465 -0.09510498 0.08393462 -0.006950464 0.017108502 -0.010948015 0.0649197
0.044482753 0.023225825 -0.0048892084 0.026188368 -0.014798346 0.018621992 -0.01748215 0.02534202
0.0036113586 -0.12724787 -0.060424622 0.023511497 0.02691254 -0.112471 0.012066145 -0.020694384
-0.016275372 -0.025558528 -0.07133013 0.04900121 0.015643546 0.06289778 0.06552077 -0.043081366
-0.024696779 -0.08859045 0.010611197 -0.044091113 0.013006305 -0.08823293 0.027933305 0.045757063
00000000: 5cc9 7ebb 83c9 1f3d 0e53 dbbc 92ca e73d
00000010: 0432 2d3d 078b 153d 4306 413d c062 2fbd
00000020: c81e afbd 8409 d6bd 6e12 41bc 3111 e13c
00000030: 2371 733c f842 2dbd 0c02 e83c 1f2c babd
00000040: 83eb a7bc 36d5 39bd 00e4 82bd 5952 89bd
00000050: a46f 4abd 3325 9abc 647e d1ba 8029 b43b
00000060: 3a64 b63c 96df 6abd 6749 6b3c 072d 00bd
00000070: 3a5a 613d 1005 53bd 1d70 b93c 8052 163b
00000080: 7297 7bbc 12bc ca3d 9544 6c3d 2c7b 87bd
00000090: d2cf 273d 5837 8236 b212 103d b893 ce3c
000000a0: 142a aa3d 4b15 5d3d b252 17bc fc03 83bd
000000b0: 4c2b 443d fd7a 91bd 404a 3e3d 5860 0b3d
000000c0: 2eab 39bc 3a04 6eb8 66db 80bd 0090 76bd
000000d0: af59 8abc 8ca4 80bd 98a6 d53c c519 31bd
000000e0: e6a8 05bd d61e 24bd a057 623c 60dd 24bd
000000f0: c64e efbc 22fe 8e39 2fb5 52bc c4c6 643d
00000100: 11f8 fe3c 08de 5c3d e6e9 c43d cc48 f23c
00000110: 1bd5 463d c889 793d 6527 32bc 8ec0 a83c
00000120: 1df4 a2bd 75cf 173d 60da 4b3c 5e81 42bd
00000130: 16c6 5d3d 749e 933c 20c0 5cbb a0d4 65bd
00000140: e7c3 24bd 601c 69bd 3b80 4cbd 0796 8f3d
00000150: 8ebc 453d b281 b83d 1fba 193d fea8 b23d
00000160: 006d e53c 8d2b 82bd 2d3c dd3d e6dc 62bd
00000170: b1d5 a2bb 06ee 6cbb 500b 383d 4fd1 31bd
00000180: bc61 773c 7897 94bb 66c4 72bd 7548 8dbc
00000190: b64c a6bc 3eb4 513d 7d37 95bd 5d86 d33b
000001a0: a1c4 983d 4c67 45bd 6d89 853d ddf8 9cbc
000001b0: eb33 893d 0a22 aebb c966 833d 028c 09be
000001c0: 961b b0bc 3012 aabd f58a 6c3c 3e1a a2bd
000001d0: c6a8 a7bd de12 83bc 664e 46bd 6c08 5f3d
000001e0: a282 2ebd da00 54bc 7604 9f3b c520 303d
000001f0: 0e59 d5bb c17d 163d e78f abbd ff7e 12bc
00000200: af77 acbd 5aa6 22bd be9e a6bd 4dcf c1bd
00000210: 279f 363d 2922 95bd 2ec5 d03c ec11 a5bd
00000220: a705 273d b0f4 49bd 8285 51bd a45c 803c
00000230: 4911 9ebd 7b37 92bd c08b 9cbd 8eaf 223d
00000240: 6800 2f3d 3678 4cbd e503 0c3d 26f9 aebd
00000250: 53f5 3f3c 2b70 febd 8d67 c43d 331e a5bc
00000260: 753b 31bd 71b6 153d 3534 60bd ba70 773d
00000270: d0d4 94bc 8739 183d 66db 3c3d 98fe 153c
00000280: a96f 2dbd ec05 6cbb 2c19 a0bd a35a 28bd
00000290: 4abb 9cbd 6d15 6fbd 76e1 a3bd 1964 b3bd
000002a0: 63fd 9bbd 2e72 c7bd 2037 cebc a770 0e3d
000002b0: 6f56 cb3d be9e 993d ee71 d5bc ec76 9b38
000002c0: bc18 8cbd c797 de3c 1a28 f6bb 95b1 753d
000002d0: 10c0 58bd 5ff1 883c 8ade ebbc af09 abbc
000002e0: 47b7 513c 4446 e83c d973 763c 21b5 5ebd
000002f0: 9e25 a6bd c3ec 0b3d 918e 25bd d052 d13c
00000300: 3546 823d 0d80 9dbd 18c7 67bd 8cd2 0e3c
00000310: 9a45 12bd 2146 4ebc 1c6c 4a3d 763f d03c
00000320: e257 b93d 63ba 91bd 3b7b b5bd 464e e8bd
00000330: 24a4 4fbc ef2e acbd 8815 61bb 6ba0 313d
00000340: 4c99 da3c cf0e 063c ca58 afbd 0643 80bc
00000350: b40a 71bd 808a bebd 1e29 82bd a667 8ebd
00000360: 6aa6 a7bd c7ac babc 66c6 c2bd eae5 ab3d
00000370: b8c0 e3bb 2127 8c3c 4e5f 33bc 9ff4 843d
00000380: 8c33 363d 1644 be3c a735 a0bb fd88 d63c
00000390: c374 72bc 268d 983c ba36 8fbc 119a cf3c
000003a0: 8bac 6c3b 444d 02be cf7f 77bd 2f9b c03c
000003b0: b077 dc3c 3257 e6bd 15b1 453c 4587 a9bc
000003c0: ee53 85bc 1e60 d1bc 8815 92bd 7eb5 483d
000003d0: e526 803c 8dd0 803d c12f 863d 1676 30bd
000003e0: e650 cabc e96e b5bd 96da 2d3c e298 34bd
000003f0: 6618 553c 77b3 b4bd 63d4 e43c c26b 3b3d

block2.conv1.bias f4 [64]
-0.004087401 0.0211933 0.06771049 0.02921349 0.021496959 0.05961601 -0.040398765 -0.121145025
-0.0066526085 -0.06799139 -0.025585493 0.06379712 0.04277325 -0.03511299 0.057434972 -0.049133524
-0.055359066 0.029168954 -0.040559523 -0.062891394 0.014288133 0.06773037 -0.03058264 0.014027896
-0.029006865 0.055364683 0.027265012 0.06256495 -0.031960927 -0.05914446 -0.03846267 -0.01482472
0.009423022 -0.06073367 -0.0153862955 0.060593065 0.051484954 0.050812125 0.055220667 0.01393992
0.01672276 0.060612813 0.045938555 -0.049678 -0.0796824 -0.044342645 -0.030870613 0.010137755
0.09396304 -0.02535658 0.044776615 -0.05542377 0.044084124 0.029549384 -0.046656284 0.008518059
0.045985315 -0.08246645 0.07297978 -0.06866897 0.049536053 0.015575665 -0.0119966585 0.03819946
00000000: 9bef 85bb 929d ad3c ccab 8a3d 2151 ef3c
00000010: 641a b03c eb2f 743d 2d79 25bd e21a f8bd
00000020: 20fe d9bb 123f 8bbd ab98 d1bc 10a8 823d
00000030: 0133 2f3d a3d2 0fbd ef40 6b3d 3c40 49bd
00000040: 30c0 62bd bbf3 ee3c be21 26bd 34cd 80bd
00000050: c618 6a3c 38b6 8a3d 7288 fabc 43d5 653c
00000060: ce9f edbc 14c6 623d e05a df3c 0d22 803d
00000070: 76e9 02bd 7641 72bd 088b 1dbd 62e3 72bc
00000080: 0563 1a3c dec3 78bd cd16 7cbc 6f30 783d
00000090: e3e1 523d 6020 503d 112f 623d 4364 643c
000000a0: 2bfe 883c 2445 783d 112a 3c3d 297b 4bbd
000000b0: 8730 a3bd a2a0 35bd 5ee4 fcbc d418 263c
000000c0: b26f c03d 9ab8 cfbc af67 373d 0904 63bd
000000d0: 8e91 343d 8d11 f23c a91a 3fbd 548f 0b3c
000000e0: 195b 3c3d 2ce4 a8bd 6c76 953d 51a2 8cbd
000000f0: 51e6 4a3d 1331 7f3c a28d 44bc 0977 1c3d
