ecg_afib_detection/checkpoints/mit-bih/500hz/cnn1d/fold_5/best.pt (torch, 617397 bytes, 22 tensors)

features.0.conv.weight f4 [32, 2, 7]
0	0x3d89babf	0.06725072
1	0x3f5f8fba	0.87328684
2	0x3ee3adc2	0.44468504
3	0xbe271b81	-0.16319086
4	0x3eadc985	0.3394281
5	0xbd2ebad5	-0.042658646
6	0xbe651b29	-0.22373642
7	0xbee58025	-0.4482433
8	0xbe043ad7	-0.1291307
9	0xbe7daad9	-0.24772204
10	0x3dd38f17	0.103300266
11	0xbdf051e9	-0.11734373
12	0x3d1b4a10	0.03791243
13	0xbece8a4a	-0.4033988
14	0x3c514891	0.012773649
15	0x3e344204	0.17603308
16	0x3cfabaf0	0.030606717
17	0x3e9cd5d1	0.3063188
18	0xbe4059e7	-0.18784295
19	0x3e931c5b	0.2873257
20	0xbb1152dd	-0.0022174635
21	0x3ec12485	0.37723175
22	0xbea91cc9	-0.33029774
23	0x3ec80d7b	0.39072785
24	0x3cb09f12	0.021560226
25	0x3d76cd09	0.06025413
26	0x3d0779ec	0.033075258
27	0xbf3d45ed	-0.73934823
28	0xbe8db027	-0.27673456
29	0x3e488872	0.195833
30	0xbf133677	-0.5750498
31	0x3eb231e6	0.34803694
32	0xbedc3989	-0.43012646
33	0x3ecdc885	0.40192047
34	0x3eacf279	0.33778742
35	0x3dafcd23	0.085840486
36	0xbf07bc00	-0.5302124
37	0xbe9db468	-0.30801702
38	0x3e9210b9	0.28528383
39	0x3e219b89	0.15781988
40	0x3e86cc95	0.2632796
41	0x3d5ec953	0.054391216
42	0xbeb5dbfa	-0.3551939
43	0xbe8cd71b	-0.27507862
44	0x3e17e965	0.14835127
45	0x3e14b611	0.14522578
46	0xbf94e3ca	-1.1632016
47	0x3ec3f85d	0.38275424
48	0x3c982841	0.018573882
49	0xbe9b0f7e	-0.30285257
50	0xbd6c1181	-0.05763388
51	0x3cab7085	0.020927677
52	0x3f08f833	0.5350372
53	0x3e7d82a6	0.2475687
54	0x3eb3964c	0.35075605
55	0xbe35d727	-0.17757855
56	0x3f07a2a5	0.5298255
57	0xbbf414dc	-0.0074487757
58	0xbf394f82	-0.72386944
59	0x3ecb3648	0.3968985
60	0x3e80b4ce	0.25137943
61	0xbee35a42	-0.444048
62	0x3e9f90b8	0.311651
63	0xbd833e55	-0.06408373
64	0x3f67413f	0.9033393
65	0xbeb9589e	-0.36200422
66	0x3e900410	0.281281
67	0xbd11966a	-0.035543837
68	0x3e26bb3b	0.1628236
69	0x3e589b47	0.21152984
70	0xbeb09f01	-0.3449631
71	0x3f4434de	0.7664317
72	0x3db0e493	0.08637347
73	0x3cfbfafa	0.030759323
74	0xbe2f1f32	-0.17101744
75	0xbe3b32bb	-0.18281071
76	0x3e85c938	0.2613008
77	0x3e46373e	0.1935701
78	0xb7ceaef8	-2.463859e-05
79	0x3e902456	0.28152722
80	0xbea0017c	-0.31251132
81	0x3e1261fc	0.1429519
82	0xbef906bb	-0.48637947
83	0x3f8c3f03	1.095673
84	0x3ec9b72d	0.39397565
85	0x3ebde788	0.37090707
86	0x3f083f27	0.5322136
87	0xbd84bc8f	-0.06481277
88	0x3cb97010	0.022636443
89	0xbf051197	-0.51979965
90	0xbe9d7467	-0.3075287
91	0x3dd783de	0.105231985
92	0x3ee47116	0.44617528
93	0xbdb83745	-0.08994917
94	0x3ead4b3a	0.33846456
95	0x3f0a8ea1	0.54123884
96	0xbe036495	-0.12831338
97	0xbe95c8d5	-0.29254785
98	0xbee56e9d	-0.44810954
99	0x3cc71a95	0.024304667
100	0x3eeef2df	0.4666967
101	0x3d906690	0.07050812
102	0xbe9cbb62	-0.30611712
103	0x3e4d6c68	0.20060885
104	0x3e3bf887	0.18356524
105	0x3db1f54f	0.08689367
106	0xbee8a733	-0.45440063
107	0x3ef274a2	0.4735461
108	0xbe06201f	-0.1309819
109	0xbf141d01	-0.57856756
110	0x3f14a559	0.580648
111	0x3e032474	0.12806875
112	0xbd0a312a	-0.033738293
113	0xbe2b3a38	-0.16721427
114	0x3efba484	0.49148953
115	0xbee68db3	-0.45029983
116	0xbde53078	-0.11190885
117	0x3ca5504e	0.020179894
118	0xbdfde671	-0.12397469
119	0x3eae6dc0	0.34068108
120	0xbee3fcfe	-0.44528955
121	0x3ef90bb6	0.48641747
122	0x3e83202b	0.2561048
123	0xbb19f827	-0.0023493858
124	0x3f0f1b56	0.55901086
125	0x3f497cad	0.78705865
126	0xbf83f45b	-1.0308946
127	0x3d238bcd	0.039928246
128	0x3f0f7213	0.5603344
129	0x3eb18b7d	0.34676734
130	0x3c9bf7d3	0.01903907
131	0xbd941808	-0.07231146
132	0xbecc083c	-0.39850032
133	0x3eabb625	0.33537403
134	0xbec1f1e4	-0.3787986
135	0x3ed38d39	0.41318682
136	0xbe06697f	-0.13126181
137	0x3db2cbbc	0.087302655
138	0xbf03ac73	-0.5143501
139	0x3dde4fbf	0.10855054
140	0x3f1f8c2b	0.62323254
141	0xbebd826d	-0.3701357
142	0xbdb5dda4	-0.08880165
143	0x3d90d457	0.070717506
144	0x3e9a2516	0.3010642
145	0xbe86a745	-0.26299492
146	0x3f37bc52	0.7177173
147	0xbe60b974	-0.21945745
148	0xbf1de1ad	-0.6167248
149	0xbe34f506	-0.17671594
150	0x3ed8cba7	0.42342874
151	0xbeab29bb	-0.33430275
152	0x3e287787	0.16451846
153	0xbe7b523e	-0.24543092
154	0x3e20f7a0	0.15719461
155	0xbf1390f2	-0.57643044
156	0xbed95337	-0.424463
157	0x3df98d46	0.12185149
158	0x3ed74f5a	0.42052728
159	0x3e4a6929	0.19766678
160	0xbe843767	-0.2582352
161	0xbee7e03c	-0.45288265
162	0x3e784440	0.24244785
163	0xbdef265a	-0.11677237
164	0x3e120165	0.14258344
165	0xbeceae0a	-0.40367156
166	0x3f1b2095	0.6059659
167	0x3cfebc5d	0.031095678
168	0x3acf4aa6	0.0015815094
169	0x3e7a4e7e	0.24444005
170	0x3ef4c9d7	0.47810242
171	0xbe8967ef	-0.26837108
172	0xbf06a011	-0.5258799
173	0xbea568af	-0.3230643
174	0xbcf0a2f8	-0.029374585
175	0x3ebe5915	0.3717734
176	0xbea9b3c0	-0.3314495
177	0xbf506d1d	-0.81416494
178	0xba822bc2	-0.0009931254
179	0xbefa0bdd	-0.48837176
180	0x3eeeae6d	0.4661745
181	0xbec8bb3d	-0.3920535
182	0xbe03420d	-0.12818165
183	0xbdd8d90a	-0.10588272
184	0xbe81e86a	-0.2537263
185	0x3dde8e38	0.1086697
186	0xbf57017d	-0.83986646
187	0xbcd2f120	-0.025749743
188	0x3e22993d	0.15878768
189	0x3e8c3f92	0.2739225
190	0xbd3b74c0	-0.04576564
191	0xbe8a1bea	-0.26974422
192	0x3e9d2091	0.3068891
193	0xbf578d92	-0.84200394
194	0xbdb79aff	-0.0896511
195	0x3ee03900	0.43793488
196	0x3ca15477	0.019693596
197	0x3df80be2	0.121116415
198	0xbc922508	-0.017839924
199	0x3ed5bcb6	0.41745538
200	0xbedab2f0	-0.42714643
201	0xbe18021d	-0.14844556
202	0xbe423651	-0.18966033
203	0xbea68baa	-0.3252843
204	0xbe6e8f60	-0.2329688
205	0xbf1fe339	-0.6245609
206	0xbe253f02	-0.16137317
207	0xbed0f44d	-0.40811387
208	0x3e429168	0.1900078
209	0xbe0f681f	-0.14004563
210	0x3df301d7	0.11865585
211	0x3e347595	0.17622979
212	0xbed1db8d	-0.40987816
213	0xbf0fc7a7	-0.5616402
214	0x3d95b0e9	0.073091336
215	0xbea7c2c3	-0.3276578
216	0xbdd4867a	-0.10377212
217	0x3e54c7c7	0.20779334
218	0xbe91c4a6	-0.28470343
219	0xbd0fb9eb	-0.035089415
220	0xbececdf0	-0.40391493
221	0x3eb7f7b1	0.3593116
222	0xbe66131b	-0.22468226
223	0xbecec36c	-0.4038347
224	0x3dbe9e40	0.093075275
225	0xbefbac19	-0.49154738
226	0x3daa62e7	0.083196454
227	0x3ddfbfde	0.10925268
228	0x3f5ffeae	0.87497985
229	0x3dc3cf9e	0.09561084
230	0x3e016e39	0.12639703
231	0xbee014e7	-0.43765947
232	0xbe32519e	-0.17413947
233	0x3e314bd0	0.17314076
234	0xbe850f0f	-0.2598805
235	0xbe80ab94	-0.25130904
236	0x3e63fa89	0.2226354
237	0x3f13d638	0.57748747
238	0x3e9ae8b4	0.30255663
239	0x3f03bc07	0.5145878
240	0xbf7235e9	-0.9461351
241	0x3dd81102	0.10550119
242	0x3ea0e5a2	0.31425196
243	0x3e7aa171	0.24475648
244	0xbed4a9fe	-0.41535944
245	0xbf4a2c18	-0.7897353
246	0xbda4e2ae	-0.08051048
247	0x3e837801	0.25677493
248	0xbd70bf92	-0.058776446
249	0x3e942a70	0.28938627
250	0xbf0ae17e	-0.54250324
251	0xbddd94c4	-0.108193904
252	0xbe5352eb	-0.206371
253	0xbda078ce	-0.07835542
254	0xbe6033d2	-0.21894768
255	0x3f1c6f4e	0.6110734

features.0.bn.weight f4 [32]
0	0x3f7dd0a2	0.99146473
1	0x3f80aaf6	1.0052173
2	0x3f901f59	1.1259567
3	0x3f725b55	0.9467061
4	0x3f800aa9	1.0003253
5	0x3f7a886b	0.9786441
6	0x3f8547e2	1.0412562
7	0x3f7aa0f7	0.9790186
8	0x3f723a80	0.94620514
9	0x3f7fc293	0.9990627
10	0x3f82b8cb	1.0212644
11	0x3f818c1c	1.0120883
12	0x3f7fd323	0.99931544
13	0x3f73ef68	0.9528718
14	0x3f7a570b	0.9778907
15	0x3f758e27	0.9592003
16	0x3f82c547	1.0216454
17	0x3f774217	0.9658522
18	0x3f7b9425	0.98272926
19	0x3f7478e4	0.95496964
20	0x3f82c4db	1.0216326
21	0x3f828d1a	1.0199311
22	0x3f810e68	1.0082521
23	0x3f81384c	1.0095305
24	0x3f775b75	0.9662393
25	0x3f7905ef	0.9727468
26	0x3f7c537b	0.9856488
27	0x3f78e46d	0.9722355
28	0x3f7bd20a	0.9836737
29	0x3f831199	1.0239745
30	0x3f7f154a	0.9964186
31	0x3f85d041	1.0454179

features.0.bn.bias f4 [32]
0	0xbd1c265b	-0.038122516
1	0x3d5f3d5f	0.054501887
2	0x3ddfb654	0.10923448
3	0x3ccb6870	0.024830073
4	0x3c9b964c	0.018992566
5	0x3bc04c87	0.005868498
6	0x3d61ad06	0.05509665
7	0x3cc03c14	0.023466147
8	0xbdbe39c4	-0.09288362
9	0x3d412c98	0.04716167
10	0x3d0b507f	0.034012314
11	0x3d8dfb78	0.069327295
12	0xbcf4da19	-0.029889153
13	0x3c30ea57	0.0107980585
14	0xbc0e1119	-0.008671069
15	0xbccc0ca2	-0.024908368
16	0x3d44155d	0.047871936
17	0xbb1a13ee	-0.0023510414
18	0xbd1d8bcb	-0.038463395
19	0xbd5eb88d	-0.05437522
20	0xbcf2581e	-0.029583033
21	0x3d3063e1	0.043064002
22	0xbb8d7f23	-0.0043181344
23	0x3d627398	0.05528602
24	0xbd385394	-0.04500158
25	0xb9bea9b4	-0.00036366063
26	0x3c8e9b73	0.017408108
27	0xbd062796	-0.032752596
28	0x39e1fa1e	0.00043101696
29	0x3d5ea22c	0.054353878
30	0x3c8b8cd7	0.017034931
31	0x3d24d27e	0.040239803

features.0.bn.running_mean f4 [32]
0	0xbbcdff6f	-0.0062865536
1	0x389a1aac	7.34826e-05
2	0x38f0af2e	0.000114767216
3	0x3b0932b7	0.002093477
4	0x3c1e3298	0.009655617
5	0x3c0bc7db	0.008531536
6	0x3c0bb70c	0.0085275285
7	0x3aae87a1	0.0013315567
8	0x3c75a62a	0.01499323
9	0xbb06ab4c	-0.0020548878
10	0xbbb11771	-0.0054044058
11	0xba06fb58	-0.00051491475
12	0xbc2ed28c	-0.0106703155
13	0xbb9ad0b0	-0.0047245845
14	0xbc69dae6	-0.014273381
15	0xbc13cedc	-0.009021487
16	0x3aa2fea6	0.001243551
17	0xbc033c08	-0.008009918
18	0xba1209b0	-0.00055709016
19	0xbb88465f	-0.0041587795
20	0x3c16b96a	0.00919948
21	0x39b635af	0.00034753743
22	0xbc177e43	-0.009246412
23	0xbac0d3de	-0.0014711579
24	0xbbfe92cb	-0.007768964
25	0x3917b2ce	0.00014467092
26	0x3b891fc5	0.0041846954
27	0xbc468af4	-0.01211809
28	0xbb5a4cc2	-0.0033309911
29	0x3a3ef7f3	0.0007284872
30	0x3c06dae8	0.008230902
31	0x398a0dcd	0.00026331694

features.0.bn.running_var f4 [32]
0	0x40222acc	2.533862
1	0x3f0cc4dd	0.5498789
2	0x3e54d36c	0.20783776
3	0x3fb1fd8c	1.3905501
4	0x3fad2313	1.3526329
5	0x3f885a1f	1.0652503
6	0x3fbbd16e	1.4673288
7	0x3ddc4b4b	0.107565485
8	0x4072582f	3.7866323
9	0x3e7df03b	0.24798672
10	0x3fabf48b	1.3434004
11	0x3e74f877	0.23922907
12	0x40042a42	2.0650792
13	0x3f9cbd2a	1.2245228
14	0x40530bfa	3.297606
15	0x3ff45b7d	1.909042
16	0x3f56320e	0.8367013
17	0x3f86a8cc	1.0520263
18	0x3f80ffc4	1.0078053
19	0x40ab1fec	5.3476467
20	0x3fbbf311	1.4683553
21	0x3eb0d166	0.34534758
22	0x3fa350ab	1.2758993
23	0x3eb9e4e0	0.3630743
24	0x3f8f1dcd	1.118097
25	0x3f56e8dd	0.8394907
26	0x4008f11f	2.1397169
27	0x4027fdd0	2.6248665
28	0x3eb722d2	0.35768753
29	0x3d05ba19	0.03264818
30	0x40330373	2.7970855
31	0x3ec07115	0.37586275

features.1.conv.weight f4 [64, 32, 5]
0	0xbe880f7f	-0.26574323
1	0xbdcf07b6	-0.101088926
2	0xbd2bb293	-0.04191835
3	0xbe3051fa	-0.17218772
4	0xbe065211	-0.13117243
5	0xbdbbc7af	-0.09168946
6	0xbd5bf8eb	-0.053704184
7	0xbe8b0fc2	-0.2716046
8	0xbdfe4b7b	-0.124167405
9	0xbe1e63e8	-0.15467799
10	0xbe09a29d	-0.13440938
11	0xbd26308d	-0.040573645
12	0xbe9b4ece	-0.3033356
13	0xbd6ba35a	-0.05752883
14	0x3e1baddb	0.1520304
15	0x3e156487	0.1458913
16	0xbd341b17	-0.043971147
17	0x3e2bf614	0.1679309
18	0xbe5b6451	-0.21424986
19	0x3d48b22d	0.048998047
20	0x3dcd0c58	0.1001212
21	0x3cb6fc52	0.022337113
22	0x3ca6a9b2	0.020344589
23	0x3db38244	0.087650806
24	0x3e00d985	0.12582977
25	0xbc89bebb	-0.01681458
26	0x3da61806	0.08110051
27	0x3d2743d8	0.040836185
28	0xbe1c3bad	-0.1525714
29	0x3d51fb66	0.051265143
30	0x3ce0afb1	0.027427526
31	0x3dc11c5a	0.09429236
32	0x3e23a7cb	0.15981977
33	0xbc3da34f	-0.01157458
34	0xbd8107f1	-0.06300343
35	0x3c2b5b3d	0.010458765
36	0xbd8cd077	-0.06875699
37	0xbe7809bd	-0.24222465
38	0x3d97e8a2	0.07417418
39	0x3e17b38d	0.14814587
40	0x3c15ad2b	0.009135525
41	0x3df4198b	0.119189344
42	0xbcec840f	-0.028871564
43	0x3daf3e85	0.085568465
44	0xbd7203b9	-0.05908558
45	0x3db0946d	0.0862206
46	0xbccf4e77	-0.02530597
47	0x3dc5e78c	0.09663305
48	0xbd2ecf1f	-0.042677995
49	0xbe10350d	-0.14082737
50	0xbd10d5cb	-0.03536014
51	0x3c6a4689	0.014299043
52	0xbe1fcf5c	-0.15606445
53	0xbe22c39d	-0.15894933
54	0xbe47548b	-0.19465844
55	0x3d8dbb8b	0.069205366
56	0xbe8632b8	-0.2621057
57	0xbb338757	-0.0027393901
58	0x3dd03c7d	0.10167787
59	0x3b26b398	0.0025436636
60	0x3cae8024	0.021301337
61	0x3d96e12b	0.07367166
62	0x3de2dc38	0.1107716
63	0x3c315811	0.010824219
64	0xbd2e4090	-0.04254204
65	0xbd0610b7	-0.032730784
66	0x3db3c757	0.087782554
67	0x3bcec3fe	0.006309985
68	0xbdee6a80	-0.11641407
69	0xbdab9d9d	-0.08379672
70	0x3cd5b3b3	0.026086664
71	0x3d79d00b	0.06098942
72	0x3dc4363b	0.09580656
73	0x3e17afcc	0.14813155
74	0xbbb1be51	-0.005424299
75	0x3e65e97e	0.22452351
76	0xbe0d2379	-0.13783063
77	0xbd89ca0f	-0.06727993
78	0x3c99190c	0.018688701
79	0x3ddd78fd	0.10814092
80	0xbe06108b	-0.13092248
81	0xbded1608	-0.11576468
82	0xbe4b87a9	-0.19875969
83	0x3de12dd5	0.1099507
84	0xbd590394	-0.052981928
85	0x3caa8ca0	0.020819008
86	0xbd66ee03	-0.05637933
87	0x3c13cd71	0.009021149
88	0xbdb18976	-0.08668797
89	0xbdc28f69	-0.095000096
90	0x3ae3a141	0.0017366783
91	0xbe021551	-0.12703444
92	0xbe08c46f	-0.13356183
93	0xbd883b6a	-0.06651957
94	0x3ddef97a	0.10887428
95	0x3da63db3	0.08117237
96	0x3d8ea58e	0.06965171
97	0xbcbcc360	-0.02304238
98	0x3dc9237c	0.09821221
99	0xbe08f52e	-0.13374779
100	0xbd4ef5a1	-0.05052722
101	0x3cbd69d2	0.023121748
102	0xbd8fcd24	-0.07021549
103	0x3bf66435	0.00751927
104	0x3e37722c	0.17914647
105	0xbd9b8ba6	-0.07594995
106	0x3de34aa9	0.11098225
107	0xbdcbe432	-0.09955634
108	0xbc728d9f	-0.014804273
109	0xbdab8f60	-0.08376956
110	0x3af0cffa	0.0018372529
111	0xbd7120bb	-0.058869105
112	0xbde9f525	-0.11423711
113	0x3d87ff68	0.06640512
114	0xbcb58a12	-0.022160564
115	0x3de376ba	0.1110663
116	0xbe0ee1a1	-0.13953258
117	0xbd301e89	-0.04299787
118	0xbd939dd7	-0.0720784
119	0x3c75424b	0.014969419
120	0xbe0ee2cb	-0.13953702
121	0xbe7336b5	-0.23751338
122	0xbdb9cf63	-0.09072759
123	0x3e1cf060	0.15326071
124	0x3d04cbcf	0.03242093
125	0xbd42f55b	-0.04759727
126	0xbdbe0a80	-0.092793465
127	0xbe442908	-0.19156277
128	0xbe2899b5	-0.16464885
129	0x3d3575ee	0.04430192
130	0xbe79d1eb	-0.24396484
131	0x3d59f488	0.05321172
132	0x3e9718c6	0.29511088
133	0xbd89b34a	-0.0672365
134	0xbca2a6ce	-0.01985493
135	0x3de90c68	0.113793194
136	0x3d705f39	0.05868456
137	0xb6c08868	-5.7379257e-06
138	0xbd915187	-0.07095628
139	0xbd5e8a9d	-0.05433141
140	0x3e369ee5	0.17834051
141	0xbe2c3c39	-0.16819848
142	0x3d508022	0.050903447
143	0x3d446881	0.047951225
144	0xbe890982	-0.26765066
145	0xbe3bfab6	-0.18357357
146	0x3d2e972f	0.04262465
147	0xbe47e6f1	-0.19521691
148	0xbe11f69e	-0.14254233
149	0xbe481af0	-0.19541526
150	0x3e3be1cb	0.18347852
151	0x3caf3846	0.021389138
152	0xbbacaced	-0.005269638
153	0xbced74d1	-0.028986366
154	0x3d9e8ef2	0.077421084
155	0xbda405ee	-0.080089435
156	0xbdc76ae2	-0.09737183
157	0x3dc34f85	0.095366515
158	0x3d94da4a	0.07268198
159	0xbdb490f3	-0.08816709
160	0xbd8b7359	-0.0680911
161	0xbe740de7	-0.23833428
162	0xbcbe068c	-0.023196481
163	0xbd9ddbd5	-0.07707945
164	0x3e0267c4	0.12734896
165	0xbc823991	-0.01589659
166	0x3ca31ad8	0.019910261
167	0xba0bf56f	-0.00053390017
168	0x3e498c79	0.19682492
169	0x3e016892	0.12637547
170	0x3d51d916	0.05123242
171	0xbd725d6c	-0.059171125
172	0xbcc5924f	-0.024117617
173	0xbd23336e	-0.03984397
174	0xbe0515c7	-0.12996589
175	0x3e0f2f07	0.13982783
176	0xbe2a5b2c	-0.16636342
177	0x3e47d6db	0.19515555
178	0x3de0fc3b	0.10985609
179	0x3e1debcf	0.15421985
180	0x3e45220b	0.19251268
181	0x3e344419	0.17604102
182	0x3d330b2b	0.043711822
183	0xbdb3e174	-0.08783236
184	0x3dcfe32a	0.1015075
185	0x3dc8feba	0.0981421
186	0xbded99a9	-0.11601574
187	0x3e448816	0.19192538
188	0xbcf7df2d	-0.030257786
189	0xbdf516da	-0.11967249
190	0xbe380be3	-0.17973284
191	0x3cc86364	0.024461456
192	0x3dc63b95	0.09679333
193	0xbd6ef412	-0.058338232
194	0x3d80ec41	0.06295062
195	0x3dba16cd	0.0908638
196	0xbd0b772c	-0.034049198
197	0xbcb98529	-0.022646504
198	0xbd2a58e2	-0.04158867
199	0xbd34c601	-0.044134144
200	0xbc58ed9d	-0.013240245
201	0x3d5d9193	0.05409391
202	0x3e0360f2	0.1282995
203	0x3e11e8d2	0.1424897
204	0xbcfee5a2	-0.031115357
205	0x3e35af8d	0.17742749
206	0xbe0ba36d	-0.1363656
207	0x3d84cd74	0.064844996
208	0x3e5c2c4b	0.21501271
209	0xbdecc483	-0.11560919
210	0xbd3bbeb7	-0.045836177
211	0xbd3805fa	-0.044927575
212	0xbd317f67	-0.04333439
213	0x3dcd16d6	0.10014121
214	0xbe1b3ac7	-0.1515914
215	0x3d7b3f13	0.06133945
216	0xbd301dba	-0.0429971
217	0xbdfbba04	-0.12291339
218	0xbc322f33	-0.010875511
219	0x3deafa3e	0.11473511
220	0xbe3041b7	-0.17212568
221	0x3cc30575	0.023806313
222	0xbdb01d8a	-0.08599384
223	0xbd35d7d6	-0.04439529
224	0xbe0249d8	-0.12723482
225	0xbda84823	-0.08216884
226	0x3c1e3705	0.009656672
227	0xbe149262	-0.14508966
228	0xbe5d11f6	-0.21588883
229	0x3e9085e0	0.2822714
230	0xbdc5431b	-0.0963194
231	0x3e4d2a2e	0.20035622
232	0xbd1bb98e	-0.038018756
233	0x3e50f3f8	0.20405567
234	0x3d5a99f9	0.053369496
235	0x3cd77007	0.026298536
236	0x3e51640c	0.20448321
237	0xbdd27a14	-0.10277191
238	0xbd7edbb4	-0.062221244
239	0x3babc529	0.005242009
240	0xbd26b902	-0.04070378
241	0xbdb0e4e0	-0.086374044
242	0xbdce1abe	-0.100636944
243	0xbee00eb9	-0.43761232
244	0x3d85d0b7	0.0653395
245	0x3cd34fc5	0.025794873
246	0xbdea7197	-0.11447447
247	0x3de5c841	0.11219836
248	0xbdae054c	-0.08497104
249	0xbd8b8f48	-0.06814438
250	0x3e85c0cb	0.26123652
251	0xbcb0872a	-0.021548826
252	0x3d525645	0.051351804
253	0x3c57ad9d	0.013163951
254	0xbd3e9603	-0.04652978
255	0x3d111a0e	0.03542524

features.1.bn.weight f4 [64]
0	0x3f8200d0	1.0156498
1	0x3f80d155	1.0063883
2	0x3f8566c6	1.0421989
3	0x3f81263d	1.0089794
4	0x3f7c622f	0.98587316
5	0x3f87e270	1.0615978
6	0x3f777543	0.966633
7	0x3f7e2d63	0.99288005
8	0x3f7e9963	0.994528
9	0x3f84bbe1	1.0369836
10	0x3f80f631	1.0075132
11	0x3f827dfe	1.01947
12	0x3f7b7cd5	0.98237354
13	0x3f7bcac6	0.9835628
14	0x3f83a583	1.0284885
15	0x3f747e4a	0.955052
16	0x3f848329	1.0352527
17	0x3f8114bb	1.0084451
18	0x3f75bdb0	0.95992565
19	0x3f839669	1.0280277
20	0x3f81d333	1.0142578
21	0x3f76e9bd	0.96450406
22	0x3f75a7dc	0.9595926
23	0x3f7f61f3	0.99758834
24	0x3f85cff9	1.0454093
25	0x3f7d06a7	0.98838276
26	0x3f807d73	1.0038284
27	0x3f74976e	0.95543563
28	0x3f82e4a6	1.0226028
29	0x3f7fe06e	0.9995183
30	0x3f75e43c	0.96051383
31	0x3f7d9594	0.99056363
32	0x3f83868a	1.0275433
33	0x3f7c9fa8	0.98681116
34	0x3f7bf29a	0.98417056
35	0x3f792aee	0.9733113
36	0x3f8393cf	1.0279483
37	0x3f85e40f	1.0460223
38	0x3f85ddba	1.045829
39	0x3f7af009	0.98022515
40	0x3f824449	1.0177089
41	0x3f7e1db3	0.9926407
42	0x3f82fde1	1.0233728
43	0x3f6de1a6	0.9292244
44	0x3f7e3492	0.99298966
45	0x3f7d9404	0.9905398
46	0x3f70e101	0.9409333
47	0x3f7f8490	0.9981165
48	0x3f7e68a4	0.9937842
49	0x3f800cec	1.0003943
50	0x3f7e7e88	0.9941182
51	0x3f881e72	1.0634291
52	0x3f83e931	1.0305539
53	0x3f822618	1.0167875
54	0x3f7f4e9c	0.99729323
55	0x3f7daf0a	0.99095213
56	0x3f81edca	1.0150692
57	0x3f805a2f	1.0027522
58	0x3f7cb70a	0.98716795
59	0x3f7cf64d	0.98813325
60	0x3f7102c4	0.94144845
61	0x3f7a9c6d	0.97894937
62	0x3f85456c	1.0411811
63	0x3f7c7538	0.9861636

features.1.bn.bias f4 [64]
0	0xb904eadd	-0.00012675994
1	0xbcfcfd05	-0.030882368
2	0xbd045661	-0.03230894
3	0xbdc8ca22	-0.09804179
4	0xbcf9c4c2	-0.03048933
5	0x3c466071	0.012107954
6	0xbe033e4c	-0.12816733
7	0xbcf2eb2a	-0.02965315
8	0xbdad50c8	-0.084626734
9	0x3b16a864	0.0022988552
10	0xbc318ec9	-0.010837265
11	0x3a85dcff	0.0010212957
12	0xbda125a0	-0.078685045
13	0xbb8570c0	-0.0040722787
14	0x3c871424	0.016489096
15	0xbd0c3724	-0.034232274
16	0xbba133e0	-0.004919514
17	0xbba15372	-0.0049232775
18	0xbd1c8038	-0.038208216
19	0xbce24035	-0.027618507
20	0xbbfd95f0	-0.007738821
21	0xbd2574b2	-0.040394492
22	0xbd36b531	-0.04460639
23	0xbc86c528	-0.016451433
24	0x3cb42632	0.02199087
25	0xbc0756c0	-0.008260429
26	0x3c3026c3	0.010751429
27	0xbc309f4c	-0.010780167
28	0x3bae015d	0.005310221
29	0xbd8b7dfc	-0.06811139
30	0xbd48c6eb	-0.049017828
31	0xbd8bef29	-0.068327256
32	0x3c3adfb1	0.011405871
33	0xbce7c11b	-0.028290322
34	0xbbbea894	-0.005818436
35	0xbd03b40f	-0.03215414
36	0x3d3d1254	0.046160057
37	0xbbd6cf7b	-0.0065554953
38	0x3aca5525	0.0015436752
39	0xbb706cef	-0.0036686023
40	0x3cca7def	0.024718253
41	0xbc40117d	-0.0117229195
42	0x3c58458d	0.013200176
43	0xbd88cb56	-0.06679408
44	0x3cff70cf	0.031181721
45	0xbcb5b97e	-0.022183176
46	0xbcb35413	-0.021890676
47	0xbdaef378	-0.08542532
48	0xbcd2677e	-0.025684115
49	0xbd562c0b	-0.052288096
50	0xbd18a983	-0.037271034
51	0x3bf1419a	0.0073625566
52	0x3cdd668c	0.027026437
53	0xbd9ea585	-0.07746414
54	0xbc6dd444	-0.01451594
55	0x3a14b9b2	0.0005673423
56	0x3c428a93	0.011873859
57	0xbb7d5e37	-0.0038660893
58	0xbaf86fe6	-0.0018954247
59	0xbccfe5a2	-0.025378052
60	0xbd86fd01	-0.065912254
61	0xbd4b415c	-0.04962288
62	0xbbf7aab5	-0.0075581917
63	0xbd7a1089	-0.061050925

features.1.bn.running_mean f4 [64]
0	0xbf857b47	-1.0428246
1	0xbdeb34dd	-0.11484692
2	0xbeab6209	-0.33473232
3	0x3e68ef07	0.22747432
4	0x3c1c650d	0.009545577
5	0xbf764103	-0.9619295
6	0x3f7b2ad5	0.9811223
7	0xbe812097	-0.25220177
8	0x3e65fbac	0.22459286
9	0xbf81bca4	-1.0135694
10	0xbf2975ae	-0.6619519
11	0xbe18c609	-0.14919294
12	0x3f2e20ed	0.6801899
13	0xbeb40440	-0.35159492
14	0xbef817ed	-0.48455754
15	0x3f0168dd	0.50550634
16	0xbef881ae	-0.48536438
17	0x3dd91c14	0.106010586
18	0x3d8924db	0.06696483
19	0xbe569e94	-0.2095893
20	0xbf599ec0	-0.8500786
21	0x3e8cd278	0.27504325
22	0x3eba7fe9	0.36425713
23	0xbe87134c	-0.2638191
24	0xbf7de617	-0.99179214
25	0x3f0362b0	0.5132246
26	0xbea2696b	-0.31721053
27	0xbeec2b8a	-0.46126968
28	0xbeca32e1	-0.39491943
29	0x3f5caa26	0.86197126
30	0xbe15caf2	-0.14628199
31	0xbe43ddb4	-0.19127542
32	0xbf5ce0fd	-0.86280805
33	0xbd340950	-0.043954194
34	0xbebc05de	-0.36723226
35	0xbf076b94	-0.52898526
36	0xbea61f76	-0.32445878
37	0xbeb0fea5	-0.34569278
38	0xbf3f40fa	-0.7470852
39	0xbf82687c	-1.0188136
40	0xbf0694b9	-0.5257068
41	0x3ec22bfc	0.37924182
42	0xbf7d1977	-0.9886698
43	0xbf3d3cb9	-0.7392078
44	0xbf05208f	-0.52002805
45	0xbec08106	-0.37598437
46	0x3f2efdae	0.68355834
47	0x3e19efe6	0.1503292
48	0xbf55d6ab	-0.8353068
49	0x3f237d52	0.638631
50	0xbf49fa24	-0.7889731
51	0xbeb765d0	-0.35819864
52	0xbf6585c0	-0.8965721
53	0x3f048339	0.5176273
54	0xbe5600ae	-0.20898697
55	0xbf599a0d	-0.8500069
56	0xbfd3d6cf	-1.6549929
57	0xbf343fec	-0.7041004
58	0xbd9ca30f	-0.076482885
59	0x3edbc93f	0.42926976
60	0x3f530980	0.8243637
61	0xbd0c1fa2	-0.034209855
62	0xbf6ba4b3	-0.92048186
63	0x3eadab36	0.33919686

features.1.bn.running_var f4 [64]
0	0x40c351ec	6.10375
1	0x40128fa5	2.2900174
2	0x3f093caa	0.5360819
3	0x3ece5b74	0.40304148
4	0x3f818ded	1.0121437
5	0x4007a1d0	2.1192513
6	0x40629d4d	3.5408509
7	0x3f9c1ebf	1.2196883
8	0x3f67f9e1	0.9061566
9	0x40117f9e	2.2734141
10	0x3f4ea4cd	0.80720216
11	0x3f23060e	0.63681114
12	0x4006ffbd	2.109359
13	0x3ed93c27	0.42428705
14	0x3fd117e2	1.6335413
15	0x3fbb26ab	1.4621176
16	0x3f6c55f9	0.92318684
17	0x3e3fb517	0.18721424
18	0x3ed200ec	0.41016328
19	0x3f1dd43a	0.6165196
20	0x400b5cd0	2.1775398
21	0x3ec237e5	0.3793327
22	0x3f311feb	0.6918933
23	0x3f6c8e8d	0.92405015
24	0x40325fd1	2.7870982
25	0x3f8a5954	1.0808511
26	0x3f374e12	0.716035
27	0x3f8d089c	1.1018252
28	0x3f4ce143	0.8003122
29	0x400535ea	2.0814157
30	0x3f7dd5be	0.9915427
31	0x3f665ac4	0.8998225
32	0x3fe5eb9c	1.7962527
33	0x3f9f2a63	1.243481
34	0x3fe72bb3	1.8060211
35	0x3f9b1a1b	1.2117342
36	0x3f6fb831	0.9364043
37	0x3f3bd3ac	0.7336986
38	0x3fc0d63f	1.5065383
39	0x409979c1	4.7961125
40	0x3f7110b7	0.9416613
41	0x3f06bd4d	0.526326
42	0x400fd900	2.2476196
43	0x3fd5a139	1.6689826
44	0x3fb75f50	1.4325962
45	0x3f992924	1.196568
46	0x3fed1fa7	1.8525285
47	0x3fe6fbe6	1.8045623
48	0x3fb60912	1.4221518
49	0x401d2fae	2.4560351
50	0x3fb14376	1.3848712
51	0x3eeaed04	0.45883954
52	0x4003c2f9	2.0587752
53	0x3fad9586	1.3561256
54	0x3f55d13e	0.83522403
55	0x4051bd9b	3.2771976
56	0x40c662b7	6.19955
57	0x3f5fc6dc	0.8741281
58	0x3f425cfa	0.7592312
59	0x3eff1392	0.49819618
60	0x40174995	2.363866
61	0x3f09ce60	0.5383053
62	0x40282275	2.627103
63	0x3f487d2c	0.78316

features.2.conv.weight f4 [128, 64, 5]
0	0xbd0ccaeb	-0.034373205
1	0x3d3e72e4	0.046496287
2	0x3d70acc4	0.058758512
3	0xbc9d4938	-0.019199952
4	0xbc963c40	-0.018339276
5	0x3df69325	0.12039784
6	0xbdbd8da7	-0.09255534
7	0x3d196254	0.03744729
8	0x3dfe19a2	0.12407233
9	0x3d3e4869	0.046455774
10	0xbe160889	-0.14651693
11	0xbd8025d8	-0.06257218
12	0x3e53c33c	0.20679945
13	0x3d8b8cc0	0.06813955
14	0xbdc6e468	-0.09711534
15	0x3d36c9a8	0.044625908
16	0xbbe400a4	-0.006958084
17	0x3dc9e9f4	0.09859076
18	0xbd97f5e2	-0.07419945
19	0x3d9e5522	0.077310815
20	0x3d011a7a	0.03151939
21	0x3daf2755	0.08552424
22	0x3d2c8c90	0.04212624
23	0xbc87cad4	-0.016576208
24	0xbc73abc2	-0.014872493
25	0x3c154bbc	0.009112295
26	0x3e318407	0.1733552
27	0xbd9c15ea	-0.07621367
28	0xbd8a9dea	-0.06768401
29	0xbd023798	-0.0317913
30	0xbdcb6df6	-0.09933083
31	0x3e05f247	0.13080703
32	0xbd9c3bbd	-0.07628582
33	0x3e1a6164	0.15076214
34	0x3ddeda25	0.108814515
35	0x3ab0ec09	0.0013498078
36	0xbcd3c36b	-0.025850018
37	0x3caa4ef5	0.020789603
38	0x3da7c1f0	0.081912875
39	0x3cfa3331	0.030541988
40	0x3d049d47	0.032376554
41	0x3e0cdfce	0.1375725
42	0xbdd38983	-0.10328963
43	0x3c1dfbe9	0.00964258
44	0xbd9a7ee2	-0.07543732
45	0x3caaff92	0.020873819
46	0xbcf94ca1	-0.030432047
47	0xbde47def	-0.111568324
48	0xbcb0aec1	-0.021567704
49	0xbd0431bf	-0.032274004
50	0x3d549c79	0.051907036
51	0x3db38fb7	0.08767646
52	0x3d8fa902	0.070146576
53	0xbd9c1ed4	-0.076230675
54	0xbcc98546	-0.024599683
55	0xbadbbadb	-0.0016764061
56	0xbc9d9c55	-0.019239584
57	0x3cae187e	0.021251913
58	0xbd0af6fb	-0.033926945
59	0x3d91292a	0.070879295
60	0x3c218038	0.00985723
61	0xbddadc0d	-0.106865026
62	0x3db4a081	0.08819676
63	0xbd03f59f	-0.032216664
64	0x3da4938a	0.08035953
65	0xbdd932f5	-0.106054224
66	0x3d7df561	0.06200159
67	0x3e4acfc9	0.19805826
68	0x3d2566be	0.040381186
69	0x3d2f0115	0.04272564
70	0x3b030673	0.0019992858
71	0xbdeaaa78	-0.114582956
72	0xbd6dc442	-0.058048494
73	0x3d899aad	0.06718955
74	0x3d7d6505	0.061863918
75	0x3d2a33cf	0.041553315
76	0xbd254672	-0.040350385
77	0xbdf77a85	-0.120839156
78	0x3c48654d	0.012231183
79	0xbd46fb69	-0.048579607
80	0x3c939c79	0.018018948
81	0x3db252bc	0.087071866
82	0xbcda0f0a	-0.0266185
83	0xbe0f47a9	-0.1399218
84	0x3c9cdf70	0.019149512
85	0x3d95249a	0.07282372
86	0x3b1870ca	0.0023260587
87	0x3c72c2f7	0.014816991
88	0xbd435b0d	-0.047694255
89	0x3d9019c1	0.07036162
90	0xbdb0f481	-0.086403854
91	0xbc157f25	-0.009124552
92	0xbde6ef02	-0.11276056
93	0xbdf4e694	-0.11958042
94	0xbd0ce9b8	-0.03440258
95	0x3d454f7a	0.048171498
96	0xba173bbc	-0.0005769094
97	0xbdd0ecdd	-0.10201428
98	0x3d96ba0d	0.07359705
99	0xbddb136a	-0.10697062
100	0x3dbe7e6d	0.093014576
101	0x3cb5bfe6	0.02218623
102	0xbe1212e7	-0.14265023
103	0xbd98c344	-0.07459119
104	0x3c40afab	0.0117606325
105	0x3d471d56	0.04861196
106	0x3cd53df7	0.026030524
107	0x3dcd72cb	0.10031661
108	0xbe10ed52	-0.1415303
109	0xbc1b82cd	-0.009491635
110	0xbdaeab8e	-0.08528815
111	0x3ca21f18	0.019790217
112	0xbd8b4bc6	-0.06801562
113	0xbbd46910	-0.006482251
114	0x3e62ecb7	0.22160612
115	0x3dea9b40	0.11455393
116	0x3dc0d098	0.09414786
117	0xbd0e5f62	-0.034758933
118	0x3df74015	0.120727696
119	0xbe13debb	-0.14440434
120	0xbcb5ce85	-0.022193203
121	0xbdb2dd40	-0.08733606
122	0x3d0b54c2	0.03401638
123	0xbd57c22b	-0.052675407
124	0x3d818d2a	0.06325753
125	0x3d0b4ec4	0.034010664
126	0xbd9753cc	-0.0738903
127	0xbcea9209	-0.028634088
128	0xbdd528fb	-0.10408207
129	0x3d94b93a	0.07261892
130	0xbcdbdb67	-0.026838018
131	0xbd5fd909	-0.05465034
132	0xbd5198aa	-0.051170982
133	0x3d0093b7	0.03139087
134	0x3cbb95a1	0.022898497
135	0xbddef75d	-0.108870246
136	0xbbf2b797	-0.0074071395
137	0xbd8ba8a4	-0.06819275
138	0xbe87bc7f	-0.26511
139	0x3dbc512e	0.09195171
140	0xbc849cff	-0.016188143
141	0x3d830d9c	0.0639908
142	0xbc4eb829	-0.012617149
143	0x3dbdfc0b	0.09276589
144	0x3ce28918	0.027653262
145	0x3e155640	0.14583683
146	0x3e438cdd	0.19096704
147	0xbd209fc4	-0.039214864
148	0x3c9118db	0.017712047
149	0xbd45a7e3	-0.048255812
150	0x3da0e3d1	0.078559525
151	0xbd0a2348	-0.033725053
152	0x3d998d1f	0.0749762
153	0x3d4da925	0.050210137
154	0x3dc7cf41	0.097563274
155	0xbd79f8e6	-0.061028384
156	0xbc12e377	-0.008965365
157	0xbd9502c0	-0.07275915
158	0xbc5c2ead	-0.013438863
159	0xbda5fb63	-0.08104589
160	0x3d60be0c	0.054868743
161	0x3d226d88	0.03965524
162	0x3d2dee44	0.042463556
163	0xbd3d9952	-0.046288796
164	0xbd32ce50	-0.043653786
165	0x3c555277	0.013020149
166	0x3c261347	0.010136432
167	0x3d44bd4d	0.048032094
168	0x3d5fc542	0.05463148
169	0xbbfdb694	-0.0077427123
170	0xbce51dba	-0.027968276
171	0x3d1ce098	0.038300127
172	0xbd52fc32	-0.051510043
173	0xbd96ae5e	-0.07357477
174	0xbd901d97	-0.07036894
175	0xbdb69f42	-0.08917095
176	0x3d9a9ed2	0.07549824
177	0x3b8c620c	0.004284149
178	0xbd4e3b5a	-0.05034957
179	0xbde8243a	-0.11335035
180	0xbdbdd6f5	-0.092695154
181	0x3c38fdf6	0.011291018
182	0xbc7d81f8	-0.0154728815
183	0x3e13f51d	0.14448972
184	0x3c524911	0.012834803
185	0x3da7b564	0.081888944
186	0xbc3568c1	-0.011072339
187	0x3d8e9c5f	0.06963419
188	0x3d9cb170	0.07651031
189	0x3d5edaf8	0.054408044
190	0xbd6391fa	-0.055559136
191	0xbdcca5e2	-0.09992577
192	0xbc25a0b7	-0.010109118
193	0x3d512c60	0.05106771
194	0xbcbeaac3	-0.023274785
195	0x3b018d4a	0.0019768053
196	0x3d24f24d	0.04027014
197	0x3c9463c1	0.018113973
198	0x3dfdb68d	0.123883344
199	0xbdcbb607	-0.09946828
200	0xbd848bea	-0.06471999
201	0x3d08d751	0.033408467
202	0x3c82b13b	0.01595365
203	0x3e1f0fd4	0.15533382
204	0x3dd3c25b	0.10339805
205	0xbd353123	-0.044236314
206	0x3d498fe4	0.04920949
207	0xbc4dd48e	-0.012562884
208	0x3b05aeb2	0.0020398316
209	0x3d84a8cc	0.06477508
210	0xbdcaeaad	-0.09908042
211	0x3e0b924d	0.13630028
212	0x3b314c47	0.0027053521
213	0xbdf6faee	-0.1205958
214	0xbc31d311	-0.010853545
215	0xbc1c1d66	-0.0095284935
216	0x3dcf8cd7	0.10134285
217	0xbd8f52c4	-0.06998208
218	0x3e312ed2	0.17303017
219	0xbda09496	-0.078408405
220	0xbdd441ef	-0.10364138
221	0x3db7e175	0.089785494
222	0x3d0d05c9	0.034429345
223	0xbc1b9a57	-0.009497247
224	0x3ba98972	0.0051738555
225	0xbd9cdf66	-0.07659797
226	0xbdce8e8b	-0.10085782
227	0xbd82f91d	-0.06395171
228	0xbd73e817	-0.05954751
229	0x3c4ae9bd	0.012384829
230	0x3d3ec593	0.04657514
231	0x3d246837	0.04013845
232	0xbba8399b	-0.00513382
233	0x3d09a38b	0.033603232
234	0xbd9b463c	-0.075817555
235	0xbe0d2f19	-0.13787498
236	0xbc79bdf7	-0.015243045
237	0xbdb33637	-0.08750575
238	0xbdadcfcf	-0.08486902
239	0xbd1941c7	-0.037416246
240	0x3d973830	0.07383764
241	0x3bb88b89	0.0056318683
242	0xbe1e2169	-0.15442432
243	0xbde617b4	-0.1123499
244	0x3d3837d0	0.044975102
245	0xbd63b0ba	-0.05558846
246	0xbd0da6c2	-0.03458286
247	0xbce930d5	-0.028465668
248	0xbcf79d3c	-0.030226342
249	0xbdb5bca3	-0.0887387
250	0xbdb7976f	-0.089644305
251	0x3b8fe1b8	0.0043909214
252	0x3d1b6fe4	0.037948504
253	0x3ddc3708	0.10752684
254	0xbb856cb6	-0.0040717972
255	0xbe3bf0ae	-0.18353531

features.2.bn.weight f4 [128]
0	0x3f7ef2ce	0.9958924
1	0x3f83700e	1.0268571
2	0x3f7e6de4	0.9938643
3	0x3f7c614e	0.98585975
4	0x3f78cc39	0.9718662
5	0x3f7d5c3f	0.9896888
6	0x3f8479e3	1.0349697
7	0x3f75e4ca	0.9605223
8	0x3f80f6f3	1.0075363
9	0x3f7b2d6d	0.9811619
10	0x3f85240c	1.0401626
11	0x3f7da449	0.99078804
12	0x3f840f76	1.0317218
13	0x3f805f2c	1.0029044
14	0x3f849f70	1.0361156
15	0x3f7d91c5	0.9905055
16	0x3f8434c0	1.0328598
17	0x3f8310c5	1.0239493
18	0x3f756056	0.9585012
19	0x3f78bd9a	0.9716431
20	0x3f7bec23	0.9840719
21	0x3f728c0b	0.9474494
22	0x3f8307ba	1.0236733
23	0x3f82f557	1.0231122
24	0x3f82bb22	1.0213358
25	0x3f874313	1.0567344
26	0x3f859b11	1.0437948
27	0x3f8172fb	1.0113214
28	0x3f72e8b9	0.94886357
29	0x3f7cf4dd	0.9881113
30	0x3f812978	1.009078
31	0x3f7dd71c	0.99156356
32	0x3f71606d	0.9428776
33	0x3f6f0922	0.9337331
34	0x3f77fe53	0.9687244
35	0x3f79298d	0.97329026
36	0x3f87eb0d	1.0618607
37	0x3f7fa810	0.9986582
38	0x3f7b8e93	0.98264426
39	0x3f7a9333	0.9788086
40	0x3f7cff44	0.98827004
41	0x3f758db9	0.95919377
42	0x3f7ca501	0.98689276
43	0x3f80d305	1.0064398
44	0x3f7af578	0.98030806
45	0x3f7e2c97	0.9928679
46	0x3f7b872e	0.9825314
47	0x3f7a82fa	0.97856104
48	0x3f8a66db	1.0812639
49	0x3f83ad6a	1.0287297
50	0x3f80e8b6	1.0071018
51	0x3f8016d0	1.0006962
52	0x3f78d565	0.97200614
53	0x3f754f92	0.9582454
54	0x3f7f4ed8	0.9972968
55	0x3f769fac	0.9633739
56	0x3f7841dd	0.969755
57	0x3f7aa4b6	0.9790758
58	0x3f7cf7b3	0.9881546
59	0x3f850d72	1.0394728
60	0x3f7bfff9	0.9843746
61	0x3f833d55	1.0253092
62	0x3f7ee75b	0.9957177
63	0x3f7a691b	0.9781663
64	0x3f8193ca	1.0123227
65	0x3f77d2f9	0.96806294
66	0x3f80d3ef	1.0064677
67	0x3f76405f	0.9619197
68	0x3f7e2f1a	0.9929062
69	0x3f7d34f7	0.9890894
70	0x3f792463	0.97321147
71	0x3f78358e	0.9695672
72	0x3f83c4d8	1.0294447
73	0x3f853f63	1.0409969
74	0x3f8bfab2	1.0935881
75	0x3f81bcba	1.013572
76	0x3f7b861e	0.9825152
77	0x3f7e2451	0.99274164
78	0x3f7f00e3	0.9961073
79	0x3f857d52	1.042887
80	0x3f836aa4	1.0266919
81	0x3f796473	0.974189
82	0x3f7e3e6f	0.99314016
83	0x3f7ad887	0.97986645
84	0x3f7dfaae	0.9921063
85	0x3f80097a	1.0002892
86	0x3f760558	0.96101904
87	0x3f80a242	1.0049517
88	0x3f7b32f7	0.9812464
89	0x3f82d5a8	1.0221453
90	0x3f7e6985	0.9937976
91	0x3f81d49a	1.0143006
92	0x3f81d09a	1.0141785
93	0x3f85abf3	1.04431
94	0x3f7553c2	0.9583093
95	0x3f7ef6f8	0.99595594
96	0x3f78c077	0.9716868
97	0x3f804b73	1.0023025
98	0x3f6ca6b3	0.9244186
99	0x3f714a8f	0.9425439
100	0x3f72e5ba	0.94881785
101	0x3f7a6403	0.97808856
102	0x3f7d22bf	0.98881143
103	0x3f747ae2	0.95500004
104	0x3f764383	0.96196765
105	0x3f85ba84	1.0447545
106	0x3f78028e	0.968789
107	0x3f7decce	0.9918946
108	0x3f7384fc	0.95124793
109	0x3f7b4464	0.9815123
110	0x3f6f5190	0.9348383
111	0x3f81031a	1.0079072
112	0x3f7da8a7	0.9908547
113	0x3f7ed217	0.9953932
114	0x3f76b749	0.9637342
115	0x3f80d931	1.0066282
116	0x3f85f499	1.046527
117	0x3f7707e7	0.96496433
118	0x3f812342	1.0088885
119	0x3f7785e1	0.9668866
120	0x3f7a7901	0.9784089
121	0x3f822270	1.016676
122	0x3f80d333	1.0064453
123	0x3f7a983d	0.9788855
124	0x3f847689	1.0348674
125	0x3f775a6b	0.9662234
126	0x3f82349a	1.0172303
127	0x3f6eb54f	0.93245405

features.2.bn.bias f4 [128]
0	0xbc3cb806	-0.011518484
1	0xbd94c4d4	-0.072641045
2	0xbe2585f6	-0.16164383
3	0xbde46427	-0.11151915
4	0xbd44c1e4	-0.04803647
5	0xbdd5ec2e	-0.10445438
6	0xbd876bb7	-0.06612342
7	0xbd516063	-0.051117312
8	0x3ba62bc3	0.005071135
9	0xbcfdb537	-0.030970199
10	0xbbb09835	-0.0053892382
11	0xbca92365	-0.02064676
12	0xbc64e399	-0.013970279
13	0xbc3f2448	-0.011666365
14	0xbcd3a0ea	-0.025833566
15	0xbc84390f	-0.016140489
16	0xbd763e3f	-0.060117956
17	0xbc986cf3	-0.018606639
18	0xbe0362c1	-0.1283064
19	0xbd05c96d	-0.032662798
20	0xbd018d1b	-0.03162871
21	0xbd99b388	-0.07504946
22	0xbe02011a	-0.12695733
23	0xbd406646	-0.046972536
24	0x3bef33f4	0.0072998945
25	0xbc4535b8	-0.012036733
26	0xbc5d2e9e	-0.013499884
27	0x3c45ebdb	0.012080158
28	0xbde7ec23	-0.113243364
29	0xbc5b57fb	-0.013387675
30	0xbc9caca8	-0.019125298
31	0xbc711414	-0.01471426
32	0xbd909ee2	-0.070615545
33	0xbd84746d	-0.06467519
34	0xbcd34ce4	-0.0257935
35	0xbd578283	-0.0526147
36	0xbd91f3e5	-0.07126597
37	0xbd62145e	-0.055195205
38	0xbc4de285	-0.0125662135
39	0xbd2feacb	-0.042948525
40	0xbcc5e1fe	-0.024155613
41	0xbd9877bf	-0.07444715
42	0xbc528e67	-0.012851334
43	0xbcd65a24	-0.02616603
44	0xbd3e7c2e	-0.046505146
45	0xba9916a5	-0.0011679722
46	0xbdff03b4	-0.12451878
47	0xbd8afeb2	-0.067868605
48	0x3d480d08	0.048840553
49	0xbd7a2cbd	-0.061077822
50	0x3d0ed48f	0.03487068
51	0xbcd5f6da	-0.026118685
52	0xbddb2bbc	-0.10701701
53	0xbdb2485f	-0.0870521
54	0xbd002a43	-0.031290304
55	0xbd4812e3	-0.048846137
56	0xbd9175cb	-0.07102545
57	0xbd0e0bc8	-0.034679204
58	0xbbe1acf7	-0.006887074
59	0xbd4bf960	-0.04979837
60	0xbd04ea2a	-0.03244988
61	0xbdae27c6	-0.0850368
62	0xbc4ab498	-0.0123721585
63	0xbcf9ec00	-0.030508041
64	0xbd0f4f41	-0.03498769
65	0xbd773143	-0.060349714
66	0xbd938fa3	-0.07205131
67	0xbe05235c	-0.1300177
68	0xbcf68dd0	-0.030096918
69	0xbd4f971e	-0.050681226
70	0xbd129e50	-0.03579551
71	0xbdb9eab3	-0.090779684
72	0xbcd21aea	-0.0256476
73	0xbcae98c5	-0.02131308
74	0xbd26cd45	-0.040723104
75	0xbdcbe0fb	-0.09955021
76	0xbe1ca001	-0.15295412
77	0xbcc9e892	-0.024647031
78	0xbd75e396	-0.060031496
79	0x3d247919	0.04015455
80	0xbcf82115	-0.030289212
81	0xbcdf1eb4	-0.02723632
82	0xbe09a3a7	-0.13441335
83	0xbddcd823	-0.10783412
84	0xbd569a6c	-0.052393362
85	0xbcee55fe	-0.029093739
86	0xbd8bc292	-0.06824221
87	0xbd3f6e70	-0.04673618
88	0xbca206c3	-0.019778615
89	0x3d292799	0.04129753
90	0xbd09304b	-0.03349332
91	0xbd758a9c	-0.05994664
92	0xbc510cfa	-0.0127594415
93	0xbd65480e	-0.05597692
94	0xbc699a4a	-0.014257977
95	0xbd356f36	-0.044295512
96	0xbda201e0	-0.07910514
97	0xbe0ab3e5	-0.13545187
98	0xbd647e2b	-0.055784386
99	0xbd2e6048	-0.04257229
100	0xbe0e5a7c	-0.13901705
101	0xbde9f12c	-0.11422953
102	0xbd6ef22c	-0.05833642
103	0xbdac54f4	-0.08414641
104	0xbd1c42c0	-0.038149595
105	0xbbd970b2	-0.006635749
106	0xbd8dfba9	-0.06932766
107	0x3c1e7585	0.0096715735
108	0xbd65df11	-0.056120936
109	0xbd407881	-0.04698992
110	0xbd8ca436	-0.06867258
111	0xbc424d94	-0.011859316
112	0xbc5c50d7	-0.013447008
113	0xbced0626	-0.028933596
114	0xbdb01470	-0.08597648
115	0xbdaabf45	-0.08337263
116	0xbde72a39	-0.1128735
117	0xbd995917	-0.07487696
118	0xbac161a4	-0.0014753831
119	0xbdbc761e	-0.092022166
120	0xbd10289e	-0.035194986
121	0xbce2d8fa	-0.027691353
122	0xbc0e236b	-0.0086754365
123	0xbe023a9d	-0.12717672
124	0xbc2f406a	-0.01069651
125	0xbded46cd	-0.1158577
126	0xbce3eb20	-0.027822077
127	0xbdc3791d	-0.09544585

features.2.bn.running_mean f4 [128]
0	0xbe14ada2	-0.1451936
1	0x400a4913	2.16071
2	0x401b3c4f	2.425556
3	0x3faa5254	1.3306375
4	0x3e93396d	0.2875475
5	0x3f243fc8	0.6415982
6	0x3f9b4128	1.2129259
7	0x3f3fb537	0.74885887
8	0xbfc6c10b	-1.5527662
9	0x3f07e441	0.5308266
10	0x3d91796b	0.07103237
11	0xbf94fb64	-1.1639218
12	0x3f26627b	0.6499402
13	0xbf849489	-1.0357829
14	0x3e377f3d	0.17919631
15	0x3da38cc7	0.079858355
16	0xbe77c7cf	-0.24197315
17	0xbf602886	-0.87561834
18	0x3f57d489	0.8430868
19	0xbfbc5add	-1.4715229
20	0x3e70ee60	0.23528433
21	0x3fe25880	1.7683258
22	0x3fa2821c	1.2695956
23	0x3dc7b529	0.097513504
24	0xbeedb41e	-0.4642648
25	0xbf12fe7a	-0.5741955
26	0xbf2d7c73	-0.6776802
27	0xbf1ed7cd	-0.62048036
28	0x3f6332ac	0.88749194
29	0xbfc23512	-1.5172446
30	0xbf9b7002	-1.2143557
31	0xbf751843	-0.95740145
32	0x3f0be1f1	0.54641634
33	0xbf31d665	-0.69467765
34	0xbed8d8c0	-0.42352867
35	0x3f03d45a	0.514959
36	0xbcdcaf0f	-0.026938943
37	0x3e7abb40	0.24485493
38	0x3c1ac59d	0.009446529
39	0x3e8c52b5	0.2740685
40	0xbf88ddb5	-1.069266
41	0x3f8d1be9	1.1024143
42	0xbfb4236c	-1.407331
43	0xbf931bdd	-1.1492878
44	0x3ea35272	0.31898838
45	0xbfe4eb85	-1.7884375
46	0x3f869296	1.0513484
47	0xbf1c9615	-0.61166507
48	0xc004d12e	-2.0752673
49	0xbcc68b38	-0.024236307
50	0xbfabcf61	-1.3422662
51	0x3ed7ccae	0.42148346
52	0x3eae7b39	0.34078386
53	0xbf196b74	-0.59929585
54	0xbd2f5fde	-0.042816035
55	0x3f430b37	0.7618899
56	0xbe830656	-0.2559077
57	0xbf99fe00	-1.203064
58	0xbf93a980	-1.1536102
59	0x3f51cf5b	0.81957024
60	0xbf01ccb3	-0.5070297
61	0x3ffaea54	1.9602761
62	0xbf19288b	-0.5982749
63	0xbf6e6390	-0.9312067
64	0x3ed95118	0.42444682
65	0xbf474790	-0.7784357
66	0xbdd321c2	-0.10309173
67	0x3fe909c8	1.820611
68	0xbf1a3aee	-0.6024617
69	0x3f6e7a83	0.9315569
70	0xbe065323	-0.13117652
71	0x3f714f86	0.9426197
72	0x3ea3ec38	0.32016158
73	0xbfa18584	-1.2618871
74	0x3fa7b74b	1.3102812
75	0x3f5c3079	0.86011463
76	0x3f7fbad6	0.99894464
77	0xbfc4d77a	-1.5378258
78	0x3e7055f9	0.23470296
79	0xbfd2d621	-1.6471597
80	0xbf53f662	-0.82797825
81	0xbfd18a76	-1.637038
82	0x3f6dce16	0.9289259
83	0x3f9057c3	1.1276783
84	0xbf14e22a	-0.581576
85	0x3f07dcfa	0.5307156
86	0xbf2e94f4	-0.68196034
87	0xbccc48f2	-0.024937127
88	0xbf5be5e7	-0.8589768
89	0xbff2849a	-1.8946717
90	0xbf95ad9a	-1.1693604
91	0xbeae9326	-0.3409664
92	0xbef4acc8	-0.47788072
93	0x3fa2508e	1.2680833
94	0xbf9b669f	-1.2140692
95	0xbf68ca9a	-0.90934145
96	0xbe562d56	-0.20915732
97	0x3fb4ba3f	1.4119338
98	0x3f1d79c6	0.61513937
99	0xbf452a7d	-0.77017957
100	0x3f8f1511	1.1178304
101	0x3cbe1408	0.023202911
102	0xbe9597c6	-0.29217356
103	0x3f1078d7	0.56434387
104	0xbf0f6a41	-0.56021506
105	0xbeb67080	-0.35632706
106	0xbe78c412	-0.24293545
107	0xbfc6a02b	-1.5517629
108	0xbea1224e	-0.31471485
109	0xbf13a626	-0.576754
110	0xbdc7e156	-0.09759776
111	0xbedf59cc	-0.43623197
112	0xbfcd8e40	-1.6059036
113	0xbeb5ee25	-0.35533252
114	0x3f5999ae	0.8500012
115	0x3f906d58	1.1283369
116	0x3f6bdb0d	0.9213112
117	0xbe5efb33	-0.21775512
118	0xc01ff8b3	-2.4995544
119	0x3fd6f020	1.679203
120	0xbec38744	-0.38189137
121	0x3d26353d	0.040578116
122	0xbeb344ec	-0.3501352
123	0x4003eb3d	2.0612328
124	0xbee33314	-0.44374907
125	0x3eb9f041	0.36316112
126	0xbee7d96e	-0.45283073
127	0x3e12868e	0.14309141

features.2.bn.running_var f4 [128]
0	0x3f0bdda6	0.54635084
1	0x4007e60e	2.1234164
2	0x40008d34	2.0086184
3	0x3fae9be6	1.3641326
4	0x3f7f6ce7	0.99775547
5	0x3f74c436	0.95611894
6	0x3f889d96	1.0673091
7	0x3f802c60	1.0013542
8	0x402f9f91	2.7441142
9	0x400db67b	2.2142627
10	0x3f328c18	0.69745016
11	0x40162b10	2.3463783
12	0x3f5ce97c	0.8629377
13	0x40111ea3	2.267495
14	0x3fb50f03	1.4145206
15	0x3f82b4a7	1.0211381
16	0x3fbb4d38	1.463294
17	0x3f3d348b	0.739083
18	0x3f86436d	1.0489327
19	0x401e6e37	2.475477
20	0x3f6e3c85	0.93061095
21	0x3f9bb5bc	1.2164836
22	0x3fa1932a	1.2623036
23	0x3f65958a	0.89681304
24	0x3fbdf249	1.4839565
25	0x3ef9a47a	0.48758298
26	0x3f186cf3	0.59541243
27	0x3f7b1f7d	0.9809492
28	0x3fa7632a	1.3077137
29	0x402e8251	2.726704
30	0x40134132	2.3008542
31	0x3f81bc82	1.0135653
32	0x3f3a736a	0.7283236
33	0x400a41b9	2.1602614
34	0x3fccd30c	1.6001906
35	0x3f7714cd	0.96516114
36	0x3f72a628	0.94784784
37	0x3f760f6c	0.9611728
38	0x3fbb1cf6	1.4618213
39	0x3f813124	1.0093122
40	0x3f87e631	1.0617124
41	0x3ff07a12	1.8787253
42	0x40092ffd	2.143554
43	0x3fb7a861	1.434826
44	0x3ff657e3	1.9245571
45	0x405ac489	3.4182456
46	0x3f3863ca	0.72027266
47	0x3f9c850e	1.2228105
48	0x4014290d	2.3150055
49	0x3f28b183	0.6589586
50	0x4058c687	3.3871171
51	0x3fbc0d5e	1.4691579
52	0x3fb3ca9b	1.4046205
53	0x3f340d23	0.70332545
54	0x3f6dd569	0.92903763
55	0x3f973c19	1.1815215
56	0x3faab38e	1.3336046
57	0x3fe22699	1.7668029
58	0x3f8737fb	1.0563959
59	0x3f9bc7af	1.2170314
60	0x3ffbe949	1.9680568
61	0x3f935f94	1.1513543
62	0x3fecc6a5	1.8498122
63	0x3fd43674	1.6579118
64	0x3f9119e4	1.1336026
65	0x3f5f0d82	0.87129986
66	0x3f28489b	0.6573579
67	0x3fc5003f	1.53907
68	0x4010335c	2.2531347
69	0x3f63fea7	0.89060444
70	0x3f5e8cc5	0.8693355
71	0x3fef2040	1.8681717
72	0x3f782a1d	0.9693926
73	0x3f73ff97	0.95311874
74	0x3f5361a6	0.82570875
75	0x3fb486d9	1.4103652
76	0x3f9f1f47	1.243142
77	0x400df69e	2.2181773
78	0x3fc54140	1.5410538
79	0x40a0eeb7	5.02914
80	0x3fba488d	1.4553391
81	0x3fe142ad	1.7598473
82	0x3f828d5a	1.0199387
83	0x3fb4ac76	1.4115131
84	0x3f54e40c	0.8316047
85	0x3f47bc5b	0.7802178
86	0x3f8dddba	1.108329
87	0x3f5b5868	0.8568177
88	0x3f8892c5	1.066979
89	0x3fe93f9f	1.8222541
90	0x4041975a	3.0248628
91	0x3f0f7849	0.56042916
92	0x3f802c81	1.0013582
93	0x3f6364ba	0.8882557
94	0x3f91fbce	1.140497
95	0x40274d8e	2.6141086
96	0x401d46e3	2.4574516
97	0x3fb8cb49	1.4437038
98	0x3fbb8330	1.464941
99	0x3f4ae0bc	0.7924917
100	0x3f9add50	1.2098789
101	0x3f559bfd	0.83441144
102	0x401b228a	2.423983
103	0x3f780668	0.96884775
104	0x3ff7932b	1.9341787
105	0x3f4a449f	0.7901096
106	0x3f2f2962	0.6842252
107	0x4054d9f0	3.3258018
108	0x3f76ec35	0.96454173
109	0x400204e4	2.0315485
110	0x3fafb5a3	1.3727306
111	0x3f993ca8	1.1971636
112	0x408b7688	4.358219
113	0x3fc840e8	1.5644808
114	0x3f8002e8	1.0000887
115	0x3f839487	1.0279702
116	0x3f4201e1	0.75784117
117	0x3f830aaa	1.023763
118	0x40812d77	4.0368
119	0x3fe0236c	1.751081
120	0x3f9ccc69	1.2249881
121	0x3f652d65	0.8952239
122	0x3f274e22	0.65353596
123	0x3fa3ed58	1.2806807
124	0x3f9a4b20	1.2054176
125	0x3f5b06ad	0.8555706
126	0x3fcc496d	1.5959908
127	0x3f29c3b2	0.6631423

features.3.conv.weight f4 [256, 128, 3]
0	0x3d6dae69	0.05802766
1	0xbb15bbeb	-0.0022847604
2	0xbdae974c	-0.08524951
3	0x3df6c847	0.120499186
4	0xbe0da73d	-0.13833328
5	0xbc79ee1b	-0.015254523
6	0x3d6b9797	0.057517614
7	0x3dacaa38	0.08430904
8	0x3c4535fa	0.012036795
9	0xbdaa46e7	-0.08314305
10	0x3db40e8d	0.08791838
11	0x3d233cf3	0.039853048
12	0xbcf4fc77	-0.02990554
13	0x3df773b9	0.12082619
14	0x3ac4d5a5	0.0015017284
15	0xbda21912	-0.07914938
16	0x3dbe4ecb	0.09292372
17	0xbd4ab9c8	-0.04949358
18	0xbd948fc4	-0.072539836
19	0x3d6b4626	0.057439946
20	0x3c5e17c8	0.013555475
21	0x3e054f1d	0.1301846
22	0xba83393d	-0.0010011565
23	0x3dc9da64	0.09856108
24	0xbb9828e6	-0.0046435473
25	0x3d49d6b0	0.049277008
26	0x3d893a96	0.067006275
27	0xbc8a72e7	-0.016900493
28	0xbd30dc7a	-0.043179013
29	0x3cc781c8	0.024353877
30	0xbd4bfd00	-0.049801826
31	0x3c6e7265	0.014553641
32	0xbd01790d	-0.031609584
33	0xbc36952d	-0.011143965
34	0x3def39d5	0.116809525
35	0x3dbc7cb6	0.09203474
36	0x3dbe18d8	0.09282082
37	0x3dae6fe6	0.08517437
38	0x3d37cf6c	0.044875547
39	0x3dd46799	0.10371322
40	0x3caa6d2a	0.020804007
41	0x3d83cfb3	0.064361
42	0xbc23177b	-0.009954329
43	0x3ddf8336	0.109136984
44	0x3d22a8fa	0.03971193
45	0xbdbf6291	-0.09344972
46	0x3dc8f63a	0.09812589
47	0xbd8d60fc	-0.06903264
48	0xbd9a4236	-0.0753216
49	0x3d845406	0.06461339
50	0x3b914c8e	0.004434175
51	0xbdb3c2da	-0.08777399
52	0xbcc119b0	-0.023571819
53	0xbd4df2fd	-0.05028056
54	0xbd4a5d51	-0.0494054
55	0xbcb63490	-0.02224186
56	0x3ba457bf	0.005015343
57	0xbc20057a	-0.009766931
58	0x3de405c2	0.11133911
59	0xbd8d4e2b	-0.06899675
60	0xbd3caf67	-0.046065714
61	0x3c095d95	0.008384128
62	0x3c747ebe	0.014922796
63	0xbb519b48	-0.0031983424
64	0x3b75ad39	0.0037487282
65	0x3c87dbf9	0.016584383
66	0x3e211a56	0.15732703
67	0x3e1493d3	0.14509515
68	0x3d076b0e	0.03306108
69	0x3c9135f1	0.017725917
70	0x3de15d11	0.11004079
71	0xbd0c5939	-0.034264777
72	0x3c07e8cb	0.008295248
73	0x3c12d333	0.008961487
74	0xbd55a57f	-0.052159782
75	0xbb4a9f8e	-0.0030917856
76	0xbd44a1de	-0.04800593
77	0x3af3c521	0.0018598178
78	0x3a80580e	0.0009791867
79	0x3d95dd45	0.073175944
80	0xbd65abcd	-0.056072045
81	0xbd85cd3d	-0.06533287
82	0x3b9acac9	0.004723881
83	0xbc8f2709	-0.017474668
84	0x3dd71892	0.10502733
85	0xbce69a2a	-0.028149683
86	0x3c647bd2	0.013945537
87	0x3cac7abd	0.02105462
88	0x3dd01e1b	0.10161992
89	0x3db763fd	0.08954618
90	0x3c437606	0.011929994
91	0x3d164c54	0.036693886
92	0xbd85293c	-0.065020055
93	0x3dd46efa	0.103727296
94	0x3c77e4dd	0.015130249
95	0xbce26404	-0.027635582
96	0xbd326baf	-0.043559726
97	0xbc3df296	-0.0115934815
98	0xbd18e0ba	-0.03732369
99	0x3cf8f0f8	0.03038834
100	0x3da01a32	0.07817496
101	0xbd8d9b67	-0.06914406
102	0xbdd7a905	-0.10530285
103	0x39e62643	0.00043897526
104	0x3d397fae	0.04528778
105	0x3c70d08f	0.014698162
106	0xbd644677	-0.055731263
107	0xbd092222	-0.033479817
108	0x3bbb9704	0.0057247896
109	0xbd1af6a1	-0.03783286
110	0x3d55c38f	0.052188452
111	0x396ad1e1	0.00022394165
112	0x3e054289	0.13013662
113	0x3e29c35e	0.16578433
114	0x3da0fdbe	0.078608975
115	0x3e1259a3	0.14292006
116	0x3d0de6c2	0.034643896
117	0x3e1c06a1	0.15236904
118	0xbadf4e93	-0.0017036967
119	0x3db90896	0.09034841
120	0x3d393f5d	0.045226444
121	0x3d119fa6	0.035552643
122	0x3c264d28	0.010150231
123	0x3df23f55	0.11828486
124	0xbba16d9a	-0.0049263956
125	0xbc9e9207	-0.01935674
126	0x3d515bde	0.051113002
127	0xbd8121b6	-0.06305258
128	0x3dcfaf8c	0.10140905
129	0x3d91c663	0.071179174
130	0xbb118167	-0.0022202374
131	0xbdbef9c1	-0.093249805
132	0xbd75b159	-0.059983585
133	0x3d09c8e7	0.03363886
134	0xbb696a91	-0.0035616497
135	0xbc80eea9	-0.015738802
136	0x3d6d9505	0.058003444
137	0x3de3551d	0.111002184
138	0xbc719808	-0.01474572
139	0xbc628d9c	-0.013827708
140	0x3d9a5af8	0.07536882
141	0xbcdf03ff	-0.027223585
142	0x3cec57e2	0.0288505
143	0x3db7c374	0.089728266
144	0x3e0ba681	0.13637735
145	0x3e08bc72	0.13353136
146	0x3d08c027	0.033386376
147	0xbe5b5375	-0.21418555
148	0xbc6075dc	-0.013699975
149	0x3b83394b	0.0040046326
150	0x3cf74d85	0.030188331
151	0x3d97dcc8	0.074151576
152	0x3d787e88	0.060667545
153	0x3cb8b08f	0.022545127
154	0xbc4b5394	-0.012410063
155	0xbd9c8f5a	-0.0764453
156	0x3c64c84e	0.013963772
157	0x3d169942	0.03676725
158	0x3da0a41d	0.07843802
159	0x3d93aead	0.07211051
160	0xbd1b9728	-0.03798595
161	0xbb921b25	-0.0044588023
162	0x3bfbf47f	0.0076890583
163	0x3db763f0	0.089546084
164	0xbdc10486	-0.09424691
165	0x3dcfe96d	0.10151944
166	0xbda0ed9a	-0.07857819
167	0xbdbbc43b	-0.09168287
168	0xbd2d1b97	-0.04226264
169	0x3b9e400e	0.0048294133
170	0xbd3a3e1c	-0.04546939
171	0x3e41c5e4	0.18923146
172	0x3be88cde	0.007096871
173	0x3b494284	0.0030709812
174	0x3d0807f4	0.03321071
175	0xbd3a945e	-0.04555165
176	0x3d53af5c	0.051680908
177	0xbd2662b2	-0.040621467
178	0x3e05a969	0.13052906
179	0x3e3bdc91	0.18345858
180	0x3dde53ab	0.10855802
181	0x3b65175b	0.0034956548
182	0xbd7f779c	-0.062369928
183	0x3da19a7b	0.07890793
184	0x3dc1947f	0.094521515
185	0x3e019a1a	0.12656441
186	0xbd0b0cb4	-0.03394766
187	0x3d83e835	0.06440774
188	0x3d4ae9bc	0.049539313
189	0x3e195ae6	0.14976081
190	0x3d1867f4	0.037208512
191	0xbdb38851	-0.08766235
192	0xbcf6e9e9	-0.030140834
193	0x3c916d38	0.017752275
194	0xbd5fb587	-0.054616477
195	0xbc77bc15	-0.015120526
196	0xbd45b4f3	-0.04826827
197	0xbd009973	-0.03139634
198	0x3df5feb9	0.12011475
199	0x3d958d12	0.07302298
200	0x3c12fe19	0.008971714
201	0x3d6acab7	0.05732223
202	0x3de04df1	0.10952366
203	0x3d604cf8	0.054760903
204	0xbdb5d618	-0.08878726
205	0xbca8abdd	-0.020589763
206	0xbd5db19d	-0.054124463
207	0x3dbe0cd0	0.092797875
208	0x3e6b4fad	0.22979613
209	0x3ddf8d86	0.10915665
210	0xbcf85b3b	-0.03031694
211	0xbd832cf6	-0.0640506
212	0x3cc97541	0.024592044
213	0x3cc26f29	0.023734646
214	0xbcdb63df	-0.02678102
215	0xbceef67a	-0.029170264
216	0x3d2bc8b3	0.04193945
217	0x3d0cb7ad	0.034354854
218	0xbd71c62a	-0.059026875
219	0xbdc89053	-0.09793153
220	0x3c96afea	0.01839443
221	0x3e0a02db	0.13477652
222	0x3c28fe7c	0.01031458
223	0xbe0ca9bc	-0.13736624
224	0xbbe70edf	-0.0070513333
225	0x3cbfa61f	0.023394642
226	0xbc40af1a	-0.0117604975
227	0xbcfd65f1	-0.030932399
228	0x3e0adb61	0.13560249
229	0xbd1ca37a	-0.03824184
230	0xbd232290	-0.039827883
231	0x3b8b98c4	0.0042601544
232	0x3cea338a	0.028589029
233	0xbcee7456	-0.029108208
234	0x3e0eaa05	0.13932045
235	0x3d9bef09	0.07613952
236	0xbb7a8182	-0.0038224165
237	0x3dcd5a6f	0.100270145
238	0xbd75c82d	-0.060005356
239	0x3da74e24	0.08169201
240	0x3d5d79ac	0.054071113
241	0xbdfb46fa	-0.12269397
242	0x3c01879e	0.007905869
243	0x3d900af4	0.07033339
244	0x3da51470	0.08060539
245	0x3dcc5e03	0.09978869
246	0x3dddc62e	0.108288154
247	0xbe13ea70	-0.144449
248	0x3d3b0771	0.045661394
249	0xbd3af260	-0.045641303
250	0x3ca4f3e5	0.02013583
251	0x3e757590	0.23970628
252	0xbd48146e	-0.04884761
253	0xbd96c87b	-0.07362457
254	0x3de316b1	0.110883124
255	0xbd8d0d52	-0.06887306
