ecg_afib_detection/checkpoints/ecg-arrhythmia/500hz/cnn1d/fold_4/last.pt (torch, 626357 bytes, 22 tensors)

features.0.conv.weight f4 [32, 12, 7]
0	0x3e216e08	0.1576463
1	0x3d4c06a5	0.049811024
2	0xbdb8bb1d	-0.09020064
3	0xbcb12dc5	-0.02162827
4	0x3da5be78	0.0809297
5	0xbd9be397	-0.07611769
6	0x3e1d59ce	0.15366289
7	0x3e363ca5	0.17796572
8	0x3d397bc0	0.045284033
9	0xbda1997b	-0.07890602
10	0xbde2392f	-0.11046063
11	0x3ab86163	0.001406711
12	0x3c841cb2	0.016126964
13	0xbdc15cb0	-0.09441507
14	0x3eb2e16b	0.34937605
15	0xbe146081	-0.14489938
16	0xbe8b6c48	-0.2723105
17	0xbd79cacb	-0.060984414
18	0xbe512d42	-0.2042742
19	0x3d2e71a5	0.04258885
20	0xbe04848d	-0.12941189
21	0xbd09c3e4	-0.03363408
22	0xbe5d518f	-0.21613143
23	0x3e55d1b3	0.20880775
24	0xbdb9c8d7	-0.0907151
25	0xbd2843de	-0.04108035
26	0x3dfe314e	0.12411748
27	0xbedd5daf	-0.43235537
28	0xbeba748c	-0.36417043
29	0xbb01bf02	-0.0019797687
30	0xbded6375	-0.115912355
31	0x3d2983ef	0.041385587
32	0x3d3267a0	0.043555856
33	0x3a52bedb	0.0008039304
34	0xbe46bc62	-0.194078
35	0xbc291866	-0.010320758
36	0xbe00b3eb	-0.12568633
37	0xbe46358a	-0.19356361
38	0x3da4c3cb	0.08045157
39	0xbdf07479	-0.117409654
40	0xbe1e1272	-0.15436724
41	0xbe3d7ff3	-0.1850584
42	0x3e25fb42	0.16209128
43	0x3e0320ad	0.12805434
44	0x3d7a4f02	0.061110504
45	0xbda2f756	-0.07957332
46	0x3942d4ba	0.00018580529
47	0x3e51a831	0.20474316
48	0xbd8d6d75	-0.06905643
49	0x3d993939	0.074816175
50	0x3e287e4f	0.16454433
51	0x3e396034	0.18103105
52	0x3de6378c	0.112410635
53	0x3e9ba07b	0.30395874
54	0x3d98d055	0.07461611
55	0xbc34a2a9	-0.011025109
56	0xbe83596a	-0.25654155
57	0x3e7cfc59	0.24705638
58	0xbd1a1e04	-0.03762628
59	0x3df4caed	0.119527675
60	0xbd13848f	-0.03601509
61	0x3a7b1b67	0.00095789734
62	0xbed8c8eb	-0.42340788
63	0xbdfb856f	-0.1228131
64	0xbe383da7	-0.17992269
65	0x3e192575	0.14955695
66	0xbe1d43b0	-0.15357852
67	0x3e762b19	0.24039878
68	0x3c0807f7	0.00830268
69	0x3ebd7747	0.37005064
70	0xbe7b1852	-0.24520996
71	0xbe29bf77	-0.16576944
72	0x3e953767	0.2914383
73	0x3e5c8ea6	0.21538791
74	0x3e5710cf	0.21002506
75	0x3e27cb18	0.16386068
76	0x3d88d640	0.0668149
77	0x3eaf7728	0.34270597
78	0x3d235e9e	0.039885156
79	0x3d9bcab5	0.07607023
80	0x3dd6bb6c	0.10484967
81	0xbe871cdd	-0.26389208
82	0x3e8edf76	0.27904862
83	0x3d7f2148	0.0622876
84	0x3e05fdbd	0.13085075
85	0x3df42866	0.11921768
86	0xbd5cdf9b	-0.053924184
87	0x3d70ed2a	0.058819927
88	0xbc5fffc0	-0.013671815
89	0xbd50cb7c	-0.050975308
90	0x3e6bf4de	0.23042628
91	0xbea6aead	-0.32555142
92	0xbe3fca72	-0.1872957
93	0x3caed783	0.021342998
94	0xbe86b994	-0.2631346
95	0xbe30d801	-0.17269899
96	0x3e178b9e	0.14799353
97	0xbdd1ef14	-0.10250679
98	0xbdf79bb2	-0.120902434
99	0x3e3d1919	0.18466605
100	0xbdd36848	-0.103226244
101	0xbe426f8b	-0.18987863
102	0x3e391553	0.18074541
103	0x3e061b11	0.13096263
104	0x3ea674c1	0.3251095
105	0x3e70acc3	0.23503403
106	0xbdde65ec	-0.10859284
107	0x3e153720	0.1457181
108	0x3ca4f2ad	0.020135248
109	0x3e60ebde	0.21964976
110	0x3cacc3a4	0.021089382
111	0xbd394e42	-0.045240648
112	0xbd9b0ef4	-0.075712115
113	0x3d05e5a5	0.03268971
114	0xbd9ebcea	-0.07750876
115	0xbe6599a9	-0.22421898
116	0x3e4533bc	0.19258016
117	0xbdcc7a9e	-0.09984325
118	0x3cc01c53	0.023451006
119	0xbca70f4e	-0.02039304
120	0xbd89613a	-0.067079976
121	0x3d83fcdf	0.06444716
122	0xbd94580d	-0.07243357
123	0xbd95c999	-0.07313842
124	0xbd244162	-0.040101416
125	0x3e3b2138	0.1827439
126	0x3e351a08	0.17685711
127	0x3d2026f5	0.039099652
128	0x3df66dfb	0.12032696
129	0x3ccdd3a3	0.02512533
130	0xbe14c5d7	-0.14528595
131	0xbe83b784	-0.2572595
132	0xbe07d52a	-0.1326491
133	0xbd207b30	-0.03917998
134	0xbef58ba5	-0.47958103
135	0xbd207cab	-0.039181393
136	0xbd49c814	-0.049263075
137	0x3d204810	0.039131224
138	0xbd4c422c	-0.049867794
139	0x3da123ad	0.07868133
140	0x3d9e8816	0.077408
141	0xbdd1251d	-0.10212157
142	0x3d4f9ec1	0.05068851
143	0xbd1eab9b	-0.038737874
144	0xbd77f018	-0.060531706
145	0xbdcec081	-0.10095311
146	0x3e98789f	0.29779527
147	0xbe945968	-0.28974462
148	0xbd2f9edf	-0.04287612
149	0xbe243177	-0.16034494
150	0x3d1309dc	0.035898075
151	0x3e0f6e45	0.14006908
152	0x3d9ce1f9	0.07660288
153	0x3e4f45c6	0.2024146
154	0xbe641cff	-0.22276686
155	0xbe24d808	-0.16098034
156	0x3d7002f0	0.05859655
157	0x3e024d49	0.12724794
158	0xbeba9b85	-0.36446777
159	0xbe08c8c6	-0.13357839
160	0x3e609c8f	0.21934722
161	0x3e9f4ce1	0.3111334
162	0x3e5774da	0.21040669
163	0xbe3d9384	-0.18513304
164	0x3e446be6	0.19181785
165	0x3b2f92b7	0.002679033
166	0x3ecdf095	0.40222612
167	0xbea58fe5	-0.32336345
168	0xbe1beb43	-0.15226464
169	0xbd830ca5	-0.06398896
170	0x3e9b3824	0.3031627
171	0xbe4df168	-0.2011162
172	0x3c085b0f	0.008322491
173	0x3ce2fc12	0.027708087
174	0xbe1c6dd8	-0.15276277
175	0x3e0d0452	0.1377118
176	0xbdfb4c2c	-0.12270388
177	0xbe824cbb	-0.25449166
178	0xbdfb43dc	-0.122688025
179	0xbe0b8ec5	-0.13628681
180	0xbe58b0c9	-0.21161188
181	0xbc66bb10	-0.014082685
182	0x3d406932	0.046975322
183	0x3da056e4	0.07829073
184	0x3c80d2c5	0.015725503
185	0xbbd31032	-0.0064411396
186	0xbe4be87a	-0.19912902
187	0xbb9fa5e6	-0.0048720716
188	0xbd97e334	-0.074163824
189	0x3e89e5b3	0.2693306
190	0x3db272b5	0.08713285
191	0x3e7ec349	0.24879183
192	0x3d45d493	0.04829843
193	0x3cbd052b	0.023073753
194	0x3bb09bf6	0.0053896857
195	0x3da8e65e	0.08247064
196	0x3c61e933	0.013788509
197	0xbdec4ebe	-0.115384564
198	0x3d12fe1e	0.035886876
199	0x3dd542a2	0.104131
200	0xbe716685	-0.23574264
201	0x3dc349f4	0.0953559
202	0xbdf6506e	-0.120270595
203	0x3e9df609	0.30851772
204	0x3d9489ba	0.07252832
205	0x3e890d81	0.26768115
206	0xbc241dee	-0.010016901
207	0xbd8ad0a7	-0.067780785
208	0xbdc97ed7	-0.09838646
209	0xbdcbef5d	-0.09957764
210	0xbe20cbb2	-0.15702704
211	0x3de96bbc	0.11397502
212	0xbea7550d	-0.32682076
213	0xbca7b132	-0.020470235
214	0xbdc4d041	-0.09610034
215	0x3e8c9f66	0.2746536
216	0x3e0ab080	0.13543892
217	0xbdc8ea11	-0.098102696
218	0x3e25ad3d	0.16179366
219	0x3e01a939	0.1266221
220	0x3eb9dfb0	0.36303473
221	0x3cf2ef85	0.029655227
222	0xbd980bbf	-0.074241154
223	0xbed0ae69	-0.40758064
224	0x3d87c645	0.06629614
225	0x3d1138ad	0.03545444
226	0xbdfe5007	-0.12417608
227	0xbd38add9	-0.04508767
228	0xbea25db3	-0.31712112
229	0x37e47880	2.723583e-05
230	0x3db38e17	0.08767336
231	0xbe72408b	-0.23657434
232	0xbecd47d0	-0.4009385
233	0xbd952803	-0.07283022
234	0x3d8f3dee	0.06994234
235	0xbdbef666	-0.093243405
236	0xbe67ea46	-0.22647962
237	0xbe4da7ea	-0.20083585
238	0xbe54e7c8	-0.20791543
239	0xbeb7d4fe	-0.35904688
240	0xbe135182	-0.14386562
241	0x3df6a2d1	0.120427735
242	0xbe5c10a1	-0.21490718
243	0xbe933d4d	-0.28757706
244	0x3d4a5a80	0.049402714
245	0xbd87b2fd	-0.06625936
246	0x3d2c4fd2	0.04206831
247	0xbdbc4604	-0.09193042
248	0xbeab1857	-0.33417007
249	0xbdc0dce8	-0.094171345
250	0x3ce75941	0.028240802
251	0x3e8e79fb	0.2782744
252	0x3e7572b1	0.23969533
253	0x3e1ef9d9	0.15524997
254	0x3d6797e6	0.056541346
255	0x3d82b340	0.063818455

features.0.bn.weight f4 [32]
0	0x3f7a4302	0.97758496
1	0x3f80c271	1.0059339
2	0x3f8beb85	1.093125
3	0x3f802ad2	1.0013068
4	0x3f7ffc0c	0.9999397
5	0x3f788a7b	0.97086304
6	0x3f7b16b9	0.9808155
7	0x3f7f641c	0.9976213
8	0x3f81d2d7	1.0142468
9	0x3f848536	1.0353153
10	0x3f869161	1.0513116
11	0x3f7d6a89	0.98990685
12	0x3f78540e	0.9700326
13	0x3f7ae4e0	0.98005486
14	0x3f7c0946	0.9845165
15	0x3f8229e5	1.0169035
16	0x3f83bcc0	1.0291977
17	0x3f7ff265	0.9997924
18	0x3f7b0990	0.98061466
19	0x3f7689e8	0.9630418
20	0x3f8db802	1.107178
21	0x3f7bc9dc	0.9835489
22	0x3f7b3476	0.98126924
23	0x3f7af384	0.98027825
24	0x3f828e83	1.0199741
25	0x3f801126	1.0005233
26	0x3f7d263c	0.98886466
27	0x3f7a45d1	0.9776278
28	0x3f705ae7	0.93888706
29	0x3f8137bf	1.0095137
30	0x3f76800b	0.9628913
31	0x3f85cd04	1.0453191

features.0.bn.bias f4 [32]
0	0x3ccdd1a4	0.025124379
1	0xbcc3e11f	-0.023911057
2	0x3b62d01f	0.0034608913
3	0xbd4277e0	-0.047477603
4	0x3c7da58d	0.015481365
5	0x3d742df3	0.059614133
6	0x3d810c79	0.06301207
7	0x3d0f1057	0.034927692
8	0x3d8eebd4	0.069785744
9	0x3dd8abc4	0.10579637
10	0x3cd45026	0.025917124
11	0x3dfd5d35	0.123712935
12	0x3d04ca4b	0.032419484
13	0x3bb4ef52	0.0055216933
14	0x3ca8781a	0.020565081
15	0x3c86438d	0.016389633
16	0x3cda1760	0.026622474
17	0x3c6c29e6	0.014414286
18	0x3d0f5fa6	0.035003327
19	0xbd850b06	-0.06496243
20	0x3dc0b584	0.09409621
21	0x3d78de6b	0.06075899
22	0xbcb343d2	-0.021882925
23	0x3d306789	0.04306749
24	0x3d96f99a	0.073718265
25	0xbbd1d7f2	-0.0064039165
26	0x3b6dc98c	0.0036283461
27	0x3e14628d	0.14490719
28	0xbca10b82	-0.019658808
29	0xbc8a916e	-0.01691505
30	0x3d63f591	0.055654112
31	0x3d7227b6	0.059119903

features.0.bn.running_mean f4 [32]
0	0x36cb782c	6.0638613e-06
1	0x393699c1	0.0001741415
2	0x37d068cc	2.4844332e-05
3	0x38729383	5.7834677e-05
4	0x394051a4	0.0001834096
5	0xb89c67e5	-7.4580115e-05
6	0x3802c7cd	3.1180494e-05
7	0xb907aafb	-0.00012938298
8	0x378d54ca	1.6847993e-05
9	0x391bce35	0.0001485877
10	0xb83514bf	-4.3173084e-05
11	0x395cb95e	0.0002104989
12	0xb9090279	-0.00013066259
13	0xb7faf0c9	-2.9914447e-05
14	0xb8879deb	-6.466716e-05
15	0x3871818d	5.757953e-05
16	0x38fdc92c	0.00012101451
17	0x39216ef5	0.00015395491
18	0x38631a71	5.4145643e-05
19	0xb7f2d234	-2.8946532e-05
20	0xb916e850	-0.00014391658
21	0xb8502aa4	-4.9630777e-05
22	0x387459ca	5.8257756e-05
23	0xb5ad9500	-1.2932869e-06
24	0x36adfd6c	5.185304e-06
25	0xb7b48d20	-2.1523389e-05
26	0x37379914	1.0943291e-05
27	0x38af5572	8.360566e-05
28	0xb9135620	-0.00014051097
29	0xb885a2bf	-6.372248e-05
30	0xb9239329	-0.00015599713
31	0x38b05ec5	8.409986e-05

features.0.bn.running_var f4 [32]
0	0x403752ad	2.8644211
1	0x3fce80b0	1.6133022
2	0x413baf0f	11.730239
3	0x40769a72	3.8531766
4	0x404e7871	3.2261012
5	0x4005912a	2.086985
6	0x4023b434	2.5578737
7	0x40678c66	3.6179442
8	0x40520b84	3.2819529
9	0x3faa9284	1.3325963
10	0x3fed3758	1.8532515
11	0x4110c890	9.048965
12	0x40754e84	3.8329172
13	0x40d29816	6.581065
14	0x3f9ca205	1.2236944
15	0x403d912b	2.9619853
16	0x40b3a0d4	5.6133823
17	0x40b5515b	5.666181
18	0x411b8cf4	9.721912
19	0x40deafa3	6.95894
20	0x402a13f8	2.6574688
21	0x3f8fc871	1.1233045
22	0x3fb455f3	1.408873
23	0x4070cd10	3.762516
24	0x4037e2b6	2.8732123
25	0x3fd16895	1.6360041
26	0x3f77cffe	0.96801746
27	0x403973fb	2.897704
28	0x40a468f1	5.13781
29	0x404b3870	3.1753197
30	0x3fed9116	1.8559902
31	0x40bb828b	5.8596854

features.1.conv.weight f4 [64, 32, 5]
0	0x3df54bed	0.11977372
1	0x3cea45d0	0.028597742
2	0xbdb0d210	-0.08633816
3	0x3e216373	0.15760593
4	0xbd99d042	-0.07510425
5	0xbc4c8d68	-0.012484886
6	0xbca9c3e2	-0.020723287
7	0xbcc46da4	-0.023978062
8	0xbda26354	-0.079291016
9	0x3d7b3226	0.061327122
10	0xbde3a44e	-0.11115323
11	0x3c577209	0.013149747
12	0x3d9978e2	0.0749376
13	0x3b9362dd	0.0044978694
14	0x3e20fa6c	0.15720528
15	0xbeed727c	-0.46376407
16	0xbe5f5dac	-0.21813077
17	0xbe1c62f7	-0.15272127
18	0xbd9c8c8f	-0.07643997
19	0x3d40792f	0.04699057
20	0xbdf7f343	-0.12106945
21	0xbd0618f9	-0.03273866
22	0xbda47af9	-0.08031268
23	0x3c6f052b	0.0145886345
24	0x3e6e6e50	0.23284268
25	0x3b26cec6	0.0025452836
26	0x3d9de150	0.077089906
27	0x3e39a0fe	0.1812782
28	0xbd1369e6	-0.035989664
29	0xbd54da42	-0.05196596
30	0xbd86a0fd	-0.06573675
31	0xbd965545	-0.073404826
32	0xbe2ee9df	-0.17081402
33	0x3db15648	0.08659035
34	0x3dcb01c8	0.09912449
35	0xbd43e907	-0.047829654
36	0xbc6f4435	-0.014603664
37	0xbe265387	-0.162428
38	0xbe40ea31	-0.18839337
39	0xbdbc7b00	-0.09203148
40	0xbc8aa117	-0.016922517
41	0x3e2d68b0	0.16934466
42	0xbd997af7	-0.07494157
43	0xbda13710	-0.078718305
44	0x3e27ce0d	0.16387196
45	0x3e127305	0.14301689
46	0x3e0bc72e	0.136502
47	0xbc60260d	-0.013680947
48	0xbd8bcb13	-0.06825843
49	0x3dab82a8	0.0837453
50	0x3d29cea6	0.04145684
51	0xbda95eed	-0.08270059
52	0x3dd556fc	0.104169816
53	0x3dbdbdf2	0.09264745
54	0x3dcc597a	0.09978004
55	0xbe81b70d	-0.2533497
56	0x3d5ce171	0.053925935
57	0x3d9c7cae	0.07640968
58	0x3e16e247	0.14734755
59	0xbd445f5f	-0.047942515
60	0xbe0c267a	-0.13686553
61	0x3bb63f0f	0.0055617164
62	0xbe2ee865	-0.17080839
63	0xbdf68fd7	-0.12039154
64	0xbdd86178	-0.10565466
65	0xbd638cb5	-0.05555411
66	0xbe317542	-0.17329887
67	0xbc1fde44	-0.009757582
68	0xbdecb62a	-0.115581825
69	0xbdab35de	-0.08359884
70	0x3c826dc6	0.015921485
71	0x3d69c43f	0.05707192
72	0x3ce82b98	0.0283411
73	0x3e10ef62	0.14153817
74	0x3e219186	0.15778169
75	0x3d79c067	0.060974505
76	0xbda93701	-0.08262444
77	0xbd96a542	-0.07355739
78	0x3dffa7fb	0.124832116
79	0x3e1592e8	0.14606822
80	0x3de4755b	0.11155196
81	0xbe85cdf1	-0.26133683
82	0x3e08398e	0.13303205
83	0x3df314ec	0.11869225
84	0xbcd8b842	-0.026455048
85	0xbe50491b	-0.20340388
86	0x3ba2c4ab	0.0049672923
87	0xbd4db589	-0.050221954
88	0xbe5661ef	-0.20935796
89	0x3d38065b	0.044927936
90	0x3d1f314a	0.038865365
91	0xbd9a02ad	-0.075200416
92	0xbd9ba8bd	-0.07600544
93	0xbb9a0ee6	-0.004701483
94	0xbd0860ee	-0.033295564
95	0xbd4f409d	-0.05059873
96	0xbd5200bf	-0.051270243
97	0x3a8a1b47	0.0010536694
98	0x3d94b6e0	0.07261443
99	0xbd913f5f	-0.07092165
100	0x3b937762	0.0045003155
101	0xbc053f56	-0.008132776
102	0xbd51d9d2	-0.05123312
103	0xbddff41d	-0.10935233
104	0x3d910dae	0.07082687
105	0xbd8d9600	-0.06913376
106	0xbdaa5976	-0.083178446
107	0xbd920128	-0.07129127
108	0x3e922f0d	0.28551522
109	0xbe1416f2	-0.14461878
110	0x3e8aaee0	0.27086544
111	0xbdd1272e	-0.10212551
112	0xbd7b83b2	-0.06140489
113	0xbe8cc70c	-0.2749561
114	0x3d392e0e	0.045209937
115	0xbe122f7e	-0.1427593
116	0xbd1a82a4	-0.037722245
117	0x3d817f04	0.063230544
118	0x3dec237e	0.11530207
119	0xbcfc1b53	-0.030774748
120	0xbe795b6e	-0.24351284
121	0xbda96665	-0.08271483
122	0x3cea2c95	0.028585711
123	0x3d87e6ea	0.0663584
124	0xbe400ea6	-0.18755588
125	0x3cce528c	0.025185846
126	0xbda8b921	-0.082384355
127	0x3ea2706d	0.317264
128	0xbcc7fa33	-0.024411296
129	0xbe4ae9b8	-0.19815719
130	0xbe3f8be0	-0.18705702
131	0x3d604699	0.054754827
132	0x3e143b71	0.144758
133	0x3d0e4e6c	0.034742758
134	0x3e5c3d00	0.21507645
135	0xbc6a8940	-0.0143149495
136	0xbd966cb9	-0.07344956
137	0xbdb12a1b	-0.08650609
138	0xbd4520c0	-0.048126936
139	0xbdb243ae	-0.08704315
140	0xbdcff1e3	-0.10153558
141	0x3da5c42d	0.08094058
142	0x3db4868f	0.088147275
143	0xbda7ef69	-0.08199961
144	0x3d77e6a4	0.06052269
145	0x3bd42b93	0.006474921
146	0xbc7ab193	-0.015301126
147	0xbdcdb1ef	-0.10043704
148	0xbe606f27	-0.21917401
149	0x3ebe21aa	0.3713506
150	0x3d5193f0	0.051166475
151	0x3d6a0c35	0.057140548
152	0x3d72d4a5	0.059284825
153	0xbd18ac89	-0.037273917
154	0x3e2d2678	0.16909206
155	0x3d8ef35c	0.06980011
156	0x3d2d5d91	0.04232556
157	0xbdf315af	-0.1186937
158	0x3d864b1f	0.06557297
159	0xbc75400c	-0.014968883
160	0x3e3768c8	0.17911065
161	0xbdb6b023	-0.08920314
162	0xbcf6d4f1	-0.030130835
163	0xbd12a572	-0.035802312
164	0xbdae14ed	-0.08500085
165	0xbe6390fa	-0.22223273
166	0xbd67041a	-0.056400396
167	0xbdf554cc	-0.11979064
168	0x3e5fa57b	0.2184047
169	0xbba6cde2	-0.005090461
170	0x3c156791	0.00911893
171	0xbd46dbaf	-0.04854935
172	0x3e66f357	0.22553764
173	0x3d3237e7	0.043510344
174	0xbd67f5f0	-0.05663103
175	0xbd6430d0	-0.055710614
176	0xbd87c85a	-0.06630011
177	0x3e6a731c	0.22895473
178	0xbd9ec4ea	-0.07752402
179	0xbd861244	-0.06546453
180	0x3d922c93	0.07137408
181	0xbc9b340c	-0.018945716
182	0xbe395450	-0.18098569
183	0xbddfb7b2	-0.10923709
184	0xbe19a451	-0.15004088
185	0xbe0c7d17	-0.13719593
186	0xbdc7c115	-0.09753624
187	0x3e0abb6e	0.13548061
188	0xbd0cde1d	-0.03439151
189	0xbd930032	-0.07177772
190	0x3caca867	0.021076394
191	0x3c31d378	0.010853641
192	0xbe087480	-0.13325691
193	0xbd00eedc	-0.031477794
194	0xbdb77cb0	-0.08959329
195	0x3e779991	0.24179675
196	0x3d87e5a8	0.066356
197	0xbdc0785b	-0.09397956
198	0xbdd8a3e7	-0.10578137
199	0xbdba89e0	-0.09108329
200	0xbd929ab7	-0.07158416
201	0x3d3e39bb	0.046441775
202	0x3d42dc52	0.047573395
203	0xbdef4374	-0.116827875
204	0xbe4d0769	-0.20022358
205	0x3decb4fe	0.11557959
206	0x3d8d0783	0.06886198
207	0x3e324142	0.17407706
208	0x3dbad6b8	0.091229856
209	0x3e2c8bb2	0.16850165
210	0xbd909cc8	-0.07061154
211	0xbe193d93	-0.14964895
212	0x3cb29850	0.021801144
213	0x3c5e3031	0.013561294
214	0x3d933e7f	0.071896546
215	0x3c26ee13	0.010188597
216	0x3df9acc7	0.12191158
217	0xb8d60d7f	-0.00010206829
218	0xbe093552	-0.13399246
219	0x3e10c896	0.14139017
220	0xbd720772	-0.05908913
221	0x3d6e4e54	0.05818017
222	0xbd00485e	-0.031319015
223	0x3e0b4dcd	0.13603897
224	0x3e018e51	0.12651946
225	0x3e0676f6	0.13131317
226	0x3e3be06a	0.18347326
227	0xbdcebd31	-0.10094679
228	0xbdb05374	-0.086096674
229	0x3dcf9978	0.10136694
230	0x3df45a50	0.11931288
231	0x3c5f8c4a	0.013644287
232	0x3c1798c9	0.009252735
233	0x3c1eae6d	0.009685141
234	0x3db2521d	0.08707068
235	0x3dd74470	0.105111
236	0x3e6c3411	0.23066737
237	0xbe34ff3c	-0.17675489
238	0xbe8068b8	-0.25079894
239	0xbe0d4022	-0.13793996
240	0xbc96c286	-0.018403303
241	0x3dc3d8b3	0.095628165
242	0xbea97891	-0.33099797
243	0xbd2c0bad	-0.042003322
244	0xbe3524c0	-0.176898
245	0xbd119e14	-0.035551146
246	0x3d6e4c1b	0.05817805
247	0x3e190020	0.14941454
248	0x3d9bed08	0.076135695
249	0x3e15220e	0.14563772
250	0x3df1538b	0.11783513
251	0x3de69c56	0.112602875
252	0x3d9223e8	0.07135755
253	0x3d04b880	0.032402515
254	0x3dae366e	0.085064754
255	0xbb3db1e7	-0.002894515

features.1.bn.weight f4 [64]
0	0x3f836fba	1.0268471
1	0x3f768ec1	0.96311575
2	0x3f83bad7	1.0291394
3	0x3f7bcc6c	0.983588
4	0x3f7afd79	0.9804302
5	0x3f75364a	0.95785964
6	0x3f88c9fb	1.068664
7	0x3f86729f	1.050373
8	0x3f7db8f8	0.99110365
9	0x3f7e47e4	0.99328446
10	0x3f7936c7	0.9734921
11	0x3f7c881b	0.9864518
12	0x3f7f7b78	0.99797773
13	0x3f74d037	0.9563021
14	0x3f840397	1.0313596
15	0x3f818622	1.0119059
16	0x3f8791d8	1.0591383
17	0x3f833a64	1.0252194
18	0x3f809be8	1.0047579
19	0x3f86fea7	1.0546464
20	0x3f81f1ed	1.0151955
21	0x3f81ac53	1.0130714
22	0x3f896f4a	1.0737088
23	0x3f801799	1.0007201
24	0x3f7899a9	0.97109467
25	0x3f8cd361	1.1002008
26	0x3f821aed	1.0164467
27	0x3f7dcf66	0.9914459
28	0x3f797c3b	0.97455186
29	0x3f81349f	1.0094184
30	0x3f85de17	1.0458401
31	0x3f70c7ff	0.9405517
32	0x3f887a91	1.0662404
33	0x3f85a49b	1.0440859
34	0x3f7cda47	0.98770565
35	0x3f70228c	0.93802714
36	0x3f836df9	1.0267936
37	0x3f842b41	1.03257
38	0x3f7ac778	0.97960615
39	0x3f8f306a	1.118665
40	0x3f762e2b	0.96164197
41	0x3f77aad2	0.96745026
42	0x3f7e6997	0.9937987
43	0x3f6cc9f8	0.9249568
44	0x3f76b6d8	0.9637275
45	0x3f7924fc	0.9732206
46	0x3f77803d	0.9668005
47	0x3f7ecac1	0.9952813
48	0x3f86b1c4	1.0523
49	0x3f6e1210	0.9299631
50	0x3f84651c	1.0343356
51	0x3f8f0850	1.1174412
52	0x3f75d534	0.9602845
53	0x3f7b53c8	0.98174715
54	0x3f862f61	1.0483209
55	0x3f78c262	0.97171605
56	0x3f72674e	0.9468888
57	0x3f765c9a	0.9623505
58	0x3f838762	1.027569
59	0x3f903b66	1.1268127
60	0x3f777e33	0.9667694
61	0x3f77d52c	0.9680965
62	0x3f81da4d	1.0144745
63	0x3f710a72	0.94156563

features.1.bn.bias f4 [64]
0	0x3de5f50e	0.11228381
1	0xbd100a2c	-0.03516595
2	0x3cccd0de	0.02500194
3	0xbc97ae12	-0.01851562
4	0x3ba940cb	0.0051651946
5	0xbdd4acc7	-0.10384517
6	0x3c977331	0.018487545
7	0x3de465df	0.11152243
8	0x3c8aea8c	0.016957544
9	0xbc5460dc	-0.012962546
10	0x3cd8fa4e	0.026486542
11	0xbd0c55b3	-0.034261417
12	0xbc6d6e45	-0.014491622
13	0xbd7c5e70	-0.0616135
14	0x3d055093	0.032547545
15	0xbbc55c70	-0.0060229823
16	0x3d933437	0.071876936
17	0xbcfadb50	-0.030622154
18	0x3d0a4606	0.033758186
19	0x3c76fbad	0.015074653
20	0xbb664119	-0.0035134016
21	0xbc577c55	-0.013152202
22	0xbd0688c1	-0.032845262
23	0x3b482480	0.0030539334
24	0xbcba7ed0	-0.022765547
25	0x3dcebccc	0.10094604
26	0x3d4a7fbc	0.049438223
27	0x3c61de44	0.013785902
28	0xbd7a79bd	-0.061151255
29	0x3c0b03a6	0.008484757
30	0x3d113a61	0.035456065
31	0xbe04ae5d	-0.1295714
32	0x3ded2461	0.11579204
33	0x3d28f6ef	0.04125112
34	0xbca2183f	-0.019786952
35	0xbda2441f	-0.07923149
36	0x3c50a16c	0.0127337985
37	0x3d03dd80	0.03219366
38	0x3cf2f3b3	0.02965722
39	0x3e1cbe11	0.1530688
40	0xbda6d9a6	-0.08146982
41	0xbbbe069b	-0.0057991273
42	0xbd7ab133	-0.061204147
43	0xbdfefba5	-0.12450341
44	0xbd484827	-0.048896935
45	0xbca2fe70	-0.019896716
46	0xbbe2bcde	-0.0069194874
47	0xbc4d46fa	-0.012529129
48	0x3d92c4b2	0.07166423
49	0xbd41c397	-0.04730567
50	0xbc07d72b	-0.008291046
51	0x3e2a67f5	0.16641219
52	0xbc5962d3	-0.01326819
53	0xbd4bc46b	-0.049747866
54	0xbc8aae21	-0.016928734
55	0xbc8aec7e	-0.016958471
56	0xbd832774	-0.064040095
57	0xbd17a98e	-0.037026934
58	0x3d08f5a6	0.033437394
59	0x3e3354f5	0.17512877
60	0xbbaea3ac	-0.00532957
61	0x3c4bb82a	0.012434045
62	0x3d50f8ae	0.05101841
63	0xbd165537	-0.03670236

features.1.bn.running_mean f4 [64]
0	0xbf0e2f96	-0.5554136
1	0x3d3a9d78	0.04556033
2	0xbe9eb856	-0.31000012
3	0xbee92402	-0.45535284
4	0xbef77694	-0.48332655
5	0x3f5462b7	0.82963127
6	0xbf377d59	-0.7167564
7	0xbf9cd2b4	-1.2251801
8	0xbf352fdd	-0.7077616
9	0xbf134255	-0.5752309
10	0xbeee792d	-0.46576825
11	0x3f3905ac	0.7227428
12	0xbe66edcc	-0.2255165
13	0xbf9da9c1	-1.231743
14	0xbe8f3e99	-0.27977446
15	0xbd56aae3	-0.052409064
16	0xbfe9214b	-1.8213285
17	0xbf8589de	-1.0432699
18	0xbf894577	-1.0724324
19	0xbe91eb71	-0.2849994
20	0xbf772bde	-0.9655131
21	0x3e90f57f	0.283123
22	0xbf73b13f	-0.9519233
23	0xbeda56af	-0.4264426
24	0xbf06fa00	-0.5272522
25	0xbf2475ef	-0.6424245
26	0xbf49a9a6	-0.7877449
27	0xbfb2dd34	-1.3973756
28	0xbfbc75dc	-1.4723468
29	0xbf87b592	-1.0602286
30	0xbf0c44ea	-0.54792655
31	0x3e199ef0	0.15002036
32	0xbfb5b730	-1.4196529
33	0xbf598ccf	-0.8498048
34	0x3e661d4b	0.22472112
35	0xbfb15ee4	-1.3857083
36	0xbf3a107c	-0.72681403
37	0xbfb80f78	-1.4379721
38	0xbfb9f72c	-1.4528556
39	0xbfed7e0f	-1.8554095
40	0x3e8296db	0.2550572
41	0x3e3bec33	0.18351822
42	0x3f8edfc1	1.1162034
43	0x3fe5de91	1.7958547
44	0xbeae5e4b	-0.34056315
45	0xbf495de5	-0.78658897
46	0x3d4e784f	0.050407704
47	0xbe0d09cd	-0.1377327
48	0xbf4875b4	-0.783046
49	0xbf33da47	-0.7025494
50	0x3e18ede8	0.14934504
51	0xbfe4f9ef	-1.7888774
52	0xbeef2278	-0.46705985
53	0x3f9213f1	1.1412336
54	0x3d98b8be	0.07457112
55	0xbec99a4d	-0.39375535
56	0xbe6de3ee	-0.2323148
57	0x3f843510	1.0328693
58	0xbee76efe	-0.45201868
59	0xbfb473aa	-1.4097798
60	0xbc38a7ac	-0.011270445
61	0x3f46a3be	0.775936
62	0xbef758e3	-0.48310003
63	0xbe129c08	-0.14317334

features.1.bn.running_var f4 [64]
0	0x3f4cc65e	0.79990184
1	0x40390d6b	2.891444
2	0x3fab95b8	1.3405066
3	0x3f2756ec	0.6536701
4	0x3fe2d845	1.772225
5	0x3ff85188	1.9399881
6	0x3fd1b668	1.6383791
7	0x3fc70060	1.554699
8	0x3f40d9e5	0.7533248
9	0x3fb705b7	1.4298619
10	0x3f86fa1c	1.0545077
11	0x3f8868bf	1.0656966
12	0x3fe7b3fe	1.8101804
13	0x4086ef85	4.216738
14	0x3fa85c0b	1.3153089
15	0x4005e2e6	2.0919738
16	0x40666fa4	3.600564
17	0x40572160	3.361412
18	0x3f6fcba3	0.936701
19	0x3f1114de	0.56672466
20	0x4009ce2a	2.1532083
21	0x3fb602c7	1.4219598
22	0x3fabaf75	1.341292
23	0x3f21120a	0.6291815
24	0x3f694f1e	0.9113635
25	0x3f91a1de	1.1377523
26	0x3f6483dc	0.892637
27	0x403022b1	2.7521174
28	0x4039e0dd	2.9043496
29	0x400739d0	2.1129036
30	0x4000b93d	2.011306
31	0x3ebb0ec1	0.36534694
32	0x3fad568b	1.3542036
33	0x3fa8a78d	1.3176132
34	0x3eed4a09	0.46345547
35	0x40f31f31	7.5975575
36	0x3fdc85d7	1.7228345
37	0x4043efa8	3.0615025
38	0x401c6c93	2.4441268
39	0x40136542	2.3030553
40	0x3fbc3c27	1.4705857
41	0x3fc5ff6b	1.5468572
42	0x3faabbcc	1.3338561
43	0x4059618a	3.3965783
44	0x403ce255	2.9513142
45	0x3fdbc124	1.7168317
46	0x3f8a418d	1.0801255
47	0x3fceafeb	1.6147436
48	0x3f8c00e3	1.0937771
49	0x3fb0afab	1.380361
50	0x3f784098	0.9697356
51	0x401ced49	2.4519827
52	0x3ed219d9	0.41035345
53	0x3fd77cd7	1.6834973
54	0x3f97d369	1.1861392
55	0x3f7f35a9	0.99691254
56	0x3f6b1674	0.91831136
57	0x4002911d	2.040107
58	0x402cb2de	2.6984172
59	0x3feb27b2	1.8371489
60	0x3faed198	1.3657713
61	0x3f800627	1.0001878
62	0x3f662c6b	0.89911526
63	0x3f4b6ae2	0.79459965

features.2.conv.weight f4 [128, 64, 5]
0	0xbd9ea41b	-0.077461444
1	0xbdaf16d8	-0.08549279
2	0xbd1d79ac	-0.038446113
3	0xbd4b6e20	-0.04966557
4	0xbdebb9f1	-0.11510075
5	0x3c2ddc79	0.010611647
6	0x3db11890	0.08647263
7	0xbc4131b8	-0.011791639
8	0xbccf3014	-0.02529148
9	0xbe3c6ca0	-0.18400812
10	0x3c4822b4	0.012215305
11	0x3dac19d1	0.084033616
12	0x3cb508af	0.022098867
13	0xbdb13709	-0.08653075
14	0xbd6b7e32	-0.057493396
15	0xbda0c768	-0.07850534
16	0xbdcd4e58	-0.100247085
17	0x3d94d317	0.07266825
18	0x3cfd9636	0.030955415
19	0x3b6750e7	0.0035296024
20	0xbe0d14e2	-0.13777497
21	0xbc9a12f8	-0.018807873
22	0xbd391722	-0.045188077
23	0xbb56b54d	-0.0032761872
24	0x3b66d67d	0.003522306
25	0x3dd8230f	0.10553562
26	0x3da61642	0.08109714
27	0x3c5031eb	0.012707214
28	0x3bd45af9	0.0064805713
29	0xbe211b5d	-0.15733095
30	0x3e065904	0.13119894
31	0x3e2ad400	0.16682434
32	0x3db65ea9	0.08904774
33	0x3d3edfd5	0.04660018
34	0xbdbd570f	-0.09245121
35	0xbdb46413	-0.0880815
36	0xbd0e36f4	-0.034720376
37	0x3cf12523	0.029436653
38	0x3dbd724e	0.092503175
39	0x3d86ff6d	0.06591687
40	0xbd00ef47	-0.031478193
41	0x3a268642	0.00063524034
42	0xbd8321fd	-0.06402967
43	0x3e1a413c	0.15063947
44	0x3cf411e5	0.029793689
45	0xbd8f1b65	-0.06987647
46	0x3d29b72b	0.04143445
47	0xbd32c6a8	-0.043646485
48	0xbcbb3a05	-0.022854814
49	0x3d9d0fab	0.07669004
50	0x3c7cb95c	0.0154250525
51	0xbd63d584	-0.055623546
52	0xbdc1e632	-0.094677344
53	0x3ca67364	0.020318694
54	0x3d832c05	0.064048804
55	0x3d627b1f	0.0552932
56	0xbcecc41c	-0.028902106
57	0xbe116d2f	-0.14201806
58	0xbd3690b5	-0.044571597
59	0xbdef0e1c	-0.11672613
60	0x3df712b2	0.12064113
61	0xbdcd6356	-0.100287125
62	0xbd9061aa	-0.07049878
63	0xbba2376d	-0.004950455
64	0xbe6c4c4f	-0.23075984
65	0x3c3ff320	0.01171568
66	0x3d5e187a	0.05422256
67	0x3d91b74e	0.07115041
68	0x3c9eaf5f	0.019370733
69	0xbca693bc	-0.020334117
70	0xbe11d472	-0.14241198
71	0x3c86035c	0.016359024
72	0xbcd90392	-0.02649096
73	0xbe19966c	-0.14998788
74	0x3d3c8ec2	0.046034582
75	0x3d99cae0	0.075093985
76	0xbda87d93	-0.082270764
77	0xbceb9d3f	-0.028761504
78	0xbdd45f01	-0.10369683
79	0xbc7325f3	-0.014840591
80	0xbddac78e	-0.10682593
81	0x3d7cca76	0.06171652
82	0x3db6cd04	0.089258224
83	0x3e4cd6f8	0.20003879
84	0x3e22cbd8	0.15898073
85	0x3da37d5b	0.07982894
86	0xbdbe3c96	-0.092888996
87	0xbe1df511	-0.15425517
88	0xbdaf642e	-0.0856403
89	0x3c95cf3f	0.0182873
90	0xbe394e4d	-0.18096276
91	0xbdb58af4	-0.08864394
92	0x3df7f7f9	0.12107844
93	0xbdb79dea	-0.089656666
94	0xbcd1518e	-0.025551584
95	0xbd975fbb	-0.07391306
96	0xbded6627	-0.1159175
97	0x3bec3c95	0.0072093704
98	0x3cd85e5d	0.026412183
99	0x3dc7a25d	0.09747765
100	0x3e2a69ee	0.16641971
101	0x3d6bd1e1	0.057573203
102	0x3c3ea634	0.011636306
103	0xbd992f3f	-0.074797146
104	0xbe29124c	-0.16510886
105	0x3dc958b3	0.09831371
106	0x3caf7306	0.021417152
107	0xbc0e0592	-0.00866832
108	0xbd610958	-0.05494055
109	0xbd212943	-0.03934599
110	0xbe044fd5	-0.12921079
111	0xbcd38420	-0.025819838
112	0x3e27eec1	0.16399671
113	0x3d3e4906	0.04645636
114	0x3e858d67	0.26084444
115	0x3ccd4035	0.02505503
116	0xb8cb1d3b	-9.685239e-05
117	0xbc11bd5f	-0.008895247
118	0x3dc56a32	0.09639396
119	0x3dacfee0	0.08447051
120	0xbe12ef5a	-0.14349118
121	0x3b8a94e7	0.0042291763
122	0xbdb54be5	-0.08852366
123	0xbc921093	-0.017830169
124	0xbdd8b9d4	-0.10582319
125	0x39ed8a24	0.00045307085
126	0xbdd72437	-0.10504954
127	0x3d81522c	0.06314501
128	0xbd642c3e	-0.055706255
129	0x3da8dc14	0.082451016
130	0xbdb5ad22	-0.08870913
131	0x3d059698	0.03261432
132	0x3df4e5fe	0.1195793
133	0xbc6dcd9c	-0.014514353
134	0x3e2172e4	0.15766484
135	0xbdea6fa6	-0.114470765
136	0x3e1c3019	0.15252723
137	0xbc1a26de	-0.009408681
138	0x39cb62a3	0.00038792667
139	0xbdc54810	-0.096328855
140	0x3dfd95f8	0.1238212
141	0x3d3ae914	0.045632437
142	0x3b63063c	0.0034641167
143	0x3d2e9005	0.042617816
144	0x3c88caa3	0.016698187
145	0x3ca8fcb6	0.020628314
146	0xbcf74da3	-0.030188387
147	0xbd24813e	-0.040162317
148	0xbd076e0f	-0.033063944
149	0x3ddbaded	0.10726533
150	0xbd7a7a20	-0.061151624
151	0xbd876a2f	-0.0661205
152	0x3dd5a038	0.1043095
153	0xbc8df774	-0.017329909
154	0xbe20889b	-0.15677111
155	0x3d13700d	0.03599553
156	0x3dfc71ac	0.12326369
157	0x3d96ba1c	0.07359716
158	0xbdfa4a6a	-0.122212246
159	0x3c220dbf	0.009890973
160	0xbd0b6b35	-0.034037787
161	0xbdda2b89	-0.10652835
162	0x3e03f1bb	0.12885182
163	0x3da4beec	0.08044228
164	0x3dcf9544	0.10135892
165	0xbd531d79	-0.05154178
166	0xbe36532a	-0.17805162
167	0xbd67752b	-0.056508224
168	0xbdb9badb	-0.09068843
169	0xbcfb5aee	-0.030683007
170	0xbd42d752	-0.047568627
171	0x3d32ecd3	0.043682884
172	0xbc93565b	-0.017985513
173	0x3c80fa05	0.015744219
174	0xbd8441c5	-0.06457857
175	0x3d21bd3e	0.039487116
176	0x3cdb8fde	0.026802
177	0x3c4e19d1	0.012579397
178	0x3d27d586	0.040975116
179	0xbd99c34d	-0.07507954
180	0xbc79d860	-0.015249342
181	0x3c367621	0.011136563
182	0x3e0af7e0	0.1357112
183	0xbdc68549	-0.09693391
184	0x3d23efb9	0.04002354
185	0x3cd3b399	0.025842475
186	0xbdb09115	-0.08621422
187	0x3ba75b47	0.0051073167
188	0xbd56b514	-0.052418783
189	0xbdd4f49c	-0.10398218
190	0xbc8eca00	-0.017430305
191	0x3d31c0ff	0.043396946
192	0x3cf86896	0.030323308
193	0x3b2699b9	0.0025421216
194	0xbd954e47	-0.07290321
195	0xbda63467	-0.08115464
196	0xbe0ccc43	-0.13749795
197	0xbd8e2407	-0.069404654
198	0x3def3691	0.116803296
199	0x3d281d72	0.041043706
200	0x3d32e7c0	0.043678045
201	0xbd065314	-0.032794073
202	0xbe002eb2	-0.12517813
203	0xbd6666df	-0.05625045
204	0xbc716e3d	-0.0147357555
205	0xbd3a85f6	-0.04553791
206	0xbdd28d95	-0.10280911
207	0xbc870287	-0.016480697
208	0x3c3c22f3	0.011482942
209	0xbce6c5bc	-0.028170459
210	0x3dc7413a	0.09729238
211	0x3d8cef4c	0.0688158
212	0xbd968ad6	-0.073506996
213	0x3d1eb9c4	0.03875138
214	0xbb91c1d9	-0.0044481573
215	0x3d99020b	0.07471093
216	0xbd9eb3b7	-0.07749122
217	0x3dea7543	0.11448147
218	0x3dca7f3c	0.09887549
219	0x3cb78bf1	0.022405596
220	0x3d0150cd	0.0315712
221	0x3aa1746b	0.001231802
222	0xbdb55a9a	-0.088551715
223	0x3ce7545c	0.028238468
224	0xbd11156c	-0.03542082
225	0x3df57dd8	0.119868934
226	0xbcf34a53	-0.029698526
227	0x3d356cc9	0.0442932
228	0xbc0a6736	-0.008447459
229	0xbcc5550d	-0.024088407
230	0x3d9b2d7a	0.07577033
231	0x3daf12e4	0.08548525
232	0xbdd02eb2	-0.101651564
233	0xbe9efaa1	-0.3105059
234	0x3da2b232	0.07944144
235	0x3da6d2c6	0.081456706
236	0x3da6ff19	0.08154125
237	0x3cb606e4	0.022220083
238	0xbe2e1337	-0.16999517
239	0xbe354912	-0.17703655
240	0x3c5b5443	0.013386789
241	0xbd8243b7	-0.06360572
242	0xbc42cf4e	-0.011890246
243	0xbdb35d39	-0.08758015
244	0xbdca103b	-0.09866377
245	0xbddffbb6	-0.10936682
246	0xbda8df0f	-0.0824567
247	0xbcdbd017	-0.026832623
248	0x3da17b3b	0.078848325
249	0x3e307e0d	0.17235585
250	0x3dea7569	0.114481755
251	0x3bd9b308	0.0066436566
252	0x3e787415	0.24263032
253	0xbe22e80a	-0.15908828
254	0x3c0f4905	0.008745437
255	0x3d2a3f36	0.04156419

features.2.bn.weight f4 [128]
0	0x3f820833	1.0158752
1	0x3f815f53	1.0107216
2	0x3f7d38d4	0.9891484
3	0x3f806343	1.0030292
4	0x3f6fb151	0.9362994
5	0x3f7129b6	0.9420427
6	0x3f798088	0.9746175
7	0x3f8605d5	1.047053
8	0x3f62c2df	0.885786
9	0x3f7b227d	0.980995
10	0x3f75f9db	0.96084374
11	0x3f627245	0.8845561
12	0x3f627c0b	0.88470525
13	0x3f7c6135	0.98585826
14	0x3f7c7edb	0.98631066
15	0x3f66c894	0.9014981
16	0x3f88783a	1.066169
17	0x3f7227c6	0.9459194
18	0x3f61619c	0.88039565
19	0x3f86844c	1.0509124
20	0x3f8a22c9	1.0791866
21	0x3f894ab4	1.0725923
22	0x3f851ac0	1.0398788
23	0x3f74a7b5	0.955684
24	0x3f6f0591	0.9336787
25	0x3f7a127c	0.97684455
26	0x3f7974b8	0.97443724
27	0x3f66ff94	0.9023373
28	0x3f76075a	0.9610497
29	0x3f7d0f01	0.9885102
30	0x3f76fd28	0.96480036
31	0x3f789d14	0.9711468
32	0x3f5b8c53	0.8576099
33	0x3f722ae6	0.9459671
34	0x3f664d84	0.8996203
35	0x3f6fda21	0.93692213
36	0x3f7d7ad6	0.9901556
37	0x3f8b853b	1.0900034
38	0x3f6dcea7	0.9289345
39	0x3f7387c6	0.9512905
40	0x3f772a6c	0.96549106
41	0x3f84d69c	1.0377994
42	0x3f73a5bf	0.95174783
43	0x3f75c14f	0.9599809
44	0x3f6c925b	0.9241082
45	0x3f85515d	1.0415455
46	0x3f6cf6ad	0.925639
47	0x3f828f8e	1.020006
48	0x3f7a9e93	0.97898215
49	0x3f74f02e	0.95678985
50	0x3f7f805a	0.99805224
51	0x3f827cb2	1.0194304
52	0x3f8a9bda	1.0828812
53	0x3f84331d	1.0328099
54	0x3f6eab85	0.9323047
55	0x3f83bec6	1.0292594
56	0x3f7249ae	0.94643676
57	0x3f8d8fe1	1.1059533
58	0x3f6aa4a2	0.9165746
59	0x3f831c4d	1.0243012
60	0x3f6699f0	0.9007864
61	0x3f60eb29	0.87858826
62	0x3f75f19b	0.96071786
63	0x3f80d887	1.0066079
64	0x3f83e494	1.0304132
65	0x3f8014f7	1.0006398
66	0x3f7e02a4	0.9922278
67	0x3f7c8b3e	0.98649967
68	0x3f63946d	0.88898355
69	0x3f86778f	1.0505236
70	0x3f65d472	0.8977729
71	0x3f7be87e	0.9840163
72	0x3f6fd69d	0.9368685
73	0x3f722940	0.9459419
74	0x3f81a992	1.0129874
75	0x3f6e4a76	0.9308237
76	0x3f808aa6	1.0042312
77	0x3f8e5fc7	1.1122979
78	0x3f746813	0.95471305
79	0x3f7017dd	0.9378641
80	0x3f79b239	0.9753757
81	0x3f82d5c6	1.0221488
82	0x3f8a7f74	1.0820146
83	0x3f543a03	0.8290102
84	0x3f82ea42	1.022774
85	0x3f8bf565	1.0934263
86	0x3f736b72	0.95085824
87	0x3f819797	1.0124387
88	0x3f74db9f	0.95647615
89	0x3f756f1f	0.9587268
90	0x3f755933	0.9583923
91	0x3f6a7cc0	0.91596603
92	0x3f727576	0.9471048
93	0x3f6865bb	0.9078023
94	0x3f65b68b	0.89731663
95	0x3f70af35	0.94017345
96	0x3f7b39bd	0.98134977
97	0x3f6a00b6	0.91407335
98	0x3f85fd6b	1.0467962
99	0x3f7e8edf	0.99436754
100	0x3f81708b	1.011247
101	0x3f770b0b	0.96501225
102	0x3f829c96	1.0204036
103	0x3f774fa4	0.96605897
104	0x3f66e08d	0.9018639
105	0x3f842ca9	1.0326129
106	0x3f60ccc2	0.87812436
107	0x3f7a20b6	0.9770616
108	0x3f80b4f9	1.0055228
109	0x3f630310	0.8867655
110	0x3f81d918	1.0144377
111	0x3f6ce8b8	0.925426
112	0x3f787033	0.970462
113	0x3f690d52	0.9103595
114	0x3f84f778	1.0388021
115	0x3f7f0645	0.9961894
116	0x3f54607a	0.8295971
117	0x3f64ca92	0.893716
118	0x3f80d13d	1.0063854
119	0x3f82006e	1.0156381
120	0x3f864b8e	1.0491807
121	0x3f819716	1.0124233
122	0x3f58d348	0.8469739
123	0x3f718681	0.9434586
124	0x3f677d02	0.9042512
125	0x3f623e08	0.883759
126	0x3f6ff137	0.9372744
127	0x3f744743	0.95421237

features.2.bn.bias f4 [128]
0	0xbd5ab7f4	-0.053398088
1	0xbe67330f	-0.22578071
2	0xbe4b29f9	-0.1984023
3	0xbd915b2c	-0.07097468
4	0xbdc89835	-0.09794656
5	0xbe4d2586	-0.20033845
6	0xbe1f7659	-0.1557249
7	0xbe343e9d	-0.1760201
8	0xbd963892	-0.07335009
9	0xbd8f131e	-0.06986068
10	0xbdf54788	-0.11976534
11	0xbe257d63	-0.16161112
12	0xbda86655	-0.08222643
13	0xbda45a29	-0.08025009
14	0xbdee76c6	-0.11643748
15	0xbe103507	-0.14082728
16	0xbe1e4313	-0.15455274
17	0xbc5e815b	-0.013580645
18	0xbdcbc0a1	-0.099488504
19	0xbd7930fe	-0.06083774
20	0xbe444b92	-0.19169453
21	0xbdcc39c8	-0.099719584
22	0xbe051779	-0.12997235
23	0xbdacf641	-0.08445407
24	0xbdb1900b	-0.08670052
25	0xbe4d57c9	-0.20053019
26	0xbda9ef59	-0.08297605
27	0xbe1040d4	-0.1408723
28	0xbde4b23d	-0.11166809
29	0xbe1e1a64	-0.15439755
30	0xbdfdf6bc	-0.124005765
31	0xbe28ded1	-0.16491248
32	0xbe00f82a	-0.12594667
33	0xbddde25b	-0.108341895
34	0xbe084125	-0.133061
35	0xbdaa1694	-0.08305088
36	0xbe3b1bc9	-0.18272318
37	0xbe2d1aa1	-0.1690469
38	0xbdecc934	-0.11561814
39	0xbe48c4d7	-0.19606338
40	0xbe0e7770	-0.1391275
41	0xbe22352e	-0.15840599
42	0xbdbd7652	-0.092510834
43	0xbdc922cf	-0.09821092
44	0xbe033445	-0.12812908
45	0xbe3b8d75	-0.1831568
46	0xbdc833d6	-0.09775512
47	0x3cac1c59	0.021009611
48	0xbdea8923	-0.11451938
49	0xbdc53640	-0.09629488
50	0xbd9f701b	-0.07785054
51	0xbd4d1eb8	-0.050078124
52	0xbdd0d21b	-0.101963244
53	0xbd1e5a65	-0.038660426
54	0xbd71851b	-0.05896483
55	0xbda44211	-0.08020414
56	0xbe18c889	-0.14920248
57	0xbd963bfc	-0.0733566
58	0xbdacec93	-0.084435605
59	0xbdece7e8	-0.1156767
60	0xbde32794	-0.11091533
61	0xbe570569	-0.20998158
62	0xbdf63509	-0.120218344
63	0xbe16b291	-0.14716555
64	0xbe1f07a2	-0.15530255
65	0xbda4eeb9	-0.08053345
66	0xbd982d16	-0.074304745
67	0xbd666b5c	-0.05625473
68	0xbe39eac3	-0.1815596
69	0xbddad96a	-0.10686
70	0xbd6096da	-0.054831363
71	0xbd9738c8	-0.07383877
72	0xbd0df458	-0.034656852
73	0xbd9e61a1	-0.07733465
74	0xbe5ffa1f	-0.21872757
75	0xbda2d58e	-0.079508886
76	0xbd46b1c8	-0.04850939
77	0xbe1a3ff2	-0.15063456
78	0xbd93a2d3	-0.07208791
79	0xbe88123b	-0.2657641
80	0xbe2ab1e8	-0.16669428
81	0xbd8eae71	-0.06966866
82	0xbe629125	-0.2212568
83	0xbe2171aa	-0.15766016
84	0xbd1c5445	-0.038166303
85	0xbd9ccda0	-0.07656407
86	0xbda0194d	-0.07817326
87	0xbd520f24	-0.05128397
88	0xbd56c950	-0.05243808
89	0xbdbecfbf	-0.09316968
90	0xbddbff04	-0.10742
91	0xbe03a1e8	-0.12854731
92	0xbe12af16	-0.14324602
93	0xbe39bce0	-0.18138456
94	0xbe26d32f	-0.16291498
95	0xbe331c43	-0.1749125
96	0xbdd0b23f	-0.10190248
97	0xbdfabd22	-0.122431055
98	0xbdc996aa	-0.0984319
99	0xbe31fcc1	-0.17381574
100	0xbd8abb39	-0.06773991
101	0xbd6c0269	-0.057619486
102	0xbdc550ae	-0.09634529
103	0xbe0dfcd0	-0.13865972
104	0xbdbb64d4	-0.09150091
105	0xbde344c3	-0.110971
106	0xbdbf5ad8	-0.09343499
107	0xbde5f5d2	-0.11228527
108	0xbdf94353	-0.12171044
109	0xbe2d19a3	-0.16904311
110	0xbe02d25b	-0.12775557
111	0xbe160434	-0.14650041
112	0xbd4a1ab7	-0.049341884
113	0xbdde2395	-0.108466305
114	0xbdd50cfb	-0.104028665
115	0xbe298781	-0.16555597
116	0xbe328c2e	-0.17436287
117	0xbe0ebab6	-0.13938412
118	0xbe1d2fd7	-0.1535028
119	0xbd6b9012	-0.057510443
120	0xbe451a05	-0.19248207
121	0xbe135c2c	-0.1439063
122	0xbe091a19	-0.13388862
123	0xbe0dbacd	-0.1384079
124	0xbe362658	-0.17788064
125	0xbdadf342	-0.08493663
126	0xbdbd4d64	-0.09243277
127	0xbe08be03	-0.13353734

features.2.bn.running_mean f4 [128]
0	0xbefb7dfb	-0.49119553
1	0x3dcd297d	0.10017679
2	0x3ca9379d	0.020656401
3	0xbf1920af	-0.59815496
4	0x3e572fc7	0.2101432
5	0xbe9e6b76	-0.3094136
6	0x3feb41b2	1.8379424
7	0xbeb2a360	-0.3489027
8	0xbfb90c8e	-1.4456956
9	0xbefd81fa	-0.49513227
10	0xbfc58225	-1.5430342
11	0xbddbfbef	-0.10741412
12	0x3e0e6fe8	0.13909876
13	0xbf12c50d	-0.57331926
14	0xbf7d50ee	-0.98951614
15	0xbed68182	-0.41895682
16	0xbea69730	-0.32537222
17	0xbf15798a	-0.5838858
18	0xbf5e6af0	-0.86881924
19	0xbf906261	-1.1280023
20	0xbf2c0ec7	-0.6721005
21	0xc00322cf	-2.0489995
22	0x3f44f071	0.76929384
23	0xc00fe100	-2.248108
24	0xbf44b947	-0.7684521
25	0xbecf757a	-0.40519315
26	0xbfab4879	-1.3381492
27	0x3f93bc43	1.1541828
28	0x3c81ecfb	0.015860071
29	0xbedb1692	-0.42790657
30	0xbec8cdd3	-0.3921953
31	0x3f7cf02a	0.9880396
32	0xbecd577a	-0.40105802
33	0xbf6dc20d	-0.92874223
34	0x3fea658d	1.8312241
35	0xbee8ecd4	-0.45493186
36	0xbf3343e4	-0.7002547
37	0xbf35e405	-0.71051055
38	0xbf5c0fbe	-0.8596152
39	0x3fb7a09c	1.4345889
40	0xbf6354b7	-0.8880114
41	0xbf906e72	-1.1283705
42	0xbe94ed58	-0.2908733
43	0xbf84f6d2	-1.0387824
44	0xbf8a8b3c	-1.0823741
45	0x3efd93e1	0.49526885
46	0xbfc86607	-1.5656136
47	0xbe89a980	-0.2688713
48	0xbedb0ad0	-0.42781687
49	0xbfe62ed0	-1.7983036
50	0xbf73d7c3	-0.952511
51	0xbecb1e1a	-0.39671403
52	0xbe506f72	-0.20355013
53	0xc00d96f8	-2.2123394
54	0xbe033533	-0.12813263
55	0xbf17a6b0	-0.5923872
56	0xbe8c0f61	-0.27355483
57	0xbe2867af	-0.16445802
58	0xbd9bebe5	-0.07613353
59	0xbf84af22	-1.0365946
60	0xbf18ee0d	-0.59738237
61	0xbf83f842	-1.0310137
62	0x3e91969e	0.28435224
63	0x3fb291ac	1.3950706
64	0xbe0b96f4	-0.13631803
65	0x3f2c3a2d	0.6727627
66	0xbf49406e	-0.78613937
67	0xbf2d327a	-0.67655146
68	0x3f9218ea	1.1413853
69	0xbefbc98f	-0.49177215
70	0xbe24fe3b	-0.16112606
71	0xbce33a6f	-0.027737824
72	0xbf0c0865	-0.5470031
73	0xbf563755	-0.8367818
74	0x3eb04d2a	0.34433872
75	0xbfd24d06	-1.6429756
76	0xbed8b085	-0.42322174
77	0xbdd74369	-0.10510904
78	0xbf2aafa4	-0.66674256
79	0x3f1ee7a9	0.62072235
80	0xbe80b83a	-0.25140554
81	0xbf6ff836	-0.93738115
82	0xbeac8d1c	-0.33701408
83	0x3f0859fb	0.532623
84	0xbf14d48c	-0.5813682
85	0xbc0de575	-0.008660664
86	0xbf171be0	-0.5902691
87	0xbf8c8c12	-1.0980246
88	0xbf7c75a9	-0.98617035
89	0xbf2ad832	-0.6673614
90	0xbf167537	-0.58772606
91	0xbe058ae1	-0.1304126
92	0xbf060d1e	-0.52363765
93	0x3ef62bb1	0.4808021
94	0xbf7311f4	-0.9494927
95	0x3ec13a90	0.37739992
96	0xbe7fdf2d	-0.24987479
97	0x3d754450	0.0598796
98	0xbe276ae6	-0.16349372
99	0x3ec1454e	0.37748188
100	0xbf4cdc4e	-0.8002366
101	0xbf95b38e	-1.1695421
102	0xbfa4c3b3	-1.2872223
103	0xbec4b6b6	-0.38420647
104	0x3e85758b	0.2606624
105	0xbfb08939	-1.3791877
106	0x3fda6865	1.7063109
107	0x3f3a7c74	0.7284615
108	0xbf7752e6	-0.9661087
109	0x3f7c6b08	0.98600817
110	0xbe1a22f7	-0.150524
111	0xbfc44f1f	-1.5336646
112	0xbf0ede97	-0.55808395
113	0xbf44797a	-0.7674786
114	0xbefb30ed	-0.49060765
115	0x3e797aad	0.24363203
116	0x3f579b20	0.84221077
117	0xc00cbac4	-2.1988993
118	0xbb42065d	-0.0029605844
119	0xbf13a2ce	-0.57670295
120	0xbed62c5a	-0.41830713
121	0x3fb3dcc9	1.4051753
122	0x3fb7bea7	1.4355057
123	0xbf4c2a85	-0.7975238
124	0xbf62a60d	-0.88534623
125	0xbf816caf	-1.0111293
126	0xbd4499b4	-0.047998145
127	0xbf7fac88	-0.99872637

features.2.bn.running_var f4 [128]
0	0x3fc8ec3f	1.5697097
1	0x3f6a4008	0.91503954
2	0x3fadbdf3	1.3573593
3	0x3f55e12d	0.83546716
4	0x3f1bd1f5	0.60867244
5	0x3f2cbee9	0.67478806
6	0x3fe0b47d	1.7555081
7	0x3ede2b91	0.43392614
8	0x3fc769d7	1.5579175
9	0x3f77696a	0.96645224
10	0x3fdbe190	1.7178211
11	0x3fe314c2	1.774071
12	0x3f9f9c57	1.2469586
13	0x3fad2a25	1.3528486
14	0x3fb4b2ae	1.4117029
15	0x4041f3fb	3.0305164
16	0x3f344cc3	0.7042963
17	0x3f8eb224	1.1148114
18	0x4000d48d	2.012973
19	0x3f5a18d8	0.8519416
20	0x3f517c0f	0.81829923
21	0x3fd93757	1.6970013
22	0x3f210a7a	0.6290661
23	0x3fdc0e15	1.7191797
24	0x3fb2e2a3	1.3975414
25	0x3f8c7286	1.097245
26	0x3fc99b03	1.5750431
27	0x3f16f84c	0.5897262
28	0x3f588095	0.845712
29	0x3ffd7c88	1.9803629
30	0x3f379c99	0.71723324
31	0x3f72b454	0.9480641
32	0x3fab4c45	1.3382651
33	0x3fbf37ef	1.4938945
34	0x3f39ad49	0.7253004
35	0x3f8c5934	1.0964723
36	0x3fb8def7	1.4443043
37	0x3f581da3	0.8442022
38	0x3fb7f1e1	1.437069
39	0x3f8e8bf9	1.1136466
40	0x3f3daab0	0.74088573
41	0x3f463103	0.77418536
42	0x4001691f	2.022041
43	0x3f4d33c9	0.8015714
44	0x3f8b522e	1.0884454
45	0x3f0d8fd3	0.55297583
46	0x3fd405d8	1.6564283
47	0x3fe86ec8	1.8158808
48	0x3f019627	0.5061974
49	0x40559b11	3.3375895
50	0x3f4da650	0.803319
51	0x3f6a2f36	0.9147829
52	0x3f6b81d9	0.91995007
53	0x40257b47	2.5856493
54	0x3f60dff7	0.87841743
55	0x3f57863d	0.84189206
56	0x3f8bbf1e	1.0917699
57	0x3f34195a	0.70351183
58	0x3ff3ad10	1.903719
59	0x3f264316	0.64946115
60	0x3fa2515b	1.2681078
61	0x3f942e46	1.1576622
62	0x3f98a2ac	1.1924644
63	0x3f397a99	0.72452694
64	0x3f0d727b	0.5525281
65	0x3f39a256	0.7251333
66	0x4012b21b	2.2921207
67	0x40165c33	2.3493774
68	0x405421dc	3.3145666
69	0x3f1c24d0	0.6099367
70	0x3ffd96fe	1.9811704
71	0x3f93f647	1.1559533
72	0x3fd2db35	1.6473147
73	0x400298e3	2.0405815
74	0x3eca9fb5	0.39574972
75	0x4002f206	2.046022
76	0x3fb6fc4d	1.4295746
77	0x3f2b7480	0.6697464
78	0x3ffb3f93	1.9628776
79	0x400488d9	2.0708525
80	0x4040efd8	3.014639
81	0x3f45fcec	0.77339053
82	0x3f8b0b50	1.0862827
83	0x3fd04369	1.6270572
84	0x3fbe1417	1.4849881
85	0x3f078dd0	0.52950764
86	0x3f699837	0.91247886
87	0x3fca0ae7	1.5784577
88	0x4034ffe4	2.8281183
89	0x3f8eee4c	1.1166472
90	0x3f831d8b	1.0243391
91	0x3fc7f7f6	1.5622547
92	0x3f6c04fb	0.921951
93	0x3ff0c144	1.880898
94	0x3f80c427	1.0059861
95	0x3fe74111	1.8066732
96	0x3f51e907	0.81996197
97	0x400785de	2.1175456
98	0x400c6b53	2.1940506
99	0x3f711a5a	0.94180834
100	0x3fae6ddb	1.3627275
101	0x3f986ca1	1.1908151
102	0x3f627639	0.88461643
103	0x3f6efc6e	0.9335393
104	0x3f7d3fbf	0.98925394
105	0x3fa764e1	1.3077661
106	0x3f3b6730	0.73204327
107	0x3f4516da	0.76987994
108	0x3fddb049	1.7319423
109	0x3fea0033	1.8281311
110	0x3f2d8489	0.6778036
111	0x3ff4b204	1.9116826
112	0x3f9b5d21	1.2137796
113	0x4062ce05	3.5438244
114	0x3ff55d2e	1.9169061
115	0x3f800ec4	1.0004506
116	0x40205d58	2.5056973
117	0x3fcc4ef4	1.5961595
118	0x3ea9123e	0.3302173
119	0x3fa9f5c2	1.3278124
120	0x3fade659	1.3585922
121	0x3f10fa59	0.56632
122	0x3f710abf	0.9415702
123	0x3fe2acab	1.7708944
124	0x3f8d5c41	1.1043779
125	0x3fe89061	1.8169061
126	0x3f59e1bd	0.85110074
127	0x3f31c433	0.6944

features.3.conv.weight f4 [256, 128, 3]
0	0xbe1814e9	-0.14851727
1	0x3c1653f7	0.009175292
2	0x3c9bc39c	0.019014172
3	0x3e4bac97	0.19890057
4	0x3db987df	0.090591185
5	0x3e5cec8d	0.21574612
6	0xbce1504b	-0.027504107
7	0x3d2fe7d3	0.042945694
8	0x3db99760	0.090620756
9	0x3d514dbe	0.05109953
10	0x3d4f1aa1	0.050562505
11	0xbdaa4ba0	-0.083152056
12	0x3daf88de	0.08571027
13	0x3e27f753	0.1640294
14	0xbd25f52a	-0.04051701
15	0x3d337b39	0.043818686
16	0x3da74db2	0.08169116
17	0x3def6ee4	0.116910726
18	0x3db629b1	0.08894671
19	0x3d74a164	0.059724227
20	0xbd58aefc	-0.052901253
21	0xbd61590f	-0.055016574
22	0xbdebd46d	-0.115151264
23	0xbd4f8590	-0.050664485
24	0xbd893962	-0.06700398
25	0xbcce0499	-0.025148677
26	0x3ce03547	0.027369155
27	0x3d28e594	0.041234568
28	0xbd817c05	-0.06322483
29	0x3c11925d	0.008884993
30	0x3d5091f5	0.050920445
31	0xbdc74850	-0.097305894
32	0xbdae1a2a	-0.08501084
33	0xbce9e461	-0.028551282
34	0x3b7a9d66	0.003824079
35	0xbca49ce9	-0.020094352
36	0x3ca07cf3	0.01959083
37	0x3dc3198a	0.095263556
38	0x3e297ee6	0.16552314
39	0xbded54f3	-0.115884684
40	0x3d92813e	0.07153557
41	0x3e2abf6f	0.16674589
42	0xbd9706cf	-0.073743455
43	0x3d724ec9	0.059157167
44	0x3c2b1185	0.010441189
45	0x3be7980d	0.0070676864
46	0xbd9521a5	-0.07281808
47	0xbcabefb5	-0.020988325
48	0xbc6cc568	-0.014451362
49	0xbde52cb8	-0.1119017
50	0x3ccd585c	0.025066547
51	0x3d692e72	0.05692906
52	0x3d911893	0.07084765
53	0xbcc7f394	-0.02440814
54	0x3d3168dd	0.043312896
55	0xbdb30b85	-0.087424316
56	0x3d1c27b3	0.038123798
57	0xbdfbf3a7	-0.12302332
58	0x3d8a5eaa	0.06756337
59	0x3cd8a8ec	0.026447736
60	0xbdec3990	-0.11534417
61	0xbd07e4e9	-0.03317729
62	0xbdd02734	-0.101637274
63	0x3d6d763c	0.057974085
64	0xbd5aecd2	-0.053448506
65	0x3e04cac7	0.12967978
66	0x3dc994fa	0.09842868
67	0x3d6ccc3d	0.057811964
68	0x3e034155	0.12817891
69	0xbe36b77e	-0.17843434
70	0xbd12342c	-0.035694286
71	0x3e3f7e80	0.187006
72	0x3cf75dde	0.030196127
73	0xbd68dba7	-0.0568501
74	0x3d71517d	0.058915604
75	0x3d6c04fc	0.05762194
76	0xbc9f67f3	-0.019458747
77	0xbd53ce0c	-0.051710173
78	0xbd2a1304	-0.04152204
79	0xbd8b0e98	-0.06789893
80	0x3dfde69e	0.12397502
81	0x3cbb22e3	0.022843784
82	0xbd67c88b	-0.056587737
83	0x3ccd623d	0.025071258
84	0x3d3bbd63	0.04583491
85	0x3d816352	0.06317772
86	0xbdb5d73d	-0.08878944
87	0xbcdd47ec	-0.027011834
88	0xbca747de	-0.020420011
89	0xbd2cdde0	-0.042203784
90	0xbc54e872	-0.012994872
91	0x3c709ff1	0.0146865705
92	0xbce721b6	-0.028214317
93	0xbd8dd280	-0.06924915
94	0x3d9484c2	0.07251884
95	0x3b99b801	0.0046911244
96	0xbd8932ce	-0.06699143
97	0xbd37fc81	-0.04491854
98	0x3db50cef	0.088403575
99	0xbe3dad4f	-0.18523143
100	0xbd8a8603	-0.06763842
101	0x3c5bec10	0.013422981
102	0x3d7e28e4	0.062050715
103	0xbba74e01	-0.0051057343
104	0x3d8c560c	0.0685235
105	0xbd965cdf	-0.073419325
106	0xbade5238	-0.0016961759
107	0x3d2df1bb	0.04246686
108	0xbd9674dd	-0.07346509
109	0x3da81b73	0.082083605
110	0xbcb5e3f1	-0.022203417
111	0xbe1698b0	-0.14706683
112	0xbbaeacf5	-0.0053306767
113	0xbc8ac5ca	-0.016940016
114	0xbd517c0e	-0.0511437
115	0xbe02fcc7	-0.1279174
116	0xbd7113e2	-0.058856852
117	0xbd3fed6b	-0.04685728
118	0x3dcfdb22	0.10149218
119	0xbc90384b	-0.017604968
120	0xbd13f4b4	-0.03612204
121	0x3d425d25	0.04745211
122	0x3df7b606	0.12095265
123	0xbdecd266	-0.11563568
124	0xbe1174f2	-0.14204767
125	0xbd8a3563	-0.06748464
126	0xbd51ca98	-0.0512186
127	0xbb6c2d99	-0.003603792
128	0xbd6a9bc6	-0.057277463
129	0x3dae1bb7	0.0850138
130	0xbd4f9150	-0.05067569
131	0xbcd00cc3	-0.02539671
132	0xbd0edf87	-0.03488114
133	0xbdc23ef3	-0.09484663
134	0x3e0d941d	0.13826032
135	0xbdf0d080	-0.11758518
136	0xbd810990	-0.06300652
137	0x3d84610a	0.06463821
138	0x3e03c91e	0.12869689
139	0xbdca271f	-0.09870743
140	0x3c63657a	0.013879174
141	0x3d59c933	0.053170394
142	0x3d7cabf8	0.06168744
143	0xbd6a1437	-0.057148185
144	0xbdc2302b	-0.094818436
145	0xbe0b3750	-0.13595319
146	0xbe3f00a6	-0.18652591
147	0xbd72fbe1	-0.05932224
148	0xbdcf1840	-0.10112047
149	0x3d21237f	0.039340492
150	0xbd022278	-0.031771153
151	0xbdc65ecd	-0.096860506
152	0x3d25ef19	0.040511224
153	0xbdff7a87	-0.12474542
154	0x3e018cbb	0.1265134
155	0xbe06e4b4	-0.13173181
156	0xbbe38254	-0.0069430266
157	0xbda61bf4	-0.081108004
158	0xbdebaf2b	-0.1150802
159	0xbd17eeb4	-0.03709288
160	0xbcd90726	-0.026492666
161	0x3e8159d9	0.2526386
162	0xbdc84f9b	-0.097808085
163	0x3d1a3953	0.037652325
164	0xbd822b20	-0.06355882
165	0xbcce4874	-0.025181033
166	0xbdb02f8b	-0.08602818
167	0x3d0f201e	0.03494274
168	0x3c35a226	0.0110860225
169	0x3dec4305	0.115362205
170	0x3d932cd3	0.07186284
171	0xbd9a9ae7	-0.075490765
172	0xbd93fc04	-0.072258025
173	0xbd875d41	-0.06609584
174	0x3d35f538	0.044423312
175	0xbcaa988c	-0.020824693
176	0xbd1bfb9f	-0.03808176
177	0xbd24d11b	-0.04023848
178	0xbdb3d8cb	-0.08781584
179	0xbd25a888	-0.040443927
180	0xbcc107c8	-0.02356328
181	0x3d72aa3d	0.059244383
182	0x3c90dd56	0.017683666
183	0x3e00127b	0.1250705
184	0x3bdc2e1c	0.006719364
185	0x3bf7fea7	0.0075681987
186	0x3cc9acbb	0.024618497
187	0xbd1f3365	-0.038867373
188	0xbdf68c43	-0.120384715
189	0x3d28c146	0.041199945
190	0x3dc8233a	0.09772344
191	0x3dde928c	0.10867795
192	0x3e32dd65	0.17467268
193	0x3dddebe5	0.10836009
194	0x3cf0dd6d	0.029402459
195	0xbe253b16	-0.16135821
196	0xbb7fea8d	-0.0039049715
197	0xbc09f862	-0.0084210355
198	0x3d80dc58	0.06292027
199	0xbc9d1fdc	-0.01918023
200	0x3d696c3d	0.05698799
201	0xbbb30b5c	-0.0054640006
202	0x3cd31bb3	0.025770044
203	0xbd42cc60	-0.04755819
204	0xbd998540	-0.074961185
205	0xbdebf500	-0.115213394
206	0xbdaf6e70	-0.08565986
207	0x3d8a694c	0.06758365
208	0x3cb1b6a8	0.021693543
209	0xbd395c38	-0.045253962
210	0xbe4d0bfe	-0.20024106
211	0xbdd5030f	-0.10400974
212	0xbbbda3e2	-0.0057873586
213	0xbd9a74f1	-0.07541836
214	0xbd651f6e	-0.055938177
215	0x3d0ecbd1	0.034862343
216	0xbc6934d7	-0.014233789
217	0xbd3bd355	-0.04585584
218	0xbe1a893b	-0.15091412
219	0x3db87237	0.0900616
220	0xbd3ebae4	-0.04656495
221	0xbd9a5584	-0.07535842
222	0x3ddd381f	0.1080172
223	0xbd0e8f75	-0.03480478
224	0x3dec1d1b	0.11528989
225	0x3d92b711	0.071638234
226	0x3e40bcca	0.18822017
227	0x3dae7082	0.08517553
228	0x3db3fbd3	0.08788266
229	0xbde6b431	-0.112648375
230	0x3b4af8a3	0.0030970953
231	0xbbeca834	-0.0072222
232	0xbdc74832	-0.09730567
233	0xbd7f4473	-0.062321138
234	0x3d2f15be	0.042745344
235	0x3c23022b	0.009949247
236	0x3de909dd	0.113788344
237	0xbd3ea1da	-0.046541072
238	0x3c570be5	0.0131253945
239	0x3d20fc41	0.039303068
240	0xbe077958	-0.13229883
241	0xbc0ee8ab	-0.008722465
242	0xbe3da628	-0.18520415
243	0xbcf5dd4e	-0.030012753
244	0x3d2b30c0	0.04179454
245	0x3e0d260a	0.13784042
246	0xbda8f01d	-0.08248923
247	0xbe09fda1	-0.13475658
248	0xbdb62685	-0.08894066
249	0xbca5d9f0	-0.020245522
250	0xbda7033b	-0.08154913
251	0xbd55e652	-0.052221604
252	0xbe2ddcc0	-0.1697874
253	0xbc694b1f	-0.014239102
254	0xbd0261c7	-0.03183153
255	0xbdf5b109	-0.119966574
