ecg_afib_detection/checkpoints/ptbxl/100hz/cnn1d/fold_4/best.pt (torch, 626357 bytes, 22 tensors)

features.0.conv.weight f4 [32, 12, 7]
0.28926793 0.101561695 -0.12148798 0.17825289 0.028031124 0.14521468 0.27659324 -0.030584732
0.058188155 -0.052931454 -0.06597652 -0.05872115 0.07362042 -0.018863538 0.06327731 -0.1393682
0.39257616 -0.053292233 0.21038629 0.08138083 -0.39943063 0.08127034 -0.07351777 0.14311908
-0.12865107 0.070295855 -0.12358853 -0.14934187 -0.13531883 0.104232796 -0.13843566 0.16304183
0.29619348 0.07810429 -0.05790564 -0.03749424 0.22075963 -0.052493654 -0.08524214 0.042997774
-0.1642198 -0.24675359 -0.13261971 -0.14631498 0.1503522 0.32446948 -0.12485314 -0.032981504
-0.0090893 0.40904796 -0.20612867 -0.14609677 -0.23394705 -0.07085999 -0.1609985 0.050386656
-0.020071262 0.009655783 -0.4759392 0.4127818 0.09996602 -0.2924408 -0.26660144 0.23266263
0.22431351 -0.19021942 0.064889334 0.1472796 0.103029594 -0.10375566 -0.020873034 0.20213611
-0.22475712 -0.026230495 -0.16225402 0.29602614 0.17626607 0.0047625867 -0.19705671 -0.090327725
-0.027189972 -0.050413854 0.07561427 0.11001898 0.019315358 0.108875535 -0.11303365 0.0832965
0.1953965 0.08701282 0.03504166 0.10798829 -0.109282404 -0.02920425 0.11984829 0.38554218
0.112535916 -0.13802654 -0.0032192215 -0.11726089 -0.17388956 0.08719538 0.22104014 0.17504275
0.18846574 0.05410804 -0.19446324 0.20186734 -0.12460219 -0.12673664 0.11157892 0.1616887
-0.21601245 -0.16679941 -0.24117517 -0.05731943 -0.113733634 0.17744803 -0.059813686 -0.047620647
-0.034904193 0.13947582 -0.03932289 0.14353976 -0.15600836 0.15990184 -0.33580002 -0.18837546
0.5035486 0.0012930587 0.2301141 0.047005884 0.36156663 -0.010381026 -4.3514654e-05 0.06015662
0.09258779 -0.06325755 0.023585133 0.04353849 0.0025484816 0.030686269 -0.041668743 -0.28634113
0.03708803 -0.0062738475 -0.028977444 -0.00050339603 0.40950966 0.16487831 -0.10567301 0.10596282
0.07542507 -0.06707398 0.19456603 0.021855911 -0.25652966 0.010974411 -0.2091371 -0.054603845
0.17358077 -0.30264676 -0.099677145 -0.075368434 -0.38184988 -0.042038575 -0.14775017 0.16747351
-0.29920405 -0.031307533 0.09455473 -0.14188738 0.19254191 0.384138 -0.1707201 -0.08474175
0.0027993652 -0.29103535 -0.08196649 0.12555234 0.1908557 0.0034769853 -0.124571405 -0.17751068
0.27606165 -0.17483175 0.17887571 -0.007549217 0.2506165 0.15922968 0.03855332 0.028694438
-0.03471484 0.072983205 0.21069123 -0.18283996 0.091625914 -0.041157186 0.03522386 -0.028066367
-0.042585965 0.3326992 0.081499405 0.08782587 0.12742789 0.09216209 0.061584998 0.093577705
0.083410844 0.0057068793 0.5050259 -0.030465951 -0.015857588 0.12707078 -0.0875336 -0.01864009
-0.19631608 -0.3524715 0.17743617 0.16729686 -0.070458405 0.110645816 -0.09722166 0.08005576
0.061957676 -0.027334465 0.18193184 0.19474341 -0.08010496 0.16191858 0.052128404 0.12223779
-0.2772003 -0.13904083 -0.005901219 -0.100842275 -0.042503722 0.18797028 -0.008775676 -0.18105124
0.19513519 0.017454466 -0.24099883 -0.08460756 0.024144303 -0.24311456 -0.020926284 -0.12767683
0.21554169 0.14166887 0.21936506 -0.20351177 0.0504142 -0.023244048 -0.0424792 -0.0924229
00000000: ed1a 943e 94ff cf3d b1ce f8bd ed87 363e
00000010: 87a1 e53c 28b3 143e a19d 8d3e d58c fabc
00000020: b456 6e3d a7ce 58bd b31e 87bd 9785 70bd
00000030: 4ec6 963d b587 9abc 8997 813d 8ab6 0ebe
00000040: beff c83e f548 5abd 816f 573e feaa a63d
00000050: 2c82 ccbe 1071 a63d 7c90 96bd cf8d 123e
00000060: 1bbd 03be 46f7 8f3d fc1b fdbd 13ed 18be
00000070: 0591 0abe 0178 d53d 14c2 0dbe 70f4 263e
00000080: aca6 973e 24f5 9f3d 772e 6dbd 8f93 19bd
00000090: d00e 623e 9603 57bd 6e93 aebd 6f1e 303d
000000a0: 3c29 28be f9ac 7cbe 76cd 07be 98d3 15be
000000b0: edf5 193e dd20 a63e 01b3 ffbd 9d17 07bd
000000c0: 4aeb 14bc bc6e d13e 6513 53be 649a 15be
000000d0: d18f 6fbe 0b1f 91bd cadc 24be 3d62 4e3d
000000e0: 7d6c a4bc 4a33 1e3c 4eae f3be 2358 d33e
000000f0: fcba cc3d cdba 95be fc7f 88be 1d3f 6e3e
00000100: 71b2 653e e1c8 42be b3e4 843d 77d0 163e
00000110: 2e01 d33d d97d d4bd edfd aabc c5fc 4e3e
00000120: bb26 66be 56e1 d6bc eb25 26be bd90 973e
00000130: 187f 343e 790f 9c3b 3cc9 49be befd b8bd
00000140: 81bd debc c27e 4ebd a8db 9a3d a251 e13d
00000150: 3e3b 9e3c 23fa de3d 307e e7bd 5b97 aa3d
00000160: 0516 483e c733 b23d d887 0f3d f728 dd3d
00000170: 74cf dfbd c03d efbc 0573 f53d c965 c53e
00000180: 3b79 e63d d456 0dbe 93f9 52bb 7a26 f0bd
00000190: 1b10 32be 7e93 b23d 5958 623e 683e 333e
000001a0: 2afd 403e 64a0 5d3d 5f21 47be 50b6 4e3e
000001b0: 6f2f ffbd 40c7 01be 7d83 e43d b991 253e
000001c0: 5e32 5dbe 77cd 2abe a0f6 76be c7c7 6abd
000001d0: 2eed e8bd f0b4 353e 32ff 74bd de0d 43bd
000001e0: b3f7 0ebd c0d2 0e3e 0a11 21bd 16fc 123e
000001f0: a8c0 1fbe 4fbd 233e fbed abbe 7fe5 40be
00000200: 90e8 003f da7b a93a 08a3 6b3e 3e89 403d
00000210: 431f b93e 2e15 2abc 8183 36b8 ca66 763d
00000220: ab9e bd3d 2d8d 81bd 9c35 c13c 6a55 323d
00000230: 6d04 273b c561 fb3c d8ac 2abd 4e9b 92be
00000240: 9ee9 173d d994 cdbb 1b62 edbc 56f6 03ba
00000250: 40ab d13e dcd5 283e 176b d8bd 0903 d93d
00000260: 7678 9a3d 155e 89bd 513c 473e 2b0b b33c
00000270: db57 83be 04ce 333c 0928 56be 48a8 5fbd
00000280: 28bf 313e 84f4 9abe 8823 ccbd c45a 9abd
00000290: d481 c3be a430 2cbd d24b 17be 2d7e 2b3e
000002a0: 4631 99be 543c 00bd e9a5 c13d ed4a 11be
000002b0: b529 453e bcad c43e 40d1 2ebe 158d adbd
000002c0: 8e75 373b 9602 95be 0cde a7bd cb90 003e
000002d0: ad6f 433e 22de 633b 4b1f ffbd 5cc5 35be
000002e0: f457 8d3e 1807 33be 322b 373e 6c5f f7bb
000002f0: ce50 803e 1b0d 233e 16ea 1d3d 9910 eb3c
00000300: 2631 0ebd 3878 953d 71bf 573e 663a 3bbe
00000310: 5ea6 bb3d 7094 28bd e546 103d 70eb e5bc
00000320: 9f6e 2ebd 8d57 aa3e 29e9 a63d 0dde b33d
00000330: 757c 023e 7abf bc3d 8d40 7c3d aba5 bf3d
00000340: 4ed3 aa3d c600 bb3b 6149 013f bb93 f9bc
00000350: c6e7 81bc d81e 023e d144 b3bd 1ab3 98bc
00000360: 1507 49be 2577 b4be d4b1 353e de4f 2b3e
00000370: 7f4c 90bd 469a e23d 261c c7bd 46f4 a33d
00000380: 55c7 7d3d 87ec dfbc 574c 3a3e d16a 473e
00000390: 120e a4bd fccd 253e 9884 553d ce57 fa3d
000003a0: 33ed 8dbe b860 0ebe 035f c1bb 6586 cebd
000003b0: 6218 2ebd 487b 403e dac7 0fbc 7f65 39be
000003c0: 85d1 473e abfc 8e3c 66c8 76be ba46 adbd
000003d0: 46ca c53c 06f3 78be 996d abbc b7bd 02be
000003e0: f6b6 5c3e a511 113e 3ca1 603e 6465 50be
000003f0: 1f7f 4e3d 4d6a bebc abfe 2dbd 3848 bdbd

features.0.bn.weight f4 [32]
0.99789804 0.958863 1.0438933 1.121352 0.9756302 1.0487014 0.9977266 1.0160409
0.96512663 1.019222 1.0188332 0.98376167 0.97343636 0.95435345 0.9627175 1.0019454
0.9455454 1.0042509 0.9843628 1.0041589 1.0053455 1.0282769 0.98799 1.0240049
1.0239522 1.0505302 1.0344394 1.0269024 0.97759485 0.92751724 0.9919576 1.0121757
00000000: 3f76 7f3f 0c78 753f 4c9e 853f 7688 8f3f
00000010: e7c2 793f d93b 863f 036b 7f3f a10d 823f
00000020: 8a12 773f de75 823f 2069 823f ced7 7b3f
00000030: 2033 793f 8250 743f a774 763f bf3f 803f
00000040: 430f 723f 4b8b 803f 33ff 7b3f 4788 803f
00000050: 29af 803f 949e 833f eaec 7c3f 9812 833f
00000060: de10 833f c677 863f 8368 843f 8a71 833f
00000070: a843 7a3f c571 6d3f eff0 7d3f f98e 813f

features.0.bn.bias f4 [32]
-0.014176072 0.056048848 0.08294611 0.050063808 -0.039010417 0.001123715 0.110203624 0.1059999
0.030305143 0.028679151 0.043926034 -0.0034146307 0.09915473 0.078716196 -0.033002943 0.15378097
0.0041553313 0.037864983 0.018208459 0.085460626 0.052929576 -0.0012742433 -8.550285e-05 0.044605464
-0.026292041 0.12906179 0.067215495 0.025991734 -0.024555651 0.03694856 -0.039136432 0.006845296
00000000: c142 68bc 7a93 653d a6df a93d b50f 4d3d
00000010: 63c9 1fbd 9e49 933a 70b2 e13d 7a16 d93d
00000020: 7e42 f83c 8af0 ea3c c9eb 333d ffc7 5fbb
00000030: a311 cb3d f535 a13d 182e 07bd c278 1d3e
00000040: 7229 883b 5018 1b3d e829 953c fb05 af3d
00000050: afcc 583d 8304 a7ba fe4f b3b8 38b4 363d
00000060: 6862 d7bc c628 043e 47a8 893d 9eec d43c
00000070: ef28 c9bc 6057 173d 864d 20bd 814e e03b

features.0.bn.running_mean f4 [32]
-9.2376344e-05 -3.074763e-05 0.00016256727 -6.41784e-05 0.00011562294 -7.1833994e-05 0.0001827426 -0.00021999599
-0.00014856046 -0.00014324336 0.00013496706 -0.00012856151 3.5871155e-05 2.940622e-05 -0.00013514375 -7.889609e-05
2.5823398e-05 -3.4020733e-05 -0.00018727958 -2.926102e-05 -5.522636e-05 0.00015914245 -0.00017270018 4.1422878e-05
8.496027e-05 0.00019913276 -0.00011862275 -0.0001623571 2.2380551e-05 0.00011380315 -0.000272878 4.0208106e-05
00000000: 2cba c1b8 04f7 00b8 d276 2a39 8497 86b8
00000010: 987a f238 95a5 96b8 989e 3f39 b9ae 66b9
00000020: e5c6 1bb9 9933 16b9 f285 0d39 78ce 06b9
00000030: 5c74 1638 60ad f637 60b5 0db9 0475 a5b8
00000040: 539f d837 7cb1 0eb8 7b60 44b9 9075 f5b7
00000050: daa2 67b8 7adf 2639 da16 35b9 7abd 2d38
00000060: b32c b238 4bce 5039 1bc5 f8b8 673e 2ab9
00000070: debd bb37 9aa9 ee38 1111 8fb9 20a5 2838

features.0.bn.running_var f4 [32]
2.88227 2.115433 2.7726097 1.7613816 2.3751926 5.5120873 0.9916101 2.1352587
1.3948929 3.4074433 1.6335524 3.5850554 3.100192 2.7536092 2.703741 1.1413347
0.9640548 2.1856966 5.8582864 3.6472294 1.6370273 1.7348249 4.9466267 3.4627862
1.5882066 1.8307894 4.313744 3.603419 3.5486968 1.5189545 6.1246257 1.787186
00000000: 1d77 3840 4163 0740 7072 3140 f474 e13f
00000010: 2803 1840 0563 b040 29da 7d3f 14a8 0840
00000020: da8b b23f 8d13 5a40 3f18 d13f 8c71 6540
00000030: 8c69 4640 223b 3040 180a 2d40 4117 923f
00000040: 4ccc 763f 74e2 0b40 1577 bb40 356c 6940
00000050: 1c8a d13f be0e de3f c44a 9e40 4a9e 5d40
00000060: 5b4a cb3f 4f57 ea3f 310a 8a40 6b9e 6640
00000070: d91d 6340 1a6d c23f effc c340 83c2 e43f

features.1.conv.weight f4 [64, 32, 5]
-0.04691138 -0.008222392 0.11970014 0.030480053 0.11057214 0.0683083 -0.105122685 -0.28738865
-0.029984685 0.01074936 -0.27930677 -0.20283753 -0.10874255 0.046243686 -0.11034538 -0.22096618
-0.13714749 -0.0010530786 -0.031374868 0.099573456 -0.08492257 0.10412026 -0.17894045 -0.121513955
0.032592516 0.01001021 0.1587809 0.15160413 0.08593002 0.11955778 0.042624723 0.00092638435
-0.04340306 -0.02657481 0.0634392 -0.13008837 -0.09208362 -0.064944975 -0.24031793 -0.105350465
-0.16366649 -0.14521547 -0.0075248377 0.064635344 -0.051773284 -0.033417933 0.05380799 0.19024153
-0.032195583 -0.071007006 0.096060514 0.16608675 -0.26331007 0.24387047 -0.034001265 -0.050952338
-0.042196196 -0.08727517 -0.014654914 0.28925547 0.22405691 0.08654109 0.0021124934 -0.008762031
-0.24931282 -0.035657417 -0.06484983 0.062384825 0.21698216 0.09641874 0.118267335 -0.047287248
0.05092498 0.032995366 0.10680369 0.1741337 0.09833441 0.093255185 -0.1792854 -0.08290555
0.020865424 0.12497215 -0.16957873 -0.026078187 0.100153424 0.19238485 0.0068476326 0.16135004
-0.1375346 -0.030095307 -0.1424738 0.02739845 -0.07377703 -0.16160387 0.0069883573 -0.034803975
-0.099450916 -0.12113555 0.04767196 0.1925901 -0.05872209 0.15788864 0.0738516 -0.015972482
0.09770447 -0.15172862 -0.16927597 -0.06082809 -0.010505588 0.17567301 0.038436156 -0.11422461
0.11316827 -0.122735985 -0.04846285 0.11120461 -0.10760603 0.26084325 -0.04811442 0.07741794
0.20681974 -0.026414534 -0.23757586 -0.16866414 -0.11057841 -0.2672541 0.040683445 -0.124862894
0.04069659 0.06349717 -0.2794854 0.23250192 0.20461814 0.011098253 -0.14430508 0.06916203
0.06334337 -0.12861356 -0.09182977 0.016433898 -0.10160462 -0.25668484 0.0010722483 -0.21946372
-0.04232686 0.10052861 0.037336603 0.051359337 -0.20948233 0.024498511 -0.009402789 -0.10007707
-0.06773008 -0.017444853 0.073021114 -0.071410514 -0.03230973 -0.0113076735 0.16944759 0.0868575
-0.052134573 -0.1371904 0.06822494 -0.22517669 0.03406365 0.019947844 -0.029904267 -0.23068932
0.10988203 0.10874849 -0.03160329 -0.0063552456 0.06457352 0.011743612 -0.21717605 0.22017138
0.07258701 -0.0971785 -0.29877034 -0.08595031 0.030168906 -0.02763824 -0.048794825 -0.10623689
-0.17577475 0.10453453 0.2702695 -0.0040114527 -0.3430463 -0.039825447 0.06700561 -0.025253667
0.05811004 -0.13759068 0.14808136 0.067474075 -0.13012746 -0.12628575 0.019296382 -0.14573026
0.12798141 0.020222042 -0.05675756 0.085132755 0.068431236 0.122218765 -0.05946189 0.1340027
-0.24603881 -0.0047911634 -0.09779753 -0.013793209 -0.05031733 -0.10795638 -0.12877867 0.079032175
0.03876734 -0.25245327 -0.12082005 -0.08800089 -0.044243436 -0.121582635 0.17777674 -0.05819903
-0.07446019 0.17432171 -0.099176705 -0.17468579 -0.048480965 -0.13325472 -0.102639474 0.18096565
-0.09825709 0.023976833 0.09513241 0.040998816 0.032017663 -0.14492267 -0.01818792 -0.21284373
0.1023742 -0.19827718 0.18811649 0.014878066 -0.017296154 0.088420674 -0.08156815 0.036790986
0.104427494 -0.22352958 0.024156857 0.061973535 -0.24078138 -0.037053503 -0.05854728 -0.13920484
00000000: 2626 40bd 36b7 06bc 5925 f53d 4eb1 f93c
00000010: a573 e23d 39e5 8b3d 904a d7bd 9b24 93be
00000020: 71a2 f5bc 151e 303c 4c01 8fbe a4b4 4fbe
00000030: 6ab4 debd 056a 3d3d c2fc e1bd f544 62be
00000040: 6470 0cbe 7407 8aba ef82 00bd 2bed cb3d
00000050: e2eb adbd 013d d53d 2a3c 37be 4fdc f8bd
00000060: bb7f 053d dd01 243c 7697 223e 1d3e 1b3e
00000070: 14fc af3d b6da f43d 4397 2e3d 9ad8 723a
00000080: 68c7 31bd 6ab3 d9bc 69ec 813d e335 05be
00000090: 5696 bcbd df01 85bd e715 76be fcc1 d7bd
000000a0: 3098 27be 5db3 14be ea92 f6bb 895f 843d
000000b0: 3910 54bd 3ee1 08bd c465 5c3d adce 423e
000000c0: 84df 03bd 1f6c 91bd 60bb c43d a512 2a3e
000000d0: 94d0 86be 2eb9 793e e944 0bbd 66b3 50bd
000000e0: ebd5 2cbd 53bd b2bd 2a1b 70bc 4b19 943e
000000f0: 2d6f 653e 743c b13d c271 0a3b 9f8e 0fbc
00000100: dc4b 7fbe 830d 12bd fdcf 84bd 3b87 7f3d
00000110: 9230 5e3e 3077 c53d 2536 f23d 46b0 41bd
00000120: b696 503d 2626 073d e5bb da3d 1b50 323e
00000130: 8d63 c93d 93fc be3d 9896 37be 63ca a9bd
00000140: f7ed aa3c 66f1 ff3d 0ca6 2dbe eca1 d5bc
00000150: 3d1d cd3d 8900 453e 1b62 e03b f238 253e
00000160: dfd5 0cbe 6f8a f6bc a7e4 11be b772 e03c
00000170: 6918 97bd 7c7b 25be 97fe e43b 9d8e 0ebd
00000180: ecac cbbd ea15 f8bd ac43 433d 5736 453e
00000190: 9386 70bd 8fad 213e 823f 973d b9d8 82bc
000001a0: 4819 c83d bf5e 1bbe ae56 2dbe e026 79bd
000001b0: a11f 2cbc a0e3 333e 3b6f 1d3d 98ee e9bd
000001c0: c4c4 e73d 015d fbbd fb80 46bd 3ebf e33d
000001d0: 8d60 dcbd 3f8d 853e a013 45bd 4c8d 9e3d
000001e0: 8ec8 533e 4b63 d8bc 1647 73be 4bb6 2cbe
000001f0: ef76 e2bd 88d5 88be afa3 263d 1eb8 ffbd
00000200: 78b1 263d ce0a 823d b618 8fbe fc14 6e3e
00000210: 6b87 513e 72d5 353c b6c4 13be d3a4 8d3d
00000220: 2bba 813d 46b3 03be 3f11 bcbd 62a0 863c
00000230: 1516 d0bd 326c 83be af8a 8c3a 19bb 60be
00000240: ee5e 2dbd f2e1 cd3d 44ee 183d 2b5e 523d
00000250: 8982 56be 1ab1 c83c 280e 1abc 35f5 ccbd
00000260: 11b6 8abd 82e8 8ebc 188c 953d ad3f 92bd
00000270: 3557 04bd d243 39bc ab83 2d3e 58e2 b13d
00000280: 108b 55bd a47b 0cbe 84b9 8b3d b894 66be
00000290: 5386 0b3d a969 a33c cbf9 f4bc d239 6cbe
000002a0: d409 e13d 87b7 de3d 7472 01bd aa3f d0bb
000002b0: 1f3f 843d 4768 403c 6663 5ebe 9b74 613e
000002c0: 80a8 943d 8505 c7bd 6df8 98be b706 b0bd
000002d0: c824 f73c 9769 e2bc 15dd 47bd ba92 d9bd
000002e0: 4cfe 33be 3316 d63d c460 8a3e 8172 83bb
000002f0: c4a3 afbe 0220 23bd 3d3a 893d c7e0 cebc
00000300: cb04 6e3d 92e4 0cbe a4a2 173e d92f 8a3d
00000310: 2240 05be 0d51 01be 7213 9e3c 503a 15be
00000320: 8f0d 033e b2a8 a53c 9e7a 68bd 155a ae3d
00000330: ad25 8c3d d54d fa3d 508e 73bd 0138 093e
00000340: 99f1 7bbe 31ff 9cbb 124a c8bd e9fc 61bc
00000350: 8b19 4ebd 3c18 ddbd 8ede 03be 9fdb a13d
00000360: 81ca 1e3d 8e41 81be 8170 f7bd d039 b4bd
00000370: 9b38 35bd 5100 f9bd 1b0b 363e 1b62 6ebd
00000380: 967e 98bd 6481 323e 281d cbbd d5e0 32be
00000390: fa93 46bd ed73 08be a534 d2bd 0f4f 393e
000003a0: 033b c9bd 106b c43c c8d4 c23d 60ee 273d
000003b0: f424 033d 9c66 14be d5fe 94bc b5f3 59be
000003c0: 91a9 d13d 2c09 4bbe 9ca1 403e 22c3 733c
000003d0: aab0 8dbc e615 b53d 340d a7bd 25b2 163d
000003e0: 15de d53d f0e4 64be 9ae4 c53c f6d7 7d3d
000003f0: 658f 76be 6ac5 17bd 46cf 6fbd b78b 0ebe

features.1.bn.weight f4 [64]
0.9824186 1.0453396 1.028377 0.93843466 0.9761317 0.94972765 0.95977604 0.941672
0.9789839 0.94097435 0.98396873 1.0350537 0.9541019 0.9998666 1.0283375 1.0606298
0.9416711 1.007899 0.9882131 0.9910316 0.98028624 0.94338346 1.0069584 1.0183603
1.0270538 0.99874413 0.9803215 0.94463146 0.9683713 1.0173011 0.9791196 1.0578456
0.97551924 0.9909115 0.98502445 1.0144291 1.0798678 1.0390639 1.0232642 1.0064399
1.0336033 0.98157555 0.9507718 0.98529285 1.0033045 1.0397458 1.0202007 1.1363372
1.0055909 1.0126158 1.0428843 1.0716264 0.92095584 0.9580042 1.055295 1.0171716
1.0032965 0.9573295 0.98477316 1.0852337 0.99202627 0.96021104 0.95400757 0.9653328
00000000: c97f 7b3f b0cd 853f dca1 833f 413d 703f
00000010: c4e3 793f 5a21 733f e2b3 753f 6b11 713f
00000020: b09e 7a3f b2e3 703f 60e5 7b3f a47c 843f
00000030: 0640 743f 42f7 7f3f 90a0 833f b8c2 873f
00000040: 5b11 713f d602 813f 89fb 7c3f 3fb4 7d3f
00000050: 0af4 7a3f 9481 713f 03e4 803f a159 823f
00000060: 8076 833f b2ad 7f3f 5af6 7a3f 5ed3 713f
00000070: 2ee7 773f ec36 823f 95a7 7a3f 7c67 873f
00000080: a1bb 793f 60ac 7d3f 902a 7c3f d0d8 813f
00000090: 1c39 8a3f 0c00 853f 52fa 823f 06d3 803f
000000a0: 1d4d 843f 8948 7b3f c865 733f 273c 7c3f
000000b0: 486c 803f 6416 853f f095 823f 7f73 913f
000000c0: 34b7 803f 659d 813f 3c7d 853f 0e2b 893f
000000d0: c3c3 6b3f c33f 753f e813 873f ae32 823f
000000e0: 056c 803f 8c13 753f 181a 7c3f f0e8 8a3f
000000f0: 6ff5 7d3f 64d0 753f d739 743f 0d20 773f

features.1.bn.bias f4 [64]
0.046069097 0.06573711 0.033030573 -0.072907895 0.0026914703 -0.07804695 -0.09279928 -0.04295432
0.021274498 -0.05506539 -0.027091743 -0.003934217 -0.0037251115 -0.006212845 0.020579608 0.0043219933
0.028036578 0.0058407583 -0.046673603 -0.04122319 -0.004069302 -0.014597217 -0.011488743 0.0047957124
-0.04297144 -0.033044778 0.007149301 0.008764785 -0.022459896 -0.028830832 -0.005495179 -0.016125029
-0.0003565244 0.011020033 -0.033155702 0.01948569 0.02753408 0.07421709 -0.024024522 -0.015587812
-0.014747431 -0.017479546 -0.02241473 -0.010752058 -0.011850753 0.019792637 -0.020240415 0.088847235
-0.012871377 -0.020560017 0.00014729452 0.08050568 -0.03480196 -0.081838466 0.040387098 0.02342813
0.020774959 -0.010917137 -0.09603148 0.015019404 0.015149874 -0.007717611 -0.03241284 -0.0021956265
00000000: f3b2 3c3d 2ea1 863d 114b 073d bc50 95bd
00000010: 6163 303b 14d7 9fbd 8d0d bebd def0 2fbd
00000020: db47 ae3c 3f8c 61bd 81ef ddbc 9bea 80bb
00000030: 0021 74bb 1f95 cbbb 9196 a83c 829f 8d3b
00000040: f7ac e53c d563 bf3b d22c 3fbd a6d9 28bd
00000050: c857 85bb 2a29 6fbc 483b 3cbc 5a25 9d3b
00000060: d202 30bd f659 07bd af44 ea3b 2c9a 0f3c
00000070: d1fd b7bc a32e ecbc e710 b4bb a318 84bc
00000080: e5eb bab9 5e8d 343c 46ce 07bd 74a0 9f3c
00000090: 278f e13c 21ff 973d 13cf c4bc 0664 7fbc
000000a0: 359f 71bc 4431 8fbc 199f b7bc 6629 30bc
000000b0: a929 42bc 2b24 a23c 3acf a5bc 8af5 b53d
000000c0: 78e2 52bc 7b6d a8bc 1273 1a39 29e0 a43d
000000d0: 808c 0ebd ed9a a7bd f16c 253d 5aec bf3c
000000e0: 3f30 aa3c cbdd 32bc 27ac c4bd f213 763c
000000f0: 2d37 783c 03e4 fcbb 53c3 04bd 80e4 0fbb

features.1.bn.running_mean f4 [64]
-0.6841906 -0.81934154 -0.4057116 0.874107 -0.7008778 1.0717859 -0.11350693 2.4164593
-0.5548965 1.4576436 -0.8067217 -0.44389907 1.1323711 -0.79160297 -0.21333247 -0.65822935
1.1854031 -1.4049802 1.1799697 -0.29946 -0.5164003 1.2902138 0.33785334 -0.120167054
-0.34566337 -0.5360104 0.91158396 0.31353307 0.8399989 -1.488017 -1.1492143 -0.38680533
-0.5952773 -0.6407937 0.4618155 0.21276093 -0.24969822 -0.20058574 -1.1544275 -1.2456018
-0.7157395 -0.47768763 0.22953716 0.10301496 -0.26208627 -0.06656201 -0.74672675 -0.8952174
-0.9409516 0.60576516 -1.1082481 -0.7073218 0.3912573 1.6659981 -0.11876119 -1.2374289
0.13009599 1.2569594 1.1567177 -0.43694004 -0.48259282 -0.62912804 -0.13124993 -0.55099434
00000000: 1d27 2fbf 5ec0 51bf 6eb9 cfbe 7ac5 5f3f
00000010: ba6c 33bf 4830 893f 5276 e8bd 45a7 1a40
00000020: b20d 0ebf 1194 ba3f 5085 4ebf bd46 e3be
00000030: 89f1 903f 7ea6 4abf d473 5abe b881 28bf
00000040: 4abb 973f 64d6 b3bf 3f09 973f d252 99be
00000050: cf32 04bf ba25 a53f 1dfb ac3e 251a f6bd
00000060: cafa b0be fa37 09bf 915d 693f 6887 a03e
00000070: 2b0a 573f 5777 bebf 7419 93bf 590b c6be
00000080: 1864 18bf 0e0b 24bf 1573 ec3e 00de 593e
00000090: e4b0 7fbe 5966 4dbe 48c4 93bf e16f 9fbf
000000a0: b43a 37bf 7993 f4be ca0b 6b3e 82f9 d23d
000000b0: 2c30 86be aa51 88bd 7c29 3fbf f82c 65bf
000000c0: 34e2 70bf 6d13 1b3f 13db 8dbf 0b13 35bf
000000d0: e052 c83e 6d3f d53f 1139 f3bd 1264 9ebf
000000e0: e237 053e 0ce4 a03f 530f 943f 9bb6 dfbe
000000f0: 6816 f7be 890e 21bf 6266 06be f70d 0dbf

features.1.bn.running_var f4 [64]
2.4132261 2.3063712 1.1420842 1.4061762 0.89196473 1.2092547 1.3355176 3.4681613
0.8573612 1.3933563 0.8286703 1.247033 1.4930754 1.5578383 1.8546901 0.8310986
2.9847906 1.752133 2.8427796 0.94851506 0.8402497 1.3125533 0.9650587 0.57581776
1.0399224 0.94585055 0.7915252 1.1949997 1.7536477 2.8919992 1.9490613 0.77784806
0.9984376 1.4762967 0.92941177 1.8340223 1.3349942 0.73540545 2.1178985 2.4980223
0.7362563 1.6269757 1.861026 0.6058352 1.4885788 0.5501926 2.8194203 0.91450715
0.82505727 1.0345857 3.063845 1.5257114 1.1635131 2.599447 0.58389837 2.0975137
2.050341 1.6959884 1.1604555 0.55735093 2.0245812 1.3785616 1.1554099 1.3749949
00000000: 4c72 1a40 969b 1340 d12f 923f 95fd b33f
00000010: cd57 643f dcc8 9a3f 3ef2 aa3f 5bf6 5d40
00000020: 067c 5b3f 8059 b23f bd23 543f c79e 9f3f
00000030: 181d bf3f 3f67 c73f 7c66 ed3f e1c2 543f
00000040: cf06 3f40 e545 e03f 1af0 3540 e2d1 723f
00000050: 9b1a 573f bf01 a83f 160e 773f cb68 133f
00000060: 2d1c 853f 4323 723f 65a1 4a3f c0f5 983f
00000070: 8777 e03f 8416 3940 d77a f93f 0d21 473f
00000080: 9b99 7f3f 4af7 bc3f eeed 6d3f 3ec1 ea3f
00000090: 17e1 aa3f 8843 3c3f a68b 0740 99df 1f40
000000a0: 4b7b 3c3f bd40 d03f 1a36 ee3f 0418 1b3f
000000b0: c089 be3f 6cd9 0c3f 6271 3440 241d 6a3f
000000c0: f436 533f 4e6d 843f 0916 4440 834a c33f
000000d0: ffed 943f 575d 2640 5d7a 153f aa3d 0640
000000e0: c938 0340 2616 d93f ce89 943f 8dae 0e3f
000000f0: bd92 0140 b574 b03f 79e4 933f d5ff af3f

features.2.conv.weight f4 [128, 64, 5]
-0.10891164 0.005682557 0.018110376 0.011568663 -0.020656371 -0.11244833 -0.0030428271 -0.004589082
0.008522921 0.06547567 -0.082351476 0.07345034 -0.0134063875 0.009730735 -0.0334284 0.045011144
-0.11401458 -0.10854484 -0.056353934 -0.10960449 -0.05466394 0.13064405 0.12024293 0.07905251
-0.088984504 0.14494014 -0.0026799764 0.0851936 0.04633102 0.014937066 0.034387227 -0.11107957
-0.020630842 -0.024628602 -0.006406382 0.062162545 0.05570075 -0.09131248 0.033935558 -0.012170296
0.09131949 0.00054451835 -0.0017594654 0.052476823 0.005689652 -0.047730144 -0.04203911 -0.07752511
0.038141232 -0.034259994 0.009117165 -0.016355455 -0.0544267 0.038220864 -0.016575433 0.03628953
-0.11849111 -0.04170252 -0.008502463 0.058106694 0.16137534 0.060564455 0.09855399 -0.1262624
-0.030535646 -0.014961601 -0.017285429 0.015355922 -0.05660519 -0.04235843 -0.116723135 0.1002562
-0.0016690646 -0.015828876 0.02906004 0.14226514 -0.09845174 0.0102777 -0.010726816 -0.004396727
0.18456356 -0.0117445355 0.022533014 -0.09596802 -0.015487612 -0.035631634 -0.08183608 -0.09603777
-0.055868153 0.034516547 0.020259358 0.13713223 0.0755796 -0.05778035 -0.045277435 0.09151914
0.01408694 0.079788916 0.123298384 0.059451915 0.0071853916 -0.06256792 0.0756962 -0.05299928
-0.09495912 -0.024915192 0.038133696 -0.13134763 -0.03174035 -0.12501918 0.085460775 -0.13570972
-0.01863918 -0.14091241 -0.016948575 -0.08760189 0.05871266 -0.031348646 0.03494034 0.00567676
-0.082028374 -0.17146681 -0.0076661217 0.04438069 0.03570138 -0.027304932 -0.12402512 -0.01466652
0.17789643 0.046821795 -0.0877988 0.10910851 -0.027232928 -0.046767745 -0.033252414 0.110859215
-0.0041868784 -0.04020928 -0.020337006 -0.09803456 0.12188986 0.06247836 -0.009430171 -0.13819438
0.0022584163 0.021364452 0.038291477 -0.065967984 0.011226541 -0.005570833 0.104153164 0.09020805
-0.010578018 0.05095952 -0.013260758 0.0007396532 -0.1547964 -0.08196135 -0.043131 0.005759451
0.034195855 0.15723123 -0.013068425 0.057802953 0.0395182 0.06751258 0.05448081 -0.11820746
-0.06380983 0.16557914 0.08950588 -0.06758219 0.015038618 -0.137128 -0.04945889 -0.012819436
0.05318639 0.07304828 -0.015112779 0.0006666987 0.02903775 0.12025547 0.1772262 -0.06516653
0.015910704 -0.04269894 -0.03457798 -0.084023416 -0.02252089 0.058408864 -0.15459295 -0.042611394
0.05123667 0.02300302 0.15131362 -0.060469963 0.16903493 -0.02139347 -0.115414664 -0.06360962
0.12917621 -0.0338072 0.022748087 -0.13005519 -0.002628271 -0.09984692 -0.15483259 0.06401284
-0.16871555 -0.008514231 0.10742418 -0.09274966 -0.0039973916 -0.030874833 -0.09816877 0.12784362
-0.087796874 -0.06760617 0.0609965 -0.0313495 0.13070372 -0.010696546 0.14192778 -0.06604685
-0.010200192 -0.031158824 0.009144507 -0.015334901 0.060935568 0.11258362 0.09526096 -0.02045093
0.13531569 -0.08248984 0.051680323 -0.04427724 -0.076230146 0.0711368 0.03320312 0.06242993
0.019905964 -0.13711779 0.02695887 -0.0975643 0.04384447 -0.05834532 0.12251922 -0.09268907
-0.19934614 -0.035253122 0.124176115 -0.010021683 -0.07890652 0.098227255 -0.16694921 -0.01004995
00000000: 110d dfbd be34 ba3b 365c 943c 7d8a 3d3c
00000010: 8d37 a9bc 4f4b e6bd 2b6a 47bb 0360 96bb
00000020: b9a3 0b3c 1c18 863d e4a7 a8bd 226d 963d
00000030: 77a6 5bbc a96d 1f3c 38ec 08bd 9b5d 383d
00000040: 7a80 e9bd c24c debd 62d3 66bd 5278 e0bd
00000050: 4ce7 5fbd 8ec7 053e ed41 f63d 48e6 a13d
00000060: 823d b6bd 306b 143e 8ba2 2fbb fb79 ae3d
00000070: 98c5 3d3d 98ba 743c 9fd9 0c3d b07d e3bd
00000080: 0302 a9bc ecc1 c9bc a1ec d1bb 279e 7e3d
00000090: 7826 643d 0a02 bbbd 0300 0b3d ec65 47bc
000000a0: b605 bb3d 02be 0e3a dd9d e6ba f0f1 563d
000000b0: 4370 ba3b af80 43bd 3431 2cbd 7cc5 9ebd
000000c0: fb39 1c3d 3554 0cbd 2960 153c e0fb 85bc
000000d0: 88ee 5ebd 7b8d 1c3d 34c9 87bc 55a4 143d
000000e0: 78ab f2bd 43d0 2abd ea4d 0bbc 4901 6e3d
000000f0: 943f 253e 6f12 783d add6 c93d ee4a 01be
00000100: e425 fabc 8121 75bc 2c9a 8dbc 6897 7b3c
00000110: d8da 67bd 0880 2dbd 8a0c efbd 1f53 cd3d
00000120: 84c4 daba 8fab 81bc 520f ee3c f4ad 113e
00000130: 11a1 c9bd cc63 283c 87bf 2fbc 6b12 90bb
00000140: 3bfe 3c3e 276c 40bc 2897 b83c e28a c4bd
00000150: c1bf 7dbc 7af2 11bd ad99 a7bd 73af c4bd
00000160: 01d6 64bd 3961 0d3d f4f6 a53c 646c 0c3e
00000170: 7ac9 9a3d 17ab 6cbd d574 39bd 636e bb3d
00000180: e9cc 663c 5f68 a33d dd83 fc3d da83 733d
00000190: 6f73 eb3b 9c23 80bd 9c06 9b3d c615 59bd
000001a0: ed79 c2bd f21a ccbc 1432 1c3d fe7f 06be
000001b0: 2b02 02bd 0705 00be 0f06 af3d 7df7 0abe
000001c0: 32b1 98bc 584b 10be bdd7 8abc 9f68 b3bd
000001d0: b07c 703d 7067 00bd 9a1d 0f3d 1d04 ba3b
000001e0: 7efe a7bd ff94 2fbe 1734 fbbb 87c8 353d
000001f0: 9c3b 123d 98ae dfbc e200 febd d84b 70bc
00000200: 7b2a 363e 36c8 3f3d dbcf b3bd 4874 df3d
00000210: 9717 dfbc 898f 3fbd af33 08bd 280a e33d
00000220: 1532 89bb 7cb2 24bd cb99 a6bc 58c6 c8bd
00000230: 64a1 f93d 4fe9 7f3d 0181 1abc d482 0dbe
00000240: f001 143b 8104 af3c 86d7 1c3d 391a 87bd
00000250: 87ef 373c 898b b6bb 414e d53d 00bf b83d
00000260: 6c4f 2dbc eeba 503d a643 59bc 49e5 413a
00000270: f382 1ebe 5adb a7bd 22aa 30bd c7b9 bc3b
00000280: f410 0c3d 3901 213e f21c 56bc cac2 6c3d
00000290: d6dd 213d 0944 8a3d 4527 5f3d c116 f2bd
000002a0: baae 82bd 948d 293e dc4e b73d 8868 8abd
000002b0: 8964 763c 486b 0cbe 6895 4abd 9d08 52bc
000002c0: f9d9 593d 569a 953d 979b 77bc 64c5 2e3a
000002d0: 93e0 ed3c 8048 f63d c97a 353e 0876 85bd
000002e0: 2a57 823c 15e5 2ebd a4a1 0dbd 7814 acbd
000002f0: bb7d b8bc 223e 6f3d 9d4d 1ebe 4989 2ebd
00000300: 8bdd 513d d470 bc3c f5f1 1a3e 5aaf 77bd
00000310: 7e17 2d3e 5c41 afbc 865e ecbd c345 82bd
00000320: c546 043e 6b79 0abd 325a ba3c 302d 05be
00000330: 123f 2cbb 8b7c ccbd 6f8c 1ebe 2a19 833d
00000340: c5c3 2cbe 467f 0bbc 3501 dc3d 89f3 bdbd
00000350: 8dfc 82bb 38ed fcbc b50c c9bd 70e9 023e
00000360: d9ce b3bd 1b75 8abd 77d7 793d 5568 00bd
00000370: 32d7 053e 9140 2fbc 8455 113e 9243 87bd
00000380: b51e 27bc ca40 ffbc d8d2 153c 3d3f 7bbc
00000390: 9397 793d 3e92 e63d 2e18 c33d b588 a7bc
000003a0: 3290 0a3e 6ff0 a8bd bfae 533d 0d5c 35bd
000003b0: 8d1e 9cbd 2cb0 913d ffff 073d 87b6 7f3d
000003c0: d511 a33c 9b68 0cbe d9d8 dc3c cbcf c7bd
000003d0: 4296 333d 81fb 6ebd 5beb fa3d c4d3 bdbd
000003e0: 6521 4cbe 9465 10bd 0c50 fe3d fc31 24bc
000003f0: be99 a1bd 5f2b c93d bcf4 2abe 8ca8 24bc

features.2.bn.weight f4 [128]
0.9088777 0.9650058 1.0571246 1.0086169 1.0144763 0.9469238 0.96409756 0.91030633
0.9228646 1.0950639 0.94457406 1.0002658 1.0084437 1.0220593 1.1438286 0.9354212
1.0533836 0.9388033 0.9616836 1.0421059 0.9505781 0.95561606 0.9749361 0.9461055
0.9326622 1.0197998 1.1104254 0.92554766 1.0265126 1.0361112 1.0142863 1.0696647
1.0467824 1.041549 0.98475987 0.99945563 0.93993306 0.9829858 0.92747563 1.0303894
0.98719585 0.93583703 0.9625495 0.9838431 0.98797417 1.0067774 0.9506764 0.9581401
0.95955014 0.9926577 0.98058295 0.964372 1.0812904 0.9838453 1.0214349 0.98474395
1.0307169 0.9472701 0.91710895 0.9413896 0.94965917 1.0401069 0.99746644 0.96383667
1.0291262 0.9968825 0.9936583 0.99461764 1.0451354 0.9960085 0.9708249 0.9025454
0.93652785 0.9959373 1.0110532 1.0077153 0.99756235 1.0065242 0.96899325 1.0466261
1.0779328 1.0196303 1.0062946 0.932041 0.9375873 0.91165864 1.0373336 0.9702923
0.9822713 0.93075854 1.0123816 0.9567504 1.0207671 0.9255592 0.9865451 0.96723485
1.0127155 0.9431199 1.0175831 1.0049093 1.0289776 0.9390855 1.0147578 0.9995284
1.0076767 0.9839244 0.9410106 0.97984976 1.0370357 1.0034261 0.9586603 0.9137966
0.9427352 1.0208124 0.949221 0.92443883 0.917214 0.9451381 1.0398566 0.9157062
0.991408 0.9533707 0.98045415 0.9858748 0.9695007 0.99039435 0.9258099 0.9810012
00000000: 35ac 683f 9f0a 773f dc4f 873f 5c1a 813f
00000010: 5cda 813f 9969 723f 19cf 763f d609 693f
00000020: db40 6c3f 0e2b 8c3f 9bcf 713f b608 803f
00000030: af14 813f d7d2 823f fa68 923f c477 6f3f
00000040: 46d5 863f 6a55 703f e530 763f ba63 853f
00000050: 1659 733f 41a3 743f 6a95 793f f833 723f
00000060: f3c2 6e3f cd88 823f 6b22 8e3f b1f0 6c3f
00000070: c464 833f 4b9f 843f 22d4 813f c6ea 883f
00000080: f7fc 853f 7a51 853f 3919 7c3f 53dc 7f3f
00000090: 749f 703f f5a4 7b3f 0b6f 6d3f cde3 833f
000000a0: deb8 7c3f 0493 6f3f a569 763f 24dd 7b3f
000000b0: e0eb 7c3f 15de 803f 875f 733f ab48 753f
000000c0: 14a5 753f d11e 7e3f 7c07 7b3f 15e1 763f
000000d0: b967 8a3f 49dd 7b3f 61be 823f 2e18 7c3f
000000e0: 88ee 833f 4b80 723f a7c7 6a3f e9fe 703f
000000f0: dd1c 733f 3922 853f f659 7f3f 00be 763f
00000100: 68ba 833f b133 7f3f 6460 7e3f 439f 7e3f
00000110: ffc6 853f 6afa 7e3f fb87 783f 370d 673f
00000120: 4ac0 6f3f bff5 7e3f 316a 813f d1fc 803f
00000130: 3f60 7f3f c9d5 803f f10f 783f d8f7 853f
00000140: b4f9 893f 3f83 823f 43ce 803f 3d9a 6e3f
00000150: b905 703f 7662 693f 59c7 843f 1465 783f
00000160: 2276 7b3f 3146 6e3f b895 813f 98ed 743f
00000170: 7fa8 823f 73f1 6c3f 388e 7c3f b49c 773f
00000180: a9a0 813f 4e70 713f 2a40 823f dea0 803f
00000190: 8ab5 833f e867 703f 95e3 813f 18e1 7f3f
000001a0: 8dfb 803f 78e2 7b3f 12e6 703f 6fd7 7a3f
000001b0: 96bd 843f 4470 803f c36a 753f 93ee 693f
000001c0: 1857 713f fba9 823f 2600 733f 06a8 6c3f
000001d0: 89ce 6a3f 92f4 713f 051a 853f b96b 6a3f
000001e0: eacc 7d3f 1a10 743f 0bff 7a3f 4a62 7c3f
000001f0: 3331 783f 7c8a 7d3f e101 6d3f e522 7b3f

features.2.bn.bias f4 [128]
-0.10953682 -0.042530913 -0.046097867 -0.07095458 -0.065045066 -0.07722847 -0.05412915 -0.10169903
-0.07810853 -0.09312612 -0.069920056 -0.018271063 -0.05585313 -0.025522726 -0.14242552 -0.049546715
-0.009125757 -0.091779135 -0.05642754 -0.049609046 -0.09876697 -0.07428019 -0.09968873 -0.13049302
-0.07756764 -0.08877463 -0.1002503 -0.09314003 -0.088167585 -0.0058547636 -0.06749326 -0.024591243
-0.07039609 -0.106960945 -0.06023182 -0.07191582 -0.0946576 -0.07485269 -0.08489322 -0.061530504
-0.002276619 -0.0726968 -0.05949415 -0.038883053 -0.12004963 -0.018219436 -0.06729871 -0.058991767
-0.108925514 -0.038762234 -0.06076407 -0.06557676 -0.04557493 -0.037825283 -0.0794452 -0.08399472
-0.09338151 -0.061437637 -0.06860116 -0.06746564 -0.11016118 -0.10186437 -0.112922415 -0.084054336
-0.057938915 -0.06150213 -0.11649424 -0.033745706 0.0147525435 0.0043939142 -0.036429476 -0.13240413
-0.06503495 -0.012339575 -0.067190066 -0.018978002 -0.088676415 -0.07343407 -0.044837017 -0.0047981343
-0.05503043 -0.09727447 -0.030035159 -0.07861782 -0.068043314 -0.05535779 -0.1177244 -0.03557811
-0.048702825 -0.10388675 -0.034851212 -0.07792517 -0.062152132 -0.09024883 -0.017534092 -0.030228602
-0.061858643 -0.06834001 -0.031146249 -0.05336254 -0.00075465266 -0.052173637 -0.020988844 -0.04952863
-0.042158455 -0.07826262 -0.076903634 -0.0499208 0.0032487852 -0.037864167 -0.06753367 -0.060905688
-0.03683603 -0.0707805 -0.04824288 -0.062416602 -0.084877744 -0.05033529 -0.08572476 -0.061841536
-0.026981866 -0.095796525 -0.029150184 -0.069732115 -0.076794356 -0.047296535 -0.08597625 -0.05262004
00000000: d754 e0bd e534 2ebd 1ed1 3cbd a350 91bd
00000010: 5936 85bd f629 9ebd 87b6 5dbd 9547 d0bd
00000020: 5df7 9fbd e8b8 bebd 3f32 8fbd 32ad 95bc
00000030: 40c6 64bd 0915 d1bc ffd7 11be 7ff1 4abd
00000040: 3384 15bc b3f6 bbbd 9020 67bd db32 4bbd
00000050: 5646 cabd 3620 98bd 9b29 ccbd f69f 05be
00000060: c8db 9ebd 79cf b5bd 0750 cdbd 33c0 bebd
00000070: 3591 b4bd 51d9 bfbb e839 8abd 9373 c9bc
00000080: d32b 90bd 570e dbbd a4b5 76bd 9a48 93bd
00000090: d8db c1bd 5e4c 99bd 7fdc adbd 6907 7cbd
000000a0: 5433 15bb 0fe2 94bd 23b0 73bd d643 1fbd
000000b0: 95dc f5bd ed40 95bc e8d3 89bd 5aa1 71bd
000000c0: 5714 dfbd 26c5 1ebd bfe3 78bd 1c4d 86bd
000000d0: c7ac 3abd afee 1abd 2ab4 a2bd 6c05 acbd
000000e0: ce3e bfbd 08a6 7bbd c47e 8cbd 6d2b 8abd
000000f0: 2f9c e1bd 449e d0bd de43 e7bd ae24 acbd
00000100: 5b51 6dbd a8e9 7bbd 8894 eebd f038 0abd
00000110: a7b4 713c d3fa 8f3b 1337 15bd f394 07be
00000120: 0b31 85bd ee2b 4abc f29a 89bd c177 9bbc
00000130: fb9b b5bd 9a64 96bd 05a7 37bd ab39 9dbb
00000140: 9767 61bd d637 c7bd 4b0c f6bc 6102 a1bd
00000150: 4b5a 8bbd dabe 62bd 7d19 f1bd 5aba 11bd
00000160: 9d7c 47bd 94c2 d4bd 25c0 0ebd 3b97 9fbd
00000170: 3c93 7ebd 61d4 b8bd a8a3 8fbc f9a1 f7bc
00000180: 7d5f 7dbd d9f5 8bbd 6b26 ffbc ae92 5abd
00000190: e2d3 45ba 06b4 55bd ccf0 abbc 88de 4abd
000001a0: 58ae 2cbd 2748 a0bd a77f 9dbd c179 4cbd
000001b0: 92e9 543b 7517 1bbd 184f 8abd 3e78 79bd
000001c0: 61e1 16bd 5ef5 90bd 539a 45bd 8da8 7fbd
000001d0: 62d4 adbd 612c 4ebd 7790 afbd 8d4d 7dbd
000001e0: 1309 ddbc f830 c4bd 5ecc eebc b6cf 8ebd
000001f0: 5c46 9dbd 03ba 41bd 5114 b0bd 1c88 57bd

features.2.bn.running_mean f4 [128]
-0.38985348 -0.8741891 -1.8859413 -1.7099558 -0.28258118 0.83709955 -1.6160959 -0.16203882
1.1092327 -0.040559534 -0.25287062 -1.2032416 0.07522915 -1.773968 0.6957272 -0.87679875
0.41535953 -0.53178054 0.1358287 0.317175 -1.2828308 -0.3174568 -0.008026925 -0.03599391
-0.65882015 -0.70105344 -1.6953051 1.1765386 -1.8574257 -0.17750907 0.11082543 0.4788443
1.4014858 0.15909617 0.3549862 0.24250582 -0.5727428 0.50305146 -1.4831113 0.4565177
-0.4812025 -0.14767843 -1.4425265 -0.1203673 -0.52479774 1.2800208 -0.33025682 -0.6503018
0.2311536 -0.64519864 -0.37967843 -0.5706099 0.3407676 -0.4521644 0.8604499 -0.4340059
0.54389757 -0.16897847 -0.60340005 -0.7591023 -0.75201565 0.859508 0.6455943 -0.6317158
0.050772093 -0.23465273 -0.98475385 0.57404965 -1.1473112 -0.35015705 0.3106263 0.4799574
-0.7298142 0.87811047 -0.9047539 -0.38711685 -1.6918125 -0.9110507 -0.0504139 0.48101243
-0.5256077 0.40351853 -1.6313828 0.41984764 -1.1253146 0.50056475 0.5830715 -1.4843136
-0.2261427 0.2998561 0.5208487 -1.4959875 0.18743539 0.6616173 -0.6965309 -1.220277
-1.1116037 -0.8755666 -0.6329817 -0.07571287 0.18355775 0.74033535 -0.82667756 -0.9328071
-0.29125127 -0.6756707 -0.8213138 0.16133977 0.50685316 -1.8780019 -2.4707317 0.21474181
-0.45102793 0.54048246 -0.20123138 -0.3107449 1.0121114 -0.02524078 0.13234428 0.22288188
0.12542133 -1.4288778 -0.091174975 -0.18095048 -0.9777304 -0.42941707 -0.22102174 0.8499336
00000000: e09a c7be dbca 5fbf 8666 f1bf d5df dabf
00000010: 7bae 90be 284c 563f 3bdc cebf 81ed 25be
00000020: 56fb 8d3f c121 26bd 4278 81be d203 9abf
00000030: be11 9a3d 6211 e3bf 2e1b 323f e275 60bf
00000040: 01aa d43e c522 08bf ae16 0b3e c364 a23e
00000050: cd33 a4bf b389 a2be 5d83 03bc 5a6e 13bd
00000060: 70a8 28bf 3d78 33bf c2ff d8bf d198 963f
00000070: 20c0 edbf f0c4 35be 71f8 e23d 152b f53e
00000080: e363 b33f 1bea 223e c0c0 b53e 7253 783e
00000090: 469f 12bf fbc7 003f 97d6 bdbf b0bc e93e
000000a0: 2d60 f6be 0439 17be b5a4 b8bf 2283 f6bd
000000b0: 2559 06bf b9d7 a33f 6c17 a9be 2e7a 26bf
000000c0: 88b3 6c3e bd2b 25bf 3665 c2be 7e13 12bf
000000d0: 1779 ae3e 1882 e7be 7246 5c3f 0536 debe
000000e0: df3c 0b3f b108 2dbe 6d78 1abf 8754 42bf
000000f0: 1984 40bf b708 5c3f ab45 253f 20b8 21bf
00000100: 66f6 4f3d ce48 70be d418 7cbf ebf4 123f
00000110: 18db 92bf c947 b3be 690a 9f3e fabc f53e
00000120: 1ad5 3abf d9cb 603f f49d 67bf 2e34 c6be
00000130: 508d d8bf 9e3a 69bf ce7e 4ebd 4347 f63e
00000140: 3a8e 06bf fb99 ce3e 27d1 d0bf 45f6 d63e
00000150: 4f0a 90bf 0325 003f 2c44 153f fdfd bdbf
00000160: f491 67be bd86 993e 5756 053f 857c bfbf
00000170: 10ef 3f3e c05f 293f d94f 32bf 0932 9cbf
00000180: 0849 8ebf 2225 60bf 170b 22bf 590f 9bbd
00000190: 90f6 3b3e 9e86 3d3f 24a1 53bf 72cc 6ebf
000001a0: e31e 95be c1f8 2cbf 9f41 52bf 4136 253e
000001b0: 21c1 013f 5e62 f0bf 7820 1ec0 47e5 5b3e
000001c0: 22ed e6be 0f5d 0a3f 990f 4ebe f519 9fbe
000001d0: de8c 813f c1c5 cebc 4285 073e 263b 643e
000001e0: 736e 003e 78e5 b6bf f2b9 babd 154b 39be
000001f0: 8a4c 7abf 8edc dbbe 8653 62be 4095 593f

features.2.bn.running_var f4 [128]
2.0007138 2.7840862 1.4737284 1.0857002 1.0010146 0.67703015 3.0459342 2.1706655
1.1423478 1.4103867 1.808148 1.5173653 0.6347551 3.0673327 1.1600626 1.8825312
0.71249914 1.7826811 1.0008489 1.2134392 1.8327659 1.6589284 2.754857 1.7285749
2.0519829 1.1924782 1.3964945 1.8661847 1.5179831 0.9895213 1.244216 0.8660523
0.6474705 0.7242818 2.2789595 1.2582427 2.2385721 1.4246472 2.434283 0.9606562
0.9389582 1.7294207 1.6738483 0.7362213 1.8132249 0.74872905 1.3588511 1.4316206
1.442511 0.57619697 1.161877 1.8186285 0.652457 0.9729396 1.4613988 1.4648223
1.1886946 2.1188536 1.748266 2.1276345 0.9250749 1.1434156 1.1431568 1.6241186
1.5518448 2.3880565 1.5139002 0.93287086 1.6075071 1.2051613 1.1460931 1.9497426
1.2566993 0.8290233 2.0095012 1.5376475 1.2580148 1.5670644 1.5379329 0.69275
1.1456763 1.5929824 2.9793558 1.6672441 1.8582437 1.4207481 1.0525126 2.2354143
1.7990503 1.757248 1.2977731 1.7943563 0.82207143 1.8122065 1.3123456 1.6209044
2.256445 1.9135284 1.1502856 0.738736 0.7868486 0.7921143 1.2570323 1.4624665
1.41234 2.874991 2.5081892 1.3236201 1.5436003 2.294739 3.1193995 1.4337715
1.9567976 1.4139789 0.8877304 0.978153 1.1750457 1.9950613 1.0508412 1.1891952
0.80684984 1.6512088 0.9585598 0.93269575 2.7220397 2.3664756 2.550479 1.439568
00000000: b20b 0040 782e 3240 22a3 bc3f 39f8 8a3f
00000010: 3f21 803f d951 2d3f 96f0 4240 2fec 0a40
00000020: 7438 923f 8d87 b43f 6571 e73f 0739 c23f
00000030: 4f7f 223f 2e4f 4440 ee7c 943f c8f6 f03f
00000040: 5866 363f e52e e43f d11b 803f fa51 9b3f
00000050: 1398 ea3f c457 d43f 944f 3040 f141 dd3f
00000060: b053 0340 20a3 983f 55c0 b23f 24df ee3f
00000070: 454d c23f 4551 7d3f 7842 9f3f 9bb5 5d3f
00000080: a0c0 253f 886a 393f 79da 1140 190e a13f
00000090: c444 0f40 d75a b63f 4bcb 1b40 91ed 753f
000000a0: 915f 703f a85d dd3f a940 d63f 0079 3c3f
000000b0: c117 e83f b5ac 3f3f d5ee ad3f 583f b73f
000000c0: 33a4 b83f a581 133f 63b8 943f d2c8 e83f
000000d0: 6c07 273f 9212 793f 1e0f bb3f 4c7f bb3f
000000e0: 2527 983f 4c9b 0740 2ec7 df3f 2a2b 0840
000000f0: b5d1 6c3f 715b 923f f652 923f 1ee3 cf3f
00000100: daa2 c63f ebd5 1840 7bc7 c13f a0d0 6e3f
00000110: cbc2 cd3f ba42 9a3f 2eb3 923f 2a91 f93f
00000120: 86db a03f df3a 543f ab9b 0040 a2d1 c43f
00000130: a106 a13f 9195 c83f fcda c43f 1058 313f
00000140: 85a5 923f d9e6 cb3f c4ad 3e40 4168 d53f
00000150: eeda ed3f 13db b53f bcb8 863f 0711 0f40
00000160: 4847 e63f 81ed e03f 6e1d a63f 78ad e53f
00000170: 4673 523f 62f6 e73f f1fa a73f cc79 cf3f
00000180: 9869 1040 80ee f43f 8f3c 933f cd1d 3d3f
00000190: e96e 493f 01c8 4a3f 6fe6 a03f 1a32 bb3f
000001a0: 8fc7 b43f daff 3740 2c86 2040 626c a93f
000001b0: b294 c53f 01dd 1240 3ea4 4740 d385 b73f
000001c0: 5878 fa3f 43fd b43f 4d42 633f 3c68 7a3f
000001d0: e667 963f 2b5e ff3f f781 863f 8c37 983f
000001e0: b68d 4e3f cf5a d33f 2d64 753f 26c5 6e3f
000001f0: e635 2e40 5674 1740 0c3b 2340 c443 b83f

features.3.conv.weight f4 [256, 128, 3]
0.008942625 -0.0066039045 -0.05645661 0.08644346 -0.12073144 -0.047287792 -0.060522594 -0.053201165
0.028805379 0.100421496 -0.031665526 0.027827196 0.06951511 0.078062505 0.059102453 0.025388625
-0.04341901 0.0064785318 0.049774256 0.0053593633 0.02068683 0.17434937 0.074804954 0.005505772
-0.047601245 -0.00037921264 0.07994997 -0.11611841 -0.042322222 -0.048430305 0.08044072 0.08668419
-0.14331086 0.037394695 -0.03105855 -0.07405242 -0.073098585 0.10374247 0.011306601 -0.0960811
0.03785571 -0.09500036 0.02259533 0.015082529 0.018366754 0.13030571 -0.077609755 -0.13934271
0.06842346 0.10399136 -0.027921624 -0.009767856 -0.18880561 -0.08291062 -0.12569582 -0.051930122
0.018019496 -0.0032665746 0.04529897 -0.0058174487 -0.050420057 0.008254781 0.081411764 0.024523484
0.14120954 -0.043288104 0.016205555 0.05553983 -0.076854676 0.0927602 0.06894161 -0.10028367
0.022843238 -0.0504024 0.025871493 -0.05296304 -0.06375167 -0.11909941 -0.12364096 -0.029115805
0.050794847 -0.03886402 0.065547995 -0.12698306 -0.060566228 0.06502843 0.017188769 -0.10396085
-0.011064817 -0.100382246 -0.009347853 0.06962493 0.0032653504 0.13333185 0.13415633 -0.0106302425
0.0949334 -0.023575073 -0.011599719 0.100085385 0.07077392 -0.058456045 0.09525958 -0.061443
0.0500124 0.015205239 0.067365885 -0.03326425 -0.017338198 -0.03807957 -0.005874598 0.06374726
-0.08644247 0.06903355 -0.039168492 -0.090220615 -0.005296368 -0.08140964 0.0070370496 -0.017768748
0.114976756 0.097086266 0.06200247 -0.034414697 0.052980147 0.063444264 -0.029904658 -0.021236645
-0.1986905 -0.033263747 0.03142119 -0.06771467 -0.056607753 -0.06327389 0.059696265 -0.01794817
0.05303012 0.23040871 -0.02417677 0.07412078 -0.0019679193 -0.045210656 0.04757279 -0.09015521
-0.021119243 -0.09438288 0.003779764 0.070975624 0.038621034 -0.012283604 0.07047329 0.028834267
0.06871023 0.11992699 0.053079482 -0.009085501 -0.032719158 -0.078614384 0.0344598 0.028887626
-0.08030762 0.023008432 0.011981178 -0.060889747 0.025367614 0.0034703293 0.08595698 0.0359241
-0.033929646 0.13306703 -0.063926026 -0.028048957 0.0061328774 -0.011131817 -0.0868131 -0.028934665
-0.12606023 0.06444584 -0.007137046 -0.02855665 -0.06765808 -0.002583113 0.009267513 0.009279003
0.010995227 0.0477257 -0.06923774 -0.08475463 -0.025338078 -0.1687924 -0.06523419 -0.04504508
0.04579418 -0.06492176 -0.024191963 0.11348079 0.04501871 0.03788638 -0.08765936 0.06885522
0.036176976 -0.004768465 0.012824105 0.13283399 -0.06655929 -0.023292622 -0.013575688 0.0069116205
-0.0077444487 -0.025410246 0.0122748725 -0.08119309 0.12290838 -0.014088625 0.010483957 -0.078595206
-0.07606064 0.04028394 -0.018917635 0.18051149 0.06558256 0.10031185 -0.026918149 0.06610325
-0.05033381 -0.009778985 -0.029469961 0.0050591775 -0.08259119 -0.004909234 -0.0457365 -0.053247567
0.04616031 0.05840106 -0.049024954 -0.0132352235 0.044989295 0.18037114 0.08652462 0.09526716
-0.013746102 -0.057242107 0.05890033 -0.061568547 0.0637265 0.013192151 -0.010892964 0.07210877
-0.03277749 -0.043420173 -0.0072865896 0.03433413 -0.0057236366 0.02811992 0.01760347 0.025934763
00000000: 1684 123c 9165 d8bb 0c3f 67bd 4509 b13d
00000010: 0c42 f7bd d8b0 41bd 8ae6 77bd 77e9 59bd
00000020: 42f9 eb3c c9a9 cd3d b6b3 01bd dcf5 e33c
00000030: f05d 8e3d 3cdf 9f3d 6a15 723d cefb cf3c
00000040: 22d8 31bd dd49 d43b 17e0 4b3d 999d af3b
00000050: 6d77 a93c a488 323e 5733 993d c369 b43b
00000060: 86f9 42bd 0fd1 c6b9 cfbc a33d 7dcf edbd
00000070: 115a 2dbd db5e 46bd 1bbe a43d 7b87 b13d
00000080: 15c0 12be 2e2b 193d 806e febc cca8 97bd
00000090: b6b4 95bd ef76 d43d 523f 393c 2bc6 c4bd
000000a0: 970e 1b3d 8c8f c2bd d719 b93c b61c 773c
000000b0: e075 963c dc6e 053e ddf1 9ebd dbaf 0ebe
000000c0: 9921 8c3d 6cf9 d43d e4bb e4bc 5c09 20bc
000000d0: 4256 41be 0bcd a9bd 68b6 00be aeb4 54bd
000000e0: 9f9d 933c 0714 56bb 6a8b 393d 4ca0 bebb
000000f0: 4385 4ebd 103f 073c 36bb a63d 79e5 c83c
00000100: 3c99 103e de4e 31bd 83c1 843c bc7d 633d
00000110: fc65 9dbd 0ff9 bd3d 4231 8d3d 8661 cdbd
00000120: be21 bb3c bf72 4ebd 74f0 d33c c6ef 58bd
00000130: 3c90 82bd 64ea f3bd 7937 fdbd 4584 eebc
00000140: 420e 503d e12f 1fbd 073e 863d d907 02be
00000150: 4b14 78bd a02d 853d 76cf 8c3c 6de9 d4bd
00000160: 3549 35bc 3595 cdbd bd27 19bc 8497 8e3d
00000170: 7dff 553b 2588 083e 4760 093e 782a 2ebc
00000180: 716c c23d 8320 c1bc bf0c 3ebc 91f9 cc3d
00000190: ebf1 903d 9b6f 6fbd 7417 c33d a8ab 7bbd
000001a0: cdd9 4c3d 651f 793c 20f7 893d 1840 08bd
000001b0: d608 8ebc 53f9 1bbd b37f c0bb ec8d 823d
000001c0: c008 b1bd 7661 8d3d 246f 20bd 96c5 b8bd
000001d0: 288d adbb 19ba a6bd 0d97 e63b c48f 91bc
000001e0: ef78 eb3d 2ad5 c63d 4df6 7d3d 6df6 0cbd
000001f0: b601 593d 11ef 813d 9dfa f4bc 79f8 adbc
00000200: 8675 4bbe 913f 08bd 81b3 003d fdad 8abd
00000210: 88dd 67bd be95 81bd 1284 743d 0a08 93bc
00000220: 1c36 593d 43f0 6b3e 5d0e c6bc a3cc 973d
00000230: 35f8 00bb cf2e 39bd b0db 423d 4ba3 b8bd
00000240: 4302 adbc d04b c1bd ebb5 773b ab5b 913d
00000250: 1731 1e3d 2b41 49bc 4d54 903d d735 ec3c
00000260: f3b7 8c3d 489c f53d df69 593d 5adb 14bc
00000270: 8604 06bd 9400 a1bd b825 0d3d bea5 ec3c
00000280: 5278 a4bd 2e7c bc3c b44c 443c 8767 79bd
00000290: becf cf3c 776e 633b 370a b03d 2625 133d
000002a0: d0f9 0abd b942 083e a6eb 82bd edc6 e5bc
000002b0: 4ef6 c83b 3962 36bc 11cb b1bd 6408 edbc
000002c0: ef15 01be 2efc 833d e2dd e9bb a3ef e9bc
000002d0: 5290 8abd 7249 29bb c4d6 173c f606 183c
000002e0: 5325 343c 067c 433d 84cc 8dbd d693 adbd
000002f0: cd91 cfbc ead7 2cbe 8199 85bd 3181 38bd
00000300: ae92 3b3d b3f5 84bd 392e c6bc 9e68 e83d
00000310: 8a65 383d c02e 1b3d c086 b3bd f703 8d3d
00000320: 4f2e 143d c940 9cbb 321c 523c a205 083e
00000330: 3d50 88bd 2bd0 bebc 906c 5ebc e07a e23b
00000340: 25c5 fdbb 2629 d0bc 8c1c 493c 9048 a6bd
00000350: 64b7 fb3d fad3 66bc e7c4 2b3c 86f6 a0bd
00000360: aec5 9bbd c600 253d 28f9 9abc 01d8 383e
00000370: 2650 863d 4d70 cd3d 7383 dcbc 2461 873d
00000380: d32a 4ebd 0938 20bc fd6a f1bc 75c7 a53b
00000390: 9225 a9bd a4dd a0bb 3256 3bbd 1f1a 5abd
000003a0: 9812 3d3d f335 6f3d 64ce 48bd 8dd8 58bc
000003b0: b246 383d 36b3 383e d233 b13d 6e1b c33d
000003c0: 5537 61bc b376 6abd 7941 713d 4d2f 7cbd
000003d0: 0a83 823d e423 583c 6778 32bc c3ad 933d
000003e0: b041 06bd 5ad9 31bd 58c4 eebb f2a1 0c3d
000003f0: 588d bbbb bf5b e63c 2735 903c 2475 d43c
