ecg_afib_detection/checkpoints/ptbxl/500hz/cnn1d/fold_2/last.pt (torch, 626357 bytes, 22 tensors)

features.0.conv.weight f4 [32, 12, 7]
0	0x3cc640c5	0.024200806
1	0xbe894f1b	-0.26818165
2	0xbe55b4a1	-0.20869686
3	0xbeadea0b	-0.33967623
4	0xbce8039c	-0.028322034
5	0xbe5353f9	-0.20637502
6	0xbc408e72	-0.011752712
7	0xbdb2044f	-0.08692228
8	0xbdff71b5	-0.1247286
9	0x3c98a40a	0.018632907
10	0x3dd99d3b	0.106256925
11	0xbe2e24af	-0.17006181
12	0x3dd05e5f	0.1017425
13	0xbc32d895	-0.010915895
14	0xbd893d89	-0.0670119
15	0xbe836f49	-0.2567084
16	0x3d70eee6	0.05882158
17	0x3e136e87	0.14397632
18	0xbcb5cdd8	-0.02219288
19	0xbd9fc9f5	-0.07802192
20	0x3d7655d6	0.060140453
21	0x3e653e60	0.22387075
22	0xbe54cd8e	-0.20781538
23	0xbe98d621	-0.29850867
24	0xbb174bc5	-0.0023085934
25	0xbd1b8b42	-0.037974603
26	0xbe43a338	-0.19105232
27	0x3bad7a18	0.0052940957
28	0x3ba4c38d	0.0050281943
29	0xbd09035d	-0.033450473
30	0xbdfeb15c	-0.12436172
31	0x3da8d57a	0.082438424
32	0x3c9488ad	0.018131578
33	0x3dcb3b10	0.09923375
34	0x3dc1b76b	0.09458812
35	0x3e063925	0.13107736
36	0x3df46c0d	0.119346716
37	0x3de7bab7	0.1131491
38	0xbe4a0520	-0.19728518
39	0x3db310a4	0.08743408
40	0x3e1928da	0.1495699
41	0xbe497bac	-0.19676083
42	0xbd922b45	-0.07137159
43	0x3e1a81d2	0.15088585
44	0x3dfdbb44	0.12389234
45	0xbe03c3b8	-0.1286763
46	0xbe40f165	-0.18842085
47	0x3dc356a0	0.09538007
48	0xbdf229cd	-0.11824379
49	0x3e28d93a	0.16489115
50	0x3e68f1f1	0.22748543
51	0x3e1dc036	0.15405354
52	0xbcd38540	-0.025820374
53	0x3dbe18e4	0.09282091
54	0x3d87d7ce	0.06632958
55	0xbea6e432	-0.32595974
56	0xbddbaa76	-0.10725872
57	0x3ec96029	0.39331177
58	0x3d4ea624	0.050451413
59	0x3e1334a0	0.14375544
60	0xbe7a1e76	-0.24425682
61	0x3c6e212e	0.014534278
62	0xbe1ac48a	-0.15114036
63	0x3e198e1f	0.14995621
64	0x3de63858	0.112412155
65	0x3db1ca3a	0.0868115
66	0x3e9ec723	0.31011304
67	0x3e4dc9b4	0.20096475
68	0xbce005cb	-0.027346512
69	0x3d9960c7	0.07489162
70	0xbe4b3865	-0.19845732
71	0x3e56cf9e	0.20977637
72	0x3d1412e8	0.036150843
73	0x3e8b00b4	0.27148974
74	0x3e8342ae	0.2563681
75	0xbee0d092	-0.43909127
76	0xbd69cfa6	-0.057082795
77	0xbc940e9c	-0.018073373
78	0x3caf20d1	0.021377953
79	0xbe87ebbf	-0.26547047
80	0x3d1ee83b	0.03879569
81	0xbccdf377	-0.025140507
82	0x3df2c1ce	0.118533716
83	0x3e40ad4b	0.18816106
84	0xbe65e194	-0.22449332
85	0xbdf22635	-0.11823694
86	0xbe0c4df7	-0.13701616
87	0xbdd4c282	-0.10388662
88	0x3e982921	0.2971888
89	0x3d666a56	0.056253754
90	0x3de3fcf7	0.111322336
91	0xbe616549	-0.22011293
92	0xbe1253ea	-0.14289823
93	0x3e38aa25	0.18033655
94	0xbe626a8d	-0.22110958
95	0xbda442a2	-0.08020522
96	0xbdd95e14	-0.10613647
97	0xbd40829e	-0.046999566
98	0xbe220e8b	-0.1582586
99	0x3d4cfe46	0.05004718
100	0x3d6b4a70	0.057444036
101	0x3c35e74a	0.011102507
102	0xbcf7add2	-0.030234251
103	0xbd7a0b62	-0.06104601
104	0x3d82d8eb	0.0638903
105	0xbd9b84d7	-0.075936966
106	0x3bdea737	0.006794836
107	0x3e6060de	0.21911952
108	0xbddeafe6	-0.10873394
109	0x3e512d3a	0.20427409
110	0xbd837605	-0.06418995
111	0x3df0c55e	0.11756395
112	0x3e0e9f19	0.13927878
113	0xbe2d0272	-0.16895464
114	0xbe652cb4	-0.22380334
115	0xbe80e58a	-0.25175124
116	0xbda8a5f0	-0.08234775
117	0x3e6e4963	0.23270182
118	0xbc94569b	-0.018107703
119	0x3d04c4e9	0.03241435
120	0xbc87a525	-0.01655824
121	0xbe3bbdcb	-0.18334119
122	0xbe09d339	-0.13459481
123	0x3d428c87	0.0474973
124	0xbd78d3c3	-0.060748827
125	0xbe958fce	-0.29211277
126	0x3d851eef	0.06500041
127	0xbcdbf8b8	-0.026851997
128	0x3e0226cd	0.12710114
129	0x3cd90293	0.026490485
130	0x3e0a4f5d	0.13506837
131	0x3d9f935b	0.07791778
132	0x3e171b69	0.1475655
133	0xbda79829	-0.08183319
134	0x3d8a3605	0.06748585
135	0x3e8e8554	0.27836096
136	0xbe9d6a2c	-0.30745065
137	0x3e0dd88e	0.1385214
138	0x3d85a69f	0.06525921
139	0x3ea9b945	0.33149162
140	0xbe7dff37	-0.24804388
141	0xbd1119da	-0.035425045
142	0xbc5d5268	-0.013508417
143	0xbe0b149b	-0.13582079
144	0xbebbbe3a	-0.3666857
145	0x3d3c3c6f	0.04595607
146	0x3d307356	0.043078743
147	0x3de393d5	0.11112181
148	0x3ddfa5aa	0.1092027
149	0xbe1cf291	-0.15326907
150	0xbdba38c1	-0.09092856
151	0x3e1df75e	0.15426394
152	0xbe38e142	-0.18054679
153	0xbdf68969	-0.12037928
154	0xbe242a98	-0.16031873
155	0xb9e07b21	-0.00042816348
156	0x3e473315	0.1945308
157	0x3e1497f1	0.14511086
158	0xbe84bc07	-0.25924703
159	0x3dd927a9	0.10603268
160	0x3de1f08b	0.11032208
161	0xbe586164	-0.21130902
162	0xbd6558db	-0.055992942
163	0x3e04888c	0.12942713
164	0xbd9a6e9d	-0.07540629
165	0xbc360195	-0.011108776
166	0xbdf1a167	-0.11798363
167	0x3e894d42	0.26816756
168	0x3c7f1102	0.01556802
169	0x3db4c613	0.08826842
170	0x3d922c5d	0.07137368
171	0x3e316ae6	0.17325935
172	0xbb935004	-0.0044956226
173	0x3e5b27da	0.21401921
174	0x3cfe73f1	0.031061145
175	0xbea99f43	-0.3312932
176	0x3c031da6	0.008002674
177	0x3e418788	0.18899357
178	0x3d8cf4ea	0.06882651
179	0x3dd5e88b	0.10444745
180	0xbc82ea69	-0.015980916
181	0xbe3a95c2	-0.1822119
182	0xbe3912f1	-0.18073632
183	0x3d782dfc	0.06059073
184	0x3e12b99a	0.14328614
185	0xbeb1bb79	-0.34713343
186	0x3e48add2	0.19597557
187	0x3e2f1bbf	0.17100428
188	0xbe21165c	-0.15731186
189	0xbe134d86	-0.14385042
190	0x3d89bcdb	0.067254744
191	0x3ded9d3a	0.11602254
192	0xbe02ff52	-0.1279271
193	0xbe675305	-0.22590263
194	0xbe9054d7	-0.28189728
195	0xbe973702	-0.29534155
196	0x3cb38bf2	0.021917317
197	0xbd071d27	-0.032986786
198	0xbe41d294	-0.18927985
199	0x3edae6ca	0.42754203
200	0x3c032f7b	0.008006926
201	0xbe44090f	-0.1914408
202	0x3e822a72	0.25423008
203	0x3d897a40	0.067127705
204	0xbe87aacc	-0.26497495
205	0x3e808f32	0.2510925
206	0xbd8d45aa	-0.06898053
207	0x3e87e4a2	0.2654162
208	0x3d673536	0.05644723
209	0x3d408196	0.046998583
210	0x3dd60501	0.10450173
211	0xbbed46f4	-0.0072411243
212	0x3d8cd0f5	0.06875793
213	0xbcab9cee	-0.020948853
214	0x3e330432	0.17482069
215	0x3c423fc3	0.011856022
216	0xbd302bfe	-0.043010704
217	0x3af2990d	0.0018508747
218	0x3e8c8f51	0.27453092
219	0x3dfb8461	0.12281109
220	0xbd21b222	-0.03947652
221	0xbe106508	-0.1410104
222	0xbdcaf1bf	-0.09909391
223	0x3da1ba80	0.078969
224	0xbe84a0ef	-0.25904033
225	0x3c56f9d8	0.013121091
226	0x3e111f85	0.1417218
227	0x3ceea1d7	0.029129906
228	0xbca49770	-0.020091742
229	0x3daffd57	0.085932426
230	0x3e2fbbff	0.17161559
231	0xbe75d8be	-0.24008462
232	0x3e3adff1	0.1824949
233	0xbc86d4c8	-0.016458884
234	0xbdfb6c4d	-0.12276516
235	0xbe6e9e2c	-0.23302525
236	0x3e57ed91	0.21086718
237	0xbe5d2940	-0.21597767
238	0x3e1c4d11	0.15263774
239	0x3ebe3c6f	0.37155482
240	0x3d9d62ce	0.07684861
241	0x3dc606bd	0.09669254
242	0xbef5b3d9	-0.47988775
243	0xbcca06b7	-0.024661405
244	0xbe099b70	-0.13438201
245	0x3c726fb4	0.01479714
246	0xbd566542	-0.05234266
247	0x3e4de72c	0.20107716
248	0x3ca9b140	0.020714402
249	0xbe5923f4	-0.21205121
250	0x3db07549	0.0861612
251	0x3bd24f99	0.00641818
252	0xbdcf6841	-0.10127307
253	0x3e54ec90	0.20793366
254	0xbd5f59f8	-0.05452916
255	0xbe464462	-0.19362023

features.0.bn.weight f4 [32]
0	0x3f82111c	1.0161471
1	0x3f841803	1.0319828
2	0x3f74f36e	0.95683944
3	0x3f8104a4	1.0079541
4	0x3f795ebe	0.9741019
5	0x3f7aa359	0.979055
6	0x3f80f3e8	1.0074434
7	0x3f7d99d9	0.9906288
8	0x3f7864b7	0.9702868
9	0x3f7dce4f	0.99142927
10	0x3f7a9175	0.978782
11	0x3f82ab9b	1.020862
12	0x3f7a692e	0.9781674
13	0x3f81d2f9	1.0142509
14	0x3f7d511e	0.989519
15	0x3f7d0f31	0.98851305
16	0x3f7dffd1	0.9921847
17	0x3f7e7049	0.99390084
18	0x3f7f6ee1	0.9977856
19	0x3f811370	1.0084057
20	0x3f7df8a0	0.99207497
21	0x3f7471e3	0.9548628
22	0x3f80c538	1.0060186
23	0x3f88ecd9	1.069728
24	0x3f76674f	0.96251386
25	0x3f7a8dca	0.978726
26	0x3f85d33c	1.0455089
27	0x3f7e4ae6	0.99333036
28	0x3f814f9d	1.0102421
29	0x3f8009ee	1.000303
30	0x3f83cf81	1.02977
31	0x3f85b1f6	1.0444934

features.0.bn.bias f4 [32]
0	0xbda73361	-0.081640966
1	0xbbf1f3f0	-0.007383816
2	0xbcc87a2b	-0.024472317
3	0xbadac874	-0.001669182
4	0xbca4307a	-0.020042647
5	0x3d7d4a82	0.061838634
6	0xbd34a2ab	-0.044100445
7	0x3d0e47c5	0.034736414
8	0xbcc0a2fc	-0.023515217
9	0x3cbaf6e1	0.0228228
10	0xbcabf56e	-0.020991053
11	0x3e026d9d	0.12737127
12	0xbccb417d	-0.0248115
13	0x3d7f1121	0.062272195
14	0x3d81ac9d	0.063317515
15	0xbd2c70b4	-0.04209967
16	0xbb8e3941	-0.0043403213
17	0xbc81a2cc	-0.015824698
18	0x3d9ff7da	0.07810946
19	0x3b9255f8	0.0044658147
20	0x3d049ad4	0.032374218
21	0xbd82f69f	-0.063946955
22	0x3d3ca24f	0.046053227
23	0xbd382799	-0.04495964
24	0x3d0b4010	0.03399664
25	0x3d906751	0.07050956
26	0x3c13efb4	0.009029318
27	0x3da7f039	0.08200116
28	0x3d17495d	0.0369352
29	0xbc1b11e5	-0.009464716
30	0x3c90a345	0.017655978
31	0xbbffcb9c	-0.0078062546

features.0.bn.running_mean f4 [32]
0	0x38058464	3.183297e-05
1	0xb7069344	-8.02131e-06
2	0x37cde7fa	2.4545927e-05
3	0xb78e600e	-1.6972448e-05
4	0xb7b7d039	-2.1912261e-05
5	0x35c85535	1.492596e-06
6	0xb7d3914c	-2.522082e-05
7	0x376857c2	1.384871e-05
8	0xb7fed148	-3.0376614e-05
9	0xb770266c	-1.43140605e-05
10	0x378b0d7a	1.6576367e-05
11	0xb7a1f019	-1.93045e-05
12	0xb821097c	-3.8394224e-05
13	0x36955154	4.450014e-06
14	0xb806d34a	-3.2144868e-05
15	0x3620b1c1	2.3945324e-06
16	0xb7aa8edd	-2.0332105e-05
17	0x3689a13c	4.1016883e-06
18	0xb694c582	-4.4337366e-06
19	0x37be867c	2.271239e-05
20	0x37cc94fa	2.4388068e-05
21	0x37a3992e	1.9502444e-05
22	0x37aa07d2	2.026922e-05
23	0x37400a51	1.1446494e-05
24	0x38a546ce	7.8810015e-05
25	0x35bb23cc	1.3943004e-06
26	0x37a7c634	2.0000247e-05
27	0x37e42068	2.7194808e-05
28	0x383d09f6	4.507039e-05
29	0xb653cae2	-3.1559543e-06
30	0xb7acf2d1	-2.0617068e-05
31	0xb7214946	-9.613408e-06

features.0.bn.running_var f4 [32]
0	0x3fd47f17	1.6601285
1	0x40936d1a	4.607068
2	0x4009e3b8	2.1545238
3	0x3ffe0bca	1.9847348
4	0x402d1ffc	2.7050772
5	0x3f8eeccb	1.1166013
6	0x3fd7202e	1.6806695
7	0x401c66db	2.4437778
8	0x40f323e2	7.59813
9	0x3f3e2def	0.7428884
10	0x3f7ad699	0.979837
11	0x3f213973	0.62978286
12	0x40561952	3.3452954
13	0x4023d5de	2.5599284
14	0x3f832c16	1.0247829
15	0x40907d75	4.5153146
16	0x3f9b29e5	1.212216
17	0x3fa02e01	1.2514039
18	0x3fd25de8	1.6434908
19	0x408f2dca	4.4743395
20	0x3f884b7e	1.0648038
21	0x40316554	2.7718096
22	0x3ff3ecb7	1.9056615
23	0x3fa3e69a	1.2804749
24	0x4004f4ee	2.0774493
25	0x3fa89905	1.3171698
26	0x405b2925	3.4243863
27	0x40689078	3.6338177
28	0x400c1aa5	2.1891263
29	0x403a63c8	2.9123402
30	0x3ffd91fe	1.9810178
31	0x402ce926	2.7017303

features.1.conv.weight f4 [64, 32, 5]
0	0x3dcc8504	0.09986308
1	0xbe032a21	-0.1280904
2	0x3db8132a	0.0898803
3	0xbe8abd39	-0.2709749
4	0xbe91d682	-0.2848397
5	0x3d9e3867	0.07725602
6	0x3dc81cc2	0.0977111
7	0x3d8cc6de	0.068738684
8	0xbd409d22	-0.047024854
9	0xbe100a90	-0.1406653
10	0x3d715fa9	0.05892912
11	0xbdf5efe2	-0.12008645
12	0x3d82c17d	0.06384561
13	0xbeb0ef89	-0.3455775
14	0xbd059b62	-0.032618888
15	0xbe1a3c29	-0.15062012
16	0x3e1412af	0.14460252
17	0xbcbc637d	-0.022996658
18	0x3e4abea8	0.19799292
19	0xbc8d77d5	-0.017269054
20	0x3e03484f	0.12820552
21	0x3d36ba59	0.04461131
22	0x3e297c51	0.16551329
23	0xbc8bdbab	-0.01707252
24	0xbd217599	-0.03941879
25	0x3d6a7aef	0.057246145
26	0x3db4a9fd	0.08821485
27	0x3c962c0f	0.018331556
28	0x3d81ef36	0.06344454
29	0xbd1c9b0e	-0.03823381
30	0xbdaf8d64	-0.0857189
31	0xbc840d7a	-0.016119707
32	0xbc20f164	-0.009823177
33	0xbe3468b8	-0.17618072
34	0xbd3b9a94	-0.045801714
35	0xbd9bb227	-0.07602339
36	0x3e1beb03	0.15226369
37	0xbda6be8d	-0.081418134
38	0xbe148b40	-0.14506245
39	0x3d8642b3	0.065556906
40	0x3d6cde8a	0.057829417
41	0xbd7e79c2	-0.062127836
42	0xbde5d828	-0.11222869
43	0x3d146bd7	0.036235657
44	0x3e3448b3	0.17605858
45	0xbd8485b4	-0.06470814
46	0xbc201377	-0.009770266
47	0xbe2910fd	-0.16510387
48	0x3d0e04e8	0.034672648
49	0xbe2c74cc	-0.1684143
50	0xbe409c46	-0.18809614
51	0xbe41d190	-0.18927598
52	0x3d2ee007	0.042694118
53	0xbd8ffab9	-0.070302434
54	0xbca5151a	-0.020151664
55	0xbd32fc61	-0.04369772
56	0xbe241a12	-0.1602557
57	0x3e18effa	0.14935294
58	0xbe319ae6	-0.17344245
59	0x3de2c843	0.11073353
60	0x3b213ea9	0.0024603999
61	0xbd0d5ad3	-0.034510445
62	0x3e2824e0	0.16420317
63	0xbe3898b3	-0.18027
64	0x3dc14475	0.09436885
65	0xbce87ca6	-0.02837975
66	0xbdc0f850	-0.09422362
67	0x3df9e785	0.12202362
68	0xbd60939a	-0.054828264
69	0xbdd85322	-0.10562731
70	0x3d31c3a6	0.043399476
71	0x3d851b02	0.06499292
72	0x3d3720f4	0.04470916
73	0x3cca2887	0.024677528
74	0x3ce4f200	0.027947426
75	0xbd6a2e45	-0.057173032
76	0xbdaaf43b	-0.083473645
77	0xbe0a9692	-0.13534
78	0xbdd1f5ed	-0.10251985
79	0x3dc5b6b5	0.09653989
80	0xbe2f98d5	-0.17148145
81	0xbda86df3	-0.08224096
82	0x3dca1d04	0.098688155
83	0xbe13eb8e	-0.14445326
84	0xbcb34860	-0.021885097
85	0xbd44560a	-0.047933616
86	0x3d32e7bb	0.043678027
87	0x3ca9f63e	0.0207473
88	0x3ca9df2d	0.020736301
89	0x3e9dfa89	0.30855206
90	0x3dca52ba	0.0987906
91	0x3e225a81	0.15854837
92	0x3e10a5e2	0.1412578
93	0xbd923792	-0.071395054
94	0x3d47a8f6	0.048745118
95	0xbd3da672	-0.046301313
96	0x3e3b3244	0.18280894
97	0x3ddc05da	0.107433036
98	0x3d006fff	0.031356808
99	0x3c20b1da	0.009808028
100	0xbdf5f21d	-0.1200907
101	0xbe49a8b0	-0.19693255
102	0xbc4f9d15	-0.012671729
103	0xbeb47636	-0.35246438
104	0xbdbcaab5	-0.09212247
105	0x3e34aa76	0.1764315
106	0xbdd18a96	-0.10231511
107	0xbea04476	-0.31302232
108	0x3c3dfc62	0.011595817
109	0x3bc450cd	0.0059910775
110	0xbd768aa6	-0.06019082
111	0x3c875e0c	0.016524337
112	0x3db7628c	0.08954343
113	0x3e4a0d16	0.19731554
114	0x3d13bf7f	0.036071297
115	0x3d7005cd	0.058599282
116	0x3dae1ec3	0.08501961
117	0xbe5d392b	-0.21603839
118	0xbd67d15d	-0.05659615
119	0x3d810826	0.06300382
120	0x3d4baa3f	0.049722906
121	0xbd7de811	-0.061988894
122	0x3e81252b	0.2522367
123	0x3ccb4308	0.024812236
124	0x3dacf784	0.08445647
125	0xbdf302e5	-0.118657865
126	0xbc07ed24	-0.008296285
127	0x3c823bde	0.015897688
128	0x3db2d08f	0.08731186
129	0xbe7f09d6	-0.24906096
130	0xbd5e9b6e	-0.054347448
131	0xb5e88dfb	-1.7326669e-06
132	0xbd6f274a	-0.05838708
133	0xbe0e0ef3	-0.1387289
134	0x3d2a1afa	0.041529633
135	0xbe89fede	-0.2695226
136	0xbd62b37d	-0.055346955
137	0x3d432c55	0.0476497
138	0xbdbc3f82	-0.09191801
139	0x3cfe7405	0.031061182
140	0xbcc43862	-0.023952667
141	0xbe4474ca	-0.19185176
142	0xbdb3dd43	-0.08782437
143	0x3d01fe25	0.03173651
144	0xbc9d888e	-0.019230153
145	0x3e5943c7	0.21217261
146	0xbd3bbd40	-0.04583478
147	0xbd0bedc3	-0.034162294
148	0x3c26e3fe	0.0101861935
149	0x3dacd360	0.08438754
150	0x3d6d2f92	0.057906695
151	0xbd934288	-0.07190424
152	0xbc8f8086	-0.01751734
153	0x3e52b53e	0.20576951
154	0x3d8d96a2	0.069134966
155	0xbe471f7f	-0.19445609
156	0xbcedb49b	-0.029016783
157	0xbd9b08c2	-0.0757003
158	0xbe3c5627	-0.1839224
159	0xbcc75bc9	-0.024335759
160	0x3d34cf54	0.044143036
161	0x3e1d057e	0.15334126
162	0xbe243ae9	-0.16038097
163	0xbdf05442	-0.11734821
164	0xbdf85522	-0.12125613
165	0x3dee726f	0.1164292
166	0xbe1b3bbd	-0.15159507
167	0xbcdfbfc9	-0.02731313
168	0xbd0766f2	-0.03305716
169	0xbd2b922e	-0.041887455
170	0xbe47fad4	-0.19529277
171	0x3e7fa27a	0.24964324
172	0x3dc3df18	0.09564036
173	0x3d0eec32	0.034893222
174	0xbdc1c7f7	-0.094619684
175	0x3da24ff6	0.079254076
176	0xbe8014ef	-0.2501597
177	0xbdef064c	-0.11671123
178	0x3d02e281	0.031954292
179	0xbdc4c5d7	-0.096080475
180	0x3e8a7fa5	0.2705051
181	0x3d170728	0.03687206
182	0xbd955fdd	-0.07293675
183	0x3e399971	0.1812494
184	0xbde1a4d6	-0.11017768
185	0xbe16c08b	-0.14721887
186	0xbd59b3b2	-0.053149886
187	0x3d243506	0.04008963
188	0x3dd18b1c	0.10231611
189	0x3d8142b9	0.063115545
190	0x3d1ec8ca	0.038765706
191	0xbe19fc27	-0.15037595
192	0x3d582e04	0.05277826
193	0x3d044056	0.032287918
194	0x3daf958f	0.08573448
195	0x3d10b266	0.035326384
196	0xbcdc3abe	-0.02688348
197	0xbde51002	-0.11184694
198	0x3d56d894	0.05245264
199	0x3d728af0	0.059214532
200	0x3d019741	0.031638388
201	0xbd2515c9	-0.04030398
202	0xbd647e18	-0.055784315
203	0x3d5ac1a0	0.05340731
204	0x3c581ba3	0.013190183
205	0x3d84e5ce	0.06489144
206	0xbe8b9222	-0.27259928
207	0x3e643dfd	0.22289272
208	0xbe876ed3	-0.2645174
209	0xbe50b2bd	-0.20380683
210	0xbd431adc	-0.047633037
211	0x3c024164	0.007950161
212	0x3c94cd98	0.018164441
213	0x3de4038a	0.111334875
214	0xbe64cd94	-0.22344047
215	0xbe107762	-0.14108041
216	0xbe07eba1	-0.13273479
217	0x3838d2d8	4.4065382e-05
218	0xbe359b7b	-0.17735092
219	0x3da30f03	0.07961848
220	0x3d78bfe2	0.06072987
221	0x3add808d	0.0016899273
222	0xbd624d79	-0.055249665
223	0xbe4c2f4b	-0.19939916
224	0xbd98defe	-0.074644074
225	0x3d92b257	0.07162922
226	0xbb844f1e	-0.004037752
227	0x3ccba272	0.024857733
228	0x3ce131a0	0.027489483
229	0xbe22cd9c	-0.15898746
230	0xbdc36891	-0.09541429
231	0x3dbded49	0.09273774
232	0xbc486eb2	-0.012233423
233	0xbb631cae	-0.0034654546
234	0xbc574ced	-0.013140899
235	0x3e3a0b57	0.18168388
236	0x3c8e2479	0.017351376
237	0xbdf3b6c2	-0.11900093
238	0x3e681e4f	0.22667812
239	0xbd010bdb	-0.031505447
240	0x3d9e5bc3	0.07732346
241	0xbccba2e8	-0.024857953
242	0x3c83452d	0.016024197
243	0x3deb5a3c	0.1149182
244	0xbe0e6a08	-0.13907635
245	0x3d724cde	0.059155338
246	0x3e3a296d	0.18179865
247	0xbdcddf3b	-0.100523435
248	0xbdc7b472	-0.09751214
249	0xbc5d3b48	-0.013502903
250	0x3d36eb33	0.044657897
251	0xbe10375b	-0.14083616
252	0x3e1236f9	0.14278783
253	0xbd8e1d5a	-0.06939192
254	0x3e962b15	0.29329744
255	0x3e9b09b2	0.30280834

features.1.bn.weight f4 [64]
0	0x3f854ac6	1.0413444
1	0x3f7c929c	0.9866121
2	0x3f7cb97a	0.98720515
3	0x3f7e100e	0.9924325
4	0x3f7d843d	0.99029905
5	0x3f7fdd64	0.9994719
6	0x3f7ecec9	0.9953428
7	0x3f7bf19b	0.98415536
8	0x3f8381d4	1.0273995
9	0x3f81b72b	1.0134023
10	0x3f85a114	1.0439782
11	0x3f8649d7	1.0491284
12	0x3f85a6f4	1.0441575
13	0x3f784fd6	0.9699682
14	0x3f8533a3	1.0406383
15	0x3f8181ca	1.0117733
16	0x3f795d2a	0.9740778
17	0x3f6d4eb7	0.92698234
18	0x3f807a38	1.0037298
19	0x3f7d2f29	0.98900086
20	0x3f87552f	1.0572871
21	0x3f7b23d0	0.9810152
22	0x3f762f1c	0.96165633
23	0x3f73d1d3	0.9524204
24	0x3f7b5023	0.98169154
25	0x3f820148	1.0156641
26	0x3f76d798	0.9642272
27	0x3f80c325	1.0059553
28	0x3f772d3d	0.96553403
29	0x3f8107b7	1.0080479
30	0x3f851005	1.0395514
31	0x3f8076dd	1.0036274
32	0x3f6dba83	0.9286272
33	0x3f801368	1.0005922
34	0x3f85d1f8	1.0454702
35	0x3f76d71a	0.9642197
36	0x3f876707	1.0578316
37	0x3f7972fd	0.97441083
38	0x3f7886b0	0.97080517
39	0x3f7b8574	0.9825051
40	0x3f8f2e42	1.1185992
41	0x3f83650e	1.0265214
42	0x3f83241b	1.0245394
43	0x3f81a19e	1.0127447
44	0x3f6fa185	0.93605834
45	0x3f85118e	1.0395982
46	0x3f816f6c	1.0112128
47	0x3f7a950e	0.9788369
48	0x3f818f3a	1.0121834
49	0x3f750254	0.9570668
50	0x3f8434bd	1.0328594
51	0x3f866303	1.0498966
52	0x3f7d6ae0	0.98991203
53	0x3f7f5050	0.9973192
54	0x3f85fdcb	1.0468076
55	0x3f79c89c	0.9757173
56	0x3f7aa6c2	0.979107
57	0x3f6f0567	0.9336762
58	0x3f831297	1.0240048
59	0x3f81d34e	1.014261
60	0x3f7fd443	0.9993326
61	0x3f856479	1.0421287
62	0x3f764bfb	0.96209687
63	0x3f7d81b7	0.99026054

features.1.bn.bias f4 [64]
0	0x3d1b2d06	0.037884735
1	0xbc415bfb	-0.011801715
2	0x3ca0dd6e	0.019636836
3	0xbce40717	-0.027835412
4	0x3c9fec07	0.019521726
5	0xbc1d8cb3	-0.009616065
6	0x3b8375e2	0.0040118555
7	0xbd72b707	-0.05925658
8	0x3bfd311c	0.0077268016
9	0xbcbd0a47	-0.02307619
10	0x3d804c77	0.062645845
11	0xbb889f1f	-0.0041693593
12	0x3cecd041	0.028907897
13	0xbd2a8aac	-0.041636154
14	0x3a9d301e	0.001199249
15	0xbd5b3a59	-0.05352244
16	0xbd6f0dbf	-0.05836272
17	0xbc041504	-0.008061651
18	0x3a337f22	0.00068472524
19	0xbd135294	-0.035967425
20	0xbdf177e6	-0.11790447
21	0xbc7ad6a7	-0.015309966
22	0xbd8b14bb	-0.067910634
23	0x39cc9ed0	0.00039028237
24	0xbd7d9886	-0.061913036
25	0xbd5c63ce	-0.05380612
26	0xbcd515a8	-0.026011303
27	0x3c382c15	0.011240979
28	0xbd774521	-0.06036866
29	0xbd8b90dd	-0.0681474
30	0x3d920bfc	0.07131192
31	0x3c4726bd	0.012155232
32	0xbbc679a2	-0.00605698
33	0xbc363455	-0.011120875
34	0x3db77043	0.08956959
35	0xbd2ec789	-0.04267076
36	0xbda8f194	-0.08249202
37	0xbcf38b9a	-0.029729653
38	0xbd71a8ef	-0.058999
39	0xbd1cc5d7	-0.038274612
40	0xbd8ee1cd	-0.06976662
41	0xbc3611bf	-0.011112629
42	0x384abde7	4.8337413e-05
43	0xbc8bf953	-0.01708666
44	0xbd5bcdbc	-0.053663
45	0xbcf632a3	-0.030053442
46	0xbc875271	-0.016518803
47	0x3d93d242	0.07217838
48	0x3c06cea2	0.008227976
49	0xbd33d1b3	-0.043901157
50	0x3d913ddc	0.07091877
51	0x3d9de146	0.07708983
52	0xbd0515ec	-0.03249161
53	0xbd38fa46	-0.045160554
54	0x3d924c2b	0.07143434
55	0xbc96e9d3	-0.018422043
56	0xbbf2870d	-0.007401353
57	0xbd6e5c03	-0.058193218
58	0xbae8ea92	-0.0017770103
59	0xbbcfc310	-0.006340392
60	0xbd3b59d9	-0.045739982
61	0x3d97743b	0.07395216
62	0xbc48cbf5	-0.012255658
63	0x3bc42fed	0.0059871585

features.1.bn.running_mean f4 [64]
0	0xbf407be3	-0.75189036
1	0x3da12380	0.07868099
2	0xbf8cda87	-1.1004189
3	0xbd800b0f	-0.06252109
4	0xbeec27e4	-0.46124184
5	0xbebcc42c	-0.36868417
6	0xbf7014e3	-0.9378187
7	0x3e896e02	0.26841742
8	0xbf86815a	-1.0508225
9	0xbf0f2123	-0.5590994
10	0xbea66bab	-0.3250402
11	0xbf79e5b8	-0.9761615
12	0xbed40c11	-0.41415456
13	0x3f5d32d5	0.8640569
14	0x3df98540	0.121836185
15	0xbeb1f91e	-0.34760374
16	0xbf14e079	-0.5815502
17	0xbede2c25	-0.43393055
18	0xbec22c4a	-0.37924415
19	0xbf856097	-1.0420102
20	0x3ee98b1a	0.4561394
21	0xbf0bee34	-0.54660344
22	0xbc8ad493	-0.016947066
23	0x3f105792	0.5638362
24	0x3dee4538	0.11634296
25	0xbe2002e6	-0.15626106
26	0xbf5d588c	-0.86463237
27	0xbfa4bada	-1.2869523
28	0x3e80b3a5	0.25137058
29	0x3ee51bb3	0.44747695
30	0xbf06e228	-0.5268884
31	0xbf921117	-1.1411465
32	0x3f62463f	0.8838844
33	0x3f1da60e	0.61581504
34	0xbf2dccda	-0.67890704
35	0x3f676cb2	0.9040023
36	0x3f0d1b09	0.5511938
37	0xbddca284	-0.10773185
38	0xbf145565	-0.579428
39	0xbea79c52	-0.3273645
40	0x3ed09f67	0.40746614
41	0xbf0b29f5	-0.54360896
42	0x3e791376	0.2432383
43	0xbe359270	-0.17731643
44	0x3f182729	0.59434754
45	0xbf371242	-0.71512234
46	0xbef9916f	-0.4874377
47	0xbeb90ec2	-0.36144072
48	0xbec01be3	-0.37521276
49	0x3ed3504b	0.41272196
50	0x3f0a9201	0.54129034
51	0xbebc23bf	-0.36746022
52	0x3f0d5a0f	0.55215544
53	0x3ebdbccc	0.37058103
54	0xbddb8458	-0.10718602
55	0x3fb17a5a	1.3865464
56	0xbedef30a	-0.435448
57	0x3d93966d	0.07206426
58	0xbf24ddca	-0.64400923
59	0xbf05de08	-0.5229192
60	0x3dc6eb58	0.09712857
61	0xbd8a6eac	-0.0675939
62	0x3efade08	0.4899752
63	0x3ed593fe	0.41714472

features.1.bn.running_var f4 [64]
0	0x3f8b4331	1.087988
1	0x3ee30aee	0.44344276
2	0x409f753a	4.98306
3	0x3f435a76	0.7630991
4	0x3ffe583e	1.9870679
5	0x3f58c62f	0.84677404
6	0x403c87f1	2.9457972
7	0x3e9c2007	0.30493185
8	0x402c86a6	2.6957183
9	0x3f88492d	1.0647331
10	0x3f9d3d76	1.2284381
11	0x40024111	2.0352213
12	0x3fdf4d61	1.7445489
13	0x3fd5c1ea	1.6699803
14	0x3fcc8940	1.5979385
15	0x3f2dfc9b	0.6796357
16	0x3fd4b9c2	1.6619189
17	0x3f59a1ae	0.8501233
18	0x3f50942d	0.814761
19	0x4000dd34	2.0135012
20	0x3f556244	0.83353066
21	0x3f4d191f	0.80116457
22	0x3f8cb899	1.0993835
23	0x3fbc95b4	1.4733186
24	0x3f28f568	0.6599946
25	0x3f10ee94	0.5661404
26	0x4004b5dc	2.0735998
27	0x3fb4bc25	1.4119917
28	0x3f5bd162	0.8586637
29	0x3f75b3c5	0.9597743
30	0x3f5faf26	0.8737663
31	0x40094c19	2.1452696
32	0x3fcd16dd	1.6022602
33	0x3f843816	1.0329616
34	0x3f641e78	0.8910899
35	0x3f8026e7	1.0011872
36	0x3f0039c5	0.5008815
37	0x3fb6854b	1.4259428
38	0x4081dc55	4.058146
39	0x3f1ec432	0.6201812
40	0x3f4c4536	0.7979311
41	0x3faa18c3	1.3288807
42	0x3f440e86	0.7658466
43	0x3f85c709	1.0451366
44	0x3f53bce6	0.8271011
45	0x3fc45c21	1.5340616
46	0x3fc576e8	1.5426912
47	0x3f26a757	0.6509909
48	0x3f82a63e	1.0206983
49	0x3f3f1498	0.746408
50	0x3fa28811	1.2697774
51	0x3f806c93	1.0033134
52	0x3f551467	0.83234257
53	0x3f6efc98	0.9335418
54	0x3f134f40	0.575428
55	0x403571a0	2.8350601
56	0x3fc3df5f	1.5302542
57	0x3f960356	1.1719768
58	0x3f68156c	0.9065769
59	0x4026e1c2	2.6075292
60	0x3f4e3f3d	0.80565244
61	0x3f090776	0.5352701
62	0x3fd295ea	1.6452
63	0x3f223508	0.6336217

features.2.conv.weight f4 [128, 64, 5]
0	0x3d01b4cd	0.031666566
1	0xbd49f774	-0.049308255
2	0xbe34b58b	-0.17647378
3	0xbd9636ee	-0.07334696
4	0xbd2364a1	-0.03989089
5	0x3d2b38f2	0.041802354
6	0xbd9c193f	-0.07622003
7	0xbc88ee69	-0.016715245
8	0x3dbca270	0.0921067
9	0x3e8d3873	0.2758213
10	0xbdbdba28	-0.09264022
11	0x3e1e20e0	0.15442228
12	0xbddb94dc	-0.10721752
13	0x3c55e70f	0.013055577
14	0xbe26b9da	-0.16281834
15	0x3e1ee536	0.15517125
16	0x3d92613f	0.071474545
17	0x3d534bd1	0.051585976
18	0xbce457ab	-0.027873835
19	0xbcd3fd78	-0.0258777
20	0x3c06fb94	0.008238692
21	0x3d32e4b8	0.043675154
22	0xbdd9cf45	-0.10635237
23	0xbdddbabd	-0.10826633
24	0xbdd19d8c	-0.10235128
25	0xbdcabe43	-0.09899571
26	0xbde40fbb	-0.11135813
27	0xbdcbbdf4	-0.0994834
28	0x3e1ad02f	0.15118478
29	0x3d0a3be3	0.03374852
30	0x3e25f89b	0.16208117
31	0xbc8313ea	-0.016000707
32	0xbc4af1e8	-0.0123867765
33	0xbcf9bdde	-0.030486044
34	0xbd334e3a	-0.043775775
35	0x3d9cc0ce	0.07653962
36	0x3e54d149	0.20782961
37	0x3cf4736b	0.029840192
38	0xbdf7f5c3	-0.12107422
39	0x3be43926	0.0069648204
40	0xbcfd737b	-0.030938854
41	0x3b602f39	0.0034207834
42	0xbd28711e	-0.041123502
43	0x3d81d204	0.063388854
44	0x3dddade5	0.108241834
45	0xbdf44ab0	-0.11928308
46	0xbdaca4be	-0.084298596
47	0xbd0faf63	-0.03507937
48	0xbc765af5	-0.015036334
49	0x3df12865	0.11775283
50	0xbd868cde	-0.06569837
51	0xbcd4f0ba	-0.025993694
52	0xbe0a893b	-0.13528912
53	0x3dfee558	0.124460876
54	0x3e1bec46	0.1522685
55	0x3cb9869e	0.022647198
56	0x3dc545e6	0.09632473
57	0x3d35e6c4	0.04440953
58	0x3dd3af1f	0.10336136
59	0xbd346fac	-0.04405181
60	0x3badf315	0.0053085187
61	0x3d247dd4	0.04015906
62	0xbd469675	-0.04848333
63	0x3d873394	0.066016346
64	0x3ba5e1dd	0.0050623254
65	0x3c359c81	0.011084677
66	0xbd7ea48f	-0.062168654
67	0x3c19fd92	0.009398835
68	0x3d20d438	0.039264888
69	0x3d8183a7	0.06323939
70	0x3ecae4b1	0.39627603
71	0xbdbb4730	-0.09144437
72	0x3d881d42	0.066462055
73	0x3d5ece5e	0.054396026
74	0xbd91d238	-0.07120174
75	0x3d2fc8fb	0.04291628
76	0xbd8135c6	-0.063090846
77	0x3d1eef38	0.038802356
78	0xbd817661	-0.06321407
79	0x3dcef110	0.10104573
80	0x3de85b47	0.11345535
81	0xbe1e5145	-0.1546069
82	0x3d7c00ac	0.06152408
83	0x3cd84c34	0.026403524
84	0x3dcc9d7b	0.099909745
85	0x3e0b5217	0.13605534
86	0x3d9c0494	0.07618061
87	0x3c99a824	0.018756934
88	0x3d9f0744	0.07765058
89	0x3d17fbfe	0.037105553
90	0xbcd7b82b	-0.026332935
91	0xbd0e62f3	-0.034762334
92	0x3dbe92b4	0.09305325
93	0xbd29d538	-0.041463107
94	0xbe495c78	-0.1966418
95	0xbe1c4991	-0.15262438
96	0xbd73b938	-0.05950281
97	0x3d276a36	0.040872775
98	0xbb55692a	-0.0032563903
99	0x3e255416	0.16145357
100	0x3e58f5e5	0.21187551
101	0xbcfc5d78	-0.030806288
102	0x3c3c47b5	0.011491706
103	0x3d5a6ee0	0.053328395
104	0x3e0f2d29	0.13982071
105	0xbd7ddcb4	-0.061978057
106	0xbc6c7c30	-0.0144339055
107	0x3d1714d9	0.036885116
108	0x3d3093b7	0.04310962
109	0x3da3bd99	0.07995147
110	0xbe54d971	-0.20786072
111	0xbdcc5156	-0.09976451
112	0x3dbc8600	0.09205246
113	0xbdff40a8	-0.12463504
114	0x3d1b5dae	0.037931137
115	0x3d669ede	0.05630385
116	0xbdacbae8	-0.08434087
117	0xbd9b1bdc	-0.07573673
118	0x3dcdca66	0.1004837
119	0x3e3fab35	0.18717654
120	0x3d772167	0.06033459
121	0xbcd662df	-0.026170192
122	0x3dbb5069	0.091461964
123	0xbd6c9070	-0.057754934
124	0x3e245186	0.16046724
125	0x3d36b44a	0.04460553
126	0xbd0e7827	-0.034782555
127	0x3e19002f	0.14941476
128	0xbd92fc67	-0.07177048
129	0x3e307c10	0.17234826
130	0x3d62a1c3	0.05533005
131	0xbd8bb203	-0.068210624
132	0xbd048cc9	-0.032360826
133	0x3c32e758	0.010919414
134	0x3ca3c76f	0.019992558
135	0xbdc0bc46	-0.0941091
136	0xbbd01930	-0.006350659
137	0xbcbaa24f	-0.022782473
138	0x3d80c864	0.062882215
139	0x3e05e6b6	0.1307629
140	0x3d34c578	0.044133633
141	0xbc41e421	-0.011834175
142	0xbd91f056	-0.071259186
143	0xbcafa09c	-0.02143889
144	0x3d77f937	0.060540404
145	0x3d2dfcaa	0.042477287
146	0xbd73fde8	-0.059568316
147	0x3ccc735a	0.024957348
148	0x3ce0aef1	0.027427169
149	0x3db1def5	0.08685104
150	0x3d65b2c8	0.056078702
151	0xbc6fe4b6	-0.014641931
152	0xbdf2eb18	-0.11861247
153	0xbe259aa5	-0.16172273
154	0x3d3d77ad	0.04625671
155	0x3cddaf0b	0.027061006
156	0x3d4ca79f	0.049964543
157	0xbc081f15	-0.008308192
158	0x3e166309	0.14686216
159	0x3e85739b	0.26064762
160	0xbba61a6a	-0.005069067
161	0x3cb89e7e	0.022536512
162	0x3ca0fe47	0.019652499
163	0x3df8ae21	0.121425875
164	0xbd0ee11e	-0.034882657
165	0x3c547978	0.0129684135
166	0x3da59659	0.08085317
167	0xbcb20d6a	-0.021734912
168	0x3e0a5ddf	0.13512371
169	0xbdb6c350	-0.08923972
170	0xbd9e52a6	-0.07730608
171	0xbe3b67e0	-0.18301344
172	0x3c39bc0f	0.011336341
173	0xbd9dddff	-0.07708358
174	0xbb359eaf	-0.002771299
175	0xbc4c1387	-0.012455828
176	0x3d73b8e5	0.0595025
177	0x3d1e402f	0.03863543
178	0xbdb99964	-0.0906246
179	0xbdc97d31	-0.098383315
180	0x3dda56a6	0.10661058
181	0x3d4bf99f	0.049798604
182	0x3d2cb778	0.042167157
183	0x3ca772a2	0.020440403
184	0xbb55fa9f	-0.0032650603
185	0x3dedc92c	0.11610636
186	0x3ccb2fda	0.02480309
187	0x3dde3996	0.108508274
188	0xbdfe2ad2	-0.12410511
189	0x3d5897cc	0.05287914
190	0x3d854aca	0.065084055
191	0x3e21dcdb	0.15806906
192	0x3ce1369e	0.027491864
193	0x3dac0478	0.0839929
194	0xbc75f317	-0.01501157
195	0xbd20402a	-0.03912369
196	0x3b1b0832	0.0023656008
197	0xbd9882fe	-0.0744686
198	0x3dc7a012	0.09747328
199	0x3d63bd24	0.0556003
200	0x3d99c8d3	0.07509007
201	0x3cdd1c4e	0.026991036
202	0x3d2d3609	0.04228786
203	0x3b37f9d7	0.00280725
204	0x3e0d8686	0.13820848
205	0x3e4bbdf3	0.19896679
206	0x3d9ad361	0.075598486
207	0xbc567078	-0.013088338
208	0x3d0f96ab	0.035055798
209	0x3b19a1d5	0.0023442407
210	0xbd9492a6	-0.072545335
211	0x3d8f769a	0.07005043
212	0x3da92631	0.082592376
213	0x3ca6b25a	0.020348717
214	0x3e296ed2	0.16546181
215	0x3d16701a	0.036728002
216	0x3bb4d49c	0.005518509
217	0x3e0c193e	0.13681504
218	0xbc68cc65	-0.014208888
219	0xbd705c70	-0.058681905
220	0x3e1e06ba	0.15432253
221	0xbd02f4e4	-0.031971827
222	0x3d9b2613	0.075756215
223	0xbd1cd7c6	-0.038291715
224	0x3dac04eb	0.083993755
225	0x3d87c767	0.0662983
226	0x3dbbe841	0.09175158
227	0xbc3ddda3	-0.011588487
228	0x3d946c0f	0.07247173
229	0xbd7d15f6	-0.06178852
230	0x3bc973d2	0.00614784
231	0x3d4e71e5	0.050401587
232	0x39d4932b	0.0004054544
233	0x3dcd4508	0.10022932
234	0x3e0d5d3e	0.138051
235	0x3de4ac9c	0.11165735
236	0x3ce74d5a	0.028235126
237	0xbcef6871	-0.029224606
238	0x3df09606	0.11747365
239	0x3da7aab9	0.0818686
240	0xbdebe060	-0.115174055
241	0xbd6bbb72	-0.05755181
242	0x3db9eda1	0.09078527
243	0xbcee53b0	-0.02909264
244	0xbd73562b	-0.059408348
245	0x3def2642	0.11677219
246	0x3c0775ce	0.008267833
247	0x3dc2a1d8	0.095035255
248	0xbd8a5251	-0.06753982
249	0x3ddb6099	0.10711784
250	0x3d299455	0.041401226
251	0x3dab1c39	0.083549924
252	0xbe0d4329	-0.13795151
253	0x3cd74c51	0.026281508
254	0x3cd082c9	0.025452988
255	0xbbf0ea07	-0.007352117

features.2.bn.weight f4 [128]
0	0x3f81da54	1.0144753
1	0x3f68ad2a	0.9088923
2	0x3f7134b3	0.9422104
3	0x3f87cf58	1.0610151
4	0x3f84d181	1.0376436
5	0x3f7b5cf6	0.9818872
6	0x3f83304b	1.0249113
7	0x3f89b11d	1.0757176
8	0x3f7090ae	0.93970764
9	0x3f4f61ca	0.8100859
10	0x3f6fd52a	0.9368464
11	0x3f7fff2a	0.99998724
12	0x3f65ae47	0.8971905
13	0x3f62b7ca	0.8856169
14	0x3f83f424	1.0308881
15	0x3f8340f8	1.0254202
16	0x3f8625c8	1.048028
17	0x3f75615d	0.9585169
18	0x3f70f785	0.94127685
19	0x3f748fec	0.9553211
20	0x3f861173	1.0474075
21	0x3f831abf	1.0242537
22	0x3f857e87	1.0429238
23	0x3f726445	0.9468425
24	0x3f6ce66f	0.92539114
25	0x3f65f0cb	0.89820546
26	0x3f7a065e	0.97665966
27	0x3f7ccaba	0.98746836
28	0x3f785687	0.9700703
29	0x3f823dbe	1.0175092
30	0x3f6c4c39	0.92303807
31	0x3f7daf12	0.9909526
32	0x3f85da8b	1.0457319
33	0x3f7ae6fe	0.98008716
34	0x3f715b39	0.9427982
35	0x3f7b33d4	0.9812596
36	0x3f60151c	0.8753221
37	0x3f76c736	0.9639772
38	0x3f593978	0.84853315
39	0x3f785a24	0.97012544
40	0x3f7d98d4	0.9906132
41	0x3f74a8bd	0.95569974
42	0x3f801326	1.0005844
43	0x3f7eecfe	0.9958037
44	0x3f830d58	1.0238447
45	0x3f68658c	0.9077995
46	0x3f7fcd8b	0.9992301
47	0x3f86ae20	1.0521889
48	0x3f73f76d	0.95299417
49	0x3f8c9406	1.0982673
50	0x3f803cd8	1.0018568
51	0x3f673416	0.9031385
52	0x3f85ca52	1.0452368
53	0x3f5909d0	0.847806
54	0x3f6b69e0	0.9195843
55	0x3f75e9f9	0.9606014
56	0x3f642a10	0.8912668
57	0x3f702726	0.93809736
58	0x3f616c37	0.8805575
59	0x3f7c4490	0.9854212
60	0x3f82da4b	1.0222868
61	0x3f6e8b4f	0.9318132
62	0x3f7d57db	0.9896218
63	0x3f838d26	1.027745
64	0x3f7c5774	0.9857094
65	0x3f7b9d71	0.9828711
66	0x3f71ac4a	0.9440352
67	0x3f7f3c80	0.9970169
68	0x3f73d321	0.9524403
69	0x3f5e565c	0.86850524
70	0x3f6006b3	0.8751022
71	0x3f72645f	0.94684404
72	0x3f82222e	1.0166681
73	0x3f82edf3	1.0228866
74	0x3f86d961	1.0535089
75	0x3f7d7075	0.9899972
76	0x3f804d85	1.0023657
77	0x3f832beb	1.0247778
78	0x3f77ea2c	0.9684169
79	0x3f799a25	0.9750083
80	0x3f792e5d	0.9733637
81	0x3f8444fc	1.0333552
82	0x3f80dd68	1.0067568
83	0x3f684dbc	0.90743613
84	0x3f822593	1.0167717
85	0x3f79b6f3	0.97544783
86	0x3f79608d	0.9741295
87	0x3f7b57b6	0.9818071
88	0x3f654ad7	0.8956732
89	0x3f6d655d	0.92732793
90	0x3f777476	0.9666208
91	0x3f68e26b	0.90970486
92	0x3f702c2e	0.9381741
93	0x3f6f79db	0.9354531
94	0x3f71e2cb	0.94486684
95	0x3f7ac8de	0.9796275
96	0x3f7bcfbc	0.9836385
97	0x3f6d1a06	0.92617834
98	0x3f86aa7b	1.0520777
99	0x3f8387f5	1.0275866
100	0x3f814c81	1.0101472
101	0x3f7ca9fd	0.9869688
102	0x3f678d56	0.90450037
103	0x3f739ee5	0.9516433
104	0x3f807065	1.00343
105	0x3f7fad53	0.99873847
106	0x3f82081b	1.0158724
107	0x3f7d0d46	0.9884838
108	0x3f82905a	1.0200303
109	0x3f874b22	1.0569804
110	0x3f6283dd	0.8848246
111	0x3f840e28	1.031682
112	0x3f6ec74a	0.9327284
113	0x3f692a75	0.9108041
114	0x3f7ab526	0.9793266
115	0x3f701132	0.9377624
116	0x3f71ed18	0.945024
117	0x3f73849f	0.9512424
118	0x3f8554ff	1.0416564
119	0x3f7f2551	0.99666315
120	0x3f830f5d	1.0239064
121	0x3f676754	0.9039204
122	0x3f8a4c38	1.080451
123	0x3f866b2d	1.0501457
124	0x3f7ae82b	0.9801051
125	0x3f62e80c	0.88635325
126	0x3f6b42c1	0.91898733
127	0x3f68cc5b	0.9093682

features.2.bn.bias f4 [128]
0	0xbe7cb03d	-0.24676605
1	0xbe42cd67	-0.19023667
2	0xbdfbcd25	-0.122949876
3	0xbe358638	-0.17726982
4	0xbe0b8084	-0.13623244
5	0xbe21d7cd	-0.15804978
6	0xbdcdc0f1	-0.10046566
7	0xbb12c72d	-0.002239655
8	0xbd51a57f	-0.05118322
9	0xbe125cbb	-0.14293186
10	0xbe0567e9	-0.1302792
11	0xbcc70656	-0.024295013
12	0xbe7619c7	-0.24033271
13	0xbdc8e9f8	-0.09810251
14	0xbd0f31b5	-0.034959514
15	0xbd8ab1de	-0.06772207
16	0xbda543b6	-0.080695555
17	0xbe06b9c0	-0.13156796
18	0xbdf8a48e	-0.12140761
19	0xbd4b177c	-0.049582943
20	0xbdf16c44	-0.11788228
21	0xbd471e31	-0.048612777
22	0xbe03f5df	-0.12886761
23	0xbe24a2cd	-0.16077729
24	0xbdeb4fe0	-0.11489844
25	0xbe5eddab	-0.21764247
26	0xbe2af400	-0.16694641
27	0xbe81c879	-0.2534826
28	0xbe698c2e	-0.2280738
29	0xbe5e3d5d	-0.21703096
30	0xbdabf66c	-0.083966106
31	0xbe0e807b	-0.13916199
32	0xbceb6fc0	-0.02873981
33	0xbd9d9eb2	-0.07696284
34	0xbdc58d2c	-0.09646067
35	0xbcc2ee0b	-0.023795148
36	0xbdc06f50	-0.09396231
37	0xbdc1d713	-0.0946485
38	0xbe1c9ec1	-0.15294935
39	0xbd83b51b	-0.064310275
40	0xbe28198d	-0.16415997
41	0xbde0c98b	-0.10975941
42	0xbd2a90f9	-0.041642163
43	0x3b8cd006	0.0042972593
44	0xbd9921ee	-0.07477175
45	0xbdc6f45e	-0.09714578
46	0xbe11b2ec	-0.1422841
47	0xbd4f0fbc	-0.050552115
48	0xbdab16ac	-0.08353934
49	0xbd8bf0b3	-0.06833019
50	0xbd415a29	-0.047205124
51	0xbcf07bb4	-0.029355861
52	0xbc35a480	-0.011086583
53	0xbe3278ce	-0.17428896
54	0xbe2080bd	-0.1567411
55	0xbd474ba6	-0.04865613
56	0xbe0d532e	-0.13801262
57	0xbdbc747b	-0.092019044
58	0xbe06cce6	-0.131641
59	0xbdd2698b	-0.10274037
60	0xbd4dc7cc	-0.05023937
61	0xbdf50a0b	-0.11964806
62	0xbda946a2	-0.08265425
63	0xbd093b3b	-0.033503752
64	0xbe695a2c	-0.22788304
65	0xbdd72413	-0.105049275
66	0xbe28a1dd	-0.16467996
67	0xbdf7bdcf	-0.1209675
68	0xbdc01743	-0.09379437
69	0xbdd47b0a	-0.1037503
70	0xbe237c29	-0.15965332
71	0xbe1276a5	-0.14303072
72	0xbdc5da85	-0.0966082
73	0xbdc549e1	-0.09633232
74	0xbd9ae242	-0.075626865
75	0xbdbfa532	-0.093576804
76	0xbe349a0e	-0.17636892
77	0xbde36eec	-0.11105141
78	0xbda29008	-0.07937628
79	0xbe531ba0	-0.20616007
80	0xbddfa7e6	-0.10920696
81	0xbe138e11	-0.14409663
82	0xbdaf74d6	-0.085672066
83	0xbe10895c	-0.14114898
84	0xbde23603	-0.11045458
85	0xbe39d24c	-0.18146628
86	0xbdcde2d2	-0.10053028
87	0xbd8764de	-0.06611036
88	0xbdbdf135	-0.09274522
89	0xbd8d9749	-0.06913621
90	0xbd73b152	-0.059495278
91	0xbe805913	-0.25067958
92	0xbdaf96a8	-0.08573657
93	0xbe112318	-0.14173543
94	0xbe0dab16	-0.13834795
95	0xbdb4ff25	-0.088377275
96	0xbcd8e40a	-0.026475925
97	0xbe9ff878	-0.31244254
98	0xbe210069	-0.15722813
99	0xbe0e9779	-0.1392497
100	0x3b6a7a87	0.0035778598
101	0xbdc3e537	-0.09565204
102	0xbe778c49	-0.24174608
103	0xbdc07e97	-0.09399145
104	0xbdc92b85	-0.09822754
105	0xbc47ced4	-0.012195308
106	0xbd60deaa	-0.05489985
107	0xbd8e4798	-0.06947249
108	0xbe4c44dd	-0.19948144
109	0xbd5e615a	-0.05429206
110	0xbde83ee1	-0.11340118
111	0xbdd571a6	-0.10422067
112	0xbd5a7b01	-0.053339962
113	0xbdc688c6	-0.09694056
114	0xbd815d0e	-0.06316577
115	0xbcbfec6b	-0.023428163
116	0xbddbeabc	-0.107381314
117	0xbdc32aaf	-0.095296256
118	0x3c91cc2a	0.017797548
119	0x393e7d01	0.0001816638
120	0xbe5c995b	-0.21542875
121	0xbd951aec	-0.072805256
122	0xbe3037ad	-0.17208739
123	0xbbd02b5e	-0.006352826
124	0xbd409b81	-0.0470233
125	0xbe3286ac	-0.17434186
126	0xbe1f8db2	-0.15581396
127	0xbe0dc3ac	-0.13844174

features.2.bn.running_mean f4 [128]
0	0x3ff77868	1.933362
1	0xbe24ac0a	-0.16081253
2	0xbf84244d	-1.0323578
3	0xbebb54ea	-0.36588222
4	0x3cbaeaff	0.022817133
5	0xbfd06b4e	-1.6282747
6	0x3d8b4210	0.0679971
7	0xbf0fd46a	-0.56183493
8	0xbfb3e2c4	-1.4053578
9	0x3faafab5	1.335776
10	0xbf2f2170	-0.68410397
11	0xbf018e4d	-0.5060776
12	0x40167880	2.3511047
13	0xbf1d7fcc	-0.6152313
14	0xbf1f4cf8	-0.6222682
15	0xbfcd47ec	-1.6037574
16	0xbf10de6c	-0.5658939
17	0xbefb4579	-0.4907644
18	0xbed85521	-0.42252448
19	0xbfbb8008	-1.4648447
20	0xbf30ca06	-0.69058263
21	0xbf0e4e7b	-0.555885
22	0xbf2a0766	-0.6641754
23	0x3f8fedb6	1.1244419
24	0xbdc58aa8	-0.09645587
25	0x400ee4d0	2.2327156
26	0x3fb0777e	1.3786466
27	0x3f96d109	1.1782542
28	0x3ffe57a1	1.9870492
29	0x3f3ea5a4	0.744715
30	0xbfd86b42	-1.6907732
31	0xbf1ab185	-0.60427123
32	0xbf4269b6	-0.7594255
33	0xbe8f5979	-0.2799795
34	0xbf6052a3	-0.87626094
35	0xc00125af	-2.017925
36	0xbfbe8fb2	-1.4887602
37	0xbf60f436	-0.87872636
38	0xbfd5218d	-1.6650864
39	0xbfc70fdb	-1.5551714
40	0xbe133acd	-0.143779
41	0xbf455d9b	-0.77095956
42	0xbf6cbb08	-0.9247289
43	0xbfc10acc	-1.508142
44	0xbf4b7c16	-0.79486215
45	0xbf80aa8b	-1.0052046
46	0xbe6e0e3e	-0.2324762
47	0xbf23d22b	-0.63992566
48	0xbf9cc2f5	-1.2246996
49	0xbedae931	-0.42756036
50	0xbf426e32	-0.75949395
51	0xbf99c57e	-1.2013395
52	0xc007eb94	-2.1237535
53	0x3fa26342	1.2686541
54	0xbf742126	-0.9536308
55	0xc01276d7	-2.2885034
56	0xbfce283d	-1.610603
57	0xbf87cb33	-1.0608886
58	0x3f153754	0.5828755
59	0xbf3709ee	-0.71499527
60	0xbf8fd69c	-1.1237369
61	0xbf85a2f3	-1.0440353
62	0xbe2756cf	-0.16341709
63	0xbebe988f	-0.37225768
64	0x3f89518c	1.0728011
65	0xbf987ef0	-1.1913738
66	0xbfa6e49e	-1.3038518
67	0x3f499780	0.78746796
68	0xbf2a4789	-0.66515404
69	0xbde35001	-0.11099244
70	0x3eeedf05	0.46654525
71	0xbf640d82	-0.8908311
72	0xbf06bd4d	-0.526326
73	0x3db0db7e	0.08635615
74	0xbcfebcf3	-0.031095957
75	0xbf8c8d1b	-1.0980562
76	0xbf792284	-0.9731829
77	0x3f093c40	0.5360756
78	0x3e0fdb43	0.14048485
79	0xbee9181f	-0.45526215
80	0xbf5e73f7	-0.868957
81	0x3e6b9088	0.23004353
82	0xbf84aa6f	-1.0364512
83	0xbfcded38	-1.6088018
84	0xbe7f24f5	-0.24916442
85	0x3d0755dd	0.03304087
86	0xbd893b48	-0.0670076
87	0xbf3ec7de	-0.74523723
88	0xbf13b51d	-0.5769823
89	0xbfa910a1	-1.32082
90	0xbf3b522c	-0.7317226
91	0x400ee549	2.2327445
92	0xbec0bdea	-0.37644893
93	0xbf5dd911	-0.8665934
94	0xbf282eea	-0.65696585
95	0xbf93689e	-1.1516302
96	0xbe003453	-0.1251996
97	0x3e724f22	0.23663
98	0xbe005375	-0.12531836
99	0xbf24adfc	-0.6432798
100	0xbd7390da	-0.059464313
101	0xbf72f8bc	-0.9491079
102	0x3ecb649b	0.39725193
103	0xbf161c68	-0.58637094
104	0xbf557290	-0.83377934
105	0x3eb8b935	0.36078802
106	0xbfeb8960	-1.8401299
107	0x3e11905a	0.14215222
108	0xbd6fd190	-0.058549464
109	0xbea1f2b9	-0.31630495
110	0x3f0584da	0.5215584
111	0xbea4fac1	-0.3222256
112	0xbe38d965	-0.1805168
113	0xbf8ce183	-1.1006321
114	0xbfad622c	-1.3545585
115	0xbfb15340	-1.3853531
116	0xbf93085e	-1.1486928
117	0xbf416f9a	-0.75560915
118	0xbf4f4ddf	-0.80978197
119	0xbf0a664c	-0.5406234
120	0xbf4a4e86	-0.7902607
121	0xbf10545c	-0.5637872
122	0xbeb4e3a3	-0.35329923
123	0x3dad1ae8	0.084523976
124	0x3dfc27c4	0.12312272
125	0xbf8fe973	-1.1243118
126	0xbef23d93	-0.47312602
127	0xbfa7e5d1	-1.3117009

features.2.bn.running_var f4 [128]
0	0x4034e662	2.8265615
1	0x3fc9c8ca	1.5764401
2	0x3f844109	1.0332347
3	0x402e9445	2.7277997
4	0x40142ba1	2.315163
5	0x4070df2e	3.7636218
6	0x3f824baf	1.0179347
7	0x3f510aca	0.8165709
8	0x3fa73e5d	1.3065907
9	0x4083faf2	4.124383
10	0x3f88265e	1.0636709
11	0x3f8f79b2	1.1209013
12	0x40255b71	2.5837061
13	0x407cd08b	3.9502285
14	0x3f88040c	1.0626235
15	0x4007f979	2.1246016
16	0x3fb5d118	1.4204435
17	0x4020cb90	2.5124245
18	0x3f3eb1ff	0.7449035
19	0x403dce77	2.9657266
20	0x3f6d8ee2	0.92796147
21	0x3faac801	1.3342286
22	0x3fde27b5	1.7355868
23	0x3ffd53f8	1.979125
24	0x3f840540	1.0314102
25	0x4029403a	2.644545
26	0x3fa6764d	1.3004853
27	0x401b6231	2.4278681
28	0x4039845b	2.8987033
29	0x3fae5f8a	1.3622906
30	0x4014af28	2.3231907
31	0x400fad3c	2.2449484
32	0x3f7dbb72	0.99114144
33	0x400c5f86	2.1933303
34	0x3fbe2da7	1.4857682
35	0x40530d3d	3.297683
36	0x3ffa8990	1.9573231
37	0x3ff9dda1	1.9520761
38	0x407e4cdb	3.973441
39	0x401f0825	2.484872
40	0x3f8478bb	1.0349344
41	0x3f8f1335	1.1177737
42	0x3ffcd526	1.9752548
43	0x40828628	4.0788765
44	0x3fb1b162	1.3882258
45	0x3fb04f26	1.3774154
46	0x3f54df9c	0.831537
47	0x400862df	2.1310346
48	0x40932721	4.5985265
49	0x3f39c4da	0.72565997
50	0x3fa1c679	1.2638694
51	0x3fa0665a	1.2531235
52	0x40440e0d	3.0633576
53	0x3fa7a029	1.3095752
54	0x4010065a	2.2503877
55	0x40dd7329	6.9203076
56	0x405a77db	3.4135654
57	0x4009e240	2.1544342
58	0x3fa52faf	1.2905177
59	0x3fa5a2ab	1.2940267
60	0x40384d5e	2.879722
61	0x40634824	3.551278
62	0x3fbecb94	1.4905877
63	0x3f893cd3	1.0721687
64	0x3fd804c1	1.6876451
65	0x3ff33542	1.9000628
66	0x4086f9fe	4.2180166
67	0x3f929559	1.1451827
68	0x3feaaf38	1.8334723
69	0x4015de8f	2.341709
70	0x3f7712f9	0.96513325
71	0x3fe8cd9a	1.8187745
72	0x3f38665f	0.72031206
73	0x3fa9b710	1.3258991
74	0x3f852ac5	1.0403677
75	0x3f632cb8	0.8874011
76	0x40281d0e	2.6267734
77	0x3fc46c2e	1.5345514
78	0x3fce8e6e	1.6137216
79	0x3f5919b5	0.8480485
80	0x3fbd6b44	1.479836
81	0x3fb9080b	1.445558
82	0x3fd225af	1.641775
83	0x40a426c4	5.129732
84	0x3fe04add	1.7522846
85	0x3faa4753	1.3303016
86	0x3fa191f0	1.2622662
87	0x3f927ce6	1.1444366
88	0x3fa025ce	1.2511537
89	0x4016fe6d	2.359279
90	0x3fef2e15	1.8685938
91	0x405589da	3.3365388
92	0x3fc7cd76	1.5609577
93	0x4002d232	2.0440793
94	0x3f803779	1.0016929
95	0x3f9adf89	1.2099468
96	0x3f6200a7	0.88282245
97	0x3fb32388	1.3995218
98	0x3f9fb13a	1.247596
99	0x3fd4113e	1.6567762
100	0x3fe86ac9	1.8157588
101	0x3fc0635e	1.5030324
102	0x3fa6b240	1.3023148
103	0x3f5fd47c	0.874336
104	0x3f1d3c5f	0.61420244
105	0x3fe3f6a9	1.780965
106	0x3ff70d97	1.9301022
107	0x3f97455b	1.1818041
108	0x3fa6a20a	1.30182
109	0x3f89ef2f	1.0776118
110	0x3fb9b812	1.4509299
111	0x3fabf69b	1.3434633
112	0x3fa5bdb3	1.2948517
113	0x3fec4cb6	1.846091
114	0x402f2b1c	2.7370062
115	0x403a038f	2.9064672
116	0x40217ccd	2.5232422
117	0x4000f62a	2.0150247
118	0x3fadd2d9	1.3579971
119	0x3f1812a1	0.59403425
120	0x3fcee1ef	1.61627
121	0x3f7ca076	0.98682344
122	0x3f59e8db	0.85120934
123	0x3fd37208	1.6519175
124	0x3fe5e992	1.7961905
125	0x408d20b5	4.4102426
126	0x4051cfa5	3.2782986
127	0x403e767d	2.975982

features.3.conv.weight f4 [256, 128, 3]
0	0x3c8bfd0a	0.017088432
1	0x3d6aff8c	0.057372615
2	0xbe2b9cb8	-0.16759002
3	0xbc246352	-0.010033445
4	0x3dccf846	0.10008292
5	0xbd498c96	-0.04920634
6	0x3c8343be	0.016023513
7	0xbd5dda31	-0.05416316
8	0x3c9564ed	0.018236602
9	0x3bf9b693	0.0076206415
10	0x3cbca8dc	0.023029737
11	0xbca30579	-0.01990007
12	0x3dc818cd	0.097703554
13	0xbc324f9b	-0.010883237
14	0x3db6de67	0.08929139
15	0xbd1decf4	-0.038556054
16	0x3d368038	0.044555873
17	0xbe4edec0	-0.2020216
18	0x3d937a66	0.0720108
19	0x3c98b45e	0.018640693
20	0x3d7af755	0.06127103
21	0xbd074b09	-0.033030543
22	0xbd1f03a0	-0.038821816
23	0x3cacfbff	0.021116255
24	0xbda96614	-0.08271423
25	0xbd8898f2	-0.06669797
26	0x3d1ee96d	0.03879683
27	0x3d10f320	0.035388112
28	0xbda77231	-0.08176077
29	0xbe6862cf	-0.22693942
30	0xbc66cd2c	-0.014087003
31	0xbe057898	-0.13034284
32	0x3c58bc12	0.013228433
33	0xbcbb4545	-0.022860179
34	0x3ded3a85	0.11583427
35	0xbd613c47	-0.054989126
36	0xbdcb7382	-0.09934141
37	0x3d690e6f	0.05689853
38	0xbd7949c8	-0.06086138
39	0xbce0357a	-0.02736925
40	0xbdc06ebe	-0.093961224
41	0xbd2bad19	-0.041913126
42	0x3c81d750	0.01584974
43	0x3cab368b	0.020900032
44	0xbba5e037	-0.005062129
45	0x3d90957a	0.070597604
46	0x3c5be2cb	0.013420771
47	0x3e0a29bb	0.13492481
48	0xbd6ff142	-0.05857969
49	0xbd00a3ad	-0.031406093
50	0xbd788418	-0.06067285
51	0xbc6e7e7e	-0.014556525
52	0xbdd011b3	-0.10159626
53	0xbe292e5f	-0.16521595
54	0xbbc8d7d6	-0.0061292453
55	0x3d6caaba	0.057780005
56	0xbcb91840	-0.022594571
57	0x3cbcdeef	0.023055522
58	0x3e2fed86	0.17180452
59	0x3c82211e	0.015884932
60	0x3d0e919f	0.034806844
61	0x3d140f15	0.036147196
62	0x3d3aebdb	0.045635086
63	0xbe157a34	-0.14597398
64	0xbe18bc81	-0.14915659
65	0xbd71eeec	-0.059065744
66	0x3c94eab2	0.018178318
67	0x3d7266be	0.059180014
68	0x3dcc8abc	0.09987399
69	0xbcb55c70	-0.022138804
70	0x3cf70a64	0.030156322
71	0xbd3a63f6	-0.045505486
72	0x3d6caece	0.057783894
73	0x3d54953f	0.051900145
74	0xbd8f7711	-0.07005132
75	0xbb9a85bb	-0.004715649
76	0x3d81cdc6	0.06338076
77	0xbc9fcef2	-0.019507859
78	0xbc641e6f	-0.013923272
79	0xbd15b78b	-0.036551993
80	0xbcce6c1e	-0.025198039
81	0x3c984ea9	0.018592196
82	0x3d1f5355	0.03889783
83	0xbdeec73b	-0.11659094
84	0xbe347992	-0.176245
85	0x3d619a04	0.05507852
86	0x3da577d6	0.080794975
87	0x3cc2da92	0.023785863
88	0xbbd11314	-0.006380448
89	0x3afd37a6	0.0019318953
90	0xbd26410c	-0.040589377
91	0xbb985d2c	-0.004649779
92	0x3b86218f	0.004093356
93	0x3d2db3c0	0.04240775
94	0xbdfc4085	-0.123169936
95	0xbcec0587	-0.02881123
96	0xbcabe9d5	-0.020985523
97	0x3d4dc887	0.050240066
98	0xbd6dc44f	-0.058048543
99	0xbe093480	-0.13398933
100	0x3d613ed5	0.054991562
101	0x3e09770b	0.13424318
102	0xbdeea104	-0.11651805
103	0xbd69aea2	-0.05705131
104	0x3cc68fca	0.024238486
105	0x3d4c1f1f	0.049834367
106	0xbce73ff2	-0.028228734
107	0xbd0cfcb5	-0.034420688
108	0xbdd44201	-0.10364152
109	0x3d7e2205	0.062044162
110	0x3d7f66a3	0.06235374
111	0x3ba81d72	0.0051304633
112	0xbe1bf79e	-0.15231177
113	0xbe00487a	-0.12527648
114	0xbd604fe8	-0.054763705
115	0xbd82651a	-0.0636694
116	0x3e00ce3c	0.12578672
117	0x3dbe2b25	0.09285573
118	0xbca82569	-0.020525651
119	0xbd8276ab	-0.0637029
120	0xbd72db09	-0.05929092
121	0x3c327f93	0.010894674
122	0xbdf12a6c	-0.117756695
123	0x3da9b6fe	0.08286856
124	0x3d8df736	0.06931917
125	0x3df2d10f	0.11856281
126	0xbdf39855	-0.118942894
127	0xbd83a4b9	-0.06427903
128	0xbc190d97	-0.009341619
129	0x3c64308e	0.013927592
130	0x3d020698	0.03174457
131	0xbe1f00ad	-0.15527602
132	0x3c94eead	0.018180216
133	0x3b8fef7c	0.0043925624
134	0x3dfa9c7a	0.12236877
135	0xbd910147	-0.07080322
136	0xbcb9a00d	-0.022659326
137	0x3bf3897c	0.007432161
138	0xbd74c8a6	-0.059761666
139	0xbd827792	-0.063704625
140	0xbd243129	-0.040085945
141	0xbd4ca8c0	-0.04996562
142	0xbddc1051	-0.107452996
143	0x3cdfe8d8	0.027332708
144	0xbd9834fc	-0.07431981
145	0x3ce41ec5	0.027846703
146	0x3cf2032a	0.029542524
147	0xbd04121c	-0.032243833
148	0xbd438f9e	-0.047744386
149	0xbde61858	-0.11235112
150	0xbd93324e	-0.07187329
151	0xbd643d55	-0.055722553
152	0x3cd67c23	0.02618224
153	0xbe0b6377	-0.13612162
154	0xbc3eebc5	-0.0116528915
155	0xbc9c6b9d	-0.019094283
156	0x3db7256e	0.08942686
157	0x3e04c51c	0.12965816
158	0x3df72a73	0.120686434
159	0xbda81ae2	-0.082082525
160	0xbba37360	-0.004988119
161	0xbc4ac09c	-0.012375023
162	0xbc7ba59d	-0.0153593095
163	0x3db61753	0.088911675
164	0xbb00ae21	-0.001963504
165	0x3c89c6ad	0.016818369
166	0xbd428e0f	-0.04749876
167	0x3bd8c757	0.00661556
168	0xbd942ee0	-0.07235503
169	0x3cd3dd10	0.025862247
170	0x3db11861	0.08647228
171	0xbdc63846	-0.09678702
172	0x3ca6b0ca	0.020347971
173	0xbd92e91e	-0.0717337
174	0x3d433ff1	0.0476684
175	0xbda0bdd1	-0.078487046
176	0xbd4f9156	-0.050675713
177	0x3c9eddff	0.019392965
178	0xbe41efa5	-0.18939073
179	0xbd6330c1	-0.055466417
180	0x3ddf683c	0.10908553
181	0x3dcc8c81	0.099877365
182	0x3d359c70	0.044338644
183	0xbe22aba9	-0.15885796
184	0xbd6dd141	-0.05806089
185	0x3cd3c595	0.02585105
186	0xbd39a6fd	-0.045325268
187	0x3d9f9017	0.07791155
188	0xbd65f371	-0.056140367
189	0x3d6b5a20	0.057458997
190	0x3ca84bac	0.020543896
191	0xbcf82492	-0.030290876
192	0xbd40adb2	-0.04704065
193	0xbb9ca821	-0.0047807847
194	0x3ca16c4f	0.019704966
195	0xbe235404	-0.15950018
196	0xbe06c544	-0.13161188
197	0xbe145f89	-0.14489569
198	0xbe4f4993	-0.2024291
199	0xbc877a5c	-0.016537838
200	0xbdd5d167	-0.10440331
201	0xbd75ac4f	-0.05997878
202	0x3dbc7664	0.09202269
203	0x3ce595aa	0.028025467
204	0xbdb4d90c	-0.08830461
205	0xbcfd5e12	-0.030928645
206	0x3c91ac19	0.017782258
207	0xbd46e58f	-0.048558768
208	0x3ccd687f	0.025074242
209	0x3c0045df	0.007829159
210	0x3d9d804e	0.07690488
211	0xbce2c9f8	-0.027684197
212	0x3b4466cc	0.0029968498
213	0xbdabe6b6	-0.08393614
214	0xbdd6d849	-0.10490472
215	0xbe80809b	-0.25098118
216	0x3de538be	0.11192463
217	0xbd673b91	-0.05645329
218	0x3dad21cb	0.08453711
219	0xbcbca61c	-0.023028426
220	0x3d05f7ac	0.0327069
221	0xbcb495c2	-0.022044066
222	0xbca5486b	-0.020176133
223	0xbd9412ae	-0.07230125
224	0xbcd04ab2	-0.025426243
225	0x3da7f91e	0.08201812
226	0xbdcd9b89	-0.100394316
227	0xbcc78987	-0.02435757
228	0x3e47ed29	0.19524063
229	0xbd63c276	-0.055605374
230	0x3da87779	0.082259126
231	0x3c3a7533	0.0113804815
232	0x3d41e77e	0.04733991
233	0xbd2a0d55	-0.04151662
234	0x39bcfe17	0.00036047466
235	0x3d897d98	0.06713408
236	0xbe61ad57	-0.2203878
237	0xbca80c29	-0.02051361
238	0xbcace122	-0.021103445
239	0x3d753330	0.05986327
240	0xbd38d7b8	-0.0451276
241	0xbd3dfe23	-0.04638494
242	0x3d9103fd	0.07080839
243	0xbd2588a2	-0.040413506
244	0xbcc8a6c9	-0.024493592
245	0xbd8bfa48	-0.06834847
246	0xbc09acc1	-0.008403004
247	0x3bc13a8c	0.005896872
248	0xbd4b3727	-0.049613144
249	0xbc5a9c55	-0.0133429365
250	0x3d566fd2	0.052352734
251	0xbc747499	-0.014920377
252	0xbd8abef1	-0.067747004
253	0xbde0d670	-0.10978401
254	0xbddb6a55	-0.107136406
255	0xbca2c97f	-0.019871471
