ecg_afib_detection/checkpoints/ecg-arrhythmia/100hz/resnet1d/fold_2/last.pt (torch, 339167 bytes, 44 tensors)

stem.0.weight f4 [64, 12, 7]
0	0x3c710332	0.0147102345
1	0xbcaf8711	-0.02142671
2	0xbd9d703d	-0.076874234
3	0xbd0de3f5	-0.034641225
4	0xbd833e8f	-0.064084165
5	0x3d2d8419	0.042362306
6	0x3db7fc81	0.08983708
7	0xbd9067cc	-0.07051048
8	0xbd3c762b	-0.04601113
9	0xbd848c5e	-0.064720854
10	0x3d102164	0.035188094
11	0x3baa09ce	0.005189157
12	0xbd68bb6a	-0.056819357
13	0x3d7f73cf	0.062366303
14	0xbd31f8af	-0.043450054
15	0xbcfb0b03	-0.0306449
16	0x3c000df0	0.007815823
17	0x3cf1df0c	0.029525302
18	0xbc0f4f12	-0.008746879
19	0x3cb3b050	0.021934658
20	0x3dd115c1	0.10209227
21	0xbd1936c2	-0.037405737
22	0x3d906afb	0.07051655
23	0xbe08d523	-0.13362555
24	0x3d35b301	0.044360165
25	0x3d96fa28	0.07371932
26	0xbdd4847d	-0.10376833
27	0x3dad6f29	0.08468468
28	0xbdaa7741	-0.08323527
29	0xbd193d4e	-0.03741198
30	0x3d9a50e4	0.0753496
31	0x3da17988	0.07884508
32	0x3d8455b0	0.06461656
33	0x3d9b8726	0.07594137
34	0xbddb6181	-0.10711957
35	0xbe090439	-0.13380517
36	0x3d08f990	0.033441126
37	0xbd3542f6	-0.044253312
38	0xbd4c1768	-0.04982701
39	0x3d957324	0.07297352
40	0x3d98393f	0.07432794
41	0x3dd8ba4e	0.1058241
42	0x3daab4cf	0.08335268
43	0xbde70111	-0.112795
44	0xbda342e6	-0.07971744
45	0xba3f70a4	-0.00073028565
46	0xbda4330f	-0.08017551
47	0x3cc0f026	0.023552012
48	0x3df7f4cf	0.121072404
49	0x3c58b475	0.013226618
50	0xbdbc492a	-0.091936424
51	0x3d24f20c	0.040269896
52	0xbd8f9154	-0.07010141
53	0xbc953e6b	-0.01821824
54	0x3db32ea2	0.08749129
55	0x3d8676db	0.06565639
56	0x3d6f9165	0.05848827
57	0x3d9c7441	0.07639361
58	0x3ded595f	0.11589312
59	0xbc18d97d	-0.009329197
60	0xbbfa5d84	-0.0076405425
61	0xbd76c116	-0.060242735
62	0xbdd665cb	-0.10468634
63	0xbe0937e2	-0.13400224
64	0x3c916141	0.01774657
65	0x3d7e24c5	0.062046785
66	0xbcda0d98	-0.02661781
67	0x3e042bf3	0.1290739
68	0x3d8ae3b6	0.06781714
69	0xbd9fd87f	-0.07804965
70	0xbe256ea1	-0.16155483
71	0xbd46db88	-0.048549205
72	0x3c502ce3	0.012706014
73	0x3cbdf50e	0.02318814
74	0xbb916a4e	-0.0044377213
75	0x3d81533c	0.06314704
76	0xbcc66ff4	-0.024223305
77	0xbe022f4b	-0.12713353
78	0xbd880c54	-0.066429764
79	0x3d10815e	0.035279624
80	0x3de577eb	0.11204513
81	0xbd3b51c0	-0.04573226
82	0xbdc20106	-0.094728515
83	0x3d94e4b5	0.07270185
84	0x3d1c9c39	0.038234923
85	0x3d84106d	0.064484455
86	0x3cc471f6	0.023980122
87	0xbc819343	-0.01581729
88	0xbd6185fe	-0.055059426
89	0xbdde7a0d	-0.10863123
90	0xbbaa9d3c	-0.005206732
91	0x3db6f29c	0.08932993
92	0x3d8b6428	0.06806213
93	0xbd26e3e5	-0.04074468
94	0xbdd806b6	-0.10548155
95	0xbdde5cf7	-0.108575754
96	0xbd8b483b	-0.06800886
97	0x3d9939ee	0.07481752
98	0x3cb60d27	0.022223068
99	0x3da12123	0.078676485
100	0x3d9a0789	0.075209685
101	0xbddec769	-0.10877878
102	0xbd64b432	-0.05583591
103	0xbca2e878	-0.01988624
104	0x3d3a1d22	0.04543794
105	0x3d2755d3	0.040853333
106	0xbdad4361	-0.08460117
107	0xbd461408	-0.048358947
108	0x3e06f05e	0.1317763
109	0x3dd17f0a	0.10229309
110	0xbd05d163	-0.03267039
111	0x3c6f1c4b	0.014594148
112	0x3dbe4170	0.09289825
113	0x3d347154	0.04405339
114	0xbd6dbf1e	-0.05804359
115	0xbda106b8	-0.078626096
116	0x3d45cb7e	0.04828977
117	0xbda0928f	-0.07840454
118	0x3d8fd5cd	0.07023201
119	0xbddbfc74	-0.10741511
120	0xbd8c8041	-0.068604
121	0xbd4a6c56	-0.049419723
122	0xbddcd62d	-0.10783038
123	0x3d7f4933	0.062325668
124	0x3d96220c	0.07330713
125	0x3c5e3404	0.013562206
126	0x3e389e41	0.18029119
127	0x3d907cf5	0.07055084
128	0xbdad5f67	-0.08465462
129	0xbddf3a7e	-0.108998284
130	0xbe0a670c	-0.13515872
131	0xbdab89ea	-0.083759144
132	0xbd596ca0	-0.05308211
133	0xbd928e61	-0.07156063
134	0xbd7dc9a9	-0.061959896
135	0xbcd23e22	-0.025664393
136	0xbbd4f63d	-0.0064990805
137	0xbd2b0a3f	-0.04175782
138	0x3d09bd6b	0.03362791
139	0x3d349689	0.044088874
140	0xbdc6915e	-0.09695695
141	0x3ccf4e9b	0.025306037
142	0x3d987f90	0.074462056
143	0x3ca773d8	0.02044098
144	0x3d847845	0.06468252
145	0x3d8d1fe4	0.06890848
146	0xbdd295e4	-0.102824956
147	0xbdd6d958	-0.10490674
148	0x3cd3b918	0.025845096
149	0xbcdd173c	-0.026988618
150	0xbd6c21c8	-0.057649404
151	0x3d887fad	0.06664977
152	0xbcec65c9	-0.028857129
153	0x3e077726	0.13229045
154	0x3cf56d54	0.029959358
155	0x3d8c6c82	0.06856634
156	0xbc929482	-0.01789308
157	0x3d9e31bf	0.07724332
158	0xbd3700e1	-0.044678573
159	0xbd2f783a	-0.042839266
160	0x3be0ae52	0.006856718
161	0xbd21abee	-0.039470606
162	0xbdaa918c	-0.08328542
163	0x3d595827	0.053062584
164	0xbdc94c77	-0.09829038
165	0xbc95b400	-0.018274307
166	0xbde3b1da	-0.11117907
167	0xbdd626a4	-0.10456589
168	0xbcf4b688	-0.029872194
169	0x3da3b3c9	0.07993276
170	0x3dac57cb	0.08415183
171	0x3e24db4c	0.1609928
172	0x3c59d7ef	0.0132961115
173	0xbd8040d4	-0.06262365
174	0xbdb3a1b4	-0.08771077
175	0xbc15c4ad	-0.009141129
176	0xbd283661	-0.041067485
177	0x3d6497ab	0.055808704
178	0x3d5100b3	0.051026057
179	0x3d9ef611	0.07761777
180	0x3b82914a	0.003984605
181	0xbdd2218b	-0.10260304
182	0x3d1e805b	0.038696628
183	0x3d6103d0	0.054935277
184	0x3c82e433	0.015977954
185	0xbd100665	-0.03516235
186	0xbcd0c580	-0.0254848
187	0x3c33b409	0.010968217
188	0x3d842d24	0.064539224
189	0xbd4236ad	-0.047415424
190	0x3c05ff45	0.008178537
191	0x3cf957f7	0.030437453
192	0xbdcd6374	-0.10028735
193	0x3d54d236	0.051958285
194	0x3dddeb6a	0.10835917
195	0x3dfaad14	0.12240043
196	0xbc91e63c	-0.01780998
197	0xbd9f6643	-0.07783177
198	0x3dcd76e3	0.100324415
199	0xbd9134e4	-0.07090166
200	0x3df9fff3	0.122070216
201	0x3d0e0e16	0.034681402
202	0x3cf8c6b7	0.030368192
203	0x3d43675f	0.047706004
204	0xb99aaecb	-0.000295034
205	0x3a79079e	0.0009499731
206	0x3db0dfd2	0.0863644
207	0x3d36d072	0.044632383
208	0x3d03c248	0.032167703
209	0xbca4ff2d	-0.020141209
210	0x3d3f3896	0.046684824
211	0x3d60749e	0.054798715
212	0xbce50436	-0.02795611
213	0xbd5a4bb8	-0.053294867
214	0xbd5faaeb	-0.05460636
215	0xbd1f90c8	-0.038956434
216	0xbd6a3993	-0.057183813
217	0x3cd4565c	0.025920086
218	0x3d30ede1	0.04319561
219	0xbc65878f	-0.0140093705
220	0xbd14ac6e	-0.036297254
221	0x3d0a59d6	0.03377708
222	0xbdfa70e7	-0.12228566
223	0xbe137286	-0.14399156
224	0xbdb38ae0	-0.08766723
225	0xbce0a547	-0.02742256
226	0x3dae1377	0.084998064
227	0xbd2008d6	-0.039070927
228	0xbc1945f8	-0.009355061
229	0x3d2c490d	0.042061854
230	0xbd740b84	-0.059581295
231	0xbd8a9b8b	-0.06767949
232	0xbda66be8	-0.0812605
233	0x3bc9df64	0.0061606634
234	0x3d8cdb51	0.06877769
235	0x3d12a647	0.035803106
236	0x3c4bfb75	0.012450089
237	0x3c3d0963	0.0115378825
238	0xbdcf78ab	-0.101304375
239	0xbdcb53fd	-0.09928129
240	0xbdcf296f	-0.10115325
241	0x3c0ee603	0.008721831
242	0xbdbdf02f	-0.09274327
243	0x3de8d4b8	0.11368698
244	0x397611f5	0.00023467078
245	0x3dae6837	0.08515971
246	0xbdbbe56d	-0.09174619
247	0xbcf5321b	-0.029931119
248	0x3dc8815f	0.097903006
249	0xbd66b99c	-0.056329355
250	0xbbea3785	-0.0071477317
251	0x3d7f38ee	0.06231015
252	0xbe02926b	-0.12751167
253	0xbd29a0bd	-0.041413058
254	0x3d8a4e60	0.0675323
255	0x3d28a42a	0.041172184

stem.0.bias f4 [64]
0	0x3dcdba37	0.10045283
1	0x3dab4027	0.083618455
2	0x3d122f0a	0.03568939
3	0x3afad644	0.0019137342
4	0x3d7be6b3	0.06149931
5	0x3cbfa353	0.023393309
6	0x3d8f068c	0.069836706
7	0xbb4bef6e	-0.0031118053
8	0x3d990a4e	0.074726686
9	0xbba9e2e7	-0.0051845196
10	0xbdd97967	-0.10618859
11	0x3d860e87	0.065457396
12	0x3dfba78a	0.12287815
13	0xbd01f450	-0.031727135
14	0xbb8cfcdc	-0.004302604
15	0x3d7abd4a	0.061215676
16	0xbdb96584	-0.09052566
17	0x3d7e804d	0.062134076
18	0xbdb01a73	-0.08598795
19	0xbd50e20b	-0.05099682
20	0x3c96f4c0	0.018427253
21	0x3d8db225	0.06918744
22	0x3c9a2d4d	0.01882043
23	0x3cdcde9f	0.026961623
24	0xbbb70794	-0.00558562
25	0xbc90c0be	-0.017670032
26	0x3db16328	0.08661491
27	0x3dbb3684	0.091412574
28	0x3de5faa3	0.11229446
29	0x3e0ad4f1	0.13557793
30	0x3da0833c	0.07837531
31	0xbc64f5c7	-0.0139746135
32	0xbdabeef7	-0.08395188
33	0xbc7ab721	-0.01530245
34	0x3d2a05e1	0.041509513
35	0xbe051b7a	-0.12998763
36	0x3dab5884	0.083664924
37	0x3d73805a	0.059448577
38	0xbd47bb92	-0.048762865
39	0x3c888873	0.016666627
40	0x3d971ef4	0.07378951
41	0xbda40a0f	-0.08009731
42	0xbe20ea4e	-0.1571438
43	0xbd0ea128	-0.03482166
44	0xbd9b534b	-0.07584246
45	0xbcf76ed2	-0.03020421
46	0x3db2437f	0.0870428
47	0xbd7509db	-0.059823852
48	0xbdc2dd13	-0.09514823
49	0xbdc15ee0	-0.09441924
50	0xbd90f097	-0.07077139
51	0x3d5fbcab	0.054623287
52	0xbd57b2ad	-0.052660633
53	0x3ce64dc7	0.028113259
54	0xbd8dd5e9	-0.06925566
55	0xbe124748	-0.14285004
56	0x3d277456	0.04088243
57	0xbd8d58a5	-0.06901673
58	0xbbe5d3a7	-0.0070137563
59	0xbd7ad92a	-0.06124226
60	0xbda0bf6e	-0.07849012
61	0x3d0fa5a8	0.03507009
62	0xbce008aa	-0.027347881
63	0xbd28eff2	-0.041244455

stem.1.weight f4 [64]
0	0x3f7b25b5	0.9810441
1	0x3f80c40f	1.0059832
2	0x3f7c8dcc	0.98653865
3	0x3f6e3548	0.9305005
4	0x3f7b1098	0.98072195
5	0x3f80508c	1.0024581
6	0x3f835924	1.0261579
7	0x3f74f21d	0.95681936
8	0x3f7c31fe	0.9851378
9	0x3f82625c	1.0186267
10	0x3f79a2ec	0.97514224
11	0x3f7b16f8	0.9808192
12	0x3f871181	1.0552217
13	0x3f83dffa	1.0302727
14	0x3f7c5e5c	0.9858148
15	0x3f7c7ad5	0.98624927
16	0x3f76b03e	0.96362674
17	0x3f749add	0.955488
18	0x3f6e39ec	0.9305713
19	0x3f81c982	1.013962
20	0x3f7c4186	0.9853748
21	0x3f79dfc5	0.9760707
22	0x3f8114a9	1.008443
23	0x3f83dccd	1.0301758
24	0x3f811a2e	1.0086114
25	0x3f7a8f5a	0.9787499
26	0x3f81cbee	1.0140359
27	0x3f7f9a05	0.9984439
28	0x3f7a0a4f	0.9767198
29	0x3f72b8b3	0.9481308
30	0x3f7ae351	0.9800311
31	0x3f723bc3	0.9462244
32	0x3f7e3750	0.9930315
33	0x3f7e89fc	0.994293
34	0x3f7b83c2	0.9824792
35	0x3f7a86eb	0.9786212
36	0x3f72b961	0.94814116
37	0x3f81ddf7	1.0145863
38	0x3f7073a2	0.9392644
39	0x3f7d3ddf	0.9892253
40	0x3f7d1441	0.9885903
41	0x3f69d4d9	0.91340405
42	0x3f84b67c	1.036819
43	0x3f868b14	1.0511193
44	0x3f7d3c16	0.9891981
45	0x3f762132	0.961444
46	0x3f744093	0.9541103
47	0x3f7ca4d7	0.98689026
48	0x3f774a7f	0.96598047
49	0x3f811c29	1.0086719
50	0x3f7bea1c	0.984041
51	0x3f79dbf1	0.9760123
52	0x3f80cdf0	1.0062847
53	0x3f8dbf69	1.1074039
54	0x3f772084	0.9653399
55	0x3f820d35	1.016028
56	0x3f80bef2	1.0058272
57	0x3f7c9e36	0.9867891
58	0x3f7fb89d	0.9989107
59	0x3f77f8a6	0.9686378
60	0x3f782f72	0.96947396
61	0x3f80e889	1.0070964
62	0x3f803f3f	1.0019301
63	0x3f7bd3bf	0.98369974

stem.1.bias f4 [64]
0	0xbbe04a4b	-0.006844794
1	0x3d42f3d2	0.047595806
2	0x3bd524dc	0.006504638
3	0xbd26784e	-0.040642075
4	0x3c40767e	0.011747001
5	0xbccf45e2	-0.025301877
6	0xbb56a65a	-0.0032752962
7	0xbcf73aab	-0.030179342
8	0x3d8071df	0.06271719
9	0xba0ea9d8	-0.0005442179
10	0xbc498126	-0.012298858
11	0x3cc2522b	0.023720821
12	0x3c82cdec	0.015967332
13	0x3ca994d8	0.020700857
14	0xbd0904c1	-0.0334518
15	0x3c954e60	0.018225849
16	0xbad6bbc3	-0.0016382862
17	0x3c7042b3	0.01466434
18	0xbc292253	-0.010323125
19	0xbc913402	-0.017724995
20	0x3d78d640	0.0607512
21	0xbd2d2d21	-0.042279366
22	0x3dc18611	0.09449399
23	0x3d09daa9	0.033655796
24	0x3d02ce3c	0.03193496
25	0xbaaefe5b	-0.001335095
26	0x3c9670ef	0.018364398
27	0xbc85fca4	-0.01635582
28	0xbc8f2624	-0.017474242
29	0xbd816a9f	-0.063191645
30	0x3d5bf44c	0.053699777
31	0xbc3c16e9	-0.011480072
32	0x3aedb083	0.001813427
33	0xbb8dbb19	-0.0043252823
34	0x3c5bfc6c	0.013426881
35	0xbc852009	-0.016250627
36	0xbdb6dfe5	-0.08929423
37	0x3d15f038	0.036606044
38	0xbd9c3a9f	-0.076283686
39	0xbd390013	-0.045166086
40	0x3c45ce54	0.012073118
41	0xbd7722d0	-0.060335934
42	0x3c8fe128	0.017563418
43	0x3c0dfc33	0.008666086
44	0xbc354ba1	-0.011065395
45	0x3ca430f5	0.020042876
46	0xbc5eb031	-0.013591812
47	0x3d31a8e8	0.043373972
48	0xbc8da0c8	-0.01728858
49	0x3d534b73	0.051585626
50	0x3d6b3ab1	0.05742902
51	0xbd25cb4c	-0.040477082
52	0x3dc54734	0.096327215
53	0x3cd124fc	0.02553033
54	0xbcaaa522	-0.020830695
55	0x3d95b6cd	0.07310257
56	0x3c6c701c	0.014431026
57	0x3cea3a7b	0.028592339
58	0xbcb4c667	-0.022067262
59	0xbd335b54	-0.04378827
60	0x3d7fd06b	0.062454622
61	0x3ce32c31	0.027731033
62	0x3cf4b6f0	0.029872388
63	0x3cefffd9	0.029296802

stem.1.running_mean f4 [64]
0	0x3dce745c	0.100807875
1	0x3dab3263	0.0835922
2	0x3d132145	0.0359204
3	0x3b01c1fb	0.001979946
4	0x3d7b64f4	0.061375573
5	0x3cc23766	0.023708057
6	0x3d8f8a92	0.07008852
7	0xbb54e4ad	-0.0032484934
8	0x3d993559	0.074808784
9	0xbba8be98	-0.0051496737
10	0xbdd922c1	-0.10602332
11	0x3d866b88	0.06563479
12	0x3dfbb64f	0.12290632
13	0xbd00d9d4	-0.031457737
14	0xbb8db1dd	-0.0043241815
15	0x3d7b2999	0.061318967
16	0xbdb9a122	-0.09063937
17	0x3d7dd286	0.06196835
18	0xbdafa80e	-0.08576976
19	0xbd512cfe	-0.0510683
20	0x3c97dfa0	0.01853925
21	0x3d8d770e	0.069074735
22	0x3c9ac924	0.01889474
23	0x3cdd0980	0.026982069
24	0xbbb9d438	-0.0056710504
25	0xbc905042	-0.017616395
26	0x3db17854	0.08665529
27	0x3dba97dc	0.09110996
28	0x3de67338	0.11252445
29	0x3e0af302	0.13569263
30	0x3da0831e	0.078375086
31	0xbc644166	-0.013931608
32	0xbdabb33f	-0.08383798
33	0xbc782d4e	-0.01514752
34	0x3d289d6c	0.041165754
35	0xbe054392	-0.13014057
36	0x3daaab79	0.08333487
37	0x3d73d7f9	0.05953214
38	0xbd47d345	-0.048785467
39	0x3c872355	0.01649634
40	0x3d967aa8	0.073476136
41	0xbda4b9fa	-0.08043285
42	0xbe20ee5e	-0.1571593
43	0xbd0e636b	-0.03476278
44	0xbd9be104	-0.07611278
45	0xbcf6b5b4	-0.03011594
46	0x3db2840c	0.08716592
47	0xbd75c9c0	-0.060006857
48	0xbdc214a9	-0.09476597
49	0xbdc148ab	-0.094376884
50	0xbd91091a	-0.07081814
51	0x3d5fb68c	0.05461745
52	0xbd573729	-0.05254284
53	0x3ce4106c	0.027839862
54	0xbd8d5ef3	-0.06902876
55	0xbe125ad1	-0.14292456
56	0x3d275bba	0.04085896
57	0xbd8d3c34	-0.068962485
58	0xbbeb21e5	-0.0071756714
59	0xbd7b2c50	-0.061321557
60	0xbda06edf	-0.07833647
61	0x3d1074de	0.035267703
62	0xbce0ad19	-0.02742629
63	0xbd28c362	-0.041201957

stem.1.running_var f4 [64]
0	0x3edc76ce	0.4305939
1	0x3eda88f3	0.4268261
2	0x3f079fbd	0.52978116
3	0x3f274076	0.65332735
4	0x3f627c61	0.8847104
5	0x3f69a321	0.9126454
6	0x3ea46c3b	0.32113823
7	0x3f8756a4	1.0573316
8	0x3f31d4b7	0.694652
9	0x3ef5ff7c	0.48046482
10	0x3ed62718	0.418267
11	0x3f2dedcc	0.67940974
12	0x3f858ad0	1.0432987
13	0x3f0a9cca	0.5414549
14	0x3e8d9304	0.27651227
15	0x3f10f95c	0.5663049
16	0x3ecd66ae	0.401174
17	0x3f6bcf77	0.9211344
18	0x3f1aecf0	0.6051779
19	0x3ed3a788	0.41338754
20	0x3ee9d5ce	0.45670933
21	0x3f6c43bd	0.9229086
22	0x3f519375	0.81865627
23	0x3efe8fd6	0.49719113
24	0x3f6e446d	0.9307316
25	0x3e9801df	0.29688928
26	0x3ea91fc1	0.3303204
27	0x3f0f851a	0.5606247
28	0x3ec528cc	0.38507688
29	0x3ed64687	0.41850683
30	0x3f02cfb8	0.51098204
31	0x3f1ad12d	0.60475427
32	0x3f240760	0.64073753
33	0x3e5cdd57	0.2156881
34	0x3f7b90d3	0.9826786
35	0x3f0de6c6	0.5543026
36	0x3f806c16	1.0032985
37	0x3f7fde05	0.9994815
38	0x3f8ca368	1.0987368
39	0x3eafc550	0.34330225
40	0x3f79433a	0.97368205
41	0x3f288c34	0.65838933
42	0x3f439b1f	0.7640857
43	0x3f25ffc2	0.6484338
44	0x3f8e5de0	1.1122398
45	0x3f415ebe	0.7553519
46	0x3ed16c1c	0.40902793
47	0x3eaa5e31	0.33274987
48	0x3f2cb86c	0.67468905
49	0x3f1d313a	0.6140324
50	0x3efcdb1d	0.4938592
51	0x3f508dac	0.81466174
52	0x3f3e7d01	0.7440949
53	0x3f15f423	0.5857565
54	0x3ecd10ab	0.4005178
55	0x3f141d2a	0.57857
56	0x3e33cf13	0.17559461
57	0x3eb831a8	0.35975385
58	0x3f0bdcff	0.5463409
59	0x3fc26ad8	1.5188856
60	0x3f591d9b	0.848108
61	0x3f43a621	0.7642537
62	0x3f0f8e22	0.5607625
63	0x3f287b19	0.6581283

block1.conv1.weight f4 [64, 64, 3]
0	0x3cc02812	0.023456607
1	0xbc945a04	-0.018109329
2	0x3d57962f	0.05263346
3	0x3b244ef4	0.0025071474
4	0x3cbd2042	0.02308667
5	0xbd68efac	-0.056869194
6	0xbd3675ab	-0.04454581
7	0xbd96a969	-0.07356531
8	0x3cd68766	0.02618761
9	0x3d14615c	0.03622566
10	0xbbfd27be	-0.007725685
11	0x3d976505	0.07392315
12	0xbd5fbd04	-0.05462362
13	0x3d985b97	0.074393444
14	0x3d5e6c3d	0.054302443
15	0xbc9e5c12	-0.019331012
16	0xbc0b2117	-0.008491776
17	0x3cb5779f	0.022151766
18	0x3d3644da	0.044499256
19	0xbcad8775	-0.021182755
20	0xb9159ba3	-0.00014267727
21	0xbd8ffe24	-0.07030895
22	0x3d1660fb	0.03671358
23	0x3df97a39	0.12181515
24	0x3d54e15b	0.05197273
25	0xbd328f19	-0.0435935
26	0xbd2ec7bd	-0.042670954
27	0xbce35d45	-0.027754435
28	0x3d008344	0.031375185
29	0x3dcffc21	0.10155512
30	0xbd29b101	-0.04142857
31	0xbd143a27	-0.03618827
32	0x3ce3cfcd	0.027809048
33	0x3c2b55a2	0.010457428
34	0x3d18d6ff	0.03731441
35	0x3dcd052d	0.10010753
36	0x3b9f4e88	0.0048616566
37	0xbd555f86	-0.05209305
38	0x3dc92e48	0.098232806
39	0xbccca072	-0.02497885
40	0xbdc76806	-0.09736638
41	0xbd76067d	-0.06006478
42	0x3bcd39bf	0.0062629874
43	0xbc58005b	-0.0131836785
44	0xbc960cf8	-0.01831673
45	0xbd15e342	-0.036593683
46	0x3c34dc33	0.011038828
47	0xbcfb4f36	-0.03067742
48	0x3c3594d1	0.011082844
49	0x3d48cb8e	0.04902225
50	0x3db9a502	0.09064676
51	0x3d6d3a43	0.05791689
52	0x3d87efab	0.0663751
53	0x3d86e908	0.06587416
54	0xbd4aeef3	-0.049544286
55	0x3c45a17f	0.012062429
56	0x3d54574f	0.051841076
57	0x3da1df35	0.079039015
58	0x3dc68b08	0.09694487
59	0x3d27d8bf	0.04097819
60	0xbc98f5b1	-0.018671842
61	0x3c3cbdf4	0.011519898
62	0x3db2fa98	0.08739203
63	0x3d2ba36a	0.04190389
64	0xbd5e9aa5	-0.0543467
65	0xbd8fc50c	-0.070200056
66	0x3cae0c39	0.021246063
67	0x3c96baf3	0.018399691
68	0x3daa1ab6	0.08305876
69	0xbd2c3458	-0.042042106
70	0x3d85b109	0.065279074
71	0xbd85f510	-0.065408826
72	0xbd68d081	-0.05683947
73	0x3cc62ff6	0.024192791
74	0x3d594297	0.05304202
75	0x3b48ef79	0.0030660315
76	0x3c406b20	0.011744291
77	0x3d7a4ddd	0.061109412
78	0xbd042e44	-0.032270685
79	0xbcf123b8	-0.029435977
80	0x3bd1b766	0.0064000366
81	0xbdf231f6	-0.118259355
82	0xbda5e3c9	-0.08100087
83	0x3d1eff13	0.038817476
84	0xbda809d6	-0.08205001
85	0xbc49f0d5	-0.012325485
86	0xbca58b70	-0.02020809
87	0xbd0d0eec	-0.03443806
88	0x3d8fca0b	0.070209585
89	0x3d9942b0	0.07483423
90	0xbd97dff6	-0.07415764
91	0x3d9cdc40	0.07659197
92	0x3dd232ca	0.102635935
93	0xbd51a7bd	-0.05118536
94	0xbd2a1e9e	-0.041533105
95	0xbc84f344	-0.01622928
96	0xbda4fb04	-0.0805569
97	0xbcad9033	-0.021186924
98	0x3d8473c5	0.06467394
99	0x3d22f3b0	0.03978318
100	0xbdced4d0	-0.100991845
101	0xbcb05b2a	-0.021527845
102	0x3d886690	0.06660187
103	0x3d681dff	0.05666923
104	0xbd9d0523	-0.076669954
105	0x3c6fa6c1	0.01462716
106	0xbdbe0485	-0.09278206
107	0xbd551575	-0.052022416
108	0xbd469703	-0.04848386
109	0x3d779a67	0.060449984
110	0x3c3dbca7	0.011580623
111	0x3d4c7e39	0.049925063
112	0x3da528ec	0.08064446
113	0x3da7733d	0.08176277
114	0xbc529218	-0.012852214
115	0x3b1ec970	0.0024228953
116	0x3d9ea186	0.07745652
117	0xbca342d3	-0.019929325
118	0x3cbfebbe	0.02342784
119	0xbd3cc903	-0.046090137
120	0xbd78a851	-0.060707394
121	0xbd442cca	-0.047894277
122	0xbb33cbfc	-0.0027434817
123	0xbd8da58e	-0.06916343
124	0x3ae0487e	0.0017111448
125	0xbd09f215	-0.033678133
126	0x3c1ca327	0.009560383
127	0x3d978d35	0.0739998
128	0x3d192d4f	0.037396725
129	0xbd3e3d03	-0.046444904
130	0x3ce7be55	0.028289
131	0xbd29ac4c	-0.04142408
132	0x3c56b48c	0.013104569
133	0x3cf68fdb	0.030097893
134	0xbc19e817	-0.009393713
135	0xbd96314d	-0.07333622
136	0x3d476015	0.048675615
137	0x3cd12dee	0.025534596
138	0x3d2d532a	0.04231564
139	0x3cd82afd	0.026387686
140	0x3d7d666a	0.061865248
141	0x3ad4edef	0.0016245226
142	0xbdb548ba	-0.08851762
143	0xbca215d7	-0.019785805
144	0x3d0eceb7	0.034865107
145	0xbd1aa141	-0.03775144
146	0xbc3e071e	-0.011598377
147	0xbbebfb85	-0.0072016143
148	0x3d3f329a	0.046679117
149	0x3d6102c1	0.054934267
150	0xbd3e747f	-0.046497818
151	0xbd80bfdc	-0.06286594
152	0x3d61ce9a	0.05512867
153	0x3ce70f41	0.028205516
154	0x3c10d4e0	0.008839816
155	0x3d6d77f9	0.057975743
156	0xbda6e0cc	-0.08148345
157	0x3b8e1848	0.0043363906
158	0x3d9b0dfa	0.07571025
159	0xbd499834	-0.049217418
160	0x3d1514ed	0.03639691
161	0x3d8499d0	0.0647465
162	0xbc61a364	-0.0137718655
163	0x3d6616db	0.05617414
164	0x3d87a5c8	0.06623417
165	0xbd3bd11f	-0.04585373
166	0x3ceddebc	0.029036872
167	0x3d87e188	0.066348135
168	0x3d97576e	0.07389723
169	0x3c549d83	0.012977007
170	0xbb2d8fd0	-0.0026483424
171	0x3d2d8bed	0.04236977
172	0x3d07f1c4	0.03318955
173	0x3d499865	0.0492176
174	0xbb86e57e	-0.004116713
175	0x3c4f3a19	0.012648129
176	0x3dc0ccef	0.09414088
177	0x3d11acbe	0.03556513
178	0xbce3b2a1	-0.027795138
179	0xbd212a9c	-0.039347276
180	0xbce9dca9	-0.028547602
181	0x3c30fd0e	0.01080252
182	0x3d8ebb05	0.06969265
183	0xbd619450	-0.055073082
184	0xbd1e3880	-0.0386281
185	0x3c1bbfed	0.009506208
186	0xbd805903	-0.06266978
187	0x3d763653	0.0601104
188	0x3cd3e6ac	0.025866829
189	0x3d29697f	0.041360375
190	0xbd89edf3	-0.06734838
191	0xbd329135	-0.04359551
192	0xbd51b3f1	-0.051196996
193	0xbd098306	-0.03357222
194	0x3d489636	0.048971377
195	0x3bbe0802	0.0057992944
196	0x3d1ee674	0.038793996
197	0x3b9ff3e9	0.0048813713
198	0xbd85ca7d	-0.06532762
199	0x3d6e0275	0.058107812
200	0x3d7eb7b3	0.062186908
201	0x3c53949a	0.012913847
202	0x3bb42db1	0.005498611
203	0xbb65b28a	-0.0035049045
204	0xbd6d5b61	-0.057948474
205	0xbd8a2d88	-0.06746966
206	0xbd96afc6	-0.07357745
207	0xbd8ce274	-0.0687913
208	0xbdb0bd0e	-0.08629809
209	0xbd944238	-0.07239193
210	0x3a285d7c	0.00064226217
211	0xbb1ad181	-0.002362341
212	0x3c93c937	0.018040283
213	0xbd4adac0	-0.049525023
214	0xbda53bee	-0.08068071
215	0xbc95c60e	-0.018282916
216	0x3d706b39	0.058696005
217	0x3d65194a	0.05593232
218	0xbb1ff545	-0.0024407667
219	0xbd2678ac	-0.040642425
220	0xbc3f6a26	-0.011683023
221	0xbd811d78	-0.06304449
222	0x3d16f773	0.03685708
223	0xbbf19682	-0.0073726783
224	0xbc665c3a	-0.014060074
225	0xbd9c62ec	-0.07636055
226	0x3b9d1238	0.0047934316
227	0xbcdb8ddc	-0.026801042
228	0x3bf3cc86	0.0074401526
229	0xbdbad03f	-0.09121751
230	0xbcfb1628	-0.030650213
231	0x3d8d7adf	0.069082014
232	0xbd2b83aa	-0.04187361
233	0x3d43323c	0.04765533
234	0xbdbd9d80	-0.09258556
235	0xbd0502bf	-0.032473322
236	0xbc96654e	-0.018358853
237	0x3d0a99f6	0.033838235
238	0x3cf83eb6	0.03030334
239	0x3d175320	0.03694451
240	0xbcc80d5d	-0.024420435
241	0xbd2be590	-0.041966975
242	0x3ccfb7ee	0.02535626
243	0xbdc95c4c	-0.09832057
244	0xbc04a00d	-0.0080948
245	0x3c156216	0.009117624
246	0x3c01552e	0.007893844
247	0x3d11adf4	0.035566285
248	0x3b8d7f3a	0.004318145
249	0x3d5acfdc	0.053420886
250	0x3c719a78	0.014746301
251	0xbd914149	-0.0709253
252	0x3d28d453	0.041218113
253	0xbcd0154f	-0.025400786
254	0xbd5a64d9	-0.053318832
255	0x3d6bd25f	0.057573672

block1.conv1.bias f4 [64]
0	0x3c80b957	0.015713377
1	0x3d8c98fa	0.068651155
2	0xbd2edc67	-0.04269066
3	0x3d206508	0.03915885
4	0xbd5fcb7d	-0.05463742
5	0x3d6d4d77	0.057935204
6	0xbc6b7243	-0.014370504
7	0x3d2bfc73	0.0419888
8	0xbd2bc1bf	-0.041932818
9	0x3cc024aa	0.023454983
10	0xbd7b16d7	-0.06130108
11	0x3d13579c	0.035972223
12	0xbcf9eb94	-0.03050784
13	0xbd09673f	-0.03354573
14	0xbd388e86	-0.045057796
15	0x3da46ac5	0.08028177
16	0xbda264ba	-0.07929368
17	0xbc095b94	-0.00838365
18	0xbbead8dc	-0.007166965
19	0xbceb7924	-0.028744288
20	0x3d835573	0.064127825
21	0x3d9ab588	0.075541556
22	0xbd427f46	-0.04748466
23	0x3d5ff2e6	0.054675005
24	0xbd317ae8	-0.043330103
25	0xbcd22605	-0.025652895
26	0xbcfc9c70	-0.030836314
27	0x3d5ec11c	0.054383382
28	0x3da6b5e6	0.08140163
29	0xbd2f066f	-0.042730745
30	0xbc1a40a0	-0.009414822
31	0x3d1d69a6	0.038430832
32	0x3d83227c	0.06403062
33	0x3ca5f2a2	0.020257298
34	0x3da3d5bd	0.07999752
35	0x3d2c3e02	0.042051323
36	0x3d36bfce	0.044616513
37	0xbd5d125f	-0.0539726
38	0x3cacac91	0.02107838
39	0x3cce395f	0.025173841
40	0xbd2e6b22	-0.04258264
41	0x3cf2063a	0.029543985
42	0x3d5abded	0.053403784
43	0xbd857372	-0.0651616
44	0x3c834bf2	0.016027424
45	0xbce6cc99	-0.028173732
46	0xbd61febe	-0.05517458
47	0xbd9a34d5	-0.07529608
48	0x3d80923f	0.06277894
49	0xbd818e32	-0.0632595
50	0xbd909090	-0.07058823
51	0x3b9fa80d	0.004872328
52	0x3cd534eb	0.02602621
53	0xbd8d70b2	-0.069062606
54	0xbd9ce12a	-0.07660134
55	0x3c3c731d	0.0115020545
56	0x3d824a99	0.063618846
57	0xbd0affeb	-0.03393547
58	0x3c8ec659	0.017428564
59	0xbd64c5db	-0.055852752
60	0xbd61927e	-0.055071346
61	0x3d6b2602	0.057409294
62	0x3d7865c7	0.060643937
63	0xbd6fa594	-0.058507517

block1.bn1.weight f4 [64]
0	0x3f784987	0.96987194
1	0x3f84a6eb	1.0363439
2	0x3f6fdba3	0.93694514
3	0x3f82663d	1.0187451
4	0x3f70b1a8	0.9402108
5	0x3f78af50	0.97142506
6	0x3f7d8d61	0.9904385
7	0x3f81fd9c	1.015552
8	0x3f6bdea2	0.92136586
9	0x3f6d46f9	0.9268642
10	0x3f7b46ab	0.98154706
11	0x3f6f04cc	0.93366694
12	0x3f8480e6	1.0351837
13	0x3f884478	1.0645895
14	0x3f74f5ae	0.9568738
15	0x3f732559	0.94978863
16	0x3f8bd0b0	1.0923061
17	0x3f798255	0.97464496
18	0x3f893781	1.0720063
19	0x3f761ae0	0.9613476
20	0x3f8803cc	1.0626159
21	0x3f83e280	1.0303497
22	0x3f7dbce2	0.9911634
23	0x3f7b4cff	0.9816436
24	0x3f85886f	1.0432261
25	0x3f883be6	1.064328
26	0x3f787816	0.97058237
27	0x3f8745a2	1.0568125
28	0x3f8dc0c4	1.1074452
29	0x3f75bf0f	0.9599466
30	0x3f8b6aef	1.0892009
31	0x3f82f79b	1.0231813
32	0x3f90a0c0	1.1299057
33	0x3f70d163	0.940695
34	0x3f7f1a83	0.9964983
35	0x3f8765b5	1.0577914
36	0x3f7d999b	0.9906251
37	0x3f7195f8	0.9436946
38	0x3f81f8df	1.0154074
39	0x3f80fbdb	1.007686
40	0x3f828e84	1.0199742
41	0x3f7e65d6	0.9937414
42	0x3f86a54b	1.0519193
43	0x3f7562d3	0.9585392
44	0x3f711f96	0.9418882
45	0x3f6f3c42	0.9345132
46	0x3f7704c4	0.96491647
47	0x3f79cffa	0.9758297
48	0x3f74579c	0.9544618
49	0x3f82de1d	1.0224034
50	0x3f72cbed	0.94842416
51	0x3f822ea1	1.017048
52	0x3f92cc9a	1.146869
53	0x3f7e1654	0.9925282
54	0x3f8089c6	1.0042045
55	0x3f7b6a2b	0.98208874
56	0x3f801756	1.0007122
57	0x3f775b6e	0.96623886
58	0x3f76e7d5	0.964475
59	0x3f8d0f16	1.1020229
60	0x3f8077c5	1.0036551
61	0x3f7470eb	0.954848
62	0x3f842119	1.0322601
63	0x3f80862f	1.004095

block1.bn1.bias f4 [64]
0	0xbc2007f1	-0.009767518
1	0x3c8b5540	0.017008424
2	0xbd76a162	-0.0602125
3	0xbd2d3fd7	-0.04229721
4	0xbd05f3f8	-0.03270337
5	0xbd54dfa8	-0.051971108
6	0xbbce99b7	-0.0063049453
7	0xbc161544	-0.009160344
8	0xbd61bfb3	-0.05511446
9	0xbd8785f0	-0.066173434
10	0xbca9f090	-0.020744592
11	0xbd3cc3d0	-0.04608518
12	0x3c6a7c68	0.014311887
13	0xbd0f3d98	-0.03497085
14	0xbcb739d6	-0.022366446
15	0xbd4709f6	-0.048593484
16	0x3d4b6920	0.049660802
17	0xbd494116	-0.049134336
18	0xbcb95ab4	-0.022626258
19	0xbd37ba54	-0.04485543
20	0xbcd74c88	-0.02628161
21	0xbcf3c197	-0.029755397
22	0x3c8d1d79	0.017225968
23	0xbd728936	-0.059212886
24	0xbc080a1a	-0.00830319
25	0xbcfa4cc7	-0.030554188
26	0xbd76e21c	-0.06027423
27	0x3c5890cd	0.013218117
28	0x3c0c0f53	0.008548575
29	0xbd8d6723	-0.069044374
30	0x3b221324	0.0024730647
31	0x3c1543c7	0.009110398
32	0xbd06c842	-0.032905824
33	0xbd5133e5	-0.05107488
34	0xbcbf4c71	-0.02335188
35	0x3c87d554	0.016581215
36	0xbd1a4538	-0.03766367
37	0xbcc2f737	-0.023799522
38	0xbd604e8a	-0.0547624
39	0xbd916e1c	-0.0710108
40	0x3c756e5b	0.014979924
41	0xbd70796c	-0.058709547
42	0xbcd4a1bd	-0.02595603
43	0xbdaf7899	-0.08567924
44	0xbd484e0a	-0.04890255
45	0xbd916f51	-0.0710131
46	0xbd34d275	-0.04414602
47	0xbd31d53a	-0.04341624
48	0xbd801554	-0.06254068
49	0xbc7d4c7e	-0.015460132
50	0xbdb34878	-0.08754057
51	0xbce1f522	-0.027582709
52	0x3b3333c6	0.0027344092
53	0xbcc70a2a	-0.024296839
54	0xbcb76731	-0.022388073
55	0xbd24bce5	-0.040219206
56	0x3bd0bf74	0.0063704792
57	0xbda1eaed	-0.07906137
58	0xbcb8c38e	-0.022554185
59	0xbc4483b0	-0.011994287
60	0xbda5051e	-0.08057617
61	0xbdc04596	-0.093882725
62	0xbbef209e	-0.0072975894
63	0xbd1bbf87	-0.03802445

block1.bn1.running_mean f4 [64]
0	0x3ee2082d	0.44146863
1	0xbf309067	-0.6897034
2	0xbe10173a	-0.1407136
3	0xbf5018cd	-0.81287843
4	0x3e4419c1	0.1915045
5	0x3e344823	0.17605643
6	0x3e84911b	0.25891957
7	0xbf2930eb	-0.6609027
8	0xbe0179e6	-0.12644157
9	0x3e3d3fd9	0.18481387
10	0xbf250205	-0.64456207
11	0x3f10d37e	0.5657271
12	0xbf588c6b	-0.8458926
13	0xbf8387e8	-1.027585
14	0xbedd8d95	-0.4327208
15	0x3e3342e5	0.17505987
16	0xbee4919b	-0.44642338
17	0x3e529a2b	0.20566623
18	0xbf418bf5	-0.7560418
19	0x3eb11e65	0.34593502
20	0xbef3a9ba	-0.4759043
21	0xbf683b69	-0.9071565
22	0xbf470d43	-0.7775461
23	0xbe44e590	-0.19228196
24	0xbedab8d4	-0.42719138
25	0xbf1e705b	-0.6189019
26	0x3db07c1d	0.08617423
27	0xbf2e3084	-0.6804278
28	0x3aa0c2ec	0.0012265122
29	0x3e8281d9	0.2548969
30	0xbe87e035	-0.26538244
31	0x3e2ac892	0.16678074
32	0xbf227f2c	-0.634753
33	0xbed77d16	-0.4208762
34	0xbe9f8651	-0.31157163
35	0xbf234bf3	-0.63787764
36	0xbe2edc20	-0.17076159
37	0xbe7b2ce5	-0.24528845
38	0xbf5a4b8d	-0.8527153
39	0xbf1f786a	-0.6229311
40	0xbf253a9a	-0.64542544
41	0xbe745ed8	-0.23864305
42	0xbf2fe3aa	-0.6870676
43	0x3e81e862	0.25372607
44	0x3ee78f14	0.45226347
45	0x3ec1b2fa	0.3783186
46	0x3ee6d257	0.45082352
47	0x3e974aba	0.295492
48	0x3f1713dc	0.5901468
49	0xbf508d7c	-0.8146589
50	0xbe45f6cd	-0.19332428
51	0xbeb038a4	-0.34418213
52	0xbf43b04a	-0.7644087
53	0xbebd932a	-0.3702634
54	0xbedf43e9	-0.436065
55	0xbe961773	-0.29314765
56	0xbed85a0f	-0.4225621
57	0xbd9e617c	-0.077334374
58	0x3f9ad0e4	1.2094998
59	0xbed7eccc	-0.4217285
60	0xbedc0a69	-0.42976692
61	0x3f0f676f	0.560172
62	0xbf119ea3	-0.56882685
63	0xbf4ea295	-0.8071683

block1.bn1.running_var f4 [64]
0	0x3f45c2b5	0.77250224
1	0x3fcc3af0	1.5955486
2	0x3f615827	0.88025135
3	0x3fa426ca	1.2824337
4	0x3f157236	0.583774
5	0x3eacbf01	0.33739474
6	0x3f4ef4e4	0.80842423
7	0x3f667e6c	0.90036654
8	0x3f24fd3f	0.6444892
9	0x3f9a0f7d	1.2035977
10	0x3f9881ff	1.1914672
11	0x3f6bb027	0.9206566
12	0x3f98a77d	1.1926113
13	0x401209be	2.2818446
14	0x3f1d7f3d	0.61522275
15	0x3f1afee5	0.6054519
16	0x3f1ded17	0.61689895
17	0x3eb91ec0	0.36156273
18	0x3f6f06a5	0.93369514
19	0x3f42aa7c	0.7604139
20	0x3fd18203	1.6367801
21	0x3fbfc54a	1.4982083
22	0x3f3a1107	0.7268223
23	0x3efe1506	0.49625415
24	0x3f46a157	0.77589935
25	0x3f68a536	0.9087709
26	0x3f263c21	0.649355
27	0x3f3c1506	0.7346958
28	0x3e81b31c	0.25331962
29	0x3f798abf	0.97477335
30	0x3eadc8ea	0.33942348
31	0x3f29f98d	0.6639641
32	0x3f396e95	0.7243436
33	0x3f016608	0.5054631
34	0x3fcd3ea3	1.603474
35	0x3f80366a	1.0016606
36	0x3f215607	0.6302189
37	0x3f3d26de	0.7388743
38	0x3fc3277f	1.5246428
39	0x3f0e1790	0.55504704
40	0x3f579ef4	0.8422692
41	0x3f3bb452	0.7332202
42	0x3fd6a900	1.6770325
43	0x3f92664d	1.143747
44	0x3f5a528f	0.85282224
45	0x3f91584c	1.1355071
46	0x3fa2a74b	1.2707304
47	0x3f946b57	1.1595258
48	0x3f6f58cd	0.93494874
49	0x40387874	2.8823519
50	0x3f7e96d2	0.99448884
51	0x3ef4e5e2	0.47831637
52	0x401dc2a5	2.4650052
53	0x3f6c0850	0.92200184
54	0x3f26913e	0.6506537
55	0x3ef5f13e	0.48035616
56	0x3f25266c	0.6451175
57	0x3f82c02f	1.02149
58	0x3ffcd98b	1.9753889
59	0x3fa375c6	1.2770317
60	0x3f12fec4	0.5741999
61	0x3f57eaf8	0.8434291
62	0x3fdd54b8	1.7291479
63	0x3f7ac71c	0.97960067

block1.conv2.weight f4 [64, 64, 3]
0	0xbb18ed54	-0.0023334818
1	0xbca6b315	-0.020349065
2	0xbccc3f7e	-0.02493262
3	0xbcd84c3d	-0.02640354
4	0x3d182c52	0.037151642
5	0x3d960022	0.07324244
6	0x3ad8a7f2	0.0016529544
7	0xbd1043a8	-0.035220772
8	0x3be1b481	0.006887973
9	0xbd5e1647	-0.054220464
10	0xbafb51c6	-0.0019174151
11	0x3d8005ee	0.06251131
12	0x3adff81c	0.0017087492
13	0x3d4bfb33	0.04980011
14	0xbc941d54	-0.018080391
15	0x3d454421	0.048160676
16	0x3d01c740	0.03168416
17	0xbbc9a647	-0.006153855
18	0x3be1f7a5	0.0068959766
19	0x3d42bb2d	0.047541786
20	0x3bf9d3c9	0.0076241237
21	0xbdcb1001	-0.09915162
22	0x3bf16848	0.0073671676
23	0x3d4df6c4	0.050284162
24	0xba933560	-0.0011231117
25	0x3c74b8ff	0.014936685
26	0x3780fc5d	1.5376305e-05
27	0xbd39141e	-0.0451852
28	0x3d3dfcdd	0.046383727
29	0x3c5900ce	0.013244821
30	0xbd36a0b7	-0.044586863
31	0xbd19c80d	-0.0375443
32	0xbce97156	-0.028496426
33	0xbd12c849	-0.035835538
34	0xbd728f6e	-0.059218816
35	0xbd6020dd	-0.05471884
36	0xbd690788	-0.056891948
37	0x3c58aad1	0.01322432
38	0x3db4c9ee	0.088275775
39	0xbd6d1a73	-0.057886552
40	0xbd8f7fcd	-0.07006798
41	0x3d38a182	0.0450759
42	0x3c947159	0.018120455
43	0xbcbbb832	-0.02291498
44	0x3a600788	0.0008546044
45	0xbc953b9f	-0.018216906
46	0xbbbc53f0	-0.005747311
47	0xbd32e663	-0.043676745
48	0x3d2178c6	0.03942182
49	0xbd1b4fae	-0.037917785
50	0xbdc435f0	-0.095806
51	0x3c99aaa9	0.018758135
52	0xbc322bd2	-0.010874705
53	0xbd7fe215	-0.062471468
54	0x3c4b0a87	0.012392647
55	0xbc26b0fa	-0.01017403
56	0x3dbc56fc	0.091962785
57	0x3c9cd66b	0.019145211
58	0xbd8b5ee3	-0.068052076
59	0x3cab6572	0.020922396
60	0xba3da528	-0.0007234388
61	0xbd641d7e	-0.05569219
62	0xbdb90118	-0.09033412
63	0xbd9d0419	-0.07666797
64	0x3d919665	0.071087636
65	0x3d7ec6ac	0.062201187
66	0xbd49e995	-0.049295027
67	0x3cc3fca9	0.023924189
68	0xbd7d0970	-0.06177658
69	0xbd874d0e	-0.06606494
70	0xbd453e15	-0.04815491
71	0x3d95063e	0.07276581
72	0xbdce0070	-0.10058677
73	0x3cb5d8a1	0.022198023
74	0x3ca72193	0.020401752
75	0x3d290342	0.041262873
76	0xbd788493	-0.060673308
77	0x3ce86062	0.028366271
78	0x3c3d64c0	0.011559665
79	0xbd236bc3	-0.03989769
80	0xbd88849e	-0.0666592
81	0xbd0f6c57	-0.03501543
82	0x3bb087d9	0.005387288
83	0x3e0bcd5b	0.13652556
84	0x3e0f0ed2	0.13970497
85	0x3d35a31b	0.044345003
86	0xbd905a4c	-0.07048473
87	0xbc60eb4b	-0.013727973
88	0x3bca6d3b	0.006177572
89	0xbd360485	-0.044437904
90	0xbba3e552	-0.0050017023
91	0x3dfa7b15	0.12230507
92	0x3d8118bc	0.06303546
93	0xbd963ee8	-0.07336217
94	0x3bcd63b1	0.0062679877
95	0x3bfd5c86	0.007731977
96	0x3d59f081	0.053207878
97	0x3c0efa39	0.00872665
98	0x3de769bb	0.11299463
99	0xbd8a1019	-0.06741352
100	0xbad1a735	-0.0015995266
101	0xbc6d9f07	-0.014503247
102	0x3cb59bd6	0.022169035
103	0xbceb315b	-0.028710058
104	0x3d8c767e	0.06858538
105	0xbd8e4c19	-0.06948108
106	0x3b9859e8	0.0046493895
107	0xbc58221b	-0.013191725
108	0xbbcd591e	-0.006266727
109	0xbb8feb99	-0.004392099
110	0x3c5650b0	0.013080761
111	0x3d367b02	0.044550903
112	0x3d561c4b	0.052273076
113	0x3d3c9551	0.046040837
114	0x3c49d7eb	0.012319545
115	0xbb9f972e	-0.004870317
116	0x3c4333b6	0.011914184
117	0xbd175811	-0.03694922
118	0xbcac12d3	-0.02100507
119	0x3d79b377	0.060962167
120	0x3d7b65d3	0.061376404
121	0x3d2c03f9	0.041995976
122	0x3da52ed9	0.08065576
123	0xbbca9c12	-0.006183156
124	0x3d099803	0.033592235
125	0xbcfd1efb	-0.030898562
126	0xbdb2d23d	-0.08731506
127	0xbd971118	-0.07376307
128	0x3d57a657	0.05264887
129	0xbbdcfc78	-0.006743964
130	0x3ce13c96	0.02749471
131	0x3d19e9d9	0.03757653
132	0xbdac91aa	-0.08426221
133	0x3d6ab247	0.057298925
134	0x3cb71b6c	0.022351943
135	0xbb5cfd76	-0.003372041
136	0x3ce3734a	0.027764935
137	0xbd07cd80	-0.033154964
138	0x3983d8fc	0.00025147933
139	0xbd609ae9	-0.054835234
140	0x3beb1743	0.007174404
141	0x3c18edb2	0.009334015
142	0x3d2e2320	0.042513967
143	0xbc84e0d7	-0.016220493
144	0x3d8ed4af	0.0697416
145	0x3d126321	0.035739068
146	0xbd4b9d2a	-0.04971043
147	0xbd46086b	-0.04834787
148	0x3d767423	0.06016935
149	0xbdacd304	-0.084386855
150	0x3d2ab9c1	0.041681055
151	0xbd130d8c	-0.03590159
152	0x3c902ce3	0.017599529
153	0xbdc288c5	-0.09498743
154	0x3d1a5a4f	0.03768378
155	0x3d581e20	0.052763104
156	0xbcd3e7ca	-0.025867362
157	0x3cb69b46	0.022290837
158	0xbd53bcff	-0.051693913
159	0x3d59fca8	0.053219467
160	0xbce3cdfb	-0.02780818
161	0xbd8f4a80	-0.069966316
162	0xbd3a257c	-0.045445904
163	0xbc543fb8	-0.012954645
164	0xbd9424d1	-0.07233585
165	0xbceb6608	-0.028735176
166	0xbcdfcd1a	-0.02731948
167	0x3de554df	0.111978285
168	0xbdb8c550	-0.090220094
169	0x3d2dde1f	0.04244816
170	0xbd1340dc	-0.035950527
171	0xbb31a958	-0.0027108993
172	0x3d25f2f6	0.04051491
173	0x3c7caf8e	0.015422715
174	0xbd90f847	-0.07078605
175	0x3ca08b95	0.019597808
176	0xbd6e91f8	-0.058244675
177	0xbd5708c8	-0.05249861
178	0xbd58831e	-0.052859418
179	0x3bb1a887	0.0054217014
180	0xbcbf1576	-0.023325663
181	0xbcce19d6	-0.025158804
182	0xbae1ed94	-0.0017236941
183	0xbca9139a	-0.02063923
184	0x3cc2303a	0.023704637
185	0x3d803c8c	0.062615484
186	0xbd901dc5	-0.07036928
187	0x3c51d0ee	0.01280616
188	0x3bf8fe43	0.0075986697
189	0x3ce446f4	0.027865864
190	0x3d59c4e4	0.053166285
191	0x3d99e981	0.075152405
192	0x3c814457	0.015779657
193	0x3ca1951f	0.019724427
194	0xbcdb8f81	-0.026801826
195	0xbd4213d9	-0.04738221
196	0xbd0ac536	-0.03387948
197	0x3ba65743	0.0050763204
198	0xbcb205f9	-0.021731364
199	0x3d2a4e6c	0.041578695
200	0xbd214c70	-0.039379537
201	0xbce05bd2	-0.027387533
202	0xbc7d12d2	-0.015446382
203	0xbace2e19	-0.0015730291
204	0xbd664b7b	-0.056224328
205	0x3d91dc29	0.0712207
206	0xbcefd272	-0.029275153
207	0x3c8a221d	0.01686197
208	0x3cee485c	0.029087238
209	0x3da75a47	0.08171516
210	0xbd32f0a4	-0.043686524
211	0x3bc26de6	0.005933511
212	0xbd084e1d	-0.03327762
213	0x3d81c795	0.063368954
214	0x3ddc4cd9	0.10756845
215	0xbca3c503	-0.019991403
216	0x3c544463	0.012955758
217	0x3d1d9ce8	0.038479716
218	0x3ddb88d8	0.1071946
219	0x3b8395bc	0.0040156525
220	0x3cf9ae43	0.030478602
221	0x3bff9157	0.0077993083
222	0x3d4dc092	0.050232477
223	0xbd6b2df1	-0.05741686
224	0x3da23c70	0.07921684
225	0x3d03e70a	0.032202758
226	0x3db476b7	0.088117056
227	0x3dd13760	0.1021564
228	0xbc96f7d3	-0.018428719
229	0x3d9a880a	0.07545479
230	0x3dbb1c38	0.09136242
231	0xbd056296	-0.032564722
232	0xbcbde452	-0.02318016
233	0x3d8dd6d0	0.06925738
234	0xbd690b3a	-0.056895472
235	0x3d8bb8b1	0.068223365
236	0xbd06f4ac	-0.03294818
237	0xbcbdc896	-0.023166936
238	0xbcb5b0b4	-0.022178985
239	0x3c0928be	0.00837153
240	0xbcc59d5e	-0.02412289
241	0xbccba58a	-0.024859209
242	0xbdcb6f3f	-0.09933328
243	0xbbc57a1d	-0.00602652
244	0x3d6f0610	0.05835539
245	0x3d803bd5	0.06261412
246	0xbd57acb5	-0.05265494
247	0xbde97681	-0.11399556
248	0xbda08cc1	-0.07839347
249	0x3b42941d	0.0029690333
250	0x3d037548	0.03209427
251	0xbd342f74	-0.043990567
252	0x3bdccb4d	0.0067381025
253	0x3d416ebf	0.047224756
254	0xbd9741e4	-0.073856145
255	0xbc0bfbf2	-0.008543955

block1.conv2.bias f4 [64]
0	0x3cfb3b23	0.030667847
1	0x3d3cde34	0.046110347
2	0xbd837bd2	-0.06420101
3	0xbda8c7d1	-0.08241237
4	0x3d06563f	0.032797094
5	0x3c043889	0.00807012
6	0x3d55ec97	0.052227583
7	0xbce6bf50	-0.028167397
8	0x3d8bfe72	0.06835641
9	0x3d47eb2e	0.04880827
10	0xbbcc1bd3	-0.006228903
11	0x3cc30ce8	0.023809865
12	0x3d9d8923	0.076921724
13	0x3dbf6de0	0.09347129
14	0xbd5a7e43	-0.05334307
15	0x3c528db7	0.01285117
16	0xbd2b3de7	-0.04180708
17	0xbb73e9b8	-0.0037218165
18	0xbd4af921	-0.049553994
19	0x3d089848	0.03334835
20	0x3c02bf5d	0.007980195
21	0x3c219729	0.0098627
22	0xbd534cee	-0.051587038
23	0xbc916025	-0.01774604
24	0xbd8e0471	-0.06934441
25	0xbdbb2026	-0.09136991
26	0x3c88a716	0.016681235
27	0xbd9712e2	-0.073766485
28	0xbd515d81	-0.051114563
29	0xbc489688	-0.012242921
30	0xbd286d05	-0.041119594
31	0x3dc87479	0.097878404
32	0x3ca793bf	0.020456193
33	0xbc4a399d	-0.012342838
34	0x3d2b7f83	0.04186965
35	0xbcf7ca41	-0.03024781
36	0x3d826237	0.06366389
37	0x3c6ba6c2	0.01438302
38	0xbb0be0c8	-0.0021343697
39	0x3d803459	0.062599845
40	0x3b02ddff	0.0019968746
41	0x3c9804c9	0.01855697
42	0xbca1469e	-0.019686993
43	0xba9c3676	-0.0011918086
44	0xbd7036b5	-0.058645923
45	0xbc53a795	-0.012918373
46	0xbd0bf1fc	-0.03416632
47	0x3c9f47e7	0.019443465
48	0xbd0647da	-0.032783367
49	0x3bb275dc	0.005446179
50	0xbd5ac5ba	-0.053411223
51	0xbd025394	-0.031817988
52	0xbd5d17cc	-0.053977773
53	0x3d254a56	0.040354095
54	0xbccba9d3	-0.024861252
55	0x3d1360f8	0.03598115
56	0xbd179a0c	-0.037012145
57	0xbc73140b	-0.014836322
58	0xbc9e2f12	-0.019309554
59	0x3d08853a	0.03333018
60	0x3d8c923b	0.06863829
61	0x3ccc4cc3	0.024938947
62	0xba819012	-0.0009884855
63	0xbcd53ea0	-0.026030838

block1.bn2.weight f4 [64]
0	0x3f87365f	1.0563468
1	0x3f6da217	0.92825454
2	0x3f85116c	1.0395942
3	0x3f729c3d	0.9476965
4	0x3f74e80f	0.95666593
5	0x3f73dc94	0.9525845
6	0x3f829523	1.0201763
7	0x3f812b7d	1.0091397
8	0x3f8575fc	1.0426631
9	0x3f7dc840	0.9913368
10	0x3f7f92e1	0.99833494
11	0x3f77629b	0.96634835
12	0x3f898ebe	1.0746686
13	0x3f88e0c8	1.0693598
14	0x3f863bf0	1.0487041
15	0x3f8ca00c	1.0986342
16	0x3f7bebe2	0.98406804
17	0x3f867be0	1.0506554
18	0x3f7935a8	0.973475
19	0x3f853d6f	1.0409373
20	0x3f7999d1	0.9750033
21	0x3f7ea03f	0.99463266
22	0x3f789de6	0.97115934
23	0x3f78c9a8	0.97182703
24	0x3f7bcc70	0.9835882
25	0x3f8b93eb	1.0904516
26	0x3f775143	0.9660837
27	0x3f845116	1.0337245
28	0x3f81db37	1.0145024
29	0x3f8d7796	1.105212
30	0x3f78e47d	0.97223645
31	0x3f853eff	1.040985
32	0x3f8be66b	1.0929693
33	0x3f831832	1.0241759
34	0x3f81711b	1.0112642
35	0x3f804d7b	1.0023645
36	0x3f8e2792	1.1105826
37	0x3f813653	1.0094703
38	0x3f8543ed	1.0411354
39	0x3f81c741	1.0138932
40	0x3f8808d4	1.0627694
41	0x3f7d3e7b	0.9892346
42	0x3f7ddd47	0.9916577
43	0x3f7c2f8e	0.9851006
44	0x3f81eef6	1.015105
45	0x3f7b3580	0.9812851
46	0x3f8ae5a2	1.0851328
47	0x3f881335	1.0630862
48	0x3f857f38	1.0429449
49	0x3f7f83f1	0.998107
50	0x3f82dfb3	1.0224518
51	0x3f7ad159	0.9797569
52	0x3f807831	1.003668
53	0x3f7ff341	0.9998055
54	0x3f883675	1.0641619
55	0x3f86275c	1.0480762
56	0x3f7862a7	0.9702553
57	0x3f7f938f	0.9983453
58	0x3f7e6c71	0.9938422
59	0x3f854510	1.0411701
60	0x3f7ed9dd	0.99551183
61	0x3f8581cd	1.0430237
62	0x3f820ea7	1.0160722
63	0x3f83e357	1.0303754

block1.bn2.bias f4 [64]
0	0xbca80228	-0.02050884
1	0xbdd095a3	-0.10184791
2	0xbca25320	-0.019815028
3	0xbd05dae5	-0.032679457
4	0xbd1f5985	-0.03890373
5	0xbce7097c	-0.028202765
6	0x3cbc9db8	0.023024425
7	0xbca183ed	-0.019716227
8	0xbb90829a	-0.0044101
9	0xbb6c3d9f	-0.0036047471
10	0xbc205f89	-0.009788402
11	0xbccae4e9	-0.024767356
12	0x3d234058	0.039856285
13	0x3bcc9267	0.0062430385
14	0x3bac98e8	0.0052672513
15	0x3c3048e8	0.01075957
16	0xb952036b	-0.00020028434
17	0xbd87f2c5	-0.066381015
18	0xbc56010a	-0.013061771
19	0xbd2cb573	-0.04216523
20	0x3b02a551	0.0019934962
21	0x3b1d1ee8	0.002397472
22	0xbd5b1d35	-0.05349465
23	0xbc406384	-0.011742476
24	0xbc0be715	-0.008538981
25	0xbc008227	-0.007843531
26	0x3bb79e84	0.0056036133
27	0x3cc8b4ba	0.02450024
28	0xbd4cf2f2	-0.05003638
29	0x3b03948e	0.002007756
30	0xbcccb192	-0.024987016
31	0xbcd89891	-0.026439937
32	0xbb26e894	-0.0025468217
33	0x3c90bd59	0.017668413
34	0x39cd5443	0.00039163427
35	0x3c204095	0.009781023
36	0x3d317035	0.0433199
37	0xbc3f4b4a	-0.011675665
38	0x3c23996d	0.00998531
39	0xbb54f8d1	-0.003249694
40	0x3d00f09d	0.031479467
41	0xbd8866ab	-0.06660207
42	0x3cbb48b8	0.022861823
43	0xbc786088	-0.015159734
44	0x3b4c9c2f	0.0031221022
45	0xbd67e250	-0.056612313
46	0x3d211d24	0.03933443
47	0xb8c11579	-9.206957e-05
48	0xbd391328	-0.045184284
49	0xbd38229f	-0.044954892
50	0x3c9e36cf	0.019313244
51	0xbc1bff2a	-0.009521285
52	0xbd7ced3e	-0.06174969
53	0xbcec7c5c	-0.028867893
54	0x3c0a3c38	0.008437209
55	0x3d57b68b	0.05266432
56	0x3bee9e88	0.007282082
57	0xbc51dd4b	-0.012809108
58	0xbcee561e	-0.029093798
59	0xbcf06541	-0.029345157
60	0xbb89f2bd	-0.004209845
61	0x3c5e833f	0.013581096
62	0x3aaf1fcb	0.0013360915
63	0x3cf9932b	0.030465683

block1.bn2.running_mean f4 [64]
0	0xbd17e295	-0.03708132
1	0x3e93f8f7	0.28900883
2	0xbec74482	-0.38919455
3	0xbe82f84e	-0.25580066
4	0xbef49a2d	-0.47773877
5	0xbef2d5bd	-0.47428694
6	0xbe1f526a	-0.15558782
7	0x3e54600c	0.20739764
8	0xbd760fdf	-0.06007373
9	0x3ecd88c0	0.40143394
10	0x3d84bee1	0.0648172
11	0xbe11289a	-0.14175645
12	0xbe51654b	-0.20448796
13	0x3e2f566b	0.1712281
14	0x3de3a644	0.11115697
15	0xbed64994	-0.4185301
16	0xbbc52574	-0.0060164277
17	0xbf04d7ee	-0.5189198
18	0xbefd355d	-0.49454775
19	0x3e98887f	0.29791638
20	0x3e8c76ff	0.27434537
21	0x3e849f59	0.25902823
22	0xbe072702	-0.13198474
23	0x3f00392b	0.5008723
24	0xbe9dda49	-0.308306
25	0xbed443c2	-0.41457945
26	0x3e251b3d	0.16123672
27	0xbc9a20aa	-0.018814404
28	0xbd4be307	-0.049777057
29	0xbec2dcdf	-0.38059136
30	0x3dfff55e	0.12497972
31	0xbd322890	-0.043495715
32	0x3e921179	0.28528956
33	0xbf24fc71	-0.64447695
34	0x3e949347	0.29018614
35	0xbdd67f6d	-0.10473523
36	0x3d314535	0.04327889
37	0x3eb6b38d	0.3568386
38	0xbe0c6802	-0.13711551
39	0x3ecacfb5	0.39611593
40	0x3df0dad5	0.11760489
41	0x3eaa9f5c	0.33324707
42	0xbe4c3d65	-0.19945295
43	0xbeae457c	-0.34037387
44	0xbe324714	-0.17409927
45	0x3cdb1717	0.026744409
46	0x3cb4c82f	0.022068111
47	0x3d1db8f2	0.038506456
48	0x3e371894	0.1788047
49	0x3dfec468	0.12439805
50	0x3e0b3e94	0.1359809
51	0x3c6f730f	0.014614834
52	0xbed79c75	-0.42111555
53	0xbe88c33e	-0.26711458
54	0xbc3a4644	-0.011369292
55	0xbd832e8e	-0.06405364
56	0xbe708c26	-0.23490962
57	0xbec22dc6	-0.37925547
58	0x3e27ae95	0.16375192
59	0xbe62267e	-0.22084996
60	0xbc3fc742	-0.011705222
61	0x3d8c069f	0.068372004
62	0x3e5b0e76	0.21392235
63	0xbeff36cf	-0.49846503

block1.bn2.running_var f4 [64]
0	0x3e952252	0.29127747
1	0x3ee6da27	0.45088312
2	0x3e251694	0.16121894
3	0x3e801234	0.25013888
4	0x3f08e2f6	0.53471315
5	0x3f625492	0.88410294
6	0x3e9afd52	0.30271393
7	0x3e737996	0.2377685
8	0x3e85a6b4	0.26103747
9	0x3ec4a084	0.38403714
10	0x3e672ad2	0.22574928
11	0x3e8deaa5	0.27718082
12	0x3e887f24	0.266595
13	0x3e62ad4f	0.22136424
14	0x3e653a4a	0.22385517
15	0x3ea97877	0.3309972
16	0x3f18217c	0.59426093
17	0x3e6e39aa	0.23264185
18	0x3ea42f9f	0.32067582
19	0x3e85a449	0.26101902
20	0x3e23dc19	0.1600193
21	0x3e668723	0.22512488
22	0x3e68e5be	0.2274389
23	0x3e8082b5	0.25099722
24	0x3eb6a726	0.356744
25	0x3e74d8c6	0.23910818
26	0x3ebeb987	0.3725092
27	0x3e84875f	0.2588453
28	0x3e10474a	0.14089695
29	0x3e8bfa30	0.27339315
30	0x3e93709e	0.28796858
31	0x3e599768	0.21249163
32	0x3e82f93f	0.25580785
33	0x3f10f459	0.56622845
34	0x3ece1724	0.4025203
35	0x3f11b1da	0.56912005
36	0x3eb4383d	0.35199156
37	0x3f21abc0	0.63152695
38	0x3e663c9b	0.22484057
39	0x3ef533ac	0.47890985
40	0x3eb25643	0.34831437
41	0x3ec7a929	0.38996246
42	0x3ed131f8	0.40858436
43	0x3e82f38c	0.25576437
44	0x3e5a52f9	0.21320714
45	0x3eecaeb6	0.46227044
46	0x3e871a6d	0.2638735
47	0x3e8ab43e	0.2709064
48	0x3e2c2319	0.16810264
49	0x3e8cf763	0.2753249
50	0x3e6227cf	0.22085498
51	0x3e9fdc48	0.3122275
52	0x3ea685ad	0.32523862
53	0x3ea6be85	0.3256723
54	0x3e417df4	0.18895704
55	0x3e9d1532	0.30680233
56	0x3eae8c80	0.34091568
57	0x3e824011	0.25439504
58	0x3eb5f7b6	0.3554055
59	0x3f0d6506	0.55232275
60	0x3e68437b	0.22681992
61	0x3e90301a	0.281617
62	0x3e7706f1	0.24123742
63	0x3ef84a21	0.48494056
