ecg_afib_detection/checkpoints/ecg-arrhythmia/100hz/resnet1d/fold_5/best.pt (torch, 339167 bytes, 44 tensors)

stem.0.weight f4 [64, 12, 7]
00000000: fad5 81bd 3f68 313d 5070 43bd 4b62 f1bc
00000010: d957 97bb f24c 56bd c9b0 a93d 15d6 b9bd
00000020: e0f3 93bd ef77 d0bc 9b4d a33d 10fb 633b
00000030: 60f8 d2bb e28c 04be d0dc 51bd dffb 293d
00000040: 444d b9bd 6bc4 c43d ebf7 7c3d 0259 ccbd
00000050: 0c05 9e3d 9b0f 063e e72e b83d 764c 973d
00000060: 27ff 62bd deeb 1bbc 7f94 cd3d 57ea c53d
00000070: 7395 f73c 0936 ac3d ef63 0a3c 4099 d4bd
00000080: 6e60 103d fa00 863d e0cf 77bb 0464 e6bd
00000090: 5813 dabd b7c5 7c3d f943 51bd 5adc c43d
000000a0: 3801 c23c 2836 5dbd c8f8 c0bd a3cb 0dbd
000000b0: 151b dc3d 7de9 e43d 6545 86bd f669 45bd
000000c0: 3f31 aebd 067b d53d 3c85 453d 13fe c2bc
000000d0: 8c88 903d f7f0 90bc 2f47 b43d 5230 213c
000000e0: a790 72bd bff1 bfbd c3b2 1ebc ef84 0cbd
000000f0: 5fbf 61bd 9616 da3d 77c2 41bd 6757 373d
00000100: ad77 cb3c aa57 413d 79d4 c53d fc3f 52bd
00000110: f774 9f3d 3c8f 28bc d9dc 93bd 4366 72bd
00000120: 1e9f 6e3c 98d7 75bd a2f7 663c 1b01 3dbc
00000130: f940 ffbd 37f3 c0bd 9086 e73d 1515 e5bc
00000140: 3a63 4cbd edfa e1bd 7889 9c3c 2898 b83c
00000150: e12f 2fbd e14f 573d 6740 7c3d 51ae a8bd
00000160: e59e d2bd 04ce 46bd cf0c db3d 4c0c 1f3d
00000170: dc2c abbc bba1 a13d d925 cc3d 12a6 7e3b
00000180: 063a c1bc 345a 94bd 6f5c a5bd 4af7 183d
00000190: de5d 293d d740 ecbd 2e2d 7fbc 23a3 92bd
000001a0: eb5a dbbd 5475 8dbb bb21 c4bd adbd 83bc
000001b0: e95c 973c b587 c6bd 499f 3dbc bd38 923d
000001c0: ff34 6dbd 9916 b3bd 8ca3 943d a91a 27bd
000001d0: c81b d1bd 8c95 7cbc d097 0f3e 54ea 753d
000001e0: e74f 07bd e554 babd 11f0 9a3d 96ff 6d3d
000001f0: b2d3 d63c 9808 883d f62d 493d e1e5 fb3d
00000200: b936 d83d 00b3 7dbc 2a30 5cbd 70e0 d93d
00000210: 8050 54bd 7927 ac3d 24c9 0c3e 1673 5f3d
00000220: 2378 663d 85ed dbbd a043 d7bd a632 13bd
00000230: e5b6 e7bd 9d59 c63d 165b 05be 07b1 693c
00000240: d429 223d 9066 6abd 90fa 023d c693 bfbd
00000250: 989f 4fbc 1d16 edbd c69d d3bd 1a1f 0abd
00000260: c47c 893d 5f8a 763d 6b47 c8bd 9957 3dbd
00000270: db2b 14bd c356 943d 0d4a a2bb 81aa a03d
00000280: 7e6b 6a3d 86fb ebbd 6268 643d 56ae e3bd
00000290: 0489 ed3c e424 bc3d 007a a93d 9da0 c4bc
000002a0: 7512 683d 30bd bf3d e38e 6c3d ae64 df3d
000002b0: 7eb0 a5bc 066c cf3c 2dce d43a fef8 b4bd
000002c0: e789 c13d a1cd a83d b7a6 cabb cde6 c8bd
000002d0: 6cfa aebd 929e adbd f40c b53d 63bc 803d
000002e0: ecc6 bb3d e83e 623d 83f3 90bd 343d 4abd
000002f0: 9caf 80bd cc45 603d 3974 ffbd 8dac 91bd
00000300: f73e 11bd 6566 92bc b9dc 0fbd 3b9c 713d
00000310: ee25 69bd 40df 91bd 83b9 293d daf3 8bbd
00000320: 6570 66bd 3fc6 be3d 824b 7fbd 0264 ca39
00000330: 2258 873d 0ff0 c7bc 4f27 80ba c791 813d
00000340: bb60 afbd 1a3a e93c db11 b03d 2890 4b3d
00000350: a168 d83c ffd6 24bb e522 cbbd af59 21be
00000360: f0f9 f1bd 6c93 88bd be60 1bbd 4296 c8bd
00000370: 679d d53c a130 eabc ea96 c83d 251b e2bc
00000380: 2729 ac3d af2f eabc 3c01 b53d c86c 973d
00000390: bca1 f33d aae2 403c 5e84 783d 71da 86bd
000003a0: 3379 0ebd 15fb bc3d 43a4 b3bc 3f83 2f3d
000003b0: 78dc f93b 8344 e5bc 7934 f2bc 1aa8 a03d
000003c0: dddd 20bd cde4 533d 1f8e 8abc 9219 b73d
000003d0: fd89 97bc 563d 763d d203 08be 67c1 a43d
000003e0: 0460 493d a9ef 983d facb fabd 0e85 7fbd
000003f0: 1ad1 57bd b9fb d53d dc3c 93bc 8f7a 903c
-0.06339641 0.043312307 -0.04771453 -0.029465815 -0.0046186266 -0.052319475 0.08285672 -0.09074036
-0.0722425 -0.025447814 0.079737864 0.0034787096 -0.0064383 -0.12944368 -0.051235974 0.04149997
-0.090479404 0.09607776 0.06175987 -0.099779144 0.07715806 0.1309189 0.08993321 0.07387631
-0.055419113 -0.009516684 0.10038089 0.096638374 0.03022263 0.08408744 0.008446678 -0.103807926
0.035248213 0.06543155 -0.0037813112 -0.11249545 -0.10648221 0.061711993 -0.051090214 0.09612341
0.023682222 -0.054006726 -0.09422451 -0.03461803 0.10747353 0.11177347 -0.06556205 -0.048196755
-0.08505487 0.104238555 0.048222765 -0.023802793 0.07057294 -0.017693026 0.0880264 0.009838181
-0.059219982 -0.09372281 -0.009686175 -0.034306463 -0.055114146 0.10648839 -0.047304597 0.044761088
0.02483734 0.047202744 0.096596666 -0.05133055 0.07785981 -0.010288056 -0.07219858 -0.059179556
0.014564304 -0.06002006 0.014097126 -0.011535908 -0.124635644 -0.094213895 0.11304963 -0.027964154
-0.049899317 -0.110341884 0.019108519 0.022533491 -0.04277027 0.052566413 0.061584856 -0.08236373
-0.10284213 -0.048536316 0.106958024 0.038830087 -0.020895414 0.07892176 0.09968156 0.003885631
-0.023587238 -0.072437674 -0.08074271 0.03734521 0.041349284 -0.11535805 -0.0155747365 -0.07160022
-0.107107006 -0.004316965 -0.09576746 -0.016081655 0.01847692 -0.09693853 -0.011573621 0.07139728
-0.05791187 -0.087445445 0.072577566 -0.04079691 -0.10210377 -0.015416514 0.14022756 0.060037926
-0.033035185 -0.090982236 0.0756532 0.058105074 0.026223991 0.06642264 0.049116097 0.12299705
0.105573125 -0.015484571 -0.05375687 0.10638511 -0.051834583 0.08405966 0.13748604 0.054553114
0.056266915 -0.10738663 -0.10510945 -0.035936974 -0.11314181 0.09685061 -0.13023028 0.014263398
0.03959067 -0.057226717 0.031977236 -0.093543574 -0.012672327 -0.115764834 -0.10332827 -0.033721067
0.0671325 0.060190555 -0.09779247 -0.046226118 -0.036174636 0.07243111 -0.004952675 0.07845021
0.05723142 -0.11522584 0.05576361 -0.11117236 0.028995998 0.09186724 0.08275223 -0.024002368
0.056658227 0.093622565 0.057753455 0.10907875 -0.02022576 0.025320064 0.0016235762 -0.08836554
0.09450131 0.082423456 -0.0061844247 -0.09809647 -0.08543858 -0.084775105 0.08840361 0.06285932
0.09168801 0.055235773 -0.07077696 -0.049374774 -0.06283495 0.054754063 -0.124733396 -0.071129896
-0.03546044 -0.017871091 -0.035122607 0.058986884 -0.05692094 -0.0712266 0.041436683 -0.0683362
-0.05625953 0.09315156 -0.06232787 0.00038602954 0.06608607 -0.024406461 -0.000977734 0.06326633
-0.08563372 0.028470088 0.08597156 0.049698025 0.026417078 -0.0025152562 -0.09918765 -0.15756868
-0.1181525 -0.066687435 -0.037934057 -0.097942844 0.026076032 -0.028587641 0.097944096 -0.027600834
0.08406287 -0.02858719 0.08838126 0.07393795 0.11896083 0.011772791 0.06067311 -0.06584633
-0.034783553 0.092275776 -0.021928912 0.042849775 0.007625159 -0.02798677 -0.029566037 0.07844563
-0.039274085 0.051731873 -0.016913472 0.08940424 -0.018498415 0.06011709 -0.13282707 0.08044701
0.049163833 0.074675865 -0.12245937 -0.06238275 -0.05268965 0.10448403 -0.017973356 0.017636565

stem.0.bias f4 [64]
00000000: 62c0 68bc 74b2 e83b f661 f4bd 6c4f e0bd
00000010: 57ca 353d 7334 093d b8e0 3d3d 8ba0 bb3b
00000020: 285b 88bd 4afd b6bd 3b59 df3d b9f5 823d
00000030: 1588 c73d ccd6 ccbd 1a9d c53d 3dd0 b3bd
00000040: 0182 97bd de8f a33c 201c 64bd 5e06 d4bc
00000050: 02ff 7d3d e45a 743d 0d80 9a3d 7cd7 a33c
00000060: 50ca 5ebd 973a 793d 5da6 303d 9f86 2c3d
00000070: dbb8 54bc 5715 afbd f24f a53d f350 ac3d
00000080: 50ff 133b 3fd7 1abd 4408 d73c 2550 843d
00000090: fc02 4dbd 5013 9abd 99b5 d03c 5480 d0b9
000000a0: 8b48 a53d 8e33 b73d c20f 37bd ec98 0f3e
000000b0: 4239 b2bd 7871 b23d e410 9e3d 4d34 57bc
000000c0: f40d fdbd 1a0f 703c 4dbe 1dbd e63f e53d
000000d0: 1dce dd3d e310 da3c b83f f53d 3b0c 7b3d
000000e0: ffb1 6a3d 0327 c6bd b407 c03d f1a3 e93d
000000f0: 6118 96bd e811 a6bd 54f6 983d d907 7d3d
-0.014206024 0.0071013514 -0.11932747 -0.109526485 0.04438242 0.033497285 0.046356887 0.0057259253
-0.06658012 -0.0893503 0.10905691 0.06394524 0.097427525 -0.10001907 0.09649105 -0.08779953
-0.07397843 0.019966062 -0.055690885 -0.025881942 0.062010773 0.059656993 0.07543955 0.020000212
-0.05439216 0.06084689 0.043127406 0.042120572 -0.012983526 -0.08548992 0.08071889 0.08413877
0.0022582598 -0.03780293 0.026249059 0.06460599 -0.050051674 -0.07523215 0.025477218 -0.00039768463
0.08070477 0.0894538 -0.044692762 0.14023179 -0.08702327 0.08713049 0.077180654 -0.013135028
-0.12356177 0.014652038 -0.038511563 0.11193828 0.108303286 0.02661938 0.11975044 0.06129096
0.057298657 -0.0967541 0.09376469 0.114082225 -0.07328869 -0.08108884 0.07468858 0.061775062

stem.1.weight f4 [64]
00000000: 627a 7b3f 124a 7c3f 9539 803f 070b 753f
00000010: 534c 823f 824a 6d3f 3699 813f 3e42 803f
00000020: bf53 713f bedb 763f d324 793f 0d6e 6c3f
00000030: 9090 7f3f 7c07 813f c40a 763f fd7c 7d3f
00000040: 2684 7f3f 7735 793f fedc 7d3f e336 7c3f
00000050: b5f5 7e3f 9e25 7a3f 0bea 823f 932f 753f
00000060: 0361 7a3f 4479 843f 33c8 813f 0c27 763f
00000070: d4f5 733f 75e8 7c3f 758a 793f 44be 833f
00000080: 4f5b 7e3f c520 813f f875 763f bfb8 763f
00000090: d282 7c3f 1439 7b3f 08d9 783f e7c2 843f
000000a0: a530 733f 969c 753f 37c5 7e3f 9034 7b3f
000000b0: 55f6 793f 9dd2 7d3f 800b 813f 8898 803f
000000c0: 2806 753f 278b 7d3f cb29 823f 25b0 793f
000000d0: 635c 7d3f 94a4 7c3f 1378 7b3f 01b8 7c3f
000000e0: 59a8 813f 0cff 933f 994c 7e3f 8cbb 793f
000000f0: 88ae 7a3f f4af 793f fa56 753f 53e7 813f
0.98233616 0.9855052 1.0017573 0.9571995 1.0179542 0.92691815 1.0124881 1.0020216
0.9426841 0.9642905 0.97321814 0.92355424 0.9982996 1.0080409 0.9611018 0.9901884
0.9981102 0.97347206 0.9916533 0.9852125 0.9959367 0.9771365 1.0227674 0.9577572
0.9780428 1.0349507 1.0139221 0.9615333 0.9529698 0.987922 0.97476894 1.029244
0.99358076 1.0088125 0.96273756 0.9637565 0.98637116 0.9813397 0.97206163 1.037198
0.949961 0.95942056 0.99519676 0.9812708 0.976415 0.99149495 1.0081635 1.0046549
0.9571252 0.99040455 1.0169004 0.975344 0.98969096 0.98688626 0.98230094 0.9871827
1.0129501 1.1562209 0.9933563 0.975518 0.97922564 0.9753411 0.9583584 1.014872

stem.1.bias f4 [64]
00000000: b1d0 43bd c3cd c3bc 965e 5ebc dae5 1fbd
00000010: 64a8 553c a95c 5cbd c5e1 3d3d bc77 263d
00000020: 6851 b5bc cb2d 643d ed75 29bd 45c8 56bd
00000030: 6242 e13c 5052 cbbc 16e4 3e3d b2bd 573d
00000040: 29b9 933c c0e2 3bbd 12aa 18bd 2dad 0a3d
00000050: 7fb6 843d b4b4 8ebc 8843 ebbc dc42 283d
00000060: b32f 83bc 18e7 b03c 9859 893c a713 97bc
00000070: 6244 f13c bcc3 373d f327 5cbb e87d 283e
00000080: 65a8 9d3d bbe3 4b3d a11f 463c 2a74 0b3d
00000090: 933c 2bbd 2bfb a33d 6b19 a4bd c67b 883d
000000a0: a1c8 843c 8ca5 37bd 5855 ebbc 3380 8f3c
000000b0: 47aa c0bc f5ab 293c cada e63d 34a8 cbbc
000000c0: cb52 62bc 9fa6 923c 0122 823d 4b5e 483d
000000d0: a0e9 d93c ea54 85b9 ffff 1e3d 3f99 063d
000000e0: 62d2 5f3d cb9b 813b c37b 8e3a 5e43 1a3c
000000f0: 6be4 063c e15f 1b3d b148 0b3d d272 923d
-0.047806446 -0.023901826 -0.013572356 -0.039037563 0.013040636 -0.053799305 0.04635789 0.04064153
-0.022133544 0.055707734 -0.04137223 -0.052437086 0.027497474 -0.024819523 0.04660424 0.052671142
0.018032627 -0.045870543 -0.037271567 0.03385656 0.06480121 -0.01742015 -0.028718725 0.041079387
-0.016013956 0.02159457 0.016766354 -0.018441988 0.029451553 0.0448644 -0.0033593148 0.1645428
0.07698134 0.049777728 0.012092502 0.03404633 -0.041805815 0.08006891 -0.080126606 0.06664233
0.016208949 -0.044835612 -0.028727219 0.017517185 -0.023518695 0.010355939 0.112721995 -0.024860479
-0.013813685 0.017901717 0.06354142 0.04891805 0.026600659 -0.00025431003 0.038818356 0.03286099
0.054643996 0.0039553395 0.0010870624 0.009415476 0.00823317 0.037933234 0.03400487 0.071508065

stem.1.running_mean f4 [64]
00000000: 06a8 61bc 83ab dd3b 4171 f4bd 8877 e0bd
00000010: 6289 373d 88e9 053d a80b 3c3d e01a bb3b
00000020: ff22 88bd f461 b6bd 6c3e df3d 7e2a 823d
00000030: b00e c83d e8e6 cbbd f621 c53d a2f1 b3bd
00000040: 5d29 98bd 6751 a43c 1ae6 64bd e6d7 d3bc
00000050: 0f8b 7e3d 8b00 743d 4ee8 993d eaa5 a33c
00000060: 8cfc 5ebd 8bd8 773d db7a 303d c08a 2c3d
00000070: 74d9 59bc 3a82 aebd 8c65 a53d c176 ac3d
00000080: ad35 013b 507a 19bd 72d6 d83c 4dd8 843d
00000090: 17db 4bbd ae1e 99bd 7d9f d33c 7839 bdb9
000000a0: 9e77 a53d 0848 b83d abd5 37bd 2568 0f3e
000000b0: 772d b2bd 8838 b23d e638 9e3d 617f 52bc
000000c0: 9940 fdbd c046 6c3c bf19 1abd f5b3 e53d
000000d0: 6430 dd3d f289 d93c d9f7 f53d 6ab4 7c3d
000000e0: bc3f 6a3d 62de c7bd 6956 c03d 3d1f eb3d
000000f0: 99d2 96bd 0fe8 a5bd 329f 973d 62f4 7d3d
-0.01377297 0.0067648306 -0.11935664 -0.10960299 0.044808753 0.032693416 0.045909554 0.005709991
-0.066473 -0.08905402 0.10900578 0.06355761 0.097684264 -0.09956151 0.09625618 -0.08786322
-0.074297644 0.020058347 -0.055883504 -0.025859784 0.062144335 0.05957083 0.07515012 0.019976575
-0.054440066 0.060509246 0.043085914 0.04212451 -0.013296474 -0.085209325 0.08076009 0.08421088
0.001971583 -0.037470162 0.026469443 0.064865686 -0.049769487 -0.07476555 0.025832886 -0.00036091707
0.08079456 0.08998114 -0.044881504 0.14004572 -0.08700078 0.08702189 0.07725696 -0.012847752
-0.12365837 0.014421165 -0.03762221 0.11215965 0.108002454 0.026555035 0.12010164 0.061695494
0.057189688 -0.09759213 0.093914814 0.114805676 -0.07364387 -0.08100902 0.07403411 0.06200064

stem.1.running_var f4 [64]
00000000: 6589 213f 54ef c73e 2f20 173f 812d 293f
00000010: 8e2c fb3e ea16 953f 6c40 993f 50d3 933e
00000020: a9d3 db3e 8f1c fe3e 5c48 383f 6763 5f3f
00000030: e296 e83e bc5c 0b3f b8d5 c63e 47c0 503e
00000040: c0c1 443f 342a c53e 990a f53e 156a c03e
00000050: d885 3c3f 02a4 493f 418b 8d3f 4125 8c3f
00000060: c6a4 9e3f 9b09 783f f6f7 b83e ef48 4b3f
00000070: 955d 0b3f 9603 493f b54b 093f d868 d33e
00000080: 8e99 723f 1d40 213f 525d e13e ed9c e43e
00000090: 0f6f 513f b831 dd3e 215f 6d3f b19f dc3e
000000a0: 5d3e ab3f 52b6 a13f c0c1 763f 5ad8 893f
000000b0: 534d a13e 0781 563e 3f9e 583e 5f99 013f
000000c0: 9b24 343f 2797 453f 360c 933e 1feb 063f
000000d0: 7eb5 253f 0fbd 163f fba7 623f b868 2c3f
000000e0: bbf3 143f c256 5b3f 6501 033f 237f 903f
000000f0: 26b4 cb3e 413c d43e 0d29 c63e 0694 ef3e
0.6310027 0.3904978 0.59033483 0.6608506 0.4905743 1.1647618 1.1972785 0.28872156
0.4293492 0.49631163 0.7198541 0.8726105 0.45427614 0.54438376 0.3883493 0.20385848
0.7685814 0.3850876 0.47859648 0.37580934 0.7364173 0.7876588 1.1058122 1.0948869
1.2394035 0.96889657 0.3612668 0.7940816 0.5443967 0.78521097 0.53631145 0.41290927
0.94765556 0.62988454 0.4401651 0.44650975 0.81810087 0.43201995 0.9272328 0.43090585
1.3378407 1.2633765 0.9638939 1.076915 0.31504306 0.20947658 0.21154116 0.5062465
0.70368356 0.77183765 0.28720254 0.52702516 0.6473006 0.5888223 0.8853757 0.6734729
0.58184403 0.85679257 0.51174 1.1288799 0.3978588 0.4145222 0.38703194 0.4679262

block1.conv1.weight f4 [64, 64, 3]
00000000: 5782 ae3c 3d6d d7bc 6094 1bbc 0140 793d
00000010: 48e7 dc3a 9689 6c3b 6980 be3c f373 3e3d
00000020: 8a9f 5e3d f883 123d 16ee 593d 0ed0 e23c
00000030: 0424 833d 8d15 c4bc 4207 a53c 14ef da38
00000040: 8013 673d baec 29bd 0e4f 9139 bdcc c9bc
00000050: d558 c33b 99d7 823c 1c26 4f3d 13fa fdbb
00000060: 6e80 3ebd 7112 ac39 6ac1 fabc dba5 6b3d
00000070: 41be 02bd 0d5b 18bc 3f1e 75bc b23b 32bc
00000080: a31c 3c3c ff37 51bd 9e43 673d f42b 29bd
00000090: 2ba3 b93c 863e 54bd 524d 133d 8d9c 663d
000000a0: e1c1 883d 70e1 95bd e9e1 cf3c 488a f9bc
000000b0: ffd2 cdbd f025 f4bc 7270 9fbd a3e1 9c3c
000000c0: 7207 433d 66d9 613d b430 0cbd 09a2 2fbd
000000d0: bda3 14bc e101 823c 23a4 a6bc d93e 2c3d
000000e0: d9a2 47bd 38b8 c4bd 4962 013c e69d 703d
000000f0: 8ed2 58bd a0b1 c4bd 7040 f7bd 9160 bdbd
00000100: 11ce c4bd b55e 85bc c4c4 b5bc b825 abbd
00000110: e8cd b3bd 311b 5e3c d9ed 6abd 7c29 0fbd
00000120: 4913 a13d e024 363d bb0b 273d c220 febd
00000130: 4ce0 b0bd 8a7c 66bd f6d6 9a3d 5a56 273d
00000140: a751 cfbb 8ada 043d a1d1 6dbd b01d 48bd
00000150: 053e 60bd e5cd 9bba 52cf aabd fafb 08bc
00000160: 297a edbd 9828 b8bd 15e7 143d 9c26 82bb
00000170: 3295 b83c 83b5 f03d c6b4 213d 1199 acbd
00000180: 30a0 48bd 4c45 313d a02b 923d bf5a 333d
00000190: 546b 27bc 1112 47bd 4c61 943d 9619 963c
000001a0: f73f 683d 27e8 f2bc 2f6a 51bd 147f b23a
000001b0: 6b25 143c 3ab8 083d a9a2 953c 2e59 4dbd
000001c0: 6f32 8dbd 8e9f 13bd e365 65bd 5a8d 19bd
000001d0: bdf2 663d 7890 26bd a561 7fbd d90c 03bd
000001e0: 980a 953d c68c 80bd 05ea 363d b6ef 343d
000001f0: 7baa c1bc 1252 c6bd 7f79 68bc 6293 893c
00000200: 432c 95bb 3499 7bbd d060 5e3d b85c a2bd
00000210: 0297 483c 8712 a3bd 3fa2 c3bd 7bde 33bd
00000220: fb2e 7fbd 7bb7 2cbd fe6b cebc 8a65 b7ba
00000230: d335 3b3d 1cc5 babc 09b8 973d 4b64 113d
00000240: f9b1 783c 96ae 9bbc 7938 1f3c 1208 3dbd
00000250: ccf6 023c edc6 30bc c9cf 98bd 2619 34bd
00000260: 8e37 373d ac37 e139 a25e 9ebd 141e 0bbd
00000270: 4bc7 bfbd dc6b 9b3c 7084 d5bd d780 31bd
00000280: e996 6bbd 066a 3c3d 91dc 97bc b977 e8bc
00000290: 5974 bb3b f300 3f3d 0f9e 143d 1015 dcbd
000002a0: ae4e 1fbd 6216 9b3b e350 5cbd c7f2 cfbd
000002b0: 1b88 09bc 0d3b 2cbc 1136 79bc 6b6a d4bc
000002c0: 3daa 753d 303f 823d 162e b73d bafd 89bd
000002d0: 9c27 76bd 27b0 d83c dfa5 75bd 7b1f 913c
000002e0: d63a 72bd 591a 3cbb a2bc 213b 2d28 39bd
000002f0: 545a f4bb 71db ad3d 90b5 cebc 8e86 83bd
00000300: f45e eebc b3a6 35bc b77f b13d 86eb 873b
00000310: 498a d3bd f61f 6dbd b731 21bd 9023 7d3d
00000320: 5dfc 933d b5b6 93bd b97a 59bd d235 fdbc
00000330: f858 83bd 4365 6c3d 4818 e23c 48de 59bd
00000340: bbe2 1ebd 212e 1e3d d6cc 9c3d 5ac4 5a3d
00000350: 5106 bbbd e20d 07be 0566 e5bb 7f42 193d
00000360: 4021 2cbb 20b8 853d 9814 413c ff2e 193d
00000370: 17ec c9bb 666c 353d 9f00 113d e04a b0bc
00000380: 5687 f5bc 847a 58bb 277d 8bbd 774b 36bd
00000390: ddb7 c9bd 8650 0a3c 61ee c3bc fd7f 93bd
000003a0: fa83 d2bd 47e7 bf3c e618 273c 2228 ed3a
000003b0: 682f 2ebb eca5 a23b c32d 013c 7f99 a03d
000003c0: 602b adbc 898a 2b3d 34e2 7b3c 6497 6ebd
000003d0: 5e24 733d 81a7 a8bd 8348 9cbd 5f16 7dbd
000003e0: b735 87bc 99e2 53bb 9929 72bd 234c 17bd
000003f0: c0ad 90bd f7c2 033c b222 ba3c 2de5 d7bd
0.021302385 -0.026297206 -0.009495825 0.060852055 0.0016853595 0.003609275 0.02325459 0.046497297
0.054351367 0.035770386 0.053205572 0.027687099 0.06403354 -0.023936057 0.020145062 0.00010439582
0.05641508 -0.041485526 0.00027715456 -0.02463376 0.0059615173 0.015971946 0.050573453 -0.0077507584
-0.0465092 0.00032820136 -0.030609805 0.05753122 -0.03191972 -0.009299052 -0.0149608245 -0.01087849
0.011481437 -0.051078793 0.05646097 -0.041301683 0.022660812 -0.05181744 0.03596241 0.056301642
0.066776045 -0.073183894 0.025376277 -0.030461445 -0.1005001 -0.029803246 -0.07785119 0.01915056
0.047614522 0.055138968 -0.034226134 -0.04287914 -0.009072241 0.015870037 -0.020341938 0.042052124
-0.048739288 -0.096054494 0.007896968 0.058744334 -0.052935176 -0.09604192 -0.12072837 -0.09246934
-0.096096165 -0.016280511 -0.022188552 -0.08356804 -0.08779508 0.013556288 -0.057355735 -0.034951672
0.078650065 0.04446876 0.04078267 -0.12408592 -0.08636531 -0.056271113 0.07560532 0.040853836
-0.0063268724 0.032434978 -0.058061246 -0.048856437 -0.054746646 -0.0011886923 -0.083403245 -0.008360857
-0.11595566 -0.08992118 0.03635319 -0.0039718878 0.02253208 0.117533706 0.03947904 -0.084276326
-0.04898089 0.043278977 0.07137227 0.043787714 -0.01021846 -0.048601214 0.072451204 0.018322747
0.056701627 -0.029651714 -0.051126655 0.0013618194 0.009042124 0.033378817 0.018266039 -0.050133877
-0.06894385 -0.036040835 -0.05600537 -0.03748832 0.056383837 -0.04066512 -0.06234898 -0.031994674
0.07277411 -0.062768504 0.044656772 0.04417392 -0.023640862 -0.096836224 -0.014189123 0.01679391
-0.0045523955 -0.061425403 0.054291546 -0.07927841 0.012243034 -0.07962518 -0.0955243 -0.043913346
-0.062300663 -0.042167168 -0.025197979 -0.0013992053 0.045705628 -0.022799067 0.07408149 0.035496037
0.015179151 -0.019004147 0.009718054 -0.046150275 0.007993411 -0.010789615 -0.07461507 -0.043969296
0.044730715 0.00042956823 -0.077328935 -0.03396423 -0.09364184 0.01897233 -0.10425651 -0.043335762
-0.057516966 0.04599955 -0.018537791 -0.0283774 0.005720657 0.046631765 0.03628355 -0.10746205
-0.038893394 0.004732893 -0.053788077 -0.10153728 -0.0083942665 -0.010512126 -0.015210644 -0.02592965
0.059976805 0.06359708 0.08944337 -0.067378476 -0.06009637 0.026451183 -0.05997264 0.017715206
-0.05913814 -0.0028702228 0.0024679084 -0.04520433 -0.007457057 0.08489121 -0.02523306 -0.06422149
-0.029098012 -0.0110871075 0.08666938 0.0041479496 -0.1032911 -0.05789181 -0.039354052 0.061801493
0.07225869 -0.07212583 -0.053095553 -0.030909453 -0.06413454 0.05771376 0.027599469 -0.0531905
-0.038790446 0.03861821 0.07656257 0.05340991 -0.09132064 -0.1318889 -0.007000687 0.03741693
-0.0026264936 0.0652926 0.011784695 0.037398335 -0.0061621773 0.04429283 0.035400983 -0.021520078
-0.02997176 -0.003303201 -0.0681098 -0.044505563 -0.09849522 0.00844205 -0.023917379 -0.07202146
-0.10279079 0.023425711 0.010198807 0.0018093626 -0.002657855 0.004963627 0.007884446 0.07841777
-0.021138847 0.041880164 0.015373755 -0.058249846 0.059360854 -0.08235074 -0.07631018 -0.061788913
-0.016505105 -0.0032331108 -0.059121702 -0.036937844 -0.0706439 0.008042089 0.022721622 -0.10541759

block1.conv1.bias f4 [64]
00000000: 93c9 ce3c a696 71bd 1a95 203c f9a0 5b3d
00000010: a731 59bd 2998 b8ba 70df 6abb 8d0d 3bbd
00000020: 3c44 a2bc e1e3 a6bd 05bf 323d 6238 92bd
00000030: cecd 45bd 55e4 9cbd d341 3cbd 34fb 18bd
00000040: 2507 b93c 72ff e43c 465b 423d 2f8a 83bc
00000050: bf5c fd3c 0fb8 d23b ac17 9abc 5d0f babc
00000060: d7b0 2b3d 05fb ac3c ad1e 8fbd 01ee 963c
00000070: bfab 91bc 6e51 4e3d f6c3 513d d609 0abc
00000080: 35bb 053d 0f29 1a3d 2508 573c eaa1 97bc
00000090: cbe9 c13b 1d58 6cbc e71a 503d fc89 873c
000000a0: e962 123b 588b 893d 5f16 663d a1dc 9c3d
000000b0: 966f d23c 3187 6e3d 590b 79bd c5b1 763d
000000c0: 732a a2bd a3cd 963d 3501 5abd 8555 61bd
000000d0: 3768 ba3d eda7 cb3d c16c 57bd e0b5 c8bd
000000e0: 5de8 1fbc 4780 53bd d010 a43d 9add cd3d
000000f0: c34e 7dbc 0364 90ba a8a1 6c3c 6f62 92bd
0.025242602 -0.05898156 0.009801174 0.053620312 -0.053025868 -0.0014083433 -0.0035838746 -0.04566722
-0.019807927 -0.08148933 0.0436392 -0.071396604 -0.048291974 -0.076607384 -0.045961212 -0.03734894
0.022586415 0.027953837 0.047450326 -0.016057102 0.030928014 0.006430633 -0.018810116 -0.022712404
0.041916694 0.02111579 -0.06988273 0.018424036 -0.01778209 0.050370626 0.051212274 -0.008425197
0.032649238 0.037636813 0.0131245 -0.018509824 0.005917763 -0.014425305 0.050806906 0.016545288
0.0022336787 0.06716031 0.05617368 0.07659269 0.025687974 0.058234397 -0.060801838 0.060228128
-0.07918253 0.07363441 -0.053223807 -0.0550132 0.09101909 0.09944139 -0.05259395 -0.09800315
-0.00975999 -0.051636007 0.08011019 0.10052033 -0.015460673 -0.0011016134 0.014442839 -0.07147681

block1.bn1.weight f4 [64]
00000000: 3450 863f 1806 863f 4762 8f3f 592a 7c3f
00000010: b3f8 703f 0a24 7e3f 2498 813f 094c 7d3f
00000020: b934 7c3f 2a0a 7c3f f474 783f 2102 833f
00000030: d5ff 703f 11e2 753f 4d19 753f 0752 7e3f
00000040: ddda 853f 8864 713f 6e32 803f a4d1 7a3f
00000050: 8dc1 733f 9492 823f a843 813f e1bd 873f
00000060: 8762 803f d75a 7d3f 77bf 7c3f 5ba2 763f
00000070: 4e1a 823f e29b 833f bbbd 873f 1b72 813f
00000080: 9f78 733f eea0 763f b12b 823f 1bf7 823f
00000090: 7958 773f 7c43 813f dbf6 793f 7e0a 803f
000000a0: da56 7d3f 9405 773f c391 723f 4ef8 803f
000000b0: 8e44 883f aa29 8d3f df1e 753f 0dc3 6c3f
000000c0: ea70 7e3f 2ecc 783f 7584 883f 6ea3 733f
000000d0: 07e4 793f 0783 7d3f b2b5 8a3f 2250 843f
000000e0: 774e 843f 0ede 823f ce2b 733f 654a 813f
000000f0: 177e 7b3f 7592 7c3f 0ac4 853f 66c3 823f
1.0493226 1.047061 1.1201867 0.9850212 0.94129485 0.9927374 1.0124555 0.98944145
0.9851795 0.9845301 0.97053456 1.0235025 0.9414037 0.96048075 0.9574173 0.99343914
1.0457417 0.94294024 1.001539 0.97976136 0.9521721 1.0200982 1.0098772 1.0604821
1.0030068 0.98966736 0.9872965 0.96341485 1.0164278 1.0281947 1.0604776 1.0112947
0.9510593 0.9633931 1.0169584 1.0231661 0.96619374 1.009872 0.97642297 1.0003202
0.9896065 0.96492887 0.94753665 1.0075777 1.0645921 1.102834 0.9575023 0.92485124
0.99391043 0.97186553 1.0665423 0.9517125 0.9761357 0.99028057 1.0836699 1.0336955
1.0336446 1.0224016 0.94988716 1.0100828 0.9823927 0.98660976 1.0450451 1.0215881

block1.bn1.bias f4 [64]
00000000: 4218 b63c 921a 5dbd 4b92 04ba 2c0c 93bc
00000010: 8333 11bd db64 d4bc ccc7 9bbc 1ce5 34bd
00000020: 2825 8fbc f5ef 35bd c720 a5bb a8c2 adbc
00000030: c39f 3bbd 944c d6bc 6a17 fcbc b50f 2abd
00000040: 0ecf cebc fe71 34bd 594e 68bb 7f57 31bd
00000050: d24f 42bd 3ca8 c4bc 6a43 aabc 17c4 4a3d
00000060: ba03 7ebd 3c68 88bd ecf7 8fbd 4e33 f2bc
00000070: 84ff 593b 9253 9abc 7275 3cbc 0243 c7bc
00000080: d9b3 a8bd 8b9d e6bc 3390 f7bc 7ae4 da3c
00000090: 9c3d d1bc 182a 95bc 3583 2d3c a757 babd
000000a0: f157 953c 3ed1 90bd f63a c2bd bfbb a2bd
000000b0: cd6c d1bc 6851 f9bb fdd5 88bd c0b1 b7bd
000000c0: e6a8 3abd 088d 13bd e8cd a73c 5ad1 19bd
000000d0: 7a58 3abd fb4c b3ba d71f dbba e23e 7e3b
000000e0: 2b88 62bd 6ad4 db3c 82e2 22bd d137 ad3c
000000f0: 28b6 44bd fbcd 4dbd addf 9b3c 95b3 0ebd
0.022228364 -0.053980418 -0.00050572 -0.01795014 -0.035449516 -0.025926998 -0.019016169 -0.04416381
-0.017473772 -0.044418294 -0.0050393078 -0.021210983 -0.045806658 -0.026159562 -0.030772883 -0.041518886
-0.025245216 -0.044054024 -0.003544709 -0.043296333 -0.047439404 -0.024006002 -0.020784099 0.049503412
-0.062015273 -0.06660506 -0.07029709 -0.02956548 0.0033263871 -0.018838678 -0.0115026105 -0.024323944
-0.08237428 -0.028151294 -0.030220127 0.026720274 -0.025542073 -0.018208548 0.010590364 -0.090987496
0.01823041 -0.0707116 -0.09483902 -0.07945966 -0.025564576 -0.0076085813 -0.0668144 -0.0896945
-0.04557123 -0.03602317 0.020483926 -0.03755317 -0.045494534 -0.0013679558 -0.0016717863 0.0038794805
-0.05530564 0.026834685 -0.039766796 0.02114478 -0.04802528 -0.050245266 0.019027555 -0.03483923

block1.bn1.running_mean f4 [64]
00000000: e4a8 4fbf c70b 47bf 53a5 3fbf 4e46 dfbb
00000010: 0c63 893f 9ab0 703f 1efb 8ebf 2554 08bf
00000020: 7f5d 2abf ab6f 12bf 64f9 58bf 4082 4bbf
00000030: 0a61 5e3f 394c f23e 808d debd 06e9 82be
00000040: dae7 20bf 0670 f43d c17f 89be b14b 293f
00000050: e74d 60bf 6a8d 72bf 3496 b8be 634f ebbe
00000060: 4631 0dbf 5b37 4dbf 9b5c 6c3e 1128 debe
00000070: 1e53 49bf bb02 b9be 87af 183d 341e 4e3e
00000080: b55b 3c3e a23d 633e c8c1 74bf 19da 23bf
00000090: 9c31 2fbe bee3 10bf 289f c4bf 94b2 5ebe
000000a0: 2eb0 7ebd 6fac 11bf 1c61 00be 5bc1 c63e
000000b0: df79 dabe bc66 e1be 52d7 593f cac5 4b3d
000000c0: 2dd5 3cbf c7a1 35bf a985 85be 943e 2bbd
000000d0: 0383 4a3e bc84 58be 5c07 04bf d331 73bf
000000e0: 8df9 14bf f556 76be fdb6 00bf 7b1b b1be
000000f0: 728f 083f d156 ab3e 45c4 82bf 97fc cb3d
-0.8111708 -0.77752346 -0.7486164 -0.006813801 1.0733352 0.9401947 -1.1170385 -0.53253394
-0.66548914 -0.5720164 -0.8475554 -0.7949562 0.8686682 0.47323778 -0.10866833 -0.25568408
-0.6285378 0.11935429 -0.2685528 0.6613112 -0.8761887 -0.9474703 -0.36052096 -0.45959005
-0.5515331 -0.8016259 0.23082201 -0.43389943 -0.7864245 -0.36134896 0.03727677 0.20128709
0.18394358 0.2219148 -0.95608187 -0.64004666 -0.17108768 -0.56597507 -1.5361071 -0.2174781
-0.062179737 -0.5690374 -0.12537044 0.38819394 -0.42671105 -0.44023693 0.8509418 0.049749173
-0.7376278 -0.7094998 -0.26078537 -0.041807726 0.1977654 -0.21144384 -0.5157373 -0.949979
-0.58193284 -0.24056609 -0.5027922 -0.34591278 0.5334388 0.33464673 -1.0216147 0.09960287

block1.bn1.running_var f4 [64]
00000000: c7ea 743f 423c 333f 09ae 1440 1fd5 2c3f
00000010: b4a0 1340 8c16 883f e213 963f 7063 863f
00000020: a042 d63f 3df0 1c3f e510 813f adbe 863f
00000030: 061d 843f 1c4a 193f 08f3 b93e 059e c33e
00000040: 80c7 553f 276b 643f 9bcd 3e3f 0acc 103f
00000050: 0850 b13f 0f75 973f 787e 3f3f b997 033f
00000060: 4db3 533f d517 613f 6cec 423f fa28 403f
00000070: 0247 d53f c5d1 223f f7c5 a53e c8eb 4f3f
00000080: 0c6c 043f 7c29 083f 684f e63f 2215 5a3f
00000090: 7fe7 a43e 4f61 6e3f 2711 0a40 66eb 003f
000000a0: b3aa c23e f235 7d3f b1a3 be3e 13d2 193f
000000b0: f378 4e3f f405 e23e d2b5 093f 8e9d 253f
000000c0: b01c fd3e 0b19 a93f e104 7e3f b82a ed3e
000000d0: 14af 3c3f 4e8f 843f 449d 2b3f aa98 da3f
000000e0: 0121 593f c503 d23e 8005 263f d3db bc3e
000000f0: 8584 253f 6c02 6f3f fba8 8e3f 0328 063f
0.9567074 0.7001382 2.3231223 0.67512697 2.3066835 1.0631881 1.1724818 1.0499096
1.6739082 0.61304075 1.0083281 1.052694 1.0321357 0.59878707 0.3631823 0.38206497
0.8350754 0.89226 0.7453248 0.5656134 1.3852549 1.1832598 0.7480235 0.51403385
0.82695466 0.8792699 0.76142 0.75062525 1.6662295 0.6360133 0.32377598 0.8121915
0.51727366 0.531883 1.7992983 0.85188496 0.32207868 0.9311723 2.157297 0.5035919
0.38020858 0.9891044 0.37234262 0.6008617 0.80653304 0.44145167 0.5379306 0.64693534
0.4943595 1.3210768 0.99226195 0.46321654 0.7370465 1.0356233 0.67036843 1.7077839
0.84815985 0.410185 0.6485214 0.36886463 0.64655334 0.9336307 1.1145319 0.52404803

block1.conv2.weight f4 [64, 64, 3]
00000000: 6e83 edbc c7ac 43bd 2521 e53a 6838 de3d
00000010: 0429 913d aa06 883d 33d7 edbd 22f8 703b
00000020: 2777 e1bb e1b3 3fbd f6a4 093c d566 ca3c
00000030: 9eae 733d 1e0e a93d 51ae 0c3c 6e88 8fbd
00000040: 103e 9e3c 4ed0 48bd d19d 853d 6302 b33c
00000050: d0f8 0abd 087e 693d 3f9f e43d eac1 2e3d
00000060: 42bd e1bc 3161 63bd 232a a73d 2ae6 a53c
00000070: d0df 8fbd d52a 933c 809a f13d 032e 76bc
00000080: 3d0c 013d fc56 8f3d e5cf 863c 9f7a 813d
00000090: 7160 2cbc 4241 953d 4ee8 7e3d 50ea 9abb
000000a0: 665f f73c eaf9 713c 7c30 893d d038 17bd
000000b0: e660 523d cb32 213d c715 3cbd 1fde 0cba
000000c0: 0103 5ebd 73f3 22bc 8826 8e3c fb59 523d
000000d0: 3a35 043c 09d2 063d 00e4 da3c adf6 903c
000000e0: 11b0 41bd 7138 3b3d 60d9 55bd 4753 c73c
000000f0: 0b00 d3bc b515 d23a 93c8 213b c661 883d
00000100: 1767 5fbd 6c3c 7cbc dbc7 15ba 4691 00bc
00000110: 963b 92bd 892d fcbc 65aa e73c e826 653d
00000120: 97fe 143d a871 8a3d 5191 9b3d 497b c33d
00000130: 983c c33d ff38 3dbd 31ec e53c 86ff b13d
00000140: 268a d43d 7f59 cdbb 6f8f 9ebd fd38 2e3d
00000150: 75e6 813d 63ea acbd 8fbe b7bb e520 babd
00000160: 6e52 8fbc 8693 24bc 53a6 a4bd 430c 4cbc
00000170: b2c2 a1bc f5ff c6bc cf0f 9fbd 51ba c43c
00000180: 6e00 b2bc 484b 5a3d acc1 0abd 0076 59bd
00000190: f086 4d3c e9a0 f53c 8cd1 3cbd 05ae 39bd
000001a0: 73a1 813d 7cf0 f5bb 50c7 53bd d4e8 3dbd
000001b0: c25b 173d ae79 943d 520f 2b3c 4556 463c
000001c0: 020e 313d f85b ba3d 8146 413c b7df b33d
000001d0: e7e7 bebc e592 843d 52d6 68bd 4360 f63c
000001e0: 1ddc 533c cbad 93bd 3b10 9dbd 2d7e 793c
000001f0: a7cd 343d 42c9 b73c defb 983c 42c8 243d
00000200: fba6 fe3c 5db1 a93b a9b7 04bd 0053 653d
00000210: 1523 bbbd f41a 8b3d 5824 8c3d c9d1 d13d
00000220: 2f5f 30bc e6a5 8fbd a53b 90bc fe04 a6bb
00000230: ca69 9bbc 05c4 cfbc 32d6 c4bc fe4b 6abd
00000240: 3eb1 18bd 7ca1 83bd fe39 8dbd 2edd 5ebd
00000250: bfc3 3b3b 0661 98bc 8526 2e3d ac56 acbc
00000260: 889a d13c e788 053d dfe8 16bd d0ed 123c
00000270: 3452 fbbb c6c6 5cbd fc5d 713c 64e1 1fbd
00000280: 13b9 c3bd 181a cabd 6e2e 06be c7ee 293c
00000290: 8d24 39bd 314a 40bd 9bbc b9bc 6121 f2bd
000002a0: ea98 36bd a9f7 c43c 34f8 01bd 2721 3fbb
000002b0: bd40 553c 96a8 bd3d ef15 7d3d 8571 993d
000002c0: b04a 7cbc 2c80 533d 0238 573d 2482 973c
000002d0: 7f8d ab3d c77c 763d 4ed5 c33c 177c 0bbc
000002e0: c220 acbc 2c23 d53c da57 11bc de11 973d
000002f0: a185 bbbc 1c73 89bc 0aa9 0e3d 85c5 db3c
00000300: 8752 9bbd 9d4c b63c 3545 453c 9812 9bbd
00000310: 25c2 c4bc b952 373d 7341 4bbd e6a4 acbd
00000320: 1bfe 38bd 9289 1e3d 96b8 5eba 7f7f 5fbd
00000330: 45bc 9ebd 08ec 423d 7695 073d 55b5 b73b
00000340: 2cf9 dfbd 51ef 57ba 9e5a 95bd 08ae 3a3d
00000350: b4d7 d0bc a03f 133d e24b 0c3d 2092 de3b
00000360: 4550 6cbd 98c4 76bd e9cb abbd 844c 02bd
00000370: 5697 063d e805 623b 59ca 12bd 780b 12bb
00000380: 535d 993c 3ab0 49bd 1fc2 51bd 88b2 8fbb
00000390: 2b41 6dbd 757a fdbc 377f f13c a81d 02be
000003a0: 8208 57bd ee94 1ebc 03bb e2bc adc1 823d
000003b0: 01f6 1d3d 5b4c d33d d457 03bd 4d0e 47bd
000003c0: eba3 62bd 5ab5 77bd 46bd a1bd f5b9 783d
000003d0: c524 9d3d d1d9 63bd ce41 82bd 3567 183c
000003e0: 9118 2abd 3af0 3d3d a795 e63c 784f e33b
000003f0: bc88 933b b08d 7abd eeee 81bd 9c99 2c3d
-0.028993335 -0.047772195 0.0017481191 0.108506024 0.07087901 0.06641896 -0.116133116 0.0036768992
-0.006880659 -0.046802405 0.008401146 0.024707237 0.0594927 0.08254646 0.008586482 -0.07008444
0.019316703 -0.04902678 0.06524242 0.021851724 -0.033928692 0.05700496 0.11163186 0.0426654
-0.027556065 -0.05551261 0.08162334 0.020251352 -0.07025111 0.01796476 0.11797047 -0.0150256185
0.031505812 0.06999013 0.016456554 0.06322216 -0.01052104 0.072878376 0.06223326 -0.0047276393
0.030196857 0.014769057 0.06698701 -0.036919415 0.05136194 0.03935508 -0.045919206 -0.0005373675
-0.054202083 -0.009945738 0.017352358 0.051355343 0.008069331 0.03291515 0.026720047 0.01769575
-0.04728705 0.045708124 -0.052209258 0.024331702 -0.025756856 0.0016028198 0.0024686202 0.06659274
-0.054541674 -0.015395265 -0.000571368 -0.007847136 -0.07140271 -0.030783432 0.028279493 0.055945307
0.03637561 0.067599595 0.07596076 0.09544999 0.09533042 -0.046196934 0.028066726 0.08691315
0.10377912 -0.0062667723 -0.077422015 0.042534817 0.06342784 -0.08443143 -0.005607433 -0.090883054
-0.01749536 -0.010044938 -0.08039536 -0.012454095 -0.019746158 -0.024291972 -0.07766687 0.024014624
-0.02172872 0.05329445 -0.033876106 -0.05309105 0.012544379 0.029983955 -0.046098277 -0.045331974
0.06329622 -0.0075054746 -0.05170375 -0.04636462 0.03695274 0.07249771 0.010440664 0.012105529
0.04322625 0.09099573 0.011796595 0.087829046 -0.023303939 0.064733304 -0.056845017 0.030075198
0.012930897 -0.07210883 -0.07669111 0.015227837 0.044141438 0.022434834 0.018674787 0.040230043
0.031085482 0.005178614 -0.032401714 0.055987358 -0.09137551 0.0679225 0.068428695 0.102450915
-0.010764881 -0.070140645 -0.017606566 -0.005066513 -0.018971343 -0.025362024 -0.024027918 -0.057201378
-0.037278406 -0.06427285 -0.06895827 -0.054410152 0.002865061 -0.018600952 0.042517204 -0.021037422
0.025586382 0.032601263 -0.036843177 0.008967832 -0.0076697115 -0.053900503 0.01473188 -0.03903331
-0.095567845 -0.09868258 -0.13103649 0.01037187 -0.045200873 -0.046945754 -0.022672942 -0.11822773
-0.044579424 0.024043875 -0.031730846 -0.0029164047 0.013015923 0.09260671 0.061788496 0.07492355
-0.015398666 0.051635906 0.052543648 0.018494673 0.083765976 0.06017759 0.023905423 -0.008513472
-0.021011714 0.026017748 -0.008871043 0.07376455 -0.022890868 -0.016778521 0.034829177 0.026827583
-0.075841 0.022253329 0.012040426 -0.07571906 -0.024018357 0.044756625 -0.049622964 -0.084298894
-0.04516421 0.038705416 -0.00084961334 -0.05456495 -0.07750753 0.04758838 0.03310152 0.0056063333
-0.10936198 -0.000823726 -0.072926745 0.045576125 -0.02549348 0.03594935 0.034252055 0.006792322
-0.05769374 -0.06024608 -0.08388502 -0.031811252 0.03285917 0.0034488384 -0.035837505 -0.0022284668
0.018721258 -0.04924033 -0.05121052 -0.0043852963 -0.057923477 -0.030942181 0.029479606 -0.12706625
-0.052498348 -0.009679062 -0.027677065 0.06384597 0.038564686 0.10317298 -0.03206618 -0.048597623
-0.055332106 -0.060475685 -0.07897429 0.060724217 0.07673029 -0.055627648 -0.063602075 0.00930195
-0.041527335 0.046371676 0.028147532 0.0069369636 0.004502384 -0.06117028 -0.063444 0.04213868

block1.conv2.bias f4 [64]
00000000: 258a 33bc 439a fb3b 2798 fdbc 562d 1ebd
00000010: 1ed6 0fbd 98e0 8fbc 76e9 763d d2de 39bd
00000020: 9984 8ebd a8a7 af3d bffe d9bc 4480 abbb
00000030: 6384 7a3d 36d8 babb 6477 9fbc cfc8 513d
00000040: 12ec 7b3d 1216 41bd 471a 933c 2aba 7b3d
00000050: 85f0 7f3c dbae 0d3d 5111 143d 35a4 adbd
00000060: 5501 a93a 9dc8 8bbd 6955 49bc a6cd 43bd
00000070: c6bb 06bd b3ef 203c b8f4 4c3d c3ad 63bd
00000080: 680b feba 8230 9abc f92f 8cbd 70f4 8a3d
00000090: 0988 4c3d 77ab 29bd e9e0 f0bc 89f2 8c3d
000000a0: 8c26 6ebd 4a3a 21bc 50e0 ef3c 6a5c bcbc
000000b0: f1a7 66bc c375 c4bc e134 07bc 0e40 84bd
000000c0: 2dbe 8e3c 4ee4 ccbc a038 763d c325 293d
000000d0: 2507 20bd 6782 863a 2ca6 103c 65f8 473c
000000e0: b320 943d 9ce0 033d 180f 513d f7c3 093d
000000f0: 3493 c33c e527 023d 2c65 13bd b6e7 93bd
-0.010958229 0.0076783015 -0.030956341 -0.038617454 -0.035116307 -0.01756315 0.06028124 -0.045378514
-0.06958885 0.085769 -0.02661073 -0.0052337963 0.06116141 -0.005702044 -0.01946611 0.051216897
0.06150443 -0.04714019 0.017956866 0.061456837 0.015621309 0.034590583 0.036149327 -0.08478586
0.0012894074 -0.06825373 -0.01228843 -0.047803544 -0.03289392 0.009822774 0.05003807 -0.055585634
-0.0019382061 -0.018821958 -0.068450876 0.06784904 0.04993442 -0.041423287 -0.02940412 0.068821974
-0.05814223 -0.009840557 0.029281765 -0.022993285 -0.014078126 -0.023981934 -0.008252353 -0.0645753
0.017424667 -0.025011208 0.060112596 0.041295778 -0.039069314 0.0010262252 0.008828681 0.012205218
0.072327994 0.032196626 0.051039785 0.033634152 0.023873903 0.031776328 -0.035985157 -0.0722193

block1.bn2.weight f4 [64]
00000000: 1155 823f f0f2 7d3f cb8c 833f 467f 843f
00000010: 8309 823f 5b11 853f c321 8c3f 85fa 893f
00000020: aecc 863f 44f9 813f 379c 833f c759 823f
00000030: 8e73 863f b1c0 903f 547f 883f 0385 823f
00000040: 1b20 853f 2f52 843f 4872 7b3f 1f37 7c3f
00000050: bd12 853f 170f 8c3f 6ac7 7e3f 8943 703f
00000060: 91d2 7e3f 59aa 833f 3b2b 6d3f 3a9d 893f
00000070: 1e2b 843f cc2e 803f 5222 803f 9ad2 793f
00000080: 6f54 793f a25e 873f 85c6 843f 53fd 7a3f
00000090: 1b90 893f e8cd 823f 9acb 7e3f 4630 823f
000000a0: 74ac 8a3f 0cdb 803f a3d9 7d3f e44c 863f
000000b0: 2064 833f e632 853f 8ca1 7c3f 3907 7d3f
000000c0: 832c 7c3f 17b5 883f 71fe 7d3f f9fa 863f
000000d0: 61e8 833f ae61 7c3f c6bb 833f cc25 8a3f
000000e0: 82a6 803f 95d0 7d3f b6c5 823f d60c 843f
000000f0: 6e25 8a3f f1db 843f 61ef 833f ce5d 783f
1.018221 0.9919882 1.0277342 1.0351341 1.0159153 1.0395921 1.0947803 1.0779577
1.0531213 1.0154195 1.0282048 1.0183648 1.0504014 1.1308805 1.0663857 1.0196842
1.0400423 1.033758 0.98221254 0.9852161 1.0396343 1.0942105 0.9952303 0.9385305
0.9954005 1.0286361 0.9264409 1.0751107 1.0325658 1.0014281 1.0010474 0.9758698
0.9739446 1.0575755 1.0373083 0.9804279 1.0747102 1.0219088 0.9952942 1.0170982
1.0833879 1.0066848 0.9916021 1.0492215 1.0264931 1.0406158 0.98684 0.98839146
0.9850542 1.0680264 0.9921637 1.0545341 1.0305291 0.9858655 1.0291679 1.0792785
1.0050814 0.99146396 1.0216587 1.0316417 1.0792673 1.0379621 1.0307428 0.97018135

block1.bn2.bias f4 [64]
00000000: 65b7 a6bc 004c 04bd 3ba7 1abd 46cb 7fbd
00000010: 2c93 dfbb 3348 02bd 2a7e 163d fb46 a8bb
00000020: 0842 f2bc b7c2 dd3b 5beb d4bc 66af e6ba
00000030: a484 0e3c 24fa 3fbd da24 9cbc 18d5 b33c
00000040: c2d1 b53c a661 2dbc 1f3b aebc 8e62 5a3c
00000050: 9baf 9cbb 5084 6abd ff5e b63b abbf a5bc
00000060: 6fee 8c3c dddd 033d 8954 56bd b434 f73c
00000070: 380f 303c a196 45bc 8435 283b 8fe7 dbbc
00000080: 5db3 df39 1bca eb3c fd9b 6d3c 2c6b 1cbd
00000090: 4c12 423d 98ea c8bb 1e13 d8bc 77b5 0fbb
000000a0: f583 febc ca57 18bd 8662 a33c 74d5 d73c
000000b0: 96de 23bc 2d2e 093d a873 8abd 23e7 363c
000000c0: dc0a a7bd 0f36 c03c 4187 bd3a 8e9a af3b
000000d0: 1281 79bb fe61 a7ba ad3c ab3c 4f81 f13b
000000e0: ce4b b9bc d33c e23b c677 f2bc fa9f fbb9
000000f0: 0f8f e03c ceb5 dcbb 9332 d83a c1c7 87bc
-0.020351121 -0.03229904 -0.03775714 -0.062449716 -0.006822964 -0.031807136 0.036741413 -0.0051354147
-0.029572502 0.0067675966 -0.025991132 -0.001759988 0.008698616 -0.046869412 -0.019060541 0.021952197
0.022194747 -0.010582363 -0.021268426 0.013329161 -0.004781676 -0.05725509 0.0055655236 -0.020232996
0.017203538 0.032194007 -0.052326713 0.030176498 0.010745816 -0.0120598385 0.0025666663 -0.026843814
0.0004266751 0.028782895 0.014502523 -0.038188145 0.04738073 -0.0061314814 -0.026376303 -0.002192823
-0.031068781 -0.037193097 0.01994444 0.0263469 -0.010001799 0.033491302 -0.06760341 0.011163506
-0.08156368 0.023463277 0.0014459864 0.0053590005 -0.0038071317 -0.0012770293 0.020902956 0.007370151
-0.022619154 0.0069042235 -0.029598128 -0.00047993643 0.027411966 -0.00673554 0.0016494564 -0.016574742

block1.bn2.running_mean f4 [64]
00000000: 4ad0 683e a070 a0be 4a9f a1be 941a a5be
00000010: d106 0bbd 1ac4 37bd ac73 76be 57df 3cbe
00000020: 500e d93a dbde fc3c e66c a53e 64ec c7bc
00000030: ca74 1cbe a651 8abd 48f2 84bc 8bfd 3dbf
00000040: d806 c4bc 0daf b2be 39d1 8dbe 2668 483e
00000050: 248e f13d 4212 73bd 9247 e23d a4a6 f5bc
00000060: c8a2 093f 49c0 17bf 10fe de3d 98e2 df3d
00000070: 2d97 5cbe 9be7 9d3c d0a0 dfbd 87eb 96be
00000080: 076a 773d 6d49 0d3e ec0e f9be 4d48 cb3d
00000090: 984f 2dbe 898e bcbe 670c 813e 58ac 3dbe
000000a0: 5b9a 52be 06e3 f6bd 4891 09bd 9eee dcbd
000000b0: a553 08be ecc6 59be d122 52be af74 863d
000000c0: 73a4 02be b6e9 efbe f8c8 043e a661 43be
000000d0: 44c2 2e3d a5eb a9be 7c24 d0be 2666 debe
000000e0: 4b73 cd3e c1d5 043e 4ad7 0fbe b8bb 123e
000000f0: e4b7 5a3a 08ef 9bbe b9e0 543d 66b9 0abf
0.22735706 -0.31335926 -0.3156684 -0.3224684 -0.033942048 -0.04486475 -0.24067563 -0.18444572
0.0016560052 0.030867985 0.32309645 -0.024404712 -0.15278926 -0.067538545 -0.01622881 -0.74215
-0.023929045 -0.34899178 -0.27698687 0.1957098 0.11794689 -0.059343584 0.11048807 -0.029986687
0.5376401 -0.5927778 0.10888302 0.10931891 -0.21542044 0.019275477 -0.109193444 -0.29476568
0.06040385 0.13797541 -0.48644197 0.099259 -0.16924894 -0.36827496 0.25204775 -0.18522775
-0.20566694 -0.1205502 -0.033585817 -0.107877 -0.13313158 -0.21267289 -0.20521094 0.065652244
-0.12758045 -0.46857995 0.12967288 -0.19080219 0.042665735 -0.33187595 -0.40652835 -0.43437308
0.40127024 0.12972166 -0.1404697 0.14329422 0.0008343442 -0.30455804 0.051972125 -0.54189146

block1.bn2.running_var f4 [64]
00000000: 7cfb dc3e 6c04 453e adaa 643e eea0 683e
00000010: 6156 a53e 9ed3 153f 2f2a 863e dff4 443e
00000020: 1591 483e 0fe6 233e c4a0 003f e1ba 873e
00000030: 090a 433e a17e 943e 562c 2e3e 1787 353f
00000040: 4a5d c93e 3746 af3e 6a6e 0e3f b991 0c3f
00000050: 835d 343e b7da 773e e30d b13e 35b6 1f3e
00000060: 9549 5d3e 8b6d 443f 2427 833e 33a7 643e
00000070: cfca 043f 65e0 fd3e c097 293f 587f e93e
00000080: 252d a53e 47f7 b43e 964c 923e e1c0 f53d
00000090: 3a5e c63e 8a79 c53e 4ae3 233e 8c4f 713e
000000a0: 1b1a 2a3e 5993 5c3e 5c2d 813e 0b4a 663e
000000b0: 6b87 ac3e 0828 bf3e 9c98 1b3f 47ea 9e3e
000000c0: 18cf 9e3e 4d98 133e fc05 9d3e a859 cb3e
000000d0: a692 9d3e fd50 463e 0b81 a73e a32c d53e
000000e0: ebb5 813e b24c 183e bfce 913e d3e2 7f3e
000000f0: f977 ab3e b214 ea3e 5e5f 903e accf f43e
0.43160617 0.19239968 0.22330733 0.2271764 0.32292464 0.5852603 0.2620406 0.19234036
0.19586594 0.16005729 0.5024531 0.26509765 0.19046797 0.2900286 0.170091 0.70909256
0.39328986 0.34233257 0.5563723 0.54909855 0.17613797 0.24204527 0.34580907 0.1559685
0.216101 0.7672965 0.256158 0.22329406 0.5187196 0.49585262 0.6624718 0.45604968
0.32261005 0.35344908 0.28574055 0.11999679 0.38743764 0.3856929 0.16004673 0.23565501
0.16611521 0.21540584 0.2522992 0.22489183 0.33697066 0.3733523 0.6077974 0.31038114
0.31017375 0.14413567 0.30668628 0.3971684 0.30775946 0.19366832 0.3271564 0.41635618
0.25334105 0.14873007 0.28478047 0.2498887 0.3348997 0.45718914 0.2819776 0.4781469

block2.conv1.weight f4 [64, 64, 3]
00000000: 41fa b23c 614c 09bd 5609 433d d29b 86bd
00000010: 20de 4ebc d434 6a3c 1fea a63d 8307 fd3c
00000020: 056c a83d 4334 a0bd 79b4 24bd 4fad 6bbd
00000030: 2a6a 72bd e5a3 aabd 30ec d93c 73b7 063a
00000040: 839a f13c f2c1 3ebd e1b0 9f3d 30aa 643d
00000050: 5795 54bd 8b72 fc3c c6a7 3bbd 68d7 83bd
00000060: bce8 cabc 4e00 a83c 569b b3bc 8107 a9bc
00000070: fcb9 e03c a134 52bc bd82 353c 3eb0 b03c
00000080: 2b19 f2bc 2d04 ec3c f7d1 9c3d ee86 243d
00000090: ae61 d5bd 8b34 cb3c e71c d43c 4528 003e
000000a0: 065a c03d ea6a 383c 6e66 603d 4d5b a13d
000000b0: 8f8f 4739 6e89 a63c 729d f53c 24a4 40bd
000000c0: b84f 913c 5aef 0b3d 5306 8dbc 647a 16bd
000000d0: 411c 41bd c0ca 213d a025 023d b95c 60bc
000000e0: 9c3a a83c 0244 863d eb75 fcbc 605a 0a3d
000000f0: 5727 2bbd 6f5b ddbc d184 323c 1f1e 1b3d
00000100: 6fe7 d03d 9d74 d13d d006 f13c e5d0 86bb
00000110: 82b6 8e3d ba3e 423d 33dd d53c df20 5d3c
00000120: 86ac 68bd 8314 993c fa55 86bc 58f5 f53c
00000130: cfb5 70bd bd46 bbbd fa95 37bd e512 8d3d
00000140: 71d9 483d 2c19 713b bbe8 6e3d a8d6 87bd
00000150: 4772 7dbd aac5 42bc 98c7 88bd 9111 883d
00000160: 81c2 313d 293b a63d 951d a9bc a5bd 7d3d
00000170: 06f7 e9bc a063 95bd 8f9b 13bd 3a63 0dbd
00000180: 3fd9 72bd ac8b b439 05ac 4bbc 52fe a6bd
00000190: eb3c 93bc 75d6 173b 0b02 0c3c bb70 533c
000001a0: 937c eebc 4e17 e03c 19a0 41bd 81d9 d2bc
000001b0: a6ee 91bd b742 81bc 1956 3f3d 7490 9b3d
000001c0: 6ed4 833d 89b1 8e3c d56e cd3c 1d52 a83c
000001d0: ff57 9abc 2979 7c3d cc55 3b3d eb49 883c
000001e0: baac 07bd 95f8 c03c d8e1 dc3d 1472 7f3c
000001f0: 2cc8 333d ccc3 9fbd 7cbc 953d abf4 aa3d
00000200: b6f0 88bc c2b5 4fbd 9051 47bd 2cb4 93bd
00000210: 29bf 48bd 954d 82bd 62c8 493d d3ca 3cb9
00000220: d9c3 94bd cb82 ddbb 5e45 51bd ec44 2ebd
00000230: 56e9 0c3d 9b09 a8bc 1912 b23d b991 d63c
00000240: a6ac 8d3d cfb2 17bd 1cf0 64bd c895 c03b
00000250: 75a5 823d ef4b 503d 879c 87bc 3b31 9d3d
00000260: 340c a23d d8ff 0d3b 81b1 253c 7d3d 58bc
00000270: a601 363c edaf 34bd c9e9 a93c 3ee3 36bd
00000280: 41a5 e6bb ccf4 84bd aa22 19bd 4031 163c
00000290: c57b 8d3d f94b 903b a440 a43d 69b6 21bc
000002a0: 9595 acbd 7108 963d c56f 6d3d 3835 06bd
000002b0: 8902 553d 5ffd 813c 4d2c 01be af5f d5bd
000002c0: 70c9 0bbd a83f ccbd 5624 00be 5990 febc
000002d0: 05b1 c6bc 62aa a63d ae56 3ebc f1a9 b33d
000002e0: 4568 513d 653a cdbc 4074 c73c db4f 0c3c
000002f0: a54d 5cbc c8b4 fabc cd05 843d 2821 1ebd
00000300: ce58 59bb 4540 ba3c e58d aa3d c325 253d
00000310: d079 8ebd d09f e23c 2f6e 19bc 72e0 81bc
00000320: a970 b03c a6cd 4fbd 428a c2bd 434f f3bb
00000330: 53ca 65bd e21c 493c fcd7 f63c eaa3 9abc
00000340: ea9f 483d c184 493d 6432 7d3d 87a9 443d
00000350: a67a b2bd 5fbd d7bc 1be4 74bd 9be6 8abd
00000360: ae3b 5d3d 5d6a 8bbd 8aa5 8fbd 9f59 6fbd
00000370: c1c8 963c 9b61 ac3d 720d 7dbd 3a35 193d
00000380: d4c0 19bc a1f7 023d 3d82 acbd 4c78 a2bd
00000390: 0d57 b6bd b02d 36bd 18f3 df3d 3e7e 2f3d
000003a0: e83d 32bd 3adc df3d e200 483d f897 f739
000003b0: d190 213d 1663 af3c 2f64 4e3d 11d2 6bbc
000003c0: 80e5 aa3d 1dba 03bd 10e2 fbbc d0cb e6bd
000003d0: 6c5c 803b a334 31bd 3705 843d 29a6 96bb
000003e0: 00cb 03bd 0d30 2f3d 7fbf 93bd ac78 19bd
000003f0: de22 98bd aca1 50bd 205d 88bc 1724 563d
0.021847846 -0.033520106 0.047616325 -0.06572689 -0.012626201 0.014294822 0.08150124 0.03088737
0.08223728 -0.07822468 -0.040211175 -0.057538327 -0.059183277 -0.08332042 0.02660188 0.00051390304
0.029492622 -0.04657168 0.07797409 0.055826366 -0.051900234 0.030816337 -0.045814298 -0.0643757
-0.02476918 0.020507958 -0.021924656 -0.020633461 0.027432434 -0.0128299305 0.011078534 0.021568414
-0.029553017 0.028810585 0.07657235 0.04016774 -0.104190215 0.024805328 0.025892688 0.12515362
0.093921706 0.011255959 0.054785185 0.07878742 0.00019031599 0.020329203 0.029982302 -0.047031537
0.017738208 0.03416381 -0.01721493 -0.036737815 -0.047146086 0.039499998 0.031774163 -0.013693982
0.02053576 0.0655594 -0.030817946 0.033777595 -0.041785564 -0.027021138 0.010895924 0.037870523
0.102003925 0.1022732 0.029422194 -0.0041142576 0.06968404 0.047423102 0.026106453 0.013496607
-0.056805156 0.018686539 -0.016398419 0.030024216 -0.058767136 -0.09144352 -0.044820763 0.068883695
0.049035493 0.0036788685 0.058327418 -0.06632739 -0.06187656 -0.011887947 -0.066786945 0.066439755
0.043398384 0.08116753 -0.020643989 0.061948437 -0.028560173 -0.072943926 -0.036037024 -0.034518458
-0.059289213 0.0003443634 -0.012431149 -0.081539765 -0.017973384 0.0023168598 0.008545409 0.012905295
-0.029112136 0.027354863 -0.04727182 -0.02573848 -0.07125597 -0.015778882 0.04671297 0.075959116
0.06437002 0.01741864 0.025077263 0.020546967 -0.018840788 0.061638985 0.04573612 0.01663681
-0.03312371 0.023556033 0.10785264 0.015591163 0.04389207 -0.07801017 0.07311341 0.08347448
-0.016716342 -0.050710447 -0.04866177 -0.072120994 -0.04901043 -0.06362454 0.049263366 -0.00018004635
-0.072639175 -0.0067599765 -0.051091544 -0.042546198 0.034402214 -0.020512393 0.08694858 0.026192533
0.06917696 -0.03703576 -0.05589305 0.0058772303 0.06379215 0.050853666 -0.01655413 0.076754056
0.07912484 0.0021667387 0.010113121 -0.013198254 0.011108791 -0.04411309 0.02074136 -0.04465031
-0.007038743 -0.06492004 -0.037386574 0.009167016 0.06908373 0.004403588 0.08020142 -0.00987015
-0.08426968 0.07325829 0.05796792 -0.032765597 0.05200437 0.015867887 -0.12614556 -0.10418641
-0.034127653 -0.09973079 -0.12513861 -0.03107469 -0.024254331 0.08137967 -0.011617346 0.08772648
0.05112483 -0.025052259 0.024347425 0.008563961 -0.013446246 -0.030603781 0.06446419 -0.03860584
-0.0033164504 0.022735724 0.083278455 0.040319216 -0.06956828 0.027664095 -0.009364649 -0.015854094
0.021538096 -0.05073323 -0.09499027 -0.00742522 -0.056101155 0.012274953 0.030132286 -0.018876988
0.04898063 0.04919887 0.061815634 0.048013236 -0.087147996 -0.026335416 -0.05978785 -0.06782266
0.054011993 -0.068073966 -0.07013996 -0.05843508 0.018406274 0.08417054 -0.0617804 0.037404276
-0.009384353 0.03197444 -0.084232785 -0.07933101 -0.08903322 -0.044477165 0.10935038 0.042845003
-0.04351607 0.10930677 0.048828967 0.00047224737 0.03944475 0.021409553 0.05038851 -0.014393345
0.08344555 -0.032159913 -0.030747443 -0.11269343 0.0039172675 -0.04326309 0.06446307 -0.0045974446
-0.032176018 0.042770434 -0.07214259 -0.037468597 -0.074285254 -0.050935432 -0.016645968 0.05228051

block2.conv1.bias f4 [64]
00000000: bd05 c4bb 924e 4dbd ef06 69bc cefe 2dbd
00000010: 3b78 22bd fa41 20bd f61c 15bd 7e66 7f3d
00000020: b316 883d c6e9 a93c 0fa9 f83c 79f6 94bd
00000030: 9e77 343d 833e 27bd c3e7 babc 5be1 1b3d
00000040: 7291 853d d35a a1bd fa23 403c 04a1 11bb
00000050: d7a8 33bc d05b 76bc 68b7 9cbd 8627 703d
00000060: c87f 3b3d 011b aebd d5f2 033d e3d6 a0bd
00000070: 532b 68bc b9e4 ea3c 5036 80bd 4447 b0bd
00000080: 74a8 1abd 90df 7abc 68cb 103d 7e75 49bd
00000090: 5755 cb3b 329b a23d 382b 8d3d d4fc a5bd
000000a0: a385 d6bc 5515 07bd 47d7 f43c 2614 09bd
000000b0: 7f33 3dbd cece 08bd 1aba 3ebd 9595 48bd
000000c0: afa0 ddbb 8709 be3b 3afa 30bc 1ead a13b
000000d0: d288 dcbc 568f b33d 647d 9cbc 6969 9c3d
000000e0: f344 0d3d 801a d03c f957 51bc 4de8 5f3d
000000f0: b9f2 013c ca78 36bd 22c3 43bc bb02 663d
-0.0059821294 -0.05012376 -0.0142228445 -0.04247933 -0.039665442 -0.03912542 -0.036404572 0.062353604
0.066449545 0.020741355 0.03035405 -0.072735734 0.04405939 -0.0408311 -0.02281559 0.038056713
0.06521882 -0.078786515 0.0117273275 -0.0022221217 -0.0109655475 -0.015036538 -0.076521695 0.058631442
0.04577616 -0.08501244 0.032214005 -0.078534864 -0.014170486 0.028673517 -0.06260359 -0.08607343
-0.037758306 -0.0153120905 0.035350233 -0.049184315 0.0062052417 0.079397574 0.06893009 -0.08104864
-0.02618677 -0.03297933 0.029887808 -0.03346648 -0.04619169 -0.03340035 -0.0465642 -0.048970778
-0.0067635397 0.0057994756 -0.010801846 0.0049339673 -0.02692071 0.087675735 -0.01910276 0.07637293
0.034489583 0.025403261 -0.012777322 0.0546649 0.007931405 -0.044548787 -0.011948379 0.056154948
