ecg_afib_detection/checkpoints/ptbxl/100hz/cnn1d/fold_3/best.pt (torch, 626357 bytes, 22 tensors)

features.0.conv.weight f4 [32, 12, 7]
-0.023841493 -0.24024193 -0.0016678758 -0.24010561 -0.27375743 -0.00077987503 -0.4129977 -0.010961267
-0.05262984 -0.1320575 0.11897398 -0.00042812963 0.18029125 0.084830076 -0.04391752 -0.030223556
-0.117735825 -0.11559371 -0.1740685 0.27190727 0.46917915 -0.03542176 0.22345014 -0.04556163
-0.12636518 -0.2912455 0.016968977 0.14855109 0.20672993 0.20584397 0.034446668 0.10862184
-0.091211304 -0.17984812 -0.06584584 -0.1326491 0.29401273 0.015529318 -0.21549572 0.2186323
-0.1595723 -0.09549667 0.2774183 0.023327174 -0.19429864 -0.14018025 -0.023774968 -0.21750855
-0.21429409 -0.18360548 -0.06536024 -0.2839811 -0.08280089 -0.13774326 0.10387474 0.025861904
-0.1446761 0.16827416 0.09509434 -0.072932966 -0.0023011903 0.032510918 -0.15381402 0.054321464
-0.27475476 0.01746975 -0.019477155 -0.14964223 -0.07289662 -0.26808062 0.1908046 -0.25945622
-0.02075088 0.026271842 0.061450895 -0.010055302 0.02490507 -0.051432516 0.036785945 0.14283775
0.23225789 -0.07668824 -0.067552105 0.13530073 0.11886028 0.14896116 0.11618237 0.0070460867
-0.011680248 -0.07952557 -0.0079134405 0.062026273 0.097940706 -0.06529724 -0.16401893 -0.2310878
0.026972458 0.08935646 -0.06408544 0.038835503 0.10917694 -0.21619028 0.088122845 -0.18102832
-0.12847616 -0.10850602 0.06323359 0.22503528 0.02119656 0.17786221 0.23558621 0.10121374
0.13663305 -0.2509859 -0.17890437 0.17127812 0.13566452 -0.0013194882 0.07107831 0.16922931
0.03575371 -0.1747816 -0.20084682 0.32357258 -0.09451686 -0.18530823 -0.1050862 -0.15071835
-0.17531785 -0.04748748 0.059213296 0.08029478 0.111825265 0.19081375 0.038598336 0.021225508
-0.029385813 -0.12688637 0.035680052 -0.06837181 0.002526625 -0.078099824 0.100070685 -0.07432133
0.049522735 0.015750222 0.21891582 -0.120666705 -0.24211103 0.24848886 -0.05081455 -0.054501813
-0.25609782 0.034311052 0.16016674 -0.22732632 0.0039883256 0.051279403 0.06979965 -0.13492475
0.09198993 -0.08742239 -0.2754452 -0.18939567 0.11101672 0.12691379 0.032220494 -0.3658905
0.1786776 -0.19875748 0.09012034 0.03599419 0.16014884 0.15277095 0.060548853 0.0030458197
0.31321844 0.19988139 0.0632617 0.014047058 -0.19296242 -0.02049205 -0.4014464 -0.0026474446
0.026477851 0.023985108 0.20002124 0.047114734 -0.110929795 0.2571891 -0.057942037 0.023895735
0.052589804 -0.022910913 -0.22074825 -0.01204762 0.17851213 -0.021856036 0.13280553 -0.0005866948
-0.047237545 -0.081388734 -0.0061000534 0.034623984 -0.10255572 -0.0019407321 -0.080485016 -0.33736184
-0.021138657 0.28965363 0.041599926 0.11662466 -0.19865046 0.059956204 -0.06832715 0.17146549
-0.13174887 0.03012144 -0.082043014 0.13169485 0.12712094 -0.086538754 0.032633606 0.14343116
-0.1142388 0.23827222 0.14344247 -0.057289056 -0.065488994 -0.10133755 0.058491223 0.1630466
-0.16650061 0.06762157 0.21671064 0.23281354 0.17412461 0.057611853 0.029400518 0.18299763
0.10321077 0.07847812 0.18429579 -0.030633232 -0.03120927 -0.20005348 0.050190173 -0.1982401
-0.11147419 0.1413971 0.28530923 0.09364194 -0.040546354 -0.11158008 -0.00039971306 -0.14728597
00000000: 3c4f c3bc fb01 76be a09c daba 3fde 75be
00000010: ef29 8cbe 8770 4cba 6f74 d3be e396 33bc
00000020: 6392 57bd 153a 07be a1a8 f33d 9676 e0b9
00000030: 459e 383e 64bb ad3d dce2 33bd 6497 f7bc
00000040: 7b1f f1bd 65bc ecbd 033f 32be 6e37 8b3e
00000050: 4038 f03e 6816 11bd 1dd0 643e d59e 3abd
00000060: e065 01be 211e 95be 8602 8b3c c71d 183e
00000070: 03b1 533e c3c8 523e f317 0d3d 2175 de3d
00000080: fecc babd 1b2a 38be 2fda 86bd 2ad5 07be
00000090: d688 963e ae6e 7e3c e9aa 5cbe 25e1 5f3e
000000a0: ec66 23be c293 c3bd c509 8e3e a118 bf3c
000000b0: 39f6 46be 698b 0fbe b9c3 c2bc 90ba 5ebe
000000c0: e96f 5bbe 1303 3cbe 97db 85bd f965 91be
000000d0: 8393 a9bd 920c 0dbe 48bc d43d 58dc d33c
000000e0: f925 14be 1050 2c3e d2c0 c23d e15d 95bd
000000f0: 91cf 16bb 2b2a 053d 6c81 1dbe 2f80 5e3d
00000100: a8ac 8cbe b91c 8f3c 8e8e 9fbc d03b 19be
00000110: d34a 95bd dd41 89be 4862 433e 72d7 84be
00000120: c0fd a9bc 0c38 d73c efb3 7b3d febe 24bc
00000130: b805 cc3c e7aa 52bd dcac 163d 0f44 123e
00000140: 03d5 6d3e b90e 9dbd c258 8abd 468c 0a3e
00000150: 056d f33d 4689 183e 06f1 ed3d dce2 e63b
00000160: 835e 3fbc 4dde a2bd 60a7 01bc 430f 7e3d
00000170: 2395 c83d 8fba 85bd 94f4 27be 48a2 6cbe
00000180: 58f5 dc3c 8500 b73d 3a3f 83bd fa11 1f3d
00000190: 2998 df3d fc60 5dbe c079 b43d 7d5f 39be
000001a0: 418f 03be 6738 debd 9d80 813d a66f 663e
000001b0: 68a4 ad3c 8321 363e 833d 713e 2649 cf3d
000001c0: 89e9 0b3e 3981 80be b532 37be 8863 2f3e
000001d0: a4eb 0a3e adf2 acba 8191 913d 734a 2d3e
000001e0: 7b72 123d f3f9 32be caaa 4dbe 4eab a53e
000001f0: 0e92 c1bd 71c1 3dbe 6f37 d7bd e955 1abe
00000200: 8686 33be 3b82 42bd a489 723d 9771 a43d
00000210: a504 e53d ae64 433e 4a19 1e3d 1ee1 ad3c
00000220: 84ba f0bc 80ee 01be 3f25 123d 8506 8cbd
00000230: bc95 253b cdf2 9fbd dcf1 cc3d c835 98bd
00000240: 5ad8 4a3d 9c06 813c 782b 603e 1b20 f7bd
00000250: f4eb 77be dd73 7e3e eb22 50bd 4b3d 5fbd
00000260: 411f 83be bf89 0c3d c002 243e 3bc8 68be
00000270: 80b0 823b 5a0a 523d 1ef3 8e3d b729 0abe
00000280: 3765 bc3d 830a b3bd 2707 8dbe f0f0 41be
00000290: bc5c e33d b0f5 013e a3f9 033d 0056 bbbe
000002a0: 43f7 363e 1587 4bbe 0391 b83d a56e 133d
000002b0: 0ffe 233e fd6f 1c3e 1302 783d 609c 473b
000002c0: 2b5e a03e b5ad 4c3e 5a8f 813d a225 663c
000002d0: f197 45be f2de a7bc 628a cdbe c080 2dbb
000002e0: 14e8 d83c 6b7c c43c 5ed2 4c3e 61fb 403d
000002f0: 292f e3bd 4aae 833e a154 6dbd fdc0 c33c
00000300: 6868 573d abaf bbbc d40b 62be 6163 45bc
00000310: e2cb 363e 6e0b b3bc 2cfe 073e 6ccc 19ba
00000320: 287c 41bd 23af a6bd f5e2 c7bb e1d1 0d3d
00000330: bc08 d2bd 2a60 feba 54d5 a4bd b1ba acbe
00000340: fa2a adbc 7b4d 943e af64 2a3d e9d8 ee3d
00000350: 076b 4bbe a394 753d 1bef 8bbd a694 2f3e
00000360: 2de9 06be 3dc1 f63c 2b06 a8bd 04db 063e
00000370: fe2b 023e 3b3b b1bd d1aa 053d 9edf 123e
00000380: 08f6 e9bd a2fd 733e 95e2 123e eea7 6abd
00000390: 181f 86bd 108a cfbd 7e94 6f3d b0f5 263e
000003a0: 237f 2abe 2d7d 8a3d 65e9 5d3e ac66 6e3e
000003b0: b94d 323e 68fa 6b3d 5bd9 f03c bb63 3b3e
000003c0: 2b60 d33d 23b9 a03d 09b8 3c3e 8bf2 fabc
000003d0: 95aa ffbc d2da 4cbe 3694 4d3d 74ff 4abe
000003e0: 954c e4bd 67ca 103e 0d14 923e 58c7 bf3d
000003f0: ef13 26bd 1984 e4bd 9490 d1b9 22d2 16be

features.0.bn.weight f4 [32]
0.971093 1.0026748 0.9463795 0.9739309 0.9820631 1.0612851 0.98222154 1.0085655
0.9769306 1.0142673 0.9878726 0.9918413 1.0002624 1.0465713 1.0226828 1.0096884
0.98939234 1.0108616 1.0436735 1.000743 1.0231881 1.0057936 0.9854263 1.0217516
1.0031883 1.0539435 0.98128635 0.9642478 0.96732306 0.99213856 1.0391995 1.0234284
00000000: 8d99 783f a657 803f ed45 723f 8953 793f
00000010: 7d68 7b3f 31d8 873f df72 7b3f ad18 813f
00000020: 2018 7a3f 83d3 813f 38e5 7c3f 50e9 7d3f
00000030: 9908 803f 0cf6 853f 45e7 823f 783d 813f
00000040: d148 7d3f ea63 813f 1897 853f 5918 803f
00000050: d4f7 823f d8bd 803f e644 7c3f c2c8 823f
00000060: 7968 803f 9fe7 863f 9535 7b3f f2d8 763f
00000070: 7ca2 773f cbfc 7d3f 7d04 853f b4ff 823f

features.0.bn.bias f4 [32]
-0.033343382 0.037919804 -0.06401854 0.022165377 0.010612768 0.03822994 -0.017774012 0.09297161
0.07267658 -0.009281855 0.122458614 0.00934215 -0.0036814609 -0.0038524081 0.054963857 0.023097541
0.12216576 0.03765142 0.027723085 0.005067574 0.027171476 0.072385564 0.009083588 0.003916332
0.06022662 0.07367544 0.061254285 0.027369672 -0.0029215426 0.0138459 0.09394443 -0.0030319127
00000000: 1293 08bd cc51 1b3d 271c 83bd 2a94 b53c
00000010: 2de1 2d3c ff96 1c3d ce9a 91bc e667 be3d
00000020: 75d7 943d ec12 18bc 95cb fa3d d10f 193c
00000030: aa44 71bb af78 7cbb c821 613d 0e37 bd3c
00000040: 0b32 fa3d 6038 1a3d 861b e33c e40d a63b
00000050: b796 de3c e23e 943d 54d3 143c 9354 803b
00000060: 30b0 763d 26e3 963d c6e5 7a3d 5d36 e03c
00000070: 5a77 3fbb ead9 623c f065 c03d 0eb3 46bb

features.0.bn.running_mean f4 [32]
-0.0004023256 5.982673e-05 4.0380433e-05 1.2813393e-05 0.00021092808 -9.112099e-05 0.00017734893 -0.00018858499
0.00039153622 -5.036754e-05 0.00010971956 -8.0666454e-05 0.00015980043 0.0002476017 -0.0001482371 0.00022088684
-0.0001448994 -1.1522578e-05 -0.00029484156 1.0881789e-05 0.00016565707 1.4804853e-05 -0.00033597578 -0.00010082159
7.151422e-05 -0.00025095706 3.9872102e-05 4.0124476e-05 -0.00015314958 1.4501165e-05 2.4564148e-05 6.6882014e-05
00000000: 3aef d2b9 76ee 7a38 295e 2938 1bf9 5637
00000010: 932c 5d39 3618 bfb8 bef6 3939 e6be 45b9
00000020: 1a47 cd39 bc41 53b8 3e19 e638 792b a9b8
00000030: 1a90 2739 8ad0 8139 1870 1bb9 dc9d 6739
00000040: 23f0 17b9 1851 41b7 f794 9ab9 ee90 3637
00000050: 3bb4 2d39 5c62 7837 e825 b0b9 2e70 d3b8
00000060: e8f9 9538 e392 83b9 583c 2738 544b 2838
00000070: c796 20b9 084a 7337 1b0f ce37 0243 8c38

features.0.bn.running_var f4 [32]
2.263526 2.3078275 2.473045 2.6118624 3.4733105 4.5727153 2.8453002 2.3568015
2.5898979 0.9292972 1.2443997 4.512897 3.6098056 3.4857037 1.8461813 2.2337945
1.921627 1.0379765 5.3060226 2.225458 3.3754752 2.2767634 2.1847262 2.2250783
2.5557625 3.6645918 1.30086 2.9055197 2.7469435 2.4416523 3.8519118 5.0725994
00000000: 9cdd 1040 72b3 1340 5f46 1e40 c128 2740
00000010: b84a 5e40 af53 9240 6619 3640 d6d5 1640
00000020: e3c0 2540 6ce6 6d3f 7d48 9f3f a769 9040
00000030: 0e07 6740 c515 5f40 ab4f ec3f 7df6 0e40
00000040: e0f7 f53f 6adc 843f f0ca a940 e76d 0e40
00000050: c907 5840 7eb6 1140 8ed2 0b40 af67 0e40
00000060: 9d91 2340 ac88 6a40 9582 a63f 09f4 3940
00000070: eccd 2f40 0844 1c40 b985 7640 bc52 a240

features.1.conv.weight f4 [64, 32, 5]
0.0146908 -0.14683364 -0.1503046 0.15898602 0.09071663 0.03312504 -0.028682003 -0.120947346
-0.075663894 -0.009896489 -0.022845136 -0.28916234 -0.09266992 -0.20139374 0.060036387 -0.029666057
-0.05677988 -0.06393912 0.20164563 0.1196435 0.08025271 0.06644771 0.040265072 0.14549965
0.2261312 0.055360153 -0.09612251 0.0049688425 -0.15914676 0.06557624 0.032478172 -0.104148954
0.06519209 -0.10193871 0.29941973 0.30576771 0.0063296515 -0.03141845 0.09737885 0.030173315
-0.1672876 -0.010155373 0.12597016 -0.1903887 -0.023542084 -0.16833085 -0.0042507974 -0.16376868
-0.14349315 0.014893607 -0.14325453 -0.024266014 -0.05479367 -0.0034578196 0.17648554 0.023137014
-0.06681417 0.31201696 -0.3555328 0.0552017 -0.0635559 0.20607717 0.03559883 0.017917085
0.060242217 -0.102758765 0.06270397 -0.3081867 -0.056495886 -0.060107622 -0.031677432 0.012802422
-0.1001371 -0.0015152433 0.014355351 -0.092594765 -0.032379474 0.022036823 -0.13213757 0.21480294
0.23115957 -0.15740722 0.20704383 -0.15472959 0.17709419 -0.124367744 0.11850774 -0.052756142
-0.032726504 0.038168065 -0.061578043 0.13395205 -0.041773982 0.005573639 -0.16692962 0.04517282
-0.05117301 -0.06572545 0.082126655 0.282172 0.14631864 0.08366719 -0.037391465 0.013955302
0.30024835 0.005456583 -0.096212566 -0.06506778 0.20473152 0.06362195 -0.042295307 -0.064701386
0.14717716 0.104932 -0.15897687 0.12674718 -0.091836706 -0.2089096 0.2545703 -0.1436278
0.07338761 -0.04931549 0.13631208 -0.012011869 -0.06870068 0.085811116 -0.16805597 -0.018922104
0.13471249 -0.06798912 0.033926703 -0.0741705 -0.081572965 0.026030965 0.08273768 -0.034640953
0.02054322 -0.026148552 0.1262531 0.013921812 -0.12364041 0.0709502 -0.0616616 -0.15577026
0.058752455 0.0598296 -0.03391773 0.082238086 0.052577958 0.029959176 0.016708497 -0.16928726
-0.11408379 -0.07474798 -0.051930316 -0.07837062 0.046018127 -0.110956736 -0.012052036 0.033034477
-0.025303092 -0.07524353 -0.009797172 0.04015079 -0.068307675 0.0868619 -0.0046761916 -0.051033255
0.05597284 0.0559256 -0.067145914 0.009524632 0.08586246 0.04977592 -0.04428328 -0.14183086
0.11265388 0.042547032 0.06404574 0.21164997 -0.17577232 0.0102401925 0.04893398 0.10359151
-0.14115497 0.0006051818 -0.05430796 -0.058480706 -0.34647837 0.14943962 -0.047644187 -0.010650788
0.24061054 -0.06575596 -0.059912067 -0.2006993 0.024741935 -0.12572774 0.1333958 -0.20208938
0.0075330185 -0.09941508 -0.042767823 0.026545148 0.06189835 0.07564161 -0.048465427 0.043540083
0.023069203 0.07988624 -0.057365116 0.049224015 -0.057613537 -0.017836152 0.12249017 0.014472364
0.12294849 -0.0059054396 -0.0633793 0.11534616 -0.040271576 0.050954446 -0.028288051 -0.010803509
0.15295163 -0.046329644 -0.11226629 0.1016604 0.12628905 -0.122988574 -0.09932368 -0.12536599
0.048438683 -0.2867492 0.0021857696 0.12162327 0.18918438 0.041203536 0.11826487 -0.024401033
0.027439924 -0.021133102 -0.17509487 -0.1405082 0.07433216 -0.10536046 0.073568314 -0.06409392
0.01906783 0.07267175 0.00058950996 -0.10912543 -0.052769136 0.0021789854 -0.0050465995 -0.06440865
00000000: aeb1 703c 8f5b 16be 73e9 19be 3bcd 223e
00000010: a4c9 b93d 1fae 073d 85f6 eabc 3eb3 f7bd
00000020: acf5 9abd e224 22bc b925 bbbc 160d 94be
00000030: bac9 bdbd 293a 4ebe b7e8 753d 3b06 f3bc
00000040: 0592 68bd 83f2 82bd 317c 4e3e a707 f53d
00000050: 885b a43d bd15 883d fdec 243d dcfd 143e
00000060: f08e 673e 54c1 623d e1db c4bd acd1 a23b
00000070: 5ef7 22be d64c 863d d507 053d 0c4c d5bd
00000080: 6e83 853d 3ec5 d0bd 8b4d 993e 968d 9c3e
00000090: f768 cf3b a2b0 00bd 906e c73d 072e f73c
000000a0: 714d 2bbe b962 26bc 52fe 003e 41f5 42be
000000b0: 54db c0bc ec5e 2cbe 464a 8bbb fab2 27be
000000c0: deef 12be 5104 743c 51b1 12be 85c9 c6bc
000000d0: 546f 60bd 969c 62bb a0b8 343e d689 bd3c
000000e0: ded5 88bd b0c0 9f3e 6508 b6be 2e1b 623d
000000f0: 9829 82bd e505 533e 14d0 113d dac6 923c
00000100: 8bc0 763d 3073 d2bd f06a 803d a6ca 9dbe
00000110: 3b68 67bd 6933 76bd 32c0 01bd 40c1 513c
00000120: ae14 cdbd 219b c6ba b532 6b3c 53a2 bdbd
00000130: 57a0 04bd 9186 b43c 124f 07be 4df5 5b3e
00000140: 18b5 6c3e 5c2f 21be 4c03 543e 6f71 1ebe
00000150: 2e58 353e 84b4 febd 30b4 f23d d316 58bd
00000160: 3a0c 06bd 1e56 1c3d 4239 7cbd ba2a 093e
00000170: 321b 2bbd 13a3 b63b 99ef 2abe 2307 393d
00000180: ca9a 51bd 119b 86bd 0532 a83d d978 903e
00000190: 8ed4 153e b459 ab3d cb27 19bd c7a4 643c
000001a0: 27ba 993e 23cd b23b 180b c5bd 4242 85bd
000001b0: 24a5 513e 3a4c 823d d83d 2dbd 2982 84bd
000001c0: 9cb5 163e 97e6 d63d d5ca 22be 03ca 013e
000001d0: e214 bcbd 66ec 55be 0a57 823e 2a13 13be
000001e0: 3e4c 963d 0aff 49bd 6595 0b3e 6ecd 44bc
000001f0: f1b2 8cbd bdbd af3d dd16 2cbe 8702 9bbc
00000200: 12f2 093e e13d 8bbd baf6 0a3d b4e6 97bd
00000210: ba0f a7bd e43e d53c 5f72 a93d ace3 0dbd
00000220: 414a a83c 7d35 d6bc 7e48 013e 5018 643c
00000230: 2f37 fdbd 574e 913d e090 7cbd 3d82 1fbe
00000240: 6aa6 703d e20f 753d 51ed 0abd 716c a83d
00000250: fc5b 573d f26c f53c 42e0 883c a459 2dbe
00000260: c3a4 e9bd 7815 99bd e2b4 54bd c780 a0bd
00000270: 817d 3c3d 493d e3bd e775 45bc 294f 073d
00000280: 6e48 cfbc 4819 9abd 5184 20bc 2875 243d
00000290: e5e4 8bbd a7e4 b13d bd3a 99bb 3f08 51bd
000002a0: c743 653d 3e12 653d cc83 89bd 340d 1c3c
000002b0: a8d8 af3d d6e1 4b3d 6262 35bd 1c3c 11be
000002c0: 14b7 e63d cc45 2e3d 6a2a 833d c5ba 583e
000002d0: a9fd 33be 7bc6 273c ff6e 483d c927 d43d
000002e0: ee8a 10be 10a5 1e3a 0672 5ebd 7789 6fbd
000002f0: 9d65 b1be b306 193e 8d26 43bd a580 2ebc
00000300: 9c62 763e 10ab 86bd 5b66 75bd 1e84 4dbe
00000310: 99af ca3c c6be 00be e998 083e 85f0 4ebe
00000320: 8ad7 f63b 229a cbbd 502d 2fbd 3675 d93c
00000330: 2089 7d3d fde9 9a3d af83 46bd 1657 323d
00000340: a0fb bc3c 669b a33d aff7 6abd 1f9f 493d
00000350: 2cfc 6bbd 1f1d 92bc 20dc fa3d 7f1d 6d3c
00000360: 6bcc fb3d 6b82 c1bb 02cd 81bd 9c3a ec3d
00000370: cff3 24bd 9cb5 503d 58bc e7bc 3301 31bc
00000380: 5a9f 1c3e 27c4 3dbd deeb e5bd 5433 d03d
00000390: eb51 013e 6fe1 fbbd 376a cbbd f15f 00be
000003a0: a467 463d cbd0 92be 213f 0f3b 9f15 f93d
000003b0: 8db9 413e 0ac5 283d da34 f23d ade4 c7bc
000003c0: b1c9 e03c 541f adbc 124c 33be 62e1 0fbe
000003d0: 763b 983d 3ac7 d7bd fcaa 963d ac43 83bd
000003e0: 2334 9c3c edd4 943d 5889 1a3a 277d dfbd
000003f0: 7324 58bd 4fcd 0e3b f25d a5bb afe8 83bd

features.1.bn.weight f4 [64]
0.99350333 0.9742663 0.9659521 0.9677787 0.9567929 0.97305757 0.99777234 0.97951645
0.96643585 0.986264 0.96585697 1.0006628 0.9908308 1.0024117 0.9923887 0.96934515
1.013071 0.94711715 0.9692037 1.0131155 1.0134975 1.0298136 1.0175371 1.0114999
1.0089276 1.0052555 1.0185232 1.0304117 1.0255716 0.96827614 1.0094415 1.0349681
1.0018231 0.9643523 0.95077085 0.9810045 1.0008621 1.0336628 0.996144 1.0273441
1.0303009 1.1830983 0.95517814 1.0647794 0.9947777 0.9755577 0.9884166 1.0154166
1.0109843 1.0732139 0.9945633 1.0340836 0.9434314 0.9987078 1.0480721 0.9783644
1.0221434 0.99991137 0.9749231 0.9704073 1.0190821 1.0271643 0.96464187 1.085692
00000000: 3c56 7e3f 8469 793f a348 773f 58c0 773f
00000010: 61f0 743f 4d1a 793f 026e 7f3f 97c1 7a3f
00000020: 5768 773f cc7b 7c3f 6742 773f b815 803f
00000030: 16a7 7d3f 074f 803f 300d 7e3f 0127 783f
00000040: 4fac 813f 4576 723f bc1d 783f c5ad 813f
00000050: 49ba 813f efd0 833f a83e 823f d478 813f
00000060: 8a24 813f 36ac 803f f85e 823f 88e4 833f
00000070: ee45 833f f2e0 773f 6135 813f d679 843f
00000080: bd3b 803f cbdf 763f b865 733f 1c23 7b3f
00000090: 401c 803f 104f 843f 4b03 7f3f 0380 833f
000000a0: e6e0 833f c46f 973f 8e86 743f b14a 883f
000000b0: c0a9 7e3f 26be 793f df08 7d3f 2cf9 813f
000000c0: ef67 813f 135f 893f b39b 7e3f da5c 843f
000000d0: b884 713f 50ab 7f3f 3a27 863f 1776 7a3f
000000e0: 98d5 823f 31fa 7f3f 8f94 793f 9d6c 783f
000000f0: 4871 823f 1f7a 833f c5f2 763f f5f7 8a3f

features.1.bn.bias f4 [64]
-0.042675838 -0.024937078 0.03886452 0.0026506388 -0.0762433 0.011205127 -0.031805005 -0.034541763
-0.056711882 0.04157506 -0.03437263 -0.0026657425 0.0045307633 -0.002941666 -0.12602015 -0.027158884
-0.019017229 -0.0082603665 -0.04045613 -0.013478932 -0.008422363 0.002417397 0.031211922 -0.019498082
-0.038769517 -0.0027725168 0.0039097336 0.011643407 0.059146967 -0.013739499 -0.010619576 -0.034504883
0.025096806 -0.040759508 -0.05815643 -0.030925307 0.047786288 0.0031356106 -0.023357997 -0.028957268
0.028465645 -0.027576765 -0.068361074 0.034002095 0.002012489 -0.00048841425 0.05534718 -0.0005578375
-0.013897297 0.042440794 0.0043399082 0.091509 -0.04659543 -0.03209315 0.046314575 -0.048405293
-0.009587686 -0.050702155 -0.035098206 0.0063607865 -0.025954219 0.008646424 -0.008215941 0.004941074
00000000: dccc 2ebd d848 ccbc 6730 1f3d 57b6 2d3b
00000010: 7325 9cbd b695 373c f745 02bd aa7b 0dbd
00000020: b84a 68bd 9c4a 2a3d 51ca 0cbd bdb3 2ebb
00000030: cc76 943b f7c8 40bb 6d0b 01be 4f7c debc
00000040: 05ca 9bbc 7d56 07bc 54b5 25bd bdd6 5cbc
00000050: f3fd 09bc 316d 1e3b 25b0 ff3c 71ba 9fbc
00000060: c9cc 1ebd 1db3 35bb 391d 803b fdc3 3e3c
00000070: 1744 723d a31b 61bc bbfd 2dbc fe54 0dbd
00000080: d197 cd3c 71f3 26bd 7035 6ebd 1257 fdbc
00000090: 8ebb 433d d17e 4d3b 4559 bfbc cb37 edbc
000000a0: c930 e93c abe8 e1bc e400 8cbd c845 0b3d
000000b0: f6e3 033b ed08 00ba bab3 623d d73b 12ba
000000c0: 7db1 63bc 66d6 2d3d ca35 8e3b 1269 bb3d
000000d0: d9da 3ebd 1b74 03bd 5ab4 3d3d a144 46bd
000000e0: ab15 1dbc 10ad 4fbd 23c3 0fbd 256e d03b
000000f0: f19d d4bc bba9 0d3c 279c 06bc bce8 a13b

features.1.bn.running_mean f4 [64]
-0.040571403 -0.5551524 1.167015 0.22653356 1.1678094 -0.091686785 -0.5465628 1.3700143
-0.17745171 0.24823637 -0.50935274 -1.0198864 -0.7556759 -0.18872668 0.21469605 1.0447943
-0.8076573 0.65910894 -0.36294147 -1.161193 -1.0006398 -0.26862726 0.038172565 -0.28730628
-0.22529483 -1.1697825 -1.0952436 -0.50539553 -0.2959615 0.13002004 0.0049478854 -1.0661378
-0.28526238 1.28659 0.78085685 0.37128973 -0.70010567 -0.36862633 -0.14800759 -0.42109165
-0.4370246 -0.4792029 1.8330535 -0.43926746 -0.618694 -0.090010345 -1.0036052 -0.7194846
-0.15977149 -0.12060691 -0.5325798 -0.7121961 0.6262971 -0.5364516 -0.78172666 1.0218451
-0.6417574 -0.4888874 0.07284895 -0.6564343 -0.46548113 -1.1071237 0.0989209 -0.9974085
00000000: 332e 26bd 781e 0ebf bf60 953f 6af8 673e
00000010: c77a 953f 48c6 bbbd 8aeb 0bbf a15c af3f
00000020: e7b5 35be ad31 7e3e f164 02bf a38b 82bf
00000030: fa73 41bf 9141 41be 48d9 5b3e d2bb 853f
00000040: a1c2 4ebf 5dbb 283f 77d3 b9be f9a1 94bf
00000050: f714 80bf 8389 89be d65a 1c3d cf19 93be
00000060: b0b3 66be 6fbb 95bf f130 8cbf 9a61 01bf
00000070: 4488 97be f923 053e df21 a23b 3477 88bf
00000080: e90d 92be fbae a43f 3ce6 473f b019 be3e
00000090: 203a 33bf 97bc bcbe 4d8f 17be 5399 d7be
000000a0: b0c1 dfbe 155a f5be 7fa1 ea3f aae7 e0be
000000b0: bb62 1ebf 5857 b8bd 2376 80bf 2530 38bf
000000c0: 239b 23be c100 f7bd 2657 08bf 7c52 36bf
000000d0: 0255 203f e454 09bf 3d1f 48bf d2cb 823f
000000e0: 374a 24bf 734f fabe d531 953d 140c 28bf
000000f0: 8b53 eebe 3bb6 8dbf 0a97 ca3d 2a56 7fbf

features.1.bn.running_var f4 [64]
0.9997124 1.5642637 1.7735659 0.8229289 1.8293958 1.2080141 0.7045924 2.3161776
1.5989105 0.904789 1.7623844 1.1770258 1.3085352 0.9277978 0.8984481 1.5734874
0.9553965 0.93101656 1.392449 1.1408082 0.95371467 0.5672345 0.7195857 0.7546045
1.2374471 1.301367 1.3944057 0.8794689 0.8002416 0.5852809 1.8431108 1.2666925
0.9850617 1.4320779 0.73640794 1.0260096 0.80963504 1.1708728 0.8753892 0.8604021
1.7628394 0.81026554 3.0002782 0.56032646 1.3074021 1.2850351 1.5336939 1.8398314
0.7883783 0.93663263 1.2501965 1.3837692 0.95909286 1.2239121 1.3244039 1.2048452
0.8050574 0.9154906 1.596859 0.9273474 1.0014763 2.176122 0.9442149 1.6500918
00000000: 27ed 7f3f cb39 c83f 3504 e33f 78ab 523f
00000010: a429 ea3f 35a0 9a3f 2b60 343f 413c 1440
00000020: 19a9 cc3f 40a0 673f d095 e13f c8a8 963f
00000030: 157e a73f 2884 6d3f b200 663f 0968 c93f
00000040: dd94 743f 1a57 6e3f c53b b23f 0106 923f
00000050: a526 743f 4836 113f c536 383f c32d 413f
00000060: ab64 9e3f 3293 a63f e37b b23f e024 613f
00000070: a2dc 4c3f f8d4 153f 0eeb eb3f fb22 a23f
00000080: 012d 7c3f 544e b73f 3b85 3c3f 4854 833f
00000090: 3e44 4f3f 29df 953f 8219 603f 5043 5c3f
000000a0: b9a4 e13f 906d 4f3f 8f04 4040 8e71 0f3f
000000b0: f458 a73f 087c a43f 1550 c43f 987f eb3f
000000c0: 29d3 493f 28c7 6f3f 7006 a03f 591f b13f
000000d0: 1c87 753f 27a9 9c3f 1186 a93f 5e38 9a3f
000000e0: 3e18 4e3f 985d 6a3f e065 cc3f a466 6d3f
000000f0: 6030 803f 9545 0b40 11b8 713f 3536 d33f

features.2.conv.weight f4 [128, 64, 5]
0.13089944 -0.021447627 0.12325557 0.09613735 0.038285207 -0.08582048 0.030960904 -0.13809447
0.03773696 -0.03811406 -0.0012966332 0.00040861784 0.051278837 0.015998207 0.07594031 -0.04209858
0.014188967 -0.007458121 -0.040625427 -0.09465034 0.13577014 0.01903104 -0.050915763 -0.0825546
-0.081875935 -0.019101817 0.105328776 -0.07894221 -0.077287465 0.03107544 -0.13209094 0.22882219
0.009469204 0.16030256 0.103813 0.0578734 0.052771237 -0.051149603 0.2161225 0.17186023
0.011697882 -0.17432784 0.063452214 -0.0118127735 -0.07853047 0.015345361 -0.043444097 -0.042789266
-0.03796975 0.013039592 0.051315118 0.04579724 0.06747324 -0.017839627 -0.031694505 -0.024785085
0.09343398 0.097493716 -0.07417265 -0.059050612 -0.018880105 0.10965372 0.04894729 0.08313828
-0.025745291 -0.07736101 0.0851739 0.11631854 0.04830051 -0.0018873663 -0.10123956 -0.016096022
-0.07890377 -0.06111728 0.113852344 -0.043695997 -0.052287772 -0.14881419 -0.02648245 0.10272919
-0.07150685 -0.07778846 -0.008239707 0.0014452464 0.037363805 -0.045967553 0.035066955 -0.08830149
-0.0021139227 0.110746145 -0.013538631 0.10781085 -0.06243364 -0.035711266 0.005104846 0.047318053
-0.14557685 0.13010511 0.0044367155 0.10275985 0.034544606 -0.2025081 -0.07479156 0.04727793
-0.06536157 0.10355546 -0.035023075 0.050858393 0.15500218 -0.0029401788 0.108426735 -0.102168426
-0.005954528 -0.045080688 -0.0861341 0.019164732 -0.027305597 0.029572934 -0.047329392 0.007830582
-0.04459462 0.048548054 0.02747135 -0.120452404 0.13282225 -2.751156e-05 0.0153541425 -0.07183033
0.018036248 0.06987567 -0.056051243 -0.032621007 0.023900544 0.07611601 0.03441191 -0.05193696
-0.1318913 -0.04675152 -0.07584669 0.05299021 0.13618146 0.030420398 -0.048160147 -0.1206541
0.16627301 -0.11159425 0.122796305 0.0704373 -0.012295624 0.013774768 -0.18812965 0.03322853
-0.002789402 0.0041195434 0.04693269 -0.14916497 0.087667674 0.13935629 0.033482146 0.06785386
-0.04604605 -0.008900604 0.015678732 0.15077023 0.07149883 0.2557246 0.114358865 -0.12242035
-0.040891945 -0.05014859 0.022582797 -0.021296345 -0.03757571 -0.08126326 -0.017715404 0.08656984
0.12059299 -0.21496782 0.03908292 0.06976109 -0.1287794 0.066404395 -0.09058271 -0.04350556
0.0047062607 0.058430683 -0.053527374 0.04596271 0.10538154 0.016841153 0.06438002 0.051919118
0.010239758 -0.03992333 0.044353656 -0.07303131 -0.0017068223 -0.024517344 -0.06647137 0.07478308
0.18865484 -0.031884413 0.13407232 -0.037951462 -0.012442412 -0.1346796 -0.05734955 -0.10406379
-0.07196767 -0.063796744 -0.13027623 -0.07305759 -0.060408626 0.121259116 0.04268093 -0.14433283
0.098169334 0.059782613 0.100335345 0.03940392 0.023272898 0.0689362 0.12779564 0.014573344
0.07283231 0.026486257 -0.0047545447 0.02153874 -0.012365782 0.0047305524 -0.0068474305 -0.10045342
-0.03347494 0.012088655 0.048507813 -0.011703357 0.094625406 0.080722265 0.041985746 0.082926884
-0.0034894391 0.015283074 0.024268564 0.012873831 0.04083203 -0.057824705 -0.060164865 0.030201776
0.037297245 0.055378165 0.047537856 -0.052004293 -0.00013779043 0.006638296 0.15601745 -0.027848758
00000000: 810a 063e efb2 afbc 6b6d fc3d a9e3 c43d
00000010: f3d0 1c3d a6c2 afbd b9a1 fd3c a368 0dbe
00000020: 1292 1a3d 7d1d 1cbd caf3 a9ba c23b d639
00000030: c209 523d ac0e 833c 9886 9b3d 906f 2cbd
00000040: d778 683c 4163 f4bb d966 26bd 0ad8 c1bd
00000050: 5407 0b3e fce6 9b3c 0c8d 50bd 6312 a9bd
00000060: 92ae a7bd 6a7b 9cbc 9db6 d73d 74ac a1bd
00000070: e448 9ebd ec91 fe3c d942 07be 5d50 6a3e
00000080: b824 1b3c 5b26 243e e99b d43d a90c 6d3d
00000090: a726 583d 3f82 51bd 374f 5d3e 21fc 2f3e
000000a0: 79a8 3f3c ff82 32be 3cf3 813d 5d8a 41bc
000000b0: 95d4 a0bd 1c6b 7b3c 70f2 31bd cc43 2fbd
000000c0: 2b86 1bbd 03a4 553c cd2f 523d e395 3b3d
000000d0: 692f 8a3d 6924 92bc 19d2 01bd 170a cbbc
000000e0: 515a bf3d c9aa c73d d5e7 97bd 0edf 71bd
000000f0: 73aa 9abc 2192 e03d f47c 483d 6744 aa3d
00000100: cae7 d2bc 736f 9ebd a76f ae3d 6a38 ee3d
00000110: c1d6 453d 8161 f7ba b056 cfbd cedb 83bc
00000120: 4d98 a1bd 1d56 7abd 6b2b e93d 93fa 32bd
00000130: b42b 56bd bf62 18be b9f1 d8bc ae63 d23d
00000140: 2f72 92bd 8e4f 9fbd d6ff 06bc 6c6e bd3a
00000150: ca0a 193d 7948 3cbd 5ea2 0f3d 69d7 b4bd
00000160: bd89 0abb e0ce e23d 22d1 5dbc efcb dc3d
00000170: 6bba 7fbd fa45 12bd 8d46 a73b 93d0 413d
00000180: 1912 15be 463a 053e de61 913b c273 d23d
00000190: a57e 0d3d 495e 4fbe 512c 99bd 81a6 413d
000001a0: 49dc 85bd e314 d43d 5b74 0fbd e450 503d
000001b0: e4b8 1e3e 04b0 40bb d60e de3d ae3d d1bd
000001c0: 341e c3bb 87a6 38bd 1367 b0bd 5bff 9c3c
000001d0: fdaf dfbc f042 f23c 77dc 41bd d74b 003c
000001e0: d9a8 36bd 53da 463d 990b e13c c0af f6bd
000001f0: 8e02 083e a0c8 e6b7 f18f 7b3c c81b 93bd
00000200: c1c0 933c fa1a 8f3d fd95 65bd 9b9d 05bd
00000210: 13cb c33c b6e2 9b3d 81f3 0c3d dabb 54bd
00000220: 830e 07be 867e 3fbd 8255 9bbd 430c 593d
00000230: 2773 0b3e 3334 f93c 9343 45bd 7f19 f7bd
00000240: 7943 2a3e 878b e4bd a17c fb3d 6e41 903d
00000250: 9673 49bc 91af 613c 0fa5 40be a41a 083d
00000260: 66ce 36bb 3cfd 863b 7e3c 403d b4be 18be
00000270: 1c8b b33d 6ab3 0e3e 9324 093d f7f6 8a3d
00000280: c89a 3cbd d7d3 11bc af70 803c 8363 1a3e
00000290: fb6d 923d 56ee 823e fb34 ea3d 85b7 fabd
000002a0: 507e 27bd 9c68 4dbd 8fff b83c ac75 aebc
000002b0: fde8 19bd 5a6d a6bd e51f 91bc 874b b13d
000002c0: 75f9 f63d 8620 5cbe 6915 203d e7de 8e3d
000002d0: bfde 03be 07ff 873d 6e83 b9bd e332 32bd
000002e0: fa36 9a3b 0355 6f3d 853f 5bbd 6543 3c3d
000002f0: 47d2 d73d 75f6 893c acd9 833d 24a9 543d
00000300: a8c4 273c a586 23bd 2eac 353d 7191 95bd
00000310: 74b7 dfba 99d8 c8bc 2422 88bd df27 993d
00000320: bc2e 413e 3b99 02bd 414a 093e fe72 1bbd
00000330: 42db 4bbc 73e9 09be 5de7 6abd 651f d5bd
00000340: c963 93bd dea7 82bd 2267 05be 389f 95bd
00000350: 096f 77bd b356 f83d 33d2 2e3d fccb 13be
00000360: 010d c93d 9dde 743d 9e7c cd3d 0166 213d
00000370: cea6 be3c 6c2e 8d3d dcdc 023e 09c5 6e3c
00000380: 1b29 953d b5f9 d83c 03cc 9bbb 0372 b03c
00000390: d999 4abc c002 9b3b 6960 e0bb 86ba cdbd
000003a0: 051d 09bd 7e0f 463c 21b0 463d 70bf 3fbc
000003b0: f7ca c13d b751 a53d 3ff9 2b3d 92d5 a93d
000003c0: 13af 64bb dc65 7a3c dece c63c c3ec 523c
000003d0: 7d3f 273d 99d9 6cbd 6f6f 76bd b769 f73c
000003e0: ffc4 183d 37d4 623d 0eb7 423d 7402 55bd
000003f0: d67b 10b9 1086 d93b 0ac3 1f3e 1423 e4bc

features.2.bn.weight f4 [128]
1.0224519 0.9414384 0.9370678 0.96689904 0.9599573 0.95471495 0.95985365 0.94740915
0.96777904 0.96815604 0.9607237 1.0119392 1.0350131 1.0009178 1.0256722 1.0021728
0.9387837 0.9875776 0.96341443 0.98805714 0.9934376 1.0013639 0.96891344 0.9475876
1.0389166 1.0156825 0.99381167 0.9825879 0.9900593 1.0159675 0.9246047 1.0362836
1.0167062 0.9919771 0.98805016 1.0303653 0.99870664 1.0207751 1.0084221 0.9994213
1.046602 0.9958982 0.9867978 1.0627323 0.94855803 0.990683 0.96381474 0.99740255
1.0501026 0.9998192 0.97979075 0.93641204 0.9691024 1.0236306 0.9422232 0.9981331
0.9706141 1.0080278 1.0260469 1.0002953 0.96423054 0.9806158 1.0321662 1.0304128
1.0007192 0.9897833 0.97370255 1.013606 0.96856725 0.9275887 1.0073236 1.0459799
1.0315279 0.9743755 0.9767096 0.9646748 0.9596729 1.0374492 0.9974612 0.94721556
0.9965043 0.94969845 0.98819613 0.9528087 1.032897 0.954038 0.9611277 1.0496639
0.9225251 1.0128981 0.9951776 0.9368541 0.95185983 0.97105867 0.9916297 0.9345726
1.043973 1.0126021 1.0051525 0.9572427 0.95672524 1.0387309 1.0003422 1.0436496
0.91633 1.1264648 0.95891374 1.0088543 0.98174953 1.0022285 1.004244 1.0602056
0.94326866 1.0052123 0.9594924 1.026868 0.9660715 1.0018377 0.9229916 0.9258469
1.0306313 1.0404994 1.0262353 0.96017516 1.0095625 0.9098658 0.97461796 1.0744812
00000000: b4df 823f 1b02 713f ade3 6f3f b286 773f
00000010: c3bf 753f 3368 743f f8b8 753f 6889 723f
00000020: 5ec0 773f 13d9 773f fdf1 753f 3987 813f
00000030: 4f7b 843f 131e 803f 3a49 833f 3347 803f
00000040: 2154 703f e3d1 7c3f 54a2 763f 50f1 7c3f
00000050: ed51 7e3f b12c 803f b60a 783f 1a95 723f
00000060: 38fb 843f e201 823f 716a 7e3f e18a 7b3f
00000070: 8774 7d3f 390b 823f e5b2 6c3f f1a4 843f
00000080: 6e23 823f 36f2 7d3f dbf0 7c3f 03e3 833f
00000090: 3dab 7f3f c2a8 823f fa13 813f 13da 7f3f
000000a0: 0ef7 853f 2ff3 7e3f c89e 7c3f 9d07 883f
000000b0: b3d4 723f 679d 7d3f 90bc 763f c655 7f3f
000000c0: c369 863f 27f4 7f3f 91d3 7a3f b3b8 6f3f
000000d0: 1817 783f 5406 833f 8a35 713f a785 7f3f
000000e0: 2a7a 783f 0e07 813f 8155 833f ad09 803f
000000f0: d0d7 763f a309 7b3f 061e 843f 91e4 833f
00000100: 9117 803f 7062 7d3f 9244 793f d7bd 813f
00000110: 06f4 773f 7476 6d3f fbef 803f abe2 853f
00000120: 1b09 843f ac70 793f a409 7a3f edf4 763f
00000130: 20ad 753f 23cb 843f 9e59 7f3f b87c 723f
00000140: e81a 7f3f 701f 733f 6cfa 7c3f 45eb 733f
00000150: f835 843f d63b 743f 770c 763f 635b 863f
00000160: 9b2a 6c3f a5a6 813f f6c3 7e3f acd5 6f3f
00000170: 16ad 733f 4d97 783f 72db 7d3f 2640 6f3f
00000180: e8a0 853f f29c 813f d6a8 803f dc0d 753f
00000190: f2eb 743f 22f5 843f 370b 803f 4f96 853f
000001a0: 9a94 6a3f 0030 903f 5f7b 753f 2322 813f
000001b0: f053 7b3f 0649 803f 118b 803f d1b4 873f
000001c0: 0e7a 713f ccaa 803f 4ba1 753f 6970 833f
000001d0: 7650 773f 383c 803f 2d49 6c3f 4d04 6d3f
000001e0: baeb 833f 162f 853f ae5b 833f 0ace 753f
000001f0: 5839 813f f7ec 683f 9080 793f 9a88 893f

features.2.bn.bias f4 [128]
-0.061902557 -0.089592844 -0.10468354 -0.06051227 -0.057703976 -0.0625529 0.0006210192 -0.04426681
-0.04943992 -0.07100357 -0.113821 -0.030547405 -0.022794127 -0.12853965 -0.03502772 -0.0034216328
-0.08969444 -0.066546634 -0.0993995 -0.029724171 -0.06704482 -0.055433653 -0.061854295 -0.06663298
-0.046719007 -0.038220704 -0.017859787 -0.10584554 -0.04458735 -0.02631572 -0.06119772 -0.074626535
-0.046824984 -0.05995882 -0.10308711 -0.06730414 -0.085644886 -0.07907648 -0.03358236 -0.03545431
-0.03645857 -0.05108634 0.0017523146 -0.053580802 -0.07605061 -0.027281627 -0.05830733 -0.046315655
-0.07943191 -0.05021568 -0.12639669 -0.05359874 -0.056100097 -0.0753639 -0.06224636 -0.04583632
-0.016419888 -0.083275884 -0.107850164 -0.07622533 -0.10589485 -0.07003504 -0.07181659 -0.06791936
-0.06952686 -0.092868306 -0.079452515 -0.045078315 -0.06511775 -0.10152194 -0.09907252 -0.06806162
-0.13155065 -0.0990125 -0.06755614 -0.044337068 -0.06780319 -0.065431654 -0.06820637 -0.06356999
-0.007168982 -0.046611555 -0.06734014 -0.04372833 -0.04750021 -0.07371674 -0.07322839 -0.012341452
-0.103813104 -0.010037964 -0.052320633 -0.06684869 -0.045908865 -0.066073775 -0.088727064 -0.09226522
-0.09207627 -0.062643856 -0.066749714 -0.06924103 -0.059925333 0.0045894827 -0.037134282 -0.043386318
-0.04572489 -0.15424451 -0.094882205 -0.11934725 -0.023454612 -0.015413134 0.00026919539 -0.053142063
-0.046225198 -0.05898017 -0.09210624 -0.06520176 -0.1059011 -0.029995061 -0.059741553 -0.084222116
-0.03054958 -0.07195912 -0.07680329 -0.08095132 -0.04740535 -0.09080043 -0.072418086 -0.09831436
00000000: 898d 7dbd 747c b7bd 5364 d6bd b7db 77bd
00000010: 015b 6cbd bc1b 80bd e5cb 223a 1d51 35bd
00000020: 8381 4abd 526a 91bd fc1a e9bd 8d3e fabc
00000030: c0ba babc e69f 03be 3a79 0fbd 793d 60bb
00000040: b8b1 b7bd 9a49 88bd f791 cbbd 1b80 f3bc
00000050: cb4e 89bd 660e 63bd ee5a 7dbd df76 88bd
00000060: 6e5c 3fbd 508d 1cbd b04e 92bc 8cc5 d8bd
00000070: 3aa1 36bd 1194 d7bc 76aa 7abd ccd5 98bd
00000080: 8ecb 3fbd 6197 75bd 561f d3bd c1d6 89bd
00000090: 9666 afbd d9f2 a1bd a88d 09bd 8a38 11bd
000000a0: 9555 15bd e93f 51bd ecad e53a 8b77 5bbd
000000b0: 6cc0 9bbd b87d dfbc abd3 6ebd 7cb5 3dbd
000000c0: 32ad a2bd f5ae 4dbd 226e 01be 5a8a 5bbd
000000d0: 37c9 65bd 6358 9abd 0af6 7ebd ddbe 3bbd
000000e0: 0083 86bc 8c8c aabd 8ce0 dcbd 071c 9cbd
000000f0: 66df d8bd 886e 8fbd 9414 93bd 4e19 8bbd
00000100: 1964 8ebd bd31 bebd 00b8 a2bd 0aa4 38bd
00000110: 745c 85bd bcea cfbd 89e6 cabd e463 8bbd
00000120: 37b5 06be 11c7 cabd e05a 8abd c99a 35bd
00000130: 66dc 8abd 0801 86bd c8af 8bbd fc30 82bd
00000140: c8e9 eabb c2eb 3ebd a1e9 89bd 7a1c 33bd
00000150: 958f 42bd cdf8 96bd c4f8 95bd cd33 4abc
00000160: f79b d4bd 4676 24bc 294e 56bd f7e7 88bd
00000170: ef0a 3cbd b051 87bd 89b6 b5bd 8cf5 bcbd
00000180: 7c92 bcbd 6c4b 80bd 13b4 88bd 3ece 8dbd
00000190: 4474 75bd 5f63 963b 1e1a 18bd dab5 31bd
000001a0: 064a 3bbd 46f2 1dbe 9a51 c2bd 556c f4bd
000001b0: e323 c0bc 5f87 7cbc cb22 8d39 7eab 59bd
000001c0: a256 3dbd 3195 71bd 32a2 bcbd 8088 85bd
000001d0: ade2 d8bd 34b8 f5bc 8fb3 74bd a57c acbd
000001e0: 1d43 fabc 4e5f 93bd 0b4b 9dbd cec9 a5bd
000001f0: 1d2c 42bd 93f5 b9bd ef4f 94bd 0a59 c9bd

features.2.bn.running_mean f4 [128]
0.7049786 -0.45844734 0.47555423 -1.7867796 0.2116816 -0.585151 0.96568555 -1.4206969
0.5337298 -0.5214677 0.42671525 -1.5620581 -0.02782922 0.22697988 0.60537803 0.8077399
-1.3377155 -1.5091224 0.5787196 0.6899662 -0.50496274 1.1772736 0.8937367 -0.7400339
0.14098646 -1.7467883 0.07056873 1.9061849 -0.7873665 -0.7651712 0.98553276 0.0025603317
-1.6488324 -0.1736631 -0.9512546 -0.4662049 0.26735538 1.2267388 -0.455039 -0.052603796
-0.40628046 -0.08147694 -0.4285916 -0.89792466 -0.56404734 -1.0441008 -0.41422823 0.6952944
-1.3986621 -3.6999812 -1.7758235 -0.4911462 0.37293985 0.23177062 0.52954954 -1.5593243
-0.7057001 -0.303833 -0.94360745 -0.29368627 -0.40975702 0.2747439 -0.27197266 -2.5476003
-2.8412678 0.40091473 0.088253826 -0.06417761 0.8266661 -1.4287046 1.773204 -1.5813081
0.58374554 -1.5417286 -0.3154002 -0.2860701 -0.49617347 0.2325505 -1.4568478 -0.0081538865
-0.49595436 -0.1429569 -0.1531946 -1.3522838 -0.9998766 -0.32393575 -1.011885 -0.0015149126
-1.1818517 -0.3980729 -1.1347752 0.42376488 -0.5044913 -0.96562696 0.042899325 -0.080566496
-2.2439504 -1.1697972 0.5788007 0.841883 0.5154336 -1.5413331 0.95583194 -0.65519875
0.030661318 0.5531038 -0.12825052 -0.229318 0.7927493 0.0838305 -0.19801234 -0.045056783
-0.030533887 0.0026422378 -1.3645535 0.19957507 -0.8172071 0.2032396 -0.52142334 -1.2706138
-0.42992437 0.079778135 0.5193978 -0.9132112 -0.86885536 -0.9019329 -1.5546064 0.35137293
00000000: 7a79 343f 9cb9 eabe d87b f33e 32b5 e4bf
00000010: 10c3 583e 75cc 15bf 2b37 773f 65d9 b5bf
00000020: 84a2 083f e87e 05bf 6c7a da3e 85f1 c7bf
00000030: 1bfa e3bc 6a6d 683e 0efa 1a3f 0bc8 4e3f
00000040: 433a abbf ec2a c1bf f826 143f a0a1 303f
00000050: 3d45 01bf e7b0 963f eecb 643f dd72 3dbf
00000060: c15e 103e c296 dfbf 5786 903d defd f33f
00000070: da90 49bf 42e2 43bf e04b 7c3f 3dcb 273b
00000080: f10c d3bf bdd4 31be 6c85 73bf 69b2 eebe
00000090: cee2 883e c705 9d3f dffa e8be 1477 57bd
000000a0: fe03 d0be 62dd a6bd 5c70 dbbe 64de 65bf
000000b0: 6865 10bf 18a5 85bf b915 d4be d0fe 313f
000000c0: 5c07 b3bf 7ecc 6cc0 2f4e e3bf 8477 fbbe
000000d0: f9f1 be3e 4755 6d3e 8f90 073f f097 c7bf
000000e0: c3a8 34bf 0090 9bbe 4290 71bf 0c5e 96be
000000f0: accb d1be 3cab 8c3e 0040 8bbe e20b 23c0
00000100: 55d7 35c0 b244 cd3e 6cbe b43d 8d6f 83bd
00000110: 64a0 533f cbdf b6bf 59f8 e23f 4e68 cabf
00000120: 5970 153f 5d57 c5bf 237c a1be c877 92be
00000130: 730a febe b821 6e3e fd79 babf e197 05bc
00000140: bbed fdbe 4b63 12be 0cdf 1cbe a317 adbf
00000150: eaf7 7fbf e8da a5be 7385 81bf 0890 c6ba
00000160: eb46 97bf 36d0 cbbe 5040 91bf b6f7 d83e
00000170: 5826 01bf 5433 77bf 34b7 2f3d 0c00 a5bd
00000180: e29c 0fc0 eabb 95bf 482c 143f a585 573f
00000190: 75f3 033f 674a c5bf 67b1 743f 1bbb 27bf
000001a0: 722d fb3c 3698 0d3f 1b54 03be 56d2 6abe
000001b0: 9ef1 4a3f 53af ab3d bfc3 4abe 768d 38bd
000001c0: 3422 fabc 6529 2d3b b0a9 aebf 685d 4c3e
000001d0: 7c34 51bf 0b1e 503e 007c 05bf 79a3 a2bf
000001e0: 0c1f dcbe b862 a33d 41f7 043f 36c8 69bf
000001f0: 4e6d 5ebf 13e5 66bf 58fd c6bf 27e7 b33e

features.2.bn.running_var f4 [128]
1.775132 1.0249463 0.73822016 1.783016 1.3956153 0.7194307 1.6398379 2.1446822
1.1519294 1.0582213 1.1829482 1.8209696 1.2286869 1.2585417 1.4945861 1.2283485
1.2400138 1.487497 0.83191675 1.3994087 1.4086279 1.1087564 2.4929512 3.4388556
1.4749521 1.326533 0.83686996 1.3304191 2.1185515 2.8565066 2.106004 1.3314583
2.446785 1.7082707 1.3877962 1.3862253 1.3061738 1.1519269 1.3795052 2.0943286
1.3955839 1.3863895 1.6526192 1.0685849 1.4513426 1.3827223 1.295866 0.66744065
2.0727093 4.359416 1.7138742 1.2520822 1.0346229 0.8624312 2.452319 1.7204982
1.2374777 1.3569506 1.0481147 1.6842598 1.091825 1.1938078 1.6814462 2.29229
2.6758106 2.344361 0.9204205 1.1970247 1.2469796 1.3038474 2.0858152 0.7230017
1.9857354 2.2540934 1.4371562 1.2131433 0.89437914 0.75342053 1.7948163 2.6194823
1.2429179 1.2480699 1.6561066 1.7425951 1.9933934 1.7377031 1.8907279 1.2199764
1.0139593 1.2419747 2.0224657 1.2836236 2.0609841 0.9655468 1.7134528 0.7434356
2.555664 0.90596545 0.9328944 2.0879579 0.97022414 2.8166554 0.94869626 1.1367105
0.8230933 1.0587109 1.4196788 0.9045638 1.1113797 1.1605774 1.0451661 0.99504197
0.9252643 1.3488109 1.4195094 0.9122605 1.3077275 1.0487247 1.1382768 1.873106
1.3169456 1.0684165 1.2405337 1.9206315 1.7629695 0.77798575 1.6509472 1.3003992
00000000: 8637 e33f 7131 833f fffb 3c3f de39 e43f
00000010: 86a3 b23f 9c2c 383f 35e6 d13f 7942 0940
00000020: 6c72 933f cc73 873f d96a 973f 8815 e93f
00000030: 9d45 9d3f e517 a13f 994e bf3f 863a 9d3f
00000040: c6b8 9e3f 4d66 be3f 7ff8 543f d31f b33f
00000050: eb4d b43f bbeb 8d3f 838c 1f40 3616 5c40
00000060: 3bcb bc3f d5cb a93f 1c3d 563f 2c4b aa3f
00000070: 5996 0740 01d1 3640 c5c8 0640 3a6d aa3f
00000080: 2098 1c40 9da8 da3f 4ea3 b13f d56f b13f
00000090: b430 a73f 5772 933f a093 b03f 7b09 0640
000000a0: 7ea2 b23f 3675 b13f 0789 d33f 64c7 883f
000000b0: 98c5 b93f 0bfd b03f f0de a53f 64dd 2a3f
000000c0: 45a7 0440 5680 8b40 3b60 db3f 3b44 a03f
000000d0: 866e 843f 4bc8 5c3f cbf2 1c40 4939 dc3f
000000e0: ab65 9e3f 8fb0 ad3f 9f28 863f d395 d73f
000000f0: ecc0 8b3f b2ce 983f a139 d73f e1b4 1240
00000100: 7b40 2b40 030a 1640 aea0 6b3f 1b38 993f
00000110: 079d 9f3f 79e4 a63f ff7d 0540 a416 393f
00000120: 942c fe3f 1143 1040 bcf4 b73f 4848 9b3f
00000130: 08f6 643f 2be0 403f 8abc e53f 99a5 2740
00000140: ef17 9f3f c1c0 9f3f 4dfb d33f 5b0d df3f
00000150: 8427 ff3f 0e6d de3f 5f03 f23f 3028 9c3f
00000160: 6bc9 813f 07f9 9e3f 1470 0140 c74d a43f
00000170: 2ae7 0340 132e 773f 6c52 db3f cc51 3e3f
00000180: 0090 2340 5aed 673f 2bd2 6e3f 1aa1 0540
00000190: 9c60 783f 1544 3440 c2dd 723f bb7f 913f
000001a0: 3eb6 523f d783 873f 09b8 b53f 7e91 673f
000001b0: b141 8e3f cd8d 943f 01c8 853f 12bb 7e3f
000001c0: 1fde 6c3f d6a5 ac3f 7cb2 b53f e789 693f
000001d0: 9d63 a73f 9c3c 863f 0eb3 913f f0c1 ef3f
000001e0: ac91 a83f dfc1 883f cfc9 9e3f 41d7 f53f
000001f0: fca8 e13f 132a 473f 3d52 d33f 7b73 a63f

features.3.conv.weight f4 [256, 128, 3]
0.0606767 0.11695203 0.039761167 -0.082445234 -0.15635616 -0.020741647 -0.013001702 -0.008803826
0.08250912 0.010314112 -0.022707222 -0.011185748 0.020279463 -0.08244853 -0.10277204 0.003402519
0.0688052 0.011626456 -0.03382059 0.12848504 0.065931 -0.042691894 -0.08540968 -0.014139823
-0.06187922 0.04085363 -0.05021603 -0.105190925 -0.13900587 0.07676648 0.013667029 0.02160632
0.09624493 0.038733482 -0.04743078 -0.04542802 0.21868856 -0.032132663 0.04181184 0.16923869
-0.05499528 0.06797959 -0.023085682 0.12609108 -0.056884106 0.084542595 -0.050189655 0.12483209
-0.066201806 0.049441986 -0.039160416 -0.05659492 0.08332674 -0.112507604 -0.027076272 0.02827132
-0.0014380951 0.05479559 -0.072616845 -0.023311635 0.03228212 -0.043820657 -0.09721567 -0.045162667
0.07082528 0.08724844 0.024138946 -0.18293259 -0.06724968 -0.042662147 0.16363259 -0.01973796
0.012358239 0.07847079 0.1350325 0.040014982 -0.09815502 0.08804007 0.022842757 -0.005807681
0.034722082 -0.019305566 -0.054249752 -0.08684684 0.059599515 0.012500692 0.023407938 -0.05574647
-0.06518536 0.13471973 -0.15988311 -0.07154477 0.11211847 -0.015199409 0.08740054 0.022471618
0.068204716 0.011033869 0.020527553 0.03775551 0.058725744 -0.06715927 -0.06576487 0.04015447
0.0062937625 -0.017091384 0.036263265 0.09701451 0.063639894 0.045747053 0.094190225 0.11928462
0.03719999 -0.012181284 0.11494523 0.041894175 0.04094349 -0.004970428 -0.0629894 0.0961521
0.027154734 -0.032888234 0.13486457 -0.06878816 -0.12772733 0.047556102 0.07614329 -0.06929419
0.0037069165 0.06554373 -0.04721698 0.082473405 -0.11795975 0.12071627 -0.054080557 -0.018335167
0.001467198 0.019554583 0.13300438 0.027361885 0.07496015 0.017704964 0.033867307 0.041284192
-0.057368536 -0.07524531 0.023033125 -0.1400012 -0.008555592 -0.10434363 0.037571304 0.059515394
-0.02484536 -0.04193826 -0.084781416 -0.026891917 -0.069693916 0.010574404 0.02588962 0.055769835
-0.0119171785 0.040537786 -0.013817805 0.0116874995 -0.11952248 -0.03027401 0.08141255 -0.029054897
-0.0018530366 0.024936825 -0.07099316 0.18407801 -0.12403717 0.10009175 0.056606475 0.0019531543
0.106796786 -0.013658443 0.0888864 0.04751334 -0.044254333 -0.07962406 0.038457368 0.08600795
-0.068887874 -0.095240764 0.08736611 -0.068117395 -0.001977115 -0.028986383 -0.0706118 -0.0370838
-0.002511439 -0.026382128 -0.12445215 -0.14263111 -0.06782692 0.021978855 0.019744804 -0.046558402
0.057176482 0.026769252 0.18447231 0.1091381 0.044651773 -0.0099580055 -0.038699567 -0.033632245
-0.04762866 -0.16240479 0.011560735 -0.13450974 -0.025783446 0.0014854036 -0.016216487 -0.11051723
0.05129435 0.022340862 0.008482578 -0.023817949 0.017624164 -0.029906305 -0.0783739 -0.06930829
-0.016137486 0.14684097 -0.08375488 -0.052671768 0.05283094 -0.04611513 0.06429036 -0.10183415
0.0018493355 -0.023790922 0.047508366 -0.079809174 -0.025295498 0.010565188 0.028116753 0.13529377
0.10511267 0.17171387 0.105556734 -0.035596274 -0.14263423 -0.008689398 0.057520118 0.08012311
0.0825629 0.03477948 0.021641204 -0.009002593 0.05379511 0.11381058 0.04664537 -0.05908337
00000000: 2288 783d 8c84 ef3d 9bdc 223d 0cd9 a8bd
00000010: d41b 20be 63ea a9bc 1705 55bc ec3d 10bc
00000020: 8bfa a83d 85fc 283c 7f04 babc 6d44 37bc
00000030: 1e21 a63c c6da a8bd 267a d2bd ccfc 5e3b
00000040: bee9 8c3d e47c 3e3c 7587 0abd 9591 033e
00000050: d506 873d b2dd 2ebd 45eb aebd b7aa 67bc
00000060: 1175 7dbd 2356 273d 53af 4dbd 576e d7bd
00000070: 8e57 0ebe bf37 9d3d adeb 5f3c bdff b03c
00000080: 101c c53d 00a7 1e3d c746 42bd bb12 3abd
00000090: e5ef 5f3e 8a9d 03bd e442 2b3d e84c 2d3e
000000a0: bb42 61bd e238 8b3d 2f1e bdbc 051e 013e
000000b0: 4fff 68bd ab24 ad3d ab93 4dbd f8a7 ff3d
000000c0: d094 87bd ae83 4a3d ac66 20bd 13d0 67bd
000000d0: 36a7 aa3d 636a e6bd 0fcf ddbc 4199 e73c
000000e0: 777e bcba 5771 603d 24b8 94bd 0bf8 bebc
000000f0: 423a 043d 4a7d 33bd 0219 c7bd 7dfc 38bd
00000100: d80c 913d 4faf b23d 0abf c53c ae52 3bbe
00000110: 33ba 89bd 81be 2ebd 4d8f 273e 81b1 a1bc
00000120: 367a 4a3c 4bb5 a03d f645 0a3e c0e6 233d
00000130: 8005 c9bd 5a4e b43d bc20 bb3c 5c4e bebb
00000140: be38 0e3d b526 9ebc fd34 5ebd c2dc b1bd
00000150: 9f1e 743d b4cf 4c3c 01c2 bf3c 6956 64bd
00000160: e77f 85bd f8f3 093e 66b8 23be 1086 92bd
00000170: 5e9e e53d f106 79bc 0eff b23d 6616 b83c
00000180: eaae 8b3d 67c7 343c 6629 a83c 86a5 1a3d
00000190: 688a 703d cd8a 89bd bbaf 86bd 0379 243d
000001a0: e83b ce3b 3b03 8cbc ca88 143d 8baf c63d
000001b0: a255 823d 4361 3b3d cee6 c03d 7f4b f43d
000001c0: 045f 183d 0294 47bc 6868 eb3d 3a99 2b3d
000001d0: 5cb4 273d f9de a2bb 9600 81bd 64eb c43d
000001e0: 9b73 de3c d0b5 06bd f019 0a3e cfe0 8cbd
000001f0: f4ca 02be 30ca 423d 03f1 9b3d 1dea 8dbd
00000200: bdef 723b cb3b 863d 9866 41bd d1e7 a83d
00000210: e294 f1bd 173a f73d 9383 5dbd a233 96bc
00000220: ff4e c03a ef30 a03c 4d32 083e 0826 e03c
00000230: b584 993d 000a 913c 72b8 0a3d 9d19 293d
00000240: 45fb 6abd 371a 9abd f7af bc3c 795c 0fbe
00000250: c12c 0cbc 1db2 d5bd 5ee4 193d 6ac6 733d
00000260: 7f88 cbbc 74c7 2bbd e1a1 adbd 704c dcbc
00000270: afbb 8ebd 4440 2d3c 7816 d43c e96e 643d
00000280: 4540 43bc f30a 263d 1364 62bc ed7c 3f3c
00000290: 34c8 f4bd 3301 f8bc 9fbb a63d 8904 eebc
000002a0: 97e1 f2ba 5048 cc3c dd64 91bd f27e 3c3e
000002b0: 3307 febd e7fc cc3d 31dc 673d 7e00 003b
000002c0: 46b8 da3d a9c7 5fbc 130a b63d 599d 423d
000002d0: 0844 35bd f011 a3bd 7985 1d3d f024 b03d
000002e0: 1615 8dbd 970d c3bd 01ed b23d 2281 8bbd
000002f0: 7c92 01bb da74 edbc eb9c 90bd 2fe5 17bd
00000300: f496 24bb 551f d8bc c5e0 febd e40d 12be
00000310: d7e8 8abd 000d b43c dbbf a13c 06b4 3ebd
00000320: e331 6a3d 314b db3c 4fe6 3c3e cc83 df3d
00000330: c7e4 363d e726 23bc 7083 1ebd f7c1 09bd
00000340: 4516 43bd 714d 26be 3d69 3d3c ecbc 09be
00000350: ce37 d3bc e0b1 c23a 70d8 84bc dc56 e2bd
00000360: 061a 523d 2f04 b73c 83fa 0a3c dc1d c3bc
00000370: 8d60 903c 11fe f4bc 7f82 a0bd 81f1 8dbd
00000380: c332 84bc 7b5d 163e ae87 abbd 5abe 57bd
00000390: 4165 583d 38e3 3cbd aaaa 833d 6c8e d0bd
000003a0: 6765 f23a 2ee5 c2bc 2298 423d fe72 a3bd
000003b0: 8138 cfbc 9c19 2d3c 1b55 e63c 738a 0a3e
000003c0: 5045 d73d c3d5 2f3e 212e d83d 66cd 11bd
000003d0: b50e 12be fa5d 0ebc 379a 6b3d 9617 a43d
000003e0: bd16 a93d ee74 0e3d e548 b13c 9d7f 13bc
000003f0: 4358 5c3d 8515 e93d 370f 3f3d 6701 72bd
