ecg_afib_detection/checkpoints/ptbxl/100hz/cnn1d/fold_3/last.pt (torch, 626357 bytes, 22 tensors)

features.0.conv.weight f4 [32, 12, 7]
00000000: 076e bdbc 022c 76be 542c 7eba 16aa 75be
00000010: f3f8 8cbe 563a 80bb 4af2 d3be 33ac 43bc
00000020: 2c30 58bd 777f 06be 3b5b f73d ac6c ed39
00000030: 7be1 383e 3c38 af3d 65c8 3cbd b76b fbbc
00000040: 1771 f0bd dca6 e7bd d184 2fbe fb88 8c3e
00000050: 1861 f13e a358 10bd 1c8d 653e 63f4 3abd
00000060: 9106 02be 2914 95be 8619 963c 330a 193e
00000070: 843d 543e e01e 523e f404 0c3d 716b db3d
00000080: 0714 c1bd 631a 3bbe b160 87bd 6d69 0abe
00000090: eb6c 963e 56d1 823c 4222 5abe 52db 613e
000000a0: fd4b 21be bf36 bdbd de87 8f3e 4d52 d73c
000000b0: 9655 44be 1824 0cbe 8c45 9cbc fd74 5abe
000000c0: b5f0 57be 456c 3bbe d693 83bd 226a 91be
000000d0: c498 aabd a119 0cbe 9b2d db3d af5e ec3c
000000e0: 10da 10be b5a7 2e3e b14a c53d 8558 95bd
000000f0: 5afa 5cbb ba1f 053d 7fa1 1cbe 9091 603d
00000100: 1f7c 8cbe afca 8a3c bf42 a1bc caf1 19be
00000110: 1b97 96bd 937d 89be c03f 433e c152 85be
00000120: c5bd b3bc 69dc cc3c b23d 753d 2726 33bc
00000130: 00a5 c33c e1a4 5abd e536 0b3d 5c29 0f3e
00000140: e966 6a3e f2ba a4bd 77d8 90bd a281 073e
00000150: 915b f93d 830c 1c3e ea1f f43d acd8 223c
00000160: f79d 16bc 79b2 a0bd acdf 33bc 602d 813d
00000170: e0e4 cb3d 052d 80bd 0bc2 24be 81c5 69be
00000180: 9d7c ea3c f323 ba3d 1e1c 87bd 46f5 173d
00000190: 5ccc db3d 3163 5dbe bb1f b63d d093 39be
000001a0: 738a febd f229 e2bd 5149 773d 2fb1 623e
000001b0: a0d8 903c e86a 323e c973 6e3e 016f d03d
000001c0: 1948 0d3e 7000 80be 4069 36be e9c5 303e
000001d0: 9dcc 0b3e 42a5 21ba 614a 893d da87 2b3e
000001e0: c56d 0c3d 7178 34be 51fd 4cbe 2528 a63e
000001f0: 216e bfbd 322f 39be b535 d9bd 1613 1bbe
00000200: 141b 33be 35c4 3fbd 7a5c 703d 1787 a13d
00000210: 4f15 e53d 9cf8 453e 09b8 2a3d 597d c93c
00000220: b989 ecbc 8414 02be 3619 103d 02fb 8dbd
00000230: 0739 0d3c b306 96bd d59e d83d e712 8cbd
00000240: 9a5d 5e3d aa53 813c f8a8 5f3e 4aea f5bd
00000250: bef5 75be 604e 803e d475 40bd 91a4 50bd
00000260: ec53 84be abde ff3c a48d 233e d9bb 69be
00000270: cc0e 563b 7b40 583d 6828 963d 9209 0bbe
00000280: f680 b73d 58c8 b5bd acab 8ebe 2729 45be
00000290: 0e6b e03d 9773 013e fbde ef3c 479b bdbe
000002a0: fc92 3d3e 76a3 48be 56ff b73d f609 183d
000002b0: 92de 223e 7d1f 1b3e 73da 823d 3d47 aa3b
000002c0: 48b8 a03e 1004 4e3e ca68 873d d27e 773c
000002d0: a8b2 46be 0085 abbc 9b0b cebe 0f6a 18bb
000002e0: 2b3b ec3c 613c cb3c e1e1 4d3e 28e0 463d
000002f0: a5ec e5bd 77e2 813e 9f85 71bd b95a c53c
00000300: 8ca9 513d 91e9 c0bc c9d2 61be 8973 5fbc
00000310: 3d9d 393e e8ee aebc fe68 053e 2fb0 b4ba
00000320: 04da 4abd 2c4d abbd e721 81bb 6a69 103d
00000330: b7fc cfbd f1b1 af3a fb00 9fbd 8636 acbe
00000340: 23ca aebc 6d3f 943e a101 193d bb4f e93d
00000350: d142 4dbe 8279 6e3d c63a 8cbd 7a8f 2f3e
00000360: 7bcf 07be b0b5 df3c 872f acbd 80fe 063e
00000370: 5d50 033e 71ff b4bd e74a f73c 5a5b 143e
00000380: 5432 ecbd 05d2 703e d735 103e 9ce0 6ebd
00000390: fbde 8abd a19a dabd eb11 5d3d b39b 253e
000003a0: 7f70 2dbe fab4 873d bfdc 5d3e 39c8 6d3e
000003b0: 08d5 2f3e c63f 673d e743 d43c 516a 363e
000003c0: 3e2d cd3d 777b 9f3d c4a8 3c3e fc60 05bd
000003d0: bd1e 06bd e1c6 4ebe d92c 3f3d 1310 4dbe
000003e0: c78b e3bd 3c35 113e 5b97 913e 2f60 c03d
000003f0: 7812 23bd 325e e2bd 1b56 aa3a 9cd8 14be
-0.023123754 -0.24040225 -0.00096959365 -0.23990664 -0.27533683 -0.003913204 -0.4139579 -0.011942911
-0.052780315 -0.13134561 0.12077948 0.0004528513 0.18054764 0.08555648 -0.04608955 -0.03069101
-0.1174032 -0.11311123 -0.17140509 0.27448258 0.4714439 -0.03524078 0.2241711 -0.04564322
-0.12697817 -0.29116943 0.018322717 0.14945297 0.20726591 0.2051959 0.03418441 0.10713852
-0.09427648 -0.18271784 -0.06610239 -0.13516779 0.29379973 0.01596896 -0.21302131 0.2205632
-0.15751643 -0.092389576 0.28033346 0.026284361 -0.19173273 -0.13685644 -0.019076131 -0.2133369
-0.21087916 -0.1830302 -0.06424682 -0.28401285 -0.08329919 -0.13681652 0.10702058 0.028853742
-0.14145684 0.17056163 0.09633387 -0.072922744 -0.0033718557 0.03250096 -0.15295981 0.05482632
-0.27438447 0.01694235 -0.019685147 -0.15033641 -0.0735304 -0.26853618 0.19067287 -0.260397
-0.021941075 0.025007444 0.05987329 -0.010934389 0.023882389 -0.053379897 0.0339879 0.13980621
0.2289082 -0.080434695 -0.070725374 0.13233045 0.12175668 0.15239148 0.119201496 0.009939354
-0.009192935 -0.07846541 -0.0109786205 0.06307483 0.09955764 -0.06258587 -0.16089647 -0.22829248
0.028623873 0.09088888 -0.0659716 0.037099145 0.10732338 -0.2161987 0.08892771 -0.18122792
-0.12428751 -0.11043157 0.060372654 0.22137903 0.01768142 0.17423594 0.23286356 0.10177422
0.13797034 -0.25000334 -0.17813587 0.17262997 0.13652273 -0.0006166288 0.0670364 0.16751042
0.034284372 -0.1762407 -0.20018508 0.32452503 -0.09347177 -0.1808441 -0.10605947 -0.15144
-0.17490798 -0.046817977 0.058681943 0.078870945 0.11185705 0.19333118 0.041679416 0.024595903
-0.028874265 -0.12703139 0.035180293 -0.069326416 0.008619553 -0.073254965 0.1057717 -0.06839543
0.054288484 0.015786964 0.218418 -0.12007578 -0.24019524 0.25059795 -0.04698737 -0.050938193
-0.25845277 0.031234106 0.15972 -0.22825564 0.0032662628 0.05279587 0.07331926 -0.1357787
0.08960144 -0.08876103 -0.2786535 -0.1925398 0.10957919 0.1264175 0.02928113 -0.3703253
0.18513101 -0.19593605 0.08984248 0.037118874 0.15905216 0.1514873 0.06389322 0.0051964805
0.31390595 0.20118737 0.06611784 0.01510592 -0.1940409 -0.020937443 -0.4024323 -0.0023256575
0.028836807 0.024809064 0.20105697 0.048553616 -0.11226777 0.2536809 -0.05896532 0.024091111
0.051187083 -0.023548873 -0.22053064 -0.013638386 0.18126388 -0.021354154 0.13028333 -0.0013785417
-0.049524322 -0.08364329 -0.003940809 0.03525678 -0.101556234 0.0013404471 -0.07763859 -0.33635348
-0.02133662 0.2895464 0.03735507 0.113921605 -0.2004502 0.058221348 -0.06847148 0.17144576
-0.13262741 0.027308315 -0.084075026 0.13183022 0.12823625 -0.08837784 0.030187083 0.14487973
-0.11533037 0.23517616 0.14083038 -0.058319673 -0.067808114 -0.106740244 0.053972166 0.16172676
-0.16937445 0.066263154 0.21666239 0.2322091 0.17171109 0.056457303 0.025911285 0.17813994
0.10018395 0.07787221 0.18423754 -0.032563195 -0.032744158 -0.20193054 0.04667363 -0.20025663
-0.11110645 0.14180464 0.28435788 0.093933456 -0.039812535 -0.110531226 0.0012995632 -0.14535755

features.0.bn.weight f4 [32]
00000000: 416d 783f ab39 803f 8620 723f a1d8 773f
00000010: ab7e 7b3f 8a9d 873f 44af 7b3f 4a1b 813f
00000020: 8191 7b3f 87fc 813f d60f 7d3f 4f96 7e3f
00000030: 7311 803f d091 853f bcde 823f 6d3d 813f
00000040: d894 7d3f f788 813f 38f2 853f 5a5e 7f3f
00000050: 8b7e 823f b764 813f 9a60 7c3f 03fe 823f
00000060: b758 803f 2fd7 863f b3c8 7b3f 5466 763f
00000070: 98fc 763f 8c2f 7e3f 472b 853f 0eb9 823f
0.9704171 1.0017599 0.94580877 0.96814924 0.98240155 1.0594952 0.9831431 1.0086453
0.98268896 1.015519 0.9885229 0.994481 1.0005325 1.0435123 1.0224223 1.0096871
0.9905524 1.0119923 1.0464544 0.99753344 1.0194868 1.0108861 0.985849 1.0233768
1.0027074 1.0534419 0.9835312 0.9624989 0.9647918 0.992913 1.0403832 1.0212724

features.0.bn.bias f4 [32]
00000000: e4a8 0abd cf01 1e3d 59de 8bbd 9467 a33c
00000010: 2411 233c 21a9 1a3d 2db9 8abc 928b c33d
00000020: bc55 983d d86f 03bc 36ce 033e b641 e03b
00000030: fb86 faba c065 07bc 6fd8 4d3d 2a81 af3c
00000040: 8c8f 013e cd76 1f3d a18d c83c 8096 ed3b
00000050: 7dff bc3c 1329 9d3d 8236 303c 5090 603b
00000060: 3097 7c3d 17c2 983d 8d24 833d 0d11 d63c
00000070: ec19 97bb b5d7 3e3c 2a33 b93d 19fe 32bc
-0.033852473 0.038575944 -0.06829519 0.01994685 0.009952817 0.03775895 -0.016934002 0.09548105
0.074382275 -0.008022271 0.12871632 0.006843771 -0.0019113714 -0.008264005 0.050255235 0.021423895
0.12652415 0.038931657 0.024481596 0.007250607 0.023071045 0.0767385 0.010755183 0.0034265704
0.06166762 0.07458895 0.06403456 0.026131177 -0.0046112444 0.011648108 0.09042962 -0.010924839

features.0.bn.running_mean f4 [32]
00000000: c5c8 24b8 eade 0538 cc19 8cb8 5fed 9338
00000010: b0c5 dcb8 837e 0bb9 c3c2 0c39 80a8 1137
00000020: 04fa ac39 1840 fab8 7a43 7e38 8eb5 a238
00000030: 385e 20b8 3bd8 7039 37f9 d4b8 c03c 82b6
00000040: a499 8639 b49d 3738 4a1e 02ba 60d5 2bb8
00000050: 9e96 8139 1057 59b8 1e79 58b9 4f89 3f39
00000060: 1cf3 3339 2ed3 77b9 f9a1 ea38 84cd 9138
00000070: c064 cb37 1096 4839 a081 4cb9 0448 2eb9
-3.9287628e-05 3.1917276e-05 -6.680525e-05 7.05372e-05 -0.0001052724 -0.00013303202 0.00013423995 8.6819055e-06
0.00032992673 -0.00011932867 6.062116e-05 7.758579e-05 -3.823472e-05 0.00022968736 -0.000101553676 -3.881374e-06
0.00025672943 4.3777472e-05 -0.000496362 -4.0968298e-05 0.00024717016 -5.1817915e-05 -0.00020644485 0.00018266331
0.00017161336 -0.00023634426 0.00011188159 6.952419e-05 2.4246401e-05 0.00019129389 -0.00019503245 -0.00016620761

features.0.bn.running_var f4 [32]
00000000: bf6c 1640 c060 0d40 7ccd 1840 5282 2940
00000010: a2af 6140 5e4c 8e40 b1fe 3540 d331 1540
00000020: 6882 2340 1d44 633f 6011 9f3f 9639 9640
00000030: 82c5 6240 639a 6340 eeb1 e73f c655 1340
00000040: 2a50 fc3f 6d79 863f 2dd2 a540 9b91 1040
00000050: 7154 5c40 57a8 0c40 9259 0540 4a10 0d40
00000060: 818e 2340 c859 7240 676d a83f 4ce9 3940
00000070: 26b9 2940 4473 1b40 b408 7740 02f0 a440
2.3503873 2.2090302 2.3875418 2.6485791 3.5263448 4.446822 2.8436701 2.331166
2.5548344 0.8877581 1.2427177 4.6945295 3.543305 3.556298 1.8101175 2.3021102
1.9711964 1.0505806 5.181906 2.258887 3.442654 2.1977746 2.083592 2.2041192
2.5555727 3.7867298 1.3158387 2.9048643 2.6519256 2.4289103 3.8599062 5.154298

features.1.conv.weight f4 [64, 32, 5]
00000000: ef8b 5c3c fdb9 18be fc6a 1abe 9f97 213e
00000010: e757 bb3d 7841 1b3d 5c00 dabc 92c9 f6bd
00000020: 1636 98bd 4370 30bc 0fd3 d8bc 9069 94be
00000030: 7d1a c0bd 93e8 4bbe 0c22 713d e42e efbc
00000040: 605b 64bd ecfa 7ebd 1636 4e3e cca4 f23d
00000050: 5ea8 9f3d 5d33 7a3d cffd 1c3d b846 183e
00000060: 9c5b 653e 8fd1 693d bef9 c4bd fb5e 5f3b
00000070: f77d 22be 861c 873d 9ff3 fc3c 0bc7 d8bd
00000080: 6712 823d 0996 cfbd eb1c 9a3e 151e 9e3e
00000090: 4ff9 f33b b896 06bd 6199 c93d ac54 043d
000000a0: 73cc 2dbe 2e2e 41bc a326 f93d a6d5 42be
000000b0: 6978 a7bc ae8c 2abe d18c 8fbb 1d16 26be
000000c0: 3333 10be 494b 9e3c e63e 13be 762e bcbc
000000d0: 1f24 69bd 4a5e 1fbb a5aa 313e ed29 a53c
000000e0: 6113 96bd f4de 9f3e 6a74 b3be 965d 683d
000000f0: 6f69 7cbd a3d6 583e 1454 103d 4326 973c
00000100: e83c 823d 7fb1 cebd b522 843d 0036 9ebe
00000110: 90ec 77bd 2b4c 7fbd d70d 00bd 4adc 573c
00000120: 4b10 cdbd 25a7 763b d3ed 953c a4ae bcbd
00000130: 8806 f6bc fda8 a03c 1c71 07be a5df 593e
00000140: 0007 6d3e 6642 25be 1c74 513e 579c 1bbe
00000150: e198 363e ca69 fcbd 84d8 f43d 5617 44bd
00000160: 4e69 08bd 6e17 1f3d 1e4e 75bd b7e4 0a3e
00000170: a4c2 2abd 5d8c cf3b c7c1 2cbe 290c 3d3d
00000180: 073f 55bd f66c 83bd 6a2f ab3d e7d2 8f3e
00000190: 619a 163e 98eb b23d 493d 21bd 2dd7 763c
000001a0: 33a2 9a3e b33d ec3b 51d3 c2bd 24fd 85bd
000001b0: 5b16 563e bebe 873d dc9d 2abd 5817 84bd
000001c0: dd7a 1a3e 8eea de3d 6843 21be 246d 023e
000001d0: f6d7 bfbd a94e 58be ea1e 843e 5ac0 0dbe
000001e0: d192 953d 1b1f 4dbd 86e6 073e 2879 4abc
000001f0: c1eb 8fbd b64f b43d 73e9 29be 013c 82bc
00000200: bfc9 0b3e efa8 83bd 96ca 083d a544 90bd
00000210: 5e29 a3bd 7b35 063d 4ce8 af3d 2d63 0fbd
00000220: fcd9 ab3c 68a1 debc 9a0f 023e 8797 953c
00000230: a13f fdbd efd8 8c3d 4401 85bd 9a08 20be
00000240: 20c5 663d 3af9 6d3d 1a80 10bd 8ff4 a63d
00000250: 52c2 573d 5b1c fc3c 16e6 8d3c 82cf 2abe
00000260: 5e7d e6bd 900f 93bd 75c2 53bd 3574 9cbd
00000270: 1449 483d 06d5 e2bd a38c 5abc 0362 0c3d
00000280: 312d d9bc 3f80 9fbd bbe0 3abc 327a 1a3d
00000290: 879a 8dbd e66f b23d 1bf4 d8bb 76e0 4fbd
000002a0: 0cb0 663d 944c 6c3d eb38 88bd 6352 223c
000002b0: 4c50 ae3d d956 3c3d 6c20 40bd 3393 14be
000002c0: acce e73d ea9e 283d f301 7a3d daeb 543e
000002d0: 1666 34be 369a 2f3c 5aff 483d d43f d23d
000002e0: b370 11be 96ae 4f3a c89d 67bd b71a 7ebd
000002f0: eed8 b0be 0b1c 193e ae2e 39bd e4ca 5dbc
00000300: 2f09 783e 335f 90bd 0f7e 7dbd 5f4f 50be
00000310: 013c b13c 7bfc 03be ea23 053e 2e2e 50be
00000320: e954 bb3b 41ca cebd 35e1 2cbd c1bd e43c
00000330: d76a 7d3d 4ade a03d c153 44bd d7b8 383d
00000340: 1dc8 c43c 242f a53d 9ec1 71bd eb1f 3c3d
00000350: d15b 78bd dbc2 a7bc 498e f63d 3425 643c
00000360: c3c7 fb3d eeef a8bb 24af 85bd b220 ea3d
00000370: 256b 26bd 3578 443d 2c99 f1bc b4eb 0fbc
00000380: 906d 1d3e 8824 42bd 5cb5 e8bd 6d01 d33d
00000390: 5a91 003e 4449 01be a14f cdbd af41 02be
000003a0: 6891 4b3d a468 93be 195b e539 b298 fb3d
000003b0: 0ca6 3d3e ee38 193d 2abc e53d 1519 d3bc
000003c0: 80cd c03c 4be3 b2bc ca17 36be 9d87 0ebe
000003d0: b8cd 943d fba2 d4bd dccf 993d d02a 8abd
000003e0: bfb0 913c c6e1 8d3d 7114 a9b9 6c71 e6bd
000003f0: a692 69bd afb9 04ba 2e43 a0bb 8f60 88bd
0.013461097 -0.14914699 -0.15079874 0.15780495 0.091476254 0.037904233 -0.0266115 -0.12050165
-0.07432191 -0.010768953 -0.026467828 -0.28986788 -0.09380052 -0.19912939 0.05887036 -0.029197164
-0.055751204 -0.062251016 0.2013782 0.11847839 0.07795785 0.06108414 0.03832799 0.14870727
0.22398227 0.057084616 -0.09617947 0.0034083712 -0.15868364 0.06597237 0.030877886 -0.105848394
0.06351166 -0.10136039 0.30100188 0.30882326 0.0074454914 -0.03285858 0.09843708 0.032307312
-0.16972522 -0.011790795 0.121655725 -0.19026813 -0.020443158 -0.16655228 -0.0043808003 -0.16219373
-0.14082031 0.019323008 -0.14379463 -0.022971373 -0.056919213 -0.0024317675 0.17350252 0.020161593
-0.07327915 0.31224787 -0.35049754 0.056729876 -0.061623987 0.21175627 0.035236433 0.018450862
0.06359273 -0.100924484 0.06451932 -0.30900574 -0.060528338 -0.0623285 -0.0312632 0.01317508
-0.10012873 0.0037636247 0.01830188 -0.092129976 -0.030032411 0.01961183 -0.13226742 0.2127672
0.23147202 -0.1613861 0.20454448 -0.15196358 0.17831756 -0.12324865 0.119553596 -0.047873817
-0.03330355 0.038840704 -0.05988895 0.1356381 -0.04168953 0.0063338713 -0.16870795 0.046154175
-0.05206206 -0.06417267 0.08358653 0.28090593 0.14707328 0.08736342 -0.039365087 0.01506595
0.30201873 0.0072095036 -0.09512962 -0.06542423 0.20906965 0.06628178 -0.041654453 -0.06449765
0.15085931 0.108845815 -0.1574837 0.12736946 -0.09367363 -0.21123756 0.25804836 -0.13842908
0.07303394 -0.050078493 0.13271531 -0.012357987 -0.07027388 0.08804266 -0.1659296 -0.015897753
0.13651179 -0.06428706 0.033396326 -0.07044343 -0.079668745 0.032765847 0.08589229 -0.03500669
0.020977966 -0.027176574 0.12701264 0.01826073 -0.12365652 0.06877314 -0.06494382 -0.15628281
0.056340337 0.05809901 -0.035278417 0.081521146 0.052675553 0.03077524 0.017321628 -0.1668072
-0.11254381 -0.07180703 -0.05169912 -0.07639352 0.048897818 -0.11075787 -0.0133391945 0.03427316
-0.026510807 -0.07788133 -0.011406119 0.03771419 -0.069142394 0.08712749 -0.0066208965 -0.050751172
0.056320235 0.057690218 -0.06651481 0.009907338 0.08511409 0.045981262 -0.04690592 -0.14509277
0.113187164 0.041167177 0.061037015 0.20793095 -0.17617068 0.010717919 0.049071647 0.102660805
-0.14203148 0.00079224387 -0.056546956 -0.062037196 -0.34540504 0.14952104 -0.045210533 -0.013537142
0.24222253 -0.07049408 -0.061887797 -0.20342778 0.021635057 -0.12889282 0.13001981 -0.20330116
0.005716909 -0.100971706 -0.04220696 0.027922513 0.06186947 0.07854898 -0.047931436 0.045098152
0.024021203 0.08065632 -0.05902254 0.045928877 -0.060634438 -0.020478657 0.120388575 0.013924886
0.12293961 -0.005155555 -0.06527546 0.114320174 -0.040629525 0.0479662 -0.029491983 -0.008784223
0.15373826 -0.04739812 -0.113627166 0.10303006 0.12555447 -0.12625605 -0.10024954 -0.12720369
0.049699217 -0.28790772 0.00043746157 0.12284984 0.18520373 0.037407808 0.1121753 -0.025768796
0.02353549 -0.021836897 -0.17782512 -0.1391892 0.072658 -0.103826486 0.07510349 -0.06746447
0.017784474 0.069278285 -0.00032249422 -0.11252102 -0.05702462 -0.00050630694 -0.004890821 -0.06659042

features.1.bn.weight f4 [64]
00000000: 57f8 7c3f 2e9a 783f 11e7 763f b863 773f
00000010: a0bc 743f 2ef1 793f 600e 803f 0aac 793f
00000020: 6455 783f 829e 7c3f b72a 773f 20a3 7f3f
00000030: 9f7e 7e3f c21f 803f 4559 7d3f 3047 773f
00000040: 8f70 823f e36a 723f 8c98 783f 05e3 813f
00000050: 3b02 823f ca0a 843f 7a6e 823f 1053 813f
00000060: b64f 813f 0de5 803f 7d0a 823f a1ca 833f
00000070: 6221 833f 65d7 773f a5f4 803f 2633 843f
00000080: e949 803f f586 763f 14c8 733f 111c 7a3f
00000090: 0b17 803f d688 843f 986b 7f3f ae08 843f
000000a0: 19c6 833f 7f17 983f 2b79 743f cbff 883f
000000b0: 185f 7f3f 9eeb 793f 9581 7d3f b7e5 813f
000000c0: de3e 813f a87a 893f f982 7d3f 1420 843f
000000d0: 104d 713f 4405 7f3f 2fba 853f c33c 793f
000000e0: 5e2a 833f 9815 803f be65 793f ea8e 783f
000000f0: b222 823f b5b8 833f b6f9 763f d5fd 8a3f
0.98816437 0.9711026 0.9644633 0.96636534 0.9560032 0.97633636 1.0004387 0.97528136
0.97005296 0.98679364 0.9654955 0.99858284 0.9941196 1.0009692 0.9896434 0.96593
1.01906 0.94694346 0.9710777 1.0147406 1.0156931 1.0315793 1.0189965 1.0103474
1.0102451 1.0069901 1.0159451 1.0296212 1.0244563 0.9681304 1.007466 1.0328109
1.0022556 0.9629968 0.9522717 0.97699076 1.0007032 1.0354259 0.9977355 1.0315149
1.029483 1.188217 0.9549739 1.0703062 0.99754477 0.9762515 0.9902585 1.0148228
1.009731 1.0740557 0.99027973 1.032229 0.94258213 0.9961741 1.0447444 0.9735834
1.0247304 1.000659 0.9742087 0.9709307 1.0166838 1.0290743 0.9647478 1.0858713

features.1.bn.bias f4 [64]
00000000: e7c6 4bbd 1e76 dbbc 7fba 1f3d f35f a138
00000010: 4ee3 9cbd 828f 0a3c d4b9 fdbc b183 1fbd
00000020: 93f0 78bd c506 483d b06b 1dbd 336d 9abb
00000030: 61cc 853b 0a4b c1bb 757b 06be e394 cdbc
00000040: b7e2 97bc 67f6 13bc e6bb 25bd 9a56 88bc
00000050: 94d1 84bb cb2c c2ba e07e fa3c bb50 8fbc
00000060: 7849 25bd 98de 5b3a e837 523b c710 c43b
00000070: 9ee3 713d a3a4 66bc 48fe 62bc a6b1 08bd
00000080: 83e7 c83c 7f15 2ebd 3a81 7cbd 5235 14bd
00000090: d898 413d 8348 0e3b 5a75 b8bc 6b57 f8bc
000000a0: f3c1 dc3c 87c2 f3bc 947f 8fbd 0cbb 003d
000000b0: e73a bb3b db39 9fbb 9887 7e3d 1595 1bbb
000000c0: ceff 94bc 0582 2a3d 0568 b4ba a2fe b93d
000000d0: 0a88 4fbd 379f 17bd 20e2 373d 657c 58bd
000000e0: 4724 64bc 8b62 5abd 7d11 0abd 6ded d43b
000000f0: 76ed cebc 95d2 0d3c 5796 40bc 7a32 bd3b
-0.049750235 -0.026789721 0.038996216 7.69495e-05 -0.076605424 0.0084570665 -0.030972399 -0.03894395
-0.060776304 0.04883458 -0.038432777 -0.0047127246 0.0040832018 -0.005898838 -0.13133033 -0.025095409
-0.018540723 -0.009030915 -0.040462397 -0.016642857 -0.004053304 -0.0014814375 0.030578077 -0.01749455
-0.04035327 0.0008387356 0.003207678 0.0059834453 0.059054963 -0.014077338 -0.013854571 -0.033372544
0.024524456 -0.04250097 -0.061646678 -0.036183663 0.047264904 0.00217107 -0.022516895 -0.030315122
0.026947951 -0.029755844 -0.070067555 0.03142838 0.005713809 -0.004859192 0.06214103 -0.0023739983
-0.018188383 0.041627903 -0.001376391 0.090817705 -0.050666846 -0.037017073 0.044893384 -0.052853007
-0.013924665 -0.053316634 -0.033708084 0.00649803 -0.025259715 0.008656164 -0.011754594 0.0057738395

features.1.bn.running_mean f4 [64]
00000000: bced b5bc 1a91 1ebf 8e7c 943f 9e23 4f3e
00000010: 1195 903f 1ff7 0abe a6f4 0fbf 6b2f bb3f
00000020: f431 a8bd eab6 2d3e d3ce f2be 2a54 84bf
00000030: 6b29 36bf b432 43be 6db4 6e3e 7b40 823f
00000040: b43c 4fbf eeda 263f 99ba c5be 0599 98bf
00000050: dc34 88bf 5f34 58be be65 983d a9d4 9abe
00000060: dc7b 62be aace 9dbf fa3b 95bf 9662 eabe
00000070: c62e adbe c095 313e 4350 043b 5192 8abf
00000080: 3de1 aabe 4278 9c3f dcf5 383f 2e95 b93e
00000090: 4fe7 41bf 9571 a2be bb6a 10be 5495 dbbe
000000a0: 4af7 c8be 1cd8 07bf 9dd9 e33f 3464 d3be
000000b0: d5e9 0abf 7142 45bc 97ec 7dbf 270d 32bf
000000c0: a7af 21be 4f37 2dbd 01de febe 90ad 34bf
000000d0: dfbd 0d3f e7e2 e6be f593 53bf 3e9d 7d3f
000000e0: cd39 19bf e511 fabe 02d2 89bc 6d6b 26bf
000000f0: 2d0d e5be ecba 93bf 1810 b73c 6e35 83bf
-0.022208087 -0.6194016 1.1600511 0.2022843 1.1295491 -0.13570832 -0.5623268 1.4623846
-0.08212653 0.16964307 -0.4742342 -1.0338185 -0.7115695 -0.1906231 0.23311014 1.0175928
-0.80952 0.6517781 -0.38618925 -1.1921698 -1.0641131 -0.21113728 0.07441281 -0.30240372
-0.22117561 -1.2328694 -1.1658928 -0.4577834 -0.33824748 0.17342281 0.0020189441 -1.0825902
-0.33374968 1.22242 0.7225015 0.36246628 -0.75743574 -0.3172728 -0.14103214 -0.42887366
-0.39251167 -0.5306413 1.7800785 -0.41287386 -0.5426305 -0.012039767 -0.9918913 -0.6955132
-0.15789662 -0.042289075 -0.4977875 -0.70577335 0.55367845 -0.45094988 -0.8264764 0.9906806
-0.5985382 -0.48841777 -0.016823772 -0.6500767 -0.44736615 -1.1541419 0.022346541 -1.025068

features.1.bn.running_var f4 [64]
00000000: ee28 873f 4aaf ca3f 4fc6 e73f 402f 443f
00000010: 23c3 e03f 570b 993f a4ec 373f 91af 1f40
00000020: 3bce d33f a34a 643f 30aa de3f 185b 9f3f
00000030: 0375 a03f 4de7 683f fcee 5d3f aa52 c93f
00000040: 112d 7f3f b6aa 7b3f 907d b03f 9b57 9b3f
00000050: 9a5d 843f e531 0d3f 509f 233f d0fc 493f
00000060: f108 9d3f f144 b93f 0df3 bd3f 64b9 533f
00000070: ce35 593f 4bbc 063f a296 ed3f 11a9 ad3f
00000080: 530d 823f 499e b13f 4c8e 423f ea1b 7b3f
00000090: c869 543f 4992 983f 9492 5d3f eda4 673f
000000a0: 65d0 cd3f 8d71 663f 0dc6 3a40 0695 113f
000000b0: d51a 9b3f 3ddf a53f db4c c73f 3783 ea3f
000000c0: 5257 593f 5947 663f 793a a23f a23e b33f
000000d0: 7bfd 643f d816 933f d61d b23f a495 9e3f
000000e0: fc2e 403f 17ff 613f 97f3 c43f e19b 663f
000000f0: 0d0e 813f bed5 1240 c385 5d3f 33ff e03f
1.0559366 1.5834744 1.8107394 0.766346 1.7559551 1.1956586 0.7184546 2.4950907
1.6547312 0.89176387 1.7395687 1.2449675 1.2535709 0.90977937 0.86692786 1.5728352
0.9967814 0.9830736 1.3788319 1.213611 1.0341065 0.5515426 0.63914967 0.78901386
1.2268354 1.4474164 1.4839798 0.8270476 0.84847724 0.5263106 1.8561594 1.356722
1.0160316 1.387643 0.7599838 0.9808947 0.8297391 1.1919643 0.86551785 0.9048603
1.6079222 0.90017015 2.918338 0.56868017 1.2117563 1.2958752 1.557033 1.8321294
0.84898865 0.8995262 1.2674094 1.4003489 0.8944928 1.1491346 1.3915355 1.2389417
0.7507169 0.8827986 1.5386838 0.900816 1.0082413 2.2942958 0.8653223 1.7577881

features.2.conv.weight f4 [128, 64, 5]
00000000: e254 053e 75db 93bc f1f0 f83d d579 ba3d
00000010: 10bf 1a3d eff1 b0bd 8f3a 013d 9dac 0dbe
00000020: 2d61 193d ed8b 22bd 3cb2 44ba 9289 663a
00000030: ba83 5b3d a69c 923c 1045 953d b50f 2abd
00000040: 14da 753c 7d66 1fbc 1684 23bd feed bbbd
00000050: 57ec 083e 9275 9d3c 3224 47bd 4df9 aabd
00000060: d12d aabd c74d 8dbc 4b7e da3d d2d5 9abd
00000070: bee9 96bd e7a0 f83c 8920 06be ab35 693e
00000080: 6339 f83b df62 273e 1278 da3d 3b87 653d
00000090: 1966 593d ac4b 50bd b562 5d3e 6ee7 303e
000000a0: 07a0 293c 3eae 33be 2884 873d 56c5 1fbc
000000b0: 2ad1 9fbd 237a 783c ef95 2dbd 038c 38bd
000000c0: 2cd3 20bd 8832 2e3c 354e 533d 6a62 403d
000000d0: cc75 8b3d f601 98bc e639 f9bc 8080 c0bc
000000e0: 5f5b c03d bcee c63d 59d6 9abd b51e 70bd
000000f0: 7878 7cbc 23b0 dd3d 5b5a 423d 583e a93d
00000100: 8f2c b1bc 57d4 96bd 2495 b13d 16eb f03d
00000110: cff6 4d3d 2ab0 70ba d187 d2bd fe76 85bc
00000120: 9fab a0bd 75da 86bd 9389 e63d 51b9 2fbd
00000130: 7929 52bd 6fc7 1abe 491b dcbc 4239 d73d
00000140: 9948 94bd 7ba4 a2bd 6ef4 28bc 4edc 82ba
00000150: 1435 1e3d 7599 3ebd 094b 0e3d 05e4 b8bd
00000160: ee95 5abb d13e e43d 8efb 46bc b817 da3d
00000170: 70c7 85bd cb7a 04bd 207e c23b 5395 3f3d
00000180: 22f2 13be a27a 053e 652d 213b c003 d53d
00000190: 802f fe3c 5a69 4ebe bf98 91bd 5dc9 4e3d
000001a0: 77a1 88bd d161 cc3d 8a89 0fbd d979 4c3d
000001b0: fc3e 203e b24f e9ba d00a dd3d 41f4 cfbd
000001c0: f635 b4bb ebf1 20bd 3ca3 a0bd 5a78 bf3c
000001d0: 0ec7 b7bc dc85 033d 6b8b 56bd 8178 f23b
000001e0: 5477 30bd a639 4e3d c93f ea3c 1f13 f9bd
000001f0: bbb2 053e 27e1 2dbb f0e8 9a3c 8ca1 8dbd
00000200: 9d1c 8e3c 92a1 8c3d 6483 6abd af8f 09bd
00000210: a742 a43c 1ef1 963d 754c 063d 2a4f 4cbd
00000220: 73ee 06be 8954 3bbd 8677 94bd 1127 5a3d
00000230: c255 0a3e 672f 023d 4438 46bd 2fdf efbd
00000240: e78c 2b3e ec9d e3bd 8e79 fd3d 5d64 923d
00000250: 7287 3dbc 7a20 643c 85f8 43be 17a6 f93c
00000260: 6097 14bb 1e73 cd3b ff83 343d c65f 1abe
00000270: b672 b73d 5565 093e f0aa 0b3d ea79 843d
00000280: 93e3 43bd 2582 08bc cb2e 7b3c a7cf 1b3e
00000290: 7941 973d e62e 823e 5ed7 e43d c139 00be
000002a0: a1aa 34bd 36bb 55bd 39ed c13c e4ff b3bc
000002b0: a2d1 18bd 76c7 a3bd 91a6 88bc 7a9d b03d
000002c0: f3ce f43d 9d5a 5dbe 3a89 203d 124b 8c3d
000002d0: 6db9 05be 20a9 863d ef57 b6bd 574c 2dbd
000002e0: c6fb b13b 7a71 743d 58c1 59bd c77c 423d
000002f0: dada da3d fe33 933c 6fa4 873d 8dad 513d
00000300: 49bd 693c 3ffb 02bd 7fcf 483d 93bb 96bd
00000310: b66f c73a e611 b9bc 7c3b 84bd 451b a03d
00000320: a9c4 433e b71f f4bc f090 093e ee01 18bd
00000330: 3dbb 1cbc eebe 0bbe 5302 69bd ba7f d0bd
00000340: 9f47 96bd 5dc5 8abd 7559 07be 5a23 98bd
00000350: 9681 7cbd bcda f43d 2c3d 293d 9914 15be
00000360: f032 cb3d 5540 873d 1e33 d23d a6a8 1c3d
00000370: fc8e d13c 4ff9 8d3d d5dd 013e 67f1 5e3c
00000380: c55d 9a3d 5448 d43c ebca 91bb a513 953c
00000390: e2d9 83bc 8143 c23a e077 01bc 6af9 d3bd
000003a0: 5cfc 12bd 151b 623c 0088 4d3d 1546 24bc
000003b0: ae5d c33d 66fd a23d d727 2d3d 8e72 af3d
000003c0: 6835 57bb ae86 8f3c 79d8 ba3c d39d 663c
000003d0: a17b 2a3d b7c2 67bd 8474 6dbd 3e9d e83c
000003e0: 0025 173d 8c61 663d f55b 393d a136 58bd
000003f0: e823 1eba 69ca 123c 924d 1f3e 1e6b fabc
0.13020661 -0.018048981 0.12155331 0.09105269 0.037779868 -0.08639895 0.031549986 -0.13835378
0.03744619 -0.039684225 -0.00075033656 0.0008794303 0.05359242 0.017896961 0.07288563 -0.041518886
0.015005607 -0.009729025 -0.03992089 -0.09176253 0.13371406 0.019221101 -0.048618503 -0.083483316
-0.0830952 -0.017249001 0.1066862 -0.07560314 -0.073688015 0.030350162 -0.13098349 0.22774379
0.0075752004 0.1634631 0.10667433 0.05603717 0.053075884 -0.050853416 0.21619685 0.17275783
0.010353095 -0.17546937 0.06617004 -0.009751638 -0.07803567 0.015165838 -0.042379316 -0.0450554
-0.03926389 0.010632165 0.051588256 0.046968855 0.06809577 -0.018555623 -0.030423116 -0.023498774
0.09392428 0.09713504 -0.07560415 -0.058623035 -0.015409581 0.10824611 0.04744945 0.08263844
-0.021627693 -0.07364719 0.086710244 0.11763589 0.050284203 -0.0009181524 -0.10279811 -0.016292091
-0.07845234 -0.06584636 0.11256709 -0.04290134 -0.051309083 -0.1511514 -0.02686848 0.10508968
-0.072404094 -0.079415284 -0.010312183 -0.0009983869 0.038624838 -0.046533067 0.034739528 -0.09027866
-0.0033353525 0.11144794 -0.012144936 0.10649055 -0.0653218 -0.032343667 0.0059354454 0.046773266
-0.14447835 0.13035062 0.0024593708 0.10401106 0.03102851 -0.20157376 -0.07109212 0.050485004
-0.06671422 0.099795945 -0.035043277 0.04992089 0.15649027 -0.001780024 0.10793078 -0.101540096
-0.0054995967 -0.03929321 -0.078436345 0.023372818 -0.022433784 0.03211008 -0.052379053 0.007399619
-0.04308255 0.050347947 0.028594868 -0.1216185 0.13056462 -0.0026531906 0.018909901 -0.06915578
0.017347628 0.068667546 -0.05725421 -0.033584293 0.020051314 0.07370208 0.03278776 -0.049880184
-0.13176899 -0.045734916 -0.0724936 0.053259913 0.13509277 0.031783488 -0.048393503 -0.11712491
0.16752969 -0.111141056 0.123767 0.07148049 -0.011567937 0.013923759 -0.19137771 0.030474706
-0.0022673234 0.0062698266 0.044071194 -0.15075597 0.08957426 0.13417561 0.034098566 0.06468566
-0.047824454 -0.00833181 0.0153309805 0.15215932 0.07385535 0.25426406 0.111738905 -0.12522031
-0.044108037 -0.05218049 0.023672687 -0.021972604 -0.037309296 -0.079970285 -0.016680988 0.08623786
0.11953535 -0.21616597 0.03919337 0.06850256 -0.13059016 0.06575227 -0.08903491 -0.04230913
0.005431625 0.059678532 -0.053162903 0.04748228 0.10686274 0.017969128 0.0662316 0.0511909
0.0142663205 -0.03197789 0.04902601 -0.07359996 0.0015215788 -0.022591542 -0.06456658 0.07817701
0.19117989 -0.029800279 0.13434196 -0.037111215 -0.009566125 -0.13647053 -0.056886982 -0.10180612
-0.073378794 -0.06775925 -0.13217719 -0.07428618 -0.06164702 0.11955783 0.041318104 -0.14558639
0.09921825 0.06604067 0.10263656 0.038246773 0.025580876 0.069323175 0.12682278 0.0136073595
0.07537416 0.025913395 -0.0044492385 0.018197844 -0.016095106 0.0014821143 -0.007902116 -0.10350306
-0.0358852 0.013800402 0.050178528 -0.0100264745 0.09539352 0.07958488 0.042274322 0.085667714
-0.003283823 0.017520275 0.0228083 0.014075714 0.041621808 -0.05658218 -0.057972446 0.028395291
0.03690052 0.05624537 0.045253713 -0.052786473 -0.0006032572 0.008959391 0.15556934 -0.030568656

features.2.bn.weight f4 [128]
00000000: 7795 823f f5f6 6f3f d723 703f 828e 763f
00000010: b9f0 743f f617 743f 24a3 743f 38b2 713f
00000020: a19b 773f 5d97 783f d644 763f 5bf1 813f
00000030: 4edf 843f 3f5b 803f eb69 833f bc18 803f
00000040: 1387 6f3f bc91 7c3f c8c1 753f b615 7d3f
00000050: 8044 7e3f f31a 803f 2e63 773f 4b43 713f
00000060: 715b 843f cf02 823f b8f4 7f3f 5c7d 7b3f
00000070: 773f 7c3f 213e 823f b53d 6a3f 38db 843f
00000080: b708 833f cd13 7d3f b458 7c3f 42ab 833f
00000090: de31 803f b056 833f 10c8 803f 900b 7f3f
000000a0: 0a61 863f 921d 7e3f 099a 7b3f 4c39 883f
000000b0: 45f0 703f 5f10 7e3f 9cb9 753f bf0e 803f
000000c0: 1ea4 863f 574d 803f a932 7b3f b93c 6d3f
000000d0: 9e72 773f 6a41 833f f59f 6f3f aa9f 7f3f
000000e0: e55d 783f d1d5 803f a73e 833f 59c6 7e3f
000000f0: b234 773f dd23 7a3f ff46 843f e963 843f
00000100: 321f 7f3f 5f88 7c3f 698e 7a3f 9bc3 813f
00000110: 3756 773f c585 6d3f d297 803f 0c7b 873f
00000120: 7d37 843f 4f54 793f ee0c 793f 6c8c 763f
00000130: aa36 743f c658 853f 9c1c 7f3f b394 713f
00000140: 247b 7f3f 3d5f 713f f712 7c3f 7c92 733f
00000150: a61d 843f 8c13 733f 7ef0 743f 2b6d 863f
00000160: 8ac7 6b3f 3590 813f 3bbd 7d3f c591 6d3f
00000170: 3c1b 723f d7dc 773f b123 7e3f 37b2 6e3f
00000180: 447f 853f fdda 813f 88e5 803f ee10 733f
00000190: 2cb8 743f 3401 853f b49b 7f3f f8b3 853f
000001a0: ac4c 693f 11aa 903f 1c70 753f afe4 803f
000001b0: 3bbe 7c3f 485e 803f ca95 803f 369f 873f
000001c0: efe6 6f3f 8239 803f 9d1b 753f 835a 833f
000001d0: 1eee 753f 422c 803f 40f7 6a3f 8aae 6c3f
000001e0: 0d8b 833f 0fe8 843f f2ba 823f 5935 753f
000001f0: a3ff 803f fbea 683f 419f 793f da1e 8a3f
1.0201863 0.937362 0.9380469 0.963112 0.95679814 0.9534906 0.9556143 0.94412565
0.96721846 0.9710596 0.96198785 1.0151781 1.0380647 1.0027846 1.0266699 1.0007548
0.9356548 0.98659873 0.9599881 0.98861253 0.9932327 1.0008224 0.9663571 0.94243306
1.0340406 1.0157107 0.99982786 0.9823816 0.9853434 1.017521 0.9150041 1.03794
1.0237035 0.9885834 0.9857285 1.0286639 1.0015218 1.026083 1.0061054 0.9962702
1.0498364 0.9926387 0.98281914 1.0642486 0.9411662 0.9924373 0.9598634 1.00045
1.0518835 1.0023602 0.98124176 0.9267078 0.96659267 1.0254338 0.9360345 0.99853003
0.9701827 1.0065252 1.0253495 0.99521405 0.9656478 0.97710973 1.0334166 1.034299
0.99656975 0.98645586 0.9787355 1.0137819 0.9661593 0.9278224 1.0046332 1.0584426
1.0329434 0.9739427 0.97285354 0.96308017 0.9539591 1.0417717 0.9965303 0.9436752
0.9979727 0.9428595 0.9846644 0.9514539 1.0321548 0.949517 0.9567946 1.0502065
0.9210135 1.0122133 0.9911687 0.9280055 0.94572806 0.9682135 0.9927321 0.93240684
1.0429463 1.0144955 1.0070047 0.9494771 0.95593524 1.0390992 0.9984696 1.0445547
0.91132617 1.13019 0.9587419 1.0069789 0.9872777 1.0028772 1.0045712 1.0595462
0.9371175 1.001755 0.9574526 1.0261997 0.96066463 1.0013506 0.91783524 0.92453825
1.027681 1.0383319 1.0213301 0.9578453 1.0078014 0.9098355 0.9750863 1.0790665

features.2.bn.bias f4 [128]
00000000: 2a54 85bd fae3 c4bd cca1 e6bd 59a5 8abd
00000010: 525f 74bd 58a6 86bd 7d73 7abb 1812 52bd
00000020: d1d4 53bd cabf 93bd e382 f0bd ef69 1bbd
00000030: 0262 cabc 8ab0 05be 210b 00bd 3c9c a2bb
00000040: 2e5c c7bd ebcc 94bd f965 dabd d3e4 f6bc
00000050: bb91 96bd ebcc 6abd ecbf 80bd 9516 96bd
00000060: 500d 49bd f993 56bd 0546 bcbc 8959 eabd
00000070: 224a 47bd 95cf 05bd 87c2 8ebd d530 9dbd
00000080: 657c 4ebd 4ae7 7fbd d805 e1bd 8f3f 8fbd
00000090: e075 b2bd 8197 a3bd e495 19bd f6e3 25bd
000000a0: a8bc 15bd 6098 69bd 6a25 65bb e9db 82bd
000000b0: 16d9 a4bd fff8 1ebd 6c97 80bd 2422 30bd
000000c0: 00f2 b5bd 0cc3 56bd 389d 0bbe a124 83bd
000000d0: 2543 7bbd e13a 99bd 13b4 8abd 988d 46bd
000000e0: 9ebd c2bc bde9 bfbd 5456 f1bd 867c afbd
000000f0: badf dbbd 4a17 9bbd 6621 abbd 1d16 97bd
00000100: cd74 a1bd 8f04 ccbd 7ede a9bd 9647 44bd
00000110: 7bb2 8bbd 9ee4 d0bd 3dcf d2bd c0a9 8fbd
00000120: beaa 0ebe 5c2b debd 0e8d 97bd f73a 49bd
00000130: 2e3d a0bd a6d0 8cbd 6601 9bbd ba74 8dbd
00000140: e832 31bc e3e3 55bd 5210 94bd d707 39bd
00000150: 8666 4bbd 1d94 a4bd 07db a5bd d474 7abc
00000160: b4b0 dbbd 6c00 aabc f56b 6fbd 5450 9dbd
00000170: f896 51bd 5fd6 95bd 7d1a b9bd aa1b c9bd
00000180: 2a71 d0bd e571 87bd c342 94bd 06d5 a3bd
00000190: 5f46 82bd e587 b639 8d37 22bd 30c7 40bd
000001a0: 054c 57bd cfa6 21be 3aea d2bd 36b3 02be
000001b0: 9f1e cdbc f815 9bbc 0078 603a 6e3e 77bd
000001c0: b53e 62bd 005a 85bd a159 d2bd 33ea 8abd
000001d0: cc76 edbd b3e6 f3bc e207 8abd 7d9c b1bd
000001e0: c011 14bd e506 a3bd b5b8 aabd 367f b0bd
000001f0: 0a35 6ebd aec4 c0bd 88e7 a0bd 222f ccbd
-0.06510194 -0.096137956 -0.11261329 -0.06769819 -0.059661217 -0.06574696 -0.003821581 -0.051286787
-0.05171663 -0.07214315 -0.11743715 -0.037942823 -0.024704937 -0.13055626 -0.031260613 -0.0049624722
-0.09734379 -0.072656475 -0.10663981 -0.030138409 -0.07352015 -0.05732433 -0.06286606 -0.07328526
-0.04908496 -0.05238721 -0.022982607 -0.11442859 -0.048654683 -0.03266867 -0.06970697 -0.076753296
-0.0504116 -0.062476434 -0.10987443 -0.06994545 -0.08713889 -0.079878815 -0.037496462 -0.040500604
-0.03655687 -0.05703008 -0.0034964927 -0.06389601 -0.08049218 -0.03881168 -0.062788814 -0.04300131
-0.088840485 -0.052432105 -0.13634193 -0.06403471 -0.06134333 -0.074819334 -0.06772628 -0.048474878
-0.023772057 -0.09370754 -0.11784044 -0.08568673 -0.10736032 -0.075728014 -0.083559796 -0.07377265
-0.07883606 -0.09961807 -0.0829439 -0.047919832 -0.06821152 -0.10199855 -0.10293434 -0.07014799
-0.1393232 -0.10848114 -0.07399951 -0.0491285 -0.07824169 -0.06875734 -0.07568626 -0.069070294
-0.01081536 -0.052219283 -0.07229675 -0.045173492 -0.04965832 -0.08036063 -0.08098417 -0.015286643
-0.10727063 -0.020752154 -0.058452565 -0.07681337 -0.051169366 -0.07316279 -0.09038255 -0.098197296
-0.10177834 -0.066135205 -0.07239296 -0.07999615 -0.063610785 0.00034814994 -0.03960376 -0.04706496
-0.052562732 -0.15786289 -0.102985814 -0.12763676 -0.025039015 -0.018931374 0.0008562803 -0.060362272
-0.055235583 -0.06511307 -0.102710016 -0.06782951 -0.11594924 -0.029773092 -0.06739785 -0.08672426
-0.03614974 -0.079602994 -0.08336011 -0.086180136 -0.05815605 -0.09412514 -0.07856661 -0.09969927

features.2.bn.running_mean f4 [128]
00000000: acf9 383f fce8 05bf 704a db3e cc4c e9bf
00000010: 42a1 373e 6844 20bf 0e7f 413f d78b aebf
00000020: cba1 053f 4eca e1be 0574 bd3e 3a04 ccbf
00000030: 7e46 4b3c 58d7 943e 5b06 253f 1a3a 803f
00000040: 7fa3 adbf c3bf c1bf 00fc 193f cd49 343f
00000050: 1729 ddbe 5cd8 973f 19cf 5b3f 4944 49bf
00000060: 1d3e 123e d4e7 c1bf c938 153d 0732 ee3f
00000070: 3fe3 51bf b995 34bf 88b6 693f c5c8 223d
00000080: 5e06 c7bf 4548 28be 044b 6abf db74 d5be
00000090: 48f6 ad3e 3320 8e3f b1b4 d3be 7d7e 98bd
000000a0: d66e 8cbe fdf1 253d 4fb7 05bf 9889 7ebf
000000b0: d9bb 33bf 50ea 96bf 8e1b e7be 0c60 4d3f
000000c0: 8168 9dbf 4700 6ac0 8ef7 d1bf 370d 22bf
000000d0: 7e43 013f e350 353e e806 053f 6bd1 b9bf
000000e0: aae2 38bf 29c5 6dbe b297 84bf 2a0c 9abe
000000f0: 4210 adbe a48e 823e 8b00 31be 482e 20c0
00000100: 8bb9 2fc0 ba6e c53e 630c 153e 0bb1 16bd
00000110: 14c5 4a3f 85bf b1bf 1464 df3f 420e c3bf
00000120: 1c08 143f 54f9 bdbf 800a acbe 9a5a b6be
00000130: b7b7 04bf 7304 7b3e b3b8 adbf 2368 fb3c
00000140: 37cf e0be 368e f9bd 50cd b8bc 4f31 b4bf
00000150: 24c9 83bf 946f a7be acea 81bf 4676 313d
00000160: f743 9dbf 8de4 ebbe fa57 8dbf 5fad d03e
00000170: 7c72 04bf f1c2 70bf 2ced 2a3c d8c8 e9bd
00000180: e590 06c0 38fc 85bf 3b74 133f d290 453f
00000190: 627b fb3e ac0b b7bf 0af6 633f 9b41 27bf
000001a0: 2638 3f3c 9016 f03e f7d6 8bbd c35a 7dbe
000001b0: d1ed 4d3f 13a9 0c3e c9fa 37be e24e a6bc
000001c0: dd58 11be aedd 573c 4535 aabf c410 053e
000001d0: f991 49bf 47ce 763e 9676 19bf c9e8 98bf
000001e0: daa4 cebe 8843 0c3e 4ba5 ff3e 4a43 69bf
000001f0: 08bb 6abf d0ca 6fbf 4476 bcbf 6b1c a83e
0.7225597 -0.5230863 0.4283023 -1.8226562 0.17932609 -0.6260438 0.75584495 -1.3636426
0.522 -0.4409966 0.37002578 -1.593879 0.012406943 0.29070544 0.6446282 1.0017731
-1.356552 -1.5136646 0.60150146 0.7042511 -0.43195412 1.1862903 0.8586288 -0.7861982
0.14281507 -1.5148873 0.036431108 1.8609017 -0.81987375 -0.7054096 0.91294146 0.03974225
-1.5548818 -0.16433819 -0.91520715 -0.41690716 0.3397696 1.1103576 -0.41348794 -0.07446001
-0.2742831 0.04051398 -0.5223283 -0.994287 -0.7020851 -1.1790257 -0.4513821 0.8022468
-1.2297517 -3.656267 -1.6403673 -0.63301414 0.5049361 0.17706637 0.51963663 -1.4517034
-0.7222086 -0.23219742 -1.0358794 -0.30087405 -0.33801466 0.2549945 -0.17285363 -2.5028248
-2.7456996 0.3856104 0.14555506 -0.036789935 0.7920697 -1.3886572 1.7452416 -1.5238726
0.57824874 -1.4841714 -0.3360176 -0.35615999 -0.51842827 0.24513416 -1.3571991 0.030689305
-0.43908092 -0.12185328 -0.022558838 -1.4077548 -1.0295758 -0.32702315 -1.0149741 0.043325685
-1.2286366 -0.46072808 -1.1042473 0.40757272 -0.5173719 -0.94047457 0.010432523 -0.11415261
-2.1025937 -1.0467596 0.5759923 0.77174103 0.4911757 -1.4300437 0.890473 -0.6533448
0.011671102 0.46892214 -0.06828111 -0.24741654 0.80441004 0.13736372 -0.1796676 -0.020301286
-0.14194055 0.013175411 -1.3297507 0.12994677 -0.7873836 0.24102126 -0.5994657 -1.194604
-0.40360147 0.13697636 0.49930796 -0.911183 -0.9169164 -0.9366884 -1.4723592 0.3283418

features.2.bn.running_var f4 [128]
00000000: 6b65 c73f 934a 943f d270 2c3f db64 eb3f
00000010: b939 ab3f e4fd 363f d9cb d13f d8b9 0a40
00000020: eb23 993f be5b 763f 0336 883f 5254 dc3f
00000030: 6407 983f a3d7 903f 5884 b03f a089 833f
00000040: 4d7b a73f 0095 bf3f 1e40 453f fb39 b03f
00000050: 25f2 a83f 1261 803f e5c8 1d40 6245 6340
00000060: abc1 ac3f 0df0 8d3f 3fbb 4d3f c961 913f
00000070: 8417 1240 bf68 2e40 4a07 0b40 e026 a23f
00000080: ee98 0f40 bc4a c23f ee0d a53f 0959 a33f
00000090: 806f 8b3f f023 923f 9a6f a53f 1ec2 ff3f
000000a0: 2f72 9d3f e099 a33f e652 c73f f83c 873f
000000b0: d8b6 a93f 5e3b c93f 3350 9f3f 4846 233f
000000c0: ccb8 e33f 8f09 8340 3739 b73f d556 b73f
000000d0: f545 5e3f 741f 5d3f f511 1840 32ee c23f
000000e0: bbb6 973f fc6f ae3f 0794 883f e8f0 c13f
000000f0: 2fb2 833f 6902 8d3f 2966 c73f e55f 1040
00000100: bfd6 1b40 f558 0f40 f179 643f 6492 893f
00000110: d3e4 943f 05be 973f 2f7d fa3f f9a3 233f
00000120: e569 0040 e120 0940 f329 aa3f 6bd2 9b3f
00000130: f67e 6d3f 4a20 393f 8352 c03f 6cec 1240
00000140: fbca 923f 725e 9b3f 8312 c73f d7c0 c83f
00000150: 0686 0640 ee54 cb3f b06f ef3f 86d7 943f
00000160: cf37 943f 0628 9d3f 0c13 f03f 9605 a53f
00000170: 169e 0240 866c 703f b480 cb3f ddc4 4b3f
00000180: 48fe 0e40 972d 5f3f 46e9 683f 0dbe ec3f
00000190: f308 823f cfe0 2440 1916 5e3f 36ff 833f
000001a0: 7124 4d3f b817 7e3f 76a6 a03f 325f 5a3f
000001b0: 9be2 813f 31ea 6f3f 05cc 813f cea7 773f
000001c0: b253 7b3f 3b56 a63f 8e5b a83f 15bd 6f3f
000001d0: 98d2 9f3f 9b86 673f b7b1 983f 29de f13f
000001e0: dcd5 a23f 9dfb 833f aae3 9b3f 10db f83f
000001f0: d310 f43f 1592 473f b38d d03f 0ab1 9a3f
1.5577825 1.1585258 0.6735965 1.8390154 1.337699 0.71481156 1.6390334 2.167593
1.1964086 0.9623374 1.0641483 1.7213233 1.1877255 1.1315807 1.3790388 1.0276375
1.3084503 1.4967346 0.7705096 1.3767694 1.3198897 1.0029624 2.4653866 3.5511098
1.3496603 1.1088883 0.8036384 1.1357967 2.2826853 2.7251432 2.17232 1.2668114
2.243709 1.5179057 1.2894876 1.2761546 1.0893402 1.1417217 1.2924683 1.9981115
1.2300471 1.2781334 1.5572174 1.0565481 1.3258924 1.5721242 1.244635 0.63779116
1.779077 4.094917 1.4314336 1.4323374 0.86825496 0.8637612 2.376096 1.5228941
1.185264 1.3627925 1.0670174 1.5151644 1.0288752 1.101636 1.5578052 2.255853
2.434982 2.2398045 0.8924857 1.07478 1.1632332 1.1854864 1.9569453 0.6392208
2.0064633 2.1426318 1.3294052 1.217359 0.9277185 0.72314894 1.502518 2.29568
1.1468195 1.2138197 1.5552524 1.568385 2.1019301 1.5885293 1.8705959 1.1628273
1.1579531 1.2277839 1.8755813 1.289233 2.0408988 0.93915594 1.5898652 0.79597265
2.23427 0.8717894 0.90980947 1.8495499 1.0158981 2.5762212 0.8675247 1.0312259
0.8013373 0.9925494 1.25508 0.85301507 1.014728 0.9371672 1.0140387 0.96740425
0.98174584 1.2995065 1.315294 0.9364789 1.2486143 0.90439767 1.1929234 1.8895923
1.2721515 1.0311161 1.2178853 1.9441853 1.9067634 0.7795728 1.6293243 1.2085278

features.3.conv.weight f4 [256, 128, 3]
00000000: b90d 823d 5529 f33d 4b25 213d 9a3a b3bd
00000010: 766d 1ebe 298a c2bc ca5c 44bc 8f36 34bc
00000020: 1186 a33d b12d f23b 1358 c9bc 7b09 3ebc
00000030: b280 aa3c b6b7 a3bd 7fd2 cabd 8832 b13b
00000040: cc25 913d 129c 413c 0992 0bbd 1e66 023e
00000050: 7afc 8c3d de1a 2ebd 8dc2 acbd cd91 83bc
00000060: da1d 7abd c6c8 1b3d 4d61 48bd 3883 c8bd
00000070: 1a95 0dbe 1ac9 a33d 488f 923c 40af a23c
00000080: e2b8 c03d 32ce 193d 4f46 39bd 9f41 44bd
00000090: c546 613e ea3d 00bd cf31 343d 19a4 323e
000000a0: dd3e 51bd a960 913d c535 a4bc 3ff7 003e
000000b0: 2af9 5ebd 29b4 b53d f1ef 4abd 8e71 023e
000000c0: 21a3 86bd e0fb 4c3d db51 1abd 4537 73bd
000000d0: b1cb a73d 8048 e9bd 1a9c dbbc aa6a ef3c
000000e0: c738 42ba 1a42 623d fb57 8ebd 2677 abbc
000000f0: 41fb 0d3d e6d5 2ebd 0cef c4bd 84f1 3bbd
00000100: 7951 903d 4f5b ae3d cb27 be3c b0d2 3dbe
00000110: 9788 86bd d920 38bd 8b0b 283e 6d7b b6bc
00000120: aff9 913c 12e1 a33d 74cd 063e 8b2e 243d
00000130: 55f4 cbbd 5aa7 ac3d 4668 a83c e516 00bc
00000140: 1b4a fc3c cddc 93bc 6797 67bd f6a5 b6bd
00000150: a122 773d a8a5 423c 6e1b aa3c 39bc 80bd
00000160: 58e0 8dbd 85ab 0a3e f92a 20be 160e 95bd
00000170: 19aa e53d f9fd 3fbc 46c2 ae3d 0d3a b93c
00000180: 1fe6 873d 7003 163c 4866 5c3c 2a03 183d
00000190: 91c1 6b3d c306 8cbd 5843 80bd 7b28 1f3d
000001a0: 80a3 0f3c 52d9 2ebc fb0c 0b3d 4d7d c33d
000001b0: 4e87 883d 1cc2 4b3d 6da5 c33d fb46 e73d
000001c0: d5ee 013d 6e30 6fbc 6908 ee3d db1d 353d
000001d0: 3c86 253d b2ab 40bb cde4 73bd 8177 c33d
000001e0: f9c9 eb3c cf95 ecbc 4337 0d3e a485 89bd
000001f0: 901b 03be 7a13 3c3d 4d83 973d c207 8dbd
00000200: b06e ec3b f5be 853d bdb8 43bd 2347 a43d
00000210: 8a02 f1bd 7f4d f63d 9d0e 64bd beff 75bc
00000220: 9b7f e13a 0e22 833c d6a0 073e 75f0 ea3c
00000230: 2f8a 9b3d 76ca b43c 72ac 1e3d df49 363d
00000240: a2ed 7bbd d3c2 98bd 1f19 9c3c 2df6 10be
00000250: 964c 42bc fbff d8bd 8ca3 043d 845d 593d
00000260: aa87 00bd d7a0 2ebd 4d60 a3bd 5743 d8bc
00000270: 3848 89bd 5b4f 633c cac7 d23c 684b 763d
00000280: f1ff f2bb f9c2 2c3d 3be4 1dbc a305 173c
00000290: 2415 f0bd 1bd3 01bd 6c10 9a3d 697b dabc
000002a0: 2957 2abb 98ad aa3c 8a4d 97bd c65b 3c3e
000002b0: 6789 01be 2b66 d13d 989c 793d c753 263b
000002c0: 2ee6 de3d fbcb 27bc 42af b83d 480e 413d
000002d0: c2b7 26bd 0c28 a2bd 9e25 223d b5ee b23d
000002e0: 4bc7 88bd f56e c6bd e02f aa3d 3ba9 87bd
000002f0: 674f a9bb 0568 09bd 930b 98bd c7ea 31bd
00000300: 0a43 efbb 18c3 dcbc 0c42 fabd f299 0dbe
00000310: dbd9 8bbd f701 a93c 1cfe 663c 6e0f 4ebd
00000320: 11f9 613d 7b05 f63c 6f0b 3f3e 93d9 e43d
00000330: 89e0 3a3d a40a e1bb a664 22bd 825d 17bd
00000340: cca0 45bd 9662 27be 4dea 7b3c 0c12 07be
00000350: 8207 ebbc 7e05 94bb 5404 b7bc 6642 eebd
00000360: 782d 3d3d c75c 9d3c dc09 f33b 63ea e9bc
00000370: e5a5 883c 4691 f0bc d7bf a1bd 5eb3 88bd
00000380: 7992 91bc 7307 183e d2ec a8bd a194 59bd
00000390: 8eda 5f3d 9f3b 37bd 1e3b 843d b790 d7bd
000003a0: d020 403a f784 cbbc 866d 383d 6dc7 a8bd
000003b0: 346f d7bc 2fbd 573c 1cb8 e03c ac76 093e
000003c0: d2bb df3d 1818 333e 9445 dd3d f737 1cbd
000003d0: 452e 11be 51c8 10bc 55a4 5f3d 6424 a13d
000003e0: 70c5 ac3d e43d 1e3d 3e9b 9f3c ebcb 4ebc
000003f0: 838c 5f3d 98e5 e73d c77e 3c3d 863b 7abd
0.06350274 0.11873118 0.039342206 -0.08751412 -0.15471444 -0.02374752 -0.011985013 -0.010999336
0.079845555 0.0073907007 -0.02457813 -0.01159894 0.02081332 -0.079940245 -0.0990343 0.005407635
0.07087287 0.011816995 -0.034074817 0.12734267 0.068840936 -0.04250609 -0.08435545 -0.016060734
-0.061063625 0.03803327 -0.04892092 -0.09790653 -0.13826409 0.079973415 0.017890587 0.019858956
0.094102636 0.03755016 -0.045233067 -0.047914144 0.21999653 -0.031309046 0.043992814 0.17445411
-0.05108534 0.070985146 -0.02004517 0.12594317 -0.05443684 0.088722534 -0.049545232 0.1273863
-0.06574083 0.050044894 -0.03767572 -0.05937888 0.08193148 -0.113907814 -0.026807833 0.029225666
-0.0007408973 0.05523882 -0.06950375 -0.020930838 0.034663443 -0.04268446 -0.09615907 -0.045884624
0.0704679 0.085135095 0.023212334 -0.18537402 -0.06569021 -0.0449532 0.16410653 -0.02227565
0.017819254 0.08001913 0.13164312 0.04008345 -0.09958712 0.08430357 0.020557534 -0.0078179585
0.030797055 -0.018049622 -0.056540873 -0.08918373 0.06033576 0.011880316 0.020765033 -0.062859006
-0.06927556 0.13541992 -0.15641393 -0.07278077 0.11214084 -0.011718267 0.085331485 0.022610689
0.06635689 0.009156093 0.01345212 0.037112392 0.057557646 -0.06837227 -0.06262845 0.038856965
0.008767009 -0.01067193 0.033947926 0.095453836 0.06666432 0.049745664 0.09553037 0.11292835
0.03172191 -0.014598949 0.11622698 0.044217926 0.04041122 -0.0029399213 -0.059544373 0.09544278
0.028782832 -0.028880028 0.13790612 -0.06714943 -0.12803483 0.04591701 0.073980905 -0.06886245
0.0072153434 0.06530563 -0.047783602 0.08021381 -0.117680624 0.120265 -0.055678 -0.015014587
0.0017204167 0.01600745 0.13244948 0.028679112 0.07594716 0.022069197 0.038738675 0.044504043
-0.06150592 -0.07459035 0.019054947 -0.14156409 -0.01185908 -0.105956994 0.032382533 0.0530677
-0.03137938 -0.042633858 -0.07977352 -0.026399298 -0.06703228 0.0138739 0.025730032 0.060130507
-0.0074157645 0.042178128 -0.009636934 0.0092176525 -0.11722782 -0.031695466 0.075226635 -0.026670175
-0.0025991893 0.02083473 -0.07387836 0.18394384 -0.12650071 0.10224565 0.060940355 0.0025379525
0.10883747 -0.010241504 0.09017803 0.04713276 -0.04070259 -0.079177946 0.039586656 0.08736936
-0.06678637 -0.09689132 0.08309913 -0.06624075 -0.005166936 -0.033546466 -0.074240826 -0.04343679
-0.007301693 -0.026948497 -0.12219629 -0.13828257 -0.06828662 0.02063082 0.01409867 -0.050307684
0.05516917 0.03003191 0.18656705 0.111743115 0.04562429 -0.0068677235 -0.039646767 -0.03695441
-0.04824905 -0.16346201 0.015375686 -0.13190478 -0.028690103 -0.0045172563 -0.022340931 -0.11633758
0.04618594 0.019209279 0.007416947 -0.028554147 0.016680667 -0.029366147 -0.07897919 -0.066748366
-0.017770039 0.14846592 -0.08248295 -0.05312026 0.05465179 -0.044734593 0.06456588 -0.10525649
0.0007329108 -0.024843676 0.045026325 -0.082411624 -0.026298143 0.0131676635 0.02743154 0.13424176
0.10924496 0.1748966 0.108042866 -0.03813931 -0.14177807 -0.008836822 0.05460008 0.07868269
0.08436096 0.038633242 0.019483205 -0.01262186 0.05457736 0.113230884 0.04601934 -0.061091922
