ecg_afib_detection/checkpoints/ptbxl/500hz/cnn1d/fold_5/best.pt (torch, 626357 bytes, 22 tensors)

features.0.conv.weight f4 [32, 12, 7]
000000 89 eb 8e bd d5 68 dc 3c fa f0 8e bd 99 f4 58 bd
       -0.069785185 0.026905457 -0.069795564 -0.05296764
000010 3b 99 58 3c 08 83 33 bc dd ff 17 be f3 6b 52 bd
       0.013220127 -0.010956533 -0.14843698 -0.05137248
000020 2a ad d6 3d a8 89 10 be 61 56 6f be 50 98 b5 bc
       0.10482247 -0.14115012 -0.23372795 -0.022167355
000030 c5 a0 41 bd 60 ec 43 be f5 39 2c 3e 08 ea 25 be
       -0.047272462 -0.19133139 0.16818984 -0.16202557
000040 b3 61 03 3d 62 0a 5e 3e d5 2e 4d bd ef e2 ed 3d
       0.032075595 0.21683648 -0.05009349 0.1161555
000050 31 9f e8 3d 0e 43 93 bc 44 1e a0 bd 76 17 96 3d
       0.11358488 -0.01797631 -0.07818273 0.073286936
000060 e8 91 c7 bd fb e7 a3 bc 64 ca d8 bd 8f 8b 88 bd
       -0.09744626 -0.020008078 -0.10585478 -0.06667244
000070 74 96 c3 bd 02 1c df bc 69 b4 84 bd 5d ec 7b be
       -0.09550181 -0.027235035 -0.06479723 -0.24601884
000080 58 8c de 3d fb 35 85 3e 91 ed 5c bd 73 f2 2a be
       0.10866612 0.26017746 -0.0539375 -0.1669405
000090 f5 6b 16 3e b2 c1 f6 3d dc 1b 96 3e 79 3e 47 be
       0.1468962 0.12048663 0.2931813 -0.19457425
0000a0 ae 14 92 3d 16 47 c2 3d a2 80 85 be 76 b6 de 3d
       0.071328506 0.09486215 -0.26074702 0.108746454
0000b0 03 27 e4 bd 1e 36 0e 3e 06 11 a9 bb 58 5a 15 be
       -0.111402534 0.13887832 -0.0051595 -0.14585245
0000c0 22 83 28 be 2e 2e 5e be 62 51 a5 3b 88 f0 9d 3d
       -0.16456273 -0.21697304 0.005045102 0.07711893
0000d0 08 53 3f 3e ec 80 0d 3e 31 8d 2c bb 6b 9a 61 3e
       0.18684018 0.13818711 -0.0026329274 0.22031562
0000e0 8e 22 02 3e 44 a5 31 3e 4e f0 1b be e1 7e d3 bd
       0.12708494 0.173482 -0.15228388 -0.103269346
0000f0 bc 40 ba bd f4 40 08 3e bd 5e 8b bd 81 3b 1c 3e
       -0.09094378 0.13306028 -0.06805179 0.15257074
000100 92 1e 84 3e ca e6 14 bf 3d d7 90 3c da 71 87 be
       0.25804573 -0.58164656 0.017680759 -0.2645405
000110 be 9d af bd e4 67 30 be 6a 56 ad 3d f6 b1 df 3d
       -0.08575009 -0.17227131 0.08463748 0.10922615
000120 9c 57 52 bd e7 ee 1b be 1d 95 86 3d 7a 70 09 be
       -0.051353082 -0.15227853 0.0657141 -0.13421813
000130 12 2f 64 bc b7 c3 4d be 3a f4 7f bd 43 fc 9e 3c
       -0.013927238 -0.2009419 -0.062488772 0.019407397
000140 c1 89 53 be 9b 9c 80 3e 0e cd fd 3d a9 06 29 bd
       -0.20658018 0.2511948 0.12392627 -0.041266117
000150 ee 82 86 bd 31 b0 58 be e0 29 ee 3c 39 20 dc 3c
       -0.065679416 -0.21160962 0.029072702 0.026870834
000160 69 7b ab bd 07 fc c4 bb 90 75 88 3d ad d1 3c bd
       -0.08373148 -0.0060114893 0.06663048 -0.0460984
000170 41 d3 3c be 80 7a 37 bd 61 03 4d 3d c5 ec 30 be
       -0.18439962 -0.04479456 0.05005205 -0.1727782
000180 f6 3f 77 3c bd f4 1d be bc 37 d9 bb 5c 0b c0 bd
       0.015090933 -0.15425391 -0.0066289585 -0.09377167
000190 27 29 73 3d b7 6d ba 3d 5f c0 ca bb c5 ab 62 be
       0.059365418 0.09102958 -0.006187483 -0.22135837
0001a0 3b 78 2f be 39 a2 ef bd 10 ac 67 bd f5 c5 8f be
       -0.17135708 -0.117008634 -0.056560576 -0.28080717
0001b0 44 bd 26 be cb f6 c5 bd ed 72 8c 3e d5 b9 93 bc
       -0.16283137 -0.09666213 0.2743143 -0.018032948
0001c0 37 77 82 be 75 4a 86 3d db 37 4b 3d 03 7e 39 be
       -0.2548158 0.0655717 0.049613815 -0.18114476
0001d0 28 ad ba bd 08 ad 0d 3e c0 61 10 bc 85 f7 e8 3d
       -0.09115058 0.13835537 -0.008812368 0.113753356
0001e0 cf 0d 3c ba 7c 70 e7 bb 2c 7f 3f be 9b b6 0f 3d
       -0.00071736885 -0.0070629697 -0.18700856 0.035086256
0001f0 b0 1f 87 3e e1 0f ae 3b 1a 6b ce 3e 8c 60 2d 3d
       0.26391363 0.0053119515 0.40316087 0.042328402
000200 40 63 08 3e d5 8b f7 bd e5 0a 4d 3e 52 c7 bd 3d
       0.13319111 -0.12087218 0.20023687 0.09266533
000210 81 aa 00 3e c0 2b e9 bd be d7 3e 3d 3d d9 b5 bd
       0.12565042 -0.11385298 0.046592467 -0.088793255
000220 a3 cc 03 be e5 73 79 bd 51 4d 93 3e ae f2 05 3e
       -0.12871031 -0.06090154 0.28769925 0.13080856
000230 70 83 b4 3d 25 3b f2 bd bd bb 34 bd c8 aa 85 3d
       0.08814132 -0.11827687 -0.044124354 0.065267146
000240 f8 d6 a5 bd 3f d8 a0 3d d4 18 91 be db ef 55 be
       -0.08097643 0.07853746 -0.28339255 -0.20892279
000250 0d 52 6c 3d 31 96 ed bd 04 05 84 3e 0e 07 a9 bd
       0.057695437 -0.11600912 0.25785077 -0.08253299
000260 f7 74 f8 bd cd ab 76 3d 38 8b 78 bb a8 ab 81 3e
       -0.12131684 0.060222436 -0.0037924778 0.25326276
000270 31 52 83 be a3 f5 68 3d 26 73 89 bc bb 7a b1 3c
       -0.25648645 0.056874882 -0.01677854 0.021664968
000280 df 51 07 3e 62 34 bc bd 4b f4 10 bd ed a8 96 bc
       0.13214825 -0.09189679 -0.035389226 -0.018391097
000290 66 4e 02 3e 0c 68 2a be 5d d8 fb 3c b0 e9 71 3d
       0.12725219 -0.16641253 0.030742818 0.059060752
0002a0 ef 2d b8 bc 21 c8 0d bc 0b f6 22 bd ce 1b bc be
       -0.02248284 -0.0086536715 -0.039785426 -0.36739963
0002b0 86 24 09 be 4d a5 80 3e 92 c9 76 be 1c 2f 86 be
       -0.13392839 0.25126114 -0.2410033 -0.26207817
0002c0 fd bd 1e 3d f6 93 82 3d e3 66 b6 be c8 50 2e 3e
       0.038755406 0.063758776 -0.3562537 0.17023003
0002d0 e0 2e 47 bc 68 c4 44 be 1a ea b6 bd 44 30 0e 3e
       -0.012157172 -0.19215548 -0.0893137 0.138856
0002e0 b4 2e 0d 3d ec 79 40 be 8a 79 b7 bd 9f c4 7a 3e
       0.034468368 -0.1879651 -0.089587286 0.24489067
0002f0 55 16 24 bd 64 2c 2e be 4d a7 82 bc 53 9c b3 3d
       -0.04006036 -0.17009121 -0.015948916 0.08770051
000300 6c a1 a7 bd 68 d3 1a be 19 c4 9b 3e a1 af ef bd
       -0.08185086 -0.15119708 0.30423048 -0.117034204
000310 40 62 4c bd cc 3c 3d 3e 27 18 06 be 1f cc 56 3d
       -0.049898386 0.18480223 -0.13095151 0.05244076
000320 8c db 5d 3e 8b 7c d4 3d 2e 66 35 3e 76 6d cf bd
       0.21665782 0.10375317 0.1771476 -0.101283
000330 bf 9b 00 be b7 66 83 3e 73 84 87 3e 03 64 0d 3e
       -0.12559412 0.25664303 0.26468238 0.13807683
000340 b8 46 0f 3e 98 68 bc bd 43 3e 89 bd 8d 33 0f 3e
       0.13991821 -0.09199637 -0.067013286 0.13984509
000350 f2 de 44 3e 32 b4 ee 3d 77 e8 7c 3c 33 0a e7 bd
       0.19225672 0.11655463 0.015436283 -0.11281242
000360 e1 54 e9 3c 82 7a 14 3e b3 7f 75 be a7 bc d8 bc
       0.028482856 0.14499858 -0.23974495 -0.026457144
000370 0d 7d 82 3e f1 d9 0a 3e 79 ce 86 3e 40 ae 04 3e
       0.2548603 0.135597 0.263294 0.12957096
000380 55 66 db 3c 30 00 0c be a2 59 7f be 2e 57 36 3e
       0.026782194 -0.13671947 -0.24936536 0.17806694
000390 eb 67 c7 3d 51 66 3c 3d 22 ff 20 3e 4a e1 7c be
       0.09736618 0.045996014 0.15722325 -0.24695316
0003a0 4e c0 cd bd 58 34 0a 3c f9 3e ad bd 67 03 4b 3e
       -0.10046445 0.008435331 -0.08459277 0.19825517
0003b0 14 51 2c 3d 3b c8 a0 3e 1a 0c 02 3e 21 2c 26 3d
       0.04206951 0.31402764 0.12699929 0.04056943
0003c0 cd cd de bc 4f 9c 08 be 87 1d d6 bd 48 f7 1f 3c
       -0.027197743 -0.13340877 -0.10454851 0.009763546
0003d0 23 e5 3e 3e f9 28 33 be cc 18 86 bd 0d df 91 3c
       0.18642096 -0.17496099 -0.065476984 0.017806554
0003e0 a6 92 da bd 16 ab d8 3d 08 c6 22 3e 11 da ed 3b
       -0.10672502 0.10579507 0.15895855 0.0072586616
0003f0 17 b4 23 3e 1f de 42 3d d7 fb b7 bd 88 0a bc 3d
       0.15986668 0.047575112 -0.089835815 0.09181696

features.0.bn.weight f4 [32]
000000 b5 c9 77 3f a1 3b 86 3f 1d a1 84 3f 71 60 7a 3f
       0.96792156 1.0486947 1.0361668 0.9780341
000010 c2 34 7e 3f 06 72 82 3f 3d fd 80 3f 0c 31 78 3f
       0.9929925 1.0191047 1.0077282 0.9694984
000020 63 f9 85 3f 10 f6 73 3f 3e e8 7a 3f dc 0d 80 3f
       1.0466732 0.95297337 0.98010623 1.000423
000030 62 ec 83 3f a5 fb 7a 3f 3f 55 84 3f aa 4d 7b 3f
       1.0306513 0.9804023 1.0338515 0.9816538
000040 18 ed 7f 3f ca b6 6f 3f 17 06 7d 3f 11 99 80 3f
       0.9997115 0.9363829 0.9883742 1.0046712
000050 36 23 81 3f 0c 3e 7d 3f cc 90 80 3f c9 a7 80 3f
       1.008887 0.989228 1.0044188 1.0051204
000060 37 0d 83 3f 52 f9 7d 3f 29 19 80 3f f3 7c 83 3f
       1.0238408 0.9920856 1.0007678 1.0272506
000070 d3 90 7a 3f 5b 43 83 3f 7d e7 76 3f 54 71 85 3f
       0.97877234 1.025493 0.96446973 1.042521

features.0.bn.bias f4 [32]
000000 01 fd 13 3d 0a 6c 0b 3d 28 0a 86 3d d2 45 10 3c
       0.036129955 0.03403858 0.06544906 0.008805709
000010 44 82 07 bc 58 f5 0b 3d f4 cd 20 bd 57 9e cb bc
       -0.008270804 0.034169525 -0.039258912 -0.024855776
000020 f0 ca 03 bd f8 02 3e 3d 20 b7 41 bd 05 53 13 3d
       -0.03217596 0.04638955 -0.047293782 0.035967845
000030 46 f3 da bb bb 40 a4 3d 49 a0 25 3d 58 55 9e 3c
       -0.0066818325 0.08020159 0.040436063 0.019327804
000040 b0 6d d8 bc 05 fc 94 bc a5 ae ba bc 17 3b 4c bd
       -0.02641949 -0.018186579 -0.022788355 -0.04986104
000050 e8 c2 86 bd ff 5a 88 3d 12 5e 12 3d a6 30 12 3d
       -0.06580144 0.06657981 0.035734244 0.035690926
000060 08 ac 1d 3c b7 ff 21 bd 83 49 5c 3d a8 c3 3a bb
       0.009623535 -0.03955051 0.053781044 -0.0028497968
000070 49 ee 2a bd d5 c0 3d 3d 8c 1a 7f 3b 71 d8 ce 3d
       -0.041731153 0.046326477 0.0038925735 0.10099877

features.0.bn.running_mean f4 [32]
000000 ee 78 45 b7 55 32 fd 37 48 cb 83 b7 58 41 56 b7
       -1.1770271e-05 3.0183388e-05 -1.5711077e-05 -1.2770608e-05
000010 58 e7 30 37 90 1a 20 35 30 b4 c3 b6 89 f1 6f b7
       1.0544281e-05 5.96433e-07 -5.8324295e-06 -1.4301747e-05
000020 60 75 ff 34 00 6e c1 33 ec a1 11 b8 b8 1b 96 36
       4.7582853e-07 9.007272e-08 -3.4721495e-05 4.4735752e-06
000030 84 22 0e 38 88 e8 54 b7 88 7d fa 37 40 28 d4 34
       3.3887583e-05 -1.2690325e-05 2.9860777e-05 3.9517363e-07
000040 00 71 7d b5 82 0a 07 b8 1a 72 5d b7 e4 8b 59 b6
       -9.441428e-07 -3.2196294e-05 -1.3199193e-05 -3.2416947e-06
000050 cf a7 74 b7 ae d5 90 b7 46 dd 8c b7 80 9c 48 34
       -1.4582604e-05 -1.726564e-05 -1.6792339e-05 1.8683386e-07
000060 dc b9 55 37 f8 c1 cb b7 00 99 34 b7 e0 ae cd b7
       1.2739063e-05 -2.428981e-05 -1.0764459e-05 -2.4519337e-05
000070 38 9e 5a 36 8e ed 1b 38 dd bc f0 37 e9 a5 ab 37
       3.2576627e-06 3.717612e-05 2.8698176e-05 2.0462046e-05

features.0.bn.running_var f4 [32]
000000 d8 5e 96 3f bd 50 73 3f 74 04 f8 3f f7 c8 bb 40
       1.1747694 0.9504507 1.9376359 5.868282
000010 ca 75 1b 40 e9 e1 f4 3f b2 3c c0 3f e7 96 87 3f
       2.4290643 1.9131442 1.5018523 1.0592927
000020 24 61 0f 40 73 05 46 40 65 ef 69 40 b6 25 e9 3f
       2.240304 3.0940826 3.6552365 1.8214633
000030 d6 fb 86 40 8f c9 aa 3e 4e ce 81 40 ec cc b1 3f
       4.2182417 0.33356902 4.0564337 1.3890662
000040 51 7f a8 3f c7 7a e4 40 16 86 7a 40 52 84 9d 3f
       1.3163854 7.1399875 3.914434 1.2306006
000050 aa 60 13 40 40 42 1f 40 17 34 1f 40 b8 00 f7 3f
       2.302775 2.4884186 2.4875543 1.9297094
000060 d9 b5 6b 40 a4 b0 55 3f 9e d9 69 40 c5 ba 38 40
       3.682974 0.8347266 3.6539073 2.8863995
000070 d1 cb 5f 3f 4f 7a 5b 40 63 e0 be 3f 7a cd c8 3f
       0.87420374 3.4293401 1.4912227 1.5687706

features.1.conv.weight f4 [64, 32, 5]
000000 8c d0 fc bd f6 d5 af bd ef 6f 2e bd 6b 94 20 3e
       -0.12344465 -0.08585732 -0.042587217 0.15681617
000010 4b 83 a3 bc e0 70 90 bd e9 15 26 3e f2 db 78 be
       -0.019960066 -0.07052779 0.16219296 -0.24302652
000020 38 4e c5 3d 33 00 80 3b 63 89 23 be 3c 3e a1 3c
       0.0963406 0.0039062737 -0.15970378 0.019682996
000030 f3 c0 07 be 17 75 95 3d e1 03 8b 3e 59 6d d7 3d
       -0.13257198 0.07297724 0.27151397 0.10518903
000040 3f 0a 3e be 2e 58 1c bc 02 02 13 be 70 6a 81 bd
       -0.18558596 -0.009542508 -0.14356235 -0.063191295
000050 77 b3 0d be cd f9 19 be c9 01 1a 3e c2 63 f7 bd
       -0.13837992 -0.15036698 0.15039743 -0.12079574
000060 42 f9 c7 3c 32 68 d3 3d b1 ea ce 3c ab 36 e1 bd
       0.024410848 0.10322608 0.025258394 -0.10996755
000070 a8 c6 8f bd 5d 57 98 bd 3a a2 af 3c a2 a0 12 3d
       -0.070203125 -0.07438538 0.02143966 0.035797723
000080 16 83 22 3e fd 99 a2 3d f0 19 b1 3d e2 d5 fc 3c
       0.15870318 0.07939527 0.08647525 0.030863706
000090 51 77 f5 3d 4f 6e d6 3d 81 ef 2e be a8 73 34 be
       0.119856484 0.104702584 -0.17083551 -0.17622244
0000a0 d5 45 3f be 8d 73 f1 3d b0 01 f0 bd c1 df 01 3e
       -0.18678983 0.11789618 -0.11719072 0.12683012
0000b0 c1 fe 6f be f5 83 08 be b1 57 d5 3d ab 49 b7 bb
       -0.23437025 -0.13331588 0.104171164 -0.0055934987
0000c0 3c 75 e8 3d 3c a8 8e bd 0d 51 33 3e 6a 82 3d be
       0.11350486 -0.06965682 0.17511387 -0.1850678
0000d0 15 c4 00 3e 8c 82 1a 3d 31 9d 9e bd 45 a3 2c bd
       0.125748 0.037722155 -0.07744826 -0.042147893
0000e0 c5 10 03 bd 33 e5 81 3d 2e e2 a7 3d 53 76 8c bc
       -0.031998415 0.063425444 0.08197437 -0.017146265
0000f0 90 ee ea bd a2 f2 19 be 9d 44 fe 3a 92 16 57 bb
       -0.114712834 -0.15033963 0.001939911 -0.003281985
000100 07 be b4 3d b7 98 ab bd ff 7d 7f be 2e 92 1d bd
       0.08825307 -0.083787374 -0.24950407 -0.038469486
000110 71 14 13 3d 0c 01 54 bd 05 8f d0 bc 08 c8 ee bd
       0.035908166 -0.05175881 -0.025458822 -0.11659247
000120 b6 77 46 be 4c ef 08 3d fd ef 2c bc fd 0b 87 bd
       -0.19381604 0.033431336 -0.010555265 -0.065940835
000130 4f b8 62 bd d1 73 4e 3d b0 cf 1e 3d da e5 af 3d
       -0.05535155 0.05040342 0.038772285 0.085887626
000140 99 ee a8 3d 18 65 16 be 94 a2 d0 bd f7 2c ae bc
       0.08248634 -0.14687002 -0.10187259 -0.021261675
000150 19 a4 b8 bd a5 8b b3 3d 83 55 46 3d 65 14 b2 bd
       -0.09015674 0.087668695 0.048421394 -0.08695296
000160 cd 5b d0 bd 7b 19 93 3c 21 e7 55 bb 89 35 03 be
       -0.101737596 0.017956486 -0.0032638984 -0.12813391
000170 0f 89 eb bd 1c f9 f0 bd 1a 1c 30 bd cf 4f 00 bc
       -0.11500751 -0.11766264 -0.04299555 -0.007831528
000180 c2 5c b6 bd 86 d2 8a 3d 88 a4 96 3d 52 54 4b bb
       -0.08904411 0.067784354 0.073556006 -0.00310256
000190 b2 a6 65 3d 9e 40 dd 3b f6 65 82 3e 1e d0 6b be
       0.056067176 0.0067520877 0.25468415 -0.23028609
0001a0 8f 92 d2 bd b8 6d a0 3d 31 82 a5 bd e5 c7 cf bd
       -0.1028186 0.07833427 -0.08081473 -0.10145549
0001b0 5b 95 01 be c2 1f 6e 3d 6c d3 8d 3d 72 69 42 3e
       -0.12654631 0.058135755 0.06925091 0.18985537
0001c0 dd 28 11 be 45 01 b5 ba c0 9b 0a be 85 ba 3d be
       -0.14175744 -0.0013809582 -0.13535976 -0.18528183
0001d0 39 5e 6d bd 99 b3 44 bd 35 2e 89 bd 18 06 cd bc
       -0.057951186 -0.04802284 -0.066982664 -0.02502732
0001e0 25 0b 80 be 94 f4 7f 3c 29 c8 18 be 13 ba 01 bd
       -0.25008503 0.015622277 -0.14920105 -0.031671595
0001f0 78 5b 4d 3d 34 bd 59 bd 99 9e 3e be e1 10 1b bd
       0.05013606 -0.053158954 -0.18615188 -0.037857894
000200 7f 13 86 be 80 94 0c 3e e0 ba 47 be 15 b2 11 3e
       -0.2618675 0.13728523 -0.19504881 0.14228089
000210 fb fc 7e 3d 7b 96 2d 3c 3f d0 2c bd 52 82 be 3d
       0.06225298 0.010594959 -0.042190786 0.093022004
000220 a3 8e 1f be 3c f2 76 3c 23 86 97 bd 2a 37 23 be
       -0.15581755 0.015072402 -0.073986314 -0.15939012
000230 2f d3 1b bd 25 6c 3c bd e8 c7 f6 bb c8 94 82 be
       -0.038043197 -0.046001572 -0.007531155 -0.25504136
000240 0a ea c1 bd a9 b5 06 3e 81 21 63 3c 50 42 1a be
       -0.094684675 0.13155235 0.013862968 -0.15064359
000250 dd 43 99 bd 25 45 fe bc c6 5d 41 be 39 af b7 be
       -0.07483647 -0.03103883 -0.18883428 -0.35875872
000260 0c e7 4c bc bb f0 9c 3d b1 62 ea 3b c0 33 42 be
       -0.012506258 0.07663103 0.007152878 -0.18965054
000270 f6 eb 66 bc 42 b1 b2 3d 63 a9 eb 3d 26 94 92 bc
       -0.014094343 0.087252155 0.11506917 -0.017892908
000280 48 a6 5d 3e aa 45 79 be df a0 88 3d 17 0a 83 ba
       0.21645463 -0.24342981 0.06671309 -0.0009997514
000290 f1 f1 34 3d 51 5c f4 bd 81 8f 7f be 76 24 ae bc
       0.044176046 -0.119316705 -0.24957086 -0.02125762
0002a0 80 e5 6a 3d 25 2f 94 3d a4 ff e1 bd 72 15 aa bd
       0.057347775 0.072355546 -0.11035088 -0.083048716
0002b0 2e 2e 03 3e ec 97 6d 3d 03 0e e2 bc 4c 86 da 3c
       0.12810585 0.058006212 -0.027594572 0.026675366
0002c0 a9 8d b6 3d eb 3c 8c bc de 7c 8f 3e 08 60 b1 bc
       0.08913738 -0.017118892 0.28024954 -0.021652237
0002d0 e9 f9 9a bc 25 43 83 bd 2c 83 29 be 4c 1a 3c bd
       -0.018917995 -0.06409291 -0.16553944 -0.045923516
0002e0 7f b5 0b 3e fa 1e 53 3d 3f 50 90 bd 2d fc 9f bc
       0.13643454 0.051543213 -0.07046556 -0.019529426
0002f0 d2 d0 4d be ac 32 95 3d 35 f2 1f bc 5c d7 d7 bc
       -0.2009919 0.072850555 -0.0097623365 -0.026347809
000300 f9 17 bf 3d d8 fc 9c 3d 87 ef 73 3b cd 28 9f be
       0.09330744 0.076654136 0.0037221627 -0.31085816
000310 f5 79 8c bd cb ae fd bd 65 5a cd bd 40 c8 3d be
       -0.06859199 -0.12386855 -0.10027007 -0.1853342
000320 00 6d 20 bd 42 d7 41 be dc c8 08 3d f6 fa 1b 3e
       -0.03916645 -0.1892977 0.03339468 0.15232453
000330 72 98 2d be 01 b1 88 be 02 8c 6b 3c 60 eb 3a be
       -0.16952685 -0.26697543 0.014376642 -0.18253851
000340 82 0c db bd 6f 8a 84 3d 7a 2b 04 3e a8 22 82 bd
       -0.10695745 0.064717166 0.1290721 -0.063542664
000350 ac 8b 8a bc c6 6e 27 be 32 d2 e7 bd 06 f7 04 3c
       -0.016912304 -0.1635085 -0.113193884 0.008115536
000360 71 49 45 3d b4 4c 27 3d c4 b0 b6 3c 60 13 3b be
       0.048165742 0.040844634 0.022301085 -0.1826911
000370 6f 30 aa 3d aa 33 0c 3e 54 2f 14 bc 6b 1b ea bd
       0.08310019 0.13691583 -0.009044487 -0.11431011
000380 11 c4 4b 3d 3a 85 dc 3d 1e 06 7d bc bb 8d a0 3e
       0.04974753 0.107675985 -0.015443353 0.31358132
000390 ac 35 ef 3c 99 59 73 3d e5 ca cc bc 26 1d 22 be
       0.029200397 0.05941162 -0.024999091 -0.15831432
0003a0 7d 8c ab 3c dc 0b 86 bc d9 00 cc bd 18 4e 41 3d
       0.020941013 -0.016363077 -0.09961099 0.047193617
0003b0 a2 45 8a 3d 43 4b 13 bd c7 85 58 3e 41 ce bf 39
       0.06751563 -0.035960447 0.21144782 0.0003658403
0003c0 8e db ac bd 8c 8d 91 3d 74 e0 c6 3d 8b b8 61 3d
       -0.08440314 0.07107076 0.0971078 0.055107635
0003d0 24 19 7b 3e b6 43 f7 3d cb e7 29 bd 1d c2 13 bb
       0.24521309 0.12073462 -0.04148082 -0.002254612
0003e0 9d a3 9f bd dc b2 48 be 9a 83 de 3d 85 73 97 be
       -0.07794879 -0.1959948 0.10864945 -0.29580322
0003f0 3a 86 d7 bd 7c 78 84 bc c4 08 b9 3c 5f 65 f5 3d
       -0.105236486 -0.016170733 0.022587188 0.119822256

features.1.bn.weight f4 [64]
000000 59 e9 80 3f b0 b6 82 3f 16 c7 82 3f c4 8d 7f 3f
       1.0071212 1.0212002 1.0217006 0.9982569
000010 27 8a 6a 3f 6b 16 81 3f 9f b6 82 3f b6 0c 8b 3f
       0.91617054 1.0084966 1.0211982 1.0863254
000020 e4 f5 85 3f 83 d3 80 3f 87 ec 7f 3f 6e 07 74 3f
       1.0465665 1.0064548 0.9997029 0.95323837
000030 dd bb 82 3f b8 72 7f 3f 46 11 7c 3f b2 e5 7a 3f
       1.0213581 0.9978442 0.9846386 0.9800674
000040 4d 96 7e 3f 33 3d 80 3f ee ec 87 3f 2f 55 7c 3f
       0.9944809 1.0018677 1.061918 0.9856748
000050 07 98 80 3f 27 87 83 3f b5 fb 7a 3f 99 22 7a 3f
       1.0046395 1.027562 0.98040324 0.9770904
000060 92 f4 89 3f 1e 68 7e 3f 0a 54 81 3f 9c 26 73 3f
       1.0777762 0.9937762 1.0103772 0.9498079
000070 f7 7c 7c 3f 80 d5 79 3f 8b 96 76 3f 8b cc 84 3f
       0.9862818 0.975914 0.9632346 1.0374922
000080 e6 88 7c 3f c7 ef 84 3f 68 35 80 3f 79 a1 82 3f
       0.9864639 1.0385674 1.0016298 1.0205528
000090 93 b2 7b 3f 6b 5e 80 3f e6 ab 7f 3f bc 0f 83 3f
       0.9831936 1.0028814 0.9987167 1.0239177
0000a0 3b 6e 80 3f ca b0 80 3f ee 7e 81 3f 86 63 72 3f
       1.003364 1.0053952 1.0116861 0.9468311
0000b0 81 f9 83 3f e2 5a 82 3f 26 dc 6f 3f e3 bd 65 3f
       1.0310518 1.0183985 0.93695295 0.8974287
0000c0 10 0a 80 3f c4 13 84 3f 3d 0f 85 3f 8e 57 6d 3f
       1.0003071 1.0318532 1.0395275 0.9271172
0000d0 4d b9 80 3f a7 bf 82 3f f4 a3 85 3f 3d 99 7a 3f
       1.0056549 1.0214738 1.044066 0.97890073
0000e0 62 f6 71 3f 29 4f 7e 3f f5 55 8c 3f f9 ea 7d 3f
       0.94516575 0.9933954 1.0963732 0.99186665
0000f0 3f 2b 7c 3f e7 1e 85 3f 7c ad 76 3f 33 47 78 3f
       0.9850349 1.0400056 0.96358466 0.9698364

features.1.bn.bias f4 [64]
000000 62 4f 08 3d 5c e3 0a bd e0 8c 5f bc 84 4d 18 bc
       0.03327883 -0.033908233 -0.013644427 -0.009295825
000010 43 97 a4 bd 77 d8 1c 3d 08 b9 87 bb 52 ed 8c bc
       -0.080366634 0.038292374 -0.0041419305 -0.017203007
000020 5b 5c 03 3d d1 a0 5c bd 61 fa 7c 3c 34 f1 ed bc
       0.0320705 -0.053864304 0.015440554 -0.029045679
000030 6f 4d b6 ba a5 ab 32 bd 2d b1 20 3c 92 f4 c0 bd
       -0.0013908575 -0.043620724 0.009807867 -0.09421648
000040 95 18 d9 bc 91 73 d3 3c 8e 11 51 3d 37 86 1a bd
       -0.02650098 0.025811942 0.051042132 -0.037725653
000050 af 65 2a bd a2 e1 f1 bc 00 c2 2a bd ba bc f8 bc
       -0.04160088 -0.029526535 -0.04168892 -0.03036343
000060 47 04 0d 3c bd 21 d9 3c ca f3 22 3c d7 4b 04 bd
       0.008606977 0.026505345 0.009945819 -0.03229889
000070 17 b1 8d 3c ad 21 35 bc 02 42 e5 3b 61 e4 ae 3d
       0.017296357 -0.011055392 0.006996394 0.085396536
000080 12 12 47 3c d5 d4 75 3d a4 3b 21 bc 1a 4a 5c bb
       0.012150304 0.060017426 -0.00984088 -0.0033613504
000090 6c 22 b0 bd 46 eb b7 3d 3b cf ef bc 1d e7 fd bc
       -0.086003155 0.08980422 -0.02927362 -0.030993992
0000a0 d2 eb cd 3c 0f a7 b3 3c e7 ad 53 3d 9d 2a cf bc
       0.025136862 0.021930246 0.051679518 -0.025288874
0000b0 94 9d 1e ba e7 35 a2 3b 0b 64 ee 3c ec 15 62 bc
       -0.00060507027 0.0049502733 0.029100439 -0.013799172
0000c0 ce 92 3c bc 7e 95 5a 3d 18 f7 52 bd cc 62 72 bd
       -0.01150961 0.053365223 -0.05150518 -0.05917625
0000d0 ea 43 7a 3c 5a 12 96 3b 0e 3c d7 3c 1e 95 26 bd
       0.015274981 0.0045798244 0.026273753 -0.040669553
0000e0 b5 eb ae 3b 6e 33 2b 3d 31 8a 45 3e e1 ca b6 3b
       0.005338157 0.041797094 0.19290997 0.0055783843
0000f0 70 ee 13 3d 16 d3 2e 3d 3c 24 c0 bc 06 07 99 bd
       0.036116064 0.042681776 -0.023454778 -0.07472043

features.1.bn.running_mean f4 [64]
000000 7b 6e c4 bf 9f 1c 8b bf b5 42 96 3e 7a 83 64 bf
       -1.5346216 -1.086811 0.29347768 -0.8926312
000010 a0 78 33 be 8a ef 56 be df 68 04 bf 28 f2 de 3e
       -0.17526484 -0.20989814 -0.5172252 0.43544126
000020 b4 8b 35 bf d8 d9 21 bf 81 3d 6f bf 82 bd 09 3e
       -0.70916295 -0.6322303 -0.9345322 0.13451198
000030 ff bf 72 bf 4a 13 d0 3e df b3 39 be 77 37 6a 3e
       -0.9482421 0.40639716 -0.18135022 0.2287272
000040 18 82 17 3f 44 28 af be 16 48 44 bf 06 84 37 bf
       0.5918288 -0.34210408 -0.76672494 -0.71685827
000050 41 73 4e bf c1 8e 5c bd c0 dc c9 bd 13 40 94 3f
       -0.80644614 -0.05384708 -0.09856558 1.1582054
000060 0a 77 87 be da 00 61 bf e0 16 6a bf 31 93 43 bd
       -0.26458007 -0.87891924 -0.91441154 -0.047747795
000070 b5 59 bc be 28 7a 85 be 99 25 f0 3e 52 77 3f bf
       -0.3678719 -0.2606976 0.46903685 -0.74791443
000080 a7 e0 80 bb 50 96 28 bf 8f e5 9e bf 49 83 47 bf
       -0.0039330306 -0.6585436 -1.2413806 -0.779347
000090 35 77 93 3f db 41 4f bf 05 23 28 3f 87 1b 04 3f
       1.1520754 -0.8095986 0.65678436 0.51604503
0000a0 de a1 c6 be bd 4a 1c bf b3 ed 33 bf 38 60 42 bf
       -0.3879537 -0.6105154 -0.70284575 -0.7592807
0000b0 0b a1 b9 3d 91 cc a1 3e bc fb 1a 3f f8 47 4d 3f
       0.0906392 0.31601384 0.60540366 0.8018794
0000c0 55 ed da be c4 39 df be e9 b0 07 be 18 2e 81 3f
       -0.42759195 -0.4359876 -0.1325108 1.0092192
0000d0 78 c9 4e bf 94 65 c6 3e 1e fe 16 bf c8 14 a6 3e
       -0.80776167 0.38749373 -0.589815 0.3243773
0000e0 10 21 ce be 30 0e 1b bf c8 92 2c bf 0d 07 ea be
       -0.402596 -0.60568523 -0.6741147 -0.45708504
0000f0 53 ef a4 3e 98 a9 4a bf 14 bd 30 be 84 03 1f 3f
       0.3221384 -0.7916503 -0.17259628 0.6211474

features.1.bn.running_var f4 [64]
000000 02 09 0b 40 16 eb 07 40 50 90 81 3f e3 00 6f 3f
       2.1724248 2.1237235 1.0122166 0.9336073
000010 d0 20 85 3f 6a 15 28 3f 79 d4 84 3f cd fb 9e 3f
       1.0400639 0.65657675 1.0377342 1.2420594
000020 e1 4a 8b 3f 48 5f 3b 3f c1 1f 5a 3f e5 1e 6f 3f
       1.0882226 0.7319226 0.852047 0.93406516
000030 a8 e2 68 3f 5f fa 5e 3f 8c 35 13 3f 12 5f 97 3e
       0.9097085 0.87100786 0.5750358 0.2956472
000040 03 ec 40 3f 65 9f ae 3f d7 ed 53 3f e9 6d be 3f
       0.75360125 1.3642393 0.8278479 1.4877292
000050 c3 f3 24 3f 54 e5 2d 3f 8c 52 34 3f 8b f7 0e 40
       0.6443445 0.6792805 0.70438457 2.2338588
000060 cc dc 59 3f 3f 14 96 3f 1b 2f 85 3f d5 1a d7 3f
       0.85102534 1.1724929 1.0405 1.6805063
000070 b7 a9 5f 3f 4d b4 1b 3f e1 a6 7e 3f 54 09 a2 3f
       0.8736834 0.6082199 0.99473387 1.2659097
000080 91 57 89 3f 6d b8 05 40 54 d9 9f 3f 1b 6a 68 40
       1.0729848 2.0893815 1.2488198 3.6314762
000090 38 5e 16 40 49 c9 88 3f f1 a1 bf 3f 68 de 90 3f
       2.3495007 1.0686427 1.4971296 1.1317873
0000a0 69 fd d6 3f 8a ef 9a 3f 92 22 b7 3f f9 f4 94 3f
       1.6796085 1.2104352 1.4307425 1.163726
0000b0 64 71 51 3f 81 ce 59 3f 26 7c 42 3f 6c 2c 98 3f
       0.81813645 0.85080725 0.75970685 1.1888556
0000c0 36 89 a4 3f f7 34 8f 3f 94 ff 75 3f 3a dd c0 3f
       1.2854373 1.1188039 0.96093106 1.5067513
0000d0 8c 70 59 40 9c 0a 1d 3f 46 d8 7d 3f b9 24 c3 3f
       3.3974943 0.61344314 0.9915813 1.5245582
0000e0 ca 6e 72 40 eb ed 34 3f 4d 22 8c 3f fe e1 71 3f
       3.788012 0.70675534 1.0947968 0.9448546
0000f0 6e 66 8b 3f b8 6a 8c 3f 76 11 ad 3f cd ec 3b 3f
       1.0890634 1.0970068 1.3520954 0.73408204

features.2.conv.weight f4 [128, 64, 5]
000000 7c c2 2f 3c 05 15 14 be ad 1f 15 bd af a6 88 bd
       0.010727521 -0.14461143 -0.03640716 -0.06672417
000010 d8 f7 2c bd 8b 61 f1 3d 42 ac 13 bd aa 6d db bd
       -0.04222855 0.11786183 -0.03605295 -0.10714276
000020 dd dc 27 3d 8d a3 55 3e 84 48 fa 3d 63 de 18 3e
       0.040982116 0.20863171 0.122208625 0.14928584
000030 46 1a 16 3d 73 7b 98 bd a2 3a ed 3c b3 03 9c bc
       0.03664615 -0.07445421 0.028958622 -0.019044733
000040 ff 6e 22 3d f4 ed 06 3e 80 b6 33 bd 5f 17 09 3c
       0.039656635 0.1317671 -0.043875217 0.0083673885
000050 70 00 50 bd dd 62 76 3d b7 ef 32 3d 77 14 83 bd
       -0.050781667 0.060152877 0.04368564 -0.06400388
000060 c6 d3 49 3d 00 e1 56 bc 6c c5 89 bb 82 68 b1 bc
       0.04927423 -0.013115168 -0.0042044427 -0.021656279
000070 f6 a9 2d be 34 03 28 be 25 16 24 3d aa fb 26 3c
       -0.16959366 -0.16407472 0.04006018 0.010191837
000080 68 49 40 3e c4 4f f8 bc fc bd a5 3d 0c ad bc 3c
       0.18778002 -0.030311473 0.08092877 0.023031734
000090 25 bd 62 3d 08 60 1b 3e f0 69 99 3d 74 ff a5 bc
       0.055356164 0.15173352 0.07490909 -0.020263411
0000a0 d5 38 5b 3b 85 88 0e 3c 0c 77 8d bd b7 1d 11 3e
       0.0033450623 0.008699541 -0.06907472 0.14171492
0000b0 44 4c 3a bc ab b9 78 bc 40 c5 f2 bc 8b 70 b1 bd
       -0.011370722 -0.015180985 -0.029635072 -0.08664044
0000c0 5d 68 dd 3d 68 a2 2c 3e f5 2f b1 3d 12 18 f6 3c
       0.10810921 0.16858828 0.08651725 0.030040774
0000d0 76 89 99 bd fa f5 63 bd 33 2f 47 3d f1 f7 4d bd
       -0.07496922 -0.055654503 0.048628997 -0.050285283
0000e0 41 57 a8 bd 40 74 08 3e 0b 9e 0c bc 29 5e 48 3c
       -0.08219767 0.13325596 -0.008582602 0.012229481
0000f0 57 4c 06 bd a0 60 47 bd 83 83 ff 3d dc f2 8b 3c
       -0.032787647 -0.048676133 0.12476256 0.017083578
000100 41 1b 96 3d c7 bf d8 bd d5 9a e3 bb 19 23 91 bd
       0.07329417 -0.105834536 -0.0069459477 -0.070867725
000110 e8 a2 b1 bc d8 5c a4 3d be dd 96 3d 74 3c 6f 3b
       -0.021684125 0.08025521 0.07366513 0.0036504539
000120 88 52 df bd 14 85 f7 bc f2 fd 8a bd 24 8c 83 3c
       -0.109044135 -0.030214824 -0.067867175 0.016058035
000130 27 73 31 bd 3e f9 08 3d 87 2b 8d 3d 58 c6 13 be
       -0.04332271 0.03344082 0.06893068 -0.14431131
000140 9d 15 b4 bb b1 f3 4a bd e7 0d 0e 3c d0 a7 3b bd
       -0.0054957406 -0.04954881 0.008670307 -0.045814335
000150 90 e0 d2 3c bd de c6 3c 7a 88 20 bb 55 99 10 3d
       0.025741845 0.024276132 -0.002449541 0.03530248
000160 d4 2f ab bd 02 32 27 bd cc b4 ec 3d 09 12 17 bd
       -0.08358732 -0.040819176 0.11557922 -0.036882434
000170 1d 3e 5f bc c2 8a a3 bd 6b 1b 47 bd ed 2d d2 3d
       -0.013625649 -0.0798545 -0.048610132 0.10262666
000180 30 2e 2e 3e 6a a2 85 bd b2 b7 e4 bb 11 08 09 bd
       0.17009807 -0.06525119 -0.006979906 -0.03345496
000190 e8 4e 02 be 0d 2b a2 3d 09 43 78 bd 99 f4 6e be
       -0.12725413 0.079183675 -0.060610805 -0.23335494
0001a0 49 a0 99 bd 78 5f 81 3d 89 67 f8 3c 7b a2 2b 3d
       -0.07501275 0.06317037 0.030322807 0.041903
0001b0 8f df 67 3d be 23 3b 3d 10 3d a3 3d a4 01 34 3c
       0.056609686 0.045688383 0.07970631 0.010986719
0001c0 ad ca 53 3c 15 1c ce bd 41 08 5c bd d3 b2 37 3d
       0.01292674 -0.1006395 -0.05371881 0.044848274
0001d0 36 0a ad bd 5a da b5 3d c1 2e 51 bd bf 4a ea bd
       -0.08449213 0.08879538 -0.05106998 -0.11440038
0001e0 6d ef cb bc f4 d3 10 bd 30 4f ef 3d 07 b0 b8 bd
       -0.02489444 -0.035358384 0.11685026 -0.090179496
0001f0 31 73 3b bc 36 a2 41 bd 8e 88 d3 3d 61 1d 04 be
       -0.011441038 -0.047273837 0.1032878 -0.12901832
000200 37 f7 8a bd 34 46 cb bd fe a0 08 be 51 96 88 bc
       -0.06785434 -0.099254996 -0.13342664 -0.016673239
000210 1e 19 8a bd 47 d5 19 bd be df 2f bd f1 2b 8b 3d
       -0.06743072 -0.037556913 -0.042937987 0.067954905
000220 6e 38 8f 3d 19 c1 bf bc 06 b1 03 be 05 00 02 bc
       0.06993185 -0.023407506 -0.12860498 -0.007934575
000230 fd e1 f1 3c 0c 32 4d bc f4 91 92 3c 9d 71 8f 3d
       0.029526705 -0.012524139 0.017891861 0.07004092
000240 1a 37 e6 3b f6 71 d1 3c 0f bd 6c bd dc 4f 9e bd
       0.0070256116 0.025567036 -0.057797488 -0.07730076
000250 ac d1 c7 bd 5a c3 21 be f7 e6 a8 3d 0d 25 3d bd
       -0.097567886 -0.15797177 0.08247178 -0.046177913
000260 f6 a6 8c 3d 8f 84 72 bd c9 fc e2 bd 93 ea b9 bc
       0.06867783 -0.05920845 -0.11083371 -0.022694862
000270 8d 53 10 3d 0a 7e 36 3e ad ce 8d bc 9b 99 e9 3d
       0.03523593 0.17821518 -0.017310465 0.11406251
000280 96 11 8a bd 96 5b 0d bd a9 1f cd bd f4 07 16 3e
       -0.067416355 -0.03451117 -0.10015804 0.14651471
000290 fd 39 d1 bd 35 fc fc 3d 5e be 80 bd 65 a3 73 3d
       -0.102161385 0.12352792 -0.0628631 0.059481997
0002a0 be a5 d6 bc db 0f 1a 3c 15 ee 20 be 29 9b bd bd
       -0.026202079 0.009403194 -0.15715821 -0.0925811
0002b0 05 36 2b bd 13 4e d8 3c d6 25 05 bd e6 3d 83 bd
       -0.041799564 0.026404416 -0.032506786 -0.064082906
0002c0 f2 84 89 bd d3 58 fe bd 11 3f 0a 3e fe 5f 1e 3e
       -0.067148104 -0.124192856 0.1350062 0.15466306
0002d0 ac 69 1d 3d 69 9d fc 3d 03 cb 1b 3d 5e 8d d4 bd
       0.038430855 0.12334711 0.038035404 -0.10378526
0002e0 d6 f7 bf 3d 4a c5 e4 3c 84 3c 04 3c d0 cf 84 bc
       0.09373443 0.027926106 0.008071069 -0.016212374
0002f0 2a 75 8a 3d 99 61 35 3d 58 62 7c 3d ac 56 9c 3c
       0.067606285 0.04428253 0.061617225 0.019084297
000300 e9 0d 12 3d f6 64 38 3e c0 9a 1f 3d e2 e1 8e 3d
       0.035657797 0.18007264 0.03896594 0.069766775
000310 d2 39 26 3b f4 b6 91 3c 37 bd 59 bd aa d5 0f be
       0.0025364053 0.017787434 -0.053158965 -0.1404635
000320 9f 66 53 bd 6b 34 9e bd 64 c1 3c 3c 4d be 8f 3d
       -0.05161154 -0.07724842 0.011520717 0.07018719
000330 85 19 98 bd 7e 71 a9 bd 58 98 8c bd dd db 92 3d
       -0.074267425 -0.082736 -0.06864995 0.07170842
000340 15 94 29 3e 61 61 84 3d f4 93 0b bd 8d f0 25 be
       0.16560395 0.06463886 -0.034076646 -0.16205044
000350 8b d7 59 3d ec 1c 0b 3e 75 97 39 bd ff 68 81 bd
       0.053184073 0.13585252 -0.045310456 -0.063188545
000360 a4 61 24 3c 32 b7 ae bd 55 16 3e 3c 56 87 06 be
       0.010033045 -0.085310355 0.011602004 -0.13137564
000370 90 96 c0 bc 4d d5 b8 3d 11 f8 8b 3d 49 89 a9 3c
       -0.023509294 0.09025059 0.06834424 0.020695345
000380 f0 11 b6 bb 98 d4 97 bd 59 4a e6 3c 4b 4c 21 3c
       -0.0055563375 -0.07413596 0.028111624 0.00984485
000390 05 f3 0f bb 8e d6 6f bd 1e b0 3a bd ea aa 62 3c
       -0.002196492 -0.058554225 -0.045578115 0.013834694
0003a0 6d f6 d8 bd 1d 01 25 be dd 37 35 3d 1b ce be 3d
       -0.10593877 -0.16113706 0.04424273 0.09316655
0003b0 50 16 8a 3b 6d 6c c0 bd 76 6d c2 3d 12 f0 af bb
       0.0042140856 -0.093956806 0.09493534 -0.005369195
0003c0 42 98 24 3d c7 03 50 bd 21 fd 02 bd 22 73 39 3e
       0.040184267 -0.050784852 -0.031979684 0.18110326
0003d0 32 00 8a 3d cd 78 0b 3d 15 81 fb bc 42 93 a1 3d
       0.067383185 0.03405075 -0.0307012 0.07889415
0003e0 0f ae c3 3d e2 ce 61 3d b0 39 2c bd 37 10 8e 3d
       0.095546834 0.05512894 -0.042047203 0.069366865
0003f0 db ca 03 bd dd 37 d4 3d 18 b6 c7 3d e7 ca 0d 3e
       -0.03217588 0.103622176 0.097515285 0.13846932

features.2.bn.weight f4 [128]
000000 58 94 6a 3f a1 53 79 3f 88 3e 6b 3f 8c 22 78 3f
       0.91632605 0.9739323 0.9189229 0.96927714
000010 0a f4 73 3f fb 7d 7d 3f f6 cb 7c 3f e4 ce 7d 3f
       0.9529425 0.99020356 0.9874872 0.99143815
000020 53 35 73 3f fd 2c 6b 3f 73 f7 7f 3f 0d b3 75 3f
       0.9500324 0.9186552 0.9998695 0.95976335
000030 e0 8b 71 3f 33 0d 80 3f d3 b2 70 3f 60 09 86 3f
       0.9435406 1.0004028 0.94022864 1.0471611
000040 cb ba 7c 3f 7c 09 7f 3f d5 d6 79 3f 1c c0 87 3f
       0.98722523 0.99623847 0.9759343 1.0605502
000050 25 d7 7d 3f 66 00 80 3f c8 16 86 3f 15 cd 5f 3f
       0.9915641 1.0000122 1.0475702 0.87422305
000060 78 8e 7f 3f a4 c9 88 3f 30 d4 80 3f 76 39 7e 3f
       0.99826765 1.0686536 1.0064754 0.9930643
000070 f5 c3 81 3f 84 96 7c 3f 2e 9f 88 3f 62 7b 87 3f
       1.0137926 0.9866717 1.0673578 1.0584528
000080 74 03 73 3f ed 60 85 3f 5b b6 77 3f fc ca 7d 3f
       0.94927144 1.0420204 0.9676263 0.99137855
000090 47 b5 80 3f 70 d6 88 3f 58 7a 63 3f f3 54 6f 3f
       1.0055321 1.0690441 0.88858557 0.93489
0000a0 78 9f 76 3f b8 23 86 3f ee 92 82 3f 88 27 78 3f
       0.9633708 1.047965 1.0201089 0.9693532
0000b0 0f c5 83 3f ce 02 84 3f b8 b6 6a 3f 54 b9 90 3f
       1.0294513 1.0313356 0.91685057 1.1306558
0000c0 d3 38 75 3f dc 5f 85 3f 41 f0 82 3f 72 8a 7b 3f
       0.9578983 1.0419879 1.022957 0.98258126
0000d0 57 06 76 3f 6f e4 7a 3f e9 74 80 3f 38 39 77 3f
       0.96103424 0.9800481 1.0035678 0.96571684
0000e0 cd 3f 7e 3f 08 ce 66 3f ec a0 64 3f 2b 6e 87 3f
       0.993161 0.9015813 0.8930805 1.0580496
0000f0 d3 ef 7e 3f 92 9e 84 3f 6c 62 6e 3f 70 25 62 3f
       0.9958469 1.0360892 0.9311893 0.88338375
000100 54 32 84 3f 0d c6 86 3f 1d 6b 81 3f b5 ff 84 3f
       1.0327859 1.052919 1.0110813 1.0390536
000110 8e 98 6f 3f 14 1d 75 3f df b6 6e 3f 8d 82 6c 3f
       0.93592155 0.95747495 0.9324779 0.92386705
000120 4e 7d 87 3f 9f 72 75 3f 4e 69 6b 3f 76 62 7c 3f
       1.0585115 0.9587802 0.9195756 0.9858774
000130 73 e9 6e 3f f1 2a 78 3f 23 2a 84 3f 9e 29 72 3f
       0.93324965 0.96940523 1.0325359 0.9459475
000140 47 37 7c 3f 6b 72 6d 3f 2a 74 72 3f b5 59 79 3f
       0.98521847 0.9275271 0.947085 0.9740251
000150 60 44 7b 3f 24 04 82 3f 79 e2 80 3f 1c aa 7b 3f
       0.98151207 1.0157514 1.0069114 0.9830644
000160 a2 b0 71 3f 1b 27 85 3f 6c 67 7b 3f 99 99 7f 3f
       0.94410145 1.0402559 0.98204684 0.99843746
000170 de aa 80 3f f6 a3 65 3f 86 d4 82 3f d9 0b 6f 3f
       1.0052145 0.8970331 1.0221107 0.93377453
000180 79 3d 7f 3f 43 ae 7c 3f fc d3 82 3f 3f 92 7a 3f
       0.99703175 0.987034 1.0220942 0.97879404
000190 44 2f 79 3f f6 e8 6d 3f f1 54 80 3f 8b 69 7c 3f
       0.97337747 0.92933595 1.0025922 0.98598546
0001a0 55 2b 81 3f 6e 48 6e 3f 12 d0 74 3f 81 f4 7e 3f
       1.0091349 0.9307927 0.9562999 0.99591833
0001b0 51 97 6f 3f 8e 54 7a 3f e9 a5 80 3f b3 7e 86 3f
       0.93590266 0.9778527 1.0050632 1.0507416
0001c0 b8 45 7d 3f 85 2f 67 3f e7 4d 76 3f 29 b2 88 3f
       0.9893451 0.90306884 0.9621262 1.067937
0001d0 01 81 6b 3f 1e 1b 80 3f e0 67 74 3f dd 27 60 3f
       0.9199372 1.0008276 0.95471 0.87560827
0001e0 64 85 74 3f fd ae 67 3f 66 27 83 3f c4 9b 67 3f
       0.9551604 0.90501386 1.0246398 0.90472054
0001f0 75 4f 6a 3f 37 21 67 3f 48 ed 6d 3f 73 86 86 3f
       0.9152749 0.90285057 0.9294019 1.0509781

features.2.bn.bias f4 [128]
000000 7f 52 33 bd cd 9a b6 bd 3c 72 79 bd 74 fb 13 be
       -0.043779846 -0.08916245 -0.060899958 -0.1445139
000010 0f c6 c4 bd fd eb 96 bd 27 da 63 bd 2e fd df bc
       -0.09608089 -0.0736923 -0.05562797 -0.027342405
000020 7b d6 80 bd 5c 55 9f bd 87 8f 80 bd 99 8f b9 bd
       -0.06290909 -0.07779953 -0.06277376 -0.09060592
000030 30 d2 da bd 55 0a 69 bd 4e da d3 bd 63 ca c1 bd
       -0.10684621 -0.05689462 -0.10344373 -0.0946243
000040 8b f5 d2 ba 29 a4 99 bd ed 8a 86 bd 6e 33 ff bc
       -0.0016094906 -0.07502014 -0.06569467 -0.031152453
000050 44 8d 96 bd ab 01 fe bd 0c 07 bf bd 39 fa d2 bd
       -0.07351163 -0.12402662 -0.09327516 -0.103016324
000060 8f 25 90 bc 75 0f c5 bd 64 92 0a be ff 29 5e bd
       -0.017596034 -0.09622089 -0.13532406 -0.05423927
000070 b5 e9 48 bd 3b 53 3d bd 37 b1 e0 bd 46 40 13 be
       -0.049051005 -0.046221953 -0.10971301 -0.14379987
000080 85 70 95 bd c8 c4 55 bd 03 de ed bd 5f 4e 97 bd
       -0.07296852 -0.05218962 -0.11614611 -0.07387995
000090 19 57 a1 bc b7 53 71 bd a2 05 e2 bd 43 68 a3 bd
       -0.019694852 -0.058917727 -0.110362306 -0.07978871
0000a0 7a 0c ca bd bc 0d 11 bd 27 22 94 bd f1 c8 80 bd
       -0.09865661 -0.03541349 -0.072330765 -0.062883265
0000b0 ad 62 cb bd 19 ae 17 be 9c 9f da bd 4e 6a 20 be
       -0.0993093 -0.14812507 -0.10674974 -0.15665552
0000c0 f7 9b 9d bc 66 d7 c4 bd 92 d3 9a bb 76 ac 80 bd
       -0.019239409 -0.096113965 -0.004724928 -0.06282894
0000d0 18 63 08 be f2 36 47 bd 33 2e b9 bd ca d8 c0 bd
       -0.13319051 -0.048636384 -0.09042015 -0.09416349
0000e0 79 24 28 be 1a e2 1d be 97 67 cd bd 16 ae da bd
       -0.16420163 -0.15418282 -0.10029524 -0.106777355
0000f0 be e3 ad bd 15 ca f9 bd f7 46 b9 bd a2 71 83 bd
       -0.08490704 -0.12196747 -0.090467386 -0.06418158
000100 28 c1 79 bd 9a 78 01 be 0e 18 ee bd e0 bc 51 be
       -0.060975224 -0.12643662 -0.11625682 -0.20482206
000110 42 99 3c be a5 2a 8d bd 74 cb 61 bd c2 d3 27 be
       -0.18417838 -0.068928994 -0.05512567 -0.16389373
000120 70 73 02 be 79 cd 12 be 69 a1 fa bd 1d 89 e8 bd
       -0.12739348 -0.14336194 -0.12237818 -0.11354277
000130 b3 27 53 bd db 3e a2 bd 20 b5 26 be 04 28 b1 bd
       -0.051551532 -0.07922145 -0.16280031 -0.086502105
000140 f6 17 e8 bb f1 ab 37 be d1 47 87 bd 15 47 76 bd
       -0.0070829345 -0.17936684 -0.06605495 -0.060126383
000150 81 98 96 bd aa be 7e bd 3a 5d bd bc 3d d3 28 bd
       -0.073533066 -0.06219355 -0.023115743 -0.041217078
000160 24 19 af bd 89 e6 19 bc df e2 f5 bd 37 25 3c bd
       -0.08549717 -0.009393343 -0.12006163 -0.04593393
000170 39 8f ec bc c3 c0 a6 bd b5 da df bc 04 2f bf bd
       -0.028876888 -0.08142235 -0.027325967 -0.093351394
000180 ce 27 f7 bd ae 11 13 bd 17 05 c9 bc 78 54 fc bd
       -0.12068139 -0.035905533 -0.02453856 -0.12320799
000190 ea 53 83 bd 4a d7 3b bd d2 83 0a be 32 f3 13 bb
       -0.0641249 -0.045859613 -0.13526848 -0.0022575376
0001a0 b8 8c 5d bc fd 29 e0 bd b3 4a 30 bd 1c 74 0d be
       -0.0135223195 -0.10945509 -0.04303999 -0.13813823
0001b0 b9 85 5a bd 45 e0 dc bd a1 14 81 bd 47 ef ce bd
       -0.053350184 -0.107849635 -0.06302763 -0.10104232
0001c0 3a aa 37 bd 37 6c 81 bd bf 0f 55 bd 1b 43 85 bd
       -0.044840075 -0.063194685 -0.05201697 -0.0650694
0001d0 a5 66 dd bc 04 e6 86 bd 30 cd 1a bd 2d 26 a1 bd
       -0.027026484 -0.06586841 -0.03779334 -0.078686096
0001e0 c2 15 22 bd 2b a8 3a bd 41 b0 78 bd 49 6f 01 be
       -0.03957153 -0.045570534 -0.060714964 -0.12640108
0001f0 76 8e e0 bd 0b 2f d1 bd 9c 5b 5e be d0 16 5d bc
       -0.10964672 -0.10214051 -0.21714634 -0.013494208

features.2.bn.running_mean f4 [128]
000000 99 c5 3d 3e 5b 1d 81 3f 6b 03 6f 3e 76 3e 6d 3f
       0.18532409 1.0087084 0.23341148 0.9267343
000010 50 a3 75 bf 80 71 64 3e 7e e4 e2 bf b3 83 50 bf
       -0.9595232 0.22308922 -1.772598 -0.8145096
000020 da 0b 06 bf c9 53 0f c0 8c aa 60 bf cd 03 2a bf
       -0.52361834 -2.2394888 -0.87760234 -0.6641205
000030 80 ad f6 be 04 c4 0d bf 88 f4 84 bf cf fe 9c be
       -0.48179245 -0.5537722 -1.0387125 -0.30663154
000040 42 8b a2 bf 2e d6 c1 be 4f 54 1d 3d ba 14 e0 bd
       -1.2698748 -0.3785872 0.03841048 -0.10941453
000050 38 86 7a bf d4 9e 51 3d 1c b0 fc be 90 b5 d2 bf
       -0.9786105 0.05117686 -0.4935311 -1.6461658
000060 a2 0e 35 bf 52 26 50 be cd 8a ef be f8 02 b1 bc
       -0.7072545 -0.20327118 -0.46785584 -0.02160786
000070 56 4a 40 3f 4e 98 b6 bf fe c5 02 bf 92 6e b6 bd
       0.7511343 -1.426523 -0.5108336 -0.08907808
000080 88 57 6f be 3d 9c 64 bf 64 0a 88 be ed 97 f2 bf
       -0.23373234 -0.893009 -0.26570427 -1.8952614
000090 44 6c 76 3b a9 75 9b be ac 14 87 be e5 dc 43 bd
       0.0037601152 -0.30363205 -0.2638296 -0.047818083
0000a0 38 39 84 be 04 8d 3a bf 57 09 d4 be 18 c4 bf be
       -0.25824904 -0.7287142 -0.41413376 -0.37454295
0000b0 63 a7 82 3e 56 9d 30 bc 78 e9 13 bf 2e 4c fb be
       0.2551833 -0.010779699 -0.5777812 -0.49081558
0000c0 68 59 98 bf c0 ec 88 be 06 2f c4 bf 40 20 c6 be
       -1.1902285 -0.26743126 -1.532685 -0.3869648
0000d0 b1 9a ae bf 26 d8 c0 bf 2a 9a 93 3e d2 78 83 bf
       -1.3640958 -1.5065963 0.28828555 -1.0271246
0000e0 0c 2a 88 3e b9 6e a1 bf 83 e7 87 bf c0 bc f6 bb
       0.2659458 -1.2611915 -1.0617527 -0.007529825
0000f0 5c a4 88 bf 56 1f 84 bf 87 50 c7 bf f1 d3 9a bf
       -1.0675159 -1.0322063 -1.557145 -1.2095929
000100 f5 3d 87 bf 24 84 20 bf 0e 98 2e bf bb a4 51 3f
       -1.0565783 -0.6270163 -0.6820077 0.81891984
000110 3d de be 3f e1 50 3c bf 76 51 d4 be 6c 13 4f 3f
       1.4911572 -0.7356091 -0.414684 0.8088901
000120 3f 7c 3c bf 56 d7 83 bf 6b 66 81 bf ab 05 ac 3e
       -0.73627084 -1.030009 -1.010938 0.33598074
000130 7d 37 1f be e0 d9 a8 bc 86 dc ac be 93 6e 14 bf
       -0.15548511 -0.020611703 -0.33761996 -0.5798122
000140 c1 4d 8e bf 61 97 5c 3f 08 0a d1 bf e2 58 ae bf
       -1.1117479 0.86168486 -1.6331186 -1.3620875
000150 74 85 ce bf 6f 08 5f 3f 40 d2 e5 be cf 39 37 bf
       -1.6134477 0.87122244 -0.4488697 -0.71572584
000160 9b 6c 26 3e 9c ad d8 be b2 92 13 3f 17 d6 9d bf
       0.16252367 -0.42319953 0.57645714 -1.233096
000170 ee fa ee bd f5 5c 8a 3e 9f 47 08 bf 19 5a 05 bf
       -0.11668955 0.27024046 -0.53234285 -0.52090603
000180 9f 47 a9 bf 8a e4 16 bf 5b fb ca bf a7 ce 91 3e
       -1.3224982 -0.5894247 -1.5857958 0.28477976
000190 70 b9 dc be 19 dc 55 3d 52 40 4f 3f 0e d2 b0 bf
       -0.43110228 0.052211855 0.8095752 -1.3814104
0001a0 bf 43 a0 3d c6 af fe bf d8 06 d0 be 01 75 d9 be
       0.078254215 -1.9897392 -0.4063022 -0.4247208
0001b0 67 49 aa bf 3b a3 83 bf c2 73 9e be 32 48 be bf
       -1.3303651 -1.0284189 -0.3094769 -1.4865782
0001c0 c1 86 0e be 87 43 e6 3f d3 a7 30 be 88 99 98 bd
       -0.13918592 1.7989358 -0.1725152 -0.07451159
0001d0 d5 a0 b7 be 67 67 70 bf d9 2f 5a bf 8e 49 95 3f
       -0.35864893 -0.9390778 -0.8522926 1.1663072
0001e0 51 e2 4d bf ac 9a bf 3f b1 ca 81 bf 7f 16 52 bf
       -0.80423456 1.4969077 -1.0139982 -0.82065576
0001f0 e9 fe 76 bf 3d 5c 19 3f 10 6e 0c 40 28 f6 32 bd
       -0.9648271 0.5990637 2.1942177 -0.043691784

features.2.bn.running_var f4 [128]
000000 c5 60 b2 3f a8 b5 fe 3f 9d e7 98 3f 74 4e c1 3f
       1.3935782 1.9899187 1.1945683 1.5102067
000010 60 bc 94 3f 58 37 29 3f b1 98 b7 3f 8f fd b3 3f
       1.1619987 0.6610007 1.4343473 1.4061755
000020 a3 87 28 3f 58 df ea 3f 24 e4 c3 3f d8 a3 eb 3f
       0.65831965 1.8349409 1.5303998 1.8409376
000030 08 b1 7f 3f 5f 10 20 3f fc 2a cd 3f a4 78 39 3f
       0.99879503 0.6252498 1.6028743 0.7244971
000040 35 05 c3 3f 9f 2f 54 3f db 99 4d 3f 0c 24 37 3f
       1.5235964 0.82885164 0.8031289 0.7153938
000050 ae 73 fe 3e c6 47 b8 3f 96 6e 47 3f bd 5f 10 40
       0.49697632 1.4396904 0.77903116 2.2558434
000060 ba fc 55 3f 48 b1 5f 3f 66 19 c0 3f ed 06 d1 3f
       0.83588755 0.87379885 1.5007751 1.6330239
000070 6a d7 53 3f 13 05 91 3f 44 45 6e 3f 46 8d 97 3f
       0.8275057 1.1329674 0.9307444 1.1839988
000080 6a 8d c0 3f 52 72 60 3f 0a 33 1d 3f da 5f 69 3f
       1.5043156 0.8767444 0.61406004 0.9116188
000090 24 99 9b 3f 0a be 89 3f 58 ef 0c 40 8a 98 46 3f
       1.215611 1.076112 2.2021084 0.77576506
0000a0 61 3e 83 3f da 34 6a 3f 44 98 b1 3f 3b 2b ac 3f
       1.0253412 0.91486895 1.3874593 1.3450693
0000b0 58 e6 57 3f ee 16 34 3f b9 76 a4 3f 00 a7 37 3f
       0.8433585 0.7034749 1.2848731 0.71739197
0000c0 35 d8 8f 3f a4 b9 3b 3f c3 7c 2c 3f 4b 9c b3 3f
       1.1237856 0.7333014 0.6737787 1.4032072
0000d0 b9 24 c3 3f d8 cc a3 3f 0c fc 2c 3f 23 10 df 3f
       1.5245582 1.2796888 0.67572093 1.74268
0000e0 11 cc 83 3f 89 00 9a 3f 55 5b af 3f d3 73 c9 3f
       1.0296651 1.2031413 1.3699747 1.5738472
0000f0 4d b5 42 40 df 88 cb 3f dd d6 15 40 53 4a 1a 40
       3.0423157 1.5901145 2.3412392 2.4107864
000100 14 24 a6 3f 13 b4 a3 3f 3f cf c6 3f aa 0a 8a 3f
       1.297976 1.2789329 1.5531996 1.0784504
000110 f1 89 03 40 cf d0 1b 40 af 15 e0 3f d0 ac 49 3f
       2.0552943 2.4346197 1.7506617 0.78779316
000120 18 22 32 3f 8e 25 5a 3f 23 7a 30 40 ce fc 8d 3f
       0.6958327 0.85213554 2.7574546 1.1092775
000130 71 38 92 3f d0 2d 34 3f 57 ab 60 3f 36 4a 86 3f
       1.1423475 0.70382404 0.87761444 1.0491397
000140 8e 50 90 3f fd 0e 04 40 57 a2 7b 3f 2b 35 31 3f
       1.1274583 2.0634148 0.98294586 0.6922175
000150 f7 36 86 3f ec a9 8f 3f 92 4b 49 3f 32 22 2f 3f
       1.0485524 1.1223731 0.78630936 0.6841155
000160 5a 1e 5b 3f d0 9f 98 3f 48 32 90 3f bc 98 ab 3f
       0.8559319 1.1923771 1.1265345 1.3405986
000170 cc 6a d6 3f 4e 48 89 3f 2b 72 86 3f 8a 71 c4 3f
       1.6751342 1.0725191 1.0503591 1.5347149
000180 19 3f 9d 3f 47 76 4f 3f 82 37 a2 3f ab 06 75 3f
       1.2284881 0.8103985 1.267319 0.957133
000190 1b 8b ac 3f 47 84 8f 3f d7 23 bd 3f 43 ac 52 3f
       1.3479952 1.1212243 1.4776562 0.822941
0001a0 dc 0b 81 3f da 4a c0 3f 67 58 a2 3f f1 5d 41 3f
       1.0081744 1.5022843 1.2683228 0.7553397
0001b0 12 1a 44 3f c3 6d a6 3f aa fa 2c 3f 3a 22 8d 3f
       0.7660228 1.3002247 0.67569983 1.102607
0001c0 d1 f8 50 3f ec fe e1 3f d3 dd 7d 3f 76 59 5f 3f
       0.81629664 1.7655921 0.991666 0.8724588
0001d0 59 26 94 3f 8e a3 23 3f 0e 77 5d 3f 49 56 f5 3f
       1.1574203 0.6392144 0.8650979 1.9166957
0001e0 6d 84 b7 3f 0a 9a be 3f 4a eb a5 3f 57 62 1e 3f
       1.4337288 1.4890759 1.296243 0.61868805
0001f0 c6 a6 77 3f ed a9 03 40 d6 e3 35 40 ae e6 da 3f
       0.9673885 2.0572464 2.842031 1.7101648
