ecg_afib_detection/checkpoints/mit-bih/100hz/resnet1d/fold_4/best.pt (torch, 321247 bytes, 44 tensors)

stem.0.weight f4 [64, 2, 7]
-0.072179966 0.18561731 0.037414353 0.11188799 -0.030082596 0.025629902 0.03883255 0.0120099485
-0.12599291 -0.05712718 -0.022450402 -0.2461525 0.18326037 0.14051777 -0.059885208 0.30901855
-0.2548721 0.19193603 0.123828255 0.10161085 0.25057244 0.11381376 0.09991089 -0.019807769
-0.1735635 -0.21639748 0.047926914 -0.19862981 -0.05458638 0.1874454 0.07658521 0.060499154
-0.009435485 -0.17053813 0.01944644 -0.24421348 0.2646911 -0.15320499 0.031050047 -0.08663413
-0.18806721 -0.03842217 0.22805446 -0.14254081 0.006157985 0.21425182 0.23862049 0.09012961
0.19771987 -0.11738825 -0.009871733 -0.015411365 0.07124441 0.11819439 0.01592887 -0.003818816
-0.1902397 -0.122784264 -0.2292949 0.095519066 -0.089542165 0.21005397 0.2888648 -0.010872941
-0.25243354 0.23895594 0.19968763 0.09159404 -0.16005546 0.11009208 -0.13236639 -0.16762534
-0.12839141 0.06063977 0.07902192 0.13151337 0.066328906 -0.18099625 0.2286472 0.3162341
0.21775466 -0.11666594 -0.11092016 0.09265224 -0.2831048 0.21812533 0.08050717 0.23623902
0.01839475 -0.16173448 0.27302572 0.18670642 -0.21061924 0.18299125 -0.23571943 -0.20355879
-0.00052552216 0.09191354 -0.038543392 -0.09437666 -0.106664896 0.06261289 0.09555087 -0.012995769
0.07791732 0.15705876 -0.007047937 -0.106045134 0.08049843 -0.06156789 0.09901115 -0.23928593
0.061783485 -0.065375045 0.24641317 -0.20476358 -0.21513446 0.19896004 0.107081726 0.22518043
-0.053118795 0.21052906 0.15837969 0.057889942 -0.23256655 -0.1761107 0.17455325 -0.16553375
0.16362526 -0.17137443 0.085028574 -0.087247 -0.13701794 0.026402133 -0.092979655 0.1550883
-0.09920302 0.04980406 -0.040954478 0.06738425 -0.02771627 0.079191156 -0.2585794 0.1707893
-0.073861614 0.12345896 -0.038600642 0.05209524 0.25668094 -0.275221 -0.076568425 0.105003335
-0.1330551 0.044109304 0.17022303 0.06969616 0.035641536 0.2557699 -0.2451412 -0.23267356
-0.052402645 0.048463747 -0.1940819 0.03851951 -0.03349803 -0.039033115 -0.15407704 0.28866735
-0.2257396 0.14375848 0.0582496 -0.1526461 -0.0249538 -0.25165832 -0.08980597 -0.046485983
-0.1151012 -0.17830777 0.14067842 -0.2657101 -0.012504826 -0.06702192 -0.07874646 0.177625
-0.085538186 -0.17686407 0.11962009 -0.14268316 0.20973696 0.0631238 -0.21356244 -0.2473178
0.19910267 0.022556081 0.24855332 -0.059879713 0.06368553 0.06374187 0.27895832 0.22242676
-0.11172546 0.18661496 -0.1665992 -0.18405356 0.1561375 -0.02619927 0.18219239 -0.063229665
-0.21376276 -0.04498953 0.2231904 -0.21475375 0.16290098 -0.15189488 -0.23074552 0.09623047
0.07714397 0.08577955 0.20025088 -0.0340779 -0.0083111795 0.06527322 -0.13344483 -0.0999829
-0.27394208 -0.22870047 -0.21516232 -0.10655183 0.257481 0.22687717 -0.15377817 -0.09682655
-0.011373776 -0.17950286 -0.0033961278 0.2317558 0.048556015 -0.037497576 0.15101495 -0.24113421
0.07975287 -0.1972852 0.0070076673 0.22708124 -0.08714534 0.036537077 0.093053296 0.1319693
-0.0005810588 0.16702892 -0.14747664 -0.16980179 0.27933502 0.051434167 -0.1059626 0.12724675
00000000: 17d3 93bd 7712 3e3e cb3f 193d 8825 e53d
00000010: c76f f6bc cdf5 d13c e10e 1f3d 60c5 443c
00000020: 4904 01be 31fe 69bd e8e9 b7bc 670f 7cbe
00000030: 9ba8 3b3e e4e3 0f3e 314a 75bd ae37 9e3e
00000040: 997e 82be e18a 443e ab99 fd3d 5919 d03d
00000050: 084b 803e 3017 e93d 159e cc3d e743 a2bc
00000060: a1ba 31be 4d97 5dbe 034f 443d 9d65 4bbe
00000070: f895 5fbd b0f1 3f3e b5d8 9c3d f6cd 773d
00000080: 4b97 1abc 8ca1 2ebe 244e 9f3c 1913 7abe
00000090: 9885 873e c5e1 1cbe ab5c fe3c 3c6d b1bd
000000a0: b194 40be 9160 1dbd 1c87 693e 38f6 11be
000000b0: ecc8 c93b d464 5b3e ee58 743e df95 b83d
000000c0: 1477 4a3e 4069 f0bd 0dbd 21bc f37f 7cbc
000000d0: 97e8 913d e60f f23d 437d 823c 1a45 7abb
000000e0: 32ce 42be 5176 fbbd 48cc 6abe 809f c33d
000000f0: e261 b7bd 6318 573e 16e6 933e 6c24 32bc
00000100: f83e 81be deb0 743e ea7a 4c3e a895 bb3d
00000110: 94e5 23be f577 e13d 0e8b 07be faa5 2bbe
00000120: 0a79 03be 6861 783d 3fd6 a13d 71ab 063e
00000130: 73d7 873d 1557 39be 7e22 6a3e 70e9 a13e
00000140: 14fb 5e3e 8dee eebd 1c2a e3bd 75c0 bd3d
00000150: 1df3 90be 3f5c 5f3e f1e0 a43d a4e8 713e
00000160: 96b0 963c b99d 25be 07ca 8b3e f82f 3f3e
00000170: 92ac 57be 0f62 3b3e 6f60 71be b771 50be
00000180: 32c3 09ba 2b3d bc3d addf 1dbd 8d48 c1bd
00000190: 2073 dabd 303b 803d 2db0 c33d 35ec 54bc
000001a0: 1e93 9f3d 03d4 203e 61f2 e6bb 312e d9bd
000001b0: 5cdc a43d 9d2e 7cbd 5cc6 ca3d 5f07 75be
000001c0: ae10 7d3d 5ae3 85bd bc53 7c3e 8bad 51be
000001d0: 354c 5cbe 2ebc 4b3e aa4d db3d b395 663e
000001e0: 1893 59bd ee94 573e 492e 223e 011e 6d3d
000001f0: ed25 6ebe 5d56 34be 16be 323e ae81 29be
00000200: 618d 273e c77c 2fbe 7623 ae3d 8eae b2bd
00000210: 6e4e 0cbe 4949 d83c 1e6c bebd 78cf 1e3e
00000220: f42a cbbd 58ff 4b3d e2bf 27bd c100 8a3d
00000230: 3b0d e3bc f92e a23d 8564 84be 64e3 2e3e
00000240: c244 97bd 0dd8 fc3d b51b 1ebd d261 553d
00000250: af6b 833e c4e9 8cbe e8cf 9cbd fd0b d73d
00000260: 993f 08be f5ab 343d f24e 2e3e dcbc 8e3d
00000270: dcfc 113d 46f4 823e 4b06 7bbe fa41 6ebe
00000280: 28a4 56bd ec81 463d 68bd 46be a2c6 1d3d
00000290: 3b35 09bd 30e1 1fbd 5fc6 1dbe 35cc 933e
000002a0: 4828 67be 6c35 133e 2297 6e3d 424f 1cbe
000002b0: e96b ccbc 5cd9 80be 31ec b7bd 1668 3ebd
000002c0: 2eba ebbd 5096 36be 010e 103e 270b 88be
000002d0: 0be1 4cbc ca42 89bd d345 a1bd 54e3 353e
000002e0: a52e afbd db1b 35be 61fb f43d 891b 12be
000002f0: 49c5 563e 0d47 813d 1db0 5abe e140 7dbe
00000300: 92e1 4b3e 88c7 b83c c384 7e3e 6e44 75bd
00000310: 8f6d 823d 198b 823d a0d3 8e3e d7c3 633e
00000320: 51d0 e4bd fe17 3f3e fb98 2abe 8978 3cbe
00000330: 82e2 1f3e da9f d6bc a490 3a3e 8e7e 81bd
00000340: a0e4 5abe f146 38bd 068c 643e 68e8 5bbe
00000350: 84cf 263e 558a 1bbe 8e48 6cbe 7b14 c53d
00000360: a8fd 9d3d 30ad af3d 910e 4d3e 4595 0bbd
00000370: 9d2b 08bc f7ad 853d c3a5 08be d6c3 ccbd
00000380: 2342 8cbe 7530 6abe 8353 5cbe d937 dabd
00000390: 8dd4 833e 7d52 683e 0678 1dbe 004d c6bd
000003a0: 1359 3abc 99cf 37be 9291 5ebb 6451 6d3e
000003b0: ace2 463d 0f97 19bd aaa3 1a3e e3eb 76be
000003c0: 7955 a33d 2205 4abe 93a0 e53b fc87 683e
000003d0: 4279 b2bd e7a7 153d ba92 be3d f622 073e
000003e0: 3252 18ba a109 2b3e 1e04 17be 85e0 2dbe
000003f0: 0005 8f3e a2ac 523d eb02 d9bd f94c 023e

stem.0.bias f4 [64]
-0.16310474 0.22023398 -0.09367817 0.13027926 0.26447627 -0.12268335 0.070396736 0.17554122
-0.24498095 -0.19092241 -0.151438 0.10360757 0.0124702025 0.12920666 0.0663819 -0.1496984
-0.17298962 0.18130215 -0.12023586 -0.13076925 0.011453462 0.022645483 -0.025652528 0.053455144
0.12804088 -0.22423309 0.22752666 -0.12656298 -0.060666002 -0.13217245 -0.20622523 0.19739833
-0.25599343 0.14005691 0.0016611499 0.2528688 0.045788337 0.25894627 -0.079006925 0.24405688
-0.17378372 0.23545954 0.003072467 0.09632099 -0.055366904 0.17065325 -0.18937571 0.05314678
0.115906425 0.19390741 0.03443288 0.19415665 0.26934212 -0.09624599 0.1735843 -0.21821968
-0.24971436 0.24945602 0.2389559 0.12558945 0.27098808 0.1359105 -0.09906435 0.14579757
00000000: ee04 27be 0485 613e 57da bfbd ed67 053e
00000010: 6f69 873e 6941 fbbd 2a2c 903d 14c1 333e
00000020: 49dc 7abe 2a81 43be 9012 1bbe 3530 d43d
00000030: d24f 4c3c c04e 043e 3cf3 873d 8a4a 19be
00000040: 3124 31be 45a7 393e 383e f6bd 60e8 05be
00000050: 4da7 3b3c 0583 b93c 4025 d2bc c8f3 5a3d
00000060: 261d 033e 5c9d 65be c0fc 683e ba99 01be
00000070: ea7c 78bd 3758 07be b52c 53be ca22 4a3e
00000080: 9211 83be 146b 0f3e f1ba d93a 0578 813e
00000090: 8d8c 3b3d 9b94 843e 62ce a1bd 0cea 793e
000000a0: 5cf4 31be 4e1c 713e 715b 493b f043 c53d
000000b0: 68c8 62bd babf 2e3e b5eb 41be 70b0 593d
000000c0: 5960 ed3d aa8f 463e 7e09 0d3d 00d1 463e
000000d0: 36e7 893e 9e1c c5bd 15c0 313e fb74 5fbe
000000e0: 1fb5 7fbe 6671 7f3e dbb0 743e 859a 003e
000000f0: f3be 8a3e 1f2c 0b3e 40e2 cabd f54b 153e

stem.1.weight f4 [64]
0.9908391 0.955248 0.9929334 0.9749255 1.0346584 0.9920909 0.9815055 0.99094343
0.9875664 1.0239028 1.0371389 1.0077847 0.9815629 0.9786991 0.9560656 1.0476376
0.9893103 1.0001488 1.0065516 0.9550543 1.0169256 0.97977215 0.9833397 0.9689779
0.97856975 0.99922884 0.9729434 1.0264171 0.98196435 0.9996624 0.9871032 0.99192345
0.9817234 1.0114809 1.0201408 1.0020841 0.9948017 1.051956 1.0284663 1.014094
1.000841 0.9881245 0.9600143 1.0299575 0.9561265 1.0573293 0.91968197 1.0477692
1.0210811 0.99345714 1.0177915 1.0071183 0.9775275 1.0080864 0.9954908 1.073772
0.96241456 0.9999846 0.9250328 1.0535067 1.0483849 1.0019522 1.0007788 0.9733729
00000000: a2a7 7d3f 228b 743f e230 7e3f b894 793f
00000010: b06f 843f abf9 7d3f f243 7b3f 78ae 7d3f
00000020: 27d1 7c3f 3f0f 833f f8c0 843f 17ff 803f
00000030: b547 7b3f 068c 7a3f b7c0 743f fd18 863f
00000040: 7143 7d3f e004 803f afd6 803f 707e 743f
00000050: 9e2a 823f 59d2 7a3f 27bc 7b3f f00e 783f
00000060: 8c83 7a3f 76cd 7f3f d212 793f a361 833f
00000070: 0462 7b3f e0e9 7f3f ccb2 7c3f b2ee 7d3f
00000080: 3a52 7b3f 3578 813f f993 823f 4b44 803f
00000090: 53ab 7e3f 7fa6 863f c9a4 833f d5cd 813f
000000a0: 8f1b 803f baf5 7c3f 7fc3 753f a6d5 833f
000000b0: b5c4 743f 9156 873f 4770 6b3f 4d1d 863f
000000c0: c9b2 823f 3553 7e3f fe46 823f 41e9 803f
000000d0: 3e3f 7a3f fa08 813f 7cd8 7e3f 5c71 893f
000000e0: cd60 763f fefe 7f3f f3ce 6c3f 4fd9 863f
000000f0: 7a31 863f f83f 803f 8519 803f f72e 793f

stem.1.bias f4 [64]
0.017492462 -0.0257106 0.049937386 0.02095491 0.021249967 0.017143302 -0.03327141 -0.08173667
0.032355495 0.035410702 0.089229606 -0.051075533 -0.06514842 0.025961867 -0.03020735 0.033595424
0.003165323 0.033336364 0.021563703 -0.03051107 0.066623285 -0.04542776 -0.012638068 -0.057054076
0.018500613 -0.06361948 0.0091083655 0.050896447 -0.07618758 0.010901995 0.014901524 0.014329862
-0.033322565 0.014149826 -0.019151485 0.045832567 -0.05623945 0.046568643 -0.013527879 0.049978778
0.031677864 0.0165496 -0.040752083 0.033151068 -0.016389346 0.02854957 0.007941732 0.04224035
0.0055881552 -0.011252257 -0.021918736 -0.0060857763 -0.019641835 0.020184344 0.0037053847 0.027946113
-0.050276898 0.033782814 -0.08135489 0.054385357 0.058261126 0.005458626 0.047862228 0.010842224
00000000: 5a4c 8f3c 099f d2bc 258b 4c3d a2a9 ab3c
00000010: 6914 ae3c 1c70 8c3c 9a47 08bd 8e65 a7bd
00000020: 3287 043d d00a 113d 03be b63d 9434 51bd
00000030: 896c 85bd fbad d43c 6875 f7bc 5b9b 093d
00000040: 4f71 4f3b b68b 083d 5da6 b03c 5af2 f9bc
00000050: ca71 883d 7512 3abd e60f 4fbc 89b1 69bd
00000060: 998e 973c ee4a 82bd 413b 153c cb78 503d
00000070: 3c08 9cbd 489e 323c 8625 743c ccc7 6a3c
00000080: 3e7d 08bd acd4 673c 93e3 9cbc eeba 3b3d
00000090: 565b 66bd c3be 3e3d 09a4 5dbc 8cb6 4c3d
000000a0: a6c0 013d 0793 873c a8eb 26bd 6ac9 073d
000000b0: f342 86bc cae0 e93c 0a1e 023c 3804 2d3d
000000c0: d81c b73b 635b 38bc ec8e b3bc 316b c7bb
000000d0: eae7 a0bc a359 a53c 0ad6 723b 3fef e43c
000000e0: 26ef 4dbd d95f 0a3d 649d a6bd 2ec3 5e3d
000000f0: 38a3 6e3d 46de b23b 2f0b 443d 95a3 313c

stem.1.running_mean f4 [64]
-0.1629105 0.21981908 -0.09655777 0.13369325 0.2657965 -0.11989033 0.070286244 0.17481394
-0.24303536 -0.19075875 -0.15203393 0.102895536 0.0059618643 0.12921928 0.06683791 -0.15008466
-0.17522925 0.1829353 -0.11736052 -0.12946674 0.013992189 0.017948585 -0.022440024 0.05175396
0.12840372 -0.22476235 0.22730641 -0.1251617 -0.064602375 -0.1269806 -0.20463307 0.1947429
-0.26324427 0.13965361 0.0032547906 0.25582984 0.044618115 0.26074082 -0.07947673 0.24753375
-0.17093286 0.23501343 -0.00011534267 0.09819584 -0.059397787 0.17086016 -0.19634348 0.05355944
0.115621194 0.19010437 0.034835123 0.1973255 0.2701542 -0.09675872 0.17961232 -0.2165338
-0.25262108 0.2507007 0.23163661 0.12727511 0.27099183 0.13529733 -0.101333454 0.15055849
00000000: 03d2 26be 4118 613e 15c0 c5bd e2e6 083e
00000010: 7b16 883e 1089 f5bd 3cf2 8f3d 6d02 333e
00000020: 43de 78be 4356 43be c8ae 1bbe e5ba d23d
00000030: be5b c33b 0f52 043e 50e2 883d cbaf 19be
00000040: 4c6f 33be 6453 3b3e b65a f0bd ee92 04be
00000050: 7f3f 653c e908 933c 24d4 b7bc f6fb 533d
00000060: 447c 033e 1a28 66be 03c3 683e 642a 00be
00000070: 404e 84bd 3407 02be 558b 51be af6a 473e
00000080: f4c7 86be 5b01 0f3e 534e 553b 21fc 823e
00000090: 7cc1 363d d27f 853e b2c4 a2bd 7d79 7d3e
000000a0: 0609 2fbe 5ca7 703e 20e4 f1b8 e71a c93d
000000b0: 184b 73bd f7f5 2e3e 440e 49be 2561 5b3d
000000c0: ceca ec3d b8aa 423e 46af 0e3d b20f 4a3e
000000d0: a751 8a3e 7029 c6bd 4bec 373e 09bb 5dbe
000000e0: 8d57 81be d85b 803e 2632 6d3e 6854 023e
000000f0: 71bf 8a3e 628b 0a3e ea87 cfbd 012c 1a3e

stem.1.running_var f4 [64]
0.14747754 0.42600346 0.21529731 0.50321317 0.40573302 0.50398284 0.30800548 0.070429735
0.22452469 0.045571364 0.046601012 0.25139844 0.46359947 0.2128305 0.35682902 0.097426236
0.506159 0.14462751 0.16960268 0.25462648 0.52000415 0.3464241 0.45782605 0.5208896
0.1903975 0.490264 0.24622752 0.2781481 0.32311136 0.32265475 0.23107767 0.28484747
0.55724216 0.217266 0.13561477 0.2638597 0.145548 0.23106658 0.051250618 0.35288143
0.34122097 0.14079848 0.28283828 0.19947 0.24131823 0.15112756 0.69402826 0.11620193
0.13341205 0.2810795 0.15219769 0.4440056 0.045881458 0.11525891 0.5027931 0.16369453
0.188222 0.4367823 0.62013394 0.09211752 0.29946452 0.42126325 0.19640458 0.28862765
00000000: 5a04 173e 201d da3e e676 5c3e 94d2 003f
00000010: 3dbc cf3e 0505 013f e5b2 9d3e 773d 903d
00000020: cde9 653e 0aa9 3a3d b4e0 3e3d 4cb7 803e
00000030: e95c ed3e 3df0 593e 4bb2 b63e 6887 c73d
00000040: a393 013f 3c19 143e 53ac 2d3e 675e 823e
00000050: fe1e 053f 805e b13e 2d68 ea3e 0559 053f
00000060: 90f7 423e e203 fb3e 1123 7c3e 6e69 8e3e
00000070: da6e a53e 0133 a53e a09f 6c3e 87d7 913e
00000080: 6ca7 0e3f fa7a 5e3e 99de 0a3e 9e18 873e
00000090: 890a 153e b89c 6c3e 2bec 513d e0ac b43e
000000a0: 84b4 ae3e 7a2d 103e 2ed0 903e dd41 4c3e
000000b0: 201c 773e 2fc1 1a3e d6ab 313f 47fb ed3d
000000c0: 2b9d 083e a7e9 8f3e b6d9 1b3e b454 e33e
000000d0: 32ee 3b3d dd0c ec3d 0cb7 003f 8a9f 273e
000000e0: 45bd 403e eea1 df3e 19c1 1e3f 1ca8 bc3d
000000f0: 6a53 993e d1af d73e 481e 493e 01c7 933e

block1.conv1.weight f4 [64, 64, 3]
-0.009349948 -0.03604412 -0.022189189 -0.048948333 0.036993157 -0.013850774 0.054302823 -0.0052586026
-0.022943728 0.019216362 -0.08280382 -0.06382588 -0.06804143 0.061670616 -0.016350625 -0.07232317
0.019796988 0.03299442 -0.06757488 -0.025010237 -0.064359605 -0.004361567 -0.048388254 -0.01433289
-0.080987215 0.039362103 -0.03708768 0.042693492 -0.05132206 -0.034212742 -0.030130412 -0.07630522
0.07105707 -0.0003095987 -0.007855771 -0.099104606 0.005656124 -0.051193867 0.02016699 0.07282874
0.03681204 0.029344989 0.012342153 -0.056798328 -0.025873665 0.053665757 -0.07122029 0.04429093
-0.026088167 -0.040936865 0.039431907 -0.02288831 0.029030163 -0.005493331 -0.063272424 0.041491352
0.010106221 0.054590374 -0.031536683 -0.0878947 -0.050390292 -0.043615688 -0.0136212995 -0.046976674
0.009971015 0.060378723 0.029701183 0.032069832 -0.061229598 -0.05690102 0.051098596 -0.049053155
-0.023471188 -0.037203632 0.060138777 -0.042853966 -0.041329786 0.025670657 0.022957386 0.030676773
0.034415923 -0.059690315 -0.04580195 0.012950767 -0.060899213 0.02414256 -0.00508732 -0.052758265
-0.004687598 0.06450322 -0.0035982197 -0.04534697 0.02154257 -0.09191075 0.008800418 -0.05112829
0.008665813 0.059299596 0.045913044 0.056363948 -0.07618833 0.06911719 -0.045355875 0.057781264
0.009296721 0.02026692 0.0866107 0.005323126 0.024328075 0.058471642 0.021035803 -0.036100756
0.060462374 -0.06362744 0.089926206 -0.04503559 -0.0022356512 -0.04644117 -0.00583065 0.03984633
0.03820891 0.015654083 -0.027161818 -0.07561435 0.036327362 -0.014149317 0.021820145 0.06382937
-0.029290978 0.010026336 0.008284825 -0.033181507 0.048770264 -0.045820154 -0.07460733 0.0732183
0.071365595 -0.08961262 -0.040752783 0.015737783 0.04840973 -0.07198483 0.025270637 -0.035812482
0.040468983 0.018935138 -0.03615652 0.031839788 -0.016297126 0.05292474 0.054264404 -0.0016069075
-0.04556272 0.061621733 -0.03918465 0.032728847 0.0069193547 0.021861564 0.054427415 0.008428164
-0.031360112 -0.071386576 0.03027811 -0.053130474 -0.021319576 0.022755308 -0.004117966 -0.0054452363
-0.0471713 -0.055579823 0.036675222 -0.018320607 -0.016879296 -0.036204327 0.05164936 -0.09456872
0.018267142 -0.03870279 0.013628987 0.006751762 0.0076345834 -0.04716549 0.06718024 -0.018046051
0.004893498 -0.11075214 -0.030021291 0.057563093 -0.069914944 -0.06264222 0.056841012 -0.08768861
0.069919296 -0.025542349 -0.035282798 -0.07074366 0.05394562 0.034939665 0.06732888 0.043143474
-0.018044759 0.0324588 0.010455933 0.03492328 0.0045884447 -0.04408288 -0.08369507 -0.09820438
-0.004804181 -0.08497543 0.07025141 0.02375655 0.016254453 -0.04367722 -0.03631364 -0.0060769124
-0.05862038 -0.069196254 -0.06731809 -0.042428624 -0.069979556 -0.065825745 0.027112689 -0.054489132
-0.033621456 0.006945478 0.07018967 -0.004957286 -0.0070359167 -0.0654441 -0.0060347165 0.009634312
-0.018608332 -0.053508542 -0.040710665 -0.054428827 -0.024105959 -0.026019191 -0.046708457 -0.053154673
-0.038655438 0.050275903 -0.022186061 -0.054516792 0.021863645 -0.026014805 0.05064542 0.0489105
0.025811221 0.06405495 -0.014097569 0.05116455 -0.022535823 0.012180914 -0.03746459 -0.017463611
00000000: 8630 19bc 00a3 13bd 1ac6 b5bc 0c7e 48bd
00000010: 2386 173d 5bee 62bc a36c 5e3d 5b50 acbb
00000020: 7cf4 bbbc a26b 9d3c 0d95 a9bd 25b7 82bd
00000030: 4e59 8bbd 549a 7c3d bff1 85bc 2c1e 94bd
00000040: 4b2d a23c 2825 073d b364 8abd 45e2 ccbc
00000050: f8ce 83bd 7aeb 8ebb c332 46bd 7fd4 6abc
00000060: a0dc a5bd 283a 213d 40e9 17bd 5fdf 2e3d
00000070: 1537 52bd a922 0cbd 0ed4 f6bc e945 9cbd
00000080: 5e86 913d a251 a2b9 7eb5 00bc 5bf7 cabd
00000090: 0257 b93b a9b0 51bd 3e35 a53c 3c27 953d
000000a0: 39c8 163d e764 f03c be36 4a3c 5da5 68bd
000000b0: 02f5 d3bc a0d0 5b3d f2db 91bd 686a 353d
000000c0: dab6 d5bc 6aad 27bd 5a83 213d 4480 bbbc
000000d0: aad0 ed3c 6601 b4bb f994 81bd d6f2 293d
000000e0: 9094 253c 289a 5f3d 9c2c 01bd 2302 b4bd
000000f0: 0d66 4ebd 5da6 32bd df2b 5fbc 9d6a 40bd
00000100: 785d 233c ae4f 773d e54f f33c a85b 033d
00000110: e3cb 7abd 0b11 69bd c34c 513d f6eb 48bd
00000120: a646 c0bc d662 18bd 1454 763d a487 2fbd
00000130: 6c49 29bd 454b d23c 2111 bc3c db4d fb3c
00000140: b6f7 0c3d d57d 74bd d39a 3bbd 742f 543c
00000150: 7471 79bd 9ec6 c53c 89b3 a6bb 0d19 58bd
00000160: 6c9a 99bb 441a 843d 1cd0 6bbb bfbd 39bd
00000170: 0b7a b03c b43b bcbd a12f 103c e66b 51bd
00000180: 0efb 0d3c 22e4 723d 510f 3c3d e2dd 663d
00000190: a108 9cbd 508d 8d3d 15c7 39bd 0cac 6c3d
000001a0: 4651 183c d006 a63c f360 b13d 9e6d ae3b
000001b0: ac4b c73c f67f 6f3d 4753 ac3c 63de 13bd
000001c0: 65a7 773d 1a4f 82bd 3b2b b83d 3d77 38bd
000001d0: 0184 12bb 1939 3ebd 0a0f bfbb e835 233d
000001e0: f280 1c3d fe3c 803c 7682 debc b2db 9abd
000001f0: 00cc 143d 89d2 67bc 29c0 b23c f9b8 823d
00000200: a2f3 efbc 8045 243c 13bd 073c 55e9 07bd
00000210: 54c3 473d eaad 3bbd bacb 98bd 7af3 953d
00000220: 2028 923d d286 b7bd 64ec 26bd 86ec 803c
00000230: 4849 463d c86c 93bd 5e04 cf3c 1cb0 12bd
00000240: cec2 253d dd1d 9b3c dc18 14bd 706a 023d
00000250: 8d81 85bc 9dc7 583d 5a44 5e3d de9e d2ba
00000260: fa9f 3abd 1267 7c3d 1580 20bd af0e 063d
00000270: c1bb e23b 0617 b33c 48ef 5e3d 4816 0a3c
00000280: 7673 00bd 2033 92bd cd09 f83c 579f 59bd
00000290: 64a6 aebc 5769 ba3c 01f0 86bb f46d b2bb
000002a0: b136 41bd aba7 63bd c238 163d 1915 96bc
000002b0: 7346 8abc fd4a 14bd 488e 533d 3fad c1bd
000002c0: f9a4 953c d186 1ebd 1d4c 5f3c e23d dd3b
000002d0: 872b fa3b 9a30 41bd cb95 893d 50d5 93bc
000002e0: a359 a03b 05d2 e2bd 36ef f5bc 47c7 6b3d
000002f0: 912f 8fbd 904a 80bd 1fd2 683d 1696 b3bd
00000300: d931 8f3d 303e d1bc b284 10bd 0de2 90bd
00000310: 15f6 5c3d e51c 0f3d b9e3 893d 36b7 303d
00000320: 9ad2 93bc 85f3 043d 5d4f 2b3c b70b 0f3d
00000330: aa5a 963b 4090 34bd 5268 abbd 611f c9bd
00000340: 646c 9dbb 9907 aebd f9df 8f3d 199d c23c
00000350: 0f28 853c e2e6 32bd 9dbd 14bd d620 c7bb
00000360: ec1b 70bd c4b6 8dbd 11de 89bd a3c9 2dbd
00000370: 7151 8fbd a6cf 86bd 6e1b de3c ff2f 5fbd
00000380: a7b6 09bd e496 e33b 9abf 8f3d bb70 a2bb
00000390: 8c8d e6bb 8e07 86bd dfbe c5bb 3cd9 1d3c
000003a0: 8070 98bc c62b 5bbd 3ac0 26bd c3f0 5ebd
000003b0: dc79 c5bc 3326 d5bc 5e51 3fbd b7b8 59bd
000003c0: 2a55 1ebd 1bee 4d3d 8bbf b5bc 004d 5fbd
000003d0: 631b b33c 001d d5bc 9271 4f3d 6056 483d
000003e0: 0e72 d33c 3e2f 833d 7df9 66bc eb91 513d
000003f0: 0c9d b8bc 7592 473c 7874 19bd d90f 8fbc

block1.conv1.bias f4 [64]
-0.06285946 0.061639283 0.054901466 -0.022850998 -0.04171998 0.062174734 -0.0032398214 -0.0014190131
-0.064556144 0.030582558 0.042779014 0.007462593 -0.016058967 0.057182312 0.051993974 -0.086641796
-0.06675474 0.013089741 -0.05972445 0.0032373916 0.04244989 -0.033481408 -0.011998037 -0.014896556
-0.069230855 0.026150912 0.060968716 0.05286888 -0.07054578 -0.058327854 0.0110266125 -0.035157584
0.094596975 -0.040232077 -0.04335091 0.073804334 -0.002340426 -0.06542814 0.009016413 0.04370784
-0.02603236 -0.040811922 0.08162306 -0.013280944 -0.07721754 0.03349608 -0.007512972 -0.06629386
0.028572638 -0.020108774 -0.03577625 -0.0013630817 0.046978254 -0.043661714 0.053571135 0.0639583
-0.029483095 0.01798244 -0.029405981 -0.035870433 0.022351746 0.03137881 -0.047068056 -0.022577304
00000000: 76bc 80bd 7979 7c3d 5ce0 603d 0432 bbbc
00000010: 92e2 2abd efaa 7e3d 2f53 54bb 2efe b9ba
00000020: 0336 84bd 4688 fa3c 0c39 2f3d c488 f43b
00000030: 188e 83bc 0038 6a3d a2f7 543d 4171 b1bd
00000040: b6b6 88bd 5a76 563c a0a1 74bd 6b2a 543b
00000050: f0df 2d3d cd23 09bd 6a93 44bc af10 74bc
00000060: e8c8 8dbd 703a d63c 55ba 793d 0a8d 583d
00000070: 4e7a 90bd 30e9 6ebd f7a8 343c 6601 10bd
00000080: 0fbc c13d 64ca 24bd b990 31bd ba26 973d
00000090: d561 19bb 30ff 85bd 94b9 133c fe06 333d
000000a0: d141 d5bc 672a 27bd fe29 a73d 5198 59bc
000000b0: 3b24 9ebd 3033 093d 612f f6bb 13c5 87bd
000000c0: 2a11 ea3c 28bb a4bc 1e8a 12bd 6fa9 b2ba
000000d0: 456c 403d a0d6 32bd 686d 5b3d 92fc 823d
000000e0: 8886 f1bc e94f 933c d0e4 f0bc e0ec 12bd
000000f0: 021b b73c 1187 003d 6fca 40bd 0af4 b8bc

block1.bn1.weight f4 [64]
0.9648382 0.99922234 0.94645494 1.0136918 1.0030575 1.0054915 0.9516501 1.0023764
0.98568356 0.9855265 1.0153999 1.0162488 1.000665 1.0456364 0.9920293 0.99541914
0.98860353 0.96810776 1.0110097 1.0011798 0.9728384 0.9962273 0.9768697 1.0172008
1.0232289 1.0165396 0.9602578 1.0319277 0.986681 1.0361835 0.96109504 1.015376
1.0147287 1.007461 1.0384763 0.96833783 1.0118186 1.0050986 0.9983119 1.0170755
0.98190993 0.99721915 1.0078942 0.96279407 1.0033562 1.0068014 1.0110066 0.98940444
1.0615118 1.0057878 1.007302 0.99024004 1.0442783 1.0048633 0.9965468 1.0633743
1.036726 1.0217716 0.9737376 1.0284119 0.99586755 0.97902817 1.0211502 0.98706347
00000000: a3ff 763f 09cd 7f3f df4a 723f a7c0 813f
00000010: 3064 803f f2b3 803f 579f 733f df4d 803f
00000020: c255 7c3f 774b 7c3f a0f8 813f 7114 823f
00000030: ca15 803f 6ad7 853f a2f5 7d3f cad3 7e3f
00000040: 1f15 7d3f e9d5 773f c468 813f a926 803f
00000050: f00b 793f c108 7f3f 2214 7a3f a333 823f
00000060: 2af9 823f f81d 823f 75d3 753f 3516 843f
00000070: 2097 7c3f a9a1 843f 530a 763f d7f7 813f
00000080: a1e2 813f 7bf4 803f cbec 843f fde4 773f
00000090: 4683 813f 12a7 803f 5e91 7f3f 882f 823f
000000a0: 735e 7b3f c149 7f3f ad02 813f ac79 763f
000000b0: fa6d 803f dede 803f aa68 813f 9c49 7d3f
000000c0: 9edf 873f a8bd 803f 46ef 803f 5f80 7d3f
000000d0: e9aa 853f 5c9f 803f b11d 7f3f a61c 883f
000000e0: 70b3 843f 69c9 823f de46 793f 00a3 833f
000000f0: 2df1 7e3f 97a1 7a3f 0db5 823f 31b0 7c3f

block1.bn1.bias f4 [64]
-0.004025847 0.024952402 -0.06494308 0.04693156 -0.0642503 0.026469255 -0.018124418 0.0067369994
-0.04411435 -0.031302683 -0.018157862 -0.005879252 -0.0059940577 0.021877008 -0.03818475 -0.029517613
-0.011023052 -0.0036278383 -0.018053245 -0.0059542144 -0.059493314 0.0361539 -0.033441637 -0.021875154
0.022611702 -0.007899904 -0.038626257 -0.040995125 -0.037786033 -0.04430035 -0.03732772 -0.02534447
-0.0027704115 0.016789753 -0.0053803483 -0.049733188 -0.04813104 0.0052946894 -0.03290559 -0.010084586
-0.030138819 -0.05046309 -0.047011178 -0.011272481 -0.008044718 0.02943248 0.028116012 -0.07672536
-0.0776158 0.027918808 0.019942293 -0.011443426 0.049667254 -0.012338627 -0.011317575 0.026989251
-0.009666327 -0.017213965 -0.03262044 0.05283928 -0.035141446 -0.060225133 0.01068615 -0.012521026
00000000: 41eb 83bb fb68 cc3c e100 85bd 4f3b 403d
00000010: a995 83bd 0dd6 d83c a979 94bc 0cc2 dc3b
00000020: 40b1 34bd 3e37 00bd ccbf 94bc bea6 c0bb
00000030: cd69 c4bb 6937 b33c 9d67 1cbd ecce f1bc
00000040: 089a 34bc 07c1 6dbb 66e4 93bc 921b c3bb
00000050: 43af 73bd 1d16 143d 19fa 08bd 8633 b3bc
00000060: 2d3c b93c 996e 01bc 9136 1ebd 81ea 27bd
00000070: 87c5 1abd 4974 35bd f4e4 18bd 359f cfbc
00000080: cb8f 35bb aa8a 893c a24d b0bb 07b5 4bbd
00000090: 0e25 45bd 137f ad3b 03c8 06bd d239 25bc
000000a0: afe5 f6bc 63b2 4ebd cb8e 40bd 36b0 38bc
000000b0: fecd 03bc 621c f13c 8d53 e63c 2f22 9dbd
000000c0: 08f5 9ebd fcb5 e43c 055e a33c 357d 3bbc
000000d0: e46f 4b3d f427 4abc 5a6d 39bc 9018 dd3c
000000e0: 845f 1ebc 4d04 8dbc 039d 05bd 006e 583d
000000f0: 7af0 0fbd a1ae 76bd f614 2f3c fd24 4dbc

block1.bn1.running_mean f4 [64]
-0.48161694 -0.47209424 0.87276727 -0.7419218 0.42933062 -0.0406623 -0.4329366 -0.07661877
0.47358167 0.17876363 -0.2895518 -0.4508575 0.25236157 -0.46306604 -0.064361386 -0.27232176
-0.89053416 -0.33792278 -0.43301225 0.11050386 0.02012711 -0.5838419 -0.46056706 -0.6485864
-0.28501645 -0.2606349 -0.27913034 -0.15796077 0.7050726 -0.3009981 0.7964615 -0.51595473
-0.4579864 -0.31299818 -0.5203329 -0.7524987 -0.21991883 -0.6406256 -0.78283364 -0.43293846
0.8631307 0.44401082 -0.28298092 -0.35989597 -0.9415207 -0.58259887 -0.4925061 0.66336405
-0.0860908 -0.5819494 -0.5453649 0.761189 -0.51464814 -0.11891971 0.043371905 -0.39688253
-0.46124932 -0.15391582 -0.37072596 -0.8782301 -0.01517885 0.08822037 -0.9483355 -0.59158266
00000000: 7f96 f6be 56b6 f1be ad6d 5f3f 96ee 3dbf
00000010: 39d1 db3e 838d 26bd dea9 ddbe 4dea 9cbd
00000020: 4c79 f23e d00d 373e 2240 94be cbd6 e6be
00000030: 8935 813e fe16 edbe e7cf 83bd c26d 8bbe
00000040: 0cfa 63bf 3704 adbe c8b3 ddbe d94f e23d
00000050: 9ce1 a43c aa76 15bf 72cf ebbe c209 26bf
00000060: aded 91be f071 85be 2cea 8ebe 78c0 21be
00000070: a37f 343f 6c1c 9abe e7e4 4b3f 9c15 04bf
00000080: 327d eabe 4c41 a0be 8934 05bf c1a3 40bf
00000090: 6732 61be 0a00 24bf c967 48bf 1caa ddbe
000000a0: 22f6 5c3f 6355 e33e e0e2 90be 4944 b8be
000000b0: 8007 71bf 3325 15bf c229 fcbe 3ad2 293f
000000c0: 6050 b0bd a3fa 14bf 099d 0bbf 48dd 423f
000000d0: fbbf 03bf 2d8c f3bd bda6 313d 3034 cbbe
000000e0: df28 ecbe 1c9c 1dbe cbcf bdbe b0d3 60bf
000000f0: b6b0 78bc e2ac b43d 1ec6 72bf f671 17bf

block1.bn1.running_var f4 [64]
0.5965097 0.8689545 1.1021323 0.9165506 0.7400673 1.196777 1.0740622 0.35325247
0.48770946 0.40473333 0.7470912 0.9692677 0.60385466 0.7637257 0.40268898 0.57972604
1.389572 0.4161709 0.86215025 0.36361012 0.5808168 0.83583343 0.51948416 1.0263461
0.46747574 0.5318419 0.57248354 0.26811558 1.0669923 0.65255934 0.84089535 0.5527842
0.9766964 0.52417946 0.5629297 1.2665945 0.51353824 0.5742141 1.4834117 0.6848599
1.3504231 0.49130797 0.22601743 0.7429279 2.1664603 0.89335245 0.690705 0.80826557
0.28659195 1.0369015 0.72361493 0.82506955 1.1166465 0.2364964 0.26224324 0.8663215
0.56682277 0.48995957 0.6799223 2.078974 0.41041607 0.25495875 1.4379505 1.4662662
00000000: dcb4 183f cd73 5e3f ac12 8d3f 0fa3 6a3f
00000010: 0d75 3d3f fd2f 993f df7a 893f 82dd b43e
00000020: 0eb5 f93e 3539 cf3e 5e41 3f3f ee21 783f
00000030: 3896 1a3f 8783 433f 402d ce3e ed68 143f
00000040: 7fdd b13f 5a14 d53e e1b5 5c3f 1b2b ba3e
00000050: 69b0 143f 2ef9 553f eafc 043f 4f5f 833f
00000060: fb58 ef3e ca26 083f 488e 123f 7246 893e
00000070: 3493 883f 210e 273f eb44 573f 4483 0d3f
00000080: c608 7a3f a030 063f 291c 103f c51f a23f
00000090: 3e77 033f b2ff 123f 6fe0 bd3f fa52 2f3f
000000a0: aada ac3f b88c fb3e 1d71 673e 8630 3e3f
000000b0: 49a7 0a40 bfb2 643f 0bd2 303f 7eea 4e3f
000000c0: 2ebc 923e 30b9 843f d43e 393f c237 533f
000000d0: 46ee 8e3f 1d2c 723e bf44 863e 3fc7 5d3f
000000e0: 4c1b 113f fbdb fa3e 630f 2e3f e90d 0540
000000f0: 0e22 d23e f489 823e c30e b83f 9cae bb3f

block1.conv2.weight f4 [64, 64, 3]
-0.011300757 -0.042203404 -0.0004835563 -0.069346346 0.035755154 -0.06018645 0.06230519 -0.048968
-0.060700674 -0.05165348 -0.010377696 -0.034504004 -0.036645714 -0.030889424 -0.0002386478 -0.0054170536
-0.001748718 -0.0074935397 0.022776678 0.00920582 -0.029919758 -0.073561914 0.034270305 -0.041676898
-0.0075181634 -0.0566158 -0.0030324915 -0.011310375 0.06354716 0.037689947 0.04266303 0.0420672
-0.06474185 -0.010770942 -0.038697578 0.053996976 -0.0723875 -0.07244209 0.05564564 -0.02724115
0.048660398 -0.0719559 0.08721616 0.049553223 -0.0598479 -0.018134685 0.029251153 0.021580147
-0.015477666 0.039725546 -0.012568762 0.07038178 -0.03754502 -0.0639229 -0.030807413 0.05535043
0.071465716 0.008458675 -0.04227698 -0.037418235 -0.014553615 0.006881023 0.05918526 0.022475407
0.0067267185 0.0329735 -0.018560158 -0.025567845 0.058300592 -0.057051703 -0.00029815984 -0.050708584
0.10007217 -0.0588276 -0.050624628 0.032756202 0.07977557 -0.013195963 0.011773914 0.045161482
-0.011410178 -0.009970083 0.06044295 0.01468685 -0.03203492 0.04837805 0.064028926 0.06719672
-0.0043829675 0.01774502 0.023531606 0.049310047 -0.02754877 -0.042036057 -0.00064008863 0.050636172
-0.012880383 -0.09890338 0.01926874 -0.058367696 -0.06776617 -0.014708836 -0.05202307 -0.028922575
0.06553234 0.0070128003 -0.050415605 -0.005942673 0.03643335 -0.0015466668 -0.0058817277 -0.05576063
0.014711135 0.005587823 -0.024774466 -0.029319344 0.04510125 0.012782885 -0.0733168 -0.013683923
-0.063208796 -0.0184551 0.04441275 -0.0019658413 -0.048024684 0.035097457 -0.029223703 -0.03954549
0.030271925 0.09906407 -0.031167258 0.0137964655 -0.0343189 -0.01600694 -0.0157129 0.032162227
-0.009956694 -0.047492232 0.059554182 -0.03859945 0.06088463 -0.043107215 -0.039221343 0.030341849
-0.058329273 0.03584766 0.013373356 -0.023798624 -0.03055914 0.055967014 -0.0068366276 -0.022063373
0.02983652 -0.07983898 -0.024653582 -0.07208256 -0.11229603 -0.080112934 -0.011959296 0.058102693
-0.06710107 0.0104002645 -0.011045272 -0.02741512 -0.01498199 0.063943446 -0.023858188 -0.07484126
-0.037782505 -0.039659966 0.08183415 0.022623658 -0.08050093 -0.06402144 0.0099661695 -0.080841206
0.028873747 -0.025745744 -0.07878638 -0.062263463 0.05940792 0.040652283 0.06587042 0.022493575
0.068647176 -0.029508932 -0.062247567 -0.07432058 -0.019243872 -0.04861981 -0.0014278202 -0.055740077
0.04597602 -0.006293187 0.0010542452 -0.091776446 -0.014167221 0.057372157 -0.059547808 0.017834796
-0.008508391 -0.05550981 -0.03560449 0.045767244 -0.065082304 -0.09950302 -0.07634611 -0.04860626
-0.021665974 0.07552648 0.075011 -0.023211587 -0.034527328 -0.06570033 -0.048590668 0.0037875273
0.0483547 -0.012871443 -0.009458203 -0.008105456 0.025443798 -0.03875925 -0.04932253 0.044652592
0.008508773 -0.031052586 -0.054899838 -0.02192267 -0.061612997 -0.021715473 0.0120986905 0.07963499
-0.06118687 0.01293423 -0.009881152 0.047692943 -0.005938179 0.002465333 -0.029573925 0.049789187
3.6344907e-05 -0.049538877 0.046479236 -0.0011102922 -0.027049052 0.04280453 -0.017363645 -0.006487476
-0.036183305 0.017315408 0.038549233 0.06615986 0.0037817075 0.059072413 -0.0029082187 -0.0679087
00000000: cf26 39bc 7add 2cbd d485 fdb9 7505 8ebd
00000010: ff73 123d 1186 76bd ba33 7f3d ab92 48bd
00000020: 45a1 78bd 9992 53bd 3607 2abc 1254 0dbd
00000030: d119 16bd d10b fdbc 883d 7ab9 8a81 b1bb
00000040: 3d35 e5ba 5e8c f5bb 2896 ba3c 02d4 163c
00000050: 481a f5bc a1a7 96bd 055f 0c3d 65b5 2abd
00000060: ed5a f6bb f8e5 67bd c4bc 46bb 274f 39bc
00000070: 0325 823d c660 1a3d 6ebf 2e3d a84e 2c3d
00000080: 6097 84bd 9b78 30bc 5a81 1ebd ef2b 5d3d
00000090: e63f 94bd 855c 94bd afec 633d d528 dfbc
000000a0: 2050 473d 9d5d 93bd 639e b23d 52f8 4a3d
000000b0: 1223 75bd 318f 94bc 1da0 ef3c d9c8 b03c
000000c0: 0996 7dbc 41b7 223d 35ed 4dbc 5324 903d
000000d0: cfc8 19bd 02ea 82bd d45f fcbc 22b7 623d
000000e0: 9e5c 923d 4196 0a3c a02a 2dbd dd43 19bd
000000f0: 4972 6ebc 347a e13b 3e6c 723d 581e b83c
00000100: ce6b dc3b 390f 073d 790b 98bc a873 d1bc
00000110: 9acc 6e3d 0caf 69bd 5652 9cb9 ceb3 4fbd
00000120: a3f2 cc3d 36f5 70bd c55b 4fbd 5e2b 063d
00000130: 6061 a33d e133 58bc 60e7 403c 3ffb 383d
00000140: c1f1 3abc 8f59 23bc 0793 773d 1da1 703c
00000150: 0c37 03bd 1028 463d 9921 833d 6f9e 893d
00000160: ff9e 8fbb 015e 913c 5bc5 c03c 55f9 493d
00000170: f5ad e1bc 002e 2cbd 9fcb 27ba e067 4f3d
00000180: 3e08 53bc db8d cabd 7ad9 9d3c f712 6fbd
00000190: fdc8 8abd 54fd 70bc 2516 55bd 09ef ecbc
000001a0: d235 863d a2cb e53b 9880 4ebd c1ba c2bb
000001b0: 233b 153d 87b9 caba 82bb c0bb 4265 64bd
000001c0: f906 713c 0f1a b73b d2f3 cabc 1f2f f0bc
000001d0: 17bc 383d 4e6f 513c 1e27 96bd 8832 60bc
000001e0: 9d73 81bd 262f 97bc 25ea 353d 58d5 00bb
000001f0: 88b5 44bd 5ac2 0f3d 8c66 efbc 74fa 21bd
00000200: d4fc f73c 1ae2 ca3d 7a52 ffbc 920a 623c
00000210: fa91 0cbd fc20 83bc 57b8 80bc 8abc 033d
00000220: 6721 23bc 3787 42bd 16ef 733d 751a 1ebd
00000230: 2962 793d 3191 30bd 8fa6 20bd 788f f83c
00000240: adea 6ebd ffd4 123d ec1b 5b3c 55f5 c2bc
00000250: 2957 fabc ab3d 653d ca05 e0bb 3fbe b4bc
00000260: b86b f43c 9f82 a3bd 4ff6 c9bc 05a0 93bd
00000270: 76fb e5bd 4012 a4bd ecf0 43bc 17fd 6d3d
00000280: 496c 89bd df65 2a3c 3bf7 34bc ac95 e0bc
00000290: 0577 75bc c8f4 823d 3f72 c3bc 6046 99bd
000002a0: d4c1 1abd 7d72 22bd aa98 a73d 4055 b93c
000002b0: acdd a4bd ac1d 83bd 2549 233c 1390 a5bd
000002c0: a388 ec3c bde8 d2bc c15a a1bd f907 7fbd
000002d0: b855 733d 0283 263d 12e7 863d 7244 b83c
000002e0: e496 8c3d b7bc f1bc 4ef7 7ebd 6335 98bd
000002f0: 53a5 9dbc 9125 47bd b225 bbba b54f 64bd
00000300: 5a51 3c3d 1437 cebb 992e 8a3a 4af5 bbbd
00000310: a21d 68bc 11ff 6a3d 67e8 73bd 471a 923c
00000320: c766 0bbc 415e 63bd 04d6 11bd 6f76 3b3d
00000330: df49 85bd 3dc8 cbbd 595b 9cbd 5c17 47bd
00000340: d77c b1bc a1ad 9a3d 5e9f 993d 3a26 bebc
00000350: 876c 0dbd e58d 86bd 0207 47bd 2a38 783b
00000360: 940f 463d bfe2 52bc 94f6 1abc bfcc 04bc
00000370: 836f d03c 05c2 1ebd 6c06 4abd a3e5 363d
00000380: 6168 0b3c fe61 febc a7de 60bd 2c97 b3bc
00000390: e95d 7cbd a6e4 b1bc 9639 463c ab17 a33d
000003a0: 159f 7abd 18ea 533c 8ee4 21bc ad59 433d
000003b0: 0e95 c2bb 6d91 213b 0445 f2bc bfef 4b3d
000003c0: 0c71 1838 47e9 4abd 0361 3e3d 3987 91ba
000003d0: f995 ddbc ce53 2f3d 343e 8ebc e594 d4bb
000003e0: f234 14bd 0bd9 8d3c cde5 1d3d d27e 873d
000003f0: 86d6 773b eaf5 713d d097 3ebb b713 8bbd

block1.conv2.bias f4 [64]
0.054654058 -0.02249807 -0.042997714 0.007924347 0.09354306 -0.036796197 0.03090739 -0.030731998
0.06886862 0.01883951 0.054325264 0.018088633 0.021823658 -0.06560744 0.0023952564 0.014182278
0.077803075 -0.030621836 -0.0054507223 0.07371658 -0.014139811 0.010126613 0.0024634735 0.027528169
-0.01570591 -0.03199031 0.044282082 0.06346845 0.016200732 0.01114817 0.012729719 0.0057046483
-0.035792496 -0.03244054 -0.018944299 -0.02584098 -0.019895962 0.028393464 0.045555018 0.0070545645
-0.047822893 -0.06753582 -0.009476322 0.019326536 -0.027764808 -0.061016407 0.04077223 -0.071648516
0.021723635 0.00038249398 0.026641648 -0.024323095 0.044973224 0.07232764 0.034420297 -0.04039116
-0.0053474605 0.010650208 -0.04618648 -0.052318614 0.037209928 -0.06913748 0.050652646 -0.027521877
00000000: efdc 5f3d df4d b8bc 5f1e 30bd 1fd5 013c
00000010: 8193 bf3d 9cb7 16bd 7f31 fd3c acc1 fbbc
00000020: fe0a 8d3d 5155 9a3c 2b84 5e3d 9d2e 943c
00000030: 87c7 b23c 325d 86bd bcf9 1c3b c95c 683c
00000040: 3857 9f3d a5da fabc f99b b2bb b8f8 963d
00000050: aaaa 67bc 18ea 253c 3a72 213b c182 e13c
00000060: aea9 80bc 4508 03bd 2161 353d bffb 813d
00000070: 66b7 843c d0a6 363c 5090 503c 0fee ba3b
00000080: 279b 12bd 5fe0 04bd 1331 9bbc 76b0 d3bc
00000090: dbfc a2bc 6999 e83c e697 3a3d fa29 e73b
000000a0: f0e1 43bd 3850 8abd 9342 1bbc af52 9e3c
000000b0: 0673 e3bc 57ec 79bd c800 273d 75bc 92bd
000000c0: c4f5 b13c 7989 c839 963f da3c 3a41 c7bc
000000d0: d835 383d 8420 943d 4cfc 0c3d 3371 25bd
000000e0: c039 afbb 367e 2e3c 092e 3dbd 0b4c 56bd
000000f0: 7069 183d f397 8dbd 2679 4f3d 8f75 e1bc

block1.bn2.weight f4 [64]
1.0126002 1.0405613 1.0687273 1.0132617 1.03428 1.0267973 1.0037743 1.045095
1.012691 1.0858569 1.0215758 1.0197898 1.0183984 1.0318733 1.0042341 1.0286676
1.0112889 1.0317844 0.9990631 1.0085653 1.0061477 0.9906718 1.0169518 1.0191741
0.9886438 1.0764217 1.0620651 1.0101577 0.9835738 1.0221932 0.9708762 1.0004642
1.0197473 1.0325265 1.0583439 1.0013994 1.0471803 0.99348533 1.004229 1.0472864
1.0252779 1.0202271 1.0003682 1.0012349 1.0354341 1.0313946 1.0441569 1.0187937
1.0029378 1.0312552 0.97651315 1.0383809 1.034481 1.0231615 1.0234635 1.0362809
0.98338175 1.0153382 0.9756531 0.99252003 1.0116799 1.0366149 1.042957 1.0417958
00000000: e29c 813f 1d31 853f 0ecc 883f 8fb2 813f
00000010: 4963 843f 186e 833f ad7b 803f acc5 853f
00000020: dc9f 813f 5cfd 8a3f ffc2 823f 7988 823f
00000030: e15a 823f 6d14 843f be8a 803f 61ab 833f
00000040: ea71 813f 8311 843f 99c2 7f3f ab18 813f
00000050: 73c9 803f ab9c 7d3f 7a2b 823f 4c74 823f
00000060: c317 7d3f 30c8 893f c0f1 873f d94c 813f
00000070: 7ecb 7b3f 3ad7 823f 588b 783f 360f 803f
00000080: 1487 823f d429 843f d077 873f db2d 803f
00000090: 010a 863f 0e55 7e3f 938a 803f 7b0d 863f
000000a0: 4e3c 833f cd96 823f 110c 803f 7728 803f
000000b0: 1b89 843f bd04 843f efa6 853f d567 823f
000000c0: 4460 803f 2c00 843f c4fc 793f aae9 843f
000000d0: e069 843f f5f6 823f da00 833f daa4 843f
000000e0: e8be 7b3f 9af6 813f 67c4 793f cb15 7e3f
000000f0: ba7e 813f ccaf 843f 9d7f 853f 9159 853f

block1.bn2.bias f4 [64]
0.032859426 -0.0031294702 0.003585596 0.023634203 0.028422166 0.03515604 0.03381591 0.008999175
-0.010069246 0.0483863 -0.057012673 -0.03349669 -0.049851544 0.011043024 -0.029888721 -0.024081089
0.04601199 0.042672466 0.045575276 -0.036244527 -0.041889135 0.027303385 -0.038350455 -0.027417554
-0.040354967 -0.018780133 0.0024105713 0.03525301 0.007866362 -0.003802806 -0.049715955 -0.010647073
0.01856499 0.00906243 -0.03468078 -0.011790031 -0.042785294 0.017735513 0.005188449 0.015937569
0.015162527 -0.02098934 -0.032672226 0.01611479 0.00037890003 0.015264426 0.037074987 0.03777773
-0.025830187 0.009357209 -0.014946653 -0.0102339545 -0.007546092 -0.010910802 -0.024080677 0.015373051
-0.0010064943 -0.0225566 -0.0316285 -0.0009701109 -0.009600243 0.024962617 0.0011626248 -0.023420187
00000000: 9b97 063d cc17 4dbb 52fc 6a3b 849c c13c
00000010: 9ad5 e83c c8ff 0f3d 8d82 0a3d 4771 133c
00000020: 7bf9 24bc b730 463d 1f86 69bd d333 09bd
00000030: 2231 4cbd cded 343c 31d9 f4bc b445 c5bc
00000040: 1277 3c3d 53c9 2e3d 24ad 3a3d 2475 14bd
00000050: f193 2bbd 59ab df3c 5e15 1dbd c79a e0bc
00000060: 404b 25bd cbd8 99bc adfa 1d3b 7665 103d
00000070: eae1 003c 7f38 79bb f5a2 4bbd 1071 2ebc
00000080: 9b15 983c 967a 143c 6f0d 0ebd f92a 41bc
00000090: a23f 2fbd 114a 913c dd03 aa3b 818f 823c
000000a0: 3f6c 783c d6f1 abbc 50d3 05bd 2a03 843c
000000b0: 1aa7 c639 a517 7a3c f1db 173d d2bc 1a3d
000000c0: d499 d3bc fb4e 193c cee2 74bc 51ac 27bc
000000d0: 3545 f7bb 38c3 32bc d744 c5bc 40df 7b3c
000000e0: 58ec 83ba 9ec8 b8bc e38c 01bd 0a4f 7eba
000000f0: 564a 1dbc 677e cc3c 3763 983a b1db bfbc

block1.bn2.running_mean f4 [64]
-0.41556305 -0.60648775 0.65031004 -0.57543606 -0.6496256 -0.7329285 -0.42209786 -0.5361271
0.64759004 -0.6995894 -0.46754783 0.5134415 0.8598416 0.47339052 -0.04036087 -0.01957917
0.23723614 -0.3385182 -0.094354965 0.10939937 0.31112546 0.031739954 0.70518565 0.019257639
0.78728396 -0.05712247 -0.087506905 -0.32941425 0.16494808 0.18032175 -0.41083103 0.16598779
-0.03987061 -0.09341123 -0.53059113 -0.33278224 -0.09364899 -0.41860905 0.5109228 -0.22964187
-0.6285418 -0.46330652 0.009744547 -0.37019065 -0.11282663 -0.464862 0.18985972 -0.5445323
-0.25518623 -0.115253985 -0.55579174 -0.654305 0.6410129 -0.12918392 -0.20653902 -0.08055199
0.52553827 0.36705345 0.42992797 -0.20821132 0.9379614 -0.82546616 -0.39999148 -0.3318887
00000000: aec4 d4be c842 1bbf b87a 263f c74f 13bf
00000010: dd4d 26bf 34a1 3bbf 361d d8be a03f 09bf
00000020: 76c8 253f 4a18 33bf 6e62 efbe e770 033f
00000030: 941e 5c3f 3e60 f23e 7151 25bd 7f64 a0bc
00000040: 08ee 723e 4252 adbe 2d3d c1bd c70c e03d
00000050: d64b 9f3e c101 023d 0c87 343f 32c2 9d3c
00000060: 718b 493f 40f9 69bd d236 b3bd fca8 a8be
00000070: 26e8 283e 44a6 383e 7258 d2be b4f8 293e
00000080: 5d4f 23bd 634e bfbd d2d4 07bf 6f62 aabe
00000090: 0bcb bfbd ed53 d6be d6cb 023f 3d27 6bbe
000000a0: 1ee8 20bf 8336 edbe 98a7 1f3c a189 bdbe
000000b0: a611 e7bd 6402 eebe 966a 423e 7866 0bbf
000000c0: c5a7 82be 480a ecbd 5e48 0ebf 8880 27bf
000000d0: 6c19 243f ca48 04be f77e 53be 71f8 a4bd
000000e0: ad89 063f 6eee bb3e 851f dc3e 5935 55be
000000f0: 3d1e 703f c051 53bf afcb ccbe 51ed a9be

block1.bn2.running_var f4 [64]
0.17368741 0.17311843 0.23679005 0.17479597 0.6067921 0.24733096 0.21800217 0.18301459
0.28729105 0.37013507 0.19250259 0.4437796 0.18652639 0.22094157 0.21340881 0.27012706
0.16832896 0.22758554 0.28924817 0.25610828 0.28850552 0.17098095 0.4828115 0.13759059
0.22266197 0.19617498 0.22426617 0.38474163 0.6113893 0.13617155 0.34083283 0.5146044
0.20035593 0.13330276 0.19928579 0.25521865 0.18523003 0.34770864 0.31375727 0.16334118
0.3844022 0.33276019 0.18470052 0.1734549 0.40765595 0.26483104 0.37017095 0.32787785
0.25104854 0.32227638 0.816099 0.20783105 0.5024002 0.14865856 0.22048557 0.21868846
0.61301047 0.18128021 0.1360972 0.22196661 0.2134004 0.17311823 0.16184632 0.13709833
00000000: 1ddb 313e f545 313e 1779 723e b7fd 323e
00000010: ba56 1b3f 5444 7d3e f63b 5f3e 2d68 3b3e
00000020: d017 933e 5882 bd3e 661f 453e 1437 e33e
00000030: c600 3f3e 823e 623e d787 5a3e 184e 8a3e
00000040: 6d5e 2c3e 2f0c 693e 5618 943e a020 833e
00000050: ffb6 933e a115 2f3e 1233 f73e 8ce4 0c3e
00000060: 8001 643e 18e2 483e 08a6 653e dbfc c43e
00000070: 0284 1c3f 8e70 0b3e a481 ae3e 1dbd 033f
00000080: 1b2a 4d3e 8580 083e 9311 4c3e 05ac 823e
00000090: f1ac 3d3e de06 b23e cba4 a03e e942 273e
000000a0: 5dd0 c43e 8b5f aa3e 2222 3d3e 299e 313e
000000b0: 48b8 d03e ef97 873e 0c87 bd3e 9bdf a73e
000000c0: 6f89 803e 6901 a53e ddeb 503f aad1 543e
000000d0: 4d9d 003f f339 183e f8c6 613e deef 5f3e
000000e0: 41ee 1c3f 85a1 393e 105d 0b3e 374b 633e
000000f0: a285 5a3e e845 313e 0bbb 253e 8163 0c3e

block2.conv1.weight f4 [64, 64, 3]
0.008735104 0.007400091 -0.06743032 0.038402848 0.058690283 0.024736643 0.022518255 0.063026555
0.008232348 -0.062040463 -0.059643447 -0.03875416 0.02651875 0.03198392 0.09368793 -0.06505762
0.04834864 -0.031064061 0.07735478 0.032783125 -0.026299227 0.026393576 -0.047781568 -0.07977136
-0.015435827 0.04190787 0.05347826 0.08403639 -0.013302756 -0.028646963 -0.019708786 -0.03615988
0.011567441 0.02697283 -0.04133227 -0.065453276 0.020048192 0.027487602 -0.056918025 -0.04804436
0.04415253 -0.073071584 -0.009335179 -0.010449894 0.028854696 -0.03770388 -0.035434548 -0.01021198
-0.023255339 0.07252708 -0.046113744 0.037094943 -0.0059021725 0.027556466 -0.018101903 -0.021048695
-0.032047782 -0.03980489 0.05086809 0.060767837 -0.0037368468 -0.0008025556 -0.06934024 -0.0058644013
-0.058086976 -0.02666414 0.07157169 0.012455346 0.030911848 -0.00972563 0.007844617 -0.041382786
0.016490472 0.048041925 -0.037677117 0.09112198 0.06901347 -0.004536248 0.015696326 0.040195122
0.10426216 0.015370138 0.0075786384 0.02145097 0.056642767 -0.0017240366 0.05439018 0.03180426
0.087421425 -0.050420847 0.011611798 -0.043751236 -0.02591141 -0.06343745 0.0442025 0.040338006
-0.041676465 0.017448215 -0.072777174 0.03129618 0.06006483 0.034239076 0.027805751 -0.0014706813
0.11100814 0.004725402 -0.0562963 0.029865632 0.0744905 -0.059948426 -0.021264903 0.029109614
0.002036128 0.04484508 0.04730062 -0.019532938 0.021764122 0.02207128 -0.03252682 -0.0043205936
0.04796457 0.04866455 -0.031801026 0.090744376 0.094438866 0.050397877 -0.026592644 0.027085308
-0.036228057 0.003892667 -0.030251246 -0.032165457 -0.05294282 -0.06514652 -0.02365972 -0.012734588
0.06923072 0.06413087 0.018179758 0.054809645 -0.053462204 0.021417845 -0.03140407 0.041437674
-0.07764287 -0.05970523 0.0059531517 -0.006000533 0.007363822 -0.021803115 -0.057530835 0.03188296
-0.027795017 0.06551686 0.057610642 0.061069462 -0.016860671 0.06958129 0.016241644 0.09206153
0.0818843 0.026089199 -0.004064546 -0.011884935 0.029974563 0.028665833 -0.02010899 -0.07378359
0.024431266 0.02689265 0.011193955 0.03664036 0.01668991 0.014678358 -0.06463366 0.054249033
0.05275825 -0.08514158 0.042148016 0.035404973 0.08889448 -0.029189492 -0.037237532 0.03149832
0.044088695 0.022237917 -0.060574047 0.03886306 0.023041207 -0.026300376 -0.030390603 -0.017040402
-0.032745887 0.04061576 0.0056357374 0.058598485 0.014625058 -0.03322907 -0.005946364 0.007927229
-0.02831119 -0.027118713 0.066790745 -0.032184683 -0.017482352 0.026728561 0.01984415 -0.03569437
0.010720904 0.008873728 0.06541181 -0.035106182 0.039276086 -0.043143 -0.014973481 -0.023873158
0.042547636 0.03319816 0.05329684 0.024231987 0.04023997 -0.077832475 0.002380098 0.06951386
-0.009937997 -2.4029465e-05 0.032960225 -0.082435384 -0.060624957 0.06916196 -0.07341285 -0.017461678
-0.08274681 -0.0357827 -0.009752246 -0.009260966 -0.023469547 -0.08927834 -0.027875978 -0.033985976
-0.057747517 0.02929112 0.009745759 -0.03713722 0.054997012 -0.01699378 -0.054233532 0.017809544
-0.056641504 -0.0022846684 0.01635373 0.038086142 -0.07698269 -0.08389355 -0.08741285 -0.08553592
00000000: af1d 0f3c 767c f23b e818 8abd 4e4c 1d3d
00000010: 3965 703d 80a4 ca3c 3478 b83c 1114 813d
00000020: f8e0 063c 241e 7ebd b04c 74bd afbc 1ebd
00000030: d93d d93c 9201 033d 75df bf3d ee3c 85bd
00000040: 3909 463d 0f7a febc 2f6c 9e3d 9947 063d
00000050: 7a71 d7bc 5737 d83c 9bb6 43bd 2b5f a3bd
00000060: 8de6 7cbc 96a7 2b3d 050c 5b3d 451b ac3d
00000070: cdf3 59bc 09ad eabc 5274 a1bc 621c 14bd
00000080: 5d85 3d3c 20f6 dc3c 074c 29bd 5e0c 86bd
00000090: 1b3c a43c ae2d e13c e022 69bd 2aca 44bd
000000a0: 49d9 343d 8ea6 95bd 94f2 18bc 0836 2bbc
000000b0: af60 ec3c 626f 1abd d123 11bd 2650 27bc
000000c0: fb81 bebc 1489 943d c4e1 3cbd def0 173d
000000d0: 0367 c1bb 19be e13c 714a 94bc 506e acbc
000000e0: 8944 03bd 740a 23bd 0f5b 503d b2e7 783d
000000f0: e3e5 74bb 9862 52ba 4102 8ebd 2a2a c0bb
00000100: 9cec 6dbd c16e dabc 2e94 923d 8211 4c3c
00000110: d83a fd3c 4058 1fbc b586 003c ff80 29bd
00000120: 0717 873c 9cc7 443d 5253 1abd 299e ba3d
00000130: ef56 8d3d cea4 94bb 9595 803c a4a3 243d
00000140: 6687 d53d 08d3 7b3c 3a56 f83b f2b9 af3c
00000150: 3f02 683d 12f9 e1ba 3dc8 5e3d 2f45 023d
00000160: 010a b33d 1786 4ebd 693f 3e3c 7f34 33bd
00000170: 2a44 d4bc 7eeb 81bd ae0d 353d 7739 253d
00000180: f1b4 2abd 8fef 8e3c 330c 95bd 6c30 003d
00000190: 8a06 763d 463e 0c3d e3c8 e33c e0c3 c0ba
000001a0: 3c58 e33d 8cd7 9a3b f396 66bd c5a8 f43c
000001b0: 7a8e 983d 7b8c 75bd bc33 aebc 4977 ee3c
000001c0: 8f70 053b 79af 373d 4bbe 413d 8a03 a0bc
000001d0: ac4a b23c d4ce b43c d83a 05bd c493 8dbb
000001e0: 7f76 443d 7b54 473d cb41 02bd 30d8 b93d
000001f0: 2a69 c13d 016e 4e3d d1d8 d9bc 02e2 dd3c
00000200: df63 14bd 1d1c 7f3b 76d1 f7bc edbf 03bd
00000210: 92da 58bd 8a6b 85bd 07d2 c1bc bca4 50bc
00000220: d6c8 8d3d 0c57 833d b7ed 943c 1480 603d
00000230: 2ffb 5abd 7a74 af3c 8ea1 00bd 8dba 293d
00000240: 3a03 9fbd 798d 74bd a812 c33b 1ea0 c4bb
00000250: 374c f13b 729c b2bc 74a5 6bbd b597 023d
00000260: 60b2 e3bc b42d 863d 23f9 6b3d f923 7a3d
00000270: 641f 8abc a380 8e3d 320d 853c c18a bc3d
00000280: f5b2 a73d 04b9 d53c e22f 85bb 08b9 42bc
00000290: 378d f53c 9cd4 ea3c 9cbb a4bc da1b 97bd
000002a0: 1424 c83c fa4d dc3c da66 373c 3414 163d
000002b0: 47b9 883c 7f7d 703c a75e 84bd 3c34 5e3d
000002c0: 0919 583d b55e aebd 66a3 2c3d ce04 113d
000002d0: 4f0e b63d cd1e efbc 6286 18bd 6204 013d
000002e0: 5996 343d 4b2c b63c 7e1c 78bd df2e 1f3d
000002f0: eac0 bc3c e373 d7bc b7f5 f8bc 5098 8bbc
00000300: 8d20 06bd b65c 263d feab b83b f704 703d
00000310: f09d 6f3c 351b 08bd b7d9 c2bb 35e1 013c
00000320: deec e7bc 1028 debc 96c9 883d 16d4 03bd
00000330: 2637 8fbc dbf5 da3c 3390 a23c 4234 12bd
00000340: bba6 2f3c 1d63 113c a1f6 853d 80cb 0fbd
00000350: f6df 203d b7b6 30bd 5553 75bc a491 c3bc
00000360: 6e46 2e3d cbfa 073d ca4d 5a3d 2982 c63c
00000370: abd2 243d a266 9fbd 6bfb 1b3b 485d 8e3d
00000380: fbd2 22bc e292 c9b7 4d01 073d e2d3 a8bd
00000390: e051 78bd c9a4 8d3d 7a59 96bd cb0b 8fbc
000003a0: 2977 a9bd e190 12bd e2c7 1fbc 4fbb 17bc
000003b0: 3543 c0bc 90d7 b6bd 2a5c e4bc e134 0bbd
000003c0: a988 6cbd eef3 ef3c adac 1f3c 331d 18bd
000003d0: 8c44 613d 8a36 8bbc fb23 5ebd 52e5 913c
000003e0: ec00 68bd 60ba 15bb 42f8 853c 3700 1c3d
000003f0: 1aa9 9dbd 62d0 abbd 8205 b3bd 752d afbd

block2.conv1.bias f4 [64]
-0.0044021574 0.025363833 0.049906503 0.045886755 -0.023328174 -0.034524947 -0.021052124 0.048167665
-0.05724659 0.044527967 -0.06582719 0.05330623 0.052275024 -0.032552797 0.004319238 0.018663662
0.044934575 -0.047928285 0.057810664 0.009684373 0.059700355 0.03873775 -0.042937655 0.076210655
0.0139029315 0.028082976 -0.044019666 0.02876639 0.068991266 -0.04292209 0.010777808 0.035313394
0.013101247 0.043718074 0.05298252 0.049097534 0.02112699 0.049339354 0.07174981 0.06279861
0.01189982 0.0027065394 0.0049190777 -0.026209421 -0.012468644 0.009685261 -0.010547092 -0.01921673
-0.011947223 -0.05074993 0.039174706 0.00023874776 -0.0030047891 0.010282867 -0.048908427 -0.009742696
0.04329895 -0.003281089 0.020774815 0.030707007 0.020431539 0.037479717 0.055399943 -0.057559125
00000000: f93f 90bb d0c7 cf3c c36a 4c3d c0f3 3b3d
00000010: ba1a bfbc 086a 0dbd 8175 acbc 754b 453d
00000020: 667b 6abd f562 363d 68d0 86bd a257 5a3d
00000030: 561e 563d 1556 05bd 6588 8d3b 89e4 983c
00000040: 510d 383d 7350 44bd e0ca 6c3d 34ab 1e3c
00000050: 5c88 743d 7aab 1e3d 65df 2fbd 5514 9c3d
00000060: 1fc9 633c 450e e63c f74d 34bd 7ea7 eb3c
00000070: 4b4b 8d3d 13cf 2fbd 6795 303c c7a4 103d
00000080: 9da6 563c b911 333d 3304 593d 7f1a 493d
00000090: 8212 ad3c 1018 4a3d 90f1 923d 8f9c 803d
000000a0: 76f7 423c 3260 313b 3730 a13b 24b5 d6bc
000000b0: 4949 4cbc eeae 1e3c b6cd 2cbc 676c 9dbc
000000c0: 49be 43bc 29df 4fbd a875 203d 5d58 7a39
000000d0: ffeb 44bb 7879 283c 3454 48bd d49f 1fbc
000000e0: 3d5a 313d 8a07 57bb f22f aa3c 438d fb3c
000000f0: 0b60 a73c 5584 193d 0deb 623d 1ec3 6bbd
