ecg_afib_detection/checkpoints/mit-bih/250hz/resnet1d/fold_5/last.pt (torch, 321247 bytes, 44 tensors)

stem.0.weight f4 [64, 2, 7]
00000000: b0bf 8d3d 769b cf3d 2a10 1ebe 704c 873d
00000010: c1de 323e 2d81 38be 22b5 81bd 69cb 723e
00000020: 4f18 4b3e c62a 87be 7ec5 b1bd f9bb 49be
00000030: 3a24 093e 4456 1b3e c1f4 55bc caa0 953d
00000040: ec42 46be 484f 1e3e 02b3 383e 9182 013e
00000050: 1ebd 42be c1ed 413c f1eb 033e cd2b 5fbe
00000060: 3db4 1abe 852f 8f3e a01c 3b3e 6bb4 85be
00000070: 36e3 b6bd 78f5 2abe d670 173e 61a8 86be
00000080: 9928 5b3e 0dec f93d d2aa 3f3e 7305 f8bd
00000090: 929d 07bd ca3a a63d 2ff5 2abd 3b75 67be
000000a0: a91e 393e 7f0a 2fbd c850 1abe d452 cf3c
000000b0: 5fc5 e73d aa88 5abe 6e7d 0ebe 6cbe 1fbe
000000c0: 2342 933e 4134 70be 5b51 0ebe 7137 11be
000000d0: b6f2 5f3e fe47 16bd b9ef 6bbb 65e2 1dbd
000000e0: fccd 0d3d b431 a13d 9fc9 98bd 021e b23d
000000f0: 5b24 80be 2edb 053d c5e9 6a3e a4bc ba3c
00000100: 0f23 1abe f388 74bd 780e 71be dc65 e7bb
00000110: b017 47be 2f49 363e 97fa 993d 1184 0ebd
00000120: 49c0 b7bd 1530 12bd 35c5 c03d 57ea 14bd
00000130: e9f8 1c3d a6f9 a03d 53b6 6abd 61c1 71be
00000140: 28e1 76bb 3d7a b33d 1d74 913d 2d0b 163e
00000150: 733d 5ebe d781 cfbd 3975 2f3e d3ef 7bbe
00000160: 006b 3e3e 7fde a6bc 6ec5 45bb 0b61 23be
00000170: ecb7 8abb 3bd8 d53d e2d2 603e 6069 0f3e
00000180: a2dc 003e 0f67 4e3d 979d 2e3e d924 5dbe
00000190: ba54 05be 3808 ca3c 56bb 043e 6efe b03d
000001a0: 6869 b1bd 7490 6d3e e41d dbbc 4828 e33c
000001b0: 9c08 3ebe defe bbbd 9aa3 703d b3f8 413d
000001c0: 2133 923d 8a64 54be e50f 54be 269f 113e
000001d0: 7134 b93d dfb0 963d 1915 853d 547e 64bb
000001e0: c288 543e 8b1c 393e 2386 8c3d 85a8 77be
000001f0: 4091 91b4 750b 8cbe bdcf b13d 5408 9d3c
00000200: 95c1 2cbe a606 fe3d 2e16 95bd b87f 413e
00000210: d3bc 33be af64 52bd 889c f1bc ae22 febd
00000220: 9a80 893e 2f63 593e 7bdd bdbb a27b 80be
00000230: f42c 41be 971b 083e 3334 183e aaad 9f3c
00000240: ece3 a0bd 9564 883e f45b 793e 7f0c 393c
00000250: 6e57 50bd c8b0 3c3e b3ae 6f3e 8e04 3abe
00000260: c917 19be 1571 3b3e 5d6e 643d 0bf6 89bd
00000270: bc6f 27bd 9409 76be a278 0cbe ba5a 6bbe
00000280: a565 0ebe 57a0 513e 4238 6c3e ba09 81bd
00000290: 79b6 823e 1e09 e1bc 3486 5bbe 1f43 20be
000002a0: 15c7 32be 5954 993e 3b76 5dbe 7503 30be
000002b0: 4893 27be 864a 62bd 01a7 59be 364d 2a3e
000002c0: 58be dcbd d58a b83d e6c7 e83d 8120 893e
000002d0: 6492 323d 8f3f 1c3e d645 79bb ddaa 1d3e
000002e0: 30e1 613d b214 0f3e a77d 343e 0e75 20be
000002f0: d983 94be 02d6 3f3e a42f 153e 589c 023e
00000300: 6ae9 7dbd 1de1 b73d 0845 01bd 265e 0dbe
00000310: dc30 613e 08da 00be a65b 2c3e c0b2 76be
00000320: 8215 573e 61e4 a9bc 5fe1 85be f56d 4e3e
00000330: 19e0 11bc ec51 1a3e 928f 353e b418 313e
00000340: 94a6 2c3e 9dba 623e 6f62 09be f263 723d
00000350: 1e18 d23d cec2 c53d b751 4f3d 6ed9 01be
00000360: 3c2b 313d 0ea3 31bd a44e 3bbd c949 8f3e
00000370: aaf1 6ebd c34b 32be e058 543c 9fed 28be
00000380: 794e 0cbe 7b63 a13d e5a4 4c3e 5442 9ebe
00000390: ca0e 3e3e 02e0 353d 7527 7a3b 4319 dfbc
000003a0: c820 5f3e fec2 37be bb17 5f3d 6320 0a3e
000003b0: 81fc 86be aced 5e3c 8d13 4e3e 5b44 123d
000003c0: 9347 40be de38 97bb aed1 1bbd 8a18 9f3d
000003d0: 35ac a23b f845 0a3e 6606 1ebe 88a2 1bbe
000003e0: c5eb 333e c2f0 c83d 10e2 07be 5af5 17be
000003f0: 7c36 043e a819 333e e206 70bb e9da a73d
0.06921327 0.10137074 -0.15435854 0.06606376 0.17467786 -0.18018027 -0.063333765 0.23710407
0.19833492 -0.2639982 -0.08680247 -0.19700612 0.13392726 0.15169626 -0.013058842 0.07306059
-0.19361466 0.15459931 0.18037036 0.12647463 -0.19017455 0.01183647 0.12882973 -0.21794052
-0.15107818 0.27965942 0.18272638 -0.2611421 -0.08930056 -0.16695201 0.14789137 -0.26300338
0.21402206 0.12203226 0.18717507 -0.12110414 -0.033109255 0.08116682 -0.04173773 -0.22603314
0.18078102 -0.04273462 -0.15069878 0.02530805 0.113169424 -0.21341196 -0.13915035 -0.15599984
0.28761396 -0.23457433 -0.13898222 -0.14181305 0.2186993 -0.03668975 -0.003600104 -0.038545985
0.03462027 0.07870808 -0.07460331 0.0869713 -0.25027737 0.03267973 0.22940738 0.022795029
-0.15052436 -0.059700917 -0.23540676 -0.007061703 -0.1944263 0.17801355 0.07518499 -0.034793917
-0.08972222 -0.035690386 0.09412614 -0.036356296 0.038323317 0.07860117 -0.057302784 -0.23608924
-0.0037670825 0.087635495 0.07102225 0.146527 -0.21703129 -0.10132187 0.1713456 -0.24603204
0.18595505 -0.020369766 -0.0030177492 -0.15954988 -0.004233351 0.10441633 0.21955445 0.14005041
0.12584165 0.050391253 0.17052303 -0.21596088 -0.13020602 0.024662122 0.12962088 0.086422786
-0.08662683 0.23199636 -0.026747651 0.027729169 -0.18557972 -0.091794714 0.058749773 0.04735632
0.07138658 -0.20741478 -0.20709188 0.14220867 0.090432055 0.07357954 0.06498165 -0.0034865336
0.20755294 0.18077295 0.06861522 -0.24185379 -2.7114038e-07 -0.2735249 0.08682201 0.01916901
-0.1687072 0.12403612 -0.07279621 0.18896377 -0.175525 -0.05136555 -0.029493585 -0.124089584
0.26855928 0.21229242 -0.005794225 -0.25094324 -0.18864805 0.13291775 0.14863662 0.01949199
-0.07855973 0.26639238 0.24351484 0.011294483 -0.05086463 0.18426812 0.23406486 -0.181658
-0.1495048 0.18304856 0.055769313 -0.06736382 -0.040878043 -0.24027091 -0.13717893 -0.22983828
-0.13905962 0.20471321 0.23068336 -0.06300683 0.2552984 -0.027470168 -0.21437913 -0.15650605
-0.17458756 0.29947165 -0.21627133 -0.17188819 -0.16364777 -0.055246852 -0.21255113 0.16631016
-0.10778493 0.09010855 0.113662526 0.2678261 0.04359664 0.1525862 -0.003803601 0.1539721
0.055146396 0.13972738 0.17626058 -0.15669653 -0.29006842 0.18733981 0.14568955 0.12754953
-0.06199018 0.08978484 -0.031559974 -0.13805446 0.21991295 -0.12583172 0.16831836 -0.24091625
0.21004298 -0.020738782 -0.26148507 0.20159133 -0.008903527 0.15070313 0.17730549 0.1729458
0.1686042 0.221415 -0.13416456 0.059177347 0.10258506 0.09656297 0.05061504 -0.12680599
0.043254122 -0.04336839 -0.045729294 0.2798598 -0.058335938 -0.17411713 0.012960643 -0.16496895
-0.1370181 0.078803025 0.19984777 -0.3090998 0.18560329 0.044403084 0.003817049 -0.027233725
0.21789849 -0.17945477 0.05446599 0.13488917 -0.2636452 0.01360647 0.20124646 0.03570972
-0.18777303 -0.0046149334 -0.038041763 0.07768352 0.0049643763 0.13503253 -0.15432128 -0.1519872
0.17570408 0.09811546 -0.1326983 -0.14839688 0.12911409 0.17490256 -0.0036625196 0.08196051

stem.0.bias f4 [64]
00000000: 620f 63be 5744 033e 4ad5 40be 6063 373e
00000010: a201 9ebd b242 8a3c 75f6 7ebe 1ee4 44be
00000020: b794 24be 1d76 b3bc 1ccb 87be c97d d6bd
00000030: f1fe 323d 8031 dfbd 8f23 4c3c 6399 1ebd
00000040: e2d8 d2bd 2c4f 023e ac91 ed3d 81bf d23d
00000050: 074f 64be dc51 623e 9755 8abc 678d 7ebd
00000060: 5732 f0bd 3c2a 07be 142b d4bc 818b c43d
00000070: e0e4 81be 491c c03d 8ec1 e53d c26d 79be
00000080: 1f01 7f3e 68ae 413e f468 fe3c 8754 78be
00000090: e7eb 573d e212 a03d b210 c03d ac0f 69be
000000a0: 43ce c33d a65b f53d d79e fcbd 6cd8 3f3d
000000b0: e399 3bbe d7b6 d4bd 9b91 43bd ffc3 83be
000000c0: b782 fa3d 991b 27be 4681 043e 9d26 12be
000000d0: d0e8 6abd c183 2d3e 13be 363e 9b37 da3c
000000e0: 1392 00bd 0e50 273e 11af 1cbc dd62 18be
000000f0: 474f 8e3e 49c6 a73d 1059 ac3d 003d 55bd
-0.22173837 0.12819038 -0.18831363 0.17909002 -0.07715155 0.016877506 -0.24898703 -0.19227645
-0.16072355 -0.021906907 -0.26522148 -0.1047321 0.043700162 -0.10898113 0.01245965 -0.0387205
-0.10295273 0.12725514 0.1160005 0.10290433 -0.22295772 0.2210154 -0.016886516 -0.06214657
-0.117283516 -0.13199705 -0.025899448 0.09596921 -0.2536993 0.09380395 0.11218558 -0.24358276
0.24902771 0.18914187 0.031055905 -0.24250995 0.05271521 0.078161016 0.093781844 -0.22759885
0.09560826 0.11980371 -0.12334984 0.046837255 -0.18320422 -0.103864364 -0.047746282 -0.2573547
0.12231963 -0.16319121 0.12939939 -0.14272542 -0.057350934 0.16944791 0.17845945 0.026637843
-0.031389307 0.16339132 -0.009563223 -0.14881463 0.2779486 0.08192117 0.08415425 -0.052060127

stem.1.weight f4 [64]
00000000: bc40 7b3f 9d38 793f d57f 793f 7d7f 663f
00000010: a387 743f fc10 863f 66ea 723f 5a92 813f
00000020: c558 863f 04cb 803f ab88 763f 0c7a 783f
00000030: a720 773f 863c 7b3f a5c4 803f 6763 7c3f
00000040: 8b36 7e3f 42ec 743f 93c2 803f d2b4 813f
00000050: 3f26 833f bfcd 783f 73ba 753f 2caa 773f
00000060: 2252 7a3f 24aa 7e3f f719 773f 7c83 733f
00000070: 267c 833f 66f6 6e3f 6ee1 7b3f a78e 813f
00000080: a0e5 7d3f a686 803f db42 773f 7d39 763f
00000090: 19c1 7f3f 0ed8 7d3f cb03 7f3f a8a1 7e3f
000000a0: b94e 783f 280d 8d3f ef78 8d3f cefb 813f
000000b0: 8aeb 7a3f 0533 843f 19ad 723f 6605 883f
000000c0: 83e2 743f cf36 803f 6de7 803f 1785 7a3f
000000d0: 947e 813f 2d76 7c3f 21e2 7d3f bef5 793f
000000e0: 2ced 763f 9842 7b3f 88d5 823f 9157 843f
000000f0: 7f63 733f f73e 803f 2c02 7a3f 4f1d 753f
0.9814565 0.9735201 0.9746068 0.9003828 0.95519465 1.0473933 0.94888914 1.0122788
1.049584 1.0061955 0.9630229 0.9706123 0.965342 0.98139226 1.0060011 0.98589176
0.99301976 0.95673 1.0059379 1.0133307 1.0246047 0.97188944 0.95987624 0.96744037
0.97781575 0.99478364 0.96523994 0.95122504 1.0272262 0.93344724 0.98390853 1.0121659
0.99178505 1.0041091 0.9658639 0.9618147 0.9990402 0.991578 0.9961516 0.9946542
0.9699512 1.101964 1.1052531 1.015497 0.98015654 1.032807 0.94795376 1.0626647
0.9565813 1.0016726 1.0070626 0.9785933 1.0116754 0.9861782 0.9917317 0.976406
0.96455646 0.9814849 1.0221415 1.0339223 0.95073694 1.0019215 0.97659564 0.95747846

stem.1.bias f4 [64]
00000000: 707c 62bd 2ba0 99bc 1641 583c bdf9 31bd
00000010: 6a20 05bd dcd5 58bd cce2 0abd 76c4 5fbd
00000020: cc34 3bbd be09 aebd 56da ccbc d1f4 b9bc
00000030: fbb9 ef3b 5cc9 10bd 2597 19bd 78ce 1abd
00000040: b3f1 233d 95ff 03bd 0816 59bd 7970 82bd
00000050: 12e7 d8bd 563d 90bc 3487 a53c 2206 88bc
00000060: cba9 213c 3457 2c3d 3a13 92bc ee0b 5dbd
00000070: 9aca 01bd 88d8 16bc 3330 303b 833a 543c
00000080: 1492 973c 5a0c 023d c398 2539 d2b9 8fbc
00000090: fec8 503d b6b7 6b3d 7789 913b ed07 0cbd
000000a0: 831e 9fbc 59ca 7e3d c366 b43d 2bb2 373c
000000b0: d314 f7ba a06e 8bbc 0462 ddbc d3a8 f73c
000000c0: 6a81 80bc 1557 b6bd 1392 223d ceb0 3bbd
000000d0: f862 b93c 810e c5bb df7a 893d b4e7 b03c
000000e0: 5806 8f3c acb3 03bd 3a0f a0bd 0b8a b93d
000000f0: 7c90 ff3a b919 d6bb 2551 333c 7228 b23b
-0.055294454 -0.018753132 0.013199111 -0.04345106 -0.032501616 -0.052938327 -0.033907697 -0.05463072
-0.045704648 -0.08497952 -0.025006454 -0.022699745 0.007315872 -0.03534828 -0.03749766 -0.03779456
0.040025424 -0.032226164 -0.052999526 -0.06369109 -0.10590948 -0.017607372 0.020206071 -0.016604487
0.009867142 0.04207535 -0.017831434 -0.053966455 -0.031687357 -0.0092068985 0.0026884198 0.012953403
0.018502273 0.03175006 0.00015792534 -0.01754466 0.05097293 0.057548247 0.004441436 -0.034187246
-0.019423729 0.062204693 0.08808663 0.011211912 -0.0018850811 -0.017020524 -0.027024277 0.030231869
-0.01568671 -0.08903328 0.03969009 -0.04582291 0.0226302 -0.006013692 0.06712889 0.02159486
0.01745908 -0.03215377 -0.07815404 0.09059533 0.0019498016 -0.006533828 0.010944639 0.0054369504

stem.1.running_mean f4 [64]
00000000: 3716 62be 85fe 023e 3829 42be 5486 353e
00000010: 4da8 a3bd ef22 933c e9e8 7bbe d0ae 44be
00000020: 55ee 24be 3a8a afbc 6967 87be 60d4 d1bd
00000030: ca33 473d 6791 dbbd 21df 983c 6073 23bd
00000040: 7287 d3bd c82b 013e 261b ed3d 52bd d13d
00000050: 0826 64be b75d 633e dd7d 8dbc c126 77bd
00000060: 636b f0bd d330 08be 9638 c5bc 24dd c83d
00000070: 5542 81be 6799 b73d 816e e73d 2b85 79be
00000080: 1bf1 7e3e 09a2 403e 6cbc fc3c f88a 79be
00000090: cdaf 553d dabd a03d a2df c33d c8b3 66be
000000a0: 3fe8 c73d 2d05 f73d a6cd fcbd f056 453d
000000b0: cdec 39be 4862 d5bd 094a 3dbd 460e 83be
000000c0: ac1d fb3d 3ea5 26be 3249 003e 422f 10be
000000d0: 969b 5fbd 1b8b 2c3e 951d 373e 5a0d ce3c
000000e0: 9399 ffbc 072e 283e 124d 1fbc 10f4 17be
000000f0: d640 8c3e 4633 ab3d d487 a43d ef46 61bd
-0.22078787 0.12792404 -0.18961036 0.17727023 -0.07991085 0.017960994 -0.24600567 -0.1920731
-0.16106541 -0.021428216 -0.26446083 -0.102455854 0.048633374 -0.10721093 0.018661084 -0.039904952
-0.103285685 0.12614357 0.11577444 0.10241188 -0.22280133 0.22203718 -0.01727193 -0.060339693
-0.117392324 -0.13299875 -0.024074834 0.09807804 -0.2524592 0.08964806 0.11300374 -0.24367206
0.24896662 0.18811812 0.030851565 -0.24369419 0.05216961 0.07848711 0.09564139 -0.22529519
0.09761094 0.12061534 -0.12343912 0.048178613 -0.18156739 -0.10419136 -0.046213184 -0.25596827
0.12261519 -0.16273972 0.12527922 -0.14080527 -0.054591738 0.1684994 0.17882378 0.02515285
-0.03120116 0.16423808 -0.009722965 -0.14839196 0.27393216 0.08359389 0.0803372 -0.05499929

stem.1.running_var f4 [64]
00000000: 509b a53d b09d 363d 553c f73d c932 8f3e
00000010: c0f1 623e d629 473d c57a b83e 3645 d23c
00000020: afff 163e dd24 0a3d 703c d43e 0651 1c3f
00000030: f091 353f 8fe5 993e a3db 763f 9b79 9e3d
00000040: 1ff0 c13c ad99 4a3d fb10 0d3e 34d4 223e
00000050: f522 d53d b3a1 fb3e 1874 b33d 0bd4 433e
00000060: 11dc 993d 40a6 dc3d 955d 083f 5655 493f
00000070: 694b 213e e5a1 f03e ae44 cf3e 1553 953d
00000080: 2a21 be3d 7bfd 523d 042a 0d3f ba73 973e
00000090: 0595 f23d 06ec 283d c675 ac3e fc54 6e3e
000000a0: cc4d fc3d 7caa 193c b7a0 7a3b 8a6d 413e
000000b0: 72fa c83d 9c30 bb3d 7f55 df3e 4cc4 cf3d
000000c0: 8801 133e 0227 903d 0503 013f 160d d13e
000000d0: 3340 ab3e 8318 943d f3ac 973c 0b30 063f
000000e0: 6ed1 a23d faf1 683e 9318 9a3c 39f0 8a3e
000000f0: 19aa 083f f204 023e b4d9 c83e 4812 c83e
0.08086264 0.044583976 0.12072054 0.27968433 0.22162533 0.048623882 0.36031166 0.025667768
0.14745973 0.03372656 0.4145236 0.6106113 0.7092581 0.30057952 0.9642889 0.07738038
0.023674069 0.049462963 0.13776009 0.15901262 0.10407058 0.49146804 0.087623775 0.19123857
0.075126775 0.10773897 0.53267795 0.7864584 0.15751423 0.46998516 0.40482086 0.07291237
0.09283669 0.05151127 0.55142236 0.2958048 0.118448295 0.041240714 0.33683604 0.23274606
0.12319526 0.009379026 0.0038242766 0.18889442 0.09813394 0.09140131 0.43619916 0.101448625
0.14356053 0.0703869 0.5039523 0.40830296 0.33447418 0.07231238 0.018515086 0.5241706
0.07950102 0.22748557 0.018810546 0.271364 0.5338455 0.12697199 0.39228594 0.39076447

block1.conv1.weight f4 [64, 64, 3]
00000000: 1358 2c3c 00b5 823d 1314 15bd a7d3 d8bc
00000010: 3651 8f37 6a89 4cbd 4d2e b0bc db17 52bc
00000020: a9a7 3fbd fd12 35bb dab2 b33d c484 4cbd
00000030: 0205 25bc 87c0 a0bd a886 073d 3b29 24bd
00000040: e0e3 9d3b d98c 93bd bdff aabc 0bf7 803d
00000050: 50e7 903d 6702 24bc 0101 c83c 5882 38bd
00000060: da90 c63d c422 643d c3c6 853b 03d9 6b3c
00000070: 9809 91bd d3cd 19bd 8b47 6dbd 7e6b b8bc
00000080: 77a5 4ebd 6fa9 7fbd eec9 4b3d 3bbe 3cbc
00000090: 9ad7 9c3d e395 23bd 3cf7 7c3d f38c 99bc
000000a0: 51f1 8cbd e460 e0bc 9896 fc3b d436 8cbd
000000b0: 4d14 553d d1a9 99bd a8fa de3c f7f6 d1bb
000000c0: 4840 e1bb 020d 1c3d e1b6 80bd b223 69bd
000000d0: a299 6fbd 143f 013b 8221 9c3b f796 153d
000000e0: 5938 91bc 8402 e7bb 4237 0b3d b3bb 73bd
000000f0: 32a0 d4bc 95e8 1c3d 6f91 3c3d 0863 1b3d
00000100: 8c34 31bd 7f4a acbd 3e21 f8bc d3ca 113d
00000110: a011 0a3d ed28 513d 8bfa 4dbd 3525 9d3d
00000120: b70e dabb 3093 06bd 8069 40bd 4e52 8fbc
00000130: 1cca 5abc 4632 68bd 42e4 7abd 4e3f 3f3d
00000140: 3fa1 f03c e00b a83c 4c87 3cbd 7a91 223c
00000150: 3642 a33d 25e2 c0bb 5f68 733d d7cb bdbc
00000160: a16f 4fbb 4d3c 78bc 7e2f 5a3c b7e4 1fbd
00000170: 84b3 1e3d d390 6a3c 62be 1f3d 10a3 e7ba
00000180: e709 dd3d d570 0e3c b951 2e3d da53 b3bd
00000190: 5371 c4bd 5b2c a4bd 915a a33d 4e09 163d
000001a0: 4ae2 79bd 2c08 19bd 3f6f 653c b867 38bd
000001b0: 5919 3cbc 1452 43bd 9b5d 203c ee2c 9d3d
000001c0: fa53 3dbc 1083 27bd c78b 64bd 0875 bd3b
000001d0: 44b7 5b3c 45d7 35bd f1e4 6d3d b23a 73bd
000001e0: 7ac0 07bd 22b2 7a3d ddf6 a53d b523 ae3b
000001f0: c4b0 83bd 2a6c 24bd b33b 3f3c 9259 9ebd
00000200: 214a 183d 40d2 96bc bf33 b3bd b8b9 d4bd
00000210: 71b0 103d 0d25 0dbd 5d8a ea3c d8ef 23bd
00000220: 8306 47bd b7fd c33c 7a70 25bd e05f 303d
00000230: ceae 0b3d 32ad d6bc 9cad ab3d daa9 693d
00000240: fb13 d8bb 5407 843d 9885 213d bf27 44bd
00000250: d17c 453c 85d1 1b3d 606c 80bd 67f7 9dbc
00000260: 2fe3 97bd fece 25bc 68b7 95bd a300 27bd
00000270: ea67 4f3d 0d81 9e3c a3e1 69bd b26f 943c
00000280: 1e89 25bd f2b9 8cbd fd6a d83c 3e4c 833d
00000290: b3db 29bd 8e85 093d 3a6e 213c 03b7 283d
000002a0: a412 523d 3973 243b edd4 bb3c e52f 003d
000002b0: c3ed a7bd 7399 773c 7194 42bc b5be 95bc
000002c0: 1dc3 62bd dc54 bbbc c5a2 b73c b1c7 de3c
000002d0: 0c17 2d3d c81a 3f3d b9b1 bdbd f651 e1bc
000002e0: 86fb e73c 636c 5dbd e6f4 b7bc 71a1 c2bd
000002f0: c754 91bc f9b8 c8bc 3eb8 aebc aabd 50bd
00000300: 5422 01bd 3c63 2bbd 97b1 4dbd a5dc 66bd
00000310: 0d8d 84bd 406d 0a3c bf97 56bd fb1b 2ebd
00000320: 3dba 223c 1218 76bd 0ab3 2abd f9f6 423d
00000330: 032e 78bd 51ca 743d b6ed 083d 2757 913d
00000340: 3867 e03d b628 0f3e 3e64 4e3d eb67 4cbd
00000350: 0202 383d 6c99 ff3c 0cce a8bd a87f 4b3d
00000360: 3d04 663d 0d06 8c3d 856d fa3c 4151 8e3d
00000370: 1ed1 ac3c 3e85 8bbd 06f3 b0bc d4c8 2cbd
00000380: 2fbf 0bbd 9759 fbbc 2fc2 333d 8345 83bd
00000390: 45e5 223d b8b5 4a3d 09e7 5cbd af87 91bd
000003a0: 35c0 11bd 2723 3ebb 0fda 17bd d101 1abd
000003b0: deb5 33bd 225a 3d3d 794f 5c3d d602 69bd
000003c0: adfa 313d 2bb1 5abb 9853 423c 9f8a e7bc
000003d0: 1472 40bc a898 6bbd af9e f93c 20c4 173d
000003e0: 7f94 853d caec 3ebd d7b5 d6bc b859 9a3d
000003f0: 7dd2 3c3b 1170 f43c 5c38 403d 6a7d c9bc
0.010519045 0.06382179 -0.036396097 -0.026468111 1.7084745e-05 -0.049935736 -0.021506453 -0.01282307
-0.046790753 -0.0027629726 0.087743476 -0.049931303 -0.010071995 -0.07849222 0.033087403 -0.040078383
0.0048184246 -0.07204599 -0.020873899 0.0629712 0.07075369 -0.010010338 0.024414541 -0.04504618
0.09695597 0.055697218 0.004082532 0.014395001 -0.07081908 -0.037549805 -0.057929557 -0.022512194
-0.05045077 -0.062417444 0.049753122 -0.011519964 0.0765831 -0.039937865 0.06175922 -0.018743968
-0.06881965 -0.027389951 0.007708382 -0.06846395 0.052021313 -0.07503093 0.027219132 -0.0064076143
-0.006874118 0.038098343 -0.062848814 -0.056918807 -0.058496125 0.0019721435 0.0047647366 0.036520924
-0.017727064 -0.0070498604 0.033988245 -0.059505176 -0.025955293 0.038307745 0.046037134 0.03793624
-0.043263003 -0.084126465 -0.030289289 0.03559382 0.033708215 0.05106442 -0.050287765 0.07673112
-0.006654586 -0.032855213 -0.046975613 -0.0174953 -0.013353851 -0.05668857 -0.06125284 0.04669123
0.029373763 0.020513475 -0.046027467 0.00992238 0.07971613 -0.0058863335 0.059425708 -0.023168487
-0.003165223 -0.015151096 0.013316987 -0.03903648 0.03874542 0.014316755 0.038999923 -0.0017672498
0.10792904 0.008693893 0.042558406 -0.08756228 -0.095919274 -0.08016273 0.079762585 0.036629967
-0.06100682 -0.03736131 0.014003574 -0.04502079 -0.011480653 -0.047685698 0.009787942 0.07674585
-0.011555666 -0.040896475 -0.055797365 0.0057817735 0.013410393 -0.04439475 0.058079664 -0.059382148
-0.033142544 0.061205037 0.08103726 0.005314315 -0.064302 -0.040142216 0.011671948 -0.07731928
0.03718007 -0.018410802 -0.08750104 -0.103869855 0.035324518 -0.034459163 0.02863043 -0.040023655
-0.048590194 0.023924692 -0.04039047 0.043060184 0.034102254 -0.026205633 0.08382723 0.05704675
-0.0065941787 0.0644671 0.039434046 -0.047889467 0.012053684 0.03804161 -0.06270671 -0.01928301
-0.07416379 -0.010120152 -0.073103726 -0.04077209 0.05063621 0.019348646 -0.05709995 0.018119667
-0.04041397 -0.06871404 0.026418203 0.064110264 -0.041469287 0.033574633 0.00985294 0.04119016
0.05128731 0.0025093092 0.02292868 0.031295676 -0.08199646 0.015112269 -0.0118762115 -0.018279413
-0.055361856 -0.022867613 0.022416482 0.02719483 0.042258307 0.0466564 -0.092624135 -0.027504902
0.028318178 -0.054058444 -0.022455644 -0.09503449 -0.01774062 -0.024502264 -0.021328088 -0.050962128
-0.03152688 -0.041842684 -0.05021819 -0.056362767 -0.06472216 0.008448899 -0.05239081 -0.042507153
0.009932098 -0.06008155 -0.04167465 0.047598813 -0.060590755 0.059763256 0.033429824 0.07096701
0.109571874 0.13980374 0.050388567 -0.04990379 0.04492379 0.031201087 -0.08242425 0.04968229
0.056156386 0.068370916 0.030569801 0.06949092 0.021095809 -0.06812523 -0.021600258 -0.042183712
-0.034117874 -0.030682368 0.04388636 -0.06409743 0.03976943 0.049489707 -0.05393127 -0.07105958
-0.035583694 -0.0029012652 -0.03707319 -0.03759939 -0.043874614 0.046228535 0.05378673 -0.05688747
0.043451954 -0.003336976 0.011860751 -0.028264342 -0.011745948 -0.05751863 0.030471174 0.037052274
0.06522464 -0.04661254 -0.026209755 0.07536644 0.0028811984 0.029838594 0.04692875 -0.024595935

block1.conv1.bias f4 [64]
00000000: 72dc 243d 158f 3c3d b774 49bd ab5a 61bd
00000010: 38ec 1cbd 9458 5abc 28e1 903c 4736 313c
00000020: 1c46 083c b901 3b3b 3f4a 093d 8ce9 98bd
00000030: 207d 56bd 83ea aa3b 59b3 36bd 798c c63c
00000040: 24a2 4dbd 007a 1bbd a549 85bc 8dd5 4cbd
00000050: 7279 c93c cfb8 9d3b 8e7c a93d 7ef2 de3c
00000060: 8b39 b23d 1459 5bbd 2e40 81bd e6a4 58bd
00000070: 6338 f63c 20a8 3dbd daca 843c 00a8 46bc
00000080: 071e d53c 54ea c6bc 714e 2e3c 2f48 7c3c
00000090: 4bc4 65bd a09b 033d ba37 98bd bf30 1fbd
000000a0: 06ed 863d 74d3 213d 7c7c 1d3c cb59 943b
000000b0: c5bc 9abc 7539 4cbd 8de3 ed3b 9c7a e73b
000000c0: 0a36 9a3d 5bf5 b43d 2842 b53b 12e3 743c
000000d0: a399 813d 9794 1a3d 189b 1f3d b3e2 e53c
000000e0: 4bee 1a3d 6195 4f3d 0d86 29bd 6887 c33c
000000f0: 2883 66bd 32b8 69bd b9da 333d 2265 5cbd
0.040249296 0.04603489 -0.049183574 -0.05501811 -0.038311213 -0.013326783 0.017685488 0.010816163
0.008317497 0.0028534962 0.033518072 -0.074664205 -0.052365422 0.0052159443 -0.044604633 0.024236904
-0.050203457 -0.037958145 -0.016270468 -0.050008345 0.024594042 0.0048132907 0.0827571 0.027215239
0.08702382 -0.05355175 -0.063110694 -0.052891634 0.030056184 -0.046302915 0.016210008 -0.012125015
0.026015295 -0.024281658 0.010638819 0.015398069 -0.056095403 0.032130837 -0.07432504 -0.038864847
0.065881774 0.039508298 0.009612199 0.0045273057 -0.01888884 -0.049859483 0.007259792 0.0070641767
0.075298384 0.0883586 0.005531568 0.014946716 0.06328132 0.037739363 0.03896627 0.0280622
0.03782491 0.05067957 -0.041387606 0.023868278 -0.056277424 -0.057060428 0.043909762 -0.053807385

block1.bn1.weight f4 [64]
00000000: 0b80 803f 616e 803f 0e4e 793f f1cc 793f
00000010: 0eae 7a3f 7244 7c3f 358a 7c3f 267a 783f
00000020: 5560 823f 6fc1 843f 7fa8 7c3f c182 773f
00000030: 4b3e 6d3f af8a 863f 7df2 813f 8b44 773f
00000040: 96dc 833f 1365 873f dded 813f f1b4 793f
00000050: ac07 7b3f eeda 7f3f 9074 823f 453a 813f
00000060: 5d23 7b3f 9c6d 823f 5c02 7c3f 6d6e 813f
00000070: b087 7c3f 9fb2 7d3f f7cb 7a3f 2e53 853f
00000080: 6729 813f 5ede 743f bd9e 793f c0c7 833f
00000090: 4735 793f 51b6 823f 37a8 803f bc5e 7e3f
000000a0: 3c2c 843f 2689 7b3f a1d7 833f 131b 7e3f
000000b0: 7291 793f 2baa 753f b443 7f3f 99c2 783f
000000c0: 0051 753f d27b 7a3f d320 813f cc69 843f
000000d0: 0165 793f f0c2 803f bf17 7c3f 203a 813f
000000e0: f5cd 803f 9f34 823f df03 7a3f a0aa 843f
000000f0: fdf2 813f 4ef8 833f 4b4b 853f 6b2f 803f
1.0039076 1.0033685 0.97384727 0.9757834 0.97921836 0.9854194 0.9864839 0.97061384
1.0185648 1.0371531 0.98694605 0.9668389 0.92673177 1.0511073 1.0152127 0.96588963
1.0301692 1.057772 1.0150715 0.9754172 0.9805858 0.99943435 1.0191822 1.0095907
0.98100835 1.01897 0.984411 1.0111824 0.9864454 0.9910068 0.97967476 1.041601
1.009076 0.95651805 0.9750784 1.0295334 0.9734692 1.0211889 1.0051335 0.99363303
1.0325999 0.98256147 1.030018 0.9926006 0.97487557 0.9596278 0.9971268 0.9717193
0.9582672 0.97845185 1.0088142 1.0344787 0.97419745 1.005949 0.98473734 1.0095863
1.0062853 1.0172309 0.97662157 1.0364571 1.0152279 1.0310152 1.0413603 1.0014471

block1.bn1.bias f4 [64]
00000000: 5760 5ebb 1cff bb3b a565 9abd 407a f4bc
00000010: b2bb 3fbd d1e9 10bd 53f4 34bc ab7c 4fbd
00000020: f7a5 7abc 7c63 e2bc 4998 61bd 6e38 4ebc
00000030: 75ce 66bd c19a 6a3c b8fc aebb 3a34 e5bc
00000040: 6542 5c3b 72e4 213d 2228 35bc 4b6f 43bd
00000050: 409a 21bd 5d2d c2bc 1526 91bd 83ef a5bb
00000060: decf 1ebd fbad 0a3c 9858 5dbd f8a7 41bc
00000070: fe85 5a3c ba8d 7ebd 7324 0fbd d56e 913c
00000080: 6b3a b1bc 3bf0 83bd 1082 63bc eeef a0bc
00000090: a31a 41bc aecc 183c d6db 4bbd d7e8 92bd
000000a0: 869c dd3c b821 1ebc 05e4 babb cebc 44bc
000000b0: 4750 6fbc e2b3 58bd 71a2 9fbc 48e1 fdbc
000000c0: af9f 6e3b 85cb 13bd 12ea 41bd 48dc 04bc
000000d0: d582 08bd afb0 053d 9121 81bc 9679 8fbc
000000e0: b6a5 85bc cc58 fcb8 050d bfbd 0e7c 003d
000000f0: c8ac 47bc d184 703c 5b0b 323d d8f4 a93c
-0.0033931935 0.0057371985 -0.075389184 -0.02984345 -0.04680986 -0.035379235 -0.01104458 -0.050656002
-0.015298358 -0.027635328 -0.05507687 -0.012586696 -0.056349237 0.014319123 -0.005340185 -0.027979005
0.003360891 0.039524503 -0.011056932 -0.04771356 -0.039453745 -0.023703272 -0.07087342 -0.0050639524
-0.038772456 0.008464332 -0.054039568 -0.011819832 0.01333761 -0.06214688 -0.03494687 0.017753044
-0.021634301 -0.06442305 -0.01388599 -0.019645657 -0.011786136 0.009326143 -0.0497702 -0.07173317
0.027052175 -0.009651594 -0.0057034516 -0.012007905 -0.014606542 -0.052905925 -0.019486638 -0.030991212
0.0036411097 -0.036082763 -0.047342367 -0.00810916 -0.033327896 0.0326392 -0.015763076 -0.017514031
-0.016314369 -0.00012032836 -0.09328655 0.031368308 -0.01218719 0.014680103 0.04346786 0.020746633

block1.bn1.running_mean f4 [64]
00000000: 79b2 bdbe ef08 61bf 54e1 c5bb 7881 91bb
00000010: 4a60 043f ee50 09be bb58 61bf 4274 423e
00000020: 08ac 21bf fe80 cfbe da4d 383d 1a8d c8be
00000030: 4947 cc3e 5d46 49be df14 6dbf e4c9 15bf
00000040: aa93 00bf f2b4 62bf 06b2 273e 1eff 8abe
00000050: 3216 053e f4fe 3ebf 9e0a a7bc e2bb 6bbf
00000060: 9680 853c 0dc0 3abf 0194 8ebd a327 ecbe
00000070: 1054 57be a554 59be ce2b 1bbf b7d7 1cbf
00000080: fc17 313f e73d 0e3f 31a4 11bf cceb b1be
00000090: a95f e2be 2eee f9be c47d 403e d1b7 a5bd
000000a0: 227f 3fbf fa9a a53d 29fb 0dbf 8349 b2be
000000b0: bcec 8bbe a185 b6bd 945d 80be 1313 7c3d
000000c0: 86a7 a5be ce48 4fbd 63d0 f33d 7248 e1be
000000d0: 549c cd3e 6799 02bf 1ee5 413f 4b70 05bd
000000e0: 3f46 10bf 7cc3 4ebf 9190 9b3e 4ed4 1abf
000000f0: 3328 80be 5ec3 cdbe cede 0bbf c450 d13e
-0.37050226 -0.87904257 -0.006038824 -0.0044404827 0.51709425 -0.13409778 -0.88026017 0.18989661
-0.63153124 -0.405281 0.04499612 -0.39170152 0.39898136 -0.19655748 -0.9260997 -0.58511186
-0.5022532 -0.8855735 0.16376504 -0.27147764 0.12996748 -0.7460778 -0.020390805 -0.9208356
0.016296666 -0.72949296 -0.06961823 -0.4612399 -0.21028161 -0.21223696 -0.60613716 -0.61266655
0.6917722 0.55563205 -0.5689116 -0.3475021 -0.44213608 -0.4881453 0.18797976 -0.08091701
-0.74803364 0.080862 -0.55461365 -0.3482171 -0.27329051 -0.089122064 -0.25071394 0.061541628
-0.32354373 -0.05060654 0.11904981 -0.44000584 0.4015833 -0.51015323 0.7574023 -0.032577794
-0.5635719 -0.80767035 0.30383733 -0.604802 -0.2503067 -0.40188116 -0.5463685 0.40881932

block1.bn1.running_var f4 [64]
00000000: 2086 8f3f ef1b a93f fa84 0a3f e8fc dd3e
00000010: 4dfe 423f e7ab d03e 5c58 3240 192f 573f
00000020: f351 293f 82c9 b13e 6168 a23e c146 0e3f
00000030: 6740 0b3f 5cd2 933e e810 cb3f 431e 0640
00000040: de65 813f c05c 0940 0a72 9e3e bd27 673f
00000050: a561 f73e 8ee0 e93f a379 f83e 18a3 f33f
00000060: 9b2a 6c3e 5b3b 703f a187 873f 784f 1e3f
00000070: a4c1 b03e e85b a43e d59a d83f adbc 0c3f
00000080: 4fb6 603f 0e36 783f 8e93 7e3f db8d bf3e
00000090: 0028 4d3f 1c32 423f fa86 1a3f 7708 783f
000000a0: 05f8 b03f 8e61 a13f aa04 e93e 1a5b d03e
000000b0: f28e 0e3f de92 173f 70bc c43e 0c61 043f
000000c0: d5f2 c83e 5c38 8a3e bcf4 073f e2fa 353f
000000d0: ff73 1a3f b14b 353f 2470 5b3f 1635 3d3f
000000e0: 351b 743f 4fa0 af3f f6b8 1b3f 6c84 263f
000000f0: 46d4 9e3e 0961 903e a36b a93f cbc2 6a3f
1.1212807 1.321165 0.54109156 0.43357015 0.7616928 0.4075615 2.786643 0.8405624
0.6614067 0.3472405 0.3172026 0.5557671 0.54395145 0.2887143 1.5864534 2.095597
1.0109212 2.146286 0.3094638 0.9029501 0.48316684 1.8271654 0.485303 1.9034147
0.23063128 0.9384057 1.0588266 0.6184001 0.34522736 0.3210137 1.6922251 0.54975396
0.8777818 0.9695748 0.994439 0.37412915 0.8013916 0.7585771 0.6036221 0.96887916
1.382569 1.2607896 0.4551137 0.40694505 0.5568687 0.59208477 0.38425016 0.5171058
0.39247766 0.26996124 0.5310781 0.7108594 0.60333246 0.7081862 0.8571799 0.7390913
0.95354015 1.3720797 0.60829103 0.6504581 0.31021327 0.28199032 1.3235973 0.9170348

block1.conv2.weight f4 [64, 64, 3]
00000000: 920f 343d 860d 8ebd 2072 7fbb 1cd9 d2bc
00000010: 3871 9c3d 9b2b 993c a9e1 b83d fe92 833d
00000020: 8ce6 eebc 743d fa3c 9201 00bc 28be 6a3d
00000030: e3d6 c53a 48b6 a3bc 01b2 1c3c 4369 93bc
00000040: d27b ff3c 7f49 2bbc 8f2b 26bd 2e09 84bd
00000050: 1fe6 a8bd bd23 1d3c 1529 973d 0457 23bd
00000060: 8bd4 683d 0a61 ae3d bdf6 50bc 08ae f23d
00000070: 9967 97bc 23dd d13b ae3d 36bd 34a0 4f3c
00000080: fbf1 61bd ffdb 87bd c947 25bc 9a02 c73c
00000090: fc65 20bd 0d96 2c3c 65c1 4f3c 69aa 383d
000000a0: 5a27 6bbd d1c4 603d 4600 30bd ed57 703d
000000b0: ade0 1cbd 44dc 883c 2f63 023c e676 5dbc
000000c0: c31d 57bd f38e 723d a9c4 153d ffb7 943d
000000d0: 5716 893d 3443 a53d 911e d33c 3ce3 893d
000000e0: 3ac6 b5bc 5bcb 243d 2fb1 32bc 8df2 99bd
000000f0: d112 ca3d b3f8 9d3d af6e 803d 1819 b33c
00000100: 48bf 593d 23f9 843b 0ff7 603d e17b 533b
00000110: 9d1c 8dbc b0cb 443d 8252 523d 86e0 3c3c
00000120: 726e 833d e69f a5bc 3fa8 3cbd 0d0d f93c
00000130: d31d f33c 4ce8 a83d abb4 2f3b 816a 0d3d
00000140: df51 0c3d cefb 1f3d 93ba 4bbc f297 433d
00000150: e48a 943d 0878 45bd 3131 23bd 7ce5 e53b
00000160: 17a8 9d3c f3e4 893a e92c 2d3d 6bdb 3abd
00000170: 2ac5 6bbd 5d38 bc3d 6d14 f63d f381 e93d
00000180: aa88 873d d6b6 d2b9 f6f1 12bd 7275 c53c
00000190: 7aeb cb3c b9b2 13bd df5b c83d b1c1 0c3b
000001a0: 9691 39bd 2b7d 3b3c de05 ca3b 90f8 9d3d
000001b0: 67cf 103c d3c0 5abd efbe aebc c9dc b3bc
000001c0: 31af bebd f2e6 8fbd 073d 423c b33a cfbc
000001d0: 6fa9 9a3b 4444 923d 2d37 c03d 9209 92bc
000001e0: 0fde 6b3d 9b1f 8f3b 2145 273c cc0e c83c
000001f0: 8890 3bbd 90eb 54bb 031c 6b3d a89a 493d
00000200: f2cb e53b 3074 e9bc 41f2 99bc 0861 97bc
00000210: 252b c2b9 e8dd 5bbd 5adc afbc c405 813d
00000220: 959e 9cbd 8c38 373c 7a5d a037 73c4 603d
00000230: b435 71bd 30f2 a0bd c8a0 a3bd e65e a83b
00000240: 9be5 313c 7e1b a43d 322c 10bd d488 c6bb
00000250: 7118 ebba f908 25bd d8f7 433c 9390 c8bc
00000260: ba37 a4bc c1a3 59bc ff9e 11bd 7ecd 84bd
00000270: 5143 1bbb d699 e1bc 5e3c 4f3d 620c 843d
00000280: 1449 053c 2c63 68bd 042e d73c 18bc 29bd
00000290: 632a 5dbd d17e 9c3d 39b3 62bd cf4d 7a3d
000002a0: 6a98 b83d 4189 d43c 84a1 fbbb 6245 113d
000002b0: 1284 b9bc 6845 06bd 2c50 18bd 2a40 8fbd
000002c0: 27ee 91bc 061b f53d 6d0d 323d 5b75 a1bb
000002d0: 19ae 0abd 9c11 5f3d 2c3a 88bc b1a5 893d
000002e0: 6155 8c3d 14be eebc f851 453d 7308 593d
000002f0: 82a2 7f3d 0623 1f3d 8479 743d 8be5 cf3b
00000300: af5c a8bd 3ecf 1a3d 63e4 8bbd cd6d 9e3d
00000310: f3a8 3a3d 1749 e0bc a7b0 29bb c4ed 783c
00000320: f71d 92ba c89c a8bd 3eee 0fbc 76da 44bc
00000330: 506a c7bc e94b 973c 14f1 ba3d 70ea 793c
00000340: 1c3f 2d3c b82f a8bc eace 79bb 62ed a53c
00000350: a909 863d 0760 163d f986 4dbd a87c 773d
00000360: 1280 7b3a be80 843d 4d00 69bc a488 8e3d
00000370: 220f 413d a1a6 533c 39e1 273d 57f5 9dbc
00000380: fb5e fd3b 75bc 47bd e772 a1bd a98d 2fbd
00000390: 803f a2bd 79b6 47bd 63a5 f23c fdfd 883c
000003a0: bac2 32bd 220d b8b9 1e01 7e3d c61a a23b
000003b0: 3849 383d 4cce 713c bad0 3c3c d9fb 17bc
000003c0: 2f15 463b d714 8b3c 6aa3 9e3c caa3 14bc
000003d0: 950b d03d 3783 84bc b24d 803d 5886 b03d
000003e0: a6ae 1ebd df86 85bb d11f 263c 865e bbbb
000003f0: 5509 9c3d a134 653d 9bbe d4bc a3a6 42bd
0.04396016 -0.06936173 -0.0038977936 -0.025738291 0.07638782 0.01869755 0.09027416 0.06424521
-0.029162668 0.030546881 -0.007812874 0.057310253 0.0015093948 -0.01998438 0.009563924 -0.017994529
0.031186972 -0.010454535 -0.040568884 -0.064470634 -0.08247017 0.00959104 0.07380883 -0.039877906
0.05684332 0.085146025 -0.0127541395 0.118496 -0.018482016 0.0064045354 -0.044492416 0.012672473
-0.05516241 -0.06633758 -0.010087916 0.024293233 -0.03915976 0.010533822 0.012680386 0.04508439
-0.057410575 0.0548752 -0.04296901 0.058677603 -0.038300205 0.016706593 0.0079582175 -0.013517117
-0.052518617 0.05921836 0.036564503 0.07261657 0.06693714 0.080694586 0.025771411 0.06732795
-0.022189248 0.040232997 -0.010906502 -0.07516966 0.0986687 0.07713451 0.06271111 0.021862552
0.053160936 0.0040580197 0.054923113 0.0032269883 -0.017225558 0.048045814 0.051348217 0.01152814
0.0641755 -0.020217847 -0.04605889 0.03040173 0.029677307 0.08247432 0.0026810567 0.0345254
0.034257766 0.0390585 -0.0124346195 0.04775233 0.07253054 -0.048210174 -0.039841834 0.007015882
0.01924519 0.0010520503 0.042279158 -0.04561941 -0.057561077 0.09190438 0.12015615 0.11401739
0.066178635 -0.00040190545 -0.035875283 0.024103854 0.024892557 -0.036059115 0.09783148 0.0021477754
-0.045304857 0.011443417 0.00616525 0.07713425 0.008838511 -0.053406548 -0.021331279 -0.021955865
-0.09310759 -0.07026471 0.01185537 -0.025296545 0.004719905 0.07141927 0.09385524 -0.01782683
0.05758482 0.0043677813 0.010209353 0.024421118 -0.045792133 -0.003248904 0.05739976 0.049219757
0.0070128376 -0.028497785 -0.018792273 -0.018478885 -0.0003703471 -0.053678423 -0.021467377 0.06299928
-0.076474346 0.011182915 1.9117015e-05 0.05487485 -0.058889106 -0.078586936 -0.07989651 0.005138266
0.010857965 0.08013056 -0.035198398 -0.0060587917 -0.0017936361 -0.04029176 0.011960946 -0.024483
-0.020046104 -0.013283671 -0.03555202 -0.06484507 -0.0023691247 -0.027539175 0.05059468 0.06447674
0.008135099 -0.056735203 0.02626706 -0.041439146 -0.0539955 0.07641376 -0.0553467 0.06110936
0.09013446 0.025944354 -0.0076791663 0.03546656 -0.022645984 -0.032781035 -0.037185833 -0.0699466
-0.017813755 0.11968045 0.043469835 -0.00492732 -0.03385744 0.054460153 -0.016629301 0.06721056
0.06852222 -0.02914337 0.048173875 0.052986573 0.06241084 0.03885176 0.0596862 0.0063445023
-0.08220803 0.037795298 -0.06830671 0.077357866 0.04557128 -0.027378602 -0.0025892647 0.0151934065
-0.0011147846 -0.08233029 -0.008784829 -0.012014976 -0.024342686 0.018468814 0.09128013 0.015253648
0.0105741285 -0.020530567 -0.0038117715 0.020254795 0.06544811 0.036712673 -0.050177548 0.060421616
0.0009593974 0.06469868 -0.014221263 0.06959656 0.047133572 0.012918145 0.040986273 -0.019282026
0.00773227 -0.04876371 -0.07883244 -0.042859707 -0.07922268 -0.048758004 0.029619878 0.016722674
-0.043642737 -0.00035105 0.062012784 0.0049470393 0.0449917 0.014758658 0.011524374 -0.009276354
0.0030225029 0.01697771 0.019365031 -0.0090722535 0.10158459 -0.01617585 0.06264819 0.08619374
-0.038740776 -0.004074916 0.010139422 -0.005718055 0.076189674 0.055958394 -0.025969794 -0.0475222

block1.conv2.bias f4 [64]
00000000: 4dce cebc c066 1dbd de2a 58bd ac0f 5cbc
00000010: 633e b8bc 4349 8c3d afe0 8d3c 6034 83bd
00000020: 84d5 a03c 4755 35bd 41e9 e03c 1dda 7fbd
00000030: 132f dd3c 52f8 eb3c ceb4 b13d ef07 f0ba
00000040: d88f e6bc 85c9 da3c 9810 d63c c956 7bbd
00000050: e188 923d 201f 60bd 6e73 193d ef75 b73c
00000060: 5aac e83c 93a5 fd3c bf0c e23c 19d2 4a3d
00000070: d432 683c a048 d3bc c49d b9bb 70e6 823d
00000080: 2db6 473d 56a4 4cbd 4111 0fbd 12d0 1f3c
00000090: 20fb 123d 9310 8bbd e7e1 47bd 812e c4bc
000000a0: c08e 2ebd af2c 0fbd 2abe d7bd 89b3 093d
000000b0: a7fd 64bc 3997 66bb 1075 43bc 0b24 6bbd
000000c0: 181f 813d 5f64 86bc 72aa a63d c20d 193d
000000d0: e4ae 84bd 1414 7e3d 6f11 4a3c 113c 6b3d
000000e0: b357 6c3d 192a 31bd 1cbf 2e3d e034 233d
000000f0: ed06 9ebc c9cd 98bd f8e9 2c3d c3c4 78bb
-0.025244856 -0.03842807 -0.052775256 -0.013431471 -0.022490686 0.06849911 0.017319052 -0.06406474
0.019633062 -0.04427078 0.027454974 -0.06246387 0.026999986 0.028804932 0.08677064 -0.0018312911
-0.028144762 0.02670742 0.02613096 -0.06136206 0.07155014 -0.054717183 0.037463598 0.022395102
0.028402496 0.030962741 0.027593968 0.04951677 0.014172275 -0.025791466 -0.005664559 0.06391609
0.04875772 -0.04996141 -0.034928564 0.009754198 0.035884023 -0.06790271 -0.04879942 -0.023947956
-0.042616606 -0.034954723 -0.10534318 0.033618484 -0.013976491 -0.003518535 -0.011929765 -0.05740742
0.06304759 -0.016405283 0.081379786 0.037366636 -0.0647867 0.062030867 0.012333258 0.05743033
0.057700824 -0.043253038 0.042662725 0.039845347 -0.019290412 -0.074611254 0.042215317 -0.0037959076

block1.bn2.weight f4 [64]
00000000: ff79 8b3f 58c8 853f a862 7d3f 3d21 813f
00000010: 8678 883f 7644 823f 053e 863f e60f 843f
00000020: 6bea 843f e0db 7d3f b3b3 863f a369 7f3f
00000030: 318c 853f 868b 853f 9b87 823f 9c14 883f
00000040: 68e9 843f ec22 843f e8d3 823f d23a 863f
00000050: a6bc 853f f1dd 843f 13dd 833f 04d3 853f
00000060: 00e7 8a3f 6974 873f fd40 7d3f 556a 813f
00000070: 974c 823f cdcf 7f3f 8257 853f defc 823f
00000080: 62bc 833f 9a26 8a3f 9b79 833f 8d7d 843f
00000090: 3151 863f 28bc 823f 43c9 8a3f c731 823f
000000a0: 48de 7f3f 3acf 823f 5014 7e3f e067 823f
000000b0: b265 7d3f 52b3 813f af0d 823f 052d 853f
000000c0: 56b9 7d3f 53d7 813f 47fe 873f 7ffc 823f
000000d0: a890 873f 107f 813f 5172 873f 390c 833f
000000e0: 889f 853f b702 863f b65a 863f 2b5f 873f
000000f0: 8e3e 823f a653 843f da3c 853f 6226 843f
1.0896605 1.0451765 0.9897866 1.0088269 1.0661781 1.0177143 1.0487677 1.0317352
1.0384039 0.9916363 1.052359 0.99770564 1.0433408 1.0433204 1.0197634 1.063129
1.038373 1.0323157 1.0220919 1.04867 1.0448196 1.0380231 1.0301841 1.0455022
1.0851746 1.05824 0.9892729 1.0110575 1.0179623 0.99926454 1.041733 1.0233419
1.0291865 1.079303 1.0271486 1.0350815 1.0493528 1.0213671 1.084267 1.0171441
0.9994855 1.021949 0.99249744 1.018795 0.989833 1.0132849 1.0160426 1.0404364
0.99110925 1.0143837 1.0624474 1.0233306 1.059102 1.0116901 1.0581762 1.0238105
1.043931 1.0469579 1.0496433 1.0575918 1.017534 1.0338027 1.0409195 1.0324214

block1.bn2.bias f4 [64]
00000000: dd2e bbba 9fb9 75bd 231b d6bc afcf 3cbd
00000010: f361 3abc c21c fdbc 71af aebc e4c0 04bd
00000020: cfd1 1dbc af40 e63b 8b9d 03bd da33 71bc
00000030: ecc0 8d3d ce16 f33c faa5 5a3b 0115 f9bc
00000040: ebf9 29bd d55c ddbc 647f c6bc 9cbb 7fbd
00000050: 8785 19bd d126 343d 95e3 503d 74c5 6d3d
00000060: 1eba 1fbc a259 743d f5c2 47bd 7901 37bd
00000070: d1f8 173d bf2b fdbc f5d0 af3c 9086 04bd
00000080: 18cc 0fbd 3d92 5f3d b043 023d 25d6 1d3b
00000090: 9609 583d 3c8f 95bb f6c4 2a3d e6c0 65bc
000000a0: 7026 943c c80e 1d3d f347 aa3d 7240 3f3c
000000b0: 599b 11bd 56a3 0dbd 10a9 333d e44a 3f3d
000000c0: b1ed d83c 80b2 0c3b 4ca8 5c3d 4e9e cbbc
000000d0: 9485 523d 5abf 5fbc 4644 95bc d465 943c
000000e0: 7b49 323d 9d23 34bc db28 4fbc e201 9ebc
000000f0: 5fdc e6bc 221b 61bd ecaa 2d3c 991b 913c
-0.0014280934 -0.059991475 -0.026135987 -0.0460965 -0.011375892 -0.030897502 -0.021323891 -0.032410517
-0.009632542 0.007026754 -0.032132667 -0.014721835 0.069215626 0.02967396 0.003336309 -0.030405523
-0.041498106 -0.027021805 -0.024230666 -0.062434778 -0.037480857 0.04398233 0.05099829 0.058049634
-0.009748964 0.059655793 -0.04876991 -0.04467914 0.037102524 -0.030904649 0.021461943 -0.03235489
-0.03510675 0.054582823 0.031802833 0.002408394 0.052743517 -0.004564194 0.041691743 -0.014023041
0.018084735 0.038344175 0.083145045 0.01167308 -0.03554854 -0.034579597 0.043862402 0.04670228
0.026480528 0.00214687 0.053871438 -0.024855759 0.05139692 -0.013656462 -0.018221032 0.018114962
0.043527108 -0.010994819 -0.012644018 -0.019288007 -0.028181253 -0.054957516 0.010599833 0.017713355

block1.bn2.running_mean f4 [64]
00000000: e52a f63e ff1b 283f 077e aebe 1a13 c23e
00000010: 986f 683f 29b7 e53e b304 953e c8ef 143f
00000020: d096 193f f503 893e c496 273f 3b7c 383d
00000030: a083 b4be 185f 1fbf 3d9a 553d 022d 213f
00000040: 8776 163f 32ef a93e 3e55 bf3e 613f ff3e
00000050: eeb5 e93e e58b 8abc c17d cdbe 3dae 04bf
00000060: b827 363f aeff dfbd a3f1 5dbe 5479 5c3e
00000070: 41f0 903d 8325 ae3e 2064 623e e447 533f
00000080: 10b3 e53e 9104 7bbe 4eec 4dbf cec6 3a3f
00000090: e34e 53bf 398a f73e 7f8a e1be 8acd 1b3e
000000a0: 8f44 433e ffc8 c4be b43b 3e3d 8b5b 0f3d
000000b0: b52b 27bd 9f8c 2b3f 3fdd 1bbf ab65 d83e
000000c0: 9b83 373e 9dbc 0a3f e82a d5be b27b 543f
000000d0: b268 65be 9b1c 7a3f 4dda f0be 035e 4abe
000000e0: 8a39 c9be 8cd2 bd3e 90aa 6b3f 9c30 0b3f
000000f0: d4db 73bd cc81 4d3d 7f3d 41be b3c5 64be
0.480796 0.6566772 -0.34080526 0.37905198 0.9079528 0.44866303 0.29105148 0.5817838
0.59995747 0.2676083 0.65464425 0.04504035 -0.35256672 -0.62254477 0.052149046 0.629593
0.5877461 0.33190304 0.37369722 0.49853042 0.45646614 -0.01691241 -0.40135005 -0.51828367
0.71154356 -0.10937439 -0.21674208 0.21530658 0.07077075 0.34012994 0.22108507 0.8253157
0.44863176 -0.2451346 -0.804387 0.729596 -0.82542247 0.48347643 -0.44050977 0.15215126
0.19069122 -0.38434598 0.046443656 0.03499941 -0.040813167 0.67011446 -0.6088447 0.42265067
0.17921297 0.5419405 -0.41634297 0.83001244 -0.2240322 0.976999 -0.4704155 -0.19762425
-0.3930171 0.37074697 0.9205713 0.5437105 -0.059535816 0.050172612 -0.18871115 -0.22341041

block1.bn2.running_var f4 [64]
00000000: bb9a a53e ec89 af3e 3639 563f 8126 da3e
00000010: ea55 043f be4b d93e 0438 093f 05a1 843e
00000020: 96c6 bd3e a76e 5b3e b8db d63e 935b 953e
00000030: 029a 643e fe98 243e 1df6 be3e 96e3 0d3f
00000040: 4f19 de3e f903 7f3e 883d f83e 71d5 d13e
00000050: 43ec 173f ebac 623e 48cf 2a3f 4715 a83e
00000060: 9397 b73e 21fc 783e 50ac 773e e9db b23e
00000070: 6241 553f 25bc 933e 049b 1b3e c606 a53e
00000080: 9a91 e03e cd90 073e bffb c03e 8a8c fa3e
00000090: 9443 e43e 69ea 4b3e b20b 123e 7cbb 6b3e
000000a0: 3a4b 5b3e 1460 b83e 0ae5 6d3e 3ec3 823e
000000b0: ab36 aa3e 961e 193f 5e8c b93e 57e8 533e
000000c0: a6a9 293e b262 c33e 3b7a e63e b5b9 b53e
000000d0: 330b a13e 5aed 953e b52e 3d3e 7a7b ef3e
000000e0: b441 993e 42f3 5b3e 75d6 d63e 626d 483f
000000f0: 70d0 653f 1503 a63e 1467 d73e 0909 293f
0.32344612 0.34284914 0.83681047 0.426075 0.51693594 0.424406 0.536011 0.25904098
0.37065572 0.2142893 0.41964507 0.29171428 0.22324374 0.16073987 0.37297145 0.55425394
0.43378684 0.24903859 0.48484445 0.40983155 0.5934488 0.22136275 0.66722536 0.32828733
0.3585783 0.2431493 0.24186826 0.34933403 0.8330289 0.2885448 0.15195853 0.3223173
0.43861085 0.13238831 0.37692067 0.48935348 0.44582808 0.19913639 0.14262274 0.23020738
0.21415415 0.36010802 0.23231903 0.25539583 0.33244833 0.59812295 0.36239904 0.206941
0.16568622 0.38161236 0.4501513 0.35493246 0.31453857 0.29282647 0.18474849 0.46773893
0.2993294 0.21479514 0.41960493 0.78291905 0.89771175 0.32424226 0.4207083 0.6602941

block2.conv1.weight f4 [64, 64, 3]
00000000: bb3b ecbc 07e0 193d 15a4 383d fe8d 3a3d
00000010: 318d 8ebd ad17 39bd 70f5 223d df7e 44bd
00000020: 81e3 063d a1e6 593d a3c5 b33c c844 e03c
00000030: 4a5f 573d 0835 1abd 3706 823d 300e ad3c
00000040: f665 703d 7b40 b2bc c5ad 80bb 593b 24bd
00000050: dd1f 093d c503 033d fcc3 1dbd f2b8 efbc
00000060: bdbf f93c 85aa b9bd 17b0 79bd 4f8e 20bd
00000070: 825c 2cbd e67d 873d 8f12 07bd 9cd7 6f3d
00000080: 76f9 103a 2733 af3c ad0d 80bc b090 f5bc
00000090: 2aa6 04bc c825 323d 6c08 643c 4a55 773d
000000a0: af20 5d3b 3d3a 893d da2e 103c e085 b13d
000000b0: f76f d83b afd1 17ba 2194 75bd 97fa 0f3d
000000c0: c446 183a 2dfe 7b3d cede 24bd adbb fa3b
000000d0: a1c2 a7bb 918e 9c3c f355 f43b 11fb a6bd
000000e0: ad14 d73b be1c 00bd 46a5 a2ba 5393 aebc
000000f0: 1bb6 583d 8b6d 0c3d 042a 7f3d 9ae0 6fbd
00000100: 402e 083d 7644 53bd 35b0 12bd aeb6 2f3d
00000110: 99e0 863b 1e3b 0abc 2bcb 413d f54b 7a3d
00000120: a82e 5abd b953 14bd c00e 493c 0bc5 353d
00000130: c5d6 62bd 7c72 90bd a068 63bd 1ad0 36bc
00000140: 9a51 5bbc 51ed c03c 3aec 19bd 1cb6 633d
00000150: 8933 9ebd 72db 65bd 4ecf 8ebd 490b f9bc
00000160: be50 903d 32f9 dfbc aee0 4e3c fcb6 653c
00000170: 365a 673d 04db 8abd e168 b8bc 0495 1fbc
00000180: 7342 49bd 4cfa 133d a254 2f3c fc17 983c
00000190: c667 353d 3c84 bc3d d804 163d c7ee 8cbc
000001a0: a2df db3c 592b f1bc 5a3f 70bc 54db 2fbd
000001b0: 0a4c b5bb 2249 4e3d 36a7 1dbc c448 b3bd
000001c0: 2588 4abd 1aeb 72bd 8286 933d 79df c83d
000001d0: e0b4 d43d 3b20 b9bc 562d a23c 9eeb 5e3d
000001e0: 85f5 a33c 2064 0c3d 4dd9 7abd 2eb5 ac3d
000001f0: 9889 033e fa92 5a3d 529e 93bd 030b 99bd
00000200: 0d89 063d 26e4 a73c 8f0f c1bc be4d 283d
00000210: 7f97 f13b 0aa7 66bc 27bf 8e3c d20e f23b
00000220: 9987 96bb ff3d b0bc 10d7 3bbd d516 9dbd
00000230: 300d 1dbd 0018 93bd b765 74bd 9786 e13c
00000240: 1473 9cbc 88dc f33c 8b74 2fbc 1c3b a4bd
00000250: d530 06bd 87e5 3d3d af23 44bb d095 3b3d
00000260: 6e07 1d3d 999e 3bbb a8fb 50bd 049f b0bd
00000270: b6e1 883d ac03 4f3d 5e94 b83c 9d0a efbc
00000280: 8dc3 5f3d e36e dc3c cdcb cdbd 0584 bdbc
00000290: b8d9 eabd 8fa3 76bd 61b0 42bd 6878 083d
000002a0: e024 f43a 0fd2 11bd 08df 9f3d f528 95bd
000002b0: c88d e7bc 64ca 3bbd 21d1 3bbd 0240 2a3d
000002c0: 95bc 7a3d c4ad a13d 4768 683d 12c7 3cbd
000002d0: 4046 86bd de8f 673d d284 f83c 35d7 893c
000002e0: ebf5 c03d ecc0 e63d 5fd7 613d 1401 86bc
000002f0: edbf d33b 05d3 16bd 1b86 8cbd d1f6 2cbd
00000300: 9cdb f53b 50e1 99bc 5610 823d 54e9 b53c
00000310: 77db c43c 877e a9bc 8567 96bb 4e7d b7bd
00000320: 39a2 a4bc a50e 053c 553f 12bd 59b7 a73c
00000330: 60c1 063d 37ae bd3c 147a 47bc e58e 9c3d
00000340: 035d ba3d 0fca 1b3d bb8f 6e3d 600c 173d
00000350: 265a 7e3a c7dd 86bd 050b ffbc 83f0 6abd
00000360: 62ad 043d e9e3 1c3d 0cca a3bc 397d fc3c
00000370: 6ddb 633d 03b2 3a3b 5cd5 023d 5739 7c3d
00000380: e07e 52bd 95eb 4c3d 5693 55bc 6884 573d
00000390: ed52 3f3d eaa3 84bd 03fb f2bc d2e9 c3bc
000003a0: 6114 8bbc 8fa2 eb3c ec7d 673c 166a f9bb
000003b0: 5797 7c3b a3b9 583b 341f b9bc 05b2 4e3d
000003c0: ab57 8dbd 9f12 453d a809 88bd 5e3f 123d
000003d0: eb4c e0bb 86d6 053d 21dd 6d3d b17f 803d
000003e0: ca61 453c 43de 853d 6511 e4bc e8e5 a7bd
000003f0: 1d11 2e3d 3871 bcbc cc39 b0bc 80ca 853c
-0.028837075 0.037567165 0.045078356 0.04554557 -0.06960524 -0.045188595 0.03978485 -0.047972556
0.03293181 0.05319846 0.021944826 0.027376547 0.05258111 -0.03764823 0.06348842 0.02112493
0.058690988 -0.021759262 -0.003926965 -0.04009566 0.033477653 0.031986017 -0.038516983 -0.029262993
0.030486936 -0.09065727 -0.060958948 -0.039198216 -0.04208041 0.0661581 -0.032976683 0.05855523
0.00055303366 0.021386696 -0.015631521 -0.029976219 -0.008096257 0.043493062 0.013918024 0.060384072
0.0033741405 0.06700561 0.008800233 0.08668113 0.006605144 -0.0005791438 -0.05995572 0.03515109
0.0005808885 0.061521698 -0.040251546 0.007651767 -0.005119637 0.01911095 0.007456535 -0.08153356
0.006563744 -0.03127741 -0.0012408874 -0.021310484 0.052908044 0.034284156 0.06229593 -0.058563806
0.033247232 -0.05157896 -0.035812575 0.042898826 0.0041161296 -0.008436946 0.047312897 0.061107595
-0.05326715 -0.036212657 0.012271583 0.044377368 -0.0553806 -0.07053086 -0.0555197 -0.011158014
-0.013386155 0.023550661 -0.0375788 0.055593595 -0.07724673 -0.056117482 -0.06973134 -0.030400889
0.0704665 -0.027340505 0.01262681 0.014020678 0.056482516 -0.06780055 -0.022510948 -0.009740118
-0.049135637 0.036127374 0.01070133 0.018566124 0.04428842 0.09204909 0.036625713 -0.017203702
0.026840035 -0.029439615 -0.014663542 -0.042933777 -0.005532746 0.050362714 -0.009622386 -0.08754113
-0.049446244 -0.05930624 0.0720339 0.09808249 0.10386062 -0.022598376 0.019797008 0.05442392
0.020014534 0.034275174 -0.06124239 0.08432995 0.12845457 0.053362824 -0.072079316 -0.074728034
0.032845546 0.020494532 -0.02356699 0.041089766 0.007372796 -0.014077911 0.017425133 0.0073870206
-0.004593801 -0.021513937 -0.045859396 -0.076703705 -0.038342655 -0.07182312 -0.059667315 0.027529998
-0.019097842 0.029768243 -0.010708938 -0.08019087 -0.032761414 0.046361472 -0.0029928496 0.04579717
0.038337164 -0.0028628467 -0.051021248 -0.0862408 0.06683676 0.05054061 0.022531684 -0.029179865
0.05462985 0.026908344 -0.100486375 -0.02313424 -0.11467308 -0.060214575 -0.04753149 0.033317953
0.0018626712 -0.035600718 0.07806212 -0.072832026 -0.028265849 -0.04584731 -0.045853738 0.04156495
0.061215002 0.07894471 0.05674007 -0.046088286 -0.06556368 0.056533687 0.030336771 0.016826252
0.09421905 0.11267266 0.055137035 -0.016357936 0.0064620883 -0.036822338 -0.06861516 -0.04222757
0.007502986 -0.018784195 0.06350772 0.022205986 0.02403043 -0.020690216 -0.004589977 -0.08959447
-0.020096885 0.008121167 -0.03570493 0.02047317 0.03289926 0.023154361 -0.012175102 0.076444425
0.09099772 0.038034495 0.05824254 0.036877036 0.0009702764 -0.065852694 -0.031133184 -0.057358276
0.032391913 0.03830329 -0.019993804 0.03082143 0.055629183 0.002848745 0.031941757 0.06157812
-0.05139053 0.050029356 -0.013035616 0.052616507 0.046709944 -0.064765766 -0.029660707 -0.023915205
-0.01697749 0.028764037 0.014129143 -0.0076115234 0.0038542354 0.0033069632 -0.022597887 0.05046274
-0.06901487 0.04811346 -0.06642467 0.035704963 -0.006845107 0.03267529 0.058072213 0.06274355
0.0120472405 0.06536534 -0.027840326 -0.08198148 0.04249679 -0.023003206 -0.021511935 0.016331911

block2.conv1.bias f4 [64]
00000000: d3b0 603d 0f62 353d c0b4 893d 9c76 6a3d
00000010: 2aa7 18bc 48fc 523d a402 28bd 152c 143c
00000020: afd5 a9bc 7f0b 253c 4017 a5bc 99da aa3d
00000030: 7c2a 09bd c0e6 7e3d 2c48 6a3c 43b8 ba3c
00000040: 54ab 02bd b97d 8dbd 18aa f93c ac91 853d
00000050: 7fe9 093d 0ab0 25bd c381 f8bc fb79 90bc
00000060: c60b 6e3d 4f03 ebbc 0151 3e3d d01c 8abc
00000070: 7de2 223c 7f4f 78bd 3dfb 1ebd 3e25 8fbd
00000080: 4cc6 8dba 864d cfbc 4e0e 6cbc 30ca 39bd
00000090: 64ea 47bd 04bf a63c aa86 c7bc 04ba 933d
000000a0: 673a f1bb 8cd5 0abd eb38 97bd 13de b2bc
000000b0: d92e 953d 2301 843d bf05 c7bc 6521 713d
000000c0: d44e 963c 2bea ae3d 4ee4 963d 9bb1 79bd
000000d0: f6ca 823d 96cb 29bc ec73 60bb 3706 0b3c
000000e0: b5c4 55bc 8fe5 34bc ccd3 683d 7a86 71bc
000000f0: a3c4 06bb 9acc 943d 2082 da3c 6b10 4bbd
0.054856133 0.04428297 0.067239285 0.05724202 -0.009317199 0.051510125 -0.041018143 0.009043713
-0.020731775 0.010073542 -0.020152688 0.083424754 -0.033487782 0.06223178 0.014299434 0.022792941
-0.031901672 -0.06908745 0.030476615 0.06521925 0.033669945 -0.040451087 -0.030335313 -0.01763629
0.058116697 -0.028688101 0.04646397 -0.016859442 0.009941694 -0.06062269 -0.03881382 -0.06989525
-0.0010816543 -0.02530552 -0.014407707 -0.045358837 -0.048807517 0.020354755 -0.024356205 0.07213214
-0.0073616984 -0.03389506 -0.07383903 -0.021834409 0.07284326 0.06445529 -0.024294732 0.058869738
0.018348135 0.08540758 0.073677644 -0.060960393 0.06386368 -0.01036348 -0.0034248782 0.008485368
-0.013047387 -0.011041059 0.05684261 -0.014741534 -0.0020563982 0.07265587 0.026673377 -0.049576204
