ecg_afib_detection/checkpoints/ecg-arrhythmia/250hz/cnn1d/fold_5/best.pt (torch, 626357 bytes, 22 tensors)

features.0.conv.weight f4 [32, 12, 7]
000000 bb 45 98 bd ed 0d 26 be a4 d5 65 3e be 9b df bd
       -0.07435175 -0.1621625 0.22444779 -0.10918377
000010 5d 28 3c 3d 0c 66 88 3e b0 da 45 3e ed 67 26 be
       0.04593693 0.26640356 0.19321704 -0.16250582
000020 71 6d 87 3e 97 1d 61 3d 1b f2 4e 3e e9 45 fc bc
       0.26450685 0.05495986 0.20209543 -0.030795055
000030 81 78 7f be f4 e0 ad bd 31 f5 c2 3d b4 0f f1 bd
       -0.24948312 -0.08490172 0.09519423 -0.11770573
000040 b9 80 56 3e 86 32 8a 3d 33 82 ea bd ee eb e6 3d
       0.20947541 0.06747918 -0.11450615 0.11275469
000050 7e b2 bd 3e 06 bd be bd 26 9e 23 bd 70 0f 53 3d
       0.3705024 -0.09313397 -0.039945744 0.051528394
000060 56 60 9e 3b 10 5b bc bd b6 50 f6 3d 44 4c 08 bb
       0.0048332615 -0.09197056 0.12027113 -0.002079741
000070 5e 64 b4 3d 74 17 a5 bd ee 22 ba bd 68 b9 02 3e
       0.08808206 -0.08061114 -0.090886936 0.1276604
000080 2c 7f 86 3e 41 82 d8 3d 0e 74 75 be 8e 92 df bd
       0.262689 0.10571719 -0.23970053 -0.10916625
000090 95 5e 33 be 94 1a f5 3b 51 76 80 3e 5d 95 90 3d
       -0.17516549 0.007479975 0.25090268 0.07059739
0000a0 c6 df 00 3d 10 3a 1b 3e 93 3c 2a 3d 11 a6 4f bd
       0.031463407 0.15158868 0.041561674 -0.050695483
0000b0 b4 6f 8e be ec e6 9e 3c 0b 20 2f be a6 fd 05 3d
       -0.27819598 0.019397222 -0.17102067 0.0327126
0000c0 e2 2c 92 be 1f 92 38 be fb 76 33 3e 1a 96 10 3b
       -0.28549868 -0.18024491 0.17525856 0.0022062124
0000d0 aa 00 d1 3d c0 21 ea 3d 86 8a fd 3d 92 9b a8 3c
       0.10205205 0.114322186 0.12379937 0.020581994
0000e0 58 9d 2a 3e d0 04 d7 39 30 80 4f bd 99 bf 35 3d
       0.16661584 0.0004101158 -0.05065936 0.044372175
0000f0 5b 86 31 3e 85 56 00 3d 0e d2 a0 bc 9a 91 ac be
       0.17336409 0.03133251 -0.019631412 -0.33704835
000100 3f dc 8d 3c 91 d6 69 be 70 b7 de ba fb 94 77 3e
       0.017316936 -0.22835757 -0.0016991924 0.24177925
000110 87 76 14 3e 11 e2 85 3e f2 5d e5 bd c4 71 15 bd
       0.1449834 0.26149037 -0.11199559 -0.03648545
000120 62 ac db bd fe c0 4d bd c1 53 02 3e 7b 48 04 3e
       -0.10726239 -0.05023288 0.12727262 0.12918274
000130 24 82 ac 3c 84 7c 93 3d f1 5b 25 3e 34 c0 f5 3d
       0.02105815 0.07201484 0.16148354 0.119995505
000140 cd a3 41 3e 2b 52 cb 3c 39 14 e0 bc c1 bb 02 be
       0.18910141 0.024819454 -0.027353393 -0.12766935
000150 87 8d 83 bd 97 34 65 be 1f dd 96 3b e4 72 2f be
       -0.064234786 -0.22383343 0.0046039964 -0.17133671
000160 2e cf 4a be ba a0 48 3d 30 8f a7 3c 80 38 0f be
       -0.19805595 0.048981406 0.02045402 -0.13986397
000170 2f 82 f9 be 29 2a 14 be f1 0d 8f bd 92 13 70 3c
       -0.48732135 -0.14469208 -0.06985081 0.014653103
000180 26 60 ce bd af 9e 95 bd 1a 33 4e be 10 54 12 bc
       -0.100769326 -0.07305657 -0.20136681 -0.008931175
000190 ce 60 30 be 7a 1b a4 bd 27 80 46 3e 70 06 92 bd
       -0.17224428 -0.08013053 0.19384824 -0.07130134
0001a0 fe 67 bc be cc b6 08 bd d2 35 8b 3c 92 5f 10 3d
       -0.3679809 -0.033377454 0.016993437 0.035247393
0001b0 a1 90 94 bc de 29 21 3e 9e 37 24 3c 3f 39 39 bd
       -0.01813537 0.15738627 0.010023026 -0.04522061
0001c0 8e 35 d0 bc 6e 2b 4f be 1d e5 c0 be 03 b2 5c bd
       -0.025416162 -0.20231411 -0.376748 -0.053880703
0001d0 44 ef d4 3d db d7 0e 3e 06 b9 2a 3e 0f 8e 28 be
       0.10397199 0.1394953 0.16672143 -0.16460441
0001e0 2f 0a 65 bd 0b 89 ef bd e1 75 47 3e f8 07 28 bd
       -0.055917915 -0.11696061 0.19478561 -0.041023225
0001f0 fd ee 9f 3e 67 de c7 bb d4 d3 35 be 3e 27 29 3a
       0.3123702 -0.0060995105 -0.17756587 0.0006452686
000200 a5 97 0a 3e b5 da 9c be 09 4b 2e bd 24 a6 09 3e
       0.1353441 -0.3063561 -0.042552028 0.13442284
000210 82 b5 36 bd d0 ac ff bd 95 ea be be 53 84 87 3d
       -0.044606693 -0.12484133 -0.37288347 0.06617036
000220 77 da af bd 82 3d 50 3d 83 f4 99 3e 01 b4 d7 bd
       -0.08586591 0.05083991 0.3006936 -0.1053238
000230 42 97 b3 3d 68 ee 44 bc 9c fc ea 3d 3c f7 01 3e
       0.087690845 -0.012019731 0.11473963 0.12691969
000240 1b a7 7e 3e 2d 70 ca 3b b5 6e d5 3d 2e 7c 8d bd
       0.24868433 0.006177923 0.10421506 -0.06908451
000250 b9 b3 e4 3b 9c 71 0d 3e f2 56 de bd 08 99 0e be
       0.0069794324 0.1381287 -0.10856427 -0.13925564
000260 ce b8 ce bd 41 54 10 bd 13 bd af 3b ee 15 aa 3e
       -0.100938424 -0.0352366 0.0053631156 0.33219856
000270 97 16 0e be 26 4b 7f be 24 fb 63 bd 2c 3d 8b 3e
       -0.13875805 -0.2493101 -0.05565943 0.27195108
000280 bb 6a a5 bd c6 51 06 3e f5 bc 95 3d bd af 50 3d
       -0.08076998 0.13117132 0.07311431 0.050948847
000290 ad 32 48 be b8 ec a4 3c d0 4a 77 be bb 1f 03 bd
       -0.19550581 0.020132408 -0.24149632 -0.032012682
0002a0 c9 38 60 be 77 02 14 3e a1 06 c6 bd 74 92 95 3e
       -0.21896662 0.14454065 -0.09669233 0.29213297
0002b0 ca 30 43 bd 67 3b 56 be 3d 6d a3 be 01 1b 1c 3e
       -0.04765395 -0.20921098 -0.3191928 0.15244676
0002c0 c1 74 57 bd 46 f9 87 bd af da 44 bd 47 d8 bb bd
       -0.05260158 -0.06639342 -0.048060115 -0.09172111
0002d0 7c 06 41 bc 13 62 20 3d b4 0d ea bc e1 ff 52 3d
       -0.011781331 0.03915603 -0.028570987 0.051513556
0002e0 fe 79 a0 3d c3 a5 22 3e d1 75 39 3e 17 01 80 bd
       0.07835768 0.15883546 0.1811135 -0.06250208
0002f0 53 ee d6 3d 0d af 65 bd 3a 47 b3 be b9 77 d8 bd
       0.104946755 -0.056075145 -0.3501528 -0.1056971
000300 dc 98 2e be 5c 74 37 3e da e9 40 be 25 19 12 3e
       -0.17050499 0.17915481 -0.18839207 0.14267404
000310 81 c9 1c 3e 7f b4 2f be 29 23 0e 3e 7d dd df 3d
       0.15311243 -0.17158698 0.138806 0.109309174
000320 d3 ae 23 3e 52 3e 94 be 56 4b 6c be f7 07 59 be
       0.15984659 -0.28953797 -0.23075613 -0.21194445
000330 2e 1b 2c 3d 87 64 66 3e d8 96 4e bd 30 26 b4 be
       0.042018108 0.22499286 -0.050436825 -0.35185385
000340 ca 35 a0 3c a6 26 f7 bd 15 92 a0 be 57 28 94 be
       0.019556899 -0.120679185 -0.31361452 -0.28937027
000350 c7 5a 80 be 1f 34 2b 3e 29 a0 23 3d cb c6 bf bb
       -0.25069258 0.16719101 0.039947663 -0.0058525554
000360 44 4e 6a 3e b5 1f 90 3e bb 1a ec bd 4c b5 5e bd
       0.22881418 0.2814919 -0.11528536 -0.054372117
000370 6c 76 35 be cd 39 7c 3d 34 1a 23 be e3 82 dd bd
       -0.17720956 0.06157856 -0.15927964 -0.1081598
000380 01 53 38 3c 72 72 70 3d 56 87 32 be fc cc 9b bd
       0.011250258 0.058702894 -0.17434439 -0.07607457
000390 90 9c 8b be e5 87 47 3e 56 b7 24 be e0 47 6e be
       -0.27267885 0.19485433 -0.16085562 -0.23269606
0003a0 45 cd 92 bd d9 0b 2a be 40 ea 41 3e 9d 9b 7e 3e
       -0.07168058 -0.16606082 0.18937016 0.2486405
0003b0 3d 0b 58 3c f1 2b 8a 3e c6 99 90 be 69 ac 2c be
       0.013186273 0.2698665 -0.2824232 -0.16862644
0003c0 8b 13 0a be 76 a0 21 3d d3 7f 17 bd 91 2f 6f bd
       -0.13484018 0.039459668 -0.036987137 -0.058394972
0003d0 58 e8 61 bd 1f 1f df 3d f5 2f 19 be 3b d7 b8 3b
       -0.05515322 0.10894608 -0.149597 0.005640892
0003e0 fc 83 d8 bd c7 6c 60 3d 12 7a 11 be eb fd 6a be
       -0.10572049 0.05479124 -0.14206722 -0.22948425
0003f0 7f 59 e6 bc 8e c0 40 bd f4 4f a7 3e 3e c0 92 3d
       -0.028118847 -0.047058634 0.32678187 0.071655735

features.0.bn.weight f4 [32]
000000 e1 ac 69 3f 65 5d 6d 3f e6 d1 7a 3f ce 62 81 3f
       0.9127942 0.92720634 0.9797653 1.0108278
000010 31 d4 89 3f 26 3c 7c 3f f0 35 81 3f 9d f8 77 3f
       1.0767881 0.9852928 1.0094585 0.9686373
000020 02 c1 7c 3f 20 4c 83 3f 3c 39 86 3f 7b a3 7a 3f
       0.98732007 1.0257607 1.0486217 0.979057
000030 c6 d7 86 3f da 06 87 3f 30 a2 6a 3f 70 dd 80 3f
       1.0534599 1.0548966 0.9165373 1.0067577
000040 63 9b 70 3f 2c d7 80 3f b1 44 88 3f e6 3f 86 3f
       0.939871 1.0065665 1.0645963 1.048825
000050 c9 a8 75 3f 4d a1 83 3f 59 4d 76 3f 09 c3 71 3f
       0.9596067 1.02836 0.96211773 0.94438225
000060 86 9a 84 3f ac d9 75 3f 5b 4f 82 3f b3 44 7d 3f
       1.0359657 0.96035266 1.0180467 0.9893295
000070 88 69 85 3f a8 7a 77 3f 47 5c 84 3f 34 34 87 3f
       1.042283 0.96671534 1.0340661 1.0562806

features.0.bn.bias f4 [32]
000000 74 42 92 3d 72 fa a6 3c 8a 96 b5 3d 54 9a 02 ba
       0.07141581 0.020383094 0.08866604 -0.0004982103
000010 1f 82 95 3c 94 ed 7b bc a3 49 0a 3e 97 51 20 3d
       0.018250523 -0.015376467 0.13504653 0.03914031
000020 a9 6d ad bb 70 92 44 3c 11 57 61 3e be 3b 12 3e
       -0.0052926135 0.011997804 0.2200587 0.14280602
000030 20 cf f0 3d 83 c5 62 3d d6 b8 89 bc e9 e1 a0 3d
       0.11758256 0.055364143 -0.01681177 0.07855589
000040 23 c3 60 3c 65 44 88 3d 8b de d6 bb 27 49 21 3e
       0.013718399 0.0665367 -0.006557291 0.15750562
000050 f5 0d b1 bd 28 59 42 3e e3 9e ec bd c2 81 9d 3b
       -0.0864524 0.18979323 -0.11553743 0.004806728
000060 6a 6d fb 3d 51 6f 81 bc 90 a9 9c 3c 1c 13 05 3e
       0.122767285 -0.01580015 0.019123822 0.12995571
000070 a5 c2 0c 3e 3b b0 82 3c fb f0 f0 3d c0 10 04 3e
       0.13746126 0.015953174 0.117647134 0.12897015

features.0.bn.running_mean f4 [32]
000000 71 e7 ed 38 2d 5e 7f 39 57 1b 24 b8 66 e8 6b 39
       0.0001134415 0.00024353778 -3.912611e-05 0.00022497922
000010 37 4b 3f 38 df af 00 39 29 1e 4f b9 ac 3d 25 39
       4.5607998e-05 0.00012272548 -0.00019752294 0.00015758601
000020 c0 bf 54 39 da 37 cb 39 45 0c 57 39 58 98 e6 38
       0.00020289328 0.0003876079 0.00020508569 0.00010995631
000030 e7 14 51 b8 57 e0 d2 39 f0 f8 40 b8 43 a5 08 3a
       -4.984895e-05 0.00040221467 -4.600821e-05 0.0005212614
000040 5a 26 5a 39 4d 79 f4 b8 27 4b 2b 39 78 fe 0e 39
       0.00020804387 -0.00011657421 0.00016335827 0.00013636972
000050 f0 8d 95 b8 07 78 67 39 fc 24 21 b9 9c be e5 b7
       -7.1313116e-05 0.0002207459 -0.00015367934 -2.7387687e-05
000060 d1 be 26 b8 d3 fd ef 38 dd c6 f8 38 9e 90 c8 39
       -3.9755196e-05 0.000114436865 0.00011862603 0.0003825472
000070 1e a2 58 39 46 67 a5 b7 12 23 7b 39 91 78 b7 39
       0.00020659759 -1.9717623e-05 0.0002395029 0.0003499431

features.0.bn.running_var f4 [32]
000000 20 67 33 40 02 28 6c 40 aa b9 29 40 87 3d 52 40
       2.8031693 3.689942 2.651957 3.2850053
000010 a5 88 0e 40 25 38 ae 40 e0 24 1a 40 f8 d2 be 3f
       2.2270901 5.4443536 2.4085007 1.4908133
000020 32 35 8c 40 f5 e1 64 40 b1 fd ea 3f e6 4e c0 3f
       4.3814936 3.5762913 1.835867 1.5024078
000030 3b ca c6 3f 45 0a 88 40 d1 c0 dd 3f 1f ac b8 40
       1.5530466 4.2512536 1.7324468 5.771011
000040 7d 1f 20 40 c1 f4 47 40 f7 cd 10 40 1e 6a 71 40
       2.501922 3.1243136 2.262571 3.7721019
000050 98 e1 01 40 2a 46 17 40 d0 5b bc 3f fe 5c ac 3f
       2.0293941 2.3636575 1.4715519 1.3465879
000060 45 e1 71 3f 4b 8e 2b 40 ae 5b 3b 40 b7 d9 aa 40
       0.9448436 2.6805599 2.9274707 5.3390765
000070 a3 93 b5 40 b1 89 a5 3f d3 8e d0 40 20 d1 18 40
       5.674272 1.2932645 6.5174346 2.387764

features.1.conv.weight f4 [64, 32, 5]
000000 a1 ff 30 bd 24 4d 63 be f8 3a 61 bc b5 91 90 3c
       -0.043212537 -0.22197396 -0.013746969 0.017647604
000010 de cf ac bd dd c5 1d be 3a f6 8d 3d 1a 4b e9 bc
       -0.08438085 -0.1540751 0.069317296 -0.028478194
000020 03 00 ee bc 76 80 19 be 5b 91 b8 bc 92 83 0b be
       -0.02905274 -0.1499041 -0.022530248 -0.13624409
000030 76 12 91 bd f0 e8 1e be 9f bf 17 be fa d1 b2 3d
       -0.07083599 -0.15518546 -0.14819191 0.08731456
000040 fa ba c0 3d 2a 15 25 3e ab 7a 13 3d d2 52 66 be
       0.09410663 0.16121355 0.036005657 -0.22492531
000050 5c 12 6a 3d 5c 61 5c bd a2 61 9e 3d 03 e9 0e be
       0.057146415 -0.053803787 0.07733466 -0.13956074
000060 0d 05 2d 3d b8 88 25 bd 08 ce d4 3d e0 c6 72 3d
       0.042241145 -0.04041359 0.1039086 0.059271693
000070 c7 14 df bd 7b 1e 3a bd ba 9c ac bd a2 89 cc 3d
       -0.10892635 -0.045439225 -0.08428331 0.09987189
000080 b9 e6 62 bd c2 9f 2f 3c 90 9f 54 3d 0a ab 1f bd
       -0.055395816 0.010719242 0.051909983 -0.038981475
000090 56 c6 ac bd dd 4b 9a 3d c7 24 61 be 54 17 1f be
       -0.08436267 0.07534001 -0.21986686 -0.15536243
0000a0 63 8c 49 3e ec ad f2 bd 85 fb 2e 3e 69 93 4a bd
       0.1968246 -0.11849579 0.17088135 -0.049456988
0000b0 e2 f7 01 3d 36 ba cc bd e8 1d 48 3d 34 5b 8b bd
       0.03173054 -0.099964544 0.048856646 -0.06804505
0000c0 8b aa ee 3b 3b b8 f0 bd 82 dc 42 bd c5 d7 69 be
       0.007283514 -0.11753889 -0.047573574 -0.22836216
0000d0 a4 f4 df bd de bd 84 3e cb d9 d3 3d 6e 1f 3d 3e
       -0.10935333 0.25926107 0.10344275 0.1846902
0000e0 fc 8c 62 bc c1 47 29 bd 27 63 ad 3d 74 55 4c 3e
       -0.013827559 -0.041328195 0.084661774 0.19954473
0000f0 b9 3f 78 be f6 a7 13 bd 43 83 20 bd f2 ff 78 bc
       -0.24243058 -0.036048852 -0.03918768 -0.015197741
000100 01 f3 4f bd 90 03 88 3d 97 dd 6a 3e b3 c9 00 3e
       -0.050768856 0.066413045 0.22936092 0.12576942
000110 b5 bc 72 3e 9b 87 8e bc ea 83 d3 bd 42 6a 77 bd
       0.23704799 -0.017398646 -0.10327895 -0.06040407
000120 29 5a ad 3d 5c 78 1c 3d b6 97 a2 3d 5c b0 ff 3b
       0.08464462 0.03820072 0.07939093 0.007803006
000130 1e 2b 40 3d 1b 17 18 3d aa 4d 76 3c ee d1 cf 3d
       0.04691612 0.03713141 0.015033165 0.10147463
000140 b6 fd d1 bd 31 96 56 3d 9f 04 d4 bc fa d9 01 be
       -0.1025347 0.052389327 -0.02588111 -0.12680808
000150 03 98 2a be 30 f5 03 3d 48 f0 8c bd 10 12 17 3c
       -0.1665955 0.03221625 -0.068817675 0.009220615
000160 09 42 db 3d c7 17 d0 bd bd 21 14 3d 9d 94 75 3d
       0.107059546 -0.10160785 0.036164988 0.05995618
000170 c4 d6 e8 3c cc bb ad 3e ba a5 10 3d c6 64 30 3c
       0.02842272 0.3393234 0.0353143 0.010766214
000180 a2 bc 0d 3d 14 14 d2 bd 1d e4 13 bc 82 0a e8 bd
       0.034603722 -0.10257736 -0.009026554 -0.11330129
000190 45 c4 fb 39 87 5e 67 bd f1 10 e5 bd 9b b4 0d 3e
       0.00048020683 -0.056486633 -0.11184872 0.13838427
0001a0 dd 7e 9f 3e c6 50 b3 3d 5e e5 8c 3d 07 72 21 3e
       0.31151477 0.08755641 0.06879686 0.15766154
0001b0 4d e4 9e bd bc d4 12 3e c1 4c 8d bd b9 6a b9 bd
       -0.07758389 0.14338964 -0.06899405 -0.09053559
0001c0 0c 55 3e 3c 15 5a a6 3b 15 b8 29 bd b9 dd 32 be
       0.011616956 0.0050766566 -0.04143532 -0.17467393
0001d0 f5 71 c0 bd d2 5e 68 be 9a a4 ad 3d e4 c8 45 3e
       -0.093967356 -0.22692421 0.08478661 0.19314915
0001e0 58 37 f3 bd 67 49 9c 3b 0a 64 f7 bd 2e 14 11 be
       -0.1187579 0.0047694924 -0.12079628 -0.14167854
0001f0 e3 89 b5 bc 01 dc 73 3e 2a c5 18 bc 44 9e 9d bd
       -0.022160476 0.23814394 -0.009324351 -0.076962024
000200 45 85 84 bc 15 ac 0d be 86 5c ea 3b 5e 96 a0 bd
       -0.01617683 -0.13835175 0.007152143 -0.0784118
000210 a5 a5 bd 3c c1 d7 11 be 81 3c 97 3d cb 4a 9d 3d
       0.023150275 -0.1424246 0.07384587 0.07680281
000220 9b 60 46 3e 48 64 f7 bb 93 23 96 3d 43 13 3f bd
       0.1937279 -0.0075497963 0.07331004 -0.04664923
000230 d1 4f 67 be 2c 50 46 3b b3 a7 c3 3d 7f 35 0e 3d
       -0.22589041 0.0030260189 0.095534705 0.034718987
000240 23 ee 24 3d ad 2a 3a bd 7f 31 24 bc d8 4b 06 bd
       0.040266167 -0.045450855 -0.010021566 -0.032787174
000250 9b 2a 55 3e ed 0b 7e 3e c6 3c de 3d b8 03 00 3e
       0.20817034 0.24809237 0.10851435 0.12501419
000260 fb e0 91 bd 98 61 4d 3e 19 6e fd 3d 35 bf 5b 3c
       -0.0712299 0.2005676 0.12374515 0.0134122865
000270 b1 b4 a6 3c 81 35 02 3e f1 ae 47 bd 4f 06 0f 3e
       0.020349832 0.12715723 -0.04875082 0.1396725
000280 38 c7 c9 39 46 61 19 3e f9 ce 47 bd 21 20 52 3d
       0.00038486137 0.14978513 -0.04878137 0.05130017
000290 11 a6 12 be 28 bc 00 bd ca 8c ac bd 7e 9a 8b 3c
       -0.14321162 -0.03142944 -0.08425291 0.017041441
0002a0 05 97 75 be cf e3 cb bc d2 25 13 3d 1f 5d c1 3d
       -0.2398339 -0.024888901 0.03592474 0.094415896
0002b0 74 a8 e1 bd 73 ad b1 3c fc 25 2e bd ee e9 1e be
       -0.11018458 0.021689152 -0.042516693 -0.15518925
0002c0 ea bc a6 bc 8b 7d 1b be 55 01 0b bd 7a d1 04 3e
       -0.020353753 -0.1518461 -0.033936817 0.12970534
0002d0 5d dc 46 be 5b 65 80 be b6 26 8c be aa 45 ee 3d
       -0.1942 -0.25077328 -0.27373284 0.11634381
0002e0 46 33 86 bc 9f 84 49 be c5 01 ba 3d 94 f9 8a 3d
       -0.016381871 -0.19679497 0.09082369 0.067858845
0002f0 89 e0 27 39 10 10 5f 3e 54 fa ab bd d1 63 3e 3d
       0.00016010007 0.21783471 -0.08397356 0.04648191
000300 f9 15 08 be 51 b5 4b be 68 54 f1 3d 8e fc 1f 3d
       -0.13289632 -0.19893385 0.11783677 0.039059214
000310 6b 3b fe bc 7c e4 8b bd d6 c2 b2 3d 7d 3b 2b 3c
       -0.031034192 -0.06830689 0.08728568 0.010451195
000320 4c 11 1b be b0 3c 76 be 90 9f 79 bd ec eb 3d bd
       -0.15143317 -0.24046588 -0.060943186 -0.04636757
000330 c0 ad 3f 3e 96 4f c9 bd 81 f3 04 be b1 8c d5 3c
       0.18718624 -0.09829633 -0.12983514 0.026068063
000340 44 28 1c be 9b bb 32 3e b6 39 cc 3e e7 4b 96 be
       -0.15249735 0.17454378 0.3988778 -0.29354784
000350 59 14 17 bc 07 58 8a 3d 7f 49 2b 3d 10 0e 6b 3d
       -0.00922116 0.06755071 0.04181814 0.057386458
000360 c7 7b ce bc a2 22 0c 3d 70 04 ec bd f4 4a dd bd
       -0.025205506 0.034212716 -0.11524284 -0.10805312
000370 de 80 56 be 6e 89 31 bd e7 24 9c bd ca 23 e3 3b
       -0.20947596 -0.043343954 -0.07624226 0.0069317566
000380 aa 1f 83 bd 6c 77 85 bd a6 e9 b6 be d5 4b 9f 3a
       -0.06402524 -0.065169185 -0.35725135 0.0012153337
000390 a4 ce dc 3d e0 bd b6 3d cf eb 17 bd 83 db 37 be
       0.10781601 0.089229345 -0.03709012 -0.17954831
0003a0 f6 27 5b bd a2 73 93 bd ba c7 49 3d a8 f3 2b be
       -0.053504907 -0.071997896 0.04926274 -0.16792166
0003b0 ec e6 43 be 50 d8 38 3d d5 6b 25 bd c8 ab 02 3c
       -0.19131058 0.045128167 -0.04038604 0.007975526
0003c0 a3 30 25 3d a4 da 0d 3e 53 fb 0c be c0 bc a8 3d
       0.040329587 0.13852936 -0.13767748 0.08239126
0003d0 7b f2 39 bd d3 a5 0b 3d 18 6e 1a bd 2e aa 26 bd
       -0.045397263 0.03409369 -0.03770265 -0.04068964
0003e0 83 c4 1e 3b 9c 0f b1 3a fa 69 5b 3d e5 2b 15 3e
       0.0024226017 0.001350868 0.053567864 0.14567526
0003f0 53 de be 3d bf a6 06 bd 12 7c 2d 3e d7 58 d5 3d
       0.09319749 -0.032873865 0.1694186 0.104173355

features.1.bn.weight f4 [64]
000000 b3 16 81 3f 5b 9e 88 3f a4 12 66 3f 01 b1 83 3f
       1.0085052 1.0673326 0.89872193 1.0288392
000010 f8 fe 6e 3f 44 88 84 3f 2b 07 88 3f ab 3c 88 3f
       0.933578 1.0354085 1.0627187 1.0643514
000020 9d 18 82 3f 43 85 73 3f 9a 8f 7e 3f 19 d9 79 3f
       1.0163761 0.95125216 0.9943787 0.9759689
000030 16 0b 7f 3f 6b 02 82 3f 26 3f 83 3f 73 36 81 3f
       0.9962629 1.0156988 1.0253646 1.0094742
000040 80 8d 80 3f 51 3c 81 3f 8d 11 8b 3f 87 89 72 3f
       1.0043182 1.0096532 1.0864731 0.947411
000050 38 5c 7c 3f 8d e8 7f 3f 86 1b 67 3f ac e9 6c 3f
       0.98578215 0.9996422 0.9027637 0.92544055
000060 57 3a 72 3f b9 41 84 3f 46 09 89 3f d2 26 6e 3f
       0.9462027 1.0332557 1.0705955 0.93027985
000070 bc 0d 7e 3f cf e6 77 3f 09 50 7a 3f 53 6c 7c 3f
       0.99239707 0.9683656 0.97778374 0.9860279
000080 b9 40 80 3f 45 73 9a 3f d6 fd 6e 3f 63 66 7d 3f
       1.0019752 1.2066427 0.9335607 0.98984355
000090 01 66 7d 3f ba b4 72 3f e9 94 68 3f db 28 7b 3f
       0.9898377 0.94807017 0.9085222 0.98109215
0000a0 73 94 83 3f e0 94 63 3f 45 cd 7d 3f dc a7 92 3f
       1.0279678 0.8889904 0.9914134 1.1457477
0000b0 fa 8a 8a 3f 83 f1 8b 3f 6a f8 8b 3f 03 b4 73 3f
       1.0823662 1.0933079 1.0935185 0.9519655
0000c0 98 e8 8d 3f 0f f7 80 3f 80 20 81 3f 20 8e 80 3f
       1.1086607 1.0075396 1.0088043 1.0043373
0000d0 1e 9a 82 3f b6 a8 8a 3f 8e c6 7d 3f ef b7 83 3f
       1.0203283 1.0832736 0.99131095 1.0290507
0000e0 a6 54 8b 3f 7c e0 71 3f b5 d1 66 3f b6 bf 85 3f
       1.0885208 0.9448316 0.9016374 1.044913
0000f0 ba 71 81 3f 62 31 6e 3f 2d 5d 6e 3f 8c 5a 71 3f
       1.0112832 0.930441 0.93110925 0.9427879

features.1.bn.bias f4 [64]
000000 e6 ff 8e bc 24 c7 6a 3d 78 2a c6 bd 4b 9d 37 3d
       -0.017456006 0.05731882 -0.09676069 0.04482774
000010 34 43 f0 bc d5 98 60 3d 6a 0b 1b 3c 6f 97 ba 3c
       -0.02932892 0.054833252 0.009463171 0.022777287
000020 42 6a e1 3c a2 e7 83 bd f2 2a 76 bd 5d 0b 16 bd
       0.027516488 -0.06440665 -0.06009955 -0.03663193
000030 a7 cd 02 3c 7d 64 22 bd 55 6b 12 3d 03 63 ff 3c
       0.007983602 -0.039646614 0.03574689 0.031175142
000040 6f 92 90 bd d9 29 0e 3d a5 c6 e7 3c 17 34 a9 bd
       -0.0705918 0.034707878 0.028292963 -0.082618885
000050 12 4a ab bd 1a ba ce bd 6f cb 38 bd da 6d 90 bd
       -0.08363737 -0.1009409 -0.045115884 -0.070522025
000060 a3 57 79 bd eb 2c 3a 3d 66 fb 69 3d cf 12 fa bc
       -0.060874593 0.045452993 0.057124518 -0.030526547
000070 cd 66 31 3d 94 7a 7d bc 35 8a c6 bc 57 2a 17 bc
       0.04331093 -0.015471119 -0.024235824 -0.009226403
000080 fa 48 b5 3d d2 89 6c 3e c8 cf 14 be 6d dc 10 bc
       0.0885181 0.2309945 -0.14532387 -0.008841616
000090 9c 1b 5f bb 2d 7b ad bd 51 dd 87 bd 45 cb 90 bd
       -0.0034043556 -0.084707595 -0.0663401 -0.070700206
0000a0 b9 bf 0b bd 91 8e 8a bd af 9c e6 bd f6 d9 21 3e
       -0.034118388 -0.06765474 -0.11260354 0.15805802
0000b0 5e b3 7a 3c df 06 11 3e d7 88 50 3d 58 fb 82 bd
       0.0153015535 0.14162777 0.05091175 -0.06395596
0000c0 01 86 bb 3d bf b1 72 3d b4 8f e2 bb 7c 3c 15 be
       0.091564186 0.059251543 -0.0069141034 -0.14573854
0000d0 2f 69 bc 3c 22 15 08 3e 89 01 14 bc 10 50 e2 b7
       0.022999374 0.13289312 -0.009033569 -2.6978581e-05
0000e0 13 99 24 3e d3 9d d7 bc b9 8c 62 bd 00 c3 d6 3d
       0.16074018 -0.026320374 -0.055309985 0.10486412
0000f0 dd 1d e7 3b 63 80 e9 bd 86 ad a3 bd df 25 33 bd
       0.0070531205 -0.11401441 -0.07992081 -0.04373729

features.1.bn.running_mean f4 [64]
000000 f9 7f 35 3e da 0b 39 bf 8e f2 e7 bd 71 66 f2 be
       0.17724599 -0.7228371 -0.113255605 -0.47343782
000010 36 71 d5 be e2 4f 3e bf c9 d3 04 bf ed 63 69 bf
       -0.41687936 -0.7434064 -0.5188566 -0.911681
000020 1e ca aa bf 98 4e f1 3e ec 4f 84 bf 2d 06 b1 bf
       -1.3342931 0.47130275 -1.033689 -1.383001
000030 6b 63 f1 be a0 d2 3a bf 4c da a9 bf 12 22 f8 bd
       -0.47146162 -0.7297764 -1.3269744 -0.121158734
000040 ec bc df be e6 e5 95 be 06 93 8e bf 5b e6 82 3f
       -0.43698823 -0.2927696 -1.1138618 1.0226549
000050 8a de c9 3e bf c0 f5 3f 07 b9 ab 3f 24 78 1d be
       0.39427596 1.9199446 1.3415841 -0.15377861
000060 fd 82 05 bd 48 97 b4 be 03 2e 70 be e3 f6 b3 3f
       -0.032595623 -0.35271668 -0.23455052 1.4059719
000070 a5 37 22 bf e2 2c ec 3e b4 27 3d be bc 1c 4c bf
       -0.63366157 0.46127993 -0.18472177 -0.79731345
000080 6c 97 75 bf 56 51 89 bf 10 9c 9f 3e 29 a0 87 3f
       -0.95934176 -1.0727947 0.31173754 1.0595752
000090 3d 48 91 be 70 9d 08 be 16 20 84 3f 73 3c 99 bf
       -0.28375426 -0.13341308 1.0322292 -1.1971573
0000a0 bb 83 0b bf 14 12 db 3e 46 fd 38 3f 52 7a 85 bf
       -0.5449788 0.4278723 0.72261465 -1.0427954
0000b0 b2 0e 9f be 53 e1 87 bf b4 7f 32 bf b2 17 b3 3d
       -0.310659 -1.0615638 -0.6972611 0.08744754
0000c0 78 c6 b4 be 87 0c c1 bf 39 43 7b bf 26 73 26 bf
       -0.3530767 -1.5081948 -0.9814945 -0.6501945
0000d0 3f 62 58 bf 7e 20 1a bf db 99 a9 bd af d4 c4 bf
       -0.8452491 -0.6020583 -0.08281299 -1.5377406
0000e0 52 69 2a bf e5 40 99 3e 97 66 0e 3f f3 3e 0b bf
       -0.66566956 0.29932323 0.5562529 -0.5439293
0000f0 04 bd 23 bf 8b 23 7c 3f 1a c2 30 bf e6 4e 97 3f
       -0.6396029 0.98491734 -0.69046175 1.1820953

features.1.bn.running_var f4 [64]
000000 71 2c e0 3f 00 9e 80 3f 5d eb df 3f 8f 05 fb 3f
       1.7513562 1.0048218 1.7493702 1.9611071
000010 ae b5 6e 3f be b0 86 3f 38 fb b8 3f 12 c3 e7 3f
       0.9324597 1.0522687 1.4451666 1.8106406
000020 c4 46 0f 40 ac bf b0 3f fb e6 81 3f 80 ea fc 3f
       2.2386942 1.3808494 1.0148615 1.9759064
000030 04 54 7e 3f 0c 68 8c 3f ae 1a ca 3f 1c 1d a2 3f
       0.9934695 1.0969253 1.5789392 1.2665133
000040 65 2f a2 3f 50 ca 84 3f 6b 2b 98 3f 16 61 5b 3f
       1.2670714 1.0374241 1.188825 0.85695016
000050 f2 55 32 3f a4 a2 3c 40 05 0f c9 3f 34 b8 23 3f
       0.6966239 2.9474268 1.5707709 0.63952947
000060 43 2e 76 3f 98 85 8a 3f 6c 41 ba 3f e9 7c fe 3f
       0.9616434 1.082202 1.4551215 1.988187
000070 84 a2 92 3f ad dd 41 3f b3 5c 76 3f 93 ef 2b 40
       1.1455846 0.75728875 0.962352 2.6864974
000080 b4 1b 89 3f 51 42 b9 3f 58 9f 65 3f 53 af 1f 40
       1.0711579 1.4473363 0.89696264 2.495076
000090 9a 09 58 40 ea a2 91 3f e1 fe b7 3f f6 6e 0c 40
       3.375586 1.1377842 1.4374658 2.1942725
0000a0 56 87 c3 3f a6 6c 82 3f 57 c1 a1 3f 9f 06 95 3f
       1.5275676 1.0189407 1.2637128 1.1642646
0000b0 88 c0 21 3f a0 4f f2 3f 52 30 b8 3f 4d 65 85 3f
       0.63184404 1.893055 1.4389746 1.042154
0000c0 cb 86 90 3f a5 af d1 3f 25 79 b5 3f c0 0a bb 3f
       1.1291136 1.6381727 1.4177595 1.4612656
0000d0 d8 e7 f0 3f 7a 02 94 3f 19 2e 95 3f d9 18 ac 3f
       1.8820753 1.1563256 1.1654693 1.3445083
0000e0 c5 b7 7c 3f b9 bd c4 3f c2 f2 c2 3f 12 30 96 3f
       0.9871791 1.5370399 1.5230334 1.173342
0000f0 3d 07 c6 3f 07 a8 0a 40 03 60 de 3f d8 88 f2 3f
       1.5470959 2.1665056 1.737305 1.8948011

features.2.conv.weight f4 [128, 64, 5]
000000 05 55 bc bd 87 d1 7a 3d 9e ca 40 bd 6b 42 e5 bc
       -0.09195904 0.061234977 -0.04706823 -0.027985772
000010 1b 57 dc 3d 61 1f 16 3e d5 00 01 3d 8c 84 db bc
       0.107588015 0.14660408 0.031494934 -0.026796602
000020 82 fe b9 3d f0 50 84 3c 6c aa 31 bd 1e 01 9b bd
       0.09081747 0.016151875 -0.043375418 -0.075685725
000030 63 9f 9a 3d dc a2 4c be 3e 7c f1 3d 7f a2 13 3d
       0.07549932 -0.19984001 0.117912754 0.03604364
000040 5d 30 34 3d dd cd 67 be 25 86 92 3d 59 8f 1f bc
       0.043991435 -0.22637124 0.07154492 -0.009738767
000050 50 ea ba bd 90 d0 ff 3b 1c b4 a9 b9 f7 96 fe bc
       -0.09126723 0.007806845 -0.00032368384 -0.031077845
000060 01 b4 0c bd 18 9e a7 3d af d2 32 be f0 fe 4a bd
       -0.034351353 0.08184451 -0.17463182 -0.049559534
000070 f2 98 bd bd 7b 72 7b bb 17 45 b1 bd 1e 0f 39 bd
       -0.09257688 -0.0038367796 -0.08655756 -0.045180432
000080 68 cf 5f 3e 62 db 0d 3d 15 0c b6 3c a5 98 cf bd
       0.21856463 0.034633048 0.022222558 -0.101365365
000090 6c 94 96 bd c4 fa 84 3c 70 bc 91 3d 5f 98 0d 3e
       -0.07352528 0.016232856 0.0711602 0.13827656
0000a0 7a 44 07 3e 1c 8d 07 3e 3a 31 8a 3d a3 55 86 3b
       0.13209715 0.13237423 0.067476705 0.004099564
0000b0 01 83 5a bd ff 6c 97 bd 40 37 8a 3d 0f 61 48 3c
       -0.05334759 -0.07393836 0.06748819 0.012230172
0000c0 5d f5 20 3d a5 04 34 3c 8d b8 27 3d 6a 17 f9 3d
       0.039296497 0.0109874355 0.040947486 0.12162669
0000d0 eb 73 89 bd 44 6c f9 bd 01 f4 38 be 64 0b 61 3d
       -0.06711563 -0.12178853 -0.1806183 0.054942504
0000e0 41 6b 4f 3d cd cc a9 3c bb 65 b0 bd b5 a3 82 bc
       0.050639395 0.02072754 -0.086131535 -0.015947202
0000f0 82 37 d4 3c 79 98 e4 3b fa 8b d5 3d 5d 61 11 be
       0.025905374 0.006976184 0.10427089 -0.14197297
000100 f9 f2 cb 3d 69 85 db 3d 07 43 8c bd ee 43 62 bc
       0.09958453 0.10718805 -0.06848722 -0.013810141
000110 a5 a9 43 be cc 45 df bd b0 d7 62 3e 05 79 47 bc
       -0.19107683 -0.109019846 0.22152591 -0.012174849
000120 68 cb 34 bd 0f de 98 bd 0d 4e 03 be c6 f7 d9 bd
       -0.044139296 -0.07464229 -0.12822743 -0.10642962
000130 3e 3b 42 be 99 77 01 be a3 4f b9 ba b1 97 ae 3c
       -0.18967912 -0.12643279 -0.0014138113 0.021312566
000140 d0 f5 27 3e 3c fa 61 3e ea 90 18 3b 7e 75 ce 3d
       0.16402364 0.22068113 0.0023279735 0.100810036
000150 cc 9d d2 3b 52 e2 32 3d 7d 14 7e 3d 94 19 ce bc
       0.0064275023 0.043672867 0.062031258 -0.025158681
000160 09 4c c5 3d af 0f 9c 3d 3e de 83 3e e3 f5 f4 3d
       0.09633643 0.07620179 0.25755495 0.11960962
000170 fd 3f 0f 3e 58 84 0c 3b 5a 3c c2 bd b3 2f 79 bc
       0.13989253 0.0021441188 -0.094841674 -0.015209126
000180 77 36 9b 3c 9c f9 76 3d a6 73 7e 3d 14 41 d4 3d
       0.01894687 0.06029664 0.06212201 0.10363975
000190 c7 8e 1d bd b2 8a 3f 3d 38 eb 71 bd 2c d6 ee ba
       -0.03846624 0.04676313 -0.059062213 -0.0018221787
0001a0 ec e5 34 bd 0e ae 74 bd 89 7d 58 bd fb 90 fc bc
       -0.044164583 -0.059736304 -0.052854095 -0.03083085
0001b0 66 05 96 3c a5 a8 44 3e 48 6b 97 bb 8d 8e f7 3d
       0.018313121 0.19204958 -0.004620943 0.12087736
0001c0 67 75 f3 3c 40 ae 5f bd 7d 01 02 be 71 2d ac bd
       0.029719068 -0.054609537 -0.1269588 -0.08407105
0001d0 15 3e 42 bd 48 74 cb bd 11 ae 5b bd af 15 62 3c
       -0.047422487 -0.09934288 -0.0536328 0.013799115
0001e0 2e 72 e9 bd 5b 93 f9 bc eb 8a f1 3c d2 a7 7a 3c
       -0.11398731 -0.030465772 0.029485187 0.015298801
0001f0 4b fa 2e 3e 1d 30 ec 3b 57 3c 20 3d 4c 0e 07 bd
       0.17087667 0.007207884 0.039120045 -0.03297262
000200 09 da b3 bc a5 7f ac bc fa d0 8d bc df 2b c5 bd
       -0.021954553 -0.02105696 -0.017311562 -0.09627508
000210 65 08 87 3d 12 26 42 bd f3 c1 a2 bc 78 a5 a1 3c
       0.06593398 -0.047399588 -0.019867873 0.019732222
000220 97 9a ed bd c2 c1 07 bb f4 ea 86 3d 31 7a 1d 3b
       -0.11601751 -0.0020714854 0.065877825 0.002402913
000230 d3 f9 c1 3c 5f f5 81 3d c7 4f 82 bd 97 1b bd bd
       0.023678696 0.06345629 -0.063628726 -0.09233778
000240 71 d7 e6 3d ab 92 cf bd 4c 56 06 be 5d 30 d5 3d
       0.11271561 -0.101353966 -0.13118857 0.10409615
000250 fa bc 8b 3d 16 1a 55 3d 02 bb 26 be e4 af 84 3d
       0.06823154 0.05202683 -0.16282275 0.06478861
000260 ae 29 05 3e 01 1b d3 3d f6 27 8e 3d 0a a9 f6 bd
       0.13004181 0.10307885 0.06941216 -0.120439604
000270 ba 25 7c be cd 51 cb 3c b8 06 4d 3c 0e 31 5f 3e
       -0.24623767 0.02481928 0.012513809 0.21796057
000280 69 f8 42 3d a5 af 18 be 16 c9 39 bb 82 21 fd 3c
       0.047600184 -0.14910753 -0.0028348616 0.030899767
000290 4f aa d2 bd a5 b0 82 3e bf fe 45 3d 83 db 0b bd
       -0.1028639 0.25525394 0.048338648 -0.03414489
0002a0 fc f8 25 bc f2 a8 98 bb e9 82 9e 3c bc d6 02 bc
       -0.010130163 -0.0046588117 0.019349532 -0.007985767
0002b0 c7 7a 37 3c 78 ea 74 bd e2 75 a3 bc a0 49 4a bd
       0.011198706 -0.05979392 -0.019953672 -0.04938662
0002c0 83 33 3e 3d 22 38 86 3c fb b5 87 3d 0e 3a d4 3d
       0.046435844 0.016384188 0.06626507 0.103626356
0002d0 f8 c6 cc 3d c3 52 04 3d dd f7 e2 bd c4 9d aa 3c
       0.09998888 0.03230549 -0.110824324 0.020827182
0002e0 ff 40 16 3c 91 96 b1 bc 0f 48 c7 bc 84 51 85 3d
       0.00917077 -0.021678241 -0.024326352 0.065096885
0002f0 9e b4 d7 bd b4 38 7a bb 31 ba 90 bb 43 06 f9 bd
       -0.10532497 -0.003818077 -0.004416727 -0.121593975
000300 f6 0a 90 3d 0d 58 0c 3e ba 81 01 3e e8 51 d7 3c
       0.07033341 0.13705464 0.12647143 0.026284173
000310 e7 2d 50 bd f1 1b 0c 3d 8e a4 aa bc 30 21 6c 3c
       -0.050825026 0.034206335 -0.020830419 0.014412209
000320 79 22 8c 3e e1 36 dc 3d 6f 3a d7 bc 0c 8c 6d bd
       0.2737005 0.10752655 -0.02627298 -0.057994887
000330 74 67 a0 bb 8b cf 5c bd 6d af 73 3c 7b 66 f4 3c
       -0.004895145 -0.053908866 0.014873368 0.029834023
000340 bf 98 2a bd 35 11 ec bd 48 61 09 3c 3d 2d 2f bc
       -0.041649576 -0.115267195 0.00838501 -0.010691938
000350 b9 3a ba bc ba 38 2d 3d f3 3d 78 bd e6 80 36 3e
       -0.02273308 0.042290427 -0.060605954 0.17822608
000360 5a cd e6 bc 93 1e db bd cc 00 cb bd aa 1b 5a be
       -0.028174091 -0.10699191 -0.09912261 -0.21299616
000370 2d 2e dc 3c 7e 27 eb 3c 69 b9 3f 3d 95 70 5d 3d
       0.026877487 0.028705355 0.04680768 0.054062445
000380 9c b1 1c 3d 35 3a 2f 3e 1a 2c 46 3e 11 a3 19 bd
       0.03825532 0.17112048 0.19352761 -0.037509028
000390 10 6f af bb 8f c8 7f bd b1 ec 20 be e9 2c ac 3d
       -0.005353816 -0.062447127 -0.1571529 0.084070034
0003a0 b4 4b 66 bd bc 0d df 3d 94 53 3b 3d 71 a3 7e bc
       -0.05622454 0.108912915 0.045734003 -0.015541897
0003b0 06 65 2d bd ac 35 89 bc 8f 73 24 be 5b 5a 8d 3d
       -0.04233267 -0.016749226 -0.16059707 0.069019996
0003c0 ca ac 10 bd 8f 4b f4 bd 5c b1 1f bd 9e ab 24 be
       -0.035321034 -0.11928474 -0.038987502 -0.16081092
0003d0 0e a5 a9 bd 97 f2 3c 3e 98 49 90 3d fa ef fd bd
       -0.08283435 0.18451916 0.07045287 -0.123992875
0003e0 5a cd dd bd a9 7c 2d bb fc 0b 1f 3e 8a cd 89 3d
       -0.10830183 -0.0026472008 0.15531915 0.067286566
0003f0 27 be 6d bc 3c fa af 3d c9 78 0e 3e f4 0a 9d 3d
       -0.014510668 0.0859265 0.13913263 0.07668105

features.2.bn.weight f4 [128]
000000 e2 a4 82 3f 8d 85 67 3f 65 43 76 3f 13 68 82 3f
       1.0206568 0.9043816 0.96196586 1.0188011
000010 9b 7c 86 3f 07 92 89 3f 3a b4 7c 3f 6c 3f 59 3f
       1.0506777 1.0747689 0.98712504 0.848624
000020 65 90 7c 3f 2d 11 77 3f 4a 32 68 3f 31 31 7b 3f
       0.9865783 0.96510583 0.90701735 0.98121935
000030 9d 9a 83 3f b3 f3 78 3f 74 e0 7d 3f 70 7a 86 3f
       1.0281559 0.97246855 0.99170613 1.0506115
000040 2d 3f 74 3f 35 22 7e 3f 9c 10 5b 3f 26 d0 7c 3f
       0.954089 0.99270946 0.8557222 0.9875511
000050 70 e4 81 3f 4a d4 6e 3f 7d 6e 85 3f 2b 50 63 3f
       1.0147839 0.9329268 1.0424343 0.887942
000060 1c 7c 73 3f b9 44 80 3f 13 9a 8e 3f 72 c4 72 3f
       0.9511125 1.0020972 1.114077 0.94831
000070 ca 18 77 3f 3d 15 93 3f ef 03 81 3f 3d 85 77 3f
       0.965222 1.1490856 1.0079325 0.9668768
000080 ab b2 81 3f 79 b2 6e 3f 96 b7 78 3f 97 66 75 3f
       1.013265 0.9324108 0.9715513 0.95859665
000090 45 18 68 3f 35 aa 87 3f 79 80 83 3f 86 8c 94 3f
       0.9066203 1.0598818 1.0273582 1.1605384
0000a0 c1 5c 8d 3f 74 0f 90 3f 73 4a 6f 3f 7f ab 66 3f
       1.1043931 1.1254716 0.93472975 0.9010543
0000b0 75 9a 83 3f 63 c6 74 3f 2f 57 80 3f f7 1d 7a 3f
       1.0281512 0.95615214 1.0026606 0.9770197
0000c0 e3 a7 62 3f ed e7 81 3f 54 2c 71 3f 97 e7 83 3f
       0.88537425 1.0148903 0.94208264 1.0305051
0000d0 16 ca 96 3f 8f b9 81 3f 38 5e 6b 3f d6 d0 80 3f
       1.1780422 1.0134753 0.9194064 1.0063732
0000e0 7f 76 7f 3f c1 fe 7d 3f 45 7e 7a 3f 92 10 72 3f
       0.99790186 0.9921685 0.9784892 0.94556534
0000f0 02 40 67 3f 77 9e 8b 3f 71 e8 7c 3f 7b 36 6a 3f
       0.90332043 1.0907735 0.9879218 0.9148938
000100 c0 e6 81 3f bf bd 63 3f 58 57 86 3f b9 9e 86 3f
       1.0148544 0.88961405 1.0495405 1.0517188
000110 f0 4f 79 3f b6 05 55 3f fd 86 8d 3f 55 40 8b 3f
       0.973876 0.8321184 1.105682 1.0879008
000120 15 0b 7f 3f 6a c7 76 3f 14 5d 7a 3f b2 88 71 3f
       0.99626285 0.9639803 0.97798276 0.94349205
000130 b5 01 79 3f a8 28 7c 3f e4 c3 81 3f 96 b9 76 3f
       0.9726823 0.98499537 1.0137906 0.9637693
000140 ff 54 64 3f 51 0e 85 3f bd d8 82 3f ed ed 53 3f
       0.89192194 1.0394994 1.0222393 0.8278492
000150 68 5b 7d 3f 52 32 80 3f 87 73 82 3f 95 a2 73 3f
       0.989676 1.0015357 1.0191506 0.95169955
000160 cd 46 5e 3f d8 d9 6e 3f 81 46 82 3f e1 77 83 3f
       0.86826783 0.93301153 1.0177766 1.0270959
000170 49 b1 8b 3f 7f ec 6b 3f 28 9c 69 3f d0 ea 77 3f
       1.0913478 0.9215774 0.912539 0.9684267
000180 6c 9c 81 3f 87 c9 76 3f 08 8b 8e 3f 3e 64 74 3f
       1.0125861 0.96401256 1.1136179 0.9546546
000190 d3 74 81 3f 8c 0b 6f 3f 21 bf 6c 3f 89 0f 5c 3f
       1.0113777 0.93376994 0.9247914 0.85961205
0001a0 74 b3 69 3f 2a 54 4b 3f 0a 89 85 3f a3 34 7d 3f
       0.9128945 0.794253 1.0432446 0.9890844
0001b0 97 bc 78 3f 84 df 6d 3f 28 f4 6d 3f cd 16 75 3f
       0.97162765 0.9291918 0.9295068 0.95737916
0001c0 6f 0d 6c 3f b6 ca 7b 3f dc 0f 70 3f e4 f5 66 3f
       0.92208 0.9835619 0.937742 0.9021895
0001d0 ba 5a 7d 3f 89 92 70 3f 10 fd 7b 3f b5 4c 82 3f
       0.9896656 0.93973595 0.9843302 1.0179659
0001e0 e6 72 7a 3f a0 75 92 3f 9b 9f 73 3f 5b 0a 92 3f
       0.9783157 1.1442146 0.95165414 1.140941
0001f0 2a bf 76 3f 88 3e 6c 3f ef 02 74 3f ab f4 61 3f
       0.96385443 0.92282915 0.95316976 0.8826396

features.2.bn.bias f4 [128]
000000 0d 80 90 be 00 cd 75 be 31 1d 91 bd 55 c3 93 be
       -0.28222695 -0.24003983 -0.07085646 -0.28859964
000010 c1 b2 2c be 52 8a 0e be 81 c9 0a be 8f 50 07 be
       -0.16865064 -0.13919953 -0.1355343 -0.13214324
000020 82 96 92 bd a7 e9 be bd 66 2d ee bd 5b 96 a9 bd
       -0.07157613 -0.093219094 -0.11629753 -0.08280631
000030 23 ed 99 bd 38 2d f6 bd 25 48 a2 bd 4f fb 01 bc
       -0.07515933 -0.120203435 -0.07923917 -0.007933452
000040 af c5 d2 bd 0f d4 64 bd fc 56 1b be 36 2e 95 bd
       -0.102916114 -0.055866297 -0.151699 -0.07284205
000050 58 61 a0 bd 83 16 6c be 2e 9d 90 be 8b 2a 4f be
       -0.07831067 -0.23055463 -0.2824492 -0.20231073
000060 de 53 72 be 15 51 89 bc 4c 37 8f bd f0 b8 14 be
       -0.23664805 -0.016762296 -0.06992969 -0.14523673
000070 1a fe 33 bd 06 14 43 be f5 96 93 bd 4d ae af bd
       -0.043943502 -0.19050607 -0.07206527 -0.08578167
000080 ff 5e 0c be cd e4 cb bd e6 80 c9 bd d2 e8 ae bd
       -0.13708113 -0.0995575 -0.098390386 -0.08540501
000090 e4 03 b4 bd 35 44 30 be 21 24 10 be b5 3a fb bd
       -0.087898046 -0.17213519 -0.14076282 -0.12267057
0000a0 cc dc e2 bd aa 66 52 be 0c c9 22 be 6a 16 7f be
       -0.1107727 -0.20546976 -0.15897006 -0.24910894
0000b0 54 f5 6f be 64 8e a6 bd 20 d9 42 be 1b 36 82 be
       -0.23433429 -0.081326276 -0.19028139 -0.25431904
0000c0 f4 03 f5 bd 5d 27 0a be ce e1 ac be 49 ca f9 bd
       -0.119636446 -0.13491578 -0.33766025 -0.12196786
0000d0 3e aa 4e be 3d 76 96 bd 7e 4d 2c be 12 b5 8f be
       -0.2018213 -0.07346771 -0.16826436 -0.28067833
0000e0 39 87 c9 bd 80 50 1d be 4b 64 e3 bc 62 8b 7d be
       -0.09840245 -0.1536274 -0.027757784 -0.24760202
0000f0 4e ce d6 bd 5c 16 0a be 19 7e 64 bd a3 24 28 be
       -0.10488568 -0.13485092 -0.05578432 -0.16420226
000100 a6 01 d3 bd 7b f1 3c be b2 97 e3 bd d4 13 8e bd
       -0.10303049 -0.18451492 -0.11112918 -0.06937376
000110 df 4b 4d be 64 52 ca bd da d3 c3 bd 22 43 23 be
       -0.20048474 -0.09878996 -0.09561892 -0.15943578
000120 54 0c 68 be 45 66 e7 bd e6 4f 33 bd 18 e2 c4 bd
       -0.22660953 -0.11298803 -0.04377737 -0.096134365
000130 f9 cf 97 be 99 84 8a be d0 14 3c be 74 32 59 be
       -0.29650858 -0.2705429 -0.18367314 -0.21210653
000140 10 c0 20 bd 9e 7c 1c be 72 ee 8e be 5b f2 27 be
       -0.039245665 -0.15281913 -0.27916294 -0.16401045
000150 8b 70 17 be bd 9a 76 bd e3 a9 ee 3c e6 43 f8 bd
       -0.14789025 -0.060206164 0.029133743 -0.121223256
000160 9f 2c 49 be 9c d6 9c bd a7 11 a4 bd 23 48 cc bd
       -0.19645928 -0.07658121 -0.080111794 -0.099746965
000170 ae 93 7b bd 2c 1e 6f be 55 d6 78 be cd 50 f8 bd
       -0.061420135 -0.23351353 -0.24300511 -0.121247865
000180 9b e8 bd bd 6b 06 2e be dc 10 ad bd ac 26 03 be
       -0.092728816 -0.16994636 -0.08450481 -0.12807721
000190 31 26 4a bd 0d e7 79 be c9 78 9e bc 90 22 86 be
       -0.04935283 -0.24404545 -0.019344704 -0.26198244
0001a0 d8 19 57 be eb 21 5e be 94 97 16 be da 9d 29 be
       -0.21005952 -0.21692626 -0.1470626 -0.16564122
0001b0 2c ba 45 be 2d 81 db bd c2 be 29 bd 4d f1 0f be
       -0.193093 -0.10717998 -0.041441686 -0.14056893
0001c0 db 44 dd bd ab d3 de bd 7b dd cc bd af 23 11 be
       -0.10804149 -0.10880216 -0.100031815 -0.14173768
0001d0 96 32 f4 bd c7 b0 45 be 63 01 0d be d7 a4 d2 bd
       -0.11923711 -0.19305716 -0.1377006 -0.10285347
0001e0 9b 54 48 be 7b e0 8e bd 2d 1c 8d be da a2 4f be
       -0.19563524 -0.0697641 -0.2756056 -0.20276967
0001f0 02 d2 04 be cf a8 46 be 15 54 88 be fe 24 66 be
       -0.12970737 -0.19400333 -0.2662665 -0.22475049

features.2.bn.running_mean f4 [128]
000000 78 09 65 3f bb 72 ad 3f ce 0a ae bf 25 17 88 3f
       0.89467573 1.3550638 -1.3597047 1.0632063
000010 ee cd 87 bf 8f 78 fe bf 9e 52 ac bf 8e 33 17 bf
       -1.060972 -1.9880542 -1.3462713 -0.5906304
000020 53 d8 00 3d 7f cb f9 be b9 60 93 3e d4 7c 5c bf
       0.031456303 -0.48788068 0.2878473 -0.8612797
000030 32 95 f4 bf 92 aa 02 3e 26 93 d9 be 0c 1c 2e c0
       -1.9108031 0.1276038 -0.42495078 -2.7204618
000040 ab f3 fc bd 02 8e f4 3d 41 ad 8d 3f 3c 35 4f bf
       -0.123511635 0.11941148 1.1068498 -0.80940604
000050 e9 48 07 c0 54 84 d9 3e 08 e8 a9 3d 31 95 99 bf
       -2.113825 0.4248377 0.082962096 -1.1998655
000060 e8 fa 46 3f 19 3c ad bf ba 25 cb be e1 dc f5 bf
       0.777266 -1.3533965 -0.3967722 -1.9208032
000070 8a d2 38 bf 45 08 5a be 11 57 a7 bd 3e 40 37 bf
       -0.7219626 -0.21292217 -0.081709035 -0.715824
000080 39 e8 72 3e 9e 56 7e 3d 2a d7 77 bf e2 0d 83 3d
       0.23721398 0.062094323 -0.9681269 0.06399132
000090 cf 82 d9 3e b1 45 a9 bf 00 d5 8d bf f8 53 00 bf
       0.42482612 -1.3224393 -1.1080627 -0.50128126
0000a0 e0 94 be be 98 2d 8b be 63 dd 01 c0 3e 27 80 3f
       -0.37222958 -0.27183223 -2.0291374 1.0011976
0000b0 cd 2f c6 be cf 57 e3 be 86 c8 98 bf 0b 56 19 3f
       -0.38708344 -0.4440293 -1.1936195 0.59896916
0000c0 f8 e0 b9 be 0e 3a 03 bf 7e 64 dd 3f 0f 8a 45 bf
       -0.3630445 -0.5126046 1.7296293 -0.77163786
0000d0 16 c9 63 3d 7e 69 dc be ab 70 5b be 51 da 3a 3f
       0.055611692 -0.43049234 -0.21429698 0.72989374
0000e0 aa 1d c6 be 6a 29 0c bf f6 00 48 bf 79 35 91 3f
       -0.38694507 -0.5475069 -0.78126466 1.1344444
0000f0 0c bd ad 3e 0a 2b c3 bc 74 a8 df 3e a6 61 cb 3f
       0.33933294 -0.023824234 0.43683207 1.5889175
000100 3c b6 c4 3c 48 25 b3 3e c8 1c 09 3f 87 e0 13 3e
       0.024012677 0.3498938 0.5355954 0.14441119
000110 30 bf 81 bf 19 1a c3 3d 7d 2b 62 bf 0c 9c 4f bf
       -1.0136471 0.09526462 -0.8834761 -0.81097484
000120 0b 99 15 bf 4b 75 85 be 26 58 39 bf 62 7c bc bf
       -0.5843665 -0.2606605 -0.7240013 -1.4725459
000130 84 18 ad 3f 64 4f 50 bf 96 2e 25 3e e8 13 81 3f
       1.3523107 -0.8137114 0.16131052 1.00842
000140 25 c0 24 bf 72 4e 6c be b8 8f cf 3e 6e 98 9f 3f
       -0.6435569 -0.230768 0.40539336 1.2468393
000150 05 78 61 bf 3d 7b a9 bf a4 8c d2 bf 1b a0 80 bf
       -0.8807376 -1.3240734 -1.644917 -1.004886
000160 84 21 45 3e b8 72 bd bf c1 7d f6 3d d4 78 0d 3f
       0.19251066 -1.4800634 0.120357044 0.55262494
000170 ad c7 54 be ab 97 f9 3e 1c a5 08 bf 8b 6e 55 3e
       -0.20779295 0.48748526 -0.53376937 0.2084295
000180 2b 1e 02 3f 35 d8 ad 3e 90 a7 78 bf 71 2b 1b c0
       0.5082728 0.33954015 -0.9713068 -2.4245265
000190 95 02 6a bf ee 19 d7 3f 00 73 08 be 98 a7 13 40
       -0.9141019 1.6804788 -0.13325119 2.307104
0001a0 1b d9 d5 3f 90 bf 9f bd 32 12 02 bf ab 10 08 bf
       1.670688 -0.078002095 -0.50809014 -0.53150433
0001b0 b2 83 90 3f ff 04 90 be 59 a9 08 bc 71 2d a8 3d
       1.129019 -0.28128812 -0.008341157 0.08211792
0001c0 f2 59 8d bf 50 1b e9 bf dd 8b 19 be 74 8d a4 bf
       -1.1043074 -1.821146 -0.1499476 -1.2855668
0001d0 42 a4 e8 be 09 ef 05 bf 5e 69 e0 be 9e 6a c9 bd
       -0.4543782 -0.52317864 -0.4383039 -0.09834789
0001e0 74 d4 7f bf d5 ab e6 be a0 37 08 be 2d ae 66 bf
       -0.9993355 -0.45052972 -0.13302469 -0.9010952
0001f0 02 99 96 be e2 d5 31 bd f0 74 06 3f 8d b2 41 3f
       -0.2941361 -0.043416865 0.5252218 0.7566307

features.2.bn.running_var f4 [128]
000000 f1 35 e8 3f df 72 fc 3f 8d 31 f6 3f 6b 14 b0 3f
       1.8141462 1.9722556 1.9233872 1.3756231
000010 a5 90 93 3f 51 46 08 40 a3 ab 00 40 05 cc 27 40
       1.1528517 2.1292918 2.0104759 2.6218274
000020 53 a7 f3 3f 7f d2 24 40 64 62 3f 40 4d 56 a6 3f
       1.9035438 2.5753477 2.9903803 1.2995087
000030 d1 d2 48 40 5b e9 8e 3f 41 44 ee 3f 6a b4 72 40
       3.1378672 1.1164964 1.861458 3.7922616
000040 15 d3 cc 3f c8 90 87 3f 92 18 c8 3f dd e2 dd 3f
       1.6001917 1.0591059 1.5632498 1.7334858
000050 9b fd 28 40 88 96 80 3f 72 65 aa 3f 55 f2 2c 40
       2.6404788 1.0045938 1.3312209 2.7022908
000060 71 bd a8 3f 9e f1 e7 3f 74 6c be 3f be 85 23 40
       1.3182813 1.8120611 1.4876847 2.555038
000070 46 57 23 40 e5 98 4c 3f 16 58 bf 3f 10 ce 9c 3f
       2.5522017 0.799208 1.4948757 1.2250385
000080 5b f4 45 3f 09 88 96 3f 59 d9 c3 3f 23 f9 81 3f
       0.7732598 1.1760265 1.5300704 1.0154155
000090 90 81 13 40 27 c6 9e 3f 6c 22 ba 3f b8 dc 16 40
       2.3047829 1.2404221 1.4541755 2.3572216
0000a0 9b 91 89 3f e8 3e f6 3f 8c 97 13 40 51 ff 92 3f
       1.074756 1.9237947 2.3061247 1.1484166
0000b0 d0 2b 87 3f 95 d0 a5 3f b9 39 9b 3f 6b 28 ab 3f
       1.0560246 1.2954279 1.212699 1.337171
0000c0 e6 d6 d4 3f 9f fc 92 3f 32 b2 a9 3f 00 74 81 3f
       1.6628082 1.1483344 1.3257506 1.0113525
0000d0 5b 98 96 3f bb 9a 1d 40 0e d1 36 40 89 a5 94 3f
       1.1765245 2.462569 2.8565097 1.1613017
0000e0 92 d2 c5 3f 38 e9 ce 3f 6f 7d 05 40 bc be bc 3f
       1.5454886 1.6164923 2.0857809 1.4745708
0000f0 0f cd ec 3f 97 48 4e 3f e2 59 e7 3f 04 25 d0 3f
       1.8500079 0.80579513 1.8074305 1.6261296
000100 51 18 e0 3f fa 52 06 40 9b e9 78 3f 28 b6 af 3f
       1.7507421 2.0988145 0.97231454 1.3727465
000110 90 1a 9a 3f 4a 0d 21 40 b7 fa bf 3f 7d f1 eb 3f
       1.2039356 2.516436 1.4998387 1.8433071
000120 a6 50 a4 3f 17 5f 70 3f 94 35 1e 40 10 a0 30 40
       1.2837112 0.93895096 2.4720201 2.7597694
000130 78 2a bb 3f d6 38 92 3f 87 89 89 3f b0 1c d3 3f
       1.4622335 1.1423595 1.0745095 1.649313
000140 be 65 27 40 b1 14 b3 3f e1 06 a9 3f 85 d2 19 40
       2.6155849 1.399069 1.3205224 2.403474
000150 2b c9 07 40 72 2e c2 3f 31 c2 88 40 1d 90 cf 3f
       2.1216533 1.5170424 4.273705 1.6215855
000160 f2 0e 93 3f 24 c1 1d 40 26 e8 99 3f 23 0a 6c 3f
       1.1488936 2.4649134 1.2023971 0.9220297
000170 0e 6d 9a 3f cc 59 af 3f c3 4c 18 40 30 62 5b 3f
       1.2064531 1.3699279 2.3796852 0.856967
000180 b7 b9 b7 3f f4 77 8d 3f 81 9f b0 3f 5a f6 1a 40
       1.4353551 1.1052232 1.3798677 2.421286
000190 35 c7 be 3f a2 d7 a6 3f 1e 08 10 40 7b d2 8a 40
       1.4904543 1.3034556 2.2504954 4.3381934
0001a0 d2 d7 ad 3f ac ec 3c 40 fa 19 bf 3f e8 a5 96 3f
       1.3581488 2.9519453 1.4929802 1.176938
0001b0 b8 11 b6 3f a9 e5 d5 3f 20 da 27 40 53 78 e9 3f
       1.4224157 1.6710712 2.6226883 1.8239845
0001c0 8d 8c 0e 40 7f 86 00 40 a4 9a d7 3f 71 bc e0 3f
       2.2273285 2.008209 1.6844068 1.7557508
0001d0 8e 77 98 3f 04 8e e0 3f a9 0a dc 3f a3 37 96 3f
       1.1911485 1.754334 1.7190753 1.1735729
0001e0 1c 24 c5 3f 90 dd 96 3f 2b af 9b 3f 8f 49 c5 3f
       1.5401645 1.1786366 1.2162832 1.5413073
0001f0 bc 41 ae 3f ee 32 da 3f 35 0b a6 3f 8c cb 4b 40
       1.361381 1.7046793 1.297217 3.1842985
