ecg_afib_detection/checkpoints/mit-bih/250hz/cnn1d/fold_1/last.pt (torch, 617397 bytes, 22 tensors)

features.0.conv.weight f4 [32, 2, 7]
0	0xbeb7017b	-0.35743317
1	0x3f1b4afe	0.60661304
2	0x3e5b7eed	0.21435137
3	0xbe5834c5	-0.2111388
4	0x3e5e95d3	0.21736841
5	0xbe9ab854	-0.30218756
6	0x3f120893	0.57044333
7	0xbeb0508a	-0.34436446
8	0xbeda4971	-0.42634156
9	0xbe18a9da	-0.14908543
10	0x3df3c1d1	0.11902202
11	0x3df72c42	0.120689884
12	0xbf058d85	-0.52169067
13	0x3e8b3e1a	0.27195817
14	0xbeb1d158	-0.3473003
15	0x3eed1471	0.46304658
16	0x3e3d1613	0.18465452
17	0x3e303321	0.17207004
18	0xbe59e679	-0.21279325
19	0x3f0f0e0d	0.55880815
20	0x3cc8156f	0.024424283
21	0x3dc924b5	0.098214544
22	0x3e3ceb0e	0.18449041
23	0xbda16964	-0.0788143
24	0xbeb2dcad	-0.34933987
25	0xbf3c215c	-0.734884
26	0x3d9f7098	0.077851474
27	0xbf17082f	-0.5899686
28	0x3e9fd782	0.31219107
29	0xbd9ecbec	-0.07753739
30	0xbe9cf98d	-0.30659142
31	0xbedc8084	-0.430668
32	0x3e83dbf9	0.25753763
33	0xbe4f9698	-0.2027229
34	0x3f26706a	0.6501528
35	0x3f065420	0.52472115
36	0x3d5b623d	0.053560484
37	0xbd807199	-0.06271667
38	0xbe9e31a9	-0.30897263
39	0xbe1aa122	-0.1510053
40	0xbeb0ca47	-0.34529325
41	0x3ea7f1a0	0.32801533
42	0xbe591255	-0.211984
43	0x3f4c86ba	0.79893076
44	0xbc79e9dd	-0.015253511
45	0xbe7376e9	-0.2377583
46	0xbe3325f9	-0.17494954
47	0xbf54e547	-0.8316235
48	0x3e3ea5f2	0.1861799
49	0xbede7a46	-0.43452662
50	0x3efc19bf	0.49238393
51	0x3f5ea963	0.86977214
52	0x3ed3d421	0.4137278
53	0x3de598f7	0.11210816
54	0x3e0244de	0.12721583
55	0x3f13aa8f	0.57682127
56	0xbed33238	-0.4124925
57	0xbe8ce272	-0.27516514
58	0x3f3d2ebb	0.7389943
59	0xbf112cb3	-0.5670883
60	0xbf01a430	-0.50641155
61	0x3f27d59d	0.65560323
62	0xbf42b228	-0.76053095
63	0x3cfb4476	0.030672293
64	0x3dd7e560	0.10541797
65	0x3eb0cfcb	0.34533533
66	0xbd2be03d	-0.041961897
67	0xbef2a4de	-0.4739141
68	0xbf20e035	-0.6284211
69	0x3e2fb27e	0.17157933
70	0xbe02a21a	-0.1275715
71	0x3cd307bb	0.025760522
72	0x3df471a1	0.119357355
73	0xbeeedb9b	-0.4665192
74	0x3dda0d23	0.10647037
75	0xbe98d706	-0.2985155
76	0x3ed4c3ea	0.4155572
77	0x3d9fc52c	0.078012794
78	0x3e9f189c	0.31073463
79	0xbe4948d3	-0.19656686
80	0xbea1ba23	-0.31587324
81	0x3e4f30b4	0.20233423
82	0x3ed16b79	0.40902308
83	0xbecf280f	-0.4046025
84	0x3f1f8c3a	0.62323344
85	0xbeb0b9ed	-0.3451685
86	0x3eefcd71	0.46836427
87	0xbebd85e8	-0.37016225
88	0x3f16fb9f	0.58977693
89	0xbe953d41	-0.29148296
90	0x3e90ab49	0.2825568
91	0x3f6b34ac	0.91877246
92	0xbe3d4339	-0.18482675
93	0xbe767754	-0.24068958
94	0x3deab375	0.1146001
95	0xbf466a59	-0.77506024
96	0xbeb7abf9	-0.35873392
97	0x3ee4f4ea	0.44718105
98	0xbe5bbf26	-0.21459636
99	0x3f0a475a	0.54015124
100	0xbf868155	-1.0508219
101	0x3f3165fd	0.69296247
102	0xbf4c022b	-0.7969081
103	0x3e24da80	0.16098976
104	0x3db09952	0.086229935
105	0xbe0c1334	-0.136792
106	0x3da31cf0	0.07964504
107	0x3f403053	0.75073737
108	0x3e13d229	0.14435638
109	0xbb34493d	-0.0027509474
110	0x3e9f4bbb	0.31112465
111	0x3cb5d865	0.022197912
112	0xbe2d9829	-0.16952576
113	0xbef4cba9	-0.4781163
114	0xbd1558d4	-0.036461666
115	0x3e218e94	0.15777045
116	0x3f04bbb4	0.5184891
117	0x3e0a333f	0.13496111
118	0xbd3ab2c2	-0.045580633
119	0xbee8682f	-0.45391986
120	0xbed930ad	-0.4241995
121	0xbe08bfc4	-0.13354403
122	0x3f1bab8b	0.6080863
123	0xbe879e09	-0.2648776
124	0x3ec8a2ca	0.39186698
125	0x3e2d3d80	0.16917992
126	0x3e89687c	0.26837528
127	0xbec3c3dc	-0.38235366
128	0xbeb331bb	-0.3499888
129	0xbe9bc9f6	-0.3042752
130	0xbd8a1713	-0.06742682
131	0x3e8c5e39	0.27415636
132	0xbe806ac8	-0.25081468
133	0xbf0bebb4	-0.5465653
134	0x3eebdc3d	0.46066466
135	0xbf047d61	-0.51753813
136	0x3f3e5ebc	0.74363303
137	0x3e3ecb34	0.18632203
138	0x3e594be7	0.2122036
139	0xbc2da95f	-0.010599463
140	0xbec8890a	-0.39167053
141	0xbe4dabf3	-0.20085125
142	0xbe2748ad	-0.16336317
143	0x3e205a9f	0.15659569
144	0xbeb708db	-0.35748944
145	0x3e7a0968	0.2441765
146	0x3e566d19	0.20940055
147	0xbe966470	-0.29373503
148	0x3edd4b6d	0.43221608
149	0x3ec58f6a	0.3858598
150	0xbe6c328b	-0.23066156
151	0x3d7aa033	0.061187934
152	0xbe141756	-0.14462027
153	0xbddf503e	-0.10903977
154	0xbd25afc1	-0.040450815
155	0xbec5389d	-0.38519755
156	0x3e6e31b5	0.23261149
157	0x3e389d61	0.18028785
158	0xbe2aa5a8	-0.16664755
159	0xbdcf0958	-0.10109204
160	0x3eaf3f8c	0.3422817
161	0xbf3fb5d3	-0.74886817
162	0x3d534407	0.051578548
163	0x3aeff6f7	0.0018307854
164	0x3e2df787	0.16988955
165	0x3d8d6868	0.069046795
166	0x3f22986c	0.6351383
167	0x3eb1f0ee	0.34754127
168	0x3e75b986	0.23996553
169	0x3e57ac60	0.2106185
170	0xbe47b24a	-0.19501606
171	0x3f1777a5	0.5916694
172	0xbecb00f3	-0.39649162
173	0x3dd990f7	0.10623353
174	0xbe9f9fb3	-0.31176528
175	0xbe820321	-0.25393012
176	0x3ef098d0	0.46991587
177	0xbd388005	-0.045043964
178	0xbe89f2a0	-0.2694292
179	0xbe9f7e16	-0.31150883
180	0xbf6a81f0	-0.9160452
181	0x3e9d5b53	0.30733737
182	0x3e612924	0.2198835
183	0x3ea28a6e	0.31746238
184	0x3f21f047	0.6325726
185	0x3ed9ea37	0.42561504
186	0x3ea9776a	0.33098918
187	0xbf18b764	-0.5965483
188	0x3e787982	0.24265102
189	0xbdca52e8	-0.09879094
190	0x3f07ecab	0.530955
191	0xbf1af8ce	-0.60535896
192	0xbeb3737f	-0.35049054
193	0xbd63c312	-0.055605955
194	0x3eb21ddc	0.34788406
195	0x3da8ae2c	0.08236346
196	0xbf2320ed	-0.63722116
197	0xbe860723	-0.2617732
198	0xbd2b70e7	-0.04185572
199	0xbe89fc7b	-0.2695044
200	0xbd9f42d1	-0.07776416
201	0x3f08f4a0	0.5349827
202	0x3ecfe838	0.40606856
203	0x3e3d73a6	0.18501148
204	0xbe8be518	-0.27323222
205	0x3ef715d6	0.48258847
206	0x3e29a0b8	0.16565216
207	0xbe6c4872	-0.2307451
208	0x3e40223b	0.18763058
209	0xbf3db534	-0.7410462
210	0x3d79ffe0	0.061035037
211	0x3edbd18f	0.42933318
212	0xbe6f6fa8	-0.23382437
213	0xbe012dcc	-0.12615126
214	0x3ec11c61	0.37716964
215	0xbe3d9e9c	-0.18517536
216	0xbddc2a68	-0.10750276
217	0x3ecb35d9	0.3968952
218	0xbead4725	-0.3384334
219	0x3f007c11	0.5018931
220	0x3e432732	0.1905792
221	0x3e7f0d36	0.24907383
222	0x3f026a1e	0.5094317
223	0xbebb0cc1	-0.36533168
224	0x3e12281c	0.14273113
225	0xbeb1455b	-0.34623227
226	0x3e74a08b	0.23889367
227	0xbf153abb	-0.5829274
228	0xbdca5abf	-0.0988059
229	0xbcd0fa70	-0.025510043
230	0xbe6fb834	-0.23410112
231	0x3e823279	0.25429133
232	0x3f834d79	1.0258018
233	0x3e40b87f	0.1882038
234	0xbe281170	-0.16412902
235	0x3e5acfad	0.21368285
236	0xbdf1bd94	-0.11803737
237	0xbe1d8625	-0.15383203
238	0xbd9ff835	-0.078110136
239	0x3d45afc8	0.04826334
240	0xbe1e8ddd	-0.15483804
241	0xbe50d2be	-0.20392892
242	0x3dab7757	0.08372372
243	0xbf199c13	-0.60003775
244	0xbda696cc	-0.08134231
245	0x3ec07c58	0.37594867
246	0x3e43928f	0.19098876
247	0x3d67d6fe	0.056601517
248	0x3eccc121	0.39991096
249	0xbe2e69eb	-0.17032592
250	0x3f14c313	0.5811016
251	0xbc413a94	-0.011793751
252	0xbf35859f	-0.70907015
253	0x3b304932	0.0026899097
254	0xbd72bc69	-0.059261713
255	0x3dd939d2	0.106067315

features.0.bn.weight f4 [32]
0	0x3f80e78a	1.007066
1	0x3f8210eb	1.0161413
2	0x3f7cd3fa	0.9876095
3	0x3f8152d4	1.0103402
4	0x3f76937d	0.963188
5	0x3f81766e	1.0114267
6	0x3f820269	1.0156986
7	0x3f78a971	0.9713355
8	0x3f85a57e	1.0441129
9	0x3f7d597f	0.98964685
10	0x3f829776	1.0202472
11	0x3f82a1a1	1.0205575
12	0x3f7bb6da	0.98325884
13	0x3f7a47c0	0.9776573
14	0x3f81f3a4	1.0152478
15	0x3f7b98af	0.9827985
16	0x3f81339a	1.0093873
17	0x3f813087	1.0092934
18	0x3f808f33	1.0043701
19	0x3f7db47b	0.99103516
20	0x3f825b71	1.0184156
21	0x3f7beaa8	0.9840493
22	0x3f800886	1.0002601
23	0x3f80c68c	1.0060592
24	0x3f82b9da	1.0212967
25	0x3f7685ae	0.9629773
26	0x3f8415e1	1.0319177
27	0x3f7b7483	0.9822466
28	0x3f7fe308	0.999558
29	0x3f7d0e1c	0.98849654
30	0x3f6f6fb9	0.9352985
31	0x3f7e8d52	0.9943439

features.0.bn.bias f4 [32]
0	0x3ca02ace	0.01955166
1	0x3cb11e6f	0.021620957
2	0x3c8a0587	0.016848339
3	0xbb58e925	-0.003309795
4	0x3d04d172	0.032426305
5	0x3cdd30ff	0.027000902
6	0x3cc628bf	0.024189351
7	0xbbc7a669	-0.0060928357
8	0x3c199770	0.009374484
9	0x3cdf66db	0.027270725
10	0xbaad1878	-0.0013206145
11	0x3b70c0f5	0.0036736105
12	0xbccc1352	-0.024911556
13	0xb887acf8	-6.4695196e-05
14	0x3c517ce3	0.012786123
15	0xbb973782	-0.0046147713
16	0xbd066a81	-0.032816414
17	0xbd2d45c0	-0.042302847
18	0x3c033556	0.008008322
19	0xbc84e2da	-0.016221453
20	0x3c50b630	0.012738749
21	0x3c206f26	0.009792125
22	0x3b2bac62	0.0026195277
23	0x3cd405d7	0.02588169
24	0xbc98042c	-0.018556677
25	0xbaaa551a	-0.0012995333
26	0x3ba1b46f	0.0049348394
27	0x3c980227	0.018555714
28	0x3cd23788	0.025661245
29	0x3b360530	0.0027774088
30	0xbc442879	-0.01197254
31	0x3c2b1379	0.010441654

features.0.bn.running_mean f4 [32]
0	0xbb776efc	-0.003775536
1	0xbbeec2d7	-0.0072864103
2	0x3aca51a2	0.0015435705
3	0x3c849676	0.016185027
4	0xbc37adde	-0.011210887
5	0xba27404a	-0.0006380124
6	0x3ba5c5e1	0.0050589894
7	0x3be18876	0.0068827225
8	0xb9d5d5e6	-0.00040785893
9	0xb94050a0	-0.00018340582
10	0xbb0a971f	-0.0021147204
11	0x3ba6548e	0.0050759977
12	0xbbfa9e98	-0.0076483004
13	0x3c056dba	0.008143837
14	0xbb838f44	-0.0040148813
15	0x3c3b9824	0.011449847
16	0x3bb651b2	0.005563938
17	0x3bd96483	0.0066342964
18	0xbaf4ce76	-0.0018677253
19	0x3b80874b	0.003922378
20	0x3c792f55	0.015209039
21	0x3c198b2e	0.009371562
22	0x3c634c02	0.013873102
23	0x3d0d02f4	0.034426644
24	0x3b888955	0.004166762
25	0x3c416e2a	0.01180605
26	0x3ad7b352	0.001645664
27	0x3bb8c804	0.005639078
28	0x3b50b3b4	0.0031845393
29	0x3afde80f	0.0019371527
30	0xbc9082df	-0.01764053
31	0x3af4e58c	0.0018684133

features.0.bn.running_var f4 [32]
0	0x3f7b97f9	0.98278767
1	0x401ec8a0	2.4809952
2	0x3e83e647	0.25761625
3	0x408a97a2	4.33101
4	0x3fbbe5b3	1.4679474
5	0x3dd4d6af	0.1039251
6	0x3f9cf2e7	1.2261628
7	0x3fc0c655	1.5060526
8	0x3f474f36	0.7785524
9	0x3f8dc77c	1.1076503
10	0x3ee81fbd	0.45336714
11	0x3f9d0cf4	1.2269578
12	0x3fccf37c	1.6011806
13	0x400ea02e	2.2285266
14	0x3f82d2a1	1.0220529
15	0x3fb6fae9	1.4295322
16	0x3ff58b0a	1.9183056
17	0x40024809	2.0356467
18	0x3f755b28	0.9584222
19	0x40807d9c	4.015333
20	0x40268b98	2.6022701
21	0x3ff01995	1.8757807
22	0x407ecfb8	3.9814281
23	0x41579c57	13.475669
24	0x3ff93999	1.9470702
25	0x3fc4de17	1.5380276
26	0x3eaff5bd	0.3436717
27	0x3eff22bf	0.49831197
28	0x3f2aa204	0.66653466
29	0x3eee626f	0.46559474
30	0x405f62dd	3.4904091
31	0x3fd66e02	1.6752322

features.1.conv.weight f4 [64, 32, 5]
0	0xbd9b33ac	-0.07578215
1	0x3d158842	0.0365069
2	0x3cefe151	0.029282244
3	0x3de65c55	0.1124808
4	0xbd45b098	-0.048264116
5	0xbd95acdc	-0.07308361
6	0xbe03f645	-0.12886913
7	0xbe0f8d98	-0.14018857
8	0x3e345416	0.17610201
9	0xbde71266	-0.11282806
10	0xbdefa57d	-0.11701486
11	0xbd81181a	-0.06303425
12	0x3ca987c5	0.020694623
13	0x3d9f528a	0.07779415
14	0x3da8d7ff	0.08244323
15	0xbd9e5b60	-0.07732272
16	0x3d898dea	0.06716521
17	0x3e134168	0.14380419
18	0xbe413d1f	-0.18870972
19	0xbba8fca2	-0.0051570693
20	0xbe592562	-0.21205667
21	0xbc9e7d30	-0.019346803
22	0x3d1ba2d3	0.03799708
23	0xbc5fd2bb	-0.013661082
24	0xbdc2a8dd	-0.09504864
25	0x3dc7da19	0.09758396
26	0xbccbc94a	-0.024876256
27	0xbe0491c2	-0.12946227
28	0x3c1e6245	0.009666984
29	0xba6ed66f	-0.00091109326
30	0xbe0744be	-0.13209817
31	0x3e2431cc	0.16034621
32	0x3c9d06ba	0.019168247
33	0xbe06d9db	-0.13169043
34	0x3d13778b	0.036002677
35	0xbd3082b5	-0.043093402
36	0x3d8452ab	0.0646108
37	0x3d11087a	0.035408475
38	0xbd9f3985	-0.07774643
39	0xbe031769	-0.12801899
40	0x3e1a660e	0.15077993
41	0x3d70002f	0.058593925
42	0xbd4e7f45	-0.050414342
43	0xbd9ca7f1	-0.0764922
44	0x3e6a5441	0.22883703
45	0xbd032dac	-0.032025978
46	0xbe11a4e6	-0.1422306
47	0x3e2ebef8	0.17065036
48	0xbc3a2ac6	-0.011362737
49	0x3e6976b6	0.22799191
50	0xbe7f7c1f	-0.24949692
51	0x3cccf2bf	0.025018094
52	0xbe0096df	-0.12557553
53	0xbdde8f1b	-0.10867139
54	0xbd00b883	-0.031425964
55	0xbbf75e2c	-0.007549068
56	0xbdae3873	-0.085068606
57	0xbdbd56f4	-0.092451006
58	0xbda35b9e	-0.07976459
59	0xbb116107	-0.0022183077
60	0xbce865cf	-0.028368859
61	0x3e56071d	0.20901151
62	0xbc9a964d	-0.018870497
63	0x3d0e9ba5	0.034816403
64	0x3d6d0b73	0.057872247
65	0x3d73f379	0.059558365
66	0x3d503d31	0.050839607
67	0x3d3ce82b	0.04611985
68	0x3dc7d888	0.09758097
69	0xbdf6e2e6	-0.12054996
70	0x3e0a5ae1	0.1351123
71	0xbaa3b0e8	-0.0012488635
72	0xbdd7785a	-0.10521002
73	0xbe4bf846	-0.19918928
74	0xbd838da8	-0.06423503
75	0xbe0e87a7	-0.13918935
76	0x3e33413e	0.17505357
77	0xbe51a25f	-0.20472096
78	0xbcf70c9d	-0.030157382
79	0x3d9bfe64	0.076168805
80	0xbe59410d	-0.21216221
81	0x3db807de	0.089858755
82	0xbcb6471f	-0.02225071
83	0x3df4ddc1	0.11956359
84	0xbe34e53d	-0.17665572
85	0x3d6185e1	0.055059317
86	0x3d61ecef	0.055157598
87	0x3ca40983	0.020024067
88	0xbe39ff6f	-0.18163846
89	0x3d679fe8	0.056548983
90	0xbd8436ba	-0.06455751
91	0xbe308b35	-0.17240603
92	0x3dc928a7	0.09822207
93	0xbc5c1e48	-0.013434954
94	0x3e917f01	0.2841721
95	0xbcf162b3	-0.029466009
96	0x3d459125	0.048234124
97	0xbd8deac1	-0.069295414
98	0x3d837231	0.06418265
99	0xbe20a20e	-0.15686819
100	0x3e380dfd	0.17974086
101	0x3dd97737	0.106184416
102	0x3da935ee	0.082622394
103	0xbd523677	-0.051321473
104	0x3d8072e1	0.062719114
105	0x3db81235	0.08987848
106	0xbd89a8ef	-0.06721675
107	0xbd282c50	-0.041057885
108	0x3e01e56e	0.12685177
109	0xbda33aa9	-0.07970173
110	0xbdfd84d4	-0.123788506
111	0x3cfb3c82	0.0306685
112	0x3d375f30	0.044768512
113	0xbdc027c8	-0.09382588
114	0x3d3cbb4d	0.04607706
115	0x3d660dc9	0.05616549
116	0xbd858074	-0.06518641
117	0xbdf4eddc	-0.119594306
118	0x3d17aef3	0.03703208
119	0x3d62b355	0.055346806
120	0xbd35335a	-0.044238426
121	0xbe1b3e80	-0.1516056
122	0xbe0a42f0	-0.13502097
123	0xbe18cc3e	-0.14921662
124	0xbd7d00e0	-0.061768413
125	0x3d58ab5d	0.0528978
126	0x3d4618ac	0.048363373
127	0x3d87bc6b	0.06627735
128	0x3d063252	0.032762833
129	0x3d50f5ee	0.051015787
130	0x3d16a104	0.03677465
131	0x3e006aa2	0.12540677
132	0xbd083028	-0.03324905
133	0xbe40a264	-0.18811947
134	0xbe4ef895	-0.20212014
135	0x3cad9a5b	0.021191766
136	0xbe26e916	-0.16299853
137	0x3d54f3c8	0.0519903
138	0x3d8bc02f	0.068237655
139	0xbe0f7660	-0.1401
140	0x3c7da5fc	0.015481468
141	0x3ca79969	0.020458894
142	0xbe01aecf	-0.1266434
143	0xbdb1a86c	-0.08674702
144	0x3dc849e0	0.097797155
145	0x3d8afaae	0.067860946
146	0x3e104fdf	0.14092968
147	0xbdee6365	-0.11640052
148	0x3e528b6c	0.20560998
149	0x3a9eedc2	0.0012125301
150	0x3e1ab757	0.15109001
151	0x3d5ece69	0.054396067
152	0xbd45859b	-0.04822312
153	0x3dea3c11	0.11437238
154	0x3bdcd6aa	0.006739457
155	0xbe1de686	-0.15419969
156	0xbb576845	-0.0032868546
157	0xbe1d2e9d	-0.15349813
158	0x3bcf55da	0.006327373
159	0xbce6ea8a	-0.028188009
160	0x3e1ae73c	0.15127271
161	0x3d380e68	0.044935614
162	0xbdd7f0a3	-0.10543945
163	0x3de19d75	0.11016361
164	0xbe3ab2a3	-0.18232207
165	0x3de550e9	0.11197073
166	0xbd7d94b7	-0.061909404
167	0xbe140ecb	-0.14458768
168	0xb8f467bc	-0.00011654149
169	0xbdf3383f	-0.118759625
170	0x3c6e1898	0.014532231
171	0xbcd7cf5c	-0.026343994
172	0x3b908eef	0.0044115703
173	0x3d9441b5	0.07239095
174	0x3dadca89	0.08485896
175	0x3e079187	0.13239108
176	0xbdd136f6	-0.10215561
177	0xbe142bbc	-0.14469808
178	0xbd1d92fc	-0.038470253
179	0xbe158f04	-0.14605337
180	0x3cb8c8d1	0.022556694
181	0xbd215e39	-0.0393965
182	0x3c6a1483	0.014287117
183	0x3e22aa60	0.15885305
184	0x3afec72e	0.0019438022
185	0x3e2dc15f	0.16968296
186	0x3e129ce2	0.14317659
187	0xbd98b1b1	-0.07455767
188	0xbcad1894	-0.021129884
189	0x3d776753	0.060401272
190	0xbdf0aa19	-0.117511936
191	0xbbc336cb	-0.0059574596
192	0xbd914a86	-0.07094292
193	0xbcad1164	-0.021126457
194	0xbdbef0ca	-0.093232706
195	0x3d5c57aa	0.05379454
196	0xbd701e69	-0.05862275
197	0x3dc1e402	0.09467317
198	0x3c2d52ae	0.010578794
199	0xbd0d34ec	-0.0344743
200	0x3d6c7a4b	0.057733815
201	0x3e006c1e	0.12541243
202	0x3d5167e8	0.051124483
203	0xbdb3cdff	-0.08779525
204	0xbd9d47e8	-0.07679731
205	0xbe091d2b	-0.13390033
206	0xbe6200d9	-0.22070636
207	0xbc93085c	-0.017948322
208	0x3e34af0b	0.17644899
209	0xbd1359bd	-0.035974253
210	0xbdaf173f	-0.08549356
211	0xbde6d316	-0.1127073
212	0x3c8ccbc9	0.017187016
213	0x3e041795	0.12899621
214	0xbcebb183	-0.028771168
215	0x3e1ae2ff	0.15125655
216	0xbe367a1e	-0.17820022
217	0x3d146d2a	0.03623692
218	0xb9a83a64	-0.0003208696
219	0xbc97c170	-0.018524855
220	0xbd8db84c	-0.069199175
221	0xbd5dd618	-0.054159254
222	0xbe98def9	-0.29857615
223	0xbd28092c	-0.041024372
224	0xbde239df	-0.11046194
225	0xbd7a49b9	-0.061105464
226	0x3d5fac35	0.05460759
227	0xbe359a09	-0.17734541
228	0xbe2c5d4f	-0.1683247
229	0xbe4a90f9	-0.19781865
230	0x3dfc290a	0.12312515
231	0x3c71016c	0.014709812
232	0x3cf37bf0	0.029722184
233	0x3d6ab4ab	0.057301205
234	0x3caee8ed	0.021351302
235	0x3ba51eb8	0.0050390624
236	0xbd3e8773	-0.046515893
237	0xbdfebde3	-0.12438562
238	0xbe477f51	-0.19482161
239	0x3d2669b0	0.040628135
240	0xbde8adda	-0.113612846
241	0x3a8b7815	0.0010640646
242	0xbe1e6429	-0.15467896
243	0xbda43475	-0.08017818
244	0xbcfeb198	-0.031090543
245	0xbd145e8d	-0.036222983
246	0xbd0f484d	-0.03498106
247	0xbdff2b8c	-0.12459478
248	0x3ce56dbe	0.02800643
249	0x3d9cdcea	0.076593235
250	0x3d904c89	0.07045848
251	0x3d2101e1	0.039308432
252	0x3de7a1d3	0.113101624
253	0xbbb3777c	-0.00547689
254	0x3d0abe8d	0.03387313
255	0xbd3fbf60	-0.04681337

features.1.bn.weight f4 [64]
0	0x3f81a88f	1.0129565
1	0x3f804803	1.0021976
2	0x3f8033dc	1.0015826
3	0x3f80d782	1.0065768
4	0x3f7629a8	0.9615731
5	0x3f772dc8	0.9655423
6	0x3f77b9ec	0.9676807
7	0x3f83b257	1.02888
8	0x3f7d3c71	0.9892035
9	0x3f796473	0.974189
10	0x3f8144bf	1.0099105
11	0x3f7a7756	0.9783834
12	0x3f796c32	0.9743072
13	0x3f7e361c	0.99301314
14	0x3f830f79	1.0239097
15	0x3f7f2e36	0.9967989
16	0x3f7d775e	0.99010265
17	0x3f84755e	1.0348318
18	0x3f86331f	1.0484351
19	0x3f80cc80	1.0062408
20	0x3f7a72af	0.97831243
21	0x3f742afe	0.953781
22	0x3f760d94	0.9611447
23	0x3f801040	1.0004959
24	0x3f86eed6	1.0541637
25	0x3f84b5a9	1.0367938
26	0x3f888cf7	1.0668019
27	0x3f7ac8aa	0.9796244
28	0x3f7d88a3	0.99036616
29	0x3f755e8a	0.9584738
30	0x3f832d83	1.0248264
31	0x3f6fb7d2	0.9363986
32	0x3f807c20	1.003788
33	0x3f798d48	0.97481203
34	0x3f822e50	1.0170383
35	0x3f763cdc	0.96186614
36	0x3f7b1967	0.98085636
37	0x3f810014	1.0078149
38	0x3f8584b1	1.0431119
39	0x3f8103ad	1.0079247
40	0x3f6e96b6	0.93198717
41	0x3f7a6ac4	0.9781916
42	0x3f79cefc	0.9758146
43	0x3f7a1f81	0.9770432
44	0x3f76ad4c	0.9635818
45	0x3f727133	0.9470398
46	0x3f79478a	0.97374785
47	0x3f7ab328	0.9792962
48	0x3f84906c	1.0356574
49	0x3f7e2b96	0.99285257
50	0x3f855192	1.0415518
51	0x3f7e3b8a	0.993096
52	0x3f7d266f	0.9888677
53	0x3f7fd188	0.99929094
54	0x3f799a61	0.9750119
55	0x3f823a06	1.0173957
56	0x3f7ec6da	0.99522173
57	0x3f7faf01	0.9987641
58	0x3f7d6f94	0.9899838
59	0x3f7a7f4c	0.9785049
60	0x3f8332ca	1.0249875
61	0x3f80eb8e	1.0071886
62	0x3f8342f5	1.0254809
63	0x3f77926b	0.9670779

features.1.bn.bias f4 [64]
0	0xbb865a2b	-0.0041001043
1	0xbb660276	-0.0035096682
2	0xbd0b5912	-0.03402049
3	0x3b7b66f6	0.003836093
4	0xbb3c816f	-0.0028763672
5	0x3bcdef19	0.006284606
6	0xbbef9f80	-0.007312715
7	0xbc45af10	-0.012065664
8	0xbd856194	-0.06512752
9	0x3abe2c07	0.0014508971
10	0x3d80a2c6	0.062810466
11	0xbc36b59c	-0.0111516975
12	0xbd9349ce	-0.071918115
13	0xbd7f92e6	-0.062395953
14	0x3cd0e95a	0.025501896
15	0xbcd597a5	-0.026073286
16	0x3c998264	0.018738933
17	0x3c107e8a	0.008819232
18	0x3c475dc6	0.012168353
19	0x3bf2713e	0.0073987534
20	0xbc6c74a6	-0.014432108
21	0xbcba32c8	-0.022729293
22	0xbd6273c3	-0.05528618
23	0xbcc65da6	-0.024214577
24	0x3d74679f	0.059669133
25	0xbae79ebd	-0.0017671209
26	0x3d5ededc	0.054411754
27	0xbc37e962	-0.011225076
28	0xbba4fa1a	-0.0050346972
29	0xbc085d9f	-0.008323102
30	0xbbded16c	-0.0067998674
31	0xbd66527e	-0.056231014
32	0x3d09cd8a	0.033643283
33	0xbd031220	-0.031999707
34	0x3b8345d9	0.004006129
35	0xbdc74c74	-0.09731379
36	0xbbad3c56	-0.0052867336
37	0xbd5004d0	-0.05078584
38	0xbe0f1455	-0.139726
39	0x3beac7e7	0.0071649435
40	0xbd531656	-0.051534973
41	0x3c26579a	0.010152722
42	0xbc0d16db	-0.008611406
43	0xbcc8575b	-0.024455717
44	0xbcf8c672	-0.030368064
45	0xbaa41601	-0.0012518765
46	0xbd4cb372	-0.04997582
47	0xbdbce854	-0.092240006
48	0x3c6353ba	0.013874942
49	0xbd9266d1	-0.07148517
50	0x3d3b3fb0	0.045715034
51	0xbbe4c1a6	-0.0069810925
52	0xbcbd36be	-0.023097392
53	0xbd884778	-0.066542566
54	0xbc5a30bc	-0.013317283
55	0x3c7abc05	0.015303616
56	0xbc0e34b2	-0.008679556
57	0x3bf3fc7f	0.0074458714
58	0xbaac7fa1	-0.0013160595
59	0xbc7b395b	-0.015333499
60	0x3ca3d319	0.01999812
61	0xbca5c0d1	-0.020233544
62	0x3d21258a	0.03934244
63	0xbd123993	-0.03569944

features.1.bn.running_mean f4 [64]
0	0xbeed47d1	-0.46343854
1	0xbf1ad3f6	-0.60479677
2	0x3f23add4	0.63937116
3	0xbe7a88ee	-0.24466297
4	0xbe7e2673	-0.24819355
5	0xbeca124b	-0.3946708
6	0x3ecf8791	0.40533116
7	0xbfbef57a	-1.4918664
8	0xbe04b4e5	-0.12959631
9	0x3e6f2348	0.23353302
10	0xbeeec61e	-0.46635526
11	0xbe0e9e4d	-0.13927574
12	0xbc5b0a47	-0.0133691495
13	0x3f67182e	0.9027127
14	0xbf590532	-0.8477355
15	0x3fa05067	1.2524537
16	0x3ebc9f01	0.3684006
17	0xbfc341d0	-1.5254459
18	0xbf9c5b6c	-1.22154
19	0x3f0f4609	0.5596624
20	0xbf0a68b1	-0.54065996
21	0xbda84685	-0.082165755
22	0x3e8a359e	0.26994032
23	0x3e33289f	0.17495964
24	0xbf8fae5d	-1.1225086
25	0xbf6fcf20	-0.9367542
26	0xbf2a3de2	-0.66500676
27	0x3d183b5b	0.03716598
28	0xbf1464db	-0.57966393
29	0x3eb3a9c6	0.35090464
30	0xbe137d6c	-0.14403313
31	0xbeba0c9b	-0.36337742
32	0xbef983e8	-0.4873345
33	0x3f3085b4	0.68954015
34	0xbe8a7920	-0.27045536
35	0xbf4867be	-0.782833
36	0xbf8398bb	-1.0280985
37	0x3e926d1c	0.2859887
38	0x3d3464ad	0.044041324
39	0xbec42f5e	-0.38317388
40	0xbeb9d177	-0.36292621
41	0x3d63fe83	0.055662643
42	0x3da6ef26	0.08151083
43	0x3e13eb56	0.14445242
44	0x3f25741f	0.6463031
45	0xbef52cf4	-0.4788586
46	0xbd1efe91	-0.038816992
47	0x3d539a7d	0.051661003
48	0xbf2da408	-0.67828417
49	0x3f331243	0.6994974
50	0xbf647fb1	-0.8925734
51	0xbdad98dd	-0.08476422
52	0xbe27fa24	-0.16404015
53	0x3e811752	0.25213104
54	0xbf77437d	-0.96587354
55	0x3e4e8144	0.20166498
56	0x3f66a568	0.9009614
57	0xbf724000	-0.94628906
58	0xbcde4117	-0.027130647
59	0xbf1a219e	-0.60207546
60	0xbf29cd3b	-0.6632878
61	0x3dade359	0.08490629
62	0xbfa3290a	-1.2746899
63	0xbe01d497	-0.12678753

features.1.bn.running_var f4 [64]
0	0x3f33841f	0.70123476
1	0x3fbfb555	1.4977213
2	0x3fafe672	1.3742201
3	0x3f8ef6a3	1.1169018
4	0x3f7c677e	0.98595417
5	0x3f687f17	0.90818924
6	0x3f9b532e	1.213476
7	0x4076a4db	3.853812
8	0x3f6d9b69	0.9281526
9	0x3fd4a7a2	1.6613657
10	0x3f85cea3	1.0453686
11	0x3f83961b	1.0280184
12	0x3ee6fc0d	0.45114174
13	0x40033075	2.0498326
14	0x40806dc9	4.0134015
15	0x4063408b	3.5508144
16	0x3f5602d3	0.8359806
17	0x407181e5	3.7735531
18	0x404a03fd	3.1564934
19	0x3f7fee58	0.9997306
20	0x3fdce976	1.7258747
21	0x3fc7a768	1.5597963
22	0x3f1b7834	0.6073029
23	0x3fbe5b66	1.4871643
24	0x4004b4e5	2.073541
25	0x4003321d	2.0499337
26	0x3f866677	1.050002
27	0x3f9ca9e5	1.2239348
28	0x3fa5e238	1.2959661
29	0x3f553d86	0.83297
30	0x3f847da6	1.0350845
31	0x3fd09740	1.6296158
32	0x3f6417a6	0.89098585
33	0x3f360272	0.7109748
34	0x3f28d458	0.6594901
35	0x3ffdfffc	1.9843745
36	0x3ff47a25	1.9099776
37	0x3fa15f4e	1.260721
38	0x3e7914d3	0.2432435
39	0x3f2d31d0	0.6765413
40	0x3f889674	1.0670915
41	0x3fed57b2	1.8542387
42	0x3fc534d8	1.5406752
43	0x3f9ad0c1	1.2094957
44	0x3fc7f1d0	1.562067
45	0x400ae1b1	2.170025
46	0x3f6da63e	0.9283179
47	0x3f2c6498	0.67340994
48	0x3f807af4	1.0037522
49	0x3faab527	1.3336533
50	0x3fe49156	1.7856853
51	0x3f2d006a	0.67578757
52	0x3f395749	0.7239881
53	0x3f6ffc00	0.93743896
54	0x3fd4f65c	1.6637683
55	0x3f81ab21	1.0130349
56	0x404572c0	3.0851288
57	0x40064a97	2.0983026
58	0x3f5eb722	0.8699819
59	0x3f972e4a	1.1811001
60	0x3fa19486	1.2623451
61	0x3f6af9f9	0.9178768
62	0x40296c00	2.6472168
63	0x3ffe4e4e	1.9867647

features.2.conv.weight f4 [128, 64, 5]
0	0x3d2e3bc5	0.04253747
1	0xbda9da16	-0.0829355
2	0x3d95a38d	0.073065855
3	0xbe145fce	-0.14489672
4	0x3d6bd779	0.057578538
5	0xbd72be64	-0.059263602
6	0xbd238020	-0.03991711
7	0x3c7900e4	0.015197966
8	0xbb947b92	-0.0045313323
9	0x3d4d8bc0	0.050182104
10	0xbe505531	-0.20344998
11	0xbcb9cbe5	-0.022680232
12	0xbe56e5dd	-0.20986123
13	0x3cca2f08	0.02468063
14	0x3b828855	0.003983537
15	0xbda5f985	-0.08104233
16	0x3d5fa628	0.05460182
17	0x3dbdb333	0.09262695
18	0xbd1144e7	-0.0354661
19	0xbe094961	-0.13406898
20	0xbd594e7c	-0.053053364
21	0xbd430919	-0.047616098
22	0x3dc33b4a	0.09532793
23	0xbd141780	-0.036155224
24	0x3db0acb6	0.08626692
25	0xbce8166d	-0.028331006
26	0xbdad8386	-0.08472352
27	0xbd1a3c1c	-0.03765498
28	0x3d1b12aa	0.037859596
29	0xbc99cde9	-0.018774943
30	0x3cb33089	0.02187373
31	0xbd4e146d	-0.05031245
32	0xbcfa6187	-0.030564083
33	0x3d4c2a9e	0.04984533
34	0x3d6ac737	0.057318892
35	0xbe0d47ec	-0.13796967
36	0x3e198cd6	0.14995131
37	0x3c696f2f	0.0142477
38	0x3d888370	0.06665695
39	0xbd8a696d	-0.067583896
40	0x3dae4598	0.08509368
41	0x3d841ca4	0.06450775
42	0xbd4e3de3	-0.05035199
43	0x3d0c9baf	0.03432816
44	0x3d2210bc	0.03956674
45	0xbe08c516	-0.13356432
46	0x3d1b283a	0.03788016
47	0x3d36b1b4	0.044603065
48	0xbd559e81	-0.052153114
49	0x3c899d45	0.016798625
50	0x3d820905	0.063493766
51	0x3c91afb7	0.017783983
52	0xbdf08ff7	-0.11746209
53	0xbd9f6b25	-0.07784108
54	0x3d9d29fb	0.07674023
55	0xbd4c6890	-0.049904406
56	0x3b9ed641	0.0048473184
57	0x3dd94ea0	0.106107
58	0x3c54a3ef	0.012978538
59	0x3d5db2ee	0.05412572
60	0x3e45b353	0.19306688
61	0x3cc79e7f	0.024367569
62	0x3de65cc4	0.112481624
63	0x3d85a6e9	0.06525976
64	0x3e380b6a	0.17973104
65	0x3ce0407d	0.0273745
66	0xbdb145fc	-0.086559266
67	0xbce30d3a	-0.027716268
68	0xbd982b33	-0.074301146
69	0x3df75a38	0.12077755
70	0x3df76cc9	0.12081296
71	0x3da99588	0.08280474
72	0x3e265c0f	0.16246055
73	0x3dbff381	0.093726166
74	0xbc5d8c37	-0.013522199
75	0xbd860142	-0.06543209
76	0x3d756745	0.05991294
77	0x3d812832	0.06306495
78	0x3deb417c	0.114870995
79	0x3dfc5a33	0.12321892
80	0xbb7e8fc6	-0.003884302
81	0x3d65b009	0.056076083
82	0x3cf5a245	0.029984603
83	0x3da56c8e	0.08077346
84	0x3e020379	0.12696637
85	0x3de09296	0.10965459
86	0xbe1abe6f	-0.15111707
87	0x3d890707	0.066907935
88	0xbdc7cb1a	-0.097555354
89	0xbd529fa7	-0.051421788
90	0xbda31836	-0.07963602
91	0x3ad2d296	0.0016084488
92	0x3da05c2c	0.078300804
93	0x3dfd9876	0.12382595
94	0x3ce6ed0c	0.028189205
95	0x3cf98190	0.030457288
96	0xbd9510e8	-0.07278615
97	0x3c6fcd22	0.01463631
98	0x3e06aa1d	0.1315083
99	0x3dd20960	0.102556944
100	0xbce43e2c	-0.027861677
101	0x3d6780ab	0.05651919
102	0x3caefd16	0.021360915
103	0xbd84c11b	-0.064821444
104	0xbbcdfb7b	-0.0062860823
105	0xbd756592	-0.059911318
106	0x3d8543df	0.06507086
107	0x3cd53073	0.026024079
108	0xbda33bd7	-0.07970398
109	0x3e206e4c	0.15667075
110	0xbc4aabcc	-0.012370061
111	0x3e57fb45	0.21091945
112	0x3d7c6d82	0.061627872
113	0x3d489610	0.048971236
114	0xbdc50bd6	-0.09621398
115	0x3d744aca	0.059641637
116	0x3b2be28f	0.0026227569
117	0xbd65e32d	-0.056124855
118	0x3d93aed6	0.07211082
119	0x3ccd862e	0.025088396
120	0x3bc373be	0.0059647253
121	0x3d5ae880	0.053444386
122	0x3d90d533	0.070719145
123	0x3d06f412	0.032947607
124	0x3e130d09	0.14360441
125	0xbc0222af	-0.0079428395
126	0xbcc21a3b	-0.023694148
127	0x3d4d27e5	0.050086875
128	0xbd8d477d	-0.06898401
129	0x3cbbe22b	0.022934994
130	0x3d840c00	0.06447601
131	0xbc96503b	-0.018348804
132	0x3c918f6a	0.01776858
133	0x3d108239	0.03528044
134	0x3e28e5c7	0.16493903
135	0xbd1258d8	-0.03572926
136	0x3d33c6f9	0.043890927
137	0x3dd8ff7f	0.10595607
138	0xbd85e575	-0.06537906
139	0x3d3a67f3	0.04550929
140	0x3dfad8b5	0.12248365
141	0x3d560200	0.052248
142	0xbc6b33f6	-0.01435565
143	0xbd8aeef4	-0.06783858
144	0xbd91b0c8	-0.071137965
145	0xbcddcf91	-0.027076514
146	0xbd119cf9	-0.03555009
147	0x3ccf80f9	0.025330054
148	0xbdd64db8	-0.104640424
149	0xbc70bcbe	-0.014693437
150	0xbd1761b2	-0.036958404
151	0xbc0eae40	-0.008708537
152	0x3cc0a793	0.023517406
153	0x3ce56d53	0.028006231
154	0x3bbbc7a2	0.005730585
155	0x3e85af58	0.2611034
156	0x3e3631ad	0.17792387
157	0x3d847b0b	0.06468781
158	0x3c7b8f40	0.015353978
159	0xbdc501e4	-0.09619501
160	0x3d46bfee	0.048522882
161	0x3d10dc35	0.035366256
162	0x3dce2636	0.10065882
163	0x3d749db9	0.05972073
164	0x3d97e11c	0.07415983
165	0x3cfdfaa5	0.031003306
166	0xbd5c4c83	-0.053783905
167	0x3dd95255	0.10611407
168	0xbca3503b	-0.019935718
169	0x3d9fc6ec	0.07801613
170	0x3dcc78b1	0.099839576
171	0xbd18b215	-0.037279207
172	0x3ce97f5d	0.028503114
173	0x3ddb6a4b	0.10713633
174	0x3d09222c	0.033479854
175	0x3d835ed5	0.06414572
176	0x3d54404a	0.051819123
177	0xbe69920f	-0.22809623
178	0x3cbdbfde	0.023162778
179	0xbe3ef4ff	-0.18648146
180	0xbde37bfe	-0.11107634
181	0x3dea4f14	0.11440864
182	0xbddd352f	-0.108011596
183	0xbd6ca812	-0.05777747
184	0xbd7e2654	-0.06204827
185	0x3de1c277	0.11023419
186	0x3c3b4c96	0.011431834
187	0x3d6515f4	0.05592914
188	0xbe098bff	-0.1343231
189	0x3c4ff86a	0.012693504
190	0x3d732b72	0.059367605
191	0x3d1488ac	0.036263153
192	0xbcfbc468	-0.030733302
193	0xbc4e0374	-0.0125740655
194	0xbd296fc4	-0.041366354
195	0x3d0fd545	0.0351155
196	0xbd0a78a9	-0.033806477
197	0xbe2dd637	-0.16976248
198	0x3c9ba9f6	0.019001942
199	0xbd0aac2b	-0.0338556
200	0xbe070c91	-0.13188387
201	0x3d5a3ab0	0.053278625
202	0x3d948f9a	0.07253952
203	0x3d9092a7	0.07059222
204	0x3ca8f6ec	0.020625554
205	0xbd8efbe3	-0.06981637
206	0xbc897931	-0.016781421
207	0xbd836e69	-0.064175434
208	0x3c958bfb	0.018255224
209	0x3c90954f	0.01764932
210	0xbc9eded8	-0.01939337
211	0x3d5a2300	0.053256035
212	0xbc0bf7ac	-0.008542936
213	0x3d703f16	0.058653913
214	0x3d51e5b5	0.051244456
215	0x3dd1c258	0.10242146
216	0x3d47a4ab	0.048741024
217	0xbd114a63	-0.03547133
218	0xbd55aa47	-0.052164342
219	0xbd72e554	-0.059300736
220	0x3d4a746b	0.04942743
221	0xbde6b45d	-0.1126487
222	0xbdba6dca	-0.09102972
223	0x3d8c9860	0.06865001
224	0x3d696ea0	0.056990266
225	0x3d7d09cd	0.061776925
226	0x3d522300	0.05130291
227	0xbc8a029b	-0.016846946
228	0x3c774c0f	0.015093817
229	0x3dd8a314	0.1057798
230	0x3d950d31	0.07277907
231	0x3d55b757	0.0521768
232	0xbdf97f63	-0.121825
233	0xbdb1fb74	-0.08690539
234	0xbcec0b86	-0.028814089
235	0x3a9fc638	0.0012189811
236	0xbd856023	-0.06512477
237	0x3e49c30f	0.19703315
238	0xbdbe7c75	-0.09301082
239	0x3e25fc19	0.16209449
240	0xbc2dc1b0	-0.010605261
241	0xbd7f36e3	-0.062308203
242	0x3db2ccec	0.08730492
243	0xbc81d1e3	-0.015847152
244	0x3ca5d793	0.020244395
245	0x3c3c848f	0.011506214
246	0x3cf85948	0.03031601
247	0x3c63fdb0	0.013915464
248	0x3d989853	0.074509285
249	0x3d8b2bb6	0.067954466
250	0x3be09556	0.0068537397
251	0xbdb3e2ba	-0.08783479
252	0x3c28f197	0.010311506
253	0xbd0d15d6	-0.034444652
254	0xbb923129	-0.0044614268
255	0xbcddf79b	-0.027095607

features.2.bn.weight f4 [128]
0	0x3f81d49b	1.0143007
1	0x3f7725e7	0.9654221
2	0x3f8109a2	1.0081065
3	0x3f7c92a2	0.98661244
4	0x3f75a6a3	0.9595739
5	0x3f7a4d46	0.9777416
6	0x3f798a96	0.9747709
7	0x3f74f20e	0.95681846
8	0x3f6ebd09	0.93257195
9	0x3f71c7eb	0.94445676
10	0x3f7f3c5c	0.99701476
11	0x3f720db2	0.9455215
12	0x3f7a1ed3	0.97703284
13	0x3f80f294	1.0074029
14	0x3f810cb4	1.0082002
15	0x3f80345a	1.0015976
16	0x3f808476	1.0040424
17	0x3f7b92fc	0.98271155
18	0x3f7d200c	0.98877025
19	0x3f829871	1.0202771
20	0x3f777452	0.96661866
21	0x3f82fb88	1.0233011
22	0x3f794cf7	0.97383064
23	0x3f7d891c	0.9903734
24	0x3f7b36b6	0.9813036
25	0x3f7a6d12	0.9782268
26	0x3f80eafd	1.0071713
27	0x3f79a6fc	0.9752042
28	0x3f7aed91	0.9801875
29	0x3f7d5b5d	0.98967534
30	0x3f7bf793	0.98424643
31	0x3f7fa18a	0.99855864
32	0x3f865319	1.0494109
33	0x3f8029bc	1.0012736
34	0x3f81409e	1.0097845
35	0x3f73464e	0.9502915
36	0x3f82d4ce	1.0221193
37	0x3f8237f9	1.0173331
38	0x3f85451a	1.0411713
39	0x3f7905ae	0.9727429
40	0x3f829cc3	1.020409
41	0x3f84f2a8	1.0386553
42	0x3f865775	1.049544
43	0x3f893468	1.0719118
44	0x3f803600	1.001648
45	0x3f7fc2eb	0.99906796
46	0x3f718dd3	0.9435703
47	0x3f819b5e	1.0125539
48	0x3f77b6fb	0.9676358
49	0x3f7bab3e	0.9830817
50	0x3f7e9387	0.9944386
51	0x3f80a6ff	1.0050963
52	0x3f7910d6	0.97291315
53	0x3f81ba21	1.0134927
54	0x3f793a79	0.9735485
55	0x3f814eb5	1.0102144
56	0x3f800872	1.0002577
57	0x3f770601	0.96493536
58	0x3f7e9d73	0.99459
59	0x3f763986	0.96181524
60	0x3f77658a	0.9663931
61	0x3f83c995	1.0295893
62	0x3f84c516	1.0372646
63	0x3f7a5cb6	0.97797716
64	0x3f7e7e42	0.99411404
65	0x3f7731d7	0.96560425
66	0x3f7f470e	0.99717796
67	0x3f801133	1.0005249
68	0x3f70ffad	0.9414013
69	0x3f802476	1.0011127
70	0x3f7ba957	0.9830527
71	0x3f884166	1.0644958
72	0x3f6dffd8	0.9296851
73	0x3f7c3229	0.9851404
74	0x3f82ca26	1.0217941
75	0x3f81571f	1.0104712
76	0x3f79bcd9	0.97553784
77	0x3f85a522	1.044102
78	0x3f7f8722	0.9981557
79	0x3f7ffc85	0.9999469
80	0x3f772a07	0.96548504
81	0x3f7d1bcc	0.9887054
82	0x3f7dc462	0.9912778
83	0x3f804406	1.0020759
84	0x3f83fa93	1.0310844
85	0x3f7e7c32	0.99408257
86	0x3f7d9f46	0.99071157
87	0x3f727171	0.9470435
88	0x3f747c09	0.9550176
89	0x3f7ee0b1	0.995616
90	0x3f716a18	0.9430251
91	0x3f7f8545	0.9981273
92	0x3f840de6	1.0316741
93	0x3f761683	0.961281
94	0x3f829e32	1.0204527
95	0x3f7eaa2f	0.9947843
96	0x3f7e58f4	0.9935448
97	0x3f7a1022	0.97680867
98	0x3f85dbfa	1.0457757
99	0x3f7a9fc6	0.97900045
100	0x3f7a0ad5	0.9767278
101	0x3f875cbe	1.0575178
102	0x3f84299e	1.03252
103	0x3f7664ba	0.96247447
104	0x3f8297b5	1.0202547
105	0x3f8250bc	1.0180888
106	0x3f84cc03	1.037476
107	0x3f7cd7f5	0.98767024
108	0x3f819017	1.0122098
109	0x3f80e6c1	1.007042
110	0x3f7dda2e	0.9916104
111	0x3f803d25	1.001866
112	0x3f7252bf	0.9465751
113	0x3f82c69b	1.021686
114	0x3f7b7ecf	0.9824037
115	0x3f7d080c	0.98840404
116	0x3f760fb3	0.96117705
117	0x3f797f77	0.9746012
118	0x3f8040d7	1.0019788
119	0x3f855937	1.0417851
120	0x3f829631	1.0202085
121	0x3f75c155	0.95998126
122	0x3f763307	0.9617161
123	0x3f79d490	0.9758997
124	0x3f79de46	0.9760479
125	0x3f773b19	0.9657455
126	0x3f6f9990	0.9359369
127	0x3f7da4cc	0.99079585

features.2.bn.bias f4 [128]
0	0xbdbad0f7	-0.09121888
1	0xbdb3eb40	-0.08785105
2	0xbd97c330	-0.07410276
3	0xbe002a0c	-0.1251604
4	0xbd1e3c5f	-0.038631793
5	0xbc9e8394	-0.01934985
6	0xbd070810	-0.032966673
7	0xbd8cae5c	-0.06869194
8	0xbdc1a468	-0.09455186
9	0xbdd371d0	-0.103244424
10	0xbde78f27	-0.11306601
11	0xbcdcc4cb	-0.026949307
12	0xbd7fbcea	-0.062436022
13	0xbe1b4363	-0.15162425
14	0xbdc97cc9	-0.09838254
15	0xbcdd83bf	-0.02704036
16	0xbb9f88cc	-0.0048686024
17	0xbda1ddb2	-0.07903613
18	0xbd3021c5	-0.043000955
19	0xbc330f04	-0.010928873
20	0xbcc977c2	-0.024593238
21	0xbbdbf558	-0.006712597
22	0xbc4091f2	-0.011753546
23	0xbc8daf2c	-0.017295443
24	0xbceb1c0f	-0.028699903
25	0xbe067789	-0.13131537
26	0xbc758d26	-0.014987266
27	0xbe272d9a	-0.1632599
28	0xbcbf1088	-0.023323312
29	0xbc9051f0	-0.017617196
30	0xbb9f29e7	-0.00485729
31	0xbd96d39a	-0.073645785
32	0xbd2ee6ee	-0.0427007
33	0xbd294634	-0.041326717
34	0xbdeed256	-0.11661212
35	0xbca2b7db	-0.01986306
36	0xbb786229	-0.0037900305
37	0xbc4807a8	-0.012208857
38	0xbcd70b14	-0.0262504
39	0xbc6ebfb1	-0.01457207
40	0xbc9ef9f2	-0.019406293
41	0xbcc5f4a4	-0.024164505
42	0xbbad0cb5	-0.005281056
43	0xbd17138d	-0.03688388
44	0xbdce31a5	-0.10068063
45	0xbc3b40bd	-0.011429009
46	0xbdddeeda	-0.10836573
47	0xbc3dbedf	-0.011581152
48	0xbd0a8bbd	-0.03382467
49	0xbd653d92	-0.05596692
50	0xbc1db00a	-0.0096244905
51	0xbd1dc6e5	-0.03851976
52	0xbd4a6cee	-0.04942029
53	0xbd75f9a4	-0.06005253
54	0xbcff9161	-0.031197252
55	0x3b436d72	0.0029819873
56	0xbccbb645	-0.024867186
57	0x3b81453f	0.0039450224
58	0xbc48fa09	-0.012266644
59	0xbd110ffa	-0.035415627
60	0xbcd75839	-0.026287185
61	0xbdfb26c1	-0.12263251
62	0xbd2455ad	-0.04012077
63	0xbd4438f6	-0.047905885
64	0xbca9f814	-0.020748176
65	0xbd06018b	-0.032716315
66	0xbcd8994f	-0.02644029
67	0xbdc3977b	-0.09550377
68	0xbd108f89	-0.035293136
69	0xbcf3ca7c	-0.029759638
70	0xbcfddeb8	-0.03098999
71	0xbc8b65f6	-0.017016392
72	0xbcc9c922	-0.02463204
73	0xbd8e969b	-0.069623195
74	0xbc97a080	-0.01850915
75	0xbc94a390	-0.018144399
76	0xbbb6fb7c	-0.0055841785
77	0x3c4fd737	0.012685589
78	0xbcedab7d	-0.029012436
79	0x3b9464f1	0.0045286347
80	0xbc8003c2	-0.015626792
81	0xbcb5eba6	-0.022207092
82	0xbdb5fb0f	-0.08885776
83	0x3c970684	0.018435724
84	0x3a1158a4	0.00055445195
85	0xbd5fbc3d	-0.054622877
86	0xbd1bbf74	-0.03802438
87	0xbca1908b	-0.019722244
88	0xbd18d901	-0.037316326
89	0xbc667b89	-0.014067539
90	0xbd81bb82	-0.063345924
91	0xbd4b8b18	-0.049693197
92	0xbd20186c	-0.03908579
93	0xbd8ae1c7	-0.06781345
94	0xbd68831a	-0.056765653
95	0xbda6f573	-0.081522845
96	0xbcffa545	-0.031206736
97	0xbcbf98bb	-0.023388257
98	0xbd016618	-0.031591505
99	0xbc9a7b6a	-0.018857677
100	0xbd95cb03	-0.07314112
101	0xbd3e9e03	-0.04653741
102	0xbc578524	-0.013154302
103	0xbcb46d1f	-0.02202469
104	0xbddf8637	-0.10914271
105	0xba17f896	-0.0005797235
106	0xbd173d20	-0.036923528
107	0xbb39bcf3	-0.0028341382
108	0xbcbb4ec3	-0.022864705
109	0x3b26f551	0.002547581
110	0x3c258f1d	0.010104922
111	0xbb702ee7	-0.003664905
112	0xbd78627d	-0.0606408
113	0xbe330f26	-0.17486247
114	0xbdb902c8	-0.090337336
115	0xbd588e59	-0.05287013
116	0xbe11f27a	-0.14252654
117	0xbd810ee9	-0.06301672
118	0x3af000ea	0.0018310819
119	0xbd4237c6	-0.04741647
120	0xbcd466b7	-0.025927885
121	0xbd81baf0	-0.063344836
122	0xbd6c6b5e	-0.05771958
123	0xbc9343fd	-0.017976755
124	0xbd9ff8df	-0.0781114
125	0xbd290ac6	-0.04127004
126	0xbd455de9	-0.048185263
127	0xbdc791f3	-0.097446345

features.2.bn.running_mean f4 [128]
0	0x3f8ffbfa	1.1248772
1	0x3f904b40	1.1272964
2	0x3d534574	0.051579908
3	0x3fa66191	1.2998525
4	0xbfd2ab6b	-1.6458563
5	0xbfdc9fba	-1.7236245
6	0xbf395e76	-0.7240976
7	0x3fded759	1.7409469
8	0x3fb71e5c	1.430614
9	0x3f5ef192	0.8708736
10	0x3ff46759	1.9094039
11	0xbe0cf0ee	-0.13763782
12	0x3e3a2232	0.18177107
13	0x3ffa06af	1.953329
14	0x3f86cb1d	1.0530735
15	0x3f00dff2	0.50341713
16	0x3d81e0d3	0.0634171
17	0x400b6ea2	2.1786275
18	0x3f21e891	0.63245493
19	0xbfc7bfd0	-1.5605412
20	0xbf18a55f	-0.59627336
21	0xbf0c3947	-0.547749
22	0xc028400f	-2.6289098
23	0xc01406ea	-2.312922
24	0x3e00efbe	0.12591454
25	0x4002116e	2.0323138
26	0xbe9ab3b7	-0.30215237
27	0x3fb7d1c4	1.436089
28	0x3fa42a2f	1.2825373
29	0xbfac945a	-1.3482773
30	0xbf6f7119	-0.9353195
31	0x3fb5aba0	1.4193001
32	0x3fc9752a	1.5738881
33	0xbec20adf	-0.3789892
34	0x3fe53dc0	1.790947
35	0x3da4de68	0.08050233
36	0xbefcb829	-0.49359253
37	0xbfc52d08	-1.5404367
38	0x3f5cf54c	0.86311793
39	0xbedabac1	-0.42720607
40	0xbf262568	-0.6490083
41	0xbe54965f	-0.20760487
42	0xbf462912	-0.7740642
43	0x3fe483e4	1.785275
44	0x3f67725e	0.90408885
45	0xbea1d023	-0.31604108
46	0xbc99e87c	-0.018787615
47	0xc0019843	-2.0249183
48	0xbf648606	-0.89267004
49	0xbdce6cdf	-0.10079359
50	0xbe42d83f	-0.19027804
51	0x3f00b54f	0.50276655
52	0xbf725d1d	-0.9467333
53	0xbfcdb148	-1.6069727
54	0xbeef0e99	-0.46690825
55	0xbf905555	-1.1276041
56	0xbe25d63d	-0.16195007
57	0xbed20a65	-0.41023555
58	0xc0079da1	-2.118996
59	0xbfa85ba4	-1.3152966
60	0x3e9f86e8	0.31157613
61	0x3f342573	0.7036964
62	0x3fb895b2	1.4420683
63	0xbfcaa816	-1.5832546
64	0xbe21ad65	-0.15788801
65	0xbf9ccb81	-1.2249604
66	0xbfbdff44	-1.4843526
67	0x3fa90b9d	1.3206669
68	0xbd036c4b	-0.032085698
69	0xbfbb9c0e	-1.4656999
70	0xbed85434	-0.42251742
71	0x3f4406d7	0.76572937
72	0x3edef713	0.43547878
73	0xc0136a2d	-2.3033555
74	0x3fb28fae	1.3950098
75	0x3eaec87a	0.34137326
76	0xbf23bb88	-0.63958025
77	0xbf689894	-0.90857816
78	0x3ebc1174	0.36732066
79	0xbff75cc9	-1.9325191
80	0xbed9fbc6	-0.425749
81	0xbfba0395	-1.4532343
82	0x3fcda1c0	1.6064987
83	0xbff6d895	-1.9284846
84	0xbf9b6cb5	-1.214255
85	0xbf19e70c	-0.60118175
86	0x3f046d9b	0.51729745
87	0xbf146c37	-0.5797762
88	0xbd063d8b	-0.032773536
89	0xbff7e2e3	-1.9366115
90	0xbcb8a848	-0.02254118
91	0x3f5d5d6b	0.8647067
92	0xbdc18028	-0.09448272
93	0x3fbc7b96	1.4725215
94	0x3fa8fbf5	1.3201891
95	0x3fae94de	1.3639181
96	0x3db15b87	0.086600356
97	0xbecf6e71	-0.40513948
98	0x3f914ce3	1.1351589
99	0xc003fabb	-2.0621784
100	0x3fd77226	1.683171
101	0x3fb63a82	1.4236605
102	0xbf28928c	-0.6584861
103	0xbfd55132	-1.6665404
104	0x3fbc835b	1.4727587
105	0xbffae216	-1.9600246
106	0x3f85f726	1.0466049
107	0xc01442c4	-2.316575
108	0x3f7638aa	0.9618021
109	0xbf1d314e	-0.6140336
110	0xbfdf82de	-1.7461812
111	0xbfafb771	-1.3727857
112	0xbf31f100	-0.6950836
113	0x3fe8eed7	1.8197888
114	0x3f7d3e1a	0.98922884
115	0xbe9482f5	-0.29006162
116	0x3f2c3397	0.6726622
117	0x3dc19234	0.09451714
118	0xc022c92c	-2.5435286
119	0xbf8304ee	-1.023588
120	0x3f5fc41a	0.874086
121	0xbe7d48d7	-0.24734817
122	0xbf96b6aa	-1.1774495
123	0xbfacda60	-1.3504143
124	0x3f802991	1.0012685
125	0x3eb2595a	0.34833795
126	0xbfa00a0c	-1.2503066
127	0x3f904365	1.1270567

features.2.bn.running_var f4 [128]
0	0x3fe0857f	1.754074
1	0x4050b52e	3.2610583
2	0x3fbfdc25	1.4989058
3	0x40422859	3.0337126
4	0x4063fed4	3.5624285
5	0x4027fdbe	2.6248622
6	0x3f889731	1.067114
7	0x400c8721	2.1957476
8	0x3fafbef2	1.3730147
9	0x3fd05eb5	1.6278902
10	0x402f74ff	2.7415159
11	0x3f8e1591	1.1100332
12	0x3fa3977a	1.2780602
13	0x40175e9f	2.3651502
14	0x4010416d	2.2539933
15	0x3f9f40c4	1.244164
16	0x3f8f7dc6	1.1210258
17	0x4031cde5	2.7781918
18	0x3f9800d5	1.1875254
19	0x402986b1	2.648846
20	0x4030f21f	2.764778
21	0x3f916ce1	1.1361352
22	0x40f45acf	7.636085
23	0x40ee025b	7.4377875
24	0x3fd391c5	1.652886
25	0x401cd170	2.450283
26	0x3ff801ad	1.9375511
27	0x4056b73d	3.354934
28	0x3f9f4777	1.2443684
29	0x4002cbac	2.0436811
30	0x3fb7476b	1.431867
31	0x4009169a	2.1420045
32	0x3fa5b326	1.2945297
33	0x3f78419a	0.969751
34	0x402c8709	2.695742
35	0x3fbc7979	1.472457
36	0x3fa74be8	1.307004
37	0x3f8ea807	1.1145028
38	0x3f519f12	0.8188335
39	0x3f98b1be	1.1929243
40	0x3f9288ac	1.1447959
41	0x3f6544a0	0.8955784
42	0x3f9a369a	1.2047913
43	0x3fab53bc	1.3384929
44	0x3fdf552d	1.7447869
45	0x3ffdee69	1.9838382
46	0x3fa408cd	1.2815186
47	0x401067a5	2.256326
48	0x404e03de	3.218986
49	0x4010d2a5	2.2628567
50	0x403b2cec	2.9246168
51	0x40235768	2.5522099
52	0x3f497aba	0.7870289
53	0x3fc37c92	1.5272391
54	0x3f9fdc68	1.2489138
55	0x40372021	2.861336
56	0x3fc7b41c	1.560184
57	0x3ff43b1f	1.9080542
58	0x401bc91d	2.43415
59	0x407bc642	3.9339757
60	0x3fb898ce	1.4421632
61	0x3f81933b	1.0123056
62	0x3f857d75	1.0428911
63	0x3fc0d6a0	1.5065498
64	0x40015e07	2.021364
65	0x40af0771	5.4696584
66	0x4084d592	4.1510706
67	0x4004376a	2.0658822
68	0x3fd95a12	1.6980612
69	0x3fb345f0	1.4005718
70	0x3fcdd749	1.6081325
71	0x3fcb30f6	1.5874317
72	0x40154b78	2.3327312
73	0x4015cb45	2.3405316
74	0x3f510ce0	0.8166027
75	0x3fa40dc3	1.28167
76	0x3f8e3b62	1.1111872
77	0x3fad867b	1.3556665
78	0x3fa55123	1.2915386
79	0x408f4b8f	4.4779735
80	0x3f8e7abf	1.1131209
81	0x3fb0ab6c	1.3802314
82	0x40515c98	3.2712765
83	0x3ff5f507	1.9215401
84	0x405b1abc	3.4235067
85	0x3f91735d	1.1363331
86	0x3fb7b053	1.4350685
87	0x3fd3e31e	1.6553686
88	0x3fd34107	1.650422
89	0x40df0aaa	6.970052
90	0x3f7c006b	0.9843814
91	0x3f9395f6	1.153014
92	0x3f8b5fd0	1.0888615
93	0x3f9f8a56	1.2464092
94	0x3faeaaf9	1.3645927
95	0x402066a0	2.5062637
96	0x3f9d6e68	1.2299318
97	0x3f7f33b0	0.99688244
98	0x3fa5f1d5	1.2964426
99	0x408f98c6	4.487399
100	0x403d9937	2.9624765
101	0x3f8658fb	1.0495905
102	0x3f0a631e	0.5405749
103	0x4000cdd3	2.0125625
104	0x4004505a	2.0674043
105	0x3ff57a6d	1.9177986
106	0x3f949506	1.1607978
107	0x408cc5ff	4.3991694
108	0x3f8593a2	1.0435679
109	0x3f8fd991	1.1238271
110	0x403c7680	2.9447327
111	0x3f96f47f	1.1793364
112	0x4098bc4d	4.772986
113	0x40443f82	3.0663762
114	0x3fc050a4	1.502461
115	0x3f61a952	0.8814899
116	0x3ffd32eb	1.9781164
117	0x3fbb5ea6	1.463826
118	0x40437a1f	3.0543287
119	0x3fca4fb8	1.5805578
120	0x3f7d0400	0.9883423
121	0x401d1a4e	2.4547305
122	0x3ffbf526	1.9684188
123	0x401dbcdb	2.4646518
124	0x4024fd9a	2.5779786
125	0x4032d6de	2.7943645
126	0x3fd9ce52	1.7016089
127	0x404686f6	3.1019874

features.3.conv.weight f4 [256, 128, 3]
0	0x3d8f5a67	0.06999665
1	0xbd2c7288	-0.042101413
2	0x3d685ecd	0.056731034
3	0x3e4086ba	0.18801394
4	0x3de30f48	0.11086899
5	0x3d3f343e	0.04668068
6	0x3d3e0bfe	0.046398155
7	0x3df9f8db	0.122056685
8	0x3da80fe3	0.08206155
9	0xbc569fc0	-0.013099611
10	0xbc2be64b	-0.010491918
11	0x3e5073eb	0.20356719
12	0xbd7c4cf4	-0.061596826
13	0xbd4fa78c	-0.050696895
14	0x3a4f8128	0.0007915669
15	0x3e017f95	0.12646325
16	0x3da26f2a	0.07931359
17	0x3d34dc4d	0.044155408
18	0x3d9e1291	0.07718385
19	0x3d9496a3	0.07255294
20	0xbd5da2ce	-0.05411034
21	0x3db2ee7a	0.08736892
22	0xbc55653d	-0.013024625
23	0x3c61806f	0.013763531
24	0xbc92cc1f	-0.017919598
25	0x3daea932	0.08528365
26	0x3d093200	0.03349495
27	0xbe2ebb7b	-0.17063706
28	0x3d470444	0.048588052
29	0xbd981531	-0.07425917
30	0x3d6f4666	0.058416747
31	0x3e029c13	0.1275485
32	0x3d939c63	0.07207563
33	0x3c8716dd	0.016490394
34	0xbc1bdb3c	-0.009512719
35	0xbc79382c	-0.015211146
36	0x3d1ffe55	0.03906091
37	0x3c6bc11c	0.014389303
38	0xbd30fea2	-0.043211587
39	0x3de90fdb	0.11379977
40	0x3db2890b	0.08717545
41	0x3d02e616	0.03195771
42	0x3e0d53cf	0.13801502
43	0xbcc7acde	-0.024374422
44	0x3b426ac2	0.0029665683
45	0xbd1824e7	-0.037144568
46	0xbc12b428	-0.008954085
47	0xbe511ec9	-0.204219
48	0xbda82edc	-0.08212063
49	0x3d70c575	0.05878206
50	0xbd3c1206	-0.045915626
51	0x3ddc427a	0.10754867
52	0x3dbd1172	0.09231843
53	0x3d80de33	0.06292381
54	0xbdb823fc	-0.089912385
55	0x3bba055d	0.005676909
56	0xbd2c133a	-0.042010523
57	0x3cc6d2ae	0.024270382
58	0xbdb59334	-0.088659674
59	0x3af823b1	0.0018931535
60	0xbdaf6dcc	-0.08565864
61	0x3c570dca	0.013125846
62	0x3d32980c	0.043602034
63	0x3d8dfc1c	0.06932852
64	0xbd125fea	-0.035736002
65	0xbd91077c	-0.07081506
66	0x3c74bb72	0.014937269
67	0xbc965cfd	-0.018354887
68	0xbccf4e97	-0.02530603
69	0xbca84c2a	-0.02054413
70	0x3dee1880	0.11625767
71	0xbdc0db76	-0.09416859
72	0xbd74adf9	-0.059736226
73	0x3d482eb1	0.048872653
74	0xbc588f4f	-0.013217761
75	0x3d630809	0.055427585
76	0x3d27e662	0.040991195
77	0x3dd8d036	0.10586588
78	0x3cdfff66	0.027343463
79	0xbc97e25b	-0.018540552
80	0x3d1c0d03	0.038098346
81	0x3d6083b9	0.05481312
82	0x3d886671	0.06660164
83	0x3da3da78	0.08000654
84	0xbdb7250c	-0.08942613
85	0xbe2acb3c	-0.1667909
86	0xbd668005	-0.056274433
87	0x3d1ce377	0.038302865
88	0x391b1786	0.00014790715
89	0x3d934878	0.07191557
90	0x3d0cf333	0.03441162
91	0x3d72a5a3	0.059239995
92	0xbd617a0a	-0.055048026
93	0x3e102d0a	0.14079681
94	0xbdae55aa	-0.08512433
95	0x3d59e4a8	0.05319658
96	0x3d2fbcf9	0.042904828
97	0x3d3c8bc0	0.046031713
98	0x3e0662d7	0.13123642
99	0x3d4dd8c7	0.050255563
100	0xbc9a915b	-0.018868139
101	0xbd02af5e	-0.031905524
102	0x3cb96741	0.022632243
103	0x3d2fd621	0.04292882
104	0x3d8ba3b4	0.06818333
105	0xbd2322c2	-0.03982807
106	0x3c5cf360	0.0134857595
107	0x3cccd4f2	0.025003884
108	0x3d3cba4f	0.046076115
109	0x3d8249ee	0.06361757
110	0x3d0f706f	0.035019334
111	0xbde59bd1	-0.1121136
112	0xba056d79	-0.000508986
113	0xbcc62eae	-0.02419218
114	0xbb012ef4	-0.0019711824
115	0x3d486d6e	0.048932485
116	0x3d975066	0.07388382
117	0xbd738259	-0.05945048
118	0x3dc1bed8	0.09460229
119	0xbc7657d1	-0.0150355855
120	0xbd14d523	-0.036336076
121	0x3d2a42e6	0.041567706
122	0xbd9baaac	-0.076009125
123	0xbcd38d49	-0.025824206
124	0xbdd82b15	-0.10555092
125	0x3c869653	0.016429102
126	0x3cfdfeea	0.031005342
127	0xbe0b88a1	-0.13626339
128	0x3b2e9b82	0.0026642983
129	0x3d079242	0.033098467
130	0x3d64944e	0.055805497
131	0x3e1b92c5	0.15192707
132	0x3d12dd00	0.035855293
133	0xbb21a133	-0.0024662733
134	0x3c86ddf0	0.01646325
135	0x3d17409f	0.03692686
136	0x3d9604fc	0.073251694
137	0xbb1191ad	-0.0022212074
138	0xbcf79a01	-0.030224802
139	0xbd361278	-0.044451207
140	0x3d1c6172	0.03817887
141	0x3ccd1d12	0.025038276
142	0xbcc320b1	-0.0238193
143	0xbe018242	-0.12647346
144	0x3c31a648	0.010842867
145	0xbc8b53bf	-0.017007707
146	0xbdc8af51	-0.09799064
147	0x3da4c3b9	0.08045144
148	0x3da77618	0.081768215
149	0x3d86baa0	0.06578565
150	0xbd5bb492	-0.053639002
151	0x3d27643b	0.04086707
152	0x3dd2a17f	0.10284709
153	0xbd0282bd	-0.031862963
154	0xbd480408	-0.04883197
155	0x3d469d82	0.048490055
156	0xbcddb896	-0.027065556
157	0x3c1f1129	0.009708681
158	0x3cc6b940	0.024258256
159	0x3da70602	0.08155443
160	0xbd193c20	-0.037410855
161	0xbd1608e8	-0.036629587
162	0x3d1bc9c8	0.03803423
163	0xbd2be0e3	-0.041962516
164	0xbd31b824	-0.0433885
165	0xbbbb8f7a	-0.005723891
166	0xbba60e51	-0.0050676246
167	0x3b993700	0.004675746
168	0xbc4e9aac	-0.012610119
169	0x3d70b361	0.05876482
170	0x3dadd63f	0.0848813
171	0xbd62329f	-0.055224057
172	0x3d5ee812	0.05442054
173	0xbda0d083	-0.078522705
174	0x3d265c45	0.04061534
175	0xbd97c61e	-0.07410835
176	0x3d00458e	0.031316333
177	0xbd09917a	-0.033586003
178	0x3c4f53ee	0.012654288
179	0x3d948249	0.072514124
180	0x3cf1ff12	0.029540572
181	0x3ceb6d12	0.028738532
182	0x3cb1344c	0.021631382
183	0x3be9c4ed	0.007134071
184	0x3c48a95e	0.0122474115
185	0x3d8d9235	0.069126524
186	0x3e01e51f	0.12685059
187	0x3e2796cb	0.16366117
188	0xbd70906e	-0.05873149
189	0xbc7aea1d	-0.015314606
190	0x3de6836d	0.11255536
191	0x3d9310df	0.07180952
192	0xbd91303c	-0.07089278
193	0x3df8a001	0.12139893
194	0x3da74744	0.0816789
195	0x3c983b50	0.01858297
196	0xbcac7524	-0.02105195
197	0x3dec6754	0.11543146
198	0x3daec8bb	0.0853438
199	0x3d055180	0.032548428
200	0x3e278f69	0.163633
201	0x3d4443fc	0.047916397
202	0x3e2eae61	0.17058708
203	0x3dbf530f	0.09342014
204	0xbe243b8e	-0.16038343
205	0x3d0dc7f8	0.034614533
206	0xbba52a88	-0.0050404705
207	0xbd586f94	-0.052840784
208	0x3ca6baed	0.020352805
209	0x3d1034e8	0.035206705
210	0x3ceb9d2a	0.028761465
211	0x3a625a77	0.0008634696
212	0xbd975ce5	-0.07390765
213	0x3e059505	0.13045128
214	0x3d1c4d56	0.03815969
215	0x3d8c0756	0.06837337
216	0xba760266	-0.00093845127
217	0x3c19a75f	0.009378283
218	0xbd4b67ad	-0.04965942
219	0x3de09b70	0.10967147
220	0x3d1c2647	0.03812244
221	0x3e0b7263	0.13617854
222	0xbd9040c3	-0.07043602
223	0x3cebf699	0.02880411
224	0xbda71d61	-0.081599005
225	0x3c54c3c4	0.012986127
226	0x3d843539	0.06455464
227	0xbb6d0aa3	-0.003616967
228	0x3d90690d	0.07051287
229	0xbbdcb4c7	-0.0067354175
230	0x3d4043d5	0.04693969
231	0x3daa839d	0.083258845
232	0xbd4a887a	-0.04944656
233	0x3c2d99d5	0.010595758
234	0x3c47c58b	0.012193094
235	0xbe0ce097	-0.13757549
236	0x3badead4	0.0053075347
237	0x3c1f8bca	0.009737918
238	0x3cf387b0	0.029727787
239	0xbd5fb069	-0.054611597
240	0x3cbcdc8b	0.023054382
241	0x3cf5d734	0.030009843
242	0xbd01d1a1	-0.03169406
243	0x3d181e41	0.037138227
244	0x3d806529	0.06269295
245	0xbd1a7528	-0.037709385
246	0xbc716103	-0.014732602
247	0x3d9d4da5	0.07680825
248	0x3d9553fe	0.07291411
249	0xb94797d7	-0.00019034684
250	0x3d2fdf13	0.04293735
251	0xbd5089ce	-0.05091267
252	0xbc6ceb6c	-0.014460426
253	0x3dd0ae40	0.101894855
254	0x3d77a6ab	0.06046168
255	0xbc5d600a	-0.013511667
