ecg_afib_detection/checkpoints/ecg-arrhythmia/100hz/cnn1d/fold_5/best.pt (torch, 626357 bytes, 22 tensors)

features.0.conv.weight f4 [32, 12, 7]
00000000: 97a7 a43d 73ea f93d 2786 52bc c4d2 623c
00000010: 0bea 89bd 9cdb 1cbe b291 a1be 1a8a aa3b
00000020: 0498 7a3d e30a abbd 3ccd 363d ce6d 013e
00000030: 8619 223d 648b 0abe 9d6d 113d 73b5 1fbd
00000040: 3a29 653d 5fc1 91be fd9c d1be fbd1 2b3d
00000050: f4e1 89bd 02b6 863d 2eaa 35be 27e1 483e
00000060: 7b27 f7bd f97b 0bbe 1cb3 88be 76f1 493e
00000070: 5da0 9b3e 4506 f93d d868 ccba afb4 acbd
00000080: 22b1 a33d 4833 16bd 4571 353d d8d3 4e3e
00000090: 875c d63d 7072 75be 1f32 8c3d 90e9 f73d
000000a0: 9d66 99bd 87ae abbe 0699 9abd 283b 5d3e
000000b0: d1ad 9b3c 4d68 ac3e 3aa7 43be 5091 1cbe
000000c0: 6614 15be 62c1 4b3e cb73 43bc 867b 383e
000000d0: fba2 633d db54 c8bd 3a61 9cbc 5087 42bc
000000e0: e0b9 493d a40e e73d 0392 623e 4c33 5ebe
000000f0: 7fc8 0f3d e78a 9ebe 5d11 9d3c ef06 f0bc
00000100: bd96 193d 89d3 ac3d de56 9e3e c45d bb3d
00000110: a692 27be 54b7 b7bd 4a0e 6d3e b460 963d
00000120: 022d 3f3d b6e3 d9bd e319 d93d 2982 8e3d
00000130: 9258 1c3c 512e 7f3d 592c f33c be19 293e
00000140: f24e 603e bcb2 ec3e dd22 8e3e 2b1b d7bd
00000150: 58e1 6abe 2098 7ebd 2d5f cabd 8f78 9a3e
00000160: 0fff ed3d d621 403e a3df d83d a4f6 ac3d
00000170: 22a1 f1bd 939e f2bd b153 fabd aeb3 ae3d
00000180: 5408 40be 8681 983d 0e86 bbbc df09 6d3e
00000190: fc7f e83d 9921 933e f54a 8cbe 6a90 2f3e
000001a0: bdf8 4cbe 6a2f 0b3e c610 edba e8a5 663d
000001b0: 3e09 a43c d2ee 86be 5fcc f63d 6073 26be
000001c0: 20fc 8dbe 9e58 463b cec7 c83d 6f8b 16bd
000001d0: d5a7 40bd 4fff ca3d d116 1d3e 478d 97be
000001e0: 80c6 773c 716e 593e 178b 123e d09f 2e3e
000001f0: 33a4 043e 8ba8 bcbd 7749 aebd a414 b33d
00000200: a8a1 f7bd fe2d 773e 204c b7bc 6b35 9c3e
00000210: 21fb e33c 69df b83c 6963 bfbd 4da0 8cbe
00000220: d75a dd3e 14d3 5bbd e2b4 753d 3a01 11be
00000230: 202f c13e 996e e6bd 9085 d43c d8a8 e0bd
00000240: 4920 d63d 1a30 92be e3bd 5bbd 39f7 15bd
00000250: fa71 afbb e9fb 15be ee85 79bd 3644 a2bb
00000260: c204 a1bd 5cf1 d9bd a991 22be eeb4 843d
00000270: 461b 273e e306 073e 3d14 5f3d 9453 9b3d
00000280: f4d6 16be 589a 753e 3637 fd3b ca0d 4fbc
00000290: 4609 5bbe 1921 b8bd d6fd 94be b31a 4b3e
000002a0: 38ca 16bc a003 dbbd 4ba5 6eba 39c1 233d
000002b0: ce48 82bb 75ca cd3d fdae 013d 566b 1cbe
000002c0: 6ce0 2abe a78a 40be fc1a b8be 81ef a5be
000002d0: 8d22 923e 75ee 763e de57 803d f67a d4ba
000002e0: 03cd c1be 1bcb 743d dca0 98bc 6f2e 85be
000002f0: 2c17 56bd 0ab6 cc3e f7c3 103e 8629 2a3e
00000300: cbc8 103d 1aca 413d 4b39 b03d 9e63 9bbd
00000310: d9d8 71bd 3c3e b7bd 881d 2cbe 992c c13d
00000320: 7877 e8be 26c7 2e3e 56d1 4ebe 46d7 4fbd
00000330: 1f9f 0e3e e8ef f1bd 22a5 dc3d b588 6cbb
00000340: 9d84 42be 4529 823d cd8a 0dbe 7352 21be
00000350: ce74 0f3d fa84 493d c1de 9d3c 6b92 193d
00000360: 5093 a63d 3ac5 573d ac02 0e3e 8a90 f4bd
00000370: 5fdc 93be a018 eeba 0956 833e 6e54 9a3d
00000380: 346b 353e 649c d03d f790 63be b20b 433e
00000390: c9ad ef3c db41 b2be 806a 1a3c 0e07 92bc
000003a0: 15c3 4bbe 142c 0b3d e3f8 b23d 68b6 98be
000003b0: 2062 443c 3e6f f3ba dd76 b1bd d7cd d4bd
000003c0: d62c cb3d d7b7 c3bd ca6f 98be 33c0 113d
000003d0: 3eb1 8c3e 37d2 f0bc 24f8 37bb 93f8 62bb
000003e0: 4131 eb3d c55e 2dbe 0d6d c5bd b3db a43b
000003f0: 0aa1 43be 68e2 983d dffe f9bd cefb 1b3d
0.08039778 0.12202921 -0.012849367 0.013844196 -0.06734093 -0.1531815 -0.3155647 0.0052044513
0.06118013 -0.08351686 0.04462932 0.12639543 0.039575122 -0.13529736 0.035504926 -0.038991403
0.05594752 -0.28467843 -0.40940085 0.0419483 -0.0673255 0.06577684 -0.177407 0.19617139
-0.12068077 -0.1362151 -0.2669915 0.19721016 0.30395785 0.12159399 -0.0015595211 -0.084329
0.0799277 -0.03667 0.044297475 0.20198 0.10466867 -0.23969436 0.06845497 0.121050954
-0.07490275 -0.3353159 -0.07548718 0.21604598 0.01900378 0.33673325 -0.1910676 -0.15289807
-0.14558563 0.19897988 -0.011929463 0.1801587 0.055575352 -0.0978181 -0.01908933 -0.011873081
0.04924953 0.11282089 0.22126012 -0.21699256 0.035103317 -0.3096535 0.019173319 -0.029300181
0.03749727 0.08438785 0.3092565 0.09148744 -0.16364536 -0.08970514 0.23149982 0.073426634
0.046673782 -0.106391355 0.106006406 0.0695842 0.009542601 0.06230003 0.029684233 0.16513726
0.21905115 0.46230114 0.27760974 -0.10503229 -0.22937524 -0.062156796 -0.098814346 0.30170104
0.11620914 0.18762907 0.1058953 0.084454805 -0.11798312 -0.11846652 -0.12222994 0.08530365
-0.18753177 0.0744658 -0.02289107 0.23148297 0.11352536 0.2873657 -0.27400938 0.17144933
-0.20016761 0.13592306 -0.0018086664 0.056310564 0.020023938 -0.2635408 0.120506994 -0.1625495
-0.2773142 0.0030265222 0.09803735 -0.036754068 -0.047035057 0.099119775 0.15340735 -0.29599974
0.01512301 0.21233536 0.14310871 0.17053151 0.12953262 -0.092118345 -0.08510106 0.08744171
-0.1209138 0.24138638 -0.022375166 0.30509505 0.027829709 0.022567468 -0.09345133 -0.2746605
0.43233368 -0.053668097 0.059986956 -0.14160624 0.37731266 -0.112515636 0.025942594 -0.109697044
0.10455377 -0.28552324 -0.053647887 -0.036612723 -0.0053541632 -0.14646877 -0.06091874 -0.004951979
-0.078622356 -0.10641739 -0.15875877 0.06479822 0.16318998 0.13186221 0.05446266 0.07584301
-0.14730436 0.23984659 0.007727529 -0.012637565 -0.21390256 -0.08990688 -0.2909991 0.19834404
-0.009203486 -0.10694051 -0.000910361 0.039979193 -0.003975964 0.10048381 0.031661022 -0.1527532
-0.16687173 -0.18802892 -0.35958087 -0.3240929 0.28541985 0.24114402 0.06266759 -0.0016210962
-0.37851724 0.05976401 -0.018631391 -0.2601199 -0.052268192 0.39982635 0.14137255 0.16617402
0.03534774 0.04731188 0.08604678 -0.0758736 -0.059044693 -0.08947417 -0.1680814 0.094323345
-0.45403647 0.17068157 -0.20197043 -0.05074241 0.13927887 -0.118133366 0.10773684 -0.0036092226
-0.189959 0.06355528 -0.1382248 -0.15754108 0.035023503 0.049199082 0.019271256 0.03749315
0.081335664 0.052678324 0.13868207 -0.11941631 -0.28879067 -0.0018165298 0.25651577 0.07535635
0.17716676 0.10186079 -0.22223268 0.1904743 0.029257672 -0.3481587 0.009424806 -0.01782563
-0.19898637 0.033977583 0.087388776 -0.29826665 0.011986285 -0.0018572581 -0.086652495 -0.10390823
0.09920661 -0.09556549 -0.29772788 0.035583686 0.27478975 -0.029397113 -0.0028071487 -0.0034633025
0.11484004 -0.16930683 -0.096399404 0.005031073 -0.191044 0.074650586 -0.12206816 0.038081937

features.0.bn.weight f4 [32]
00000000: 07f0 833f 69c9 833f 6c2d 873f 64fe 813f
00000010: b9b2 803f 734c 733f dd39 813f 7a0f 773f
00000020: 27b9 883f be43 753f 0af0 763f 92a0 743f
00000030: 3d2c 763f 66ad 793f ca51 843f e58f 7c3f
00000040: d838 803f 0529 7a3f c2ab 783f 6f12 7b3f
00000050: 050b 813f 4b5e 803f fae8 833f f00e 7e3f
00000060: 457b 813f 5ddf 853f e047 863f c1e1 6f3f
00000070: e894 7f3f 1115 803f d3da 813f 5f23 813f
1.0307626 1.029584 1.0560737 1.0155759 1.0054542 0.9503853 1.0095783 0.9650799
1.0681504 0.9580649 0.9646002 0.9555751 0.9616125 0.9753021 1.033746 0.98657066
1.0017347 0.9771884 0.9713708 0.98075 1.0081488 1.0028776 1.0305474 0.9924154
1.0115744 1.045879 1.0490685 0.9370385 0.9983659 1.0006429 1.0144905 1.0088919

features.0.bn.bias f4 [32]
00000000: 453d 7e3d efb0 063e 6e9a da3d 3beb f63d
00000010: dd3b 8a3d e659 98bc 8434 ca3d 2e3d 8fbc
00000020: 9549 f33c 60a6 b7bc 0d75 963d 1663 b4bc
00000030: 7d38 203d c0c4 9cbc 51ba c43d 45cf 363b
00000040: dc9a 983d c9a1 eebc e064 cebc d7e3 4fbc
00000050: 1ada a53b baed 07bb c75a 653d 0aa4 4a3a
00000060: 9363 213d 6546 b23d 2665 9b3d cbc2 7c3d
00000070: 207a 813c 24ce 7d3d c4b9 afbc f80f 0a3e
0.06207015 0.13153432 0.106739864 0.120565854 0.06749699 -0.018597554 0.09873298 -0.017485227
0.029698173 -0.022418201 0.073465444 -0.022019904 0.03911637 -0.019136786 0.096058495 0.0027894538
0.07451412 -0.02912988 -0.025194585 -0.012688599 0.0050614 -0.0020741061 0.055994775 0.0007730132
0.039401602 0.08704833 0.07587652 0.061709207 0.015805304 0.06196417 -0.021450885 0.13482654

features.0.bn.running_mean f4 [32]
00000000: 128a a1ba d909 e939 202a 7c3a aa61 183a
00000010: 582f cbb9 7bb4 5239 75be 24ba c85e 7738
00000020: f3b5 8739 1043 cf39 bf86 d3b9 00a9 6f39
00000030: b55a 2cba 53ae 5439 1b66 173a 51fe 4639
00000040: 9011 e6b9 a4f0 58b9 08cf 63b9 76e6 9db9
00000050: 6c13 f7b9 2f91 35ba 3a8f 51b9 d3e4 00ba
00000060: a9d2 383a 980d 45ba 8d3f 6a3a 1078 b5b9
00000070: 1ebe 7339 cbe0 463a 09b1 bb39 dd4b 34b9
-0.0012324473 0.0004444856 0.0009619314 0.0005812893 -0.0003875445 0.00020094395 -0.0006284484 5.897766e-05
0.0002588477 0.00039532082 -0.0004034545 0.00022855774 -0.00065747957 0.00020282836 0.0005775408 0.00018977492
-0.00043882104 -0.00020689011 -0.00021725532 -0.0003011708 -0.00047125982 -0.0006926236 -0.00019985149 -0.000491691
0.0007050434 -0.0007516979 0.00089358614 -0.00034612464 0.0002324511 0.00075865973 0.0003579932 -0.00017194399

features.0.bn.running_var f4 [32]
00000000: 123d 9d40 f694 563f 2289 8740 1823 fa3f
00000010: c508 1f40 e706 c93f a055 0040 a79f a43f
00000020: ade1 0640 d486 4c40 e72b 0b40 9b43 e73f
00000030: 04fe 0940 fab5 c83f a083 d73f 34af af3f
00000040: eafb a53f 7da4 913f 2e38 3f40 de6c c13f
00000050: d6a9 1640 7c5e 2340 685a a840 044d e03f
00000060: df3f 8040 a45f 3040 64d5 5b40 2d49 893f
00000070: 2543 4340 2da9 3340 714b fc3f ec1d b73f
4.913705 0.83821046 4.23549 1.954196 2.4849102 1.5705231 2.0052261 1.2861222
2.1075242 3.1957293 2.1745546 1.8067507 2.156129 1.5680535 1.6837044 1.3725343
1.2967503 1.1378323 2.987804 1.5111349 2.354116 2.5526419 5.261036 1.7523503
4.007797 2.7558374 3.4348993 1.0725456 3.0509732 2.8072007 1.9710523 1.4306006

features.1.conv.weight f4 [64, 32, 5]
00000000: 64d0 a9bd fca6 3a3e 9936 00be bed1 e5bd
00000010: 5bfe 453d 0f4d 83be 73d5 b83c c2ed 963b
00000020: de6c 26bd 7cc7 f93d 1aaa f73c 1f48 27be
00000030: 910e 95bc 8c51 743e 4a3f 72bd b5c9 c03c
00000040: 6360 aebd 75ef 273d eddb 84bd b7f5 21be
00000050: 21ad 033e befe b7bd 8e86 753d 9b5f 823d
00000060: d037 0e3d 4092 673e 9178 9bbd b58b fabd
00000070: cc5b 91bd c5d3 543d a848 a83b df18 1bbe
00000080: e143 183e b883 093d ebb3 133e 7814 733d
00000090: 1022 91bd 7e9f 3a3e e20c 64bd de50 36be
000000a0: 5eac 073d da3c 7e3d c6c8 24be cce5 283d
000000b0: d517 b73d 5775 2ebd b3c1 323d 3a44 97bc
000000c0: 7c2d a03c 57f2 0fbe 2b0c 573d cb6a 71be
000000d0: cd09 193e 6882 4cbe 11a4 5e3e d9f9 ea3d
000000e0: 97a0 cb3a 997d 86be 0696 66be 6b1b 3bbe
000000f0: b820 c93d 762f dcbd 7882 8abc 1c61 3b3d
00000100: f98f f3bd 25f6 53bb 1c04 ea3d 985d f8bc
00000110: ad2b 643e 0e28 3b3e dab8 b83d da3f 833e
00000120: c5c2 e13d 5755 f9bd ff84 d8bd f7a4 e5bd
00000130: bc2d a8ba 677f 613e 0492 5c3d af93 23be
00000140: 8936 b8bd 4b9f 30be 071a d9bd 5e81 953d
00000150: 0ea1 3d3e a11e 6c3c f497 a6bd 78c2 2c3e
00000160: ad83 733b 2ce7 933d e5e4 753d 379b 0dbe
00000170: 5695 5abd f6f0 653e 8041 6dba 51c0 613d
00000180: ed16 333e 4f65 983d dae0 2dbe b0d0 93bd
00000190: ce05 a5be 5a12 abbd df70 4c3d 289d 083e
000001a0: 99c5 25bb 72ce 103e 898c 4e3d fa09 b33d
000001b0: 3b83 bebd 4a76 143e ae9e 163e 44d5 123d
000001c0: ec17 1bbb cd4b adbd afbd 8bbc e5ab 21be
000001d0: a593 30bd 7381 283c 9996 1f3d 476b 0fbe
000001e0: 110d 4f3d 5d1d 2f3c 499c 6dbd 0819 10bd
000001f0: 3b7b 413d 4e18 0cbe a436 eebb 275e 3c3e
00000200: 4471 8bbe bcb1 053e 61b4 1139 e88b f5bc
00000210: c806 b0bd 2a60 413e da87 22bd c63e a83d
00000220: e614 a4be 4ba5 863d 3f4f c0bd 0170 9abd
00000230: a095 16be 93be 3cbb 712a 313d 4cbc 3dbd
00000240: a6db 34bd aea1 0fbe ec86 013d 82f2 6bbe
00000250: 8c3c ae3e f5cf ae3d 5a31 babe ccb6 1f3d
00000260: a8d6 b63b 6776 0f3e 4706 203c 150e 303e
00000270: 18bf 8fbd 40b4 853b cbb2 833a ee08 00be
00000280: 180f 84bd 3835 1d3e 82bc d43d 1e3c 7b3d
00000290: b620 08be 95ae 5dbc 5fe8 953e 3067 9dbc
000002a0: 7e84 04bd be37 153d df70 193c eb5a ba3c
000002b0: a455 123e 4b8b 90bd 6c7b 633d e488 b13a
000002c0: 955b fc3c ae73 3e3d d895 c5bc b1cc 92bd
000002d0: 47ec 27be b9f4 e8bd d6b6 57bd 4cd1 1c3e
000002e0: d154 a9be 59ea a0bd 5198 8ebd 80da adbd
000002f0: 4150 583c 8263 87bc 5d02 0abe 931d b0bd
00000300: 4e08 083d bb3d d13d d2e9 373c bfd3 58bd
00000310: 7d7f 81bd 5a20 b93d 8dfe c2bd 543c fa3d
00000320: 0e74 b0bd 4190 d5bd 487f 5fbc 4e80 34bc
00000330: 49b4 ce3d b614 733d 69bf 273d b6b1 75bd
00000340: 4299 d33c 813a 08be 8bb1 62be 3c65 923d
00000350: f8e4 f23d 99db a93d ca89 46bc 039b 2b3d
00000360: 0532 4a3e 8036 e3bd c5c2 7cbd ec93 6e3d
00000370: 4e2d b5bd 128c 2b3a bc7c 353b b277 17be
00000380: f501 843c 0fab 4cbd e3e5 8fbc d3e9 ec3c
00000390: 9e8a fdbd 1253 393e a6db d6bc 6908 9e3e
000003a0: 9a52 e4bd fb6e c6bd 5b1f 053d 7ba3 a73d
000003b0: 81a8 033d 184c 4b3d b48a 86be dad3 3abd
000003c0: eed6 353c 7ca0 113e 9cdb 22be 26fa c0bd
000003d0: fcc7 f3bb 8e5b fa3c cfb4 21bd 52f0 7b3d
000003e0: 1e8f 883d ef1f 07be 8625 ba3d 67da fcbd
000003f0: 729f 963d a2c6 0bbc 47c3 4cbe 89a7 0c3d
-0.082917005 0.18227762 -0.12520827 -0.11221646 0.048338275 -0.2564473 0.022562718 0.0046059797
-0.040631168 0.12196252 0.030232478 -0.16336106 -0.018195422 0.23859233 -0.05914239 0.023533681
-0.08514478 0.04099985 -0.0648726 -0.15816389 0.12859012 -0.08984135 0.059942774 0.063658915
0.034721196 0.22614384 -0.075913556 -0.12233678 -0.07097587 0.05195977 0.0051356144 -0.15146206
0.14869644 0.033572882 0.14424102 0.059345692 -0.07086575 0.18224904 -0.05567635 -0.17804286
0.033123367 0.06206975 -0.16092214 0.041234776 0.089400925 -0.042592373 0.043641757 -0.01846515
0.019552939 -0.14057289 0.05250184 -0.23575895 0.14945145 -0.19971621 0.21742274 0.11473436
0.001553553 -0.26267698 -0.22518167 -0.18272178 0.09820694 -0.1075124 -0.016907915 0.045746908
-0.11892695 -0.0032342758 0.11426565 -0.030318066 0.22282286 0.18276998 0.09019633 0.25634652
0.110234775 -0.121744804 -0.10572242 -0.11213105 -0.0012831013 0.22021256 0.05385019 -0.15974306
-0.08994777 -0.17248265 -0.106006674 0.073000655 0.18518469 0.014411599 -0.081344515 0.16871059
0.0037157342 0.07221827 0.060032744 -0.13828741 -0.053365074 0.224552 -0.0009050593 0.055115048
0.17489214 0.07441198 -0.16980305 -0.07217538 -0.3223099 -0.0835311 0.04991233 0.133412
-0.002529478 0.14141253 0.050426994 0.08742137 -0.09302374 0.14498249 0.14708969 0.035847917
-0.0023665382 -0.084617235 -0.017058222 -0.15788229 -0.043109555 0.010284769 0.03896198 -0.14005767
0.05054957 0.010688153 -0.058010373 -0.03518012 0.047236662 -0.13681147 -0.0072696973 0.18395291
-0.27234852 0.13056082 0.00013895474 -0.029973939 -0.085950434 0.1888434 -0.03968034 0.08215098
-0.32047194 0.06574496 -0.09390115 -0.07540894 -0.14705515 -0.0028800115 0.043253366 -0.046322152
-0.044154786 -0.1402652 0.031622812 -0.23041728 0.3403057 0.085357584 -0.36365777 0.038992688
0.0055797882 0.1401001 0.009767122 0.17192872 -0.0701887 0.0040803254 0.0010047791 -0.12503406
-0.064481914 0.15352333 0.103875175 0.06133663 -0.13293728 -0.013530393 0.29278848 -0.019214243
-0.032352917 0.036430113 0.0093652895 0.022748431 0.14290482 -0.07057818 0.055537626 0.0013544825
0.030805388 0.04649704 -0.024119303 -0.07167948 -0.16398726 -0.11374802 -0.0526646 0.15314215
-0.33072522 -0.07857198 -0.06962646 -0.08488941 0.013202728 -0.016526941 -0.13477464 -0.08599391
0.033211045 0.10216852 0.011225181 -0.05293631 -0.063231446 0.09039374 -0.09521208 0.12218538
-0.08615886 -0.10427905 -0.013641186 -0.011016918 0.100929804 0.059345923 0.040954027 -0.05998393
0.025829915 -0.13303567 -0.2213804 0.07148215 0.118600786 0.08293838 -0.012117812 0.041895878
0.19745643 -0.110943794 -0.061709184 0.058246538 -0.08846532 0.00065440044 0.0027692756 -0.14791754
0.016114214 -0.04996782 -0.017565673 0.02892009 -0.12379955 0.18098095 -0.026227783 0.3086579
-0.111485675 -0.096891366 0.032500606 0.08185478 0.03214312 0.049633116 -0.26277697 -0.045612194
0.0110986065 0.14221376 -0.15904087 -0.09422712 -0.0074396115 0.030561235 -0.039479073 0.061508484
0.066679224 -0.13195775 0.09089188 -0.123463444 0.073546305 -0.0085312445 -0.19996367 0.03433946

features.1.bn.weight f4 [64]
00000000: 376a 813f 9d9a 813f 3899 793f c762 893f
00000010: c325 813f 6344 823f 5f87 7d3f a248 933f
00000020: f857 733f 9cb6 713f be64 7e3f 0cc1 7d3f
00000030: e3cd 823f e04f 783f 8b1f 7d3f fc7a 843f
00000040: 3a77 813f 92c7 813f 72cd 783f f220 763f
00000050: 26d4 783f ed9e 823f 9b39 813f 6c18 813f
00000060: 5b30 763f fee1 7b3f 28cf 7c3f 2b15 773f
00000070: de5d 823f dc21 813f a6f4 7e3f 3eab 943f
00000080: 0c6a 7b3f 904a 863f 0e40 773f 07d1 7b3f
00000090: cbfc 803f e9f7 843f 7627 823f bbff 7f3f
000000a0: ae93 823f d033 7c3f ed4f 753f 05cf 803f
000000b0: b0f6 7d3f 450a 743f 8b03 873f 45da 7b3f
000000c0: e09d 753f 2113 863f 9fb4 873f 485b 873f
000000d0: 91a1 893f 3896 7d3f 5c4e 7f3f 4911 753f
000000e0: 1eda 7d3f c611 863f 9115 803f 248d 833f
000000f0: fd4b 733f d1e5 7d3f 6d65 7f3f 1e5e 683f
1.0110539 1.0125309 0.9749942 1.073327 1.0089649 1.017712 0.99034685 1.1506541
0.95056105 0.94419265 0.9937247 0.9912269 1.0219082 0.9699688 0.98876256 1.0350032
1.011451 1.0139029 0.97188485 0.9614402 0.9719871 1.020475 1.0095705 1.0085578
0.96167535 0.9839171 0.98753595 0.96516675 1.0184896 1.0088458 0.99592054 1.1614759
0.9820869 1.0491505 0.96582115 0.98365825 1.0077146 1.0388156 1.0168293 0.9999959
1.0201318 0.9851656 0.9582508 1.0063177 0.9920454 0.9532817 1.0547956 0.9837993
0.95944023 1.0474588 1.0601996 1.0574732 1.0752431 0.9905734 0.9972894 0.957295
0.99160945 1.0474174 1.0006582 1.0277448 0.95037824 0.99178797 0.9976414 0.9076861

features.1.bn.bias f4 [64]
00000000: ccd9 0f3d d8cb b03c 6068 7ebd 1b49 0abd
00000010: 9f4e 6c3c 5cca 413d 0543 17bc c651 81bd
00000020: 728e 9abb 6cd1 8cbc d4b0 1abb 264c b3bc
00000030: b8dc f3bc 12e4 81bd a952 593c a4f2 9b3d
00000040: 76c1 dcbc 297e 90bd 818b 96bc 0744 66bd
00000050: 6292 dc3c d35a 76bb c96d 89bd 7174 a13c
00000060: a15a 04bd e62c 0dbc ac17 62bd 9f6f afbb
00000070: cfc6 f4bb 612f 0c3c c025 b2bc 2c26 b83c
00000080: 015d a5bc e031 f03c 82a1 a43c 1d69 0abd
00000090: ecba 81bd a760 33bb 2f08 2fbd 2525 83bc
000000a0: 3198 0bbd cd24 46bd 8e5b 4ebd ff44 55bc
000000b0: cded 4abd 0eaf 233d 5217 abbd 8b65 0b3d
000000c0: cd3a ddbb e847 c73c 2dc6 5bbd 99bc 21bd
000000d0: 8821 acbc ff09 27bb 949a 1f3d 2a08 fb3c
000000e0: 1b7c 98bb fb43 5f3c de64 0dbc ceb4 aebc
000000f0: 83de 19bd af0c 973a 0d29 01bd 9325 91bd
0.035119817 0.021581575 -0.06211126 -0.033761125 0.014423042 0.047312126 -0.009232287 -0.06314425
-0.004716688 -0.017189704 -0.0023603933 -0.021886896 -0.029768333 -0.06342329 0.013264337 0.076146394
-0.026947718 -0.07055313 -0.018377068 -0.05621722 0.02692527 -0.0037590757 -0.06710393 0.019708844
-0.032312993 -0.008616662 -0.055198357 -0.0053538824 -0.007469989 0.008556218 -0.021746516 0.02247914
-0.02018595 0.029320657 0.020096544 -0.03379165 -0.06334481 -0.0027370842 -0.042732414 -0.016008923
-0.034080688 -0.04837494 -0.050380282 -0.013016938 -0.04954319 0.039961867 -0.08354057 0.034032386
-0.0067513944 0.02432628 -0.053655792 -0.0394865 -0.021012083 -0.0025488136 0.038965777 0.030643541
-0.0046534664 0.013627048 -0.008630006 -0.021326449 -0.03756572 0.0011524166 -0.03153329 -0.07087245

features.1.bn.running_mean f4 [64]
00000000: e259 a4be 86c0 54bd f0a4 503f fc50 27bf
00000010: 68d4 2dbf c4c3 a03d 2421 873f e808 13bf
00000020: d1fa 893f f26f 28bc 6ced 17bf d8a6 2ebf
00000030: 6eeb c5be 2c32 ebbe 07f8 62bf ba27 25be
00000040: f553 3cbf c741 2ebf 94b0 203e 8a71 cdbe
00000050: 1a86 6d3c b635 5fbf b912 24bf 2f89 5dbf
00000060: 3618 91bf 10ed 213f d04f ae3f 4cce d7bd
00000070: eee3 03c0 9505 12bf 6d85 c2be 6b04 22bf
00000080: e4b9 97be 1dd6 c8be 4727 a73f 7d83 59bd
00000090: e957 8c3f 3dd7 38be 7ab9 5bbf c979 d9be
000000a0: cd3d 233f f965 29bf 3303 46bf d8ca 4bbf
000000b0: fc97 a53f 6873 88be 4a09 bdbf c8c0 46be
000000c0: 028c 21bf ec07 4fbf dd86 4bbf 7fa4 b4be
000000d0: 9b3b 9fbf 9cec d2be 20ec cabe 5027 443e
000000e0: 789d 31bf 56b5 8abe 9e1a 0abf f257 c0bf
000000f0: d4ed 873f 488c c33e 36e1 9ebf 30fb bc3f
-0.32099825 -0.051941417 0.81501675 -0.6535795 -0.6790223 0.07849839 1.0556989 -0.57435465
1.0779668 -0.010280596 -0.5934665 -0.68223333 -0.3865618 -0.45936716 -0.8865971 -0.16128436
-0.7356561 -0.6806912 0.15692359 -0.40125686 0.014497304 -0.8719133 -0.6409107 -0.8653745
-1.1335514 0.63252354 1.3618107 -0.10537395 -2.0607867 -0.5703977 -0.3799242 -0.6328799
-0.2963401 -0.39225855 1.3058861 -0.053103913 1.0964328 -0.18050857 -0.8582989 -0.42475727
0.63766176 -0.6617122 -0.7734863 -0.7960639 1.2937007 -0.26650548 -1.476846 -0.19409478
-0.6310426 -0.8087146 -0.7950266 -0.3528175 -1.2440065 -0.41196144 -0.39633274 0.19155622
-0.69380903 -0.27091473 -0.53946865 -1.5026839 1.0619454 0.38192964 -1.2412479 1.4764156

features.1.bn.running_var f4 [64]
00000000: a29a a83f f8e2 2140 f08c 9d3f cccf 9b3f
00000010: 3317 d53f 4dd3 853f 96b4 5340 50bb 533f
00000020: c890 c83f ca83 af3f 013a 9b3f f1ca b43f
00000030: 3693 993f 8ac5 b43f 282e f43f 3fff 3e3f
00000040: fe38 703f 918f db3f c71f 863f b21a ed3f
00000050: de9f 143f b8c4 e33f 6a7b da3f 4978 d33f
00000060: e31f 2d40 27ef 9f3f 8b45 3440 2b2b 8e3f
00000070: aa32 2940 1f70 963f 0726 893f 6436 643f
00000080: e69b 953f 3450 c23f 79f8 0e40 8970 803f
00000090: c348 c63f f461 a13f 866f 8440 4bc7 ac3f
000000a0: 0c8a 1340 59e2 3f3f 0dc1 cc3f 39df 8c3f
000000b0: 72ad 1940 3724 553f 7a18 3b40 63d2 4e3f
000000c0: 0cdf 493f f0bf b03f 291e 7a3f 78f8 3d3f
000000d0: a2cf 0f40 4049 803f 3c03 aa3f ee48 333f
000000e0: bdb9 963f 98f9 013f 02e9 b13f e676 0540
000000f0: 2d0c 1740 316e 743f c8c2 4e40 a11a 5a40
1.317219 2.529478 1.2308636 1.217279 1.6647705 1.0455109 3.307897 0.8270769
1.5669184 1.3712094 1.2127076 1.4124433 1.199805 1.4122784 1.9076586 0.74608225
0.93836963 1.7153188 1.0478448 1.8523772 0.5805644 1.7794409 1.7068913 1.6521083
2.7050712 1.2494859 2.8167446 1.1106924 2.6437173 1.1752967 1.071473 0.89145494
1.1688201 1.5180726 2.2339156 1.0034343 1.5490955 1.2608018 4.1386137 1.3498319
2.3053007 0.74954754 1.5996414 1.1005622 2.4012113 0.83258384 2.923369 0.80789775
0.7885597 1.3808575 0.9770227 0.7420726 2.247048 1.0022354 1.3282237 0.70033157
1.1775433 0.50771475 1.3899233 2.085382 2.3601182 0.9548064 3.2306385 3.4078753

features.2.conv.weight f4 [128, 64, 5]
00000000: 707b 33be 3bd8 6cbd 1bfa 3e3d c8cd 81bd
00000010: 8a54 c23d 2888 85bd dfc1 c7bd 024e c2bd
00000020: 8c57 c13c c517 86bd a17a 20be 99ef 653d
00000030: 0cd1 0abe 9d62 4fbc 1e3c bdbd 5842 e6bd
00000040: 2212 873c 0804 abbd 9b4e 24bd de6d 5ebc
00000050: 07c1 94bd 8830 33bc 1c6e b8bd d981 9abd
00000060: f9a7 b6bd a3d6 cbbd 9e4d 263d 4fbe 003d
00000070: 6df4 09be 4953 1a3e ce80 10be df13 97bd
00000080: c897 53bd e414 d4bd a2bc c2bc 9454 96be
00000090: a1d5 c0bd 3877 6bbc d980 723e fac2 943b
000000a0: 72e9 d5bc 0448 093d c2d2 033e 3a0d 8a3d
000000b0: 8f55 41bd 4b75 dabd 5b73 083d f95d cb3c
000000c0: dc10 a7bc 684c cebd d56e 0d3d c7f0 553d
000000d0: d7de 6d3d 05f5 b4bd 95dc 213e a6ce 74bd
000000e0: f3a2 083e 7cbf 313d 0ea5 753d 9283 563d
000000f0: 5181 35be 5765 cfbd fbc5 e43d ae14 833d
00000100: ea9f aebd d59d 2c3d d909 133d c041 dfbd
00000110: 15f2 a73d 0f4c b43d 0bf8 323d 5fbe d7bd
00000120: cd28 093d dea4 c73c 0b46 eebc 5c56 053d
00000130: 80bc c3bd 7514 3d3d c60c 3abc c4f3 afbd
00000140: 8c37 ef3d 63fc 61be 9d21 173e bf94 19bd
00000150: c0cd e13c 6b00 dbbb f3ef bebc 4f78 db3d
00000160: 269f 7a3d 4967 69bb 5bc7 683d 55a7 d3bc
00000170: 4c98 763d ff0a e8bd 35cf 6fbd 9bf7 5abe
00000180: 04fd 01be cd1d debc 751e 5dbd 0260 253d
00000190: 6686 89bd 1606 03bd 9d2b f4bc dba3 2abc
000001a0: b001 7a3c 9681 b13c c8bd b03d ef4b 88bd
000001b0: 8728 473c 2392 703d c332 23be b2b6 fcbd
000001c0: 8312 04be 2410 3c3d 1046 ab3d 6402 bc3d
000001d0: b4dc 8fbc 67ce a03d 55ac 60bb a022 073e
000001e0: 3b6a 0bbd 6c78 be3a 7217 253d 2a78 663d
000001f0: 5f8b e73d db5b b53c bdbc 2c3d 6822 813a
00000200: 06f3 b33d 4731 fcbc 28c9 9a3d 8f41 c7bd
00000210: d338 64bd a453 bcbd 2865 9d3d bfa6 19bd
00000220: 6562 adbd 1c04 d3bd 3e00 c9bc 6a3b 423d
00000230: 4d39 c8bd 594d babc 8da7 8fbd 7983 de3c
00000240: 7265 26bd 4b06 043e 9cf0 db3d ea0f debb
00000250: 9722 143d c9e3 77bd 37c5 c63c a809 6d3d
00000260: 6e74 413d 199f 173b 06e9 e63d 8fba 81bd
00000270: 3dce 88bd b316 193d f0e8 973d 5607 7ebc
00000280: 5ed7 16be 5fc6 50bd 08ef 8fbd 1207 b83c
00000290: a6d9 853d 7383 3f3e f457 4e3d b271 003d
000002a0: 7509 da3d aafe 0cbd 0d7e 58bd d490 a2bc
000002b0: 6f95 cb3d fc83 a63d 7a7a 04be 0b2b 873d
000002c0: 9737 f9bb c986 bc3d fde6 3a3e ed12 0d3e
000002d0: 3d4c 40bd 8698 ddbd f4d7 fab9 ea3f 2cbd
000002e0: 7bb0 a23d 8e31 05be 0f7b 963c e7ce bd3d
000002f0: 871f 45bd f5aa 7abd 7c98 e3bd a631 df3c
00000300: 891e bc3c f851 5f3c 57f5 223d 5953 093e
00000310: d2f4 69bd 96d8 143d 57bb 1ebd 2022 c9bd
00000320: 8c79 13be 5d1a 103e 6b3f cbbc 4b82 033e
00000330: 5a19 27bd 4c61 5d3c 74e4 31be 514f a33c
00000340: 007e 393d f3b5 d3b9 27cc 5ebd 3ef6 aa3d
00000350: 9c87 f5bd 20c7 a6bd 5e5d 43bc 695a 90bd
00000360: b44e bdbd 4cde 3cbd c9a7 153d ab1b 18be
00000370: a8e7 633d 446f 70bc e7cf f5bd a66f 1abb
00000380: 2271 303d 9b9d 51bd f06e 0ebd 2403 2b3e
00000390: e0a8 84bd 3d16 2dbe 58be 89bd 904c af3d
000003a0: 6ce2 33bc db7b 68bd 548c eabd d16c bdbd
000003b0: 8c4e 1bbd 3463 963d 1a8e 433d c5ae 043e
000003c0: 74b7 aa3d f0ee 05be f4f3 0bbd 7ec7 bc3d
000003d0: b167 5339 0f1c e93c e832 053e 5972 193e
000003e0: 47a5 2abe 3b3d 853d ad72 e9bc 2572 f4bd
000003f0: d05a 03be cc51 ddbc 678a febc cd2a c93c
-0.17527556 -0.0578234 0.046625238 -0.06338078 0.09488781 -0.0652011 -0.09753775 -0.09487535
0.023601316 -0.065475024 -0.15671779 0.0561367 -0.13556308 -0.012657789 -0.09239982 -0.11243123
0.016488139 -0.08350378 -0.040114027 -0.013575999 -0.072633795 -0.010936864 -0.09005377 -0.07544298
-0.08918757 -0.09953048 0.040601365 0.031431492 -0.13472147 0.15070833 -0.14111635 -0.07376837
-0.05165842 -0.10355547 -0.023771588 -0.29361403 -0.094157465 -0.014371686 0.23681964 0.0045398446
-0.026112292 0.033515945 0.12873366 0.06740804 -0.047200736 -0.10666903 0.033313137 0.024825083
-0.020393781 -0.10073167 0.034529526 0.052231576 0.058073845 -0.08835796 0.15806802 -0.059767388
0.1334341 0.043395504 0.05997186 0.05237157 -0.17725112 -0.10126751 0.11170574 0.06400429
-0.08526595 0.042142708 0.035898063 -0.10901213 0.0820047 0.088035695 0.043693583 -0.10534357
0.033486176 0.024370607 -0.029086133 0.03255306 -0.09557438 0.046162087 -0.0113555845 -0.085914165
0.116805166 -0.22068934 0.14758916 -0.03749537 0.02756393 -0.0066833994 -0.023307776 0.107163064
0.061186932 -0.0035614541 0.056830745 -0.025836626 0.060203835 -0.11330222 -0.058547217 -0.21383516
-0.12694174 -0.02711382 -0.053984124 0.040374763 -0.067150876 -0.031988226 -0.029805953 -0.010415043
0.015259191 0.021668237 0.08629948 -0.06655108 0.012155659 0.058733117 -0.15937333 -0.12339534
-0.12897687 0.04591383 0.08362973 0.091801435 -0.017561294 0.07851868 -0.0034282405 0.13196802
-0.034036856 0.0014531738 0.040305562 0.05626694 0.1130588 0.022138527 0.042172182 0.0009852173
0.087865874 -0.030785216 0.07557899 -0.09729301 -0.055718254 -0.09195641 0.0768531 -0.037512537
-0.08466033 -0.10303518 -0.024536248 0.047419943 -0.09776554 -0.02274196 -0.0701438 0.0271623
-0.04062409 0.12893026 0.10739252 -0.0067767994 0.0361658 -0.060519967 0.024263961 0.057870537
0.047230177 0.00231356 0.112749144 -0.06334411 -0.06679962 0.037375163 0.07417476 -0.015504679
-0.14730594 -0.05097043 -0.070280135 0.022464309 0.06535654 0.18702488 0.050376847 0.03135843
0.10646335 -0.034422554 -0.052854586 -0.01984445 0.099406116 0.08130643 -0.12937346 0.06600007
-0.007605504 0.09205396 0.18252178 0.13776751 -0.046947706 -0.10820107 -0.00047844613 -0.04205314
0.07943817 -0.13007185 0.018369226 0.09267979 -0.04812577 -0.061198194 -0.111130685 0.027245354
0.022963779 0.013630383 0.039784756 0.13410701 -0.057118244 0.036339365 -0.03875288 -0.09820962
-0.14401835 0.14072557 -0.024810513 0.12842672 -0.04079566 0.013511967 -0.17372304 0.019935282
0.04528618 -0.0004038062 -0.054393914 0.08347748 -0.11988756 -0.08143449 -0.011924116 -0.07048494
-0.09243527 -0.046110436 0.036536966 -0.14854304 0.055640846 -0.014674965 -0.12002545 -0.0023565083
0.04307664 -0.051175695 -0.034773767 0.16700417 -0.06477523 -0.16903014 -0.06725758 0.08559525
-0.010979276 -0.056758743 -0.11452547 -0.09249271 -0.037916705 0.0734314 0.04774294 0.12957294
0.08335772 -0.13079429 -0.0341682 0.092177376 0.00020161156 0.028455762 0.130077 0.14985026
-0.16664611 0.065058194 -0.028497064 -0.11935834 -0.12827611 -0.027016543 -0.031071855 0.024556542

features.2.bn.weight f4 [128]
00000000: ba33 773f ab24 803f cf3f 843f 424f 693f
00000010: e221 783f ad45 793f f85b 823f c91a 7b3f
00000020: 9355 7b3f 583a 783f e084 843f 02af 8c3f
00000030: 7b28 7b3f 534b 803f e661 853f 9e0a 763f
00000040: 570f 793f 7b6e 793f 32c3 763f 4570 7c3f
00000050: 97ce 853f 59f4 6e3f 679f 7a3f fe1d 963f
00000060: 5c55 883f 4415 743f ca97 683f c4c7 7a3f
00000070: adcf 763f 3d39 703f fdbe 813f ea23 6f3f
00000080: fc95 713f 70c5 6b3f c999 7a3f 3e3f 843f
00000090: 8ff7 783f 370a 803f ca55 793f fa99 783f
000000a0: ad32 6d3f 4c24 723f 0c2c 863f f217 7b3f
000000b0: e5a8 773f e67b 743f c3cd 7d3f 6105 8f3f
000000c0: 2224 763f e241 7a3f d02f 833f 78cb 853f
000000d0: 960c 843f 8495 8a3f 2845 713f 277c 7f3f
000000e0: 4e00 6b3f b575 833f 26da 773f fe99 7b3f
000000f0: 9791 813f 2f57 6f3f 7865 7e3f 4a73 693f
00000100: 3a2e 853f 3446 6f3f af45 773f c9bd 623f
00000110: 88a5 7d3f 64ba 7c3f 9935 7d3f 57ef 8d3f
00000120: eafb 763f 815d 763f 61b4 693f efd5 883f
00000130: d80e 7f3f dbad 7c3f 0bda 693f e55a 803f
00000140: 1280 883f 914e 7c3f 6d3e 7b3f b5bf 763f
00000150: 594a 7e3f 5cd8 763f 417d 813f 4935 7c3f
00000160: d453 763f 80bd 833f 82ef 743f e7b8 703f
00000170: c320 6d3f 51fb 803f fc3e 793f 0297 863f
00000180: 81b6 733f 2a7b 7a3f 6d9b 7c3f 3107 733f
00000190: b184 853f 335f 7d3f 26d5 693f 1f59 7e3f
000001a0: 198b 803f 0cf2 7d3f 9e85 803f 7b7f 713f
000001b0: bc78 813f 6666 673f 8c9d 883f d653 793f
000001c0: d9e8 813f d074 883f 5a48 783f 36bd 803f
000001d0: 9d85 773f c787 853f e4cf 7d3f f206 7a3f
000001e0: 3a9d 723f fac0 783f 6500 763f 791f 813f
000001f0: 3475 753f 7b81 813f 43b9 6e3f 5973 7b3f
0.96563303 1.001119 1.0331973 0.9113656 0.969267 0.9737194 1.0184317 0.98087746
0.9817745 0.96964025 1.035305 1.0990908 0.98108643 1.0022987 1.0420501 0.9610995
0.9728903 0.97434205 0.96391594 0.9860881 1.0453671 0.93341595 0.9789948 1.1727903
1.065105 0.9534495 0.9085661 0.9796107 0.9641064 0.9383734 1.013641 0.93414176
0.94369483 0.9209814 0.9789091 1.03318 0.97252744 1.0003117 0.9739653 0.9710995
0.9265545 0.94586635 1.0482192 0.9808341 0.9674209 0.95501554 0.9914209 1.1173517
0.96148884 0.9775678 1.0248966 1.0452719 1.0316341 1.0826879 0.9424615 0.99798816
0.9179734 1.0270296 0.96817243 0.9828185 1.0122555 0.93492407 0.9937358 0.9119154
1.0404732 0.93466496 0.96590704 0.8857084 0.99080706 0.9872191 0.9890991 1.1088666
0.9647814 0.96236426 0.9129086 1.0690287 0.99632025 0.9870278 0.9134833 1.0027739
1.0664084 0.9855738 0.9814213 0.9638627 0.99332196 0.9642389 1.011635 0.98518807
0.9622166 1.0292206 0.9567796 0.9403214 0.92628115 1.0076696 0.9736173 1.0514834
0.95200354 0.97844183 0.9867466 0.9493285 1.0431119 0.9897339 0.91340864 0.9935474
1.0042449 0.9919746 1.0040777 0.94335145 1.011497 0.9039062 1.067308 0.9739355
1.0149184 1.0660648 0.969854 1.0057743 0.9668825 1.0432061 0.9914534 0.9766685
0.9477116 0.9716946 0.9609435 1.008773 0.9588196 1.0117639 0.93251437 0.9822288

features.2.bn.bias f4 [128]
00000000: ab05 acbd a61c 67bd a1fa 9ebd 1952 c1bd
00000010: 8271 c3bd a375 afbd ad8a 39bd c90d b7bc
00000020: 0f26 503c 9fba d1bd 8a64 cabd f8b6 f8bc
00000030: d8cd fbbd 4d7f 61bd a565 02be 654b 2bbd
00000040: d18e 45bd 83d5 22bc 9858 89bd d3ec d1bc
00000050: 2d88 35bd d7ec 3fbd 4421 adbd 5890 5cbd
00000060: 9dcc bebd 7c2b 32bd e608 8dbd 4947 0abd
00000070: e504 1dbd 6054 8ebd 3afd 4cbd b8c6 91bd
00000080: 6b11 09be 703a b5bd da63 dcbc 2046 99bd
00000090: d329 eebc 676b b2bd 3400 9cbd 4fe4 5abd
000000a0: 2df3 babd 513d a3bd 25e5 57bd 0813 88bd
000000b0: 1786 7dbd b845 fcbd f2bb f7bd c8f9 bebd
000000c0: 2a56 8abd 7de5 3ebd d4b2 e4bd a8aa 65bd
000000d0: c37b fcbd b504 84bc 1960 aebd ee3b c4bd
000000e0: bc76 a5bd ec46 89bd 7c3b 93bd 6138 2dbd
000000f0: 86c5 14bd 6f96 8ebd c948 13bd d85b bebd
00000100: 71f4 2cbc 06da 3dbd 0f1d a5bd 91d3 a3bd
00000110: 8711 bdbd 7f52 47bd 3ded 42bd 48c2 51bd
00000120: b61f aebd 56b1 0fbd 8c05 dfbd fefa 8ebd
00000130: a8cf b0bd 466c 8abd f369 a6bd e382 c9bc
00000140: f114 afbd d3ef 98bd 726d a6bd e393 5fbd
00000150: eb6b 88bd 646a 42bd 817e bebd 4863 a6bd
00000160: 19b6 fcbc f28e a6bd 02cf 06be cac4 89bd
00000170: 5368 72bd 113d bcbd 2650 c5bc fd46 d8bd
00000180: b20b d9bd 788f 89bd bc54 8ebd 883d 48bd
00000190: 3956 febc 49cf 9fbd 11a3 76bd a74c 25bd
000001a0: b742 99bd f28d 87bd 2630 a0bd 2a4b d9bc
000001b0: 8c8f bbbd 4b81 a6bd c33b 81bd 0b38 91bd
000001c0: 1f0b dfbd 3d6b 98bd b9f7 aebd 2abc 59bd
000001d0: d869 a9bd 222a a8bd 043b d0bd ee32 d1bd
000001e0: 151a 02be 7daf e7bb 9730 b1bd 4d63 afbd
000001f0: 310e 83bd 9237 02bd aa6c 94bd 448e b1bb
-0.083995186 -0.056423806 -0.077626474 -0.09439487 -0.09543134 -0.08567359 -0.045298267 -0.02234544
0.012704386 -0.10240673 -0.098824576 -0.030360684 -0.12295121 -0.055053044 -0.12734087 -0.04181995
-0.048231903 -0.0099386005 -0.06706351 -0.025625622 -0.04431932 -0.046856727 -0.084536105 -0.053848594
-0.09316371 -0.0434985 -0.06886463 -0.03375939 -0.038334746 -0.06949687 -0.050046183 -0.07117981
-0.1338555 -0.08849037 -0.026903082 -0.074840784 -0.029072678 -0.087118916 -0.07617226 -0.05344039
-0.09128413 -0.079706796 -0.052708764 -0.06644255 -0.061895456 -0.12317985 -0.120963946 -0.09324986
-0.06754716 -0.046605576 -0.11166921 -0.056070954 -0.12328293 -0.016115526 -0.08514423 -0.09581743
-0.080792874 -0.067029804 -0.0718908 -0.042290095 -0.036321186 -0.06962287 -0.035958085 -0.092948616
-0.010556326 -0.0463505 -0.08062183 -0.079993375 -0.09231859 -0.04866266 -0.04758953 -0.05121067
-0.08502142 -0.03508123 -0.1088973 -0.06981467 -0.08633357 -0.06758933 -0.08125677 -0.024598544
-0.08548916 -0.07467618 -0.08126344 -0.054584395 -0.06661209 -0.047464743 -0.093014725 -0.08124405
-0.03084855 -0.081327334 -0.13164905 -0.06726988 -0.059181523 -0.09191335 -0.02408607 -0.10560415
-0.10597934 -0.067168176 -0.069497555 -0.048886806 -0.031046974 -0.078032084 -0.060214106 -0.040356304
-0.07483428 -0.06618871 -0.078216836 -0.026525099 -0.09158239 -0.081301294 -0.06310227 -0.070907675
-0.10890793 -0.07442329 -0.08543343 -0.053157963 -0.08272141 -0.08211161 -0.10167506 -0.10214792
-0.12705262 -0.0070704804 -0.08651846 -0.08563862 -0.06399191 -0.031791277 -0.072472885 -0.0054185707

features.2.bn.running_mean f4 [128]
00000000: 20b1 4cbf d2cc 75bf 2386 2abf 9625 8cbf
00000010: 3466 dd3e f599 943e ed05 4bbf 12f1 88bf
00000020: 894f 00be a052 3fbf 0f23 b83d e3a1 10c0
00000030: e85a ec3f 5486 633f 0317 3fbd 0dd9 0abf
00000040: 2bb8 85be c4d4 38bf c294 8bbf 303d ad3e
00000050: 07ac ab3e bd5e 80bf 9dc0 cc3f 65a6 d8bf
00000060: 751c 06be 199a ebbf 85ee 42bf 2134 4fbf
00000070: ced3 fe3c 2fa3 76bf b9d4 a43f b0d6 1c3f
00000080: a8a0 0e3f e3f6 42be a50f f8be c884 b63e
00000090: 575d 13bf 5a7e 8d3e 4a08 c63e 34f5 42be
000000a0: 6274 30bf cb16 88bf 5c8e 25be 993c 7d3e
000000b0: dc1c e5bf 709e 85bf 1615 4f3f 3cc4 edbe
000000c0: 4066 a73f e901 bf3d 4050 f4bd 5006 273e
000000d0: 486c 823f 8885 24c0 f4d1 d5bf c292 94bf
000000e0: c2e8 013f bc56 7f3d 2d39 78bf db94 a4be
000000f0: ac91 48bf fa9f f43f 9d9f b6bd b9fc 4fbf
00000100: 5005 7f3f 6215 053e 68cb 243f 56bb da3f
00000110: 82ab a93f f9f2 49bf cae1 823e 7fdf 9abf
00000120: fa6a a3be 7d62 b8bf 76b8 51be bd18 b4bf
00000130: 4ff7 92be a4d8 74bf 2c6e 9bbf 2804 58bf
00000140: e9f3 78bd 56e9 933f 5b10 1abf 940b 96be
00000150: a1e9 cebe 769d 0ebf 341b 42be 88fa ad3f
00000160: 2c47 653d fcdd 98bf 4573 383f ddad 50bf
00000170: 6369 dabd c551 a5be 25f6 1fbf 405a 7ebe
00000180: fc8b 02bf 4691 75bd 5ee0 693d a321 e0bf
00000190: 81ed f5bf 66c3 6bbd 2fe4 d93f 1a16 703d
000001a0: 8efb 1cbf f219 96bd 081a 30bf de5e 98be
000001b0: 3e3c d83f 4aba af3d 80ca 65bf 71fa 2dbe
000001c0: 9920 6ebf b0fd 61bf 2e47 cebe eebf 58bf
000001d0: 270a 38bf d47d 32bf 1e43 af3e 284e b63f
000001e0: 4ea1 c53f d31e 883e aa12 8c3f d142 22bf
000001f0: f4c7 823f 6c7f 54bf dfb6 d53f 793e f63e
-0.7995777 -0.96015656 -0.66610926 -1.094897 0.43242037 0.2902371 -0.7930592 -1.0698569
-0.1253034 -0.7473545 0.08991062 -2.2598808 1.8465242 0.88876843 -0.046652805 -0.54237443
-0.26117072 -0.72199655 -1.0904772 0.33835745 0.33529684 -1.0028912 1.5996281 -1.692578
-0.13096793 -1.8406402 -0.761452 -0.8093892 0.031106856 -0.9634275 1.2877418 0.6126509
0.5571389 -0.19039492 -0.48449436 0.3564818 -0.575643 0.2763546 0.386782 -0.1903885
-0.68927586 -1.0631956 -0.16167587 0.24730147 -1.7899432 -1.0438976 0.8089155 -0.46438777
1.3078079 0.09326536 -0.11929369 0.16311002 1.0189295 -2.57065 -1.6704698 -1.1607287
0.50745785 0.062338576 -0.96962243 -0.32144818 -0.7834728 1.9111321 -0.089171626 -0.81245
0.9961748 0.12996438 0.64372873 1.708842 1.3255465 -0.7888637 0.25562888 -1.2099456
-0.31917554 -1.4405056 -0.20480523 -1.407005 -0.28704306 -0.9564307 -1.2142997 -0.8438134
-0.060779486 1.1555583 -0.60181206 -0.29305708 -0.4041262 -0.55709016 -0.1895569 1.3592081
0.055976078 -1.1942744 0.7205089 -0.81515294 -0.10664632 -0.32288948 -0.6248496 -0.24839115
-0.5099485 -0.059952997 0.05709874 -1.7510265 -1.9213105 -0.057559393 1.7022761 0.058614828
-0.6132134 -0.073291674 -0.6878972 -0.29759878 1.6893384 0.08580454 -0.89762115 -0.16990067
-0.9301849 -0.8827772 -0.4028868 -0.8466786 -0.7189049 -0.6972325 0.34230894 1.4242601
1.5439851 0.26586017 1.0943196 -0.63383204 1.0217271 -0.8300693 1.6696433 0.48094538

features.2.bn.running_var f4 [128]
00000000: 3f72 4740 c856 1640 60f0 b93f a06e f43f
00000010: 1e78 e33f ce4f de3f 9865 773f ab9c ad3f
00000020: c4cd 403f 037a db3f 4f94 f03f 13ff 4e40
00000030: 7241 f43f 4c0c a73f 4b34 823f 2f20 f53f
00000040: 8fd9 9e3f ca54 0940 85df 0140 71d5 953f
00000050: d2d4 9e3f 7a83 983f 837f cd3f 4fe3 0040
00000060: d1bc a63f 0f42 3040 8abf ab3f 3b6f a93f
00000070: f94f 5a3f 6531 6a40 6b3d b53f 838b 5c3f
00000080: 9a2c bb3f e6b0 1040 0298 ae3f 8407 b03f
00000090: 912c c73f 513e b63f 44e7 b13f fa80 993f
000000a0: 9998 dc3f c8f7 0d40 1ee1 8a3f 983f ce3f
000000b0: 726d e13f 1601 8a3f a03f 0140 42cb d43f
000000c0: f426 0640 f9e0 493f 06a6 a63f cd32 873f
000000d0: 4623 b73f 446e 8440 ef8e 1f40 06c6 f53f
000000e0: 3ac2 d53f b3f3 423f c3bf 9e3f 8757 a93f
000000f0: 4458 b53f 92fa 1340 be19 6b3f 21a4 653f
00000100: a2dd 573f 5be5 443f cc38 753f cba2 f53f
00000110: 57be 3f40 c6c6 a33f 499a 843f 6590 cc3f
00000120: 9ceb ea3f faf6 1840 a35a ac3f b005 ed3f
00000130: 5d37 2340 f7c9 ee3f 7cf3 6540 38d1 c73f
00000140: 4b35 803f 5326 0040 d3d8 cb3f 0335 343f
00000150: 189a c23f 779a 8b3f 3dc9 e63f 5063 da3f
00000160: 3fc3 ca3f 826b 5b40 9103 c63f 6721 c53f
00000170: 76f3 913f 52b5 6c3f 03eb 8c3f 9699 933f
00000180: 293b f33f 4095 8f3f 9a9c 8a3f 1bd1 0440
00000190: c0e2 c63f 3517 2840 57e8 6240 db1a 4f3f
000001a0: 912f 2140 fed9 2d40 779c 673f 360a 0140
000001b0: 5e6d df3f 016b cf3f 74d9 963f d0c4 c83f
000001c0: 751b 6a3f fcad 0740 7c87 953f 8817 b03f
000001d0: 52db 9d3f 077b d63f fb40 893f 8068 cb3f
000001e0: e220 ef3f 07fc 973f 7d82 0d40 eb11 4d3f
000001f0: 3ee8 a63f 12c4 d53f 44c8 1840 1593 d23f
3.116348 2.3490467 1.4526482 1.909626 1.7771032 1.7368104 0.96639395 1.3563436
0.75313973 1.714661 1.879526 3.2343185 1.9082472 1.3050628 1.0172209 1.9150447
1.2410144 2.1458 2.0292675 1.1705762 1.2408698 1.1915123 1.6054538 2.0138738
1.3026372 2.754032 1.3417828 1.323707 0.8527828 3.6592648 1.4159368 0.8615038
1.4622986 2.260797 1.3640139 1.3752294 1.5560476 1.4237767 1.3898702 1.1992486
1.7234069 2.2182484 1.084995 1.6113157 1.7611525 1.0781581 2.0195084 1.6624529
2.0961275 0.78858906 1.3019416 1.0562378 1.430764 4.13846 2.493099 1.9201057
1.6699898 0.76153105 1.2402271 1.3229836 1.4167562 2.3121686 0.91836154 0.89703566
0.8432256 0.7691247 0.9578979 1.9190305 2.9959924 1.2795036 1.0359584 1.5981566
1.8353152 2.3900743 1.346516 1.8517361 2.550254 1.8655385 3.592986 1.5610723
1.0016264 2.0023391 1.5925545 0.7039339 1.5203276 1.0906514 1.8030163 1.7061558
1.5840834 3.4284368 1.5469838 1.5400819 1.1402423 0.9246417 1.100922 1.1531246
1.9002429 1.1217422 1.0829041 2.0752628 1.5537949 2.6264164 3.545431 0.80900353
2.5185282 2.7164302 0.9047312 2.0162482 1.7455251 1.620453 1.1785111 1.5685062
0.91448146 2.1199942 1.1681972 1.3757181 1.2332556 1.6756295 1.0722955 1.5891266
1.868191 1.1873788 2.2110894 0.80105466 1.3039625 1.6700461 2.3872232 1.6451136

features.3.conv.weight f4 [256, 128, 3]
00000000: d62e 11bd 1a13 813b 908e 9c3d 1814 a33b
00000010: 8bb2 99bd 307a 7cbb 0aa4 45be e7e1 47bc
00000020: 68d8 3dbc 8328 9d3c 3d1e bbbd 03fb 34bd
00000030: a207 9fbd abda 743c 920f dbbc ed78 813c
00000040: aebd 8f3d 811b af3d 721c bbbd df22 133e
00000050: b9e8 583d c40e b8bd 9bbc 42bd 4940 acbd
00000060: f7c7 71bc 6383 9c3c 80bb 8ebd 8017 fbbc
00000070: 44b1 8b3c d217 8f3d de51 cfbc 90c1 27bd
00000080: 1269 9cbd ee9d 183d 2c59 d9bc eaf1 d83c
00000090: 0203 9a3d c9a5 7e3d 18c1 1c3d 77bf 433c
000000a0: 5817 71bd 39be bc3d 9196 f6bd 9d40 e5bb
000000b0: 9e67 08be 97eb 63bd d0ae 593d c4c9 62be
000000c0: b16d 51bd 4e1d d3bd 0daa 00bd 0f92 343d
000000d0: ae23 d8bd b9d9 f9bd 2180 80bd 10cc 6abc
000000e0: 9f3d 88bd fd01 8abc efba 5ebc d425 b73d
000000f0: 37fe 073e ed0e e9bd 377e e7bc 3387 bcbc
00000100: 4fd5 a83d 4c58 803d befe cbbd a715 50bd
00000110: 2c54 13be 117e 563d 9265 a83c 2220 113e
00000120: da6f f1bd a42e ca3d c9b7 c6bd 4a45 253d
00000130: 90bc 17bc 7573 223e d015 13bd c0cd 453c
00000140: 4137 74bd bcd3 5b3d 3235 94bd 4d47 133d
00000150: 5966 d73b 7bdb 323d a001 8bbd 2f22 093d
00000160: 97e6 983d a9ec 8f3d ea6a c23d ae97 963d
00000170: 73c3 9c3d 7c57 c53d 5331 a13a c7a0 ffbc
00000180: 7db3 f73b 24e1 5f3d f010 adbd 0647 ad3d
00000190: 6c0f 2abe cb7b 9ebd 3759 adbd 2d48 9c3d
000001a0: cfef a43d e172 debd 9662 d8bc 9ccc 033e
000001b0: 8a9a 983d de3a cebc acba 11be ab87 2ebd
000001c0: 3532 0dbc b0de e6bc a636 f73c 9131 e23d
000001d0: c299 2ebc 3bc4 11be 0d53 8b3d 98f9 6fbd
000001e0: 0ee2 1e3e f9d0 03bd bc8f b9bd 83c8 613d
000001f0: d852 333d 2e69 2ebb 4e26 aa3d 680a 5bbb
00000200: 02ad 95bd 3b01 ffbc 2fbc 6dbd 0393 17bd
00000210: 3a52 bdbb 2535 f4bd 7d6f a2bd 79fc 343e
00000220: 4c6c fabc 7041 de3d cde3 6f3c 053d b7bd
00000230: 5fd4 03bd ded9 033d f050 e43d d0ba a9bd
00000240: f093 4abd ba88 1ebd 936d b9bc 51fd cc3c
00000250: 3506 a3bc 7911 1fbd 369e 5bbd 727a b1bc
00000260: 93e4 2fbc ecd1 b53c 4b9c 74bd 8d57 ebbc
00000270: 53b5 3abd d311 afbd 024f 413d a958 07be
00000280: 0e84 563d 8ee3 a23d ae1c 8c3b 8875 4c3a
00000290: c56d c53c 51d9 4e3d 5eee 92bd ee0b a13d
000002a0: 44e5 0a3e 0cbc 80bc 28ce 8bbb 4c92 72bc
000002b0: a25e e9bd 553f 223d 7b1d a03d c5bb 613d
000002c0: 451f a2bd 175b 08be 792f 96bd 0ff5 07bc
000002d0: ac66 af3d 60d6 79be 8934 d6bc bd05 7a3d
000002e0: e938 56bd d8f5 e5bb 8d40 ccbc 1714 3ebd
000002f0: ec04 21be df5c 163d 85d2 cabd e809 773d
00000300: 018f 2ebd 8450 3abd c434 94bc 16c1 cabd
00000310: 6d92 b3bc 3ba6 91bd 0870 44bd ffeb debd
00000320: ec94 253b a1cd 4dbc 7a25 663c 3f95 8e3d
00000330: 65d0 7ebd 30fb 263e b5a4 b8bd 0044 8a3c
00000340: 8dca 58be d79d 21bd 3567 a8bc c3e8 95bc
00000350: 2c77 233d 0569 b8bb 0e6e 30bd 4f96 6bbd
00000360: dde5 9abd b1bd dbbd a2d7 573c 4bb6 84bd
00000370: 3d2a b4bd e3cd 1f3e d4a8 b9bd 65b7 a53a
00000380: d3c6 23be b6da 89bd 3a58 f93c 87b3 933d
00000390: b887 70bd c816 163b d208 adbd 46a0 863d
000003a0: 0a25 c33d 7bc0 bdbd 8218 063e aec6 d33c
000003b0: f9c2 fd3c 8ead 213e 6b12 8fbd e540 743e
000003c0: 32a4 243d 5480 1abd 4010 92bd 5777 843c
000003d0: 792a 24bd 464a 323c 1811 933c b836 16be
000003e0: 4168 723d 5416 26be 8b1d 3e3d 9d80 433d
000003f0: 9391 35be b63b adbd dff3 6d3d 2ab1 193d
-0.035445057 0.0039390447 0.07644379 0.0049767606 -0.075047575 -0.0038524978 -0.19300857 -0.012199855
-0.01158724 0.019184357 -0.09136627 -0.044184696 -0.07765128 0.014944713 -0.026740823 0.015804732
0.070186004 0.08550168 -0.09136285 0.14368771 0.052956317 -0.08987191 -0.04754315 -0.08410699
-0.014757148 0.019105619 -0.069693565 -0.030650854 0.0170523 0.06986965 -0.025307592 -0.04095608
-0.07637228 0.03725999 -0.026531778 0.026482541 0.07520105 0.062169824 0.038270086 0.011947504
-0.058860153 0.092159696 -0.12040437 -0.006996228 -0.13320777 -0.055644598 0.05314523 -0.2214728
-0.05113 -0.10308324 -0.031412173 0.044084605 -0.1055368 -0.121997304 -0.06274439 -0.014330879
-0.06652378 -0.016846651 -0.013594373 0.08942762 0.13280569 -0.113798 -0.028258426 -0.023013687
0.082438104 0.06266841 -0.099606976 -0.0508019 -0.14387578 0.05236632 0.020556245 0.14172414
-0.11788912 0.09872177 -0.09703023 0.040349282 -0.009261265 0.15864356 -0.035909474 0.01207298
-0.059623007 0.053668723 -0.07236709 0.03595667 0.00657348 0.043666344 -0.06787419 0.033479866
0.074658565 0.07027561 0.094930485 0.07353149 0.076544665 0.09635827 0.0012298025 -0.031204594
0.0075592385 0.05465807 -0.08450496 0.08460812 -0.16607445 -0.077384554 -0.08464282 0.07630954
0.08053552 -0.10861755 -0.026414197 0.12871021 0.07451351 -0.025174554 -0.14231366 -0.04260985
-0.008617927 -0.028182358 0.030177426 0.1104461 -0.010656776 -0.14235012 0.0680295 -0.05858764
0.1551592 -0.032181714 -0.09060618 0.055122864 0.043780178 -0.0026612985 0.08308087 -0.003342295
-0.07308389 -0.031128516 -0.058040794 -0.037005436 -0.0057776244 -0.11924199 -0.07931421 0.17674436
-0.030569218 0.10852325 0.014641714 -0.089471854 -0.032184955 0.032190196 0.1114825 -0.08287585
-0.04945749 -0.03870461 -0.022635257 0.025023134 -0.01990042 -0.038835023 -0.05361768 -0.021664832
-0.010735649 0.022194825 -0.059719365 -0.02872827 -0.04558308 -0.085483216 0.04719449 -0.13217415
0.05237203 0.07953559 0.00427588 0.0007799496 0.024100194 0.050500218 -0.07174371 0.078636035
0.1356402 -0.015714668 -0.004266519 -0.014805388 -0.11395003 0.03961118 0.07818123 0.05511071
-0.079161204 -0.13315998 -0.073332734 -0.008298173 0.08564505 -0.24398184 -0.026148098 0.06104063
-0.052300368 -0.0070178322 -0.024933124 -0.046405878 -0.15724534 0.036709663 -0.09903435 0.06031218
-0.042616848 -0.045486942 -0.018091567 -0.099001095 -0.021920407 -0.07111784 -0.047958404 -0.108848564
0.0025265766 -0.012561233 0.014047021 0.0696206 -0.06221046 0.16306758 -0.090157904 0.016878128
-0.21171017 -0.03945717 -0.020557025 -0.018299466 0.039908573 -0.0056277537 -0.043073706 -0.057516392
-0.07563374 -0.1072954 0.013173969 -0.06480082 -0.08797119 0.15605883 -0.090654045 0.0012643157
-0.15993814 -0.06731169 0.030437578 0.072119765 -0.05872318 0.0022901762 -0.08448948 0.065735385
0.09528549 -0.09265228 0.13095286 0.025851574 0.03097676 0.15788862 -0.06985935 0.2385288
0.04019565 -0.03772004 -0.07132006 0.016170187 -0.040079568 0.010881966 0.017952487 -0.14669311
0.059181456 -0.16219455 0.046414893 0.047730077 -0.17731313 -0.084586546 0.0580939 0.037522472
