ecg_afib_detection/checkpoints/ecg-arrhythmia/100hz/cnn1d/fold_5/last.pt (torch, 626357 bytes, 22 tensors)

features.0.conv.weight f4 [32, 12, 7]
0.080358416 0.12443109 -0.006416163 0.025361715 -0.058803994 -0.14893693 -0.31614947 0.004577396
0.06387049 -0.07727868 0.048955653 0.13906698 0.045564227 -0.13966699 0.038193412 -0.03208941
0.057092693 -0.28695574 -0.40118277 0.050132405 -0.06664743 0.06804556 -0.17844138 0.1900621
-0.12727118 -0.15028328 -0.27339104 0.19895817 0.29839194 0.11668622 -0.0016142298 -0.07963824
0.07513544 -0.04231532 0.04089902 0.2029078 0.109621 -0.23654623 0.06734909 0.12952568
-0.06907595 -0.33998364 -0.06946446 0.21828756 0.02066596 0.33945268 -0.1914232 -0.1549565
-0.14116625 0.20025593 -0.012007192 0.18620986 0.06194395 -0.09715321 -0.014564419 -0.007838462
0.04778181 0.11127622 0.23380917 -0.20750472 0.040104974 -0.30160186 0.02736784 -0.035147652
0.03626457 0.09892237 0.3135182 0.09317883 -0.16110408 -0.08837772 0.2225697 0.07266216
0.067156814 -0.09266448 0.11469384 0.07930042 0.016581783 0.04726625 0.022070188 0.17379999
0.22219642 0.46729016 0.27968252 -0.110430256 -0.24248084 -0.06812285 -0.09918509 0.2988484
0.10544278 0.17868127 0.09966654 0.08171977 -0.11782161 -0.10909334 -0.11291489 0.09155071
-0.17904808 0.07407525 -0.024039501 0.2292932 0.116852514 0.29382473 -0.2655509 0.17842418
-0.20574024 0.1427885 0.0002892228 0.050753605 0.013312349 -0.26654834 0.115616426 -0.16126017
-0.28472987 -0.0007403882 0.09222837 -0.0428694 -0.059610493 0.088708326 0.15315786 -0.2966792
0.014899943 0.21986094 0.14888164 0.17347845 0.13345875 -0.098960415 -0.0894189 0.07902601
-0.12798421 0.23815353 -0.024348546 0.3035582 0.02130008 0.015506348 -0.106795326 -0.2895176
0.4197063 -0.06361291 0.053843334 -0.14539896 0.3783255 -0.11834016 0.0154243205 -0.12092132
0.09162706 -0.30040485 -0.066308 -0.032405797 0.00347049 -0.13815492 -0.06153014 -0.009797252
-0.09241381 -0.120499745 -0.16695848 0.06235513 0.16134763 0.12606366 0.047119774 0.063346766
-0.16108172 0.22929594 0.0030688748 -0.015639398 -0.21615702 -0.08912646 -0.29267368 0.19512685
0.0010347157 -0.10059675 -0.00047803155 0.048461713 0.0018125153 0.10501199 0.038096685 -0.15182133
-0.16662924 -0.1964981 -0.36269587 -0.3384333 0.2822524 0.24839513 0.06198798 -0.0018308253
-0.37974322 0.06218866 -0.019305207 -0.2589862 -0.050385706 0.39514348 0.14071697 0.17258242
0.03459659 0.055842105 0.085137516 -0.084520884 -0.056291983 -0.08671706 -0.16668834 0.1010029
-0.44391245 0.1757077 -0.19669998 -0.048520956 0.14205976 -0.120382 0.10839213 -0.010986527
-0.18866657 0.07346399 -0.15024877 -0.17187634 0.033230748 0.042701166 0.01973253 0.03615103
0.0794471 0.030099 0.11958517 -0.13304904 -0.30370623 -0.012106191 0.24941531 0.07078671
0.16512161 0.09291643 -0.22332354 0.1893326 0.029460004 -0.34534496 0.0139044635 -0.017512053
-0.20448317 0.028568199 0.084201336 -0.3008394 0.010084638 0.0024583489 -0.06899096 -0.097669415
0.103816405 -0.08936741 -0.2893722 0.0396933 0.28388786 -0.02021276 -0.0010345054 -0.00602846
0.108870275 -0.18424071 -0.10471184 0.0056777867 -0.19982694 0.06898211 -0.122188635 0.038963918
00000000: f492 a43d bad5 fe3d ad3e d2bb 5fc3 cf3c
00000010: 75dc 70bd ec82 18be 58de a1be fbfd 953b
00000020: 88ce 823d 4944 9ebd b985 483d 9367 0e3e
00000030: 8ea1 3a3d dd04 0fbe b270 1c3d 2f70 03bd
00000040: 07da 693d ddeb 92be d467 cdbe a357 4d3d
00000050: 737e 88bd 785b 8b3d 56b9 36be a49f 423e
00000060: 6053 02be dce3 19be e9f9 8bbe b1bb 4b3e
00000070: d4c6 983e 2ff9 ee3d 9094 d3ba 6019 a3bd
00000080: 9ce0 993d d452 2dbd bb85 273d 10c7 4f3e
00000090: fa80 e03d 2d39 72be 52ee 893d 61a2 043e
000000a0: b177 8dbd 5612 aebe 6243 8ebd c686 5f3e
000000b0: a94b a93c becc ad3e 7104 44be ebac 1ebe
000000c0: e38d 10be e40f 4d3e d0b9 44bc ccad 3e3e
000000d0: f0b8 7d3d 43f8 c6bd 9a9f 6ebc e46c 00bc
000000e0: dcb6 433d c9e4 e33d ac6b 6f3e 1e7c 54be
000000f0: 1d45 243d 8f6b 9abe 8532 e03c fcf6 0fbd
00000100: 288a 143d d097 ca3d 7585 a03e 8bd4 be3d
00000110: 78f8 24be 61ff b4bd 50e9 633e e6cf 943d
00000120: 8389 893d e0c6 bdbd 9be4 ea3d 4268 a23d
00000130: 85d6 873c 419a 413d 8acc b43c a0f8 313e
00000140: 7587 633e a840 ef3e 8c32 8f3e 4229 e2bd
00000150: e64c 78be fe83 8bbd 8d21 cbbd a802 993e
00000160: 62f2 d73d 39f8 363e f91d cc3d b25c a73d
00000170: 754c f1bd 546c dfbd ec3f e7bd f07e bb3d
00000180: 6158 37be c4b4 973d 7dee c4bc d6cb 6a3e
00000190: 5f50 ef3d 3270 963e 4af6 87be d4b4 363e
000001a0: 92ad 52be 2637 123e d4a2 9739 03e3 4f3d
000001b0: 0a1c 5a3c 0679 88be 4ec8 ec3d 6321 25be
000001c0: 1dc8 91be 9c16 42ba 3ae2 bc3d d397 2fbd
000001d0: 222a 74bd b6ac b53d 6ad5 1c3e 56e6 97be
000001e0: e41e 743c 3a23 613e 6e74 183e 56a4 313e
000001f0: 69a9 083e c2ab cabd 4221 b7bd 64d8 a13d
00000200: 4b0e 03be 85de 733e 9a76 c7bc fb6b 9b3e
00000210: 817d ae3c 560e 7e3c 82b7 dabd a73b 94be
00000220: bfe3 d63e 7c47 82bd d48a 5c3d 77e3 14be
00000230: e1b3 c13e 535c f2bd 4ab6 7c3c 99a5 f7bd
00000240: f8a6 bb3d aace 99be 7dcc 87bd f1bb 04bd
00000250: 2971 633b 7c78 0dbe 0707 7cbd a784 20bc
00000260: 7443 bdbd 92c8 f6bd 2af7 2abe 1868 7f3d
00000270: 5038 253e d516 013e aa00 413d f3bb 813d
00000280: 9bf2 24be 8ecc 6a3e 2d1f 493b 321e 80bc
00000290: 4458 5dbe ef87 b6bd 53d9 95be 55cf 473e
000002a0: 4c9f 873a ab05 cebd 4fa0 fab9 ca7f 463d
000002b0: ec91 ed3a 8710 d73d 450b 1c3d 0d77 1bbe
000002c0: dba0 2abe cc36 49be 46b3 b9be 2147 adbe
000002d0: 6383 903e 4b5b 7e3e 1ce7 7d3d 4ef8 efba
000002e0: b46d c2be 89b9 7e3d f425 9ebc d799 84be
000002f0: 3e61 4ebd 3f50 ca3e 1c18 103e 72b9 303e
00000300: 27b5 0d3d b1ba 643d 945c ae3d 4919 adbd
00000310: 6c92 66bd b798 b1bd 59b0 2abe 9cda ce3d
00000320: 7e48 e3be b8ec 333e b86b 49be e9bd 46bd
00000330: 1d78 113e d78a f6bd b1fc dd3d d600 34bc
00000340: cf31 41be 4a74 963d d0da 19be 5a00 30be
00000350: f71c 083d 6be7 2e3d 1da6 a13c 1a13 143d
00000360: 29b5 a23d 2e92 f63c 12e9 f43d 023e 08be
00000370: 627f 9bbe 0c59 46bc ba66 7f3e 9ff8 903d
00000380: a415 293e f84a be3d edae 64be 68e0 413e
00000390: 1b56 f13c 0ed1 b0be 8ccf 633c 7075 8fbc
000003a0: 0964 51be db07 ea3c c071 ac3d 9f07 9abe
000003b0: 0a3a 253c 401c 213b 224b 8dbd e706 c8bd
000003c0: b29d d43d 4306 b7bd 9828 94be 7195 223d
000003d0: c059 913e 3b95 a5bc 3e98 87ba 638a c5bb
000003e0: 61f7 de3d 99a9 3cbe 2973 d6bd ba0c ba3b
000003f0: 6f9f 4cbe 7e46 8d3d 093e fabd a198 1f3d

features.0.bn.weight f4 [32]
1.0243351 1.0258853 1.0583663 1.0191646 1.0061074 0.9454875 1.0132949 0.9634414
1.0745989 0.9531617 0.95969814 0.95357317 0.9582418 0.98128885 1.025578 0.9821113
1.0104176 0.98062617 0.97134054 0.98177975 1.0013341 0.9968728 1.0459121 0.99309295
1.0024027 1.0548896 1.0523139 0.9401448 0.99445623 0.9932945 1.0209637 1.0069948
00000000: 6a1d 833f 3650 833f 8c78 873f fc73 823f
00000010: 21c8 803f 780b 723f a6b3 813f 18a4 763f
00000020: 758c 893f 6802 743f c7ae 753f 5f1d 743f
00000030: 564f 753f bf35 7b3f 2446 833f a56b 7b3f
00000040: 5d55 813f 510a 7b3f c6a9 783f eb55 7b3f
00000050: b72b 803f 0e33 7f3f 73e0 853f 573b 7e3f
00000060: bb4e 803f 9f06 873f 39b2 863f 54ad 703f
00000070: af94 7e3f 8c48 7e3f f0ae 823f 35e5 803f

features.0.bn.bias f4 [32]
0.044354163 0.1457532 0.12935181 0.14055732 0.063481234 -0.026206065 0.11841604 -0.015996555
0.03779372 -0.037761256 0.075512186 -0.018066498 0.03037568 -0.0120089855 0.09770857 0.0004725428
0.102089375 -0.037204295 -0.04464978 -0.013379894 -0.0039473707 -0.006704904 0.07035405 -0.0032244336
0.042267382 0.10163502 0.09085921 0.07125646 0.023525361 0.06838408 -0.02763781 0.17570038
00000000: b6ac 353d 5440 153e cd74 043e 42ee 0f3e
00000010: 7302 823d 1aae d6bc 1c84 f23d 350b 83bc
00000020: 96cd 1a3d 8cab 1abd 22a6 9a3d 3100 94bc
00000030: 6bd6 f83c 56c1 44bc 6e1b c83d 9fbf f739
00000040: 3c14 d13d 8863 18bd b0e2 36bd 5837 5bbc
00000050: f258 81bb d0b4 dbbb c915 903d 0551 53bb
00000060: 9020 2d3d 0526 d03d 6514 ba3d e8ee 913d
00000070: 42b8 c03c f40c 8c3d b068 e2bc cdea 333e

features.0.bn.running_mean f4 [32]
-0.00044999574 0.00023028567 0.00064744824 0.00027220682 -0.00013354787 -2.1382104e-05 -0.0002863022 0.00033739704
8.696763e-06 0.00010459123 -0.00035621898 0.00028190445 -0.00038582133 0.00023080168 0.00020446182 0.00021777576
-8.728278e-05 -0.00018271474 8.023792e-05 -0.0002966688 -0.00020204189 -0.00043170253 -0.0003244546 -0.00034006799
0.00040008785 -0.0005574945 0.000601758 -0.0001635159 0.00029556022 0.00030706744 0.00037777313 -0.00030960038
00000000: 68ed ebb9 d778 7139 84b9 293a fbb6 8e39
00000010: fc08 0cb9 b85d b3b7 d51a 96b9 aae4 b039
00000020: 50e8 1137 fd57 db38 e7c2 bab9 93cc 9339
00000030: 1048 cab9 5b03 7239 cd64 5639 bc5a 6439
00000040: 960b b7b8 1d97 3fb9 6845 a838 368a 9bb9
00000050: 35db 53b9 2256 e2b9 8f1b aab9 274b b2b9
00000060: e2c2 d139 d324 12ba 4cbf 1d3a 7775 2bb9
00000070: 6cf5 9a39 e5fd a039 da0f c639 dc51 a2b9

features.0.bn.running_var f4 [32]
5.1147203 0.84086156 4.240124 1.791043 2.5150826 1.5587512 1.8678074 1.2732943
1.9978408 3.4711268 2.1449606 1.9439517 2.3723707 1.9206334 1.7428657 1.4903128
1.1960177 0.9683027 2.8632965 1.4611942 2.7096632 2.7235408 4.7503185 1.5740889
4.2588954 2.6327496 3.4046593 1.0399098 3.391513 2.7894022 2.0270295 1.5733993
00000000: caab a340 b442 573f 19af 8740 e640 e53f
00000010: 1df7 2040 2985 c73f 5014 ef3f 4ffb a23f
00000020: 3fb9 ff3f f126 5e40 0947 0940 69d3 f83f
00000030: ecd4 1740 51d7 f53f 3916 df3f 92c2 be3f
00000040: 1c17 993f b0e2 773f 4040 3740 6908 bb3f
00000050: 1f6b 2d40 7e4e 2e40 9c02 9840 bf7b c93f
00000060: df48 8840 f87e 2840 f0e5 5940 c41b 853f
00000070: 8d0e 5940 9185 3240 daba 0140 2665 c93f

features.1.conv.weight f4 [64, 32, 5]
-0.074124254 0.191784 -0.12986276 -0.11546023 0.044375934 -0.2619415 0.027735883 -0.0024818066
-0.042104717 0.12575634 0.025048092 -0.16869675 -0.024008462 0.24126737 -0.05481509 0.0043758866
-0.09488426 0.047159187 -0.07178823 -0.15692976 0.13065779 -0.08343317 0.072925806 0.054574564
0.017404793 0.22613758 -0.07906883 -0.118647695 -0.066746905 0.053657766 0.00028491803 -0.15515134
0.14356229 0.020249097 0.13283773 0.056699675 -0.06691797 0.17595172 -0.062660426 -0.18145634
0.026291516 0.05611432 -0.1555864 0.042557962 0.08440852 -0.046699844 0.038121685 -0.023306059
0.016567439 -0.14595315 0.04939818 -0.23435913 0.14893058 -0.19908708 0.2197105 0.12173686
0.005485018 -0.26542574 -0.23523101 -0.19237646 0.09643986 -0.106268466 -0.019740826 0.04125664
-0.12036189 -0.010579093 0.102058016 -0.036723386 0.21628793 0.1816809 0.0783169 0.25469166
0.111310005 -0.13241065 -0.10482881 -0.108873576 0.0015508762 0.23113109 0.056596942 -0.14679787
-0.098906144 -0.17469911 -0.11186595 0.07586653 0.21211122 0.013828483 -0.08649705 0.16014595
-0.011051116 0.0740612 0.058198556 -0.14007062 -0.056304824 0.22720392 0.011212183 0.055207107
0.17806114 0.07474146 -0.17884465 -0.08097865 -0.32768846 -0.080092825 0.053175393 0.1385777
-0.0027450603 0.14187594 0.05325794 0.089625314 -0.10086404 0.12805077 0.14201494 0.02824555
-0.003436877 -0.08565904 -0.024595704 -0.15626343 -0.03192187 0.0058214813 0.033828955 -0.15256943
0.055728097 0.010890236 -0.057944875 -0.032430276 0.048550166 -0.13520315 -0.0046752137 0.1840563
-0.27740508 0.122454904 -0.010098044 -0.033494014 -0.08738529 0.18872076 -0.039881818 0.08083599
-0.3168952 0.07348241 -0.08587455 -0.061519578 -0.14816393 -0.01499023 0.031257212 -0.045216396
-0.031982854 -0.14165089 0.023786778 -0.22781393 0.3455521 0.08936902 -0.36638862 0.041612715
-0.0013900517 0.1395048 0.008492795 0.17942016 -0.06466548 0.011689447 -0.0037183373 -0.1376987
-0.05698172 0.15128434 0.10514929 0.06728596 -0.12758768 -0.018253878 0.28847164 -0.021665575
-0.024412071 0.026833368 0.0046687433 0.008650361 0.1341785 -0.072872855 0.062304303 -0.0046213605
0.028777389 0.045964513 -0.004383895 -0.07031143 -0.16636012 -0.113601916 -0.04871567 0.14772755
-0.33466515 -0.0861414 -0.06418916 -0.071714245 0.025453173 -0.014159001 -0.1303223 -0.079424605
0.038792565 0.10040053 0.022612853 -0.026206536 -0.04858951 0.103542544 -0.08366497 0.14133793
-0.0880498 -0.09768688 0.0010399994 -0.0050574145 0.11028385 0.060928315 0.0439338 -0.05786591
0.017608963 -0.13881312 -0.2231071 0.07268627 0.11946927 0.085520975 -0.0072244727 0.060221557
0.20975451 -0.100567974 -0.059219394 0.07628307 -0.083894186 0.007953356 0.0076231402 -0.15194768
0.013109556 -0.05585344 -0.026433703 0.021226302 -0.12582248 0.18366742 -0.03375003 0.29825214
-0.11224381 -0.094721094 0.024644883 0.07964303 0.030071149 0.056262527 -0.24849997 -0.032936722
0.011131572 0.13936172 -0.14697058 -0.096145794 -0.0068464857 0.031696174 -0.036220007 0.06376727
0.05966195 -0.13078584 0.08234402 -0.13809131 0.0726366 0.0019267529 -0.19228157 0.039662544
00000000: 75ce 97bd 0663 443e befa 04be 6a76 ecbd
00000010: 8ac3 353d 321d 86be 5d36 e33c cea5 22bb
00000020: ff75 2cbd 45c6 003e a831 cd3c d7be 2cbe
00000030: 65ad c4bc cb0e 773e ca85 60bd 9963 8f3b
00000040: ae52 c2bd fe29 413d b505 93bd 32b2 20be
00000050: 28cb 053e 03df aabd 205a 953d 9489 5f3d
00000060: 7f94 8e3c 9c90 673e d7ee a1bd 90fd f2bd
00000070: 9ab2 88bd 3fc8 5b3d 0d61 9539 fedf 1ebe
00000080: fe01 133e 6fe1 a53c 9d06 083e eb3d 683d
00000090: 4a0c 89bd b02c 343e 1c54 80bd b1cf 39be
000000a0: 4e61 d73c 21d8 653d 0b52 1fbe 4251 2e3d
000000b0: 60de ac3d 5648 3fbd 7c25 1c3d 59ec bebc
000000c0: 70b8 873c be74 15be bf55 4a3d d7fb 6fbe
000000d0: 4281 183e 7cdd 4bbe cafb 603e 2d51 f93d
000000e0: aabb b33b e2e5 87be 66e0 70be 56fe 44be
000000f0: 4382 c53d 48a3 d9bd 83b7 a1bc b9fc 283d
00000100: 4b80 f6bd ef53 2dbc cb03 d13d 436b 16bd
00000110: 957a 5d3e 8f0a 3a3e 9c64 a03d f266 823e
00000120: 80f6 e33d a896 07be 7db0 d6bd 1cf9 debd
00000130: c546 cb3a a1ad 6c3e 32d2 673d 2e52 16be
00000140: 4e8f cabd 53e4 32be fa19 e5bd e95f 9b3d
00000150: af33 593e dd90 623c 5e25 b1bd 4dfd 233e
00000160: bd0f 35bc 66ad 973d 9c61 6e3d ac6e 0fbe
00000170: e39f 66bd 25a8 683e 4eb3 373c d920 623d
00000180: a955 363e 0d12 993d 0d23 37be 22d8 a5bd
00000190: c8c6 a7be b507 a4bd 71ce 593d 50e7 0d3e
000001a0: 78e6 33bb ed47 113e ff24 5a3d 7a8d b73d
000001b0: ce91 cebd be1f 033e 5d6c 113e 3663 e73c
000001c0: 3a3d 61bb 026e afbd ee7c c9bc 8503 20be
000001d0: 82c0 02bd 20c2 be3b 3b90 0a3d 293b 1cbe
000001e0: 2543 643d f66c 323c 9b57 6dbd 9cd5 04bd
000001f0: 8adc 463d b272 0abe 8932 99bb 4179 3c3e
00000200: 0a08 8ebe a3c9 fa3d 4472 25bc 0531 09bd
00000210: 0ff7 b2bd 0440 413e 1e5b 23bd 578d a53d
00000220: 1640 a2be f27d 963d ffde afbd f4fb 7bbd
00000230: 49b8 17be 9599 75bc 9007 003d d434 39bd
00000240: 7400 03bd ee0c 11be 7ddc c23c 0e48 69be
00000250: 34ec b03e 1b07 b73d 4a97 bbbe 1872 2a3d
00000260: 6532 b6ba 59da 0e3e 5d25 0b3c ebb9 373e
00000270: 566f 84bd 1885 3f3c 59af 73bb e300 0dbe
00000280: aa65 69bd 48ea 1a3e 8358 d73d 39cd 893d
00000290: 58a6 02be 2889 95bc 8eb2 933e 017c b1bc
000002a0: d3fb c7bc a7d1 db3c 42fc 983b 3eba 0d3c
000002b0: 1766 093e 5d3e 95bd cc32 7f3d c86e 97bb
000002c0: 8fbe eb3c 4945 3c3d c7a6 8fbb 70ff 8fbd
000002d0: 4f5a 2abe 1fa8 e8bd 158a 47bd e445 173e
000002e0: 3b59 abbe e76a b0bd 9b75 83bd ebde 92bd
000002f0: 2c83 d03c 28fb 67bc 3673 05be 5ea9 a2bd
00000300: f4e4 1e3d cb9e cd3d 973e b93c 17af d6bc
00000310: cb05 47bd 1d0e d43d 8a58 abbd e4ba 103e
00000320: 7453 b4bd 0f10 c8bd 9750 883a abb8 a5bb
00000330: 80dc e13d f88f 793d eef3 333d ce04 6dbd
00000340: ac40 903c 0725 0ebe 3076 64be 8adc 943d
00000350: 4eac f43d 9f25 af3d 45bb ecbb e1aa 763d
00000360: e3c9 563e 95f6 cdbd 0990 72bd 4c3a 9c3d
00000370: b7d0 abbd cb4e 023c 89cb f93b 2c98 1bbe
00000380: 77c9 563c 94c6 64bd 7e8b d8bc c8e2 ad3c
00000390: 9cd7 00be 5013 3c3e 793d 0abd 81b4 983e
000003a0: 15e0 e5bd 22fd c1bd 11e4 c93c e31b a33d
000003b0: c557 f63c 8973 663d c776 7ebe a8e8 06bd
000003c0: 3261 363c d7b4 0e3e 757f 16be 16e8 c4bd
000003d0: 7c58 e0bb d9d3 013d 6e5b 14bd 6a98 823d
000003e0: 1760 743d b9ec 05be fba3 a83d cf67 0dbe
000003f0: 7fc2 943d 198b fc3a 76e5 44be 3175 223d

features.1.bn.weight f4 [64]
1.0150696 1.0069357 0.97252154 1.0873575 1.0084107 1.0309138 0.97939926 1.1639633
0.94092226 0.9379202 0.99524343 0.9961083 1.0150386 0.97262305 0.9838252 1.0383955
1.0289505 1.0163703 0.96345013 0.9650205 0.96529734 1.0170134 1.0214093 1.020326
0.9549929 0.9784296 0.971501 0.9594607 1.0125061 1.0056968 0.99010295 1.181063
0.9662644 1.0658683 0.9489474 0.9762069 1.0007026 1.0532037 1.0154728 0.9890483
1.0177578 0.9921382 0.9519754 1.0157503 0.9944539 0.96545833 1.0680971 0.9753113
0.9529237 1.0731034 1.0571724 1.071103 1.0961742 0.9963656 0.9863243 0.948472
0.9909543 1.059763 1.0111265 1.0381392 0.9420958 0.9897112 0.9948904 0.8960777
00000000: cded 813f 45e3 803f 2cf7 783f 882e 8b3f
00000010: 9a13 813f fcf4 833f e9b9 7a3f c0fc 943f
00000020: 48e0 703f 8a1b 703f 46c8 7e3f f400 7f3f
00000030: c9ec 813f d3fd 783f f8db 7b3f 25ea 843f
00000040: a6b4 833f 6c18 823f aba4 763f 950b 773f
00000050: ba1d 773f 7f2d 823f 8abd 823f 0b9a 823f
00000060: 6a7a 743f 5d7a 7a3f 4ab4 783f 379f 753f
00000070: cd99 813f acba 803f 6377 7d3f 132d 973f
00000080: 1b5d 773f 5f6e 883f 38ee 723f b2e8 793f
00000090: 0617 803f 61cf 863f 03fb 813f 4532 7d3f
000000a0: e345 823f c5fc 7d3f a9b4 733f 1b04 823f
000000b0: 8894 7e3f 4728 773f 68b7 883f 00ae 793f
000000c0: cff2 733f 745b 893f 6d51 873f e719 893f
000000d0: 704f 8c3f d111 7f3f c07f 7c3f 10cf 723f
000000e0: 2eaf 7d3f 50a6 873f 986c 813f bfe1 843f
000000f0: 312d 713f b75d 7d3f 23b1 7e3f 5965 653f

features.1.bn.bias f4 [64]
0.032104086 0.006094088 -0.0705013 -0.0417917 0.017303992 0.041619755 -0.016372552 -0.092378676
-0.004377003 -0.026115261 -0.010582352 -0.02162467 -0.036562447 -0.075252116 0.005752335 0.079381496
-0.028815988 -0.07090518 -0.020775832 -0.06338108 0.024051817 -0.0025413048 -0.06417955 0.01993689
-0.040682904 -0.02530501 -0.066793784 -0.010074353 -0.019052116 0.008592655 -0.025399035 0.012163192
-0.04227103 0.043029986 0.008295141 -0.048466597 -0.07960519 0.00030076632 -0.03819888 -0.01714961
-0.047121625 -0.052565366 -0.040646907 -0.0019094665 -0.057454646 0.056524795 -0.087726384 0.027082842
-0.006021633 0.024971174 -0.07786492 -0.06095362 -0.021019273 -0.01331701 0.030781519 0.016822157
-0.011952654 0.016170803 -0.0146915885 -0.015879188 -0.044494394 -0.0041510225 -0.045971353 -0.077071905
00000000: 937f 033d eab0 c73b fc62 90bd c62d 2bbd
00000010: 1ac1 8d3c 7a79 2a3d bb1f 86bc 0831 bdbd
00000020: f66c 8fbb acef d5bc 9a61 2dbc 3826 b1bc
00000030: 81c2 15bd c81d 9abd 157e bc3b c492 a23d
00000040: 820f ecbc bc36 91bd 1432 aabc f1cd 81bd
00000050: 5108 c53c 058c 26bb 9170 83bd b052 a33c
00000060: 1ea3 26bd 744c cfbc 2ecb 88bd e60e 25bc
00000070: 2f13 9cbc 35c8 0c3c a311 d0bc 2048 473c
00000080: 6324 2dbd 3640 303d 58e8 073c e984 46bd
00000090: 0c08 a3bd 2cb0 9d39 6e76 1cbd 577d 8cbc
000000a0: 9b02 41bd c84e 57bd 5f7d 26bd 1047 faba
000000b0: 9055 6bbd 8b86 673d e4a9 b3bd d6dc dd3c
000000c0: 1e51 c5bb 5990 cc3c a577 9fbd 81aa 79bd
000000d0: 9c30 acbc 972f 5abc 8629 fc3c 9fce 893c
000000e0: 11d5 43bc a278 843c fdb4 70bc 1215 82bc
000000f0: c13f 36bd 4d05 88bb 754c 3cbd e0d7 9dbd

features.1.bn.running_mean f4 [64]
-0.42345485 0.02641419 0.9123318 -0.69069976 -0.9490894 -0.10654783 1.1608994 -0.49141702
1.0450183 -0.030000089 -0.49032778 -0.57573944 -0.31841046 -0.56537384 -0.96539694 -0.21982865
-0.4931357 -0.8359045 0.23822597 -0.25346252 -0.04644698 -1.0115818 -0.6741119 -0.714314
-1.0863624 0.6302547 1.497693 -0.26033783 -2.0374882 -0.65735257 -0.3138231 -0.66422665
-0.3853468 -0.56507355 1.4858491 -0.18857557 1.1479204 -0.21870719 -0.91704684 -0.6352029
0.4957385 -0.7970516 -0.8514353 -0.620481 1.2652426 -0.20114854 -1.4393842 -0.38121238
-0.542215 -0.65071887 -0.7553479 -0.39311403 -1.3523153 -0.3172392 -0.26166075 0.25446463
-0.7591096 -0.28452775 -0.3170116 -1.8206255 1.1449597 0.22223903 -1.4724536 1.6062655
00000000: 13cf d8be 9262 d83c 948e 693f b3d1 30bf
00000010: 86f7 72bf c035 dabd 5a98 943f 039b fbbe
00000020: 29c3 853f bfc2 f5bc 3e0c fbbe a963 13bf
00000030: b206 a3be 57bc 10bf 4124 77bf c31a 61be
00000040: 487c fcbe d6fd 55bf 82f1 733e d7c5 81be
00000050: 303f 3ebd 837b 81bf 9992 2cbf 48dd 36bf
00000060: ec0d 8bbf 5f58 213f 67b4 bf3f 004b 85be
00000070: 3566 02c0 4248 28bf 6cad a0be c20a 2abf
00000080: 2d4c c5be a9a8 10bf 4e30 be3f f419 41be
00000090: 0eef 923f c7f4 5fbe 95c3 6abf a89c 22bf
000000a0: 70d1 fd3e 930b 4cbf aaf7 59bf d8d7 1ebf
000000b0: 78f3 a13f e2f9 4dbe be3d b8bf 452e c3be
000000c0: 9ace 0abf 8395 26bf 7b5e 41bf 3e46 c9be
000000d0: ab18 adbf 2d6d a2be 66f8 85be 3049 823e
000000e0: 0255 42bf 9fad 91be 584f a2be 420a e9bf
000000f0: 0a8e 923f a192 633e 5c79 bcbf 1c9a cd3f

features.1.bn.running_var f4 [64]
1.2791045 2.341801 1.3206882 1.352181 1.8924223 0.9356172 3.183094 0.85760397
1.6224526 1.375936 1.2656308 1.2235655 1.1994396 1.4227456 1.8066043 0.8748925
0.88843435 1.7219065 1.0291219 1.6663073 0.593245 2.2459571 1.6357206 1.4680651
2.8294759 1.5078483 3.2611864 1.2292491 2.7546089 1.2395244 1.0644017 1.0309061
1.1024702 1.7380604 2.3066082 1.1459093 1.6925489 1.4211681 4.5327773 1.5430474
2.3761804 0.90172386 1.9298538 1.0663823 2.408189 0.78777564 3.0203938 0.916099
0.83429754 1.1784495 0.9361064 0.8191783 2.083589 1.0994108 1.5824271 0.75979805
1.4029833 0.5854821 1.1671717 2.7078352 2.13592 0.8891489 3.4036298 4.0594926
00000000: b2b9 a33f 11e0 1540 500c a93f 4414 ad3f
00000010: e53a f23f 9c84 6f3f d0b7 4b40 ef8b 5b3f
00000020: 87ac cf3f ac1e b03f 3100 a23f cb9d 9c3f
00000030: 3d87 993f 871c b63f cf3e e73f f4f8 5f3f
00000040: 6f70 633f 6f67 dc3f 44ba 833f 8f49 d53f
00000050: e8de 173f c3bd 0f40 4b5f d13f 8fe9 bb3f
00000060: 2216 3540 2c01 c13f 47b7 5040 0958 9d3f
00000070: 834b 3040 bca8 9e3f 513e 883f bbf4 833f
00000080: be1d 8d3f c378 de3f 789f 1340 28ad 923f
00000090: 71a5 d83f d6e8 b53f 830c 9140 9482 c53f
000000a0: 5713 1840 60d7 663f 7305 f73f 377f 883f
000000b0: c51f 1a40 aaab 493f 224e 4140 7785 6a3f
000000c0: 8694 553f 6fd7 963f aba4 6f3f abb5 513f
000000d0: 8659 0540 7eb9 8c3f f98c ca3f 2082 423f
000000e0: f594 b33f 28e2 153f e265 953f 2c4d 2d40
000000f0: eab2 0840 439f 633f 12d5 5940 5de7 8140

features.2.conv.weight f4 [128, 64, 5]
-0.18161872 -0.05896365 0.03713856 -0.06816506 0.09805815 -0.074340366 -0.100065984 -0.10446045
0.019334415 -0.05579165 -0.15703034 0.04870945 -0.13268492 -0.017769944 -0.0931299 -0.11477182
0.021192817 -0.08320224 -0.044058774 -0.0010704412 -0.07541288 -0.014462581 -0.0821275 -0.078195125
-0.08566622 -0.10218149 0.039123192 0.028486766 -0.13608883 0.15304899 -0.15131608 -0.08198903
-0.06383366 -0.108829536 -0.02022326 -0.3023633 -0.08959726 -0.01575388 0.23821765 0.013169591
-0.03262364 0.025743792 0.11878297 0.070602536 -0.035946175 -0.109466605 0.031078309 0.017341167
-0.029386478 -0.099861525 0.026491636 0.041047033 0.059839826 -0.08936143 0.15692078 -0.06333516
0.13084674 0.04206488 0.048745494 0.05724877 -0.18711068 -0.102243565 0.10890792 0.06397865
-0.07351917 0.04474789 0.03466937 -0.116418324 0.088920034 0.07643271 0.049388036 -0.10194335
0.03263926 0.016560674 -0.03829276 0.04386534 -0.090024956 0.04497647 -0.012102867 -0.09225095
0.11137209 -0.21278709 0.15699305 -0.0454977 0.030277992 -0.016847378 -0.024389332 0.107604966
0.0769298 -0.0052794106 0.049760755 -0.035215512 0.065074384 -0.105676994 -0.060253166 -0.22250485
-0.13443448 -0.027095731 -0.053674035 0.041684307 -0.06860398 -0.0334414 -0.036864713 -0.012278035
0.019510778 0.026102325 0.08989735 -0.06013525 0.011302353 0.0487655 -0.15811798 -0.1275053
-0.122860104 0.04582125 0.08287625 0.09979078 -0.015458384 0.080931924 -0.013945458 0.12658216
-0.03340383 0.0033380913 0.044795554 0.051008403 0.1054322 0.012750405 0.030898064 0.0052896906
0.08664275 -0.022803405 0.07123513 -0.108448185 -0.054067142 -0.101642996 0.077723406 -0.03887879
-0.08607093 -0.11085575 -0.024773568 0.0472033 -0.09685663 -0.012487712 -0.07313195 0.025771862
-0.04671511 0.12134748 0.09639719 -0.0053483197 0.042399857 -0.05411439 0.026656438 0.06296998
0.040726136 0.00064739154 0.11367439 -0.059165586 -0.05307874 0.03456123 0.06851717 -0.015899314
-0.1495856 -0.05438191 -0.07362319 0.027060162 0.06585587 0.18945834 0.04825733 0.030333284
0.11416277 -0.026480995 -0.057483476 -0.029737305 0.09350524 0.07610935 -0.12293558 0.0553727
-0.01810908 0.09742075 0.18418375 0.14226452 -0.052109256 -0.11466342 -0.0052482155 -0.03991178
0.082556054 -0.12202447 0.015777528 0.08666917 -0.048965897 -0.061892554 -0.11034948 0.028710755
0.02769645 0.015239365 0.041966606 0.13015485 -0.061854273 0.04384517 -0.03482587 -0.09368384
-0.14865907 0.13709518 -0.026486998 0.13346495 -0.041066505 0.0118987765 -0.16927269 0.024454001
0.04881391 0.00213847 -0.05152103 0.09164395 -0.10970604 -0.08600309 -0.017440196 -0.061234534
-0.08379504 -0.047219355 0.042394727 -0.15562277 0.051424757 -0.023779321 -0.12682301 -0.012593387
0.042551488 -0.045790292 -0.03308153 0.16766861 -0.066233516 -0.17774862 -0.06606333 0.08683365
-0.0070113107 -0.0647854 -0.12296413 -0.095857754 -0.04491231 0.06960792 0.04875439 0.13108027
0.082111314 -0.134324 -0.028449368 0.09880323 -0.0016344152 0.037435092 0.1434708 0.15301386
-0.17261498 0.049734127 -0.043342564 -0.122214995 -0.116524905 -0.028776638 -0.026060315 0.021533083
00000000: 42fa 39be de83 71bd 9a1e 183d 1f9a 8bbd
00000010: b6d2 c83d c33f 98bd 65ef ccbd 5cef d5bd
00000020: 3563 9e3c c985 64bd 90cc 20be 8f83 473d
00000030: 8ede 07be 4692 91bc e4ba bebd 7d0d ebbd
00000040: 8f9c ad3c f065 aabd f976 34bd 0c4e 8cba
00000050: 1172 9abd 76f4 6cbc 7632 a8bd c424 a0bd
00000060: c571 afbd 8744 d1bd a43f 203d 145d e93c
00000070: df5a 0bbe e0b8 1c3e 9af2 1abe dde9 a7bd
00000080: 39bb 82bd 05e2 debd 40ab a5bc 5dcf 9abe
00000090: c57e b7bd 480e 81bc 54ef 733e 45c5 573c
000000a0: 5ea0 05bd a5e4 d23c 7c44 f33d 1098 903d
000000b0: 4c3c 13bd 0730 e0bd f097 fe3c 100f 8e3c
000000c0: e9bb f0bc 3384 ccbd fd04 d93c ef20 283d
000000d0: 9b1a 753d 2003 b7bd d7af 203e ddb5 81bd
000000e0: b0fc 053e 394c 2c3d 5ba9 473d b07d 6a3d
000000f0: f199 3fbe 1365 d1bd 1e0b df3d 3d07 833d
00000100: 3891 96bd 9049 373d 7801 0e3d bb6c eebd
00000110: b51b b63d c188 9c3d 1c4b 4a3d adc7 d0bd
00000120: bfb0 053d 40aa 873c ded8 1cbd 25ac 333d
00000130: 015f b8bd 3f39 383d 1a4b 46bc 11ee bcbd
00000140: 0d17 e43d dce4 59be c9c2 203e cc5b 3abd
00000150: 8d09 f83c 8303 8abc 23cc c7bc fe5f dc3d
00000160: 5f8d 9d3d e8fe acbb efd1 4b3d 243e 10bd
00000170: b845 853d 2e6d d8bd 06cc 76bd 50d8 63be
00000180: 31a9 09be def7 ddbc 4ed9 5bbd 2abd 2a3d
00000190: 3e80 8cbd d9f9 08bd 74ff 16bd d029 49bc
000001a0: 11d5 9f3c 8bd4 d53c 1a1c b83d 6150 76bd
000001b0: 812d 393c 55be 473d aee9 21be c090 02be
000001c0: 149e fbbd 10af 3b3d 06bb a93d 1c5f cc3d
000001d0: 2945 7dbc a3bf a53d 7e7b 64bc c19e 013e
000001e0: 74d2 08bd e1c3 5a3b 8b7b 373d 30ee 503d
000001f0: d6ec d73d 13e7 503c f01d fd3c 2455 ad3b
00000200: c171 b13d 35ce babc b9e3 913d 151a debd
00000210: 8275 5dbd 342a d0bd 732d 9f3d 5e3f 1fbd
00000220: f545 b0bd 5708 e3bd f0f1 cabc 3f58 413d
00000230: c55c c6bd 4399 4cbc 34c6 95bd 831f d33c
00000240: 5858 3fbd 0785 f83d e46b c53d f540 afbb
00000250: 79ab 2d3d 0da7 5dbd 9a5e da3c 68f6 803d
00000260: 73d0 263d b6b5 293a 1ece e83d 9d57 72bd
00000270: 1869 59bd 1490 0d3d bb52 8c3d 473f 82bc
00000280: f82c 19be 91bf 5ebd c1c7 96bd 46ad dd3c
00000290: 71df 863d 5e01 423e 7aa9 453d 827d f83c
000002a0: 2cce e93d acee d8bc cb73 6bbd a69b f3bc
000002b0: ad7f bf3d 38df 9b3d a6c5 fbbd 7cce 623d
000002c0: 7e59 94bc 8884 c73d aa9a 3c3e caad 113e
000002d0: 8470 55bd a8d4 eabd 39f9 abbb 897a 23bd
000002e0: 2613 a93d f7e7 f9bd e03f 813c 9b7f b13d
000002f0: 7790 48bd 0c83 7dbd e8fe e1bd d132 eb3c
00000300: aae3 e23c 88ae 793c 2de5 2b3d 5047 053e
00000310: e85a 7dbd fe96 333d 92a5 0ebd 50dd bfbd
00000320: 153a 18be ae62 0c3e 43fb d8bc 09ab 083e
00000330: 5a35 28bd 16f3 423c d255 2dbe c253 c83c
00000340: 18f1 473d 9325 0c3b b707 53bd d3af bb3d
00000350: 8fad e0bd 6322 b0bd bede 8ebc 10d1 7abd
00000360: bc9c abbd 1569 41bd 18a6 2d3d 935b 1fbe
00000370: c4a2 523d dacc c2bc e4dd 01be 7e54 4ebc
00000380: 784a 2e3d 9a8e 3bbd 8080 07bd 52b1 2b3e
00000390: 70a5 87bd bc03 36be 364c 87bd d7d5 b13d
000003a0: 23bf e5bb 35ae 84bd 9ed4 fbbd 1251 c4bd
000003b0: f8f5 37bd 998e 8e3d afb2 473d e839 063e
000003c0: fa29 a83d 3b8c 09be a60e e9bc 5959 ca3d
000003d0: e039 d6ba 8a55 193d 02ea 123e aaaf 1c3e
000003e0: fbc1 30be 03b6 4b3d f987 31bd db4b fabd
000003f0: 9ca4 eebd fcbc ebbc 717c d5bc 2666 b03c

features.2.bn.weight f4 [128]
0.9452396 0.98863524 1.0303372 0.88751405 0.9501618 0.9729853 1.0028296 0.9843962
0.97405475 0.9675804 1.0342335 1.1150726 0.9679701 0.99744093 1.0348377 0.9583208
0.95966893 0.9784999 0.96930873 0.9816744 1.0488241 0.91651076 0.97868466 1.1798105
1.0873148 0.9563045 0.89475757 0.965749 0.9482006 0.9112764 1.0085956 0.91570586
0.938125 0.90609825 0.98000795 1.0307368 0.9675621 0.9977292 0.968866 0.9681986
0.92607397 0.93782777 1.04777 0.9813477 0.96419454 0.9660951 0.9826378 1.1257763
0.9421759 0.9791072 1.0173118 1.0600668 1.0393127 1.0917771 0.94300145 0.98950994
0.89684105 1.0328367 0.95985466 0.97394556 1.0139246 0.90899193 0.99703324 0.8829168
1.0401583 0.92651975 0.96455234 0.85593396 0.9743261 0.9810787 0.9809102 1.1242869
0.95578253 0.9568449 0.8882744 1.0769743 0.99504614 0.9730459 0.8778876 1.0028772
1.0686458 0.9911943 0.96483636 0.9614899 0.98877066 0.95967376 1.0051346 0.9793284
0.951266 1.0223011 0.9468205 0.93676156 0.89952713 1.0076349 0.9733049 1.0695684
0.9316573 0.9809588 0.99678063 0.93458754 1.0558469 0.987374 0.88657594 0.99167925
0.9939287 0.98481053 1.0054153 0.92624265 1.0147533 0.890635 1.0863705 0.9687495
1.0472074 1.0600483 0.96237975 1.0098646 0.9593162 1.0494206 1.0024643 0.9717115
0.9308289 0.9637638 0.95318294 1.0270042 0.9621103 1.0179039 0.91018593 0.96414363
00000000: 39fb 713f 3317 7d3f 17e2 833f 1f34 633f
00000010: ce3d 733f 9115 793f b85c 803f 6401 7c3f
00000020: a75b 793f 59b3 773f c361 843f b3ba 8e3f
00000030: e3cc 773f 4a58 7f3f 9075 843f 8354 753f
00000040: ddac 753f f87e 7a3f 9e24 783f 034f 7b3f
00000050: de3f 863f 73a0 6a3f 148b 7a3f 0804 973f
00000060: 222d 8b3f 5fd0 743f d50e 653f 543b 773f
00000070: 46bd 723f 6949 693f a919 813f b36b 6a3f
00000080: f628 703f 0ef6 673f cde1 7a3f 2fef 833f
00000090: 26b2 773f 2e6b 7f3f 9a07 783f dddb 773f
000000a0: 2f13 6d3f 7b15 703f 541d 863f 9a39 7b3f
000000b0: 74d5 763f 0252 773f 278e 7b3f 7019 903f
000000c0: 7132 713f c5a6 7a3f 4637 823f 45b0 873f
000000d0: 3308 853f 5abf 8b3f 8b68 713f 8650 7d3f
000000e0: 6097 653f fe33 843f 09b9 753f 7f54 793f
000000f0: 48c8 813f b2b3 683f 923d 7f3f d606 623f
00000100: e823 853f 6630 6d3f e7ec 763f 7d1e 5b3f
00000110: 6f6d 793f f927 7b3f ee1c 7b3f a2e8 8f3f
00000120: 2aae 743f caf3 743f f365 633f 4bda 893f
00000130: 58bb 7e3f 8919 793f 3ebd 603f 485e 803f
00000140: 63c9 883f e9be 7d3f 84ff 763f 3424 763f
00000150: 1320 7d3f 2ead 753f 40a8 803f 44b5 7a3f
00000160: 2b86 733f c3da 823f d462 723f 9bcf 6f3f
00000170: 6947 663f 2efa 803f 832a 793f 9ee7 883f
00000180: 1881 6e3f 1e20 7b3f 042d 7f3f 2141 6f3f
00000190: fe25 873f 8bc4 7c3f a4f6 623f b1de 7d3f
000001a0: 1c72 7e3f 8b1c 7c3f 73b1 803f 3d1e 6d3f
000001b0: 70e3 813f a800 643f 300e 8b3f f8ff 773f
000001c0: e40a 863f aaaf 873f 855e 763f 3e43 813f
000001d0: bf95 753f 6a53 863f c050 803f 16c2 783f
000001e0: ce4a 6e3f 39b9 763f cc03 743f e074 833f
000001f0: dc4c 763f ad4a 823f f201 693f 1ed2 763f

features.2.bn.bias f4 [128]
-0.11318456 -0.083987184 -0.102005936 -0.14316 -0.11570061 -0.1053937 -0.07355018 -0.04933388
0.00250989 -0.12703149 -0.13523036 -0.050027248 -0.14613861 -0.07513845 -0.1554756 -0.038163304
-0.06462683 -0.0114386575 -0.08459796 -0.045577727 -0.06891269 -0.081150346 -0.08840995 -0.08573683
-0.12588227 -0.0476475 -0.08319811 -0.05238894 -0.06480106 -0.09416438 -0.061855897 -0.1128746
-0.1544799 -0.102550246 -0.021962956 -0.10229691 -0.0550075 -0.10414752 -0.080266446 -0.08905477
-0.115740374 -0.10626174 -0.07457961 -0.09146735 -0.097721554 -0.14855932 -0.14081241 -0.11196024
-0.083850786 -0.0734353 -0.1359654 -0.074659586 -0.144139 -0.04570613 -0.07993239 -0.13974747
-0.10281613 -0.08803588 -0.09700902 -0.06819461 -0.064684644 -0.078431174 -0.042887516 -0.12547325
-0.025029937 -0.06523348 -0.10161531 -0.108944416 -0.121169776 -0.08241065 -0.07313404 -0.07943377
-0.09827192 -0.049294487 -0.15558936 -0.09004092 -0.113410614 -0.091973886 -0.119953826 -0.043248944
-0.102193154 -0.079423465 -0.12291385 -0.087440245 -0.10590185 -0.05880361 -0.12889285 -0.093141064
-0.042782873 -0.11097713 -0.16063027 -0.07256605 -0.079522416 -0.12299577 -0.031195233 -0.12481129
-0.1419776 -0.08681157 -0.082535386 -0.073299974 -0.051258203 -0.11365381 -0.067746155 -0.05517383
-0.10196159 -0.0772615 -0.1150708 -0.05713521 -0.10980009 -0.08625621 -0.1231961 -0.10636699
-0.1533983 -0.111628026 -0.14094324 -0.06951395 -0.09710384 -0.108570434 -0.119980834 -0.11561344
-0.14789829 -0.035556745 -0.10974732 -0.1167035 -0.08014831 -0.044647582 -0.09128041 -0.03052969
00000000: 4ecd e7bd 7901 acbd 7de8 d0bd 8998 12be
00000010: 71f4 ecbd a7d8 d7bd 7aa1 96bd 5312 4abd
00000020: f77c 243b 8b14 02be d479 0abe 5fe9 4cbd
00000030: 5ca5 15be 30e2 99bd ff34 1fbe 2051 1cbd
00000040: 125b 84bd 3569 3bbc b241 adbd b6af 3abd
00000050: 1922 8dbd 2732 a6bd 4710 b5bd cb96 afbd
00000060: 48e7 00be 062a 43bd c563 aabd c995 56bd
00000070: 6bb6 84bd 41d9 c0bd 9c5c 7dbd cc2a e7bd
00000080: fb2f 1ebe dd05 d2bd a8eb b3bc 0b81 d1bd
00000090: 8b4f 61bd 4c4b d5bd bc62 a4bd 5962 b6bd
000000a0: 4a09 edbd c19f d9bd 32bd 98bd 3c53 bbbd
000000b0: 3d22 c8bd ef1f 18be 2131 10be 694b e5bd
000000c0: f6b9 abbd 3f65 96bd 843a 0bbe 20e7 98bd
000000d0: 2d99 13be 5a36 3bbd 98b3 a3bd f619 0fbe
000000e0: 4391 d2bd 284c b4bd aaac c6bd 9ea9 8bbd
000000f0: 6279 84bd 86a0 a0bd d2aa 2fbd 0f7c 00be
00000100: 950b cdbc 2199 85bd b01b d0bd 401e dfbd
00000110: dc27 f8bd eac6 a8bd 4dc7 95bd 2cae a2bd
00000120: ca42 c9bd 04e9 49bd d152 1fbe 6067 b8bd
00000130: d343 e8bd ce5c bcbd 5aaa f5bd ce25 31bd
00000140: a54a d1bd c5a8 a2bd 42ba fbbd df13 b3bd
00000150: 12e3 d8bd 0edc 70bd 7dfc 03be bec0 bebd
00000160: 183d 2fbd fa47 e3bd 437c 24be 829d 94bd
00000170: a6dc a2bd 35e5 fbbd 258d ffbc 109d ffbd
00000180: 9362 11be 44ca b1bd 5008 a9bd 4c1e 96bd
00000190: 1ff4 51bd 54c3 e8bd 7fbe 8abd f4fd 61bd
000001a0: 3dd1 d0bd 473b 9ebd 3daa ebbd 9c06 6abd
000001b0: dfde e0bd 19a7 b0bd 3d4e fcbd f0d6 d9bd
000001c0: 7214 1dbe 3c9d e4bd 6d53 10be 545d 8ebd
000001d0: 61de c6bd 2d5a debd 83b8 f5bd bdc6 ecbd
000001e0: a672 17be f3a3 11bd 34c3 e0bd 3f02 efbd
000001f0: cc24 a4bd 62e0 36bd 39f1 babd 6719 fabc

features.2.bn.running_mean f4 [128]
-0.9546649 -1.0842705 -0.9265859 -1.4820507 0.30562422 0.14091963 -0.9990997 -0.9745321
-0.0412807 -0.58027416 0.15900226 -1.9094243 1.9869188 0.8091586 -0.014672838 -0.39949983
-0.38714728 -0.71380126 -1.0837486 0.49621528 0.6674587 -0.8539679 1.5278151 -1.7106636
-0.51850575 -1.517099 -1.0222883 -0.99654603 -0.018596575 -1.1378919 1.0792043 0.6617541
0.4007893 -0.50670165 -0.47284365 0.48089522 -0.47321197 0.3028966 0.13764963 -0.16310784
-1.0502088 -0.96548927 -0.19487421 0.2737915 -1.5390513 -0.7369764 0.5135692 -0.6898287
1.2558222 0.089057975 0.011189562 0.28025347 1.0301447 -2.2336829 -1.4522805 -0.8799097
0.38348776 0.08479941 -1.3877637 -0.43592757 -0.95468295 1.8995407 0.3011669 -1.1225523
1.062419 0.013206566 0.48149493 1.8292674 1.1935635 -0.8335432 0.23855111 -1.03217
-0.6054853 -1.2091932 -0.21331634 -1.3752761 -0.10857041 -1.0768077 -1.1819229 -0.7806605
-0.18913549 0.8733633 -0.54112244 -0.5033384 -0.8289655 -0.62113285 -0.19439124 1.061489
0.03612643 -1.3147305 0.6833622 -0.95705044 -0.3961675 -0.21110675 -0.4720865 -0.35546562
-0.6471104 0.10493451 0.14874329 -1.9494283 -1.789704 0.23384435 1.604728 -0.20923528
-0.71730494 -0.09297784 -0.8428749 -0.48332933 1.6461099 0.015650382 -1.016709 -0.095097035
-0.9147353 -0.9012955 -0.62295204 -0.57295793 -0.87571836 -0.91033393 0.6131515 1.3082585
1.3928792 0.2775046 1.0973835 -0.485821 0.974167 -0.7723818 1.6089274 0.4179006
00000000: eb64 74bf 60c9 8abf bc34 6dbf d6b3 bdbf
00000010: c77a 9c3e 3c4d 103e ffc4 7fbf f07a 79bf
00000020: f415 29bd d98c 14bf 7dd1 223e 0468 f4bf
00000030: 5b53 fe3f 0525 4f3f 5866 70bc 3e8b ccbe
00000040: 2b38 c6be aebb 36bf 46b8 8abf ee0f fe3e
00000050: 93de 2a3f a49d 5abf 728f c33f 06f7 dabf
00000060: cbbc 04bf 4d30 c2bf 58da 82bf a41d 7fbf
00000070: d857 98bc 71a6 91bf 5e23 8a3f b768 293f
00000080: 4134 cd3e 33b7 01bf 9018 f2be e637 f63e
00000090: d748 f2be 4315 9b3e 06f4 0c3e be05 27be
000000a0: 3e6d 86bf 4e2a 77bf 1b8d 47be 662e 8c3e
000000b0: a2ff c4bf 7caa 3cbf 4579 033f 9d98 30bf
000000c0: c8be a03f 0764 b63d 6d54 373c 627d 8f3e
000000d0: c8db 833f a9f4 0ec0 54e4 b9bf c341 61bf
000000e0: 8258 c43e 50ab ad3d 3ea2 b1bf e631 dfbe
000000f0: 1a66 74bf 2624 f33f 8c32 9a3e cbaf 8fbf
00000100: 59fd 873f 5a60 583c 8186 f63e 6f25 ea3f
00000110: b0c6 983f 1663 55bf be46 743e 261e 84bf
00000120: 1601 1bbf d8c6 9abf 996f 5abe 0c09 b0bf
00000130: 2a5a debd d6d4 89bf 4049 97bf 5ed9 47bf
00000140: bcac 41be bd94 5f3f 0087 0abf c9da 00bf
00000150: 1537 54bf 9002 1fbf 7f0e 47be dfde 873f
00000160: 4ff9 133d 1749 a8bf d3f0 2e3f 4201 75bf
00000170: 77d6 cabe 5e2c 58be 52b5 f1be 97ff b5be
00000180: 07a9 25bf e8e7 d63d 2950 183e de86 f9bf
00000190: 0515 e5bf e574 6f3e ba67 cd3f c641 56be
000001a0: 4ca1 37bf 2a6b bebd a6c6 57bf f176 f7be
000001b0: bbb3 d23f 3b35 803c 8523 82bf 3cc2 c2bd
000001c0: 182c 6abf 4dbb 66bf c979 1fbf 5fad 12bf
000001d0: 142f 60bf a50b 69bf 7ff7 1c3f 0475 a73f
000001e0: de49 b23f 1515 8e3e 1077 8c3f 88bd f8be
000001f0: 0263 793f d0ba 45bf 55f1 cd3f 11f7 d53e

features.2.bn.running_var f4 [128]
3.6372573 2.4604983 1.6753143 1.7412304 1.9649152 1.9471178 1.2497486 1.2595218
0.808151 1.5632257 1.5651444 2.950521 2.1552482 1.3843029 1.105951 2.2246764
1.065038 1.7231431 2.113464 1.1544842 1.2208318 0.9824793 1.527213 2.2519188
1.4046533 2.6171894 1.629059 1.686348 1.0382595 3.787748 1.2372919 0.84514534
1.4410626 2.408515 1.4601318 1.511849 1.3604116 1.4837239 1.4971141 1.1363047
1.1969523 1.972104 1.1792294 1.3997583 1.540279 0.9635737 2.4573762 1.7840607
1.8676927 0.7968103 1.2342888 1.0676669 1.5249321 3.3531392 2.8402104 1.4199175
1.4296122 0.7329291 1.468898 1.3985311 1.4649076 2.4596245 0.92729765 1.1976435
1.0674433 0.97091633 0.8474382 2.022526 3.3398876 1.4193292 1.0980098 1.5794384
2.2457523 2.2255077 1.375956 1.8607495 2.0368996 1.9308873 4.0229855 1.4196172
1.1328363 1.4083896 1.25891 0.9630733 1.7517751 1.3193545 1.4138831 1.4647213
1.5284344 3.3239872 2.0341263 1.7663033 1.4899578 0.9961323 1.0080595 1.1520452
1.844129 0.9954731 1.2363979 2.3833961 1.5721228 2.230215 3.4152784 1.0474198
2.0714474 2.3099873 1.028809 2.182019 1.79695 1.2863548 1.3038558 1.5408571
1.1554202 2.1831849 1.3689245 1.384614 1.3578383 1.4676392 1.0933663 1.7626733
1.8900516 1.4114431 1.8592297 0.92540616 1.233187 1.6391695 2.4264503 1.8262635
00000000: d3c8 6840 ce78 1d40 b370 d63f a3e0 de3f
00000010: 5782 fb3f 283b f93f c3f7 9f3f 0338 a13f
00000020: fce2 4e3f c817 c83f a756 c83f 56d5 3c40
00000030: 96ef 0940 d630 b13f cd8f 8d3f 1961 0e40
00000040: 2a53 883f f48f dc3f ff42 0740 23c6 933f
00000050: 3744 9c3f c383 7b3f b77b c33f 701f 1040
00000060: aecb b33f 0880 2740 0185 d03f 40da d73f
00000070: b0e5 843f 776a 7240 955f 9e3f 725b 583f
00000080: bd74 b83f 1c25 1a40 99e5 ba3f 4584 c13f
00000090: f821 ae3f aaea bd3f 6fa1 bf3f 6f72 913f
000000a0: bc35 993f e76d fc3f fdf0 963f 482b b33f
000000b0: dd27 c53f c4ac 763f a745 1d40 1a5c e43f
000000c0: 8e10 ef3f c3fb 4b3f 2dfd 9d3f 4fa9 883f
000000d0: fa30 c33f d599 5640 02c6 3540 dbbf b53f
000000e0: 88fd b63f 3ea1 3b3f da04 bc3f 1103 b33f
000000f0: 1882 bb3f 7d6a 1d40 6163 6d3f 624c 993f
00000100: fba1 883f f98d 783f b6f1 583f 1171 0140
00000110: b8c0 5540 94ac b53f 968b 8c3f 0a2b ca3f
00000120: 68ba 0f40 b86e 0e40 541f b03f 0a2d ee3f
00000130: 905c 0240 5127 f73f 4cbc 8040 04b6 b53f
00000140: c800 913f 1c46 b43f f623 a13f f98b 763f
00000150: 2b3a e03f 9ce0 a83f 1ffa b43f fd7b bb3f
00000160: bda3 c33f 35bc 5440 202f 0240 3a16 e23f
00000170: f0b6 be3f 8702 7f3f 1808 813f 3876 933f
00000180: 6b0c ec3f 53d7 7e3f 4942 9e3f 9089 1840
00000190: 523b c93f d8bb 0e40 ec93 5a40 da11 863f
000001a0: 9892 0440 d5d6 1340 03b0 833f 33a6 0b40
000001b0: 7502 e63f 46a7 a43f bfe4 a63f ce3a c53f
000001c0: cfe4 933f 4db9 0b40 eb38 af3f 083b b13f
000001d0: a5cd ad3f 9adb bb3f 6df3 8b3f 479f e13f
000001e0: 36ed f13f 2baa b43f 3dfb ed3f 6be7 6c3f
000001f0: 12d9 9d3f 4ed0 d13f f64a 1b40 01c3 e93f

features.3.conv.weight f4 [256, 128, 3]
-0.04395012 0.011996221 0.08094276 0.0014109343 -0.0604409 -0.024684615 -0.18701097 -0.010834944
0.009426817 0.03420212 -0.095373094 -0.057412416 -0.07631046 0.00847548 -0.017581452 0.015664488
0.06492747 0.081986345 -0.07885798 0.13832921 0.05061485 -0.107066326 -0.065083556 -0.07871346
-0.015768012 0.017412134 -0.07251674 -0.039319523 0.0222037 0.07023009 -0.034078553 -0.046842843
-0.06740361 0.034518674 -0.021324586 0.049553458 0.07504447 0.06285892 0.035340287 0.009305509
-0.06202542 0.07767663 -0.118977115 -0.0052896026 -0.122773215 -0.065330856 0.04328513 -0.20331761
-0.051424325 -0.10299615 -0.04470724 0.03964345 -0.11710866 -0.13514705 -0.057693254 -0.006290247
-0.06439031 -0.016906444 -0.017103923 0.08914438 0.13529383 -0.14317219 -0.032098327 -0.036077134
0.07866474 0.06660419 -0.109321415 -0.045454375 -0.1309287 0.03942665 0.02809445 0.16498645
-0.124017194 0.09727586 -0.06292676 0.033408593 0.005957763 0.1437154 -0.03910279 0.017264787
-0.060465403 0.049242772 -0.057923492 0.020054089 -0.008002358 0.0384461 -0.0691411 0.03285698
0.08020274 0.05547411 0.090315074 0.072756074 0.091887824 0.08609538 0.01188169 -0.029445386
0.010476092 0.046593215 -0.08188352 0.08175315 -0.17256308 -0.07006492 -0.10036346 0.06490427
0.062211473 -0.10798271 -0.025526008 0.122309215 0.084825166 -0.03268178 -0.1419634 -0.05011079
-0.022519914 -0.03610062 0.029932894 0.10942964 -0.020524139 -0.14874695 0.06854045 -0.05440426
0.15608194 -0.030407317 -0.091305785 0.048193034 0.0494725 -0.0041269716 0.07928068 -0.021347083
-0.09393537 -0.027074076 -0.06430673 -0.038453747 -0.009454938 -0.1197974 -0.07909519 0.15470658
-0.025786208 0.121935315 0.0026283688 -0.08614256 -0.026951708 0.03130577 0.10059184 -0.059213024
-0.05462955 -0.047844898 -0.01796492 0.024000928 -0.026158987 -0.041185126 -0.0365088 -0.036734663
-0.010113077 0.010594299 -0.07045128 -0.03699524 -0.039827384 -0.09045063 0.0587279 -0.11478173
0.06630355 0.090028964 0.009920611 -0.0011023822 0.04037751 0.039397642 -0.063303314 0.06610028
0.12644567 -0.009466311 -0.003567738 -0.021372078 -0.1233192 0.035373423 0.10025959 0.05454161
-0.10255819 -0.13884845 -0.08055801 -0.010179272 0.08164944 -0.24350843 -0.04826759 0.054201115
-0.062191643 0.004484096 -0.026910352 -0.06836084 -0.15513614 0.028396325 -0.10277013 0.05633372
-0.036770437 -0.054644194 -0.045304026 -0.10435483 -0.028145967 -0.081200644 -0.049116176 -0.10241372
0.014080297 -0.023663344 0.01245439 0.0760047 -0.07352473 0.15777723 -0.08854182 0.01572514
-0.21983732 -0.061653905 -0.007928426 -0.025665127 0.038209964 -0.014398409 -0.025254473 -0.034964737
-0.08864066 -0.11151665 0.0077361586 -0.07589131 -0.08781752 0.15770914 -0.09075991 -0.0012578178
-0.16168785 -0.065956 0.048298243 0.09334467 -0.06746049 0.0044427807 -0.08316346 0.06923649
0.09718279 -0.09724081 0.13548926 0.017164974 0.02780101 0.15054199 -0.09215861 0.23125406
0.034757055 -0.032555662 -0.050855268 0.014749356 -0.044202805 0.015420601 0.016571894 -0.14360574
0.06700847 -0.15964533 0.019997846 0.03692146 -0.18832459 -0.07702114 0.07117192 0.034647487
00000000: 0b05 34bd cc8b 443c 51c5 a53d 19ef b83a
00000010: e190 77bd 6437 cabc ce7f 3fbe 0d85 31bc
00000020: f072 1a3c 8617 0c3d f852 c3bd 4829 6bbd
00000030: a948 9cbd bddc 0a3c fa06 90bc d052 803c
00000040: b2f8 843d 75e8 a73d 4b80 a1bd 2ca6 0d3e
00000050: 8451 4f3d 9745 dbbd 874a 85bd 8634 a1bd
00000060: eb2b 81bc e4a3 8e3c a883 94bd 820d 21bd
00000070: 89e4 b53c cbd4 8f3d f495 0bbd 48de 3fbd
00000080: e70a 8abd 7463 0d3d e6b0 aebc 91f8 4a3d
00000090: eab0 993d 2dbc 803d fac0 103d 2276 183c
000000a0: 5e0e 7ebd ed14 9f3d 46aa f3bd 6754 adbb
000000b0: 8670 fbbd 2fcc 85bd c04b 313d 7e32 50be
000000c0: 50a2 52bd a5ef d2bd f01e 37bd 2c61 223d
000000d0: aad6 efbd fd63 0abe c34f 6cbd 6b1e cebb
000000e0: 11df 83bd 627f 8abc 871d 8cbc 5491 b63d
000000f0: 778a 0a3e bb9b 12be 8979 03bd 9ec5 13bd
00000100: fb1a a13d c767 883d e8e3 dfbd 5e2e 3abd
00000110: 2c12 06be d77d 213d 5526 e63c 35f2 283e
00000120: bafc fdbd 9138 c73d bfdf 80bd 73d7 083d
00000130: 5739 c33b 212a 133e 3f2a 20bd e26e 8d3c
00000140: 92aa 77bd cab2 493d 2f41 6dbd 7948 a43c
00000150: 521c 03bc a879 1d3d d999 8dbd 0a95 063d
00000160: 5641 a43d d238 633d 1cf7 b83d 2301 953d
00000170: af2f bc3d c652 b03d 6bab 423c 7337 f1bc
00000180: eaa3 2b3c 87d8 3e3d 8cb2 a7bd 326e a73d
00000190: 60b4 30be 327e 8fbd 5c8b cdbd 88ec 843d
000001a0: 75d1 7e3d 0a26 ddbd eb1b d1bc 417d fa3d
000001b0: d1b8 ad3d 55dd 05bd db5e 11be f940 4dbd
000001c0: af7b b8bc 3ede 13bd d435 f53c a61c e03d
000001d0: 3d22 a8bc 1f51 18be ef5e 8c3d 00d7 5ebd
000001e0: f2d3 1f3e c418 f9bc 87fe babd 0f66 453d
000001f0: ada3 4a3d 8c3b 87bb e95d a23d 14e0 aebc
00000200: 3061 c0bd 74ca ddbc 3fb3 83bd ad81 1dbd
00000210: e2e8 1abc 5758 f5bd a9fc a1bd 676b 1e3e
00000220: 993d d3bc 39b9 f93d b640 2c3b 836b b0bd
00000230: d4c9 dcbc 7b3a 003d 1803 ce3d 5b89 72bd
00000240: 3cc3 5fbd 03f9 43bd 2b2b 93bc 989d c43c
00000250: 5f4b d6bc bcb1 28bd 408a 15bd 1677 16bd
00000260: 52b1 25bc b693 2d3c c348 90bd 5288 17bd
00000270: 0a22 23bd 2e3e b9bd ab8c 703d af12 ebbd
00000280: 28ca 873d 1b61 b83d 0f8a 223c cf7d 90ba
00000290: e362 253d 6c5f 213d 2ba5 81bd 955f 873d
000002a0: f97a 013e 9618 1bbc b6d0 69bb 7f14 afbc
000002b0: c78e fcbd b9e3 103d e654 cd3d 0667 5f3d
000002c0: 070a d2bd 4a2e 0ebe 99fb a4bd f6c6 26bc
000002d0: d237 a73d 465a 79be 3db4 45bd fd01 5e3d
000002e0: aabc 7ebd 53ef 923b 1973 dcbc c500 8cbd
000002f0: 02dc 1ebe 699f e83c 2579 d2bd 30be 663d
00000300: 999c 16bd 97d2 5fbd b790 39bd fcb7 d5bd
00000310: 5f92 e6bc 864c a6bd 0b2e 49bd 49be d1bd
00000320: 0cb1 663c a1d9 c1bc 7f0d 4c3c 5aa8 9b3d
00000330: 2294 96bd 5b90 213e 6a55 b5bd 02d2 803c
00000340: 091d 61be ce88 7cbd 3be6 01bc ac3f d2bc
00000350: 0d82 1c3d 4ee7 6bbc 78e2 cebc 2f37 0fbd
00000360: 3c89 b5bd d762 e4bd 9a7f fd3b e76c 9bbd
00000370: acd9 b3bd 817e 213e 55e0 b9bd 5ddd a4ba
00000380: 8091 25be f013 87bd 61d4 453d 7e2b bf3d
00000390: ba28 8abd bf94 913b 9b51 aabd dccb 8d3d
000003a0: c507 c73d 3126 c7bd b2bd 0a3e 8f9d 8c3c
000003b0: f2be e33c ae27 1a3e a7bd bcbd ddcd 6c3e
000003c0: 6a5d 0e3d 1659 05bd 9d4d 50bd 48a7 713c
000003d0: 000e 35bd b0a6 7c3c c8c1 873c 620d 13be
000003e0: bd3b 893d 117a 23be 86d2 a33c f53a 173d
000003f0: 29d8 40be 42bd 9dbd 95c2 913d 86ea 0d3d
