ecg_afib_detection/checkpoints/ecg-arrhythmia/500hz/resnet1d/fold_2/last.pt (torch, 339167 bytes, 44 tensors)

stem.0.weight f4 [64, 12, 7]
0.058384515 0.049300734 0.10361623 0.103772804 -0.08548188 -0.064655535 0.10366879 -0.05820772
-0.07726983 0.017722782 0.03518668 0.072910994 0.07409007 -0.087962806 -0.016673336 0.034081828
-0.071398936 -0.002322817 0.06332005 0.030076865 -0.07356897 0.069665514 -0.03948651 -0.0046748146
0.098706014 0.07849232 0.100578174 0.079206385 0.12120007 -0.008941333 0.0056841588 -0.048321344
-0.07021362 -0.07610623 0.024717426 0.023778623 -0.08463805 0.082404636 0.029239945 -0.10188609
-0.10319143 -0.03669762 0.046769492 0.0257916 0.025625864 0.0979291 0.03992668 0.02550387
0.04043117 0.022282612 0.06851366 -0.07315479 -0.12174227 0.09575698 0.032414842 0.10896383
0.018758811 -0.018563243 -0.01710979 -0.08635104 0.055931717 0.12598613 0.13047975 -0.06010876
-0.11640314 -0.09978723 -0.05853855 0.083286665 0.062378243 0.14057653 0.031235617 -0.15008225
-0.10152036 -0.0504976 -0.0014857886 0.07698879 -0.032590643 -0.08902134 0.08839801 0.0379233
-0.084277906 -0.031623125 0.06788835 0.05886982 -0.13872409 -0.16413966 -0.010186571 -0.15151155
0.048780523 -0.14741983 -0.13250412 -0.045930684 -0.10532335 0.059103455 0.05158807 -0.034423046
0.062334206 -0.017322915 -0.06751721 -0.023492008 -0.044708494 -0.029513158 -0.037245743 -0.056731254
-0.032387543 -0.0053678807 -0.00737427 -0.03417425 0.037903644 0.051660415 -0.061970606 0.059448477
0.03807543 -0.05217674 0.0065200077 0.026816724 -0.12284923 -0.10590509 0.0007336485 -0.030602425
-0.09276148 0.031914134 -0.06660621 0.07584718 0.049358424 0.09872678 -0.01908926 0.03479883
-0.09840491 -0.11964052 -0.08443436 -0.064599015 -0.102466054 0.06891159 -0.107194826 -0.011817883
-0.11819347 -0.10717066 -0.027492562 0.024580833 0.022563118 0.08705242 -0.026576124 -0.096434526
-0.112933956 -0.023424027 -0.09980319 0.039066028 0.01954909 0.07764424 0.009735558 -0.12033238
-0.02644638 -0.016235877 0.08265559 0.025373586 0.044715356 0.09537496 0.09220943 -0.09003673
-0.0098211 0.054048136 -0.0510894 0.034733374 0.08767688 0.08111132 0.017253777 -0.092458814
0.04184785 -0.18075049 0.00991182 -0.083174884 -0.076249175 -0.021550415 -0.06570232 0.022465479
0.07746264 0.038617738 0.07176028 -0.013413269 0.010202834 0.017965559 -0.05921334 -0.036126044
-0.031545058 -0.02479133 -0.04393566 0.028423503 0.032671727 0.006873209 0.020983852 0.10159092
-0.06767306 -0.0769574 -0.10285185 -0.05389446 0.11768558 -0.034463834 -0.00296115 0.0659237
-0.021100903 -0.051063556 -0.08725295 0.02592493 0.07024725 0.034819953 0.020872388 0.02531452
-0.0736513 -0.100999035 -0.20070736 -0.08197887 -0.15686668 0.06894346 -0.051012278 0.06264504
-0.09488763 -0.05153572 0.080440484 -0.046144832 0.0005306959 0.03040353 -0.098446295 -0.04122472
0.09521396 0.076079346 0.048187725 0.014790291 0.028946389 0.04724729 -0.05080169 0.054031577
0.09789277 0.041291043 -0.079871476 0.016231416 -0.040841557 -0.11452935 -0.04927563 -0.018244863
-0.14357947 -0.04340478 0.026978778 -0.11326046 0.013169605 -0.071039185 0.03633908 -0.10204012
-0.07021853 -0.11437196 -0.059286293 -0.025623318 0.026418772 -0.12419439 -0.011781126 0.08672179
00000000: 9a24 6f3d 91ef 493d bf34 d43d d686 d43d
00000010: 2011 afbd 1f6a 84bd 4d50 d43d 386b 6ebd
00000020: a53f 9ebd 5e2f 913c e81f 103d 5c52 953d
00000030: 89bc 973d d825 b4bd 8596 88bc 6399 0b3d
00000040: 9b39 92bd 673a 18bb f1ad 813d c263 f63c
00000050: 54ab 96bd cbac 8e3d 9bbc 21bd 302f 99bb
00000060: 6126 ca3d 95c0 a03d eefb cd3d f536 a23d
00000070: be37 f83d ab7e 12bc 2e42 ba3b 9aec 45bd
00000080: 29cc 8fbd 95dd 9bbd 337c ca3c 63cb c23c
00000090: b756 adbd c3c3 a83d 9c88 ef3c a8a9 d0bd
000000a0: 0756 d3bd 3e50 16bd 5e91 3f3d e848 d33c
000000b0: 55ed d13c 0d8f c83d 298a 233d 7eed d03c
000000c0: 289b 253d 068a b63c e450 8c3d 2ed2 95bd
000000d0: 0354 f9bd 3c1c c43d 6dc5 043d 6e28 df3d
000000e0: 14ac 993c f111 98bc d529 8cbc d0d8 b0bd
000000f0: a818 653d 8202 013e 7c9c 053e 9a34 76bd
00000100: c564 eebd 3f5d ccbd 1ec6 6fbd 3392 aa3d
00000110: 5480 7f3d 4bf3 0f3e d6e1 ff3c 29af 19be
00000120: e8e9 cfbd 92d6 4ebd cbbe c2ba 4cac 9d3d
00000130: c47d 05bd d250 b6bd 040a b53d 7655 1b3d
00000140: e599 acbd 4087 01bd 0c09 8b3d 7b21 713d
00000150: b00d 0ebe 3a14 28be 93e5 26bc d825 1bbe
00000160: 16ce 473d 39f5 16be 29af 07be d021 3cbd
00000170: c5b3 d7bd 7716 723d 034e 533d 2eff 0cbd
00000180: 2752 7f3d c9e8 8dbc 7746 8abd 5072 c0bc
00000190: 4120 37bd 94c5 f1bc fe8e 18bd 085f 68bd
000001a0: cda8 04bd 0ce5 afbb dca3 f1bb 4cfa 0bbd
000001b0: da40 1b3d df99 533d e4d4 7dbd 3f80 733d
000001c0: fbf4 1b3d 47b7 55bd caa5 d53b bfae db3c
000001d0: 6198 fbbd c5e4 d8bd 5152 403a f0b1 fabc
000001e0: bbf9 bdbd 65b8 023d d668 88bd c455 9b3d
000001f0: 0f2c 4a3d 4431 ca3d 1461 9cbc 3889 0e3d
00000200: 8388 c9bd 1706 f5bd eceb acbd 7d4c 84bd
00000210: b9d9 d1bd 8521 8d3d f688 dbbd cb9f 41bc
00000220: 6b0f f2bd 4a7c dbbd 1538 e1bc be5d c93c
00000230: 4ad6 b83c 8a48 b23d 2cb6 d9bc 777f c5bd
00000240: eb49 e7bd bfe3 bfbc 9d65 ccbd b303 203d
00000250: 6a25 a03c f103 9f3d e481 1f3c d370 f6bd
00000260: 14a6 d8bc 1a01 85bc 5547 a93d 44dc cf3c
00000270: 7327 373d f253 c33d 4cd8 bc3d 2d65 b8bd
00000280: aee8 20bc 9461 5d3d 1e43 51bd 9544 0e3d
00000290: f08f b33d b11d a63d cb57 8d3c 0c5b bdbd
000002a0: a768 2b3d a816 39be 3065 223c 9857 aabd
000002b0: 8728 9cbd 7f8a b0bc f08e 86bd 8609 b83c
000002c0: bca4 9e3d a22d 1e3d 0ef7 923d 54c3 5bbc
000002d0: ca29 273c 822c 933c b089 72bd e7f8 13bd
000002e0: 6435 01bd 3017 cbbc e1f5 33bd 68d8 e83c
000002f0: cad2 053d a838 e13b 54e6 ab3c e60e d03d
00000300: 2c98 8abd d79b 9dbd fea3 d2bd 70c0 5cbd
00000310: 2305 f13d f329 0dbd da0f 42bb 0103 873d
00000320: cddb acbc 0528 51bd adb1 b2bd 8560 d43c
00000330: cadd 8f3d 5e9f 0e3d 92fc aa3c 6560 cf3c
00000340: 7ed6 96bd 95d8 cebd 3b86 4dbe 8ae4 a7bd
00000350: a9a1 20be 3b32 8d3d 40f2 50bd 0b4c 803d
00000360: 7254 c2bd 1e17 53bd fbbd a43d 5d02 3dbd
00000370: 661e 0b3a d310 f93c 369e c9bd 41db 28bd
00000380: 89ff c23d 7dcf 9b3d 7e60 453d fa52 723c
00000390: fa20 ed3c 6086 413d 6f15 50bd 3750 5d3d
000003a0: 017c c83d cc20 293d a893 a3bd bff7 843c
000003b0: 7a49 27bd 5d8e eabd 3ed5 49bd 4076 95bc
000003c0: 7f06 13be 36c9 31bd 9902 dd3c 1af5 e7bd
000003d0: 54c5 573c fe7c 91bd 4ad8 143d 69fa d0bd
000003e0: bcce 8fbd d93b eabd 2fd6 72bd fee7 d1bc
000003f0: 2e6c d83c a159 febd a005 41bc 329b b13d

stem.0.bias f4 [64]
0.073367424 -0.010000991 -0.122981906 -0.036395323 0.08364217 -0.14172843 0.07004542 0.1437721
-0.09077787 0.026869975 0.05647927 -0.07924263 -0.15777686 -0.032741636 -0.092808515 -0.04270688
0.11311535 -0.0189708 -0.057432134 -0.09916547 -0.07202643 0.08248545 -0.042158622 -0.009107533
-0.09561708 -0.17796317 0.11711029 -0.10368154 -0.032033004 -0.098738745 -0.08192135 -0.005046116
-0.040252075 -0.07572456 0.031345796 -0.023538359 0.080889314 0.026690017 0.037627343 -0.08186362
-0.06238132 -0.100068845 0.08002197 0.070740685 0.050511837 0.12104608 -0.061118297 0.059969094
-0.042035792 0.0054517277 0.038573947 0.021141563 0.07528902 -0.043305855 0.03560595 -0.068208195
0.056077436 0.14054167 0.11855835 -0.06889367 -0.18787347 -0.08545554 0.007239516 0.0996933
00000000: a941 963d 32db 23bc f0dd fbbd 4313 15bd
00000010: 964c ab3d 4221 11be f973 8f3d fe38 133e
00000020: bfe9 b9bd 6c1e dc3c cf56 673d f649 a2bd
00000030: 4290 21be 181c 06bd 6412 bebd 69ed 2ebd
00000040: 05a9 e73d a768 9bbc f53d 6bbd 4417 cbbd
00000050: 9882 93bd 22ee a83d 85ae 2cbd c337 15bc
00000060: e3d2 c3bd fa3b 36be 85d7 ef3d fd56 d4bd
00000070: 0a35 03bd 8a37 cabd 61c6 a7bd e459 a5bb
00000080: 5cdf 24bd 7a15 9bbd 7364 003d 84d3 c0bc
00000090: 4ca9 a53d 06a5 da3c 211f 1a3d 1da8 a7bd
000000a0: 8e83 7fbd e5f0 ccbd 8fe2 a33d 7ee0 903d
000000b0: 80e5 4e3d 02e7 f73d 2e57 7abd 27a2 753d
000000c0: b92d 2cbd 68a4 b23b b7ff 1d3d 1231 ad3c
000000d0: 2131 9a3d 7b61 31bd 8bd7 113d bdb0 8bbd
000000e0: 74b1 653d 28ea 0f3e b8ce f23d 2018 8dbd
000000f0: e761 40be 5003 afbd 7639 ed3b 002c cc3d

stem.1.weight f4 [64]
0.9544287 0.9834037 1.002117 0.98579174 0.9692252 0.9791947 0.984865 0.96520233
0.9863146 0.9878289 0.9720432 0.9914715 1.0118831 0.9733712 1.0054773 1.0498435
0.9660403 1.051714 1.02515 0.88845944 0.9655188 1.0480456 1.0264875 0.9833668
1.0335902 0.95780045 0.9980018 0.9638079 1.0252036 1.02768 1.0708208 1.0098497
0.98186904 0.97058403 1.009927 0.998865 0.94918424 1.0033764 1.0215575 0.99096304
1.0056174 1.0345712 0.9660168 0.97553545 0.9524724 0.91807663 0.9537707 0.9558115
1.0589142 0.9810606 1.0392401 0.9482837 0.9486239 0.95731705 1.0446981 0.97643185
1.0317577 1.0048523 1.0232649 1.0201404 1.0058717 0.970099 0.87404156 1.0141394
00000000: 7055 743f 58c0 7b3f 5f45 803f d95c 7c3f
00000010: 251f 783f 81ac 7a3f 1d20 7c3f 8017 773f
00000020: 1d7f 7c3f 5be2 7c3f d3d7 783f 14d1 7d3f
00000030: 6385 813f db2e 793f 7bb3 803f 4661 863f
00000040: 6b4e 773f 909e 863f 1d38 833f 1472 633f
00000050: 3d2c 773f 5c26 863f f163 833f edbd 7b3f
00000060: af4c 843f 6932 753f 0c7d 7f3f 1dbc 763f
00000070: df39 833f 058b 833f a810 893f c142 813f
00000080: c55b 7b3f 3278 783f 4a45 813f 9eb5 7f3f
00000090: bdfd 723f a36e 803f 65c2 823f c1af 7d3f
000000a0: 12b8 803f d46c 843f e14c 773f b1bc 793f
000000b0: 3bd5 733f 1207 6b3f 512a 743f 10b0 743f
000000c0: 808a 873f ca26 7b3f d205 853f b8c2 723f
000000d0: 04d9 723f bb12 753f abb8 853f 70f7 793f
000000e0: a310 843f 009f 803f 58fa 823f f693 823f
000000f0: 67c0 803f 6858 783f 30c1 5f3f 52cf 813f

stem.1.bias f4 [64]
-0.032993257 -0.02919271 -0.032043505 -0.080318056 0.03197492 -0.08240948 -0.036954112 -0.003952509
-0.0050440975 0.015544122 0.046266574 -0.06106262 0.04902589 -0.050665688 0.041379586 -0.033853512
-0.021145638 0.033288624 0.057643168 -0.09255195 -0.06412355 0.03180789 -0.08511501 -0.026534447
0.061622143 0.0025593825 -0.010436891 -0.045831505 0.026555922 0.0031668132 0.009609642 0.01662942
-0.045273807 0.02673795 0.022843152 -0.015762245 -0.05250193 0.0077404412 0.03238998 -0.1344615
-0.020802304 0.023958297 -0.101061895 0.0030529469 -0.011315234 0.009002668 -0.069693916 -0.027608667
-0.08130595 -0.07914132 -0.060909305 -0.023742957 -0.09596843 -0.044926997 0.05808642 -0.062228415
0.035358418 -0.02443846 -0.037193965 -0.0038282 0.01689596 -0.0011208422 -0.05283105 -0.10360592
00000000: f023 07bd 8d25 efbc 0d40 03bd cb7d a4bd
00000010: 22f8 023d 4dc6 a8bd 325d 17bd 0c84 81bb
00000020: f548 a5bb c6ac 7e3c 0582 3d3d cc1c 7abd
00000030: 5fcf 483d d386 4fbd a47d 293d fba9 0abd
00000040: 9e39 adbc a759 083d 3e1b 6c3d e08b bdbd
00000050: 3553 83bd fd48 023d c750 aebd c55e d9bc
00000060: 8067 7c3d 50bb 273b 7eff 2abc d1b9 3bbd
00000070: ce8b d93c 4f8a 4f3b c371 1d3c 6c3a 883c
00000080: 0771 39bd 8c09 db3c 9021 bb3c d31f 81bc
00000090: 440c 57bd 87a3 fd3b 5bab 043d 47b0 09be
000000a0: 9869 aabc 3144 c43c 8af9 cebd f313 483b
000000b0: 8863 39bc ed7f 133c afbb 8ebd 922b e2bc
000000c0: bc83 a6bd d814 a2bd 097c 79bd 9780 c2bc
000000d0: 198b c4bd 5f05 38bd 07ec 6d3d 39e3 7ebd
000000e0: fdd3 103d 2a33 c8bc b358 18bd 8ae2 7abb
000000f0: 6569 8a3c 39e9 92ba 5f65 58bd 572f d4bd

stem.1.running_mean f4 [64]
0.07336137 -0.009932993 -0.12296287 -0.036334373 0.0837431 -0.14173926 0.070070155 0.14378679
-0.09086145 0.026935954 0.056458734 -0.07936002 -0.15772471 -0.032790266 -0.09278151 -0.042619165
0.11314151 -0.018971166 -0.05746499 -0.09910097 -0.072026916 0.08252526 -0.04223433 -0.008984389
-0.095569275 -0.17802769 0.11707239 -0.1036259 -0.03200681 -0.09875367 -0.08190743 -0.0050490205
-0.04022631 -0.075777486 0.031312108 -0.023440685 0.08082899 0.026655136 0.03770184 -0.081757516
-0.062410545 -0.10008117 0.08001488 0.070763394 0.050450783 0.12100607 -0.061115384 0.060054403
-0.042013794 0.005448872 0.038597707 0.021111107 0.0752975 -0.04333731 0.035617635 -0.06817639
0.056090444 0.14059894 0.11856393 -0.068903275 -0.18786302 -0.08540896 0.0071782772 0.09969707
00000000: 7c3e 963d febd 22bc f5d3 fbbd 5ad3 14bd
00000010: 8181 ab3d 1924 11be f180 8f3d d83c 133e
00000020: 9115 babd caa8 dc3c 4641 673d 8287 a2bd
00000030: 9682 21be 164f 06bd 3b04 bebd 6f91 2ebd
00000040: bcb6 e73d 6b69 9bbc 6960 6bbd 73f5 cabd
00000050: d982 93bd 0103 a93d e8fd 2cbd 4233 13bc
00000060: d3b9 c3bd e44c 36be a6c3 ef3d d139 d4bd
00000070: 9319 03bd 5d3f cabd 15bf a7bd 4172 a5bb
00000080: 58c4 24bd 3a31 9bbd 2041 003d ae06 c0bc
00000090: ab89 a53d df5b da3c 3f6d 1a3d 7c70 a7bd
000000a0: 33a2 7fbd 5bf7 ccbd d7de a33d 66ec 903d
000000b0: 7ba5 4e3d 08d2 f73d 2054 7abd 9bfb 753d
000000c0: a816 2cbd 748c b23b a118 1e3d 33f1 ac3c
000000d0: 9335 9a3d 7782 31bd cce3 113d 10a0 8bbd
000000e0: 18bf 653d 2bf9 0f3e a5d1 f23d 291d 8dbd
000000f0: 2a5f 40be e5ea aebd c137 eb3b fa2d cc3d

stem.1.running_var f4 [64]
0.7533319 0.94846094 0.4386005 1.4648023 1.5782981 0.8275025 1.5518162 0.34830892
1.2974496 0.60689694 0.46260723 0.46089986 0.66855 0.5031718 0.8194674 1.7245079
1.4672663 0.89772046 0.8010165 1.0601888 1.0999223 1.0448577 0.7078131 0.57999665
1.4341942 1.0224367 0.5457159 1.1297544 0.4754388 0.49994138 0.5920729 0.54681516
0.43060172 0.34482834 1.8581288 0.5469587 2.3988943 0.470939 2.5206122 0.6973771
2.2684577 0.5491578 0.973314 1.1837595 2.2262955 1.1318398 1.7458147 1.614914
1.0274522 0.5109203 0.40460405 0.34970424 1.2652677 1.1635826 0.45447272 1.7049845
0.65299046 0.8027493 2.3954244 0.42108226 1.0825592 0.22699605 1.1087255 0.68981254
00000000: 5cda 403f 56ce 723f 3f90 e03e a47e bb3f
00000010: ac05 ca3f 34d7 533f eaa1 c63f 8c55 b23e
00000020: d412 a63f 995d 1b3f dbda ec3e 11fb eb3e
00000030: 1826 2b3f decf 003f 9ec8 513f adbc dc3f
00000040: 62cf bb3f 02d1 653f 6b0f 4d3f 44b4 873f
00000050: 41ca 8c3f e6bd 853f 3d33 353f a97a 143f
00000060: ad93 b73f 35df 823f 0ab4 0b3f cb9b 903f
00000070: b76c f33e 51f8 ff3e 1792 173f 14fc 0b3f
00000080: d477 dc3e 578d b03e 2ad7 ed3f 7c05 0c3f
00000090: 7c87 1940 eb1e f13e b651 2140 4e87 323f
000000a0: 692e 1140 9b95 0c3f 1b2b 793f 6e85 973f
000000b0: a07b 0e40 20e0 903f db76 df3f 80b5 ce3f
000000c0: 8e83 833f accb 023f 4328 cf3e 6f0c b33e
000000d0: 4bf4 a13f 46f0 943f a6b0 e83e ef3c da3f
000000e0: 622a 273f fa80 4d3f a24e 1940 1898 d73e
000000f0: 4d91 8a3f a771 683e b8ea 8d3f 8e97 303f

block1.conv1.weight f4 [64, 64, 3]
-0.092960365 -0.03889051 0.06608161 -0.014309881 -0.003480019 0.025926057 0.03436182 -0.049200438
0.040597484 -0.025254445 -0.07642029 -0.06009208 -0.03384103 -0.07699578 -0.07984668 -0.06756452
-0.011364833 -0.023197137 -0.016055157 0.07046683 0.14907983 0.0068525663 -0.012352931 -0.045316983
-0.073615775 -0.0071292957 0.049135916 0.054379575 0.064629376 -0.026271204 -0.049448386 -0.07893675
-0.028304514 0.09295357 0.038943317 0.019673489 -0.026753927 -0.020064773 0.034970734 -0.06522972
0.075880736 0.001385517 -0.024097035 0.02979633 0.0074233506 0.0323914 0.017602125 0.03173865
-0.099255875 -0.055660274 -0.014564571 -0.09900049 -0.05231095 0.08558264 -0.043656174 -0.010712992
-0.05292713 -0.036384538 0.053152837 0.0459242 -0.07937075 0.052470695 0.05395493 -0.06672723
-0.022165745 0.02890441 -0.09071219 -0.04434293 0.050289467 0.0004983166 -0.070734575 0.056923926
0.034887284 0.06612143 -0.02895629 0.013719815 -0.048146576 0.021504207 -0.052859288 0.020883005
-0.033271406 0.028376568 0.051017296 0.016206944 -0.055778965 -0.047030695 0.10518656 -0.055449158
0.017763719 -0.0528924 -0.034045897 0.06777417 0.21361649 -0.07822536 0.0403399 0.0016192566
-0.018064586 0.06666136 0.10462765 -0.010653065 0.09481144 -0.0044983607 -0.03984564 0.02156714
0.043224514 -0.09803863 0.05048622 0.023041524 0.010284715 0.014664954 0.09168977 0.026183646
-0.054538313 0.004147545 0.036810644 -0.044227265 0.0014774316 -0.00028785106 0.07134435 0.048837636
-0.059679173 -0.05399694 0.09571895 -0.05588678 -0.03585983 0.047767136 -0.05958878 0.021190861
0.064056545 -0.06255243 0.07167394 0.14338544 -0.0460237 0.042830873 0.087397575 -0.09378373
-0.002746013 0.04672612 0.034287818 -0.03100623 -0.018572427 -0.008377255 -0.0024427113 0.07986442
-0.01995085 -0.031578567 0.02482831 0.032373533 -0.04002775 -0.0651241 -0.069401346 0.015907722
0.18313603 -0.14368333 -0.09365685 -0.019999258 -0.058048856 0.057319265 0.07362434 -0.026158845
-0.125054 -0.090268075 -0.12362119 -0.11179546 -0.05420926 -0.010516466 0.07426723 0.08650512
-0.062497642 0.066913776 0.08667755 -0.0075788563 -0.018009633 -0.003521147 0.00027403724 -0.0017240044
-0.024639485 -0.06562185 -0.03267899 0.039429005 0.018088197 0.007379832 0.02741081 -0.0881665
-0.12055274 -0.05761059 0.0047999 0.04426173 0.029656159 -0.11627832 -0.025821378 0.086724184
0.07791903 0.020384274 0.010695057 -0.026031233 0.038337883 0.0074917786 0.048859764 -0.014885822
0.09667185 0.014477228 -0.0882433 -0.020949276 -0.0064107403 0.00876025 -0.036168568 0.03455475
0.02961204 0.04586672 -0.068522155 -0.0883744 -0.04412467 -0.04248138 0.035791 0.06636871
0.045720592 0.080456555 0.049438287 0.13493757 0.062931165 -0.046146102 0.07708148 0.017797729
-0.010237774 0.05580981 0.06406168 0.05399574 0.00016255782 -0.013734634 0.048092846 0.07138623
-0.032484967 0.03598311 -0.0738796 -0.008405812 -0.063832894 0.045842003 -0.09705856 -0.10758215
0.06839307 0.037168078 0.10307333 0.047638196 0.021023272 0.03344401 -0.07409284 -0.045355786
-0.04786887 -0.059494242 -0.07062632 -0.07619128 -0.010590836 -0.043788835 -0.023517592 -0.033806145
00000000: 0162 bebd a84b 1fbd cc55 873d fe73 6abc
00000010: 0811 64bb e262 d43c fbbe 0c3d 6686 49bd
00000020: 8c49 263d 69e2 cebc 3e82 9cbd 1d23 76bd
00000030: e49c 0abd f7af 9dbd a886 a3bd 445f 8abd
00000040: 9133 3abc ec07 bebc 1b86 83bc ea50 903d
00000050: 62a8 183e 7e8b e03b f363 4abc 4d9e 39bd
00000060: dec3 96bd de9c e9bb be42 493d 1ebd 5e3d
00000070: 685c 843d b536 d7bc 648a 4abd 97a9 a1bd
00000080: dede e7bc 715e be3d 0783 1f3d 4c2a a13c
00000090: 0d2b dbbc e15e a4bc 793d 0f3d 2997 85bd
000000a0: 5c67 9b3d 3c9a b53a 2567 c5bc 6f17 f43c
000000b0: 943f f33b d8ac 043d 5532 903c 6300 023d
000000c0: aa46 cbbd 07fc 63bd 3da0 6ebc c5c0 cabd
000000d0: 0244 56bd f345 af3d d1d0 32bd 8c85 2fbc
000000e0: 1eca 58bd f407 15bd cab6 593d 041b 3c3d
000000f0: 228d a2bd 83eb 563d d8ff 5c3d 49a8 88bd
00000100: f094 b5bc f1c8 ec3c 50c7 b9bd efa0 35bd
00000110: 54fc 4d3d 76a1 023a 4add 90bd 1029 693d
00000120: f8e5 0e3d ac6a 873d be35 edbc 13c9 603c
00000130: 5835 45bd 9729 b03c fb82 58bd d612 ab3c
00000140: 9947 08bd fa75 e83c 83f7 503d 6dc4 843c
00000150: 7c78 64bd 42a3 40bd 0d6c d73d a81e 63bd
00000160: 3885 913c b4a5 58bd b673 0bbd 2fcd 8a3d
00000170: 48be 5a3e 9e34 a0bd 733b 253d 3c3d d43a
00000180: 2ffc 93bc c085 883d 0547 d63d 318a 2ebc
00000190: 802c c23d fc66 93bb 2f35 23bd 92ad b03c
000001a0: 300c 313d 7ac8 c8bd a3ca 4e3d 94c1 bc3c
000001b0: 3981 283c 4645 703c d9c7 bb3d 167f d63c
000001c0: 9163 5fbd 21e8 873b c2c6 163d a627 35bd
000001d0: 61a6 c13a b7ea 96b9 fd1c 923d f909 483d
000001e0: 2672 74bd e52b 5dbd 4c08 c43d 89e9 64bd
000001f0: c2e1 12bd 79a7 433d 5d13 74bd 7598 ad3c
00000200: 1430 833d 7d1b 80bd c9c9 923d a2d3 123e
00000210: 5983 3cbd 6d6f 2f3d 80fd b23d af11 c0bd
00000220: 74f6 33bb e363 3f3d 6271 0c3d c700 febc
00000230: 3425 98bc c140 09bc e515 20bb f58f a33d
00000240: f76f a3bc 8758 01bd bd64 cb3c 1c9a 043d
00000250: 23f4 23bd c95f 85bd 4b22 8ebd e950 823c
00000260: 0388 3b3e b921 13be 2acf bfbd 7cd5 a3bc
00000270: a3c4 6dbd 9bc7 6a3d 5cc8 963d 134b d6bc
00000280: 280e 00be 78de b8bd 1b2d fdbd 05f5 e4bd
00000290: 870a 5ebd 414d 2cbc 6b19 983d 9929 b13d
000002a0: 87fd 7fbd 170a 893d 0084 b13d 0e58 f8bb
000002b0: f088 93bc 0bc3 66bb a8ac 8f39 fdf7 e1ba
000002c0: bfd8 c9bc c064 86bd 68da 05bd 4f80 213d
000002d0: b32d 943c 85d2 f13b a38c e03c a390 b4bd
000002e0: 5be4 f6bd 15f9 6bbd 7b48 9d3b ca4b 353d
000002f0: 79f1 f23c 5423 eebd 5b87 d3bc 739c b13d
00000300: 0394 9f3d ecfc a63c 523a 2f3c 743f d5bc
00000310: 2f08 1d3d 987d f53b 2d21 483d aae3 73bc
00000320: e4fb c53d e531 6d3c e7b8 b4bd d19d abbc
00000330: 3011 d2bb 2787 0f3c 7e25 14bd 4889 0d3d
00000340: f394 f23c bede 3b3d 5855 8cbd a3fd b4bd
00000350: 12bc 34bd f500 2ebd 9599 123d 51ec 873d
00000360: 8445 3b3d 68c6 a43d cd7f 4a3d 132d 0a3e
00000370: 0ee2 803d b203 3dbd e5dc 9d3d 8bcc 913c
00000380: 56bc 27bc d498 643d c532 833d a32a 5d3d
00000390: 4874 2a39 3b07 61bc 01fd 443d f232 923d
000003a0: f50e 05bd 0763 133d 304e 97bd 88b8 09bc
000003b0: d2ba 82bd d3c4 3b3d a3c6 c6bd 0854 dcbd
000003c0: aa11 8c3d 8e3d 183d 1c18 d33d 4520 433d
000003d0: ff38 ac3c 96fc 083d fdbd 97bd fdc6 39bd
000003e0: 2612 44bd 3cb0 73bd 88a4 90bd 2c0a 9cbd
000003f0: 3085 2dbc ec5b 33bd f7a7 c0bc 5078 0abd

block1.conv1.bias f4 [64]
-0.04629918 0.0652917 0.050758332 0.06436116 0.04716534 0.04234287 0.06715428 -0.017232269
0.039073654 0.0015578187 -0.04685546 -0.02155905 0.0261436 -0.027300129 0.022303537 -0.11588884
-0.07653599 -0.045646664 0.053831864 -0.052217048 -0.028322002 -0.027127666 0.016237946 -0.02766244
-0.041488875 0.076001376 0.051154863 -0.04253666 -0.0035013065 -0.024256138 0.001007295 0.041379754
0.027705142 -0.029094363 0.0598144 -0.017351663 0.011731286 -0.018221894 0.05948539 0.10014338
0.039277814 -0.024131708 -0.07488907 -0.042508043 0.022724343 0.006220938 0.0204156 0.034900602
0.028279804 0.014968655 0.072785854 0.024097143 -0.019801527 0.08171799 0.07578636 -0.07137396
-0.0023724716 0.058888253 0.006437912 -0.042730343 -0.030299902 -0.023596741 0.06625399 0.059712205
00000000: 35a4 3dbd a8b7 853d f8e7 4f3d c9cf 833d
00000010: 7230 413d b86f 2d3d 2f88 893d b02a 8dbc
00000020: b20b 203d b92f cc3a 83eb 3fbd 9b9c b0bc
00000030: 1a2b d63c 85a4 dfbc e8b5 b63c 2157 edbd
00000040: e7be 9cbd fff7 3abd cd7e 5c3d 8be1 55bd
00000050: 8b03 e8bc d73a debc 7105 853c 579c e2bc
00000060: 3df0 29bd 9ca6 9b3d c387 513d ec3a 2ebd
00000070: 2d76 65bb cfb4 c6bc 3607 843a d17d 293d
00000080: e5f5 e23c 4d57 eebc f2ff 743d 1325 8ebc
00000090: 9434 403c 1546 95bc f4a6 733d f917 cd3d
000000a0: c6e1 203d dcaf c5bc 715f 99bd ea1c 2ebd
000000b0: 6728 ba3c 03d9 cb3b 9e3e a73c eff3 0e3d
000000c0: 0cab e73c 173f 753c c010 953d 5f67 c53c
000000d0: d036 a2bc c35b a73d e135 9b3d 832c 92bd
000000e0: 787b 1bbb cf34 713d 1ff5 d23b 0306 2fbd
000000f0: 8037 f8bc f44d c1bc 2cb0 873d c994 743d

block1.bn1.weight f4 [64]
1.1138402 0.8822123 0.8836525 0.986929 1.0166861 0.90907466 0.9778331 1.0002748
0.99116534 1.0823098 0.89939046 1.0016031 1.0217065 0.9983159 0.9712702 1.0609896
0.9354635 0.97372586 1.0448525 1.0067451 1.024894 0.98315287 0.9523927 1.0483973
0.9495698 1.0209297 0.97394246 1.0067161 1.0142295 0.9783558 1.0353957 0.9174545
1.0756197 1.0583518 1.0231222 1.0313457 0.9708284 0.99809575 0.95549095 1.0186597
1.002906 0.9559076 1.0031723 1.0219043 0.97112876 1.0679357 1.0730485 1.0400983
1.0277412 0.9468675 1.0271255 0.89778835 0.99997693 0.9652075 1.0202231 1.0322062
0.9420338 0.99901795 0.9615348 0.97689164 0.9447222 1.0037425 0.9638863 0.9978157
00000000: 5192 8e3f aad8 613f 0d37 623f 61a7 7c3f
00000010: c522 823f 1eb9 683f 4553 7a3f 0109 803f
00000020: 03bd 7d3f 2189 8a3f 743e 663f 8834 803f
00000030: 47c7 823f a191 7f3f 2aa5 783f 82ce 873f
00000040: 897a 6f3f 1946 793f babd 853f 06dd 803f
00000050: ba2f 833f e8af 7b3f 02d0 733f e231 863f
00000060: 0217 733f d3ad 823f 4b54 793f 13dc 803f
00000070: 46d2 813f 8775 7a3f d987 843f 4cde 6a3f
00000080: e8ad 893f 1278 873f abf5 823f 2303 843f
00000090: 3688 783f 3483 7f3f 0e9b 743f 7163 823f
000000a0: 395f 803f 5cb6 743f f367 803f c3cd 823f
000000b0: e59b 783f 1eb2 883f a759 893f f121 853f
000000c0: 068d 833f e965 723f d978 833f 75d5 653f
000000d0: 7dfe 7f3f d717 773f ac96 823f 551f 843f
000000e0: 2129 713f a4bf 7f3f 2527 763f 9215 7a3f
000000f0: 50d9 713f a27a 803f 41c1 763f da70 7f3f

block1.bn1.bias f4 [64]
0.045816448 -0.1199353 -0.1268972 -0.04261183 -0.0470628 -0.05364653 -0.027230542 -0.012956182
0.0022791957 0.014558309 -0.094565205 -0.07559004 -0.014424485 0.003760545 0.02710831 0.0523992
-0.011414926 -0.008996727 -0.0148184 -0.02872806 -0.023684163 0.013573307 -0.035009947 -0.009351432
-0.0508471 -0.065806754 -0.017977493 -0.04095648 -0.034836475 -0.039799675 0.0293579 -0.04185263
-0.018471822 -0.1269845 0.1322129 -0.002694222 -0.06765386 -0.02993074 -0.08277598 -0.09534071
0.024684204 -0.043817583 -0.02071183 -0.05273735 -0.031214701 0.023146227 -0.10042472 0.050336957
0.022879185 -0.08498848 -0.13228458 -0.1416526 -0.049784414 -0.09025908 -0.039815664 -0.042172883
-0.0899814 0.017088667 -0.15295823 -0.072878614 0.006385082 -0.034774933 -0.04351363 0.0023802896
00000000: 07aa 3b3d a3a0 f5bd 57f1 01be be89 2ebd
00000010: ecc4 40bd 77bc 5bbd 9612 dfbc 2a46 54bc
00000020: 8f5e 153b f985 6e3c 67ab c1bd f3ce 9abd
00000030: ad54 6cbc 7a73 763b 3f12 de3c 8ba0 563d
00000040: ab05 3bbc 0267 13bc e0c8 72bc 1c57 ebbc
00000050: 4a05 c2bc 9362 5e3c 9766 0fbd c036 19bc
00000060: 0c45 50bd b1c5 86bd 8945 93bc fbc1 27bd
00000070: b1b0 0ebd fc04 23bd fb7f f03c aa6d 2bbd
00000080: 3852 97bc 3a08 02be d262 073e 8b91 30bb
00000090: 1b8e 8abd 5031 f5bc 7486 a9bd fd41 c3bd
000000a0: 8736 ca3c 117a 33bd dbab a9bc 1f03 58bd
000000b0: f9b5 ffbc 289d bd3c 7aab cdbd 202e 4e3d
000000c0: 216d bb3c 710e aebd 9c75 07be 610d 11be
000000d0: beea 4bbd c1d9 b8bd c015 23bd 79bd 2cbd
000000e0: 2b48 b8bd 88fd 8b3c 15a1 1cbe 6241 95bd
000000f0: f339 d13b 2970 0ebd 593b 32bd a2fe 1b3b

block1.bn1.running_mean f4 [64]
-0.2695539 0.23040546 0.63267314 -0.11094603 -0.59861183 0.7840702 0.5113717 -0.72930497
-0.035308626 -0.5779612 1.0973955 -0.28328103 -0.33752504 -0.37528458 -0.49500635 -0.24489772
-0.63421094 -0.28964704 -0.25939974 0.37297568 -0.59384555 -0.89253306 -0.15900941 -0.3318173
-0.33225447 -0.2114541 -0.8147705 -0.6217279 -0.016473321 -0.17996353 0.04679761 0.8785796
-0.09273194 -0.18855992 0.17995843 -0.2708372 0.46266374 -0.048617713 0.97557783 -0.2244582
-0.68947226 -0.52385783 -0.7032511 -0.26073724 -0.6414336 -0.05907133 0.10029027 -0.36193383
-0.6256703 0.94255614 0.40590554 0.42057133 -0.038957193 -0.44862112 -0.5615627 0.27314767
0.75679237 0.0226029 0.7567629 -0.30816326 0.029524095 0.068577155 -0.50196505 -0.24310803
00000000: f802 8abe 69ef 6b3e def6 213f ac37 e3bd
00000010: a03e 19bf d3b8 483f 41e9 023f bbb3 3abf
00000020: c79f 10bd 44f5 13bf 7577 8c3f 360a 91be
00000030: 15d0 acbe 4d25 c0be 7971 fdbe 78c6 7abe
00000040: a65b 22bf 9e4c 94be 0bd0 84be abf6 be3e
00000050: 4306 18bf 0c7d 64bf 5dd3 22be f5e3 a9be
00000060: 421d aabe 6c87 58be cd94 50bf 8f29 1fbf
00000070: 0ff3 86bc 5c48 38be daae 3f3d 98ea 603f
00000080: 3eea bdbd da15 41be 0647 383e 2cab 8abe
00000090: 43e2 ec3e 5e23 47bd 78bf 793f 5fd8 65be
000000a0: 4181 30bf 8c1b 06bf 4408 34bf 5a7f 85be
000000b0: fe34 24bf c7f4 71bd fc64 cd3d 644f b9be
000000c0: ee2b 20bf 5c4b 713f dad2 cf3e 2055 d73e
000000d0: 9491 1fbd abb1 e5be 93c2 0fbf 03da 8b3e
000000e0: 25bd 413f b829 b93c 37bb 413f 93c7 9dbe
000000f0: 84dc f13c 2e72 8c3d c880 00bf 50f1 78be

block1.bn1.running_var f4 [64]
0.33961248 1.6877885 1.225852 0.7164028 0.9422564 1.0466154 0.7101878 1.4186506
0.6902416 0.642471 1.1945964 0.68232095 0.48456588 0.9653462 0.67890525 1.0115397
2.9727907 0.7789772 0.49898696 1.1887103 0.7761224 1.6654209 0.4722235 0.38027614
1.2714585 1.4884729 1.3675483 0.5329392 0.542492 0.618917 0.3528745 1.0336815
0.3655233 0.3632683 1.0062233 0.6509569 0.9177918 0.5691891 1.379855 0.35222337
1.5692705 0.52505493 0.95263815 0.78491986 0.48196834 0.437672 0.7712914 1.2463225
1.2674564 0.8484277 0.3557207 0.89800733 0.2596771 0.74061286 0.852835 0.32180256
1.2290549 0.3292304 1.0170677 0.74746513 0.45054856 0.40094432 1.3961282 1.1695608
00000000: b0e1 ad3e 7409 d83f b8e8 9c3f 2d66 373f
00000010: b737 713f 7ef7 853f dece 353f 5896 b53f
00000020: acb3 303f fb78 243f 89e8 983f 96ac 2e3f
00000030: 0519 f83e ee20 773f bccc 2d3f 227a 813f
00000040: 3442 3e40 0d6b 473f 387b ff3e a927 983f
00000050: f5af 463f 832c d53f 47c7 f13e 8eb3 c23e
00000060: 27bf a23f 4886 be3f d30b af3f b46e 083f
00000070: c1e0 0a3f 5871 1e3f f7ab b43e ad4f 843f
00000080: df25 bb3e 4dfe b93e edcb 803f 1da5 263f
00000090: 67f4 6a3f 60b6 113f 179f b03f 9f56 b43e
000000a0: dbdd c83f 006a 063f 18e0 733f 82f0 483f
000000b0: 8ec4 f63e 8b16 e03e 5a73 453f 7f87 9f3f
000000c0: 033c a23f 8f32 593f 0621 b63e cfe3 653f
000000d0: 66f4 843e ce98 3d3f 6553 5a3f 4ec3 a43e
000000e0: ac51 9d3f e390 a83e 462f 823f e059 3f3f
000000f0: 4dae e63e 9348 cd3e 54b4 b23f 2bb4 953f

block1.conv2.weight f4 [64, 64, 3]
-0.1545634 -0.06513674 0.07929761 0.043913316 0.019259896 0.033993654 -0.04573368 -0.028045446
0.0055929027 -0.076385416 -0.06490939 0.06936189 -0.039929494 -0.12412601 -0.14204744 -0.00792685
0.046856605 0.043359805 -0.06968938 -0.062951066 -0.028767474 0.039072245 0.017847205 -0.066079654
-0.0045363274 -0.055154543 0.054011386 0.064747 -0.06076428 -0.013604051 0.02710138 -0.022521129
-0.074726135 -0.0948989 0.035764422 0.051950984 -0.06720779 0.048686203 0.0086964555 -0.10175138
-0.06122238 0.12677927 -0.07098067 0.044400997 0.011066604 0.027179562 -0.043799955 0.054712404
0.08091231 0.017683558 -0.0032144932 -0.046308085 -0.045058586 0.054048836 0.051316112 0.008867184
-0.10453895 -0.04519757 -0.009283222 -0.017969063 -0.055006456 0.07596191 0.10766052 -0.03595776
0.04390953 0.05223636 -0.019636862 -0.09079798 0.056059714 -0.1561551 -0.06412232 -0.045027785
0.104166195 0.041460015 0.11938049 -0.0033181265 -0.010137237 -0.1042863 -0.06727143 -0.036321044
0.022441251 -0.027678361 -0.045945007 -0.070185736 -0.055690613 -0.041789882 0.011938602 -0.015255826
-0.04694659 -0.024950307 0.04557232 0.015789932 0.064830236 -0.03973481 -0.032688603 -0.116322644
-0.120369114 -0.13852732 -0.037139166 -0.018658625 0.016112743 0.06352605 -0.11808708 0.039699852
0.06135739 -0.06996347 -0.04868095 -0.12479092 -0.05362814 -0.11702782 -0.053644743 0.008777843
0.07025662 0.02452868 0.101073645 0.06308244 -0.004961982 -0.0856574 0.0827141 -0.006817904
0.06613797 -0.020565817 0.01697453 -0.046851408 0.021660825 -0.0038809713 0.011670616 0.06523344
0.0300015 0.018732347 -0.043453842 -0.027199982 -0.0009836787 0.02311631 -0.071586035 -0.07608704
-0.04358141 0.19234332 -0.0993485 0.052225124 -0.043824833 -0.013488245 0.057953093 0.076992795
-0.034008287 0.033396192 -0.065968804 0.026366016 0.00905642 0.052173674 -0.06042179 -0.04140079
-0.014747895 -0.061163574 -0.030256296 0.0048056794 -0.057291754 0.040578328 0.040396433 0.04180599
0.036413465 0.04317969 -0.03678583 0.022842072 0.0124259135 -0.062117636 0.0055380748 0.08173604
-0.038360853 0.015132813 -0.039331555 -0.0867236 -0.04970758 0.0183165 -0.059531987 0.039708145
-0.07612467 0.029317057 0.059344213 0.109691836 -0.09854975 -0.023432245 -0.026703862 0.08634105
0.10271935 -0.043511897 -0.06729945 -0.034678865 0.04560544 -0.028442223 0.056067333 0.07235131
0.018949289 -0.03526468 0.16416703 -0.01118159 0.032538436 0.044803955 -0.051722795 0.06364637
0.09631937 -0.08495975 -0.003165308 0.14000715 -0.05228135 0.06599929 -0.04936832 -0.078503236
-0.075019665 0.008894742 -0.029971812 0.024351254 0.007886842 0.039306395 0.07047403 0.04076208
-0.08563491 -0.10604691 -0.050710224 0.021668093 0.026424646 -0.06698083 -0.0030132202 0.055748764
-0.05688946 -0.0629306 0.035342883 0.050698355 -0.059970304 0.05058774 0.047271967 0.046886258
-0.004425172 0.102974236 -0.029666716 -0.08507663 -0.062277824 -0.15249492 -0.09604349 -0.04061192
0.034726415 0.0047234283 0.007062607 -0.003226759 -0.010032645 -0.017192412 -0.039317172 -0.0028118573
-0.024932012 -0.0937352 -0.015688764 -0.005525215 0.01851048 0.08696885 0.090907924 -0.061061066
00000000: de45 1ebe 6966 85bd c966 a23d 73de 333d
00000010: eec6 9d3c ee3c 0b3d 3d53 3bbd 90bf e5bc
00000020: ab44 b73b f56f 9cbd 37ef 84bd 9b0d 8e3d
00000030: 1c8d 23bd c735 febd e274 11be 9edf 01bc
00000040: b6ec 3f3d 0d9a 313d 4eb9 8ebd 7dec 80bd
00000050: c4a9 ebbc 380a 203d 4d34 923c c554 87bd
00000060: 79a5 94bb bbe9 61bd 0b3b 5d3d 139a 843d
00000070: f7e3 78bd 87e3 5ebc b703 de3c 3b7e b8bc
00000080: 040a 99bd 5b5a c2bd b77d 123d 8eca 543d
00000090: 3da4 89bd 2f6b 473d 947b 0e3c 0763 d0bd
000000a0: 51c4 7abd 6dd2 013e 505e 91bd d2dd 353d
000000b0: b450 353c aca7 de3c 9567 33bd 1d1a 603d
000000c0: 5ab5 a53d 1cdd 903c 3faa 52bb 8cad 3dbd
000000d0: 5a8f 38bd 5062 5d3d d830 523d aa47 113c
000000e0: 8418 d6bd 1621 39bd a818 18bc db33 93bc
000000f0: 734e 61bd eb91 9b3d 1e7d dc3d 7248 13bd
00000100: 7bda 333d cbf5 553d 7cdd a0bc 4bf4 b9bd
00000110: df9e 653d 1fe7 1fbe 9052 83bd 0e6f 38bd
00000120: 1655 d53d fad1 293d c27d f43d ed74 59bb
00000130: a716 26bc 0e94 d5bd 9ac5 89bd 60c5 14bd
00000140: b7d6 b73c bbbd e2bc d530 3cbd 8abd 8fbd
00000150: d71b 64bd de2b 2bbd 209a 433c 92f3 79bc
00000160: 114b 40bd 9664 ccbc 0baa 3a3d e359 813c
00000170: b7c5 843d f8c0 22bd 7ce4 05bd 913a eebd
00000180: 1584 f6bd 1bda 0dbe 3d1f 18bd f9d9 98bc
00000190: dffe 833c f219 823d a4d7 f1bd 509c 223d
000001a0: e351 7b3d 0249 8fbd ad65 47bd 6292 ffbd
000001b0: 2ea9 5bbd 48ac efbd 97ba 5bbd f1d0 0f3c
000001c0: b4e2 8f3d 5ff0 c83c b3ff ce3d 5e31 813d
000001d0: 1f98 a2bb 266d afbd 0366 a93d b968 dfbb
000001e0: 5873 873d a579 a8bc 2b0e 8b3c 43e7 3fbd
000001f0: 0b72 b13c e557 7ebb 1d36 3f3c 1c99 853d
00000200: b5c5 f53c 9474 993c a8fc 31bd 7fd2 debc
00000210: c8ee 80ba 6a5e bd3c b39b 92bd 86d3 9bbd
00000220: 6c82 32bd a6f5 443e 3a77 cbbd 03ea 553d
00000230: ab81 33bd cdfd 5cbc 3960 6d3d 66ae 9d3d
00000240: 464c 0bbd 72ca 083d a71a 87bd 8bfd d73c
00000250: 6161 143c 10b4 553d d77c 77bd e093 29bd
00000260: 28a1 71bc a886 7abd 0ddc f7bc f678 9d3b
00000270: c2aa 6abd 7635 263d bb76 253d c23c 2b3d
00000280: 4926 153d 30dd 303d bdac 16bd 4c1f bb3c
00000290: 0f96 4b3c 106f 7ebd bd78 b53b 3a65 a73d
000002a0: 4520 1dbd 9eef 773c 201a 21bd 259c b1bd
000002b0: 2d9a 4bbd 7c0c 963c d0d7 73bd 02a5 223d
000002c0: 40e7 9bbd 532a f03c eb12 733d 1da6 e03d
000002d0: 74d4 c9bd fbf4 bfbc 0fc2 dabc 94d3 b03d
000002e0: 865e d23d 8839 32bd 4bd4 89bd 6d0b 0ebd
000002f0: c5cc 3a3d aaff e8bc dca6 653d ec2c 943d
00000300: 8a3b 9b3c b271 10bd 671b 283e fd32 37bc
00000310: 0647 053d 5a84 373d 48db 53bd 0759 823d
00000320: 1743 c53d 61ff adbd 0e71 4fbb 095e 0f3e
00000330: f824 56bd a32a 873d 6f36 4abd 4ec6 a0bd
00000340: e9a3 99bd 40bb 113c 7287 f5bc 487c c73c
00000350: d037 013c beff 203d b054 903d 24f6 263d
00000360: 5b61 afbd 1f2f d9bd 86b5 4fbd 4981 b13c
00000370: 8078 d83c 3f2d 89bd 7279 45bb d158 643d
00000380: ec04 69bd c2e1 80bd b3c3 103d 14a9 4f3d
00000390: 6ca3 75bd 1735 4f3d 40a0 413d ce0b 403d
000003a0: 0901 91bb 28e4 d23d 9d07 f3bc a83c aebd
000003b0: 0817 7fbd a127 1cbe 73b2 c4bd af58 26bd
000003c0: 493d 0e3d fdc6 9a3b 716d e73b 0878 53bb
000003d0: f75f 24bc 1ad7 8cbc 0b0b 21bd 2347 38bb
000003e0: 383e ccbc 3ef8 bfbd b985 80bc dd0c b5bb
000003f0: 4aa3 973c b91c b23d ef2d ba3d 2b1b 7abd

block1.conv2.bias f4 [64]
-0.05047362 0.060964696 0.019545715 -0.042515595 0.0017241371 -0.046202354 0.09811703 0.014175906
-0.06031579 0.084782846 0.046409674 -0.04630599 -4.223189e-05 -0.027458066 -0.0058799186 0.0010300168
-0.03734684 0.01901658 -0.09643095 0.011544475 -0.05205622 -0.061025172 -0.05746448 0.06383918
-0.01866947 0.0140883485 -0.028319761 0.011814184 -0.060895886 -0.015790384 0.05987011 0.001534953
-0.019103631 -0.019877905 -0.045520544 -0.00041557927 -0.054437716 -0.059603136 0.044716503 -0.024902642
0.03290458 0.08696223 -0.013480433 0.06311777 -0.015941294 -0.069061674 -0.0032562094 0.054452304
0.028990645 0.07157339 -0.120020494 0.025285982 0.061303318 0.008600709 -0.0028746866 -0.06844036
-0.08288573 0.0459933 -0.044567157 0.011505424 0.07482546 0.061322074 -0.00875449 0.013062135
00000000: 6dbd 4ebd 1eb6 793d 561e a03c d524 2ebd
00000010: 71fc e13a ae3e 3dbd 95f1 c83d 0f42 683c
00000020: b10d 77bd a1a2 ad3d 1218 3e3d 5aab 3dbd
00000030: 2622 31b8 bdef e0bc 55ac c0bb a101 873a
00000040: 00f9 18bd a9c8 9b3c 977d c5bd 0a25 3d3c
00000050: e738 55bd 88f5 79bd e05f 6bbd 1ebe 823d
00000060: b7f0 98bc d1d2 663c d8fe e7bc 4790 413c
00000070: f76d 79bd d65a 81bc 5c3a 753d 7a30 c93a
00000080: 387f 9cbc fdd6 a2bc c073 3abd 1be2 d9b9
00000090: 15fa 5ebd 6b22 74bd a728 373d a000 ccbc
000000a0: f4c6 063d 4119 b23d 09dd 5cbc e443 813d
000000b0: 5197 82bc 3570 8dbd 2166 55bb 6109 5f3d
000000c0: ca7d ed3c 1295 923d 4ecd f5bd 8c24 cf3c
000000d0: 3019 7b3d fde9 0c3c 3d65 3cbb 762a 8cbd
000000e0: febf a9bd 7863 3c3d 0d8c 36bd 3f81 3c3c
000000f0: 173e 993d db2c 7b3d fe6e 0fbc 9102 563c

block1.bn2.weight f4 [64]
1.0006964 1.0177003 1.0886694 1.0925455 1.0228455 1.0150226 0.9433657 0.99064475
1.035984 0.9959585 1.0701671 1.0470839 0.9961953 1.0568426 1.0413094 0.9899637
1.0203232 0.98132604 1.0654601 0.90017825 1.0223993 1.0181319 1.0230486 0.9901888
0.986725 1.0238466 1.044462 0.99855363 1.0088601 1.0522395 1.0542091 1.0309856
1.0414943 1.0311314 1.0285795 1.0477798 0.9987337 1.0181099 1.0503715 0.9772712
1.0666188 1.088347 1.0338975 1.0168377 1.0348642 1.1644014 1.0280159 1.007353
1.0642612 1.0231879 1.0513058 1.0352559 1.0062505 1.0092113 1.0590277 0.9832228
1.0039513 0.996825 1.0744017 1.0242018 0.9984712 1.0146581 1.113223 1.1277242
00000000: d216 803f 0144 823f 8559 8b3f 88d8 8b3f
00000010: 9aec 823f 43ec 813f 6a80 713f e59a 7d3f
00000020: 209b 843f 23f7 7e3f 3cfb 883f d806 863f
00000030: a806 7f3f 9e46 873f a049 853f 436e 7d3f
00000040: f399 823f 2f38 7b3f ff60 883f 1572 663f
00000050: fbdd 823f 2552 823f 42f3 823f 037d 7d3f
00000060: 029a 7c3f 680d 833f eeb0 853f 36a1 7f3f
00000070: 5422 813f c9af 863f 53f0 863f 56f7 833f
00000080: af4f 853f 1dfc 833f 7ea8 833f a61d 863f
00000090: 03ad 7f3f 6d51 823f 9372 863f 722e 7a3f
000000a0: f786 883f f44e 8b3f c156 843f bd27 823f
000000b0: 6e76 843f 1b0b 953f 0696 833f f1f0 803f
000000c0: b639 883f d2f7 823f 3091 863f 4483 843f
000000d0: d1cc 803f d62d 813f 388e 873f 7db4 7b3f
000000e0: 7a81 803f ec2f 7f3f ff85 893f 0b19 833f
000000f0: cf9b 7f3f 51e0 813f 177e 8e3f 4459 903f

block1.bn2.bias f4 [64]
-0.077591784 -0.053204667 0.018920405 0.056461304 0.03339814 0.0038114965 -0.048187893 -0.015016639
-0.04050686 -0.041348685 0.046157077 0.008554233 0.05220304 -0.058759853 0.043018624 0.012883185
-0.02026379 0.022129826 -0.011730381 -0.07048277 -0.005368291 0.028563168 -0.06604537 -0.03810227
-0.054033544 0.0017848943 -0.0958476 -0.03127229 -0.020394169 -0.01566402 0.07909598 0.005403201
0.021659967 0.035485376 0.0048999903 -0.004639113 -0.05981297 -0.010967386 0.01448639 -0.062122956
0.012313053 0.058039434 -0.015086069 0.003584826 0.0043778354 0.004730295 -0.036899354 -0.16642913
-0.046538502 -0.057492588 -0.025305526 -0.01749249 -0.0048179924 -0.08757927 -0.03673005 -0.019765917
-0.0646743 0.0026605884 0.057720672 0.011644447 0.015358215 0.0031801313 0.029291049 0.005194398
00000000: 71e8 9ebd 23ed 59bd f7fe 9a3c f843 673d
00000010: 7dcc 083d 4dca 793b ab60 45bd 5908 76bc
00000020: 85ea 25bd 3d5d 29bd 340f 3d3d 0e27 0c3c
00000030: dbd2 553d 2cae 70bd 4c34 303d ff13 533c
00000040: 3f00 a6bc 9c49 b53c c930 40bc 4559 90bd
00000050: 7de8 afbb 4efd e93c cc42 87bd 2011 1cbd
00000060: 4752 5dbd 1df3 e93a bf4b c4bd 5f17 00bd
00000070: ac11 a7bc d551 80bc 13fd a13d 560d b13b
00000080: 3e70 b13c 1d59 113d 1990 a03b b303 98bb
00000090: 72fe 74bd 8db0 33bc 5358 6d3c a474 7ebd
000000a0: b0bc 493c c2ba 6d3d 8f2b 77bc 66ef 6a3b
000000b0: f273 8f3b 9700 9b3b c723 17bd 666c 2abe
000000c0: 289f 3ebd 597d 6bbd 894d cfbc 694c 8fbc
000000d0: 40e0 9dbb c35c b3bd 4072 16bd 22ec a1bc
000000e0: f673 84bd 445d 2e3b 836c 6c3d 5ac8 3e3c
000000f0: 06a1 7b3c c069 503b c8f3 ef3c c535 aa3b

block1.bn2.running_mean f4 [64]
-0.5069516 -0.2938279 -0.5576598 -0.8353319 -0.35780212 -0.27098447 -0.14301296 0.63273954
-0.9699055 0.40558347 -0.68434876 0.029563196 -0.6742486 0.4210489 -0.36912984 0.5807446
-0.38085726 -0.80502766 0.0922195 0.5266607 -0.13254468 0.3981191 -0.38543954 -0.113726996
-0.2863326 -0.031246886 1.1328439 -1.0892771 0.41235948 0.50805557 -0.18576422 -0.85390824
0.019308934 -0.70733255 -0.0058237906 -0.0072801486 -0.24988525 0.12935889 0.08398123 0.0015063355
0.29588404 -0.43584326 0.36416578 0.03263264 -0.73258466 -0.49682948 -0.13016547 0.43942073
-0.06426245 0.5690604 -0.68626726 -0.09365273 -0.7363028 -0.5648229 -0.48943952 -0.56580496
0.43371806 -0.18953942 -0.71126294 0.33906215 -0.37038857 0.6863901 -0.746491 -0.83961266
00000000: 94c7 01bf 9c70 96be cbc2 0ebf 50d8 55bf
00000010: d731 b7be 7abe 8abe fd71 12be 38fb 213f
00000020: ba4b 78bf a3a8 cf3e 7b31 2fbf 842e f23c
00000030: 8e9b 2cbf b993 d73e 96fe bcbe aeab 143f
00000040: b9ff c2be 4b16 4ebf 94dd bc3d 3cd3 063f
00000050: cbb9 07be 44d6 cb3e 5558 c5be b3e9 e8bd
00000060: 309a 92be 78f9 ffbc 0701 913f 6f6d 8bbf
00000070: c820 d33e ee0f 023f fa38 3ebe bb99 5abf
00000080: c52d 9e3c bf13 35bf 7fd5 bebb 508e eebb
00000090: ebe1 7fbe a876 043e 5afe ab3d 3b70 c53a
000000a0: 1d7e 973e d926 dfbe f073 ba3e cea9 053d
000000b0: ab8a 3bbf 6f60 febe 194a 05be c1fb e03e
000000c0: 089c 83bd f1ad 113f 36af 2fbf 01cd bfbd
000000d0: 577e 3cbf 3c98 10bf d197 fabe 98d8 10bf
000000e0: 4b10 de3e 9f16 42be 5415 36bf 8e99 ad3e
000000f0: 92a3 bdbe 43b7 2f3f 091a 3fbf dbf0 56bf

block1.bn2.running_var f4 [64]
0.7647114 0.5353671 0.7204475 0.5036353 0.5564898 0.5680033 1.4980465 0.5509891
0.49861485 0.43874103 0.51030433 0.20784096 0.6163576 0.23246098 0.52365875 0.9838674
0.44016537 1.0932281 0.17748055 0.51567537 0.3808229 0.42844513 0.5135973 0.18324298
1.0694326 0.28652656 0.9040463 1.0898937 0.8631278 0.5856248 0.20848833 0.52494144
0.14898294 0.57503664 0.43910116 0.7598483 0.28807378 0.30714098 0.4702373 0.56619483
0.3623455 0.45663926 0.6864095 0.37130082 0.5556551 0.4521063 0.3818029 0.4255762
0.2957813 0.49413022 1.2087495 0.32448176 0.45331323 0.4193949 0.45149168 0.80127114
0.4911398 1.4819809 0.96597224 0.36083162 0.44436437 0.4159832 0.75618565 0.62062347
00000000: 20c4 433f d10d 093f 3f6f 383f 3eee 003f
00000010: 1e76 0e3f aa68 113f fdbf bf3f 9f0d 0d3f
00000020: 724a ff3e aaa2 e03e 4ea3 023f 43d4 543e
00000030: 9dc9 1d3f 400a 6e3e 800e 063f bcde 7b3f
00000040: 5b5d e13e e6ee 8b3f 76bd 353e 4d03 043f
00000050: 38fb c23e 295d db3e 1d7b 033f 0ca4 3b3e
00000060: 2be3 883f 9cb3 923e 946f 673f a381 8b3f
00000070: f2f5 5c3f 82eb 153f f77d 553e 9062 063f
00000080: fc8e 183e 9a35 133f ded1 e03e 6b85 423f
00000090: 687e 933e 9541 9d3e f2c2 f03e 25f2 103f
000000a0: 5985 b93e 9fcc e93e 88b8 2f3f 241b be3e
000000b0: 6a3f 0e3f 7a7a e73e ab7b c33e 20e5 d93e
000000c0: a670 973e a3fe fc3e 4eb8 9a3f 7922 a63e
000000d0: ac18 e83e eeba d63e eb29 e73e 1b20 4d3f
000000e0: ad76 fb3e 8db1 bd3f f549 773f ecbe b83e
000000f0: ba83 e33e c0fb d43e 6295 413f 2ee1 1e3f

block2.conv1.weight f4 [64, 64, 3]
-0.03262874 0.0047581606 -0.010811947 -0.042039644 0.0791111 0.05610135 -0.009244367 0.015411557
-0.07214571 0.107641 0.0076987655 0.080954716 -0.084032044 -0.053075645 -0.036193863 0.050941024
-0.0012322267 0.037375014 -0.05478019 -0.06691513 -0.09766602 -0.04563846 0.030935526 -0.06733159
0.03230692 0.05410334 0.08733766 -0.038108665 0.03547747 0.03619032 -0.0016834772 0.041867215
0.05902953 0.02850974 -0.032541916 -0.07105423 -0.092762 -0.07770851 0.036561985 -0.06987466
0.061097592 0.0015979386 -0.07798308 0.024982804 0.013096268 -0.018671772 -0.088718496 -0.030936133
0.07733561 -0.0083185 -0.062345587 0.016823914 0.03009641 -0.03596303 -0.07294161 -0.047448386
-0.037577644 -0.09128776 -0.08836498 -0.11711158 0.013950849 0.009489641 -0.061573934 0.0071625863
0.045095567 -0.08966647 0.01473891 0.029281534 0.012881259 0.08373526 0.040314976 -0.07595412
-0.09235113 -0.06557928 -0.043328103 -0.0066404524 0.084743574 0.07432064 0.006390171 0.012135215
-0.023038153 0.02701487 -0.06811448 0.0655075 0.03494979 -0.03339403 -0.041276403 -0.074046746
-0.069952175 -0.011896406 0.089923225 -0.05772046 -0.104717955 -0.020984178 0.060192008 0.018708806
-0.018141685 -0.09474669 -0.019133031 0.025254348 0.0452988 -0.034228947 -0.08576541 0.03413647
0.0370169 -0.09392487 -0.04647162 -0.11062571 0.0080204215 0.09625004 -0.008320822 -0.015935449
-0.06577636 -0.020186918 -0.11130066 0.004838163 -0.033874784 -0.04798226 0.027286509 -0.05627089
-0.08863947 0.020573169 -0.05351707 0.079855405 0.000693477 -0.028215718 0.0044880854 -0.11676501
-0.04636625 -0.028231863 -0.005547156 -0.01787221 0.02882469 0.07428969 0.023891939 0.060826607
0.08514914 0.020371774 -0.02284143 0.038999096 0.014467286 -0.063885175 -0.040230535 -0.019360641
-0.044716097 -0.012425514 -0.10903758 0.02420745 -0.05923265 0.05889749 -0.037530582 -0.072566666
-0.009751597 -0.004095692 -0.020570803 -0.009589653 0.09350858 -0.031560604 0.040202737 -0.025730893
-0.009905796 0.07450728 0.10304345 0.027519919 0.029330362 -0.021594133 0.064885125 0.0049520317
-0.13891001 -0.041149963 -0.122939005 -0.04947547 0.0012859072 0.013131915 -0.0053362544 0.019816687
-0.07827251 -0.069846384 -0.06318268 -0.09874577 -0.0414853 0.051319934 0.060426313 -0.016698724
-0.036056466 0.07857292 0.051866636 -0.050270014 -0.07321924 0.13114683 0.093824014 0.0060036466
0.08445399 0.012830267 0.08863533 0.06844018 0.02491531 -0.0024234788 0.090720564 0.04429087
-0.033261325 -0.020980444 -0.03014114 -0.12234392 -0.00015505285 -0.08107102 -0.04792568 0.014283914
-0.0334235 0.00659388 -0.06950309 -0.029240727 0.029649872 0.011993552 -0.0022141503 -0.065833256
0.03180927 0.050415874 0.08063195 -0.09674542 0.025426604 0.006473693 -0.038177166 0.013121281
-0.10570521 0.0015954551 -0.04231891 0.053035658 0.030571388 0.038919885 0.03618106 -0.1414939
-0.089549445 0.03931663 -0.06127563 -0.073365085 0.021939276 -0.020548325 -0.08408805 0.086909354
0.074733496 0.037793238 -0.0075582373 -0.09633668 0.016178695 -0.072032355 -0.09089145 -0.11501228
-0.006938521 0.04867173 -0.016517712 0.04953177 0.026321476 -0.017441787 0.074828126 -0.0482874
00000000: b7a5 05bd 58ea 9b3b 9824 31bc c331 2cbd
00000010: 0005 a23d 87ca 653d af75 17bc c180 7c3c
00000020: 21c1 93bd e272 dc3d ed45 fc3b 96cb a53d
00000030: fe18 acbd d965 59bd 0440 14bd 89a7 503d
00000040: ab82 a1ba 8b16 193d 3161 60bd cd0a 89bd
00000050: 1f05 c8bd 65ef 3abd 806c fd3c 25e5 89bd
00000060: 4354 043d 779b 5d3d 16de b23d d517 1cbd
00000070: d350 113d 4d3c 143d 1fa8 dcba f57c 2b3d
00000080: f3c8 713d 428d e93c ac4a 05bd e184 91bd
00000090: 01fa bdbd a425 9fbd 05c2 153d 721a 8fbd
000000a0: 7841 7a3d ec71 d13a 98b5 9fbd bda8 cc3c
000000b0: bb91 563c 8bf5 98bc 0bb2 b5bd c66d fdbc
000000c0: 2262 9e3d 514a 08bc 165e 7fbd 4ed2 893c
000000d0: bf8c f63c f84d 13bd 6962 95bd 3d59 42bd
000000e0: 04eb 19bd 14f5 babd b3f8 b4bd 32d8 efbd
000000f0: 1a92 643c 707a 1b3c f334 7cbd 21b4 ea3b
00000100: 21b6 383d 0ea3 b7bd 787b 713c d4df ef3c
00000110: eb0b 533c 647d ab3d 5121 253d d58d 9bbd
00000120: 9722 bdbd 6e4e 86bd cf78 31bd 2798 d9bb
00000130: 0a8e ad3d 6b35 983d a464 d13b c8d2 463c
00000140: 82ba bcbc 4a4e dd3c 9b7f 8bbd cc28 863d
00000150: 8327 0f3d 2ec8 08bd 7211 29bd d2a5 97bd
00000160: 1643 8fbd 25e9 42bc ab29 b83d 4a6c 6cbd
00000170: 5e76 d6bd 03e7 abbc e58b 763d 3643 993c
00000180: df9d 94bc 8d0a c2bd e0bc 9cbc 35e2 ce3c
00000190: 3c8b 393d a733 0cbd c6a5 afbd afd2 0b3d
000001a0: 089f 173d af5b c0bd 0759 3ebd bb8f e2bd
000001b0: 1668 033c be1e c53d 0f54 08bc 0f8b 82bc
000001c0: c2b5 86bd 095f a5bc 9af1 e3bd 7489 9e3b
000001d0: 49c0 0abd 0c89 44bd f587 df3c 4e7c 66bd
000001e0: 9c88 b5bd 1089 a83c b734 5bbd 3b8b a33d
000001f0: 74ca 353a a624 e7bc ca10 933b 7e22 efbd
00000200: 89ea 3dbd 8246 e7bc ebc4 b5bb be68 92bc
00000210: c221 ec3c 3125 983d 07b9 c33c 5225 793d
00000220: ac62 ae3d b5e2 a63c f31d bbbc 84bd 1f3d
00000230: 3208 6d3c 3bd6 82bd c6c8 24bd 359a 9ebc
00000240: 3a28 37bd 6294 4bbc 184f dfbd b44e c63c
00000250: ef9d 72bd 7f3e 713d abb9 19bd d59d 94bd
00000260: 2ac5 1fbc 2835 86bb 1a84 a8bc ec1d 1dbc
00000270: 6d81 bf3d b145 01bd a0ab 243d 98c9 d2bc
00000280: eb4b 22bc 4697 983d 7208 d33d 7471 e13c
00000290: 3a46 f03c 2ee6 b0bc 7ee2 843d a744 a23b
000002a0: 6d3e 0ebe dd8c 28bd 72c7 fbbd caa6 4abd
000002b0: e38b a83a 3e27 573c bfdb aebb 9b56 a23c
000002c0: 564d a0bd 9f0b 8fbd ec65 81bd 393b cabd
000002d0: 7dec 29bd da34 523d 9581 773d c3cb 88bc
000002e0: f2af 13bd d7ea a03d 1c72 543d eee7 4dbd
000002f0: f8f3 95bd 5b4b 063e ce26 c03d 3dba c43b
00000300: 37f6 ac3d 0a36 523c 7186 b53d 5d2a 8c3d
00000310: 311b cc3c 3ad3 1ebb b4cb b93d 586a 353d
00000320: 073d 08bd 2edf abbc 8dea f6bc 738f fabd
00000330: af95 22b9 9008 a6bd b84d 44bd 1407 6a3c
00000340: 14e7 08bd 7911 d83b a357 8ebd 408a efbc
00000350: 4ae4 f23c 9a80 443c 471b 11bb 96d3 86bd
00000360: 704a 023d e080 4e3d 5d22 a53d 7622 c6bd
00000370: 744b d03c 4621 d43b a95f 1cbd a4fa 563c
00000380: f97b d8bd 971e d13a 9856 2dbd eb3b 593d
00000390: d970 fa3c 756a 1f3d 9732 143d c7e3 10be
000003a0: b365 b7bd 7a0a 213d 28fc 7abd 6f40 96bd
000003b0: ffb9 b33c f654 a8bc 5b36 acbd 88fd b13d
000003c0: e00d 993d 15cd 1a3d 17ab f7bb 2a4c c5bd
000003d0: 2f89 843c b385 93bd 4c25 babd 8f8b ebbd
000003e0: 885c e3bb 025c 473d 2750 87bc d3e1 4a3d
000003f0: 23a0 d73c 14e2 8ebc 7d3f 993d 02c9 45bd

block2.conv1.bias f4 [64]
-0.03745362 0.028028153 0.06232905 -0.007837941 -0.020659696 -0.071187384 -0.079779334 -0.05777915
-0.013501793 0.0369077 -0.04365583 0.004064821 0.058236852 -0.035298727 -0.071256585 0.008270925
0.047963783 -0.036674976 -0.016099807 -0.056427673 -0.038829274 -0.009203411 0.01586115 -0.08262398
0.03827951 0.037864488 -0.035066772 -0.042674337 -0.09212381 -0.06700906 -0.00023059182 0.017183358
-0.0038089163 -0.04796117 -0.060869414 -0.041456282 -0.038369622 -0.020173308 0.032592017 0.044641174
-0.058315523 0.05795509 0.0024626425 0.04207265 -0.014743946 0.12430482 -0.027137533 -0.025526082
-0.029619941 -0.048753463 0.063241355 -0.08449858 -0.06907313 0.07307981 0.051083867 0.05684369
-0.0972199 0.094246276 -0.06980779 -0.07287792 0.09632414 0.09670766 -0.010847234 0.026852207
00000000: f868 19bd 4c9b e53c bf4c 7f3d b56a 00bc
00000010: 863e a9bc b1ca 91bd 5963 a3bd d4a9 6cbd
00000020: a036 5dbc 872c 173d 75d0 32bd 3132 853b
00000030: c489 6e3d 6695 10bd f9ee 91bd c682 073c
00000040: ac75 443d 8038 16bd bee3 83bc b420 67bd
00000050: 720b 1fbd e7c9 16bc 3eef 813c c336 a9bd
00000060: faca 1c3d cb17 1b3d 2da2 0fbd 49cb 2ebd
00000070: 68ab bcbd 0c3c 89bd 05cb 71b9 1dc4 8c3c
00000080: 039f 79bb ef72 44bd 3552 79bd 10ce 29bd
00000090: 7729 1dbd 7e42 a5bc 357f 053d aad9 363d
000000a0: 42dc 6ebd 5162 6d3d 4964 213b 5f54 2c3d
000000b0: 9790 71bc 8793 fe3d 884f debc 131c d1bc
000000c0: 85a5 f2bc b6b1 47bd af84 813d 970d adbd
000000d0: 3776 8dbd deaa 953d 513d 513d eed4 683d
000000e0: 3a1b c7bd 3104 c13d 63f7 8ebd 0541 95bd
000000f0: 9745 c53d aa0e c63d 99b8 31bc 29f9 db3c
