ecg_afib_detection/checkpoints/mit-bih/100hz/resnet1d/fold_2/last.pt (torch, 321247 bytes, 44 tensors)

stem.0.weight f4 [64, 2, 7]
00000000: dc72 303e b75b 993b de5c 30be cf56 bfbc
00000010: 1fb7 6bbc 930b 57bd 4f69 a1bc 8354 333e
00000020: b908 f3bd d041 a33e 6c00 953d d371 4abe
00000030: d4cc 79bd efb6 57be 29a0 373e 765f 04be
00000040: 3498 0ebe b459 243b 6565 48be 888d 1ebe
00000050: 565d b03d 22ed f63d 8073 e2bd be22 0c3e
00000060: 2ce7 0a3e 42cf 533e 7a6b 503e a4dc 4fbe
00000070: d755 10be 6d43 75be 6367 573e 943c 343d
00000080: b8cb b3bd 9bce 3fbc b7af 95bd 984d 4b3e
00000090: 8d78 9ebd afaa 2fbe 2560 cabc 137a 80bd
000000a0: 69a6 2dbb 36d6 4f3e 55ce 273e 22dd e83d
000000b0: 0572 223e a8af 42be d395 70be d2a6 f4bd
000000c0: 8d25 693d c3c7 8dbd 77ec 783d 56d8 a5bd
000000d0: 40ce aabd 81c8 1f3e 4255 d13c 5bec 423c
000000e0: bba6 4d3e 11c5 0c3e 0a9a 213e 25cc 593e
000000f0: e803 65be 08e4 23be 7a9d 3abe 77b6 4a3e
00000100: 3c17 733e 98f9 1dbd 7bc8 5bbe f559 25be
00000110: 98e1 4dbe bab7 4e3e e849 29be 0c8b c93d
00000120: 7e9c 243d 51d4 ccbc dd9d 7a3e 9d11 a43d
00000130: 4c4c 29bd a114 c53d 7df1 80bd bbdc c1bc
00000140: 9c10 1d3d d04b 9bbd 6189 383e 4dbc 51be
00000150: 3d9f a13c e6c3 4abe 8753 2d3e 5005 4d3d
00000160: 4874 46be 6909 0ebe 5997 a33d ef9a 2abe
00000170: 7e67 223e d3ee 5c3d 3ee9 26be 65c6 353e
00000180: a38f 81bc ed36 843d 0506 073d 2d54 ef3d
00000190: e0f1 053e fc30 c43d 305e a4be 1118 473e
000001a0: 01d9 f93d 73aa 99bc 1f06 973c 449a 883e
000001b0: 18f3 89be 55f1 043e 6680 1dbe 8fbb 59bd
000001c0: 6da8 e0bb f0f8 c53d 02c9 9abd 0cb8 5dbe
000001d0: 583f ae3d a470 0a3e 652d 45be 5360 43be
000001e0: 1617 58bd 9929 073e a432 54be 6e21 abbe
000001f0: 9dd5 853c 33a7 923d f9bc 8f3d 6d9f ecbd
00000200: 4c45 07be eae4 54bd 821c d03d a178 d63d
00000210: f37c 2fbd b365 95bd 31e6 ad3d f0d0 703e
00000220: 463b 45be b36f 53bd 0be9 7a3e 7dfd 4cbe
00000230: 9957 05be 3460 843e 7e2f 923e a271 663e
00000240: a899 8fbe 2a58 7fbe e688 60be 8de9 04be
00000250: cbdb f73d f5f2 503e 095b 99be 1612 a03d
00000260: 736c e33d 4459 18bd d11d 253e c162 4cbe
00000270: 5ce1 293e cda6 753e 853d 3f3c c751 4d3e
00000280: 246c 3d3d c02b 0c3e fb35 693e 7f58 a13d
00000290: 1d55 04be 3193 47be 7dc4 bd3d 9c65 7e3e
000002a0: c97c 91be 1fb9 723d 1137 1a3e 1cb8 eb3d
000002b0: 408a 60be 8998 233e b3a6 3e3e 92e1 dc3d
000002c0: 9e4e 6d3d 298f 473d 55fe 28be 52f9 f8bd
000002d0: 7256 513e 7e62 50bd fbf1 8e3c 7ce0 06be
000002e0: a280 9f3d 7c96 9fbb 0834 5dbe 42c4 b4bd
000002f0: 68b9 503a f8a0 5ebd 4a5d f4bd ed8c 043e
00000300: 7fee 763e a1f6 60be fbba 34be 9291 783e
00000310: e021 bfbd 82d1 f83d 5a2d 80be 8048 6fbe
00000320: 91a1 7dbe b5cd 01be 0f71 0dbe 1d5c 8d3d
00000330: f4e0 5abd 54a4 b33d acc2 06bd a522 76bd
00000340: 8437 a23d b1ce e2bc 36b6 2f3c 1462 0e3e
00000350: 1e73 003d 05a4 a1bd 7c72 b23d 2207 163e
00000360: 6459 6fbe ae3b f93d 513c ab3d 6021 a83e
00000370: b808 ee3d 3f2f f2bd 357d 533e 67ef 23be
00000380: 7164 6bbe e657 663e f74b 8fbe 5e76 f0bd
00000390: 3c1a 153e 7c39 04be 058f 613e 6264 373e
000003a0: 1887 113e 69dd 90be 82cb 363e 2fdd dfbd
000003b0: a37f 31bd 36c1 8e3e 8505 04be a088 103e
000003c0: 9006 b73d 3983 c0bd f767 dc3c 2dbd a43d
000003d0: 7381 53be f2dc b73d 26ac 4e3e 7c69 d8bd
000003e0: 4a97 9c3e 8d95 5d3d c487 58bb e56c d9bc
000003f0: d04e 273e 8001 443e 4a18 67bd b30c a43c
0.17231315 0.0046801227 -0.17222926 -0.023356823 -0.014386921 -0.052501272 -0.019703535 0.17512707
-0.11866898 0.31886148 0.07275471 -0.19769983 -0.060986355 -0.21065877 0.1793219 -0.1292704
-0.13925248 0.0025077881 -0.19569929 -0.15483677 0.086115524 0.12056948 -0.11057186 0.13685128
0.13564748 0.20684531 0.20353499 -0.20299011 -0.14095245 -0.23951502 0.21035533 0.044003084
-0.08779091 -0.011706973 -0.073089056 0.19853818 -0.07737837 -0.17154954 -0.024704048 -0.06273284
-0.0026496893 0.20296559 0.16387303 0.11370303 0.15863807 -0.1901232 -0.23494653 -0.11945881
0.056920577 -0.06922867 0.060772385 -0.080979034 -0.0834012 0.1560383 0.02555335 0.011897172
0.20083134 0.1374705 0.15781417 0.21269281 -0.22364771 -0.16004956 -0.18224135 0.19796167
0.23739332 -0.03856811 -0.21463196 -0.16147597 -0.20105588 0.20187274 -0.16532099 0.09840974
0.040188305 -0.025003584 0.24474283 0.08011172 -0.041332528 0.09623075 -0.0629606 -0.023664823
0.038345918 -0.075828195 0.18021156 -0.20481987 0.019729251 -0.19801292 0.16926394 0.050053895
-0.19380295 -0.13870777 0.07987852 -0.16660665 0.15859792 0.053938698 -0.16299912 0.17751463
-0.015815562 0.06455789 0.032964725 0.11685977 0.13080549 0.095796555 -0.3210311 0.19442774
0.12199593 -0.018758034 0.018435536 0.26680195 -0.26943278 0.12982686 -0.15381011 -0.053157385
-0.0068560154 0.09666622 -0.075578704 -0.2165224 0.085081756 0.13519531 -0.19255598 -0.19079714
-0.05275639 0.13199462 -0.20722443 -0.33423942 0.01633721 0.07160797 0.070184655 -0.115538456
-0.13210028 -0.051976122 0.101616874 0.10472227 -0.04284377 -0.07294788 0.08491171 0.23517203
-0.19260892 -0.051620197 0.24502961 -0.20018573 -0.13021697 0.25854647 0.2855186 0.22504285
-0.28046918 -0.24935976 -0.21927223 -0.12979718 0.12102469 0.20405181 -0.29952267 0.078159496
0.111046694 -0.037194505 0.16124655 -0.19959547 0.16589874 0.2398941 0.011672382 0.20050727
0.04624571 0.13688564 0.22774498 0.078782074 -0.12923093 -0.19489743 0.09265993 0.24843448
-0.28415516 0.059258576 0.15060069 0.115097255 -0.21927738 0.15976156 0.18618278 0.107852116
0.057936303 0.048720513 -0.1650327 -0.12156929 0.20443133 -0.05087518 0.01744937 -0.13171571
0.07788207 -0.004870234 -0.2160188 -0.08826496 0.0007962198 -0.05435273 -0.11931856 0.12944384
0.24114417 -0.21969081 -0.17649452 0.2427428 -0.09332633 0.121493354 -0.250346 -0.233675
-0.24768664 -0.12676127 -0.1381266 0.06902335 -0.05343719 0.087715775 -0.032900497 -0.060091633
0.07920745 -0.027686449 0.010724595 0.13904601 0.031359784 -0.07892612 0.087132424 0.14651158
-0.23373944 0.12169586 0.08361114 0.32837963 0.11622757 -0.11825418 0.20653231 -0.16009293
-0.22987534 0.22494468 -0.27987644 -0.11741327 0.14560789 -0.12912554 0.22027214 0.17909387
0.1421169 -0.28293923 0.1785107 -0.10930859 -0.043334614 0.27881783 -0.1289273 0.14114618
0.089367986 -0.09400029 0.026905043 0.08043895 -0.2065485 0.08977689 0.20182857 -0.105669945
0.30584174 0.0540977 -0.0033039907 -0.026541183 0.16338658 0.19141197 -0.05641965 0.020025587

stem.0.bias f4 [64]
00000000: 2420 a73d b166 18be 1037 fe3d d28f 923e
00000010: 97e2 45bd 19fa e5bd ffe8 7b3e 4e1a ee3d
00000020: ba11 fbbd ac77 c33c 877d af3d 1d94 ef3d
00000030: bf16 03be 9c9f e4bd 0da8 51bc 62ae 1bbe
00000040: 31df 0abe d3aa 6f3d 68c2 fb3d bbc7 783d
00000050: 6731 95be 817a 793e 4167 11bc 21d1 623c
00000060: 419e 70bb 2955 253c 91e3 ae3d cbbb fa3c
00000070: 5c2d 5bbd 55c6 70be d5b1 483e 3684 5a3e
00000080: c2b5 423e ebad 18bd 46f7 423a ece4 2c3e
00000090: 1b8d 643e 0b80 28bd e57d 263e b88b 323e
000000a0: 6244 81bd 5c13 a33d a9d2 973d 9efe 333e
000000b0: 134b a33e 2c78 c23d 113a e4bd 695a 82be
000000c0: caa8 d63d 16ad d33d 7898 40be 642e 813e
000000d0: 7baf 1fbe 6789 8f3d c1e3 93bc c26a 19be
000000e0: b18d bdbd c1c0 45be 0676 bfbc e93c d6bd
000000f0: e10c e3bd 47d1 1fbd 8155 843d b11a 2ebd
0.08160427 -0.14882924 0.12412846 0.2862535 -0.048311796 -0.11229343 0.246006 0.11626111
-0.122592404 0.023860775 0.08568864 0.11698172 -0.12801646 -0.111632556 -0.012796414 -0.1520324
-0.13561703 0.05851252 0.122929394 0.060737353 -0.29139253 0.24363138 -0.008874715 0.0138438055
-0.003671542 0.010091105 0.085394986 0.030607125 -0.053510055 -0.23513158 0.19599088 0.21339497
0.19014648 -0.037275236 0.00074373593 0.16884202 0.22319452 -0.041137736 0.16258962 0.17436111
-0.06311871 0.07962677 0.07413227 0.17577597 0.31893215 0.09495577 -0.11143888 -0.25459602
0.10481413 0.10335748 -0.18808162 0.25230706 -0.15594284 0.07008629 -0.018052937 -0.14982131
-0.09255541 -0.19311811 -0.023371708 -0.104608364 -0.11086441 -0.03901794 0.06461621 -0.042505924

stem.1.weight f4 [64]
00000000: d73b 843f 2829 783f 0011 833f 5b11 823f
00000010: fb11 7a3f 3fc3 6f3f 32c7 7d3f e1e5 7d3f
00000020: e39f 783f ef47 843f 0164 753f 3713 773f
00000030: 4459 833f b9c4 7c3f 4a57 773f b9df 7b3f
00000040: d238 803f adf3 793f c3d0 7d3f 344f 753f
00000050: d3f4 793f 4e76 7f3f ec21 823f 88cf 753f
00000060: f7f4 813f 61c3 8a3f 01bf 713f 2302 7c3f
00000070: 9bd6 753f 53b1 763f edf7 7e3f 89f7 823f
00000080: 854c 873f 3029 7c3f 6d28 703f fa92 763f
00000090: fae7 7a3f d142 743f 2f38 7f3f a45c 873f
000000a0: 8e44 7b3f 4e18 783f a465 7a3f 0b31 863f
000000b0: 372d 863f 3fd7 863f e2c8 863f 6730 823f
000000c0: 497a 783f 5266 813f c542 823f b896 7c3f
000000d0: 6cc2 743f 8cd7 7b3f d624 7b3f 580f 803f
000000e0: dbad 833f 4e43 7f3f da55 803f e33a 833f
000000f0: 0729 7a3f 6564 813f 1c24 7d3f 210a 803f
1.0330762 0.969378 1.0239563 1.0161546 0.97683686 0.93657297 0.9913207 0.9917889
0.9711897 1.0334452 0.9585572 0.96513695 1.0261617 0.98737675 0.9661757 0.9838825
1.001734 0.97637445 0.9914667 0.9582398 0.976392 0.99789894 1.0166602 0.9601979
1.0152882 1.0840875 0.94432074 0.9844076 0.96030587 0.96364325 0.99597055 1.0231792
1.0570227 0.9850035 0.93811685 0.9631802 0.9801022 0.95414454 0.99695104 1.0575147
0.9815148 0.96912086 0.9781134 1.0483717 1.0482548 1.0534438 1.0530055 1.0171021
0.9706159 1.0109351 1.0176626 0.9866748 0.95609164 0.98375773 0.9810308 1.0004683
1.0287431 0.99712074 1.00262 1.0252346 0.9771885 1.0108763 0.98883224 1.0003091

stem.1.bias f4 [64]
00000000: a465 7f3c 1d10 aabc 3caf a93d c553 16bd
00000010: c484 c9bb 93e4 fcbc e719 dcbc 58ba 153b
00000020: 1ec3 a4bc fae9 983d 6ec3 efbc 0dfa 7cbb
00000030: a18a a53c ef54 34bd fae2 eabc 670b 933c
00000040: fdca ae3c cfb6 a23c cc4b 38bc e34d 223d
00000050: 63e6 4d3b 5666 d53b 0f8a 073c d448 52bc
00000060: f009 1d3c 0f9b c0bb 3b9d a43b 90ef a9bc
00000070: f961 41bc 679b 4fbc a59e 29bd 0fca f63c
00000080: 54e1 343c 1dba c8bc f71f a2bb 1c5f 58bd
00000090: c130 803c d63c ddbc 4fc9 bd3c 058f 093e
000000a0: 4817 9c3c 9d81 79bc 7737 0a3c fbba 83bc
000000b0: 3fd7 ccbc db62 6e3c 67a6 053d 4c9a 393d
000000c0: a863 1fba ad2e d83c b7e2 f4bd 2f57 da3c
000000d0: b154 8c3c 8076 133b ca7e a93c 77c1 85bd
000000e0: b2fa 0a3d 4806 1f3d 734c 073b 4dc2 313c
000000f0: 6c58 9c3c 0402 523d 6167 ed3c bf8c b3bc
0.015588198 -0.020759637 0.082853764 -0.036700983 -0.00614986 -0.030870711 -0.02686782 0.0022846665
-0.02011257 0.074665025 -0.029267993 -0.003860119 0.020207705 -0.04402631 -0.028672684 0.017949773
0.021337027 0.01986256 -0.01124854 0.03962506 0.0031417839 0.0065124435 0.008272662 -0.012834746
0.009584889 -0.0058778594 0.005023626 -0.020744115 -0.011803144 -0.012671328 -0.04141106 0.030125646
0.011040051 -0.024502808 -0.004947658 -0.05282508 0.015648248 -0.027006548 0.02316728 0.13433464
0.01905407 -0.015228656 0.008436075 -0.01608037 -0.025004981 0.014549936 0.032629397 0.045313165
-0.00060802186 0.026389444 -0.11957305 0.0266529 0.017130228 0.0022501051 0.02069034 -0.06531041
0.033930488 0.03882435 0.0020644933 0.010849548 0.019085132 0.051271453 0.028979959 -0.021917699

stem.1.running_mean f4 [64]
00000000: 0c42 a83d f2fb 19be e644 003e f19b 923e
00000010: 2270 48bd a401 e7bd 6807 7c3e 422c ec3d
00000020: 7cbf f2bd 3334 c23c 3be0 af3d aadd e43d
00000030: fc4a 04be bf66 e2bd a017 1abc d692 1fbe
00000040: 3869 0cbe 5dc3 643d ee17 fe3d dc73 7e3d
00000050: 2ece 95be 1d4c 743e f9a0 1dbc 008f 833c
00000060: b030 54bb f928 273c 600c ab3d ae4b ea3c
00000070: 0e01 54bd c7f3 76be ba13 4b3e 8983 5a3e
00000080: 182c 433e 31be 06bd 36d4 01ba 4a31 2c3e
00000090: c5e3 613e 9bf6 13bd d060 233e 389d 323e
000000a0: 6a4d 7abd 28cf a03d abd9 903d 0dee 303e
000000b0: 5eb4 a23e c571 c23d e339 e3bd 454a 83be
000000c0: 4bd5 cf3d bf8d cb3d a41d 42be a6f0 803e
000000d0: c0d0 2abe f3bf 8f3d f65e c3bc b2fe 18be
000000e0: 5824 bbbd 6104 48be 8f35 bebc 5c1d d6bd
000000f0: 94c5 dfbd 7234 1bbd 5be7 853d 187e 2dbd
0.082157224 -0.15037516 0.12526283 0.286346 -0.048935063 -0.1127961 0.246122 0.11531879
-0.11852929 0.023706531 0.085876904 0.111750916 -0.1291923 -0.110547535 -0.009405047 -0.15583357
-0.13712013 0.055850375 0.12406908 0.06212221 -0.29258865 0.2385716 -0.009620898 0.016059399
-0.0032377653 0.01020264 0.0835197 0.02860054 -0.05175882 -0.24116431 0.19831744 0.21339239
0.19059789 -0.032896224 -0.00049525814 0.16815677 0.22059543 -0.036123853 0.159549 0.17442787
-0.061108984 0.07852012 0.07072767 0.17278309 0.31778234 0.09494356 -0.110950254 -0.256426
0.10148104 0.09939145 -0.1895662 0.251836 -0.16681194 0.07019033 -0.023848992 -0.14940909
-0.091377914 -0.1953292 -0.023218898 -0.104548186 -0.10926357 -0.037891813 0.06538268 -0.04235658

stem.1.running_var f4 [64]
00000000: a5dc 0f3e 7cd9 be3e 06c7 1f3e 4b4d 4f3e
00000010: 86e3 143f 00a5 dd3d efbd e23d 43d6 3c3e
00000020: 8f16 993e 03d3 a33d 653c e33e 1dc6 0c3f
00000030: 49be 403e a0c9 393e 5d00 493f af46 a63e
00000040: b317 3b3e f507 673e 53fd a53e df6c 873e
00000050: 117c cb3d 7b3a cf3e 1b27 383e a259 813e
00000060: bc3b 1d3e c6d9 e73d 6c42 d33e 9c1b fe3e
00000070: c98d 6e3f 4832 233f 6bd7 7b3e 16e1 903e
00000080: bda1 b83d 5c4f f03e cc00 9c3e a54e ee3e
00000090: 81e6 543e 3dbf bb3e dccb 783e fd96 563d
000000a0: 1fb8 5a3e 350a cf3d be42 b83e 5fa6 d53e
000000b0: 7340 e13d b5fb e53d ba8a 263e 404d 973e
000000c0: 6be7 a23e ee02 ad3e 58d8 2d3e e71a ac3e
000000d0: 98f0 e13f 9aa7 dc3e 85a4 473f 0e47 b43d
000000e0: fb6b 493e 586e b63e fa6a b83d 4c72 d73d
000000f0: 2164 903e 99ea d93d f1ee b53e 0fab 933d
0.14049013 0.37275302 0.15603265 0.20244329 0.58159673 0.10822487 0.11071383 0.1844111
0.29900023 0.07999232 0.44382015 0.54989797 0.18822588 0.1814332 0.7851618 0.32475802
0.1827076 0.22561629 0.32419834 0.2645025 0.09935773 0.40474305 0.17983668 0.25263697
0.15354818 0.11320834 0.41261613 0.4963044 0.93185097 0.637486 0.24593894 0.28296727
0.09015224 0.46935546 0.30469358 0.46544376 0.20791055 0.3666934 0.24296516 0.052390087
0.21359299 0.10109369 0.3598842 0.41728494 0.10998621 0.1122965 0.16263857 0.29551125
0.31817183 0.33791298 0.1697706 0.33614275 1.7651548 0.4309662 0.7798541 0.08802615
0.19670098 0.3563106 0.09004779 0.10519847 0.28201392 0.10640449 0.3553386 0.07210361

block1.conv1.weight f4 [64, 64, 3]
00000000: 8aad 293d a33d 38bd 20c8 82bc 7af2 36bd
00000010: 1cc0 503d e35e 3ebc 1d23 013b e841 943d
00000020: 48bb 0abd 6a87 a53d bcbc 25bc d9fe 243d
00000030: 5926 b5bc c861 0f3c 2a57 22bd c41d 0a3d
00000040: aa5f 9e3b 0301 80bd 5663 863d b95e 323c
00000050: 0665 293d d989 82bd efb1 6a3d fae5 98bc
00000060: 0793 743d 88d1 5cbd 238a 41bd 31e7 14bd
00000070: b918 913d 55c8 863d 12fc ef3c 6712 06bc
00000080: 6705 763d dcdf 1dbd e215 3abd 51a8 f23b
00000090: cea6 b33d 9cf6 8d3d 82d7 503c 4987 723d
000000a0: 9215 5e3d 45a2 623b 49d9 98bc 54c6 993c
000000b0: 440e e43c 5e0f d43c 5d04 2abd 3108 3dbc
000000c0: 9392 743d f2d8 033d 9728 9d3d f550 cf3c
000000d0: ffe3 1b3d 3eb9 8bbb 52a0 da3b aa5d 333d
000000e0: af27 25bd 9206 25bd 1e35 07bd 64c2 e03c
000000f0: 8082 643d 90dc 07bb 8a4f b83c 48dc d13b
00000100: af1e 003c 5b97 e83c 89f7 82bc 6d82 a83d
00000110: e3a9 d23d 77e1 e33c c2a4 2a3d c30a 23bd
00000120: 3431 2d3d 62ec 7fbb 4c3d 833c 3aa6 9abc
00000130: c061 903d d5b8 99bb 8e14 52bd e882 c6bc
00000140: 35b7 8dbd 839c b2bc ff28 4e3d 21fb 73bd
00000150: 785c 243c c063 d83c d3ef 95bd e361 653c
00000160: fe26 653d 1f3a 3cbd 3003 2b3d 67e5 85bd
00000170: b4b2 2cbd 39fc a53d 3d9a a43d 47ab 12bd
00000180: faad a23d c8df 7dbc be57 93bb 5539 913d
00000190: e620 68bd 0c2b 443d b817 ba3d 21ff 8f3d
000001a0: d1ff 2b3c 5c49 033d 71e5 b7bc 40f2 c63a
000001b0: d6df c5bc 0122 003c fe88 9ebb 1691 c0bb
000001c0: 5fb0 573d 4c1d acbd 92fa edbc e53d a63d
000001d0: 57b1 8c3d 17f9 ad3d bddb 683d 273e 24bc
000001e0: 9af8 493d 4b53 ccbb b2e5 49bd 3806 33bd
000001f0: f52c dabc a9a8 683d a13d 0c3d 5b66 dbbc
00000200: 4559 32bd 9c61 743c 2cb7 3b3d 0c37 ad3c
00000210: 4a8e d33d 678a 0e3d bae3 823d 1da8 dd3d
00000220: 42df a83d dc2a 34bc fa53 aabc 3817 1e3c
00000230: 5fce 513b 1258 8b3c 92c2 3f3d b580 4abd
00000240: f874 e8bb f6fb 9abd 9a4b 08bd d060 65bd
00000250: c4cf a9bc ca61 60bd d726 733d 3819 e9bc
00000260: 1b15 c43c 39dc 45bc b008 9d3d a7b4 07bc
00000270: 58de cdbc 0a8a 3d3d bf89 8cbd 0600 3d3d
00000280: 9457 b63d 9210 3d3d a413 3dbd 219d 853b
00000290: 6c93 f63c 05b1 423d b581 76bc 6b4a f23c
000002a0: 6575 993d 1016 a53d 6d3d 43bd fdc3 a73c
000002b0: d218 67bd 7fd8 37bd 513f 80bd 2369 dabc
000002c0: f774 613d de18 d9bc 51d3 183d 1e27 b93d
000002d0: bc1a 2abd 2570 cb3c 23dd 90bd 0165 c43c
000002e0: 74ce 873c d720 99bc 0d87 a03d 7bd6 8d3d
000002f0: c414 6abd 4e4a aa3b f131 7abc 8706 cdbc
00000300: 0574 ac3d 74ff 943c 8496 dc3c 904d 553d
00000310: 88ce f6bc dc8d 6d3d 12ac 21bd 63aa b13d
00000320: d089 9f3d 6a16 1f3d 2df7 8b3c af29 c03d
00000330: ed4f c33d 12ca 273d d304 033d 8d42 4ebd
00000340: c33d 7bbd 50c5 2bbc 8168 83bd 865b 013d
00000350: 376b 563c c228 09bd 60e8 65bd a34a a3bd
00000360: 670a 463d d7e8 0c3d 1d21 8ebd ff19 5f3d
00000370: e91a 4dbd 87b3 1ebd e636 483d e9eb 7c3c
00000380: 8ce1 68bb a014 983d fb94 acbc ac1b 70bd
00000390: a4e1 c0bb c0b8 f53c 799c a7bc e3d2 8fbc
000003a0: 48a2 0f3b aa4b ad3d c189 dc3a 4af2 9abd
000003b0: cc82 2e3d de33 5c3d e20f 763d 0d68 bbbd
000003c0: 5d9a 94bd d312 75bd 2dda 303d 284d 2cbd
000003d0: ad72 a83c 6a1e 773d 63e9 b13d 0d64 7bbd
000003e0: 64c1 77bd ffdc 66bd 4a75 90bb 88b5 44bd
000003f0: a5ac 2cbd 1271 55bc fdd0 66bd d487 7c3d
0.041425265 -0.044980656 -0.015964568 -0.044664837 0.05096446 -0.011619302 0.0019704767 0.07239133
-0.03387001 0.08082469 -0.010115799 0.040282104 -0.022113012 0.00875134 -0.039633907 0.033719793
0.0048331814 -0.06250193 0.065619156 0.010886841 0.04135611 -0.063739486 0.057298597 -0.018664349
0.05971053 -0.053910762 -0.047250878 -0.036353294 0.070847936 0.06581179 0.029295001 -0.008183098
0.060063746 -0.038543567 -0.045431025 0.007405319 0.0877205 0.06931803 0.012746694 0.05921105
0.05421979 0.0034581583 -0.018658297 0.018771328 0.027838834 0.025886234 -0.041508067 -0.0115375975
0.059710097 0.032189317 0.076737575 0.025307158 0.03805923 -0.004264026 0.0066719437 0.043790497
-0.04032105 -0.04028947 -0.03300964 0.027436443 0.055788517 -0.002073083 0.022498865 0.0064044334
0.007819816 0.028392484 -0.015987175 0.08228002 0.102863096 0.027817471 0.04166103 -0.039805185
0.042283252 -0.0039050807 0.01602044 -0.018878091 0.07049894 -0.004691223 -0.051289134 -0.024232343
-0.069197096 -0.021803146 0.050332066 -0.059565667 0.010031812 0.026414752 -0.073211335 0.014000389
0.05594539 -0.045953866 0.041751087 -0.06537896 -0.042162612 0.08104748 0.08037231 -0.035807874
0.0794334 -0.015495248 -0.0044965437 0.07091013 -0.056672 0.047892615 0.09086555 0.07031084
0.010498003 0.032052383 -0.022448273 0.0015178397 -0.024154585 0.007820607 -0.004838108 -0.0058766706
0.052658435 -0.084040254 -0.029050145 0.08117274 0.068697624 0.08494776 0.056850184 -0.010024584
0.04930935 -0.0062355152 -0.04929132 -0.043707103 -0.026632765 0.05680147 0.03423846 -0.026782205
-0.043542165 0.01491585 0.045828983 0.021144412 0.10329874 0.03479996 0.06391092 0.10823081
0.08245708 -0.010996547 -0.020791996 0.0096490905 0.0032013876 0.017009769 0.046816416 -0.04943915
-0.007094022 -0.07567589 -0.033275224 -0.05600053 -0.020728953 -0.05478076 0.059363212 -0.028454408
0.023935845 -0.012076431 0.07667673 -0.008282817 -0.025130436 0.046274222 -0.068622105 0.0461426
0.08903423 0.04615838 -0.04616131 0.004077569 0.030099593 0.0475321 -0.015045573 0.0295765
0.07493094 0.08060849 -0.047666002 0.020479197 -0.056420155 -0.0448842 -0.06262077 -0.026661461
0.055043187 -0.026501115 0.037310902 0.09040664 -0.041529402 0.024833748 -0.070734285 0.023973944
0.016577937 -0.018692417 0.07838259 0.069256745 -0.05714871 0.005196846 -0.015270696 -0.025027527
0.084205665 0.018188216 0.02692724 0.052075922 -0.030127779 0.057996616 -0.03947074 0.08675077
0.077899575 0.038839735 0.017085636 0.093829505 0.09536729 0.040964194 0.031987023 -0.050356437
-0.061338197 -0.010484055 -0.06416417 0.031581424 0.013087085 -0.033486135 -0.056129813 -0.0797322
0.048349764 0.03440174 -0.069399096 0.05446815 -0.05007449 -0.03874543 0.04888048 0.015437105
-0.0035534827 0.07425809 -0.021067133 -0.05862014 -0.0058862735 0.029995322 -0.020460354 -0.017556613
0.0021916796 0.084616974 0.0016825722 -0.07565744 0.042605206 0.053760402 0.06007374 -0.091507055
-0.07256005 -0.059832405 0.04317682 -0.04206577 0.020562494 0.06033174 0.08687093 -0.061374713
-0.060487166 -0.056363102 -0.004408513 -0.048024684 -0.042156834 -0.013027446 -0.05635165 0.061652973

block1.conv1.bias f4 [64]
00000000: 56e1 d7bc 6103 1ebd 0f15 1dbd 290a 27bc
00000010: bb50 f7bc a2c2 cd3b f8d6 a2bc a6c2 36bd
00000020: dd8c 82bb db5d 1ebd 3c34 4fbd 97d5 6d3d
00000030: 0063 9dbd ced4 913b 9620 81bd fda3 0dbd
00000040: 2362 083d 0663 2c3d d7e4 90bd 9756 aabb
00000050: 8d08 96bd e0a3 4a3d 606a d03c d70e 703d
00000060: b202 013d 839f 4ebd 563a 173d 836a fbbc
00000070: e844 373d e56b 5ebd 9878 75bd 3a8b bebd
00000080: 37b6 ad3a a97c 813d c243 5e3d 247b 9c3d
00000090: 0262 9dbc 6ec8 523d 5a47 373d 41e2 3f3c
000000a0: a922 803d d9b4 2abc fd6d e63c 355e 983b
000000b0: 1448 ca3c cf13 32bd 5ff7 023d 8fee 753c
000000c0: 1f1a 613c 263b a53d 7c85 a33d fa1f 24bd
000000d0: 6679 8abd a903 b83c e601 943d 14d0 bfbc
000000e0: e4de 81bb b8d6 94bd d303 b23a ac68 3dbc
000000f0: 5bc1 603d dcf5 a7bd 2401 0bbd 19d6 383d
-0.026352566 -0.03857744 -0.03835016 -0.010195293 -0.030189862 0.0062793056 -0.019877896 -0.044619225
-0.0039840774 -0.038663726 -0.050586924 0.058065023 -0.076848984 0.004450417 -0.063050434 -0.03458022
0.033296715 0.042086624 -0.07074898 -0.0051983106 -0.0732585 0.04947269 0.025441349 0.058607902
0.03149671 -0.05044509 0.036920868 -0.030690437 0.04474345 -0.054302115 -0.05992946 -0.09303899
0.0013253157 0.06322605 0.054263838 0.07640675 -0.019211773 0.051460676 0.04474578 0.011711658
0.06256611 -0.010419094 0.028128618 0.004649902 0.024692573 -0.043475922 0.031974193 0.01501049
0.013739138 0.08067922 0.079844445 -0.040069558 -0.06761436 0.022462683 0.072269246 -0.02341465
-0.003963338 -0.07267517 0.0013581462 -0.0115606 0.0548719 -0.08201191 -0.033936635 0.045126054

block1.bn1.weight f4 [64]
00000000: 2661 753f 8342 823f 8982 763f 673f 763f
00000010: b5cd 7c3f 63ec 7b3f c0c7 813f d0df 823f
00000020: a1e5 7e3f ea54 773f 7afb 793f ad6d 7e3f
00000030: 4f2e 843f 3661 7a3f 639c 7d3f 19b6 7f3f
00000040: d049 753f 204a 803f c7b5 803f 42ad 863f
00000050: d8f1 6c3f 8f2f 843f a593 833f 95a9 733f
00000060: d1d7 7c3f 6c98 823f d281 833f de9e 7a3f
00000070: 424c 7e3f 1d31 6c3f 2660 823f 86d2 803f
00000080: 45c9 733f d68f 793f 4562 7e3f aeee 7b3f
00000090: 0a6a 7e3f b37c 813f fcc4 803f 2b69 7e3f
000000a0: 14ad 833f 253f 7b3f 0af0 853f 5645 843f
000000b0: de63 8c3f b7e7 803f 9fee 763f 5d3d 783f
000000c0: 8a75 893f e190 803f 4bd5 873f 8bc5 823f
000000d0: fff0 803f f6b4 793f d381 803f adda 753f
000000e0: d164 783f 8ed3 833f 44d5 7a3f 491a 7a3f
000000f0: d923 823f 8e49 853f e7d0 793f 8ca4 803f
0.9585136 1.0176548 0.9629293 0.96190494 0.98751384 0.9840757 1.0139084 1.0224552
0.99569136 0.96613944 0.9764935 0.993861 1.0326632 0.9780458 0.9906675 0.99887234
0.95815754 1.0022621 1.0055474 1.0521624 0.92556524 1.0327014 1.0279433 0.95180637
0.9876681 1.0202765 1.0273993 0.9789866 0.9933511 0.9226244 1.0185592 1.0064247
0.9522899 0.974851 0.993687 0.9841107 0.9938055 1.011618 1.0060115 0.99379224
1.0287194 0.98143226 1.0463879 1.033366 1.0967977 1.0070714 0.96457857 0.9696863
1.0738995 1.0044214 1.0611967 1.0216535 1.0073546 0.9754175 1.0039619 0.960368
0.97028834 1.0298936 0.9798167 0.9769636 1.016719 1.0413072 0.97584385 1.0050216

block1.bn1.bias f4 [64]
00000000: e9dc 46bd 6e03 eabd 96b9 98bb ba88 ffba
00000010: eb88 be3b cee8 8ebc 2207 50bb 90dd cbbb
00000020: 1a5f 3dbc e1bf fc3b 811f 51bd 3df4 66bd
00000030: 10e9 66bc c904 00bd 0eaa efbc 8ed1 c9bc
00000040: f34f 12bd 1dc1 f4bc ba26 92bc d6fa bbbc
00000050: fddb f8bc fe88 2cbb f05c e6ba 720d 35bc
00000060: b364 12bd b262 0a3c 812b cf3b df31 3dbb
00000070: 13eb aabc 149c bfbc 73c4 053c 4ae9 e83c
00000080: ffe0 07bd eddb a8bd ec7d 3bbc d79b 93bc
00000090: e33e 8cbd 775b 66bd 6dd5 10bd 88e0 853c
000000a0: 8c9f dabc b152 12be 484e 6cbc 4053 153d
000000b0: 2ae6 ac3c db12 dbbc 0c5e 9bbc 2c11 aabc
000000c0: b0ef 9d3d ed5c 16bc 449d 833d 6ab7 97bd
000000d0: 8ee4 94bd 58d1 07bd 2747 fd3b 17ca 40bc
000000e0: 5c25 98bc 4627 4a3d d0b9 35bd 6b1e d2bc
000000f0: d82f 0d3b ad70 b2bc 2f5d f7bc e7e7 083c
-0.04855052 -0.114264354 -0.0046607954 -0.0019495704 0.0058146617 -0.017444994 -0.0031742533 -0.0062214807
-0.0115583185 0.0077133034 -0.051055435 -0.056385268 -0.014093652 -0.031254563 -0.029255893 -0.024636056
-0.035720777 -0.02987724 -0.017840732 -0.022946756 -0.030378336 -0.002632677 -0.0017575305 -0.011050569
-0.035740566 0.008446382 0.0063223247 -0.0028868837 -0.020864045 -0.023389854 0.008164513 0.028431553
-0.033173557 -0.082450725 -0.011443596 -0.018018646 -0.06847932 -0.05623957 -0.03535979 0.016342416
-0.026687406 -0.14289357 -0.014422961 0.036456347 0.021105845 -0.02674239 -0.018965743 -0.020760141
0.077117324 -0.009177429 0.064264804 -0.0740803 -0.07270156 -0.03315863 0.0077294293 -0.011766932
-0.018572502 0.04935386 -0.044366658 -0.02564927 0.002154341 -0.021782244 -0.0301958 0.008356071

block1.bn1.running_mean f4 [64]
00000000: c566 2d3f 2b64 98be a226 9d3d 3e20 3cbf
00000010: dbfc c9be 98ee 153c 5187 1cbf 1e14 c3be
00000020: f063 40bf 7b7e 633f c0b6 983f f98c c73d
00000030: ec3e 19bf 4c99 ae3d e865 473e 0035 65be
00000040: c6de ecbe 09f6 183e 366f 3cbf 6a65 92be
00000050: 5f8c 26bd abb5 9b3e c44b bf3e f492 0fbf
00000060: 4747 e3be 9c06 18bf 68f6 ddbe 26bd 8fbd
00000070: 73ce 3d3f b32b 67be ec35 36bf f6a7 efbe
00000080: 476d 9f3d 4ab7 2a3f f7a9 fc3e c6e5 2ebf
00000090: b075 043d 92c5 0a3e b954 b03e a24c bfbe
000000a0: 1fc7 993e e147 623f d01d a2bd 27d5 11bf
000000b0: 7e32 b0be 9e4c 17bf d5b9 293e 7e73 04be
000000c0: 6e2b cfbe d40d b2be dba1 32be 5d6c 9c3d
000000d0: 9ba7 ba3c ea31 783f 917f 7abf 5cb6 1fbf
000000e0: f09c 1fbf 0e97 c1be e75f 92be 01c6 9f3e
000000f0: 0bfd 00be 8688 5ebe b524 54bf 8f89 07bf
0.6773494 -0.29763922 0.07673384 -0.734867 -0.39450726 0.009151123 -0.61143976 -0.38101286
-0.7515249 0.8886487 1.1930771 0.09743685 -0.59861636 0.08525333 0.19472468 -0.22383499
-0.46263713 0.14937605 -0.73607194 -0.28592998 -0.040661212 0.3041204 0.37362492 -0.5608361
-0.44390318 -0.59385085 -0.43352056 -0.07018499 0.7414314 -0.22575264 -0.7117603 -0.46807832
0.07784515 0.66685927 0.49348423 -0.68319356 0.032338798 0.1355193 0.34439638 -0.37363154
0.3003473 0.8839093 -0.079158425 -0.5696587 -0.34413522 -0.59101284 0.16574796 -0.12934682
-0.40462822 -0.34776175 -0.17444555 0.07637856 0.022784999 0.9695116 -0.978509 -0.62387633
-0.6234884 -0.37810558 -0.28588793 0.31205752 -0.12596528 -0.21731767 -0.8286851 -0.5294427

block1.bn1.running_var f4 [64]
00000000: eb33 903f fb1c 163f 6614 273f 915d 903f
00000010: f5b3 063f c603 143f 046f 423f c16d 343f
00000020: b682 933f 679c c33f 4afd f93f 3a15 ee3e
00000030: 40b2 4b3f 427c a13e 6e9e bb3e 9fd3 593f
00000040: fba8 893f 2e00 473e c4c3 463f b525 223f
00000050: 63bc ca3e 3603 e13e d7b9 083f 131a 693f
00000060: eb4d 243f c890 333f 0b75 023f c32b ad3e
00000070: 119e 2d3f dd34 1f3f e88c 803f f3d2 8b3f
00000080: fba0 073f 1065 513f 2cee 433f 149a 9e3f
00000090: 4ba1 6a3f 4f9e f23e b316 083f 1681 003f
000000a0: edd8 8b3e 243f c93f bc90 ac3e d207 233f
000000b0: 8ff7 153f 6b5c 2e3f 74fc 143f bdd5 0c3f
000000c0: df7d 273f ead4 3f3f 1200 0a3f e821 ab3e
000000d0: 6753 f93e 7c9e ec3f db4f 0940 7833 c13f
000000e0: a23c aa3f 8c67 5c3f a86b 3b3f ef13 e53e
000000f0: 4d32 d73e 1913 903e 5ce3 bb3f 97ea 323f
1.1265844 0.5863797 0.652655 1.1278554 0.5261834 0.5781826 0.75950646 0.7047997
1.1524265 1.5282105 1.9530423 0.4650057 0.7956886 0.31540114 0.3664431 0.85088533
1.0754694 0.19433662 0.77642465 0.63338786 0.39596853 0.43947762 0.5340857 0.9105541
0.64181393 0.70142794 0.50959843 0.3382245 0.67819315 0.6219004 1.0043001 1.0923752
0.5298001 0.81794834 0.76535296 1.2390771 0.91652364 0.47386405 0.53159636 0.5019697
0.2731394 1.5722394 0.33704174 0.6368381 0.5858087 0.6810977 0.5819771 0.5501364
0.6542644 0.74934256 0.5390636 0.33424306 0.48696443 1.8485866 2.145499 1.5093832
1.3299754 0.860955 0.73211145 0.4474177 0.42030564 0.2813957 1.467876 0.69889206

block1.conv2.weight f4 [64, 64, 3]
00000000: bc84 593d d516 d4bc e82f e73c 83d4 90bc
00000010: 69bf d63d 0e5e ddbc 598f 653d f555 b5bc
00000020: fa22 ddbc e24c 50bd d185 873d e8b6 463c
00000030: 9557 55bd 5d85 563d e937 fbbc eefb 89bd
00000040: 58ea 80bd b901 f8bc 1fa7 b7bd a27e a1bd
00000050: d7fd afbc 8b6a 253c d6d8 02bc 3a70 c63c
00000060: 8185 53bc 3162 af3c 54f1 c93c ad4e 923c
00000070: dacd f73c 2ff9 db3c d7ea 95bd 7e7c 83bd
00000080: a966 24bd dfb0 b3bd e967 5d3d 6d6b 3a3d
00000090: f9c0 a73d baa7 be3d 0bf4 893d a054 e83c
000000a0: 6963 783d 29b1 d1bb 8ae6 1fbd c097 c33c
000000b0: 7863 00bd e652 abbb 7818 82bc 0ac6 babd
000000c0: f89c cdbc edf0 2dbd 9699 7c3c c242 833d
000000d0: 22a9 8e3d d0e6 42bb 037a 9bbd 781a 963d
000000e0: dc68 173c a358 ed3d cde6 963c 542a b43d
000000f0: 3163 323d 661e 413d bb1e fb3c 95cf 963c
00000100: 9d6b 95ba 7320 a8bc 513c 2dbd 1a49 12bd
00000110: fd08 8ebd 98c8 503d 26db c33b 186d 163d
00000120: ecbd 85bc fa30 71bd 41ac 1cbd 99d1 3ebd
00000130: 6b21 953c 3f4d a3bd 7f26 4d3d 3e73 92bc
00000140: 481c 693d 7736 7dbd 09bb 17bd 676d 83bd
00000150: 32f8 9639 73b6 823d 95b7 6ebd 97dc 063d
00000160: 3235 e4bc 4060 9d3d da7d 20bc ea89 f03c
00000170: e63a 833d 996f 79bd 7512 09bd 3e72 8e3c
00000180: e04b 383d cb1e 9d3a 1291 8ebc 14ca 84bd
00000190: 7329 62bd 0da2 403d 1513 133d 65b8 7c3c
000001a0: 3bd0 00bd c434 093d 8f2e 693d 3a64 603c
000001b0: eeba 4bbd 90b3 5ebd dae9 813c 81cc 9b3d
000001c0: 79d4 6a3d bb2a ddbc 4db5 b73d 9c7f a73d
000001d0: 9900 c83c b3a9 b7bc 14f0 5e3d a364 d83d
000001e0: 9245 873d a82b 2a3d e7b3 27bd 52ac bfbc
000001f0: 0ac1 623d 070d 7d3d 4ce7 81bd 2180 29bc
00000200: 29a9 8f3b 10dc a2bc f4ac 91bc 762f 9a3d
00000210: 8fae a8bd 73c0 83bd 81b5 12bd 3168 703c
00000220: 6d1d 4e3d 3b61 a43d ca35 67bd d461 cabc
00000230: 2af0 c8bc 2807 b2bc d31b 1bbd 0039 20bc
00000240: d1be 0d3c f843 893d 8b78 7f3c 24d4 91bd
00000250: 691b 10bd 3544 df3c 6d28 82bb 2888 353d
00000260: c777 81bb 7f39 c53b 1d69 a8bb 85fb 283d
00000270: 036b aa3d 9a77 073e b59b a43d cc13 83bb
00000280: 3550 3abc 9e1b 1dbc e933 0e3d 21d8 9c3d
00000290: c9d5 e0bc 4af2 21bd 6dc4 813c 1f97 653d
000002a0: 1019 67bd 5e78 74bd 8189 7e3d 16d6 73ba
000002b0: 9bf1 1ebd 940e 623d a6f4 31bc 4905 a33d
000002c0: c7bd da3c 7b81 ab3d edda 803c 5e0b 81bd
000002d0: 6741 93bd 3167 92bc c924 b0bd a59f 213d
000002e0: cbe9 c53d b005 543c 0cc5 7d3d 88ed babc
000002f0: 17ee 80bd 9389 613d 2cdc ffbc 747c 2e3c
00000300: 8f74 57bc b555 e8bb d1d2 203d 7f65 6cbd
00000310: bdb6 3bbd 89c0 d13d f834 85bd 4375 56bc
00000320: 4cac fa3b e969 49bd 014e 0abd 24dd 21bd
00000330: 46d3 ef3d d1eb 093d d2d6 0e3d 147f a2bd
00000340: 9029 48bd 2174 c83a e3fc 40bd 9b27 b2bb
00000350: aa6e 05bb 83e5 653d 422c 9b3d 6f4f e83d
00000360: 7f7d acbd 69d4 543d ce19 ae3b 1806 b23d
00000370: 9149 1bbd 7593 423c fe5c 4c3d 3a98 8a3d
00000380: 5610 65bd c42d 513d 1ce6 7e3d 8cf8 89bd
00000390: 782e 993c fadc 8dbb f164 563d e875 32bb
000003a0: aa3d 443d 3c1e f9bc 2c02 4a3d 762c 50bc
000003b0: 0b12 833d adc8 b83c 834e 0cbc 1a99 303d
000003c0: 5080 87bc 31e9 58bd cae0 1c3d f77d 2e3d
000003d0: a838 32bd 7364 a8bc 4831 1e3d 18dc b2bb
000003e0: 2a65 1dbd 4eab a2bd 80ee d43c 071d dabd
000003f0: 94de 1c3d f168 343b 5053 4dbd 20df 29bd
0.0531051 -0.025889793 0.028221086 -0.017679458 0.10485727 -0.027022388 0.05604491 -0.022135714
-0.026994217 -0.05085457 0.0661732 0.012128569 -0.052085478 0.05237328 -0.030666308 -0.06737505
-0.062946975 -0.030274259 -0.08967423 -0.078854814 -0.021483345 0.010096203 -0.007986268 0.024223436
-0.012910248 0.021409126 0.024651207 0.017859781 0.030249525 0.026852218 -0.07320183 -0.064202294
-0.040136967 -0.0877397 0.054054175 0.045512605 0.081911035 0.09309335 0.067360006 0.028360665
0.06064168 -0.006399293 -0.03903822 0.023876071 -0.03134486 -0.005228388 -0.015880808 -0.09119804
-0.025099263 -0.042466093 0.015417477 0.064092174 0.06965853 -0.0029739626 -0.07591631 0.07329267
0.009241309 0.11589172 0.018420601 0.08797136 0.043551628 0.04714813 0.030654302 0.01840953
-0.0011399869 -0.020523285 -0.04229385 -0.035714246 -0.06935308 0.05097255 0.0059770523 0.036725134
-0.016325913 -0.0588846 -0.03825021 -0.046586607 0.018204411 -0.07973718 0.05008554 -0.017877217
0.056911737 -0.06181952 -0.037043605 -0.06417351 0.0002879515 0.06382456 -0.058280546 0.032925215
-0.027857397 0.07684374 -0.00979563 0.029362638 0.06407718 -0.060897443 -0.033464868 0.01738846
0.044994235 0.0011987326 -0.01740316 -0.06483856 -0.05521531 0.047029544 0.03590687 0.015424822
-0.031448584 0.033497587 0.056929167 0.013695771 -0.049738817 -0.054370463 0.01585858 0.076073654
0.057331536 -0.026997915 0.08970127 0.081786364 0.024414347 -0.022419786 0.054428175 0.1056607
0.06605066 0.04154554 -0.040943053 -0.023397598 0.055359878 0.061780002 -0.063429445 -0.01034549
0.004384179 -0.019880325 -0.017782666 0.07528584 -0.082364194 -0.06433191 -0.035817627 0.014673279
0.05032103 0.08026358 -0.05644778 -0.024704851 -0.024528582 -0.021731928 -0.037868332 -0.009779215
0.008651451 0.06702417 0.0155927045 -0.07120541 -0.03518239 0.027254203 -0.0039721043 0.0443193
-0.003951046 0.006018817 -0.0051394836 0.041255493 0.08321192 0.13229218 0.08037511 -0.0040001627
-0.011371662 -0.009589104 0.034717474 0.07658411 -0.02744569 -0.039537705 0.015840733 0.056052323
-0.056420386 -0.059685104 0.062142853 -0.00093016156 -0.03880463 0.055189684 -0.010861551 0.079599924
0.026701821 0.08374306 0.015729392 -0.06300996 -0.07190209 -0.017871471 -0.08600766 0.03945889
0.09663733 0.012940809 0.061955497 -0.022818342 -0.06295412 0.05506284 -0.031232916 0.010649789
-0.013150348 -0.007090295 0.03926355 -0.05771398 -0.04582857 0.10241801 -0.065042436 -0.013089481
0.007649934 -0.04917327 -0.033765797 -0.039517537 0.11710219 0.033672158 0.034872837 -0.079343945
-0.048867762 0.0015293398 -0.04711617 -0.0054368502 -0.002036015 0.056127083 0.07576801 0.11343276
-0.08422374 0.051960383 0.0053131348 0.086925685 -0.037911955 0.011875977 0.04989337 0.06767316
-0.055923782 0.051069036 0.06223117 -0.0673686 0.018698916 -0.004329321 0.05234236 -0.0027230922
0.04791037 -0.030409925 0.049318478 -0.012705913 0.06399926 0.022556627 -0.0085636405 0.04311476
-0.016540676 -0.052956764 0.038300313 0.0426006 -0.043511063 -0.02055571 0.038621217 -0.005458366
-0.038426556 -0.0794283 0.025992632 -0.10650068 0.038298205 0.002752837 -0.05012828 -0.041472554

block1.conv2.bias f4 [64]
00000000: dbf4 52bc 7357 23bd 42e9 b0bc 5275 9cbc
00000010: c3bf 3d3d f3ce 383d 205a 1cbd 759e 98bd
00000020: 90c7 f9bc d4e2 943d c69d 28bd 127a 62bd
00000030: 4a4f de3c b2f5 f039 c7fe 53bd 8416 44bd
00000040: bb1b 723d 6845 673c ad74 b9bd b6e8 29bd
00000050: 59c1 ad3c a99e e33c de8d f23c 2f48 ff3c
00000060: 11c5 3a3c 73cc 153d 283f 573c cbd8 9c3c
00000070: d0c4 723d c180 193d 7f5b 4ebd a380 bcbd
00000080: fa72 873d 13d9 333d 3d58 5d3d e236 a2bb
00000090: e829 8abd cdb4 d03c 71f8 783b 64d7 6a3d
000000a0: e7b7 d03c 31cd faba a2e0 0f3d 7368 b4bc
000000b0: 2ab5 873d 2935 9fbb 59ee 353d 8b99 803d
000000c0: c967 113d 162f f73a 04e2 3b3d dfe5 2fbd
000000d0: 83d0 18bd c9be acbc 1ed8 afbd 983f 8f3d
000000e0: ce85 f93c 4c80 b73c 70ca 483b 8c0b 273d
000000f0: cbf8 803d 7bb6 393d 4908 a43b 07c4 47bd
-0.012875761 -0.03987832 -0.021595601 -0.019098911 0.046325456 0.045119237 -0.038171887 -0.07452098
-0.030490667 0.072698265 -0.04116609 -0.055292197 0.027137417 0.00045959424 -0.051756646 -0.047873035
0.059108477 0.014115669 -0.09055457 -0.041481696 0.02121036 0.027785616 0.029608663 0.03116235
0.011399523 0.03657193 0.013137616 0.019146344 0.059269726 0.037476305 -0.050380226 -0.09204223
0.06613727 0.04390819 0.05403923 -0.00495039 -0.06746274 0.025476838 0.003798988 0.05733432
0.025478316 -0.0019134638 0.035126336 -0.022022462 0.06626351 -0.004858632 0.04441676 0.06279286
0.035499368 0.0018858637 0.045869842 -0.04294383 -0.037308227 -0.021087067 -0.08586143 0.069945514
0.03045931 0.022400044 0.003063824 0.040782496 0.062974535 0.045340043 0.0050058705 -0.04877093

block1.bn2.weight f4 [64]
00000000: 26db 863f 8fa6 813f 4d54 833f 241f 843f
00000010: 4504 873f a2ec 863f 59e0 723f d64d 803f
00000020: f754 803f 1100 893f 4fc7 893f 5803 833f
00000030: 10b5 813f 256f 853f 7f58 823f aadf 803f
00000040: 1d13 7f3f ea81 813f 526b 853f f78e 7f3f
00000050: dfcf 843f 3e15 863f c6a7 853f 040b 7f3f
00000060: 9d09 853f 085e 813f ccda 773f 98ae 863f
00000070: c89a 7d3f 6626 7b3f 70b1 7a3f ff83 853f
00000080: 0cea 843f f382 833f f34e 873f dfe3 833f
00000090: 0fc0 893f b689 843f 02f5 7c3f c2f4 803f
000000a0: d3ec 813f f2d8 833f 12f5 803f 969a 823f
000000b0: 769e 813f 82f0 863f 6d79 7a3f 3bb7 813f
000000c0: 64c2 773f bdba 803f dd99 803f 13f4 803f
000000d0: 121c 833f 6d44 853f 19a9 823f 3a3d 873f
000000e0: c224 803f a669 7a3f 66a8 883f 9bc2 7b3f
000000f0: 076d 843f e854 853f 7075 823f f792 753f
1.0535629 1.0128955 1.0260102 1.0322003 1.0548178 1.0540965 0.9487358 1.0023754
1.0025929 1.0703145 1.0763949 1.0235395 1.0133381 1.0424544 1.0183257 1.0068257
0.9963854 1.0117772 1.0423377 0.9982752 1.0375937 1.0475233 1.0441825 0.99626184
1.0393559 1.0106821 0.9681823 1.0522032 0.990643 0.98105466 0.97927 1.0430907
1.0383925 1.0274338 1.0570968 1.0303916 1.0761737 1.0354526 0.9881135 1.0074694
1.0150398 1.0300581 1.007479 1.0203426 1.0126483 1.0542147 0.9784153 1.0134043
0.9678099 1.0056988 1.0046955 1.0074486 1.0242941 1.0411507 1.0207855 1.056556
1.0011218 0.97817457 1.0676391 0.9834382 1.0345773 1.0416536 1.0192089 0.95927376

block1.bn2.bias f4 [64]
00000000: ed14 a2bb 6281 6e3c 283d 233d d7a4 68bd
00000010: f2d5 f9bc 7ef3 8abc 20ff 6dbc 4fbb 373c
00000020: 627d 063d 5870 dc3c 5af4 c5bc 2ac9 eb3b
00000030: 9120 d53c ec30 11bd c7c6 02bd 7f17 193c
00000040: 37c2 6b3c 3585 4e3c 2717 273c 4894 9cbc
00000050: 81e8 743c c45a bfbb 0d3e 97bd 2936 dbbc
00000060: d4e8 70bd d9d7 193c b474 97bc 031f 183c
00000070: 0d78 0abc 4886 58bd 2da4 1ebc 7860 68bd
00000080: a4bb af3c e1b1 ac3c f016 f43b 2fd1 973c
00000090: 122c c4bb 43e8 5abc 74d6 083b aa63 05bb
000000a0: f052 5d3a 1b5f 0abd 0c0e 83bc 8f2e c5bc
000000b0: e14f 223d 07fd 9cbc a86d 203c eee8 513c
000000c0: af8f 333c a9b3 0a3d 3b5f 89bd db44 4e3d
000000d0: d416 203d 9c65 0c3d d3c1 5ebc 2c3c 02bd
000000e0: 2ae0 643c c4e3 dcbc eefc dbbc cc5e cf3b
000000f0: 4b00 15bd 13fd 4a3c 2bd4 13bd 2dd4 0fbd
-0.004946342 0.014557214 0.039853245 -0.05679783 -0.030497525 -0.01696181 -0.014526159 0.011214091
0.032834418 0.026909038 -0.024164367 0.0071956115 0.026016505 -0.035447046 -0.03192785 0.009343981
0.014389566 0.012605001 0.010198391 -0.019113675 0.014948011 -0.0058396775 -0.07384882 -0.026759224
-0.058815792 0.009389841 -0.018488266 0.0092847375 -0.008451474 -0.052862436 -0.009682697 -0.056732625
0.021451779 0.021080913 0.0074490234 0.018532364 -0.005986699 -0.01336104 0.0020879777 -0.0020353594
0.00084428396 -0.033782106 -0.015997909 -0.024070052 0.03962696 -0.019163622 0.009791769 0.012811882
0.01095955 0.033862744 -0.06707617 0.050358634 0.03908427 0.03427659 -0.013596016 -0.031795666
0.0139694605 -0.026964076 -0.026854005 0.0063284393 -0.036377233 0.012389439 -0.03609101 -0.035114456

block1.bn2.running_mean f4 [64]
00000000: 0412 873e cca6 803d 464e 0d3f 169f e93e
00000010: 3c85 89be 143a 10bf 362e 5fbd 0fdb 11bf
00000020: a0fd 32bf 8b9c c33e 209e 8a3e 28e4 aabe
00000030: ab49 1abf 4512 3f3f 084b c93e 4d65 ac3d
00000040: 9826 10bf b111 f0be f926 73be 5b0f 7e3f
00000050: 4891 17bf 2af6 4a3e dc8b 66be 6d1c 86be
00000060: bc01 3ebe 4bd0 53be 07d4 663f 1d56 b53e
00000070: 1a04 b9be 68fe 1c3f 09f1 8bbe d8e5 abbe
00000080: 930e 6e3f 7a30 aebd a18c 27bf 8233 7ebf
00000090: 254d 113e a22f adbe bf07 3b3e fefb d73e
000000a0: 9d62 093f 1fc8 013e fde3 733d a640 f63e
000000b0: e532 62bf 56b4 55bd 9583 22bf 5223 aabe
000000c0: 4845 07be 06ca 1ebf d3fa 503f 61d2 98bf
000000d0: 09b1 66bf 1564 68bf ce24 493e 7411 303f
000000e0: 29f8 e9be de6c 5d3e 3db2 81be 5714 91be
000000f0: cc47 dc3d 179d 42bf f07a 113f ddcb 3c3f
0.26380932 0.06281814 0.5519756 0.45629185 -0.26859462 -0.5633862 -0.05448743 -0.5697488
-0.6991825 0.3820537 0.27073765 -0.33377194 -0.6026866 0.7463725 0.39315057 0.08417759
-0.5630889 -0.46888497 -0.23745336 0.9924218 -0.59206057 0.19820467 -0.2251429 -0.26193562
-0.18555349 -0.20684926 0.9016728 0.35417262 -0.36135942 0.61325693 -0.27332333 -0.33573794
0.9299099 -0.0850534 -0.6544896 -0.99297345 0.14189585 -0.33825403 0.18264674 0.42184442
0.53666097 0.12673996 0.0595436 0.48096198 -0.8835891 -0.052173935 -0.6348203 -0.33230072
-0.13210022 -0.62027013 0.8163273 -1.1939203 -0.90113884 -0.90777713 0.19642946 0.6877663
-0.45697144 0.21623561 -0.25331298 -0.2833583 0.10755882 -0.7602095 0.5682821 0.7374857

block1.bn2.running_var f4 [64]
00000000: 7eab 023f ef4a c23e 4fe4 d23e d800 f93e
00000010: 98a4 9e3e 88c6 2d3f 185e 993e 029c 1d3f
00000020: a964 903f 9b76 ed3e 3667 c83e 7a3a 2a3f
00000030: 4c22 2b3f 79c7 b93f 14fe 393f a4c8 db3e
00000040: 067d 8c3f db00 223f 864b 793e f1c6 7e3f
00000050: 9182 023f 89c9 d43e 5c2c c53e baec 823e
00000060: 2c98 dc3e fa42 aa3e 3b21 2c3f e5e4 e63e
00000070: 5c65 693f 80a5 2f3f f955 e63e f8cf 2e3f
00000080: 9859 3c3f 960c a63e 2262 123f 90a0 403f
00000090: 7b20 793e 27a4 e73e 4796 173f 51df ef3e
000000a0: e30b c93e 548d 913e ffc4 823e 6af0 b63e
000000b0: e8ca 3e3f a8bf 7b3e bb3c 8b3f 0150 0c3f
000000c0: 834b a23e 515f 6b3f f2a3 123f 216a 5b3f
000000d0: ae97 4e3f 37c3 023f 6a74 b63e c25f 103f
000000e0: 3055 dd3e bfd0 da3e b344 9b3e 2a5e ad3e
000000f0: 3363 a13e b89d b03e ff4f 003f 0039 f13e
0.51042926 0.37947795 0.4118981 0.48633456 0.3098495 0.6788106 0.299546 0.61566174
1.1280719 0.4637955 0.39141244 0.6649548 0.6684921 1.4513999 0.7265332 0.42926514
1.0975654 0.63282555 0.24345216 0.9952231 0.5098048 0.4156001 0.38510406 0.25571233
0.43084848 0.33254224 0.67238206 0.45096508 0.9117029 0.6861191 0.44987467 0.68286085
0.7357421 0.32431477 0.5718099 0.75245 0.24328797 0.45242426 0.5921368 0.46850064
0.3926688 0.28428137 0.2554092 0.35730296 0.7452836 0.2458483 1.0877908 0.54809576
0.31698236 0.91942316 0.5728141 0.85708815 0.80700195 0.51079124 0.35635692 0.56396115
0.43229055 0.42737386 0.3032585 0.33860904 0.31520995 0.3449533 0.50122064 0.471138

block2.conv1.weight f4 [64, 64, 3]
00000000: dc33 c0bc 6d94 90bd b6aa 18bd 40d9 fa3b
00000010: 06fd 253d b9ca b0bb 1bb4 aebd 5d26 62bd
00000020: dab2 943d 1da1 223c 5998 50bd fb29 9b3d
00000030: 0bf8 ef3d ff86 8bbb 3bc1 7ebc e749 9c3d
00000040: 4187 093d c4ec 343d 86f9 873d eaba c2bc
00000050: 6f48 a2bc b5b9 4cbc 7501 653d 15e1 8dbd
00000060: 8278 7bbc d2d9 133d 53ad 863d 17b3 2c3d
00000070: 3f17 07bd c3c1 1dbd de87 2b3c 4317 83bc
00000080: b10f 8e3d a559 c9bc c4e4 89bd b8a2 b7bc
00000090: 9e80 663d 0a4a 803d 891d 073d a5fe 9ebc
000000a0: 29cf 0f3d 0ded 6e3a 917e 4ebd 2746 ca3c
000000b0: 9c78 5ebd 9388 92bd 1c05 bfbc f0ce f9bb
000000c0: 98fe 89bc d5c9 60bc 875a f3bc aac1 fb3c
000000d0: 5ab4 d03c 8a40 5c3b 8726 58bc ce41 c8bd
000000e0: b657 8abd 98d5 1bbd 4bee 6b3d 72b1 f7bc
000000f0: 0f03 4ebc 622b 83bb 325e d3bc c0af 9dbd
00000100: 69fe 14bd 3a03 0d3d 7084 003e 49fb ca3d
00000110: b880 773d 547d d3bc 6d68 97bc 37f2 ecbd
00000120: 19a9 46bc 991c 18bd 1e08 ab3d bde4 403c
00000130: 3c66 603d b0f0 b83c 6311 e7bc ccec e73c
00000140: 2086 4fbd 0852 dfbc 009b 823d 5a81 5a3d
00000150: 8b38 d0bd 2871 20bd 4ec1 a8bd d694 c3bc
00000160: 3403 3e3d f35c a73c bf98 e63c 941d 34bd
00000170: c681 1c3d 9b0a 71bd 71f8 973d 7707 023e
00000180: 0a35 30bd 0550 adbc 6a2e 593c 0a3a 393d
00000190: 21ca 973d a3e8 f93c 9648 5cbc f0b9 c4bd
000001a0: 10c0 b3bc ab15 37bc d0df 4ebd 5f1f 3ebd
000001b0: b7d5 c0bc 3cb5 80bc 1552 42bc b03e 253c
000001c0: 1873 c83c 6e9c bcbc 5b40 893c 854f 16bc
000001d0: 5cba e8bd c66c 273c fb3b 90bb b68c 2bbd
000001e0: a31c 81bd b491 473d 0ce2 e9bc 2bb9 073b
000001f0: c062 83bd b70c 763d 6bfa 7fbd c4d2 e63b
00000200: e47f 06bd d89e b8bc fb84 d9ba 01f1 75bd
00000210: 4321 acbc 03ec 353d 5b53 24bd 5af2 ff3a
00000220: 0c92 9cbd 51b8 fabc 6ed5 fd3b e1d5 a03c
00000230: 2cd1 b33d 1471 bfbd 2610 033c 0ebd 8a3d
00000240: a983 8f3d 013b 463d 6cf9 323d 463b 58bd
00000250: dc5d 8a3d 434e 2c3d 3b2b 2dbd ad1e 273d
00000260: b45c 2fbc 0a00 b6bc a0fa 3b3d c5bd b5bc
00000270: bf19 0abd 6a48 2eba 52aa 84bd 27d5 4c3d
00000280: 97ee db3c 4951 2b3d efcc 9fbc 105f 70bd
00000290: 6964 95bd 388f 6fbc f6d5 cf3c 1d6b 2fbd
000002a0: 3fc8 b33d e9a9 dbbc 066d 03bc b668 423c
000002b0: b471 9b3d d3f4 b4bc 8207 383d 58c3 c03d
000002c0: 0661 34bd dc91 5cbc 00f5 8abd 5054 a4bd
000002d0: 676f a8bd 1106 d9bc 5fdc c1bd 4cc6 6b3d
000002e0: 73e7 543d 7fae 9cbd 1b17 16bd c343 bebc
000002f0: 1b26 3a3d 450a 01bd a1f4 a33c c27b 28bc
00000300: 1109 3ebd 1c1e 4e3d d8e5 84bd 925e 5dbd
00000310: 20ee 5fbc e66d 15bd 0673 563d 49d7 793d
00000320: 2f21 2e3d 27b3 123d b59a 6bbd 9d4c 66bd
00000330: 6dc7 c8bd 45a3 e73c 5138 1d3d acad 78bd
00000340: 4706 3d3b 4c2b 623c 4592 be3b 21a3 7eba
00000350: f268 ae3c a71d 173d 6ca6 9abc 6142 f0bc
00000360: dd9f 38bd 4d98 31bd 3d3d a33b 41db 703d
00000370: dbf1 35bd a0dd 03bd def5 a5bc 14d1 43bd
00000380: 48ee 333b a811 6fbd 5dc0 443c 0f86 753d
00000390: 6371 973d a97d 563d 481a b9bc e0b1 d93b
000003a0: d062 943c 0a8d 53bd 1cdd 99bd 91f6 f33c
000003b0: 3ff1 4ebd bdb6 813d 12ee b23a 5730 4e3d
000003c0: ea89 1cbd 534c 943d 4a5d 863d da9d 59bd
000003d0: 5d99 1ebd 4fa2 2e3d dc90 8c3c 3b60 953d
000003e0: b725 253d aba2 74bd f049 d43a 1f9a aabd
000003f0: b46b 68bd 7a8c 8c3c c7c1 543d 0ae3 03bd
-0.023462228 -0.0705956 -0.037272178 0.0076552927 0.040524505 -0.00539526 -0.08530446 -0.055212367
0.07260676 0.009926108 -0.05092654 0.075763665 0.11717232 -0.004258036 -0.015548999 0.07631283
0.033576254 0.04417111 0.0663939 -0.023770768 -0.01980993 -0.012495448 0.055909593 -0.069276966
-0.0153485555 0.0360964 0.06576028 0.04216298 -0.032981154 -0.038514864 0.010469405 -0.016002303
0.06936587 -0.024578879 -0.06733087 -0.022416458 0.056275003 0.06264122 0.03298715 -0.019408533
0.035109673 0.0009114303 -0.050413672 0.024691654 -0.05431424 -0.07154956 -0.023317866 -0.007623546
-0.016845033 -0.0137199955 -0.029706253 0.030731995 0.025476623 0.0033607804 -0.013192779 -0.09778176
-0.06755011 -0.038045496 0.0576003 -0.03023598 -0.012573971 -0.0040029744 -0.025801752 -0.07699537
-0.036375437 0.034426905 0.12550521 0.0991121 0.06042549 -0.025816597 -0.018482411 -0.11569636
-0.012125277 -0.037136648 0.083511576 0.011773285 0.054785 0.022575706 -0.028206533 0.028311156
-0.05066502 -0.027260795 0.0637722 0.053346016 -0.10167035 -0.039170414 -0.08239995 -0.023874681
0.046389773 0.020430064 0.028149007 -0.04397352 0.0382097 -0.058848005 0.07420433 0.1269816
-0.043019332 -0.02115632 0.013255695 0.045221366 0.074116 0.030506438 -0.01344504 -0.09605777
-0.021942168 -0.0111746 -0.050506413 -0.046416637 -0.023539407 -0.01571142 -0.01186039 0.010085747
0.024468943 -0.02302381 0.01675432 -0.009174232 -0.1136367 0.010218805 -0.0044016815 -0.04188224
-0.0630429 0.048722938 -0.02855017 0.0020709734 -0.064153194 0.06007072 -0.062494677 0.007044168
-0.03283681 -0.02253668 -0.0016595417 -0.060044292 -0.021011954 0.04441453 -0.040118556 0.0019527182
-0.07645044 -0.030605467 0.00774639 0.019633235 0.08780131 -0.0934774 0.007999456 0.067743406
0.07007534 0.048396114 0.0436949 -0.052790903 0.067561835 0.042066824 -0.042277556 0.04080074
-0.0107032545 -0.022216816 0.04589331 -0.022185216 -0.03371596 -0.0006648364 -0.064777985 0.050007965
0.026847167 0.041825566 -0.0195069 -0.05868441 -0.07294542 -0.014621548 0.02537058 -0.04282676
0.08778428 -0.026814418 -0.008021599 0.011865785 0.075900465 -0.022089398 0.044929035 0.09412259
-0.04403784 -0.01346251 -0.06785011 -0.08023894 -0.08224373 -0.02649215 -0.094658606 0.057562158
0.05197854 -0.0765047 -0.03664313 -0.02322567 0.045446496 -0.031503934 0.02001411 -0.010283412
-0.046395365 0.050321683 -0.06489152 -0.054045267 -0.013667613 -0.03648176 0.05235579 0.060996328
0.042512115 0.035815384 -0.057520587 -0.056225408 -0.098036624 0.028276095 0.038383786 -0.0607125
0.0028842853 0.013804268 0.0058157765 -0.0009713639 0.021290276 0.036893513 -0.018878184 -0.029328527
-0.045074333 -0.043358136 0.0049816654 0.058802847 -0.044420104 -0.03219378 -0.02025884 -0.047806814
0.002745526 -0.058366448 0.012008754 0.0599423 0.07394674 0.052365933 -0.02259554 0.006643519
0.018113524 -0.051648177 -0.075128764 0.029780658 -0.05052304 0.06333683 0.0013651273 0.05033907
-0.038217463 0.0724112 0.06560762 -0.053129055 -0.038720477 0.04263526 0.017158918 0.07293745
0.04031917 -0.059725445 0.0016196351 -0.083301775 -0.05674334 0.017156828 0.051942613 -0.032198943

block2.conv1.bias f4 [64]
00000000: e13b 663d 7075 4a3b ef74 11bd 027c 1abd
00000010: 09c8 c3bc cf86 0d3d 4ddb 093c d9e5 10bd
00000020: 8198 7bbc 0b23 80bd b3d4 41bd 8ff5 b73c
00000030: 4e2f a53d b9d8 663d 439d 4ebc a2b5 8cbc
00000040: aba2 9cbc 2d89 4c3d 0f8e 0e3d d32a 1e3d
00000050: ab66 5c3b 01b1 2c3d 4ab0 66bc cd9c bfbc
00000060: d7bc d43c b4af d53b 45f4 61bc 0ba8 16bd
00000070: 6091 4dbd 9612 0a3c 7838 ad39 f793 77bd
00000080: e5ef 493d 5db7 6bbd e6db ca3c d6ca 13bc
00000090: 571f 753c 02c2 a5bc fbe6 85bb 29b3 de3c
000000a0: 8d9b afbc a732 7c3d 817d 8f3b 0ce6 7bbc
000000b0: b14a 4f3b e5c5 823d 700b 83bc 21fc 233d
000000c0: 3ee4 823d 1a53 3c3b a63b 9cbd 66d8 24bd
000000d0: 26e4 52bd ee34 5dbd e50b 3ebd 7571 803c
000000e0: 849e 073d 8a08 46bd 4f55 9c3d 1684 333d
000000f0: 4d5e e43c 7ec6 63bc fc02 173c d287 8c3d
0.05620945 0.0030892752 -0.035511907 -0.03771592 -0.023899095 0.03455239 0.008414102 -0.03537545
-0.015356184 -0.06256684 -0.047321986 0.022455959 0.08065663 0.056359027 -0.012610736 -0.017176453
-0.019120535 0.04993551 0.034803446 0.03861506 0.003363053 0.04216099 -0.0140801165 -0.023390198
0.025968952 0.0065211896 -0.013791149 -0.036781352 -0.05018747 0.008427283 0.00033039204 -0.060443845
0.049301047 -0.057547916 0.024763059 -0.009020528 0.014961085 -0.020234112 -0.004086373 0.02718504
-0.021436477 0.061571743 0.004378975 -0.015374672 0.0031630213 0.06385402 -0.015996665 0.04003537
0.0639119 0.0028736056 -0.076285645 -0.040245436 -0.05148711 -0.054005556 -0.046398062 0.0156791
0.033110157 -0.048347987 0.07633459 0.04382714 0.027876997 -0.013902305 0.00921702 0.06861843
