ecg_afib_detection/checkpoints/ptbxl/100hz/cnn1d/fold_2/last.pt (torch, 626357 bytes, 22 tensors)

features.0.conv.weight f4 [32, 12, 7]
0	0x3e7e14da	0.24812642
1	0xbd7614fc	-0.060078606
2	0xbe1730d6	-0.14764723
3	0x3e8cefef	0.27526805
4	0xbe05e424	-0.1307531
5	0x3e5959d6	0.21225676
6	0xbd5a4fc6	-0.053298734
7	0x3e2586c6	0.16164693
8	0x3d5d111e	0.053971402
9	0xbc941850	-0.018078
10	0x3d4557e2	0.048179515
11	0xbe60c1c2	-0.21948913
12	0xbddf9992	-0.10917963
13	0xbe9289aa	-0.28620654
14	0xbe54f1bf	-0.20795344
15	0x3d78bf14	0.0607291
16	0x3e69e184	0.22839934
17	0x3d473be9	0.04864112
18	0x3e8e5d88	0.27805734
19	0xbe0f5547	-0.13997374
20	0x3cc2baf0	0.02377078
21	0x3db7b45e	0.08969949
22	0x3de14d9f	0.11001133
23	0x3d2aaac7	0.041666772
24	0xbe250e4b	-0.16118734
25	0x3c2df321	0.0106170485
26	0x3d01f4cc	0.031727597
27	0xbc259ba3	-0.0101079075
28	0x3de379dc	0.11107227
29	0xbe44cd80	-0.19219017
30	0xbc080eed	-0.00830434
31	0xbd40dad2	-0.047083683
32	0x3dfbb01f	0.12289452
33	0xbd21ca4a	-0.03949956
34	0x3e367684	0.17818648
35	0xbda0be67	-0.07848816
36	0x3db559d2	0.088550225
37	0xbe96af76	-0.2943074
38	0xbde0658f	-0.10956871
39	0x3bd5eb5f	0.0065283026
40	0xbe8a94a0	-0.27066517
41	0xbd42ff60	-0.047606826
42	0x3e6a96b7	0.22909056
43	0xbe2c1df7	-0.16808306
44	0xbe1b555d	-0.15169282
45	0x3d07dc7a	0.033169247
46	0xbe2e7d1e	-0.17039916
47	0xbe2d2509	-0.16908659
48	0x3eafa7da	0.34307748
49	0x3d49f16b	0.0493025
50	0xbdc1da07	-0.094654135
51	0xbded5294	-0.11588016
52	0xbe3b9f8b	-0.1832258
53	0xbdd62889	-0.1045695
54	0xbdfb448e	-0.12268935
55	0x3d3dad5f	0.046307918
56	0xbd4751cd	-0.048661996
57	0x3da2a422	0.07941462
58	0xbd9e5130	-0.07730329
59	0x3cf70e78	0.030158266
60	0x3db73cf5	0.089471735
61	0xbe68ff82	-0.22753718
62	0x3cbebd76	0.023283701
63	0xbdef6e05	-0.116909064
64	0xbddf643b	-0.10907789
65	0xbd6ff782	-0.05858565
66	0xbdc49ba4	-0.095999986
67	0xbe9c1673	-0.30485877
68	0x3da7e9dd	0.08198903
69	0xbdb6d530	-0.08927381
70	0x3e648395	0.2231582
71	0xbe123056	-0.14276251
72	0x3d37f481	0.04491091
73	0x3beca520	0.007221833
74	0x3d98524f	0.07437574
75	0xbe20efa8	-0.15716422
76	0x3dd6b148	0.104830325
77	0xbce6cb4a	-0.028173108
78	0xbebbb957	-0.3666484
79	0x3dd3c453	0.1034018
80	0x3e09f7e4	0.13473469
81	0xbd199b5d	-0.03750168
82	0xbe8ababc	-0.27095592
83	0x3e15b207	0.14618693
84	0xbe2965b1	-0.16542698
85	0x3df2c529	0.118540116
86	0x3e9847c9	0.29742268
87	0x3dcaabfc	0.09896085
88	0x3c90b4cd	0.017664338
89	0x3d413146	0.04716613
90	0x3dc59845	0.09648184
91	0xbd66b8da	-0.056328632
92	0x3cb27c8d	0.021787906
93	0xbcbb88f0	-0.022892445
94	0x3d579d52	0.052640267
95	0xbd0e594a	-0.03475312
96	0xbe3887ab	-0.18020503
97	0xbda130e2	-0.07870652
98	0xbcc7128b	-0.024300834
99	0xbc3dd177	-0.011585585
100	0x3cf1df65	0.029525468
101	0x3de2f963	0.11082723
102	0x3e73ae83	0.2379704
103	0xbd0f88f0	-0.035042703
104	0xbe1aac83	-0.1510487
105	0x3d7ff30d	0.06248765
106	0x3e1512c2	0.14557937
107	0x3e381285	0.17975815
108	0x3e52553d	0.20540328
109	0xbc98bcca	-0.01864471
110	0x3e431023	0.19049124
111	0x3d1c6aae	0.038187675
112	0xbd459afc	-0.048243508
113	0x3d4dece4	0.050274745
114	0x3d817a3b	0.06322142
115	0xbe6a7ef4	-0.22899991
116	0xbe501646	-0.20320997
117	0x3c8c134a	0.017099041
118	0x3e2dc2cd	0.16968842
119	0x3e063220	0.13105059
120	0xbda1cb31	-0.07900084
121	0x3e3535e8	0.17696345
122	0x3deba7c2	0.11506607
123	0xbd87c9c3	-0.0663028
124	0xbe6173c8	-0.22016823
125	0x3e22590f	0.15854286
126	0x3dbe28e3	0.09285142
127	0x3e3a3ac9	0.18186487
128	0x3e4beaf3	0.19913845
129	0x3ea99681	0.33122638
130	0x3e447a4a	0.19187275
131	0xbd02b511	-0.03191096
132	0x3e3f69ff	0.18692778
133	0x3e4fd239	0.20295037
134	0x3d252456	0.040317856
135	0xbe949415	-0.29019228
136	0x3dd72c14	0.10506454
137	0x3ebb1cd4	0.36545432
138	0x3d27f719	0.041007135
139	0x3cbc4f72	0.022987101
140	0xbd126153	-0.035737347
141	0xbe415c42	-0.1888285
142	0xbe342b97	-0.17594753
143	0xbec976db	-0.39348492
144	0xbe9d18e2	-0.30683047
145	0xbccab789	-0.02474572
146	0xbc3e41eb	-0.011612396
147	0x3d822880	0.06355381
148	0x3eb92d59	0.3616741
149	0xbd582cce	-0.052777104
150	0x3e7818ae	0.24228165
151	0xbe71c1f7	-0.23609148
152	0x3e2036bb	0.15645878
153	0xbc6a9333	-0.014317322
154	0x3e705cbf	0.2347288
155	0x3e6c1c18	0.23057592
156	0x3d0b1660	0.033956885
157	0x3dacd2da	0.08438654
158	0xba9a5435	-0.0011774363
159	0x3b182f8a	0.0023221695
160	0x3eaa727d	0.33290473
161	0xbb91508f	-0.004434652
162	0xbd8e9e12	-0.06963743
163	0xbe6215d7	-0.22078644
164	0xbd330c7c	-0.043713078
165	0xbd309fcd	-0.043121148
166	0xbe63817e	-0.22217366
167	0xbe0bdd19	-0.13658561
168	0x3e332303	0.17493825
169	0xbe41f606	-0.18941507
170	0xbe490519	-0.19630851
171	0xbd221178	-0.03956744
172	0x3db20408	0.08692175
173	0x3d49d124	0.049271718
174	0x3de44285	0.111455
175	0x3dc8113a	0.09768911
176	0x3eb1255b	0.34598812
177	0x3e0c7030	0.13714671
178	0xbe24dbf4	-0.1609953
179	0x3d42963b	0.047506552
180	0x3e0122d4	0.12610942
181	0xbd6d73be	-0.05797171
182	0xbd9550de	-0.07290815
183	0x3cdf38e5	0.02724881
184	0x3ec15269	0.37758186
185	0x3e411fb5	0.18859752
186	0x3b41d54d	0.00295766
187	0x3e016566	0.12636337
188	0x3d8b18de	0.067918524
189	0xbe24f481	-0.16108896
190	0x3dfead59	0.12435407
191	0xbdf8bfa3	-0.12145927
192	0xbe1618cd	-0.14657898
193	0xbe569e4d	-0.20958824
194	0x3df098d3	0.11747899
195	0xbc9684c4	-0.018373854
196	0x3cb24118	0.021759555
197	0x3e05dc7f	0.13072394
198	0xbe2d415e	-0.16919467
199	0xbe0ca1ba	-0.13733569
200	0xbe041fc2	-0.1290274
201	0x3e45b989	0.19309057
202	0xbb6540af	-0.0034981181
203	0x3db3df8f	0.08782875
204	0x3baf4865	0.0053492063
205	0x3eb45815	0.3522345
206	0xbeb88689	-0.36040142
207	0xbe1bf711	-0.15230967
208	0x3db05b6a	0.08611186
209	0x3ce9ccb8	0.02854
210	0xbdf2d335	-0.11856691
211	0xbe46980a	-0.19393936
212	0xbd4a7a33	-0.049432945
213	0xbe7dda93	-0.2479041
214	0xbd47fc58	-0.048824638
215	0x3e050e3f	0.12993716
216	0xbdc03dc0	-0.09386778
217	0xbe32aa64	-0.17447811
218	0xbdeb22d9	-0.11481256
219	0x3d8f1a45	0.069874324
220	0x3d8004fc	0.06250951
221	0xbe2f1d06	-0.17100915
222	0xbe200d65	-0.1563011
223	0x3d1d537c	0.038409695
224	0x3c95042f	0.018190471
225	0xbe3792d4	-0.17927104
226	0x3e2c2000	0.16809082
227	0x3da58780	0.08082485
228	0xbc6224e1	-0.013802738
229	0x3d035ae1	0.03206909
230	0xbe76d5b6	-0.24104962
231	0xbc57f86d	-0.013181788
232	0xbc38f0e1	-0.011287899
233	0xbdf8e36b	-0.121527515
234	0xbe236ca8	-0.15959418
235	0x3ea7aa12	0.3274694
236	0xbe2eba6c	-0.17063302
237	0x3debda84	0.11516288
238	0x3d2241ad	0.039613415
239	0xbe804c21	-0.25058082
240	0x3dec9c5e	0.11553262
241	0x3e2eb8e5	0.17062719
242	0x3e426ba8	0.1898638
243	0x3d402107	0.046906497
244	0x3ea8d3d8	0.32974124
245	0xbe042761	-0.12905647
246	0x3e421250	0.18952298
247	0x3d9bee31	0.07613791
248	0x3bbde705	0.005795362
249	0x3b1b4e1b	0.0023697678
250	0x3d9691f0	0.07352054
251	0x3da3933a	0.079870656
252	0x3d80061e	0.06251167
253	0xbe279366	-0.16364822
254	0x3d71f054	0.059067085
255	0x3e07ad75	0.13249762

features.0.bn.weight f4 [32]
0	0x3f8130c1	1.0093004
1	0x3f7d0db9	0.98849064
2	0x3f76bd6f	0.963828
3	0x3f73ed6d	0.9528416
4	0x3f909758	1.1296186
5	0x3f80998d	1.004686
6	0x3f77f825	0.96863014
7	0x3f77c347	0.96782345
8	0x3f76ab23	0.96354884
9	0x3f7e6db2	0.9938613
10	0x3f749ab7	0.95548576
11	0x3f8327f3	1.0246567
12	0x3f7b48bc	0.9815786
13	0x3f8665d4	1.0499825
14	0x3f7f4b57	0.99724334
15	0x3f7b2b84	0.98113275
16	0x3f84dce2	1.0379908
17	0x3f79ef4b	0.9763076
18	0x3f72784c	0.9471481
19	0x3f89b394	1.0757928
20	0x3f83405c	1.0254016
21	0x3f80de32	1.0067809
22	0x3f828470	1.0196667
23	0x3f818b82	1.01207
24	0x3f811dbf	1.0087203
25	0x3f7b2e8b	0.98117894
26	0x3f7d9474	0.99054646
27	0x3f82537e	1.018173
28	0x3f7f88be	0.99818027
29	0x3f81373f	1.0094985
30	0x3f7e0346	0.99223745
31	0x3f897e1a	1.0741608

features.0.bn.bias f4 [32]
0	0x3c27bafc	0.010237452
1	0x3c848d63	0.0161807
2	0x3d03a910	0.032143652
3	0x3d6ab29e	0.05729925
4	0x3e04a153	0.12952165
5	0x3da6094d	0.08107243
6	0xbd928832	-0.071548834
7	0x3cb764c3	0.022386914
8	0xbc1dff87	-0.009643442
9	0x3cf39486	0.029733907
10	0x3b25f554	0.002532323
11	0x3d2ca0f1	0.042145673
12	0x3d70dcbd	0.058804262
13	0xbc3aff0e	-0.011413349
14	0x3c693aa2	0.014235171
15	0x3af9c435	0.0019055667
16	0x3cbc5fad	0.02299484
17	0xbc0237ac	-0.0079478435
18	0x3b7be710	0.0038437285
19	0x3d35fb05	0.044428844
20	0xbc848dcb	-0.016180893
21	0x3dfe3cc1	0.12413932
22	0x3cfc0c11	0.030767472
23	0xbc721075	-0.0147744315
24	0x3cc6c18e	0.024262216
25	0x3d5e5f6a	0.054290213
26	0xbc9d3a0b	-0.019192716
27	0xbc4303e0	-0.011902779
28	0x3d272a4a	0.040811814
29	0x3e07211b	0.13196222
30	0x3d23b7aa	0.039970078
31	0x3de1883f	0.11012315

features.0.bn.running_mean f4 [32]
0	0xb8404b79	-4.5846657e-05
1	0xb7fc209e	-3.005593e-05
2	0xb7e18400	-2.6883557e-05
3	0x38c4f2bd	9.391222e-05
4	0xb86b3eb4	-5.6086763e-05
5	0xb8842661	-6.301399e-05
6	0xb9260921	-0.00015834394
7	0x3891e858	6.957416e-05
8	0x3913df52	0.00014102206
9	0x38670100	5.5075623e-05
10	0x394edb63	0.00019727419
11	0xb888a562	-6.51579e-05
12	0x3806a171	3.2098444e-05
13	0xb8703964	-5.7273908e-05
14	0xb901ed2c	-0.00012390752
15	0xb941b866	-0.00018474608
16	0xb72b16f8	-1.0197742e-05
17	0x3637e774	2.7403848e-06
18	0x38d9d901	0.000103877865
19	0x37d2a7e8	2.5112138e-05
20	0xb9665ca3	-0.00021969019
21	0x38f9c23e	0.00011909426
22	0x37c146f8	2.304044e-05
23	0x3866cdfe	5.502812e-05
24	0x3841a5cc	4.6169196e-05
25	0x38b2519c	8.502902e-05
26	0xb82313cc	-3.8880666e-05
27	0xb937f497	-0.00017543357
28	0x389f8ad8	7.6075725e-05
29	0x38e2bda0	0.0001081184
30	0x3955b3d4	0.00020380254
31	0x35e244c0	1.6858321e-06

features.0.bn.running_var f4 [32]
0	0x40178d9e	2.3680186
1	0x402ed16c	2.731532
2	0x404fb3e2	3.2453542
3	0x4005f353	2.0929763
4	0x3ff433fc	1.9078364
5	0x3fc6ea5e	1.5540273
6	0x3fd8336b	1.6890692
7	0x402ddc82	2.7165837
8	0x407be4a1	3.9358294
9	0x3ffbde91	1.9677297
10	0x3f886e65	1.065869
11	0x4060fa54	3.5152788
12	0x3fe8062d	1.8126885
13	0x4085564d	4.166785
14	0x3f27842d	0.6543606
15	0x401f446d	2.4885514
16	0x400ed0c7	2.2314928
17	0x4005a91c	2.0884466
18	0x3f623288	0.88358355
19	0x401a2cd4	2.408986
20	0x4047f23b	3.1241596
21	0x3fcc559a	1.5963624
22	0x4015fdb0	2.3436089
23	0x40579ae9	3.36883
24	0x40281cbf	2.6267545
25	0x4035bb57	2.8395593
26	0x40108f45	2.2587445
27	0x40b39df4	5.6130314
28	0x404ff4be	3.2493129
29	0x400e9451	2.2278025
30	0x4040c6c0	3.0121307
31	0x4017256e	2.3616595

features.1.conv.weight f4 [64, 32, 5]
0	0xbd9605b4	-0.073253065
1	0xbd047bdb	-0.03234468
2	0xbe0cfa21	-0.13767292
3	0xbd307e2b	-0.043089073
4	0x3bb44652	0.005501547
5	0xbe7279c3	-0.23679261
6	0xbd8bb008	-0.06820685
7	0x3e8dcb44	0.27694142
8	0xbeb223e1	-0.34792998
9	0xbdd85564	-0.10563162
10	0x3cf60f60	0.030036628
11	0xbd11cb2f	-0.03559416
12	0xbe211a45	-0.15732677
13	0x3ab47511	0.0013767799
14	0x3d3254c9	0.04353789
15	0xbe445404	-0.19172674
16	0x3c1d0456	0.009583553
17	0xbda1e6b7	-0.079053335
18	0xbbde9a72	-0.0067933137
19	0xbe03f4c4	-0.1288634
20	0x3d8be9a2	0.06831671
21	0xbe7db51f	-0.24776123
22	0xbe36799f	-0.17819832
23	0xbd43316c	-0.047654554
24	0x3c86106a	0.016365249
25	0xbd40934a	-0.047015466
26	0x3d983922	0.07432772
27	0x3da7624a	0.08173044
28	0x3e016d59	0.12639369
29	0x3d183d40	0.037167788
30	0x3e090464	0.13380581
31	0xbd9b61e7	-0.07587033
32	0xbc75e325	-0.015007769
33	0x3999f8b3	0.0002936773
34	0xbde7d165	-0.11319236
35	0xbdb3bbd1	-0.087760575
36	0xbdeebacf	-0.11656725
37	0xbd9c2808	-0.07624823
38	0xbddf4bd8	-0.10903138
39	0x3d0745e6	0.033025645
40	0x3d7f73ee	0.06236642
41	0x3db964fd	0.09052465
42	0xbb346968	-0.0027528647
43	0xbe3059d6	-0.1722177
44	0xbccd7ad7	-0.025082989
45	0x3ce168db	0.02751582
46	0xbdd61d99	-0.10454864
47	0x3e119ade	0.14219233
48	0x3da67348	0.08127457
49	0x3d9827d1	0.074294694
50	0x3d9467cd	0.07246361
51	0x3de4569b	0.11149331
52	0x3da0ce40	0.07851839
53	0x3db9de04	0.09075549
54	0xbe0353c7	-0.12824927
55	0x3e833fc5	0.2563459
56	0xbd45a75e	-0.048255317
57	0xbe1a0e87	-0.15044604
58	0xbdd24b4b	-0.10268267
59	0xbdd67765	-0.104719914
60	0x3e27ad9f	0.16374825
61	0xbdd87ea8	-0.10571033
62	0x3c08a2fd	0.008339641
63	0xbe6ac385	-0.22926147
64	0xbe1eed32	-0.1552017
65	0xbd731540	-0.059346437
66	0xbd556517	-0.05209836
67	0xbb921473	-0.004458004
68	0x3cbaa5cc	0.022784136
69	0x3dc45da9	0.09588177
70	0x3d055509	0.0325518
71	0xbe0f4fc1	-0.13995267
72	0x3e205abb	0.15659611
73	0x3e04d001	0.12969972
74	0x3e205dec	0.15660828
75	0x3c85b0d4	0.01631967
76	0x3e8a0b16	0.26961583
77	0x3d54c57d	0.051946152
78	0x3c8695be	0.016428825
79	0x3dbcb3cb	0.0921398
80	0x3d31cd59	0.043408725
81	0xbde25aac	-0.110524505
82	0xbb8e6b4e	-0.004346288
83	0xbe0212cf	-0.12702487
84	0xbe170420	-0.14747667
85	0xbde8a533	-0.11359634
86	0x3d68c288	0.056826144
87	0xbe92f9f3	-0.2870632
88	0xbda5dd70	-0.080988765
89	0xbe3224f0	-0.17396903
90	0x3da010ad	0.07815681
91	0xbcb3efaf	-0.021964876
92	0x3da2e971	0.07954682
93	0xbd6a4af6	-0.057200395
94	0xbdea0933	-0.11427536
95	0xbe8627fc	-0.2620238
96	0x3d50443d	0.050846327
97	0xbe447213	-0.19184141
98	0xbe53adf7	-0.20671831
99	0xbe1f6616	-0.15566286
100	0xbd22e9a1	-0.039773587
101	0xbc3d78ac	-0.011564415
102	0x3d16f682	0.036856182
103	0xbd10b9b7	-0.03533336
104	0xbe20d7c9	-0.15707316
105	0x3e4b8584	0.19875151
106	0xbe2edb85	-0.17075928
107	0xbe3df1f4	-0.18549329
108	0x3bfe776c	0.007765701
109	0xbc9ac251	-0.018891485
110	0x3de4497f	0.11146831
111	0xbdd96971	-0.106158145
112	0x3dcbb243	0.0994611
113	0x3dc19dd9	0.09453935
114	0x3d7181df	0.058961745
115	0x3bc1b1b1	0.005911075
116	0xbdfeaeb9	-0.124356695
117	0x3d5f817f	0.054566856
118	0x3d7f7193	0.062364172
119	0x3dc37ccd	0.09545288
120	0xbe24c0c0	-0.16089153
121	0x3e25b6c3	0.16183
122	0x3e2dee30	0.16985393
123	0x3c2c77b0	0.010526583
124	0xbceb1639	-0.02869712
125	0xbd4b2628	-0.049596936
126	0x3e39f871	0.18161179
127	0x3d991e2e	0.074764594
128	0x3c4eb958	0.012617432
129	0x3b05cee6	0.002041751
130	0x3e01bc89	0.12669577
131	0x3da59b72	0.080862895
132	0x3dc48937	0.09596484
133	0x3dc59a22	0.09648539
134	0xbc26628b	-0.01015533
135	0xbe0be385	-0.1366101
136	0xbe4e4cb9	-0.20146455
137	0x3bfd17c2	0.0077237794
138	0x3d111d7b	0.035428505
139	0xbd3a8f32	-0.045546718
140	0xbd238e67	-0.039930727
141	0x3d0abad9	0.033869598
142	0x3e824942	0.25446516
143	0xbe67f4a0	-0.22651911
144	0xbca3d181	-0.01999736
145	0x3dbd6349	0.09247453
146	0xbddfdc36	-0.10930674
147	0xbe24e919	-0.16104545
148	0xbeae5856	-0.3405177
149	0xbe2250db	-0.15851156
150	0x3d857928	0.06517249
151	0xbbd19821	-0.006396309
152	0xbe1e6999	-0.1546997
153	0x3e0e57dd	0.13900705
154	0x3cf27c33	0.029600238
155	0xbcb6ca18	-0.022313163
156	0xbe208fce	-0.15679857
157	0xbdd62b3e	-0.104574665
158	0xbda62dde	-0.08114217
159	0x3d194e1f	0.037428018
160	0xba8db078	-0.0010810038
161	0x3e0a3fe1	0.1350093
162	0xbd011c6c	-0.031521246
163	0xbe5a291a	-0.21304742
164	0xbdebb6bc	-0.11509463
165	0xbd2e1421	-0.042499665
166	0xbe0f296e	-0.13980648
167	0x3e4bdd9c	0.19908756
168	0xbe040c62	-0.12895349
169	0x3d7450c0	0.05964732
170	0x3d73b971	0.059503023
171	0x3d6c1704	0.057639137
172	0xbd52a6ea	-0.051428713
173	0x3d5e76c7	0.054312494
174	0x3e064173	0.13110904
175	0xbd8a1130	-0.067415595
176	0x3d433102	0.04765416
177	0x3db1ee8f	0.086880796
178	0x3d3397f0	0.04384607
179	0x3d931b66	0.0718296
180	0xbe53ddea	-0.20690122
181	0xbe8773dc	-0.2645558
182	0xbe4096cc	-0.18807524
183	0xbdc3160e	-0.09525691
184	0x3a0b112a	0.0005304987
185	0x3e3a9113	0.18219404
186	0x3e7d7fd8	0.247558
187	0xbdf25ccb	-0.11834105
188	0x3cdb1e50	0.026747853
189	0xbd7c4dbd	-0.061597575
190	0xbd717a5b	-0.058954578
191	0xbdae48fc	-0.085100144
192	0xbe184cb1	-0.14873005
193	0x3e2093b0	0.15681338
194	0x3dbc96a3	0.09208419
195	0x3d7d3d5a	0.061826088
196	0x3e66f10e	0.22552893
197	0x3cdbc506	0.026827347
198	0xbe0eb216	-0.13935122
199	0x3d95b2e3	0.073095106
200	0xbdfd8b86	-0.123801276
201	0x3d6d31a2	0.05790866
202	0x3e2a10f7	0.16608034
203	0xbdc7727b	-0.09738632
204	0x3e098600	0.13430023
205	0x3d80e265	0.06293181
206	0x3db0b38e	0.08627997
207	0xbd979170	-0.07400787
208	0x3db180d9	0.08667154
209	0x3d92da7d	0.071705796
210	0x3d09cd2c	0.033642933
211	0x3e32ee61	0.17473747
212	0x3d3f2f27	0.046675827
213	0xbd95b592	-0.073100224
214	0x3eb1c867	0.34723207
215	0xbda683f0	-0.08130634
216	0x3c37238d	0.01117791
217	0xbdcc5b28	-0.09978324
218	0x3e061dbc	0.1309728
219	0xbdd6800a	-0.1047364
220	0x3d3fe483	0.046848785
221	0x3b1daed3	0.0024060502
222	0xbda5fe90	-0.081051946
223	0xbdb3afa9	-0.08773739
224	0xbba4c9e7	-0.0050289514
225	0xbdb35f8f	-0.08758461
226	0xbe1f4e75	-0.15557273
227	0xbe511c28	-0.20420897
228	0x3e040620	0.12892962
229	0xbe30494a	-0.17215458
230	0x3cd8136d	0.02637645
231	0x3dc1492a	0.09437783
232	0xbe0da34e	-0.13831827
233	0xbe071396	-0.13191065
234	0x3e7ed61d	0.24886365
235	0xbe173a43	-0.14768319
236	0xbd827011	-0.06369031
237	0xbe3e6c8f	-0.185961
238	0x3df1ef19	0.118131824
239	0xbe1bef49	-0.15227999
240	0x3dfd28e7	0.12361317
241	0xbe19c692	-0.15017155
242	0xbde30421	-0.11084772
243	0x3d9fcca8	0.07802707
244	0x3dcb1319	0.09915752
245	0x3caee9f4	0.021351792
246	0x3da50735	0.08058015
247	0x3da2b92b	0.07945474
248	0xbe61bc0e	-0.22044393
249	0x3ddcac53	0.10775056
250	0x3dfd5f9f	0.12371754
251	0xbc97c07a	-0.018524397
252	0xbe0f656b	-0.14003532
253	0xbd8085a8	-0.06275493
254	0xbe2ca4e5	-0.16859777
255	0xbd868481	-0.06568242

features.1.bn.weight f4 [64]
0	0x3f805399	1.0025512
1	0x3f6faf42	0.936268
2	0x3f7ae546	0.98006094
3	0x3f830707	1.023652
4	0x3f772840	0.9654579
5	0x3f800656	1.0001934
6	0x3f7e3245	0.99295455
7	0x3f75e2a6	0.96048963
8	0x3f818062	1.0117304
9	0x3f86a196	1.0518062
10	0x3f7bebf1	0.98406893
11	0x3f81f4d4	1.0152841
12	0x3f7ac636	0.97958696
13	0x3f8535f1	1.0407087
14	0x3f80d8b4	1.0066133
15	0x3f7280db	0.9472787
16	0x3f77a45e	0.9673518
17	0x3f8f5a7e	1.1199491
18	0x3f7525ec	0.9576099
19	0x3f83a1f1	1.0283796
20	0x3f873a0a	1.0564587
21	0x3f7e8889	0.99427086
22	0x3f76996b	0.9632785
23	0x3f877549	1.0582668
24	0x3f845c6f	1.0340708
25	0x3f7d6234	0.9897797
26	0x3f77aa9d	0.9674471
27	0x3f84afb2	1.0366118
28	0x3f84ec86	1.0384681
29	0x3f81112f	1.0083369
30	0x3f72c0a8	0.9482522
31	0x3f74fe29	0.9570032
32	0x3f80eb87	1.0071877
33	0x3f7e05b3	0.99227446
34	0x3f7c8bc2	0.98650753
35	0x3f81702d	1.0112358
36	0x3f74c059	0.95606
37	0x3f7e50fc	0.9934232
38	0x3f7b9d29	0.9828668
39	0x3f84cd52	1.0375159
40	0x3f80906f	1.0044078
41	0x3f7ff679	0.9998546
42	0x3f76d398	0.96416616
43	0x3f7c3bca	0.9852873
44	0x3f93c61b	1.1544832
45	0x3f7eae8a	0.99485075
46	0x3f81755b	1.0113939
47	0x3f7e432a	0.99321234
48	0x3f76c6f1	0.9639731
49	0x3f86533f	1.0494155
50	0x3f810b40	1.0081558
51	0x3f80bd03	1.0057682
52	0x3f88be6c	1.0683112
53	0x3f8681bb	1.0508341
54	0x3f7dfcd8	0.99213934
55	0x3f80c388	1.0059671
56	0x3f746848	0.9547162
57	0x3f7215cc	0.9456451
58	0x3f8002c0	1.0000839
59	0x3f8367d6	1.0266063
60	0x3f6f63c8	0.9351163
61	0x3f71f6d2	0.9451724
62	0x3f85cb97	1.0452756
63	0x3f86050b	1.0470289

features.1.bn.bias f4 [64]
0	0x3c6b566e	0.014363868
1	0xbca8c761	-0.020602884
2	0x3ca69e03	0.020339018
3	0x3c688d95	0.014193912
4	0xbc787778	-0.015165202
5	0xbc5e9d90	-0.0135873705
6	0xbbeba0c9	-0.007190798
7	0xbdb7b459	-0.089699455
8	0xbc8d2baa	-0.017232735
9	0xbd7e5c7c	-0.06209992
10	0xbd2ade18	-0.04171571
11	0xbcf51835	-0.02991877
12	0xbd573f68	-0.052550703
13	0x3d3ce9f7	0.046121564
14	0xbbd558fb	-0.0065108514
15	0xbd0ac330	-0.03387755
16	0xbd5292c2	-0.05140949
17	0x3cf841c8	0.030304804
18	0x3b211036	0.0024576313
19	0xbd909b32	-0.07060851
20	0x3c969f3a	0.018386472
21	0xbc3a0756	-0.011354288
22	0x3c87ce48	0.016577855
23	0x3ce52b06	0.027974617
24	0x3d5a6cf6	0.05332657
25	0xbb19c5c7	-0.0023463832
26	0xbd318dfa	-0.04334829
27	0x3cbf1138	0.02332364
28	0x3d81ff90	0.06347573
29	0x3bf53f58	0.007484358
30	0x3d1aead4	0.037821606
31	0xbd2d931b	-0.04237662
32	0xbc079fcb	-0.008277844
33	0xbd0d21e4	-0.03445615
34	0x3cb3bf80	0.0219419
35	0x3b1842c6	0.002323316
36	0xbd88b9f3	-0.06676092
37	0xbd22c5d7	-0.039739456
38	0xbcadbbeb	-0.02120777
39	0xbcd25cd9	-0.025679039
40	0xbce5bc8f	-0.028044013
41	0x3d6b0de5	0.057386298
42	0xbd3d90b3	-0.046280574
43	0x3c8baa1a	0.017048884
44	0xbca038af	-0.019558279
45	0xbd02fef5	-0.031981427
46	0x3d49f1e0	0.049302936
47	0xbba94a5a	-0.005166334
48	0xbc9a5199	-0.018837737
49	0x3caaca12	0.020848308
50	0xbcc46b50	-0.023976952
51	0xbcd3aa9c	-0.025838189
52	0x3d5df50b	0.05418877
53	0x3a0a4622	0.0005274733
54	0xbd8f9321	-0.070104845
55	0xbc19900f	-0.009372725
56	0xbd5befe3	-0.05369557
57	0xbd749851	-0.059715573
58	0xbcee5edd	-0.029097969
59	0x3c91b958	0.017788574
60	0xbcc2b9b9	-0.0237702
61	0xbd8641d5	-0.06555525
62	0x3db1c0c4	0.08679345
63	0xbd17e706	-0.037085555

features.1.bn.running_mean f4 [64]
0	0xbfb31877	-1.3991841
1	0x3eb960d3	0.36206684
2	0xbee09281	-0.43861774
3	0xbf8fa690	-1.1222706
4	0xbf1da732	-0.61583245
5	0xbe14ef0c	-0.14544314
6	0xbd9a17f8	-0.07524103
7	0x3f94736e	1.1597726
8	0x3f1f7d3d	0.62300473
9	0xbe92d0a1	-0.28674796
10	0x3f92d3c7	1.1470879
11	0xbf21ce33	-0.6320526
12	0x3efb9169	0.49134377
13	0xbf9b606a	-1.2138798
14	0xbf823825	-1.0173384
15	0xbec7f778	-0.3905599
16	0xbfc9bdbf	-1.5761031
17	0xbf18ae2f	-0.59640783
18	0xbf5c9b43	-0.8617441
19	0xbf594bd9	-0.8488136
20	0xbe4d0285	-0.20020492
21	0x3ea8875c	0.3291577
22	0x3e92011c	0.2851647
23	0xbf83da4e	-1.0300996
24	0xbef2c057	-0.4741237
25	0xbd25150d	-0.04030328
26	0xbfafee8c	-1.3744674
27	0xbf827863	-1.0192989
28	0xbeb4039a	-0.35158998
29	0xbf40ab3c	-0.7526128
30	0xbe10b794	-0.1413253
31	0x3e27a6fe	0.16372296
32	0xbf17ac72	-0.59247506
33	0xbcb14438	-0.021638975
34	0xbf1200fa	-0.5703274
35	0xbf801cdb	-1.0008806
36	0x3f9db117	1.2319669
37	0xbf514395	-0.81743747
38	0xbeda3d3a	-0.42624837
39	0xbf2145ae	-0.6299695
40	0xbeec4f9c	-0.46154487
41	0xbd2bb450	-0.041920006
42	0xbd75d4eb	-0.060017508
43	0xbfada8e5	-1.3567168
44	0xbf8239a6	-1.0173843
45	0xbf65ec4e	-0.898137
46	0xbe00738d	-0.12544079
47	0xbeb62124	-0.3557216
48	0xbf8b2e9e	-1.0873601
49	0xbf7c914d	-0.9865921
50	0xbea26688	-0.3171885
51	0x3d422945	0.04740264
52	0xbf7f94f6	-0.9983667
53	0xbf1b0751	-0.6055804
54	0xbcd48e53	-0.025946772
55	0xbead02f9	-0.3379133
56	0x3f991af6	1.1961353
57	0xbe7b0056	-0.24511847
58	0xbef524f6	-0.4787976
59	0xbf3796e4	-0.71714616
60	0xbed4d901	-0.4157181
61	0xbe2e5767	-0.17025529
62	0xbf22845b	-0.6348321
63	0x3dfff0ca	0.12497099

features.1.bn.running_var f4 [64]
0	0x3fa5fa1b	1.2966951
1	0x3f9695c2	1.1764452
2	0x3fcc39aa	1.5955098
3	0x3fae92ab	1.363851
4	0x3fb81fac	1.4384665
5	0x3f863a07	1.0486459
6	0x3fc41d53	1.5321449
7	0x3fa30f8d	1.2739121
8	0x3fe93782	1.8220065
9	0x3f268161	0.65041167
10	0x3fc0032d	1.5000969
11	0x3f3aca85	0.7296527
12	0x3fef7475	1.8707415
13	0x3fdef158	1.7417402
14	0x3ffd40d6	1.9785411
15	0x3fa2f68a	1.2731488
16	0x4068afd8	3.6357327
17	0x3f354a64	0.70816636
18	0x3f976cc1	1.1830064
19	0x3fb06f39	1.3783942
20	0x3f3223dc	0.6958597
21	0x3ed7168a	0.42009383
22	0x3f538030	0.82617474
23	0x3fbc2f0a	1.4701855
24	0x3f8d4ada	1.1038468
25	0x3f689584	0.9085314
26	0x3fdea71e	1.739475
27	0x3fb6fdd3	1.4296211
28	0x3f61f6e2	0.8826734
29	0x3f6ec006	0.93261755
30	0x3ef93974	0.48676646
31	0x3f99a01e	1.2001989
32	0x3fb880b0	1.4414272
33	0x3f6aa13b	0.9165227
34	0x3f657bf8	0.89642286
35	0x3f99cdaf	1.2015895
36	0x400030f5	2.002988
37	0x3fbc7505	1.4723212
38	0x3fb19a6a	1.3875248
39	0x3f65a156	0.89699304
40	0x3faa687d	1.3313137
41	0x3f715e55	0.94284564
42	0x3f8b031a	1.0860322
43	0x4033aabd	2.807296
44	0x3fdedc46	1.7410972
45	0x3f95eed9	1.1713516
46	0x3f07e018	0.53076315
47	0x4002df55	2.044881
48	0x3fbdcd6e	1.4828317
49	0x3f802b04	1.0013127
50	0x3ff82376	1.9385822
51	0x3ee1e12a	0.441171
52	0x3fdfb943	1.7478412
53	0x3f63fa83	0.89054126
54	0x3f36c501	0.71394354
55	0x3f93a99d	1.1536137
56	0x400227d2	2.0336804
57	0x3f700be0	0.9376812
58	0x3f94e1d4	1.1631417
59	0x3f8e89f5	1.1135851
60	0x3ff0c5db	1.8810381
61	0x3f58c048	0.846684
62	0x3faadd91	1.3348867
63	0x3f6817af	0.9066114

features.2.conv.weight f4 [128, 64, 5]
0	0x3e310bfc	0.17289728
1	0x3d733a67	0.05938187
2	0x3c472124	0.012153897
3	0x3d58ccbf	0.052929636
4	0x3da28f5b	0.07937499
5	0xbd0a0fce	-0.03370648
6	0xbc2281c0	-0.00991863
7	0xbde719cb	-0.112842165
8	0x3e3522c3	0.17689042
9	0x3d32ef0c	0.043685004
10	0x3d9d3320	0.07675767
11	0xbd4417ee	-0.047874384
12	0x3de2d510	0.11075795
13	0x3dadc0cc	0.08484039
14	0xbd4e14ac	-0.050312683
15	0x3e912b9f	0.28353593
16	0xbd11bd72	-0.03558106
17	0x3d963e4f	0.07336103
18	0x3c41a574	0.011819232
19	0xbcf64b33	-0.030065155
20	0xbe3a65ca	-0.18202892
21	0xbe2a8e52	-0.16655853
22	0xbd316e8e	-0.043318324
23	0x3e0202d5	0.12696393
24	0xbb6bc006	-0.003597261
25	0x3d651b3c	0.055934176
26	0xbe826633	-0.25468597
27	0xbe1d0168	-0.15332568
28	0x3d854e59	0.06509084
29	0x3d881cf7	0.066461496
30	0xbe40bb72	-0.18821505
31	0xbce88931	-0.02838573
32	0xbc72cb7b	-0.014819021
33	0x3e6e30d4	0.23260814
34	0x3c08c3c2	0.008347454
35	0x3b318412	0.0027086777
36	0xbdc87d94	-0.09789577
37	0x3ce9d533	0.028544044
38	0x3d603a52	0.05474312
39	0x3dde9be3	0.10869577
40	0x3d537635	0.051626403
41	0xbdfc1d8c	-0.12310323
42	0x3d2d0b1c	0.042246923
43	0xbd591f79	-0.05300853
44	0xbdbd7b28	-0.09252006
45	0x3d8dea20	0.069294214
46	0xbd81c39b	-0.06336137
47	0x3d1c71bd	0.038194407
48	0xbbcb44db	-0.0062032766
49	0x3dc314f3	0.0952548
50	0x3d8aebbb	0.06783243
51	0x3e058153	0.13037615
52	0x3d945e0c	0.072445005
53	0xbda8caa1	-0.082417734
54	0x3b8991af	0.004198275
55	0x3e3f25e1	0.18666793
56	0xbd95c99a	-0.07313843
57	0xbddc4400	-0.107551575
58	0xbaf2f23f	-0.001853533
59	0x3e2cc015	0.16870148
60	0xbd20f780	-0.039298534
61	0xbe0982e5	-0.13428839
62	0xbcd50162	-0.026001636
63	0x3d19a9fe	0.037515633
64	0xbe20d565	-0.15706404
65	0x3da85d72	0.08220948
66	0x3d285d78	0.041104764
67	0x3dedb839	0.11607403
68	0x3e0ad63e	0.1355829
69	0xbbc010a4	-0.0058613587
70	0x3c9ec07b	0.019378891
71	0xbda6ae6d	-0.08138738
72	0x3bf00358	0.0073246174
73	0x3cafd859	0.021465467
74	0x3d2015a1	0.039083127
75	0x3c9890f9	0.018623816
76	0x3d025517	0.03181943
77	0x3e0f6490	0.14003205
78	0xbca7c859	-0.020481275
79	0x3db07f5a	0.086180404
80	0xbe79f2d8	-0.24409044
81	0x3e819c39	0.253145
82	0xbd89f9bc	-0.06737086
83	0xbdac5566	-0.08414726
84	0x3d8a003b	0.06738325
85	0xbc28f945	-0.010313337
86	0x3b85ed3e	0.0040871194
87	0xbd43da90	-0.04781586
88	0x3b97e3da	0.0046353163
89	0xbd39baa9	-0.04534403
90	0xbcaa1320	-0.020761073
91	0x3b481127	0.0030527802
92	0xbcf9dab6	-0.030499797
93	0x3d859187	0.06521898
94	0xbcb9799b	-0.022640994
95	0xbc546fc9	-0.012966105
96	0x3da52960	0.08064532
97	0xbdf8ceca	-0.12148817
98	0x3e181568	0.14851916
99	0x3cb06bf9	0.02153586
100	0x3d46d503	0.048542988
101	0xbcb051cd	-0.02152338
102	0xbd6f9b89	-0.05849794
103	0x3da4c5e8	0.0804556
104	0x3d2126b8	0.039343566
105	0x3e14122f	0.14460061
106	0x3d91d3fc	0.07120511
107	0x3d1328ab	0.035927456
108	0xbe01bb4a	-0.12669101
109	0x3dbafd77	0.09130376
110	0x3d7e4f9f	0.06208765
111	0xbd5d2588	-0.05399087
112	0x3cc22c16	0.023702662
113	0x3d3d9bcd	0.04629116
114	0xbbe30010	-0.0069274977
115	0xbd8d95f0	-0.06913364
116	0xbd24a28e	-0.040194087
117	0x3d7913a5	0.06080975
118	0x3cc872d0	0.02446881
119	0xbdb8ded9	-0.0902688
120	0x3d691b4a	0.05691079
121	0x3d49fcfc	0.04931353
122	0x3d31b1bb	0.043382388
123	0x3d1ef015	0.03880318
124	0xbb6b08d0	-0.0035863407
125	0x3da5c800	0.080947876
126	0xbd9fe428	-0.07807189
127	0xbdfefa92	-0.12450136
128	0x3e007845	0.12545879
129	0xbd6b77e4	-0.057487383
130	0x3d1b175a	0.037864067
131	0xbda30208	-0.07959372
132	0x3c9f72a9	0.019463854
133	0x3d8c53bd	0.06851909
134	0x3c0344ff	0.008012055
135	0xbe12601d	-0.14294477
136	0x3e26141c	0.16218609
137	0x3d370875	0.0446858
138	0x3dc253fd	0.09488676
139	0x3bf760da	0.0075493874
140	0xbd25b583	-0.040456306
141	0x3d5f54c8	0.054524213
142	0xbdd2636b	-0.10272869
143	0x3cb6b016	0.022300761
144	0x3c93ef2f	0.018058388
145	0x3caad7e0	0.02085489
146	0x3d816fb4	0.06320134
147	0x3db8180a	0.0898896
148	0x3cedb9bf	0.029019235
149	0xbc8459c1	-0.01615608
150	0x3d8d1caa	0.06890233
151	0x3e109abb	0.14121525
152	0xba229197	-0.0006201504
153	0xbe274df2	-0.16338328
154	0x3d2fc79b	0.042914968
155	0xbd68b8e1	-0.05681694
156	0x3d396755	0.04526456
157	0xbd76a000	-0.06021118
158	0x3b3380bb	0.0027389962
159	0xbdeb34ab	-0.11484655
160	0x3e07034f	0.13184856
161	0xbe14b6f0	-0.1452291
162	0x3cd2656f	0.025683133
163	0x3cc900f7	0.024536593
164	0xbdeecf0f	-0.11660587
165	0x3e0c214e	0.1368458
166	0x3dc214ce	0.094766244
167	0xbd0d4e2f	-0.03449839
168	0x3ca554d8	0.020182058
169	0x3c38e66a	0.011285404
170	0x3d69ab67	0.057048228
171	0x3dccf84d	0.10008297
172	0xbdf2265a	-0.11823721
173	0xbdf31bf9	-0.1187057
174	0x3d261773	0.040549707
175	0xbbb2729e	-0.0054457923
176	0xbd1094ff	-0.035298344
177	0xbdf53a15	-0.11973969
178	0x3da1d606	0.0790215
179	0x3db77b56	0.08959071
180	0xbd4839fb	-0.04888342
181	0xbcb8b60a	-0.02254774
182	0x3c28d2d3	0.010304171
183	0xbcde9bff	-0.027173994
184	0xbe856182	-0.26050955
185	0x3d61c551	0.055119816
186	0xbbbfe925	-0.0058566504
187	0x3c9a939a	0.01886921
188	0x3d4e5553	0.05037434
189	0x3cd0b164	0.025475211
190	0x3db7e03c	0.08978316
191	0xbde67bd3	-0.11254086
192	0xbda48388	-0.080329
193	0x3dd7f8f9	0.10545535
194	0xbdf3001c	-0.11865255
195	0xbe0cf537	-0.13765417
196	0x3e51d4b8	0.20491302
197	0xbae3be29	-0.0017375398
198	0xbb9214fe	-0.004458069
199	0x3d0d163b	0.03444503
200	0x3d910ce8	0.0708254
201	0xbd3f6373	-0.0467257
202	0x3d330448	0.043705255
203	0x3cf3edfd	0.029776568
204	0x3d9664c1	0.07343436
205	0x3c8dbcd3	0.017301952
206	0xbd695cf4	-0.056973413
207	0xbd94ed1e	-0.07271789
208	0x3dcd0df1	0.10012425
209	0x3b8b4146	0.0042497246
210	0xbc062f7d	-0.008190033
211	0x3d39c9a2	0.045358308
212	0xbc25579b	-0.010091688
213	0xbd088de9	-0.03333846
214	0x3d0b03f2	0.03393931
215	0x3d25d2ef	0.040484365
216	0x3dd715f4	0.10502234
217	0xbe0aba25	-0.13547571
218	0xbcd7eaa2	-0.026356999
219	0x3da63998	0.08116454
220	0x3d98d72e	0.07462917
221	0x3db12be7	0.08650952
222	0x3e28e81d	0.16494794
223	0xbddfd066	-0.10928421
224	0xbe3856e3	-0.18001895
225	0xbd95d119	-0.07315273
226	0x3d8687c7	0.06568866
227	0xbd9ef77b	-0.07762047
228	0xbcaa3fe9	-0.020782428
229	0x3e1032bf	0.14081858
230	0x3dee000e	0.11621104
231	0xbca58a5d	-0.020207578
232	0xbd07d462	-0.03316153
233	0xbdae251c	-0.08503172
234	0xbdad1a94	-0.08452335
235	0x3d7f48e2	0.062325366
236	0xbe0f6357	-0.14002739
237	0x3db1b65b	0.0867736
238	0x3cbe3201	0.023217203
239	0x3c29dd77	0.010367743
240	0x3cf20adc	0.029546194
241	0x3d5a4a47	0.053293493
242	0x3d142045	0.036163587
243	0xbdbd309a	-0.09237786
244	0x3e18138f	0.14851211
245	0xbcf196cc	-0.02949085
246	0xbdca6862	-0.09883191
247	0x3e0c5495	0.1370414
248	0xbc74697b	-0.014917727
249	0x3c8009e8	0.015629724
250	0x3e48a5ca	0.19594494
251	0xbd622512	-0.055211134
252	0x3cbfda0e	0.023419406
253	0xbdab29af	-0.0835756
254	0xbddf9d8a	-0.1091872
255	0xbd9fa1d7	-0.077945404

features.2.bn.weight f4 [128]
0	0x3f759098	0.9592376
1	0x3f7a6fc3	0.97826785
2	0x3f8de19d	1.1084477
3	0x3f8d8fdd	1.1059529
4	0x3f72e64a	0.94882643
5	0x3f80bb01	1.0057069
6	0x3f68a90e	0.90882957
7	0x3f802212	1.0010397
8	0x3f797dcc	0.97457576
9	0x3f6bfda1	0.9218388
10	0x3f785572	0.9700538
11	0x3f5f85ac	0.8731334
12	0x3f717001	0.9431153
13	0x3f7cddb6	0.98775804
14	0x3f7891a8	0.97097254
15	0x3f82a2a1	1.020588
16	0x3f76c0e3	0.9638807
17	0x3f7a1043	0.97681063
18	0x3f869c5f	1.0516471
19	0x3f7c22ec	0.98490787
20	0x3f82bd34	1.021399
21	0x3f72db33	0.9486572
22	0x3f77df86	0.96825445
23	0x3f72ed3a	0.9489323
24	0x3f722cc5	0.9459956
25	0x3f7e6a6e	0.9938115
26	0x3f85af6d	1.0444161
27	0x3f7af573	0.98030776
28	0x3f86f9dd	1.0545002
29	0x3f799ef8	0.9750819
30	0x3f6b448c	0.9190147
31	0x3f88e426	1.0694625
32	0x3f869a50	1.0515842
33	0x3f6e48e7	0.9307999
34	0x3f84a54a	1.0362942
35	0x3f84ae2d	1.0365654
36	0x3f745271	0.95438296
37	0x3f7eaf74	0.9948647
38	0x3f806ea6	1.0033767
39	0x3f7bd1b9	0.98366886
40	0x3f819530	1.0123653
41	0x3f806d27	1.0033311
42	0x3f7c8cad	0.98652154
43	0x3f75208f	0.95752805
44	0x3f77e7a6	0.9683784
45	0x3f8191e1	1.0122644
46	0x3f6697cf	0.9007539
47	0x3f74eb5c	0.9567163
48	0x3f7be515	0.98396426
49	0x3f686c0a	0.90789855
50	0x3f83065a	1.0236313
51	0x3f80ac6f	1.0052623
52	0x3f787194	0.97048306
53	0x3f85545b	1.0416368
54	0x3f825be4	1.0184293
55	0x3f80bef3	1.0058273
56	0x3f72db12	0.94865525
57	0x3f83575b	1.0261034
58	0x3f8372a0	1.0269356
59	0x3f7bd5da	0.98373187
60	0x3f78014c	0.9687698
61	0x3f811f48	1.0087671
62	0x3f7febb5	0.99969035
63	0x3f7c4ec4	0.98557687
64	0x3f79fd6e	0.9765233
65	0x3f79da50	0.97598743
66	0x3f78eb67	0.97234195
67	0x3f7cb34a	0.98711073
68	0x3f784ba9	0.9699045
69	0x3f90b4d6	1.1305187
70	0x3f7ef594	0.9959347
71	0x3f89bc4b	1.0760587
72	0x3f82d01b	1.0219759
73	0x3f758d3c	0.9591863
74	0x3f793415	0.97345096
75	0x3f7f6d4b	0.9977614
76	0x3f714bd8	0.94256353
77	0x3f7a0226	0.9765953
78	0x3f77691e	0.9664477
79	0x3f752a86	0.9576801
80	0x3f7e9437	0.9944491
81	0x3f7196b3	0.94370574
82	0x3f6f01e5	0.93362266
83	0x3f717ead	0.94333917
84	0x3f7443b7	0.95415825
85	0x3f79d981	0.9759751
86	0x3f8022d3	1.0010628
87	0x3f717865	0.9432433
88	0x3f75fc6d	0.96088296
89	0x3f86d67b	1.0534204
90	0x3f81fa8c	1.0154586
91	0x3f64fef0	0.89451504
92	0x3f80acdf	1.0052756
93	0x3f8b05c8	1.0861139
94	0x3f7c5024	0.98559785
95	0x3f7aea06	0.9801334
96	0x3f84df25	1.0380598
97	0x3f7d47ff	0.9893798
98	0x3f6bb55b	0.920736
99	0x3f901ca0	1.1258736
100	0x3f7ede16	0.99557626
101	0x3f6d11d5	0.92605335
102	0x3f79a42a	0.9751612
103	0x3f70c5d0	0.9405184
104	0x3f6c75a6	0.9236702
105	0x3f7fe9c1	0.99966055
106	0x3f7adc74	0.97992635
107	0x3f75b642	0.9598123
108	0x3f7356f8	0.9505458
109	0x3f833e1f	1.0253333
110	0x3f849f8c	1.036119
111	0x3f5ef363	0.8709013
112	0x3f8014fa	1.0006402
113	0x3f6cdacf	0.92521375
114	0x3f6ed802	0.9329835
115	0x3f7c9327	0.98662037
116	0x3f7bcfb6	0.98363817
117	0x3f80cf66	1.0063293
118	0x3f755f6d	0.95848733
119	0x3f6c9951	0.9242144
120	0x3f82f22f	1.0230159
121	0x3f813f12	1.0097373
122	0x3f7a7590	0.97835636
123	0x3f87615f	1.057659
124	0x3f7f1494	0.99640775
125	0x3f819c98	1.0125914
126	0x3f84762f	1.0348567
127	0x3f83fe9d	1.0312077

features.2.bn.bias f4 [128]
0	0xbd882ca1	-0.06649137
1	0xbd9e592c	-0.07731852
2	0xbe122816	-0.14273104
3	0xbd3a3499	-0.045460317
4	0xbe0b120b	-0.13581102
5	0xbde4cfb7	-0.11172431
6	0xbdb9c9e6	-0.09071712
7	0xbd4c7f4b	-0.049926084
8	0xbdd12351	-0.10211814
9	0xbe024728	-0.12722456
10	0xbd4675ed	-0.048452307
11	0xbd1b1b36	-0.037867747
12	0xbd803c02	-0.062614456
13	0xbe027c8a	-0.1274282
14	0xbd9d8e84	-0.07693198
15	0xbd9e7c48	-0.077385485
16	0xbd298c2b	-0.04139344
17	0xbd865442	-0.0655904
18	0xbcd7add0	-0.026327997
19	0xbd847250	-0.06467116
20	0xbdff128d	-0.1245471
21	0xbdb68ca7	-0.08913546
22	0xbdb2ccb5	-0.08730451
23	0xbdba86a3	-0.09107711
24	0xbe2d3155	-0.1691335
25	0xbcabfdb4	-0.020994999
26	0xbd19242c	-0.03738801
27	0xbe191fd2	-0.14953545
28	0xbdbe4d57	-0.09292095
29	0xbdd7af37	-0.105314665
30	0xbdcb6eec	-0.09933266
31	0xbddad935	-0.1068596
32	0xbde7d0b5	-0.113191046
33	0xbd99c840	-0.07508898
34	0xbd836438	-0.064155996
35	0xbdab7de6	-0.083736226
36	0xbdd0c27a	-0.101933435
37	0xbd3c8603	-0.04602624
38	0xbe045e8e	-0.12926695
39	0xbe213ed7	-0.15746628
40	0xbdf96252	-0.12176956
41	0xbda57998	-0.08079833
42	0xbc8088ee	-0.015690293
43	0xbdb800b0	-0.08984506
44	0xbd75cde0	-0.06001079
45	0xbd8c4a22	-0.06850077
46	0xbdc94f9c	-0.098296374
47	0xbd5611fa	-0.052263238
48	0xbde12f76	-0.109953806
49	0xbd83cbd6	-0.06435363
50	0xbc9daca9	-0.01924737
51	0xbe0e725c	-0.13910812
52	0xbdc11207	-0.094272666
53	0xbe02d0be	-0.12774941
54	0xbda7577b	-0.081709825
55	0xbdcc6638	-0.09980434
56	0xbcf0ac45	-0.02937902
57	0xbd37db39	-0.0448868
58	0xbd67b07b	-0.05656479
59	0xbd23e78c	-0.040015742
60	0xbe19c1da	-0.15015355
61	0xbdb94f71	-0.09048355
62	0xbe026cca	-0.12736812
63	0xbcc15202	-0.023598675
64	0xbd7112c4	-0.058855787
65	0xbdd7d710	-0.10539067
66	0xbdb56570	-0.08857238
67	0xbd275580	-0.040853024
68	0xbdf65f61	-0.12029911
69	0xbd0dfb5e	-0.03466355
70	0xbd916416	-0.07099168
71	0xbdd5fff9	-0.104492135
72	0xbcdd2b15	-0.026998082
73	0xbd9f09ae	-0.07765518
74	0xbdd7056d	-0.10499082
75	0xbde65465	-0.11246566
76	0xbd950cb2	-0.07277812
77	0xbd31cca0	-0.043408036
78	0xbd77c0de	-0.060486667
79	0xbd780343	-0.060549986
80	0xbe0e8847	-0.13919173
81	0xbe102cf1	-0.14079644
82	0xbcd3cd6d	-0.02585479
83	0xbdde33c0	-0.10849714
84	0xbdc09fdb	-0.0940549
85	0xbe0cfa7a	-0.13767424
86	0xbe01a71f	-0.12661408
87	0xbc842960	-0.01613301
88	0xbdb5696b	-0.088579975
89	0xbd7f02e4	-0.062258616
90	0xbc887e7d	-0.016661877
91	0xbde0b016	-0.10971086
92	0xbdde146b	-0.10843738
93	0xbd7433f1	-0.059619848
94	0xbe0869c6	-0.133216
95	0xbd694d65	-0.056958575
96	0xbd8e94db	-0.06961986
97	0xbd34b86e	-0.0441212
98	0xbda99fc8	-0.08282429
99	0xbd957328	-0.07297355
100	0xbd85b5bf	-0.06528806
101	0xbd378a2d	-0.04480951
102	0xbd8c2bfc	-0.06844327
103	0xbd992904	-0.07478526
104	0xbdb774b8	-0.08957809
105	0xbdcf73ca	-0.10129507
106	0xbdfb7f4f	-0.122801416
107	0xbd8ba144	-0.06817868
108	0xbe198790	-0.14993119
109	0xbca1333b	-0.019677749
110	0xbdf80df0	-0.12112033
111	0xbd95de44	-0.073177844
112	0xbd102109	-0.035187755
113	0xbdba9661	-0.09110714
114	0xbdf3a15e	-0.11896013
115	0xbd90b5a3	-0.070658945
116	0xbdc3b2b7	-0.095555715
117	0xbe32b3ff	-0.17451476
118	0xbccf0d4e	-0.025274899
119	0xbd8c851b	-0.06861325
120	0xbd393580	-0.045217037
121	0xbdd88ee1	-0.10574127
122	0xbe0f696c	-0.14005059
123	0xbe11ed5b	-0.142507
124	0xbdc3e851	-0.09565795
125	0xbdc42c3b	-0.09578749
126	0xbe1e55c0	-0.15462399
127	0xbd47cbf4	-0.04877849

features.2.bn.running_mean f4 [128]
0	0x3f0cb261	0.54959685
1	0xbfed3e90	-1.8534718
2	0xbd7c1a13	-0.061548304
3	0xbf16b8c4	-0.5887568
4	0xbe4165aa	-0.18886438
5	0x3fb80f6c	1.4379706
6	0x3f869ef5	1.051726
7	0x3e9ab849	0.30218723
8	0xbead3cb7	-0.33835384
9	0x3f9627c9	1.1730891
10	0x3f464f9a	0.7746521
11	0x3eda99b7	0.426954
12	0x3ca99e93	0.020705497
13	0x3f83fc28	1.0311327
14	0xbf7dc8c0	-0.99134445
15	0xbe839f52	-0.2570749
16	0x3f8c3a1e	1.0955236
17	0xbf973f56	-1.1816204
18	0x3e4a00a9	0.19726814
19	0xbf170235	-0.5898774
20	0xbf41e655	-0.75742084
21	0xbf09f9fa	-0.5389706
22	0x3ece9971	0.40351442
23	0x3f4a5822	0.7904073
24	0x3fe7b694	1.8102593
25	0xbf02004f	-0.5078172
26	0xbfab90c8	-1.3403559
27	0x3eb8a9e3	0.36067113
28	0xbe9905a0	-0.29887104
29	0xbfb56e6e	-1.4174325
30	0xbf875830	-1.0573788
31	0x3e1d2453	0.15345888
32	0x3b56806b	0.0032730352
33	0xbea03533	-0.31290588
34	0x3e750d4f	0.23930858
35	0x3f04262d	0.5162075
36	0xbf1f6454	-0.62262464
37	0x3eb7f68d	0.3593029
38	0xbf14f19e	-0.5818118
39	0x3e97e7b3	0.2966896
40	0x3f1da0f7	0.6157374
41	0xbfd72e49	-1.6811
42	0xbeab3242	-0.3343678
43	0x3ea775a0	0.32706928
44	0xbf18ddf0	-0.5971365
45	0x3c99ea89	0.018788593
46	0x3fb5b509	1.4195873
47	0xbf0e7cf8	-0.5565944
48	0x3f121f1e	0.5707873
49	0x3fc33b5c	1.525249
50	0x3e0dcc71	0.1384752
51	0x3f2950e1	0.66139036
52	0x3e9d9dbf	0.30784413
53	0x3f262f5b	0.6491601
54	0x3f8cb8c4	1.0993886
55	0xbf657c74	-0.89643025
56	0x3e4cfa6b	0.20017402
57	0xbf9a2f52	-1.2045691
58	0x3c1f03d1	0.0097055
59	0xbf8d0afa	-1.1018975
60	0xbf50e285	-0.8159564
61	0x3e823b9e	0.2543611
62	0x3f263e8c	0.6493919
63	0x3f87e37c	1.0616298
64	0xbfc2e684	-1.5226598
65	0xbed9d961	-0.4254866
66	0x3ea77c28	0.3271191
67	0xbedaae8b	-0.4271129
68	0x3efdd320	0.49575138
69	0xbf62a231	-0.88528734
70	0x3f87b5f2	1.06024
71	0xbd64ae96	-0.05583056
72	0xbe825600	-0.25456238
73	0xbf2b8157	-0.6699423
74	0xbf91a689	-1.1378947
75	0x3f4afa21	0.79287916
76	0xbfad6e20	-1.3549232
77	0xbf456032	-0.7709991
78	0x3e1160ad	0.14197035
79	0x3f0ce7ce	0.55041206
80	0x3ebf26be	0.37334245
81	0x3fe05e1f	1.7528723
82	0x3d05f3da	0.032703258
83	0xbcfebce6	-0.031095933
84	0xbe730d83	-0.23735623
85	0xbe5f66d9	-0.21816577
86	0x3f4297f6	0.76013124
87	0x3e59dd14	0.21275741
88	0xbfa708b3	-1.304953
89	0x3e910592	0.28324562
90	0xbe800253	-0.25001773
91	0x4050cc83	3.2624824
92	0x3d3774eb	0.044789236
93	0xbe08e88c	-0.1336996
94	0x3f76c074	0.9638741
95	0xbec2914a	-0.38001472
96	0xbe855df7	-0.26048252
97	0xbf478dfb	-0.7795102
98	0xbed18f8d	-0.40929833
99	0xbfd69780	-1.6764984
100	0xbe360f7c	-0.17779344
101	0x3f16d6ec	0.58921695
102	0x3f7041e4	0.9385054
103	0xbdd75a1c	-0.10515234
104	0xbe2e738c	-0.17036265
105	0xbee20969	-0.44147804
106	0xc02a4a8d	-2.6608002
107	0xbfbdb552	-1.482096
108	0x3fa6dcef	1.3036174
109	0xbef16468	-0.47146916
110	0x3e2c9bbd	0.16856284
111	0x3d8c534f	0.06851827
112	0xbf03e521	-0.515215
113	0x3e548cd8	0.20756853
114	0x3f9344fe	1.150543
115	0xbeb295ea	-0.3488
116	0x3f5fec96	0.87470376
117	0xbf21a34b	-0.6313979
118	0xbf47661d	-0.7789019
119	0x3f88da84	1.0691686
120	0x3e054923	0.1301618
121	0xbd8d1756	-0.068892166
122	0xbf028852	-0.5098926
123	0xbeb52bec	-0.35385072
124	0x3dcf1742	0.10111858
125	0xbdef9fe0	-0.117004156
126	0xbecf9aa4	-0.4054767
127	0x3e62d3e8	0.22151148

features.2.bn.running_var f4 [128]
0	0x3f87a0ea	1.0595982
1	0x3feb8643	1.8400348
2	0x3fa10180	1.2578583
3	0x3fb89b1e	1.4422338
4	0x3f8316df	1.0241355
5	0x3f8421dd	1.0322834
6	0x3ff68dbe	1.9262006
7	0x3fa434dc	1.2828631
8	0x3f86d573	1.053389
9	0x3f8d45f5	1.1036974
10	0x3f8810c4	1.0630116
11	0x3f578231	0.8418303
12	0x400cd45b	2.2004611
13	0x3f7d9b68	0.99065256
14	0x3ff5858a	1.9181378
15	0x3f863774	1.0485673
16	0x3f9a3d94	1.2050042
17	0x40032095	2.0488636
18	0x3f985f89	1.1904155
19	0x3fc0406b	1.5019659
20	0x3f6ce664	0.9253905
21	0x3ff71218	1.9302397
22	0x3fe9652f	1.8234004
23	0x4059b32d	3.401561
24	0x402338b7	2.5503366
25	0x3f89c538	1.0763311
26	0x3fc02448	1.5011072
27	0x3faff93d	1.3747936
28	0x3fa6c9e8	1.3030367
29	0x3fa25a92	1.268389
30	0x3ffffbc7	1.9998711
31	0x3fa8ab78	1.3177328
32	0x400bcc1a	2.1843324
33	0x3f2006cb	0.62510365
34	0x3f660e5e	0.8986567
35	0x3fd0916b	1.6294378
36	0x3f674bd6	0.9035009
37	0x3f84f385	1.0386816
38	0x3fe92b30	1.8216305
39	0x3fa31a3a	1.2742379
40	0x3f8d064e	1.1017549
41	0x3fd319ad	1.6492211
42	0x3f598de0	0.8498211
43	0x3f9e9a65	1.2390867
44	0x3f3591bb	0.7092549
45	0x3f33b2fd	0.7019499
46	0x403090ab	2.7588298
47	0x3fa8d11c	1.3188815
48	0x3f8f2c61	1.1185418
49	0x3f9e94be	1.2389143
50	0x3ffee6d8	1.9914198
51	0x3fcf195d	1.6179615
52	0x3f60dd22	0.8783742
53	0x3f81dcc5	1.0145499
54	0x3f1919de	0.59805095
55	0x3fbc12ed	1.4693276
56	0x3fad9970	1.356245
57	0x3feab366	1.8335998
58	0x3f55614a	0.83351576
59	0x3faba1af	1.3408717
60	0x40311992	2.7671857
61	0x3f9fa12a	1.2471058
62	0x3fb6ea75	1.4290301
63	0x3fc33f2f	1.5253657
64	0x3f8a77be	1.0817792
65	0x3f8b3ed6	1.0878551
66	0x3f8710d9	1.0552016
67	0x3f93daf8	1.1551199
68	0x3f7f78fe	0.99793994
69	0x3ffa9f0e	1.957979
70	0x3f4e1e46	0.80514944
71	0x3fc547df	1.5412558
72	0x3f518c92	0.8185512
73	0x40488cd5	3.1335957
74	0x3fc0110d	1.5005203
75	0x3fc9b41c	1.575809
76	0x4018a366	2.384973
77	0x3fe65d6b	1.7997259
78	0x3f799d99	0.975061
79	0x3f985a08	1.1902475
80	0x3f6a2d2f	0.91475195
81	0x3fce876a	1.6135075
82	0x3fe193c2	1.7623217
83	0x3fc9b8fe	1.575958
84	0x3fa9806e	1.3242319
85	0x4005b1d3	2.0889785
86	0x3f7113d2	0.9417087
87	0x3f768390	0.962945
88	0x40204ce7	2.5046937
89	0x3f178769	0.59190995
90	0x3f44e077	0.76905006
91	0x4012717a	2.288176
92	0x3f833857	1.0251569
93	0x3fc56fa2	1.5424693
94	0x3fd98172	1.6992629
95	0x3fb6f35c	1.4293017
96	0x3f9f27e3	1.2434047
97	0x3f430b04	0.76188684
98	0x3fc7c73e	1.5607679
99	0x3fd656c5	1.674523
100	0x3f6a56d4	0.9153874
101	0x3f8f6fa8	1.120595
102	0x3fd9320d	1.6968399
103	0x3f4eb1be	0.80739963
104	0x3fa84430	1.3145809
105	0x3f8151c6	1.010308
106	0x4012e012	2.2949262
107	0x3f9762b5	1.1826998
108	0x3f9933b9	1.196891
109	0x3f1d5658	0.61459875
110	0x3faf71fa	1.3706658
111	0x3f9d048a	1.226701
112	0x3fcf10db	1.6177019
113	0x3f803e54	1.0019021
114	0x3f92ee69	1.1479007
115	0x3ff84e5e	1.9398916
116	0x3feddc19	1.8582793
117	0x3fc6cf9f	1.5532111
118	0x3fc2a8f8	1.5207815
119	0x3f983e5b	1.1894029
120	0x3f805258	1.0025129
121	0x3f6a5bb1	0.9154616
122	0x3fa3bda5	1.279225
123	0x3f596fd3	0.84936255
124	0x3fc1185a	1.5085557
125	0x3f8fd915	1.1238123
126	0x3f978745	1.1838156
127	0x3fd6a9f5	1.6770617

features.3.conv.weight f4 [256, 128, 3]
0	0xbd38db5e	-0.04513108
1	0xbdccda98	-0.10002631
2	0x3db84129	0.08996803
3	0xbc187c4e	-0.00930698
4	0x3c0a7b8c	0.008452307
5	0xbd53bd1d	-0.051694024
6	0x3d3ad3be	0.04561209
7	0x3d61dd96	0.05514296
8	0x3dd22db3	0.10262623
9	0xbd1aa321	-0.037753228
10	0x3d49a8bc	0.049233183
11	0x3d5ff1d9	0.054674003
12	0xbe3cd77d	-0.18441577
13	0x3e0926f3	0.13393764
14	0xbd84a2de	-0.06476377
15	0x3da97b66	0.082754895
16	0xbdc079b8	-0.09398216
17	0xbded81f1	-0.1159705
18	0xbc9f1e6e	-0.01942369
19	0xbd02d4c1	-0.03194118
20	0xbde57acc	-0.11205062
21	0xbc7554f8	-0.014973871
22	0xbdb17ea0	-0.0866673
23	0xbbf297a3	-0.0074033304
24	0xbdaf7465	-0.08567122
25	0xbdd4e922	-0.10396029
26	0xbca18920	-0.019718707
27	0xbdb9ea35	-0.090778746
28	0x3dd72c32	0.105064765
29	0xbd299222	-0.04139913
30	0x3c8d81fd	0.017273897
31	0xb8d2439c	-0.000100261735
32	0xbd54d8b7	-0.051964488
33	0xbe10f567	-0.14156114
34	0x3ceac0c6	0.028656375
35	0xbd87f2be	-0.06638096
36	0xbdb417dc	-0.08793613
37	0x3d135316	0.03596791
38	0xbcc31afc	-0.023816578
39	0x3d38014e	0.04492312
40	0x3ccac76a	0.024753291
41	0x3ddcf88c	0.10789594
42	0x3d6d584a	0.057945527
43	0x3d0d506c	0.034500524
44	0xbdd8e887	-0.10591226
45	0x3cf61d89	0.03004338
46	0xbdf9f579	-0.12205023
47	0xbd1d3b6c	-0.038386747
48	0x3d1b81f6	0.037965737
49	0x3d359a75	0.044336755
50	0xbd48c22c	-0.0490133
51	0xbd09e697	-0.033667173
52	0x3d4d508d	0.050125647
53	0xbe0ba3f3	-0.1363676
54	0xbdecabda	-0.115562156
55	0x3d30afe2	0.043136485
56	0xbe01aabd	-0.12662788
57	0xbda2ccad	-0.07949195
58	0x3d6b661a	0.05747042
59	0x3df177f7	0.117904596
60	0xbd715857	-0.058922138
61	0x3bdcea60	0.006741807
62	0x3cad7136	0.021172147
63	0xbd53ea09	-0.051736865
64	0xbc19f4ea	-0.009396771
65	0x3c4b9d09	0.012427577
66	0x3ba3956d	0.004992178
67	0xbd6a80ed	-0.05725186
68	0xbe1550d9	-0.14581622
69	0x3c8a5cf7	0.016890032
70	0x3d210126	0.039307736
71	0xbc9aa64f	-0.01887813
72	0x3cc9f312	0.024652038
73	0x3d835f91	0.06414712
74	0xbd377019	-0.04478464
75	0x3bc781fb	0.006088493
76	0x3dccd042	0.100006595
77	0x3d87f5ea	0.06638701
78	0x3cf7028e	0.030152585
79	0xbce883c1	-0.028383138
80	0x3d45c610	0.04828459
81	0xbcf5265d	-0.02992552
82	0xbdef9069	-0.11697466
83	0xbd954619	-0.07288761
84	0x3cc1a3de	0.023637708
85	0xbd30d3ed	-0.04317086
86	0xbcbeff9f	-0.023315249
87	0x3d368896	0.044563852
88	0x3d9b68db	0.07588359
89	0x3c835a84	0.016034372
90	0x3b2d3172	0.0026427177
91	0x3c3feb1d	0.01171377
92	0xbd6d8e8a	-0.057997264
93	0x3bbd63cf	0.0057797204
94	0xbddf07c3	-0.10890152
95	0xbe029a47	-0.12754165
96	0xbc8746a1	-0.01651317
97	0x3d886cad	0.06661353
98	0x3e1dcc48	0.15409958
99	0xbd9c4d8b	-0.07631978
100	0x3dfbbbbf	0.12291669
101	0xbc7fc5ea	-0.015611151
102	0xbdc30d96	-0.09524076
103	0xbcc1d55d	-0.02366131
104	0x3c975de1	0.018477382
105	0xbdf7645b	-0.12079688
106	0xbd87fc96	-0.06639974
107	0xbd21ef18	-0.03953466
108	0x3d2c1ea9	0.042021427
109	0xbd41e1ae	-0.047334366
110	0xbd134959	-0.03595862
111	0x3d1c7866	0.03820076
112	0xbcc53f19	-0.024077939
113	0x3da59bef	0.080863826
114	0xbe484aac	-0.19559735
115	0x3d62b8e6	0.055352114
116	0x3de7d5dd	0.11320088
117	0x3ddabdd9	0.10680742
118	0xbd6dd7bc	-0.05806707
119	0x3e12d603	0.14339451
120	0xbd2b026f	-0.041750368
121	0x3c8cdaa9	0.017194109
122	0x3c6e572e	0.014547152
123	0xbc9b6ee0	-0.018973768
124	0xbcd95954	-0.026531853
125	0xbd63d70d	-0.05562501
126	0x3d4307ee	0.047614984
127	0xbb576260	-0.0032865033
128	0x3d13e563	0.036107432
129	0x3e3fa10c	0.18713778
130	0xbb930b55	-0.004487435
131	0xbd296adc	-0.041361675
132	0xbcab2151	-0.02088991
133	0x3df7c714	0.12098518
134	0x3cac5a5e	0.021039184
135	0x3c956272	0.018235419
136	0xbda7810f	-0.08178913
137	0x3d33b2ee	0.043871813
138	0xbdc02baa	-0.09383328
139	0xbd357548	-0.0443013
140	0xbd5a8675	-0.053350884
141	0xbd3e2f42	-0.046431787
142	0x3c56e668	0.013116457
143	0xbcf4077b	-0.029788723
144	0xbd9d5aa8	-0.07683307
145	0x3c8c31a8	0.017113522
146	0x3dac9d66	0.08428459
147	0x3c8adc4c	0.016950749
148	0xbd818720	-0.06324601
149	0xbd8a7501	-0.06760598
150	0xbdbbd91d	-0.091722704
151	0xbde1cb99	-0.11025161
152	0x3cd267b7	0.02568422
153	0x3e3dc98a	0.18533912
154	0x3c189f89	0.00931538
155	0x3cc80aca	0.024419207
156	0xbd8c47a2	-0.068496004
157	0xba6c2bbc	-0.00090092025
158	0xbd0b3341	-0.033984426
159	0x3e01a794	0.12661582
160	0x3d8aea99	0.06783027
161	0xbd2f609c	-0.042816743
162	0xbc9974fe	-0.018732544
163	0xbe17bba2	-0.1481767
164	0xbdb4b919	-0.08824367
165	0xbd24e5fc	-0.040258393
166	0x3d7f027a	0.06225822
167	0x3ca5b00c	0.020225547
168	0xbd9119b6	-0.07084982
169	0x3d1a7f73	0.0377192
170	0x3c6ec873	0.014574158
171	0x3dc5ffb7	0.09667914
172	0x3d3285aa	0.043584503
173	0x3e018a25	0.12650354
174	0x3d94b62a	0.072613075
175	0xbc6f2aad	-0.014597577
176	0x3c0a0b24	0.008425508
177	0xbd2bc41f	-0.041935083
178	0x3de8305d	0.113373496
179	0x3d995896	0.074875996
180	0x3d942450	0.072334886
181	0x3dec9d4f	0.11553442
182	0x3c71f26e	0.014767272
183	0x3e51463e	0.20436952
184	0xbdc18d8c	-0.09450826
185	0xbc0f17e4	-0.008733723
186	0xbd98003e	-0.07421921
187	0x3d12a40c	0.03580098
188	0x3ddba31f	0.10724472
189	0x3b90bcd5	0.004417042
190	0x3cc7da88	0.024396196
191	0xbcf5ec86	-0.03002001
192	0xbc932c59	-0.017965483
193	0xbb075487	-0.0020649747
194	0x3dd64bba	0.104636624
195	0xbda485fa	-0.080333665
196	0x3d3f9029	0.04676834
197	0xbc700e20	-0.014651805
198	0xbdacdd1b	-0.0844061
199	0x39e5d86e	0.00043839536
200	0xbcb39e47	-0.021926058
201	0xbc87943a	-0.016550172
202	0x3c21820b	0.009857665
203	0xb9eccada	-0.00045164564
204	0xbd54f6bf	-0.051993128
205	0xbcbb1e72	-0.022841666
206	0x3d8f6b19	0.07002849
207	0x3d211803	0.03932954
208	0x3e19fd15	0.1503795
209	0xbcc17455	-0.023615042
210	0x3d0be3db	0.034152847
211	0x3d171ef7	0.036894765
212	0x3d75ee98	0.060041994
213	0x3d071640	0.032980204
214	0x3d3eae06	0.04655268
215	0xbda043ae	-0.07825409
216	0xbd9619a7	-0.073291115
217	0xbc1b7905	-0.0094893025
218	0xbd28f450	-0.04124862
219	0xbd3aca6d	-0.045603205
220	0xbd7c83e0	-0.061649203
221	0xbc4223f9	-0.011849397
222	0x3d7d05f4	0.061773255
223	0x3e24f20c	0.16107959
224	0x3e4b31ca	0.19843212
225	0x392ffe02	0.00016783926
226	0x3dc17b59	0.09447355
227	0x3d6e5440	0.058185816
228	0xbc8cec76	-0.017202597
229	0x3cf16970	0.029469222
230	0xbd0ebf2a	-0.034850277
231	0x3cf963cc	0.030443095
232	0xbd55aedf	-0.052168723
233	0x3d6e73e5	0.058215994
234	0xbd278b11	-0.04090411
235	0x3d10087e	0.03516435
236	0xbdfc68ca	-0.123246744
237	0xbddb363e	-0.10703705
238	0xbc10b2b9	-0.008831673
239	0xbd286653	-0.04111321
240	0x3c18f382	0.009335401
241	0x3d0ca8f4	0.034340814
242	0x3da7ec91	0.08199418
243	0x3d949849	0.072556086
244	0xbd089ba1	-0.033351544
245	0x3960c833	0.00021436885
246	0xbdcd16b5	-0.10014097
247	0xbe10f977	-0.14157663
248	0x3d2933d5	0.041309197
249	0x3c4ab701	0.012372733
250	0x3ca821c2	0.02052391
251	0x3cdd1c3b	0.026991
252	0x3d95d951	0.073168404
253	0x3c977437	0.018488033
254	0xbde30c77	-0.11086362
255	0x3dacf197	0.08444517
