ecg_afib_detection/checkpoints/ptbxl/500hz/resnet1d/fold_4/best.pt (torch, 339167 bytes, 44 tensors)

stem.0.weight f4 [64, 12, 7]
00000000: 955a 713d 20b3 9d3d 3bde 8f3c cf71 1a3b
00000010: e42b a5bc c14d 953d 6eab 313d 98c0 6e3b
00000020: adb2 70bd 45fb a93d c14c b9bd 663e d5bc
00000030: 0678 50bd b1bf a7bc ed6b 85bc 9a4f 263d
00000040: 0b9e a03d de68 c73d 7941 6a3c ef35 acbc
00000050: f116 b4bc 6f2e 90bd af7c bcbd 444b bc3d
00000060: 8ac9 88bd 585c e1bd 657e 973d c8f7 2cbc
00000070: 59d3 a03d 285a 1fbd 72cf a13d 2673 863d
00000080: 1ef8 dfbc 9d29 a2bd a19e 673c d78e 7dbd
00000090: 0d32 103e ed94 b83d a069 8e3d 3492 413d
000000a0: d95a b33c e64a 053e 6242 023e 4f67 ecbc
000000b0: f80d b2bd 813c ee3c a84c a6bc 1dcf 1c3d
000000c0: b09e 1dbd 0b20 053d 3f16 b13d f3ec 993d
000000d0: 2660 28bd adaa afbd 5517 86bd 5855 c33d
000000e0: 19a5 b6bc ae51 b0bc 221a 7a3d 3c5f b73d
000000f0: 5053 4e3d 49d5 43bb f394 1d3c 70c5 b43d
00000100: 5433 003c 1b24 033e 1292 df3d 5c18 223d
00000110: 7a15 c13d db3a 693c cb93 603c 175e d7bc
00000120: a0a4 6a3d 2f6b d43b c03b 423d d0f1 213d
00000130: 79ea 5aba 4692 82bc 189e e03d bbaa 7939
00000140: 7cd3 e43d b352 0d3e 6735 343c 5124 f03d
00000150: f0bb 7d3c 1330 b53d b3bd 0d3d a80c b23d
00000160: a9df 753d e05c 983d b3e5 fd3c 18c8 433d
00000170: a5c8 c83d 3db3 5d3c 3a06 a13c 53b5 93bb
00000180: c75d 3e3d 7066 5fbd 3179 433c 6a14 13bd
00000190: 878e 663d 92a4 443d 969b d2bd 6115 bf3d
000001a0: f2fb b2bd 9473 5e3b d43c 19bd 6a57 7d3d
000001b0: 8339 b13d c82d a53c c564 d13d e75b fdbb
000001c0: 788a 86bd b8b8 9e3d cbfe 5dbc d7d1 dfbd
000001d0: 89a7 8cbd a054 e1bd 8ccb a4bd 2f9c f23c
000001e0: e4c0 4ebb 130d d5bd 4864 b0bd 4cfc ca3d
000001f0: e6c5 87bd 741f 663d ea04 bbbd 4296 a0bd
00000200: a56a dc3b b809 083c 33cd 66bd df94 683d
00000210: 4a09 68bd 84ce d6bd e2d8 1bbd a8da fe3c
00000220: bc4c 11bd 4a0c dfbd 0915 b8bd 0657 7bbd
00000230: 0ff8 7b3d 9d62 b33c 4351 663d b3bb 853c
00000240: 710e d03d a332 ddbd 3f85 14bd b100 863d
00000250: a927 cdbc 48d1 69bb 3f51 58bc bdda e8bd
00000260: ab76 ef3c 6529 03be 33ec 8bbd 9a81 84bd
00000270: 570e 233d 2dc9 47bd 5996 b6bd 3d89 97bd
00000280: 9388 a1bd 133f 81bd e569 d33d ebd3 72ba
00000290: f1e4 783d e3c9 dfbd 371e 4d3d 6a72 c1bd
000002a0: 7082 453d b496 e6ba cd7f b1bd c3fb a93d
000002b0: 9a6e 1fbc dc22 a1bd 5011 083e 5a09 10bd
000002c0: cfe8 393b a711 f73c f5dd f9bd c66c 743d
000002d0: 3fa8 01be f034 81bd adbd 4abd 461d 9c3c
000002e0: ffac 1cbc 1873 3cbd adb3 8cbd 3beb 8d3d
000002f0: c61d febc f5f0 8ebd 5ddc cb3b 5178 94bd
00000300: c400 24bd 08ba 7cbd c7c4 08bd a8bb 6bbd
00000310: a62d 16be 7ab2 10be f07f bcbd 91fe 2a3d
00000320: 01f6 81bd 5bd1 2a3d 3a2e 033e 623e d73d
00000330: 2595 1bbd aa69 a33d f177 4dbd 4228 8bbd
00000340: 869a 843d e292 e1bc a2e2 b4bd dbaf e73c
00000350: 36b5 af3d 25e7 cabd d699 93bd b0bc e4bd
00000360: 1610 afbd b53b 4abd 1250 283d 00de e1bd
00000370: 4ef1 b1bd 958e 8f3d 8b1d df3d 7fbe ddbc
00000380: 5a98 10be a89d a3bb 58e2 5f3c e1be 063d
00000390: f59a 73bc 987b d33d 5378 0d3d 55e2 72bb
000003a0: 411f 863c b309 c13c 2496 763c d207 ea3d
000003b0: 858c 2c3e 88df 113e 5571 a4bd 8e44 0bbe
000003c0: b63a 12be 12a6 13bd 7b14 8f3c 4704 7c3d
000003d0: b688 1c3d 6445 1fbd 3d05 8abd b759 f0bc
000003e0: b9e2 e83c 7978 f5bd bedd 85bc d04b a13d
000003f0: 358f c63d 90d1 b1bd 7734 883c 67fe f33d
0.058924276 0.07700181 0.017562022 0.002356637 -0.02016253 0.07290221 0.04337638 0.0036430713
-0.05876415 0.08299879 -0.09047843 -0.02603073 -0.050895713 -0.020477148 -0.016286815 0.040603258
0.07842644 0.09736799 0.014297836 -0.021021811 -0.021983596 -0.070401065 -0.09203469 0.09194043
-0.066790655 -0.11003941 0.07397155 -0.0105571225 0.07852811 -0.03890434 0.07900895 0.065649316
-0.027339991 -0.07918093 0.014136941 -0.0619038 0.14081593 0.0901278 0.0695374 0.04725857
0.021893905 0.13016853 0.12720636 -0.028857855 -0.086940706 0.029081585 -0.020300224 0.038283456
-0.038481414 0.03250126 0.08646821 0.075158976 -0.04110732 -0.08577476 -0.06547419 0.095377624
-0.022295522 -0.021523323 0.06106008 0.089537114 0.05037242 -0.0029881767 0.009618032 0.08826721
0.007824738 0.12806742 0.109165326 0.039574012 0.094279245 0.014235224 0.013707112 -0.026289983
0.057285905 0.006482504 0.047420263 0.03953725 -0.0008350979 -0.01593889 0.10967654 0.00023810093
0.1117315 0.13801078 0.01099906 0.11725677 0.015486702 0.0884706 0.03460474 0.0869382
0.060027752 0.074395895 0.030993318 0.047798246 0.09803895 0.013531503 0.01965629 -0.0045076995
0.04647615 -0.05454105 0.01193075 -0.03590814 0.05628827 0.04800851 -0.10283582 0.093302496
-0.08739461 0.0033943402 -0.037411526 0.061850943 0.086535476 0.020163432 0.102242984 -0.007731903
-0.065693796 0.07750076 -0.013549517 -0.10928696 -0.06867892 -0.11002469 -0.08046636 0.02961549
-0.0031548077 -0.10402884 -0.08612877 0.09911403 -0.06629543 0.05618234 -0.09131797 -0.078411594
0.00672658 0.008303098 -0.056348037 0.0567826 -0.056649484 -0.104886085 -0.038048632 0.031110123
-0.03547357 -0.10891016 -0.08988387 -0.06136229 0.061515864 0.021897608 0.05622984 0.016324854
0.101590045 -0.10800674 -0.036259886 0.065431006 -0.025043325 -0.003567772 -0.013202964 -0.11369846
0.02923139 -0.1280876 -0.06832161 -0.06470032 0.039808597 -0.04877584 -0.08915395 -0.07399223
-0.078873776 -0.063108586 0.10322932 -0.00092631456 0.06076521 -0.10927179 0.050077643 -0.09445651
0.048220098 -0.001759252 -0.08666954 0.08299973 -0.009730959 -0.07867977 0.13287854 -0.03516517
0.0028367525 0.030159784 -0.12200538 0.059674047 -0.12661837 -0.06308925 -0.049497295 0.019056927
-0.00956273 -0.0460082 -0.06870208 0.06929632 -0.031020056 -0.06979553 0.0062213377 -0.07249511
-0.040039793 -0.06170085 -0.033390786 -0.05755201 -0.14665851 -0.14130583 -0.0920409 0.04174668
-0.0634575 0.041703563 0.12810603 0.105099455 -0.037984032 0.07979138 -0.050163213 -0.06794788
0.064747855 -0.02753586 -0.08832289 0.028282097 0.08579485 -0.099073686 -0.07207076 -0.11168802
-0.0854799 -0.049373347 0.041091986 -0.11028671 -0.08688603 0.07009617 0.10894307 -0.027068375
-0.14120618 -0.0049931593 0.013664804 0.03289688 -0.014868488 0.10326308 0.03453858 -0.0037061174
0.016372325 0.023564195 0.015050445 0.11427273 0.16850479 0.14245427 -0.08029429 -0.1360037
-0.14280209 -0.03604705 0.01746582 0.061527517 0.038216315 -0.038884535 -0.067392804 -0.029339654
0.028428422 -0.11985869 -0.016341086 0.07875788 0.09695283 -0.08682549 0.01662658 0.11913758

stem.0.bias f4 [64]
00000000: ad4e bfbd cb21 9cbd 2508 7fbd a4a7 c2bd
00000010: 2848 ae3c 6165 c6bc 087f ce3c f4a9 d3bd
00000020: 23e4 efbc d180 34bb df35 4abd be71 873d
00000030: f9ba a53d 6e1c 3d3d 63c2 e13c 121a 323d
00000040: dfc2 e4bc 1dbe a7bd 32fb d03d 5dca a23c
00000050: 9243 a53c 80a5 2cbd a439 0c3e 0acd 143d
00000060: 30a8 67bc 43ef 5b3b 5f62 213d bd27 c6bc
00000070: f8c4 cebc ed51 84bd ca0b c73d acf0 813d
00000080: be55 553d 3506 e7bc 2778 97bd 72c1 273b
00000090: 5ea6 dabc b0c2 babd 0a55 0bbd bfd8 4b3c
000000a0: 04c0 28be a887 8fbc 3284 113d 69b3 47bd
000000b0: a4c1 0bbd 6f6c babd f4f1 29bd 1a37 13bc
000000c0: 225d 303d 83fc 45bc 4b2e e53d 370b b33d
000000d0: a4f0 3d3d 37f1 b0bd 3514 2abc 177c a63d
000000e0: d3be 94bd 7064 1bbd 0943 a2bd c7c8 ca3c
000000f0: 0fdb b83d 0115 80bd ba91 883c b02d 8cbd
-0.09341178 -0.07623633 -0.062263627 -0.09504631 0.021274641 -0.024218263 0.025207058 -0.1033515
-0.029283589 -0.00275426 -0.04936778 0.066134915 0.08092303 0.04616969 0.027558511 0.043481894
-0.027924953 -0.08190558 0.10204162 0.019871885 0.020173822 -0.04215002 0.13693863 0.036328353
-0.01413922 0.003355936 0.039400455 -0.02418887 -0.025240406 -0.064609386 0.097190455 0.06344733
0.052083723 -0.028201202 -0.07395964 0.002559748 -0.026690658 -0.09119165 -0.034016646 0.012441813
-0.16479498 -0.01752074 0.035526462 -0.048755083 -0.034120217 -0.09102713 -0.04149051 -0.008985305
0.04305757 -0.012084129 0.1119047 0.087423734 0.04637207 -0.08639758 -0.010380794 0.08129137
-0.07262959 -0.03793758 -0.07922942 0.024753941 0.09026157 -0.06254006 0.01667105 -0.06844652

stem.1.weight f4 [64]
00000000: b996 6f3f 5396 833f 9d34 7d3f a4e1 7d3f
00000010: a88d 833f 9d2d 7a3f b419 7b3f a55c 823f
00000020: e6ae 803f 5a61 803f 74bb 833f d840 843f
00000030: c17c 843f 4234 823f d95d 813f e7ef 823f
00000040: 37b1 6d3f dcce 803f 4209 803f 3772 803f
00000050: 3aef 803f d2f1 7c3f 45b4 7e3f 7b87 823f
00000060: 65ad 823f 84b9 803f 698f 683f eb38 7a3f
00000070: bcf2 7f3f 1a24 793f 0018 863f eb2f 7e3f
00000080: 3cd5 783f 364c 843f 9788 693f 6218 833f
00000090: e148 733f 73a2 753f 355e 7e3f 2304 733f
000000a0: 913e 733f bdfa 813f feaa 773f b020 833f
000000b0: 2ec9 843f 0e06 6d3f 39e4 813f 263c 813f
000000c0: 2d13 803f 5400 853f 801b 803f 5954 7e3f
000000d0: fb9d 793f ce42 823f 40c2 803f a3f1 803f
000000e0: dbee 803f 29c1 6b3f 608a 833f 1d27 7c3f
000000f0: 55f8 7e3f a84b 813f 880f 753f 5311 863f
0.9358936 1.028025 0.98908406 0.99172425 1.0277605 0.9772585 0.98086095 1.0184523
1.0053375 1.0029709 1.0291581 1.0332289 1.0350572 1.0172198 1.0106765 1.0229462
0.92848533 1.0063128 1.0002825 1.0034856 1.0073006 0.9880649 0.9949382 1.0197595
1.0209166 1.0056615 0.90843827 0.977431 0.9997976 0.9732071 1.0476074 0.99291867
0.9720037 1.0335758 0.91224045 1.0241816 0.9503308 0.95951 0.993625 0.9492819
0.95017344 1.0154644 0.9674529 1.024435 1.0373895 0.92587364 1.0147773 1.0096481
1.0005852 1.0390725 1.0008392 0.99347454 0.97506684 1.0176637 1.005928 1.0073742
1.0072893 0.92091614 1.0276604 0.9849718 0.99597675 1.0101213 0.95726824 1.0474037

stem.1.bias f4 [64]
00000000: 6379 33bd 4750 bcbb b1de f1bc 9494 ecbb
00000010: 1ebc 0bbd a98d 71bd 91ee 2ebd b2a1 9bba
00000020: 8826 d5bc 80f0 6cba 2660 ca3c d06d f33b
00000030: 099b 923d 58d8 85bc cb3b 933c ab44 993c
00000040: e63e 0fbd 82c3 32bc 1677 293d a2b9 393d
00000050: b9ba 1dbd 19c5 1e3d 148f a1bd 0a00 74bd
00000060: 78d1 91bc 5545 d63c 411c 80bc 3191 45bd
00000070: 96d8 1a3d 1918 d8bc 6f44 cfbd e299 903b
00000080: 507b a7bd 36ab 1b3c acb7 4bbd 4a6f 92bc
00000090: b510 52bd 4882 f9bc 3648 8d3c 7723 4bbc
000000a0: a816 073b 0d6f e5bc 0316 84bd 15f1 c3bd
000000b0: 0a24 dcba d843 30bd 4de7 41bd 2b06 fcbc
000000c0: daff 403a 679c 9bbc 1334 083d 5f7f 803b
000000d0: 640a 8ebc af87 a63b 961e 73bd 4a6c 343c
000000e0: 5e8b d73b eb4a adbd d145 4fbd 42de 71bc
000000f0: c2a1 cb3c 4daa 923b 6028 283d 5b89 42bd
-0.043816935 -0.0057468745 -0.029525133 -0.0072198603 -0.03411495 -0.05897299 -0.042707983 -0.001187375
-0.02601935 -0.0009038523 0.02470405 0.007428862 0.07158477 -0.016338512 0.017972847 0.018709501
-0.034972094 -0.0109108705 0.041373335 0.04534305 -0.03850815 0.038762186 -0.07888618 -0.05957035
-0.017800078 0.026156107 -0.015638473 -0.04823417 0.03780421 -0.026378678 -0.101204745 0.0044128755
-0.08177817 0.009501269 -0.04973571 -0.017875332 -0.051285464 -0.03045763 0.017246347 -0.012398592
0.002061287 -0.028007055 -0.06449511 -0.09567467 -0.0016795408 -0.04303345 -0.047339726 -0.03076466
0.00073623436 -0.018995477 0.033252787 0.003921434 -0.017338939 0.0050820927 -0.05935534 0.011012146
0.006577893 -0.08461555 -0.05060369 -0.014762463 0.024857406 0.004475868 0.04105413 -0.047494274

stem.1.running_mean f4 [64]
00000000: d774 bfbd b212 9cbd 16d7 7fbd 2e9c c2bd
00000010: 1488 ae3c d4d9 c6bc 45eb ce3c 6bb5 d3bd
00000020: d83d efbc 9feb 3bbb c812 4abd 67b6 873d
00000030: 57bc a53d f23d 3f3d aee4 e53c 0779 323d
00000040: f0b1 e4bc 62c0 a7bd 9fed d03d 68ba a23c
00000050: 1559 a53c dfe5 2cbd eb50 0c3e 249f 143d
00000060: 3984 67bc cde2 5b3b c7a7 213d def2 c5bc
00000070: 2b84 cdbc 1055 84bd 7e05 c73d 9ff4 813d
00000080: 1de2 553d 39d2 e8bc 2b16 97bd cac8 263b
00000090: bf4b dabc 8eba babd 18e3 0abd fd74 4b3c
000000a0: 98b2 28be 15b1 8fbc 4d4c 113d 56d6 48bd
000000b0: 0030 0cbd 2c6b babd b6e6 29bd 27d3 1cbc
000000c0: 2a18 303d ac72 46bc 8b29 e53d b00a b33d
000000d0: 8326 3e3d 80d2 b0bd 3a6b 2abc d9c7 a83d
000000e0: ceb8 94bd 0196 1bbd 654c a2bd ed93 cb3c
000000f0: d8bc b83d 3874 7fbd d2f4 883c 6e23 8dbd
-0.09348457 -0.07620753 -0.06246098 -0.09502445 0.021305121 -0.02427379 0.02525867 -0.10337337
-0.029204294 -0.0028674377 -0.049334317 0.06626587 0.080925636 0.046689935 0.028063145 0.043572452
-0.027916878 -0.08190991 0.102015726 0.019864276 0.02018408 -0.04221141 0.13702743 0.03628458
-0.014130645 0.0033551932 0.039466646 -0.02416366 -0.025087437 -0.06461537 0.097178444 0.06345486
0.05221759 -0.028420554 -0.07377275 0.002544927 -0.026647447 -0.09117614 -0.03390798 0.012418029
-0.16474378 -0.017540494 0.035473157 -0.04903253 -0.034225464 -0.09102473 -0.04147979 -0.009571827
0.042991795 -0.012112301 0.11189564 0.08742273 0.046423446 -0.086339 -0.010401541 0.08241243
-0.07261811 -0.03798485 -0.07924727 0.02485081 0.09020394 -0.062366694 0.016718302 -0.06891523

stem.1.running_var f4 [64]
00000000: 8c24 0340 201a 0e3f 4f0a a83e 1d50 f23e
00000010: 00de a03f 3fd2 cf3e a186 033f 842a 8f3f
00000020: 14d2 943e 207c b93e f432 4a3e a271 803f
00000030: fdd3 013e e341 b43f d3c2 d63e c4b5 353f
00000040: b212 ae3f 41f9 fa3e 82c1 3f3f 548f 133f
00000050: d2e3 3e3f 02db 8a3e b70c 3c3f 079b 993e
00000060: 6701 ab3d f15d 8a3f 030b a53f 3944 4d3e
00000070: 096b db3e 4624 f83e 332a c23f 3efd 693e
00000080: 600d ec3e 9fa6 a03e b832 763f 1813 813e
00000090: a494 4c3f cbf2 343f b069 3a3f 045e 043f
000000a0: 63cf 033f da02 8b3e bed7 253f 9168 a63e
000000b0: 5927 f93e 4388 bc3f 4423 ef3e e401 163f
000000c0: 5777 f13f ba70 993e bd91 293f 3dd1 203f
000000d0: 09a9 e33e 1ef9 683e 7505 df3f 1c61 6a3f
000000e0: 9250 b93e b346 303f 79cb 103f 7364 db3f
000000f0: a3fb 303f f688 b13e d1fc a53f e23c 2c3e
2.0491056 0.55508614 0.32820365 0.47326747 1.2567749 0.40590093 0.513773 1.118485
0.29066527 0.36227512 0.19746 1.0034678 0.12678523 1.4082607 0.41945514 0.7098048
1.3599455 0.4901829 0.74904644 0.57640576 0.74566376 0.27120215 0.734569 0.3000109
0.08349877 1.0809919 1.2893986 0.20045556 0.428551 0.48465174 1.5169128 0.2285051
0.46103954 0.31377122 0.9617114 0.2520988 0.7991431 0.7068297 0.72817516 0.51705956
0.5148832 0.27150613 0.6478232 0.32501653 0.48662832 1.4729084 0.46706593 0.58596635
1.8864545 0.29968816 0.66238004 0.6281927 0.444649 0.2275128 1.742354 0.9155443
0.36194283 0.6885788 0.56560475 1.714003 0.6913397 0.34674805 1.2967778 0.168201

block1.conv1.weight f4 [64, 64, 3]
00000000: 64a7 8c3d 8564 433d cf39 b7bc 5155 63bd
00000010: aaa5 8abd ceb0 6bbd 7bd1 d4bd 7298 5abd
00000020: 8ebe 3e3d b893 133d bb1c 8d3d 238e 773d
00000030: f2a5 003e 8a7e 433d 2ced dd3d fdd6 fe3b
00000040: 99d1 103d 3d34 4e3d a6a6 e8bd f4c9 b5bc
00000050: d57a ffbc f896 3b3c 7d8b fabc 1c0d b23d
00000060: 8285 6b3c 4fcc 543d d0a1 ca3c 790c 833c
00000070: c8cd 91bc 89f6 cb3c e8a1 81bd 3172 ccbc
00000080: 80c9 ca3c 7653 7dbb c2df 9bba 9d6d a23d
00000090: 93ce a4bb e080 ba3d 0aaf df3d 607e 6b3d
000000a0: eb7d febc 54d0 82bd b322 86bd e670 03bc
000000b0: 940e a13a 3af3 613d 927f 4bbd b9ba a6bc
000000c0: c45f 04bd c33b 80bc 1ce2 e3bc aa05 5e3d
000000d0: 647a de3c 9ac4 b6bd 9eaf d53c fb4b 89bb
000000e0: cb3e 2bbd 51a8 383c 3a10 e93c 89b4 22bd
000000f0: b0e3 70bd b978 3ebc 2c44 b8bc 09a4 06bd
00000100: 6b02 203d 794b a0bc cf61 c3bd 359c 82bd
00000110: 30c6 293c 5209 0ebd 7997 46bd 29ea 493d
00000120: d6e5 e0bc 3cd2 8ebb 10f7 acbc 84b9 edbc
00000130: 4730 37bb f922 b73b 3b8b 653d ba27 7d3d
00000140: 9604 a0bb b131 c8bd 2f36 96bd 45ab 723d
00000150: 698e 86bd 2f7d a8bd 2416 0dbd c50e 14bd
00000160: 8a35 57bd 2d33 31bd ce28 97bc 88f7 40bc
00000170: ee58 3f3d b7d4 bc3c 7a3d 3bbd 8ca3 8e3d
00000180: cc02 2d3c 9709 febc 8c19 883c 4d10 c33d
00000190: e092 923d 1730 9e3d 3b59 a0bd 83b1 a1bd
000001a0: d9e7 83bd 4879 bdbd 62bd bebd 8ea2 a0bd
000001b0: 6127 923c d027 24bc 295e 4739 6477 563c
000001c0: 6953 a4bd e25c 1c3d 5e8c 6d3d 1523 7fbc
000001d0: c7cb 6e3c 10fb 69bd b18b 19bd 67ac cabc
000001e0: a9b3 afbd c67f 85bd 6dcb b0bd 7551 dc3d
000001f0: 400f c7ba c727 f33d b831 72bd ad44 4dbc
00000200: b751 a0bd c4c7 d83d 8261 00bd 6731 2b3d
00000210: 810d 263d c93c 3cba 0b51 84bc 1b87 833c
00000220: 760c c3bc d253 283d 1692 10bb 8ea9 0fbc
00000230: 3010 943b 0b2a 633c c108 84bd b743 c7bc
00000240: 131d 5fbd 3368 42bd cfcd cc3b 02a2 0bbd
00000250: f5bf 2fbd e853 5b3d 5226 903c fbe0 563d
00000260: 0a88 ff3c c1d5 5d3d 9b63 893d 683c bebc
00000270: a0b8 203d 4d57 45bd 8707 8abc d1ac ac3d
00000280: ae5f 183d bb24 bfbc 8251 833d 6c5f 723d
00000290: 51f7 c7bc fd04 0abc b653 dbbd b105 03be
000002a0: ccbe bb3b 16be 003c c7e5 bb3c a5de 1fbd
000002b0: 509b 9f3d 8ed7 a9bc 435e c33d 7b55 3c3d
000002c0: c6ef 063d f126 c6bc 23c4 44bd 5123 36bd
000002d0: 5e1c 173d ab7c 043d 4691 a13b e00d dfbd
000002e0: 7b88 9dbd 1a7f 1fbc 89ce 33bd 80be ccbb
000002f0: 8ddd 963d ef04 0abd 5960 59bd c0ae 80bd
00000300: 702b a2bd 44ea 96bb 78f2 993b 3828 75bd
00000310: 8b3e 32bd 114f c13c f800 cfbd 3647 e03c
00000320: ff17 c4bd 1db7 803d b449 eb3c 51e0 623c
00000330: c0af 1cbd f8a4 c1bc 64a6 afbd ecd1 9a3c
00000340: 7e8b 47bd 896c 903c 7951 00bd 1758 4a3d
00000350: 0855 0d3d 1dd9 2b3d 7727 313d e270 203d
00000360: a1c3 c43c 6526 fbbc c13d c7bb 721b 48bc
00000370: ba1d 1b3d 2478 35bc 69ac c9bd a8d1 ddbd
00000380: f2d5 47bd b135 db3d bb17 863d e3c3 923d
00000390: 027e 91bd df59 f5bd ee95 84bc 9faa aabd
000003a0: 3249 c3bd ec84 20bc 72a8 0bbd 2eb5 1a3d
000003b0: 3c57 723d ca3e 523d 24d3 3f3d 655a 933d
000003c0: d990 a93b 2038 1a3d fde7 ccbc 5b0e c6bb
000003d0: 8767 0f3d 57db 7c3d d9db b2bc 7126 513d
000003e0: 0710 45bd 1c60 173d 4c7a da3c 15c4 22bd
000003f0: 9db5 cebb 7225 823d 148f c43c 4830 093d
0.06867865 0.047703285 -0.022366432 -0.055501286 -0.06769879 -0.05754166 -0.10391518 -0.05336804
0.046568446 0.036029547 0.068902455 0.060438287 0.12563303 0.0477281 0.108362526 0.0077770934
0.035356138 0.050342787 -0.11359911 -0.022191025 -0.0311865 0.011449568 -0.030584091 0.08693907
0.014375092 0.051952656 0.024735361 0.015997158 -0.01779832 0.02489783 -0.06329709 -0.024956794
0.024754286 -0.0038654483 -0.0011892247 0.07931063 -0.0050295084 0.09106612 0.10922058 0.057493567
-0.031065902 -0.06387392 -0.06549587 -0.008022523 0.001228767 0.0551636 -0.049682207 -0.020352708
-0.03231789 -0.015653497 -0.027817778 0.05420462 0.02715797 -0.089242175 0.026084717 -0.004189966
-0.04180793 0.0112705985 0.02845012 -0.039722953 -0.05881089 -0.011625462 -0.022493444 -0.03287128
0.039064806 -0.019567238 -0.0954014 -0.063774504 0.010362193 -0.034676857 -0.0484843 0.04929558
-0.027453344 -0.004358558 -0.021113902 -0.029019125 -0.002795236 0.005588886 0.056040984 0.061805464
-0.004883359 -0.09775103 -0.073345535 0.059245367 -0.06570131 -0.08227002 -0.034444943 -0.036146898
-0.052541293 -0.043261696 -0.018452074 -0.011777766 0.04671567 0.02305065 -0.045712925 0.06964788
0.010559749 -0.031010432 0.016613744 0.095245935 0.071569204 0.07724016 -0.07829519 -0.07895186
-0.06440706 -0.09251648 -0.09313466 -0.07843505 0.017841043 -0.010019258 0.00019013196 0.013089988
-0.08023722 0.038174517 0.057995193 -0.015572329 0.0145749515 -0.057124197 -0.037486736 -0.024740411
-0.08579189 -0.065185115 -0.086325504 0.10757724 -0.001518704 0.11872821 -0.059129447 -0.012528581
-0.07828086 0.10584977 -0.03134299 0.04179516 0.040540222 -0.00071806886 -0.016151926 0.016055634
-0.023809653 0.041095562 -0.002205973 -0.008768452 0.0045185313 0.013865004 -0.06446982 -0.024324281
-0.054471087 -0.047462653 0.0062501202 -0.03409005 -0.042907674 0.053546816 0.017596398 0.05246065
0.031192798 0.05415893 0.06708451 -0.023222163 0.039238572 -0.04817896 -0.016849292 0.084313996
0.037200622 -0.023332944 0.06412031 0.059173033 -0.024409922 -0.008424041 -0.10709326 -0.1279514
0.005729532 0.00785782 0.022936715 -0.03903069 0.077932954 -0.020732667 0.09539463 0.045979958
0.03294351 -0.02418849 -0.048038613 -0.044467274 0.036892287 0.032345455 0.004930648 -0.10891318
-0.07692047 -0.009734893 -0.04389814 -0.0062482953 0.07366476 -0.03369611 -0.0530704 -0.06283331
-0.07918441 -0.0046055634 0.004698094 -0.05985281 -0.043516677 0.023597272 -0.10107607 0.027377706
-0.095748894 0.06284926 0.028721668 0.0138474265 -0.038253546 -0.023638234 -0.08576658 0.018898927
-0.048717014 0.017629879 -0.0313277 0.049400415 0.03450492 0.041955102 0.043250527 0.039170153
0.024019064 -0.030657956 -0.0060803597 -0.012213575 0.037870146 -0.011076007 -0.09847338 -0.108310044
-0.04878802 0.107036 0.06547495 0.07166269 -0.07104112 -0.11980032 -0.016184773 -0.08333325
-0.09535445 -0.009797316 -0.03409619 0.037770443 0.059165224 0.05132941 0.04683222 0.07194976
0.005174738 0.03765118 -0.025012964 -0.006044192 0.03501084 0.061732616 -0.021833347 0.05106205
-0.048110988 0.03695689 0.026669644 -0.03973778 -0.006308271 0.063547984 0.023994006 0.03349331

block1.conv1.bias f4 [64]
00000000: 6818 773d ac68 013d 6f19 983d 8afd b03d
00000010: fb46 a03d 1710 5cbd 5b25 d03a b85c 7f3d
00000020: ab26 183d 675f 45bd 5cbd b4bc 08e2 be3d
00000030: 485e 90bd c0e8 413d bec7 3c3d 694f ce3b
00000040: c6cb 1cbd 18fb 733c 5b1f 05bd a5ef 8c3d
00000050: 9db7 9a3d 62b9 263d 2cee 793d dbfb ce3a
00000060: 9666 a4bd f9de d7bd 2a0f 5e3c ebcc 94bd
00000070: 6086 053c 2c86 cfbc 3d4f bebb ef39 22bd
00000080: 9346 983c dd5a 153d f6aa b6bd f5ed 40bd
00000090: 6655 a4bd 87bc 0d3d 1ecf cfbc 6370 033d
000000a0: 43c7 98bd f11b b83c 9fa3 dd3c 4d7e c93c
000000b0: 166a 9ebc 58fe f63c db29 b2bd 3454 313c
000000c0: 5aaa 233c 58e6 64bc 5dd4 a4bd 3f34 73bc
000000d0: 528e 20bd d2ed a0bb 3031 e83d 0b18 113d
000000e0: 1e9a c9bc dac8 ac3a 23fe cbbd f452 013b
000000f0: fbc4 abbb 1198 85bb 07ed e23c 04b8 9bbd
0.06032601 0.031593964 0.07426726 0.08642109 0.078260385 -0.053726282 0.0015880273 0.062344283
0.03714625 -0.048186686 -0.02206295 0.09320456 -0.07049233 0.04734111 0.046088926 0.0062960875
-0.03828027 0.014891408 -0.032500606 0.06881646 0.07554553 0.04070414 0.061018154 0.0015791612
-0.08027379 -0.105405755 0.01355342 -0.072656475 0.008149713 -0.025332533 -0.005807786 -0.03960603
0.01858834 0.036463607 -0.08919327 -0.047101934 -0.08024101 0.03460362 -0.025367316 0.032089602
-0.07459881 0.022474261 0.02705556 0.024596358 -0.019337695 0.030150577 -0.086993895 0.010823298
0.009989345 -0.013970934 -0.080483176 -0.014843999 -0.039198227 -0.004911163 0.11337507 0.03542332
-0.024609622 0.0013182417 -0.09960582 0.0019733282 -0.0052419878 -0.0040769656 0.027700914 -0.076034576

block1.bn1.weight f4 [64]
00000000: 4170 853f 788f 803f 4004 813f 2ebf 813f
00000010: 6d5b 7e3f a6b1 7b3f 81ac 7e3f 724a 813f
00000020: f65b 7b3f 8502 7f3f 24db 823f 250b 823f
00000030: 8bcf 7e3f ff77 853f b2cc 603f 3d8a 7b3f
00000040: 6615 813f 07f0 6f3f 2bd0 7f3f 0943 833f
00000050: ac7a 703f f2ac 773f 1766 853f 2f9b 833f
00000060: 8937 7e3f a768 803f c809 7e3f 6627 7c3f
00000070: 420e 833f 6348 7c3f 25fd 7b3f 31cc 833f
00000080: de05 7a3f 1630 843f 8117 843f 4400 753f
00000090: 3b5a 803f 934c 7a3f f03e 723f 1226 7b3f
000000a0: 65d5 783f dbb9 823f bd8b 863f ad05 813f
000000b0: fa6c 823f ac00 843f 4a35 7d3f db6e 773f
000000c0: 196a 813f db2d 833f 7b81 783f 0b26 823f
000000d0: 89c0 753f 1a4e 753f 85aa 773f 74f2 783f
000000e0: df39 763f 0525 7b3f c748 803f 7258 763f
000000f0: 394c 823f 723d 783f 83d9 843f 59ee 833f
1.0424882 1.0043783 1.0079422 1.0136468 0.99358255 0.98317945 0.9948197 1.0100844
0.98187196 0.9961322 1.0223126 1.0159651 0.99535435 1.0427245 0.8781234 0.9825781
1.0084655 0.9372563 0.99927014 1.0254833 0.9393718 0.9674827 1.042178 1.0281733
0.9930349 1.0031937 0.99233675 0.9849762 1.0238726 0.98547953 0.9843314 1.0296689
0.976652 1.0327175 1.0319673 0.9570353 1.0027536 0.97773093 0.94627285 0.98104966
0.97200614 1.0212969 1.0511395 1.0079857 1.0189507 1.0312705 0.9890944 0.9665353
1.0110503 1.0248369 0.9707257 1.016786 0.9599691 0.958223 0.9674457 0.97244954
0.96182054 0.9810336 1.002221 0.96228707 1.0179511 0.9696876 1.0378879 1.0307113

block1.bn1.bias f4 [64]
00000000: e052 7c3c ff8e d53c c081 113b f08c 2abd
00000010: da02 b73b 6fde a0bd 0606 46bd d4cf a0bd
00000020: e227 ce3b d284 23bc 0950 05bd 300b fcbc
00000030: 3691 87bd 4f67 13bd 691d c3bd 355e b4bc
00000040: 578c c93b 76ca 8abd 35df 93bd 4261 baba
00000050: 11f6 84bd c721 11bd 8341 103c 0e8e d4bc
00000060: e8e2 96bd 60af 2fbd 6792 0ebd 0aa7 b3bd
00000070: 4178 96bd f826 08b9 1c04 74bd 7ebd 80bd
00000080: 7770 c8bc 11cc bfbd f9df 32bd b9bd a83b
00000090: cefa 76bd daf7 afb9 8b0b 9fbd 6be2 883c
000000a0: 40d4 5c3c 75c6 59bc 6f44 2f3d 2903 cabc
000000b0: fc71 bfbd 8e47 a4bd 7489 7abd 9742 093c
000000c0: ec36 59bd f78f 98bd 6a76 46bd 47e8 893c
000000d0: 70e5 82bd d409 bebc 17b8 b8bc a8fa 25bc
000000e0: 2ba9 a33c 4582 e0bd 1e72 1fbd f4a8 dcbc
000000f0: 31f5 20bd 8876 23bc b6c1 5d3c 3226 5c3d
0.015400618 0.026069162 0.0022202581 -0.041638315 0.0055850567 -0.07854926 -0.04834559 -0.0785214
0.0062913755 -0.009980397 -0.03254703 -0.030767053 -0.06619494 -0.035987195 -0.09527094 -0.022017578
0.006150763 -0.067768976 -0.07220308 -0.0014219659 -0.06492246 -0.035432603 0.008804682 -0.025946643
-0.07367498 -0.04289186 -0.03480759 -0.087720945 -0.07347155 -0.00012984488 -0.05957423 -0.06286143
-0.02446769 -0.093650945 -0.04367063 0.00514957 -0.06029778 -0.00033563265 -0.077658735 0.016709527
0.013478339 -0.013291945 0.042789873 -0.02465971 -0.09347913 -0.080214605 -0.06116624 0.008377693
-0.053030893 -0.07449334 -0.048452772 0.016834391 -0.06391418 -0.023198046 -0.022548718 -0.010130562
0.019978127 -0.10962347 -0.03892719 -0.026936032 -0.039296333 -0.0099769905 0.013534954 0.053747363

block1.bn1.running_mean f4 [64]
00000000: 5115 3dbe 06e1 0fbf 2d30 3d3f 47ce 1abf
00000010: 6460 47bf 471d 2f3f 21cc 16bf ba24 033e
00000020: 1e37 d5be d38a 633e 3e3a 27bf 9f92 0cbf
00000030: 0511 8ebe 999f d33c 316b 0abf 0d09 23bf
00000040: 3728 f8be 4423 64be 841f 4bbf a343 34be
00000050: 137e 11bf 596d 5abf f28a 36be cf3c 8f3c
00000060: f72f 16bf a19a 84be 9af3 08bf 9bd1 193f
00000070: f77b ddbe cdbb 183f a149 21bf c055 74bf
00000080: 6838 bebe 3b70 15bf fb00 a43d 4977 4c3f
00000090: 8794 2bbf 19db 743e 7bc3 923e 59c4 06be
000000a0: 4461 31bf a8bd fabe d864 f0be 079a 89bf
000000b0: 877b 17be e2a5 1c3f 6d33 e8be b8e2 373f
000000c0: 7010 d23e b2c6 05bf 10d5 57be c5ff 99bc
000000d0: fde6 763e aa15 2f3d e4b3 06bf 66a5 06bf
000000e0: c1f4 bebe c735 dd3e 1af2 88bf ccc0 bfbe
000000f0: e9bd 88bf 087a 0ebd a2d4 073f c6eb 33bf
-0.18465163 -0.56202734 0.73901635 -0.60471004 -0.77881455 0.6840405 -0.58905226 0.12806979
-0.41643614 0.22220926 -0.65323246 -0.54911226 -0.2774736 0.025832938 -0.5406981 -0.63685685
-0.48468181 -0.22279078 -0.79344964 -0.17603926 -0.56833 -0.853231 -0.17826441 0.01748505
-0.5866694 -0.25899222 -0.53496706 0.6008546 -0.4325864 0.5966156 -0.63002974 -0.95443344
-0.3715241 -0.58374375 0.080079995 0.79869515 -0.6702351 0.23911704 0.28664765 -0.13160838
-0.6928904 -0.4897282 -0.46951938 -1.075013 -0.14793216 0.6119062 -0.45351735 0.7183032
0.41028166 -0.5225631 -0.2107737 -0.018798718 0.24111553 0.04274527 -0.5261824 -0.5259613
-0.37296107 0.4320509 -1.0698884 -0.3745178 -1.0682956 -0.034784347 0.53058827 -0.70281637

block1.bn1.running_var f4 [64]
00000000: e0fe 0b3f 687c 923f 7917 553f 9d5e 863f
00000010: 010e ec3f 749a 713f 9d69 f13e 1fa6 7c3e
00000020: 8a94 903f 95b0 d63e 33c4 503f e0f2 863f
00000030: d8a6 bb3e 89de 523e 93fe 7f3f 31f1 903f
00000040: 830b a93f 2041 8c3e 4f5e 263f 77cf d73e
00000050: 8f65 c23f 97a2 813f db86 e03e 596d f33e
00000060: 1f16 083f 3cd2 583e b0bf 0a3f 1656 313f
00000070: 9e7c 283f f980 093f 4b67 753f 62df 1e3f
00000080: 212f 403f ca40 033f 9627 b43e d137 903f
00000090: 7f2e 9f3f 5576 ef3e 8909 653f e1ad 273f
000000a0: 8c53 bf3f 6cd2 673f 4a8c ef3e 73b3 ba3f
000000b0: 4c2f b93e 2336 1e3f e890 fc3e 2f36 3e3f
000000c0: 44b4 f53e 11fb f23e 2681 dc3e 8c66 923e
000000d0: 32b1 073f 5329 a53e e584 7d3f df15 e73e
000000e0: 99db 9c3f 60ed 103f 33ee ce3f 0686 fb3e
000000f0: 1a1f a33f a052 a23f 597e 263f 6b07 1c3f
0.54685783 1.1444216 0.8323894 1.0497624 1.8441774 0.943763 0.4715089 0.24672745
1.129533 0.41931596 0.81549376 1.054287 0.3665073 0.20592703 0.99997824 1.1323606
1.3206638 0.27393436 0.64987653 0.4215047 1.5187243 1.0127743 0.43852887 0.47544363
0.53158754 0.21173948 0.5419874 0.6927198 0.6581515 0.5371242 0.9586074 0.62059605
0.75071913 0.51270735 0.35186452 1.1267034 1.2436064 0.46769968 0.89467674 0.65499693
1.4947371 0.90555453 0.4678672 1.4586014 0.36168897 0.61801356 0.49329305 0.7430143
0.47989094 0.47457173 0.43067282 0.28593862 0.53004754 0.3225809 0.99030906 0.45133874
1.2254516 0.56612206 1.6166443 0.4912569 1.2743866 1.2681465 0.6503654 0.6094882

block1.conv2.weight f4 [64, 64, 3]
00000000: f03b debc de73 f6bd f15f 7bbd 7039 bbbd
00000010: 586c f73c 9a11 fb3c 9459 b2bd 0994 dcbc
00000020: 5a85 8ebd be05 8abd 862c a63c 1354 86bd
00000030: 63ae 173d 270f e93c 6c1e 18bd 285e 3f3d
00000040: 64e2 48bd f797 76bd 9b53 c6bc 0104 43bd
00000050: 4710 893b 94c3 5d3d be7e 79bd 8973 17bc
00000060: 47cb 94bc b396 3d3d e305 1fbc 831f c1bc
00000070: 635c 22bd d568 6abd 0bae 3cbd 594b 043d
00000080: 1014 d7bd 8fa0 d73b 218a f4bc 54cb 94bd
00000090: 3ea4 27bd 0e31 84bd 1a11 d1bd 051e b2bd
000000a0: c264 e5bc 82b1 b4bd e3ef dabc 2f64 413d
000000b0: 52af 2a3d dd3f 883d 4e16 0a3d 1b6e a6bd
000000c0: ce5d 42bd a38d 95bd daf1 273d 1a8f afbd
000000d0: 2619 77bd c683 42bc 63e6 1ebd f63e 42bd
000000e0: d664 ef3c 7322 423d 6a13 9ebc 66be 56bc
000000f0: c0c0 12bd 421a f9bc 5e45 00bd 5828 eb3c
00000100: 9779 133d a4ae b5bc 0414 4cbb 4241 28bc
00000110: 79b6 f0bd 07a2 073c a1f1 8abd c69e cbbd
00000120: 0e3f ee3c 22bb 74bd 2b4a adbc ec66 08bd
00000130: 0317 88bd 021d 34bd 90c2 81bc b7c7 27bd
00000140: de6d cb3c c487 8f3b 48ce 97bd aa51 ccbd
00000150: 2c0e 263d 6b55 1f3d 8ece c9bb 3e10 c1bb
00000160: d913 f2ba da8c 903c 1498 e9bd 5eda 8dbd
00000170: 2601 46bd 733f 50bd c597 0bbd fba7 20bc
00000180: 42d5 aebd 3374 06bd 48aa 02bd ffdb b7bd
00000190: d2d5 09bd 3442 21bd 326a 5dbc 901b 443d
000001a0: 12ff 2bbc f667 4cbd ed86 693b 13a2 33bd
000001b0: 9873 e5bd 29ec c6bd 3ea6 18bd b55d 383c
000001c0: 3c4c 853d d6ee bebd 210e 633d 14ce 603d
000001d0: 870b a53c 32f5 26bc 22b4 7e3c d44a 12bc
000001e0: 0aee 533c 66d0 033d 1fb8 4c3d 1879 113d
000001f0: f2e0 8cbd 01fe 9abd 619b 99bc 1222 a93d
00000200: 0a91 a43d dfbe 3ebd 7d5a 8fba 472d 8f3c
00000210: 1d1d 8ebd 64a5 12be d9b5 ebbd b535 61bd
00000220: 38d3 1ebc 456a 40bd a776 153d 196f 6bbd
00000230: 658a 4c3d 683e 0abd 26d3 57bd f900 a13c
00000240: c2b3 943c 781d b4bd 66d4 d6bd 9c8e 99bd
00000250: 4cf1 8e3d c4bd 56bd cddb 623d 12df 443c
00000260: 2ef7 6dbd bf87 3a3d 9512 bdbc d62d 78bd
00000270: 0a6e 563c b368 793d 5acd a83d 45ad c2bc
00000280: f0c1 03bd 1d88 6b3d eec0 90bd e112 bdbc
00000290: 5bfc 783d 9e78 973d 60d4 cabc 2577 18bc
000002a0: 37aa e2bc 5c4c 8f3d 8c23 efbb 8359 93bd
000002b0: 3337 30bd de8c ddbd 5150 b5bc 878f 383c
000002c0: 24b7 8b39 b504 1e3d ca79 2f3d c6bb 39bd
000002d0: 56a1 d33c 9b11 8bbc dc56 bebc 05ba 133d
000002e0: 8d78 0dbc 5208 10bd b129 bf3b cfc5 413d
000002f0: 945e 743c b322 e5bd 0a28 b8bd 9aa7 91bc
00000300: e1de d3bb bb82 54bd e9b8 d5bc 7a03 11bc
00000310: ae3f 573d 51de a03b fa9b 90bd c235 8a3d
00000320: 8cc4 d53c 63fe 913a f6aa 6fbd 5898 ccbb
00000330: eeda 813d 539d 72bd 800f 72bd 1780 1fbc
00000340: e0c7 f8bc bd57 2b3d 40f4 2ebd 9261 3dbc
00000350: 1d5a 81bb 7f81 9cbd e95d 96bd fed4 77bd
00000360: 6082 97bd e636 873c ef1a f1bc a547 babd
00000370: 8859 32bd f91c 80bd ec9b 5b3d 6ce1 f73c
00000380: 6632 433d 4674 383c 0b7c 403d dce3 b0bd
00000390: f780 8ebc 0028 553d e989 e13d 597b a5bb
000003a0: f049 0ebc e980 6bbd 6571 ba3d 23a3 48bb
000003b0: ff16 a7bc 436d 163d 63af c5bd 8ece ed3c
000003c0: beb4 91bd e5ba ffbc aedc c8bc 44b9 91bd
000003d0: 9112 143d 04d7 d73c 6d10 eebc af34 1abd
000003e0: f930 9bbc a928 1d3b 6c09 10bd 556b ff3c
000003f0: 9b0f a3bd c2c5 a6bd 78b2 493d 404b a5bd
-0.02712819 -0.12033819 -0.061370794 -0.09141815 0.03020303 0.030648042 -0.08708492 -0.026926057
-0.069590285 -0.067393765 0.020284902 -0.06559005 0.037031543 0.028449608 -0.037138388 0.046720654
-0.049044028 -0.06020352 -0.024209788 -0.04761124 0.0041828486 0.054141596 -0.060911886 -0.009243854
-0.018163336 0.046286296 -0.009705993 -0.023574596 -0.039638888 -0.057228882 -0.046064418 0.03229842
-0.105018735 0.0065804194 -0.029851021 -0.07265344 -0.040928118 -0.06454669 -0.1020834 -0.08697132
-0.028002147 -0.088229194 -0.026725715 0.047214683 0.041671105 0.06652806 0.033712678 -0.0812647
-0.04745274 -0.07302406 0.041002132 -0.08572216 -0.060326718 -0.011872238 -0.038793933 -0.047423325
0.029222887 0.047396135 -0.019296367 -0.013106918 -0.035828352 -0.030408029 -0.031316154 0.02870576
0.03600463 -0.022178002 -0.003113986 -0.010269465 -0.11753554 0.008278376 -0.06784368 -0.09942393
0.029082801 -0.059748776 -0.02115353 -0.03330128 -0.06645014 -0.043972977 -0.015839845 -0.040961947
0.024832662 0.004380198 -0.07412392 -0.09976514 0.04054086 0.03889982 -0.0061586564 -0.005891829
-0.001846905 0.017645288 -0.1140596 -0.06926416 -0.04834094 -0.05084176 -0.034080286 -0.009805675
-0.085367694 -0.03282566 -0.031900674 -0.08977508 -0.03365118 -0.039369777 -0.0135140885 0.04787785
-0.010497825 -0.049903832 0.00356334 -0.043855738 -0.112036884 -0.09713013 -0.037267916 0.01125281
0.06508681 -0.09322898 0.055433396 0.05488403 0.020147098 -0.010190295 0.015545877 -0.008928973
0.012935171 0.032181166 0.04998028 0.035515875 -0.068788424 -0.07567979 -0.018750848 0.082584515
0.080354765 -0.046568748 -0.0010937002 0.017477645 -0.06939147 -0.14320904 -0.11509294 -0.05498286
-0.009693913 -0.046976347 0.03649011 -0.057478998 0.04993667 -0.03375092 -0.0526916 0.019653784
0.018152121 -0.08794683 -0.104897305 -0.07497904 0.069796175 -0.05242707 0.0553854 0.012016075
-0.058097057 0.045539614 -0.02308015 -0.060590588 0.013087759 0.060890865 0.08242293 -0.023764262
-0.032167375 0.057502855 -0.070680484 -0.023080291 0.06078754 0.07396053 -0.024759471 -0.00930575
-0.027669055 0.06996986 -0.0072979387 -0.071948074 -0.043021392 -0.10817884 -0.022133024 0.011264688
0.00026648596 0.038578708 0.042840756 -0.04534509 0.025833767 -0.016976168 -0.023234777 0.036066074
-0.008634699 -0.035164185 0.0058338274 0.047307786 0.014915127 -0.11188259 -0.08992012 -0.017780114
-0.006465778 -0.051882487 -0.026089149 -0.0088509265 0.052550964 0.0049093147 -0.07061 0.06748535
0.026094697 0.0011138435 -0.05851265 -0.0062437467 0.06340586 -0.059232067 -0.059096813 -0.009735129
-0.030368745 0.04183172 -0.042713404 -0.011558907 -0.00394751 -0.07641887 -0.07342131 -0.06050586
-0.07397914 0.01650567 -0.029431788 -0.09095696 -0.043542415 -0.06255526 0.053615496 0.030258857
0.047655486 0.0112581905 0.046993297 -0.08637211 -0.01739548 0.0520401 0.110126324 -0.0050501046
-0.00868462 -0.057495985 0.091036595 -0.0030614815 -0.020396708 0.036725294 -0.09652593 0.029029157
-0.07114552 -0.031217048 -0.02451929 -0.07115415 0.03615052 0.026347645 -0.029060567 -0.0376479
-0.01894425 0.0023980534 -0.035165235 0.03117911 -0.07961961 -0.08143188 0.049242467 -0.080709934

block1.conv2.bias f4 [64]
00000000: ea60 163c 07b5 bebc 7cd9 c3bd fec8 843d
00000010: 4afc a9bc 66c9 8dbd a062 2bbd ab52 0dbd
00000020: 941e be3b 82e3 8cbd 26fc 94bd 221c 1bbd
00000030: 9c47 49bc 2c4e 50bd 45e5 263c dee7 abbd
00000040: 8d31 c2bd 7f20 f0bc cead ec3c b767 553d
00000050: 1c2f 2f3d e784 82bc 8a86 ccbc b5ca 0c3d
00000060: 1830 8bbd 05da 5a3d a289 6dbc ead5 2dbd
00000070: 0482 d2bc 6139 1aba 232b eebc 2cdc 3ebd
00000080: 7e93 d43d 7608 c23d 7753 b8bd 97de 35bb
00000090: a2c7 053d d7c1 643c 2751 2fbd 7de1 8ebc
000000a0: 3d5e 2d3d de47 dfbb 4159 35bd 5889 133c
000000b0: e18a a4bd e70c 3c3b 2f19 933c 47cb 913c
000000c0: 0dd5 443d 1d9e a73d d136 0f3d a6c8 41bd
000000d0: 00f3 fb3c 5880 61bd ef4a 473d 3562 54bc
000000e0: 8c69 c3bd 067d b53c b218 ad3d fc10 963d
000000f0: fce8 cdbc f01b 33bd 79f9 d43c bf4e 10bd
0.00917838 -0.02327968 -0.09562966 0.06483649 -0.020750184 -0.06923179 -0.041842103 -0.034502666
0.005801985 -0.06879331 -0.07274656 -0.037868626 -0.012285139 -0.0508558 0.010186498 -0.083938345
-0.09482107 -0.02931237 0.02889147 0.052100863 0.042769536 -0.015932513 -0.024966497 0.034373004
-0.067962825 0.053430576 -0.014498146 -0.042440332 -0.025696762 -0.0005883184 -0.029073304 -0.04659669
0.103796944 0.0947427 -0.09000295 -0.0027751082 0.032661088 0.013962231 -0.042802002 -0.017441506
0.0423262 -0.006813987 -0.044274572 0.009004913 -0.080343015 0.0028694214 0.017956344 0.017797126
0.048054744 0.081844546 0.034964386 -0.047310494 0.03075552 -0.05505404 0.048655447 -0.0129628675
-0.09541616 0.022154342 0.08451976 0.07327458 -0.02513551 -0.043727815 0.025997864 -0.035231348

block1.bn2.weight f4 [64]
00000000: 69be 873f 961f 863f 65f9 8c3f 75a7 873f
00000010: 3918 883f 2354 8b3f 04a6 803f d83a 6c3f
00000020: 57a8 873f 660f 833f e682 773f 58b2 833f
00000030: 1f3b 823f 4bc9 863f 4c78 853f 52c6 823f
00000040: dfcb 863f d005 813f a4e0 803f 2c97 7e3f
00000050: db9a 833f 3810 873f 4fd2 833f a507 823f
00000060: a906 7f3f f234 853f e271 7d3f 1314 833f
00000070: 818f 7e3f 4e46 773f 9afc 833f 62c8 7c3f
00000080: 1e21 813f cef2 853f a404 883f 2a4a 7b3f
00000090: 0cf1 803f 68f9 7f3f 5e13 833f 77e4 853f
000000a0: 0a7e 813f 527d 723f 7938 843f ef02 863f
000000b0: 246a 823f 9ccf 783f 1092 7c3f 7b64 823f
000000c0: 06fe 823f c1f8 733f 9b54 833f 26ff 863f
000000d0: f74b 813f b862 853f 83ad 803f 9408 833f
000000e0: bc50 873f 142f 873f 8949 813f 20ba 7f3f
000000f0: 0ac0 803f 0892 7e3f e72d 863f 8cc2 863f
1.0604984 1.0478389 1.1013609 1.0597979 1.0632392 1.0885051 1.0050664 0.9227729
1.0598248 1.0239074 0.9668411 1.0288801 1.0174292 1.053018 1.0427337 1.0216773
1.0530967 1.0079899 1.0068555 0.9944942 1.0281633 1.0551825 1.0298556 1.0158583
0.9961954 1.0406783 0.99001896 1.0240501 0.9943772 0.9659165 1.0311463 0.9874326
1.0088232 1.0464723 1.0626416 0.9816004 1.0073562 0.9998994 1.0240285 1.0460347
1.0116589 0.94722474 1.0329734 1.0469645 1.0188642 0.97191787 0.98660374 1.0186914
1.0233772 0.95301443 1.0260195 1.0546615 1.0101308 1.0420752 1.0052952 1.0236993
1.0571513 1.0561242 1.0100566 0.9989338 1.0058606 0.99441576 1.0482758 1.0528121

block1.bn2.bias f4 [64]
00000000: 63a4 733c 8e94 1c3d 8e42 113d 6dc6 09bc
00000010: 9a30 64bd 0b20 4fbd 7047 32ba 9ae4 9cbb
00000020: 2743 12bd c76a 053d 412f 4ebd e422 c53c
00000030: 85f9 6ebc 3e56 d63b 10e6 093c 81d6 383d
00000040: f104 aa3c 5b5b 0dbd fab8 6abc 438b 14bc
00000050: d13d 88bc e213 15bd daca ec3c 22bc 6d3c
00000060: fc1c b0bd b8d1 ca3b 5fe4 3ebc 52a3 793c
00000070: f204 b23c ddcc 8cbc 9948 8b3c 7cfe dcbb
00000080: d3d0 99bd af98 8c3c 1ec7 c1bc e690 f8bc
00000090: 7122 11bc bb22 153d 9de6 453c 9c55 b3bd
000000a0: de8b a13c 314c 60bd 9a48 b43c ae72 54bc
000000b0: 75eb eabc e639 463c 9479 e4bd 7e18 fbbb
000000c0: 2a3b be3c 47a4 e3bc c8b7 cbbc cb60 bbbb
000000d0: f9a0 b2bd fa65 723b 489f 10bb deee 1f3d
000000e0: bdf4 32bc e45c 1fbd f1f0 c53c 4f6c 12bd
000000f0: 9aa4 cd3b 7103 85bc 6bf1 e93a 8963 7cbc
0.014870736 0.03822761 0.035463862 -0.008409125 -0.055710413 -0.050567668 -0.0006800806 -0.0047879936
-0.035708573 0.032572534 -0.050338034 0.024064489 -0.014585857 0.0065410426 0.008416668 0.045126442
0.02075431 -0.03451095 -0.014326328 -0.009066406 -0.016631039 -0.036395915 0.02890532 0.014510186
-0.08599278 0.006189551 -0.011651128 0.0152366925 0.021730874 -0.01718753 0.01700239 -0.006744204
-0.07510533 0.017162649 -0.023654517 -0.03034253 -0.008858309 0.036410075 0.012078908 -0.08756563
0.019720014 -0.05476016 0.022007275 -0.012966795 -0.028676728 0.012098765 -0.11156002 -0.007662832
0.023221571 -0.027788294 -0.024867907 -0.0057183257 -0.08722109 0.0036987052 -0.0022067595 0.03904616
-0.010922608 -0.038906947 0.024162741 -0.035747822 0.0062757256 -0.016236993 0.0017848437 -0.01540459

block1.bn2.running_mean f4 [64]
00000000: 3298 8abf 9ee5 1fbf c573 58bf d520 7ebe
00000010: f046 043e 700e 69be 57cf 24bd 5e72 8b3e
00000020: 2fae 80be 419b ccbe 7bb5 c5be 7baf bebe
00000030: 6e55 66be c0c7 a93d cd41 873e 7805 41bf
00000040: 311a 95bf 8696 d1bc 11d8 e43e ebac 783c
00000050: a078 3abe 83db 28bf 03be 51bf 2e83 bebe
00000060: db3c 3bbf db24 60be a044 11bf 34a7 16be
00000070: 9324 f7be c564 82be ecd5 173f a4ef f6be
00000080: 17d9 a93e 2a56 013f 2e2d a6be 1bec d53e
00000090: caea cabe b6c4 cabe cff7 65be 85d9 babe
000000a0: 2ea2 12bf 0f4c d1be 76af 063e 1ef9 cb3e
000000b0: aa11 c0bd ebc5 27bf 5ea4 323f 5a33 08bf
000000c0: 48a4 35bf 5395 aabe e6e3 423f 8ef7 92be
000000d0: a83b 17bf 9806 93be a556 953d 7486 b6be
000000e0: d2a5 4fbf 12e5 53be 3286 e33e 6002 cebe
000000f0: 67ed 0abf 0687 16bf 3b6e 03be c82c d93e
-1.0827696 -0.62459743 -0.8455165 -0.24817212 0.12917686 -0.22759414 -0.040236797 0.27235693
-0.25132892 -0.399622 -0.3861502 -0.37243256 -0.22493526 0.082900524 0.2641739 -0.7539897
-1.1648618 -0.02558447 0.44696096 0.015177946 -0.18210077 -0.6595995 -0.8193056 -0.37209457
-0.73139733 -0.21889059 -0.5674534 -0.1471222 -0.4827009 -0.25467506 0.59310794 -0.48229706
0.3317344 0.505221 -0.32456344 0.41781697 -0.39632255 -0.39603204 -0.22457813 -0.3649408
-0.57278717 -0.4087834 0.1315287 0.398385 -0.09378369 -0.65536374 0.69782054 -0.53203356
-0.709538 -0.3331705 0.76128995 -0.28704494 -0.59075403 -0.28715968 0.07291917 -0.35649455
-0.81112397 -0.20692852 0.4443832 -0.40236187 -0.542685 -0.5879978 -0.12835018 0.42416978

block1.bn2.running_var f4 [64]
00000000: 3b38 383f 8df0 253f 55df 003f 98f0 773e
00000010: e020 e73e ad5a be3e 2ffe 893f fbe5 403f
00000020: a1f3 8e3e 774d be3e 85e7 7a3e 82c3 033f
00000030: 4d41 543f 493d 8b3e ef27 ae3e e060 083f
00000040: 002a e03e 16e2 813e 8c2d dd3e 3f02 dd3e
00000050: dc9d e63e eefd a13e d969 853e e861 bd3e
00000060: 2f37 8f3e 44bc 863e cec0 7a3f 4947 bd3e
00000070: f8f1 b73f f391 0a3f e0a3 713e 0005 933e
00000080: 582e 953e fdd1 6b3f c788 a23e 8247 8e3e
00000090: 790d 643f 7892 f33e c767 f23e b70a 9f3e
000000a0: 6b55 5d3f 0a8e 4f3f 18bb f53e 84d2 a63e
000000b0: 0e8d cc3e a23b 073f 8d7b ee3e 735f c73e
000000c0: 5bd8 c93e 3add 7b3f eea0 073f 9b3a c13e
000000d0: f002 413f 6249 803e b09d 023f f3b4 4a3f
000000e0: 6521 303f a057 a33e 9179 173e 4bea cc3e
000000f0: 23b4 263f 1b53 8a3f 8f64 d53e 345c 3e3e
0.719608 0.64820176 0.5034078 0.24212873 0.4514227 0.37178555 1.0780696 0.7535092
0.2792025 0.37168476 0.2450238 0.51470196 0.8291214 0.27195194 0.34014842 0.5327282
0.43782043 0.25367802 0.43198812 0.43165776 0.45042312 0.31639045 0.26057318 0.3698876
0.2797179 0.2631551 0.97950447 0.3696845 1.4370718 0.5412895 0.2359767 0.28714752
0.2913692 0.9211729 0.31744978 0.2778893 0.8908306 0.47572684 0.473448 0.31062862
0.8645846 0.8107611 0.47994304 0.32582486 0.39951366 0.5282537 0.46578637 0.3894001
0.3942288 0.9838444 0.52979934 0.37740025 0.7539511 0.25055987 0.5102186 0.79182357
0.68800956 0.3190279 0.14792468 0.400225 0.65118617 1.0806612 0.41678283 0.1858986

block2.conv1.weight f4 [64, 64, 3]
00000000: f943 0a3c 46c8 ca3d 4b0e 3e3d 6013 a13c
00000010: 2c15 43bd 4b56 363d 65f0 09bd 4cf8 0ebd
00000020: a3d6 9d3d 8e45 1e3c dd6e 943d d0bd 2f3d
00000030: 11df 793d 732b 663d eeb7 6fbc 4b02 2bbc
00000040: f2c2 5f3c e847 493c 004f 843d 2931 8b3c
00000050: 9b04 8e3d 48bb 003c 2af2 023d 2163 79bd
00000060: e063 9d3c 40d1 ba3c 5983 703c 3946 613d
00000070: a99a bb3c e16a aa3d 7240 e6bc 8317 9d3d
00000080: d94f 1e3d 00d5 b43b b000 433c 7d64 253d
00000090: a8e9 b4bc 800a e0bc 95f8 563c 7172 b9bc
000000a0: 4372 14bd 6fb2 243d d733 633d dcc8 03bd
000000b0: f8f7 27bd 584c 6e3b 4bfe a03d 5648 de3d
000000c0: 2136 023d 79d7 223d e185 233d 7162 00bc
000000d0: 7c74 afbc 5e8f 6f3c a816 0e3d ef7b bf3b
000000e0: ea84 ac3d 2eb8 c83c 7c12 1d3b 2e9f a93d
000000f0: cbdb bc3c 0cc5 1e3c 8f88 80bc 66aa 7dbd
00000100: 4d44 c83b d048 37bb 3bb6 833d b20b e13d
00000110: 0e6d 7cbc 8a8a 6f3d a629 643d f0d5 0b3d
00000120: 9bb9 8a3d e965 6f3d 244e 1bbd 62d8 d4bb
00000130: f636 f93c 983b 843d d37a 743d 4563 f83c
00000140: 2b96 3cbd 1a16 6fbc 8dc6 a03d 4c0c 4a3d
00000150: b7a4 e63c 313d 633d 1b78 553c 033b 603d
00000160: 78c2 fdbc 7716 08bd a2a6 ab3d 7599 0f3c
00000170: abab 26bd 1b64 9a3d 8f47 1b3d 35ee 423d
00000180: 369c a73d 2752 8ebc b85d 313d 387b dd3d
00000190: 94be b7bc 01cd 81bd 33a8 fa3c 67a7 6ebc
000001a0: ace8 f4bc 1665 0b3c 838f 543b 0861 923c
000001b0: f0a4 0bbd 7174 553c dc27 a73d 5853 9f3c
000001c0: 8056 dc3c 6ebb a1bd 4587 a73d 9922 d23d
000001d0: 4a10 a53d 8185 633d 54fd 653d 872a 7cbd
000001e0: e792 44bd cbda 2ebd 19be 9b3d c9c1 7dbd
000001f0: ae47 60bd 91f3 3dbd 2a81 25bc 7d60 68bd
00000200: 0ccb 453d bb0d f03c 74bb 71ba ee5f 603c
00000210: 11d6 093c a72f 78bd a5d2 883c 5fad beba
00000220: 6754 09bd ba6a 953d 4194 5c3d db5a 333d
00000230: ff7a ca3c f3c0 dfbc d904 52bb 2d1d 62bc
00000240: 6afc 2bbc a279 42bb 4cf8 073d ec66 9fbc
00000250: f7d5 1bbd 0586 b83d 48c7 2e3d 13c1 9e3c
00000260: 134c 593a 76a4 533b 9627 06bc 2968 7d3c
00000270: 962f 243d 0cd1 87bd 52bc 883c 8dbd cdbb
00000280: b586 08bc 7c71 843d ecec 2bba 6534 94bd
00000290: 0711 12bc 9ffa ca3b 1c8d a83c 2206 383d
000002a0: 787b 143d 6dd9 bf3c f27f 8c3d 510a 73bd
000002b0: 73e5 8dbd 50b3 b2bd 24cf 1abd 5bb9 893c
000002c0: 470c 6d3c b58f 1cbc a17d 5f3d bed7 9abd
000002d0: e3fb 423c 3dfe cbbc bb3d f3bb 3d1b 80bc
000002e0: 0e62 87ba 306d 1dbc 1568 0b3d d29a ecbc
000002f0: e119 263d 8b45 763c ef4c a8bc e8ec 00bd
00000300: e6a0 26bd c051 8fbc 44ee dd3c 4660 7ebd
00000310: 18fc 27bd 3d6c f3bc 719f 3c3d 7e0b 323d
00000320: 1634 073d 377f 443d 6c30 b33c 782a 33bc
00000330: 98c0 26bc 87c4 8bbd 87bb 8c3d de25 d83d
00000340: f0b8 a73c 0af9 a13d 7e6a 9abd a045 82bd
00000350: c427 013d bdfe c1bb 53ee 2cbd b6e3 4f3d
00000360: c898 903c 9b26 913c 6610 623d e673 c6bc
00000370: 6cbe a63c 1e3a a3bd d96a 4abd cb10 31bb
00000380: 5607 1ebc 2350 6fbd 0a87 993d e929 5abc
00000390: be0d 93bd 6943 da3c c50f 04bd 8242 a73d
000003a0: bb8e 6cbd 7579 eb3b 3c8c 85bd 1ff3 18bd
000003b0: 06da 583d 45f8 fc3c b256 9abd 7d97 36bc
000003c0: 5de6 a33c 0a9f c03c f870 483d 8c65 a13d
000003d0: b091 503d e38a 1e3d 07fd 27bd dc03 efbc
000003e0: be47 b2bb 10ce 80bc 42b9 0cbd fa28 e03c
000003f0: 6345 8abd f30a 4cbd 6f5a 7d3c 6f06 eb3c
0.0084390575 0.099014804 0.04640035 0.019662559 -0.047627613 0.04451589 -0.033676524 -0.034904763
0.07706954 0.009660138 0.07247708 0.04290563 0.06100375 0.05619378 -0.014631255 -0.010437558
0.013657318 0.01228521 0.064603806 0.016991215 0.06934472 0.007857151 0.031969227 -0.060885552
0.019212663 0.022804856 0.014679753 0.05499861 0.022900896 0.08321167 -0.028106902 0.076705
0.038650367 0.0055185556 0.011902019 0.040379036 -0.022084072 -0.027348757 0.01312079 -0.022637578
-0.03624178 0.04020923 0.05546936 -0.032173976 -0.041007966 0.0036361422 0.078610025 0.10853641
0.031789903 0.039756272 0.0399226 -0.00783597 -0.021417849 0.014621584 0.034689575 0.0058436315
0.08423789 0.024501886 0.0023967316 0.08282314 0.023054024 0.009690534 -0.015690116 -0.061930083
0.0061116577 -0.0027966984 0.06431242 0.10988559 -0.01540686 0.05848173 0.05570378 0.034139574
0.06773683 0.0584468 -0.037916318 -0.0064955214 0.030421715 0.06456679 0.059687447 0.030320773
-0.04604165 -0.014592672 0.078503706 0.049328133 0.028154714 0.05547828 0.013029124 0.054743778
-0.030976519 -0.03322455 0.08381392 0.008764614 -0.04069106 0.07538625 0.03791004 0.047590453
0.08184092 -0.017373158 0.043302268 0.10814518 -0.022429742 -0.063379295 0.030597782 -0.014566279
-0.029896103 0.0085079875 0.0032434172 0.017868534 -0.034092844 0.01302825 0.081618994 0.019448921
0.026896715 -0.078970775 0.081800975 0.10260505 0.080597475 0.05554724 0.056149796 -0.061563995
-0.04799166 -0.042689126 0.076046176 -0.061952386 -0.05475586 -0.04637486 -0.010101596 -0.056732643
0.048289344 0.029303422 -0.0009221353 0.013694746 0.008412854 -0.06059232 0.016702006 -0.0014547518
-0.033527758 0.07295747 0.053852323 0.04378782 0.024716852 -0.027313685 -0.0032046346 -0.013800901
-0.010497192 -0.002967455 0.03319578 -0.019458257 -0.03804585 0.09009937 0.04267052 0.019379174
0.0008289229 0.0032294071 -0.008188149 0.015466728 0.040084444 -0.066316694 0.01669136 -0.0062786997
-0.008332898 0.06466958 -0.00065584364 -0.07236556 -0.008915192 0.006194427 0.020575099 0.044927724
0.03625056 0.023419106 0.06860341 -0.05933601 -0.069285296 -0.087256074 -0.0377952 0.016812017
0.014468259 -0.009555747 0.05456317 -0.07560681 0.011900875 -0.024901504 -0.0074231303 -0.015637988
-0.0010328905 -0.009608552 0.034034807 -0.028882418 0.040552024 0.015031229 -0.020544497 -0.03147593
-0.04068079 -0.017495036 0.027091153 -0.062103532 -0.0410119 -0.029714698 0.046050493 0.04346799
0.033008657 0.047972884 0.021873675 -0.010935418 -0.010177754 -0.06824594 0.068717055 0.105540976
0.020473927 0.079088286 -0.07539843 -0.06360936 0.031532064 -0.0059202597 -0.04221947 0.05075427
0.017650977 0.017718604 0.05519142 -0.024225187 0.020354472 -0.07970069 -0.049418304 -0.0027018066
-0.009645304 -0.058426034 0.0749646 -0.013315656 -0.071803555 0.026643472 -0.0322416 0.08166982
-0.057753306 0.0071861097 -0.06520888 -0.037341233 0.0529423 0.030880103 -0.07536067 -0.011144516
0.020007307 0.023513336 0.04893586 0.07880697 0.05092019 0.03870667 -0.04101279 -0.029176645
-0.0054406812 -0.015723258 -0.034356363 0.02736329 -0.06751516 -0.04981513 0.015463456 0.028689591

block2.conv1.bias f4 [64]
00000000: a6fa abbb c696 3bbd 8835 30bd dd5d 073d
00000010: 20a1 3a3d f161 863d 4e0b 52bc 701d c33d
00000020: 2b7e f3bc cc61 4e3d 5277 1f3c 6251 6d3d
00000030: 3678 8fbd a78a 78bc de7e 05bd c56a 90ba
00000040: ed00 bf3d ca51 813d 8323 7a3d 261e 433c
00000050: eace 05be 2497 c6bc 90ad debc 1755 8b3c
00000060: 539a 613d 5221 7f3c 0f76 2dbc 1c4e 9bbb
00000070: f7bf d1bc fe13 273b 0dd8 b4bc b2e3 aebd
00000080: 24ee 39bd f141 4d3d b53c bcba 239b 3f3d
00000090: 67ae c7bd 3fdc 39bb d74d 393d 2e01 133d
000000a0: fc13 ffbc 4576 893d c6a4 9f3d fd86 81bd
000000b0: 4128 84bd 8515 353d 91d7 1d3c 729d 5c3d
000000c0: a4cf 29bd 6260 e43c a085 01bd 6e1f f9bc
000000d0: 1842 a03c 0fbc c93c 4867 0b3c be57 4dbd
000000e0: e732 47bd 5ee1 973d 086c 993d bebb 633c
000000f0: bcf3 55bd 9f10 a6bd 3e83 b43b 10d8 553c
-0.0052483855 -0.045798086 -0.0430198 0.0330485 0.045563817 0.065616496 -0.012820078 0.09527099
-0.029723248 0.050386235 0.009733038 0.05793894 -0.0700535 -0.015169776 -0.032591693 -0.0011018148
0.093263485 0.06314428 0.061069023 0.011909043 -0.13067213 -0.024241991 -0.02718237 0.017008347
0.055078816 0.015571909 -0.010587229 -0.004739536 -0.025604231 0.0025494094 -0.022075677 -0.08539523
-0.045393124 0.050111715 -0.0014361354 0.04677881 -0.097500615 -0.0028360037 0.04524025 0.035889797
-0.031137459 0.06712011 0.077951 -0.06324575 -0.0645299 0.044209976 0.009633915 0.05386109
-0.041457787 0.02787799 -0.031621575 -0.030410495 0.019562766 0.024625806 0.008508511 -0.050132506
-0.04863253 0.07416032 0.074913085 0.013899742 -0.052234396 -0.08108639 0.0055088094 0.013052002
