ecg_afib_detection/checkpoints/ptbxl/500hz/resnet1d/fold_4/last.pt (torch, 339167 bytes, 44 tensors)

stem.0.weight f4 [64, 12, 7]
0.058266852 0.07619118 0.016650345 0.0014674099 -0.021031296 0.07213796 0.042716607 0.0023752593
-0.060112692 0.081512496 -0.09227211 -0.028113531 -0.053200338 -0.022992112 -0.013824563 0.043377046
0.08144092 0.10031938 0.017129712 -0.018393245 -0.019603679 -0.070196934 -0.09164266 0.0925067
-0.06604757 -0.109165974 0.07490152 -0.009568672 0.07778915 -0.039893907 0.07784851 0.06451698
-0.028476391 -0.08028326 0.013093961 -0.060347736 0.14263706 0.09212126 0.07133106 0.04885753
0.023331191 0.13144419 0.12718692 -0.02864811 -0.08651281 0.0296583 -0.019575981 0.039139025
-0.037534893 0.03279183 0.086823136 0.0755799 -0.040634252 -0.08523973 -0.06485785 0.096132964
-0.022007685 -0.021349665 0.061124504 0.089500085 0.050386533 -0.0028072686 0.010069524 0.08894344
0.00771594 0.12715524 0.10757719 0.03753441 0.09196545 0.011983628 0.012843784 -0.027488634
0.055804938 0.004772883 0.045554582 0.037599918 -0.002723913 -0.016489478 0.10880365 -0.0009183816
0.11034153 0.13647772 0.009324665 0.11554108 0.015586122 0.088657245 0.034531828 0.08657117
0.059656557 0.07387017 0.030308113 0.04759044 0.09779041 0.013072796 0.019096162 -0.0050349813
0.04584742 -0.055288553 0.012794437 -0.035358496 0.057014994 0.048911735 -0.102047734 0.09415304
-0.086716585 0.0030177026 -0.037787903 0.061733793 0.086651534 0.020293977 0.102511905 -0.007333385
-0.066179864 0.07728783 -0.01394874 -0.109835684 -0.06904683 -0.110458806 -0.08088587 0.029977681
-0.0029782439 -0.104024135 -0.08612977 0.09911876 -0.06633196 0.05602589 -0.09205057 -0.07899608
0.0063251276 0.008070857 -0.05642246 0.056831278 -0.056463834 -0.10543155 -0.0382581 0.031114232
-0.035434183 -0.10900746 -0.09014891 -0.06183795 0.060620964 0.021287149 0.05578072 0.015894635
0.10108436 -0.108623445 -0.036984395 0.06570062 -0.024436172 -0.0027260338 -0.012252633 -0.11274903
0.030089678 -0.12738936 -0.067702845 -0.06406701 0.040428985 -0.048272204 -0.08879846 -0.07382011
-0.07887926 -0.06326066 0.10305903 -0.0011632435 0.060423583 -0.109757155 0.049416848 -0.09530008
0.047684293 -0.0022609027 -0.086965084 0.08289525 -0.0097958585 -0.07839396 0.1336141 -0.03698316
0.0010229426 0.02832267 -0.12381177 0.057907466 -0.12834334 -0.06477174 -0.04872882 0.019989384
-0.008824787 -0.045435138 -0.06805522 0.06980266 -0.03079773 -0.06848517 0.007555681 -0.0711949
-0.038797148 -0.06045725 -0.032335352 -0.056752864 -0.14681432 -0.1417048 -0.09236935 0.041434493
-0.06400254 0.041283302 0.12805188 0.10484245 -0.038108125 0.079642236 -0.050293237 -0.06798402
0.064688876 -0.027733058 -0.0873677 0.029224807 0.08680944 -0.09806572 -0.071103044 -0.11081925
-0.084668756 -0.048189327 0.04203503 -0.10950011 -0.0862482 0.070621036 0.1093775 -0.026646862
-0.13983196 -0.0037904077 0.014758267 0.03390299 -0.0138982115 0.10426432 0.035605684 -0.0031711014
0.01658231 0.023517972 0.014858747 0.11399434 0.16825354 0.14224713 -0.08233729 -0.13837142
-0.14547868 -0.0388194 0.0147071555 0.058900166 0.03566885 -0.03796466 -0.06687937 -0.02921775
0.028333843 -0.12011256 -0.016619198 0.078487314 0.0966174 -0.08690642 0.016710471 0.119419515
00000000: 39a9 6e3d 1f0a 9c3d 4e66 883c 1b56 c03a
00000010: d349 acbc 11bd 933d 9cf7 2e3d 3daa 1b3b
00000020: ba38 76bd 06f0 a63d 29f9 bcbd 594e e6bc
00000030: 99e8 59bd f459 bcbc 6b80 62bc 21ac 313d
00000040: 7fca a63d 3f74 cd3d 9c53 8c3c 6ead 96bc
00000050: e597 a0bc 69c3 8fbd 26af bbbd 2774 bd3d
00000060: f343 87bd 6992 dfbd f865 993d ebc5 1cbc
00000070: eb4f 9f3d cb67 23bd 0a6f 9f3d 7a21 843d
00000080: 5247 e9bc 8d6b a4bd 0e88 563c 302f 77bd
00000090: 730f 123e 12aa bc3d 0516 923d d51e 483d
000000a0: 0e21 bf3c 4e99 063e 4a3d 023e 71af eabc
000000b0: a12d b1bd f7f5 f23c cf5d a0bc 3e50 203d
000000c0: 30be 19bd ba50 063d 54d0 b13d a2c9 9a3d
000000d0: 1a70 26bd 2b92 aebd 31d4 84bd 5ce1 c43d
000000e0: 7649 b4bc 7ee5 aebc b05d 7a3d d24b b73d
000000f0: 1c62 4e3d 27fa 37bb a5fa 243c fa27 b63d
00000100: ffd5 fc3b fc34 023e 6e51 dc3d aebd 193d
00000110: 6258 bc3d fb56 443c bc6e 523c d82f e1bc
00000120: b893 643d d865 9c3b 7197 3a3d 5f02 1a3d
00000130: ad83 32bb f114 87bc 73d4 de3d 8cbf 70ba
00000140: bdfa e13d d1c0 0b3e 7bc6 183c cda0 ec3d
00000150: ef5c 7f3c ee91 b53d 3f71 0d3d 3a4c b13d
00000160: 6f5a 743d 3e49 973d b848 f83c 31ee 423d
00000170: 5746 c83d 482f 563c 8e6f 9c3c 7cfc a4bb
00000180: 81ca 3b3d 4076 62bd c29f 513c 12d4 10bd
00000190: 8e88 693d ac57 483d 67fe d0bd 4fd3 c03d
000001a0: 7798 b1bd a6c4 453b 7dc7 1abd 93dc 7c3d
000001b0: 5c76 b13d 8e3f a63c c3f1 d13d e44c f0bb
000001c0: 4f89 87bd 1549 9e3d 4289 64bc 88f1 e0bd
000001d0: 6d68 8dbd 3a38 e2bd 7ea7 a5bd c193 f53c
000001e0: a42e 43bb 9b0a d5bd ce64 b0bd c7fe ca3d
000001f0: 0dd9 87bd 677b 653d 0285 bcbd b2c8 a1bd
00000200: 0443 cf3b a13b 043c 3d1b 67bd eac7 683d
00000210: 9f46 67bd 7fec d7bd 87b4 1cbd 46e3 fe3c
00000220: 6f23 11bd 4e3f dfbd fe9f b8bd ca49 7dbd
00000230: b04d 783d 6362 ae3c 537a 643d 7735 823c
00000240: 5105 cf3d f875 debd f37c 17bd 0c8e 863d
00000250: 5e2e c8bc 42a7 32bb 45bf 48bc f7e8 e6bd
00000260: a17e f63c 5b72 02be caa7 8abd 9135 83bd
00000270: dd98 253d 13b9 45bd f8db b5bd ff2e 97bd
00000280: 738b a1bd ce8e 81bd 9d10 d33d fa77 98ba
00000290: b87e 773d 5cc8 e0bd 5269 4a3d b02c c3bd
000002a0: 9b50 433d a72b 14bb c01a b2bd fcc4 a93d
000002b0: cf7e 20bc 038d a0bd 22d2 083e a77b 17bd
000002c0: 4214 863a f204 e83c 0691 fdbd 6130 6d3d
000002d0: 706c 03be 0ca7 84bd df97 47bd c7c0 a33c
000002e0: d795 10bc 321a 3abd 8960 8bbd b2f4 8e3d
000002f0: 854b fcbc f441 8cbd a595 f73b a2ce 91bd
00000300: c2e9 1ebd 05a2 77bd 1372 04bd b175 68bd
00000310: 7e56 16be 101b 11be 242c bdbd 37b7 293d
00000320: c413 83bd ae18 293d 0820 033e a3b7 d63d
00000330: 4417 1cbd 781b a33d 4800 4ebd 353b 8bbd
00000340: 9a7b 843d 7030 e3bc d6ed b2bd dd68 ef3c
00000350: 26c9 b13d aed6 c8bd 799e 91bd 34f5 e2bd
00000360: d066 adbd 2c62 45bd ec2c 2c3d 9841 e0bd
00000370: e5a2 b0bd c3a1 903d 5001 e03d 854a dabc
00000380: 1c30 0fbe 7d68 78bb a9cc 713c dddd 0a3d
00000390: 53b5 63bc 8888 d53d 44d7 113d 41d2 4fbb
000003a0: a0d7 873c c3a8 c03c 1a72 733c dd75 e93d
000003b0: a84a 2c3e 3ba9 113e 74a0 a8bd 3db1 0dbe
000003c0: 5df8 14be 1701 1fbd 48f6 703c 4d41 713d
000003d0: 8019 123d d580 1bbd 0df8 88bd 105a efbc
000003e0: 601c e83c 93fd f5bd fc24 88bc f5bd a03d
000003f0: 58df c53d fefb b1bd 66e4 883c 3892 f43d

stem.0.bias f4 [64]
-0.092696145 -0.07628246 -0.062408637 -0.09526115 0.021635592 -0.02413644 0.025642533 -0.10384581
-0.030476447 -0.0024411972 -0.050158348 0.067086995 0.08069496 0.044610683 0.027839119 0.04132232
-0.027849395 -0.08174876 0.10094101 0.020446723 0.019194195 -0.043762002 0.13747811 0.032607883
-0.014921899 0.0021492173 0.041900806 -0.020115558 -0.026395563 -0.06408037 0.095052816 0.06389988
0.052449398 -0.028210409 -0.07483653 0.0037116336 -0.028945912 -0.09122687 -0.0370002 0.016386647
-0.16551921 -0.018715946 0.036614314 -0.04709429 -0.03233002 -0.08961202 -0.03961212 -0.007927367
0.04388229 -0.01339856 0.11490132 0.0879197 0.045787845 -0.08705771 -0.010246393 0.081304744
-0.07239894 -0.036668528 -0.08064144 0.020731352 0.09036604 -0.06294586 0.01604672 -0.06590074
00000000: 7ad7 bdbd fa39 9cbd 33a0 7fbd 4718 c3bd
00000010: 203d b13c c9b9 c5bc 4a10 d23c 1dad d4bd
00000020: bea9 f9bc 7efc 1fbb d772 4dbd e864 893d
00000030: 6643 a53d b1b9 363d dd0e e43c 9841 293d
00000040: 6a24 e4bc e56b a7bd 29ba ce3d e37f a73c
00000050: 253d 9d3c c93f 33bd 10c7 0c3e d88f 053d
00000060: fb7a 74bc e2d9 0c3b 2ea0 2b3d 62c9 a4bc
00000070: 823b d8bc 923c 83bd 0dab c23d f1dd 823d
00000080: 2ed5 563d 8419 e7bc e543 99bd e13e 733b
00000090: fa1f edbc 27d5 babd 868d 17bd 4a3d 863c
000000a0: de7d 29be 2f52 99bc e4f8 153d f1e5 40bd
000000b0: 7c6c 04bd 8286 b7bd 5140 22bd cae1 01bc
000000c0: ebbd 333d a285 5bbc 6251 eb3d 3e0f b43d
000000d0: 098c 3b3d 504b b2bd 7de0 27bc 1a83 a63d
000000e0: e545 94bd bd31 16bd 5727 a5bd ccd4 a93c
000000f0: d511 b93d c2e9 80bd 6974 833c f8f6 86bd

stem.1.weight f4 [64]
0.935566 1.0284225 0.9894498 0.99125946 1.0255973 0.9763458 0.98176473 1.0182215
1.0047288 1.003938 1.0281973 1.0324415 1.0354152 1.0172714 1.0099322 1.0243323
0.929458 1.0073535 1.0008333 1.0030905 1.0074958 0.98725337 0.9949536 1.0203183
1.02156 1.0054457 0.9075903 0.9771754 0.9989945 0.9728197 1.0467302 0.99410003
0.9711878 1.0326447 0.9136828 1.0236882 0.9499145 0.9607568 0.9938497 0.9511033
0.9494261 1.0148658 0.9663472 1.024591 1.037577 0.9272363 1.0153902 1.0097075
1.0007997 1.0401484 1.0004033 0.9946064 0.97665054 1.019064 1.0041175 1.0090684
1.0084826 0.91945624 1.0271468 0.9831374 0.9947037 1.0101665 0.9563632 1.0460612
00000000: 4181 6f3f 59a3 833f 954c 7d3f 2ec3 7d3f
00000010: c646 833f ccf1 793f ef54 7b3f 1555 823f
00000020: f49a 803f 0a81 803f f89b 833f 0b27 843f
00000030: 7c88 843f f335 823f 7545 813f 521d 833f
00000040: f6f0 6d3f f6f0 803f 4e1b 803f 4565 803f
00000050: 9ff5 803f a3bc 7c3f 47b5 7e3f ca99 823f
00000060: 7ac2 823f 72b2 803f d757 683f 2b28 7a3f
00000070: 1bbe 7f3f b60a 793f 41fb 853f 577d 7e3f
00000080: c39f 783f b42d 843f 1ee7 693f 3708 833f
00000090: 992d 733f 28f4 753f ef6c 7e3f 827b 733f
000000a0: 970d 733f 1fe7 813f 8862 773f cc25 833f
000000b0: 53cf 843f 5c5f 6d3f 4ef8 813f 183e 813f
000000c0: 341a 803f 9523 853f 370d 803f 869e 7e3f
000000d0: c505 7a3f b070 823f ec86 803f 2729 813f
000000e0: f515 813f 7c61 6b3f 8c79 833f e5ae 7b3f
000000f0: e7a4 7e3f 234d 813f 38d4 743f 55e5 853f

stem.1.bias f4 [64]
-0.042820513 -0.0052705603 -0.029327078 -0.0054677995 -0.03529844 -0.060358055 -0.041255157 -0.00089511013
-0.025820557 -0.00013532578 0.02382754 0.008399146 0.07211347 -0.016369076 0.018225051 0.01725815
-0.03465528 -0.010566861 0.041601352 0.045691878 -0.03862851 0.040076338 -0.0780624 -0.060836397
-0.018419052 0.026704831 -0.016950665 -0.04781936 0.037700143 -0.026701486 -0.10190805 0.0047518103
-0.08132905 0.0074403323 -0.049121723 -0.017379496 -0.05159627 -0.03084395 0.020519964 -0.011989589
0.003240967 -0.029493567 -0.06643096 -0.09588078 -0.0008785156 -0.043169986 -0.045059323 -0.03101169
0.0038970592 -0.021196833 0.035383776 0.004513348 -0.0147047145 0.004871481 -0.0590954 0.012642781
0.0076040085 -0.0864908 -0.05173828 -0.015198278 0.026237499 0.004929765 0.040925447 -0.048674308
00000000: 9064 2fbd aab4 acbb 573f f0bc 3a2b b3bb
00000010: 1995 10bd 023a 77bd 2bfb 28bd d3a5 6aba
00000020: a285 d3bc 3de6 0db9 f931 c33c 929c 093c
00000030: 3ab0 933d 7118 86bc b44c 953c f760 8d3c
00000040: b2f2 0dbd a120 2dbc 2e66 2a3d 6827 3b3d
00000050: ee38 1ebd 1627 243d 2edf 9fbd 962f 79bd
00000060: 8de3 96bc 17c4 da3c 1fdc 8abc 3cde 43bd
00000070: 776b 1a3d 13bd dabc 2bb5 d0bd 13b5 9b3b
00000080: d88f a6bd 08ce f33b dc33 49bd 725f 8ebc
00000090: 9c56 53bd 74ac fcbc 7c19 a83c fb6f 44bc
000000a0: 6766 543b 7e9c f1bc f50c 88bd 245d c4bd
000000b0: 2f4c 66ba 03d3 30bd 2090 38bd 3a0c febc
000000c0: ce65 7f3b fba4 adbc 94ee 103d b5e4 933b
000000d0: 0bec 70bc f2a0 9f3b 050e 72bd ab23 4f3c
000000e0: 0c2b f93b 1722 b1bd 85eb 53bd 3302 79bc
000000f0: 06f0 d63c de89 a13b 71a1 273d b65e 47bd

stem.1.running_mean f4 [64]
-0.09271496 -0.07626629 -0.06242808 -0.09524609 0.02179112 -0.02414593 0.025636418 -0.10384853
-0.030502956 -0.002434523 -0.05020333 0.067092344 0.08063406 0.044562425 0.027865535 0.04129414
-0.02785464 -0.081726834 0.10094188 0.020465892 0.019255169 -0.043759614 0.13754871 0.032615155
-0.0148954345 0.0021321138 0.041890398 -0.020145403 -0.026400061 -0.0641305 0.09503201 0.06390681
0.05243778 -0.028151143 -0.074824534 0.003693667 -0.028945614 -0.09124071 -0.03694272 0.016385151
-0.16552204 -0.018717874 0.036646117 -0.047103357 -0.032329716 -0.08960702 -0.039669648 -0.007933571
0.04390037 -0.013392737 0.114889026 0.08812792 0.045800693 -0.087048605 -0.0102501875 0.08121805
-0.07239127 -0.03669064 -0.080647945 0.020720122 0.09035969 -0.06294114 0.016063863 -0.06591329
00000000: 57e1 bdbd 8031 9cbd 96b4 7fbd 6210 c3bd
00000010: 4a83 b23c afcd c5bc 7703 d23c 8aae d4bd
00000020: 56e1 f9bc 858c 1fbb 02a2 4dbd b667 893d
00000030: 7823 a53d 1787 363d 4346 e43c 0b24 293d
00000040: 6a2f e4bc 6660 a7bd 9eba ce3d 16a8 a73c
00000050: 04bd 9d3c 483d 33bd 92d9 0c3e 7897 053d
00000060: fb0b 74bc efba 0b3b 4495 2b3d f907 a5bc
00000070: f144 d8bc da56 83bd 24a0 c23d 93e1 823d
00000080: ffc8 563d 3a9d e6bc 9b3d 99bd 7311 723b
00000090: 5a1f edbc 69dc babd 4051 17bd 273a 863c
000000a0: 9c7e 29be 3a56 99bc 3d1a 163d 73ef 40bd
000000b0: 2a6c 04bd e383 b7bd a47c 22bd cffb 01bc
000000c0: e0d0 333d 366d 5bbc f04a eb3d 697c b43d
000000d0: 8299 3b3d 8a46 b2bd 67f0 27bc a655 a63d
000000e0: e041 94bd ed48 16bd c02a a5bd 3fbd a93c
000000f0: 800e b93d 49e7 80bd 5d98 833c 8cfd 86bd

stem.1.running_var f4 [64]
2.0520697 0.5643984 0.32621667 0.47650933 1.2721376 0.39227313 0.50417733 1.1702557
0.26396987 0.374376 0.19103289 1.0848259 0.12620059 1.5383302 0.42334354 0.7018066
1.3700837 0.46709976 0.7127505 0.5656243 0.72548616 0.27982485 0.7093651 0.29901946
0.08545263 1.1142615 1.3631866 0.19306296 0.43827254 0.47914082 1.6181309 0.22214234
0.4348959 0.3058066 0.9672117 0.2423933 0.81700087 0.6928598 0.75950754 0.4660717
0.506227 0.26202038 0.64190936 0.3125117 0.4864777 1.5008204 0.47969422 0.5686034
1.9604867 0.28848034 0.67556626 0.59515035 0.45403218 0.22504614 1.7570738 0.9262334
0.33713555 0.7145883 0.49948487 1.7928816 0.7380318 0.33023408 1.3943471 0.1783983
00000000: 1c55 0340 6a7c 103f df05 a73e 08f9 f33e
00000010: 68d5 a23f 06d8 c83e c411 013f f0ca 953f
00000020: 0f27 873e 36ae bf3e 209e 433e 93db 8a3f
00000030: ba3a 013e 01e8 c43f 7cc0 d83e 99a9 333f
00000040: e75e af3f b327 ef3e d176 363f c1cc 103f
00000050: 76b9 393f 3445 8f3e f498 353f 1419 993e
00000060: ca01 af3d 1fa0 8e3f e67c ae3f 4cb2 453e
00000070: 4265 e03e f251 f53e ea1e cf3f 4879 633e
00000080: adaa de3e af92 9c3e 309b 773f f335 783e
00000090: f826 513f 435f 313f 166f 423f f3a0 ee3e
000000a0: 1898 013f 8927 863e 2c54 243f 8901 a03e
000000b0: 9b13 f93e e21a c03f 7b9a f53e fe8f 113f
000000c0: 3af1 fa3f b2b3 933e e9f1 2c3f c65b 183f
000000d0: e876 e83e 7f72 663e cbe7 e03f a21d 6d3f
000000e0: 089d ac3e 42ef 363f 7bbc ff3e 257d e53f
000000f0: a7ef 3c3f 7114 a93e f779 b23f 0bae 363e

block1.conv1.weight f4 [64, 64, 3]
0.06718467 0.04584772 -0.024179386 -0.0556061 -0.06820658 -0.058208294 -0.10344086 -0.05225825
0.04773607 0.03660215 0.06988451 0.061890878 0.12317357 0.04502919 0.106465764 0.0102270385
0.03725419 0.051510997 -0.116936535 -0.025592476 -0.033723213 0.010592407 -0.031395968 0.086503886
0.01257409 0.050377347 0.024051514 0.015747188 -0.017716516 0.025131533 -0.062847376 -0.023444735
0.026262641 -0.003758757 -0.0012946924 0.07909944 -0.004883952 0.09170022 0.10999545 0.05432701
-0.03413728 -0.06654355 -0.06622047 -0.008730483 0.0012757954 0.05405236 -0.050626673 -0.020354552
-0.033386197 -0.016924147 -0.029329535 0.055602342 0.027594179 -0.08997904 0.025500929 -0.004883351
-0.04248009 0.011262459 0.027879551 -0.039776534 -0.058750674 -0.01222855 -0.023975613 -0.03404342
0.038172696 -0.019817267 -0.09510835 -0.06390042 0.009694873 -0.032939017 -0.047343697 0.050221387
-0.0263278 -0.0039516133 -0.021084927 -0.032061618 -0.005798664 0.0027289172 0.055649433 0.06110374
-0.0055271876 -0.09886213 -0.073859885 0.059021976 -0.06429794 -0.080610864 -0.03251572 -0.03645238
-0.052447442 -0.042686 -0.020287761 -0.01316972 0.046226446 0.022482935 -0.047056552 0.06780077
0.010908438 -0.031810783 0.015559935 0.09420624 0.07035806 0.07654667 -0.07995105 -0.08047869
-0.06625527 -0.09299212 -0.09459303 -0.07959852 0.019024009 -0.009243632 0.0006059069 0.0136930905
-0.07986384 0.037670963 0.058782406 -0.0156043805 0.01354133 -0.05862965 -0.03853539 -0.025130868
-0.08761394 -0.06737364 -0.08819292 0.10771545 -0.0019557935 0.11793276 -0.06009649 -0.013560112
-0.07894045 0.10663161 -0.030775761 0.041895207 0.040939126 -0.00088454335 -0.016304325 0.014239635
-0.025622096 0.039635845 -0.001983676 -0.009168523 0.004510675 0.013069225 -0.0651499 -0.024880398
-0.057078816 -0.050391298 0.003301335 -0.03385457 -0.042589795 0.054551706 0.016498623 0.050808538
0.029660871 0.05488829 0.067022815 -0.024075758 0.03969676 -0.048302475 -0.017832622 0.08542331
0.03689623 -0.024624024 0.06191808 0.05736094 -0.025740428 -0.0086352 -0.106789276 -0.1272375
0.0056743943 0.008013192 0.023596605 -0.040997807 0.076220475 -0.021574618 0.093924075 0.04454922
0.03263081 -0.022847783 -0.046651997 -0.04297907 0.035836697 0.031312507 0.0036964265 -0.107357875
-0.07493351 -0.007563961 -0.044636652 -0.007272742 0.07234662 -0.032855492 -0.051909514 -0.062160846
-0.078075506 -0.003923452 0.0051767635 -0.059358556 -0.042904384 0.024098584 -0.1017035 0.026599295
-0.09685654 0.062254783 0.027788287 0.01230127 -0.037169587 -0.022596937 -0.085230865 0.018682964
-0.049073342 0.017231446 -0.031974193 0.04920642 0.03448665 0.041868247 0.042938355 0.038713638
0.025797915 -0.028414791 -0.004169922 -0.0100643765 0.03957088 -0.0100050215 -0.098827034 -0.108032696
-0.04747775 0.10626612 0.06457979 0.07070477 -0.0703043 -0.11933249 -0.015404325 -0.081998535
-0.09419998 -0.008935078 -0.034410954 0.037740555 0.059407577 0.050632354 0.046104893 0.07112439
0.0055647506 0.03780539 -0.025379032 -0.0071160207 0.033894967 0.06105626 -0.022076122 0.050816037
-0.048340358 0.04009028 0.030388722 -0.036200933 -0.004984932 0.0647669 0.025193745 0.03384951
00000000: 1e98 893d d2ca 3b3d d913 c6bc 39c3 63bd
00000010: e4af 8bbd d26b 6ebd cdd8 d3bd bf0c 56bd
00000020: e686 433d 23ec 153d 9c1f 8f3d 4a81 7d3d
00000030: 6d42 fc3d 8770 383d b90a da3d 4f8f 273c
00000040: d997 183d 32fd 523d 6c7c efbd 50a7 d1bc
00000050: 5a21 0abd c68b 2d3c 0f99 00bd f328 b13d
00000060: 8e03 4e3c 7a58 4e3d ae07 c53c 3f00 813c
00000070: 3a22 91bc a5e0 cd3c 20b6 80bd 2c0f c0bc
00000080: c024 d73c 7a55 76bb abb2 a9ba e3fe a13d
00000090: 8f09 a0bb 53cd bb3d 4b45 e13d 0086 5e3d
000000a0: 88d3 0bbd fc47 88bd 999e 87bd 4d0a 0fbc
000000b0: 9738 a73a 0266 5d3d ea5d 4fbd 97be a6bc
000000c0: f7bf 08bd 82a4 8abc 7e44 f0bc 48bf 633d
000000d0: 300d e23c ee46 b8bd 53e7 d03c 8404 a0bb
000000e0: 9aff 2dbd 2d86 383c a863 e43c b8ec 22bd
000000f0: 8ca4 70bd 425a 48bc 8168 c4bc 1d71 0bbd
00000100: f95a 1c3d d257 a2bc 2bc8 c2bd 39de 82bd
00000110: 3fd7 1e3c 10eb 06bd 77eb 41bd f1b4 4d3d
00000120: 66ad d7bc 897c 81bb 4cba acbc 0b53 03bd
00000130: b802 bebb a2d7 323b a9f0 633d ea47 7a3d
00000140: 691d b5bb 3a78 cabd da43 97bd 07c1 713d
00000150: a3ae 83bd 4f17 a5bd 342f 05bd 174f 15bd
00000160: 21d3 56bd 84d7 2ebd 8532 a6bc cfc5 57bc
00000170: f157 3d3d 222e b83c 5fbe 40bd 21db 8a3d
00000180: 4eb9 323c 064c 02bd 19ef 7e3c 33ef c03d
00000190: e317 903d 80c4 9c3d 60bd a3bd 03d2 a4bd
000001a0: d8b0 87bd a772 bebd feb9 c1bd 8d04 a3bd
000001b0: 3dd8 9b3c 9a72 17bc b9d5 1e3a fc58 603c
000001c0: a78f a3bd de4c 1a3d d2c5 703d 84a9 7fbc
000001d0: 74dc 5d3c a525 70bd 49d7 1dbd 40df cdbc
000001e0: f06e b3bd 31fb 89bd 7d9e b4bd eb99 dc3d
000001f0: c52c 00bb bb86 f13d bd27 76bd 3b2b 5ebc
00000200: 88ab a1bd ac61 da3d 731d fcbc 4f9a 2b3d
00000210: c9af 273d b3e0 67ba a690 85bc 5c4d 693c
00000220: 6ee5 d1bc 3259 223d 9000 02bb 9337 16bc
00000230: 49ce 933b 4d20 563c 506d 85bd fad1 cbbc
00000240: 7acb 69bd 1b67 4ebd 365b 583b 17ab 0abd
00000250: a372 2ebd 9c71 5f3d 1f28 873c 9d1c 503d
00000260: 5bfb f23c 8bd2 603d 4243 893d 863a c5bc
00000270: 1299 223d d1d8 45bd b815 92bc 6bf2 ae3d
00000280: 8020 173d 52b8 c9bc d09d 7d3d 4ef3 6a3d
00000290: 97dd d2bc a77a 0dbc 56b4 dabd 8c4a 02be
000002a0: 45f0 b93b c349 033c ab4d c13c 51ed 27bd
000002b0: 7b19 9c3d 41bd b0bc 445b c03d 3e79 363d
000002c0: e2a7 053d 462b bbbc 2a16 3fbd d20a 30bd
000002d0: 80c9 123d 8b41 003d bf3f 723b 72de dbbd
000002e0: bd76 99bd 1bdb f7bb ecd4 36bd 2f50 eebb
000002f0: 772a 943d 7b93 06bd 129f 54bd 5f9c 7ebd
00000300: 0de6 9fbd 4d90 80bb d7a1 a93b f521 73bd
00000310: 82bc 2fbd 656a c53c ed49 d0bd c4e6 d93c
00000320: b95c c6bd dffe 7e3d 43a4 e33c 448b 493c
00000330: 233f 18bd 361d b9bc 858d aebd 040d 993c
00000340: 2101 49bd f628 8d3c 5ff7 02bd ac8c 493d
00000350: e041 0d3d 0a7e 2b3d 21e0 2f3d 3192 1e3d
00000360: 2656 d33c 23c6 e8bc d7a3 88bb 0ee5 24bc
00000370: 1315 223d 1aec 23bc d465 cabd 3f40 ddbd
00000380: 0778 42bd 0da2 d93d 6942 843d aacd 903d
00000390: b3fb 8fbd 9864 f4bd 6c62 7cbc d9ee a7bd
000003a0: ebeb c0bd 6f64 12bc 80f2 0cbd d795 1a3d
000003b0: 5c55 733d df63 4f3d 7cd8 3c3d aaa9 913d
000003c0: 8358 b63b d3d9 1a3d b0e7 cfbc 822d e9bb
000003d0: 73d5 0a3d 2116 7a3d fcd8 b4bc 7a24 503d
000003e0: 8a00 46bd b535 243d c5f1 f83c 6e47 14bd
000003f0: a458 a3bb 82a4 843d 1d63 ce3c c9a5 0a3d

block1.conv1.bias f4 [64]
0.06122346 0.02816221 0.07584225 0.084742896 0.07849556 -0.055148616 0.004700148 0.06459187
0.03755106 -0.047637254 -0.02208689 0.09197177 -0.07007539 0.046844445 0.04479277 0.0054050284
-0.040016606 0.013886193 -0.031894527 0.0702344 0.07694097 0.040716484 0.059051573 0.0012435582
-0.08095438 -0.10756195 0.0127907125 -0.073341966 0.009538392 -0.025491446 -0.0064461296 -0.040206715
0.021158587 0.037833996 -0.09082787 -0.045983534 -0.07624073 0.035195284 -0.026453657 0.033428688
-0.075262815 0.022502966 0.025548296 0.025198435 -0.019594647 0.03126329 -0.08731836 0.0109732775
0.009874432 -0.01420513 -0.08044152 -0.014338048 -0.039611567 -0.0047697355 0.1117742 0.035550207
-0.023919193 0.0015472044 -0.10166595 0.0015446462 -0.0036902002 -0.004025312 0.027915535 -0.07694726
00000000: 73c5 7a3d 6fb4 e63c 2e53 9b3d af8d ad3d
00000010: 48c2 a03d 84e3 61bd b303 9a3b be48 843d
00000020: 24cf 193d 481f 43bd 91ef b4bc b25b bc3d
00000030: b083 8fbd f6df 3f3d a078 373d aa1c b13b
00000040: 74e8 23bd ea82 633c d6a3 02bd 0ed7 8f3d
00000050: 3a93 9d3d 54c6 263d 10e0 713d e4fe a23a
00000060: 69cb a5bd 7149 dcbd 2390 513c 5034 96bd
00000070: ea46 1c3c 70d3 d0bc 0e3a d3bb ccaf 24bd
00000080: c654 ad3c d2f7 1a3d f603 babd 3b59 3cbd
00000090: 1a24 9cbd ee28 103d 57b5 d8bc 85ec 083d
000000a0: 6423 9abd 2458 b83c a94a d13c f36c ce3c
000000b0: f484 a0bc f00d 003d f8d3 b2bd 43c9 333c
000000c0: 5fc8 213c a2bc 68bc 86be a4bd 22ea 6abc
000000d0: bd3f 22bd 714b 9cbb dfe9 e43d 189d 113d
000000e0: 2ff2 c3bc 91cb ca3a 3d36 d0bd ba75 ca3a
000000f0: 49d7 71bb c4e6 83bb 1faf e43c 8696 9dbd

block1.bn1.weight f4 [64]
1.0446918 1.00459 1.0062712 1.0132052 0.99264085 0.98018026 0.99801934 1.0102079
0.9814247 0.9951679 1.0224745 1.0154854 0.9954889 1.0459695 0.8793739 0.9843442
1.0094262 0.9421313 1.0006529 1.0263498 0.9390195 0.9678072 1.0417928 1.028508
0.99316925 1.0044678 0.9926514 0.9852689 1.0245506 0.9849864 0.9843922 1.029228
0.9785353 1.0334325 1.0293183 0.9536643 1.0034887 0.97761744 0.94485885 0.9827935
0.97164786 1.0206982 1.0527666 1.0084254 1.0181463 1.0302823 0.9895431 0.9650762
1.009243 1.0268592 0.97043097 1.0197659 0.959141 0.95944947 0.96720785 0.9748707
0.9605647 0.98036975 1.0019752 0.9623167 1.0184387 0.9693481 1.0368307 1.0296382
00000000: 76b8 853f 6896 803f 7fcd 803f b5b0 813f
00000010: b61d 7e3f 18ed 7a3f 327e 7f3f 7e4e 813f
00000020: a63e 7b3f 53c3 7e3f 72e0 823f 6dfb 813f
00000030: 5cd8 7e3f 54e2 853f a61e 613f fbfd 7b3f
00000040: e134 813f 842f 713f 6515 803f 6e5f 833f
00000050: 9563 703f 36c2 773f 7759 853f 26a6 833f
00000060: 5740 7e3f 6792 803f 671e 7e3f 953a 7c3f
00000070: 7924 833f 1228 7c3f 2101 7c3f bebd 833f
00000080: 4a81 7a3f 8447 843f b4c0 833f 5823 743f
00000090: 5172 803f 2345 7a3f 45e2 713f 5b98 7b3f
000000a0: eabd 783f 3da6 823f 0ec1 863f 1514 813f
000000b0: 9e52 823f 4ae0 833f b252 7d3f 3c0f 773f
000000c0: e02e 813f 1f70 833f 2a6e 783f b087 823f
000000d0: 448a 753f 7b9e 753f ef9a 773f 2091 793f
000000e0: 91e7 753f 83f9 7a3f b940 803f 635a 763f
000000f0: 335c 823f 3227 783f deb6 843f 2fcb 833f

block1.bn1.bias f4 [64]
0.018581575 0.024305606 0.0014592956 -0.04154224 0.0051645758 -0.07647281 -0.044295806 -0.07823481
0.0064116702 -0.009457047 -0.030766824 -0.029468792 -0.06679133 -0.037452772 -0.096030384 -0.021555562
0.0060570803 -0.06530028 -0.07264482 -0.00210964 -0.065534465 -0.03536782 0.0067294217 -0.02596942
-0.07307201 -0.043566708 -0.037627835 -0.08836812 -0.07391768 -0.00068118016 -0.06083555 -0.06400076
-0.023990046 -0.094290525 -0.044318978 0.0049191397 -0.06012325 0.000754787 -0.07974561 0.015673904
0.01289496 -0.013120313 0.043420136 -0.02535579 -0.094145015 -0.07831825 -0.06274664 0.007192628
-0.054433577 -0.07437546 -0.04963608 0.017235672 -0.06457459 -0.02090547 -0.021739263 -0.009523973
0.018880058 -0.110564075 -0.040270533 -0.027087832 -0.03980676 -0.010198539 0.013292527 0.055993214
00000000: 6338 983c 8d1c c73c d645 bf3a 3228 2abd
00000010: 9a3b a93b c79d 9cbd 856f 35bd 9239 a0bd
00000020: fd18 d23b bbf1 1abc b50a fcbc 8968 f1bc
00000030: e5c9 88bd 1468 19bd 94ab c4bd 4a95 b0bc
00000040: 797a c63b 27bc 85bd cfc6 94bd e341 0abb
00000050: ef36 86bd d9dd 10bd 7b82 dc3b d2bd d4bc
00000060: c7a6 95bd 0173 32bd a51f 1abd 58fa b4bd
00000070: 2762 97bd 3a91 32ba b32e 79bd d512 83bd
00000080: c686 c4bc 641b c1bd d187 35bd bc30 a13b
00000090: cc43 76bd e6dc 453a ab51 a3bd 8f66 803c
000000a0: 6245 533c 95f6 56bc 50d9 313d f2b6 cfbc
000000b0: 1acf c0bd 5265 a0bd 4f81 80bd 23b0 eb3b
000000c0: bef5 5ebd 2952 98bd 344f 4bbd d331 8d3c
000000d0: af3f 84bd f341 abbc 8a16 b2bc 700a 1cbc
000000e0: 5aaa 9a3c 6b6f e2bd b7f2 24bd 4de7 ddbc
000000f0: 6a0c 23bd c617 27bc e6c8 593c 2459 653d

block1.bn1.running_mean f4 [64]
-0.19750154 -0.5666108 0.7309266 -0.6216503 -0.78749126 0.7055444 -0.59740746 0.10354384
-0.43301782 0.18120414 -0.6651088 -0.55009824 -0.29491645 0.04133854 -0.51131165 -0.62383026
-0.5184549 -0.23563932 -0.7904458 -0.19435169 -0.5431326 -0.83792305 -0.16974387 -0.007887557
-0.5959964 -0.2541043 -0.53949803 0.5779006 -0.4325785 0.59060144 -0.62019885 -0.9696574
-0.33003926 -0.59874356 0.053656332 0.8176471 -0.6579101 0.23804697 0.31901464 -0.13481915
-0.7027867 -0.50603545 -0.43644705 -1.0810522 -0.1876151 0.5956073 -0.4385705 0.69517606
0.38906574 -0.5257526 -0.19861892 -0.03840615 0.2592277 -0.001220043 -0.5349726 -0.5074277
-0.36204892 0.4243231 -1.0816995 -0.39130232 -1.0586113 -0.03763749 0.51463073 -0.75807714
00000000: d83d 4abe 680d 11bf 011e 3b3f 7924 1fbf
00000010: 0799 49bf 8f9e 343f b2ef 18bf cb0e d43d
00000020: 83b4 ddbe 948d 393e 9244 2abf 3dd3 0cbf
00000030: 4aff 96be 9a52 293d 52e5 02bf 57b3 1fbf
00000040: 76b9 04bf 6f4b 71be a85a 4abf 2104 47be
00000050: bd0a 0bbf 2082 56bf 56d1 2dbe d03a 01bc
00000060: 3893 18bf f519 82be 8b1c 0abf 4bf1 133f
00000070: ee7a ddbe a831 173f 5ac5 1ebf 783b 78bf
00000080: e8fa a8be 4247 19bf bec6 5b3d 5251 513f
00000090: cc6c 28bf 96c2 733e e355 a33e 080e 0abe
000000a0: d4e9 33bf 8a8b 01bf fd75 dfbe eb5f 8abf
000000b0: 2c1e 40be b879 183f 508c e0be 0ff7 313f
000000c0: a033 c73e b997 06bf c262 4bbe c44f 1dbd
000000d0: 7eb9 843e dae9 9fba f7f3 08bf c8e6 01bf
000000e0: 7a5e b9be e140 d93e 2175 8abf c758 c8be
000000f0: 9380 87bf c529 1abd d7be 033f 5811 42bf

block1.bn1.running_var f4 [64]
0.53192437 1.1307153 0.847292 1.095467 1.8793783 0.9821605 0.46496394 0.23050955
1.073258 0.42594707 0.83114094 1.0764533 0.36729583 0.17389734 0.9864142 1.0642537
1.2757694 0.25190452 0.6061201 0.4015962 1.3924146 0.9309002 0.4188657 0.4523877
0.5351023 0.19756019 0.52653486 0.6722454 0.6490562 0.5169943 0.8567846 0.6032394
0.6607542 0.49886283 0.35147402 1.1416959 1.2388463 0.46085373 0.91321754 0.57765794
1.4577403 0.91591036 0.44108906 1.4316871 0.36911917 0.59477323 0.44859958 0.70554084
0.47420377 0.4691795 0.44688433 0.25511745 0.5278678 0.29491246 0.91445774 0.4045153
1.2039955 0.56855947 1.6380587 0.4623534 1.2581997 1.2789396 0.64117026 0.6156363
00000000: 322c 083f 47bb 903f 21e8 583f 4338 8c3f
00000010: 788f f03f df6e 7b3f c10f ee3e b20a 6c3e
00000020: 8560 893f bc15 da3e a7c5 543f 39c9 893f
00000030: 330e bc3e 2512 323e a485 7c3f 7739 883f
00000040: 694c a33f a1f9 803e b02a 1b3f 049e cd3e
00000050: a43a b23f 7a4f 6e3f 9175 d63e 5c9f e73e
00000060: 77fc 083f 384d 4a3e fdca 063f 4618 2c3f
00000070: 8c28 263f bd59 043f 3c56 5b3f e66d 1a3f
00000080: 3027 293f f36a ff3e 67f4 b33e 1723 923f
00000090: 8492 9e3f 05f5 eb3e a0c8 693f 64e1 133f
000000a0: 3c97 ba3f 1a79 6a3f 6dd6 e13e 8641 b73f
000000b0: 30fd bc3e 0f43 183f d8ae e53e 539e 343f
000000c0: d6ca f23e 4c38 f03e 06ce e43e c19e 823e
000000d0: 5822 073f c4fe 963e e719 6a3f a11c cf3e
000000e0: 861c 9a3f 1d8d 113f e8ab d13f 96b9 ec3e
000000f0: b00c a13f 4bb4 a33f bc23 243f 579a 1d3f

block1.conv2.weight f4 [64, 64, 3]
-0.02893314 -0.12159539 -0.06203793 -0.09142528 0.030498011 0.031353056 -0.08372348 -0.023723176
-0.06685534 -0.06707364 0.020386893 -0.06588434 0.037579082 0.028774893 -0.037158396 0.04721438
-0.048407275 -0.058897495 -0.025356023 -0.049392644 0.0023022648 0.054006137 -0.06044981 -0.008465839
-0.017590683 0.045934588 -0.010297738 -0.023929877 -0.040544827 -0.058380768 -0.044983543 0.032974694
-0.10500558 0.006579758 -0.029720914 -0.07252624 -0.04037081 -0.06436995 -0.10203878 -0.08651452
-0.026857771 -0.08545483 -0.02710906 0.047073 0.041691545 0.06864176 0.035045356 -0.080544434
-0.048480526 -0.073413424 0.041345727 -0.08496076 -0.06000491 -0.011537778 -0.03898795 -0.04801716
0.028331086 0.04700307 -0.019601552 -0.013489486 -0.03742126 -0.031484373 -0.031947482 0.029478882
0.036080413 -0.022756597 -0.002022774 -0.009346226 -0.11680811 0.009563848 -0.06606555 -0.09742532
0.029819004 -0.059069283 -0.020715935 -0.03249155 -0.06621657 -0.043998383 -0.016078746 -0.04116398
0.024608877 0.004415929 -0.07423582 -0.099748634 0.040220153 0.039076548 -0.005881773 -0.0049777916
-0.0011854975 0.018370641 -0.11527301 -0.069995955 -0.04855697 -0.049970087 -0.033128604 -0.009400426
-0.08628801 -0.033542335 -0.03241812 -0.09062212 -0.03467476 -0.040686347 -0.01372325 0.04890703
-0.008648121 -0.049841564 0.0037180556 -0.043349523 -0.113780774 -0.09864813 -0.038287025 0.011658932
0.06568854 -0.092317365 0.05526932 0.054695666 0.020173622 -0.009809448 0.015277108 -0.00933125
0.011983274 0.031486187 0.049545217 0.036959846 -0.06748171 -0.0746835 -0.017026007 0.08418942
0.0818757 -0.045739047 0.00017481201 0.018695377 -0.07050267 -0.14321338 -0.11459287 -0.054825712
-0.008852716 -0.045036715 0.035713926 -0.05776324 0.050475895 -0.032532476 -0.052231796 0.01979984
0.017808778 -0.087751776 -0.10351444 -0.074955545 0.069662094 -0.0529516 0.05538492 0.012574452
-0.057407845 0.04577202 -0.023188028 -0.061001666 0.014618981 0.062489677 0.08407003 -0.023230419
-0.03192862 0.05744454 -0.07002084 -0.022814896 0.0608886 0.0753586 -0.023647295 -0.008569349
-0.027762385 0.06933666 -0.008126562 -0.07177735 -0.042661447 -0.10748615 -0.022123499 0.011222465
-9.640078e-06 0.038917836 0.042964965 -0.04553837 0.025323302 -0.017444335 -0.024004787 0.035666868
-0.008973394 -0.035263088 0.0070037954 0.049042612 0.01741832 -0.11221214 -0.09030365 -0.017971877
-0.008959381 -0.05428583 -0.028453033 -0.009620789 0.051760405 0.0042545605 -0.069989525 0.069045156
0.028725041 0.001163073 -0.05856132 -0.00663869 0.063460924 -0.059307102 -0.059460454 -0.009147163
-0.029693995 0.043001443 -0.043739706 -0.012258689 -0.0048166635 -0.07781307 -0.07494082 -0.061939787
-0.07278935 0.017566824 -0.028080126 -0.09175712 -0.043779127 -0.062536895 0.05289496 0.029094279
0.045921028 0.011775642 0.047411755 -0.0860707 -0.018809594 0.051555328 0.110136636 -0.0041579367
-0.00839639 -0.05748339 0.091542795 -0.0025235075 -0.019634504 0.036581576 -0.0966961 0.028980676
-0.07203506 -0.03185115 -0.024675831 -0.072151475 0.035520166 0.026336677 -0.030266764 -0.039088506
-0.020722335 0.0010379528 -0.03641672 0.029585063 -0.08198642 -0.08376353 0.04705692 -0.080633305
00000000: 3105 edbc 0107 f9bd 7c1b 7ebd 2d3d bbbd
00000010: f7d6 f93c 106c 003d 3777 abbd 1b57 c2bc
00000020: 74eb 88bd e85d 89bd 6a02 a73c 5eee 86bd
00000030: 86ec 193d 53b9 eb3c 6733 18bd de63 413d
00000040: b546 46bd 803e 71bd 6fb7 cfbc f14f 4abd
00000050: 98e1 163b 8a35 5d3d 389a 77bd 4db4 0abc
00000060: 561a 90bc e825 3c3d d8b7 28bc 9708 c4bc
00000070: 5512 26bd ac20 6fbd aa40 38bd 7910 073d
00000080: 2a0d d7bd 039b d73b 4679 f3bc a388 94bd
00000090: dd5b 25bd 64d4 83bd b5f9 d0bd 862e b1bd
000000a0: d404 dcbc f102 afbd d213 debc 9ecf 403d
000000b0: c1c4 2a3d 0d94 8c3d b88b 0f3d 7bf4 a4bd
000000c0: 8493 46bd c759 96bd 235a 293d e8ff adbd
000000d0: b5c7 75bd f308 3dbc d4b1 1fbd a4ad 44bd
000000e0: 9816 e83c 4b86 403d 6f93 a0bc 0103 5dbc
000000f0: 0947 19bd c2f5 00bd 5ddb 02bd b27d f13c
00000100: 0ec9 133d 0b6c babc 8490 04bb ea20 19bc
00000110: 1739 efbd b0b1 1c3c 604d 87bd ed86 c7bd
00000120: fc46 f43c a2f2 71bd 77b4 a9bc dc15 05bd
00000130: 8e9c 87bd a637 34bd 93b7 83bc 909b 28bd
00000140: 8e98 c93c 7fb3 903b f308 98bd 0349 ccbd
00000150: e3bd 243d bb0e 203d e3bb c0bb be1c a3bb
00000160: b262 9bba 077e 963c 4214 ecbd 0a5a 8fbd
00000170: ace3 46bd 6fad 4cbd dcb1 07bd 3f04 1abc
00000180: c5b7 b0bd b063 09bd ddc8 04bd 1798 b9bd
00000190: 1f07 0ebd baa6 26bd 7bd7 60bc bd52 483d
000001a0: d9b0 0dbc ab26 4cbd 9faa 733b 458f 31bd
000001b0: e505 e9bd 0808 cabd dbd2 1cbd 1b05 3f3c
000001c0: b787 863d e310 bdbd 1562 623d 9008 603d
000001d0: 2743 a53c cfb7 20bc d64c 7a3c 19e2 18bc
000001e0: 7e55 443c a9f7 003d edef 4a3d 3563 173d
000001f0: da33 8abd aaf3 98bd 207a 8bbc 816b ac3d
00000200: 72ae a73d de58 3bbd be4d 3739 0c27 993c
00000210: b463 90bd 87a6 12be abaf eabd ed90 60bd
00000220: fb0a 11bc 6b78 38bd c448 123d 2699 6cbd
00000230: d0bf 4e3d c640 05bd 02f1 55bd 4633 a23c
00000240: b7e3 913c 34b7 b3bd 61ff d3bd 4b82 99bd
00000250: 00ab 8e3d c7e3 58bd 4cdb 623d 1305 4e3c
00000260: 7d24 6bbd 717b 3b3d d2f4 bdbc e2dc 79bd
00000270: 7384 6f3c 2df5 7f3d e82c ac3d b84d bebc
00000280: 96c7 02bd f74a 6b3d 1667 8fbd 4ee6 babc
00000290: 5366 793d 9c55 9a3d f9b7 c1bc 7466 0cbc
000002a0: f16d e3bc 6100 8e3d 4625 05bc 0100 93bd
000002b0: c5bd 2ebd b321 dcbd 573c b5bc 6ede 373c
000002c0: d2bb 21b7 4f68 1f3d 08fc 2f3d 7186 3abd
000002d0: d072 cf3c 6ce7 8ebc b0a5 c4bc 6c17 123d
000002e0: 2405 13bc 0770 10bd 1880 e53b e8e0 483d
000002f0: ddb0 8e3c 7acf e5bd 1ff1 b8bd c239 93bc
00000300: 5eca 12bc d25a 5ebd 5616 e9bc 84a0 1dbc
00000310: b802 543d d769 8b3b ab56 8fbd 8c67 8d3d
00000320: c750 eb3c 4172 983a ffdd 6fbd 5e89 d9bb
00000330: cdf7 813d 01ec 72bd ce8c 73bd fbdd 15bc
00000340: d240 f3bc 4822 303d 6828 33bd abd8 48bc
00000350: 1ad5 9dbb 755c 9fbd 937a 99bd 93b4 7dbd
00000360: 9512 95bd 4de8 8f3c 4b08 e6bc 28eb bbbd
00000370: be51 33bd 5813 80bd 63a8 583d 2057 ee3c
00000380: b017 3c3d 9fee 403c d432 423d d645 b0bd
00000390: 9416 9abc ae2b 533d 518f e13d 4d3f 88bb
000003a0: 0391 09bc b473 6bbd ca7a bb3d 6e61 25bb
000003b0: 8ad8 a0bc 90d6 153d 9b08 c6bd e268 ed3c
000003c0: 1e87 93bd 5a76 02bd f824 cabc 27c4 93bd
000003d0: 987d 113d 04c0 d73c 01f2 f7bc 451b 20bd
000003e0: e3c1 a9bc eb0b 883a b329 15bd 605c f23c
000003f0: 7fe8 a7bd 378c abbd c2be 403d 1323 a5bd

block1.conv2.bias f4 [64]
0.010477958 -0.023717357 -0.096184805 0.06762902 -0.023458257 -0.06629206 -0.043296814 -0.034552302
0.00715245 -0.06830989 -0.076673 -0.03614329 -0.013218306 -0.05114758 0.012645262 -0.082350954
-0.09515924 -0.030076964 0.027306171 0.051789355 0.042653464 -0.017654423 -0.025000235 0.035128847
-0.069108844 0.05209532 -0.014789745 -0.0417373 -0.02407619 -0.0017832508 -0.024241423 -0.046414644
0.1031741 0.09463926 -0.09060591 -0.0043146736 0.03230468 0.0129368305 -0.041907758 -0.017873492
0.042071298 -0.007846721 -0.04524231 0.009734216 -0.07913914 0.0033774367 0.020437388 0.017742364
0.048423976 0.084060565 0.03626358 -0.045054 0.030730873 -0.056017976 0.0484842 -0.013375687
-0.09590787 0.021688202 0.08488929 0.07370281 -0.02530752 -0.043047957 0.024429599 -0.034486804
00000000: beab 2b3c e74a c2bc 8afc c4bd 1581 8a3d
00000010: 882b c0bc 22c4 87bd 0058 31bd b786 0dbd
00000020: 195f ea3b 0ee6 8bbd bc06 9dbd fd0a 14bd
00000030: 9891 58bc 2080 51bd 132e 4f3c 9ea7 a8bd
00000040: d9e2 c2bd f763 f6bc 31b1 df3c 1321 543d
00000050: 66b5 2e3d 02a0 90bc 4bcd ccbc 44e3 0f3d
00000060: f088 8dbd e761 553d b050 72bc bbf4 2abd
00000070: 6e3b c5bc f8bb e9ba f395 c6bc 481d 3ebd
00000080: f14c d33d 3ad2 c13d 978f b9bd 1b62 8dbb
00000090: ea51 043d 00f5 533c 78a7 2bbd 6e6b 92bc
000000a0: f452 2c3d 898f 00bc 0050 39bd 437c 1f3c
000000b0: b413 a2bd fc57 5d3b 4f6c a73c 6f58 913c
000000c0: 3858 463d f227 ac3d 1f89 143d 8b8a 38bd
000000d0: 50bf fb3c 1b73 65bd 5e97 463d b325 5bbc
000000e0: 586b c4bd 75ab b13c 70da ad3d 80f1 963d
000000f0: b751 cfbc 0e53 30bd 9520 c83c 0942 0dbd

block1.bn2.weight f4 [64]
1.0622431 1.0504553 1.1002997 1.0601718 1.0626255 1.0887756 1.0041093 0.9261214
1.0645741 1.0250794 0.96752656 1.0316155 1.0182328 1.0543915 1.0439316 1.023556
1.0527813 1.010067 1.0094336 0.9953374 1.0263901 1.0546626 1.0328411 1.0173115
0.9973147 1.0412809 0.99343157 1.0262531 0.99462247 0.9677504 1.031461 0.99037373
1.0108538 1.0478209 1.0626699 0.9852575 1.0082428 1.002617 1.0260364 1.0465246
1.0120326 0.94865644 1.0346556 1.0485487 1.0185374 0.9732545 0.9871143 1.0194967
1.0257053 0.952526 1.0267653 1.0552312 1.0103979 1.0430667 1.0064298 1.0250885
1.0590293 1.0594658 1.0123125 0.9993293 1.0081155 0.9949619 1.0520831 1.0545554
00000000: 95f7 873f 5275 863f 9fd6 8c3f b6b3 873f
00000010: 1d04 883f 005d 8b3f a786 803f 4b16 6d3f
00000020: f743 883f cd35 833f d2af 773f fa0b 843f
00000030: 7455 823f 4df6 863f 8d9f 853f e203 833f
00000040: 8ac1 863f e049 813f 1f35 813f 6fce 7e3f
00000050: c060 833f 2fff 863f 2334 843f 4337 823f
00000060: 0450 7f3f b148 853f 8851 7e3f 435c 833f
00000070: 949f 7e3f 7dbe 773f ea06 843f 2289 7d3f
00000080: a863 813f ff1e 863f 9105 883f d639 7c3f
00000090: 1a0e 813f c155 803f 2955 833f 85f4 853f
000000a0: 498a 813f 26db 723f 986f 843f d836 863f
000000b0: 6f5f 823f 3527 793f 86b3 7c3f de7e 823f
000000c0: 504a 833f bed8 733f 0c6d 833f d111 873f
000000d0: b854 813f 3683 853f b1d2 803f 1a36 833f
000000e0: 468e 873f 939c 873f 7593 813f 0cd4 7f3f
000000f0: ee09 813f d3b5 7e3f a9aa 863f acfb 863f

block1.bn2.bias f4 [64]
0.01745058 0.039935384 0.035518818 -0.009250056 -0.057392314 -0.050840035 0.0009374198 -0.00420404
-0.034851383 0.03468239 -0.0512086 0.025920432 -0.011818953 0.0067569925 0.008649787 0.046894163
0.020251645 -0.033810142 -0.014061527 -0.008251071 -0.01674147 -0.036053598 0.029853275 0.014443276
-0.08821216 0.008702261 -0.011171263 0.015605607 0.02156254 -0.015908504 0.017365992 -0.006570497
-0.0747418 0.018652696 -0.024345417 -0.030578949 -0.00874914 0.03925817 0.014031904 -0.08842123
0.019552318 -0.05583042 0.021194028 -0.011652008 -0.028543293 0.01339742 -0.11118058 -0.008677139
0.025246192 -0.027530087 -0.022240922 -0.006344218 -0.08646182 0.004895368 -0.003144074 0.041032918
-0.010699845 -0.039445728 0.024332749 -0.037199467 0.00780329 -0.018136209 0.0031976781 -0.014899341
00000000: 85f4 8e3c 4993 233d 2e7c 113d 8c8d 17bc
00000010: 3414 6bbd a43d 50bd 2ebd 753a 0bc2 89bb
00000020: 53c0 0ebd 1f0f 0e3d 1cc0 51bd 1657 d43c
00000030: 48a4 41bc c369 dd3b d6b7 0d3c 1814 403d
00000040: c7e6 a53c 817c 0abd 5262 66bc 802f 07bc
00000050: 6825 89bc f0ac 13bd db8e f43c 7ea3 6c3c
00000060: 94a8 b4bd ee93 0e3c ac07 37bc a9ae 7f3c
00000070: eda3 b03c 8d52 82bc 2043 8e3c 534d d7bb
00000080: 3b12 99bd 8acd 983c 0a70 c7bc b480 fabc
00000090: 8e58 0fbc 2dcd 203d 12e6 653c 3116 b5bd
000000a0: 2f2c a03c 70ae 64bd 199f ad3c 10e8 3ebc
000000b0: a0d3 e9bc da80 5b3c a5b2 e3bd 8f2a 0ebc
000000c0: 1ad1 ce3c c786 e1bc 9832 b6bc 28e3 cfbb
000000d0: e512 b1bd 5369 a03b cf0c 4ebb 2212 283d
000000e0: 674e 2fbc d891 21bd 7955 c73c 785e 18bd
000000f0: beb2 ff3b 6392 94bc 2390 513b 5e1c 74bc

block1.bn2.running_mean f4 [64]
-1.0743376 -0.6158479 -0.8402248 -0.23491406 0.12511055 -0.21350333 -0.04670304 0.26358038
-0.24373515 -0.3926115 -0.40256944 -0.37716287 -0.23100927 0.09365659 0.2516145 -0.72555774
-1.1633525 -0.008568256 0.42102668 0.01434779 -0.19186361 -0.67877376 -0.8170333 -0.35642013
-0.6975163 -0.21678258 -0.5539682 -0.14809847 -0.4654353 -0.22484468 0.5846747 -0.49707654
0.34964544 0.4714354 -0.33680782 0.4130882 -0.39085874 -0.3737479 -0.24679181 -0.36839366
-0.55920637 -0.40091053 0.16255675 0.3890266 -0.09712633 -0.63726383 0.6916822 -0.52593136
-0.7046535 -0.31787333 0.75693613 -0.2807511 -0.60191566 -0.29957908 0.09124144 -0.33500475
-0.7993816 -0.18783583 0.45526266 -0.3800985 -0.53451085 -0.58863384 -0.12470992 0.44316328
00000000: e583 89bf 35a8 1dbf f918 57bf 508d 70be
00000010: fb1c 003e 9ea0 5abe b04b 3fbd 02f4 863e
00000020: b595 79be 6004 c9be 951d cebe 7e1b c1be
00000030: b28d 6cbe 07cf bf3d 9ed3 803e 27be 39bf
00000040: bce8 94bf df61 0cbc cf90 d73e fe12 6b3c
00000050: e577 44be 1ec4 2dbf 1829 51bf b37c b6be
00000060: 6e90 32bf 41fc 5dbe dcd0 0dbf 20a7 17be
00000070: 894d eebe af3d 66be 3ead 153f d180 febe
00000080: ba04 b33e fb5f f13e 1372 acbe 4c80 d33e
00000090: a31e c8be e25b bfbe feb6 7cbe 189e bcbe
000000a0: 2628 0fbf 2544 cdbe 4775 263e 7f2e c73e
000000b0: 2bea c6bd b923 23bf 1612 313f 70a3 06bf
000000c0: 2c64 34bf 4bc0 a2be 91c6 413f 9cbe 8fbe
000000d0: 2517 1abf 6e62 99be cbdc ba3d be85 abbe
000000e0: 46a4 4cbf 0958 40be 3018 e93e 459c c2be
000000f0: b4d5 08bf b5b0 16bf ea67 ffbd 4ce6 e23e

block1.bn2.running_var f4 [64]
0.64389694 0.54293996 0.4585768 0.2181623 0.41332853 0.3444344 1.0415846 0.68654525
0.2793193 0.35614803 0.21418382 0.4550005 0.7338509 0.2695876 0.31236282 0.44648403
0.3963575 0.24149027 0.41698825 0.41640872 0.42040387 0.31845564 0.26688227 0.33659303
0.23800862 0.24339965 0.9058939 0.35139218 1.3230433 0.49463058 0.2427162 0.29390785
0.28390884 0.8651578 0.31222877 0.272536 0.816153 0.45620134 0.43781048 0.31192443
0.7468552 0.74765325 0.4490412 0.32795927 0.35711 0.47534943 0.42852715 0.3380545
0.3547786 0.8732798 0.4358171 0.36153668 0.7135796 0.23786333 0.4572925 0.7091203
0.64851207 0.2950465 0.15016575 0.3715972 0.62081265 1.0500658 0.37871134 0.18310301
00000000: 6ed6 243f 1dfe 0a3f 94ca ea3e f065 5f3e
00000010: cc9f d33e b559 b03e a552 853f 6ec1 2f3f
00000020: f002 8f3e 0959 b63e 0153 5b3e d3f5 e83e
00000030: a7dd 3b3f 6307 8a3e 05ee 9f3e 8e99 e43e
00000040: 5fef ca3e 3a49 773e 7c7f d53e 8633 d53e
00000050: 2d3f d73e 9e0c a33e cba4 883e ec55 ac3e
00000060: 88b8 733e c23d 793e aae8 673f ade9 b33e
00000070: 7c59 a93f 3840 fd3e 988a 783e 177b 963e
00000080: 805c 913e fb7a 5d3f 73dc 9f3e d789 8b3e
00000090: 67ef 503f 3993 e93e b228 e03e 8fb4 9f3e
000000a0: e731 3f3f 3466 3f3f bae8 e53e 47ea a73e
000000b0: 1fd7 b63e 0061 f33e e967 db3e 7b15 ad3e
000000c0: 8aa5 b53e 448f 5f3f 6b23 df3e 561b b93e
000000d0: 27ad 363f 7292 733e 3e22 ea3e e888 353f
000000e0: e304 263f 5610 973e 0dc5 193e fd41 be3e
000000f0: 94ed 1e3f 8e68 863f 74e6 c13e 5b7f 3b3e

block2.conv1.weight f4 [64, 64, 3]
0.00716893 0.09840465 0.046278153 0.020085804 -0.04706051 0.04530893 -0.033848803 -0.034303304
0.07793482 0.009764809 0.07344651 0.04402195 0.060797136 0.056253012 -0.014335291 -0.008242345
0.015800944 0.014134416 0.06443775 0.016560223 0.06933175 0.0069776573 0.030521998 -0.063206665
0.019345153 0.023047695 0.015553511 0.054406688 0.022079818 0.082826346 -0.030131703 0.075206034
0.037947387 0.0049675475 0.01128749 0.039997686 -0.023264844 -0.027779413 0.01325712 -0.020783171
-0.033598274 0.04317589 0.055649 -0.031310614 -0.040591784 0.0047784643 0.07971286 0.10956941
0.030741226 0.039046384 0.039242305 -0.0089117875 -0.021614725 0.014851167 0.03474398 0.0055436087
0.08381371 0.023289949 0.0011840337 0.082039095 0.022066455 0.009551283 -0.015172175 -0.06224569
0.006159526 -0.002954969 0.06493269 0.1104755 -0.014782049 0.059292518 0.056528073 0.03487227
0.06721097 0.058015507 -0.0389201 -0.0066348133 0.030450365 0.064971745 0.06067377 0.031195931
-0.044938233 -0.015890783 0.07729399 0.04854105 0.028051421 0.05525932 0.012791852 0.05459652
-0.031583365 -0.03423825 0.08637247 0.0112923905 -0.038890835 0.076015584 0.038428545 0.04732751
0.080645256 -0.01862032 0.042357385 0.10857429 -0.022093572 -0.06357236 0.029636472 -0.014626288
-0.029705388 0.0074043535 0.0014056626 0.014982484 -0.034288213 0.013377548 0.08215906 0.018253516
0.023566496 -0.08335909 0.07990741 0.10050225 0.078920946 0.05428009 0.055591892 -0.061879136
-0.048305098 -0.042480428 0.076371066 -0.060354665 -0.052875258 -0.04423874 -0.008133576 -0.055550188
0.04886921 0.029929664 -0.00010822249 0.014351835 0.008971968 -0.059554387 0.018177306 -0.00064811035
-0.03350814 0.07258085 0.054248232 0.043793164 0.024146141 -0.027575457 -0.0028009627 -0.013086659
-0.010480403 -0.002944011 0.033913158 -0.016640192 -0.03529298 0.092337705 0.04303568 0.019827507
0.0013628921 0.0016262718 -0.008864634 0.015316751 0.04005442 -0.06619019 0.016697872 -0.006862724
-0.008111001 0.065989316 0.0020685776 -0.070205644 -0.0072742975 0.007584548 0.021709286 0.045993663
0.03618032 0.02385669 0.06935162 -0.060545497 -0.07075584 -0.08945046 -0.0375895 0.017151477
0.014972816 -0.008576813 0.0555881 -0.0750318 0.009701396 -0.027651958 -0.009846348 -0.015613369
-0.00079859875 -0.009125936 0.034654886 -0.029174037 0.03893843 0.015170213 -0.020249916 -0.032036204
-0.039914582 -0.01680032 0.027495554 -0.0621351 -0.04036932 -0.028668972 0.04648923 0.043817706
0.03335661 0.04842206 0.022038434 -0.010608693 -0.009757504 -0.06813218 0.068206325 0.10485699
0.019785857 0.078598015 -0.07565359 -0.06375419 0.031355612 -0.004238072 -0.04133098 0.05082023
0.018384684 0.019283537 0.056676973 -0.024030788 0.021051228 -0.07911993 -0.050605305 -0.004113435
-0.010827615 -0.05752846 0.07597336 -0.011752888 -0.07251617 0.026161773 -0.032225013 0.08140778
-0.058420934 0.0064068353 -0.065446876 -0.03800481 0.051802374 0.032507654 -0.07365887 -0.009642827
0.021247884 0.024594653 0.04991729 0.078692436 0.05065721 0.038339756 -0.040197507 -0.028587949
-0.0049592513 -0.015767768 -0.034179512 0.028003061 -0.06647044 -0.048568785 0.016577028 0.028259747
00000000: 58e9 ea3b 6188 c93d 298e 3d3d fc8a a43c
00000010: 85c2 40bd db95 393d 0ba5 0abd 9f81 0cbd
00000020: 4a9c 9f3d 94fc 1f3c 206b 963d 5c50 343d
00000030: 6b06 793d 8f69 663d 92de 6abc e70a 07bc
00000040: fb70 813c 0a94 673c f0f7 833d 4ea9 873c
00000050: cefd 8d3d d5a4 e43b 4509 fa3c 7f72 81bd
00000060: ba79 9e3c 85ce bc3c 27d4 7e3c 8cd9 5e3d
00000070: bce0 b43c dca0 a93d c3d6 f6bc 9f05 9a3d
00000080: b86e 1b3d cfc6 a23b 2aef 383c 9dd4 233d
00000090: ea95 bebc a791 e3bc 6434 593c 7841 aabc
000000a0: 589e 09bd 34d9 303d 35f0 633d 8f3f 00bd
000000b0: 9243 26bd aa94 9c3b 7f40 a33d ed65 e03d
000000c0: 06d5 fb3c 1aef 1f3d 8abc 203d bf02 12bc
000000d0: 5d11 b1bc 4f52 733c b44f 0e3d 29a7 b53b
000000e0: 86a6 ab3d 90ca be3c 9431 9b3a 1d04 a83d
000000f0: b6c4 b43c fc7c 1c3c b794 78bc 56f5 7ebd
00000100: d9d5 c93b 27a8 41bb 6efb 843d fb40 e23d
00000110: 6830 72bc b6dc 723d fb89 673d 3ad6 0e3d
00000120: e8a5 893d aba1 6d3d af6a 1fbd d968 d9bb
00000130: 0b73 f93c e80f 853d 0f85 783d 9c8e ff3c
00000140: 2711 38bd 632d 82bc 504c 9e3d fbd2 463d
00000150: 18cc e53c 9957 623d ea94 513c 9aa0 5f3d
00000160: 8f5d 01bd 683d 0cbd 0de4 b03d b803 393c
00000170: ff4b 1fbd 0fae 9b3d 4067 1d3d 7eda 413d
00000180: 5729 a53d a489 98bc f07e 2d3d 335c de3d
00000190: 94fd b4bc 3a32 82bd 30c8 f23c 19a3 6fbc
000001a0: b758 f3bc 38a0 f23b 363e b83a 1879 753c
000001b0: cc71 0cbd 812d 5b3c 0243 a83d 6688 953c
000001c0: 860e c13c 2cb8 aabd 7fa6 a33d 20d4 cd3d
000001d0: 4ea1 a13d cd54 5e3d 53b4 633d fa74 7dbd
000001e0: 91db 45bd f5ff 2dbd 6f68 9c3d 7436 77bd
000001f0: ba93 58bd ae33 35bd b142 05bc 9888 63bd
00000200: 152b 483d 0e2f f53c 82f5 e2b8 f523 6b3c
00000210: 29ff 123c 4def 73bd 93e8 943c f3e5 29ba
00000220: d53f 09bd 45a5 943d 6533 5e3d 7660 333d
00000230: 21ce c53c ede5 e1bc 5b90 37bb 6d69 56bc
00000240: ffb5 2bbc 4ff0 40bb 86e8 0a3d 0351 88bc
00000250: 5f8f 10bd 8d1b bd3d 2e46 303d 4c6d a23c
00000260: 12a3 b23a a028 d53a f83c 11bc 1cf3 7a3c
00000270: 1a10 243d b98e 87bd fac9 883c b4e0 e0bb
00000280: 01e4 04bc 6825 873d f990 073b fac7 8fbd
00000290: 3b5d eebb cd87 f83b acd7 b13c da63 3c3d
000002a0: d131 143d 1b6f c33c 3908 8e3d 8efe 77bd
000002b0: 70e8 90bd ce31 b7bd 73f7 19bd 4181 8c3c
000002c0: 8b50 753c c385 0cbc 59b0 633d 46aa 99bd
000002d0: 9bf2 1e3c 5c86 e2bc 9452 21bc 37cf 7fbc
000002e0: 0e59 51ba f384 15bc 48f2 0d3d 64fe eebc
000002f0: e77d 1f3d 7c8c 783c 27e3 a5bc 6538 03bd
00000300: 797d 23bd d3a0 89bc 5b3e e13c 6081 7ebd
00000310: 4d5a 25bd 31db eabc 7e6b 3e3d 327a 333d
00000320: f1a0 083d 3656 463d f289 b43c 15d0 2dbc
00000330: f0dd 1fbc e288 8bbd c2af 8b3d 43bf d63d
00000340: f315 a23c fff7 a03d 45f0 9abd 8f91 82bd
00000350: be6e 003d 86df 8abb ac4a 29bd e028 503d
00000360: 7a9b 963c 82f8 9d3c 1d26 683d 37dc c4bc
00000370: a073 ac3c a109 a2bd 8247 4fbd fec9 86bb
00000380: 4f66 31bc f6a2 6bbd ec97 9b3d 2f8f 40bc
00000390: 5c83 94bd 3751 d63c 60fe 03bd 1fb9 a63d
000003a0: ca4a 6fbd 6ef0 d13b 0309 86bd efaa 1bbd
000003b0: ba2e 543d bf26 053d 76da 96bd f3fc 1dbc
000003c0: 0b10 ae3c ba7a c93c 1376 4c3d 8029 a13d
000003d0: ef7d 4f3d 260a 1d3d 24a6 24bd 4631 eabc
000003e0: 3781 a2bb 682b 81bc d1ff 0bbd ad66 e53c
000003f0: a721 88bd 10f0 46bd 8ccc 873c fc80 e73c

block2.conv1.bias f4 [64]
-0.004343011 -0.047455754 -0.04490581 0.03129622 0.04585345 0.06629202 -0.013083056 0.09539363
-0.030874541 0.047406092 0.009220524 0.05790581 -0.071003735 -0.013729926 -0.03312742 -0.00053333736
0.094452746 0.06264145 0.062967256 0.015418639 -0.1305206 -0.022250392 -0.027657589 0.018093526
0.05601685 0.016183017 -0.010283441 -0.004405157 -0.027285352 0.0031796936 -0.020798322 -0.08349341
-0.045795396 0.04719128 -0.00093982584 0.046718597 -0.09505753 -0.0018102686 0.0456874 0.035557337
-0.032322325 0.066526935 0.07720199 -0.06334344 -0.06441981 0.043765016 0.009866804 0.05374602
-0.044021785 0.028361062 -0.031632323 -0.029707918 0.019292861 0.024982313 0.007849748 -0.050270967
-0.047643602 0.07393149 0.07354618 0.013742266 -0.05253783 -0.081976205 0.005259822 0.011252989
00000000: d14f 8ebb f760 42bd 28ef 37bd 7730 003d
00000010: d4d0 3b3d 1cc4 873d 505a 56bc bc5d c33d
00000020: 9bec fcbc e42c 423d ae11 173c a52e 6d3d
00000030: 686a 91bd 7cf3 60bc 9eb0 07bd aacf 0bba
00000040: 7170 c13d 294a 803d faf4 803d 769e 7c3c
00000050: 31a7 05be 7446 b6bc 2b92 e2bc e038 943c
00000060: ed71 653d 3f92 843c e17b 28bc 2359 90bb
00000070: 8885 dfbc 6862 503b 3e61 aabc 98fe aabd
00000080: f493 3bbd a54b 413d a55e 76ba 005c 3f3d
00000090: 86ad c2bd 8946 edba b622 3b3d 92a4 113d
000000a0: 6a64 04bd 463f 883d 141c 9e3d 35ba 81bd
000000b0: 89ee 83bd f242 333d 60a8 213c c924 5c3d
000000c0: 3050 34bd 7555 e83c e590 01bd 055e f3bc
000000d0: 100c 9e3c b5a7 cc3c 3b9c 003c eee8 4dbd
000000e0: f025 43bd 6569 973d 619f 963d 3e27 613c
000000f0: e831 57bd 24e3 a7bd 965a ac3b 755e 383c
