ecg_afib_detection/checkpoints/mit-bih/250hz/resnet1d/fold_2/best.pt (torch, 321247 bytes, 44 tensors)

stem.0.weight f4 [64, 2, 7]
0.18332894 0.018744867 -0.19848195 -0.024323484 -0.0050687566 -0.046835847 0.016607745 0.19581266
-0.15952834 0.26140976 0.059824724 -0.1525664 -0.059943274 -0.20978676 0.16804262 -0.14005074
-0.13728768 0.015627323 -0.1789472 -0.1402293 0.0971026 0.17637712 -0.08080905 0.21558705
0.1481842 0.16525277 0.21534617 -0.15268563 -0.18632191 -0.23676758 0.23646498 0.06687566
-0.08453825 -0.005394175 -0.14839059 0.17059936 -0.032813493 -0.17578396 -0.043533504 -0.034281977
-0.023028227 0.17754564 0.12762216 0.1259369 0.18254256 -0.19286698 -0.24224082 -0.09879886
0.068259135 -0.04868753 0.07288999 -0.100563355 -0.10579011 0.11513073 0.018244063 0.022628587
0.17813829 0.15092404 0.20025334 0.20737053 -0.22532114 -0.1163681 -0.113255754 0.17806514
0.2556033 -0.043618828 -0.2544169 -0.19154377 -0.25247365 0.17161447 -0.19414145 0.067133166
0.013178293 -0.05984656 0.21485204 0.058907192 -0.054846544 0.08096571 -0.08051358 -0.015079332
0.04520208 -0.07713507 0.20327948 -0.20050564 -0.10949364 -0.26756817 0.14764154 0.077119336
-0.15778352 -0.17477855 0.071301945 -0.12599762 0.14125836 0.042898383 -0.15730031 0.14659308
0.014753948 0.097672775 -0.033275582 0.046978083 0.07103441 0.09612441 -0.22430746 0.24833295
0.0841403 -0.029458601 -0.06608992 0.25094223 -0.3046364 0.18803352 -0.1296848 -0.07439598
0.028722048 0.12948799 -0.050770916 -0.2054344 0.104644544 0.16164032 -0.18302076 -0.2375212
-0.09272126 0.031770676 -0.2471058 -0.26588163 0.013730661 0.04804808 0.10970555 -0.12274112
-0.13968706 -0.030806862 0.07663781 0.13932833 0.041416388 -0.06970331 0.06945482 0.17447773
-0.23157752 -0.06722972 0.22944832 -0.20487006 -0.20073797 0.18115583 0.2746082 0.24863835
-0.28760466 -0.25166103 -0.15629937 -0.15145251 0.16095847 0.26548034 -0.24235745 0.08107802
0.05817239 -0.0726647 0.15497158 -0.2063674 0.22092909 0.28556135 -0.033362802 0.12654646
-0.060660005 0.0850442 0.19276737 0.06980443 -0.12877831 -0.20798756 0.090476185 0.2565001
-0.28007072 0.049833126 0.15978599 0.113835104 -0.2811171 0.11402144 0.15304728 0.1125797
0.04831829 0.041490633 -0.17186278 -0.11825929 0.2127029 -0.047133878 -0.047410604 -0.12363627
0.13233799 0.0366034 -0.18245651 -0.044653 0.02951063 -0.04326159 -0.03549108 0.20435178
0.26209965 -0.20134212 -0.21796438 0.1309398 -0.14434794 0.07203938 -0.27531165 -0.18465339
-0.28070408 0.021366697 -0.098462 0.042942073 -0.06578479 0.094587944 -0.0068700933 -0.046957918
0.09990664 -0.057166535 0.0025392207 0.13716787 0.013328959 -0.10452921 0.098809764 0.13722196
-0.2423276 0.18510284 0.20758435 0.29979715 0.2000584 0.031345 0.1843954 -0.06920908
-0.19423375 0.25076213 -0.23712194 0.0063796276 0.17684962 -0.19469078 0.1853309 0.09852358
0.15017506 -0.33966985 0.26149264 -0.15561467 -0.14176317 0.17345427 -0.18204777 0.1285848
0.084400505 -0.09433052 0.02213766 0.1259114 -0.17224438 -0.0018129323 0.16803327 -0.22605324
0.21564305 -0.09827864 -0.0045472328 -0.005937528 0.12773281 0.16032729 -0.07151734 0.034513254
00000000: 95ba 3b3e d68e 993c da3e 4bbe 0b42 c7bc
00000010: d017 a6bb f2d6 3fbd f70c 883c 1d83 483e
00000020: 665b 23be 80d7 853e c50a 753d 5e3a 1cbe
00000030: 1487 75bd 57d2 56be 5d13 2c3e 7669 0fbe
00000040: 2495 0cbe df04 803c ef3d 37be 4598 0fbe
00000050: badd c63d 349c 343e 377f a5bd dac2 5c3e
00000060: 99bd 173e 0638 293e b583 5c3e 9f59 1cbe
00000070: 2ccb 3ebe 3373 72be e023 723e 1bf6 883d
00000080: 6422 adbd 9fc1 b0bb b4f3 17be 99b1 2e3e
00000090: 7167 06bd b600 34be 3050 32bd 426b 0cbd
000000a0: b1a5 bcbc 86ce 353e 62af 023e 9af5 003e
000000b0: 70ec 3a3e ec7e 45be fa0d 78be 0f57 cabd
000000c0: 72cb 8b3d 936c 47bd 5947 953d 29f4 cdbd
000000d0: 7ca8 d8bd a9c9 eb3d 9374 953c 965f b93c
000000e0: e269 363e d58b 1a3e 360f 4d3e f158 543e
000000f0: 96ba 66be 6652 eebd a2f2 e7bd b556 363e
00000100: 70de 823e a8a9 32bd ef42 82be 0d24 44be
00000110: 3a44 81be b4bb 2f3e 04cd 46be 1d7d 893d
00000120: c4e9 573c ab21 75bd 2c02 5c3e ab48 713d
00000130: c5a6 60bd 5ad1 a53d 4ee4 a4bd 4d0f 77bc
00000140: d125 393d fef8 9dbd 7f28 503e 5a51 4dbe
00000150: 343e e0bd b2fe 88be 582f 173e bef0 9d3d
00000160: 0192 21be 26f9 32be c106 923d 8505 01be
00000170: 08a6 103e 37b6 2f3d 5513 21be 7f1c 163e
00000180: 8bba 713c aa08 c83d fa4b 08bd 176c 403d
00000190: 7d7a 913d e0dc c43d dbb0 65be fe4a 7e3e
000001a0: c051 ac3d 2a53 f1bc 275a 87bd 807b 803e
000001b0: 4df9 9bbe dc8b 403e 18cc 04be eb5c 98bd
000001c0: 804a eb3c 8098 043e 2af5 4fbd 655d 52be
000001d0: e14f d63d 0a85 253e cb69 3bbe c238 73be
000001e0: a5e4 bdbd f821 023d 4e09 7dbe a321 88be
000001f0: 91f6 603c 10ce 443d 4ead e03d b25f fbbd
00000200: 200a 0fbe ac5e fcbc 49f4 9c3d 16ac 0e3e
00000210: 3ba4 293d 9cc0 8ebd 543e 8e3d 4aaa 323e
00000220: a822 6dbe bcaf 89bd 80f4 6a3e 75c9 51be
00000230: 418e 4dbe ea80 393e 7299 8c3e 0d9b 7e3e
00000240: eb40 93be b7d9 80be f10c 20be 5e16 1bbe
00000250: 4cd2 243e 0aed 873e 8d2c 78be 3c0c a63d
00000260: 2c46 6e3d 3bd1 94bd dfb0 1e3e fa51 53be
00000270: 3c3b 623e 1935 923e 6fa7 08bd 6595 013e
00000280: a076 78bd a72b ae3d cf64 453e a0f5 8e3d
00000290: 76de 03be b1fa 54be 944b b93d fb53 833e
000002a0: 6e65 8fbe d21d 4c3d f09e 233e 6122 e93d
000002b0: 95ee 8fbe 1384 e93d 6db8 1c3e 3090 e63d
000002c0: 66e9 453d 15f2 293d ccfc 2fbe ed31 f2bd
000002d0: cace 593e 740f 41bd 9f31 42bd 0335 fdbd
000002e0: 9c83 073e 72ed 153d e1d5 3abe 10e6 36bd
000002f0: 47c0 f13c 1133 31bd 185f 11bd 9841 513e
00000300: ed31 863e a12c 4ebe 0e32 5fbe 1515 063e
00000310: f2cf 13be 6289 933d a6f5 8cbe c715 3dbe
00000320: 72b8 8fbe 3609 af3c 72a6 c9bd 07e4 2f3d
00000330: 2dba 86bd 53b7 c13d 851e e1bb f256 40bd
00000340: da9b cc3d 7527 6abd 0e69 263b bc75 0c3e
00000350: b561 5a3c 6913 d6bd c65c ca3d ea83 0c3e
00000360: ba24 78be 998b 3d3e fe90 543e 037f 993e
00000370: 1cdc 4c3e 9d63 003d 26d2 3c3e 7dbd 8dbd
00000380: 36e5 46be e563 803e 18d0 72be 320c d13b
00000390: 1118 353e 055d 47be 62c7 3d3e bbc6 c93d
000003a0: 7ec7 193e 35e9 adbe 5de2 853e 7459 1fbe
000003b0: 5d2a 11be ff9d 313e bb6a 3abe bcab 033e
000003c0: 2cda ac3d 5c30 c1bd 0a5a b53c ebee 003e
000003d0: d560 30be ea9f edba ea10 2c3e 807a 67be
000003e0: 88d1 5c3e 5046 c9bd f400 95bb 988f c2bb
000003f0: 64cc 023e d62c 243e af77 92bd c55d 0d3d

stem.0.bias f4 [64]
0.13124207 -0.097681805 0.12317134 0.27567822 -0.019620143 -0.11738314 0.2489821 0.10935966
-0.14521967 -0.013137233 0.112514034 0.10868353 -0.13766909 -0.20346813 0.022576708 -0.11717762
-0.05839237 0.03714201 0.1274328 0.081401825 -0.26159853 0.25217128 -0.07633991 0.0025596784
0.00856667 0.05241917 0.025553897 0.054001857 -0.08597282 -0.22700119 0.17997816 0.1663931
0.16163747 -0.07262599 0.02922106 0.17695272 0.22097737 -0.080977194 0.11403645 0.22169356
-0.049803562 0.08956802 0.024990598 0.24599358 0.25233203 0.1423571 -0.10737505 -0.2499911
0.10878306 0.05608281 -0.24997923 0.27292627 -0.15140101 0.02790898 -0.038086414 -0.16912076
-0.0687255 -0.22972025 -0.041935824 -0.06823724 -0.16781086 -0.04239512 0.07513275 -0.015066513
00000000: 5264 063e 660d c8bd 4141 fc3d b225 8d3e
00000010: 6cba a0bc 9266 f0bd 2af5 7e3e f5f7 df3d
00000020: 77b4 14be 8d3d 57bc c26d e63d 7895 de3d
00000030: 20f9 0cbe f359 50be caf2 b83c d2fa efbd
00000040: d62c 6fbd 3822 183d be7d 023e 00b6 a63d
00000050: 3ef0 85be 981c 813e 1958 9cbd 47c0 273b
00000060: 385b 0c3c 7cb5 563d 6856 d13c 0d31 5d3d
00000070: 8512 b0bd 0073 68be 324c 383e f462 2a3e
00000080: 4b84 253e efbc 94bd 0161 ef3c 1833 353e
00000090: e447 623e 5fd7 a5bd f18b e93d a303 633e
000000a0: d2fe 4bbd 706f b73d 15b9 cc3c bee5 7b3e
000000b0: aa31 813e 0fc6 113e 73e7 dbbd abfd 7fbe
000000c0: a7c9 de3d 17b7 653d 8efa 7fbe febc 8b3e
000000d0: de08 1bbe 60a1 e43c 8000 1cbd fe2d 2dbe
000000e0: f4bf 8cbd c93b 6bbe e6c4 2bbd f7bf 8bbd
000000f0: 9cd6 2bbe 81a6 2dbd 33df 993d 89d9 76bc

stem.1.weight f4 [64]
0.9645435 0.9398487 0.9904301 1.02574 1.0003518 0.99126405 0.986413 1.0009406
0.97648096 0.9981711 1.0064238 0.9933367 1.0345541 0.9964701 0.9673918 0.9866821
1.0254668 1.0451622 1.000665 0.99705404 0.9724335 0.99658364 0.9701402 1.0005414
1.0109777 1.0691254 0.9986597 1.0007715 0.995919 0.96034974 1.0128295 1.008602
1.026915 0.99947363 0.99222285 0.93999386 0.96498114 0.97652316 0.9917628 0.9863535
0.95214325 0.98098207 0.9756847 1.0184412 1.034204 1.0459331 1.0044473 0.96720195
0.97173315 0.9857724 0.98318833 0.9878343 0.9783319 0.99196744 1.0062941 1.0059322
1.0447071 0.97868097 1.061384 0.9434912 0.99259615 1.0332726 0.98825693 1.0055864
00000000: 53ec 763f ed99 703f d48c 7d3f 734b 833f
00000010: 870b 803f 7bc3 7d3f 9085 7c3f d21e 803f
00000020: a8fa 793f 2488 7f3f 7fd2 803f 504b 7e3f
00000030: 456c 843f aa18 7f3f fda6 773f 3397 7c3f
00000040: 7f42 833f e0c7 853f ca15 803f ef3e 7f3f
00000050: 67f1 783f 1b20 7f3f 1c5b 783f be11 803f
00000060: b867 813f 1ad9 883f 29a8 7f3f 4819 803f
00000070: 8cf4 7e3f 7bd9 753f 66a4 813f df19 813f
00000080: f371 833f 81dd 7f3f 5102 7e3f 70a3 703f
00000090: 0109 773f 6cfd 793f 2be4 7d3f aa81 7c3f
000000a0: a9bf 733f a421 7b3f 79c6 793f 485c 823f
000000b0: cc60 843f 23e1 853f bb91 803f 8c9a 773f
000000c0: 81c3 783f 945b 7c3f 3bb2 7b3f b5e2 7c3f
000000d0: f673 7a3f 94f1 7d3f 3fce 803f 63c2 803f
000000e0: f6b8 853f d68a 7a3f 6edb 873f a488 713f
000000f0: c81a 7e3f 4742 843f 68fe 7c3f 0eb7 803f

stem.1.bias f4 [64]
-0.054471795 -0.05346793 0.016341008 -0.08384545 0.024271762 0.049749713 -0.009644316 0.054722678
-0.015219981 0.018988742 -0.012454478 -0.019639287 0.043067954 0.017560452 -0.022338677 3.4647783e-06
0.058566954 0.058712013 0.024564242 -0.028836101 -0.01949383 -0.0054461984 -0.0022562053 -0.011409658
0.027714018 0.114042625 0.014676521 0.03447524 -0.010266755 -0.06183864 0.020018661 0.001959139
0.020824876 0.0038019584 0.020340651 -0.040751785 -0.020698374 -0.013231709 0.011723473 0.031371713
-0.025175769 -0.025413726 0.009123765 -0.026762962 0.056007665 0.02888287 -0.03560326 -0.05357141
0.045195233 -0.0060518025 -0.0064775646 -4.0561936e-05 0.026948648 0.014421296 0.0046777125 0.025305202
0.05868959 -0.011541199 0.062634 -0.060601015 0.017053362 0.09208849 -0.0035839146 0.11454483
00000000: d11d 5fbd 3001 5bbd 94dd 853c 2ab7 abbd
00000010: 93d5 c63c 5bc6 4b3d 3103 1ebc e324 603d
00000020: 3a5d 79bc 478e 9b3c de0d 4cbc 92e2 a0bc
00000030: 0668 303d f0da 8f3c 9aff b6bc 7084 6836
00000040: e7e3 6f3d 027c 703d f33a c93c b039 ecbc
00000050: 86b1 9fbc 0676 b2bb d8dc 13bb 93ef 3abc
00000060: 8208 e33c 2e8f e93d ca75 703c e935 0d3d
00000070: e435 28bc 844a 7dbd 2dfe a33c e664 003b
00000080: ee98 aa3c 472a 793b 70a1 a63c 58eb 26bd
00000090: a38f a9bc cfc9 58bc cf13 403c a07f 003d
000000a0: 6a3d cebc 7230 d0bc d87b 153c 003e dbbc
000000b0: 4b68 653d c59b ec3c b9d4 11bd b26d 5bbd
000000c0: a31e 393d 334e c6bb c041 d4bb 0c21 2ab8
000000d0: 69c3 dc3c 4d47 6c3c 7f47 993b db4c cf3c
000000e0: 7f64 703d 4c17 3dbc 4146 803d c538 78bd
000000f0: 7eb3 8b3c e498 bc3d 1ce0 6abb 7b96 ea3d

stem.1.running_mean f4 [64]
0.1311982 -0.096674174 0.1231139 0.27298826 -0.022715105 -0.117487356 0.248622 0.10937389
-0.14682883 -0.013417928 0.11095167 0.110394776 -0.13769142 -0.20283772 0.022462115 -0.11456023
-0.05982174 0.037250318 0.12609681 0.08158842 -0.26036304 0.25382867 -0.076097965 0.0013563158
0.007917862 0.05746344 0.028416056 0.055785507 -0.085172206 -0.22489649 0.1784587 0.16503623
0.16115071 -0.074265026 0.036166523 0.17942904 0.22235717 -0.0828838 0.11511718 0.22103773
-0.050795592 0.09079516 0.026559928 0.24639441 0.2551023 0.14174534 -0.1061673 -0.24832988
0.11044146 0.058024034 -0.2518003 0.27377784 -0.14725138 0.02780057 -0.035352077 -0.16808596
-0.06955531 -0.22782765 -0.038787104 -0.06903819 -0.16878283 -0.04086011 0.0703523 -0.015067395
00000000: d258 063e 1cfd c5bd 2423 fc3d 1ec5 8b3e
00000010: 0715 babc 369d f0bd c496 7e3e 6bff df3d
00000020: 4c5a 16be ded6 5bbc a13a e33d a816 e23d
00000030: fbfe 0cbe b1b4 4fbe 7802 b83c 8e9e eabd
00000040: a407 75bd ca93 183d 861f 013e d417 a73d
00000050: 4e4e 85be d5f5 813e 40d9 9bbd 68c6 b13a
00000060: ecb9 013c c95e 6b3d cac8 e83c 587f 643d
00000070: c46e aebd 444b 66be e1bd 363e 42ff 283e
00000080: b104 253e 4318 98bd 5923 143d 3fbc 373e
00000090: 99b1 633e fbbe a9bd 8ec2 eb3d b757 623e
000000a0: 0a0f 50bd d0f2 b93d 3594 d93c d14e 7c3e
000000b0: c59c 823e b125 113e 3e6e d9bd 304a 7ebe
000000c0: 222f e23d 9caa 6d3d f8eb 80be 9c2c 8c3e
000000d0: 11c9 16be 05be e33c 57cd 10bd ba1e 2cbe
000000e0: 0473 8ebd a74b 69be 3adf 1ebd e563 8dbd
000000f0: 68d5 2cbe ee5c 27bd de14 903d 3cdd 76bc

stem.1.running_var f4 [64]
0.06994837 0.4757441 0.10072858 0.09661366 0.46274358 0.03665463 0.16625157 0.09005649
0.50352544 0.034136415 0.14310363 0.32325295 0.040479187 0.049020138 0.63230383 0.9137433
0.015674263 0.013284708 0.33191437 0.26427776 0.16157253 0.44300354 0.20863558 0.16801561
0.10358613 0.020293137 0.3363431 0.17230685 0.38772774 0.58943576 0.19707665 0.28622183
0.10722365 0.40732843 0.03662745 0.696737 0.30396456 0.46724892 0.23303811 0.044854913
0.20326625 0.15648769 0.2834909 0.27514493 0.03192239 0.03579132 0.10804052 0.56474996
0.34488836 0.32726032 0.08085769 0.16406123 2.0778034 0.23187286 0.9038339 0.02399636
0.048832398 0.65266246 0.015045681 0.38612258 0.20779546 0.015938664 0.49155417 0.016325438
00000000: 1741 8f3d bb94 f33e c94a ce3d 62dd c53d
00000010: baec ec3e 2a23 163d da3d 2a3e 896f b83d
00000020: 0be7 003f a0d2 0b3d c289 123e 6981 a53e
00000030: 81cd 253d 57c9 483d aade 213f 15eb 693f
00000040: 5067 803c 1ba8 593c aef0 a93e 6a4f 873e
00000050: 4573 253e 5cd1 e23e 91a4 553e 490c 2c3e
00000060: f724 d43d cb3d a63c 2a35 ac3e 3571 303e
00000070: 4084 c63e 43e5 163f 76ce 493e ab8b 923e
00000080: 1398 db3d 5a8d d03e aa06 163d 5b5d 323f
00000090: 3ea1 9b3e 403b ef3e 8ba1 6e3e c9b9 373d
000000a0: 0725 503e 4f3e 203e b825 913e ccdf 8c3e
000000b0: 0dc1 023d eb99 123d 5944 dd3d 7493 103f
000000c0: 3595 b03e aa8e a73e b798 a53d abff 273e
000000d0: bbfa 0440 1470 6d3e a961 673f 0494 c43c
000000e0: 7b04 483d e314 273f 2982 763c dcb1 c53e
000000f0: 55c8 543e cd91 823c fdac fb3e edbc 853c

block1.conv1.weight f4 [64, 64, 3]
0.03800502 -0.03704792 -0.008328392 -0.06534932 0.009549879 -0.040590752 -0.020128742 0.058738
-0.039715484 0.06882908 -0.034655087 0.03269251 -0.039554287 -0.015344109 -0.025564361 0.036739632
0.016222818 -0.05676573 0.049844407 -0.030710172 0.018635936 -0.08140326 0.04668156 -0.035188187
0.053044554 -0.059202954 -0.040487856 -0.029420411 0.08825786 0.06424854 0.019726781 -0.02191921
0.09747668 -0.048470624 -0.034817416 0.0032985213 0.078140646 0.050932363 -0.0021705767 0.046315584
0.025440898 -0.025063753 -0.009648993 0.011126624 0.016452663 0.02307255 -0.048572928 -0.017252138
0.072576635 0.028673572 0.045166463 0.029709585 0.03881986 -0.007663429 -0.019717323 0.022543536
-0.07251806 -0.041105732 -0.042815197 0.0051126927 0.048034087 -0.015963463 0.003709378 0.0066302177
0.011618788 0.030016325 -0.017768176 0.074129656 0.08296472 0.060402695 0.06909843 -0.026121581
0.053879336 -0.027657919 -0.00077898137 0.010987724 0.07711241 0.019022662 -0.058268473 -0.050287545
-0.10322301 -0.055072293 0.036348425 -0.0771893 0.016631033 0.024387136 -0.08993679 0.012626928
0.060173642 -0.02648098 0.0699022 -0.055198416 -0.049333096 0.08584863 0.052363895 -0.074233316
0.07593109 -0.02298243 -0.030825555 0.07018555 -0.062426087 0.024409708 0.06582037 0.061974786
0.0064535146 0.031554382 -0.033571318 -0.021815924 -0.044080094 -0.015054795 -0.050806396 -0.012665678
0.053245563 -0.057387613 -0.023377432 0.07707248 0.05407508 0.035488818 -0.0015214095 -0.042522438
0.03933975 -0.024862006 -0.018991608 -0.06761241 -0.07517348 0.025556432 0.021645166 -0.037700538
-0.047560982 0.031603776 0.026597131 -0.00015440115 0.08264891 0.009145875 0.046891768 0.100091234
0.063351035 -0.05877565 -0.005351886 0.019269373 0.0008840296 -0.029616218 -0.005392798 -0.081875056
-0.027408136 -0.07427695 -0.019707529 -0.049067516 -0.013139697 -0.07204914 0.047613792 -0.055802446
-0.035618562 -0.011419747 0.07760856 0.00074477727 -0.022877404 0.04659758 -0.073936574 0.027366098
0.05752716 0.024293302 -0.0726036 -0.03532476 -0.0022708662 0.021227792 -0.043740798 0.023080647
0.09959717 0.10163075 -0.03708006 0.02296726 -0.07974075 -0.080696926 -0.06033266 -0.035765935
0.03189542 -0.021975076 0.027674286 0.06357083 -0.04304324 0.049988326 -0.033137977 0.031637244
0.0154219065 -0.028467763 0.058110017 0.035103094 -0.07249 -0.008477753 -0.0125441365 -0.045973096
0.04042517 0.0026252784 -0.007732262 0.06488499 -0.05530363 0.019157866 -0.056031767 0.057890646
0.054508373 0.03666538 0.011163139 0.041441772 0.08077292 0.030113803 0.04707215 -0.057283077
-0.064114995 0.0064943642 -0.01814178 0.069984116 -0.0066145975 -0.024295663 -0.019346563 -0.082354724
0.049522996 0.03475683 -0.06640637 0.026013136 -0.09445739 -0.060638472 0.03745009 0.025820896
-0.032221623 0.06023194 0.0004473894 -0.0151869925 0.0016186469 0.04092155 -0.040388156 -0.0044940594
0.011463501 0.06637183 0.017427223 -0.07174463 0.022854343 0.050513227 0.057750043 -0.06862433
-0.07495029 -0.07172718 0.018949782 -0.049802385 -0.0050234585 0.05318844 0.065689124 -0.06979552
-0.08068698 -0.077230014 -0.020242896 -0.046720456 -0.014076379 -0.022155855 -0.055232894 0.055202153
00000000: 27ab 1b3d 8fbf 17bd cf73 08bc ddd5 85bd
00000010: 1877 1c3c 7d42 26bd 08e5 a4bc 4297 703d
00000020: b4ac 22bd 43f6 8c3d 7ef2 0dbd 95e8 053d
00000030: ad03 22bd dc65 7bbc 5a6c d1bc 4c7c 163d
00000040: b7e5 843c 2f83 68bd a629 4c3d e693 fbbc
00000050: 64aa 983c c1b6 a6bd 2a35 3f3d 7d21 10bd
00000060: 3f45 593d cc7e 72bd 98d6 25bd 1303 f1bc
00000070: 89c0 b43d bd94 833d 0f9a a13c ea8f b3bc
00000080: dba1 c73d 2289 46bd b59c 0ebd 012c 583b
00000090: 3408 a03d 749e 503d 3c40 0ebb 69b5 3d3d
000000a0: 6e69 d03c 8052 cdbc cf16 1ebc 724c 363c
000000b0: bcc7 863c a502 bd3c 68f4 46bd 5b54 8dbc
000000c0: 0fa3 943d d7e4 ea3c 7800 393d 8461 f33c
000000d0: 9301 1f3d 801d fbbb 3986 a1bc 39ad b83c
000000e0: 5984 94bd 7c5e 28bd fd5e 2fbd 6088 a73b
000000f0: 64bf 443d cfc5 82bc 0919 733b 4c42 d93b
00000100: bb5c 3e3c cce4 f53c 918e 91bc 4ad1 973d
00000110: 68e9 a93d d168 773d 7a83 8d3d edfc d5bc
00000120: 94b0 5c3d dc92 e2bc 8e34 4cba db05 343c
00000130: 1ced 9d3d 6ad5 9b3c ecaa 6ebd 50fa 4dbd
00000140: 9666 d3bd 7c93 61bd 16e2 143d 6c15 9ebd
00000150: ce3d 883c 88c7 c73c c830 b8bd 2de1 4e3c
00000160: a378 763d a4ee d8bc e228 8f3d bc17 62bd
00000170: 8011 4abd 68d1 af3d 867b 563d a307 98bd
00000180: c281 9b3d a645 bcbc e085 fcbc 71bd 8f3d
00000190: 7fb2 7fbd def6 c73c d5cc 863d 46d9 7d3d
000001a0: 0178 d33b 2b3f 013d 1482 09bd 4fb7 b2bc
000001b0: 548d 34bd 63a8 76bc 5e1a 50bd b483 4fbc
000001c0: 0518 5a3d 460f 6bbd 0782 bfbc 2dd8 9d3d
000001d0: d57d 5d3d b95c 113d 086a c7ba 022c 2ebd
000001e0: b822 213d 68ab cbbc 4a94 9bbc 6078 8abd
000001f0: 8ef4 99bd b95b d13c 3451 b13c e16b 1abd
00000200: 4ecf 42bd f672 013d 3ae2 d93c bee6 21b9
00000210: d543 a93d 95d8 153c 9511 403d a2fc cc3d
00000220: 30be 813d bcbe 70bd e05e afbb ceda 9d3c
00000230: 39be 673a b69d f2bc 12b6 b0bb 1cae a7bd
00000240: 0787 e0bc 831e 98bd af71 a1bc 05fb 48bd
00000250: e247 57bc 808e 93bd ae06 433d 1b91 64bd
00000260: c5e4 11bd e419 3bbc 3df1 9e3d 283d 433a
00000270: 6569 bbbc 1bdd 3e3d 0f6c 97bd de2e e03c
00000280: 99a1 6b3d bf02 c73c 32b1 94bd b2b0 10bd
00000290: d0d2 14bb e8e5 ad3c 8d29 33bd a013 bd3c
000002a0: 9af9 cb3d c823 d03d 43e1 17bd d625 bc3c
000002b0: 1e4f a3bd 6e44 a5bd 611f 77bd 4d7f 12bd
000002c0: c6a4 023d 1305 b4bc 2fb5 e23c 6c31 823d
000002d0: 1c4e 30bd 8fc0 4c3d b0bb 07bd 0e96 013d
000002e0: 2aac 7c3c 3a35 e9bc c504 6e3d 43c8 0f3d
000002f0: a375 94bd 46e6 0abc ec85 4dbc 494e 3cbd
00000300: dd94 253d dd0c 2c3b ea5e fdbb 6ce2 843d
00000310: 0f86 62bd f5f0 9c3c 9181 65bd be1e 6d3d
00000320: 2c44 5f3d 702e 163d 99e5 363c d9be 293d
00000330: 466c a53d 39b1 f63c bace 403d a9a1 6abd
00000340: b94e 83bd adce d43b 129e 94bc d553 8f3d
00000350: 44bf d8bb b307 c7bc af7c 9ebc 98a9 a8bd
00000360: a0d8 4a3d 2e5d 0e3d 1000 88bd 8019 d53c
00000370: e072 c1bd 0c60 78bd 4465 193d 5886 d33c
00000380: d2fa 03bd c4b5 763d 978f ea39 ddd2 78bc
00000390: c728 d43a 5b9d 273d 0d6e 25bd e742 93bb
000003a0: 68d1 3b3c f4ed 873d 89c3 8e3c d9ee 92bd
000003b0: 0839 bb3c f5e6 4e3d 4f8b 6c3d ea8a 8cbd
000003c0: 8a7f 99bd b3e5 92bd 933c 9b3c 96fd 4bbd
000003d0: d39b a4bb 1fdc 593d 0588 863d f4f0 8ebd
000003e0: 373f a5bd c52a 9ebd 6ed4 a5bc f35d 3fbd
000003f0: 9da0 66bc 3280 b5bc e33b 62bd a71b 623d

block1.conv1.bias f4 [64]
-0.037532058 -0.017241225 0.005764533 -0.018536672 0.018847065 0.019587895 -0.042853225 -0.050070856
0.017750409 -0.05658335 -0.05974168 0.064021535 -0.046570055 0.007323243 -0.016124796 -0.041589465
0.043647043 0.074695066 -0.06402585 -0.00076062913 -0.056120086 0.038267504 0.033711232 0.100266695
0.042888712 -0.012646336 0.052898858 -0.038007896 0.077382624 -0.07458819 -0.05081389 -0.0681476
-0.055576075 0.018055465 0.041539792 0.081642844 -0.012718739 0.03457223 0.06205417 0.035877004
0.058018465 -0.016420597 0.04221929 0.007794754 0.07049278 -0.05929288 0.05863585 0.013306656
-0.0034365477 0.051685892 0.06172077 -0.038680214 -0.08676945 0.0046505597 0.07555552 -0.015145377
-0.04020856 -0.078120485 -0.010674079 -0.0008628139 0.10303913 -0.02641944 -0.032433704 -0.036158156
00000000: 37bb 19bd 783d 8dbc 68e4 bc3b 38da 97bc
00000010: 2965 9a3c cb76 a03c dd86 2fbd 1917 4dbd
00000020: 4e69 913c f1c3 67bd b1b3 74bd b91d 833d
00000030: 3ec0 3ebd d1f7 ef3b 2618 84bc b759 2abd
00000040: 3ec7 323d baf9 983d fc1f 83bd f564 47ba
00000050: 2dde 65bd 63be 1c3d ca14 0a3d a058 cd3d
00000060: 13ac 2f3d 9432 4fbc 79ac 583d 2bae 1bbd
00000070: c87a 9e3d b1c1 98bd 3a22 50bd f890 8bbd
00000080: bda3 63bd 0ee9 933c a125 2a3d 5d34 a73d
00000090: 4262 50bc 9c9b 0d3d 832c 7e3d c4f3 123d
000000a0: c5a4 6d3d 7d84 86bc 22ee 2c3d 236b ff3b
000000b0: 855e 903d 17dd 72bd 252c 703d 2904 5a3c
000000c0: b437 61bb 96b4 533d ebce 7c3d 256f 1ebd
000000d0: 2eb4 b1bd b963 983b dabc 9a3d 5124 78bc
000000e0: bbb1 24bd a2fd 9fbd 55e2 2ebc 762e 62ba
000000f0: 2e06 d33d 956d d8bc 34d9 04bd 931a 14bd

block1.bn1.weight f4 [64]
0.9863311 1.0254918 0.9636651 0.9619443 0.9745149 0.9712875 1.0062824 1.0130033
1.0096111 0.9946063 1.017319 1.0214387 1.0487334 0.9748941 0.9646493 1.0043756
0.9894523 1.0144297 1.0302088 1.0407796 0.9427384 1.002955 0.9616988 1.0032426
0.95748156 1.0627913 1.0379509 0.9660625 0.9874783 0.98785865 0.9827308 0.97444636
1.0110985 0.9713535 1.0035787 1.0038488 0.9720309 0.98698217 1.0098871 1.0040172
0.9799748 0.9869313 0.99088 1.0648385 1.0240697 0.98801625 0.9724395 0.99453306
0.9896169 0.9950954 1.0031719 1.0236814 1.0369426 0.99237365 1.0181823 0.9773918
0.9648487 0.98414123 0.95617557 0.95697707 1.0189875 1.0053272 0.9915292 1.04114
00000000: 3280 7c3f 5143 833f c2b2 763f fb41 763f
00000010: cf79 793f 4ca6 783f ddcd 803f 18aa 813f
00000020: f03a 813f 859e 7e3f 8237 823f 81be 823f
00000030: e53c 863f a992 793f 42f3 763f 618f 803f
00000040: bf4c 7d3f d5d8 813f e2dd 833f 4438 853f
00000050: 4e57 713f d460 803f e431 763f 416a 803f
00000060: 831d 753f 8c09 883f 93db 843f df4f 773f
00000070: 61cb 7c3f 4ee4 7c3f 3f94 7b3f 5175 793f
00000080: ad6b 813f 9faa 783f 4475 803f 1e7e 803f
00000090: 04d7 783f ddaa 7c3f fb43 813f a383 803f
000000a0: a1df 7a3f 88a7 7c3f 50aa 7d3f a14c 883f
000000b0: b714 833f a2ee 7c3f ccf1 783f b899 7e3f
000000c0: 8857 7d3f 92be 7e3f f067 803f fe07 833f
000000d0: 89ba 843f 330c 7e3f cc53 823f 5936 7a3f
000000e0: 5300 773f aef0 7b3f ecc7 743f 73fc 743f
000000f0: 2f6e 823f 90ae 803f dcd4 7d3f 1344 853f

block1.bn1.bias f4 [64]
-0.029176662 0.0013182667 -0.023286495 -0.038516242 -0.020816486 -0.03721538 0.011845068 -0.0005511151
-0.019854436 0.0021608318 0.0069914707 0.015284337 0.0032500145 -0.033969253 -0.04522993 -0.050471883
-0.013183589 -0.0017083541 -0.0027926106 0.018723834 -0.027176982 0.009139163 -0.058114868 -0.0018130505
-0.01296997 0.015032867 0.01124517 -0.024608836 0.0012368028 -0.016006676 -0.04606976 -0.015417873
-0.018429194 -0.08948975 0.00065273873 0.00031043417 -0.017198334 -7.496199e-05 -0.02172011 0.021298891
0.0016814267 -0.03099799 -0.046764787 0.03991805 0.011455869 -0.06376764 -0.015068295 -0.025791744
-0.016802972 -0.0068403194 0.013388827 -0.034715407 -0.02010056 -0.03276274 0.024190139 -0.009088788
-0.048841298 -0.020701429 -0.032730464 -0.059467267 0.008803196 -0.0031130947 -0.012670079 0.023976589
00000000: e503 efbc b1c9 ac3a 52c3 bebc 35c3 1dbd
00000010: 5687 aabc 286f 18bd d111 423c b578 10ba
00000020: c5a5 a2bc be9c 0d3b b518 e53b 286b 7a3c
00000030: 32fe 543b 5823 0bbd 0543 39bd 9bbb 4ebd
00000040: fbff 57bc daea dfba 3b04 37bb ba62 993c
00000050: 43a2 debc 6ebc 153c db09 6ebd e1a3 edba
00000060: ff7f 54bc 6a4c 763c a93d 383c 7898 c9bc
00000070: 371c a23a 6f20 83bc a5b3 3cbd 3f9b 7cbc
00000080: d2f8 96bc 6746 b7bd 8e1c 2b3a c5c1 a239
00000090: 85e3 8cbc e934 9db8 5fee b1bc 037b ae3c
000000a0: 5163 dc3a 7fef fdbc 6f8c 3fbd 1c81 233d
000000b0: 66b1 3b3c 9c98 82bd 03e1 76bc 3549 d3bc
000000c0: 63a6 89bc c224 e0bb d05c 5b3c be31 0ebd
000000d0: eea9 a4bc 3932 06bd 662a c63c 24e9 14bc
000000e0: d00d 48bd 0b96 a9bc 6110 06bd f393 73bd
000000f0: 483b 103c 1005 4cbb 2a96 4fbc 8d6a c43c

block1.bn1.running_mean f4 [64]
0.011607574 -0.33721337 0.6081701 0.05809968 0.28791702 0.34149444 -0.6140529 -0.67664343
0.22328429 0.49799895 0.38600567 -0.372745 -0.38512996 0.040256165 -0.2128663 -0.3488654
-0.51289296 0.11670452 -0.6931692 -0.51590514 -0.11499612 0.22859561 0.68740183 -0.28024676
-0.027525628 -0.39411846 -0.58714277 -0.32815507 0.32532042 -0.522406 0.037435822 -0.42775103
-0.03154565 0.29224566 0.5094908 -0.5306731 -0.23069344 0.43017083 0.36554503 -0.2604212
-0.30400485 0.5202642 0.17533801 -0.35308978 -0.48436245 -0.009239806 0.54904383 0.12795052
0.13282037 0.595231 -0.32898512 0.105584465 -0.019825172 0.22363734 -0.3089952 -0.5134702
-0.26649317 0.15547079 -0.23082377 -0.20399548 -0.5072385 -0.5521295 -0.29611874 -0.73225284
00000000: b22d 3e3c 3ba7 acbe 09b1 1b3f eef9 6d3d
00000010: dc69 933e 5cd8 ae3e 9232 1dbf 8138 2dbf
00000020: a3a4 643e b8f9 fe3e 89a2 c53e 6fd8 bebe
00000030: c12f c5be a6e3 243d a0f9 59be 7c9e b2be
00000040: f44c 03bf c802 ef3d 8973 31bf 5c12 04bf
00000050: 1683 ebbd f814 6a3e 91f9 2f3f 817c 8fbe
00000060: 6d7d e1bc e5c9 c9be fd4e 16bf f103 a8be
00000070: 6690 a63e 66bc 05bf 4e56 193d 2f02 dbbe
00000080: 0336 01bd 39a1 953e fd6d 023f 31da 07bf
00000090: e73a 6cbe 5a3f dc3e b828 bb3e ed55 85be
000000a0: 86a6 9bbe 0930 053f cf8b 333e 2fc8 b4be
000000b0: 5bfe f7be 8e62 17bc 238e 0c3f 7605 033e
000000c0: 1002 083e 0f61 183f bd70 a8be ab3c d83d
000000d0: 6668 a2bc 3001 653e 9e34 9ebe c872 03bf
000000e0: cb71 88be bc33 1f3e 115d 6cbe 31e4 50be
000000f0: 62da 01bf 5c58 0dbf e09c 97be ec74 3bbf

block1.bn1.running_var f4 [64]
0.3970518 0.4875808 1.0564022 0.5383702 0.43356463 0.49595687 1.0165437 1.1362946
0.5265095 0.7389225 0.6173689 0.24332735 0.26299062 0.312148 0.75416 0.7466809
0.93622243 0.20169507 1.290659 0.60408425 0.7243902 0.49874976 0.8174097 0.6685874
0.23068811 0.28997973 0.9647387 1.594261 0.6397747 0.52856296 0.62711674 0.9497037
0.39442462 0.47256148 0.86418074 0.96551716 0.55585986 0.81676936 0.39144138 0.6207881
0.6874731 0.7756709 0.3820605 0.3141002 0.8338947 0.4314426 0.977767 0.42060253
0.35584655 0.6527094 0.5888525 0.25031674 0.40003076 1.4608122 0.33426735 0.92986643
0.5321019 0.5358689 0.9737773 0.55418175 0.9882846 0.4025861 0.45541534 0.99930227
00000000: 604a cb3e 31a4 f93e 3038 873f a1d2 093f
00000010: 2ffc dd3e 0fee fd3e 1b1e 823f 1a72 913f
00000020: 54c9 063f 062a 3d3f e30b 1e3f ce2a 793e
00000030: b5a6 863e ddd1 9f3e a110 413f 7b26 3f3f
00000040: 46ac 6f3f 2789 4e3e 5034 a53f 44a5 1a3f
00000050: a371 393f 215c ff3e c341 513f 8b28 2b3f
00000060: 8139 6c3e 3978 943e 1ef9 763f bf10 cc3f
00000070: 46c8 233f e74f 073f b98a 203f c81f 733f
00000080: 06f2 c93e 94f3 f13e f33a 5d3f 222c 773f
00000090: d54c 0e3f cc17 513f 016b c83e f8eb 1e3f
000000a0: 3dfe 2f3f 5e92 463f 6f9d c33e bed1 a03e
000000b0: 207a 553f 0be6 dc3e f04e 7a3f 3759 d73e
000000c0: 8531 b63e f717 273f 0abf 163f 8429 803e
000000d0: d5d0 cc3e e5fb ba3f 1725 ab3e ba0b 6e3f
000000e0: d537 083f b42e 093f 7849 793f dbde 0d3f
000000f0: 3800 7d3f c41f ce3e 332c e93e 46d2 7f3f

block1.conv2.weight f4 [64, 64, 3]
0.039593898 -0.036525447 0.02025174 -0.024241328 0.11538977 -0.0065513235 0.049093034 -0.03461271
-0.024136288 -0.081212044 0.03248455 -0.00899089 -0.047308825 0.063514784 -0.029019691 -0.053214673
-0.02293912 -0.008573852 -0.07428364 -0.07555574 0.014002795 0.051780395 0.026133958 0.03689675
-0.018346315 0.001794929 0.005120046 0.025180656 0.030174173 0.03285458 -0.045126375 -0.053070065
-0.040507697 -0.092535965 0.03504494 0.008163148 0.099396124 0.10645726 0.02766984 0.041994415
0.06285978 -0.0041315686 -0.015186441 0.02416745 -0.05635232 0.0072193537 -0.016500037 -0.07644462
-0.033139557 -0.05489207 0.0066856807 0.060526423 0.0891582 0.013421466 -0.07957122 0.03917663
-0.02448489 0.050170515 -0.047877274 0.017081201 0.06257487 0.073221244 0.05662765 0.028622016
0.009651649 0.008067216 -0.021456532 -0.037389155 -0.053979374 0.07106126 -0.02382692 -0.006665602
-0.00040510218 -0.04991986 -0.042253006 -0.09422756 0.0041928273 -0.055917665 0.044767424 -0.027861461
0.008628605 -0.06287266 -0.052632727 -0.08124056 -0.0011761416 0.059206266 -0.073885985 0.009998147
-0.035797864 0.06626975 0.0066604977 0.048346628 0.07167946 -0.029790575 -0.022842633 0.021180328
0.062224336 0.03678624 0.021429298 -0.05508138 -0.044699155 0.06384758 0.060259365 0.035261754
-0.012948606 0.020992309 0.07112683 0.0062126154 -0.04503168 -0.046294484 0.02765136 0.060659036
0.037318174 -0.03426766 0.08591054 0.07809837 0.032193918 -0.0534041 0.015690593 0.048681103
0.060443554 0.026609208 -0.036514662 -0.027627857 0.05670419 0.06844897 -0.060600065 -0.010964896
0.0045852913 -0.10952764 -0.08447957 0.0078600785 -0.09452443 -0.08348316 -0.03352818 0.059121586
0.06133116 0.09457149 -0.05555382 -0.041048944 -0.046502937 -0.022775711 -0.028494908 -0.016266974
-0.037749443 0.011139672 -0.01514337 -0.08023425 -0.038662545 0.016424313 -0.037113763 0.022348966
-0.011663911 -0.0074505885 0.0076202075 0.059570037 0.04401481 0.10739278 0.084233455 0.0054365727
0.007952122 0.016717821 -0.018765334 0.05464217 -0.047102343 -0.069607474 -0.011624384 0.05196971
-0.023166586 -0.029595383 0.08654236 0.020546287 -0.03342027 0.05876185 -0.046352617 0.04859719
-0.010535391 0.030979466 -0.018703897 -0.09101314 -0.081803136 -0.018517766 -0.0888391 -0.0016043123
0.054925952 -0.016190963 0.0568168 -0.018822903 -0.056208782 -0.014054907 -0.06976557 -0.036090337
-0.016970444 -0.020302596 0.028164295 -0.034661334 -0.031754803 0.09686204 -0.045809686 -0.024303455
-0.016514637 -0.07387115 -0.04565522 -0.047723334 0.06207794 -0.01471569 0.021608034 -0.05855131
-0.028027354 0.016313927 -0.07118418 -0.058568913 -0.1083606 0.008730791 0.057114076 0.0897742
-0.062473074 0.04372267 -0.05196486 0.081493 -0.046070375 -0.00183528 0.06950662 0.0754333
-0.05452562 0.010803449 0.04290219 -0.06396576 0.0040376848 -0.032140147 0.04113232 -0.013693627
0.056775015 -0.01592079 0.044313993 -0.004627513 0.05547381 0.0024579396 -0.03131051 -0.0009744322
-0.006824467 -0.04873868 0.047407996 0.032750323 -0.049009953 -0.03242975 0.0013492533 -0.06896357
-0.116109274 -0.10274767 0.023343641 -0.10312829 0.004460585 -0.009365548 -0.042580955 -0.043572057
00000000: 362d 223d b59b 15bd fae6 a53c c095 c6bc
00000010: 7951 ec3d 7cac d6bb c715 493d 0fc6 0dbd
00000020: 77b9 c5bc 8052 a6bd 850e 053d 874e 13bc
00000030: e6c6 41bd 0a14 823d b4ba edbc a1f7 59bd
00000040: d2ea bbbc 5779 0cbc 0522 98bd f8bc 9abd
00000050: fb6b 653c ae17 543d e216 d63c 0c21 173d
00000060: 034b 96bc d343 eb3a 0fc6 a73b aa47 ce3c
00000070: d42f f73c 8692 063d 6fd6 38bd ff5f 59bd
00000080: 66eb 25bd 7f83 bdbd 488b 0f3d b9be 053c
00000090: 3290 cb3d 4406 da3d dcab e23c 5602 2c3d
000000a0: a1bc 803d 1c62 87bb 8dd0 78bc d1fa c53c
000000b0: b1d1 66bd 5490 ec3b 162b 87bc ff8e 9cbd
000000c0: 58bd 07bd 82d6 60bd 8e13 db3b 8eea 773d
000000d0: 9398 b63d b5e5 5b3c 3cf6 a2bd ad77 203d
000000e0: 8994 c8bc 997f 4d3d f61a 44bd e0ed 8b3c
000000f0: 4127 803d 05f5 953d 65f2 673d b878 ea3c
00000100: f321 1e3c 5b2c 043c 9cc5 afbc 5f25 19bd
00000110: 7a19 5dbd 9188 913d ac30 c3bc 1f6b dabb
00000120: e563 d4b9 c478 4cbd 7d11 2dbd 61fa c0bd
00000130: fc63 893b ec09 65bd 0c5e 373d b83d e4bc
00000140: fe5e 0d3c 62c3 80bd 6a95 57bd 7361 a6bd
00000150: c328 9aba 4582 723d 8951 97bd 45cf 233c
00000160: c8a0 12bd 6fb8 873d 4e40 da3b 1d07 463d
00000170: aecc 923d 5d0b f4bc 7920 bbbc 5e82 ad3c
00000180: f2de 7e3d 2bad 163d 7f8c af3c 039d 61bd
00000190: 7616 37bd 85c2 823d 86d2 763d a16e 103d
000001a0: 6426 54bc 10f8 ab3c f2aa 913d 3293 cb3b
000001b0: 2473 38bd 499f 3dbd 1b85 e23c 9c75 783d
000001c0: f1da 183d 3f5c 0cbd ddf1 af3d 0af2 9f3d
000001d0: c5dd 033d 42be 5abd 8f89 803c d665 473d
000001e0: a993 773d 8efb d93c 6690 15bd d153 e2bc
000001f0: a742 683d f92e 8c3d c637 78bd 1ba6 33bc
00000200: 3640 963b 0750 e0bd a003 adbd 8fc7 003c
00000210: 0696 c1bd 38f9 aabd d854 09bd 7a29 723d
00000220: 6236 7b3d b3ae c13d 678c 63bd f022 28bd
00000230: dd79 3ebd 2194 babc 276e e9bc 5142 85bc
00000240: 299f 1abd 2c83 363c e61b 78bc db51 a4bd
00000250: 9e5c 1ebd 488c 863c 9a04 18bd 2e15 b73c
00000260: fd19 3fbc 1124 f4bb efb2 f93b b6ff 733d
00000270: e048 343d bff0 db3d 9782 ac3d 4725 b23b
00000280: 9e49 023c d0f3 883c c2b9 99bc 78d0 5f3d
00000290: 63ee 40bd 5d8e 8ebd 3374 3ebc 31de 543d
000002a0: dac7 bdbc 0472 f2bc 1f3d b13d b050 a83c
000002b0: b1e3 08bd 44b0 703d 3edc 3dbd d90d 473d
000002c0: a29c 2cbc a6c8 fd3c ea38 99bc 1965 babd
000002d0: 6788 a7bd 92b2 97bc 46f1 b5bd ca47 d2ba
000002e0: 09fa 603d e9a2 84bc bcb8 683d 7d32 9abc
000002f0: 2e3b 66bd 8d46 66bc 40e1 8ebd 76d3 13bd
00000300: 9a05 8bbc a151 a6bc cfb8 e63c 0bf9 0dbd
00000310: 5311 02bd 9b5f c63d f0a2 3bbd 0a18 c7bc
00000320: b449 87bc c249 97bd f800 3bbd 8b79 43bd
00000330: 7045 7e3d 141a 71bc 5503 b13c 80d3 6fbd
00000340: 9f99 e5bc c9a4 853c 03c9 91bd f5e5 6fbd
00000350: 2aec ddbd 970b 0f3c 73f0 693d 89db b73d
00000360: c4e3 7fbd 8b16 333d 1bd9 54bd cde5 a63d
00000370: 4ab4 3cbd c78d f0ba 7d59 8e3d c67c 9a3d
00000380: 4256 5fbd f300 313c 35ba 2f3d 7b00 83bd
00000390: 8e4e 843b 63a5 03bd 5d7a 283d 3c5b 60bc
000003a0: eb8c 683d 516c 82bc 9782 353d 64a2 97bb
000003b0: 8138 633d 6215 213b 733f 00bd 0a71 7fba
000003c0: c79f dfbb 36a2 47bd e32e 423d 3425 063d
000003d0: a9be 48bd 0fd5 04bd 6ed9 b03a c63c 8dbd
000003e0: b3ca edbd 5f6d d2bd 2a3b bf3c ed34 d3bd
000003f0: 192a 923b f571 19bc 5e69 2ebd 9d78 32bd

block1.conv2.bias f4 [64]
0.0020641338 -0.048499938 0.022309158 0.052669317 0.057158645 0.04336678 0.0013822785 -0.055369813
-0.054841552 0.022287987 -0.0075392653 -0.04891845 -0.0029943702 -0.013010374 -0.06917117 -0.050409053
0.065783404 0.045956425 -0.07263602 -0.033292424 0.014865719 0.023723327 0.028350309 0.012539027
0.023133477 0.032110523 0.0094333915 0.009092322 0.07784249 0.041177273 -0.057880886 -0.037779134
0.05318052 0.039493218 0.03738245 0.0063580177 -0.06479065 0.006894252 0.029000288 0.023698235
0.019974934 0.0063545234 0.026318608 -0.01510204 0.07294984 0.005774795 0.020494327 0.057439853
0.0008442423 0.0017387624 0.03517557 -0.051081087 -0.020388618 -0.03221118 -0.03255512 0.07184329
-0.01907784 -0.027640633 0.01509567 0.056671195 0.03259593 0.055290196 -0.02636653 -0.057282474
00000000: 6b46 073b dfa7 46bd b2c1 b63c c8bb 573d
00000010: 2f1f 6a3d 5da1 313d 922d b53a 75cb 62bd
00000020: 89a1 60bd 4c95 b63c f10b f7bb b65e 48bd
00000030: 323d 44bb 7729 55bc 9da9 8dbd b979 4ebd
00000040: 73b9 863d ce3c 3c3d 32c2 94bd a35d 08bd
00000050: 588f 733c 6c57 c23c e83e e83c 7e70 4d3c
00000060: 6b82 bd3c 5386 033d 838e 1a3c f6f7 143c
00000070: e26b 9f3d 80a9 283d 8214 6dbd 4bbe 1abd
00000080: d1d3 593d a4c3 213d 571e 193d eb56 d03b
00000090: f6b0 84bd 2de9 e13b 0392 ed3c cd22 c23c
000000a0: 79a2 a33c 9b39 d03b 1f9a d73c 8c6e 77bc
000000b0: ba66 953d 7e3a bd3b b8e3 a73c 0d46 6b3d
000000c0: 2450 5d3a 2fe7 e33a 4214 103d 673a 51bd
000000d0: 0806 a7bc dfef 03bd 8458 05bd 9322 933d
000000e0: 2149 9cbc 9c6e e2bc d453 773c 0e20 683d
000000f0: 4f83 053d f977 623d 9ffe d7bc 07a1 6abd

block1.bn2.weight f4 [64]
1.0617708 1.0310115 1.0232555 1.0666859 1.0131536 0.9880359 1.0037307 1.0228232
1.0565765 1.0725799 1.0592788 1.0114623 1.0204988 1.0648072 1.0082034 0.9977331
0.97521806 0.99253875 1.0375279 0.99322176 0.9957528 1.0296326 1.0440031 0.98240834
1.0083972 0.97451264 0.9642942 1.0604973 0.99715406 1.0115834 0.98942196 1.0196652
1.0381933 1.0023582 1.0145543 1.0299159 1.0302202 0.9988555 0.9756996 1.0538353
1.0555115 1.0204653 1.0423248 1.0000466 1.0168446 1.0420796 0.98638386 0.9613925
0.99698824 1.0103686 1.01246 1.0176097 1.0250793 1.0332456 0.9958855 1.0153084
0.9875048 0.9605262 1.0416387 0.99252963 1.0536456 1.0173657 1.0721985 0.9873684
00000000: 1be8 873f 2ff8 833f 09fa 823f 2a89 883f
00000010: 04af 813f ecef 7c3f 3f7a 803f dfeb 823f
00000020: e63d 873f 4c4a 893f 7396 873f 9977 813f
00000030: b49f 823f 9a4b 883f cf0c 813f 706b 7f3f
00000040: e4a7 793f 0517 7e3f b7cd 843f c843 7e3f
00000050: a8e9 7e3f 00cb 833f e5a1 853f 1d7f 7b3f
00000060: 2913 813f a979 793f fcdb 763f 60be 873f
00000070: 7d45 7f3f 917b 813f c24a 7d3f 6484 823f
00000080: 85e3 843f 464d 803f eadc 813f 49d4 833f
00000090: 41de 833f feb4 7f3f 73c7 793f 13e4 863f
000000a0: 001b 873f 9b9e 823f e66a 853f 8701 803f
000000b0: f727 823f dd62 853f a783 7c3f d21d 763f
000000c0: 9f3a 7f3f c253 813f 4a98 813f 0941 823f
000000d0: cc35 833f 6441 843f 5af2 7e3f a0f5 813f
000000e0: 1dcd 7c3f 0ce5 753f 6b54 853f 6c16 7e3f
000000f0: dcdd 863f 0a39 823f cd3d 893f 2dc4 7c3f

block1.bn2.bias f4 [64]
-0.014335458 0.02110908 0.018623415 -0.024866039 0.004416413 -0.015754782 0.035577852 0.0070044016
-0.012724022 -0.037144933 0.0106385285 0.011251807 0.026711239 0.0147761125 -0.011786463 0.0314531
-0.014146741 0.01293146 0.033900954 -0.005752638 0.01553356 -0.015704535 -0.010161633 0.010537538
0.0125668915 -0.02605937 0.0036455663 -0.02191892 0.010040658 -0.017820202 0.005941484 0.013210972
-0.007867355 0.020654406 0.007902867 0.012931944 0.034175903 0.018150058 -0.028797053 -0.03359615
-0.023408307 -0.0035405345 0.02602521 0.011665981 0.004372501 -0.002604205 0.020110939 -0.024084201
0.028549796 0.035677113 -0.007858602 0.017118478 0.029064469 0.050073113 -0.012365852 -0.017976057
0.018047221 -0.003582254 0.012535756 0.01079426 0.020085067 0.013429481 0.011858656 -0.013682918
00000000: 45df 6abc f3ec ac3c 2290 983c ddb3 cbbc
00000010: 8fb7 903b 2c10 81bc 15ba 113d 2e85 e53b
00000020: 6b78 50bc 4925 18bd 394d 2e3c 8059 383c
00000030: 87d1 da3c 8217 723c 021c 41bc f7d4 003d
00000040: bbc7 67bc 79de 533c badb 0a3d a080 bcbb
00000050: 7980 7e3c cca6 80bc fa7c 26bc a3a5 2c3c
00000060: 5de5 4d3c 767a d5bc 74ea 6e3b 4f8f b3bc
00000070: 9281 243c acfb 91bc c8b0 c23b d572 583c
00000080: 14e6 00bc 6e33 a93c 077b 013c 81e0 533c
00000090: 08fc 0b3d 6eaf 943c cce7 ebbc 1e9c 09bd
000000a0: c7c2 bfbc 5008 68bb d232 d53c ac22 3f3c
000000b0: 3247 8f3b 4fab 2abb b2bf a43c 3b4c c5bc
000000c0: 43e1 e93c 2a22 123d 5ec1 00bc 0d3c 8c3c
000000d0: 9c18 ee3c 7719 4d3d 249a 4abc 8642 93bc
000000e0: c4d7 933c 40c4 6abb c662 4d3c 68da 303c
000000f0: 7089 a43c 5307 5c3c cf4a 423c 512e 60bc

block1.bn2.running_mean f4 [64]
-0.12835665 -0.7441298 0.20513351 0.6403736 0.0056678983 -0.4545215 0.013069954 -0.58222795
0.030269397 0.5057558 0.4276674 0.50436217 -0.6161128 0.5033281 0.5355144 0.090524554
-0.29255873 -0.65810263 -0.63968885 0.5031832 -0.20204845 0.47292846 -0.69436425 -0.17945816
-0.5367297 -0.60028 0.48509744 0.42464194 -0.5927565 0.60119903 -0.14651841 -0.8064138
0.97572094 -0.49234164 0.015489262 -0.7610935 -0.41743845 -0.49991292 0.013792634 0.41032773
0.23926462 0.14130504 -0.38160458 0.19708909 -0.6467539 0.4922021 -0.43524212 0.06820521
-0.58791596 -0.6353445 0.014210789 -0.6807436 -0.61302775 -0.3611346 0.18690932 0.46816126
-0.8412041 0.8665885 -0.7166145 -0.08699261 0.5805501 -0.70827246 0.48714155 0.40482146
00000000: ed6f 03be 4a7f 3ebf 850e 523e 86ef 233f
00000010: c7b9 b93b 0bb7 e8be 5c23 563c e40c 15bf
00000020: 87f7 f73c 3679 013f 39f7 da3e e11d 013f
00000030: 92b9 1dbf 1cda 003f 7917 093f f064 b93d
00000040: 42ca 95be 6a79 28bf a6c2 23bf 9dd0 003f
00000050: cae5 4ebe ae23 f23e dbc1 31bf e1c3 37be
00000060: 1e67 09bf f3ab 19bf b15e f83e ab6a d93e
00000070: e4be 17bf 2ee8 193f ec08 16be 2371 4ebf
00000080: d9c8 793f 3414 fcbe acc6 7d3c 06d7 42bf
00000090: 7eba d5be 96f4 ffbe 80fa 613c 7a16 d23e
000000a0: c901 753e 45b2 103e ad61 c3be b9d1 493e
000000b0: aa91 25bf ea01 fc3e 0ed8 debe 2caf 8b3d
000000c0: a981 16bf f0a5 22bf 5fd4 683c 3645 2ebf
000000d0: 63ef 1cbf a2e6 b8be 2865 3f3e d5b2 ef3e
000000e0: 2759 57bf bed8 5d3f 0c74 37bf 2e29 b2bd
000000f0: ee9e 143f 5851 35bf 9e6a f93e c244 cf3e

block1.bn2.running_var f4 [64]
0.59905934 0.32127008 1.1259938 0.3426474 0.39308992 0.34950083 0.26745203 0.4990419
0.44303513 0.7199481 0.30130634 0.19774798 0.51391256 0.6571095 0.49286595 0.5754259
0.96405846 0.7395304 0.4222623 1.0897477 0.3032334 0.7039806 0.36278734 0.8048938
0.47942978 0.80013406 0.6881236 0.6213566 0.57360387 0.28730118 0.40459463 0.9101165
0.71484494 0.92018473 0.15240741 0.5086183 0.27935025 1.4072318 0.6550182 0.28660816
0.33254725 0.7106501 0.6531369 0.33167765 0.6041596 0.19990285 0.54142046 0.39404133
0.2635204 0.94668436 0.7105814 0.5294241 0.6166211 0.96906525 0.49637696 0.6433124
0.24133995 0.3581138 0.27724037 0.47526455 0.34292623 0.32324547 0.27812856 0.23913044
00000000: f45b 193f 837d a43e 9120 903f 7b6f af3e
00000010: 1543 c93e c6f1 b23e 79ef 883e 6b82 ff3e
00000020: 80d5 e23e 854e 383f d344 9a3e 727e 4a3e
00000030: c68f 033f 5438 283f ed58 fc3e 1d4f 133f
00000040: 89cc 763f dd51 3d3f c432 d83e da7c 8b3f
00000050: 6941 9b3e 1338 343f 43bf b93e 850d 4e3f
00000060: d277 f53e 96d5 4c3f de28 303f 3a11 1f3f
00000070: b4d7 123f 2419 933e 0727 cf3e 65fd 683f
00000080: 1400 373f 3a91 6b3f b010 1c3e cf34 023f
00000090: ff06 8f3e 2c20 b43f 46af 273f 4ebe 923e
000000a0: a243 aa3e 2aed 353f fb33 273f a7d1 a93e
000000b0: 34aa 1a3f 55b3 4c3e 889a 0a3f c9bf c93e
000000c0: 25ec 863e e859 723f aae8 353f 5688 073f
000000d0: e1da 1d3f a914 783f 1f25 fe3e 1fb0 243f
000000e0: d221 773e b15a b73e 73f2 8d3e e055 f33e
000000f0: 0794 af3e 6e80 a53e de66 8e3e 9cde 743e

block2.conv1.weight f4 [64, 64, 3]
-0.014760336 -0.05750657 -0.043541178 -0.013812067 -0.005358891 -0.07688558 -0.082018785 -0.08153555
0.047615487 0.001495702 -0.057112932 0.06679406 0.032232612 -0.101251036 -0.07736197 0.059551723
0.022889793 0.050454807 0.062036887 -0.039880455 -0.06809788 -0.020765018 0.059489664 -0.030049969
-0.0065023196 0.035680242 0.05457237 0.07647764 0.012327564 -0.01631242 -0.025096834 -0.053996142
0.015303043 0.0061548185 -0.053108126 -0.008677012 0.048504863 0.059872445 0.057178844 -0.01953543
0.03286893 -0.0043905745 -0.04183196 0.0126846535 -0.09192573 -0.06522511 -0.015384769 0.0060864063
-0.0129671125 -0.020628516 -0.020559097 0.04154557 0.02611619 0.0019381728 0.032827556 -0.05490792
-0.04872483 -0.07652664 0.038036287 -0.06843486 -0.039528858 -0.0066714324 0.018893551 -0.059409432
-0.028482605 0.04156255 0.042612426 0.039664283 0.02883994 -0.008518408 0.015496678 -0.058093373
-0.034057625 -0.078140736 0.044900272 0.02795064 0.06451232 0.001567787 -0.017986031 0.05352928
-0.05620841 -0.02552309 0.061371382 0.044236284 -0.08026499 0.0045017703 -0.07072604 -0.024141164
0.039354905 -4.8242062e-05 0.070093244 -0.020481002 0.013680005 -0.03910431 0.013290058 -0.018882725
-0.04678638 -0.020065809 0.0063696206 0.05457885 0.04664042 -0.016184984 0.0042490168 -0.09073368
-0.0291752 -0.040761955 -0.058272615 -0.049869392 -0.033445813 -0.030039538 -0.05885189 0.041755248
0.046053804 -0.01912376 -0.0003020732 -0.005491867 -0.08919244 0.0112463385 -9.605882e-05 -0.05087119
-0.03596808 0.056709923 -0.027581558 0.005789019 -0.10017341 -0.022462102 -0.06478032 0.021567665
-0.0109849945 -0.06153852 -0.012154572 -0.07801978 -0.017263854 0.06021051 -0.0011404393 -0.01473158
-0.0509139 0.010184632 -0.017383294 -0.046265308 0.016251085 -0.07514632 -0.008080671 -0.013600791
0.022824109 0.0141754905 0.047368348 -0.074778855 0.033782914 0.009257497 -0.0646221 0.025024367
-0.01556417 -0.0559538 -0.0044434764 -0.05197258 -0.042765856 -0.015631352 -0.07125894 0.07839891
0.014342549 0.03908458 -0.03955112 -0.045952633 -0.05295488 -0.019458702 0.026008753 -0.04112352
0.07677098 -0.013906997 0.001209105 -0.00736504 0.052166358 -0.07775548 0.020185014 0.09187046
-0.021928107 -0.07506361 -0.097890526 -0.06825314 -0.07783353 -0.020362327 -0.09020162 0.04838181
0.051689584 -0.040880635 -0.0072478675 -0.009599506 0.026831299 -0.04247867 0.026086882 -0.00029972618
-0.05457641 0.048063364 -0.04797071 0.013613918 0.044850834 0.020710083 0.044585492 0.05919148
0.030065553 0.032058343 -0.049990084 -0.0411941 -0.07629182 0.021862978 0.026334248 -0.044470906
-0.006903799 0.01219745 -0.016083386 -0.0072628283 0.023017978 0.020438645 -0.04006091 -0.040326808
0.009782893 -0.008377774 0.022450702 0.029650535 -0.0678011 -0.03979517 -0.0040767207 -0.003958314
0.001547314 -0.03374929 0.01565645 0.07008246 0.07852884 0.07401815 -0.0142440805 0.013246028
0.034305308 -0.04207514 -0.05646479 0.040738013 -0.03418324 0.09396915 0.0018163956 0.047333837
-0.03881438 0.06966155 0.077239625 -0.029436875 -0.023957599 0.048687775 0.0064702323 0.063840635
0.035115536 -0.046383295 0.0053673657 -0.076832965 -0.00072921213 0.056477677 0.07698453 -0.016942408
00000000: 56d5 71bc 028c 6bbd 3c58 32bd 024c 62bc
00000010: a399 afbb 3076 9dbd 77f9 a7bd 1cfc a6bd
00000020: 7508 433d 6e0b c43a 40ef 69bd 53cb 883d
00000030: 5806 043d b45c cfbd f46f 9ebd 82ec 733d
00000040: 6083 bb3c b3a9 4e3d 641a 7e3d b059 23bd
00000050: e776 8bbd 661b aabc 6fab 733d 5a2b f6bc
00000060: 6911 d5bb 7225 123d 4787 5f3d 4fa0 9c3d
00000070: 8df9 493c a0a1 85bc e097 cdbc 0f2b 5dbd
00000080: 9db9 7a3c 5cae c93b e887 59bd 072a 0ebc
00000090: 09ad 463d cf3c 753d 5d34 6a3d c408 a0bc
000000a0: 92a1 063d cfde 8fbb fd57 2bbd 4bd3 4f3c
000000b0: 8f43 bcbd be94 85bd 6610 7cbc 7a70 c73b
000000c0: 0374 54bc 22fd a8bc 8d6b a8bc b02b 2a3d
000000d0: 9ff1 d53c 4a0a fe3a 3076 063d 21e7 60bd
000000e0: b093 47bd 00ba 9cbd f0cb 1b3d 9327 8cbd
000000f0: 03e9 21bd 089c dabb a6c6 9a3c 4e57 73bd
00000100: 5a54 e9bc 7e3d 2a3d 5e8a 2e3d 0477 223d
00000110: bd41 ec3c cb90 0bbc c7e5 7d3c 51f3 6dbd
00000120: 0280 0bbd 4008 a0bd 59e9 373d bef8 e43c
00000130: 091f 843d 347e cd3a 7157 93bc 8541 5b3d
00000140: ca3a 66bd cd15 d1bc 8f60 7b3d 1b31 353d
00000150: f961 a4bd 9683 933b d0d8 90bd b1c3 c5bc
00000160: 9c32 213d 8557 4ab8 0c8d 8f3d c6c7 a7bc
00000170: 1a22 603c d72b 20bd 8bbe 593c f2af 9abc
00000180: 13a3 3fbd 0d61 a4bc 40b8 d03b 128e 5f3d
00000190: 060a 3f3d 5f96 84bc 563b 8b3b 94d2 b9bd
000001a0: d400 efbc 02f6 26bd 44af 6ebd d943 4cbd
000001b0: 7afe 08bd 7a15 f6bc ae0e 71bd 8d07 2b3d
000001c0: eaa2 3c3d 6ea9 9cbc 945f 9eb9 1ff5 b3bb
000001d0: 87aa b6bd 9042 383c 3073 c9b8 4f5e 50bd
000001e0: 4453 13bd aa48 683d b8f2 e1bc d0b1 bd3b
000001f0: b727 cdbd 7102 b8bc 8bab 84bd acae b03c
00000200: 68fa 33bc d10f 7cbd f823 47bc d6c8 9fbd
00000210: ed6c 8dbc 4c9f 763d cb7a 95ba ba5c 71bc
00000220: 188b 50bd 71dd 263c 6967 8ebc b180 3dbd
00000230: ff20 853c 50e6 99bd ca64 04bc dad5 5ebc
00000240: a0f9 ba3c 5140 683c 5005 423d a825 99bd
00000250: f45f 0a3d c2ac 173c 9758 84bd e7ff cc3c
00000260: dc00 7fbc d02f 65bd 959a 91bb 33e1 54bd
00000270: 402b 2fbd 520d 80bc 35f0 91bd 9c8f a03d
00000280: 03fd 6a3c 2717 203d 5b00 22bd d438 3cbd
00000290: 37e7 58bd db67 9fbc 4f10 d53c 2371 28bd
000002a0: 1b3a 9d3d 2cda 63bc d57a 9e3a 6f56 f1bb
000002b0: 64ac 553d 443e 9fbd 0b5b a53c 9426 bc3d
000002c0: 93a2 b3bc f3ba 99bd d47a c8bd 4dc8 8bbd
000002d0: 3067 9fbd e5ce a6bc a0bb b8bd 012c 463d
000002e0: 75b8 533d 7472 27bd 857f edbb 3f47 1dbc
000002f0: 50cd db3c 1dfe 2dbd 28b4 d53c 9124 9db9
00000300: 848b 5fbd 17de 443d ef7c 44bd e90c 5f3c
00000310: 82b5 373d 31a8 a93c 479f 363d c472 723d
00000320: 094c f63c 9c4f 033d 67c2 4cbd 25bb 28bd
00000330: e33e 9cbd fd19 b33c ecba d73c 2027 36bd
00000340: 4339 e2bb d0d7 473c 4ec1 83bc 05fd edbb
00000350: 3390 bc3c f26e a73c e916 24bd b92d 25bd
00000360: 6d48 203c ee42 09bc 89ea b73c aee5 f23c
00000370: 4edb 8abd 4300 23bd 0396 85bb bfb4 81bb
00000380: 3ecf ca3a b23c 0abd f541 803c 6587 8f3d
00000390: bad3 a03d d496 973d 0160 69bc de05 593c
000003a0: b983 0c3d fb56 2cbd a047 67bd e7dc 263d
000003b0: ba03 0cbd e672 c03d 1f14 ee3a 20e1 413d
000003c0: d4fb 1ebd b7aa 8e3d cf2f 9e3d 9a25 f1bc
000003d0: ba42 c4bc d56c 473d 3e04 d43b e1be 823d
000003e0: 4fd5 0f3d 69fc 3dbd bae0 af3b 9a5a 9dbd
000003f0: 9928 3fba 2355 673d 11aa 9d3d ceca 8abc

block2.conv1.bias f4 [64]
0.024100216 -0.014762211 -0.05398595 -0.030719008 -0.04343673 0.04623991 -0.021107499 -0.008203186
-0.005728127 -0.035253417 -0.044276424 0.018406255 0.07311498 0.08023687 -0.00031815376 -0.01633126
-0.023829073 0.04759848 0.041461445 0.034839727 0.0007399379 0.047701806 -0.027691893 -0.05425118
0.03033907 -0.00092745945 -0.035111412 -0.0321731 -0.051910393 0.010395287 -0.006805941 -0.043491848
0.031432435 -0.073086105 0.020052295 0.016230201 0.044012047 -0.025425473 -0.0065489723 0.029388629
-0.028664798 0.06596589 -0.032174006 -0.020720514 -0.013727983 0.03062533 -0.02368235 0.049201027
0.050804432 0.00997766 -0.05157873 -0.032205507 -0.01032009 -0.04358973 -0.03686954 0.014431882
0.050643347 -0.045778092 0.06454699 0.056911398 0.039354727 0.012663575 0.04014639 0.041221734
00000000: d16d c53c 33dd 71bc 5f20 5dbd 6ea6 fbbc
00000010: b6ea 31bd 0f66 3d3d a2e9 acbc a866 06bc
00000020: 03b3 bbbb e365 10bd 325b 35bd b7c8 963c
00000030: 4ebd 953d 3a53 a43d e0cd a6b9 22c9 85bc
00000040: 3035 c3bc a0f6 423d 7ad3 293d 1ab4 0e3d
00000050: 64f8 413a f862 433d 1cda e2bc 7c36 5ebd
00000060: a489 f83c c020 73ba fcd0 0fbd f1c7 03bd
00000070: fe9f 54bd fe50 2a3c 5f04 dfbb 8224 32bd
00000080: 4cbf 003d 2bae 95bd b644 a43c 33f5 843c
00000090: fa45 343d 1549 d0bc c398 d6bb 6cc0 f03c
000000a0: 70d2 eabc 2019 873d e4c8 03bd 11be a9bc
000000b0: 56eb 60bc f9e1 fa3c 7d01 c2bc 0487 493d
000000c0: 4f18 503d 5779 233c 3844 53bd ece9 03bd
000000d0: 9815 29bc 258b 32bd 8404 17bd b373 6c3c
000000e0: 666f 4f3d cf81 3bbd 3631 843d ed1b 693d
000000f0: 6c32 213d e27a 4f3c 8b70 243d 1fd8 283d
