ecg_afib_detection/checkpoints/mit-bih/250hz/resnet1d/fold_2/last.pt (torch, 321247 bytes, 44 tensors)

stem.0.weight f4 [64, 2, 7]
0.19055182 0.026500847 -0.18860203 -0.012475882 0.005556659 -0.038957834 0.023380028 0.18080437
-0.17237397 0.2504508 0.04721787 -0.16743012 -0.07436536 -0.22355524 0.18316136 -0.12398914
-0.12044358 0.03316942 -0.16272171 -0.12655516 0.10786103 0.1851096 -0.07142349 0.22546306
0.16086888 0.1780218 0.22442536 -0.14771627 -0.19047783 -0.2383864 0.23798303 0.0694237
-0.08168289 -0.004099346 -0.14947627 0.17488313 -0.02644955 -0.16707093 -0.034834642 -0.02669582
-0.014118213 0.18875942 0.12655151 0.12487445 0.1791564 -0.1983247 -0.24944666 -0.103789926
0.06577071 -0.032112326 0.088420495 -0.08450061 -0.0900347 0.1295729 0.035132173 0.041670926
0.17256704 0.14241786 0.18723668 0.1913378 -0.24018316 -0.13115104 -0.12629037 0.18849792
0.2658302 -0.03386948 -0.24681887 -0.18540537 -0.24368459 0.18148646 -0.20570764 0.05987151
0.005920784 -0.06880329 0.20773172 0.052012008 -0.05720576 0.069216795 -0.09071678 -0.021219643
0.036548834 -0.088995226 0.20100401 -0.19902763 -0.113536686 -0.26427543 0.15641473 0.089092374
-0.15286249 -0.17976934 0.07091966 -0.11884834 0.14830172 0.050523378 -0.14997908 0.14900604
0.021325454 0.10029123 -0.03955255 0.036861155 0.06387226 0.10062668 -0.22081275 0.25287807
0.08506077 -0.028061464 -0.06612224 0.2553112 -0.30506176 0.19855057 -0.12158382 -0.0643693
0.022206113 0.11810146 -0.068138994 -0.22605668 0.08486178 0.14352012 -0.20162906 -0.22432747
-0.0691271 0.064667225 -0.22288269 -0.2415838 0.048018243 0.0846966 0.11691923 -0.115053
-0.13278982 -0.026929492 0.07753022 0.1395775 0.04238721 -0.080263756 0.05815746 0.16423854
-0.24485138 -0.081261955 0.21534498 -0.21995935 -0.19580334 0.18878026 0.28883708 0.26299095
-0.27654216 -0.24191067 -0.13850696 -0.16306844 0.15472926 0.2621569 -0.24022497 0.07573998
0.05421569 -0.06997724 0.13205485 -0.22432654 0.20700705 0.26916555 -0.05629146 0.09961575
-0.08771764 0.093497336 0.20403564 0.07837471 -0.12438857 -0.20373854 0.09852209 0.2680862
-0.27822316 0.050980497 0.16021664 0.10932604 -0.28443542 0.11409025 0.16268823 0.11816276
0.05181047 0.03924053 -0.17048068 -0.11556978 0.2082265 -0.04689847 -0.0415331 -0.1066449
0.1488078 0.04857832 -0.17464072 -0.0370535 0.044313893 -0.05556865 -0.03987486 0.20516223
0.26022807 -0.20359881 -0.2226315 0.13081527 -0.14225774 0.09186396 -0.26170412 -0.16545074
-0.27311504 0.033326693 -0.09233489 0.058086816 -0.051139783 0.11151244 0.010380689 -0.0315791
0.1127885 -0.048570413 -0.0020093767 0.13127129 0.006323864 -0.111022115 0.09232698 0.1311256
-0.2473721 0.18579464 0.226152 0.30835804 0.20076674 0.03061552 0.17709538 -0.075932495
-0.18252714 0.26227263 -0.23419976 0.014635861 0.17865017 -0.21171315 0.16846743 0.05650649
0.13687705 -0.3553149 0.28003743 -0.14572644 -0.13453111 0.17406417 -0.16827017 0.13365683
0.08640649 -0.09130259 0.027740281 0.1318951 -0.16701178 -0.013148596 0.17075957 -0.2358901
0.2166401 -0.105990954 0.00051949057 0.002966785 0.12504941 0.1588496 -0.0690698 0.039928656
00000000: 0420 433e 4e18 d93c e420 41be a467 4cbc
00000010: a214 b63b 4092 1fbd 7987 bf3c c824 393e
00000020: cd82 30be 163b 803e 8667 413d cd72 2bbe
00000030: de4c 98bd aaeb 64be a78e 3b3e 05ee fdbd
00000040: 20ab f6bd a8dc 073d 85a0 26be ad97 01be
00000050: 3ee6 dc3d 5f8d 3d3e 7b46 92bd cadf 663e
00000060: d0ba 243e 594b 363e c3cf 653e ef42 17be
00000070: 9f0c 43be 901b 74be d3b1 733e 032e 8e3d
00000080: 5c49 a7bd cf53 86bb 4f10 19be 9014 333e
00000090: baac d8bc a414 2bbe c5ae 0ebd 31b1 dabc
000000a0: 1450 67bc 264a 413e b896 013e 2dbe ff3d
000000b0: c674 373e a115 4bbe f26e 7fbe d08f d4bd
000000c0: cbb2 863d 3788 03bd ce15 b53d a80e adbd
000000d0: 1d64 b8bd c2ae 043e c1e6 0f3d 22af 2a3d
000000e0: 6ab5 303e fdd5 113e f9ba 3f3e 0eee 433e
000000f0: 93f2 75be 754c 06be 4352 01be 9905 413e
00000100: e51a 883e b9ba 0abd 16be 7cbe e8da 3dbe
00000110: 7488 79be 96d7 393e 06a5 52be d43b 753d
00000120: 2303 c23b bde8 8cbd a0b7 543e 8b0a 553d
00000130: 9650 6abd 89c1 8d3d b8c9 b9bd d1d4 adbc
00000140: 3bb4 153d 2143 b6bd ffd3 4d3e e6cd 4bbe
00000150: ec85 e8bd 1c4f 87be 2f2b 203e 1076 b63d
00000160: fc87 1cbe 7415 38be 543e 913d c266 f3bd
00000170: 68dc 173e 9af1 4e3d 1e94 19be 0a95 183e
00000180: b8b2 ae3c 7d65 cd3d db01 22bd b9fb 163d
00000190: 76cf 823d 5c15 ce3d bd1c 62be 3c79 813e
000001a0: 5734 ae3d 28e1 e5bc 196b 87bd 26b8 823e
000001b0: 0e31 9cbe d750 4b3e f000 f9bd 0dd4 83bd
000001c0: 98e9 b53c 2edf f13d 758c 8bbd 677b 67be
000001d0: 03cc ad3d f0f6 123e d977 4ebe 1ab6 65be
000001e0: 8292 8dbd 4070 843d 5c3b 64be be61 77be
000001f0: c7ae 443d 6975 ad3d 5973 ef3d e8a0 ebbd
00000200: 0efa 07be 3d9b dcbc 2ac8 9e3d 67ed 0e3e
00000210: 369e 2d3d 5361 a4bd 8436 6e3d 262e 283e
00000220: 52ba 7abe ab6c a6bd 6583 5c3e 063d 61be
00000230: ac80 48be 9d4f 413e 74e2 933e c0a6 863e
00000240: ef96 8dbe 6eb7 77be c5d4 0dbe 6afb 26be
00000250: 5971 1e3e 6e39 863e 89fd 75be 901d 9b3d
00000260: 4511 5e3d 3a50 8fbd 6339 073e dbb5 65be
00000270: a8f9 533e 11d0 893e e091 66bd 5803 cc3d
00000280: 4ea5 b3bd 887b bf3d b8ee 503e ec82 a03d
00000290: 6fbf febd d6a0 50be f3c5 c93d 9842 893e
000002a0: 4473 8ebe edd0 503d d50f 243e 55e6 df3d
000002b0: 85a1 91be 26a8 e93d be97 263e 51ff f13d
000002c0: 3737 543d aeba 203d 7d92 2ebe d9af ecbd
000002d0: 5439 553e 9c18 40bd 9d1e 2abd a468 dabd
000002e0: 1261 183e 0ffa 463d 04d5 32be 69c5 17bd
000002f0: 7c82 353d f49b 63bd d253 23bd 0c16 523e
00000300: 9d3c 853e 357c 50be 83f9 63be 70f4 053e
00000310: 03ac 11be 2c23 bc3d 15fe 85be eb6b 29be
00000320: bcd5 8bbe 9281 083d 131a bdbd 71ec 6d3d
00000330: f377 51bd a260 e43d c413 2a3c 1659 01bd
00000340: a8fd e63d c5f1 46bd bfaf 03bb fb6b 063e
00000350: 6b38 cf3b 905f e3bd ed15 bd3d ca45 063e
00000360: 1d4f 7dbe f340 3e3e 6494 673e 1be1 9d3e
00000370: cc95 4d3e 66cd fa3c 7e58 353e 7f82 9bbd
00000380: 65e8 3abe 9948 863e 10d2 6fbe 40cb 6f3c
00000390: 12f0 363e 55cb 58be ba82 2c3e 5973 673d
000003a0: 7f29 0c3e d6eb b5be 1161 8f3e 5039 15be
000003b0: 86c2 09be e13d 323e 044f 2cbe 56dd 083e
000003c0: e3f5 b03d dafc babd 963f e33c 820f 073e
000003d0: 2305 2bbe 356d 57bc 99db 2e3e 2d8d 71be
000003e0: e7d6 5d3e c911 d9bd 6c2e 083a 656e 423b
000003f0: f40c 003e 78a9 223e 7874 8dbd 3b8c 233d

stem.0.bias f4 [64]
0.1332518 -0.107054584 0.11838096 0.27658242 -0.0357487 -0.12689228 0.24638502 0.1096549
-0.14957443 -0.008632821 0.1144227 0.11014682 -0.1475598 -0.23182397 0.034646567 -0.1026796
-0.082788765 0.039205827 0.13192083 0.07038157 -0.28109363 0.24737011 -0.07536068 0.0093378145
0.0029661432 0.04619562 0.0391955 0.055419434 -0.10756494 -0.22755075 0.18543193 0.17113416
0.16756788 -0.07106335 0.016203191 0.15933977 0.22270726 -0.08530832 0.14216374 0.22905554
-0.044049412 0.08134624 0.026694966 0.25165156 0.26843542 0.14122523 -0.09273164 -0.2559918
0.10224976 0.050608225 -0.24811813 0.26474005 -0.16102855 0.035089757 -0.020064928 -0.16135404
-0.062485665 -0.23186053 -0.065479204 -0.068545476 -0.15180288 -0.027222473 0.06017056 -0.020964852
00000000: 2973 083e 6f3f dbbd b771 f23d 369c 8d3e
00000010: 3b6d 12bd 0df0 01be 5b4c 7c3e c092 e03d
00000020: 0a2a 19be ad70 0dbc 7356 ea3d a894 e13d
00000030: eb19 17be 4363 6dbe 8fe9 0d3d af49 d2bd
00000040: 288d a9bd 4a96 203d 4116 073e 3624 903d
00000050: 81eb 8fbe 974e 7d3e b356 9abd a2fd 183c
00000060: a063 423b 9e37 3d3d 768b 203d 7dff 623d
00000070: 024b dcbd 1003 69be dee1 3d3e cb3d 2f3e
00000080: ea96 2b3e a989 91bd 8ebc 843c f729 233e
00000090: 5f0d 643e 21b6 aebd 5f93 113e 898d 6a3e
000000a0: 286d 34bd dc98 a63d 67af da3c 79d8 803e
000000b0: 5e70 893e 599d 103e 16ea bdbd 5b11 83be
000000c0: 5268 d13d 924a 4f3d ae12 7ebe 028c 873e
000000d0: abe4 24be 47ba 0f3d 345f a4bc fe39 25be
000000e0: f8f0 7fbd d96c 6dbe f619 86bd 9261 8cbd
000000f0: 3772 1bbe aa01 dfbc 6875 763d 7bbe abbc

stem.1.weight f4 [64]
0.9694989 0.93503445 0.9908741 1.0305494 0.99692 0.99324673 0.98317564 1.0004961
0.96163034 1.0083135 1.0144447 0.9956939 1.0485245 0.9976103 0.9598128 0.97606933
1.0445846 1.0529363 0.9806247 0.98425645 0.9646469 0.98198926 0.97724855 0.9961065
1.0147928 1.0710942 0.98699653 0.9965625 0.9912977 0.9505579 1.0140924 1.0019203
1.0183792 0.99497837 0.9896152 0.9421976 0.9546383 0.9688493 1.0006219 0.9887056
0.94557816 0.97542244 0.9638481 1.0178154 1.0374223 1.0478352 1.0109928 0.96330905
0.9647108 0.9810794 0.9806947 0.9904648 0.9652459 1.0014337 1.0004436 1.0090721
1.0444561 0.9657749 1.0632689 0.93355125 0.99041986 1.0586394 0.9873937 1.0008316
00000000: 1431 783f 6b5e 6f3f eda9 7d3f 0be9 833f
00000010: 2636 7f3f 6b45 7e3f 66b1 7b3f 4210 803f
00000020: 682d 763f 6b10 813f 53d9 813f cce5 7e3f
00000030: 0d36 863f 6363 7f3f 4bb6 753f aedf 793f
00000040: f3b4 853f 9ec6 863f 380a 7b3f 3bf8 7b3f
00000050: 19f3 763f a663 7b3f f62c 7a3f d600 7f3f
00000060: bbe4 813f 9d19 893f ceab 7c3f b81e 7f3f
00000070: b0c5 7d3f c357 733f c8cd 813f ed3e 803f
00000080: 405a 823f e7b6 7e3f 6c57 7d3f dd33 713f
00000090: 2d63 743f 8206 783f 6114 803f cf1b 7d3f
000000a0: 6911 723f 49b5 793f c0be 763f c647 823f
000000b0: 41ca 843f 771f 863f 3668 813f 6c9b 763f
000000c0: 49f7 763f 0528 7b3f cf0e 7b3f 1a8f 7d3f
000000d0: 5b1a 773f fb2e 803f 890e 803f 4629 813f
000000e0: bdb0 853f 063d 773f 3219 883f 37fd 6e3f
000000f0: 288c 7d3f 7f81 873f d5c5 7c3f 401b 803f

stem.1.bias f4 [64]
-0.058104515 -0.06287616 0.019419612 -0.08987387 0.02892188 0.053336706 -0.01985598 0.047477975
-0.01594881 0.012397891 -0.024252592 -0.031304713 0.048171934 0.015449618 -0.010416162 -0.003947324
0.084737994 0.07776514 0.02112713 -0.04344778 -0.025131844 -0.014341748 -0.0045799203 -0.013799127
0.033144377 0.12718688 0.017700888 0.040244 -0.006265901 -0.07545632 0.032778442 -0.0027326879
0.011321904 0.0032722442 0.011268446 -0.046305057 -0.03040815 -0.015419847 0.025765456 0.0398028
-0.034441154 -0.026285853 0.0029383588 -0.028508333 0.060529847 0.042993948 -0.037465613 -0.05695561
0.057619326 -0.0062075607 -0.0025762334 0.0042595654 0.028192973 0.023190659 0.003990224 0.025075596
0.06846228 -0.012878481 0.064551555 -0.06989803 0.017853253 0.1137387 -0.014603869 0.13550028
00000000: 00ff 6dbd 37c5 80bd e115 9f3c cb0f b8bd
00000010: 94ed ec3c 9777 5a3d 02a9 a2bc 4478 423d
00000020: 14a7 82bc 8620 4b3c 5fad c6bc 5f39 00bd
00000030: ef4f 453d 6520 7d3c 8da8 2abc 8e58 81bb
00000040: 1d8b ad3d 5443 9f3d ce12 ad3c 4df6 31bd
00000050: 4ce1 cdbc a7f9 6abc 2813 96bb bc15 62bc
00000060: 66c2 073d 473d 023e 7401 913c e4d6 243d
00000070: 3052 cdbb d888 9abd b042 063d e516 33bb
00000080: 827f 393c 2673 563b 4a9f 383c 5faa 3dbd
00000090: 831a f9bc 87a3 7cbc 1412 d33c 4308 233d
000000a0: 2b12 0dbd 6e55 d7bc 7b91 403b 4f8a e9bc
000000b0: 25ee 773d 6c1a 303d 8b75 19bd 494a 69bd
000000c0: 3e02 6c3d cb68 cbbb 06d6 28bb d393 8b3b
000000d0: f3f4 e63c 56fa bd3c 6dc0 823b 566b cd3c
000000e0: f435 8c3d 4400 53bc 9b33 843d b326 8fbd
000000f0: fc40 923c d6ef e83d 1145 6fbc 96c0 0a3e

stem.1.running_mean f4 [64]
0.1331441 -0.10636642 0.11873291 0.27671918 -0.035914645 -0.12684892 0.24682109 0.10941578
-0.14990789 -0.008842789 0.11451533 0.11018338 -0.14754622 -0.23166864 0.035378154 -0.10192914
-0.08280051 0.039220884 0.13122925 0.070966564 -0.28068155 0.24718669 -0.075421184 0.009220688
0.002813207 0.046181563 0.03980968 0.055085525 -0.10679628 -0.22722383 0.18544877 0.17118698
0.16725686 -0.07163002 0.01623438 0.16039781 0.2225808 -0.085701935 0.14219345 0.22910684
-0.04425703 0.08158298 0.026464498 0.25193724 0.26854113 0.14125596 -0.092628725 -0.2552918
0.10197259 0.050882615 -0.24791667 0.26507244 -0.16099116 0.034864552 -0.0192025 -0.16153824
-0.062477436 -0.23102382 -0.06549234 -0.067962244 -0.151712 -0.02719341 0.06062089 -0.020909531
00000000: ed56 083e a3d6 d9bd 3d2a f33d 23ae 8d3e
00000010: 3c1b 13bd afe4 01be abbe 7c3e 6115 e03d
00000020: 7481 19be 58e1 10bc 0387 ea3d d3a7 e13d
00000030: 5b16 17be 8b3a 6dbe afe8 103d 3ac0 d0bd
00000040: 5093 a9bd 14a6 203d f660 063e eb56 913d
00000050: 7eb5 8fbe 821e 7d3e 6c76 9abd 5e12 173c
00000060: c85d 383b e128 3d3d 7a0f 233d 5ca1 613d
00000070: 02b8 dabd 5dad 68be 48e6 3d3e a44b 2f3e
00000080: 6245 2b3e c3b2 92bd f6fd 843c 533f 243e
00000090: 39ec 633e 7f84 afbd 299b 113e fc9a 6a3e
000000a0: dc46 35bd fa14 a73d 13cc d83c ebfd 803e
000000b0: 397e 893e 67a5 103e 21b4 bdbd 9bb5 82be
000000c0: 01d7 d03d 4a6a 503d dedd 7dbe 93b7 873e
000000d0: deda 24be 22ce 0e3d 904e 9dbc 486a 25be
000000e0: 57e8 7fbd 8291 6cbe d920 86bd ca2f 8bbd
000000f0: 645a 1bbe b7c4 debc 9c4d 783d 774a abbc

stem.1.running_var f4 [64]
0.094051056 0.5323002 0.11814647 0.10260453 0.43381426 0.033852246 0.17992297 0.08696646
0.36626366 0.050882295 0.13528244 0.29483256 0.046365652 0.03110303 0.60549486 0.9951276
0.008968752 0.010337852 0.32165492 0.29441628 0.21703056 0.5096152 0.23911355 0.17291678
0.10828919 0.020916639 0.34785384 0.16649787 0.39743525 0.64005363 0.21887745 0.30086315
0.094427876 0.41148752 0.039504077 0.7146996 0.37601918 0.40919864 0.20668711 0.047504548
0.19211875 0.15786117 0.28400403 0.2816227 0.04620941 0.034163985 0.107876286 0.686402
0.42393392 0.36099884 0.10645228 0.17463979 2.4679239 0.2301026 0.98525053 0.029219605
0.05716782 0.6650752 0.0159309 0.44107977 0.19912276 0.003754249 0.5045964 0.017014079
00000000: d79d c03d d344 083f c7f6 f13d 5322 d23d
00000010: e71c de3e a7a8 0a3d ba3d 383e 791b b23d
00000020: e986 bb3e f469 503d 7b87 0a3e 4bf4 963e
00000030: e9e9 3d3d c8cb fe3c b601 1b3f afc0 7e3f
00000040: acf1 123c 1860 293c f4af a43e bbbd 963e
00000050: 423d 5e3e 2476 023f 2fda 743e 1911 313e
00000060: b9c6 dd3d 5f59 ab3c e619 b23e 6b7e 2a3e
00000070: a27c cb3e 8eda 233f 6921 603e bc0a 9a3e
00000080: 6763 c13d 7eae d23e 07cf 213d 8ef6 363f
00000090: 9685 c03e 7c82 d13e c9a5 533e 2194 423d
000000a0: c7ba 443e 5ca6 213e fa68 913e da30 903e
000000b0: 1446 3d3d 89ef 0b3d 3eee dc3d 0bb8 2f3f
000000c0: de0d d93e d7d4 b83e a703 da3d c6d4 323e
000000d0: 77f2 1d40 04a0 6b3e 6139 7c3f f45d ef3c
000000e0: ce28 6a3d 5e42 2a3f 8581 823c 35d5 e13e
000000f0: d6e6 4b3e d909 763b 3b2d 013f 1c61 8b3c

block1.conv1.weight f4 [64, 64, 3]
0.037485942 -0.03854346 -0.0067168297 -0.05933244 0.010720313 -0.04089333 -0.019441757 0.058326356
-0.043362565 0.06523903 -0.03932722 0.03199072 -0.043250065 -0.01519415 -0.025655402 0.03387294
0.014086266 -0.059434514 0.05392568 -0.028479775 0.017930362 -0.089475796 0.040661003 -0.03934102
0.039627295 -0.077642515 -0.05675085 -0.037761383 0.07835551 0.059329458 0.013467979 -0.022160053
0.09757476 -0.046085924 -0.029196106 0.008017695 0.085184164 0.06058543 0.0047332314 0.045975283
0.020787781 -0.034688663 -0.003703484 0.013168029 0.015165354 0.031908467 -0.045404665 -0.016456338
0.08346148 0.041281532 0.055528864 0.035396263 0.044466488 -0.006177434 -0.02878125 0.01200129
-0.08006707 -0.033355057 -0.03857016 0.0040515196 0.05927233 -0.009160925 0.006454522 0.012788401
0.019178879 0.036128093 -0.006852756 0.082921594 0.092374876 0.04886608 0.05653696 -0.04033997
0.041061286 -0.043046463 -0.011491649 0.0065987147 0.07762251 0.01628383 -0.04703723 -0.044323467
-0.10033126 -0.064394675 0.0287945 -0.08205378 0.02625082 0.030182486 -0.08955593 0.0121517405
0.06344914 -0.021409241 0.06396145 -0.06442323 -0.061217964 0.07747968 0.037788052 -0.08667583
0.070315145 -0.029055737 -0.03660687 0.06191691 -0.073878504 0.0134689715 0.058112696 0.049118165
-0.012219037 0.038373463 -0.030195722 -0.021476122 -0.04554986 -0.015620983 -0.048031725 -0.030102722
0.033073466 -0.07376157 -0.011227133 0.0878752 0.06568848 0.031268258 -0.0077724215 -0.044193048
0.02449149 -0.043438744 -0.037431218 -0.06347517 -0.07877406 0.022274096 0.023008386 -0.034273446
-0.04154123 0.04237292 0.034729995 0.0075423615 0.087807395 0.012556714 0.050819516 0.10222415
0.062282458 -0.063382246 -0.0004531719 0.01903583 -1.8570672e-05 -0.029451333 -0.008435848 -0.08320372
-0.024666632 -0.06859181 -0.013610314 -0.03741821 -0.0025792818 -0.06655998 0.05323748 -0.053242363
-0.032677833 -0.006192276 0.08408225 0.0071731242 -0.016245393 0.05188622 -0.068412684 0.024288757
0.052138526 0.021614695 -0.07069322 -0.036782973 -0.0018696119 0.014714639 -0.054144997 0.014893868
0.09787251 0.09644078 -0.046681195 0.03092488 -0.07834625 -0.08205271 -0.064535886 -0.0424986
0.027778486 -0.017117739 0.029227788 0.060995784 -0.048842166 0.04801614 -0.036592085 0.04660535
0.03002885 -0.018580994 0.06261283 0.035976455 -0.075712904 -0.0017209277 -0.008027237 -0.04879744
0.047099248 0.0073374575 -0.0063544405 0.061791025 -0.05805514 0.017232282 -0.056958765 0.05759913
0.055006757 0.044439074 0.019325266 0.047633763 0.079935014 0.02580559 0.03601525 -0.064810716
-0.07742684 -0.00640483 -0.018722694 0.070361234 -0.0048359428 -0.034912866 -0.03222537 -0.096630685
0.044186395 0.029108983 -0.07404714 0.014777715 -0.109929115 -0.0744417 0.045698952 0.031563316
-0.029421167 0.051803067 -0.009064729 -0.025169667 -0.0027807034 0.034703996 -0.044930033 -0.0017422406
0.015734412 0.0713399 0.016103499 -0.072343886 0.022934178 0.03943988 0.04544117 -0.081577264
-0.08817236 -0.08587929 0.005353987 -0.053799495 -0.012443081 0.046722595 0.060769707 -0.076483004
-0.08941121 -0.07889233 -0.02157982 -0.047490448 -0.014387692 -0.02268948 -0.054621104 0.046637133
00000000: dc8a 193d bfdf 1dbd da18 dcbb 9306 73bd
00000010: 40a4 2f3c c47f 27bd 5244 9fbc 9ee7 6e3d
00000020: f29c 31bd 0a9c 853d 9415 21bd b408 033d
00000030: fb26 31bd e2f0 78bc 472b d2bc 5abe 0a3d
00000040: 15ca 663c 9b71 73bd 2de1 5c3d 6b4e e9bc
00000050: b2e2 923c 163f b7bd 278c 263d 0d24 21bd
00000060: 3b50 223d 0a03 9fbd 9473 68bd aeab 1abd
00000070: db78 a03d 7203 733d cca8 5c3c 0089 b5bc
00000080: 47d5 c73d 98c4 3cbd ac2c efbc a65c 033c
00000090: 0975 ae3d 6e28 783d 3919 9b3b 9450 3c3d
000000a0: 234b aa3c b315 0ebd 27b6 72bb b7be 573c
000000b0: 1b78 783c 74b2 023d 3efa 39bd 71cf 86bc
000000c0: daed aa3d d316 293d 3c72 633d acfb 103d
000000d0: 7e22 363d 136c cabb a8c6 ebbc 0fa1 443c
000000e0: 34fa a3bd 509f 08bd befb 1dbd 9cc2 843b
000000f0: 8bc7 723d b417 16bc 7480 d33b 7186 513c
00000100: 061d 9d3c 0dfb 133d 158d e0bb ccd2 a93d
00000110: 0a2f bd3d cc27 483d 4d93 673d 863b 25bd
00000120: e12f 283d 7d51 30bd 7847 3cbc 083a d83b
00000130: 8df8 9e3d ab65 853c 1caa 40bd 868c 35bd
00000140: 7a7a cdbd 5be1 83bd 71e2 eb3c d00b a8bd
00000150: f60b d73c 4341 f73c 1969 b7bd 1818 473c
00000160: 9ff1 813d 6f62 afbc 38fe 823d 54f0 83bd
00000170: b0bf 7abd abad 9e3d a5c7 1a3d 1983 b1bd
00000180: 6301 903d 4c06 eebc 16f1 15bd 969c 7d3d
00000190: 9d4d 97bd f6ac 5c3c 9407 6e3d 2130 493d
000001a0: 5b32 48bc 7e2d 1d3d 055d f7bc b1ee afbc
000001b0: 7d92 3abd 27ef 7fbc eabc 44bd fc99 f6bc
000001c0: 0b78 073d 4e10 97bd 02f2 37bc eaf7 b33d
000001d0: af87 863d 2513 003d ccaf febb c503 35bd
000001e0: 61a2 c83c d3ec 31bd 7a51 19bd 45ff 81bd
000001f0: 4b54 a1bd 2a78 b63c 157c bc3c 5062 0cbd
00000200: 2327 2abd 3a8f 2d3d 0a41 0e3d ea25 f73b
00000210: 5dd4 b33d adba 4d3c 2028 503d e55a d13d
00000220: e41b 7f3d 8dce 81bd b497 edb9 07f1 9b3c
00000230: 37c8 9bb7 ec43 f1bc 8336 0abc b666 aabd
00000240: ad11 cabc dd79 8cbd cbfd 5ebc d643 19bd
00000250: 2b09 29bb 9950 88bd 8b0f 5a3d aa14 5abd
00000260: 31d9 05bd 93e8 cabb 5133 ac3d 870c eb3b
00000270: 0f15 85bc a586 543d f31b 8cbd 37f9 c63c
00000280: 358f 553d 4d11 b13c 9bc7 90bd bea9 16bd
00000290: c40d f5ba ab15 713c 25c7 5dbd 6905 743c
000002a0: 6271 c83d be82 c53d c834 3fbd 2d56 fd3c
000002b0: 0074 a0bd 400b a8bd 642b 84bd 0313 2ebd
000002c0: b58f e33c 803a 8cbc 1d6f ef3c b7d6 793d
000002d0: b90e 48bd 92ac 443d 95e1 15bd 40e5 3e3d
000002e0: 10ff f53c 2b37 98bc 283b 803d 0c5c 133d
000002f0: 5e0f 9bbd c090 e1ba ac84 03bc d3df 47bd
00000300: 24eb 403d 0e6f f03b e938 d0bb 9618 7d3d
00000310: 3acb 6dbd b72a 8d3c 984d 69bd 11ed 6b3d
00000320: c44e 613d bf05 363d 0550 9e3c 9f1b 433d
00000330: f8b4 a33d 3f66 d33c ba84 133d 7bbb 84bd
00000340: f791 9ebd 9cdf d1bb 5660 99bc 8d19 903d
00000350: d476 9ebb cb00 0fbd c0fe 03bd 4fe6 c5bd
00000360: cbfc 343d f675 ee3c 07a6 97bd 3b1e 723c
00000370: 8422 e1bd e474 98bd d32e 3b3d 8948 013d
00000380: a904 f1bc 742f 543d 3b84 14bc 9e30 cebc
00000390: 763c 36bb c725 0e3d 8e08 38bd e55b e4ba
000003a0: 74e5 803c a71a 923d 7ceb 833c 0829 94bd
000003b0: 75e0 bb3c b68b 213d 8520 3a3d fb11 a7bd
000003c0: b693 b4bd 7be1 afbd 8070 af3b dc5c 5cbd
000003d0: 10de 4bbc 3160 3f3d a8e9 783d 1fa3 9cbd
000003e0: 391d b7bd 4d92 a1bd 2ac8 b0bc 5885 42bd
000003f0: 5bba 6bbc 4adf b9bc 61ba 5fbd 9406 3f3d

block1.conv1.bias f4 [64]
-0.03656393 -0.015217992 0.0063858517 -0.03500622 0.021918397 0.02621832 -0.04606615 -0.054915704
0.020883972 -0.05635967 -0.05130748 0.05859678 -0.05404684 0.018004911 -0.026032994 -0.060165975
0.037313446 0.082859546 -0.06126154 -0.0058738966 -0.048395425 0.036771573 0.040621705 0.09332885
0.049461327 -0.017608035 0.034947354 -0.047696672 0.0871239 -0.07812239 -0.04302011 -0.060336128
-0.055788644 0.019478464 0.053963237 0.068178155 -0.006117005 0.038758624 0.08044073 0.03381858
0.0856494 -0.021084476 0.065724425 0.008140971 0.062082876 -0.057790443 0.05781619 -0.00070286886
-0.00943587 0.058617912 0.053954326 -0.027270043 -0.0629929 0.0033913373 0.08677566 -0.016914202
-0.04401158 -0.074093685 0.011647098 0.020842027 0.10395477 -0.024896601 -0.00014535963 -0.02836999
00000000: 0fc4 15bd e254 79bc 6840 d13b af62 0fbd
00000010: 368e b33c cdc7 d63c dcaf 3cbd 4aef 60bd
00000020: dd14 ab3c 66d9 66bd cb27 52bd 2d03 703d
00000030: 3860 5dbd 097f 933c 2543 d5bc 9970 76bd
00000040: fcd5 183d 44b2 a93d 61ed 7abd d179 c0bb
00000050: 483a 46bd ca9d 163d f262 263d 3223 bf3d
00000060: f697 4a3d ba3e 90bc f524 0f3d 965d 43bd
00000070: 046e b23d a2fe 9fbd db35 30bd 0423 77bd
00000080: a282 64bd 4d91 9f3c 8e08 5d3d fda0 8b3d
00000090: 2871 c8bb 5dc1 1e3d 1cbe a43d 5a85 0a3d
000000a0: f468 af3d 5ab9 acbc 879a 863d b561 053c
000000b0: 9d4a 7e3d acb5 6cbd abd0 6c3d bb40 38ba
000000c0: e898 1abc 5619 703d 36ff 5c3d 6d65 dfbc
000000d0: 6c02 81bd 3341 5e3b 70b7 b13d a78f 8abc
000000e0: 7d45 34bd 6ebe 97bd 78d3 3e3c e6bc aa3c
000000f0: 3de6 d43d f5f3 cbbc ae6b 18b9 2e68 e8bc

block1.bn1.weight f4 [64]
0.98482627 1.0198177 0.95782304 0.9585833 0.96941733 0.97128356 1.0009575 1.0246974
1.0170292 0.98922944 1.0052848 1.0273031 1.059446 0.98205775 0.95498794 0.99919325
0.99023867 1.013626 1.029256 1.0387797 0.92795783 0.99090385 0.9555541 1.0022302
0.92205876 1.0620277 1.0411828 0.9604263 0.9864565 0.9856651 0.9898132 0.97061133
1.0258332 0.97232056 0.99151576 1.0107926 0.98079985 0.9883742 1.0096488 1.0044903
0.9858506 0.98795235 0.9706131 1.0648179 1.0252773 0.99394697 0.97433126 0.9999938
0.98689246 0.9893506 1.0026606 1.0280733 1.0520896 0.9904188 1.0194156 0.9785649
0.95821196 0.9796049 0.9535081 0.9480537 1.0195401 1.0133195 1.0086297 1.0482233
00000000: 931d 7c3f 6389 823f e433 753f b765 753f
00000010: bc2b 783f 0aa6 783f 601f 803f 4929 833f
00000020: 032e 823f 243e 7d3f 2cad 803f ab7e 833f
00000030: ed9b 873f 2368 7b3f 177a 743f 21cb 7f3f
00000040: 4880 7d3f 7fbe 813f a9be 833f bcf6 843f
00000050: a58e 6d3f e0ab 7d3f 329f 743f 1449 803f
00000060: 0b0c 6c3f 86f0 873f 7a45 853f 7fde 753f
00000070: 6a88 7c3f 8c54 7c3f 6664 7d3f fc79 783f
00000080: 814e 833f 00ea 783f fad3 7d3f a761 813f
00000090: b315 7b3f 1706 7d3f 2c3c 813f 2393 803f
000000a0: b460 7c3f 72ea 7c3f 1a7a 783f f44b 883f
000000b0: 493c 833f 4f73 7e3f c66d 793f 98ff 7f3f
000000c0: fca4 7c3f 1546 7d3f 2f57 803f e897 833f
000000d0: dfaa 863f 168c 7d3f 367c 823f 3b83 7a3f
000000e0: 614d 753f 63c7 7a3f 1b19 743f a6b3 723f
000000f0: 4a80 823f 74b4 813f c71a 813f 2e2c 863f

block1.bn1.bias f4 [64]
-0.03771991 -0.007774958 -0.023223625 -0.039962485 -0.027503524 -0.041713983 0.008110727 0.0025961539
-0.022821562 -0.007419991 0.011189173 0.016835097 0.0029400527 -0.02577581 -0.04981892 -0.059799116
-0.013605106 -0.0033927807 -0.00465234 0.015867056 -0.03379773 0.0023943877 -0.070494145 -0.0052955705
-0.028391644 0.019415153 0.009268477 -0.019863112 0.0019970855 -0.026017703 -0.05109177 -0.016009422
-0.00817323 -0.09458306 -0.00025554758 0.002165976 -0.015623264 -0.0028774485 -0.021970335 0.015987203
0.0028120307 -0.035635244 -0.055864327 0.04131945 0.012644334 -0.066095784 -0.015281587 -0.034670327
-0.027105965 -0.0018814071 0.010229706 -0.035780802 -0.015397938 -0.03167792 0.038979273 -0.00786115
-0.05304423 -0.012438376 -0.033011243 -0.06862103 0.008601412 -0.00038731503 -0.0044600577 0.025467789
00000000: 3180 1abd 13c5 febb 793f bebc b4af 23bd
00000010: 124f e1bc 48dc 2abd dbe2 043c 3c24 2a3b
00000020: 49f4 babc 6523 f3bb cb52 373c c2e9 893c
00000030: e6ad 403b cb27 d3bc ed0e 4cbd ebef 74bd
00000040: f3e7 5ebc 6a59 5ebb a872 98bb a1fb 813c
00000050: 7d6f 0abd 29eb 1c3b 3c5f 90bd 7786 adbb
00000060: 9895 e8bc 870c 9f3c cfda 173c f7b7 a2bc
00000070: 89e1 023b 1423 d5bc 9b45 51bd 3126 83bc
00000080: 03e9 05bc c3b4 c1bd 04fb 85b9 0cf3 0d3b
00000090: b8f8 7fbc 9393 3cbb 22fb b3bc 98f7 823c
000000a0: 0c4a 383b 43f6 11bd fed1 64bd 953e 293d
000000b0: 2e2a 4f3c 3a5d 87bd 9f5f 7abc 7902 0ebd
000000c0: 540d debc 8c99 f6ba 7f9a 273c e48e 12bd
000000d0: a247 7cbc b5c0 01bd bba8 1f3d 0ecc 00bc
000000e0: e844 59bd 55ca 4bbc cc36 07bd 2f89 8cbd
000000f0: f0ec 0c3c 8b10 cbb9 ad25 92bb d3a1 d03c

block1.bn1.running_mean f4 [64]
-0.0036153067 -0.6835132 0.7217704 -0.037674997 0.1566221 0.132365 -0.7213686 -0.6177098
0.30850285 0.6576233 0.18523659 -0.2820847 -0.4734859 0.018956373 -0.20574613 -0.5461909
-0.54343504 0.17954503 -0.757358 -0.3266516 -0.3410446 0.3159896 0.72534597 -0.22157541
0.04756107 -0.5433575 -0.46136415 -0.5878011 0.33670598 -0.6161222 -0.09326099 -0.171046
0.014500989 0.2953181 0.6844432 -0.45458838 -0.12056883 0.481784 0.21671376 -0.19474304
-0.3161332 0.66721386 -0.2964544 -0.5353225 -0.47427028 -0.03827424 0.49496 0.037687697
0.06461604 0.53199005 -0.30544305 0.06453791 0.007053856 0.12384713 -0.32714763 -0.5436998
-0.50705576 -0.090670235 -0.30681407 -0.08922435 -0.44414386 -0.30674025 -0.1745102 -0.5007605
00000000: c8ee 6cbb b9fa 2ebf f2c5 383f 1951 1abd
00000010: 8b61 203e b18a 073e 9dab 38bf 3b22 1ebf
00000020: 16f4 9d3e 005a 283f a9ae 3d3e 686d 90be
00000030: be6c f2be 654a 9b3c 1daf 52be 2bd3 0bbf
00000040: 8f1e 0bbf a7da 373e 37e2 41bf e13e a7be
00000050: 669d aebe 64c9 a13e 46b0 393f aae4 62be
00000060: 66cf 423d 7a19 0bbf ec37 ecbe 227a 16bf
00000070: ba64 ac3e 2fba 1dbf 9eff bebd af26 2fbe
00000080: 8e95 6d3c ef33 973e ab37 2f3f cfbf e8be
00000090: caec f6bd 64ac f63e 36ea 5d3e b86a 47be
000000a0: 36dc a1be 87ce 2a3f dfc8 97be e50a 09bf
000000b0: 8ed3 f2be 73c5 1cbd 666b fd3e 6a5e 1a3d
000000c0: 6a55 843d 8030 083f 0863 9cbe 742c 843d
000000d0: 0824 e73b 90a3 fd3d e57f a7be e92f 0bbf
000000e0: 68ce 01bf 51b1 b9bd bc16 9dbe 42bb b6bd
000000f0: d366 e3be 0f0d 9dbe cdb2 32be d731 00bf

block1.bn1.running_var f4 [64]
0.33731422 0.9960875 1.3645426 0.43304107 0.40547788 0.35234803 1.070051 1.0045724
0.50095516 1.1725389 0.41635638 0.16821682 0.38135672 0.38382912 1.0149101 1.2927142
0.9259448 0.2461964 1.263303 0.5363751 0.76410556 0.62882316 0.771327 0.5284377
0.50169635 0.42815128 0.56696236 1.7837179 0.70228004 0.5925697 0.675225 0.97942173
0.5348942 0.4948044 0.87143266 0.6984444 0.33627835 0.86304295 0.3065582 0.6412238
0.60297924 1.2392913 0.8823435 0.5256072 0.6682094 0.43993685 0.8404338 0.38277024
0.36809352 0.5579371 0.34803465 0.26256317 0.52599674 1.190491 0.3349451 0.8536162
0.60874367 0.49337932 1.1524357 0.6132346 0.64605606 0.13956149 0.30931646 0.53804964
00000000: 73b4 ac3e 97ff 7e3f 55a9 ae3f 8fb7 dd3e
00000010: cc9a cf3e f666 b43e 6ef7 883f d495 803f
00000020: 993e 003f c115 963f aa2c d53e 0841 2c3e
00000030: 3041 c33e 4085 c43e 93e8 813f a977 a53f
00000040: b80a 6d3f e91a 7c3e eab3 a13f e14f 093f
00000050: 6c9c 433f 8efa 203f b075 453f b147 073f
00000060: 2c6f 003f a536 db3e 7224 113f de50 e43f
00000070: a0c8 333f a6b2 173f 8cdb 2c3f 62bb 7a3f
00000080: d4ee 083f 0157 fd3e 3616 5f3f 41cd 323f
00000090: ad2c ac3e 62f0 5c3f 32f5 9c3e 3e27 243f
000000a0: d95c 1a3f 19a1 9e3f 43e1 613f 328e 063f
000000b0: c50f 2b3f 673f e13e ab26 573f 76fa c33e
000000c0: c176 bc3e f7d4 0e3f 9931 b23e ae6e 863e
000000d0: b9a7 063f 0262 983f ed7d ab3e 9786 5a3f
000000e0: a0d6 1b3f 379c fc3e 0383 933f f1fc 1c3f
000000f0: ee63 253f 35e9 0e3e ba5e 9e3e 9fbd 093f

block1.conv2.weight f4 [64, 64, 3]
0.033191055 -0.040518332 0.021032522 -0.027642053 0.113373674 -0.01163267 0.049552735 -0.03435767
-0.023790522 -0.089543596 0.026837818 -0.013807015 -0.04206258 0.06736173 -0.026171032 -0.058414575
-0.027293231 -0.01118225 -0.07246285 -0.07271988 0.01881867 0.062995665 0.034417465 0.043732464
-0.020949256 0.0016419812 0.008331457 0.021641161 0.028486935 0.033992916 -0.040645264 -0.049073976
-0.034980074 -0.087727375 0.042006943 0.01397737 0.10598668 0.116405204 0.034399547 0.04266871
0.063433714 0.0011227484 -0.01374055 0.023809623 -0.055952482 0.0045829015 -0.01866983 -0.07652527
-0.03555202 -0.060224935 -0.002193215 0.05230879 0.084111534 0.00912052 -0.07256714 0.04462794
-0.021005424 0.05582694 -0.043121483 0.021911178 0.06271253 0.07454429 0.05845031 0.03572604
0.01651447 0.016698055 -0.022395398 -0.038254622 -0.052642945 0.0694737 -0.02483599 -0.0043061473
0.010839829 -0.03758742 -0.028678047 -0.10111481 -0.0021207803 -0.05970069 0.049919933 -0.023745751
0.011820479 -0.060626484 -0.05344442 -0.083671786 0.0028679057 0.0620955 -0.07023889 0.0132549275
-0.0328136 0.06817865 0.011061842 0.054864403 0.08001477 -0.025813965 -0.01796828 0.027364653
0.07066347 0.04955139 0.038577236 -0.05394581 -0.04152852 0.06926088 0.061936267 0.036502816
-0.009699524 0.023395976 0.07189642 0.005759033 -0.04308555 -0.04018048 0.039240982 0.053876825
0.03316024 -0.032713804 0.077035 0.07444732 0.03474707 -0.053018223 0.016487109 0.052849237
0.06496141 0.033100877 -0.028895961 -0.034063544 0.053142764 0.06751853 -0.061675396 -0.013133626
0.0014682832 -0.11555025 -0.087237716 0.006397391 -0.09631471 -0.08388909 -0.030031344 0.044444416
0.054687362 0.09554588 -0.05517395 -0.03940075 -0.043230403 -0.028657038 -0.030787053 -0.012968555
-0.040243 0.014548597 -0.0075913756 -0.07608253 -0.036056764 0.019737327 -0.033838697 0.029785115
0.0004651057 -0.015804825 0.0044084396 0.06311643 0.04644524 0.120200165 0.104088634 0.0047265408
0.009401442 0.019466825 -0.02635444 0.05126623 -0.048196416 -0.068848036 -0.008397728 0.05643247
-0.01470311 -0.021110168 0.0940774 0.021699555 -0.029837437 0.064186454 -0.054130573 0.043460518
-0.013525908 0.027318351 -0.021731038 -0.092456214 -0.07985362 -0.016489444 -0.08732632 -0.0034045225
0.05185725 -0.018363746 0.06175008 -0.012658125 -0.050063454 -0.008293787 -0.06887709 -0.03900372
-0.02232412 -0.022930637 0.028085588 -0.048796404 -0.04258184 0.08726702 -0.04834298 -0.025773402
-0.018653557 -0.08053822 -0.05099278 -0.05509319 0.05789513 -0.017536264 0.0171442 -0.064129636
-0.03582809 0.005733951 -0.0774313 -0.06471188 -0.11483325 0.008853167 0.057327285 0.09157396
-0.073991284 0.031511445 -0.062723696 0.08370025 -0.04454035 -0.00035677012 0.0770988 0.08302632
-0.046149552 0.015181038 0.049356636 -0.05920872 0.008469151 -0.026262095 0.048958953 -0.009880137
0.05760578 -0.012943249 0.04000327 -0.009162923 0.051049974 -0.004381822 -0.03879648 -0.0080213705
-0.01045596 -0.053436153 0.0410125 0.02631002 -0.05305889 -0.033330955 -0.006742994 -0.07786998
-0.12500785 -0.10466423 0.018503822 -0.109622054 -0.0021194061 -0.014456525 -0.046849918 -0.03999327
00000000: 58f3 073d 8df6 25bd 654c ac3c 9671 e2bc
00000010: 7530 e83d f496 3ebc cff7 4a3d a1ba 0cbd
00000020: 57e4 c2bc a262 b7bd fcda db3c d136 62bc
00000030: d049 2cbd f2f4 893d a264 d6bc 1f44 6fbd
00000040: 0e96 dfbc c235 37bc 6767 94bd 29ee 94bd
00000050: 9d29 9a3c df03 813d 54f9 0c3d d020 333d
00000060: c69d abbc bf37 d73a aa80 083c ce48 b13c
00000070: 6f5d e93c 283c 0b3d a67b 26bd cb01 49bd
00000080: 4447 0fbd 69aa b3bd 790f 2c3d 5701 653c
00000090: 8b0f d93d da65 ee3d 8ae6 0c3d 63c5 2e3d
000000a0: 89e9 813d 2f29 933a 0b20 61bc 660c c33c
000000b0: 6e2e 65bd 2a2c 963b 79f1 98bc 48b9 9cbd
000000c0: ff9e 11bd 6cae 76bd 0bbc 0fbb be41 563d
000000d0: ab42 ac3d 3c6e 153c 159e 94bd c9cb 363d
000000e0: 9113 acbc caaa 643d 27a0 30bd 127f b33c
000000f0: 6d6f 803d adaa 983d 9869 6f3d 7855 123d
00000100: 5b49 873c 5cca 883c 8e76 b7bc e1b0 1cbd
00000110: 21a0 57bd 3a48 8e3d d974 cbbc 951a 8dbb
00000120: 8a99 313c 44f5 19bd 39ee eabc 4815 cfbd
00000130: cafc 0abb b688 74bd d878 4c3d 7386 c2bc
00000140: afaa 413c 7a53 78bd 89e8 5abd 1d5c abbd
00000150: 79f3 3b3b da57 7e3d 68d9 8fbd 322b 593c
00000160: 8e67 06bd 40a1 8b3d ba3c 353c 7fb9 603d
00000170: c9de a33d cf77 d3bc 3732 93bc d62b e03c
00000180: 02b8 903d 66f6 4a3d 2a03 1e3d 48f6 5cbd
00000190: cf19 2abd a6d8 8d3d e2b0 7d3d fa83 153d
000001a0: c1ea 1ebc eba8 bf3c 6e3e 933d 45b6 bc3b
000001b0: 797a 30bd 4994 24bd 27bb 203d f2ad 5c3d
000001c0: 08d3 073d e9fe 05bd 87c4 9d3d d677 983d
000001d0: f252 0e3d a329 59bd f90f 873c 7178 583d
000001e0: 7d0a 853d c994 073d 39b7 ecbc 3786 0bbd
000001f0: 3aac 593d 2847 8a3d 579f 7cbd 6c2e 57bc
00000200: 6973 c03a 9ca5 ecbd b0a9 b2bd 35a1 d13b
00000210: a640 c5bd 0bce abbd 4b04 f6bc 590b 363d
00000220: dbff 5f3d 8fad c33d 14fe 61bd ae62 21bd
00000230: 5d12 31bd 2ac2 eabc 2135 fcbc 107a 54bc
00000240: d8d5 24bd 3d5d 6e3c 13c1 f8bb 28d1 9bbd
00000250: 42b0 13bd 2db0 a13c 729a 0abd eaff f33c
00000260: 6ed9 f339 1f79 81bc ac74 903b 3043 813d
00000270: 5d3d 3e3d 812b f63d 6c2c d53d 19e1 9a3b
00000280: 8108 1a3c e478 9f3c 44e5 d7bc 8afc 513d
00000290: 9b69 45bd 3300 8dbd a096 09bc bc25 673d
000002a0: 50e5 70bc 3bef acbc a7ab c03d 44c3 b13c
000002b0: a46d f4bc 3074 833d 05b8 5dbd a803 323d
000002c0: c59b 5dbc bcca df3c 4a05 b2bc af59 bdbd
000002d0: 4b8a a3bd df14 87bc 24d8 b2bd 691e 5fbb
000002e0: 4568 543d 916f 96bc a7ed 7c3d 0664 4fbc
000002f0: 560f 4dbd aae2 07bc 6f0f 8dbd 5dc2 1fbd
00000300: 13e1 b6bc 08d9 bbbc bf13 e63c bdde 47bd
00000310: 4c6a 2ebd 0db9 b23d 4a03 46bd be22 d3bc
00000320: 58cf 98bc 39f1 a4bd cedd 50bd 66a9 61bd
00000330: 7223 6d3d 36a8 8fbc fe71 8c3c 6656 83bd
00000340: 7ac0 12bd dee3 bb3b 4d94 9ebd aa87 84bd
00000350: b22d ebbd e00c 113c 04d0 6a3d 218b bb3d
00000360: be88 97bd 2512 013d 4875 80bd 096b ab3d
00000370: f16f 36bd e00c bbb9 fae5 9d3d b409 aa3d
00000380: 5007 3dbd e3b9 783c 2f2a 4a3d d884 72bd
00000390: 32c2 0a3c 9b23 d7bc 2f89 483d 4ce0 21bc
000003a0: 0af4 6b3d ec0f 54bc 78da 233d 1620 16bc
000003b0: c719 513d 6395 8fbb 0fe9 1ebd 116c 03bc
000003c0: 7a4f 2bbc dedf 5abd b9fc 273d 1c88 d73c
000003d0: 4754 59bd 0a86 08bd 55f4 dcbb 4c7a 9fbd
000003e0: 0f02 00be 335a d6bd 5495 973c 8781 e0bd
000003f0: bce5 0abb 10db 6cbc b3e5 3fbd fccf 23bd

block1.conv2.bias f4 [64]
0.0021463535 -0.054812506 0.024546899 0.052619 0.0621035 0.041570153 0.01567697 -0.055504467
-0.061344363 0.018904032 -0.015673645 -0.04514706 -0.0019129894 -0.0107855415 -0.06781254 -0.051076815
0.076658964 0.041250236 -0.06949156 -0.034452625 0.002208091 0.028554996 0.04145632 0.006212349
0.017991606 0.02954145 0.007907346 0.010802407 0.08277331 0.022698801 -0.059118506 -0.029998422
0.05388859 0.047736086 0.034407824 -0.007020138 -0.06546362 0.0011262017 0.019801686 0.028998552
0.021011962 0.0011716152 0.037238546 -0.013611314 0.06885706 0.00960178 0.016217627 0.06043457
-0.008218011 0.010004736 0.032792673 -0.04953533 -0.016200794 -0.033231243 -0.033261545 0.068721734
-0.008878506 -0.03655225 0.007082808 0.062277786 0.032055717 0.08153642 -0.0474676 -0.058881693
00000000: d6a9 0c3b 1483 60bd 9416 c93c 0587 573d
00000010: 3d60 7e3d 7745 2a3d fd6c 803c a758 63bd
00000020: 3a44 7bbd a1dc 9a3c 0466 80bc 20ec 38bd
00000030: 46bd faba d7b5 30bc 4de1 8abd ec35 51bd
00000040: 60ff 9c3d 02f6 283d 9751 8ebd 321e 0dbd
00000050: 9fb5 103b 2bec e93c 1ace 293d f690 cb3b
00000060: 2263 933c e900 f23c d08d 013c 94fc 303c
00000070: 0e85 a93d d6f2 b93c 3f26 72bd 40bf f5bc
00000080: 48ba 5c3d ea86 433d 38ef 0c3d 3009 e6bb
00000090: ca11 86bd 0f9d 933a 2537 a23c 5f8e ed3c
000000a0: 4721 ac3c e290 993a 7287 183d fd01 5fbc
000000b0: ee04 8d3d c950 1d3c d4da 843c 3d8a 773d
000000c0: d6a4 06bc e7ea 233c 9c51 063d 8fe5 4abd
000000d0: 87b7 84bc 7c1d 08bd 423d 08bd fbbd 8c3d
000000e0: 2777 11bc d0b7 15bd e616 e83b fe16 7f3d
000000f0: db4c 033d 91fc a63d 636d 42bd ee2d 71bd

block1.bn2.weight f4 [64]
1.0594916 1.059728 1.0285778 1.0716573 1.0189261 1.0003309 1.0050026 1.0190526
1.0678446 1.0835276 1.060668 1.0187491 1.0232406 1.0724353 1.0161912 1.0011059
0.9669067 0.9982248 1.046662 0.99206096 0.99593097 1.0383297 1.0477561 0.99394566
1.0055039 0.9720376 0.9654808 1.0712967 1.0053629 1.0163537 0.9857341 1.0458103
1.0468982 1.0100167 1.0071787 1.041393 1.0466404 1.0069466 0.974208 1.064543
1.0672488 1.0165833 1.0494908 1.0216761 1.0202832 1.0510116 1.0017707 0.95137084
0.9942136 1.0135485 1.0172567 1.0237303 1.0317036 1.0344685 0.9885796 1.0258211
0.99701434 0.96539897 1.0554813 0.9863113 1.0538219 1.0304809 1.0700164 0.99274135
00000000: 6c9d 873f 2ba5 873f 70a8 833f 112c 893f
00000010: 2c6c 823f d80a 803f eda3 803f 5170 823f
00000020: 22af 883f 08b1 8a3f f8c3 873f 5f66 823f
00000030: 8cf9 823f 8f45 893f 8e12 823f 3d24 803f
00000040: 3387 773f a98b 7f3f 05f9 853f b5f7 7d3f
00000050: 55f5 7e3f fde7 843f df1c 863f 3973 7e3f
00000060: 5ab4 803f 75d7 783f c029 773f 4020 893f
00000070: bbaf 803f e117 823f 1259 7c3f 1ddd 853f
00000080: c300 863f 3a48 813f 3beb 803f 5e4c 853f
00000090: 50f8 853f a0e3 803f b265 793f f242 883f
000000a0: 9c9b 883f 671f 823f b755 863f 48c6 823f
000000b0: a498 823f 8c87 863f 063a 803f 0a8d 733f
000000c0: c884 7e3f f5bb 813f 7835 823f 9809 833f
000000d0: dd0e 843f 7769 843f 8d13 7d3f 1b4e 833f
000000e0: 553c 7f3f 6324 773f 031a 873f e67e 7c3f
000000f0: a3e3 863f cce6 833f 4cf6 883f 4c24 7e3f

block1.bn2.bias f4 [64]
-0.013424086 0.033948626 0.022613121 -0.029693376 0.0060988506 -0.016842818 0.043003306 0.009683594
-0.019029759 -0.04506274 0.0074228668 0.012966703 0.03886954 0.014287166 -0.005347332 0.03281171
-0.019522814 0.030064814 0.04189717 -0.013503899 0.025880072 -0.023053959 -0.0044306857 0.016302183
0.023356676 -0.028083557 0.00029924547 -0.022487229 0.029867815 -0.01315171 0.009732312 0.03389141
-0.009783121 0.027182525 0.013756697 0.019363444 0.041775804 0.024854887 -0.03795417 -0.031080559
-0.030729566 0.0057828943 0.029685473 0.026111776 0.011071957 -0.00808627 0.036244467 -0.0232549
0.034200303 0.057014875 0.0003197998 0.026526524 0.042607386 0.06553973 -0.018787896 -0.02119901
0.030889127 -0.009653298 0.022375537 0.003480589 0.016402887 0.0294234 0.013381829 -0.011175485
00000000: b3f0 5bbc b70d 0b3d 273f b93c 863f f3bc
00000010: ded8 c73b f3f9 89bc 3c24 303d f0a7 1e3c
00000020: 4ce4 9bbc b593 38bd 853b f33b 4b72 543c
00000030: ab35 1f3d b814 6a3c ac38 afbb 9265 063d
00000040: 4fee 9fbc 7c4a f63c 5e9c 2b3d 753f 5dbc
00000050: 7202 d43c a8db bcbc 492f 91bb 288c 853c
00000060: 8056 bf3c 7d0f e6bc 0ce4 9c39 2337 b8bc
00000070: 59ad f43c 457a 57bc 4674 1f3c b8d1 0a3d
00000080: 6249 20bc e3ad de3c c563 613c 16a0 9e3c
00000090: 1b1d 2b3d 7a9c cb3c d575 1bbd a89c febc
000000a0: 92bc fbbc 6f7e bd3b f32e f33c 5de8 d53c
000000b0: 2767 353c 467c 04bc 1475 143d 0f81 bebc
000000c0: 9e15 0c3d 6e88 693d cdaa a739 274e d93c
000000d0: 1585 2e3d b239 863d 13e9 99bc 8ca9 adbc
000000e0: 320b fd3c de28 1ebc e74c b73c 981a 643b
000000f0: 595f 863c 5809 f13c 753f 5b3c 6219 37bc

block1.bn2.running_mean f4 [64]
-0.017352298 -0.85431033 0.2463814 0.6216024 0.063056886 -0.3688854 -0.06653726 -0.53660387
0.054941647 0.570398 0.39415595 0.59970707 -0.6721802 0.50136447 0.51146394 0.13233514
-0.3305085 -0.63820815 -0.5460689 0.58168995 -0.36780715 0.49816364 -0.66195583 -0.19277842
-0.5899036 -0.59482104 0.4981776 0.46928912 -0.711319 0.6701505 -0.1742333 -0.90278536
1.0666522 -0.53303474 0.07750086 -0.980068 -0.43253368 -0.6571179 0.023438528 0.42838633
0.3295343 0.10446428 -0.5175047 0.24335955 -0.6585983 0.5206373 -0.50670165 -0.13187885
-0.56178415 -0.8933073 0.058449116 -0.80160505 -0.6445843 -0.48003075 0.19431446 0.5223347
-0.9327541 0.9832334 -0.63832086 -0.12099457 0.54103917 -0.7748158 0.544981 0.3724504
00000000: 6826 8ebc 15b4 5abf 684b 7c3e 5621 1f3f
00000010: f823 813d 8cde bcbe b044 88bd df5e 09bf
00000020: 7e0a 613d 9a05 123f cfce c93e 6786 193f
00000030: 0014 2cbf 6c59 003f 4def 023f dd82 073e
00000040: 6938 a9be 9c61 23bf 2ccb 0bbf a2e9 143f
00000050: 3851 bcbe 4e0f ff3e f075 29bf b567 45be
00000060: ec03 17bf 3146 18bf 2211 ff3e aa46 f03e
00000070: 0119 36bf fc8e 2b3f 376a 32be f11c 67bf
00000080: 0f88 883f f774 08bf c5b8 9e3d bde5 7abf
00000090: 0e75 ddbe e138 28bf 2802 c03c 7455 db3e
000000a0: b8b8 a83e 5ef1 d53d 307b 04bf 3f33 793e
000000b0: e699 28bf 7c48 053f 33b7 01bf 400b 07be
000000c0: 16d1 0fbf caaf 64bf 5768 6f3d fd35 4dbf
000000d0: 7a03 25bf 97c6 f5be 5ffa 463e bab7 053f
000000e0: f9c8 6ebf 2fb5 7b3f ff68 23bf 00cc f7bd
000000f0: 8b81 0a3f 545a 46bf e083 0b3f d2b1 be3e

block1.bn2.running_var f4 [64]
0.58848083 0.3279951 0.67135537 0.3467194 0.40518555 0.3094847 0.31626248 0.6980802
0.409082 0.63047564 0.33236396 0.2896652 0.49069187 0.60555893 0.4147678 0.36055577
1.2759713 0.97896796 0.39713043 1.0987227 0.49553078 0.59701073 0.36093763 0.7726553
0.7615179 0.74645644 0.67980915 0.645389 0.5944143 0.26926178 0.3865234 0.99622595
0.8239184 1.1522872 0.22464994 0.4850073 0.25058085 1.7294374 0.6929002 0.23704475
0.4820556 0.7438328 0.84956276 0.37229136 0.7638016 0.3309409 0.75718 0.31206822
0.3014805 1.9813935 0.7255577 0.7464715 0.6986526 0.9157495 0.5316068 0.62877524
0.2656933 0.56631523 0.19276065 0.56502986 0.30982465 0.29439732 0.288578 0.13965209
00000000: aea6 163f f9ee a73e f2dd 2b3f 3585 b13e
00000010: 7b74 cf3e c774 9e3e 28ed a13e 62b5 323f
00000020: 3273 d13e da66 213f 9c2b aa3e ff4e 943e
00000030: f73b fb3e e905 1b3f 725c d43e c49a b83e
00000040: 0753 a33f a59d 7a3f ae54 cb3e f2a2 8c3f
00000050: 36b6 fd3e b2d5 183f d1cc b83e bdcc 453f
00000060: d6f2 423f c517 3f3f f907 2e3f 3738 253f
00000070: 892b 183f aedc 893e 65e6 c53e aa08 7f3f
00000080: 51ec 523f 267e 933f a20a 663e e052 f83e
00000090: 224c 803e 345e dd3f e861 313f dcbb 723e
000000a0: fecf f63e d46b 3e3f f27c 593f f99c be3e
000000b0: 8088 433f 1671 a93e 8cd6 413f 68c7 9f3e
000000c0: a75b 9a3e 4d9e fd3f 26be 393f c218 3f3f
000000d0: e6da 323f 8f6e 6a3f 6217 083f 6af7 203f
000000e0: f408 883e 09fa 103f 0c63 453e cca5 103f
000000f0: 56a1 9e3e 3fbb 963e 7fc0 933e f500 0f3e

block2.conv1.weight f4 [64, 64, 3]
-0.014707027 -0.057733182 -0.044654615 -0.017879633 -0.011319326 -0.08419619 -0.08197981 -0.07839409
0.051686086 0.002869192 -0.0539113 0.06999206 0.038385667 -0.09405802 -0.07121871 0.06380173
0.024721315 0.051135052 0.053579833 -0.048931696 -0.07935919 -0.0193469 0.06045942 -0.02896765
-0.010629759 0.03269009 0.050720055 0.0746921 0.010043782 -0.019013276 -0.020882554 -0.048558865
0.020577539 0.0035779057 -0.0557434 -0.011024742 0.044196393 0.055300575 0.051941 -0.021783864
0.031120215 -0.006609846 -0.046698794 0.008581961 -0.09520612 -0.061967213 -0.010400629 0.010914522
-0.0057810405 -0.013713965 -0.014533712 0.049053382 0.032571077 0.008864334 0.0260796 -0.062177554
-0.05685632 -0.07677708 0.03738247 -0.069201104 -0.037421234 -0.004741876 0.020512363 -0.059610683
-0.02803707 0.042105623 0.045494612 0.04118448 0.03120657 -0.016872633 0.007188735 -0.06664333
-0.045904655 -0.09191729 0.03009059 0.030111073 0.06624812 0.0041924743 -0.019325826 0.052023385
-0.05728866 -0.025989594 0.06140481 0.044677872 -0.07954659 0.0050855144 -0.06939834 -0.02587101
0.037324145 -0.0026514814 0.0683224 -0.02563711 0.0067113237 -0.04266163 0.010922228 -0.019815207
-0.04528105 -0.018030142 0.00895442 0.048354924 0.0402001 -0.023184989 0.0006571361 -0.095279284
-0.035776127 -0.04727623 -0.06635985 -0.05925016 -0.03785977 -0.033551 -0.06194337 0.036921732
0.04170521 -0.023717774 0.0008673498 -0.0020811472 -0.08323232 0.0153908525 0.0061216247 -0.044854816
-0.035673995 0.058463704 -0.026643064 0.007410815 -0.10005276 -0.02287189 -0.06924906 0.015434449
-0.018238204 -0.07152923 -0.020160146 -0.08367207 -0.0189409 0.058495503 -0.0027384453 -0.021200797
-0.057199493 0.00287542 -0.020708233 -0.048548814 0.0153482035 -0.07565252 -0.007757257 -0.011911918
0.02297365 0.013361615 0.04669111 -0.07738463 0.030214619 0.0052200165 -0.06225097 0.027427074
-0.012082331 -0.052001514 -0.0018293938 -0.050191894 -0.0431182 -0.016765712 -0.07283445 0.07834215
0.014412618 0.039762028 -0.03813582 -0.044230394 -0.05100136 -0.021373434 0.02499263 -0.04155351
0.06841886 -0.02702599 -0.01453467 -0.008364073 0.05245773 -0.07737532 0.0187644 0.087796494
-0.025693096 -0.074923806 -0.09886219 -0.06964197 -0.07519997 -0.017753134 -0.088222295 0.051048268
0.051252384 -0.04258598 -0.0036212448 -0.0035825507 0.03346412 -0.041764975 0.027535774 0.0013624186
-0.05703454 0.04570427 -0.050892156 0.013134916 0.0455853 0.021358982 0.04820226 0.06180233
0.032532264 0.031191573 -0.05061095 -0.039680514 -0.07916129 0.02108692 0.026297372 -0.049257535
-0.011378337 0.0069016926 -0.015720146 -0.006439353 0.025468383 0.020214684 -0.039909184 -0.039357197
0.006385927 -0.010792366 0.021218777 0.026676716 -0.07152251 -0.043187536 -0.0022894596 -0.00093785924
0.005341043 -0.028882572 0.019932125 0.07390175 0.08092858 0.07684824 -0.0105265975 0.013926503
0.03438336 -0.041169025 -0.056891255 0.039726634 -0.035607155 0.09917912 0.0071584554 0.05255837
-0.04305326 0.066500165 0.07151651 -0.03672096 -0.033521082 0.03523757 0.009121225 0.06640808
0.037671007 -0.047366098 0.0037722765 -0.07955608 0.00031748868 0.057219006 0.077097885 -0.019050593
00000000: bef5 70bc a179 6cbd c2e7 36bd 4f78 92bc
00000010: b274 39bc 0d6f acbd 08e5 a7bd 158d a0bd
00000020: cab4 533d 0e09 3c3b 18d2 5cbd ff57 8f3d
00000030: 4a3a 1d3d 7ea1 c0bd 1ddb 91bd 7baa 823d
00000040: 5b84 ca3c fd72 513d 8776 5b3d 9a6c 48bd
00000050: 1287 a2bd 647d 9ebc 4ca4 773d 914d edbc
00000060: 7128 2ebc 0be6 053d d5bf 4f3d 2cf8 983d
00000070: ad8e 243c bbc1 9bbc e411 abbc a9e5 46bd
00000080: 3a92 a83c 4c7b 6a3b 3153 64bd 1fa1 34bc
00000090: 4707 353d db82 623d 16c0 543d 1374 b2bc
000000a0: d2ef fe3c 6897 d8bb 3c47 3fbd 5a9b 0c3c
000000b0: 6dfb c2bd 55d1 7dbd 6667 2abc d3d2 323c
000000c0: e26e bdbb 8ab0 60bc ce1e 6ebc 33ec 483d
000000d0: 4069 053d b63b 113c e3a4 d53c e4ad 7ebd
000000e0: 2ce2 68bd 4d3d 9dbd 5c1e 193d 4fb9 8dbd
000000f0: 0247 19bd bd61 9bbb 8b09 a83c 552a 74bd
00000100: ffad e5bc f276 2c3d 8f58 3a3d 0fb1 283d
00000110: eca4 ff3c 7a38 8abc 7b8f eb3b 4c7c 88bd
00000120: 8506 3cbd 223f bcbd 8a80 f63c 7fab f63c
00000130: 18ad 873d 0661 893b 3251 9ebc 7916 553d
00000140: 84a7 6abd 21e8 d4bc 9c83 7b3d 2500 373d
00000150: 53e9 a2bd 63a4 a63b b820 8ebd 71ef d3bc
00000160: 34e1 183d 7ac4 2dbb 9dec 8b3d eb04 d2bc
00000170: aaea db3b f6bd 2ebd 25f3 323c 8053 a2bc
00000180: 9f78 39bd f3b3 93bc 8fb5 123c d00f 463d
00000190: dca8 243d 72ee bdbc a843 2c3a c921 c3bd
000001a0: fd89 12bd b8a4 41bd ace7 87bd 4cb0 72bd
000001b0: d912 1bbd c66c 09bd 55b8 7dbd 3e3b 173d
000001c0: 15d3 2a3d c74b c2bc dc5e 633a db63 08bb
000001d0: b575 aabd ea29 7c3c e997 c83b afb9 37bd
000001e0: e51e 12bd a377 6f3d 8e42 dabc 6cd6 f23b
000001f0: 76e8 ccbd d45d bbbc 73d2 8dbd c5e0 7c3c
00000200: 4968 95bc eb7d 92bd e426 a5bc 435c abbd
00000210: f229 9bbc fb98 6f3d 7d77 33bb 4bad adbc
00000220: 044a 6abd 8b71 3c3b 50a4 a9bc 1fdb 46bd
00000230: 0877 7b3c b5ef 9abd 9730 febb 352a 43bc
00000240: 3c33 bc3c adea 5a3c 2d3f 3f3d d57b 9ebd
00000250: a684 f73c ac0c ab3b e0fa 7ebd beae e03c
00000260: f8f4 45bc 8aff 54bd 45c8 efba 0496 4dbd
00000270: b69c 30bd 3f58 89bc 3a2a 95bd d971 a03d
00000280: e722 6c3c 82dd 223d 4e34 1cbd ee2a 35bd
00000290: cde6 50bd 5717 afbc 58bd cc3c 0334 2abd
000002a0: 301f 8c3d 9c65 ddbc d322 6ebc 7709 09bc
000002b0: ebdd 563d f476 9ebd cdb7 993c a6ce b33d
000002c0: 547a d2bc a771 99bd 4378 cabd 73a0 8ebd
000002d0: 7102 9abd 056f 91bc e4ad b4bd fd17 513d
000002e0: 05ee 513d a36e 2ebd 6852 6dbb 3ac9 6abb
000002f0: ac11 093d c011 2bbd b492 e13c 2f93 b23a
00000300: 0d9d 69bd 6734 3b3d 4b74 50bd d533 573c
00000310: a7b7 3a3d 08f9 ae3c bc6f 453d 7124 7d3d
00000320: 8d40 053d 7885 ff3c 6d4d 4fbd 0988 22bd
00000330: 501f a2bd 7abe ac3c 966d d73c 45c2 49bd
00000340: 346c 3abc 9827 e23b 89c7 80bc 3501 d3bb
00000350: 12a3 d03c 4499 a53c d077 23bd 0335 21bd
00000360: 0a41 d13b 77d2 30bc 00d3 ad3c 2189 da3c
00000370: 657a 92bd 6ae5 30bd c20a 16bb abda 75ba
00000380: eb03 af3b 259b ecbc b248 a33c cd59 973d
00000390: e2bd a53d 9c62 9d3d c077 2cbc fd2b 643c
000003a0: 91d5 0c3d daa0 28bd ce06 69bd 65b8 223d
000003b0: cfd8 11bd 6c1e cb3d 7a91 ea3b 7247 573d
000003c0: 9d58 30bd 3d31 883d 3f77 923d b868 16bd
000003d0: 674d 09bd 4555 103d 3171 153c f600 883d
000003e0: ea4c 1a3d f402 42bd 4c38 773b 4cee a2bd
000003f0: 9c74 a639 7a5e 6a3d 7fe5 9d3d fd0f 9cbc

block2.conv1.bias f4 [64]
0.042293463 -0.014568319 -0.05764988 -0.040918093 -0.050227996 0.04795276 -0.012703924 -0.01970968
-0.006244942 -0.037154764 -0.043674923 0.015927352 0.071957156 0.068916745 0.008632331 -0.016265213
-0.021223053 0.044327788 0.042345017 0.036904156 0.009830268 0.040691387 -0.03708549 -0.072805986
0.024067085 -0.0014682222 -0.0355433 -0.029422997 -0.0485105 -0.0061727613 -0.006681007 -0.04968629
0.03339791 -0.06779318 0.014973862 0.011374435 0.045481622 -0.027982838 -0.017542621 0.011916155
-0.034404837 0.06333544 -0.03175429 -0.02187494 -0.015938964 0.030836385 -0.016646726 0.052022327
0.052694857 0.015620652 -0.055552173 -0.03505416 -9.787432e-05 -0.037957855 -0.039859485 0.013645722
0.051133502 -0.04523846 0.06291279 0.058292285 0.050281256 0.011935556 0.038678758 0.043676984
00000000: e93b 2d3d f5af 6ebc 4822 6cbd bb99 27bd
00000010: dfbb 4dbd 1d6a 443d 1f24 50bc 3276 a1bc
00000020: 5fa2 ccbb 982f 18bd 7ae4 32bd 147a 823c
00000030: 465e 933d 3924 8d3d 9f6e 0d3c a03e 85bc
00000040: f8db adbc 0e91 353d f871 2d3d d028 173d
00000050: 220f 213c 03ac 263d f4e6 17bd 4e1b 95bd
00000060: 5628 c53c 5d71 c0ba da95 11bd 7f08 f1bc
00000070: f2b2 46bd e044 cabb 59ec dabb da83 4bbd
00000080: 3fcc 083d 27d7 8abd ee54 753c d75b 3a3c
00000090: f04a 3a3d 443c e5bc 8bb5 8fbc fa3b 433c
000000a0: 16ec 0cbd 03b6 813d c910 02bd 1333 b3bc
000000b0: 6e92 82bc 969c fc3c b75e 88bc 5d15 553d
000000c0: 90d6 573d c3ed 7f3c ad8a 63bd f394 0fbd
000000d0: e041 cdb8 b279 1bbd b343 23bd 4e92 5f3c
000000e0: 5d71 513d f74b 39bd 6cd8 803d e4c3 6e3d
000000f0: b8f3 4d3d 5a8d 433c 9e6d 1e3d a3e6 323d
