ecg_afib_detection/checkpoints/ptbxl/100hz/resnet1d/fold_1/best.pt (torch, 339167 bytes, 44 tensors)

stem.0.weight f4 [64, 12, 7]
0.078320146 0.09502131 -0.010728444 0.11552337 -0.009285391 0.031851158 -0.051767442 0.059279185
0.10052745 -0.05751317 0.10857193 0.025786325 0.07852181 0.0014315912 0.05852511 -0.019100036
0.07871518 0.004284363 -0.071533695 -0.00062706985 -0.08334508 -0.005673244 -0.047527727 0.054946072
-0.096478924 -0.056598842 -0.029668726 -0.054577913 0.001003585 -0.10719636 0.104967296 -0.08014819
0.103286564 0.041555867 -0.015052952 0.07586779 0.020625321 0.0990795 0.019575896 -0.03950898
0.015663045 -0.05306404 0.053556364 0.1049771 0.060166888 -0.05760146 0.04679126 -0.000791503
0.03499634 -0.06711816 -0.105957255 -0.049392182 -0.09038245 0.09094907 0.03338801 0.038834225
0.033741225 -0.0026165664 0.080987215 -0.07894352 0.015320283 -0.060910612 0.040733308 -0.03703299
0.02919396 -0.030583335 0.08540062 -0.065879405 -0.055332694 -0.060657635 0.10499288 0.038241472
0.105236895 -0.090184525 -0.10927774 -0.07221944 -0.05878984 0.061913703 0.05580533 0.10947257
-0.03816105 -0.0567232 0.08253108 -0.021405537 0.080760084 -0.024622899 0.05976624 -0.098677285
-0.07807443 0.00322444 -0.01484392 0.018467544 0.092469074 0.09419531 -0.06391929 -0.050053246
0.094755456 -0.06519576 -0.02781504 -0.102625 -0.063346066 0.032306157 -0.005024534 -0.06255163
0.023914224 -0.10653279 -0.106082454 -0.071613304 -0.093576975 -0.055335592 0.13343124 0.06035798
0.03974726 -0.1020143 -0.07078763 -0.041412055 0.013007226 -0.10678439 -0.060765103 -0.03224014
0.013245171 -0.037855886 -0.0037024785 -0.06693314 -0.06193259 -0.05719405 -0.04259568 -0.08680769
0.0813131 -0.033690695 0.08500078 0.03521877 -0.077468544 0.074058555 -0.014906594 -0.031078922
-0.095409125 -0.11240679 0.02980869 -0.037736133 0.04527791 -0.078050695 0.09027545 -0.08052811
-0.023404853 0.017822387 0.046131358 0.088163175 0.108444996 -0.072204374 0.0362159 -0.049760547
-0.024560422 -0.10510025 0.07663056 -0.09980541 0.04935298 0.033384435 0.026903868 -0.069459826
0.07808024 0.03330665 0.019850764 -0.09447284 0.04638448 -0.018826133 -0.053021703 0.08832135
0.030321278 -0.043485533 -0.04239795 0.0037901602 0.06648376 -0.025941802 -0.047701463 -0.049100548
-0.08679894 0.03984375 0.087110616 -0.10252305 0.025492046 0.06200565 0.011323688 -0.044593807
0.05519809 0.061576266 0.04623419 -0.01697853 -0.030839266 0.009763481 -0.028938955 -0.04200668
0.061551988 0.08579714 -0.019326907 -0.04496309 0.013586976 0.0056048203 0.032729357 0.030559707
-0.10000896 -0.040785506 0.09864655 0.04039186 -0.0077943183 -0.063195154 -0.062300645 -0.09441424
-0.029263867 0.045713957 0.08751863 0.068376765 -0.083341435 -0.057935376 -0.022220675 0.0900692
-0.0038842766 -0.014048513 0.04516795 -0.052817073 -0.07224039 0.080719575 -0.06759428 -0.04859804
-0.078662224 0.09067989 0.08134284 0.047913067 -0.06831291 -0.122167565 -0.10718076 0.100363925
0.06625621 0.100797236 0.07511378 0.051737733 0.011172784 -0.08158426 -0.0864064 -0.09950033
0.041060314 -0.054606512 -0.023354093 -0.06113145 -0.005548154 -0.09211824 -0.07547218 0.038770866
-0.03318555 0.05653544 -0.05173146 -0.07751682 0.0015230025 -0.04283006 -0.040357016 -0.12937945
00000000: 5066 a03d 889a c23d 5bc6 2fbc 8497 ec3d
00000010: c121 18bc 5c76 023d 190a 54bd bbce 723d
00000020: 56e1 cd3d ee92 6bbd f65a de3d d83d d33c
00000030: 0bd0 a03d 3ba4 bb3a 07b8 6f3d ae77 9cbc
00000040: 6d35 a13d d763 8c3b 4280 92bd f261 24ba
00000050: d3b0 aabd 9fe6 b9bb 6fac 42bd 220f 613d
00000060: be96 c5bd 30d4 67bd d40b f3bc 178d 5fbd
00000070: ba8a 833a c489 dbbd 18f9 d63d bc24 a4bd
00000080: e887 d33d 7c36 2a3d a8a0 76bc 9260 9b3d
00000090: 6ff6 a83c 31ea ca3d a15d a03c 2bd4 21bd
000000a0: c94f 803c ae59 59bd eb5d 5b3d 3cfe d63d
000000b0: 8e71 763d 82ef 6bbd 31a8 3f3d de7c 4fba
000000c0: 5258 0f3d 3f75 89bd 1e00 d9bd 754f 4abd
000000d0: 6f1a b9bd 8243 ba3d dec1 083d a310 1f3d
000000e0: 3d34 0a3d b37a 2bbb a0dc a53d 24ad a1bd
000000f0: ed01 7b3c 687d 79bd f8d7 263d e8af 17bd
00000100: 2c28 ef3c e789 fabc 85e6 ae3d c8eb 86bd
00000110: 89a4 62bd 2474 78bd 8206 d73d 17a3 1c3d
00000120: 7186 d73d aab2 b8bd 02cd dfbd c9e7 93bd
00000130: 9ecd 70bd 3999 7d3d 2194 643d 2833 e03d
00000140: c34e 1cbd 9656 68bd 0e06 a93d aa5a afbc
00000150: 8b65 a53d f6b5 c9bc 72cd 743d 5117 cabd
00000160: 7de5 9fbd 2051 533b ea33 73bc 3f49 973c
00000170: 6d60 bd3d 78e9 c03d 1ee8 82bd a204 4dbd
00000180: 260f c23d 5b85 85bd 5edc e3bc 0e2d d2bd
00000190: 95bb 81bd 7653 043d d9a4 a4bb 121b 80bd
000001a0: c3e7 c33c dd2d dabd c241 d9bd ffa9 92bd
000001b0: 49a5 bfbd 93a7 62bd 33a2 083e ee39 773d
000001c0: 06ce 223d e0ec d0bd 1bf9 90bd b09f 29bd
000001d0: 431c 553c c6b1 dabd d4e4 78bd 3d0e 04bd
000001e0: 4602 593c c60e 1bbd 48a5 72bb 3e14 89bd
000001f0: 07ad 7dbd 4f44 6abd cf78 2ebd 3bc8 b1bd
00000200: 7c87 a63d 41ff 09bd e414 ae3d 8f41 103d
00000210: d4a7 9ebd 03ac 973d c93a 74bc 3999 febc
00000220: dc65 c3bd 8835 e6bd 5b31 f43c 3491 1abd
00000230: 5475 393d 0bd9 9fbd 56e2 b83d eceb a4bd
00000240: 89bb bfbc 4100 923c 3cf4 3c3d e58e b43d
00000250: 6918 de3d e3df 93bd 2057 143d b7d1 4bbd
00000260: f032 c9bc cd3e d7bd 7cf0 9c3d c766 ccbd
00000270: 5a26 4a3d 1ebe 083d 8065 dc3c f440 8ebd
00000280: 88e8 9f3d 8e6c 083d 129e a23c fa7a c1bd
00000290: a7fd 3d3d 4339 9abc 492d 59bd d3e1 b43d
000002a0: 5464 f83c e31d 32bd 79a9 2dbd 5664 783b
000002b0: a328 883d e783 d4bc 9c62 43bd a81d 49bd
000002c0: a5c3 b1bd 3333 233d 0d67 b23d 9bf7 d1bd
000002d0: b2d4 d03c a3f9 7d3d fd86 393c ffa7 36bd
000002e0: 6417 623d 6537 7c3d 1060 3d3d 8f16 8bbc
000002f0: a1a2 fcbc 02f7 1f3c 6311 edbc 320f 2cbd
00000300: f01d 7c3d 69b6 af3d 7653 9ebc 382b 38bd
00000310: e89b 5e3c a4a8 b73b 380f 063d 5a58 fa3c
00000320: 7fd1 ccbd b40e 27bd 3407 ca3d ef71 253d
00000330: 7b67 ffbb 766c 81bd f62e 7fbd 415c c1bd
00000340: c7ba efbc 8f3e 3b3d f83c b33d 1e09 8c3d
00000350: eaae aabd a54d 6dbd 2208 b6bc 3376 b83d
00000360: 598f 7ebb bc2b 66bc 0702 393d b756 58bd
00000370: c5f2 93bd 4e50 a53d df6e 8abd bd0e 47bd
00000380: a919 a1bd 61b6 b93d 1397 a63d 7e40 443d
00000390: a4e7 8bbd fd32 fabd 9681 dbbd 9a8b cd3d
000003a0: 56b1 873d c86e ce3d 41d5 993d f2ea 533d
000003b0: 0d0e 373c a615 a7bd d7f5 b0bd d4c6 cbbd
000003c0: dc2e 283d 14ab 5fbd 1551 bfbc f964 7abd
000003d0: 4acd b5bb 7da8 bcbd 2991 9abd 33ce 1e3d
000003e0: 92ed 07bd b591 673d 5ee4 53bd 23c1 9ebd
000003f0: 7c9f c73a 936e 2fbd 664d 25bd 0c7c 04be

stem.0.bias f4 [64]
-0.07422458 -0.011767602 0.002723825 0.010155152 0.0882095 0.08330053 -0.015098285 -0.040073734
0.034296274 -0.00737298 0.06595617 0.04577621 0.025422731 0.039589006 0.08253943 0.044079497
0.032193515 -0.07675997 0.075768486 -0.006672765 -0.068682894 -0.028672155 0.08297579 -0.03536974
0.012170224 0.042713653 0.07646366 -0.027849011 -0.078906655 -0.06692049 -0.02688483 0.0110065965
-0.07372656 0.09479954 0.04319845 -0.079273395 0.040891964 0.00508762 0.11635605 0.0050647613
0.0064648413 -0.08877404 -0.07573533 0.0063725174 0.073015906 -0.079505436 0.020662108 -0.0871342
-0.09876747 -0.04417513 -0.0608911 -0.07719162 -0.052744012 -0.031703703 0.08008903 0.057271242
-0.016856553 -0.019387878 -0.023706445 -0.116023324 0.093109146 0.074268736 -0.0846938 -0.106602296
00000000: 0e03 98bd e6cc 40bc 3382 323b cb61 263c
00000010: 2fa7 b43d 7899 aa3d cc5e 77bc 5b24 24bd
00000020: 407a 0c3d 0a99 f1bb 0714 873d d67f 3b3d
00000030: 5543 d03c 1528 223d 6f0a a93d b48c 343d
00000040: 59dd 033d 5534 9dbd 822c 9b3d 36a7 dabb
00000050: 9ea9 8cbd dee1 eabc 36ef a93d dcdf 10bd
00000060: 9f65 473c 83f4 2e3d fb98 9c3d 9c23 e4bc
00000070: d099 a1bd 9c0d 89bd 933d dcbc 0355 343c
00000080: f3fd 96bd 4326 c23d dcf0 303d 175a a2bd
00000090: 557e 273d 0db6 a63b 154c ee3d 4cf6 a53b
000000a0: 05d7 d33b 2acf b5bd 201b 9bbd 8dd0 d03b
000000b0: 5d89 953d bfd3 a2bd 9543 a93c 6a73 b2bd
000000c0: 9946 cabd fbf0 34bd f268 79bd a416 9ebd
000000d0: 1b0a 58bd bedb 01bd b805 a43d 4095 6a3d
000000e0: c116 8abc 54d3 9ebc 0534 c2bc a39d edbd
000000f0: 02b0 be3d 351a 983d f173 adbd 4e52 dabd

stem.1.weight f4 [64]
0.97699666 1.0111225 1.0001981 1.0029634 0.9976167 0.9868444 1.0027987 0.99400014
1.017527 1.00326 1.0145451 0.9776536 0.98882556 1.0241023 1.0055257 1.0041502
1.0179058 0.9611848 0.9860318 0.9667555 0.96421695 1.0085065 1.0035872 0.9895466
0.99471563 0.99226475 1.0631423 1.0035911 0.9853968 1.0042073 0.99604094 0.96961576
0.98503447 1.0142373 0.9817462 1.0167938 0.9817722 0.9987835 0.9821087 1.0086335
0.98820484 1.0230196 1.0108106 0.9796636 1.002491 1.0097024 0.9963159 0.99146754
0.980477 0.9870213 0.9988876 0.99608725 1.0138315 0.9729246 1.0119135 1.0015309
1.0088952 0.9775445 0.97545326 1.0031931 0.9595728 1.0175084 1.0100603 0.9904719
00000000: 741c 7a3f 766c 813f 7e06 803f 1b61 803f
00000010: cf63 7f3f d6a1 7c3f b55b 803f cb76 7e3f
00000020: 533e 823f d36a 803f 9ddc 813f 8247 7a3f
00000030: ac23 7d3f c915 833f 11b5 803f fe87 803f
00000040: bd4a 823f 3510 763f 946c 7c3f 4a7d 773f
00000050: ecd6 763f be16 813f 8c75 803f ed52 7d3f
00000060: afa5 7e3f 1005 7e3f 0c15 883f ac75 803f
00000070: f742 7c3f dd89 803f 8afc 7e3f bd38 783f
00000080: 382b 7c3f 87d2 813f b853 7b3f 4d26 823f
00000090: 6c55 7b3f 47b0 7f3f 7a6b 7b3f e71a 813f
000000a0: fefa 7c3f 4ef2 823f 3e62 813f 3ccb 7a3f
000000b0: a051 803f ee3d 813f 8f0e 7f3f d1d0 7d3f
000000c0: 8a00 7b3f 6ead 7c3f 19b7 7f3f 93ff 7e3f
000000d0: 3bc5 813f 9611 793f 6286 813f 2a32 803f
000000e0: 7a23 813f 5b40 7a3f 4eb7 793f a268 803f
000000f0: 90a6 753f b73d 823f a849 813f 918f 7d3f

stem.1.bias f4 [64]
0.010301912 -0.015455298 -0.00067723903 -0.007982501 0.01498111 0.01470254 0.0054957103 -0.0143793095
-0.01255279 -0.009984756 0.002131647 -0.019736042 0.015634999 0.036182992 0.009888897 -0.002043293
0.0022359223 -0.019802202 0.021778014 -0.018355314 -0.012210061 -0.0045739547 0.012082733 -0.021488842
0.005929472 0.002098255 0.03276945 -0.004522683 -0.020818438 0.016747715 0.018709028 -0.039702844
-0.021107785 -0.0021997956 0.016683217 0.014583294 7.8509765e-06 0.0031008152 0.008090874 -0.017253213
0.011313966 0.01233301 0.057949632 -0.023590025 0.01564155 0.01915656 0.04118873 -0.011338584
-0.0010852313 -0.005471872 0.010987277 0.02408314 0.0019071231 -0.00927133 0.0029486096 0.016056968
-0.010009374 -0.012855464 -0.010113479 -0.0045584487 0.025399152 0.006088097 -0.0009325373 0.0066521564
00000000: 5ac9 283c 3838 7dbc be88 31ba 09c9 02bc
00000010: 5473 753c ece2 703c 5c15 b43b 3297 6bbc
00000020: 38aa 4dbc 1a97 23bc 1ab3 0b3b 7bad a1bc
00000030: f814 803c 9e34 143d 0a05 223c c5e8 05bb
00000040: 8d88 123b 3a38 a2bc ce67 b23c e25d 96bc
00000050: b50c 48bc 1de1 95bb a8f6 453c 5e09 b0bc
00000060: 044c c23b e182 093b 4239 063d 0433 94bb
00000070: 6e8b aabc 8132 893c ad43 993c 739f 22bd
00000080: 3cea acbc 722a 10bb 3eab 883c c5ee 6e3c
00000090: b0b7 0337 0c37 4b3b 968f 043c 9c56 8dbc
000000a0: 365e 393c 6510 4a3c 985c 6d3d de3f c1bc
000000b0: b522 803c 38ee 9c3c 84b5 283d 78c5 39bc
000000c0: 523e 8eba 644d b3bb fb03 343c 014a c53c
000000d0: 6ff8 f93a c7e6 17bc 763d 413b e789 833c
000000e0: 5bfe 23bc b99f 52bc 01b3 25bc 0a5f 95bb
000000f0: e211 d03c a97e c73b 8575 74ba 55fa d93b

stem.1.running_mean f4 [64]
-0.07371229 -0.012990437 0.003947357 0.010019354 0.088485256 0.08323277 -0.01602044 -0.04156419
0.033557415 -0.007209514 0.065132566 0.04617098 0.023936521 0.03948263 0.082063526 0.043720722
0.030190216 -0.071818314 0.076249346 -0.0067041074 -0.068129845 -0.029131597 0.083741106 -0.0399922
0.010227122 0.04312892 0.07662399 -0.027871653 -0.07835773 -0.06791697 -0.027062116 0.011936992
-0.07298283 0.095988974 0.043511596 -0.079871856 0.04021443 0.0053470195 0.115465865 0.004901434
0.007030417 -0.08692601 -0.077075236 0.005702421 0.07246798 -0.08119312 0.019850481 -0.08786698
-0.101076245 -0.044601988 -0.062137056 -0.07708616 -0.05369038 -0.031175068 0.079547524 0.05806856
-0.01633087 -0.019124672 -0.023195665 -0.11398075 0.09374685 0.074205294 -0.08544215 -0.10665486
00000000: 78f6 96bd d8d5 54bc d558 813b 3728 243c
00000010: c237 b53d f175 aa3d 4c3d 83bc 363f 2abd
00000020: 8073 093d c93d ecbb 3964 853d c81d 3d3d
00000030: 8616 c43c 8ab8 213d ec10 a83d 8014 333d
00000040: 7951 f73c 7b15 93bd 9e28 9c3d 21ae dbbb
00000050: a987 8bbd 63a5 eebc 7580 ab3d dcce 23bd
00000060: a98f 273c f3a7 303d 0aed 9c3d 1853 e4bc
00000070: 047a a0bd 0d18 8bbd 5fb1 ddbc 6093 433c
00000080: 0678 95bd de95 c43d 3739 323d db93 a3bd
00000090: e3b7 243d 0d36 af3b 5e79 ec3d 359c a03b
000000a0: 6a5f e63b 4406 b2bd 9fd9 9dbd 60db ba3b
000000b0: 186a 943d 9448 a6bd 7a9d a23c 9af3 b3bd
000000c0: 1001 cfbd 93b0 36bd 6d83 7ebd 59df 9dbd
000000d0: 72ea 5bbd db62 ffbc d0e9 a23d 4cd9 6d3d
000000e0: 51c8 85bc 58ab 9cbc d604 bebc bd6e e9bd
000000f0: 59fe bf3d f2f8 973d 4bfc aebd dd6d dabd

stem.1.running_var f4 [64]
0.7128013 0.6055713 0.365143 0.74114233 0.33189654 0.5094769 0.6814272 0.7860306
0.28428698 0.2562616 0.37754834 0.54645395 0.369412 0.2821908 0.38340423 0.41643128
0.38771564 0.24539122 1.0350857 0.24349192 0.3659076 0.74848056 0.32902148 0.51745594
0.22250324 0.49915284 0.7787423 1.4438919 0.5059034 0.17193186 0.41233099 0.70343447
0.86359596 0.6775763 0.4835261 0.44179145 0.37199602 0.48665878 0.54827106 0.42480442
0.321837 0.7326428 0.8936011 0.21877901 0.9244341 0.3768351 0.75409526 0.3243186
0.268406 0.47862592 0.24521106 0.40003344 0.99963146 0.5537835 0.55433 0.21837787
0.5862815 0.4218883 0.2324968 0.66016537 0.54598755 0.1914283 0.26816332 0.38572672
00000000: 257a 363f b906 1b3f 06f4 ba3e 81bb 3d3f
00000010: 58ee a93e 146d 023f 0372 2e3f 4d39 493f
00000020: 108e 913e b834 833e 044e c13e 68e4 0b3f
00000030: 9223 bd3e 507b 903e 8f4d c43e 7b36 d53e
00000040: aa82 c63e d647 7b3e b07d 843f f255 793e
00000050: 3e58 bb3e 6c9c 3f3f 8175 a83e fe77 043f
00000060: e4d7 633e f690 ff3e a85b 473f 73d1 b83f
00000070: e382 013f e80e 303e 0c1d d33e 4814 343f
00000080: a014 5d3f a475 2d3f bc90 f73e 7d32 e23e
00000090: 4376 be3e 572b f93e 7e5b 0c3f f77f d93e
000000a0: d2c7 a43e 7b8e 3b3f 0bc3 643f 9b07 603e
000000b0: b7a7 6c3f 88f0 c03e 630c 413f 160d a63e
000000c0: 836c 893e 750e f53e 9c18 7b3e 2fd1 cc3e
000000d0: d9e7 7f3f c1c4 0d3f 92e8 0d3f 739e 5f3e
000000e0: 8b16 163f be01 d83e a413 6e3e 9900 293f
000000f0: d7c5 0b3f c805 443e b44c 893e f97d c53e

block1.conv1.weight f4 [64, 64, 3]
-0.0761234 -0.012555484 0.008561613 -0.06715056 0.02710742 0.010644823 -0.0479737 -0.06978222
0.07410505 0.07179871 0.0025761176 -0.029907178 0.044222593 0.041363753 0.00012481415 0.06652128
-0.045098376 0.00065210206 0.055369392 -0.047357254 -0.015572986 -0.053566076 -0.043029137 0.06411168
0.030531645 -0.054588504 -0.025068047 -0.0065725157 -0.021945903 -0.03948154 -0.06243385 0.046084475
0.02319407 -0.0011371822 -0.01850242 -0.06448756 0.000503366 0.03159822 -0.007800912 0.07322403
0.028673843 0.010870747 0.022946538 0.040114157 -0.044361636 0.022831334 -0.057035044 -0.005494637
-0.04699358 0.044880196 -0.06968375 0.008561379 -0.06983036 0.041099142 0.0035648164 -0.02820649
0.035161495 0.037703693 0.028020622 -0.068139374 -0.043574363 0.04413303 0.001737617 -0.0024371138
0.008428104 -0.012114859 -0.019541837 0.019961745 0.068587616 -0.02762382 -0.015288383 0.029387852
-0.045817528 0.0610714 0.059068874 0.0052290917 -0.041531734 0.02565389 0.054762248 0.032802064
0.05013834 -0.041562524 -0.06833644 -0.017349642 -0.00097198755 0.072080374 0.027008269 -0.0067910235
-0.010235539 0.0027022774 -0.036142487 -0.02044278 0.028605595 0.033510618 0.055080622 0.03318598
-0.06726393 0.055865414 0.06349151 -0.053231925 -0.020261107 0.05589317 -0.018387625 0.043076716
0.02816981 0.05114888 0.047207057 0.098022595 0.059200786 -0.048789024 0.058509696 -0.009567768
-0.033680506 0.021042038 -0.0019096459 -0.034301773 -0.054593705 -0.035428625 0.02273706 0.07087175
0.03560579 0.02714929 0.07701757 -0.08894167 -0.053907737 0.034215122 -0.07246478 0.08161073
0.029467577 -0.033778712 0.049892306 0.039908282 0.055221424 0.05816235 -0.00075793616 0.05923639
0.008266043 0.018453136 0.01619315 -0.06291851 -0.050262213 0.088829406 -0.01177899 0.0743691
0.03801698 -0.05030476 0.0059901606 -0.01338372 0.0554415 -0.01679606 0.07558564 -0.05485198
0.037788935 0.040354215 -0.018763775 -0.007410445 -0.064624205 0.009473773 0.027312225 -0.026832338
0.061729982 -0.00039537498 -0.01666462 0.058441687 0.018197823 0.046375204 0.05156037 -0.033573136
-0.013437317 0.065317445 -0.028094925 0.009060406 0.06414548 0.023481375 -0.0095817335 0.038005702
-0.05011057 0.05950876 0.056981344 -0.0261501 -0.04085517 -0.026769383 0.06217838 -0.018567642
0.0376307 -0.05349527 0.021644183 0.05333963 0.043762673 0.0033526248 0.008953997 0.06949422
0.033113778 -0.013603303 -0.050645094 0.049529918 -0.024546262 0.05011846 -0.03183168 -0.018466253
-0.07015762 -0.04460998 -0.008302045 -0.077725135 -0.031714555 0.03175645 0.047478057 0.054125275
-0.02186785 0.011980754 -0.08170731 0.03175697 0.02383959 0.066607416 -0.013840751 0.06782572
0.036692116 0.059393138 -0.014039472 -0.054437302 -0.052876886 -0.051754948 0.014575958 -0.05446101
-0.012350076 0.040045593 0.069765456 -0.018375942 0.060378052 0.003181817 -0.023865385 0.00502118
-0.010586498 0.054035977 0.00399706 -0.023465864 0.061116412 -0.024703983 -0.035837233 0.03392709
-0.023503456 -0.04777427 -0.06427193 -0.012796564 -0.046960298 0.0428597 -0.010331329 0.028447906
0.024991207 -0.0078053907 -0.024392886 -0.04494959 0.034526315 -0.04675962 -0.026793772 0.058229156
00000000: 96e6 9bbd 84b5 4dbc 0246 0c3c 3c86 89bd
00000010: 6110 de3c a067 2e3c 1280 44bd fbe9 8ebd
00000020: 63c4 973d 340b 933d 15d4 283b e6ff f4bc
00000030: c022 353d 0a6d 293d 8be0 0239 4f3c 883d
00000040: 13b9 38bd d4f1 2a3a 04cb 623d aef9 41bd
00000050: d625 7fbc 1a68 5bbd 523f 30bd fc4c 833d
00000060: 801d fa3c 3298 5fbd 815b cdbc 425e d7bb
00000070: e5c7 b3bc 65b7 21bd a3ba 7fbd 13c3 3c3d
00000080: 7e01 be3c 810d 95ba 6392 97bc 0e12 84bd
00000090: 52f4 033a 236d 013d cb9e ffbb 7bf6 953d
000000a0: 68e5 ea3c 381b 323c 61fa bb3c be4e 243d
000000b0: 8cb4 35bd c708 bb3c 949d 69bd 5b0c b4bb
000000c0: 577c 40bd 4cd4 373d 5bb6 8ebd 0745 0c3c
000000d0: 3803 8fbd 9357 283d b29f 693b 4c11 e7bc
000000e0: 8005 103d 306f 1a3d 818b e53c a88c 8bbd
000000f0: 087b 32bd d6c4 343d c0c0 e33a fcb7 1fbb
00000100: 0816 0a3c 677d 46bc 3416 a0bc d086 a33c
00000110: aa77 8c3d 594b e2bc 207c 7abc cbbe f03c
00000120: 29ab 3bbd 0126 7a3d 34f2 713d cd58 ab3b
00000130: 2e1d 2abd 1b28 d23c 614e 603d 755b 063d
00000140: dc5d 4d3d 773d 2abd faf3 8bbd d620 8ebc
00000150: fbcc 7eba e09e 933d 7240 dd3c 3c87 debb
00000160: f6b2 27bc b118 313b 250a 14bd 9e77 a7bc
00000170: 4856 ea3c 6e42 093d 389c 613d 06ee 073d
00000180: acc1 89bd 22d3 643d d607 823d b809 5abd
00000190: 9ffa a5bc 3df0 643d a5a1 96bc 3671 303d
000001a0: 60c4 e63c 7d81 513d 305c 413d 12c0 c83d
000001b0: 867c 723d 00d7 47bd dda7 6f3d 21c2 1cbc
000001c0: 92f4 09bd 5a60 ac3c 154d faba 0480 0cbd
000001d0: a69d 5fbd 9b1d 11bd 1243 ba3c 3525 913d
000001e0: 60d7 113d 3068 de3c 63bb 9d3d 0d27 b6bd
000001f0: 5cce 5cbd 2825 0c3d 6a68 94bd 8723 a73d
00000200: fd65 f13c 8c5b 0abd e05b 4c3d de76 233d
00000210: dc2f 623d a53b 6e3d 3cb0 46ba dba1 723d
00000220: 4c6e 073c 082b 973c 7fa7 843c 6bdb 80bd
00000230: c0df 4dbd 31ec b53d aafc 40bc d44e 983d
00000240: b1b7 1b3d 5d0c 4ebd 1c49 c43b 6447 5bbc
00000250: a016 633d e497 89bc a5cc 9a3d 78ac 60bd
00000260: 92c8 1a3d 764a 253d 7db6 99bc 51d3 f2bb
00000270: b259 84bd e237 1b3c e3bd df3c 7ecf dbbc
00000280: 94d8 7c3d 554a cfb9 3e84 88bc 8d60 6f3d
00000290: 9a13 953c edf3 3d3d f730 533d fc83 09bd
000002a0: 3128 5cbc 27c5 853d 5427 e6bc 1972 143c
000002b0: b55e 833d 035c c03c b4fc 1cbc deab 1b3d
000002c0: be40 4dbd 75bf 733d 4565 693d bc38 d6bc
000002d0: c057 27bd 774b dbbc c2ae 7e3d 2b1b 98bc
000002e0: a622 1a3d db1d 5bbd 244f b13c a87a 5a3d
000002f0: 7d40 333d b6b7 5b3b c9b3 123c fc52 8e3d
00000300: 50a2 073d 63e0 5ebc 3b71 4fbd e2df 4a3d
00000310: 3e15 c9bc 0449 4d3d f061 02bd 8a46 97bc
00000320: ccae 8fbd f4b8 36bd 4d05 08bc 5b2e 9fbd
00000330: 1fe7 01bd 0d13 023d 5a78 423d 77b2 5d3d
00000340: 3524 b3bc ed4a 443c 2a56 a7bd 9913 023d
00000350: 3e4b c33c 7869 883d 51c4 62bc 36e8 8a3d
00000360: 794a 163d 3846 733d d005 66bc a6f9 5ebd
00000370: 6f95 58bd fffc 53bd 00d0 6e3c 8212 5fbd
00000380: f957 4abc d906 243d 31e1 8e3d 2589 96bc
00000390: fa4e 773d 0886 503b 5781 c3bc b688 a43b
000003a0: fe72 2dbc d454 5d3d c5f9 823b 7c3b c0bc
000003b0: 3455 7a3d 0260 cabc 10ca 12bd 22f7 0a3d
000003c0: 528a c0bc f4ae 43bd 00a1 83bd aea8 51bc
000003d0: 7159 40bd a78d 2f3d bc44 29bc 950b e93c
000003e0: 5cba cc3c 5dc4 ffbb 97d3 c7bc 101d 38bd
000003f0: 776b 0d3d 0487 3fbd 9d7e dbbc b281 6e3d

block1.conv1.bias f4 [64]
-0.022714617 -0.029826129 0.05463739 -0.057761986 -0.057247195 0.010166235 0.039237887 0.03793794
-0.03683908 -0.06842665 0.023751564 -0.042225756 0.04417825 -0.0043666055 -0.031132419 -0.018174915
0.07321913 -0.032590944 -0.060020935 0.029348817 0.03677246 -0.0048989626 0.029549457 -0.040178586
-0.03621602 -0.0416636 -0.038796157 -0.042236462 0.02518201 -0.016205953 0.04502113 -0.020978455
0.038444847 0.07524996 -0.00800523 -0.03290756 0.037108134 -0.05911617 0.03757963 0.059901997
0.029963184 -0.054238442 0.0020978928 0.04721827 0.0107512195 0.03144556 0.04403567 0.029421855
-0.00169823 -0.04681178 0.022285592 -0.03134127 0.030647933 -0.07332952 0.06996761 0.029137323
-0.052169774 -0.026938817 -0.0012730112 -0.009605 0.0073322724 -0.04905836 0.047666073 0.04462109
00000000: 0114 babc ed55 f4bc 75cb 5f3d d597 6cbd
00000010: 097c 6abd 4890 263c e8b7 203d d064 1b3d
00000020: 93e4 16bd 4523 8cbd a492 c23c eaf4 2cbd
00000030: 41f4 343d be15 8fbb 6a09 ffbc 8fe3 94bc
00000040: e9f3 953d 157e 05bd 83d8 75bd ee6c f03c
00000050: b89e 163d 7a87 a0bb b411 f23c 4d92 24bd
00000060: 4057 14bd 73a7 2abd b8e8 1ebd 2400 2dbd
00000070: 814a ce3c 59c2 84bc 1468 383d 02db abbc
00000080: 5878 1d3d a71c 9a3d 5e28 03bc 14ca 06bd
00000090: b3fe 173d cc23 72bd 19ed 193d cc5b 753d
000000a0: 5a75 f53c 2129 5ebd cd7c 093b f267 413d
000000b0: e225 303c 0fcd 003d bf5e 343d 1a06 f13c
000000c0: 2597 deba b6bd 3fbd 4690 b63c b45f 00bd
000000d0: 6011 fb3c ca2d 96bd 2e4b 8f3d 65b1 ee3c
000000e0: f9af 55bd cbae dcbc 2bdb a6ba 4a5e 1dbc
000000f0: 8f43 f03b 6bf1 48bd 803d 433d 9bc4 363d

block1.bn1.weight f4 [64]
1.0018111 0.9858986 0.98078096 1.0032821 0.97789556 1.0105603 1.0375435 0.9894033
1.0060765 1.0219092 0.9948099 1.0005363 1.0446614 0.9970393 0.99114656 1.011167
1.0201026 0.9945742 0.96018606 0.9904668 1.0002979 0.98589265 0.9840753 1.0178152
1.0132798 1.0148711 0.98925954 1.0129296 0.99699813 0.9967364 0.9879298 1.0049006
1.0254266 0.9994024 1.0245273 0.99286103 0.99190474 1.0047942 0.97631 0.98552376
1.0312482 1.0068585 0.99904805 1.0050422 0.9736491 1.0212106 0.9911907 1.0015261
1.0036168 0.96666443 1.0687408 0.9989776 0.98275596 1.0165932 1.009654 1.0090976
1.013174 0.9697381 0.9954737 1.0025223 0.97918266 0.9798675 0.97067416 0.9692679
00000000: 593b 803f da63 7c3f 7614 7b3f 8c6b 803f
00000010: 5d57 7a3f 0a5a 813f 3ace 843f 8949 7d3f
00000020: 1dc7 803f eccd 823f ddab 7e3f 9311 803f
00000030: 77b7 853f f83d 7f3f c8bb 7d3f ec6d 813f
00000040: b992 823f 6a9c 7e3f c1ce 753f 3b8f 7d3f
00000050: c309 803f 7663 7c3f 5cec 7b3f c547 823f
00000060: 27b3 813f 4ce7 813f 1d40 7d3f ada7 813f
00000070: 453b 7f3f 1e2a 7f3f f8e8 7c3f 95a0 803f
00000080: 2e41 833f d6d8 7f3f b623 833f 242c 7e3f
00000090: 78ed 7d3f 199d 803f 74ef 793f 494b 7c3f
000000a0: f1ff 833f bde0 803f 9dc1 7f3f 39a5 803f
000000b0: 1141 793f 07b7 823f acbe 7d3f 0232 803f
000000c0: 8476 803f 5277 773f 80cc 883f ffbc 7f3f
000000d0: e595 7b3f ba1f 823f 583c 813f 1c2a 813f
000000e0: b0af 813f c240 783f 5dd7 7e3f a752 803f
000000f0: b7ab 7a3f 99d8 7a3f 1a7e 783f f121 783f

block1.bn1.bias f4 [64]
0.001126333 0.004734925 -0.011655543 0.010411707 -0.02568044 -0.017258512 -0.019448142 -0.01346531
0.047961287 0.004656405 0.002534723 -0.009296611 0.0015645843 0.0026771263 -0.008821473 0.009199474
-0.024723142 0.002523197 0.0027862121 -0.02302482 -0.008457094 -0.026798403 -0.01119208 0.003613907
-0.007571212 -0.0016038181 -0.004781358 -0.017548962 0.0030399275 0.0144274095 -0.00930842 0.00050283084
-0.005445707 -0.0047370824 0.010415845 0.0076041548 0.0038460742 0.039620794 -0.012067984 -0.0049003693
-0.0046861107 0.022058621 -0.01262578 0.014209675 -0.009783356 0.013585389 -0.0031846203 -0.021584494
-2.0540057e-05 -0.027588239 0.051591527 -0.022846676 -0.006842614 -0.0061165476 0.016995182 -0.0046432177
0.0012225668 -0.01928457 -0.029125342 0.019367836 0.004770171 -0.0012493172 -0.023548134 -0.032162722
00000000: 77a1 933a 6e27 9b3b e4f6 3ebc dd95 2a3c
00000010: c95f d2bc b961 8dbc b651 9fbc 9b9d 5cbc
00000020: 0e73 443d c294 983b 981d 263b d050 18bc
00000030: bd12 cd3a ba72 2f3b f187 10bc 64b9 163c
00000040: 3088 cabc 395c 253b e298 363b 8c9e bcbc
00000050: a08f 0abc 5388 dbbc fc5e 37bc 4cd7 6c3b
00000060: ee17 f8bb 3537 d2ba f0ac 9cbb d7c2 8fbc
00000070: 8539 473b f160 6c3c 5882 18bc 68d0 033a
00000080: e771 b2bb 8739 9bbb 38a7 2a3c 462c f93b
00000090: 6b0e 7c3b 6a49 223d cbb8 45bc 4793 a0bb
000000a0: f28d 99bb 48b4 b43c 5cdc 4ebc b2cf 683c
000000b0: 5f4a 20bc 4095 5e3c 10b5 50bb f7d1 b0bc
000000c0: 704d acb7 bb00 e2bc a351 533d f428 bbbc
000000d0: 0238 e0bb 526d c8bb 7b39 8b3c 2226 98bb
000000e0: 893e a03a adfa 9dbc 4598 eebc 4ca9 9e3c
000000f0: 184f 9c3b 21c0 a3ba 04e8 c0bc 0fbd 03bd

block1.bn1.running_mean f4 [64]
0.4917061 0.21676482 -0.02752684 -0.46935096 -0.36361203 0.8284281 0.33727434 -0.08412057
-0.45363772 -0.2085767 0.32204863 0.014123542 -0.4661486 -0.6622011 -0.22686256 -0.08235212
-0.1465619 -0.39283764 0.54194766 -0.07105268 -0.42412725 0.8453895 -0.032153845 -0.57420564
-0.0009354418 -0.6711587 -0.45599592 -0.114671335 0.05583675 -0.578985 -0.81169945 -0.3531637
0.24022081 -0.13873774 -0.17838131 -0.6743304 0.39697793 -0.74785036 0.090989746 -0.103750825
0.014746429 -0.51620686 -0.5399847 0.27033806 0.54982686 -0.12805428 -0.15627298 -0.5036831
-0.59267 0.6220543 -0.31952333 0.6059491 -0.48647368 -0.29680875 -0.1626105 0.60956204
-0.30747768 0.46330053 -0.2549846 -0.13614444 0.5540582 -0.40775114 -0.37908357 0.47509006
00000000: e7c0 fb3e 99f7 5d3e f87f e1bc c54e f0be
00000010: 5b2b babe dd13 543f 39af ac3e 6847 acbd
00000020: 3443 e8be 2195 55be 8fe3 a43e 6e66 673c
00000030: 08ab eebe 0386 29bf a94e 68be 3aa8 a8bd
00000040: 5314 16be 0422 c9be 15bd 0a3f 1184 91bd
00000050: 3527 d9be 726b 583f c0b3 03bd 24ff 12bf
00000060: 7038 75ba 0ed1 2bbf 4c78 e9be ced8 eabd
00000070: 13b5 643d 5c38 14bf 89cb 4fbf dfd1 b4be
00000080: 72fc 753e 4411 0ebe 97a9 36be eba0 2cbf
00000090: b140 cb3e 1f73 3fbf d558 ba3d 507b d4bd
000000a0: 029b 713c 2226 04bf 703c 0abf c069 8a3e
000000b0: 74c1 0c3f a920 03be 0606 20be 60f1 00bf
000000c0: 39b9 17bf f33e 1f3f 9098 a3be 7b1f 1b3f
000000d0: 1413 f9be 51f7 97be 5e83 26be 420c 1c3f
000000e0: b76d 9dbe ba35 ed3e 578d 82be 7369 0bbe
000000f0: c2d6 0d3f c2c4 d0be 3e17 c2be 013f f33e

block1.bn1.running_var f4 [64]
0.7410588 0.34038612 0.47498408 0.21113548 0.6740739 0.80537146 0.70072377 0.21604387
1.027806 0.20958285 0.2684883 0.27870902 0.6123531 0.6275449 0.31418136 0.24601169
0.4575348 0.4538361 0.5419818 0.5066985 0.27927494 0.6327381 0.16902532 0.647346
0.3551497 0.6110034 0.3363128 0.23976603 0.29606652 0.87646616 0.9861402 0.40152982
0.33241653 0.3441989 0.27305177 0.5152436 0.30161858 0.9697751 0.31667075 0.49101928
0.13318676 0.5621283 0.38718656 0.22295117 0.5721314 0.24073203 0.6432595 0.56965685
0.3565054 0.9153107 0.51814705 0.7516836 0.56989473 0.36763448 0.68054104 0.5697934
0.19303358 0.7743027 0.6286682 0.18670973 0.7889389 0.25089744 0.4408451 0.5075204
00000000: 08b6 3d3f 1747 ae3e 1d31 f33e e633 583e
00000010: 1b90 2c3f d32c 4e3f a262 333f 9b3a 5d3e
00000020: 268f 833f e39c 563e 4c77 893e f3b2 8e3e
00000030: 2cc3 1c3f c8a6 203f 61dc a03e 7dea 7b3e
00000040: 0042 ea3e 355d e83e 52bf 0a3f feb6 013f
00000050: 20fd 8e3e 20fb 213f f914 2d3e 78b8 253f
00000060: 2ed6 b53e b86a 1c3f 3131 ac3e 3a85 753e
00000070: 0896 973e 1660 603f af73 7c3f 5195 cd3e
00000080: 8032 aa3e d73a b03e 71cd 8b3e 01e7 033f
00000090: c06d 9a3e 2e43 783f ab22 a23e e166 fb3e
000000a0: 1c62 083e a4e7 0f3f 513d c63e 504d 643e
000000b0: 3477 123f 7582 763e a8ac 243f 08d5 113f
000000c0: e087 b63e cd51 6a3f 49a5 043f 566e 403f
000000d0: 9fe4 113f 963a bc3e f037 2e3f fbdd 113f
000000e0: 98aa 453e b438 463f 66f0 203f d630 3f3e
000000f0: e6f7 493f a175 803e 73b6 e13e dbec 013f

block1.conv2.weight f4 [64, 64, 3]
-0.020456746 -0.040858377 -0.06459418 -0.05359546 -0.049625933 0.06704782 0.011633789 -0.023477055
0.010128292 0.0053127636 0.03007705 0.037928727 0.053826194 -0.037656356 -0.013839618 -0.0676311
-0.04032358 -0.07957566 -0.016971134 -0.05325143 -0.025835775 0.049000323 0.06269453 0.012966797
0.0556556 0.053903308 0.011884917 0.012353866 0.0015203689 -0.044637088 0.057541423 -0.056950282
-0.028166104 -0.06442436 -0.03407095 0.08020617 -5.3823147e-05 0.009710113 -0.0044714157 0.057155102
0.010173881 -0.012721592 -0.04936619 0.0028743045 0.009918678 -0.06227341 -0.054014567 -0.014061901
0.055748064 0.0570696 0.08106402 0.058325186 -0.0014538979 -0.063960634 0.05239459 0.00049855455
-0.03037588 0.028838973 -0.050057173 0.007925872 0.079898305 0.04377877 -0.050864637 0.06377312
0.013794751 -0.022297528 0.041269682 0.018388592 0.021806862 0.038153797 -0.041313644 -0.05711075
0.06398574 0.0218629 0.09026923 0.024179388 -0.08596212 0.015683452 0.03448393 -0.06530852
0.013883084 -0.06967899 0.029470764 0.040826358 0.028106758 0.05073082 -0.028724127 -0.009248706
-0.02775803 0.046895657 0.04927035 -0.04339893 -0.087136246 -0.0020186708 0.04857139 -0.025140595
0.05141009 -0.042646065 -0.0529037 -0.054083098 -0.046470754 0.0075134374 -0.028587727 0.032142267
0.07611653 0.004839411 0.017984547 -0.066878326 -0.04078312 -0.075758465 0.06784482 0.008971314
-0.02372719 -0.081128 0.0046281004 -0.07581136 0.044714376 -0.06539785 0.024603333 0.065154344
-0.081133485 0.012250789 0.0062079625 0.03406662 0.04659271 -0.05433035 -0.021594342 0.043589707
0.004510427 -0.06333254 0.053585265 -0.01943344 -0.03990182 -0.00969955 0.05525061 -0.049954303
-0.018595714 -0.036069825 -0.048093934 0.0056921206 -0.009402957 -0.056364007 -0.0035740645 0.0386894
-0.02671198 0.06972906 -0.059941504 0.015441847 0.034390576 0.018573215 0.030216856 -0.0053102113
-0.052438274 0.052814666 -0.018216064 0.05878964 0.07640753 -0.06737268 0.043817397 0.002725421
-0.04691933 -0.018294802 -0.007318234 0.0631405 0.026847506 -0.03759771 -0.05807462 -0.06597672
-0.011651112 0.018039975 -0.048892293 -0.062021766 -0.043707807 0.014609454 0.043285485 0.0180428
0.040341698 0.038828593 0.0012495567 0.069172174 -0.04303862 0.051885463 -0.03107638 -0.030850802
0.0033732168 -0.027558917 0.0015560195 -0.002679394 0.009397084 -0.02269862 -0.06390746 -0.06778627
-0.07529478 -0.07772122 -0.0798702 0.047147494 0.014517084 0.023038087 0.04215028 0.029760897
-0.0051494096 -0.03268692 -0.042770866 0.029062832 0.04968877 -0.03757254 0.030444277 -0.070463285
0.03531434 -0.017270952 -0.011136375 -0.050194316 0.0027799187 -0.0027921025 0.013577498 -0.040032662
-0.03705405 -0.046936963 -0.03408996 -0.07173557 -0.059964273 0.09693941 -0.07634059 -0.02307296
-0.0027961675 -0.039630175 -0.030707302 0.031085648 0.027438693 0.03064556 0.090915464 -0.020170378
-0.0051906435 0.023457438 -0.050638814 -0.08102625 0.047786407 -0.071671 -0.06531547 -0.021947315
-0.040048994 0.03904119 -0.060368147 -0.023316188 0.053234886 0.032718997 0.011914455 -0.080996886
0.026927 0.01010614 -0.047730807 0.05670227 -0.0514592 0.016191363 -0.030472832 0.04973549
00000000: e894 a7bc 1d5b 27bd f449 84bd ea86 5bbd
00000010: 9044 4bbd 5e50 893d a69b 3e3c f452 c0bc
00000020: 23f1 253c b116 ae3b 2564 f63c 275b 1b3d
00000030: db78 5c3d 8d3d 1abd 91bf 62bc 2d82 8abd
00000040: 572a 25bd 90f8 a2bd 0c07 8bbc 2c1e 5abd
00000050: 8ca5 d3bc 90b4 483d fd65 803d b072 543c
00000060: 20f7 633d b7c9 5c3d f4b8 423c df67 4a3c
00000070: 1d47 c73a 61d5 36bd 8eb0 6b3d b344 69bd
00000080: 9abc e6bc ebf0 83bd fb8d 0bbd 2243 a43d
00000090: 2ac0 61b8 2a17 1f3c f484 92bb 781b 6a3d
000000a0: 5ab0 263c 396e 50bc 3434 4abd d45e 3c3b
000000b0: f381 223c 6712 7fbd 613e 5dbd e363 66bc
000000c0: 1558 643d d0c1 693d e504 a63d 64e6 6e3d
000000d0: b890 beba cbfd 82bd b69b 563d 6eb1 023a
000000e0: d6d6 f8bc b63f ec3c c008 4dbd 84db 013c
000000f0: b9a1 a33d 5e51 333d 7057 50bd 7b9b 823d
00000100: 6103 623c 4ea9 b6bc 660a 293d aca3 963c
00000110: 4ea4 b23c 2847 1c3d 7f38 29bd f6ec 69bd
00000120: f50a 833d d319 b33c 13df b83d da13 c63c
00000130: e80c b0bd 957a 803c 053f 0d3d 79c0 85bd
00000140: e075 633c dcb3 8ebd ac6c f13c 8a39 273d
00000150: 2540 e63c 1fcb 4f3d dc4e ebbc e287 17bc
00000160: cf64 e3bc a915 403d b5cf 493d 14c3 31bd
00000170: 7d74 b2bd ad4b 04bb cbf2 463d a6f3 cdbc
00000180: 6393 523d a4ad 2ebd 8db1 58bd 3d86 5dbd
00000190: 1e58 3ebd 4833 f63b cf30 eabc 9ca7 033d
000001a0: fce2 9b3d ec93 9e3b 5454 933c 81f7 88bd
000001b0: 330c 27bd 4127 9bbd 3af2 8a3d 6bfc 123c
000001c0: 865f c2bc 7026 a6bd 52a7 973b fc42 9bbd
000001d0: 6c26 373d 4fef 85bd ee8c c93c a46f 853d
000001e0: 5029 a6bd 89b7 483c 2a6c cb3b 7189 0b3d
000001f0: ffd7 3e3d 8089 5ebd 9ee6 b0bc 1f8b 323d
00000200: 34cc 933b 7eb4 81bd 397c 5b3d e132 9fbc
00000210: 1770 23bd ddea 1ebc 774e 623d e29c 4cbd
00000220: 0a56 98bc f4bd 13bd 25fe 44bd f884 ba3b
00000230: dc0e 1abc f2dd 66bd da3a 6abb c778 1e3d
00000240: 15d3 dabc 1cce 8e3d 3985 75bd cdff 7c3c
00000250: 22dd 0c3d db26 983c 5789 f73c 4801 aebb
00000260: 84c9 56bd 3154 583d db39 95bc 68cd 703d
00000270: 8d7b 9c3d b0fa 89bd df79 333d fa9c 323b
00000280: 7c2e 40bd fbde 95bc cccd efbb ce4f 813d
00000290: 4def db3c 0e00 1abd a7df 6dbd cd1e 87bd
000002a0: 4ee4 3ebc 92c8 933c 4943 48bd 890a 7ebd
000002b0: f506 33bd 7e5c 6f3c 1f4c 313d 7ece 933c
000002c0: 563d 253d bb0a 1f3d 2ac8 a33a 24aa 8d3d
000002d0: 4449 30bd da85 543d e493 febc d2ba fcbc
000002e0: 3011 5d3b 3dc3 e1bc 5af3 cb3a c698 2fbb
000002f0: 3af6 193c 75f2 b9bc eae1 82bd 87d3 8abd
00000300: 2634 9abd 4e2c 9fbd fd92 a3bd bb1d 413d
00000310: 10d9 6d3c 5fba bc3c c6a5 2c3d 20cd f33c
00000320: 61bc a8bb b8e2 05bd 8130 2fbd 2d15 ee3c
00000330: 7486 4b3d aae5 19bd 4766 f93c 0e4f 90bd
00000340: c5a5 103d d07b 8dbc 5875 36bc 8e98 4dbd
00000350: 4c2f 363b b5fb 36bb 2774 5e3c 4af9 23bd
00000360: fdc5 17bd f940 40bd eaa1 0bbd 19ea 92bd
00000370: 199d 75bd 2b88 c63d 7558 9cbd 8103 bdbc
00000380: e83f 37bb 4053 22bd e18d fbbc 54a7 fe3c
00000390: 1cc7 e03c 660c fb3c e331 ba3d 593c a5bc
000003a0: 4616 aabb d029 c03c a56a 4fbd 17f1 a5bd
000003b0: aebb 433d 3fc8 92bd 1ec4 85bd dbca b3bc
000003c0: 6a0a 24bd a8e9 1f3d 9744 77bd 9701 bfbc
000003d0: d30c 5a3d 5b04 063d d934 433c b2e1 a5bd
000003e0: 0396 dc3c 3994 253c 6181 43bd a440 683d
000003f0: e2c6 52bd c0a3 843c 29a2 f9bc 71b7 4b3d

block1.conv2.bias f4 [64]
0.03986781 -0.02348006 -0.009329446 0.02365541 0.0058653452 -0.036937222 -0.043626152 -0.039419275
0.009885249 -0.025766604 -0.056206554 0.053380173 0.017656265 0.07566814 -0.053431686 0.025850214
0.07767674 -0.054803584 0.058026444 -0.042915408 0.06354604 -0.043708485 0.009154343 -0.05142082
0.025242332 -0.0047788215 0.042107355 -0.055331767 0.030019898 -0.0687723 -0.013961066 -0.028387986
0.046077628 -0.019905675 0.022664083 0.01549324 -0.01962834 -0.0011683957 -0.04531466 -0.046980046
-0.014983678 -0.046000965 0.049231283 -0.05206708 0.024523702 0.042498708 -0.012213295 -0.00046943733
0.026485141 -0.0235844 -0.05872725 0.043616235 -0.027051898 -0.04759102 -0.065781504 0.061127584
-0.06015885 -0.0048918244 0.05697945 -0.051613826 0.051604718 0.03679388 0.036813613 0.049729355
00000000: 6e4c 233d 4159 c0bc 88da 18bc fec8 c13c
00000010: 1532 c03b 7c4b 17bd 56b1 32bd 1b76 21bd
00000020: bdf5 213c 7c14 d3bc d838 66bd 2ba5 5a3d
00000030: dfa3 903c e6f7 9a3d 2fdb 5abd d4c3 d33c
00000040: fc14 9f3d b979 60bd 23ad 6d3d 11c8 2fbd
00000050: 6d24 823d ab07 33bd 19fc 153c a39e 52bd
00000060: 02c9 ce3c a997 9cbb c378 2c3d 90a3 62bd
00000070: 4aec f53c 7ed8 8cbd f4bc 64bc ec8d e8bc
00000080: e5bb 3c3d 3a11 a3bc 07aa b93c 5cd7 7d3c
00000090: 9dcb a0bc db24 99ba dd9b 39bd 266e 40bd
000000a0: 1a7e 75bc 826b 3cbd bea6 493d 4a44 55bd
000000b0: eee5 c83c 2013 2e3d 461a 48bc d01e f6b9
000000c0: 5ef7 d83c 1234 c1bc fc8b 70bd f0a6 323d
000000d0: f19b ddbc cdee 42bd 74b8 86bd eb60 7a3d
000000e0: 2069 76bd 994b a0bb 4963 693d 0569 53bd
000000f0: 785f 533d 2eb5 163d dfc9 163d 02b1 4b3d

block1.bn2.weight f4 [64]
1.0015299 1.0007533 1.0341111 1.0070624 1.02741 1.0030184 0.99823993 1.0334377
1.0541116 1.0215958 1.0058862 1.0343158 1.0015647 0.9950292 1.021484 1.0077078
1.0430082 1.0479541 0.9817909 1.0047094 1.0022012 0.9804249 1.0007524 0.97627765
1.010123 0.9948766 1.0331472 1.0109278 1.0161977 1.0063872 1.0275363 1.0069371
1.0042452 0.99376285 1.0116061 1.0015241 1.0304384 1.0330406 1.0209785 0.99934554
0.9891359 1.0104736 1.0267094 1.0102885 1.0106709 1.0036744 1.0075895 1.0148411
1.01501 1.0086055 0.999476 0.9948005 1.0248626 1.0144669 1.0022203 1.0129536
1.0255394 1.0258626 0.99548924 1.0025887 1.0337352 1.0060567 1.0133137 1.0118064
00000000: 2232 803f af18 803f c15d 843f 6ce7 803f
00000010: 2c82 833f e862 803f a78c 7f3f b047 843f
00000020: 21ed 863f a7c3 823f e1c0 803f 7664 843f
00000030: 4633 803f 3cba 7e3f fdbf 823f 92fc 803f
00000040: 4b81 853f 5c23 863f a656 7b3f 519a 803f
00000050: 2148 803f 20fd 7a3f a818 803f 55ed 793f
00000060: b64b 813f 3cb0 7e3f 2b3e 843f 1566 813f
00000070: c412 823f 4cd1 803f 4f86 833f 51e3 803f
00000080: 1b8b 803f 3e67 7e3f 4f7c 813f f131 803f
00000090: 68e5 833f ad3a 843f 6caf 823f 1cd5 7f3f
000000a0: 0338 7d3f 3357 813f 376b 833f 2251 813f
000000b0: aa5d 813f 6778 803f b1f8 803f 50e6 813f
000000c0: d9eb 813f fc19 813f a9dd 7f3f 3fab 7e3f
000000d0: b32e 833f 0dda 813f c148 803f 77a8 813f
000000e0: e044 833f 774f 833f 62d8 7e3f d454 803f
000000f0: 6f51 843f 77c6 803f 43b4 813f df82 813f

block1.bn2.bias f4 [64]
-0.015638394 -6.8944486e-05 0.016685368 -0.0019333398 0.022659183 0.011762761 -0.020330578 -0.00972228
-0.0019796074 0.010637274 -0.012576556 0.0018071108 0.01841406 -0.003075975 0.010141375 -0.0016910245
0.030936658 -0.018466946 -0.00522426 0.0043754233 -0.01116089 -0.0038099205 -0.005795299 0.0065586283
-0.01976656 0.005963617 0.004697659 0.002123105 0.036212582 0.015527796 0.00080022425 -9.7425465e-05
0.00866007 -0.023592725 0.019181855 0.018846285 0.021697827 -0.029633949 0.020461576 0.001972313
0.006798713 0.022296645 0.005630176 -0.012349949 0.0044661486 0.009443212 -0.0061309296 -0.0027094525
-0.0049940213 -0.009822551 0.002345331 0.013945124 0.011946272 -0.0027737545 0.0076456023 0.005527633
8.2016915e-05 0.017361665 0.017269583 0.0025041 -0.0010638619 0.0066306526 -0.0034740064 0.0028079003
00000000: 171c 80bc 4a96 90b8 c1af 883c 1e68 fdba
00000010: c09f b93c 98b8 403c 508c a6bc 334a 1fbc
00000020: 4dbc 01bb f647 2e3c e60d 4ebc 94dc ec3a
00000030: 15d9 963c 4c96 49bb 0228 263c 5ea5 ddba
00000040: e06e fd3c fe47 97bc 4530 abbb b65f 8f3b
00000050: 2adc 36bc dcaf 79bb 7ee6 bdbb c3e9 d63b
00000060: 7bed a1bc 726a c33b d2ee 993b cb23 0b3b
00000070: a553 143d 4c68 7e3c 24c6 513a e650 ccb8
00000080: f7e2 0d3c 8845 c1bc 4423 9d3c 8663 9a3c
00000090: a4bf b13c e5c2 f2bc 099f a73c ec41 013b
000000a0: bdc7 de3b 74a7 b63c 577d b83b 7157 4abc
000000b0: c558 923b b4b7 1a3c f7e5 c8bb 1291 31bb
000000c0: e3a4 a3bb c4ee 20bc 20b4 193b 177a 643c
000000d0: 4cba 433c e1c7 35bb f687 fa3b 2521 b53b
000000e0: 7f00 ac38 0d3a 8e3c f178 8d3c d41b 243b
000000f0: 4871 8bba f245 d93b 28ac 63bb c004 383b

block1.bn2.running_mean f4 [64]
-0.10710887 -0.19594847 -0.09940187 -0.68357444 -0.14269353 -0.727814 -0.116800606 -0.27870473
-0.3470211 0.029786492 -0.18173596 -0.022208916 -0.35867646 0.043319557 -0.20290819 -0.2373346
0.080916815 0.2104282 0.020974675 -0.078857414 0.25014383 0.122699544 0.0034667584 0.27455172
0.15616047 -0.22550707 -0.06273374 -0.31937015 -0.010816613 -0.23918863 -0.11212341 0.057835028
0.39922395 0.27227435 -0.01934239 0.21307044 0.3148416 -0.14149123 -0.025633391 -0.01912609
-0.15996191 0.1824886 -0.08846908 0.15278193 -0.28478917 -0.2361753 -0.028536005 -0.025449812
0.35000315 0.26787552 -0.38257727 -0.23829274 0.16107951 -0.07772344 -0.47079328 0.22706875
-0.52266455 -0.29968846 -0.35552248 -0.47764823 0.026292147 -0.32071814 0.2092968 -0.028068699
00000000: e55b dbbd b7a6 48be 3593 cbbd bcfe 2ebf
00000010: 411e 12be 0552 3abf 2835 efbd 63b2 8ebe
00000020: c0ac b1be cd02 f43c fe18 3abe 79ef b5bc
00000030: 71a4 b7be d96f 313d 2ac7 4fbe d707 73be
00000040: b7b7 a53d 7d7a 573e 15d3 ab3c ff7f a1bd
00000050: da12 803e e649 fb3d 8e32 633b 0b92 8c3e
00000060: 88e8 1f3e 53eb 66be 8c7a 80bd 7c84 a3be
00000070: 2a38 31bc dded 74be f5a0 e5bd 6ce4 6c3d
00000080: 1567 cc3e 8b67 8b3e ef73 9ebc 232f 5a3e
00000090: eb32 a13e 14e3 10be 1efd d1bc 51ae 9cbc
000000a0: 0ecd 23be 4bde 3a3e 472f b5bd de72 1c3e
000000b0: e3cf 91be f0d7 71be 57c4 e9bc 207c d0bc
000000c0: 9d33 b33e fb26 893e 2be1 c3be 0303 74be
000000d0: 07f2 243e 782d 9fbd d10b f1be b684 683e
000000e0: 58cd 05bf c470 99be 0b07 b6be 4f8e f4be
000000f0: a162 d73c 2b35 a4be e651 563e 54f0 e5bc

block1.bn2.running_var f4 [64]
0.20294432 0.42354625 0.15408012 0.3471945 0.40004396 0.38479444 0.28522667 0.16379707
0.14843976 0.061388656 0.13226506 0.22144012 0.18562186 0.25709352 0.18413763 0.19159655
0.38345748 0.12905923 0.20845012 0.37214348 0.1745783 0.2550365 0.3386279 0.21428786
0.14428264 0.3704112 0.12879537 0.30321425 0.24549405 0.15887557 0.21891901 0.09646434
0.09292198 0.3029231 0.20235653 0.14876994 0.15636495 0.1476603 0.22332555 0.14390217
0.40282276 0.09682165 0.2501216 0.37199765 0.32051024 0.21747957 0.16229205 0.118919514
0.36204958 0.33345294 0.21694598 0.18975283 0.18157329 0.12524442 0.2424069 0.52047634
0.14276917 0.41389006 0.530606 0.41230035 0.11727096 0.3358367 0.21896176 0.24862519
00000000: a3d0 4f3e 0edb d83e 2ec7 1d3e 7ac3 b13e
00000010: 90d2 cc3e c703 c53e 3b09 923e 6bba 273e
00000020: 9800 183e ac72 7b3d 7e70 073e 33c1 623e
00000030: a813 3e3e c3a1 833e 938e 3c3e e331 443e
00000040: 8a54 c43e 1a28 043e f373 553e 9789 be3e
00000050: a7c4 323e 2594 823e a360 ad3e 476e 5b3e
00000060: d4be 133e 89a6 bd3e efe2 033e e63e 9b3e
00000070: cb62 7b3e 47b0 223e 4e2c 603e 198f c53d
00000080: e14d be3d bd18 9b3e 8d36 4f3e 2657 183e
00000090: 221e 203e 4334 173e 74af 643e 175b 133e
000000a0: c93e ce3e 6e4a c63d f00f 803e 7a76 be3e
000000b0: eb19 a43e f7b2 5e3e e32f 263e 138c f33d
000000c0: 905e b93e 58ba aa3e 1627 5e3e 914e 423e
000000d0: 59ee 393e 1340 003e 8439 783e f03d 053f
000000e0: 1532 123e 66e9 d33e cbd5 073f 0819 d33e
000000f0: c22b f03d caf2 ab3e 8337 603e 9a97 7e3e

block2.conv1.weight f4 [64, 64, 3]
-0.041681543 0.024879849 -0.036742814 0.06886082 0.013960285 0.014398763 0.055547405 -0.034777865
-0.06801873 -0.05733855 0.013676849 0.04146128 0.023873998 -0.03509348 0.024523439 -0.06242786
0.0072547025 -0.0020717878 -0.036083627 -0.049344882 -0.009649238 -0.05103416 -0.019136881 -0.009616965
-0.027301652 -0.0873869 -0.014338829 -0.09747319 0.012280611 -0.067332506 -0.007369179 -0.017586729
-0.021754103 -0.00093255134 -0.009614195 -0.09577396 0.027799604 -0.0023338248 0.0150885405 -0.0046973494
0.068742 0.032596625 -0.024899306 -0.081459604 0.029733056 -0.07148227 0.037948932 0.02251448
0.042933516 0.01954908 -0.07548872 -0.05404267 -0.02925458 -0.078055166 0.04224674 -0.030323822
-0.03019487 -0.00017173588 0.04939082 0.0054556173 0.056314074 0.05304893 0.021703005 0.051914893
0.03494871 0.038076196 0.08411077 0.041429512 0.053803075 0.040436618 -0.010835276 0.02566092
-0.024081323 0.054631025 0.0034465066 -0.042950537 0.075842366 0.053705767 -0.019523406 -0.04803329
-0.025991943 -0.06432202 -0.057208024 0.060686238 0.010278969 0.07017075 0.017687935 0.05755142
0.020071242 -0.040353328 0.105239674 -0.040004157 0.018294647 0.015492303 0.050421417 -0.040541843
0.037648287 0.014779769 -0.043200705 0.0147074405 -0.0036121884 0.056162037 -0.063811675 0.019410346
0.07931613 -0.04924611 0.06562325 -0.014122795 0.07659477 0.0041106874 0.06825818 -0.08501296
0.0022518132 -0.06434207 0.029061358 -0.058131516 -0.050422404 -0.004462334 -0.052008163 0.04132053
-0.030871965 -0.015053155 -0.018367046 0.03411278 -0.010776976 0.041429657 -0.044732556 0.0032252253
-0.07141158 -0.005658122 -0.052238878 -0.056974918 0.06595473 -0.06515929 0.0362834 -0.018365916
0.0817532 -0.00926568 -0.01353939 0.036166426 -0.053679824 -0.052822612 -0.06146267 0.04465602
0.06302179 -0.040356856 0.04120503 -0.05482316 0.04663765 -0.07758963 0.07578285 -0.037043475
-0.043614477 0.012597444 -0.052021656 0.045678385 -0.018933678 0.0345932 0.046674643 0.012851653
-0.03899425 0.005708178 -0.07163198 -0.041938692 -0.067253664 0.0008052563 -0.035483778 -0.0576719
-0.057464253 -0.0734052 0.0154007645 -0.010752371 0.07215473 0.04861965 -0.014610768 -0.017362876
-0.08006299 0.0023136076 -0.024380654 0.046717945 -0.08819635 -0.015781367 -0.056999195 -0.059538547
-0.023752738 0.013189971 0.055858593 -0.010430918 -0.03983151 0.0322884 -0.041068234 0.02031521
0.06352996 -0.07124605 -0.048279226 0.00848912 -0.030314548 -0.0016366949 0.040777877 0.00050580304
0.05266354 -0.044133212 -0.046889834 -0.050859872 -0.00581253 -0.06369267 0.040643748 0.04162469
0.019129956 -0.016873978 -0.059656993 -0.0015134208 -0.0705291 -0.044787273 -0.01877532 -0.029224223
-0.015428138 0.031082455 -0.049146533 0.08590855 -0.017510325 8.518953e-05 0.00883072 0.07878639
0.039626103 0.060683046 -0.0064267064 0.002071024 0.019503774 0.0601303 0.04004367 0.037179094
0.015823696 -0.10157428 -0.035868905 0.034468174 0.01929322 -0.07293693 0.0350947 -0.018399239
0.0060583353 -0.002554707 -0.04001564 0.051074993 0.028056148 0.06457437 0.05490802 -0.04726123
-0.02767097 -0.08049976 0.0065894495 -0.06846657 0.019811654 -0.06898279 0.050289787 0.038922217
00000000: 44ba 2abd d3d0 cb3c a27f 16bd e706 8d3d
00000010: aeb9 643c cae8 6b3c ad85 633d 3c73 0ebd
00000020: 674d 8bbd d4db 6abd dd14 603c 4ed3 293d
00000030: 6793 c33c 2ebe 0fbd 61e5 c83c 5bb4 7fbd
00000040: dbb8 ed3b d5c6 07bb 6dcc 13bd dc1d 4abd
00000050: d617 1ebc 3209 51bd f3c4 9cbc 7a90 1dbc
00000060: b7a7 dfbc e7f7 b2bd 68ed 6abc 06a0 c7bd
00000070: 9e34 493c a0e5 89bd 2779 f1bb 0b12 90bc
00000080: a935 b2bc 7676 74ba db84 1dbc 2325 c4bd
00000090: ffbb e33c 15f3 18bb ed35 773c 39ec 99bb
000000a0: 9bc8 8c3d 0a84 053d a1f9 cbbc 4bd4 a6bd
000000b0: bd92 f33c 4c65 92bd 5770 1b3d 4970 b83c
000000c0: 0edb 2f3d 6425 a03c d499 9abd d95b 5dbd
000000d0: 4da7 efbc 63db 9fbd eb0a 2d3d aa69 f8bc
000000e0: 3b5b f7bc 0014 34b9 074e 4a3d 09c5 b23b
000000f0: 96a9 663d d649 593d 80ca b13c b6a4 543d
00000100: 6126 0f3d c9f5 1b3d 4442 ac3d feb1 293d
00000110: 9d60 5c3d dea0 253d 7186 31bc da36 d23c
00000120: 3246 c5bc c8c4 5f3d c9de 613b e7ec 2fbd
00000130: 3e53 9b3d 94fa 5b3d 8def 9fbc 8ebe 44bd
00000140: 0eed d4bc 43bb 83bd f652 6abd 2292 783d
00000150: 1f69 283c afb5 8f3d 4ae6 903c 0abb 6b3d
00000160: 726c a43c 8849 25bd e687 d73d 66db 23bd
00000170: a8de 953c 6ed3 7d3c b086 4e3d 340f 26bd
00000180: 1735 1a3d d826 723c 39f3 30bd 7af7 703c
00000190: 77ba 6cbb 2a0a 663d b2af 82bd 7202 9f3c
000001a0: 7f70 a23d 4ab6 49bd 7c65 863d 4c63 67bc
000001b0: b8dd 9c3d f2b2 863b f2ca 8b3d 461b aebd
000001c0: 2893 133b c6c5 83bd 1612 ee3c 501b 6ebd
000001d0: b987 4ebd c538 92bb 8306 55bd b73f 293d
000001e0: 34e7 fcbc 82a1 76bc 7d76 96bc d8b9 0b3d
000001f0: ea91 30bc 25b2 293d 7c39 37bd 4d5e 533b
00000200: 3c40 92bd c467 b9bb 6ff8 55bd 885e 69bd
00000210: 4613 873d 3c72 85bd e79d 143d 1e74 96bc
00000220: 396e a73d 14cf 17bc 51d4 5dbc 3f23 143d
00000230: 60df 5bbd 865c 58bd 48c0 7bbd 3be9 363d
00000240: 9111 813d 3b4d 25bd 9bc6 283d 408e 60bd
00000250: 1f07 3f3d 50e7 9ebd 0a34 9b3d e6ba 17bd
00000260: 18a5 32bd 8265 4e3c a914 55bd 4219 3b3d
00000270: cd1a 9bbc 99b1 0d3d e92d 3f3d bd8f 523c
00000280: 6fb8 1fbd ab0b bb3b cab3 92bd e8c7 2bbd
00000290: 4abc 89bd d617 533a 7057 11bd 5f39 6cbd
000002a0: a35f 6bbd 7755 96bd 7d53 7c3c b62a 30bc
000002b0: dcc5 933d 6625 473d 0162 6fbc 973c 8ebc
000002c0: 11f8 a3bd e59f 173b f0b9 c7bc 515b 3f3d
000002d0: 4aa0 b4bd ed47 81bc fd77 69bd b1de 73bd
000002e0: 1a95 c2bc c01a 583c fbcb 643d 71e6 2abc
000002f0: 5e26 23bd d740 043d 2a37 28bd 156c a63c
00000300: ff1b 823d 73e9 91bd 70c0 45bd f315 0b3c
00000310: 3756 f8bc 5e86 d6ba b406 273d de97 043a
00000320: b9b5 573d 07c5 34bd 8e0f 40bd 7152 50bd
00000330: 0977 bebb 4d71 82bd 0f7a 263d a77e 2a3d
00000340: 6db6 9c3c 4c3b 8abc e45a 74bd fa5d c6ba
00000350: 9071 90bd dc72 37bd b3ce 99bc a367 efbc
00000360: 4dc6 7cbc a2a0 fe3c e04d 49bd d2f0 af3d
00000370: d071 8fbc c8a7 b238 b9ae 103c c25a a13d
00000380: fb4e 223d c98e 783d 1f97 d2bb 04ba 073b
00000390: 61c6 9f3c 304b 763d d504 243d 1b49 183d
000003a0: b2a0 813c 2d06 d0bd 46eb 12bd 802e 0d3d
000003b0: d10c 9e3c f55f 95bd 76bf 0f3d 00ba 96bc
000003c0: 0085 c63b df6c 27bb 71e7 23bd 0334 513d
000003d0: 02d6 e53c 913f 843d 3be7 603d fe94 41bd
000003e0: 3bae e2bc 0fdd a4bd 4fec d73b 3338 8cbd
000003f0: 0d4c a23c d946 8dbd aafc 4d3d e76c 1f3d

block2.conv1.bias f4 [64]
0.034250174 0.021467302 0.072331056 0.036094803 0.055787083 0.05726922 -0.049770698 -0.062610775
-0.016599752 -0.078097805 -0.04765621 0.029412951 0.051947977 -7.336027e-05 0.029762413 -0.025122369
-0.059717275 0.01579573 -0.042509668 -0.053117182 -0.0010198172 0.06850199 -0.038396392 -0.019461507
-0.06275609 0.047580604 0.038296685 0.059770618 -0.07028937 -0.065707006 -0.042040646 -0.046280477
0.013030731 -0.059073642 0.026125528 0.06326735 0.024556007 0.049351633 0.038143374 -0.023728095
0.010130768 0.028334467 0.022477852 -0.06618364 -0.064271875 -0.039322745 -0.0631274 0.029351367
0.06004349 -0.010042418 0.066179775 -0.07369401 0.05834351 0.010948825 -0.03648742 -0.01566853
0.03067127 -0.058303513 0.07051193 -0.05893878 0.04431823 0.003711214 -0.03715319 0.05126146
00000000: e949 0c3d 32dc af3c 4e22 943d 25d8 133d
00000010: ff80 643d 2193 6a3d 5cdc 4bbd 143a 80bd
00000020: 34fc 87bc bef1 9fbd 2833 43bd 6ef3 f03c
00000030: 67c7 543d ffd8 99b8 4ed0 f33c 6dcd cdbc
00000040: 1a9a 74bd 0c66 813c 9e1e 2ebd 6791 59bd
00000050: 63ab 85ba c54a 8c3d 8945 1dbd bd6d 9fbc
00000060: 4486 80bd e1e3 423d fcdc 1c3d 09d2 743d
00000070: e0f3 8fbd 6591 86bd d032 2cbd 9990 3dbd
00000080: d97e 553c 34f7 71bd 3405 d63c 5092 813d
00000090: ae29 c93c f024 4a3d 3a3c 1c3d 6c61 c2bc
000000a0: 85fb 253c af1d e83c 7923 b83c 4a8b 87bd
000000b0: f9a0 83bd e310 21bd f048 81bd 4772 f03c
000000c0: 2af0 753d f488 24bc 4389 873d e3ec 96bd
000000d0: 9bf9 6e3d b362 333c d573 15bd 4a5b 80bc
000000e0: 5142 fb3c aacf 6ebd 8f68 903d ca69 71bd
000000f0: 0887 353d d737 733b f12d 18bd 89f7 513d
