ecg_afib_detection/checkpoints/ptbxl/500hz/cnn1d/fold_1/best.pt (torch, 626357 bytes, 22 tensors)

features.0.conv.weight f4 [32, 12, 7]
0.03651889 -0.07468548 0.014373905 0.20004314 0.04344497 0.17556627 -0.24995889 0.060625676
0.019015798 -0.08476236 -0.15855746 -0.05647544 0.2588167 0.00854102 0.16598651 -0.06925686
0.15541214 0.10897933 -0.03981774 0.17159197 -0.03570706 0.052761335 -0.010886663 0.11475301
-0.06609748 0.009282635 0.20752625 0.164986 0.074265316 0.18655434 -0.061135985 0.04382086
0.1300412 -0.2350379 -0.1327469 -0.15446657 0.20656797 -0.35617116 -0.11808721 -0.089661226
-0.30834326 -0.1635355 -0.07777219 0.013548166 0.19818206 -0.25991237 -0.0030088928 0.06285928
-0.054724865 0.21005133 0.11267793 -0.01801084 0.01089719 -0.12087695 0.18973412 0.20253366
-0.14351113 -0.03519481 -0.096994214 -0.07901341 0.3593603 0.1218942 0.010132972 -0.0072300634
-0.30335978 0.07584904 -0.16629167 -0.2571759 -0.031958565 0.06339122 -0.029757097 -0.06748383
-0.19456902 -0.0891545 -0.047187634 0.07184975 -0.0648569 -0.17836279 0.038537852 -0.3298097
-0.04326692 -0.106625676 0.11897672 0.30688992 -0.08605035 -0.25058192 -0.06387682 -0.079109706
-0.103064775 -0.0014549306 0.17714918 0.2710969 -0.22283006 -0.2591241 -0.11226902 -0.110212296
-0.033208393 -0.16692805 0.11752084 0.032318186 0.01595104 -0.03740846 -0.015666656 -0.12404378
0.081961565 -0.048650257 -0.10289431 -0.1799824 0.2795525 -0.0078007523 0.04345373 -0.030717144
-0.20752065 0.26375404 0.00060377485 -0.30259648 -0.12649707 -0.20704488 -0.23354839 0.3363534
-0.10230425 0.028952513 0.11593416 0.15992719 -0.007330943 0.1409699 -0.12781113 -0.07618995
0.15131809 0.15479256 -0.10778738 0.09089737 -0.0036619187 -0.26581606 0.14589368 0.15506794
-0.18896288 -0.17865387 -0.3724046 -0.1755776 0.032727033 0.35524228 -0.025415031 0.0488792
0.07902405 -0.01621524 -0.013525771 0.03524287 0.14069237 -0.15818219 -0.023267336 0.1318111
-0.10679729 0.021180704 -0.017163465 -0.21202089 0.24959294 0.25006944 -0.10184367 -0.2346665
0.17850009 0.11023489 0.100522175 -0.09247853 0.32312998 0.3019044 -0.09562382 -0.12269585
0.2137049 -0.054690614 -0.094765365 -0.23817082 -0.019773813 -0.011392808 -0.19073212 -0.04769386
-0.030925838 0.3475684 0.27382496 -0.28506914 0.16709276 -0.28245074 0.04970721 0.06352814
-0.18684858 -0.01708685 -0.15584825 -0.0906575 -0.06991554 0.35087937 0.11532215 -0.27409497
-0.1265107 0.023785923 -0.09481232 0.15300769 0.07164156 0.05012463 -0.15749085 -0.13459283
0.113089696 0.04734037 -0.409676 -0.044225354 -0.04965773 -0.047025625 -0.14735922 -0.10732976
-0.04499196 0.23707947 -0.11820855 -0.13577907 -0.3006304 0.020242775 -0.20217302 -0.09400125
-0.1779788 -0.099743634 -0.076768 -0.10442135 -0.052337017 -0.07785227 0.16281895 -0.08210739
0.047716375 -0.15747863 -0.37476435 -0.108470134 0.04525744 0.05892651 0.11199467 -0.03363999
-0.14453578 0.2520755 0.2508221 0.16357191 -0.03408543 -0.2534921 -0.02985425 -0.0051422054
0.04896901 -0.03514708 0.27623618 -0.3514474 0.033582803 -0.18551067 -0.06315011 0.21439818
-0.032936607 0.0197531 -0.043746624 0.040369056 0.16986428 -0.26045814 -0.045744665 0.01212158
00000000: d594 153d b3f4 98bd 8780 6b3c 1cd8 4c3e
00000010: 5af3 313d a5c7 333e 39f5 7fbe a152 783d
00000020: 05c7 9b3c e397 adbd e35c 22be ca52 67bd
00000030: 9f83 843e a2ef 0b3c 5ef8 293e 8ad6 8dbd
00000040: 5c24 1f3e 8e30 df3d ed17 23bd ceb5 2f3e
00000050: 9141 12bd 451c 583d f95d 32bc a003 eb3d
00000060: 1e5e 87bd 3116 183c c381 543e 17f2 283e
00000070: 6a18 983d 1a08 3f3e ba69 7abd 817d 333d
00000080: 8529 053e c6ad 70be ceee 07be 7c2c 1ebe
00000090: 8e86 533e 115c b6be b5d7 f1bd 4ea0 b7bd
000000a0: 2bdf 9dbe da75 27be 0747 9fbd 20f9 5d3c
000000b0: 3df0 4a3e 3c13 85be d830 45bb 5ebc 803d
000000c0: 2e27 60bd b217 573e b0c3 e63d 788b 93bc
000000d0: 218a 323c 568e f7bd a949 423e fc64 4f3e
000000e0: 95f4 12be 6f28 10bd e7a4 c6bd c8d1 a1bd
000000f0: 13fe b73e aba3 f93d c404 263c 2bea ecbb
00000100: f951 9bbe be56 9b3d 5d48 2abe 8fac 83be
00000110: fce6 02bd 42d3 813d 28c5 f3bc f634 8abd
00000120: 1a3d 47be a296 b6bd d247 41bd f625 933d
00000130: b2d3 84bd bca4 36be ded9 1d3d d1dc a8be
00000140: a738 31bd 905e dabd 11aa f33d ad20 9d3e
00000150: 2a3b b0bd 464c 80be dad1 82bd 4504 a2bd
00000160: a013 d3bd 5fb3 beba 9866 353e 36cd 8a3e
00000170: 902d 64be eaab 84be 4ded e5bd fcb6 e1bd
00000180: 8605 08bd 30ef 2abe c4ae f03d 1360 043d
00000190: c1ab 823c 9d39 19bd 5c57 80bc aa0a febd
000001a0: 77db a73d 7e45 47bd 41ba d2bd 4e4d 38be
000001b0: 8121 8f3e 749d ffbb 8afc 313d 85a2 fbbc
000001c0: 4b80 54be c50a 873e a546 1e3a eded 9abe
000001d0: 7388 01be 9303 54be 4f27 6fbe 8336 ac3e
000001e0: e484 d1bd d22d ed3c e46e ed3d f4c3 233e
000001f0: 6838 f0bb 6a5a 103e ece0 02be 7a09 9cbd
00000200: 21f3 1a3e f181 1e3e a1bf dcbd 6628 ba3d
00000210: cdfc 6fbb 0b19 88be 2765 153e 21ca 1e3e
00000220: 7c7f 41be 0af1 36be d1ab bebe 9dca 33be
00000230: c80c 063d 51e2 b53e 2f33 d0bc 8e35 483d
00000240: 5cd7 a13d d3d5 84bc 329b 5dbc d45a 103d
00000250: a911 103e 83fa 21be 249b bebc 7df9 063e
00000260: 8ab8 dabd 2883 ad3c 659a 8cbc 011c 59be
00000270: 4b95 7f3e 1a09 803e 6a93 d0bd 6a4c 70be
00000280: bac8 363e d4c2 e13d 92de cd3d 6265 bdbd
00000290: 4b71 a53e 3793 9a3e 6cd6 c3bd f647 fbbd
000002a0: 75d5 5a3e 4403 60bd 5814 c2bd 0de3 73be
000002b0: b1fc a1bc e6a8 3abc 484f 43be a35a 43bd
000002c0: 2f58 fdbc 7cf4 b13e c932 8c3e 95f4 91be
000002d0: 5d1a 2b3e 629d 90be ca99 4b3d 0b1b 823d
000002e0: 3c55 3fbe b9f9 8bbc af96 1fbe a4aa b9bd
000002f0: e12f 8fbd 76a6 b33e 052e ec3d 2d56 8cbe
00000300: 058c 01be b2da c23c f62c c2bd 0cae 1c3e
00000310: cfb8 923d 7c4f 4d3d 4845 21be b4d2 09be
00000320: 929b e73d fae7 413d 0dc1 d1be a525 35bd
00000330: e765 4bbd f19d 40bd 56e5 16be b5cf dbbd
00000340: 7d49 38bd f6c4 723e 5317 f2bd ab09 0bbe
00000350: 3aec 99be 2dd4 a53c 7206 4fbe ba83 c0bd
00000360: 1340 36be 6446 ccbd 8b38 9dbd dcda d5bd
00000370: 575f 56bd 0371 9fbd 03ba 263e eb27 a8bd
00000380: 3f72 433d 1442 21be 1de1 bfbe 9725 debd
00000390: de5f 393d ed5c 713d 765d e53d 16ca 09bd
000003a0: 3001 14be 0a10 813e c16b 803e 657f 273e
000003b0: 2a9d 0bbd b7c9 81be e690 f4bc f27f a8bb
000003c0: bb93 483d 62f6 0fbd d46e 8d3e eaf0 b3be
000003d0: 1f8e 093d 82f6 3dbe d854 81bd 328b 5b3e
000003e0: 89e8 06bd 41d1 a13c a92f 33bd 065a 253d
000003f0: e7f0 2d3e c55a 85be c25e 3bbd 9799 463c

features.0.bn.weight f4 [32]
0.95649666 0.94965714 1.0294489 1.0541353 0.99906737 1.0159984 0.9452977 0.9617401
1.0288022 1.0314978 1.0174592 1.0336362 0.9651621 1.0033749 1.0407941 1.0048995
0.9961502 1.0154561 0.97674006 1.0440822 0.96023536 0.9791976 1.0191418 0.9735298
1.021607 1.0966972 0.96208364 1.0157657 0.96780634 0.9644825 1.0220184 0.9585749
00000000: f7dc 743f bb1c 733f fbc4 833f e8ed 863f
00000010: e1c2 7f3f 3c0c 823f 08ff 713f 9934 763f
00000020: caaf 833f 1f08 843f 1a3c 823f 314e 843f
00000030: dd14 773f 976e 803f be38 853f 8ca0 803f
00000040: b303 7f3f 77fa 813f a30b 7a3f 7ca4 853f
00000050: fcd1 753f b2ac 7a3f 3d73 823f 4039 793f
00000060: 05c4 823f 9360 8c3f 1d4b 763f 9c04 823f
00000070: 28c2 773f 53e8 763f 80d1 823f 2a65 753f

features.0.bn.bias f4 [32]
-0.036589727 -0.06141817 0.02468932 -0.015924847 0.052050967 0.035647016 0.031601902 -0.018572694
-0.005067434 -0.028717278 0.01762607 0.037422992 0.013931368 -0.012615976 0.06356591 -0.026069446
-0.0019521202 0.01569655 -0.05012322 0.011922116 -0.0014420786 0.027327694 -0.031469554 -0.041751016
0.016721146 -0.009422065 -0.060681097 0.05596001 0.045622323 0.027277915 -0.026827905 0.088119216
00000000: 1cdf 15bd 9e91 7bbd 4241 ca3c d374 82bc
00000010: 6533 553d 9b02 123d ff70 013d c325 98bc
00000020: b80c a6bb 7f40 ebbc 8c64 903c da48 193d
00000030: 6440 643c 3db3 4ebc d82e 823d 978f d5bc
00000040: 49de ffba 0d96 803c 014e 4dbd fb54 433c
00000050: 2104 bdba 54de df3c 38e6 00bd 1d03 2bbd
00000060: c9fa 883c 015f 1abc be8c 78bd 5336 653d
00000070: 79de 3a3d ef75 df3c 32c6 dbbc d977 b43d

features.0.bn.running_mean f4 [32]
-2.733762e-05 5.883254e-05 6.474867e-06 3.8386306e-06 9.251379e-06 1.8472943e-05 4.676577e-05 2.364195e-06
-1.36493e-05 6.2324575e-06 -4.4721226e-05 -3.1407297e-05 1.9919984e-05 -5.6071694e-06 4.2358464e-05 2.254117e-05
-6.139997e-05 -2.0413829e-05 1.5088702e-05 2.9714203e-05 4.5154542e-05 -1.7319644e-05 -7.30023e-06 -1.6125536e-05
-8.433009e-06 1.4808253e-05 -1.7228616e-05 6.028552e-06 3.8636834e-05 -6.387507e-05 2.4358385e-05 -2.3096112e-05
00000000: 1853 e5b7 f5c2 7638 af42 d936 96cd 8036
00000010: 5f36 1b37 58f6 9a37 5d26 4438 90a8 1e36
00000020: 4cff 64b7 6720 d136 0d93 3bb8 54bb 03b8
00000030: d719 a737 3825 bcb6 0eaa 3138 cb16 bd37
00000040: dcc3 80b8 5d3e abb7 7b25 7d37 c442 f937
00000050: 5264 3d38 a749 91b7 80f4 f4b6 5345 87b7
00000060: 7f7b 0db7 f670 7837 2c86 90b7 de48 ca36
00000070: fc0d 2238 abf4 85b8 3c55 cc37 86be c1b7

features.0.bn.running_var f4 [32]
3.2156947 1.8990949 1.6392283 0.88331646 3.0824938 3.404026 5.0769444 2.4076998
3.0342054 2.085512 2.651195 1.219887 1.2848924 0.9648601 4.5000534 1.334618
4.4058595 1.1576488 2.1007154 1.0223527 3.9010077 2.8762434 2.0013697 0.90869963
5.914025 4.094832 0.67246133 1.8705435 1.2601424 4.5422463 1.9281895 2.370286
00000000: f1cd 4d40 8b15 f33f 3cd2 d13f 0721 623f
00000010: 9447 4540 90db 5940 5476 a240 c117 1a40
00000020: 6c30 4240 0779 0540 2ead 2940 4225 9c3f
00000030: 5b77 a43f 1201 773f 7000 9040 c3d4 aa3f
00000040: cdfc 8c40 d62d 943f 1f72 0640 74dc 823f
00000050: 1caa 7940 5f14 3840 7116 0040 8aa0 683f
00000060: b13f bd40 dd08 8340 6d26 2c3f f86d ef3f
00000070: 594c a13f 155a 9140 eace f63f c4b2 1740

features.1.conv.weight f4 [64, 32, 5]
-0.040021002 -0.050631262 0.024435835 -0.064106576 0.1250784 0.0010352896 -0.0071605826 0.076690696
0.15520634 0.04235388 -0.27442124 0.065278605 0.044752873 0.15521634 0.0020876264 0.1302912
-0.07243264 -0.24441111 -0.10778631 0.085759714 -0.27941564 -0.16499755 0.116965175 0.012536024
0.09165945 -0.0045294682 -0.11696261 -0.032426596 0.24749853 -0.03534595 0.027030354 0.10517849
-0.13331632 0.05607927 0.010752706 -0.08488294 -0.002618866 -0.20610853 0.05824105 -0.06573259
0.009878496 0.023070592 0.20013973 -0.0069522006 0.007073489 0.15273014 -0.101313524 -0.24473615
0.137077 -0.027193349 -0.04210478 -0.075511076 -0.15812208 -0.16621174 0.0326005 0.074106954
-0.05690942 0.010495607 -0.11192313 -0.15976305 -0.057036515 -0.09863415 -0.031130755 0.061532788
-0.05272854 -0.135906 0.023459084 0.09817707 0.10741796 -0.04930204 -0.07707311 0.011708759
-0.018225191 -0.012083791 0.43241918 -0.07710687 -0.030447528 -0.15523395 -0.050048437 -0.09704069
-0.14344928 0.17527452 -0.10304425 0.016411366 0.07982412 -0.26717025 -0.0032613983 -0.029731316
0.20390399 0.05260846 -0.16157655 0.042348586 -0.12425529 -0.05132238 -0.21036638 -0.083644405
-0.018997349 0.05461301 -0.07552504 -0.038747903 0.14351328 0.09629944 0.08839485 0.10308153
0.06445713 -0.1795576 0.05802872 0.017648697 0.09010193 -0.103354126 -0.020300597 0.22620595
-0.1117473 -0.10403152 0.18910195 -0.09946709 -0.18968108 0.10005922 0.024765493 0.05585833
-0.022014864 0.09754884 -0.08266933 -0.19833988 -0.16065933 0.14266968 -0.121797316 0.04978268
-0.17505786 -0.051114045 -0.09823388 0.009237157 0.016865786 0.056109067 -0.27326056 -0.08678363
-0.043011125 -0.23360333 0.11900686 -0.052345626 0.09013647 -0.03726772 0.1623218 -0.16201347
-0.02936081 0.09192629 -0.1879848 0.036700364 -0.010509608 -0.20537014 -0.13839366 0.016608693
-0.044991244 0.17269713 0.13293758 -0.17349242 -0.07374532 -0.0695264 -0.10860449 -0.07198015
-0.053969204 0.17281419 0.053148102 -0.022010393 0.06335661 -0.12938447 -0.083138414 -0.17229904
-0.18416567 -0.08255472 -0.1471315 -0.2278137 -0.08345195 0.075224936 0.07645951 0.084574334
-0.05728306 0.18116947 0.049110495 -0.06491425 -0.1445119 0.032531504 -0.0106385015 -0.046522964
0.042485602 -0.10194586 0.192895 0.18260115 -0.02970453 -0.14707598 -0.010265144 0.10106237
-0.068314955 0.17798081 -0.16211352 -0.14935945 0.14386457 0.2734128 -0.19480851 -0.17451058
-0.11564009 0.19573754 0.14447556 0.07215931 -0.059604492 -0.10880842 0.18547983 0.099332444
-0.0589111 -0.03114196 -0.2318807 -0.10118912 0.16590738 0.11630933 0.12624802 0.01839133
-0.23462628 -0.009168913 -0.038570482 0.10607776 -0.05968695 0.07435973 0.07598368 0.014361423
-0.049616333 -0.069616646 -0.022707738 -0.027586559 0.06852048 0.037189107 -0.10363182 0.23339236
0.013671407 -0.0818649 0.09107643 0.03704182 -0.13454528 -0.05418438 0.28115433 0.13698338
0.216665 -0.051613525 0.06385071 0.0099878665 -0.061821327 0.028449988 0.090209134 0.21853316
0.0049910466 -0.01360999 -0.05056051 0.09803771 -0.0772173 0.01664197 -0.010722835 -0.07385974
00000000: 10ed 23bd ba62 4fbd a92d c83c 4f4a 83bd
00000010: 8d14 003e 8eb2 873a 52a3 eabb 0310 9d3d
00000020: 69ee 1e3e 437b 2d3d f180 8cbe cab0 853d
00000030: ca4e 373d 08f1 1e3e 8fd0 083b 0e6b 053e
00000040: 9057 94bd e846 7abe 12bf dcbd caa2 af3d
00000050: 910f 8fbe 1ef5 28be 708b ef3d e563 4d3c
00000060: f3b7 bb3d ef6b 94bb 188a efbd c0d1 04bd
00000070: 4170 7d3e eac6 10bd c36e dd3c d267 d73d
00000080: 1384 08be 60b3 653d 1e2c 303c 1bd7 adbd
00000090: 48a1 2bbb 1d0e 53be 2b8e 6e3d cf9e 86bd
000000a0: 6ad9 213c 8afe bc3c 6ef1 4c3e 49cf e3bb
000000b0: bac8 e73b 4a65 1c3e 777d cfbd 1d9c 7abe
000000c0: ea5d 0c3e 96c4 debc 1076 2cbd 8da5 9abd
000000d0: c1ea 21be 6933 2abe 1a88 053d 63c5 973d
000000e0: da19 69bd c4f5 2b3c f437 e5bd ed98 23be
000000f0: 1f9f 69bd b400 cabd ed05 ffbc ce09 7c3d
00000100: e2f9 57bd f12a 0bbe 442d c03c 0f11 c93d
00000110: f3fd db3d f0f0 49bd 82d8 9dbd 18d6 3f3c
00000120: ff4c 95bc 18fb 45bc 0c66 dd3e 35ea 9dbd
00000130: 186d f9bc a6f5 1ebe 97ff 4cbd 45bd c6bd
00000140: 5ee4 12be 2a7b 333e dd08 d3bd 2171 863c
00000150: d47a a33d 8aca 88be 2fbd 55bb 178f f3bc
00000160: 35cc 503e f87b 573d 5374 25be b675 2d3d
00000170: 8f79 febd 6a37 52bd 496a 57be c24d abbd
00000180: 54a0 9bbc e4b1 5f3d dfac 9abd 1fb6 1ebd
00000190: 25f5 123e a438 c53d 5c08 b53d 691c d33d
000001a0: 1a02 843d f3dd 37be 86af 6d3d 0094 903c
000001b0: 5c87 b83d 54ab d3bd 704d a6bc 88a2 673e
000001c0: c5db e4bd 7a0e d5bd f1a3 413e 67b5 cbbd
000001d0: c23b 42be d9eb cc3d 01e1 ca3c b4cb 643d
000001e0: 8458 b4bc b0c7 c73d 8a4e a9bd 9c19 4bbe
000001f0: e183 24be 0018 123e df70 f9bd ece8 4b3d
00000200: 5e42 33be f65c 51bd d82e c9bd 7257 173c
00000210: 1e2a 8a3c 9fd2 653d cfe8 8bbe 9ebb b1bd
00000220: 6f2c 30bd b635 6fbe deb9 f33d 5e68 56bd
00000230: 7899 b83d 09a6 18bd b037 263e dce6 25be
00000240: 1586 f0bc da43 bc3d 167f 40be 1f53 163d
00000250: 7e30 2cbc 8d4c 52be 11b7 0dbe f40e 883c
00000260: bd48 38bd 84d7 303e ca20 083e ffa7 31be
00000270: c907 97bd db63 8ebd 086c debd 546a 93bd
00000280: d00e 5dbd 34f6 303e d3b1 593d 244f b4bc
00000290: 1cc1 813d 5d7d 04be 7944 aabd 296f 30be
000002a0: ed95 3cbe 7312 a9bd a4a9 16be ff47 69be
000002b0: dbe8 aabd 880f 9a3d ce96 9c3d 4f35 ad3d
000002c0: a4a1 6abd 7d84 393e 1628 493d c3f1 84bd
000002d0: edfa 13be c13f 053d 1c4d 2ebc dd8e 3ebd
000002e0: 6205 2e3d fec8 d0bd 4486 453e ccfb 3a3e
000002f0: ea56 f3bc 169b 16be 222f 28bc caf9 ce3d
00000300: b6e8 8bbd 9a40 363e 1601 26be aff1 18be
00000310: 3c51 133e c3fc 8b3e e27b 47be e7b2 32be
00000320: b6d4 ecbd 6c6f 483e 67f1 133e 43c8 933d
00000330: d723 74bd f3d6 debd 6dee 3d3e cf6e cb3d
00000340: c44c 71bd 6c1d ffbc 2272 6dbe 3e3c cfbd
00000350: a0e3 293e 9633 ee3d 2947 013e 6aa9 963c
00000360: df41 70be 3539 16bc 15fc 1dbd 4c3f d93d
00000370: 4e7a 74bd ea49 983d 559d 9b3d 2d4c 6b3c
00000380: 7f3a 4bbd 2c93 8ebd 9405 babc 35fd e1bc
00000390: 7754 8c3d 9b53 183d eb3c d4bd 68fe 6e3e
000003a0: 09fe 5f3c c9a8 a7bd 4886 ba3d 2ab9 173d
000003b0: 3dc6 09be 71f0 5dbd 76f3 8f3e 5f45 0c3e
000003c0: 6edd 5d3e b468 53bd 29c4 823d 26a4 233c
000003d0: 5c38 7dbd f30f e93c 91bf b83d 28c7 5f3e
000003e0: ef8b a33b 6ffc 5ebc 8a18 4fbd ffc7 c83d
000003f0: 1b24 9ebd be54 883c d4ae 2fbc c643 97bd

features.1.bn.weight f4 [64]
0.9563724 1.0407948 0.97522837 0.97627676 0.9888222 0.99962825 0.955777 1.0468127
1.0125402 0.98307854 0.9945255 0.9922162 1.076132 1.0071712 1.0771693 0.9706268
0.97176665 1.0454866 0.96165395 0.9484368 1.013008 0.9799534 1.0311283 1.0225682
1.0062724 0.9493671 1.0190955 1.0419747 0.9735747 0.9377634 0.9648791 1.0178851
1.0408989 0.93503374 1.0250458 0.95970696 0.8695029 1.0647628 0.9779019 1.0062805
0.93588793 1.1034286 1.1915978 0.9263436 1.0332382 1.0804762 1.0260086 1.0157641
0.9743719 1.0247726 0.99794716 0.99876434 0.8677313 0.96470594 1.0324388 1.0013463
1.018833 0.9497459 1.0254852 0.98529184 0.91994506 0.9832733 0.9607656 1.031511
00000000: d2d4 743f c438 853f 91a8 793f 46ed 793f
00000010: 7423 7d3f a3e7 7f3f cdad 743f f5fd 853f
00000020: eb9a 813f 09ab 7b3f 3999 7e3f e201 7e3f
00000030: b2be 893f fcea 803f afe0 893f ff7a 783f
00000040: b3c5 783f 81d2 853f f42e 763f c1cc 723f
00000050: 3faa 813f 3ade 7a3f 03fc 833f 84e3 823f
00000060: 89cd 803f b909 733f b971 823f 6d5f 853f
00000070: 313c 793f 4311 703f 5102 773f 0f4a 823f
00000080: 2d3c 853f 5f5e 6f3f b334 833f 5baf 753f
00000090: be97 5e3f 264a 883f c757 7a3f cdcd 803f
000000a0: 5a96 6f3f 263d 8d3f 4786 983f db24 6d3f
000000b0: 2641 843f 0b4d 8a3f 4054 833f 8f04 823f
000000c0: 7070 793f c02b 833f 7779 7f3f 05af 7f3f
000000d0: a323 5e3f f8f6 763f f426 843f 1e2c 803f
000000e0: 1f69 823f 8c22 733f 1943 833f 163c 7c3f
000000f0: 8581 6b3f cdb7 7b3f bcf4 753f 8d08 843f

features.1.bn.bias f4 [64]
-0.009754073 0.048232045 -0.059474815 -0.03507215 -0.115936264 -0.11340768 0.018545544 0.08275769
0.01565336 -0.010743719 0.010581626 -0.020843584 -0.009518689 0.050538123 0.088288754 0.016262783
-0.010335738 0.09181573 -0.004524083 -0.04809369 -0.04287464 -0.015611654 0.025194744 0.006231172
0.08949469 -0.06275016 0.00815697 0.0002450583 -0.077428535 0.009395466 -0.00094629364 -0.06727223
0.09601497 -0.025392236 -0.0062976265 0.032541424 -0.09390182 0.0141037535 -0.06343456 -0.039829403
-0.11670038 0.19211687 -0.0145126805 -0.094645165 -0.016322486 -0.003182277 -0.05354708 -0.0134602
0.00077756203 0.03965977 -0.023625733 -0.022202022 -0.05256974 -0.06507614 0.053515226 0.060437363
-0.041051097 0.030388324 -0.009623625 -0.087705486 -0.070598 0.0156059135 -0.0643435 0.0058287103
00000000: 8ccf 1fbc f78e 453d dd9b 73bd d1a7 0fbd
00000010: fe6f edbd 4942 e8bd d3ec 973c dd7c a93d
00000020: 7a3b 803c 6c06 30bc 8e5e 2d3c 2ac0 aabc
00000030: 46f4 1bbc 1001 4f3d bcd0 b43d 8739 853c
00000040: 3a57 29bc e309 bc3d c23e 94bb e4fd 44bd
00000050: 529d 2fbd 06c8 7fbc 3565 ce3c dc2e cc3b
00000060: fe48 b73d 2883 80bd d0a4 053c 2b7b 8039
00000070: da92 9ebd 71ef 193c b110 78ba 06c6 89bd
00000080: 7fa3 c43d 6103 d0bc 525c cebb 284a 053d
00000090: 994f c0bd 6e13 673c fbe9 81bd 2824 23bd
000000a0: 9c00 efbd 49ba 443e 98c6 6dbc 53d5 c1bd
000000b0: bcb6 85bc c08d 50bb 2f54 5bbd 2c88 5cbc
000000c0: 4ed5 4b3a 4872 223d c18a c1bc 04e1 b5bc
000000d0: 5e53 57bd a446 85bd c832 5b3d 2b8d 773d
000000e0: 3225 28bd eff0 f83c 69ac 1dbc ef9e b3bd
000000f0: af95 90bd f2af 7f3c 86c6 83bd c4fe be3b

features.1.bn.running_mean f4 [64]
-0.91349024 0.47076845 -0.46760845 -0.27867243 -0.5247731 0.4656063 -1.3964872 -0.80417234
0.20976566 -0.2818401 -0.59993184 -0.7483472 0.061414927 -0.3099857 -1.1424901 1.3063264
0.79520553 0.03728255 -0.29077658 -1.0247617 -0.22497262 0.8315119 -1.0224137 -0.27645138
-1.6829294 0.9057163 -0.6560193 -0.7130723 0.6199229 0.034943167 -0.6436158 -0.022423266
-0.45391655 0.5463557 -1.3570416 0.18378149 -0.20494656 -0.8900448 0.43850055 0.57288045
0.7436165 -0.7206807 0.045354184 0.3581777 -1.0802393 0.24534835 0.5673321 -0.35797903
0.5193176 -0.6612814 0.36385918 0.026687458 0.08354442 0.4138888 -0.7597667 0.43853968
0.04686543 0.3078757 -0.3144705 -0.3378561 0.59125537 -0.16863628 0.8573722 -0.3729921
00000000: 7fda 69bf 9008 f13e 606a efbe 27ae 8ebe
00000010: 8857 06bf f363 ee3e 18c0 b2bf 3dde 4dbf
00000020: cfcc 563e 584d 90be 2295 19bf af93 3fbf
00000030: 388e 7b3d 72b6 9ebe 1e3d 92bf b435 a73f
00000040: 9792 4b3f 96b5 183d abe0 94be 642b 83bf
00000050: 395f 66be f7dd 543f 74de 82bf 098b 8dbe
00000060: 3b6a d7bf 06dd 673f e1f0 27bf e88b 36bf
00000070: 44b3 1e3f 9120 0f3d 01c4 24bf ffb0 b7bc
00000080: c067 e8be f8dd 0b3f 8ab3 adbf 3731 3c3e
00000090: 83dd 51be fad9 63bf 2583 e03e 4ba8 123f
000000a0: a75d 3e3f 887e 38bf 4fc5 393d 1163 b73e
000000b0: 4845 8abf 993c 7b3e ad3c 113f 0749 b7be
000000c0: 00f2 043f bd49 29bf c04b ba3e a89f da3c
000000d0: 5619 ab3d 3ce9 d33e 1280 42bf 4688 e03e
000000e0: f7f5 3f3d e2a1 9d3e 4702 a1be 7afb acbe
000000f0: 835c 173f fdae 2cbe bf7c 5b3f d2f8 bebe

features.1.bn.running_var f4 [64]
1.6137154 1.3061707 0.6774771 0.675293 0.6231605 0.6671098 4.129887 1.1729071
0.50240886 2.3625834 1.3699467 1.0216475 0.59719414 1.642008 2.5693948 1.6964548
0.6321476 1.8443942 0.8558394 3.1573186 0.5807586 1.6360959 1.5615057 1.204769
4.7408996 2.0659385 1.0702454 1.7664315 0.8141894 1.2579952 0.7429836 0.7217552
1.4363151 0.8230836 4.2688317 1.7019624 1.2368997 1.1513726 0.46837646 0.912415
1.3949801 0.8981794 0.7291653 2.9140916 1.1658758 0.8508435 0.46276757 0.55213684
2.3023055 1.2197073 0.8855752 0.739479 0.7091665 0.940706 3.169623 1.3773375
0.8471747 1.5870126 2.1601264 0.8234059 1.6698524 0.538364 1.9156727 1.2280767
00000000: 3a8e ce3f 9a30 a73f 246f 2d3f 01e0 2c3f
00000010: 7287 1f3f b5c7 2a3f 0928 8440 d221 963f
00000020: de9d 003f 9134 1740 6a5a af3f 58c5 823f
00000030: b7e1 183f 512d d23f f770 2440 6e25 d93f
00000040: 6dd4 213f 1c15 ec3f 4a18 5b3f 8211 4a40
00000050: 98ac 143f 976b d13f 6bdf c73f df35 9a3f
00000060: 73b5 9740 5638 0440 cdfd 883f 6d1a e23f
00000070: b76e 503f fd05 a13f 2c34 3e3f f3c4 383f
00000080: 2cd9 b73f 9bb5 523f 459a 8840 e7d9 d93f
00000090: bb52 9e3f 2d60 933f 0acf ef3e 0894 693f
000000a0: b58e b23f 16ef 653f 94aa 3a3f 7a80 3a40
000000b0: 6b3b 953f e1d0 593f dfef ec3e d758 0d3f
000000c0: f958 1340 5e1f 9c3f 0eb5 623f 7f4e 3d3f
000000d0: f08b 353f 1cd2 703f 1adb 4a40 984c b03f
000000e0: 71e0 583f 3b23 cb3f 833f 0a40 bbca 523f
000000f0: b9bd d53f 39d2 093f c334 f53f 9e31 9d3f

features.2.conv.weight f4 [128, 64, 5]
-0.10197792 0.038366992 -0.020253228 -0.098453455 0.11044103 0.020407481 0.055229552 -0.15513954
0.024019992 -0.09113991 0.17731248 0.018575199 -0.045778293 0.10794304 0.040370412 -0.03729997
-0.08132809 0.14361529 -0.09510638 -0.011373053 0.024288585 0.004925396 0.06912615 0.024994489
-0.043671712 0.05504069 -0.040441625 -0.15799741 -0.002404607 -0.09338546 -0.26983392 -0.14780688
-0.04989061 0.018156497 -0.09885871 -0.17741367 -0.17762914 -0.03523692 -0.07174616 0.020731376
0.11054105 0.0660568 -0.106635526 0.07338836 0.07205777 -0.17335942 -0.037835304 -0.024605393
-0.0005603336 -0.06304643 -0.09208045 -0.04651614 0.037302036 -0.11361034 0.07673587 0.10399739
0.083235435 -0.041264474 0.057756186 0.0295048 0.059862223 0.06152707 0.15843141 -0.031001719
-0.05110381 0.020953944 0.05303942 0.044171274 -0.002887322 0.007222064 -0.19453114 0.09566467
0.01817358 0.050872445 0.09103694 0.11181775 0.017732076 -0.0055481344 -0.09647189 -0.22703843
0.06732805 0.08722173 -0.00017516912 -0.03258806 -0.064525574 0.07497311 0.16042474 0.07626164
-0.0046980567 -0.12151881 0.023530101 -0.011605969 0.09962147 -0.03571275 0.041917652 -0.11228126
-0.15899397 -0.0645312 -3.3340548e-05 0.053690284 0.071071796 -0.13147736 0.054393876 -0.12919803
-0.09187871 0.045203004 0.044200093 -0.073790416 0.0157503 -0.023976862 -0.10098829 -0.17097205
-0.061681703 -0.088775106 -0.05530702 -0.05134107 -0.2088493 -0.06326729 0.052042317 0.15546171
-0.1529909 -0.12996157 -0.02689487 -0.0793602 0.021839881 -0.018799419 -0.102255225 -0.0132633075
-0.0157143 -0.08892087 0.021103851 0.011229739 0.01669013 0.038974077 0.079989664 0.07069695
0.06439542 0.07389654 0.0331296 -0.05710248 -0.11211117 0.15227999 -0.0037735493 0.119702384
0.016771398 -0.05999977 0.07700989 -0.099087276 0.096028596 -0.028653655 -0.064395696 -0.030776255
-0.021455178 0.03695293 -0.019980822 0.031410344 0.057052262 0.11259068 0.05439721 -0.012934938
0.20447564 -0.005660721 0.12855685 -0.011706495 -0.057580587 0.15492344 0.025912162 -0.049593322
-0.011840193 0.094054066 -0.12184379 0.07052383 -0.11559791 0.128763 0.13158578 -0.024462428
-0.028755918 0.0501573 -0.069698185 -0.16672248 -0.057751037 0.012414322 0.054076314 0.056379907
0.11404479 0.1568101 0.18188515 0.2237486 0.07772646 0.08834792 0.0041410513 -0.0082901465
-0.030844742 0.04903317 0.031065758 0.041839212 0.11250437 -0.10622424 0.09525865 -0.05880307
0.0004716247 -0.043442383 0.040992536 -0.030057302 -0.0034816721 -0.03352091 0.05849244 0.1248278
0.17889675 0.17725672 0.041223828 -0.047744926 0.048018415 0.13105422 -0.10271141 -0.036127053
-0.1172792 -0.07107421 0.00541057 0.08087339 0.1849177 0.056429267 -0.094955705 0.11851215
-0.070917584 0.12319686 0.08446558 -0.07322264 0.07184351 -0.13970849 -0.090732306 0.0025692277
-0.17992674 0.12782083 0.12790708 0.05219314 0.039904635 0.10639885 0.10553314 0.0057623223
-0.10489745 -0.03176222 -0.042805165 0.02012065 -0.082018495 -0.03291435 -0.05627336 -0.017479489
-0.09179315 0.0051494865 -0.044090092 0.12969984 -0.1276805 0.08336327 -0.02990418 -0.14182834
00000000: cdd9 d0bd b526 1d3d 19ea a5bc f7a1 c9bd
00000010: e82e e23d 972d a73c 6238 623d e6dc 1ebe
00000020: 93c5 c43c 90a7 babd 6791 353e 042b 983c
00000030: 0582 3bbd 3e11 dd3d 725b 253d dac7 18bd
00000040: 578f a6bd e30f 133e 22c7 c2bd 0b56 3abc
00000050: dbf8 c63c 3765 a13b 0392 8d3d 3ec1 cc3c
00000060: 1ce1 32bd 5972 613d 1ea6 25bd 13ca 21be
00000070: 9c96 1dbb e040 bfbd ac27 8abe b05a 17be
00000080: 195a 4cbd efbc 943c 6f76 cabd eeab 35be
00000090: 6ae4 35be 9754 10bd a7ef 92bd d9d4 a93c
000000a0: 5963 e23d ca48 873d ba63 dabd a34c 963d
000000b0: 0693 933d 2285 31be 31f9 1abd 4091 c9bc
000000c0: 5ae3 12ba 7d1e 81bd ad94 bcbd b587 3ebd
000000d0: 05ca 183d 8aac e8bd b227 9d3d 95fc d43d
000000e0: 5777 aa3d f004 29bd c091 6c3d 0db4 f13c
000000f0: 1732 753d cf03 7c3d d83b 223e 51f7 fdbc
00000100: 3b52 51bd 9ba7 ab3c dd3f 593d f0ec 343d
00000110: 3a39 3dbb 10a7 ec3b 2c33 47be d7eb c33d
00000120: c2e0 943c a05f 503d 9371 ba3d b400 e53d
00000130: dc42 913c 20cd b5bb 0e93 c5bd c37c 68be
00000140: 4ae3 893d 4ea1 b23d 9aad 37b9 0f7b 05bd
00000150: fc25 84bd 808b 993d 6246 243e 102f 9c3d
00000160: 28f2 99bb dbde f8bd 33c2 c03c f626 3ebc
00000170: 5706 cc3d 8847 12bd d8b1 2b3d b8f3 e5bd
00000180: 51cf 22be ef28 84bd 24d7 0bb8 58ea 5b3d
00000190: 178e 913d 00a2 06be 1dcc 5e3d 7d4c 04be
000001a0: e82a bcbd c926 393d 280b 353d 6e1f 97bd
000001b0: c606 813c 206b c4bc f3d2 cebd 4c13 2fbe
000001c0: f4a5 7cbd b9cf b5bd 9d89 62bd 044b 52bd
000001d0: 97dc 55be 4892 81bd 532a 553d 5b31 1f3e
000001e0: a6a9 1cbe a514 05be a152 dcbc 9a87 a2bd
000001f0: 8de9 b23c 3d01 9abc 306b d1bd 584e 59bc
00000200: 47bb 80bc 251c b6bd fce1 ac3c f0fc 373c
00000210: bdb9 883c 48a3 1f3d 9fd1 a33d 90c9 903d
00000220: bfe1 833d 1257 973d e7b2 073d 4ae4 69bd
00000230: 8b9a e5bd 49ef 1b3e a74d 77bb 8626 f53d
00000240: 2c64 893c 52c2 75bd 5cb7 9d3d 45ee cabd
00000250: a4aa c43d 12bb eabc e4e1 83bd 7c1e fcbc
00000260: c5c2 afbc f55b 173d d2ae a3bc 22a8 003d
00000270: a2af 693d f195 e63d 9ccf 5e3d 10ed 53bc
00000280: 1062 513e 927d b9bb 68a4 033e 99cc 3fbc
00000290: 9fd9 6bbd 40a4 1e3e be45 d43c 5e22 4bbd
000002a0: 5efd 41bc 6b9f c03d 3d89 f9bd cc6e 903d
000002b0: 99be ecbd 73da 033e 6cbe 063e 6e65 c8bc
000002c0: 8891 ebbc be71 4d3d ecbd 8ebd 4cb9 2abe
000002d0: 5a8c 6cbd 7165 4b3c 207f 5d3d 9eee 663d
000002e0: 5190 e93d d492 203e 1a40 3a3e 5a1e 653e
000002f0: 0d2f 9f3d c1ef b43d a8b1 873b 65d3 07bc
00000300: 1dae fcbc 01d7 483d 9e7d fe3c 985f 2b3d
00000310: b168 e63d 188c d9bd f816 c33d 7ddb 70bd
00000320: 6544 f739 a4f0 31bd cae7 273d bb3a f6bc
00000330: c42c 64bb 394d 09bd c595 6f3d b8a5 ff3d
00000340: b630 373e c982 353e 51da 283d 2f90 43bd
00000350: f5ae 443d 1433 063e 5c5a d2bd f6f9 13bd
00000360: 1430 f0bd 5b8f 91bd 274b b13b f3a0 a53d
00000370: 115b 3d3e 6022 673d 2378 c2bd 80b6 f23d
00000380: 3d3d 91bd a34e fc3d 4afc ac3d c0f5 95bd
00000390: b122 933d be0f 0fbe dcd1 b9bd 7d60 283b
000003a0: b73e 38be 77e3 023e 13fa 023e 79c8 553d
000003b0: 0b73 233d a4e7 d93d c221 d83d ddd1 bc3b
000003c0: 79d4 d6bd 1a19 02bd 7854 2fbd 10d4 a43c
000003d0: 50f9 a7bd 33d1 06bd e57e 66bd 2531 8fbc
000003e0: 0cfe bbbd 06bd a83b d097 34bd 09d0 043e
000003f0: adbe 02be 5dba aa3d 9cf9 f4bc 733b 11be

features.2.bn.weight f4 [128]
1.0639038 1.0225291 0.9612409 0.87170035 0.94303596 0.98059213 1.0022533 0.96170056
0.95170283 0.914089 1.0880724 0.84737647 1.0189494 0.9361455 0.90368146 0.9068941
1.0379333 0.887881 1.0520245 0.9873543 0.9821783 0.923725 0.9512741 1.0644557
0.9806897 1.0071555 0.97258306 0.89240676 0.96725875 0.93708503 1.0232484 1.0322425
0.84987736 1.0381256 0.972884 1.0165292 0.8806702 1.0555656 1.0400447 0.96717685
1.0082196 0.98200417 0.9467309 1.006382 0.9207949 0.979282 0.99369985 0.98613733
0.97342354 0.9779282 1.0241826 0.96642447 1.0269425 0.90401435 0.93726784 1.010741
0.9420227 0.93787014 1.0776479 1.0180757 0.86845523 1.0770637 0.91275084 1.0503467
0.9163469 0.9252831 1.0005519 0.9721687 0.8983303 1.021103 1.025415 1.0036048
0.8980765 1.1275334 1.0109304 0.91410834 0.9632895 0.9416314 0.860222 0.9519742
0.9439942 0.99234056 1.0273852 1.0343869 0.96455973 1.0752139 0.8767796 0.95622385
0.99431074 0.9905639 1.0457104 0.94817764 0.91276455 0.9534608 0.9652466 0.9902982
0.9501105 1.0035318 0.9202998 1.0522243 1.0461413 0.9959782 0.9335369 0.8815296
0.90428406 0.9508487 0.9453782 0.97590166 0.9894293 1.1127461 0.91326773 0.94218737
0.9299362 0.9002119 1.046506 0.9318071 1.0052712 0.99401456 0.9817607 1.0191805
0.9111282 1.0480984 1.0121768 1.0152025 0.93679965 0.97749037 0.9211035 0.962409
00000000: 002e 883f 3ce2 823f e213 763f c127 5f3f
00000010: ce6a 713f 1608 7b3f d649 803f 0232 763f
00000020: cca2 733f bd01 6a3f f545 8b3f aaed 583f
00000030: ef6c 823f 3ba7 6f3f ab57 673f 362a 683f
00000040: 00db 843f 2b4c 633f bda8 863f 40c3 7c3f
00000050: 0970 7b3f 3e79 6c3f b386 733f 1640 883f
00000060: 7b0e 7b3f 79ea 803f 34fb 783f c574 643f
00000070: 459e 773f cee4 6f3f cef9 823f 8620 843f
00000080: 9091 593f 4de1 843f ed0e 793f a11d 823f
00000090: 9a73 613f c61c 873f 2f20 853f e798 773f
000000a0: 570d 813f a064 7b3f f55c 723f 20d1 803f
000000b0: 37b9 6b3f 3ab2 7a3f 1d63 7e3f 7f73 7c3f
000000c0: 4932 793f 8159 7a3f 6a18 833f 9867 773f
000000d0: da72 833f 7c6d 673f c9f0 6f3f f65f 813f
000000e0: 6628 713f 4218 703f 5ef0 893f 4e50 823f
000000f0: 1553 5e3f 39dd 893f 0aaa 693f c371 863f
00000100: b695 6a3f 5adf 6c3f 1612 803f 0ce0 783f
00000110: f9f8 653f 81b3 823f cc40 833f 1f76 803f
00000120: 57e8 653f 0453 903f 2b66 813f 0103 6a3f
00000130: 249a 763f c10e 713f 8237 5c3f 95b4 733f
00000140: 9ba9 713f 080a 7e3f 5c81 833f ca66 843f
00000150: 63ed 763f 9ca0 893f a174 603f 16cb 743f
00000160: 268b 7e3f 9995 7d3f d7d9 853f c5bb 723f
00000170: f0aa 693f 0216 743f 671a 773f 2f84 7d3f
00000180: 713a 733f bb73 803f c598 6b3f 49af 863f
00000190: f5e7 853f 6df8 7e3f 46fc 6e3f edab 613f
000001a0: 297f 673f d26a 733f 4e04 723f b1d4 793f
000001b0: 3d4b 7d3f 776e 8e3f eacb 693f 3133 713f
000001c0: 4c10 6e3f 4974 663f e9f3 853f e98a 6e3f
000001d0: baac 803f bd77 7e3f ab54 7b3f 8274 823f
000001e0: b33f 693f 1728 863f 028f 813f 28f2 813f
000001f0: 1ad2 6f3f cf3c 7a3f 70cd 6b3f 7060 763f

features.2.bn.bias f4 [128]
-0.06205612 -0.062242117 -0.04342273 -0.13818558 -0.107706234 -0.11717979 -0.11320304 -0.06634713
-0.073712274 -0.08127127 -0.12941912 -0.16403463 -0.013554787 -0.058757402 -0.054059513 -0.13712336
-0.04887592 -0.0936117 -0.012337083 -0.04994076 -0.0645388 -0.102102906 -0.15957934 -0.20869367
-0.03726259 -0.099382624 -0.26644057 -0.14125453 -0.03479692 -0.2562757 0.012965279 -0.066495396
-0.09831367 -0.16067511 -0.07669166 -0.08194621 -0.16286078 -0.13749152 -0.17516226 -0.059312295
-0.2698965 -0.023629596 -0.037942298 -0.13447481 -0.08753504 -0.16225609 -0.0961203 -0.10418632
-0.06645697 -0.14221142 -0.051157188 -0.14091799 -0.04920716 -0.1690201 -0.079072565 -0.04172491
-0.100213654 -0.12327637 -0.115402415 -0.08672759 -0.10293343 -0.21632032 -0.110098645 -0.12980722
-0.11074545 -0.052127138 -0.07128451 -0.068377286 -0.10900813 -0.061419953 -0.14852865 -0.06933519
-0.21972558 -0.20033078 -0.14263092 -0.103031985 -0.024461053 -0.07414357 -0.103087485 -0.044351023
-0.072439834 -0.23840742 -0.06222774 -0.13262248 -0.034281045 -0.039695233 -0.13596484 -0.08810222
-0.2452098 -0.0716375 -0.010889478 -0.11895791 -0.12048676 -0.08413709 -0.066036075 -0.16688675
-0.0893652 -0.1814144 -0.14638904 -0.031295653 -0.009866178 -0.16644375 -0.16588625 -0.08061114
-0.09720546 -0.093176186 -0.09839274 -0.131695 -0.08942351 -0.19767392 -0.061144534 -0.093427494
-0.064515755 -0.08809754 -0.18274629 -0.12269791 -0.07410412 -0.14980818 -0.09151147 -0.042288296
-0.1122316 -0.080466636 -0.2516582 -0.15961817 -0.12626171 -0.04276327 -0.091796175 -0.09511098
00000000: 8f2e 7ebd 97f1 7ebd 08dc 31bd 8580 0dbe
00000010: 1695 dcbd f5fb efbd ffd6 e7bd 01e1 87bd
00000020: 76f6 96bd 8d71 a6bd 7286 04be b2f8 27be
00000030: e614 5ebc 9aab 70bd 826d 5dbd 116a 0cbe
00000040: 1e32 48bd 7eb7 bfbd 7a21 4abc af8e 4cbd
00000050: eb2c 84bd 541b d1bd c468 23be cbb3 55be
00000060: a8a0 18bd 1e89 cbbd e66a 88be 07a5 10be
00000070: 3787 0ebd 9236 83be 526c 543c bd2e 88bd
00000080: ad58 c9bd 0488 24be 8410 9dbd 6ad3 a7bd
00000090: fac4 26be 94ca 0cbe bc5d 33be 73f1 72bd
000000a0: e02f 8abe db92 c1bc 6269 1bbd c4b3 09be
000000b0: 9245 b3bd 7626 26be b8da c4bd a35f d5bd
000000c0: 981a 88bd df9f 11be 338a 51bd ce4c 10be
000000d0: 728d 49bd 9b13 2dbe ccf0 a1bd bde7 2abd
000000e0: d13c cdbd 5278 fcbd 1a58 ecbd 3c9e b1bd
000000f0: c3ce d2bd 1383 5dbe 667b e1bd 2fec 04be
00000100: 83ce e2bd 4483 55bd 9dfd 91bd 6409 8cbd
00000110: a83f dfbd 7d93 7bbd e517 18be 9cff 8dbd
00000120: beff 60be 8323 4dbe d70d 12be 6f02 d3bd
00000130: 8c62 c8bc 96d8 97bd 881f d3bd 6ba9 35bd
00000140: 565b 94bd 1321 74be 84e2 7ebd 30ce 07be
00000150: 486a 0cbd 7897 22bd 5e3a 0bbe f06e b4bd
00000160: 4718 7bbe aeb6 92bd c869 32bc 34a0 f3bd
00000170: c3c1 f6bd 1150 acbd ec3d 87bd 5ce4 2abe
00000180: 1a05 b7bd b2c4 39be 02e7 15be df2f 00bd
00000190: c0a5 21bc 3b70 2abe 16de 29be 7417 a5bd
000001a0: a813 c7bd 28d3 bebd 2282 c9bd 0edb 06be
000001b0: ac23 b7bd 086b 4abe b172 7abd ea56 bfbd
000001c0: d620 84bd 7c6c b4bd d821 3bbe 0b49 fbbd
000001d0: e7c3 97bd 5167 19be 5e6a bbbd 7e36 2dbd
000001e0: aed9 e5bd b1cb a4bd 58d9 80be f272 23be
000001f0: c04a 01be 8a28 2fbd a2ff bbbd 8cc9 c2bd

features.2.bn.running_mean f4 [128]
0.28654873 -0.0123795625 -1.3968682 -0.7209625 -1.2642697 0.52492964 0.23942177 0.31673968
-1.4002992 -1.9626734 -0.6049723 1.117817 -1.9986718 -1.2207623 1.233335 -0.86199975
0.0882649 0.14336342 0.852954 -0.45218712 0.3014412 -1.0560585 -1.56601 -1.7558869
-0.9236852 -0.3572553 -0.7585364 -0.59830886 -0.9783824 0.64476824 -1.2624096 -1.9249079
0.6142863 -1.2453982 0.040798977 0.5971696 -0.9606639 -0.093424425 0.3780203 -1.1963341
-0.06787605 -1.5327163 -1.4877315 -0.8914879 -1.1281111 -0.4308042 0.14915176 -0.018087778
-1.3973225 -2.1947289 -0.112550035 -1.2085086 -1.046752 -0.73515165 -0.5790892 -1.4294035
-0.54833174 0.08707897 -0.35631663 1.2740886 0.3815202 -0.8166132 0.2903058 -0.35956103
0.98502177 -2.1962106 -0.60326004 -0.25915924 1.1862527 -0.5294002 -0.56840175 -0.41148078
-0.6718327 -1.2275848 0.45046264 -1.6761012 -0.29431933 -0.24337472 -1.4509646 0.57861197
-0.0056216996 0.52630615 -0.30088326 -0.31327695 -1.8722937 -1.2110907 0.21134828 -0.41803965
0.23874478 -0.41286582 0.20158805 -1.1629719 -1.4248359 -1.6060723 -1.0065031 -0.5627555
-1.324162 0.45838997 0.33814788 0.33799273 -0.8122656 -0.19171654 0.50433224 1.2703826
-1.3113818 -2.1858473 -1.3691602 -0.66543007 -1.2461338 -0.32985544 1.5840034 -1.1992403
-0.15978372 -1.063735 -0.52658796 0.50563353 -2.2214437 -0.4351047 -1.2489231 -0.923282
1.5097902 -0.9537213 0.5651132 0.4657967 1.2088779 -0.9693708 0.87362504 -0.8370251
00000000: 84b6 923e a6d3 4abc 94cc b2bf 0091 38bf
00000010: 97d3 a1bf ca61 063f fb2a 753e b42b a23e
00000020: 013d b3bf e238 fbbf 77df 1abf a114 8f3f
00000030: 7ad4 ffbf f041 9cbf ecdd 9d3f 04ac 5cbf
00000040: 3ac4 b43d dccd 123e 315b 5a3f 1285 e7be
00000050: 8056 9a3e ed2c 87bf 0473 c8bf e7c0 e0bf
00000060: a276 6cbf 2bea b6be 712f 42bf c52a 19bf
00000070: 4577 7abf 880f 253f a396 a1bf 6263 f6bf
00000080: de41 1d3f 3569 9fbf d41c 273d 1be0 183f
00000090: 12ee 75bf 4e55 bfbd e08b c13e 7a21 99bf
000000a0: 9902 8bbd 0c30 c4bf fc6d bebf 8d38 64bf
000000b0: f265 90bf 5e92 dcbe 3dbb 183e d22c 94bc
000000c0: 77db b2bf 7076 0cc0 a280 e6bd 69b0 9abf
000000d0: f8fb 85bf e632 3cbf 313f 14bf b2f6 b6bf
000000e0: 785f 0cbf 7656 b23d 226f b6be 5615 a33f
000000f0: 9e56 c33e 900d 51bf f6a2 943e 6218 b8be
00000100: 632a 7c3f b78e 0cc0 406f 1abf 85b0 84be
00000110: 21d7 973f c686 07bf c782 11bf 9cad d2be
00000120: 3afd 2bbf 8021 9dbf 0aa3 e63e 7c8a d6bf
00000130: 06b1 96be 3937 79be 35b9 b9bf ea1f 143f
00000140: 3c36 b8bb 00bc 063f 5f0d 9abe d665 a0be
00000150: 52a7 efbf 0505 9bbf af6b 583e 4b09 d6be
00000160: 8379 743e 2663 d3be 196d 4e3e 43dc 94bf
00000170: 0661 b6bf c793 cdbf 18d5 80bf bf10 10bf
00000180: 247e a9bf 17b2 ea3e b821 ad3e 620d ad3e
00000190: a3f0 4fbf 5751 44be eb1b 013f e69b a23f
000001a0: 5cdb a7bf ece4 0bc0 a440 afbf a059 2abf
000001b0: 5081 9fbf d0e2 a8be a0c0 ca3f b580 99bf
000001c0: 589e 23be 7828 88bf 78ce 06bf 3371 013f
000001d0: 222c 0ec0 0bc6 debe b6dc 9fbf 365c 6cbf
000001e0: ce40 c13f 1427 74bf 42ab 103f e87c ee3e
000001f0: 83bc 9a3f af28 78bf e4a5 5f3f 4747 56bf

features.2.bn.running_var f4 [128]
1.2570658 2.1183467 2.6606302 2.4340425 1.9736682 2.0818608 2.7388604 1.6958214
2.6412427 7.553286 1.4619925 2.3597846 5.466358 1.3361659 3.0123732 2.1521509
1.9536626 1.4530303 1.3469285 3.6638205 1.1488291 2.2043917 2.2945738 2.3218422
2.4665174 1.9291128 2.0717494 1.318993 1.6332945 3.4378028 1.4419777 3.6277325
1.6575167 1.8941973 1.1442736 1.5442718 1.7116995 0.93582225 0.95546633 5.595766
1.4886117 7.761864 5.651812 2.48804 2.3233893 1.6400248 1.5087504 0.8855755
1.4973875 2.57672 1.357181 1.7949541 2.5912294 2.7308705 1.8490001 4.4988008
4.7062964 1.1140862 1.0912768 1.2370261 0.7786091 1.3216734 1.1956164 1.5435693
3.5064979 2.5006742 1.7206712 2.3708446 3.1254575 1.7154301 1.4001043 1.5695429
2.47832 1.7522709 0.95899975 2.6648529 1.9491765 1.4620297 1.796859 2.81318
1.6463062 1.8604575 1.4086725 1.3191493 10.179882 2.2107923 1.1464149 2.500123
1.7879035 1.3465585 2.2077236 1.7681807 6.1369114 2.2580245 1.0629348 1.9148434
2.6040032 0.97644794 1.6138227 3.0538502 4.111476 1.4718375 1.409232 3.4361715
5.08383 2.7080023 2.864282 1.4264623 1.5082281 1.2973236 2.1029887 1.5482258
1.5290154 2.776352 0.97177297 2.366655 2.0933309 1.5264444 1.0267111 3.177536
4.515242 1.3613292 2.106398 2.2375927 1.6943777 3.3879447 2.0076706 1.2481878
00000000: 88e7 a03f fe92 0740 c447 2a40 5ac7 1b40
00000010: 29a1 fc3f 353d 0540 7d49 2f40 ad10 d93f
00000020: 1f0a 2940 85b4 f140 9222 bb3f b606 1740
00000030: 68ec ae40 7c07 ab3f b9ca 4040 d7bc 0940
00000040: 9e11 fa3f e6fc b93f 2768 ac3f 097c 6a40
00000050: d50c 933f c114 0d40 4cda 1240 1099 1440
00000060: 6cdb 1d40 2bed f63f 8b97 0440 c3d4 a83f
00000070: cb0f d13f f604 5c40 ba92 b83f c52c 6840
00000080: 8229 d43f 0f75 f23f 8f77 923f b3aa c53f
00000090: f818 db3f 0c92 6f3f 7199 743f 8410 b340
000000a0: d48a be3f 3161 f840 a5db b440 0c3c 1f40
000000b0: 69b2 1440 55ec d13f bc1e c13f 13b5 623f
000000c0: 65aa bf3f fbe8 2440 1bb8 ad3f 0ec1 e53f
000000d0: b4d6 2540 95c6 2e40 09ac ec3f 2df6 8f40
000000e0: fb99 9640 609a 8e3f f5ae 8b3f df56 9e3f
000000f0: ed52 473f 982c a93f f509 993f ae93 c53f
00000100: 766a 6040 0c0b 2040 f43e dc3f ebbb 1740
00000110: 7f07 4840 3793 db3f 9e36 b33f c8e6 c83f
00000120: cb9c 1e40 6a4a e03f 0281 753f f38c 2a40
00000130: 9e7e f93f ca23 bb3f 7aff e53f 240b 3440
00000140: 29ba d23f 7923 ee3f 614f b43f e2d9 a83f
00000150: cce0 2241 9f7d 0d40 b9bd 923f 0402 2040
00000160: 06da e43f 075c ac3f 584b 0d40 bf53 e23f
00000170: 9461 c440 7983 1040 3f0e 883f 9719 f53f
00000180: fda7 2640 7ef8 793f be91 ce3f 4872 4340
00000190: 3691 8340 2c65 bc3f b761 b43f 3cea 5b40
000001a0: bcae a240 e94f 2d40 6550 3740 5196 b63f
000001b0: 9e0d c13f b30e a63f 5e97 0640 432c c63f
000001c0: c7b6 c33f c0af 3140 1dc6 783f 4777 1740
000001d0: 22f9 0540 8862 c33f 456b 833f c05c 4b40
000001e0: dd7c 9040 0940 ae3f 3acf 0640 b834 0f40
000001f0: 5ee1 d83f 16d4 5840 ad7d 0040 9ec4 9f3f

features.3.conv.weight f4 [256, 128, 3]
0.11129898 0.03261949 0.087886244 -0.025056774 -0.021268742 0.14699766 -0.06148171 -0.01447502
-0.10288733 0.043702915 -0.11648661 0.15095837 0.04818273 -0.06645986 0.07624192 -0.08679665
0.034629013 -0.05448559 0.04576885 -0.024087548 -0.07444638 0.0060836794 0.015590098 0.030523827
0.03357081 -0.01183538 -0.00899545 0.08420684 0.0069464403 -0.15534516 0.016630676 0.08312467
0.07862572 0.09302787 -0.03847525 0.0017116773 0.030896448 -0.07696983 0.012543289 -0.0007388831
-0.05063224 0.11332151 0.025567954 0.13468236 0.011139194 -0.10495398 -0.14684471 0.052691832
-0.039328914 0.11007518 0.1237069 0.06250509 -0.13088416 0.14602654 -0.1037731 0.034327175
0.015750434 -0.09604473 -0.050933488 -0.029671697 0.11659997 0.0069626123 0.047998678 0.041020267
0.10812776 0.037708778 -0.26098624 -0.04560516 -0.04996881 0.2524193 0.25806612 0.067516804
0.033684712 -0.04745718 -0.01978904 0.10571856 0.020682285 0.13097998 -0.0023535446 -0.066293254
-0.03919813 0.16687569 0.091699064 -0.011127671 0.044643372 0.024170695 0.10215701 -0.046729263
-0.0170599 -0.020674678 0.032045957 0.051586922 0.008482603 -0.017475102 -0.011081062 -0.08607096
0.016612168 0.062792584 -0.047036916 0.15141416 0.12261245 -0.10167764 -0.04143856 0.041065935
0.12298385 0.08922912 -0.008936206 -0.03798439 0.060513005 0.0321814 -0.019913085 -0.06526192
0.009743665 -0.071380354 0.11215364 -0.020860376 0.08400813 0.009552655 0.060241267 0.02581894
-0.073264614 -0.10357313 -0.0603872 0.07728169 0.04426247 0.087345265 0.015289066 0.034540556
0.09331447 0.057029147 0.034512796 0.092707515 -0.030487165 0.013396909 -0.017779913 0.06451166
0.026073543 0.022045564 0.0660632 0.09305455 0.06179482 -0.04724571 0.04579329 0.034317423
0.009643105 0.031365693 -0.03353484 0.02620548 -0.022212021 0.1616001 0.07317756 0.08880468
0.083668284 0.052606408 -0.05072526 0.021401152 -0.1192499 0.009180261 -0.23678587 0.018755052
-0.076660894 0.04289157 0.0010720562 0.05343099 -0.075247735 0.055154596 -0.012066037 0.044695146
-0.0025739223 -0.038484193 -0.0071690655 -0.02298662 -0.055928662 0.048674926 -0.0065901084 -0.027673297
0.1705608 0.023145946 0.053354844 -0.008219333 -0.01722684 -0.009067106 0.010576316 0.13910824
0.10723574 0.061311558 0.06163293 -0.0071825143 0.010435419 0.018246574 0.117872424 0.052225582
0.047409352 -0.013297562 0.10382183 -0.033534892 0.072350316 0.17471851 -0.06015027 0.0124784475
-0.078309365 0.06596263 -0.032809295 0.071695074 0.04611068 -0.055076864 -0.09109148 -0.12303362
-0.04650462 0.15765734 0.12813397 0.15484197 0.09085603 -0.007502478 0.11188756 0.059435435
-0.029000733 -0.055610143 -0.13275065 0.11888071 0.029555338 0.09306397 0.008076479 0.09006805
0.102115296 0.105265334 0.05349625 0.045977026 0.023909012 0.054011576 0.10497246 0.09906927
0.085947774 0.11459669 0.07981264 -0.0664002 0.11466088 0.010810986 0.13218026 -0.032511
0.00074694137 -0.053766605 -0.06774386 -0.04462022 -0.05584179 -0.089062236 0.039875057 -0.044133604
0.07043667 0.08313301 0.15614735 0.08274604 0.029515566 0.009591193 0.061066177 0.09177668
00000000: b8f0 e33d 049c 053d b4fd b33d dd43 cdbc
00000010: c93b aebc 8e86 163e 3fd4 7bbd a228 6dbc
00000020: 98b6 d2bd d401 333d 8890 eebd d594 1a3e
00000030: 415b 453d 1b1c 88bd b924 9c3d 71c2 b1bd
00000040: 27d7 0d3d 482c 5fbd 1e78 3b3d 4053 c5bc
00000050: 5877 98bd 9a59 c73b 9c6d 7f3c 1b0d fa3c
00000060: 8c81 093d 2fe9 41bc a761 13bc a374 ac3d
00000070: f79e e33b cd12 1fbe 0e3d 883c 443d aa3d
00000080: 8606 a13d 6585 be3d 3998 1dbd 5c5a e03a
00000090: 8c1a fd3c 5ca2 9dbd 5e82 4d3c 9bb1 41ba
000000a0: c063 4fbd 1c15 e83d e373 d13c 2cea 093e
000000b0: 2a81 363c 1df2 d6bd 765e 16be 64d3 573d
000000c0: 5b17 21bd 196f e13d 0b5a fd3d ab02 803d
000000d0: 7f06 06be fb87 153e fe86 d4bd a79a 0c3d
000000e0: 0e07 813c 19b3 c4bd a29f 50bd 0f12 f3bc
000000f0: f7cb ee3d a026 e43b 439a 443d de04 283d
00000100: 1672 dd3d 8574 1a3d fd9f 85be 7acc 3abd
00000110: 18ac 4cbd 1a3d 813e 3e21 843e 4046 8a3d
00000120: fbf8 093d 7662 42bd a01c a2bc f982 d83d
00000130: e56d a93c 9e1f 063e ed3d 1abb c2c4 87bd
00000140: 388e 20bd 76e1 2a3e b8cc bb3d d650 36bc
00000150: f8db 363d 9f01 c63c b237 d13d 2f67 3fbd
00000160: 34c1 8bbc f15d a9bc 9f42 033d cf4c 533d
00000170: 9efa 0a3c f227 8fbc 588d 35bc f945 b0bd
00000180: 3e16 883c 6699 803d c8a9 40bd 500c 1b3e
00000190: 3c1c fb3d 5e3c d0bd 7bbb 29bd c134 283d
000001a0: f5de fb3d c2bd b63d 2a69 12bc 8595 1bbd
000001b0: 7cdc 773d a5d0 033d c420 a3bc 0ba8 85bd
000001c0: e5a3 1f3c dd2f 92bd cfb0 e53d 61e3 aabc
000001d0: 740c ac3d bd82 1c3c 8cbf 763d 3e82 d33c
000001e0: c20b 96bd 261e d4bd 9258 77bd dd45 9e3d
000001f0: 904c 353d 13e2 b23d fe7e 7a3c 667a 0d3d
00000200: a81b bf3d 6597 693d 4a5d 0d3d 70dd bd3d
00000210: 38c0 f9bc b67e 5b3c 2ea7 91bc b01e 843d
00000220: 2f98 d53c e698 b43c 254c 873d 6293 be3d
00000230: 911c 7d3d b884 41bd bf91 3b3d 6d90 0c3d
00000240: 1dfe 1d3c 5079 003d d45b 09bd e0ac d63c
00000250: fcf5 b5bc 7f7a 253e 1ede 953d 3adf b53d
00000260: 475a ab3d d179 573d 4ac5 4fbd 7851 af3c
00000270: 4b39 f4bd ce68 163c ff77 72be 32a4 993c
00000280: 6300 9dbd 12af 2f3d 3d84 8c3a 74da 5a3d
00000290: 7c1b 9abd c9e9 613d a1b0 45bc 4212 373d
000002a0: 40af 28bb 9aa1 1dbd 7bea eabb 704e bcbc
000002b0: 7415 65bd 5c5f 473d d6f1 d7bb 1cb3 e2bc
000002c0: 7ea7 2e3e 919c bd3c 9c8a 5a3d 62aa 06bc
000002d0: 4d1f 8dbc 338e 14bc 4948 2d3c 6472 0e3e
000002e0: 699e db3d d421 7b3d d072 7c3d 4c5b ebbb
000002f0: 52f9 2a3c d779 953c 1967 f13d 7eea 553d
00000300: 4f30 423d 04de 59bc 8aa0 d43d e25b 09bd
00000310: 672c 943d 69e9 323e 2160 76bd 6772 4c3c
00000320: a960 a0bd 6a17 873d 0a63 06bd ded4 923d
00000330: 8dde 3c3d 4798 61bd 2b8e babd 0df9 fbbd
00000340: a17b 3ebd ed70 213e 8d35 033e e58e 1e3e
00000350: ba12 ba3d 59d7 f5bb 4e25 e53d 9272 733d
00000360: f292 edbc 76c7 63bd c9ef 07be bb77 f33d
00000370: 091e f23c 5398 be3d 3553 043c 9975 b83d
00000380: d321 d13d 5a95 d73d e21e 5b3d 6852 3c3d
00000390: d5dc c33c 3e3b 5d3d cdfb d63d d4e4 ca3d
000003a0: 6305 b03d abb1 ea3d cf74 a33d d4fc 87bd
000003b0: 53d3 ea3d 9020 313c 435a 073e 412a 05bd
000003c0: 63ce 433a 5f3a 5cbd 4bbd 8abd b1c3 36bd
000003d0: 5cba 64bd 4366 b6bd 0754 233d 70c5 34bd
000003e0: 1a41 903d a441 aa3d 17e5 1f3e c176 a93d
000003f0: a1ca f13c 6124 1d3c 8720 7a3d 69f5 bb3d
