ecg_afib_detection/checkpoints/ecg-arrhythmia/500hz/resnet1d/fold_3/best.pt (torch, 339167 bytes, 44 tensors)

stem.0.weight f4 [64, 12, 7]
0	0x3db8f977	0.09031957
1	0x3d84ac22	0.06478144
2	0xbca645d5	-0.02029697
3	0xbcc9a620	-0.024615347
4	0x3d8a05f7	0.06739419
5	0x3d7b7dcd	0.06139927
6	0xbd5be221	-0.05368245
7	0x3dc1f834	0.09471169
8	0x3d64177b	0.055686455
9	0x3dc64d9f	0.09682774
10	0x3c3424cc	0.010995101
11	0x3da6c94e	0.081438646
12	0x3da69397	0.08133619
13	0x3d9fa5e3	0.07795312
14	0x3d4df91a	0.05028639
15	0x3d07e967	0.033181574
16	0xbd8ebead	-0.06969962
17	0x3d3d06e3	0.046149146
18	0xbb14a42a	-0.0022680857
19	0xbc2ed55d	-0.010670987
20	0x3ddae3d9	0.1068799
21	0x3d02fcf5	0.03197952
22	0x3dbcbc80	0.09215641
23	0x3d834b84	0.06410888
24	0xbcaf567d	-0.021403546
25	0x3d94bda9	0.07262737
26	0x3db7c5e0	0.089732885
27	0xbd655210	-0.055986464
28	0xbe037185	-0.12836273
29	0x3c691cf4	0.014228094
30	0x3c5e93f0	0.013585076
31	0xb9e798b9	-0.0004417354
32	0x3cfea8d6	0.031086367
33	0xbb9584d7	-0.004562955
34	0x3dade3ae	0.08490692
35	0x3c148a9a	0.009066248
36	0xbd923277	-0.07138532
37	0x3dbc6be8	0.09200269
38	0xbd4ba4f4	-0.04971786
39	0xbd4b848f	-0.049686965
40	0xbcc8a3e9	-0.024492221
41	0xbd9425ab	-0.07233747
42	0x3decdb99	0.115653224
43	0x3dd89cab	0.10576757
44	0x3d8edf75	0.06976215
45	0x3bb00fdb	0.005372984
46	0x3bd6c0b2	0.006553733
47	0x3dbd23e8	0.09235364
48	0xbbbd5fa1	-0.005779222
49	0x3dad712a	0.0846885
50	0x3dfad2dc	0.122472495
51	0x3de17374	0.11008349
52	0x3d2d6d1e	0.04234039
53	0x3ce6e56c	0.028185569
54	0x3d36c52d	0.044621635
55	0xbd562231	-0.0522787
56	0xbdcc89a2	-0.09987189
57	0x3c728f85	0.014804726
58	0xbdd38cad	-0.10329566
59	0xbdc56cd8	-0.09639901
60	0xbdc990ae	-0.098420486
61	0xbdc7e636	-0.09760706
62	0xbbbac5a1	-0.0056998287
63	0x3d83b5c8	0.064311564
64	0x3c66db0a	0.014090309
65	0xbdee1e3a	-0.11626859
66	0x3bf37214	0.0074293707
67	0xb92b756c	-0.00016351574
68	0xbbfe6100	-0.007763028
69	0xbe309bfc	-0.17247003
70	0xbca92f33	-0.02065239
71	0x3dbdd2df	0.09268736
72	0xbc161f3e	-0.009162722
73	0xbd90d28d	-0.070714094
74	0xbdd13b2f	-0.102163665
75	0x3cf9e845	0.030506263
76	0xbd814c38	-0.06313366
77	0xbd8a696b	-0.06758388
78	0xbd5397c6	-0.051658414
79	0x3d8f42a9	0.06995136
80	0x3da2b60f	0.07944881
81	0xbc1fb92d	-0.009748739
82	0xbd526200	-0.05136299
83	0xbd2e8e44	-0.042616144
84	0xbccca5ff	-0.024981497
85	0x3de74462	0.1129234
86	0x3dc0e7ea	0.09419234
87	0x3de4965e	0.11161493
88	0x3df1495d	0.11781571
89	0x3dc193b3	0.094519995
90	0x3d3748b3	0.044747066
91	0x3d9dc3e3	0.07703378
92	0x3d88c8d5	0.06678931
93	0xbd95a2c3	-0.07306435
94	0x3d663f3e	0.056212656
95	0x3d84bb49	0.06481034
96	0x3cb48b75	0.022039155
97	0xbd76eadd	-0.060282577
98	0xbd5be324	-0.053683415
99	0xbe089645	-0.13338573
100	0xbdd9fbd6	-0.10643737
101	0x3d3b2c0f	0.045696314
102	0x3d881816	0.06645219
103	0xbd69c636	-0.057073794
104	0x3e053a48	0.13010514
105	0x3d51805f	0.051147815
106	0xbc47b03c	-0.012188014
107	0xbda25f0e	-0.079282865
108	0xbdbe9770	-0.09306228
109	0xbdb67546	-0.08909087
110	0x3d569e29	0.052396927
111	0xbd735613	-0.05940826
112	0xbc6bff00	-0.014404058
113	0x3e19e8c9	0.15030207
114	0x3c6f9b4f	0.014624431
115	0xbd6531d0	-0.055955708
116	0xbb24594c	-0.002507764
117	0x3d9c21c9	0.076236315
118	0xbce86a8c	-0.028371118
119	0xbd3ca277	-0.046053376
120	0x3d969559	0.073527046
121	0x3d66a823	0.05631269
122	0x3d4c5f76	0.049895726
123	0xbda3e81d	-0.080032565
124	0xbd24c340	-0.040225267
125	0xbd566540	-0.052342653
126	0x3d095a56	0.033533417
127	0x3d9f2b15	0.07771889
128	0xbd923c9e	-0.07140468
129	0x3c02d9dd	0.007986513
130	0x3c28a583	0.010293367
131	0x3da704b1	0.08155192
132	0x3d99f064	0.07516554
133	0x3c9b58a3	0.018963164
134	0x3de94a75	0.11391155
135	0x3e18728c	0.14887446
136	0x3c0035c8	0.007825322
137	0x3d8d026a	0.06885226
138	0x3dcefc61	0.10106731
139	0x3d4da7c2	0.050208814
140	0x3e00cdf8	0.12578571
141	0x3ce9615c	0.028488807
142	0x3de2c56a	0.1107281
143	0x3d1bc4cb	0.038029473
144	0xbdecc2c4	-0.11560586
145	0xbc169bc0	-0.009192407
146	0x3d204c3d	0.039135206
147	0xbd8546bf	-0.06507634
148	0x3d91f65c	0.071270674
149	0xbd0537af	-0.032523807
150	0xbdee53ea	-0.11637099
151	0xbcf6c3f5	-0.030122736
152	0xbd859f83	-0.06524565
153	0xbd7a7fd2	-0.061157055
154	0xbd8411d5	-0.06448714
155	0xbda32f33	-0.07967987
156	0xbd7651a5	-0.060136456
157	0xbdace576	-0.08442204
158	0xbde18a1b	-0.1101267
159	0x3d977000	0.07394409
160	0xbdaffb9e	-0.08592914
161	0x3d00b1b3	0.031419467
162	0x3cfb63f0	0.030687302
163	0x3df36f4e	0.11886464
164	0x3e10f474	0.14155751
165	0x3d66f57d	0.05638646
166	0x3dfaaf86	0.1224051
167	0x3d769b88	0.06020692
168	0xbd1e42e0	-0.038637996
169	0x3aa357aa	0.0012462039
170	0x3bf89962	0.007586644
171	0x3bd4817c	0.0064851623
172	0xbd41a55c	-0.04727684
173	0xbd31303e	-0.043258898
174	0xbbe7d816	-0.00707532
175	0x3c383465	0.011242961
176	0xbd813d5c	-0.063105315
177	0x3d9cb2d9	0.076513
178	0x3cf837a2	0.030299965
179	0x3dfcdcd1	0.12346805
180	0x3e03c257	0.12867104
181	0x3dff7a16	0.12474458
182	0xbdb29f62	-0.08721806
183	0xbd3ca28a	-0.046053447
184	0x3b330a93	0.0027319535
185	0x3ddc96eb	0.10770973
186	0x3e014d64	0.12627178
187	0x3de0a950	0.10969794
188	0x3ddac383	0.10681822
189	0xbd86ff26	-0.065916345
190	0xbdf743b4	-0.1207346
191	0xbd3101f8	-0.04321477
192	0xbd55f76d	-0.052237917
193	0xbd5f6b4a	-0.05454568
194	0xbd74bdd0	-0.05975133
195	0x3d266d37	0.0406315
196	0x3dc5fbe9	0.09667189
197	0xbd505334	-0.0508606
198	0x3d298d6a	0.04139463
199	0xbd60ef5e	-0.05491578
200	0xbd7fbb4f	-0.06243449
201	0x3db2f923	0.08738925
202	0x3c7b58f5	0.015341033
203	0xbbc417fd	-0.005984305
204	0xbcb84690	-0.022494584
205	0x3d6c8934	0.057748035
206	0xbd7e68cf	-0.062111672
207	0xbce6af6d	-0.028159821
208	0xbc82b1a2	-0.015953843
209	0x3ccdf1c8	0.025139704
210	0x3d8da834	0.06916848
211	0xbc1afcfd	-0.009459731
212	0xbd45f1a3	-0.048326146
213	0x3dd267c6	0.102736995
214	0xbd58553b	-0.052815657
215	0x3dd0c441	0.101936825
216	0x3e0fc27c	0.14039034
217	0xbde9dd0e	-0.11419116
218	0xbdd15770	-0.102217555
219	0xbda4dbde	-0.08049749
220	0xbdacd4ab	-0.08439001
221	0xbd53d745	-0.05171897
222	0xbdfa7d9d	-0.1223099
223	0xbdb7351a	-0.08945675
224	0xbd27d77e	-0.040976994
225	0x3db284a9	0.08716709
226	0x3cdf8d75	0.027289132
227	0xbdc279c4	-0.09495881
228	0x3c809105	0.01569415
229	0xbcdf4102	-0.027252678
230	0xbd2cb4bf	-0.04216456
231	0xbc990132	-0.018677328
232	0x3d46f8a2	0.04857696
233	0xbd020545	-0.031743307
234	0xbdae86b6	-0.08521788
235	0x3d67ac74	0.05656095
236	0x3ccf37b2	0.025295112
237	0x3d685bd3	0.056728195
238	0x3db5c45d	0.08875344
239	0x3c5181f3	0.01278733
240	0x3b9e6c3f	0.0048346813
241	0x3d167b51	0.036738697
242	0xbdff16a0	-0.12455487
243	0xbdf865c9	-0.12128789
244	0xbe018875	-0.1264971
245	0xbd1ed927	-0.03878131
246	0x3cceb848	0.025234357
247	0x3d14ae54	0.036299065
248	0x3d9981ca	0.074954584
249	0x3d66e954	0.056374863
250	0xba5cd611	-0.00084242324
251	0xbcd6a330	-0.02620086
252	0x3d0a83c1	0.033817057
253	0xbdab9319	-0.08377666
254	0x3d1627c9	0.036659036
255	0xbd8a4063	-0.06750562

stem.0.bias f4 [64]
0	0x3dcf383c	0.10118148
1	0x3df48f7d	0.11941431
2	0xbdee29bc	-0.11629054
3	0xbd0d3737	-0.034476485
4	0xbd4266f9	-0.047461484
5	0x3d2c9c52	0.042141266
6	0x3d5ce9c8	0.05393389
7	0xbde72330	-0.11286008
8	0x3d875a19	0.06608982
9	0x3d366695	0.044531424
10	0xbde81871	-0.11332787
11	0x3d214232	0.03936977
12	0xbd6d4c06	-0.05793383
13	0x3d5a4e5e	0.053297393
14	0xbde4427d	-0.11145494
15	0xbc9f4588	-0.019442335
16	0x3dfc9f5e	0.123350844
17	0x3cb3c07e	0.021942373
18	0xbd009618	-0.03139314
19	0x3bfc8806	0.007706645
20	0xbd8692d3	-0.06570973
21	0xbdc26afb	-0.09493061
22	0x3d88e5bd	0.06684444
23	0x3db9b200	0.09067154
24	0xbd3385e7	-0.04382887
25	0x3de45464	0.11148909
26	0xbddf9528	-0.10917121
27	0x3d232a17	0.039835062
28	0xbdea2a55	-0.114338554
29	0x3d958c7e	0.073021874
30	0x3dcd91f5	0.10037605
31	0x3bfe8b6f	0.0077680866
32	0x3db69efb	0.08917042
33	0xbdb99a01	-0.09062577
34	0xbd5451bc	-0.05183576
35	0x3c90cf94	0.017677106
36	0xbdae7249	-0.08517892
37	0x3d135509	0.035969768
38	0x3d97c0a4	0.0740979
39	0xbd6f49e5	-0.05842008
40	0xbd9a683b	-0.07539412
41	0xbd540355	-0.05176099
42	0x3d9381bd	0.0720248
43	0x3d0ab293	0.033861708
44	0x3dd4e162	0.10394551
45	0xbdcb3ff2	-0.09924306
46	0xbd1bf134	-0.038071826
47	0x3dcfd1d6	0.10147445
48	0x3da354b3	0.079751395
49	0xbd42dd1f	-0.04757416
50	0xbe07ea49	-0.13272966
51	0x3ca8545c	0.020548038
52	0xbdb6b81d	-0.089218356
53	0xbd7126ab	-0.058874767
54	0x3d8fa135	0.0701317
55	0x3d40e168	0.047089964
56	0x3d3d68ac	0.0462424
57	0xbd088db9	-0.033338282
58	0x3c024541	0.007951082
59	0xbe16fdcb	-0.14745252
60	0xbdacd8ce	-0.0843979
61	0x3d9dc693	0.07703891
62	0x3e053fce	0.13012621
63	0xbdbf5f12	-0.09344305

stem.1.weight f4 [64]
0	0x3f7ab119	0.9792648
1	0x3f7cce01	0.98751837
2	0x3f6bcbe1	0.9210797
3	0x3f7c0456	0.98444116
4	0x3f81629c	1.0108218
5	0x3f737ae4	0.9510939
6	0x3f7e7258	0.99393225
7	0x3f7cdf11	0.9877787
8	0x3f75632b	0.95854443
9	0x3f78e5c8	0.9722562
10	0x3f7c9ceb	0.9867694
11	0x3f83394e	1.0251863
12	0x3f81ab4a	1.0130398
13	0x3f7c7642	0.9861795
14	0x3f88090d	1.0627762
15	0x3f83a3f9	1.0284415
16	0x3f80a49d	1.0050236
17	0x3f81ae34	1.0131288
18	0x3f7dd16e	0.9914769
19	0x3f7273a6	0.94707716
20	0x3f8504b2	1.0392058
21	0x3f7b830d	0.9824684
22	0x3f83fdc2	1.0311816
23	0x3f7ba0e8	0.982924
24	0x3f827c37	1.0194157
25	0x3f80f558	1.0074873
26	0x3f68a86a	0.9088198
27	0x3f6fb743	0.9363901
28	0x3f7a3f33	0.97752684
29	0x3f7c8f16	0.9865583
30	0x3f7b1a8b	0.98087376
31	0x3f77b38e	0.96758354
32	0x3f800b76	1.0003498
33	0x3f681e73	0.9067146
34	0x3f780287	0.96878856
35	0x3f8382c1	1.0274278
36	0x3f6d1d38	0.9262271
37	0x3f82b42f	1.0211238
38	0x3f81d5d1	1.0143377
39	0x3f818e54	1.012156
40	0x3f7bdd85	0.98384887
41	0x3f732663	0.9498045
42	0x3f79ef87	0.97631115
43	0x3f82dd41	1.0223771
44	0x3f80a35f	1.0049857
45	0x3f7a53fb	0.97784394
46	0x3f812948	1.0090723
47	0x3f76ac7d	0.96356946
48	0x3f78c896	0.9718107
49	0x3f7dfa77	0.99210304
50	0x3f841bda	1.0321
51	0x3f848ce6	1.0355499
52	0x3f7ac30d	0.97953874
53	0x3f7f58b3	0.9974472
54	0x3f7f4a5f	0.99722856
55	0x3f865151	1.0493566
56	0x3f7a5e4a	0.97800124
57	0x3f7cfeb6	0.9882616
58	0x3f85cc44	1.0452962
59	0x3f824735	1.0177981
60	0x3f7f8039	0.9980503
61	0x3f7f23ce	0.9966401
62	0x3f779e6c	0.9672611
63	0x3f8437fc	1.0329585

stem.1.bias f4 [64]
0	0xbc4fed4a	-0.012690851
1	0xbd40ccc4	-0.04707028
2	0xbd83d972	-0.06437959
3	0x3c6c229b	0.014412547
4	0x3c1d1fbf	0.009590088
5	0x3c9a454c	0.018831871
6	0x3b10e4e4	0.0022109086
7	0xbd360a10	-0.04444319
8	0x3ca6a380	0.020341635
9	0xbcbcae69	-0.023032384
10	0x3bce1ac1	0.0062898104
11	0xbb3eb01b	-0.0029096666
12	0xbcbe8615	-0.023257295
13	0xbc006797	-0.007837198
14	0x3d05f4cf	0.03270417
15	0x3d79e0c4	0.06100537
16	0x3c01c0c0	0.00791949
17	0x3d3ee5fe	0.046606056
18	0xbd02ff03	-0.03198148
19	0xba5d5c16	-0.0008444203
20	0x3d2ccc4a	0.042187013
21	0xbd3ea3c4	-0.046542898
22	0x3d695abf	0.056971308
23	0x3ca8d6fd	0.020610327
24	0x3c152f57	0.009105525
25	0x3c516967	0.0127814775
26	0xbcac37e1	-0.021022739
27	0x3ca9211b	0.020645669
28	0xbd4e6bde	-0.05039584
29	0xb952693a	-0.0002006636
30	0x3d53b832	0.051689334
31	0x3d4d0078	0.050049275
32	0x3ba82155	0.0051309266
33	0xbd590664	-0.05298461
34	0xbc738468	-0.014863111
35	0xbc149f92	-0.009071248
36	0xbdcf396a	-0.10118373
37	0x3cff323a	0.03115188
38	0x3cb0c38c	0.021577619
39	0x3c920a7d	0.017827267
40	0x3c9073cd	0.017633343
41	0x3be7fe23	0.007079856
42	0xbd90ceaa	-0.07070668
43	0x3cde92e7	0.027169658
44	0xbcad6ee8	-0.021171048
45	0xbccc32ac	-0.024926506
46	0x3dba0c0b	0.09084328
47	0xbd02170f	-0.03176027
48	0xbd91ced4	-0.071195275
49	0x3d5fb6ab	0.054617565
50	0x3ca8e6fb	0.020617953
51	0xbb430481	-0.0029757323
52	0xbd45b559	-0.04826865
53	0x3d4d5f24	0.05013956
54	0x3cc8bb38	0.024503335
55	0x3db5552a	0.088541344
56	0xbcf98b4f	-0.030461935
57	0x3cd9bac2	0.02657831
58	0xbbd61ea6	-0.0065344153
59	0xbd50e475	-0.050999124
60	0xbade1db3	-0.0016946107
61	0xbc74477a	-0.014909619
62	0xbc466ae7	-0.012110448
63	0x3d867283	0.0656481

stem.1.running_mean f4 [64]
0	0x3dcfae93	0.10140719
1	0x3df5af4e	0.11996327
2	0xbdeff4f2	-0.117166415
3	0xbd0eeff6	-0.034896813
4	0xbd41b16a	-0.047288336
5	0x3d257347	0.04039314
6	0x3d599c13	0.05312736
7	0xbde78c4f	-0.113060586
8	0x3d86bf00	0.06579399
9	0x3d35d9b1	0.04439706
10	0xbde792ed	-0.11307321
11	0x3d1f85fe	0.038946144
12	0xbd6d5f8e	-0.057952456
13	0x3d591213	0.052995753
14	0xbde0bbbc	-0.109733075
15	0xbc9e5da7	-0.019331766
16	0x3dfc31af	0.12314164
17	0x3cb2b24d	0.021813536
18	0xbd016ddf	-0.031598922
19	0x3bfbfeef	0.0076903026
20	0xbd8618be	-0.06547688
21	0xbdc1a544	-0.0945535
22	0x3d8902cd	0.06689987
23	0x3db9adb9	0.09066338
24	0xbd32deb4	-0.043669418
25	0x3de66c6e	0.1125115
26	0xbddfa82a	-0.109207466
27	0x3d235640	0.039877176
28	0xbde90078	-0.113770425
29	0x3d965898	0.07341117
30	0x3dcc24d1	0.0996796
31	0x3c00391d	0.007826117
32	0x3db79a27	0.08964949
33	0xbdb52228	-0.088444054
34	0xbd5364e7	-0.0516099
35	0x3c939df2	0.01801965
36	0xbdaf82c5	-0.08569864
37	0x3d175c4e	0.036953263
38	0x3d9811d5	0.07425276
39	0xbd704cbf	-0.05866694
40	0xbd9acc37	-0.07558482
41	0xbd580d91	-0.052747313
42	0x3d92a71b	0.07160779
43	0x3d01ba83	0.031672012
44	0x3dd4876f	0.103773944
45	0xbdcc53e2	-0.09976937
46	0xbd1b4a88	-0.037912875
47	0x3dd16bb2	0.102256194
48	0x3da3a47a	0.07990356
49	0xbd41fa28	-0.04735771
50	0xbe07aeea	-0.13250318
51	0x3ca5180a	0.020153064
52	0xbdb6c1d4	-0.089236885
53	0xbd71f2d8	-0.059069484
54	0x3d8fb422	0.070167795
55	0x3d420d19	0.047375772
56	0x3d3d70c2	0.046250112
57	0xbd093f17	-0.033507433
58	0x3c1d1526	0.009587562
59	0xbe1678d9	-0.14694537
60	0xbdab8d75	-0.0837659
61	0x3d9e4674	0.077282816
62	0x3e055da8	0.13024008
63	0xbdbf21d7	-0.09332626

stem.1.running_var f4 [64]
0	0x3ea8076e	0.32818168
1	0x3fa9fdc0	1.3280563
2	0x3f56ccd2	0.8390628
3	0x3f88ef38	1.0698004
4	0x404e59e1	3.2242358
5	0x3f160777	0.5860514
6	0x3f490148	0.7851758
7	0x3eb3c130	0.35108328
8	0x3f5c6a79	0.86099964
9	0x3e47dd0c	0.19517916
10	0x40064130	2.0977287
11	0x3ed6aa12	0.41926628
12	0x3faaa104	1.3330388
13	0x3f9d7c0e	1.2303483
14	0x3e9e8320	0.30959415
15	0x3eebdcf1	0.46067002
16	0x3f7b7a51	0.98233515
17	0x3f3bfe45	0.7343486
18	0x3f85d38d	1.0455185
19	0x400089f3	2.0084198
20	0x3f155703	0.58335894
21	0x3f15fb4d	0.5858658
22	0x40397a5b	2.898093
23	0x3ec88578	0.3916433
24	0x3f34371c	0.7039659
25	0x3fb347c0	1.4006271
26	0x3f34476d	0.7042149
27	0x3f5aacf2	0.85420144
28	0x3f2d81c3	0.67776126
29	0x400cae09	2.1981223
30	0x3f47b5dd	0.78011876
31	0x3f81ef14	1.0151086
32	0x40149470	2.32156
33	0x3fce15f8	1.6100454
34	0x3f3993e0	0.72491264
35	0x3f81c460	1.0138054
36	0x3f53f1ba	0.8279072
37	0x3f2ff881	0.6873856
38	0x3e8cf16e	0.27527946
39	0x3f08d411	0.5344859
40	0x3f5cf6c1	0.86314017
41	0x400e5c92	2.2244
42	0x3f0c59bb	0.5482442
43	0x3fcbc88d	1.5920578
44	0x403a2d44	2.9090128
45	0x3f480c5e	0.7814387
46	0x3f3a2344	0.7271006
47	0x4009a948	2.150957
48	0x3e6c3dec	0.23070496
49	0x3f037e21	0.5136433
50	0x3fb6e276	1.428786
51	0x3fe14915	1.7600428
52	0x3f351cac	0.70746875
53	0x3efd1dfe	0.49436945
54	0x3fa33cc1	1.2752916
55	0x3e918550	0.28422022
56	0x3f1e0e60	0.61740685
57	0x3f5f45f7	0.8721613
58	0x3f364957	0.7120566
59	0x3e8388e2	0.2569037
60	0x400ab681	2.1673892
61	0x3f86bdf3	1.0526718
62	0x3f0fddf3	0.5619804
63	0x3f2c6649	0.67343575

block1.conv1.weight f4 [64, 64, 3]
0	0xbd231221	-0.03981221
1	0xbd356c1b	-0.04429255
2	0xbd990be1	-0.07472969
3	0x3c8cdd6a	0.017195422
4	0xbcd3aefa	-0.025840271
5	0xbd41afc0	-0.04728675
6	0xbd00de6d	-0.03146212
7	0x3c496597	0.012292287
8	0x3ca9717b	0.020683995
9	0x3baf866a	0.0053565996
10	0x3c78d7f9	0.015188211
11	0xbcd5b00d	-0.026084924
12	0x3d701a1a	0.058618642
13	0x3d1ec750	0.038764298
14	0x3dd7fc2c	0.10546145
15	0x3a664b54	0.00087850285
16	0x3ce07737	0.027400596
17	0x3d00c0ce	0.031433873
18	0x3c79bc17	0.015242598
19	0xbd83e880	-0.0644083
20	0xbd543181	-0.051805023
21	0x3cef41db	0.029206207
22	0xbd45ece0	-0.048321605
23	0x3d406c83	0.046978485
24	0xbd3e8a6d	-0.04651873
25	0x3b941429	0.004519005
26	0xbd51f146	-0.051255487
27	0xbdcaabbc	-0.09896037
28	0xbdfb038d	-0.12256537
29	0xbd4ce6e4	-0.050024882
30	0xbd006c9d	-0.03135358
31	0xbc9e9efe	-0.019362923
32	0xbd722f52	-0.05912716
33	0x3db04e7c	0.0860872
34	0x3d302ef2	0.04301352
35	0xbe00d3c5	-0.12580784
36	0x3d20b437	0.039234366
37	0xbca62bb2	-0.020284507
38	0x3bb20cd8	0.00543366
39	0x3d9df518	0.077127635
40	0x3d2c1a70	0.0420174
41	0x395d99cc	0.00021133496
42	0xbb8ce264	-0.004299449
43	0xbd3943f2	-0.045230813
44	0xbe13d42a	-0.14436403
45	0xbc911e41	-0.017714621
46	0x3d4c1adc	0.049830303
47	0x3cc8dca1	0.024519267
48	0xbd013a81	-0.031549934
49	0xbcef6fe8	-0.029228166
50	0x3d5eabb5	0.05436297
51	0x3d1b93b2	0.03798265
52	0xbcfc16cf	-0.030772595
53	0x3dfff6c5	0.124982394
54	0xbd252dbd	-0.040326823
55	0xbd9245cc	-0.07142219
56	0xbc3b03a9	-0.011414447
57	0xbc7f7d1e	-0.015593795
58	0xbc5bb305	-0.013409381
59	0xbd9745da	-0.0738637
60	0x3be1d553	0.0068918853
61	0xbd505ffd	-0.05087279
62	0xbdc3337b	-0.095313035
63	0x3d5ef11a	0.05442915
64	0xbd2de265	-0.042452235
65	0xbdf624d0	-0.1201874
66	0x3c8da945	0.017292628
67	0x3b89476e	0.0041894233
68	0xbd8b8a72	-0.06813516
69	0xbd146097	-0.036224928
70	0xbd5fe3fb	-0.05466078
71	0x3c8f7dfc	0.017516129
72	0x3c1ce539	0.009576135
73	0xbd6cd9a4	-0.057824746
74	0xbc800206	-0.015625965
75	0xbd0aa8b1	-0.033852283
76	0xbd8ba0c8	-0.06817776
77	0x3d16157a	0.036641575
78	0xbc968235	-0.018372634
79	0xbd346e88	-0.044050723
80	0xbd69d91c	-0.057091817
81	0xbdaff63b	-0.085918866
82	0xbc6c9817	-0.014440558
83	0xbc0e09bd	-0.008669314
84	0x3d9eab27	0.077474885
85	0x3cc258d4	0.023723997
86	0x3d238eed	0.039931227
87	0xbcadf2f0	-0.021234006
88	0xbd2e73e2	-0.042590983
89	0x3cf6337c	0.030053847
90	0xbde5ad68	-0.11214715
91	0xbdc5b6bf	-0.09653997
92	0xbdb6f0bc	-0.08932635
93	0xbe04ead0	-0.12980199
94	0xbc7f84a3	-0.015595588
95	0xbe11935a	-0.14216366
96	0x3c5d9b41	0.013525785
97	0xbc518316	-0.012787601
98	0xba9f926c	-0.0012174374
99	0x3da2c7fd	0.07948301
100	0x3bd92e26	0.006627816
101	0xbd17ac22	-0.037029393
102	0xbb79ccc3	-0.0038116432
103	0xbd658655	-0.056036312
104	0xbcba5597	-0.02274589
105	0x3dac8b66	0.08425026
106	0xbd79784d	-0.060905743
107	0xbdf1bedc	-0.11803982
108	0x3ca5ff34	0.020263292
109	0x3c818481	0.015810253
110	0xbdce87da	-0.100845054
111	0x3c8d9d5c	0.017286949
112	0xbd8d25cb	-0.06891974
113	0x3d7f2a8c	0.062296435
114	0xbdda7ea2	-0.106686845
115	0xbe04a679	-0.1295413
116	0xbe10ab83	-0.14127927
117	0x3da85c87	0.08220773
118	0x3cfced9f	0.030875025
119	0x3da501a2	0.08056952
120	0xbc7407ed	-0.014894468
121	0xbc650b14	-0.013979692
122	0x3d93f2c7	0.072240405
123	0x3d32f825	0.04369368
124	0x3cd4554f	0.025919585
125	0x3d54140f	0.051776942
126	0xbcff0abc	-0.031133048
127	0xbd7c6c90	-0.06162697
128	0xbd9c3dc3	-0.076289676
129	0x3db37235	0.08762018
130	0x3cf4803e	0.029846307
131	0x3d962cfd	0.073327996
132	0x3c21652d	0.009850782
133	0xbc98a0de	-0.018631395
134	0x3dd89f95	0.10577313
135	0xbd4c6e49	-0.049909864
136	0xbd114f93	-0.03547628
137	0xbdef542e	-0.11685978
138	0x3d7819dd	0.06057154
139	0xbd70e184	-0.05880882
140	0x3d8ec094	0.06970325
141	0xbcf6e420	-0.030138075
142	0x3d5515dc	0.0520228
143	0xbda4b811	-0.080429204
144	0xbca0ac45	-0.019613395
145	0x3cc9f8b7	0.02465473
146	0x3bc83877	0.0061102468
147	0x3ccd7467	0.025079919
148	0x3ceb238f	0.02870348
149	0x3bd9f8bc	0.006651966
150	0x3dd709a7	0.10499888
151	0xbc0aa3f7	-0.008461944
152	0xbd2427c0	-0.04007697
153	0x371d5300	9.377254e-06
154	0x3d6b726b	0.057482164
155	0xbd03d1ed	-0.032182623
156	0x3be90d28	0.007112164
157	0x3d3349ca	0.043771543
158	0xbd20705f	-0.039169665
159	0x3d13177e	0.035911076
160	0xbdc9757f	-0.09836864
161	0xbcb2eef2	-0.021842454
162	0x3c8ef693	0.01745156
163	0x3d7cc7b9	0.061713908
164	0xbd28544c	-0.041096017
165	0xbd737a7e	-0.05944299
166	0xbce03f8b	-0.02737405
167	0xbe0497bc	-0.12948507
168	0xbcfde1fb	-0.030991545
169	0xbd0bc668	-0.03412476
170	0x3cfa4ac7	0.030553235
171	0xbdafe546	-0.08588652
172	0xbcec1f75	-0.028823594
173	0xbd440a9a	-0.047861673
174	0xbc63990a	-0.013891468
175	0x3d6dd496	0.058064066
176	0x3c783fdf	0.015151947
177	0xbde15b94	-0.11003795
178	0xbda6f104	-0.08151439
179	0xbcb10453	-0.021608507
180	0xbd148f2c	-0.03626935
181	0xbc6d6c19	-0.0144911045
182	0xbd605025	-0.05476393
183	0x3db861dd	0.09003041
184	0xbc0453a4	-0.008076582
185	0xbd584ac4	-0.052805677
186	0xbda960c6	-0.08270411
187	0xbd8c6825	-0.068558015
188	0xbdb48843	-0.08815052
189	0x39f2e2d8	0.0004632685
190	0x3c67b931	0.014143274
191	0xbc4f1110	-0.012638345
192	0x3c561a22	0.013067754
193	0xbc0df71c	-0.0086648725
194	0x3cceeedc	0.025260381
195	0x3db19935	0.086718
196	0xbd72a828	-0.059242398
197	0xbd9eaca8	-0.07747775
198	0x3b34203a	0.002748503
199	0xbdaa25d2	-0.08307995
200	0xbc377522	-0.01119736
201	0x3cd47504	0.025934704
202	0x3d0939ce	0.033502392
203	0xbdc9bdf9	-0.098506875
204	0xbdb96173	-0.0905179
205	0xbd60918c	-0.054826304
206	0xbd841323	-0.064489625
207	0xbd838e03	-0.06423571
208	0x3d9aa7e8	0.07551557
209	0x3d2e4482	0.042545803
210	0x3c4e8d39	0.012606912
211	0xb953b86e	-0.00020191233
212	0xbd2c537e	-0.04207181
213	0xbde1569e	-0.11002849
214	0xbde62041	-0.11236621
215	0xbd2a725c	-0.041612968
216	0x3d9d2b91	0.07674325
217	0xbca2f7cd	-0.019893551
218	0xbb31c231	-0.0027123804
219	0xbd222e5c	-0.039594993
220	0xbd9682e3	-0.073491834
221	0xbc0174c1	-0.007901371
222	0xbd3f18a1	-0.046654347
223	0x3cea12f8	0.028573498
224	0x3b13a9d4	0.0022531645
225	0xbd1ddfcc	-0.038543507
226	0xbc0aae31	-0.008464382
227	0xb98bb011	-0.00026643326
228	0x3d191c42	0.037380464
229	0x3d52dfac	0.05148284
230	0xbd4839ae	-0.048883133
231	0xbe05cf72	-0.13067415
232	0xbdba9306	-0.09110074
233	0xbc69fccd	-0.014281464
234	0xbd856071	-0.06512535
235	0xbe0e67d7	-0.139068
236	0xbc578d5d	-0.013156262
237	0xbdafd185	-0.085848846
238	0xbc55bfd7	-0.013046226
239	0x3d9712d0	0.07376635
240	0xbd8415e1	-0.064494856
241	0xbcb8aa78	-0.022542223
242	0xbd791ca4	-0.06081833
243	0xbd6df7af	-0.058097538
244	0xbd9535fb	-0.072856866
245	0x3d19c53a	0.037541606
246	0xbacad817	-0.0015475777
247	0x3d12d664	0.03584899
248	0x3d4373c9	0.047717843
249	0x3c9e728d	0.019341731
250	0xbcf4d4f0	-0.029886693
251	0x3d181400	0.03712845
252	0x3ddcedcb	0.10787543
253	0x3d62896c	0.055306837
254	0xbc7787c2	-0.015108051
255	0xbb326f58	-0.002722701

block1.conv1.bias f4 [64]
0	0xbd15a09e	-0.03653013
1	0x3c1dcf6a	0.009631971
2	0x3d53269c	0.051550493
3	0xbd0a786c	-0.03380625
4	0x3c9b258d	0.018938804
5	0xbd346789	-0.04404405
6	0x3e1229bf	0.14273737
7	0x3df7c8e3	0.12098863
8	0xbc0a83dd	-0.00845429
9	0x3d1b06d0	0.037848294
10	0xbca09aed	-0.019605124
11	0xbd38d9b2	-0.045129485
12	0xbc65f65f	-0.01403579
13	0x3c4b1e09	0.012397298
14	0x3d759335	0.05995484
15	0x3ddef6e6	0.10886936
16	0x3db677aa	0.08909543
17	0x3d9bb424	0.076027185
18	0x3dcef5df	0.1010549
19	0x3cc4769c	0.023982339
20	0x3c990653	0.018679773
21	0xbd3c37ca	-0.045951642
22	0xbbe3049e	-0.0069280406
23	0x3d9ba86c	0.07600483
24	0x3daa9cf9	0.083307214
25	0xbcdae72b	-0.026721558
26	0x3c64979d	0.013952163
27	0xbd8ce85e	-0.06880258
28	0xbd865784	-0.06559661
29	0x3c9806bd	0.0185579
30	0x3cf3c75b	0.029758146
31	0xbc6c82f3	-0.014435518
32	0x3c8cf31c	0.017205767
33	0xbbd63bd7	-0.006537895
34	0x3d207bfb	0.039180737
35	0xbd5ec0ce	-0.05438309
36	0x3da17b08	0.078847945
37	0x3d6b8832	0.057502933
38	0xbd2d3a10	-0.0422917
39	0xbd378414	-0.044803694
40	0x3d835e96	0.06414525
41	0xbc5da0cb	-0.013527106
42	0xbd96eecd	-0.073697664
43	0x3c974cd4	0.018469252
44	0x3d978829	0.07399017
45	0xbc156596	-0.009118458
46	0x3be7d40e	0.0070748394
47	0xbc1260fb	-0.008934255
48	0x3ce1cd76	0.027563792
49	0xbd2c0ad0	-0.0420025
50	0xbd19512d	-0.03743093
51	0x3da6bd3d	0.08141563
52	0xbc3613d5	-0.011113127
53	0xbc7e6932	-0.01552801
54	0xbe09a856	-0.13443121
55	0x3ca9b562	0.020716373
56	0x3d00fa01	0.031488422
57	0x3aca92d3	0.0015455134
58	0xbcd5b41b	-0.026086858
59	0x3d5590ca	0.052140035
60	0x3d624545	0.05524184
61	0xbd90d1ca	-0.07071264
62	0x3cbdca03	0.023167616
63	0xbd8d832a	-0.06909783

block1.bn1.weight f4 [64]
0	0x3f85f687	1.0465859
1	0x3f77439a	0.96587527
2	0x3f74c830	0.9561796
3	0x3f84e48c	1.0382247
4	0x3f802715	1.0011927
5	0x3f818edb	1.0121721
6	0x3f8181a7	1.0117692
7	0x3f7cbf18	0.98729086
8	0x3f830edc	1.023891
9	0x3f77feab	0.9687297
10	0x3f8aea71	1.0852796
11	0x3f7dd5de	0.9915446
12	0x3f6d34af	0.92658514
13	0x3f83309c	1.024921
14	0x3f8591b7	1.0435094
15	0x3f74e752	0.95665467
16	0x3f71c508	0.9444127
17	0x3f877c05	1.0584723
18	0x3f80457c	1.0021205
19	0x3f827b53	1.0193886
20	0x3f7ee759	0.9957176
21	0x3f8031e3	1.0015224
22	0x3f7bf2f9	0.9841762
23	0x3f691c53	0.91058844
24	0x3f824cd5	1.0179697
25	0x3f81399d	1.0095707
26	0x3f80961c	1.004581
27	0x3f745f74	0.9545815
28	0x3f81607f	1.0107573
29	0x3f796475	0.9741891
30	0x3f844f9f	1.0336798
31	0x3f747c1d	0.9550188
32	0x3f866442	1.0499346
33	0x3f885665	1.0651366
34	0x3f83283f	1.0246657
35	0x3f81f202	1.015198
36	0x3f77d4c7	0.9680905
37	0x3f818653	1.0119117
38	0x3f831332	1.0240233
39	0x3f66dfa5	0.90185004
40	0x3f891486	1.0709388
41	0x3f8303e6	1.0235565
42	0x3f7f1ab2	0.9965011
43	0x3f6e1e31	0.9301482
44	0x3f81dcb4	1.0145478
45	0x3f7f5e9f	0.99753755
46	0x3f7d4dd4	0.9894688
47	0x3f80c8c1	1.0061265
48	0x3f83419d	1.0254399
49	0x3f784872	0.9698554
50	0x3f70969c	0.9397981
51	0x3f833898	1.0251646
52	0x3f790364	0.972708
53	0x3f87fd30	1.0624142
54	0x3f80ecd8	1.0072279
55	0x3f83357d	1.0250698
56	0x3f6af028	0.917727
57	0x3f776d49	0.9665113
58	0x3f787b5f	0.9706325
59	0x3f74102b	0.9533717
60	0x3f858d15	1.043368
61	0x3f848b7b	1.0355066
62	0x3f79e395	0.9761289
63	0x3f6d32cd	0.9265564

block1.bn1.bias f4 [64]
0	0xbd18471e	-0.037177198
1	0xbaf1c0d4	-0.0018444308
2	0xbd84d34e	-0.06485616
3	0x3c0c98c1	0.008581341
4	0xbd5bdeff	-0.053679463
5	0xbd822e5f	-0.06356501
6	0xbc55e754	-0.013055641
7	0xbd3955fc	-0.045248017
8	0xbd8427ad	-0.0645288
9	0xbcf29f88	-0.029617086
10	0xbca9b979	-0.020718323
11	0xbdc5222f	-0.09625661
12	0xbd5f79ea	-0.054559626
13	0xbcd8acd0	-0.02644959
14	0xba74f08a	-0.00093437044
15	0xbd9169ad	-0.07100234
16	0xbdab07be	-0.08351086
17	0xbb356d5f	-0.0027683598
18	0xbc340d30	-0.010989472
19	0xbd4113cb	-0.047138017
20	0xbd860ea2	-0.0654576
21	0x3d1dcb23	0.038523804
22	0xbc974205	-0.018464098
23	0xbd3cf1b9	-0.046128962
24	0xbd08f1e8	-0.033433825
25	0xbcfe59d3	-0.03104869
26	0xbc138661	-0.009004206
27	0xbd1c99e0	-0.038232684
28	0xbd1d56f4	-0.038413003
29	0xbd204130	-0.039124668
30	0xbbd5b708	-0.006522063
31	0xbd5c475f	-0.053779002
32	0xbd09c38c	-0.033633754
33	0xbc9292d3	-0.017892277
34	0xbc507266	-0.012722587
35	0xbd621722	-0.055197842
36	0xbd715d99	-0.058927152
37	0x3d249457	0.04018053
38	0x3d1a64c2	0.037693746
39	0xbdd9c375	-0.106329836
40	0x3d05ad7c	0.03263615
41	0xbd0ecd6e	-0.03486388
42	0x3bc484e9	0.0059972894
43	0xbd5561bd	-0.052095164
44	0xbc859724	-0.016307421
45	0xbc9b68d3	-0.018970883
46	0xbd06d71b	-0.032919984
47	0x3d27ffe2	0.041015513
48	0xbb54eaa9	-0.0032488501
49	0xbd577b2e	-0.052607708
50	0xbce0e862	-0.027454559
51	0xbccb5021	-0.024818482
52	0xbd8515e2	-0.064983144
53	0x3bf1f366	0.0073837517
54	0xbd61ce44	-0.05512835
55	0xbd83e4a4	-0.06440094
56	0xbe0bd473	-0.13655262
57	0xbd08bafb	-0.033381443
58	0xbd3af11c	-0.045640096
59	0xbd3d04f1	-0.04614729
60	0xbd2c3090	-0.0420385
61	0xbb6ad215	-0.0035830785
62	0xbcaf65fc	-0.021410935
63	0xbd51d086	-0.051224254

block1.bn1.running_mean f4 [64]
0	0xbf6c0f4f	-0.9221086
1	0xbf0f3b0f	-0.5594949
2	0xbea9013e	-0.3300876
3	0xbefa9369	-0.4894059
4	0xbef566a6	-0.47929877
5	0xbf343af9	-0.70402485
6	0xbf0081a1	-0.501978
7	0xbb6aa73f	-0.0035805253
8	0xbf2f04f2	-0.6836692
9	0xbf03739d	-0.51348287
10	0xbd0ac352	-0.03387768
11	0xbedb8836	-0.42877358
12	0x3f796eab	0.9743449
13	0xbf3870ed	-0.7204731
14	0xbedb4cba	-0.42831975
15	0x3f04f9b8	0.5194354
16	0x3e2106ef	0.15725301
17	0xbe8e50c3	-0.2779599
18	0xbe93f94f	-0.28901145
19	0xbd1f3b3f	-0.03887486
20	0x3ea422a3	0.32057676
21	0xbf56cd1a	-0.8390671
22	0x3d8159be	0.06315945
23	0xbe0e4b4a	-0.13895908
24	0xbec71f81	-0.38891223
25	0xbf1bef81	-0.6091233
26	0xbf0bb97e	-0.54579914
27	0x3f3fa6b1	0.74863726
28	0x3e50c033	0.20385818
29	0x3f083ee8	0.5322099
30	0xbedf1512	-0.43570763
31	0xbf35f5a3	-0.71077937
32	0xbf2a80a4	-0.6660254
33	0xbeaaad98	-0.33335567
34	0xbf4ba829	-0.7955347
35	0xbed1f7a8	-0.4100926
36	0xbdb69de1	-0.08916832
37	0xbf812b84	-1.0091405
38	0x3eb1b822	0.34710795
39	0x3eaa4290	0.33253908
40	0xbeaaf371	-0.33388856
41	0xbe22e6dc	-0.15908378
42	0xbec8ef84	-0.39245236
43	0x3f634c49	0.88788277
44	0xbdf4fdc8	-0.119624674
45	0xbea9a3a1	-0.3313265
46	0x3df9ac4f	0.121910684
47	0xbf42b93b	-0.7606389
48	0xbf34496a	-0.7042452
49	0x3f11c008	0.5693364
50	0x3f0b79ce	0.54482734
51	0x3ea2a1c6	0.31764048
52	0xbe25f65e	-0.16207263
53	0xbef03a44	-0.46919453
54	0xbed03497	-0.40665123
55	0x3dccb1c6	0.09994845
56	0x3dbfc8a6	0.093644425
57	0xbec68b3f	-0.3877811
58	0x3d96b679	0.07359023
59	0xbe37165a	-0.1787962
60	0x3f06b73a	0.5262333
61	0xbf297d05	-0.6620639
62	0x3e4b690e	0.19864294
63	0x3edb8fa7	0.42883036

block1.bn1.running_var f4 [64]
0	0x3fe49dc1	1.7860643
1	0x3f55334f	0.83281416
2	0x3f940227	1.1563157
3	0x3f6ab46c	0.9168155
4	0x3ef33ce2	0.47507387
5	0x3f5a8430	0.8535795
6	0x4050eacd	3.264331
7	0x3f8e1b32	1.1102049
8	0x3f292d2a	0.6608454
9	0x3f7d0fa6	0.98852
10	0x3e4558ba	0.19272128
11	0x3f95e57e	1.171066
12	0x3f5f93bc	0.873348
13	0x3fe6935a	1.8013718
14	0x3f94e37e	1.1631925
15	0x3f874509	1.0567943
16	0x3ed6bcca	0.4194091
17	0x3f6ac2f9	0.91703755
18	0x3ebf5d1e	0.3737573
19	0x3eee9e75	0.46605268
20	0x3ee125fc	0.43974292
21	0x3f894638	1.0724554
22	0x3ea0fad4	0.31441367
23	0x3f480889	0.78138024
24	0x3f522f35	0.8210328
25	0x3f9f32c8	1.2437372
26	0x3faaa43f	1.3331374
27	0x3f7aad48	0.97920656
28	0x3f8352be	1.0259626
29	0x3f6d99d1	0.9281283
30	0x3f667db3	0.9003555
31	0x3f70c6ab	0.94053143
32	0x3f5e754e	0.8689774
33	0x3f56ca86	0.83902776
34	0x3fc1d5d9	1.5143386
35	0x3ebf0d8a	0.37315017
36	0x3efa1c0e	0.4884953
37	0x3f763b48	0.96184206
38	0x3f0b8ce3	0.5451185
39	0x3f654a8c	0.89566875
40	0x3f705554	0.938802
41	0x3f086060	0.53272057
42	0x3f4c2803	0.79748553
43	0x3f848bc4	1.0355153
44	0x3ef60bf8	0.48056006
45	0x3f2d6f03	0.67747515
46	0x3f3942eb	0.72367734
47	0x3f69bc8a	0.9130331
48	0x3facaf8a	1.349107
49	0x3f8e8bd0	1.1136417
50	0x3f514619	0.81747586
51	0x3f0b5fd6	0.5444311
52	0x3f10bf65	0.56542045
53	0x3f21f006	0.6325687
54	0x3eef4dd1	0.46739057
55	0x3f1f2a7b	0.62174195
56	0x3f35a5bb	0.7095601
57	0x3ed4848e	0.4150738
58	0x3f290ad0	0.66032124
59	0x3fafbc21	1.3729287
60	0x3f560441	0.8360024
61	0x3f42b2c2	0.7605401
62	0x3f82bb64	1.0213437
63	0x3fec541e	1.846317

block1.conv2.weight f4 [64, 64, 3]
0	0xbca48678	-0.020083651
1	0xbc9584c3	-0.018251782
2	0x3cc904e0	0.024538457
3	0xbcab04be	-0.020876285
4	0x3b80484f	0.00391487
5	0x3d617b46	0.055049203
6	0x3d29e0f7	0.04147431
7	0xbb65b278	-0.0035049003
8	0xbd39bf00	-0.045348167
9	0xbd1e1544	-0.0385945
10	0xbc0f8858	-0.008760534
11	0xbd149be9	-0.0362815
12	0x3da80586	0.082041785
13	0x3d3d459c	0.046208963
14	0xbbed10dc	-0.007234676
15	0xbd53b20f	-0.05168348
16	0x3b5bda6b	0.0033546935
17	0xbd797e33	-0.06091137
18	0xbd25387a	-0.040337063
19	0xbc46959f	-0.012120633
20	0xbcbf99cc	-0.023388766
21	0xbd45ef17	-0.048323717
22	0x3c7ef0ad	0.015560311
23	0x3dbb6902	0.09150888
24	0x3e1653ef	0.14680456
25	0x3dd6105e	0.104523405
26	0x3d5d84d8	0.054081768
27	0xbd975aac	-0.07390341
28	0x3c675933	0.014120388
29	0xbd5c022f	-0.05371302
30	0xbda1f2e6	-0.07907657
31	0xbc8a7901	-0.016903402
32	0x3cfa295e	0.030537304
33	0xbd950420	-0.072761774
34	0xbd6db161	-0.05803049
35	0x3cfe1c68	0.031019405
36	0x3d3fa416	0.046787344
37	0x3cb1a423	0.021684712
38	0x3d8abc3e	0.067741856
39	0xbda96aac	-0.08272299
40	0x3d7f4e8f	0.06233078
41	0x3cc5ef27	0.024161888
42	0xbdd04f04	-0.10171321
43	0xbd11e36d	-0.03561728
44	0x3c0a094a	0.008425066
45	0x3d34df07	0.044158008
46	0x3ca7d01e	0.02048498
47	0xbd9000be	-0.070313916
48	0xbd6a2f5d	-0.057174075
49	0xbc3b5b22	-0.011435302
50	0xbd4cf08f	-0.050034102
51	0x3cdc1a05	0.026867876
52	0x3d41504b	0.047195714
53	0x3d773e2a	0.06036202
54	0x3d2919c6	0.041284345
55	0xbc470a59	-0.012148463
56	0x3c3e58d6	0.01161786
57	0x3c85dd25	0.016340801
58	0x3bf230f1	0.007391088
59	0xbc975a5d	-0.018475706
60	0xbd0be1df	-0.034150954
61	0xbd7756f8	-0.060385674
62	0x3d7cddb9	0.06173489
63	0xbd89cbca	-0.06728323
64	0x3d73f016	0.059555136
65	0xbd1969fd	-0.037454594
66	0x3ac8e425	0.0015326781
67	0x3d1a74c0	0.037708998
68	0xbc13cde7	-0.009021259
69	0xbd800f4a	-0.06252916
70	0x3cec6d7f	0.028860806
71	0x3d8596ef	0.06522929
72	0xbd44b8b4	-0.04802771
73	0xbdbd4ca6	-0.09243135
74	0xbd175537	-0.0369465
75	0x3d866926	0.06563024
76	0x3d24bf3c	0.040221438
77	0x3da712fa	0.08157916
78	0x3d279a9a	0.040918924
79	0x3d90896b	0.070574604
80	0x3d016957	0.0315946
81	0xbd8e5bf4	-0.069511324
82	0xbcb7ccaa	-0.022436459
83	0x3d8e4241	0.06946231
84	0xbd9c030b	-0.07617768
85	0xbcdbec80	-0.02684617
86	0x3d17a681	0.037024025
87	0xbdb18918	-0.08668727
88	0xbdac79f7	-0.084217004
89	0x3d3f5447	0.046711233
90	0x3d0991be	0.033586256
91	0xbd243587	-0.04009011
92	0x3cd6afb6	0.026206832
93	0xbca9f67a	-0.020747412
94	0xbc66a7a3	-0.014078054
95	0x3c384b22	0.011248382
96	0xbc30a8fd	-0.010782477
97	0x3c5eaaa9	0.013590493
98	0xbdf7150d	-0.12064562
99	0xbe122b5e	-0.14274356
100	0xbd6e57a6	-0.058189057
101	0xbd5b0545	-0.053471822
102	0xbdc3ba5c	-0.095570296
103	0xbcd846ff	-0.026401041
104	0xbd0a649d	-0.03378736
105	0x3da93dee	0.08263765
106	0x3d129b12	0.035792418
107	0xbc2b1598	-0.01044216
108	0x3cb38d9e	0.021918114
109	0xbca69079	-0.020332562
110	0xbc01212a	-0.007881442
111	0x3db1b094	0.08676258
112	0x3cd9a80c	0.026569389
113	0xbc0c73b9	-0.008572512
114	0xbdc9d730	-0.09855497
115	0x3c85b3d0	0.016321093
116	0x390dda9a	0.00013528243
117	0x3c76d60e	0.015065683
118	0x3b68457d	0.003544181
119	0xbc92f7a7	-0.017940355
120	0xbdd45030	-0.10366857
121	0x39ea0180	0.00044633076
122	0xbd4746da	-0.048651554
123	0x3dbdaad1	0.09261096
124	0x3c204fee	0.009784682
125	0x3d904f19	0.07046337
126	0xbd8265b3	-0.06367054
127	0x3b933289	0.0044921082
128	0x3d1d8a04	0.0384617
129	0xbc35c7e5	-0.011095022
130	0xbdb30939	-0.087419935
131	0x3c70fa53	0.014708119
132	0x3bab342a	0.0052247243
133	0xbd041c82	-0.03225375
134	0xbd9685eb	-0.073497616
135	0xbc92bf7c	-0.017913572
136	0x3d5be52d	0.053685356
137	0x3c39a37b	0.011330481
138	0xbdd7e961	-0.1054256
139	0x3cab3381	0.020898582
140	0xbcff9d50	-0.031202942
141	0xbc2cce32	-0.010547208
142	0x3c8b25bd	0.016985768
143	0xbd2515b6	-0.04030391
144	0xbc8fc35f	-0.017549215
145	0x3ddc6a06	0.1076241
146	0x3d304125	0.043030877
147	0xbd9f205a	-0.077698424
148	0x3d23db74	0.04000421
149	0xbd0cc5ec	-0.03436844
150	0x3dacd084	0.08438209
151	0xbd1a0e1e	-0.03761112
152	0x3d34c60e	0.044134192
153	0xbd72b599	-0.059255216
154	0xbd9688a7	-0.07350283
155	0xbd92635a	-0.07147856
156	0x3cf3c260	0.029755771
157	0x3cfd3bf6	0.03091238
158	0x3ccecf2d	0.025245273
159	0xbd9bbb63	-0.076041006
160	0xbd1a0e24	-0.03761114
161	0xbd8a11b9	-0.067416616
162	0x3bffb416	0.0078034503
163	0xbda6e7f5	-0.08149711
164	0xbd1e01b6	-0.03857585
165	0xbdc42d9e	-0.09579013
166	0x3c417b9b	0.011809255
167	0x3d58f712	0.05297
168	0xbc29486e	-0.01033221
169	0xbc979862	-0.018505279
170	0x3d63c9c8	0.055612355
171	0xbc7d4fac	-0.01546089
172	0xbd22f01d	-0.03977977
173	0xbcfc6802	-0.030811314
174	0xbd350843	-0.044197332
175	0xbd318063	-0.04333533
176	0x3d75c422	0.0600015
177	0x3ca0e097	0.019638343
178	0xbc108550	-0.008820847
179	0x3d892a96	0.06697576
180	0xbe0039fb	-0.12522118
181	0xbdea6eb4	-0.11446896
182	0xbcff3f18	-0.031158015
183	0xbc12145d	-0.008915988
184	0xbcbf362a	-0.023341257
185	0xbdac98f8	-0.08427614
186	0xbd59d44b	-0.053180974
187	0xbdaf065a	-0.08546133
188	0xbc6dfe9a	-0.014526034
189	0xbcd411f1	-0.025887461
190	0x3d8d0b79	0.06886954
191	0xbd2bc67d	-0.04193734
192	0xbd8848b9	-0.06654496
193	0x3d8b0d4e	0.06789647
194	0x3d0bda39	0.03414366
195	0xbc407e82	-0.011748912
196	0x3d2ccffe	0.042190544
197	0xbbf13a2d	-0.0073616714
198	0xbd834618	-0.06409854
199	0xbdaebb07	-0.085317664
200	0x3d800629	0.06251175
201	0x3b626a8f	0.0034548377
202	0x3d3e802c	0.046508953
203	0xb9e37fbf	-0.00043391992
204	0x3d4d06ba	0.050055243
205	0x3d72e674	0.05930181
206	0xbd3f312b	-0.04667775
207	0x3c069245	0.008213584
208	0xbd77afed	-0.06047051
209	0x3c8ba357	0.01704566
210	0x3db026a5	0.08601121
211	0xbc8b5a49	-0.017010825
212	0x3d651fdc	0.055938587
213	0x3d367924	0.044549122
214	0x3d09ae17	0.03361329
215	0xbc64e9b6	-0.013971737
216	0xbcadddae	-0.02122387
217	0xbd81da36	-0.063404486
218	0x3d9b9fc3	0.075988315
219	0xbd2afd62	-0.04174555
220	0xbb512001	-0.0031909945
221	0x3d29b0c2	0.041428335
222	0xbdc798ba	-0.09745927
223	0xbd748f81	-0.05970717
224	0xbd0eb815	-0.034843523
225	0xbcad77ea	-0.021175344
226	0x3d180158	0.037110656
227	0xbd119a38	-0.035547465
228	0xbccb61ea	-0.024826963
229	0xb9dbc0c7	-0.00041914565
230	0xbd550e9b	-0.052015882
231	0x3d84faf6	0.064931795
232	0xbcf9c54f	-0.030489592
233	0x3da3a07e	0.07989596
234	0xb7f1517c	-2.8767383e-05
235	0xbd278e77	-0.04090735
236	0xbcfc26a6	-0.030780148
237	0x3dac8e2b	0.08425554
238	0x3d0a4e58	0.03376612
239	0xbca1b72c	-0.019740663
240	0x3d472f42	0.048629053
241	0x3c0b3786	0.008497125
242	0xbc789b2a	-0.015173713
243	0xbdd7f876	-0.10545437
244	0xbcb3a19c	-0.021927647
245	0xbd80bab8	-0.06285614
246	0x3c251d89	0.0100778425
247	0x3d13b966	0.03606548
248	0x3d0ae6ae	0.0339114
249	0x3d395053	0.04524262
250	0x3cad160b	0.021128675
251	0x3cee85d4	0.029116549
252	0x3d1378bb	0.03600381
253	0xbd72d23a	-0.05928252
254	0xbc8c8dcf	-0.017157463
255	0xbd81c42b	-0.06336244

block1.conv2.bias f4 [64]
0	0x3d76eb59	0.06028304
1	0x3c6c9c6b	0.01444159
2	0xbcd13bff	-0.025541304
3	0xbc2f2788	-0.010690577
4	0x3d57b405	0.052661914
5	0xbd7bbbd5	-0.061458427
6	0x3d974d2d	0.07387767
7	0xbd7427ca	-0.05960826
8	0xbb5052e6	-0.0031787693
9	0xbd04f972	-0.032464452
10	0xbbec224e	-0.007206238
11	0xbcaa7348	-0.020806924
12	0x3d6ee37d	0.05832242
13	0xbca1dbf1	-0.019758197
14	0x3d92a0b0	0.07159555
15	0xbc62cbcd	-0.013842535
16	0x3c298319	0.0103461975
17	0x3ca97e08	0.02068998
18	0xbb3d50b8	-0.0028887223
19	0x3d9f2fa5	0.07772759
20	0x3d164392	0.036685534
21	0x3d5d4546	0.054021142
22	0x3d86a6cc	0.06574783
23	0x3c0ce7e7	0.008600212
24	0xbd9409e0	-0.07228446
25	0x3cc763bf	0.024339555
26	0xbd5ca626	-0.05386939
27	0xbcca38b8	-0.024685249
28	0x3d0ed1a0	0.034867883
29	0x3cfa39da	0.030545164
30	0xbc7392ba	-0.014866525
31	0x3cf9e225	0.030503342
32	0xbc9e27fd	-0.019306177
33	0xbd954e47	-0.07290321
34	0x3c74d626	0.014943635
35	0xbd5fc79a	-0.054633714
36	0xbd55776f	-0.052115854
37	0x3d1501b2	0.03637857
38	0x3dadc9b7	0.0848574
39	0x39ddc4ab	0.00042298934
40	0xbcfbb4fa	-0.030725945
41	0xbb429c5e	-0.0029695253
42	0x3d930b26	0.07179861
43	0xbd408ea2	-0.047011025
44	0x3d42e761	0.04758394
45	0xbda81e86	-0.08208947
46	0xbd89edd9	-0.06734819
47	0xbb797c41	-0.0038068446
48	0x3d838ad1	0.064229615
49	0x3d080015	0.033203203
50	0xbe128107	-0.14307033
51	0x3d9b9ec3	0.07598641
52	0x3d82d752	0.06388725
53	0xba598832	-0.0008298188
54	0xbc855579	-0.016276108
55	0xbd49f6b0	-0.049307525
56	0xbcd2e5a5	-0.025744269
57	0xbbde8590	-0.0067908242
58	0xbd61b624	-0.055105343
59	0xbb8a6df6	-0.004224534
60	0xbd20de86	-0.039274715
61	0x3c463f4a	0.01210005
62	0xbd618485	-0.05505802
63	0xbb0c90ea	-0.002144868

block1.bn2.weight f4 [64]
0	0x3f863ace	1.0486696
1	0x3f879c25	1.0594527
2	0x3f70bd8d	0.9403923
3	0x3f73e90e	0.9527749
4	0x3f849956	1.0359294
5	0x3f848569	1.0353214
6	0x3f81a8da	1.0129654
7	0x3f81d675	1.0143572
8	0x3f85df7e	1.0458829
9	0x3f81050e	1.0079668
10	0x3f805ee7	1.0028962
11	0x3f80b2b3	1.0054535
12	0x3f7be32d	0.9839352
13	0x3f7f369b	0.99692696
14	0x3f80365e	1.0016592
15	0x3f7f7904	0.9979403
16	0x3f8023a4	1.0010877
17	0x3f87a789	1.0598003
18	0x3f81761f	1.0114173
19	0x3f89d273	1.0767349
20	0x3f81ba6e	1.0135019
21	0x3f7cef8b	0.98803014
22	0x3f80c352	1.0059607
23	0x3f8813a9	1.0631
24	0x3f802aac	1.0013022
25	0x3f84260b	1.032411
26	0x3f81ce55	1.0141093
27	0x3f7f40b2	0.9970809
28	0x3f7443a7	0.9541573
29	0x3f7b0070	0.9804754
30	0x3f82ba49	1.02131
31	0x3f6468e3	0.89222544
32	0x3f8356fa	1.0260918
33	0x3f82afe9	1.0209934
34	0x3f812456	1.0089214
35	0x3f76af8b	0.9636161
36	0x3f840d09	1.0316478
37	0x3f82aaaf	1.0208338
38	0x3f79a515	0.9751752
39	0x3f823c2b	1.0174612
40	0x3f70c3ff	0.94049066
41	0x3f83db9a	1.0301392
42	0x3f8c9dd7	1.0985669
43	0x3f837e40	1.0272903
44	0x3f81d427	1.0142869
45	0x3f856f0d	1.0424515
46	0x3f82b6dc	1.0212054
47	0x3f873625	1.0563399
48	0x3f75fdd3	0.9609043
49	0x3f842757	1.0324506
50	0x3f8557a2	1.0417368
51	0x3f753851	0.95789057
52	0x3f88977f	1.0671233
53	0x3f8466e4	1.03439
54	0x3f8509d2	1.0393622
55	0x3f86a250	1.0518284
56	0x3f84fd33	1.038977
57	0x3f82c61e	1.021671
58	0x3f7e3732	0.9930297
59	0x3f8291a2	1.0200694
60	0x3f8962f6	1.0733325
61	0x3f86951f	1.0514258
62	0x3f845309	1.033784
63	0x3f823485	1.0172278

block1.bn2.bias f4 [64]
0	0xbd6f962e	-0.058492832
1	0x3d0bd1d3	0.03413565
2	0xbd3dad5f	-0.046307918
3	0xbd7d829f	-0.061892148
4	0x3c513858	0.012769781
5	0x3cb704f7	0.022341235
6	0xbd617d4c	-0.055051133
7	0xbd5cd9e3	-0.05391873
8	0x3d025477	0.031818833
9	0xbca54dad	-0.02017864
10	0x3c890452	0.016725693
11	0xbdc508f5	-0.09620849
12	0xbceb1159	-0.028694795
13	0xbd1ca6e6	-0.038245104
14	0x3cd83be1	0.02639574
15	0xbba40a9f	-0.005006149
16	0xbc721073	-0.01477443
17	0x3cb01092	0.021492276
18	0xbd048069	-0.032349024
19	0xbc7bb11b	-0.015362049
20	0xbc915705	-0.01774169
21	0xbd438a38	-0.047739238
22	0x3ce2b09b	0.027672103
23	0xbcf93e23	-0.030425137
24	0x3c70cad5	0.014696796
25	0xbd8ec05d	-0.06970284
26	0xbd16c69c	-0.036810502
27	0xbcbe39ff	-0.023221014
28	0xbd220217	-0.039552774
29	0xbd5d5da6	-0.05404439
30	0x3cec1129	0.028816776
31	0xbd2bac14	-0.041912153
32	0x3d343998	0.04400024
33	0xbc44e3e4	-0.012017224
34	0xbd391969	-0.04519025
35	0xbc727da1	-0.01480046
36	0xbd294566	-0.04132595
37	0xbaf7e13a	-0.0018911727
38	0xbcf3924b	-0.029732844
39	0x3c9d0bd9	0.019170688
40	0xbd621fc0	-0.05520606
41	0xbc9361e8	-0.017991021
42	0xbdb0e399	-0.08637161
43	0x3d33806c	0.043823645
44	0xbd921e20	-0.07134652
45	0xbd84c2fe	-0.06482504
46	0x3d334cc0	0.043774366
47	0x3c8201f2	0.015870068
48	0xbcc7bfa8	-0.024383381
49	0x3bb61222	0.005556361
50	0x3c7d6b88	0.015467532
51	0xbd2cc05e	-0.042175643
52	0xbd990bf8	-0.07472986
53	0x3b266d8a	0.002539488
54	0x3aab1696	0.0013052996
55	0xbc86d8b0	-0.016460747
56	0x3c92452e	0.017855253
57	0xbd18d5e1	-0.037313346
58	0xbd507cb5	-0.05090018
59	0xbcfef291	-0.031121524
60	0x3b94b7d5	0.004538516
61	0x3c01237c	0.007881995
62	0xbc2f102d	-0.010685009
63	0x3a7c243c	0.00096184365

block1.bn2.running_mean f4 [64]
0	0xbee28b3f	-0.4424686
1	0xbe62f16e	-0.2216241
2	0x3d3d60df	0.04623496
3	0xbf1a54ca	-0.6028563
4	0xbf33d271	-0.70242983
5	0xbfa801cc	-1.3125548
6	0xbe9a3970	-0.30121946
7	0x3da00bc8	0.07814747
8	0xbe493ac9	-0.19651331
9	0xbdea019d	-0.11426089
10	0xbdced693	-0.100995205
11	0x3ec44e30	0.38340902
12	0x3f351e67	0.70749515
13	0xbf38ea08	-0.72232103
14	0xbf873b6e	-1.0565012
15	0xbd0853f7	-0.0332832
16	0x3ed11368	0.40835118
17	0xbedff1da	-0.43739206
18	0xbecacb7c	-0.3960837
19	0xbe3782a2	-0.17920926
20	0xbcbe8bf9	-0.023260104
21	0x3e86a21e	0.2629556
22	0xbf38337e	-0.7195357
23	0xbe6d6e1b	-0.23186533
24	0xbecd5443	-0.4010335
25	0x3f1b047a	0.60553706
26	0xbf18a22c	-0.59622455
27	0xbf1078e7	-0.5643448
28	0xbf30c7d6	-0.69054925
29	0x3eb3fd46	0.3515417
30	0xbf06f4b6	-0.5271715
31	0xbeef4f5f	-0.46740243
32	0xbf59fe86	-0.85153997
33	0xbf047b45	-0.51750594
34	0x3dd47256	0.1037337
35	0xbe8f4351	-0.27981046
36	0xbe18f0ca	-0.14935604
37	0xbef153c6	-0.47134227
38	0xbf16c7a8	-0.588984
39	0xbe98d1b8	-0.29847503
40	0xbf242eba	-0.641338
41	0xbeb68076	-0.35644883
42	0x3c615508	0.013753183
43	0xbf1f729e	-0.62284267
44	0xbd4303ee	-0.04761117
45	0x3dd86583	0.10566237
46	0xbe6e438d	-0.23267956
47	0xbf01dbfd	-0.507263
48	0x3eaafb1b	0.33394703
49	0xbf586652	-0.8453113
50	0xbe2a5584	-0.16634184
51	0x3f887bcf	1.0662783
52	0x3d7777cf	0.060416993
53	0xbe5e4f4e	-0.2170994
54	0xbeacd850	-0.33758783
55	0xbeebfddb	-0.46092114
56	0xbea6277e	-0.32452005
57	0xbf133350	-0.5750017
58	0x3f2e536b	0.68096036
59	0xbf403e6a	-0.75095236
60	0xbf2c45a8	-0.67293787
61	0x3e2a667f	0.16640662
62	0xbe234f6a	-0.15948263
63	0x3f4dcbf7	0.8038935

block1.bn2.running_var f4 [64]
0	0x3ec799c1	0.38984492
1	0x3f522309	0.8208471
2	0x3f345256	0.70438135
3	0x3f8f2143	1.1182026
4	0x3f06b01c	0.5261247
5	0x3f509313	0.8147442
6	0x3eea553a	0.45768148
7	0x3ede6612	0.43437248
8	0x3f1f34ba	0.6218983
9	0x3ebe8bbd	0.37215987
10	0x3f217f8c	0.63085246
11	0x3f02de1d	0.5112017
12	0x3f5f0aa0	0.8712559
13	0x3f47a555	0.7798665
14	0x3edb06c6	0.42778605
15	0x3e86813f	0.26270482
16	0x3ec96f15	0.3934256
17	0x3ebe9493	0.37222728
18	0x3ee0cb10	0.43904924
19	0x3eb4166d	0.3517336
20	0x3f5bb6fa	0.85826075
21	0x3ef07819	0.46966627
22	0x3f5a5b0e	0.8529519
23	0x3f12b244	0.5730326
24	0x3f0202d8	0.5078559
25	0x3f673a2e	0.9032315
26	0x3eee7575	0.46573988
27	0x3f144779	0.5792156
28	0x3f326ef6	0.6970056
29	0x3f457c4f	0.77142805
30	0x3f1cdc3f	0.6127357
31	0x3eb659f8	0.35615516
32	0x3f8c660e	1.0968645
33	0x3f07b129	0.530047
34	0x3ecbb5ea	0.39787227
35	0x3f8437ce	1.032953
36	0x3ef5f245	0.480364
37	0x3f314457	0.69244903
38	0x3f9dbc2d	1.2323052
39	0x3efbcf4f	0.491816
40	0x3f6faff7	0.93627876
41	0x3f047ff0	0.5175772
42	0x3eb0aa71	0.34505036
43	0x3f6a3102	0.9148103
44	0x3ea88427	0.32913324
45	0x3eca2f5d	0.3948926
46	0x3f226bdb	0.63445824
47	0x3f708a0b	0.93960637
48	0x3f2dde9e	0.6791781
49	0x3ec4a0fa	0.38404065
50	0x3eef2bb2	0.46713024
51	0x3f2fe318	0.6870589
52	0x3eb8e31a	0.36110765
53	0x3f04c48f	0.51862425
54	0x3e90ddb9	0.2829416
55	0x3e8940a4	0.2680713
56	0x3f312c5e	0.69208324
57	0x3ee136e0	0.4398718
58	0x3f4f0187	0.80861706
59	0x3f6adac5	0.91740066
60	0x3ed0261e	0.4065408
61	0x3ef4a549	0.47782353
62	0x3e84e15c	0.25953186
63	0x3f78b9f6	0.97158754
