ecg_afib_detection/checkpoints/ptbxl/250hz/cnn1d/fold_3/best.pt (torch, 626357 bytes, 22 tensors)

features.0.conv.weight f4 [32, 12, 7]
0.05563774 -0.19281706 -0.14711118 -0.1261662 -0.033041097 0.3074981 -0.15774061 -0.051861707
0.21571392 0.11462734 0.029081926 -0.05766064 0.08442364 0.33612287 0.18832073 0.13905577
-0.17668943 -0.17760102 -0.09631119 0.09958015 -0.10736766 -0.28617296 -0.05653854 0.20329143
0.05865302 -0.039564412 -0.012858973 0.11904597 0.18904854 -0.0053368523 0.2120605 0.17854384
0.10967484 0.12855424 -0.07123141 -0.13121328 -0.0059568877 0.063413285 0.16912924 0.09907653
-0.10705256 -0.12093697 -0.046584647 -0.012069251 -0.17313007 0.13336068 0.009741465 0.37879565
-0.079287015 -0.09981864 -0.10405938 0.017703436 0.085116215 0.021651087 0.007390014 0.19969253
0.35377395 -0.041655082 0.050965946 -0.09077032 0.10972472 0.22115587 -0.06618831 0.036076523
0.18375914 0.2850907 0.30971408 0.08723556 -0.07061356 -0.20443939 -0.1486252 0.009663808
0.057813887 -0.13825509 0.27286032 -0.29746482 -0.39685735 0.12668255 -0.07143874 -0.02704589
0.15213528 -0.030059101 -0.0063052075 -0.12237557 -0.065311 -0.014492841 0.14480275 0.33057225
-0.104085706 -0.11062573 -0.34247652 -0.24825208 -0.005111583 -0.10201188 0.19316618 0.25154492
-0.05493494 -0.12585926 0.16058862 -0.19409971 -0.15836842 0.19489518 0.115121245 0.17041063
-0.28822955 -0.112414196 -0.078244805 0.20886527 -0.1308467 0.15322426 -0.017407544 0.33440608
-0.23595409 -0.19649088 -0.2416908 -0.26574782 0.17934242 -0.32838824 -0.021483425 0.12005174
0.014620003 -0.009268869 0.21578248 0.0048018326 -0.0036548073 0.11754318 -0.16383515 0.21633472
0.17627998 0.2565365 0.010884501 -0.056903902 -0.047854956 0.30120024 -0.2179827 -0.24451195
-0.014356454 0.112648 -0.11570528 -0.3778345 -0.16327526 -0.19932692 -0.21450137 0.2043961
0.21434882 0.04302521 0.15915354 -0.26442364 0.011503943 -0.06721812 -0.35570484 -0.09457038
-0.22185361 -0.04767585 0.08343242 -0.05333931 -0.035851527 0.024784436 0.16564347 -0.04203454
-0.011508726 -0.23072861 0.06464758 -0.022685936 -0.12973519 -0.2909414 -0.11809049 -0.04895179
-0.22610642 -0.05856123 0.008058309 0.10590904 0.011852295 -0.23680857 -0.09925918 -0.03461844
-0.06883918 -0.10489641 -0.07551898 0.3554326 -0.0062633622 -0.19983074 0.24274671 0.17358735
0.12074354 -0.20265514 -0.11913651 -0.0032065406 -0.1563019 -0.03208673 0.054357693 -0.11458914
-0.122488625 -0.08560225 0.0076167015 0.07853256 0.27916297 -0.17282791 0.14963931 0.13652307
-0.114751816 0.25343922 0.031079045 0.02731349 -0.1116166 0.1620941 0.16426757 -0.05120768
-0.013833134 0.09088929 -0.048873287 -0.056044023 -0.2865958 0.15123782 0.19363873 -0.10314901
-0.18108723 0.05578138 0.2443822 0.19024818 -0.20637877 0.06279038 -0.3754786 0.07172707
-0.013924871 -0.0577835 0.09948416 -0.053984847 -0.07579458 -0.12214327 0.051299814 0.13303347
0.17425454 -0.21840075 0.17012645 -0.15473269 0.16828984 -0.16128376 -0.050610926 0.26104745
0.16932905 0.35200933 0.024969833 -0.17651725 -0.06505983 0.027006807 -0.10846376 0.12692265
-0.18013597 -0.1674844 0.2270153 0.21245931 0.20301656 0.086682506 0.04270964 0.044518325
00000000: 66e4 633d d671 45be 50a4 16be b631 01be
00000010: 1a56 07bd 6470 9d3e c186 21be f16c 54bd
00000020: 1ce4 5c3e bdc1 ea3d 383d ee3c 902d 6cbd
00000030: 4de6 ac3d 4c18 ac3e 26d7 403e a364 0e3e
00000040: 13ee 34be 0bdd 35be cd3e c5bd adf0 cb3d
00000050: 93e3 dbbd 4385 92be f594 67bd a12b 503e
00000060: 263e 703d 4b0e 22bd 71ae 52bc 60ce f33d
00000070: f195 413e c3e0 aebb 6326 593e 32d4 363e
00000080: 349d e03d b9a3 033e c6e1 91bd c65c 06be
00000090: ff31 c3bb d3de 813d 3730 2d3e a3e8 ca3d
000000a0: 5f3e dbbd cdad f7bd 8bcf 3ebd 1cbe 45bc
000000b0: 0249 31be b48f 083e aa9a 1f3c 81f1 c13e
000000c0: 3b61 a2bd b76d ccbd 161d d5bd cc06 913c
000000d0: 6951 ae3d 9f5d b13c ee27 f23b 337c 4c3e
000000e0: dc21 b53e 859e 2abd abc1 503d cae5 b9bd
000000f0: 5bb7 e03d af76 623e bd8d 87bd fac4 133d
00000100: 5b2b 3c3e 69f7 913e d892 9e3e 8fa8 b23d
00000110: d89d 90bd 8f58 51be 3431 18be f354 1e3c
00000120: 41ce 6c3d be92 0dbe 59b4 8b3e 4f4d 98be
00000130: e330 cbbe 12b9 013e 794e 92bd 588f ddbc
00000140: 5ac9 1b3e 813e f6bc ea9b cebb 0ba0 fabd
00000150: c6c1 85bd 6273 6dbc 2c47 143e c440 a93e
00000160: e32a d5bd be8f e2bd 1559 afbe cb35 7ebe
00000170: 117f a7bb 9beb d0bd 5bcd 453e 7fca 803e
00000180: 7603 61bd 40e1 00be 5871 243e 13c2 46be
00000190: 552b 22be 9a92 473e b0c4 eb3d 2080 2e3e
000001a0: d392 93be 6a39 e6bd d03e a0bd c7e0 553e
000001b0: adfc 05be d2e6 1c3e 449a 8ebc 4637 ab3e
000001c0: f39d 71be e834 49be cb7d 77be 1910 88be
000001d0: 8aa5 373e 8122 a8be 02fe afbc b0dd f53d
000001e0: bd88 6f3c 74dc 17bc 15f6 5c3e b158 9d3b
000001f0: 7e85 6fbb 7bba f03d 67c4 27be d986 5d3e
00000200: bd82 343e c158 833e e854 323c 1114 69bd
00000210: 8f03 44bd eb36 9a3e db36 5fbe 5761 7abe
00000220: 5537 6bbc ffb3 e63d e4f6 ecbd 8673 c1be
00000230: a131 27be 5b1c 4cbe 3fa6 5bbe 364d 513e
00000240: 427e 5b3e 343b 303d 25f9 223e 8962 87be
00000250: 097b 3c3c a7a9 89bd f21e b6be 1eae c1bd
00000260: 982d 63be c147 43bd 9ede aa3d 527a 5abd
00000270: 0dd9 12bd bb08 cb3c 719e 293e 692c 2cbd
00000280: 188f 3cbc 1f44 6cbe f365 843d dbd7 b9bc
00000290: 4dd9 04be 45f6 94be 6dd9 f1bd ac81 48bd
000002a0: 7188 67be e6dd 6fbd ff06 043c d7e6 d83d
000002b0: 2130 423c f27d 72be 6648 cbbd 11cc 0dbd
000002c0: 8efb 8cbd eed3 d6bd b2a9 9abd 43fb b53e
000002d0: e43c cdbb 6ea0 4cbe 9892 783e e2c0 313e
000002e0: 6448 f73d d484 4fbe d8fd f3bd d324 52bb
000002f0: 9b0d 20be 606d 03bd 2ca6 5e3d b6ad eabd
00000300: 51db fabd 3c50 afbd 8695 f93b aed5 a03d
00000310: 73ee 8e3e cdf9 30be 0c3b 193e b4cc 0b3e
00000320: 0003 ebbd c9c2 813e 7b99 fe3c 8ac0 df3c
00000330: 3e97 e4bd fffb 253e c235 283e 25bf 51bd
00000340: 5fa4 62bc 2a24 ba3d 5b2f 48bd 6b8e 65bd
00000350: afbc 92be 16de 1a3e 3b49 463e ca3f d3bd
00000360: ee6e 39be 047b 643d 543f 7a3e 6bd0 423e
00000370: f554 53be 3e98 803d bb3e c0be a4e5 923d
00000380: 2425 64bc 64ae 6cbd 5abe cb3d 371f 5dbd
00000390: 303a 9bbd 4026 fabd c11f 523d ed39 083e
000003a0: c86f 323e 72a4 5fbe a135 2e3e 3f72 1ebe
000003b0: 2c54 2c3e 9227 25be 674d 4fbd 03a8 853e
000003c0: 9864 2d3e 913a b43e 898d cc3c f0c0 34be
000003d0: 173e 85bd 613d dd3c 3f22 debd 03f8 013e
000003e0: 9075 38be 0881 2bbe b376 683e ef8e 593e
000003f0: 93e3 4f3e 9986 b13d 4ef0 2e3d d958 363d

features.0.bn.weight f4 [32]
0.96414274 0.99970776 0.96406597 0.9776846 0.9313987 0.9706138 0.9377901 1.0590471
1.0263449 0.9943931 1.0548344 1.0068194 1.0281388 1.0287397 1.0527525 0.9569193
0.9666094 0.9906084 1.0237792 1.018842 1.0749295 1.0529339 0.96748316 0.9805223
1.0283824 0.97938114 1.0314174 1.0381814 1.0330406 1.0272508 0.99611866 0.99797225
00000000: 0fd2 763f d9ec 7f3f 07cd 763f 8a49 7a3f
00000010: 2570 6e3f 257a 783f 0313 703f db8e 873f
00000020: 455f 833f 8c90 7e3f d004 873f 75df 803f
00000030: 0d9a 833f bead 833f 98c0 863f aaf8 743f
00000040: b773 773f 8398 7d3f 320b 833f 6a69 823f
00000050: 4a97 893f 8ac6 863f faac 773f 8203 7b3f
00000060: 09a2 833f b9b8 7a3f 7c05 843f 21e3 843f
00000070: ad3a 843f f47c 833f a201 7f3f 1c7b 7f3f

features.0.bn.bias f4 [32]
-0.009324029 0.03514693 -0.08771917 -0.032564305 -0.021777485 0.015817521 0.028786726 0.00916536
0.025450451 0.016807223 0.01372694 -0.034905534 0.0002706609 0.038693745 -0.007400247 0.010125481
0.0009788154 0.04849809 0.09200759 0.023392837 0.041807253 0.022135237 -0.05481882 -0.01774375
0.04211951 -0.032452166 0.012689492 -0.0027089282 0.0221289 0.03765315 -0.058339197 0.023681594
00000000: d0c3 18bc 3af6 0f3d 1ca6 b3bd 2662 05bd
00000010: b266 b2bc bf93 813c 24d2 eb3c 4e2a 163c
00000020: 777d d03c 4daf 893c f6e6 603c 1bf9 0ebd
00000030: 7ee7 8d39 557d 1e3d c57d f2bb 58e5 253c
00000040: 984b 803a efa5 463d 7a6e bc3d 56a2 bf3c
00000050: 153e 2b3d f554 b53c b389 60bd 575b 91bc
00000060: 8285 2c3d 90ec 04bd 96e7 4f3c 4688 31bb
00000070: ab47 b53c 303a 1a3d 15f5 6ebd e7ff c13c

features.0.bn.running_mean f4 [32]
-9.257855e-05 7.66711e-05 3.8343525e-05 -0.000114896175 1.38404885e-05 -4.671995e-05 4.8874004e-05 -6.3841304e-05
0.00014833512 -0.00019291957 -1.226319e-06 -7.0566006e-05 -3.7124406e-05 0.00013354795 6.3733096e-05 6.1873005e-05
3.0537463e-05 7.5040516e-05 6.8901354e-05 0.00013333885 8.109462e-06 8.060844e-05 5.8470214e-05 1.8441036e-05
3.1468408e-05 -1.7658054e-05 -7.00722e-07 2.2995799e-05 -1.6204263e-05 -0.00017813404 9.4374474e-05 7.909465e-05
00000000: bb26 c2b8 7cca a038 0cd3 2038 6af4 f0b8
00000010: 7234 6837 2af5 43b8 10fe 4c38 8ae2 85b8
00000020: 688a 1b39 744a 4ab9 0098 a4b5 d6fc 93b8
00000030: 07b6 1bb8 0109 0c39 72a8 8538 d1c1 8138
00000040: 5a15 0038 125f 9d38 227f 9038 e0d0 0b39
00000050: e00d 0837 540c a938 ea3d 7538 d3b1 9a37
00000060: f2fc 0338 6220 94b7 4019 3cb5 1ae7 c037
00000070: 64ee 87b7 7ec9 3ab9 e9ea c538 9edf a538

features.0.bn.running_var f4 [32]
1.5596433 5.6569166 1.7117788 2.0183258 1.2810999 1.5782936 0.9231424 1.5218123
2.1119006 2.7614725 4.1103153 5.489421 2.9020755 2.90262 3.6201115 3.2930121
4.9348416 2.7274797 2.6641386 3.2957933 4.726503 3.1747994 3.7755506 1.9099405
1.7993546 4.205617 3.3452463 2.4894028 2.5827713 5.220786 1.7203194 1.7791252
00000000: 64a2 c73f 7605 b540 911b db3f 402c 0140
00000010: 15fb a33f 8605 ca3f 0f53 6c3f bfca c23f
00000020: 6129 0740 f7bb 3040 b487 8340 56a9 af40
00000030: 9bbb 3940 87c4 3940 e8af 6740 b6c0 5240
00000040: 39ea 9d40 078f 2e40 3f81 2a40 47ee 5240
00000050: 833f 9740 ea2f 4b40 9fa2 7140 ee78 f43f
00000060: 4051 e63f 6a94 8640 8418 5640 6052 1f40
00000070: 204c 2540 ae10 a740 6d33 dc3f 60ba e33f

features.1.conv.weight f4 [64, 32, 5]
0.089228064 -0.050227292 0.026521038 -0.002311662 -0.029167216 -0.09877806 -0.13425046 -0.122177035
0.011940573 0.009108129 0.13027157 0.030719832 0.064207256 0.080585204 0.025713269 -0.06680253
0.061434973 0.08692297 -0.021593774 0.0014344164 -0.047323354 0.20654823 -0.009982189 0.12906978
-0.08130659 0.08589231 0.0152824 0.11723033 0.11590026 -0.052465327 -0.10451124 -0.07738842
0.07373944 -0.12845914 -0.12219692 0.13802615 0.04852072 -0.19487782 -0.18092117 -0.12884298
-0.046299033 0.104132995 -0.1751287 -0.10737759 -0.21965194 -0.018127603 -0.07502484 0.085056886
0.23998117 -0.08345407 -0.14771882 0.13016367 0.01841885 -0.20900351 -0.057970803 0.06342937
-0.10037682 0.15344082 0.028208032 0.029182358 -0.26834106 -0.042557847 -0.063958704 -0.025151944
-0.2510477 -0.074990004 -0.16094433 -0.18015563 0.018852858 0.03828319 -0.06759533 0.018207597
0.09316984 0.13279551 0.2776273 -0.22756825 0.022304526 -0.1388593 -0.10053554 -0.025531925
-0.12147284 -0.090673745 -0.15328574 -0.07734947 0.097294234 -0.13994145 0.11606414 0.1814029
-0.16700329 -0.07836961 0.03621368 0.16235617 0.0566336 -0.17998894 -0.22614467 -0.22194935
0.095973775 0.05012232 0.11287226 0.061648738 -0.06336612 -0.09972746 0.048499327 0.05881382
0.05689381 -0.021198029 -0.035729967 -0.10145681 -0.14071518 0.030947844 0.112604946 0.04395588
0.24686037 -0.19384976 -0.22029015 0.11314339 -0.2553487 -0.14165035 -0.13574106 0.31527397
-0.15552643 0.11296074 -0.09599465 -0.042159453 -0.13464077 0.13806657 0.042247258 -0.16616838
-0.051063575 0.12933095 -0.026583523 -0.05479331 0.13485806 0.118370615 -0.06604861 -0.18251716
-0.08845293 -0.012025813 0.05697373 0.33948073 -0.113695264 -0.07150118 -0.1744718 -0.005058026
0.10866657 0.04400269 -0.039929125 -0.087626785 -0.16244055 0.043546412 -0.17772517 0.06821281
-0.031460393 0.058870472 -0.161783 -0.0795008 -0.033325884 0.05684614 -0.059983324 -0.062673
-0.14256608 -0.03148406 -0.051167905 -0.0011834198 0.006558239 -0.033135112 0.18798563 0.060285896
-0.074312255 0.044901986 0.017937733 0.039145306 -0.0550739 -0.09426515 0.020901037 -0.10849623
0.010676246 0.073104426 -0.03925208 -0.16114743 0.013223387 -0.13373631 0.08469671 -0.056921832
0.13613698 -0.14626008 0.02638189 -0.1505102 0.0069256388 -0.027768778 0.004637555 0.0064177657
0.08102632 -0.059582777 0.12258743 -0.02706161 -0.053258214 -0.08887473 0.007530368 -0.08728801
-0.05802561 0.1539277 0.10460192 -0.05389397 0.09802452 0.059010457 0.14831743 0.17408715
0.14629036 -0.013843186 -0.045859605 0.09143272 -0.05995772 -0.13765022 -0.09663806 0.10212873
-0.106314875 0.028459005 -0.044436067 -0.20904253 -0.010236437 -0.11853287 0.14925128 -0.08461849
0.12093941 -0.027434468 0.0037799084 -0.09137436 0.0656116 -0.21582651 0.06662429 0.04061361
0.27567118 0.29985714 -0.037771787 0.018302288 0.13481836 -0.09715884 -0.07524098 -0.1922555
0.01846567 -0.099941276 -0.20674866 0.09262632 0.13123445 0.004508272 0.08661725 0.16914967
-0.10068078 -0.29525355 -0.20955363 0.010060935 0.13863115 -0.04794423 -0.0056791506 0.18338095
00000000: 34bd b63d 22bb 4dbd a642 d93c 417f 17bb
00000010: 16f0 eebc 274c cabd f478 09be f437 fabd
00000020: 65a2 433c 433a 153c e965 053e 28a8 fb3c
00000030: 187f 833d db09 a53d a2a4 d23c c4cf 88bd
00000040: 3da3 7b3d ac04 b23d 6de5 b0bc 0703 bc3a
00000050: 22d6 41bd 6181 533e 568c 23bc de2a 043e
00000060: 1284 a6bd 4fe8 af3d 0863 7a3c 7516 f03d
00000070: 1e5d ed3d e2e5 56bd fd09 d6bd d27d 9ebd
00000080: b404 973d cb8a 03be 6142 fabd ba56 0d3e
00000090: aabd 463d 0d8e 47be 6643 39be 6aef 03be
000000a0: 0ea4 3dbd ae43 d53d f054 33be c8e8 dbbd
000000b0: 70ec 60be 5780 94bc a0a6 99bd 4e32 ae3d
000000c0: a0bd 753e f8e9 aabd 9a43 17be a049 053e
000000d0: 21e3 963c 0405 56be cb72 6dbd 42e7 813d
000000e0: 5d92 cdbd 971f 1d3e 8814 e73c d70f ef3c
000000f0: 0064 89be 2351 2ebd c8fc 82bd 730b cebc
00000100: 5389 80be 5c94 99bd 97ce 24be b87a 38be
00000110: 4f71 9a3c d6ce 1c3d 6c6f 8abd 1928 953c
00000120: d4cf be3d 8cfb 073e 2a25 8e3e a707 69be
00000130: fbb7 b63c 2231 0ebe 94e5 cdbd 5428 d1bc
00000140: c1c6 f8bd 28b3 b9bd f0f6 1cbe 6669 9ebd
00000150: 3342 c73d d04c 0fbe 09b3 ed3d afc1 393e
00000160: e902 2bbe 3f80 a0bd cc54 143d b240 263e
00000170: a2f8 673d 054f 38be 7892 67be b146 63be
00000180: e68d c43d 104d 4d3d 9229 e73d 6383 7c3d
00000190: 19c6 81bd e93d ccbd 3ba7 463d c3e6 703d
000001a0: 7c09 693d 7da7 adbc 9659 12bd 97c8 cfbd
000001b0: a417 10be 5586 fd3c 6c9d e63d 150b 343d
000001c0: f7c8 7c3e 8d80 46be be93 61be b9b7 e73d
000001d0: 11bd 82be ca0c 11be b4ff 0abe 976b a13e
000001e0: 5242 1fbe f657 e73d d898 c4bd 64af 2cbd
000001f0: 45df 09be 5361 0d3e 760b 2d3d 0b28 2abe
00000200: 0a28 51bd 556f 043e b0c5 d9bc f36e 60bd
00000210: 3b18 0a3e 4b6c f23d 7e44 87bd c7e5 3abe
00000220: cf26 b5bd ea07 45bc 495d 693d 6bd0 ad3e
00000230: 10d9 e8bd 366f 92bd bca8 32be ccbd a5bb
00000240: 948c de3d 2a3c 343d b98c 23bd ac75 b3bd
00000250: d156 26be b95d 323d 96fd 35be 28b3 8b3d
00000260: 9ddc 00bd 2a22 713d 71aa 25be 51d1 a2bd
00000270: b980 08bd 80d7 683d 13b1 75bd b45a 80bd
00000280: d8fc 11be 6ef5 00bd 7095 51bd fb1c 9bba
00000290: 7fe6 d63b afb8 07bd 4e7f 403e 58ee 763d
000002a0: 0631 98bd 25eb 373d 27f2 923c d456 203d
000002b0: 2b95 61bd 160e c1bd a738 ab3c 4533 debd
000002c0: 6ceb 2e3c c6b7 953d cac6 20bd d503 25be
000002d0: e8a6 583c 2cf2 08be 7875 ad3d de26 69bd
000002e0: 7e67 0b3e 34c5 15be d51e d83c 591f 1abe
000002f0: 78f0 e23b 597b e3bc a2f6 973b 1f4c d23b
00000300: 21f1 a53d 120d 74bd 1e0f fb3d 4fb0 ddbc
00000310: 4925 5abd f403 b6bd 4ec1 f63b 0ec4 b2bd
00000320: 43ac 6dbd 399f 1d3e 8839 d63d ecbf 5cbd
00000330: 14c1 c83d f3b4 713d 86e0 173e e743 323e
00000340: 24cd 153e 88ce 62bc 48d7 3bbd 1441 bb3d
00000350: 3a96 75bd 2ef4 0cbe 2dea c5bd de28 d13d
00000360: 9dbb d9bd dc22 e93c 9802 36bd 3f0f 56be
00000370: bbb6 27bc 5dc1 f2bd 54d5 183e 754c adbd
00000380: 15af f73d 40be e0bc 57b8 773b 7b22 bbbd
00000390: 605f 863d a001 5dbe 5172 883d 755a 263d
000003a0: c624 8d3e e086 993e 97b6 1abd aeee 953c
000003b0: d30d 0a3e 37fb c6bd f117 9abd a0de 44be
000003c0: 5145 973c 03ae ccbd ecb5 53be deb2 bd3d
000003d0: 5362 063e 20ba 933b 6364 b13d 9235 2d3e
000003e0: ba31 cebd 792b 97be 3a95 56be 9fd6 243c
000003f0: 53f5 0d3e 2b61 44bd 2b18 babb 37c8 3b3e

features.1.bn.weight f4 [64]
1.008252 1.0407692 0.9713442 0.95325047 1.008525 0.9820254 1.003864 0.9788913
1.0042361 1.0135112 0.9791095 1.008188 0.97697914 1.0314239 1.0166806 0.984814
1.0604501 0.9751265 1.0209014 1.0374448 1.0010254 0.9962338 1.0075015 0.98957485
0.99913263 1.0496687 1.0196133 0.96581876 0.98992306 0.967584 1.0218817 0.99027497
1.0346881 1.0246742 1.0023382 0.9644597 1.0321561 0.9937086 1.050749 1.0652765
1.0382805 0.99895185 1.0428729 1.000162 1.0361409 0.98851216 0.9878222 1.0080318
0.9525604 1.0177171 1.0343552 0.989295 0.92287993 0.99873585 1.0044612 0.9904087
0.9438015 0.9987059 1.0138108 0.9814248 1.0115432 1.059765 0.95207804 1.0006423
00000000: 670e 813f ed37 853f 03aa 783f 3908 743f
00000010: 5917 813f 0466 7b3f 9e7e 803f 9f98 7a3f
00000020: cf8a 803f bcba 813f eca6 7a3f 4e0c 813f
00000030: 4e1b 7a3f b305 843f 9722 823f c51c 7c3f
00000040: d4bc 873f e4a1 793f e6ac 823f feca 843f
00000050: 9a21 803f 2e09 7f3f cff5 803f c754 7d3f
00000060: 28c7 7f3f 8b5b 863f b082 823f e63f 773f
00000070: 996b 7d3f 96b3 773f 05cd 823f a982 7d3f
00000080: a970 843f 8628 833f 9e4c 803f d5e6 763f
00000090: b11d 843f b063 7e3f f17e 863f fb5a 883f
000000a0: 60e6 843f 4fbb 7f3f dc7c 853f 4f05 803f
000000b0: 44a0 843f 220f 7d3f eae1 7c3f 3007 813f
000000c0: 00db 733f 8e44 823f c065 843f 7042 7d3f
000000d0: dc41 6c3f 27ad 7f3f 2f92 803f 6d8b 7d3f
000000e0: fa9c 713f 31ab 7f3f 8dc4 813f a83e 7b3f
000000f0: 3f7a 813f 61a6 873f 63bb 733f 0c15 803f

features.1.bn.bias f4 [64]
-0.056355696 0.044542667 -0.00077597605 -0.055720568 0.028055524 -0.018839847 -0.010156871 0.020306464
0.07214937 -0.024286963 -0.002071329 -0.018724976 0.009012833 0.0856319 0.017456692 -0.02628017
0.08390243 0.063854635 0.023269642 0.023283243 -0.010768417 0.03596801 -0.036426596 -0.011503447
-0.07029012 -0.0133052245 0.04761082 -0.027032092 -0.0015908623 -0.0100941975 0.024190867 -0.010696013
0.100522794 -0.007623079 -0.05104319 -0.019222239 0.019239273 -0.07528223 0.0833402 -0.026332617
0.03309889 -0.019256016 0.062282167 -0.08961646 0.026411254 0.02151182 -0.020573009 0.00031697456
0.00036224036 -0.008032596 0.0446753 0.011105457 -0.014671359 0.01920198 0.035578124 -0.013490506
-0.041537248 0.022722833 -0.022107253 0.0021936146 0.12369741 0.018392924 -0.03979337 0.04709788
00000000: 3bd5 66bd 5f72 363d df6a 4bba 403b 64bd
00000010: b3d4 e53c 0656 9abc 0169 26bc be59 a63c
00000020: 0dc3 933d 74f5 c6bc 22bf 07bb 1f65 99bc
00000030: 90aa 133c c75f af3d 5601 8f3c 8349 d7bc
00000040: 0ad5 ab3d 38c6 823d fa9f be3c 80bc be3c
00000050: 046e 30bc 3153 133d 0e34 15bd f478 3cbc
00000060: 44f4 8fbd 28fe 59bc 9003 433d 6872 ddbc
00000070: 7b84 d0ba 2262 25bc ed2b c63c 553e 2fbc
00000080: e5de cd3d 05cb f9bb aa12 51bd f577 9dbc
00000090: ae9b 9d3c 922d 9abd 44ae aa3d 80b7 d7bc
000000a0: b492 073d cbbe 9dbc 961b 7f3d d688 b7bd
000000b0: 6a5c d83c 8e39 b03c ba88 a8bc 9b2f a639
000000c0: 14eb bd39 269b 03bc 73fd 363d aaf3 353c
000000d0: 2460 70bc 794d 9d3c 5eba 113d 4907 5dbc
000000e0: f622 2abd 3c25 ba3c 451a b5bc bfc2 0f3b
000000f0: 1155 fd3d c2ac 963c 5ffe 22bd b5e9 403d

features.1.bn.running_mean f4 [64]
-1.2107126 -0.24179643 -0.5799384 0.4627469 0.14062089 -0.87103343 -0.84797686 -1.3794223
-0.868278 0.44843277 -0.16284934 -0.3699974 1.3915455 -1.2977787 -1.1499149 0.2676647
-0.74308103 -0.69476384 0.4738027 -0.9903838 -1.4373865 -0.69401246 -0.38472518 -0.72828716
1.0773237 -0.15784797 -0.7786794 -0.40132007 -1.5548352 0.86839855 0.18526675 -0.69384956
-0.7276061 -1.3558668 0.31479394 0.81913286 -0.82164234 0.82698756 -0.96067196 1.2121737
-0.656334 0.7662739 -1.7239132 -0.7527343 -0.27452624 -0.1376795 -0.9732988 -0.28792062
-0.08885876 -0.51908255 -0.07590498 -0.017006371 0.5536672 -0.7041991 -0.8335913 0.2937194
0.36235932 0.035116814 0.292826 -1.0319581 -0.31473607 -0.3797789 0.47611287 -0.21703888
00000000: a1f8 9abf 7c99 77be d876 14bf 29ed ec3e
00000010: ecfe 0f3e 0cfc 5ebf 0315 59bf e990 b0bf
00000020: 7847 5ebf fb98 e53e fac1 26be 4d70 bdbe
00000030: 2a1e b23f 9d1d a6bf 6930 93bf 590b 893e
00000040: 8f3a 3ebf 0bdc 31bf 4496 f23e cb89 7dbf
00000050: 48fc b7bf cdaa 31bf b3fa c4be 0771 3abf
00000060: bee5 893f e6a2 21be 8857 47bf d379 cdbe
00000070: d704 c7bf 5e4f 5e3f 91b6 3d3e 20a0 31bf
00000080: 6544 3abf 0b8d adbf ac2c a13e b1b2 513f
00000090: 2757 52bf 75b5 533f 99ee 75bf 8228 9b3f
000000a0: 8105 28bf 872a 443f 30a9 dcbf 32b3 40bf
000000b0: b48e 8cbe dbfb 0cbe 1c2a 79bf 556a 93be
000000c0: 95fb b5bd 98e2 04bf 1274 9bbd f250 8bbc
000000d0: 22bd 0d3f 6446 34bf 3d66 55bf 6462 963e
000000e0: 2987 b93e a6d6 0f3d 4aed 953e 3417 84bf
000000f0: 1625 a1be 6172 c2be 11c5 f33e 713f 5ebe

features.1.bn.running_var f4 [64]
1.0587097 1.4213119 0.91948146 2.3176744 1.0771172 1.1392916 2.8560104 2.407825
0.93643385 2.0602846 0.70922 1.300111 1.5146602 1.8185027 1.0540824 1.2844397
2.7168841 3.5089097 0.48268276 1.3741547 1.5144829 1.5000517 0.647476 0.506548
1.1228266 0.8716544 2.543381 0.6906294 3.8301098 1.4612799 0.7612311 0.8712447
0.9100711 1.4968194 1.0225009 1.5046352 0.9972556 0.7662867 0.91833663 1.1321076
2.290235 0.7849382 2.7690268 2.3662152 0.34632882 0.79179907 0.75297654 0.73690975
1.5942956 0.81279904 0.5620883 2.8395803 1.3808441 0.6783644 1.1177851 1.1945039
0.92878634 0.542449 0.99591124 2.093293 1.3064389 0.8205918 1.3329879 0.9679555
00000000: cd83 873f 8ced b53f 2363 6b3f c754 1440
00000010: fade 893f 4fd4 913f e0c8 3640 ce19 1a40
00000020: 21ba 6f3f b4db 0340 718f 353f 0a6a a63f
00000030: 63e0 c13f b2c4 e83f 2cec 863f 8568 a43f
00000040: 6ee1 2d40 fa91 6040 3222 f73e 4de4 af3f
00000050: 93da c13f b201 c03f fdc0 253f 21ad 013f
00000060: c8b8 8f3f be24 5f3f c1c6 2240 17cd 303f
00000070: 8520 7540 380b bb3f 0be0 423f e509 5f3f
00000080: 6bfa 683f c797 bf3f 4fe1 823f e397 c03f
00000090: 254c 7f3f 5d2b 443f 1c18 6b3f e7e8 903f
000000a0: 3693 1240 b6f1 483f bc37 3140 1270 1740
000000b0: 0352 b13e 58b3 4a3f 12c3 403f 1ea6 3c3f
000000c0: e111 cc3f 9913 503f 05e5 0f3f afbb 3540
000000d0: 80bf b03f 4aa9 2d3f 9513 8f3f 81e5 983f
000000e0: f1c4 6d3f f0dd 0a3f 0af4 7e3f 83f8 0540
000000f0: 6439 a73f 4e12 523f 599f aa3f efcb 773f

features.2.conv.weight f4 [128, 64, 5]
-0.057378955 0.020648193 -0.0051190862 -0.09069688 -0.08797842 -0.034006998 0.03746269 0.10860086
-0.017877433 -0.060803976 0.17473729 0.03423253 0.10339986 -0.060370296 -0.19139045 -0.006484919
-0.04430548 -0.016981486 -0.12768236 -0.16386549 0.08017723 0.099273995 -0.05563624 0.06982064
-0.09122116 0.060083747 0.05367899 -0.0072535356 0.00347894 -0.013343521 -0.05646076 -0.07892048
0.025366986 0.030858511 0.17123745 0.06509813 0.12447409 0.020419447 0.07654811 0.1263325
-0.0104811555 0.033037286 -0.0017359813 0.01891393 0.07554139 -0.050459817 0.1066261 -0.12106485
-0.0339032 0.024583364 0.09263127 -0.06816806 0.05955918 0.0028034481 0.09016848 0.03170078
-0.016789816 -0.0002654597 0.07453368 0.026213774 -0.001732524 0.059969205 0.06470422 -0.047186535
0.12681118 -0.04994747 0.10314802 0.006417392 0.0034397296 -0.065355085 0.06482822 -0.078234576
-0.09091534 0.021756474 0.07038922 -0.059860814 0.050397415 -0.011826232 -0.0675416 -0.031289153
-0.04311995 -0.10189152 0.014427972 0.037978824 -0.049294494 0.24750984 -0.056373075 -0.09745212
0.020496318 -0.019308934 0.043312218 -0.049304407 0.0032102508 -0.19055949 0.041128412 0.10064508
-0.11967166 0.07332204 0.0810553 -0.09856993 -0.028185058 -0.008529382 -0.15004186 0.00302823
0.029762339 -0.08268905 -0.027437892 0.123368576 -0.08918018 0.03625242 0.09510335 -0.06879782
0.11376436 0.095144 -0.11123234 0.09961524 -0.07247975 -0.14742607 0.006428342 -0.019713031
-0.003442964 -0.07720761 0.08786071 -0.0077701914 -0.07983778 0.019835742 -0.07382859 0.04879445
-0.12072159 -0.15837221 -0.06717651 0.0041952296 -0.17624949 0.074349776 -0.05664407 -0.060215436
-0.03508231 -0.026487168 -0.050764374 -0.18471083 0.038545217 0.05612025 -0.18813251 0.14621775
-0.15090613 -0.10784628 0.0078929635 0.10010751 -0.044249583 0.10771415 -0.10092334 -0.07550648
-0.060613345 -0.011916658 0.074727274 0.0917883 0.20084237 0.01008272 0.014421795 0.036172118
0.19729038 0.17691211 -0.039293088 0.016102264 0.015777348 -0.039403424 -0.004658552 -0.0392005
-0.083388336 0.011208493 -0.14126964 -0.09417024 -0.0034537052 -0.03412264 -0.05624585 0.014130334
-0.04290865 -0.079004705 -0.0280599 -0.08531972 0.13377883 0.03529763 0.017426556 -0.10756783
0.0295523 0.051265046 0.08195037 -0.08043454 -0.04172385 -0.014854862 0.010556644 -0.008912626
0.1347393 0.03866787 0.08528812 0.20075554 -0.12074657 -0.06185806 0.09365769 -0.10747977
-0.06705605 -0.09774813 0.14479673 0.08870923 0.071754284 0.093926206 -0.022696128 0.055649225
-0.17937966 -0.028921979 0.05111213 0.04290613 -0.102024004 -0.045999914 0.04361199 0.11298981
0.1167125 -0.009117072 0.07038988 0.060296014 -0.09888805 0.064679556 -0.21414493 -0.033794302
-0.04262259 0.0068074022 -0.08866982 -0.016673148 0.026312297 -0.10316141 0.02752449 0.048216075
0.0735315 -0.004749479 0.011875262 0.19695829 0.13509746 -0.021197494 0.03364974 0.12342036
0.083984785 0.042606756 -0.0024921647 0.021829503 -0.23340337 0.012244318 0.113374114 0.043723628
0.016076274 -0.07828111 0.085247375 0.019461585 -0.03666163 0.07352888 -0.109402195 -0.16884828
00000000: 3206 6bbd 6626 a93c 02be a7bb 49bf b9bd
00000010: 082e b4bd ec4a 0bbd 7a72 193d 216a de3d
00000020: b273 92bc 970d 79bd 55ee 323e 6937 0c3d
00000030: 4ec3 d33d d846 77bd dcfb 43be 727f d4bb
00000040: aa79 35bd c21c 8bbc 2abf 02be 5bcc 27be
00000050: f633 a43d 2a50 cb3d d3e2 63bd 20fe 8e3d
00000060: 29d2 babd 601a 763d 80de 5b3d 11af edbb
00000070: eefe 633b c99e 5abc 6643 67bd 10a1 a1bd
00000080: 6dce cf3c fdca fc3c df58 2f3e 2b52 853d
00000090: 46ec fe3d af46 a73c 41c5 9c3d 4f5d 013e
000000a0: 27b9 2bbc 1b52 073d de89 e3ba 63f1 9a3c
000000b0: 72b5 9a3d f4ae 4ebd c95e da3d d9f0 f7bd
000000c0: 15de 0abd 0d63 c93c 77b5 bd3d b29b 8bbd
000000d0: 54f4 733d 0eba 373b 41aa b83d add8 013d
000000e0: cc8a 89bc 662d 8bb9 1da5 983d 45be d63c
000000f0: dc15 e3ba 45a2 753d a583 843d ab46 41bd
00000100: cada 013e b895 4cbd 453f d33d fc48 d23b
00000110: 166d 613b e3d8 85bd a8c4 843d 7339 a0bd
00000120: d231 babd a23a b23c 3928 903d 9d30 75bd
00000130: 856d 4e3d d0c2 41bc 4053 8abd 0e29 00bd
00000140: 8b9e 30bd 80ac d0bd 4d63 6c3c af8f 1b3d
00000150: 06e9 49bd 3873 7d3e 74e7 66bd fa94 c7bd
00000160: e5e7 a73c c52d 9ebc 2768 313d 6bf3 49bd
00000170: 1263 523b 0722 43be 4476 283d 021f ce3d
00000180: 6a16 f5bd de29 963d 5200 a63d 08df c9bd
00000190: 5ae4 e6bc d2be 0bbc 93a4 19be 4575 463b
000001a0: 26d0 f33c e058 a9bd 6ec5 e0bc aaa8 fc3d
000001b0: 19a4 b6bd 6b7d 143d 8cc5 c23d dfe5 8cbd
000001c0: 4afd e83d dcda c23d c8cd e3bd 1303 cc3d
000001d0: 4370 94bd dcf6 16be d7a4 d23b 397d a1bc
000001e0: 5aa3 61bb 061f 9ebd 51f0 b33d 179d febb
000001f0: fd81 a3bd 917e a23c 7233 97bd b0dc 473d
00000200: e23c f7bd 532c 22be d793 89bd 2378 893b
00000210: bf7a 34be b244 983d 9d03 68bd 76a4 76bd
00000220: 78b2 0fbd 9efb d8bc 4eee 4fbd d624 3dbe
00000230: 97e1 1d3d 59de 653d cfa5 40be 1bba 153e
00000240: 2387 1abe 83de dcbd 7d51 013c 2b05 cd3d
00000250: 0d3f 35bd 3c99 dc3d e5b0 cebd 24a3 9abd
00000260: b345 78bd 163e 43bc 9d0a 993d 81fb bb3d
00000270: 9fa9 4d3e fe31 253c 6449 6c3c 3729 143d
00000280: 7d06 4a3e 7328 353e caf1 20bd e5e8 833c
00000290: 7f3f 813c 7c65 21bd c4a6 98bb b490 20bd
000002a0: 81c7 aabd d4a3 373c fda8 10be 54dc c0bd
000002b0: 8f57 62bb 2ec4 0bbd 0c62 66bd eb82 673c
000002c0: fbc0 2fbd 38cd a1bd e0dd e5bc 1bbc aebd
000002d0: 51fd 083e 3f94 103d 23c2 8e3c 864c dcbd
000002e0: aa17 f23c 4cfb 513d 98d5 a73d ddba a4bd
000002f0: a1e6 2abd cf61 73bc c6f5 2c3c 4306 12bc
00000300: 19f9 093e 3362 1e3d 8aab ae3d dc92 4d3e
00000310: fa49 f7bd e15e 7dbd 9acf bf3d 5b1e dcbd
00000320: af54 89bd 2c30 c8bd 9845 143e 2fad b53d
00000330: e9f3 923d 625c c03d 3bed b9bc 71f0 633d
00000340: 4daf 37be c9ed ecbc f45a 513d 57be 2f3d
00000350: f6f1 d0bd 686a 3cbd 7ca2 323d 3467 e73d
00000360: f706 ef3d c65f 15bc 9228 903d f4f8 763d
00000370: d185 cabd b776 843d cf48 5bbe e56b 0abd
00000380: 0695 2ebd a110 df3b 8698 b5bd 2096 88bc
00000390: e38c d73c 4a46 d3bd 0a7b e13c 387e 453d
000003a0: af97 963d 84a1 9bbb 7590 423c 6faf 493e
000003b0: fd56 0a3e 5ea6 adbc 4fd4 093d d0c3 fc3d
000003c0: 3700 ac3d 6c84 2e3d 9653 23bb c9d3 b23c
000003d0: 4b01 6fbe 649c 483c b030 e83d 8c17 333d
000003e0: 64b2 833c d951 a0bd 2d96 ae3d e76d 9f3c
000003f0: 812a 16bd 4f96 963d 420e e0bd 90e6 2cbe

features.2.bn.weight f4 [128]
0.93873537 1.029292 0.91882396 1.0333891 0.9154738 0.9766538 0.89852244 0.98311543
1.0295317 0.9321398 0.91324943 1.0535707 1.0048412 1.0061183 0.9477053 1.007409
0.9866998 0.992308 0.9981735 1.0090457 0.99269086 1.010146 1.0096936 0.9717294
0.9004122 1.0181224 0.9914024 0.96418345 0.9565137 0.99951684 1.0295058 0.96883875
1.0012149 0.9255874 0.950331 1.0272577 0.96433234 0.98317987 0.9287717 0.93834335
1.0120066 1.0215676 0.9907347 1.0127027 1.0041832 0.9645429 1.0554279 1.0288075
0.9639836 0.9059026 1.0372958 1.0239608 1.0160689 0.9427697 0.91769797 0.918928
0.9748536 0.92075443 1.0233845 0.99795634 1.0125353 1.1529188 1.0124807 1.0031282
0.9639529 0.9850873 0.93555355 1.0573728 0.9818877 0.9795119 1.0352865 1.0806665
0.98840374 1.0288296 1.0070632 0.9265634 1.0152311 1.0246235 0.91579854 0.9555956
1.0467612 0.9794818 1.0105331 1.0128311 1.0093372 0.9832354 1.0389304 0.98178965
0.9676642 1.1222644 1.0027145 1.0061498 1.0247022 0.9917932 1.0078273 1.0041002
1.0881183 1.0380634 0.8908481 0.92531604 0.9103658 0.98169434 0.95521283 0.9449494
0.967561 1.0558507 0.96660113 1.1023153 0.97716343 0.9453183 0.9572795 0.9087781
0.9435356 0.9693855 0.94599324 0.9335685 1.1365486 0.9196742 1.0401583 0.98106986
0.90198183 1.0313346 1.0350382 0.9831803 0.9668351 0.9521321 0.98888725 0.976435
00000000: f650 703f d7bf 833f 0c38 6b3f 1846 843f
00000010: 7e5c 6a3f fc05 7a3f 9105 663f 74ad 7b3f
00000020: b2c7 833f b7a0 6e3f b7ca 693f 68db 863f
00000030: a39e 803f 7cc8 803f d19c 723f c7f2 803f
00000040: 5c98 7c3f e607 7e3f 4c88 7f3f 6928 813f
00000050: fd20 7e3f 774c 813f a43d 813f 42c3 783f
00000060: 6a81 663f d651 823f 8ccc 7d3f bad4 763f
00000070: 15de 743f 56e0 7f3f d9c6 833f d105 783f
00000080: cf27 803f 4cf3 6c3f e448 733f 2e7d 833f
00000090: 7cde 763f adb1 7b3f fbc3 6d3f 4537 703f
000000a0: 6f89 813f bac2 823f caa0 7d3f 3ea0 813f
000000b0: 1389 803f 49ec 763f 4318 873f f7af 833f
000000c0: a1c7 763f 3ce9 673f 1cc6 843f 2611 833f
000000d0: 8c0e 823f 5b59 713f 41ee 6a3f de3e 6b3f
000000e0: 0190 793f 90b6 6b3f 43fe 823f 117a 7f3f
000000f0: c29a 813f d892 933f f898 813f 8166 803f
00000100: 9ec5 763f ae2e 7c3f 7080 6f3f fe57 873f
00000110: fe5c 7b3f 4bc1 7a3f 4584 843f 4853 8a3f
00000120: 0708 7d3f b0b0 833f 72e7 803f 4233 6d3f
00000130: 18f3 813f dd26 833f c671 6a3f eaa1 743f
00000140: 45fc 853f 52bf 7a3f 2659 813f 73a4 813f
00000150: f631 813f 51b5 7b3f acfb 843f 9156 7b3f
00000160: d7b8 773f 5ca6 8f3f f358 803f 84c9 803f
00000170: 7129 833f 29e6 7d3f 7c00 813f 5b86 803f
00000180: 7647 8b3f 43df 843f 9f0e 643f 83e1 6c3f
00000190: bc0d 693f 5250 7b3f d488 743f 34e8 713f
000001a0: 14b2 773f 1e26 873f 2c73 773f ab18 8d3f
000001b0: 6227 7a3f 6100 723f 4510 753f aea5 683f
000001c0: 8d8b 713f a629 783f 9d2c 723f 58fe 6e3f
000001d0: 6d7a 913f c56f 6b3f e823 853f 6527 7b3f
000001e0: 48e8 663f c602 843f 227c 843f b4b1 7b3f
000001f0: 8182 773f eebe 733f b727 7d3f a5f7 793f

features.2.bn.bias f4 [128]
-0.023274735 -0.08059165 -0.09647262 -0.028602425 -0.18832518 -0.08950627 -0.15345739 -0.045005646
0.010773121 -0.08667076 -0.1725861 -0.025777202 -0.010837322 -0.06254799 -0.16957636 -0.085300945
-0.052731548 -0.046088193 -0.07849974 -0.037519928 -0.05312876 -0.12664643 -0.041567545 -0.060639035
-0.108050615 -0.026931152 -0.07021328 -0.08607526 -0.16946013 -0.065860085 -0.08515802 -0.08035227
-0.042824898 -0.019688597 -0.067090444 -0.036814064 -0.039246157 -0.03276965 -0.07456629 -0.063307874
-0.044140264 -0.049510714 -0.12755847 -0.081425436 -0.038080234 -0.07247834 -0.1451864 -0.036881402
-0.06607315 -0.13527715 -0.055665076 -0.051520053 -0.044021733 -0.08371842 -0.07611399 -0.121234044
-0.04610053 -0.17023616 -0.08675464 -0.091836624 0.003657992 -0.15141994 -0.12979305 -0.08889954
-0.061278272 -0.07346361 -0.108386815 -0.13752997 -0.08890208 -0.034630705 -0.07603819 -0.08617543
-0.079199284 -0.03499256 -0.036409624 -0.10733919 -0.09002405 -0.027618784 -0.089455016 -0.15938367
-0.14749911 -0.11872812 -0.08113199 -0.055610158 -0.053592183 -0.050558697 -0.07593918 -0.054611173
-0.10360461 -0.13458864 -0.07386376 -0.050095685 -0.07029875 -0.081515975 -0.027966117 -0.019160444
-0.1360086 -0.020962609 -0.11582388 -0.1134088 -0.09731554 -0.05805051 -0.16351014 -0.08516148
-0.1915224 -0.07633371 -0.100274466 -0.11300984 -0.09489551 -0.07489963 -0.107476704 -0.08956388
-0.09725072 -0.08426824 -0.09615964 -0.06303795 -0.14586174 -0.0618418 -0.11111423 -0.07509423
-0.095642835 -0.07116145 -0.065070055 -0.13762504 -0.1332795 -0.11792477 -0.102008596 -0.0373203
00000000: a8aa bebc 3c0d a5bd 7093 c5bd a24f eabc
00000010: 51d8 40be 104f b7bd ef23 1dbe d757 38bd
00000020: bf81 303c 7080 b1bd 69ba 30be b62a d3bc
00000030: 068f 31bc 2919 80bd 6da5 2dbe 43b2 aebd
00000040: 09fd 57bd f9c6 3cbd 79c4 a0bd 7fae 19bd
00000050: 8b9d 59bd 9aaf 01be bb42 2abd a360 78bd
00000060: a449 ddbd b89e dcbc fbcb 8fbd 3a48 b0bd
00000070: f586 2dbe a7e1 86bd 5467 aebd bb8f a4bd
00000080: 2969 2fbd fb49 a1bc b766 89bd 58ca 16bd
00000090: 94c0 20bd 7839 06bd 36b6 98bd 8fa7 81bd
000000a0: 6ccc 34bd bfcb 4abd b09e 02be 61c2 a6bd
000000b0: 05fa 1bbd 866f 94bd beab 14be f410 17bd
000000c0: 5c51 87bd 1886 0abe 1001 64bd b106 53bd
000000d0: 2250 34bd 9074 abbd a7e1 9bbd 8e49 f8bd
000000e0: e9d3 3cbd 6352 2ebe 6bac b1bd d714 bcbd
000000f0: ecba 6f3b d40d 1bbe 78e8 04be f610 b6bd
00000100: edfe 7abd 1774 96bd e8f9 ddbd a8d4 0cbe
00000110: 4b12 b6bd edd8 0dbd e9b9 9bbd be7c b0bd
00000120: 3c33 a2bd 5c54 0fbd 4222 15bd a6d4 dbbd
00000130: 875e b8bd ca40 e2bc 3134 b7bd 7935 23be
00000140: 020a 17be bb27 f3bd 8728 a6bd 7ac7 63bd
00000150: 7a83 5bbd a316 4fbd 0086 9bbd f7af 5fbd
00000160: a72e d4bd 9bd1 09be e245 97bd 2231 4dbd
00000170: cbf8 8fbd d9f1 a6bd 3319 e5bc 5df6 9cbc
00000180: d745 0bbe c7b9 abbc 1235 edbd df42 e8bd
00000190: 5f4d c7bd 5fc6 6dbd 346f 27be 2469 aebd
000001a0: 731e 44be d954 9cbd b35c cdbd b471 e7bd
000001b0: 9458 c2bd fa64 99bd bf1c dcbd 446d b7bd
000001c0: 632b c7bd d494 acbd 58ef c4bd 0a1a 81bd
000001d0: c85c 15be d44d 7dbd db8f e3bd 01cb 99bd
000001e0: 64e0 c3bd 18bd 91bd 7343 85bd 94ed 0cbe
000001f0: 6c7a 08be 8b82 f1bd e2e9 d0bd 2cdd 18bd

features.2.bn.running_mean f4 [128]
0.23740391 0.4570346 -0.35961115 0.3026039 0.92486674 -0.68834907 0.32491472 -0.20455927
-1.7970985 -0.9608423 1.3201855 -0.44509286 0.3226366 -0.65129596 0.39626878 -0.88268626
-0.03940301 -0.28244025 0.7257088 0.6488626 -0.17027791 -0.36079267 -1.3689728 0.028672695
-0.22380182 -1.5444629 -0.08950145 1.0011984 1.4746028 -1.9937031 -1.0924457 -0.8469395
-0.7297626 0.31407785 0.61228245 -0.3738044 -1.4122566 -1.3819683 -1.3576261 -1.0420136
0.7352452 0.33880794 0.013599391 0.11458762 -0.34434775 -0.63562244 -0.94562894 -0.12075916
-0.7178002 -0.7565524 -1.2096931 -0.9768225 0.013888139 -0.37076217 -0.9092334 -1.1208045
0.10515741 1.9550121 0.18452497 1.0360959 -1.2664348 -1.1448122 -0.007011462 -0.6028122
-2.10339 -0.43987072 0.4387272 0.6338397 -0.21958497 -0.75382745 -0.87894714 -0.06390473
-1.604989 0.24087907 0.10579276 -0.9713948 -0.13488914 0.3041066 -1.8761543 1.9158621
-0.72623086 0.9036387 -0.51593333 0.46299356 -0.39071217 0.11568636 -0.7444758 -0.30767938
-0.040593777 0.51214963 -0.7233017 -0.74204254 -0.0198689 -0.22784802 -0.1535201 0.44419363
0.030882012 0.32822493 1.6162827 -0.1401886 -0.14937405 -0.25494188 1.2433213 -0.56166005
0.9605704 0.93809265 0.002035083 -0.24081069 0.93044716 0.60687697 0.0017150091 -0.45620537
-0.19222575 -0.054384157 -0.2057303 -1.097197 -0.4163215 -0.28176236 0.58065933 -1.0951202
0.19787997 0.09432565 0.4444093 -0.84515023 -0.2571232 -0.90978026 0.41660687 -2.2627203
00000000: 031a 733e 7000 ea3e f41e b8be e6ee 9a3e
00000010: 11c4 6c3f a537 30bf 395b a63e fc77 51be
00000020: 5307 e6bf c3f9 75bf d7fb a83f 36e3 e3be
00000030: a030 a53e 55bb 26bf bee3 ca3e baf7 61bf
00000040: 0d65 21bd 029c 90be 0dc8 393f dc1b 263f
00000050: 555d 2ebe d1b9 b8be 803a afbf 00e3 ea3c
00000060: 4e2c 65be f6b0 c5bf 894c b7bd 4527 803f
00000070: c9bf bc3f aa31 ffbf 43d5 8bbf 07d1 58bf
00000080: b9d1 3abf d0ce a03e 8bbe 1c3f 4a63 bfbe
00000090: d3c4 b4bf 56e4 b0bf b1c6 adbf b460 85bf
000000a0: 0839 3c3f 3c78 ad3e fbcf 5e3c eaac ea3d
000000b0: 594e b0be 27b8 22bf bd14 72bf 9450 f7bd
000000c0: c1c1 37bf 6bad 41bf 39d7 9abf 0a11 7abf
000000d0: 148b 633c 8ad4 bdbe 85c3 68bf 8676 8fbf
000000e0: c55c d73d d63d fa3f 1df4 3c3e ca9e 843f
000000f0: 891a a2bf 3589 92bf 68c0 e5bb e651 1abf
00000100: f19d 06c0 bc36 e1be daa0 e03e 5243 223f
00000110: e2da 60be d6fa 40bf ae02 61bf 7ce0 82bd
00000120: 4870 cdbf 01a9 763e e0a9 d83d 54ad 78bf
00000130: 6120 0abe dcb3 9b3e d325 f0bf f83a f53f
00000140: 44ea 39bf de54 673f 3514 04bf 7e0d ed3e
00000150: 6d0b c8be f8ec ec3d f795 3ebf 2788 9dbe
00000160: a945 26bd 3d1c 033f 4d2a 39bf 80f6 3dbf
00000170: 1ac4 a2bc fe50 69be 6034 1dbe 596d e33e
00000180: 46fc fc3c 190d a83e 5ae2 ce3f 9a8d 0fbe
00000190: 83f5 18be be87 82be 2725 9f3f f4c8 0fbf
000001a0: f1e7 753f d726 703f 075f 053b 1497 76be
000001b0: c931 6e3f 4a5c 1b3f 28ca e03a c093 e9be
000001c0: d4d6 44be ecc1 5ebd f7aa 52be f470 8cbf
000001d0: 1728 d5be 2843 90be 17a6 143f e62c 8cbf
000001e0: 0ca1 4a3e ce2d c13d 9e89 e33e c45b 58bf
000001f0: a7a5 83be 5ce7 68bf 7f4d d53e 69d0 10c0

features.2.bn.running_var f4 [128]
1.8209672 1.2797703 1.6005985 0.5034034 1.7764155 0.8190007 3.0718462 1.6836258
2.6288807 2.8523998 3.4938862 0.5303372 0.6091054 1.3517965 1.8758711 1.5286846
2.1539736 1.6313148 0.7397934 1.0810373 1.1194326 0.719607 2.3428192 0.43194795
2.6808705 2.1173785 1.2730516 1.3464122 3.8597753 2.342061 1.3302464 0.9932409
2.3642664 0.84585685 0.94110525 0.55732554 1.5028096 1.7793627 2.0565147 1.8657165
0.9921261 1.1453543 0.7543616 1.0455452 1.5741208 0.7061074 0.9693422 0.71436286
0.6676853 1.8875674 1.0791571 0.7001978 0.9473267 0.7768908 1.6967183 2.228905
0.7226848 1.2556752 0.8819605 0.81266004 2.0312245 0.9668101 0.95821655 1.1320692
2.1492434 1.1037736 0.8937506 0.9863262 0.8244376 1.3029361 1.1421262 0.62367874
0.8830092 0.804783 1.1542708 2.1209805 0.73349404 0.8168756 2.781717 2.712176
0.9760445 0.6768643 1.0511271 0.6375863 1.1936257 1.90361 0.85846627 2.0603855
1.3780928 0.7281348 1.2810951 1.5380061 0.73258334 0.5172835 0.88989925 0.6266659
0.5732821 0.6751504 1.4706562 2.42292 2.5112433 2.133161 3.191016 0.81210583
1.1499393 0.9984001 1.0115395 0.8866495 0.8226101 1.1935663 0.8372027 1.7696466
1.6352912 0.8402756 1.3995863 3.1004105 0.9802764 1.6847941 0.8241774 0.8304128
2.030456 1.1639005 0.44577047 0.7202148 1.6192576 1.3555905 1.15457 2.4203951
00000000: 7415 e93f 83cf a33f 69e0 cc3f 0cdf 003f
00000010: 9561 e33f 08aa 513f 2199 4440 0d81 d73f
00000020: 953f 2840 b88d 3640 d59b 5f40 2ec4 073f
00000030: 55ee 1b3f ab07 ad3f 8b1c f03f f0ab c33f
00000040: b4da 0940 ecce d03f 1a63 3d3f 6e5f 8a3f
00000050: 9149 8f3f 2a38 383f c0f0 1540 4828 dd3e
00000060: 6293 2b40 2183 0740 5bf3 a23f 3c57 ac3f
00000070: 8f06 7740 54e4 1540 8445 aa3f 0945 7e3f
00000080: 2450 1740 138a 583f 46ec 703f e3ac 0e3f
00000090: 115c c03f 28c2 e33f f09d 0340 cccf ee3f
000000a0: fafb 7d3f f89a 923f d81d 413f 6dd4 853f
000000b0: ca7c c93f 74c3 343f cf26 783f 7ce0 363f
000000c0: 6ced 2a3f cf9b f13f d221 8a3f 2a40 333f
000000d0: 0184 723f 51e2 463f 112e d93f 61a6 0e40
000000e0: df01 393f f7b9 a03f 2ac8 613f 7d0a 503f
000000f0: 95ff 0140 de80 773f ae4d 753f a5e7 903f
00000100: 348d 0940 7448 8d3f d7cc 643f e07f 7c3f
00000110: 580e 533f 9cc6 a63f 3131 923f 69a9 1f3f
00000120: e40c 623f 4206 4e3f 25bf 933f 25be 0740
00000130: 44c6 3b3f c21e 513f a707 3240 4b94 2d40
00000140: 0dde 793f fb46 2d3f 558b 863f db38 233f
00000150: bac8 983f 7ea9 f33f 72c4 5b3f 5bdd 0340
00000160: 5865 b03f 0b67 3a3f edfa a33f 62dd c43f
00000170: 958a 3b3f b16c 043f 70d0 633f 2d6d 203f
00000180: 9ec2 123f a8d6 2c3f 763e bc3f 1f11 1b40
00000190: 36b8 2040 b685 0840 9b39 4c40 2be6 4f3f
000001a0: 3631 933f 2697 7f3f 207a 813f 76fb 623f
000001b0: 9396 523f c8c6 983f eb52 563f c883 e23f
000001c0: 3951 d13f 4d1c 573f a525 b33f 206d 4640
000001d0: 65f3 7a3f 55a7 d73f 4afd 523f ef95 543f
000001e0: fef2 0140 b1fa 943f 073c e43e ff5f 383f
000001f0: d543 cf3f fd83 ad3f f3c8 933f c1e7 1a40

features.3.conv.weight f4 [256, 128, 3]
-0.14448814 0.07962472 0.013637579 -0.030423645 -0.00023387249 -0.0848843 -0.090429105 -0.06201634
-0.0726172 -0.008159879 -0.12411604 -0.043718595 0.0030219313 -0.08606182 0.012294498 0.0055022403
0.09801947 -0.07447975 0.015058648 0.054884665 0.0044076424 -0.009821735 -0.0013050655 -0.002468052
0.008725982 0.08767434 0.052793067 -0.061933126 0.10255436 -0.0069068805 -0.09374197 0.19099577
0.026826954 0.07297212 -0.088694476 -0.033405185 -0.036049906 -0.0884483 0.011074561 -0.031765655
-0.05882435 0.06877725 0.04205281 0.032095503 0.18753001 -0.12450091 0.039993327 -0.023322294
-0.11345993 -0.07709678 -0.105601564 -0.09960149 0.050477274 0.02401826 -0.10246925 0.04758066
0.0059900163 -0.0012168388 -0.040199887 0.07213359 -0.036365185 -0.061771598 -0.030991105 0.10489806
-0.021372804 -0.091897346 -0.038141273 0.026406545 -0.06607086 -0.053407483 0.07487183 0.09878575
-0.049066976 -0.01736282 -0.04023044 -0.09842395 -0.09037164 -0.047828585 -0.009236673 -0.016195152
0.01586268 0.016713811 -0.0060985074 0.15507093 -0.0595091 -0.03597244 -0.05357698 0.05816212
0.016669717 0.07600303 0.042870533 0.046506044 -0.06636821 -0.07505589 -0.09223875 0.02016941
-0.085967906 -0.08518114 0.037004694 -0.048779353 -0.020194735 -0.0566448 -0.08105309 -0.02871719
-0.11863758 -0.033442967 -0.082554355 0.041148618 0.18022165 -0.032155808 0.006187158 -0.16389076
-0.081226535 0.0784874 0.118565775 -0.04887619 -0.039351933 -0.053636525 -0.015510891 -0.048577182
-0.023060966 -0.09560972 -0.11848809 -0.07338576 0.022507489 -0.059918985 -0.15721244 -0.0829327
0.08084963 0.015890064 -0.00719933 0.047004376 -0.038205463 -0.043373358 0.08586198 -0.074792065
-0.07189288 -0.08085807 -0.031155122 0.09208258 0.016518706 -0.081101805 -0.011965248 0.028943451
-0.06304364 -0.09949081 -0.0096448315 0.09068428 -0.08957331 0.010322276 0.08845449 -0.014295718
0.13678595 -0.07648231 0.0027700486 0.10553666 0.10446422 -0.015410643 -0.04276362 0.04515839
-0.14896303 0.015947968 -0.068133324 -0.07160676 -0.09798963 -0.13368395 0.014576934 -0.024567302
-0.098371245 -0.09232274 0.0021372705 -0.08636225 0.016128063 0.12840992 -0.075772725 -0.062310558
-0.06280841 -0.08272837 -0.036682937 0.059193596 -0.052108914 0.08006439 0.05342515 0.08058739
0.14407623 0.20193055 0.036945045 0.03455707 0.077458024 -0.087023795 0.1081686 -0.006904285
-0.010190636 0.007865871 0.0075087836 0.097187005 0.0034669086 -0.00800918 0.026413547 -0.052786384
0.04968359 0.038551368 0.12660196 0.036242094 0.0495696 -0.036461394 0.11328576 0.1620451
0.0153467115 0.031581827 -0.12101912 -0.023045065 0.083632834 0.08325135 0.04328563 -0.025226755
0.034507174 0.0048959125 0.060896263 -0.0018294657 -0.14307635 -0.05614031 -0.021933194 -0.10691418
0.041578874 -0.00026515528 -0.011754714 -0.020760676 0.01869504 -0.009328333 0.121286735 -0.112878144
-0.065106384 0.056196984 0.06254089 0.0067252126 -0.027635315 0.004611431 0.024247603 -0.052139938
-0.0019856573 -0.01601054 -0.12806723 0.1025859 0.015540009 -0.09936569 0.10483252 0.015554048
0.079337135 -0.091524094 0.06971612 -0.02268456 -0.066365734 -0.031218855 -2.2439255e-05 -0.09503151
00000000: b3f4 13be 4912 a33d 2770 5f3c 023b f9bc
00000010: ab3b 75b9 d2d7 adbd e532 b9bd d904 7ebd
00000020: 54b8 94bd 03b1 05bc 8d30 febd 4512 33bd
00000030: 980b 463b 2e41 b0bd dd6e 493c 234c b43b
00000040: 6fbe c83d d788 98bd 8cb8 763c bece 603d
00000050: fc6d 903b 58eb 20bc bb0e abba 0bbf 21bb
00000060: 6cf7 0e3c 9b8e b33d 8b3d 583d 97ad 7dbd
00000070: 0508 d23d 1d53 e2bb cafb bfbd 6594 433e
00000080: 33c4 db3c 6872 953d 73a5 b5bd e0d3 08bd
00000090: 11a9 13bd 6224 b5bd 1372 353c b41c 02bd
000000a0: cdf1 70bd 16db 8c3d 913f 2c3d 9376 033d
000000b0: de07 403e 55fa febd 0bd0 233d 650e bfbc
000000c0: ae5d e8bd ebe4 9dbd a245 d8bd defb cbbd
000000d0: 42c1 4e3d f1c1 c43c 66db d1bd f0e3 423d
000000e0: e647 c43b 567e 9fba a3a8 24bd c7ba 933d
000000f0: a9f3 14bd 3704 7dbd 0fe1 fdbc cbd4 d63d
00000100: 0516 afbc ad34 bcbd 063a 1cbd 8a52 d83c
00000110: 2950 87bd cec1 5abd 6756 993d 2f50 ca3d
00000120: 74fa 48bd 793c 8ebc adc8 24bd 7f92 c9bd
00000130: c414 b9bd e8e7 43bd 6a55 17bc b2ab 84bc
00000140: 73f2 813c 67eb 883c fdd5 c7bb eaca 1e3e
00000150: d0bf 73bd d657 13bd 8973 5bbd 673b 6e3d
00000160: ee8e 883c 7aa7 9b3d 0399 2f3d 1f7d 3e3d
00000170: 0eec 87bd e7b6 99bd abe7 bcbd 523a a53c
00000180: f10f b0bd 7373 aebd 3c92 173d dccc 47bd
00000190: 6e6f a5bc 6104 68bd 2aff a5bd 5040 ebbc
000001a0: 42f8 f2bd 7efb 08bd 4212 a9bd 748b 283d
000001b0: 068c 383e cfb5 03bd a5bd ca3b fbd2 27be
000001c0: 195a a6bd 01be a03d 9dd2 f23d 6632 48bd
000001d0: 7e2f 21bd f9b1 5bbd 6421 7ebc def8 46bd
000001e0: 5aea bcbc 07cf c3bd e2a9 f2bd 464b 96bd
000001f0: a061 b83c 9c6d 75bd 4cfc 20be 9fd8 a9bd
00000200: 7e94 a53d e12b 823c 5be8 ebbb a987 403d
00000210: 557d 1cbd 43a8 31bd 68d8 af3d 952c 99bd
00000220: 933c 93bd ea98 a5bd 0739 ffbc cb95 bc3d
00000230: 3d52 873c b418 a6bd e309 44bc d11a ed3c
00000240: 061d 81bd d6c1 cbbd 5b05 1ebc aeb8 b93d
00000250: 3672 b7bd c31e 293c a127 b53d 9638 6abc
00000260: 9e11 0c3e c2a2 9cbd b489 353b 9b23 d83d
00000270: 56f1 d53d ec7c 7cbc e828 2fbd 01f8 383d
00000280: c489 18be 50a5 823c 7c89 8bbd 91a6 92bd
00000290: caae c8bd 72e4 08be 18d4 6e3c 5e41 c9bc
000002a0: dd76 c9bd b413 bdbd 7311 0c3b b1de b0bd
000002b0: 001f 843c e47d 033e bb2e 9bbd 5b39 7fbd
000002c0: b2a1 80bd 7e6d a9bd d940 16bd fc74 723d
000002d0: 2870 55bd cdf8 a33d 55d4 5a3d 000b a53d
000002e0: b888 133e e2c6 4e3e b053 173d b78b 0d3d
000002f0: 50a2 9e3d 8839 b2bd 8087 dd3d 573d e2bb
00000300: a0f6 26bc dbdf 003c 3e0c f63b fb09 c73d
00000310: 1335 633b f038 03bc 3961 d83c 8936 58bd
00000320: 0581 4b3d 0ae8 1d3d f2a3 013e 9772 143d
00000330: 7e09 4b3d 8b58 15bd 5d02 e83d 27ef 253e
00000340: c670 7b3c f25b 013d dfd8 f7bd 01c9 bcbc
00000350: b147 ab3d af7f aa3d 464c 313d 57a8 cebc
00000360: 6557 0d3d e46d a03b 5c6e 793d afca efba
00000370: 9b82 12be 62f3 65bd 3ead b3bc d2f5 dabd
00000380: 9c4e 2a3d 8a04 8bb9 d896 40bc 4b12 aabc
00000390: 5726 993c ddd5 18bc 2e65 f83d a82c e7bd
000003a0: 7f56 85bd cf2e 663d 7015 803d 2c5f dc3b
000003b0: 7563 e2bc 7d1b 973b e9a2 c63c b090 55bd
000003c0: cd21 02bb 8928 83bc 0e24 03be 8e18 d23d
000003d0: 869b 7e3c 3d80 cbbd 6fb2 d63d 68d6 7e3c
000003e0: 827b a23d fc70 bbbd 53c7 8e3d f8d4 b9bc
000003f0: c2ea 87bd afbe ffbc ef3b bcb7 e19f c2bd
