ecg_afib_detection/checkpoints/ptbxl/100hz/cnn1d/fold_5/best.pt (torch, 626357 bytes, 22 tensors)

features.0.conv.weight f4 [32, 12, 7]
-0.14910498 -0.08150063 -0.037138455 0.02769149 -0.07702879 0.18641005 -0.0038708327 -0.08136674
0.0742197 -0.09583301 0.084121354 -0.11682972 0.1170641 -0.09146311 0.06479283 0.082785934
0.022355983 0.13085535 -0.049362913 0.13595387 -0.009096808 -0.28521937 -0.111737825 -0.029982716
0.21188685 0.14203128 -0.10743856 -0.2263671 0.051160704 -0.06657006 -0.06619289 0.29357615
0.3346129 -0.10376032 0.16227196 0.052457 0.37319773 0.035436004 -0.07380775 -0.22871117
-0.026068423 -0.09341589 -0.1193562 0.10754639 -0.12185929 -0.09097574 0.13938151 0.17197102
-0.1393521 0.18661557 0.20294371 0.10013207 -0.006829314 0.19656704 0.13505223 -0.2592953
0.067373216 0.19229324 0.2228853 0.37309432 -0.027322616 0.16176547 -0.15472765 -0.09417361
-0.12873112 -0.023954371 -0.00012400336 -0.14731057 0.02240446 0.15643057 0.21842118 0.0024958306
0.09590402 0.14584184 0.07533616 0.09210738 -0.19203874 -0.14367534 0.0055799866 -0.028203176
0.17379405 0.079043716 -0.22167166 0.31136242 0.2833887 0.22633557 -0.21371782 0.1582243
0.037992116 -0.19387472 -0.124146335 0.07853341 -0.105708145 0.34977114 0.26470667 -0.0987869
0.14865541 0.07144986 -0.27509695 0.11268265 -0.003519803 -0.23705119 0.07676104 0.021093084
-0.038764693 -0.0936308 0.06421952 -0.04326784 -0.06649058 -0.05595474 0.13056554 0.26904264
-0.08886852 -0.16291107 -0.21191914 0.027119828 0.0033414373 -0.11822782 0.14267889 -0.021677673
-0.27415782 -0.23497058 0.28527048 -0.27194166 -0.19765826 -0.29913625 0.17621654 -0.05028984
-0.13214244 -0.13471438 0.0454309 -0.17864293 -0.17501199 -0.017317371 0.061206948 0.009621167
0.08672881 0.018721052 -0.17264542 -0.179743 0.07804188 0.063399434 0.13418417 -0.11188225
-0.33662385 -0.035744224 -0.20734265 0.088864826 -0.25502506 0.09335878 0.18067081 0.07885058
0.112847365 -0.1496736 0.024235249 0.20091252 0.15540704 0.17817809 -0.18765953 -0.059134964
-0.25730225 -0.1375479 0.23019305 0.3766794 0.030351246 -0.03832619 -0.09299455 -0.1568341
-0.0994714 0.09199466 0.17313598 -0.19324858 0.30752918 0.061174233 -0.05881468 -0.035071053
0.2601632 -0.060581747 0.13786967 0.0076094926 0.24467449 -0.016248142 -0.07148152 -0.027652685
-0.090906076 0.2912578 -0.011188211 -0.24947119 -0.2713208 0.28852805 0.17624146 -0.1332928
0.02237642 -0.104455374 0.3135603 0.18349318 -0.18692133 0.20538458 -0.15193899 0.063571654
0.14026438 0.12003411 -0.12423917 -0.061705504 -0.08650098 0.07970011 0.07963716 -0.30970713
-0.088374786 -0.031717878 0.02677396 0.098383516 0.09046167 0.0069861803 -0.049649626 -0.3034087
-0.33734885 0.046829436 -0.2779323 -0.22577879 -0.06103047 -0.010406224 -0.16174313 0.14449231
-0.011628417 0.0013839256 -0.05245707 -0.051909383 0.05052111 0.29385427 0.25607014 0.08646851
0.040238317 0.015716758 -0.21573521 0.07474343 0.17999996 0.041121937 -0.08437188 -0.17794997
-0.06898172 -0.17004207 0.037263762 -0.15280241 0.13508631 0.011279514 -0.17085238 0.09106275
0.11630513 -0.36127746 -0.025337541 -0.20078544 0.24958377 0.22388317 0.19722763 0.061776355
00000000: faae 18be cde9 a6bd 7e1e 18bd 43d9 e23c
00000010: 45c1 9dbd 47e2 3e3e ccad 7dbb 9ba3 a6bd
00000020: 8000 983d 1944 c4bd d147 ac3d 6c44 efbd
00000030: 4ebf ef3d 0351 bbbd 1ab2 843d ac8b a93d
00000040: e523 b73c f2fe 053e c430 4abd 7e37 0b3e
00000050: c70a 15bc 4608 92be cdd6 e4bd 509e f5bc
00000060: def8 583e a670 113e bf08 dcbd c7cc 67be
00000070: e38d 513d e255 88bd 2390 87bd 9d4f 963e
00000080: 6252 ab3e 4a80 d4bd 9f2a 263e 27dd 563d
00000090: c613 bf3e 5825 113d 8528 97bd 4333 6abe
000000a0: 728d d5bc d550 bfbd 0671 f4bd 4841 dc3d
000000b0: 5d91 f9bd 7d51 babd 07ba 0e3e 2c19 303e
000000c0: 51b2 0ebe 2718 3f3e 7ad0 4f3e 0b12 cd3d
000000d0: 70c8 dfbb df48 493e 224b 0a3e 5bc2 84be
000000e0: f8fa 893d 85e8 443e 0b3c 643e 3806 bf3e
000000f0: aed3 dfbc d9a5 253e ed70 1ebe 18de c0bd
00000100: 17d2 03be f53b c4bc e606 02b9 95d8 16be
00000110: 8f89 b73c 562f 203e cda9 5f3e 1791 233b
00000120: 5469 c43d 9057 153e d849 9a3d cba2 bc3d
00000130: cea5 44be a11f 13be 52d8 b63b 590a e7bc
00000140: 11f7 313e ace1 a13d e5fd 62be e56a 9f3e
00000150: 5318 913e 83c4 673e d8d8 5abe 8d05 223e
00000160: 9f9d 1b3d 1887 46be 6f40 febd 20d6 a03d
00000170: 837d d8bd 3415 b33e a287 873e c950 cabd
00000180: 2039 183e 4e54 923d 82d9 8cbe 29c6 e63d
00000190: 7fac 66bb 8cbd 72be e434 9d3d 67cb ac3c
000001a0: bac7 1ebd 81c1 bfbd 8685 833d 9e39 31bd
000001b0: 372c 88bd cc30 65bd f9b2 053e f5bf 893e
000001c0: b300 b6bd 29d2 26be 5501 59be 672a de3c
000001d0: 04fc 5a3b 6d21 f2bd 6a1a 123e 6095 b1bc
000001e0: 6a5e 8cbe 219c 70be f90e 923e f03b 8bbe
000001f0: ed66 4abe 6328 99be 1c72 343e b8fc 4dbd
00000200: 5950 07be 91f2 09be c015 3a3d 2cee 36be
00000210: 5836 33be 29dd 8dbc 23b4 7a3d 19a2 1d3c
00000220: e09e b13d e45c 993c f6c9 30be 8d0e 38be
00000230: 6cd4 9f3d 90d7 813d 9367 093e 8522 e5bd
00000240: f659 acbe 8968 12bd a251 54be c3fe b53d
00000250: a592 82be e332 bf3d c501 393e 6a7c a13d
00000260: 851c e73d 0944 19be 0089 c63c 03bc 4d3e
00000270: 0623 1f3e 5174 363e d229 40be 8137 72bd
00000280: 1fbd 83be 5bd9 0cbe bab7 6b3e 1fdc c03e
00000290: 2da3 f83c ecfb 1cbd ed73 bebd 1e99 20be
000002a0: a9b7 cbbd b267 bc3d 8f4a 313e f5e2 45be
000002b0: 7774 9d3e d591 7a3d a9e7 70bd aaa6 0fbd
000002c0: 1c34 853e 9124 78bd b52d 0d3e 0d59 f93b
000002d0: f38b 7a3e d31a 85bc e764 92bd e287 e2bc
000002e0: f72c babd be1f 953e c24e 37bc 6075 7fbe
000002f0: 8fea 8abe f3b9 933e a478 343e e87d 08be
00000300: c14e b73c b3ec d5bd fa8a a03e a3e5 3b3e
00000310: 4e68 3fbe 5650 523e e595 1bbe db31 823d
00000320: 77a1 0f3e 72d4 f53d 1b71 febd e9be 7cbd
00000330: 6d27 b1bd d039 a33d cf18 a33d ef91 9ebe
00000340: d7fd b4bd 9bea 01bd 1055 db3c 4c7d c93d
00000350: f843 b93d 54ec e43b 685d 4bbd 6358 9bbe
00000360: fdb8 acbe 39d0 3f3d 244d 8ebe 8e32 67be
00000370: 16fb 79bd de7e 2abc fe9f 25be cbf5 133e
00000380: 1e85 3ebc d664 b53a 3add 56bd ef9e 54bd
00000390: 39ef 4e3d 1174 963e a01b 833e 6716 b13d
000003a0: efd0 243d 6ec0 803c b1e9 5cbe 1513 993d
000003b0: e951 383e 7a6f 283d 2acb acbd 8438 36be
000003c0: 4a46 8dbd 821f 2ebe e3a1 183d 3c78 1cbe
000003d0: 1154 0a3e b6cd 383c edf3 2ebe 1b7f ba3d
000003e0: 6231 ee3d 5cf9 b8be ad90 cfbc b39a 4dbe
000003f0: e392 7f3e a141 653e 0af6 493e 3409 7d3d

features.0.bn.weight f4 [32]
0.9882682 0.9655074 0.9908937 1.0574067 0.9400346 0.9928115 0.9587285 0.9535468
1.0005586 1.000605 0.97347385 1.0435288 0.9521482 1.0369569 0.9875028 1.0266967
1.0124127 0.9965206 0.9611237 0.9643112 1.0886848 0.99718183 1.034987 1.0446421
0.98854375 1.0366325 1.000509 0.94915944 1.1161323 0.97336346 1.0256422 1.0025784
00000000: 25ff 7c3f 7e2b 773f 36ab 7d3f 1a59 873f
00000010: 1ca6 703f e528 7e3f 3b6f 753f a51b 743f
00000020: 4e12 803f d313 803f 9535 793f 5a92 853f
00000030: fcbf 733f 01bb 843f fccc 7c3f cc6a 833f
00000040: bd96 813f f91b 7f3f 340c 763f 19dd 763f
00000050: 065a 8b3f 4f47 7f3f 747a 843f d5b6 853f
00000060: 3411 7d3f 60b0 843f ae10 803f 1dfc 723f
00000070: 6cdd 8e3f 592e 793f 3e48 833f 7d54 803f

features.0.bn.bias f4 [32]
0.02213544 -0.007025267 0.009877062 0.030406749 -0.049414005 0.025277596 0.15985993 0.057677235
0.15943457 -0.033797666 -0.033163358 -0.0044780253 -0.09228529 0.066223614 0.09376024 -0.007411172
0.01341622 0.1300278 0.008706225 -0.04394443 0.12025736 -0.07714163 0.06233462 -0.005442055
0.06478948 0.024087284 0.028025184 0.017555445 0.15109189 0.037903044 0.021748092 0.092253186
00000000: 6255 b53c 3634 e6bb 67d3 213c 9317 f93c
00000010: 5766 4abd f612 cf3c 52b2 233e f73e 6c3d
00000020: d142 233e 6c6f 0abd 4dd6 07bd 66bc 92bb
00000030: 1200 bdbd 3fa0 873d 5e05 c03d 6bd9 f2bb
00000040: b5cf 5b3c 0226 053e 8ea4 0e3c 13ff 33bd
00000050: 7e49 f63d 6efc 9dbd 9652 7f3d 4453 b2bb
00000060: 59b0 843d b252 c53c 1295 e53c 70d0 8f3c
00000070: d5b7 1a3e 3940 1b3d 0e29 b23c 3def bc3d

features.0.bn.running_mean f4 [32]
0.00016025665 0.00022463923 5.5176715e-05 -0.000113690796 -0.0001778337 6.037267e-05 -0.0001484113 7.253618e-05
8.513408e-05 8.0093974e-05 0.00012606263 0.00013475334 -4.2268424e-05 0.00026830833 -3.6093945e-05 0.00011007633
-0.00022980035 0.00018308302 -0.0001815063 0.000109323104 -6.1330815e-05 -0.00037288826 0.000115670846 4.4543736e-05
9.7071315e-06 0.00019124796 0.000108345135 0.00014501266 0.00020970973 6.660585e-05 -1.0940927e-05 -2.1846317e-05
00000000: 910a 2839 228d 6b39 8c6d 6738 486d eeb8
00000010: df78 3ab9 a938 7d38 db9e 1bb9 911e 9838
00000020: 038a b238 20f8 a738 ae2f 0439 934c 0d39
00000030: 6049 31b8 bcab 8c39 9463 17b8 c8d8 e638
00000040: 90f6 70b9 f9f9 3f39 ba52 3eb9 6544 e538
00000050: bb9e 80b8 3780 c3b9 5094 f238 79d4 3a38
00000060: d0db 2237 bc89 4839 5a37 e338 8a0e 1839
00000070: 87e5 5b39 beae 8b38 ec8e 37b7 9c42 b7b7

features.0.bn.running_var f4 [32]
2.2307076 4.6933484 1.2797362 2.1549308 1.8971442 1.8357828 4.477033 3.0815578
1.7698941 3.1398754 1.2660269 2.9830654 1.4518917 1.7359887 3.122851 2.5857575
1.445235 1.6372855 2.7164354 1.4385338 4.1065207 5.5194945 1.5129932 4.6422133
4.585808 5.252012 1.2389972 2.575045 5.379925 1.334111 2.9559448 2.769209
00000000: eac3 0e40 e92f 9640 65ce a33f 63ea 0940
00000010: 9fd5 f23f eefa ea3f db43 8f40 3e38 4540
00000020: e48b e23f b8f3 4840 2b0d a23f 8bea 3e40
00000030: 96d7 b93f e134 de3f cadc 4740 0d7d 2540
00000040: 76fd b83f 9292 d13f 14da 2d40 e021 b83f
00000050: 9e68 8340 b39f b040 c3a9 c13f 038d 9440
00000060: f0be 9240 7b10 a840 7697 9e3f 8acd 2440
00000070: 5828 ac40 26c4 aa3f 332e 3d40 b83a 3140

features.1.conv.weight f4 [64, 32, 5]
0.04844371 -0.016248468 0.08023472 0.10727869 0.099176906 0.0012243992 -0.03216898 0.20617591
0.0108718 0.098782584 0.034479257 -0.04439595 -0.067254804 0.15639703 -0.27459386 -0.24320531
-0.06708672 -0.0053647957 -0.030851314 0.03713803 -0.041495398 -0.0710168 -0.16249348 -0.1043658
0.0813994 -0.011224941 -0.177781 -0.05099807 0.0016154732 0.03552569 -0.023750464 -0.02903846
0.08686271 -0.029578349 -0.0038628634 0.068249725 -0.17086776 -0.04332033 0.23771979 0.01928307
-0.030732313 0.12523855 -0.08986458 -0.029743137 0.0400353 -0.21796669 -0.041567426 -0.062400185
0.12373736 0.030286385 0.11362006 -0.03704208 0.28400654 0.07576139 -0.1112196 0.001430918
0.0972194 0.20855218 0.030657459 -0.1711267 0.12266139 -0.082944445 -0.034803584 -0.1749482
-0.07355574 0.095069885 0.07019349 -0.098127946 -0.10633616 -0.09444582 0.020991556 -0.242204
0.07020647 -0.13369605 -0.023848597 -0.041700963 -0.054963294 -0.023476169 -0.030642059 0.21471229
0.098772645 -0.047121137 -0.034797255 -0.03151951 0.17542931 0.010212552 -0.13101897 -0.19319072
-0.11594953 0.03215725 -0.006846182 -0.015205008 -0.0010171914 -0.14481124 -0.025944412 -0.014227157
0.053955045 0.013931962 -0.029666195 -0.056280166 -0.12254446 -0.15421908 0.0155275585 0.13180508
0.21049874 -0.14673918 0.097021595 -0.0018333854 -0.24786907 -0.07522424 -0.031474426 -0.007025914
-0.020532852 -0.02718116 0.0017284439 -0.07597409 0.044315528 -0.0030377337 0.068445206 0.05389907
0.0001186941 0.0019101131 0.18954806 0.07149893 -0.09460476 -0.1211579 0.015403542 0.050540004
-0.043654785 0.05346648 0.08672574 -0.051547695 0.0061473586 -0.19590597 -0.037732415 -0.23996519
-0.17149891 0.0069209347 0.07049042 0.22364837 -0.03347548 0.16835462 0.092420615 -0.10692671
-0.040257026 0.0138069065 -0.101224326 -0.17921029 0.04112354 0.026984414 0.018415986 -0.023662342
-0.009987595 0.14876728 -0.090154186 0.022487843 -0.035647124 -0.15061049 0.3215945 -0.054164853
0.033885784 -0.23881216 0.026399244 0.059662767 0.01593461 -0.027999818 -0.13046661 -0.009388383
0.06529135 -0.13124625 -0.017614271 0.14115678 -0.0064515173 -0.08287969 0.051226236 -0.05381697
0.09365944 -0.010907711 0.04845686 0.036208197 -0.15619688 -0.08732947 0.0842434 0.09276027
-0.16060954 0.02574899 0.2058513 -0.08988182 -0.008007246 0.0013898644 -0.041719764 -0.02799644
0.0023510838 -0.07110887 -0.069224425 0.083497144 -0.046958517 -0.049326405 -0.28850684 0.033029195
-0.07948188 0.06753753 0.12440822 0.08831588 0.13734768 -0.15878858 0.013324726 0.03044205
0.1666541 0.118000284 -0.17124605 0.025659814 -0.054151494 -0.06382204 0.20259771 -0.0841807
0.03674484 0.08145167 -0.05713749 0.03534947 -0.02413067 -0.12752995 0.016460484 -0.04931615
-0.15288746 -0.05248754 0.10634714 0.0010829379 -0.0048210593 -0.10023601 -0.076701306 -0.038369462
-0.12064322 -0.023594925 -0.22195247 0.014961134 0.1194217 -0.14994831 -0.08661383 -0.0027938923
-0.12032495 -0.060088858 0.022077583 -0.008791259 -0.06651024 -0.10390221 0.06640841 -0.04858157
-0.14303781 0.09734403 0.18183364 -0.19260009 0.0034239108 -0.062709056 -0.16773997 -0.16503365
00000000: e96c 463d 821b 85bc 1a52 a43d eeb4 db3d
00000010: 431d cb3d 057c a03a 9fc3 03bd c71f 533e
00000020: a21f 323c 864e ca3d 1f3a 0d3d 87d8 35bd
00000030: e3bc 89bd 8b26 203e 9197 8cbe d00a 79be
00000040: c364 89bd 2bcb afbb e5bb fcbc 0c1e 183d
00000050: 14f7 29bd 4271 91bd b164 26be bdbd d5bd
00000060: bbb4 a63d d1e8 37bc 390c 36be 5ae3 50bd
00000070: 49be d33a 6383 113d 5590 c2bc 11e2 edbc
00000080: 14e5 b13d 4b4e f2bc 1828 7dbb 83c6 8b3d
00000090: f5f7 2ebe a970 31bd d16c 733e 87f7 9d3c
000000a0: 55c2 fbbc 893e 003e ec0a b8bd e1a7 f3bc
000000b0: 0efc 233d a932 5fbe 9b42 2abd 5697 7fbd
000000c0: 036a fd3d 271b f83c a2b1 e83d 70b9 17bd
000000d0: 4e69 913e ca28 9b3d 1ac7 e3bd a48d bb3a
000000e0: f71a c73d b48e 553e 5a25 fb3c d63b 2fbe
000000f0: e535 fb3d c7de a9bd 348e 0ebd 9f25 33be
00000100: 64a4 96bd 00b4 c23d 9bc1 8f3d 4ef7 c8bd
00000110: c6c6 d9bd cf6c c1bd 7cf6 ab3c 5304 78be
00000120: 69c8 8f3d 9ee7 08be 225e c3bc a1ce 2abd
00000130: 3121 61bd 1851 c0bc 0e05 fbbc 8add 5b3e
00000140: 5049 ca3d 1802 41bd 9187 0ebd 9a1a 01bd
00000150: bea3 333e 8c52 273c d629 06be cad3 45be
00000160: f276 edbd 52b7 033d f055 e0bb 6d1e 79bc
00000170: 4853 85ba 6649 14be 6089 d4bc 0619 69bc
00000180: f7ff 5c3d e242 643c 8506 f3bc 0886 66bd
00000190: 97f8 fabd 9beb 1dbe 4d67 7e3c e9f7 063e
000001a0: fb8c 573e cc42 16be 42b3 c63d 354e f0ba
000001b0: 64d1 7dbe 2b0f 9abd 54eb 00bd a339 e6bb
000001c0: 8334 a8bc 06ab debc f48c e23a 4e98 9bbd
000001d0: 3384 353d b714 47bb 002d 8c3d 45c5 5c3d
000001e0: 69eb f838 c35c fa3a e318 423e 086e 923d
000001f0: 24c0 c1bd a221 f8bd 235f 7c3c 0903 4f3d
00000200: 5ccf 32bd abff 5a3d 449d b13d ad23 53bd
00000210: c86f c93b 939b 48be 4e8d 1abd 6fb9 75be
00000220: 699d 2fbe 02c9 e23b 485d 903d 1404 653e
00000230: 961d 09bd 2765 2c3e 0547 bd3d 64fc dabd
00000240: 8de4 24bd 5d36 623c b34e cfbd e782 37be
00000250: 2871 283d 6b0e dd3c 1fdd 963c 87d7 c1bc
00000260: 02a3 23bc 7356 183e c2a2 b8bd 6d38 b83c
00000270: b802 12bd a339 1abe 09a8 a43e f7db 5dbd
00000280: d2cb 0a3d 2d8b 74be 3a43 d83c f260 743d
00000290: 4d89 823c e05f e5bc 0a99 05be bbd1 19bc
000002a0: 79b7 853d 6b65 06be ce4b 90bc 678b 103e
000002b0: 4067 d3bb d4bc a9bd 9ad2 513d 2f6f 5cbd
000002c0: 85d0 bf3d 42b6 32bc b37a 463d 0c4f 143d
000002d0: 13f2 1fbe cbd9 b2bd ce87 ac3d 19f9 bd3d
000002e0: d476 24be 8cef d23c afca 523e f613 b8bd
000002f0: d330 03bc 1c2c b63a 58e2 2abd ca58 e5bc
00000300: a414 1a3b 87a1 91bd 89c5 8dbd 8d00 ab3d
00000310: 9357 40bd 7c0a 4abd 2bb7 93be 9f49 073d
00000320: 65c7 a2bd 1e51 8a3d bdc9 fe3d f5de b43d
00000330: dfa4 0c3e 7999 22be f44f 5a3c 9b61 f93c
00000340: 5fa7 2a3e 22aa f13d 205b 2fbe 8834 d23c
00000350: f5cd 5dbd 21b5 82bd c675 4f3e ee66 acbd
00000360: c281 163d 22d0 a63d 0009 6abd 9bca 103d
00000370: afad c5bc 3697 02be 23d8 863c bbff 49bd
00000380: 888e 1cbe 2dfd 56bd 88cc d93d 5ef1 8d3a
00000390: faf9 9dbb 8a48 cdbd 9315 9dbd 4c29 1dbd
000003a0: cb13 f7bd 254a c1bc 8247 63be 8b1f 753c
000003b0: 5d93 f43d 0d8c 19be 9762 b1bd bc19 37bb
000003c0: ed6c f6bd bc1f 76bd 0cdc b43c 3609 10bc
000003d0: 8536 88bd afca d4bd 2201 883d 78fd 46bd
000003e0: 8178 12be 4f5c c73d 9932 3a3e f538 45be
000003f0: b163 603b 9b6d 80bd 07c4 2bbe 95fe 28be

features.1.bn.weight f4 [64]
1.0624565 1.0118628 1.0262442 1.0348955 0.9966687 0.9694709 0.90708774 0.9087694
0.9207912 1.0314453 1.0028172 0.9465771 0.961191 1.0035434 0.9538837 1.0897124
0.96317905 0.9819471 0.9892566 1.0210139 0.9580428 0.9889075 0.9281839 0.94153064
0.891041 1.0630319 0.97310364 0.94094026 0.9892455 1.0341434 0.9982675 1.0378042
0.95050085 1.0282387 1.2438917 0.9317711 1.0213442 0.98770297 0.98499995 0.91054827
1.2499831 1.0621102 1.0495528 1.0767956 0.9691836 1.0857515 0.9125579 0.9745227
1.0268409 1.0713433 1.0439881 1.0219138 0.9926797 1.1468692 0.9613145 1.0213841
0.94393694 0.9267924 0.96087635 0.9964457 1.062167 0.9367246 0.99582857 1.0223435
00000000: 93fe 873f b884 813f f85b 833f 7577 843f
00000010: ae25 7f3f 3f2f 783f e736 683f 1da5 683f
00000020: f9b8 6b3f 6606 843f 505c 803f e052 723f
00000030: 9d10 763f 1c74 803f b931 743f b27b 8b3f
00000040: e792 763f e360 7b3f ec3f 7d3f 95b0 823f
00000050: 4b42 753f 0b29 7d3f 769d 6d3f 2708 713f
00000060: 431b 643f 6e11 883f 521d 793f 76e1 703f
00000070: 313f 7d3f d05e 843f 758e 7f3f c5d6 843f
00000080: 0654 733f 539d 833f d837 9f3f 8d88 6e3f
00000090: 68bb 823f 1ada 7c3f f528 7c3f b119 693f
000000a0: 72ff 9f3f 3af3 873f bf57 863f 70d4 893f
000000b0: 6b1c 783f e8f9 8a3f 659d 693f 527a 793f
000000c0: 866f 833f c721 893f 67a1 853f 12ce 823f
000000d0: 4220 7e3f 9ccc 923f b518 763f b7bc 823f
000000e0: daa5 713f 4442 6d3f fefb 753f 1117 7f3f
000000f0: 17f5 873f 2fcd 6f3f 9fee 7e3f 27dc 823f

features.1.bn.bias f4 [64]
-0.051773287 -0.028746601 -0.024696779 0.015131982 0.010663399 -0.023537833 -0.090600505 -0.05084954
-0.044099417 -0.021992961 -0.024675572 -0.0007071424 -0.024188403 0.016859634 -0.015858777 -0.05133041
0.032772288 -0.05081566 0.033910617 0.021983217 -0.033335786 0.04145929 -0.045716934 -0.05813306
-0.068401136 0.068447515 0.04972886 -0.108517945 -0.003814964 -0.009037374 -0.025958477 0.019169565
-0.010425576 -0.010397746 0.03502208 -0.12798986 -0.0025901333 0.015543281 0.0090712635 -0.021610899
-0.050883736 0.015169215 0.011346782 0.012563756 0.0072654877 -0.027312936 -0.049430404 0.0019262307
-0.029414099 0.023867164 -0.059994806 0.0096900165 -0.05940198 -0.048961446 -0.08953491 -0.013935295
-0.011309928 -0.1090074 0.0073961015 0.0024713625 0.029896192 -0.07499944 0.021425756 0.032395493
00000000: 3a10 54bd fe7d ebbc e650 cabc 22ec 773c
00000010: 89b5 2e3c 6ad2 c0bc c28c b9bd 9b47 50bd
00000020: 97a1 34bd 952a b4bc 6d24 cabc 865f 39ba
00000030: c226 c6bc 371d 8a3c 44ea 81bc d63f 52bd
00000040: 3c3c 063d 1524 50bd dce5 0a3d 2616 b43c
00000050: 1b8b 08bd 37d1 293d ae41 3bbd ee1c 6ebd
00000060: e515 8cbd 362e 8c3d 7db0 4b3d a83e debd
00000070: 7a04 7abb 7e11 14bc dfa6 d4bc 7e09 9d3c
00000080: 09d0 2abc 4f5b 2abc 5073 0f3d c60f 03be
00000090: 3abf 29bb 3fa9 7e3c a39f 143c 5709 b1bc
000000a0: 776b 50bd 4d88 783c dae7 393c 36d8 4d3c
000000b0: 5413 ee3b 61bf dfbc 8977 4abd 9479 fc3a
000000c0: d6f5 f0bc 1285 c33c 1dbd 75bd e0c2 1e3c
000000d0: 7e4f 73bd cc8b 48bd 145e b7bd dd50 64bc
000000e0: 474d 39bc 463f dfbd ff5a f23b 95f6 213b
000000f0: dce8 f43c 4e99 99bd 1185 af3c 23b1 043d

features.1.bn.running_mean f4 [64]
-0.59430856 -1.6385065 -0.7959969 -0.82294464 -0.6487069 -0.5608365 1.8307672 1.83453
1.4573143 -0.5723076 -1.0212742 -0.28547326 -0.07270781 -0.2618781 -0.06977636 -0.59725606
0.2014104 -0.25938314 -0.8157939 -0.20780648 -0.75993925 -0.393696 1.592796 -0.35230973
0.60558105 -1.207423 0.09681493 1.762228 1.3465182 -1.6064407 -0.8244994 -1.0341442
1.6191413 -0.8815593 -0.47660598 0.463436 -0.5721737 -1.0207713 -1.4750216 -0.4235444
-0.689005 -1.2003733 -0.5065403 -1.4753916 0.1383524 -0.641903 -0.020169517 -0.23896907
-0.35381165 -0.032959167 -1.6479561 -1.3399402 -0.69395244 -0.12006729 1.3402064 -0.18846948
1.2483128 -0.074649364 -0.16060841 -0.21479309 -1.4069054 1.1966274 -0.35254204 -1.36232
00000000: 9b24 18bf 95ba d1bf 74c6 4bbf 80ac 52bf
00000010: a811 26bf fb92 0fbf 9456 ea3f e1d1 ea3f
00000020: 4689 ba3f c082 12bf 1db9 82bf 8d29 92be
00000030: d5e7 94bd e314 86be e9e6 8ebd c6e5 18bf
00000040: 873e 4e3e decd 84be ded7 50bf 39cb 54be
00000050: 618b 42bf 8692 c9be bde0 cb3f f161 b4be
00000060: 5c07 1b3f d68c 9abf e846 c63d b090 e13f
00000070: b55a ac3f d99f cdbf 6512 53bf d65e 84bf
00000080: 0640 cf3f dfad 61bf b305 f4be 7c47 ed3e
00000090: fa79 12bf a2a8 82bf 82cd bcbf d0da d8be
000000a0: a262 30bf d5a5 99bf a0ac 01bf a2d9 bcbf
000000b0: 40ac 0d3e c153 24bf 8b3a a5bc 4fb4 74be
000000c0: cd26 b5be 3100 07bd 3af0 d2bf 2983 abbf
000000d0: dea6 31bf d7e5 f5bd e28b ab3f 25fe 40be
000000e0: b7c8 9f3f c4e1 98bd 8876 24be b8f2 5bbe
000000f0: 7a15 b4bf 162b 993f 6480 b4be 8060 aebf

features.1.bn.running_var f4 [64]
0.73920816 2.3251479 1.7066469 1.8086637 1.776537 1.0140843 2.0701008 3.0032446
3.143258 0.643511 2.1368835 1.5020952 0.46358854 1.3751794 1.9117236 1.8429409
1.2202731 0.60107565 0.97964245 0.60789657 1.67126 0.55766964 2.37173 1.7555974
2.1066344 1.7319247 0.62416756 2.896771 2.1141448 2.4051914 2.1578557 1.6922225
2.2814069 1.5801107 0.79076445 2.2638779 1.0089275 1.2731655 2.1786559 1.2930164
0.8296441 2.0513406 0.6591928 1.700286 0.86791325 1.1818165 3.2194161 1.5819345
2.0630667 0.817828 2.8946106 2.602471 1.665345 0.8431635 1.9790232 1.0365896
2.4475918 2.2342567 2.048421 1.2406583 1.8754491 1.5507122 0.79326034 3.0720599
00000000: bf3c 3d3f 39cf 1440 6873 da3f 4b82 e73f
00000010: 9065 e33f 84cd 813f 887c 0440 2935 4040
00000020: 242b 4940 23bd 243f b3c2 0840 a844 c03f
00000030: 7a5b ed3e e105 b03f 5cb3 f43f 7de5 eb3f
00000040: e931 9c3f 18e0 193f d9c9 7a3f 1c9f 1b3f
00000050: d9eb d53f 70c3 0e3f 6dca 1740 6ab7 e03f
00000060: 19d3 0640 b5af dd3f 72c9 1f3f b264 3940
00000070: 264e 0740 a8ee 1940 4f1a 0a40 bf9a d83f
00000080: 9202 1240 1141 ca3f 8a6f 4a3f 60e3 1040
00000090: 8924 813f 16f7 a23f 196f 0b40 9081 a53f
000000a0: 8e63 543f 2a49 0340 dcc0 283f f9a2 d93f
000000b0: 902f 5e3f c345 973f ea0a 4e40 d47c ca3f
000000c0: 4909 0440 2d5d 513f 4d41 3940 e38e 2640
000000d0: 062a d53f 90d9 573f a250 fd3f f8ae 843f
000000e0: 58a5 1c40 10fe 0e40 5419 0340 e4cd 9e3f
000000f0: b70e f03f bd7d c63f 1c13 4b3f a19c 4440

features.2.conv.weight f4 [128, 64, 5]
-0.0011468153 0.09864699 -0.02974696 -0.06988629 0.028200284 -0.033385135 -0.14523272 -0.06930494
0.1383873 0.02504498 0.15651514 0.04239796 -0.007091443 -0.09490314 -0.011080863 0.0045176987
-0.0068717296 -0.052652467 0.09062248 0.016255744 0.06557791 0.03579152 0.000873578 0.13186988
-0.109566815 0.005782315 0.025821134 -0.09056023 0.11630802 0.049182467 -0.032509975 0.036015492
0.02081185 0.016105307 0.03468309 -0.06287678 0.021429542 0.13339265 0.09454176 -0.0050495444
0.0516044 0.09646896 0.0043608416 -0.0151557885 0.05343193 0.035709247 -0.08198145 -0.09944002
0.08496344 0.10712728 -0.11769433 -0.0366683 -0.029991055 -0.027471311 0.042213388 0.05165538
-0.10823765 0.007967277 0.074667096 -0.0034683528 -0.12118773 -0.01189978 0.054226957 0.019031065
0.10850515 -0.008650985 -0.072832145 -0.085529156 -0.07720986 -0.12390753 -0.035380047 -0.15086958
-0.10069409 -0.14358892 -0.06505613 -0.061826408 0.058701344 -0.10122541 -0.07812532 -0.07514597
-0.07330251 -0.1842552 0.017091606 0.053467296 -0.0011963052 -0.13208105 0.043896683 -0.059730124
0.069022685 -0.017943189 0.048001528 0.010162896 -0.042435512 -0.13437618 0.10295747 0.11333162
0.1851402 0.12896553 0.010907075 0.0031061291 -0.08022673 -0.06292917 -0.12872772 0.23039046
-0.0041461647 0.09213516 0.07976503 -0.010884558 -0.09482283 -0.10598551 0.0031035298 -0.07123378
0.026988253 0.015171502 0.025006898 -0.028514244 0.0041344278 0.12187558 0.038891226 0.021539329
-0.08269797 -0.1870413 0.08164543 0.009118256 -0.028929831 0.048226394 -0.059966598 0.104653
0.0217303 -0.0035555009 -0.064611085 -0.08555645 -0.08091514 -0.060795207 0.0050688214 -0.003857528
0.045603964 0.0633043 -0.03131688 -0.036174167 -0.019891128 -0.0646392 0.15444835 -0.02648604
0.035904873 0.09552538 0.11959316 0.017442483 0.0020447383 0.12168131 -0.1026008 -0.12506436
-0.029827163 0.069454186 -0.009806939 0.04209016 -0.016321344 0.06493144 -0.06793968 -0.027747272
-0.21907176 0.05127254 -0.05804093 0.008310107 0.010067769 0.23488173 -0.04544998 -0.08022146
0.04302604 0.037430733 0.1486476 0.09785485 0.002534357 0.20066237 0.044880014 -0.042024232
-0.0050754566 0.021856844 -0.054827947 -0.06308237 -0.06984765 -0.070859954 0.1425623 -0.003406156
0.040564816 -0.00013604196 -0.10644103 0.015754897 -0.021827536 0.061716672 0.0029520688 -0.0067942445
-0.012863753 0.13481717 -0.015603379 -0.030626496 0.09108707 0.10916303 -0.11436535 0.021984642
0.117464475 0.111440405 -0.0726602 -0.037875246 0.06639429 0.032283515 -0.08003335 -0.0011133922
0.09379788 -0.036266994 0.18671218 0.0037337982 -0.096236095 -0.08675569 0.14712061 -0.009430605
-0.0009291015 0.0048429505 0.05889755 0.16367415 0.095899545 -0.039086692 0.016414285 -0.045622833
0.026096342 -0.15255308 -0.09118991 0.04019343 -0.04521226 0.066217236 0.07268432 0.01236383
0.08836184 0.005268726 -0.06526719 -0.21619433 -0.02966452 -0.073649935 -0.013803302 -0.08601584
-0.013990486 0.07463699 -0.10255246 -0.08031071 0.15107903 0.09857081 -0.117231265 -0.07678067
0.061769925 0.019495271 0.001363844 0.155184 0.090129636 -0.042284586 0.17399888 -0.11615761
00000000: bc50 96ba 6f07 ca3d e6af f3bc 8b20 8fbd
00000010: 4804 e73c dabe 08bd e3b7 14be c0ef 8dbd
00000020: 66b5 0d3e 212b cd3c 8145 203e 7ca9 2d3d
00000030: 565f e8bb 945c c2bd 828c 35bc 3409 943b
00000040: 3f2c e1bb 1daa 57bd 4798 b93d c42a 853c
00000050: b64d 863d 219a 123d d400 653a e608 073e
00000060: 9164 e0bd 9379 bd3b d886 d33c a477 b9bd
00000070: e632 ee3d 8e73 493d 2e29 05bd fb84 133d
00000080: 9d7d aa3c 47ef 833c db0f 0e3d 8bc5 80bd
00000090: 028d af3c 1598 083e 1c9f c13d a676 a5bb
000000a0: 235f 533d 8591 c53d 64e5 8e3b fc4f 78bc
000000b0: 70db 5a3d dc43 123d e4e5 a7bd 36a7 cbbd
000000c0: 5001 ae3d 8c65 db3d ba09 f1bd 8031 16bd
000000d0: cdaf f5bc 840b e1bc f2e7 2c3d 9794 533d
000000e0: b3ab ddbd 2f89 023c 10eb 983d 4e4d 63bb
000000f0: 4631 f8bd 4bf7 42bc 161d 5e3d 09e7 9b3c
00000100: f337 de3d dcbc 0dbc 0529 95bd e929 afbd
00000110: 3420 9ebd 3bc3 fdbd abea 10bd 8e7d 1abe
00000120: b438 cebd f908 13be 263c 85bd b03d 7dbd
00000130: d270 703d 454f cfbd 2b00 a0bd 21e6 99bd
00000140: a01f 96bd 65ad 3cbe b203 8c3c 8600 5b3d
00000150: 57cd 9cba 4140 07be 02cd 333d 93a7 74bd
00000160: c45b 8d3d 98fd 92bc 409d 443d 4682 263c
00000170: dcd0 2dbd e999 09be 5edb d23d 691a e83d
00000180: 6595 3d3e 8a0f 043e 97b3 323c 3390 4b3b
00000190: e94d a4bd 02e1 80bd 33d1 03be 7aeb 6b3e
000001a0: 8ddc 87bb 5cb1 bc3d d95b a33d 2555 32bc
000001b0: 7932 c2bd ee0e d9bd 9764 4b3b 04e3 91bd
000001c0: 7816 dd3c e491 783c 44db cc3c b496 e9bc
000001d0: 187a 873b e799 f93d 684c 1f3d 3f73 b03c
000001e0: 8e5d a9bd c187 3fbe b835 a73d bd64 153c
000001f0: 41fe ecbc 0a89 453d 899f 75bd 5054 d63d
00000200: be03 b23c 6803 69bb d152 84bd 3838 afbd
00000210: d6b6 a5bd 6504 79bd 5b18 a63b 95ce 7cbb
00000220: 39cb 3a3d afa5 813d 2146 00bd 5d2b 14bd
00000230: b8f2 a2bc 8f61 84bd b527 1e3e 40f9 d8bc
00000240: fd10 133d cfa2 c33d 42ed f43d 8ae3 8e3c
00000250: 0401 063b 0d34 f93d 5e20 d2bd df10 00be
00000260: 1858 f4bc ff3d 8e3d 49ad 20bc bb66 2c3d
00000270: 57b4 85bc c6fa 843d f523 8bbd 3f4e e3bc
00000280: 5954 60be 2803 523d 54bc 6dbd 1d27 083c
00000290: 49f3 243c d684 703e c229 3abd 264b a4bd
000002a0: 133c 303d f850 193d 1437 183e 2068 c83d
000002b0: 7417 263b 707a 4d3e 1bd4 373d 9a21 2cbd
000002c0: 0450 a6bb 200d b33c 4593 60bd 5431 81bd
000002d0: 490c 8fbd 061f 91bd dafb 113e d139 5fbb
000002e0: 4b27 263d 7ca6 0eb9 c1fd d9bd 6a10 813c
000002f0: a9cf b2bc 9fca 7c3d 7f77 413b 41a2 debb
00000300: 7ec2 52bc 830d 0a3e 51a5 7fbc 6be4 fabc
00000310: dc8b ba3d de90 df3d 6138 eabd 2319 b43c
00000320: 3791 f03d de3a e43d dfce 94bd 1323 1bbd
00000330: bbf9 873d b83b 043d 86e8 a3bd 3eef 91ba
00000340: 1a19 c03d b38c 14bd 7a31 3f3e bdb2 743b
00000350: 6e17 c5bd f8ac b1bd c9a6 163e d382 1abc
00000360: f28e 73ba 9db1 9e3b 8f3e 713d 329a 273e
00000370: fb66 c43d 5e19 20bd 4077 863c 02df 3abd
00000380: ffc7 d53c e036 1cbe c7c1 babd dea1 243d
00000390: 7e30 39bd e79c 873d 84db 943d a991 4a3c
000003a0: 0df7 b43d 47a5 ac3b ceaa 85bd 0c62 5dbe
000003b0: 0203 f3bc c7d5 96bd 3f27 62bc 1329 b0bd
000003c0: 5a38 65bc 47db 983d 0607 d2bd f179 a4bd
000003d0: 76b4 1a3e 7edf c93d f216 f0bd 2f3f 9dbd
000003e0: 7602 7d3d 8cb4 9f3c 03c3 b23a 8ee8 1e3e
000003f0: e395 b83d 9a32 2dbd c32c 323e 0be4 edbd

features.2.bn.weight f4 [128]
0.94300747 1.0144792 0.94236374 1.1038479 0.93527985 1.0981944 1.0760065 1.0071895
1.0648916 0.97518486 1.0203649 1.0115757 0.9901513 0.9510235 0.90110934 0.93223125
0.977056 0.9957662 1.0195777 1.0058321 0.9339144 1.0626997 1.0556233 0.94287026
1.0355889 0.93699646 0.9921415 0.9347098 1.003319 1.0645787 1.0367743 0.99352264
0.95065963 0.91758245 0.9965749 0.98220193 1.0080678 0.9915988 0.938684 0.9709649
0.9612353 0.99921936 1.004266 1.0483716 1.03124 0.86449 1.0082505 0.9660757
0.9150085 1.0507874 0.9524794 0.9401742 1.0132698 0.9571916 0.9838181 1.0206274
1.0121756 1.0321722 0.97183174 0.97201264 1.1144128 0.94049704 0.9814591 0.9744525
1.0021136 1.0864811 0.9359834 0.94275147 0.9802389 0.9885727 1.0766207 0.98749214
0.9408403 1.0165523 0.9751406 0.9627838 0.9819334 0.91467285 0.9808305 0.9860291
0.9144562 0.9143594 1.0362532 0.99536973 0.8952906 0.94704944 0.95575404 0.95629936
1.0799998 0.9952822 1.0318661 0.9203135 0.9974847 0.95756674 1.0397481 0.94837445
1.0201633 0.95631164 1.0365236 0.954294 0.9943041 0.93227917 0.9594001 0.964067
1.0367235 0.9646955 0.9486041 0.9393436 0.98366123 0.9633561 0.96160334 0.98298347
0.99509674 1.0233521 1.0090456 1.036785 1.0180836 0.9970802 0.9165924 0.9321807
1.0040213 1.0409212 0.9870447 0.9744598 1.0558553 0.9558373 0.9763182 0.949682
00000000: f068 713f 74da 813f c03e 713f e34a 8d3f
00000010: 806e 6f3f a291 8c3f 95ba 893f 96eb 803f
00000020: 5e4e 883f b7a5 793f 519b 823f 507b 813f
00000030: 8e7a 7d3f 4776 733f 1aaf 663f b5a6 6e3f
00000040: 5820 7a3f 89ea 7e3f 8681 823f 1bbf 803f
00000050: 0415 6f3f 8b06 883f aa1e 873f f25f 713f
00000060: 2d8e 843f 00df 6f3f fcfc 7d3f 2449 6f3f
00000070: c26c 803f 1d44 883f 05b5 843f 8057 7e3f
00000080: 6e5e 733f afe6 6a3f 881f 7f3f 9671 7b3f
00000090: 5e08 813f 6bd9 7d3f 984d 703f 2891 783f
000000a0: 8413 763f d7cc 7f3f ca8b 803f 0a31 863f
000000b0: acff 833f 374f 5d3f 5a0e 813f bd50 773f
000000c0: ff3d 6a3f 3480 863f b1d5 733f 42af 703f
000000d0: d3b2 813f 820a 753f 81db 7b3f eba3 823f
000000e0: f88e 813f 381e 843f f7c9 783f d2d5 783f
000000f0: 14a5 8e3f 6ac4 703f e740 7b3f b875 793f
00000100: 4245 803f d011 8b3f 9c9c 6f3f 2958 713f
00000110: f0f0 7a3f 1a13 7d3f b5ce 893f 49cc 7c3f
00000120: e9da 703f 631e 823f d0a2 793f 0079 763f
00000130: fd5f 7b3f 0028 6a3f b517 7b3f 676c 7c3f
00000140: cd19 6a3f 7513 6a3f f2a3 843f 8dd0 7e3f
00000150: c431 653f d571 723f 4cac 743f 09d0 743f
00000160: 6f3d 8a3f d0ca 7e3f 3014 843f aa99 6b3f
00000170: 285b 7f3f 1823 753f 7716 853f abc8 723f
00000180: b694 823f d7d0 743f ceac 843f 9d4c 743f
00000190: b78a 7e3f d9a9 6e3f 3f9b 753f 18cd 763f
000001a0: 5bb3 843f 49f6 763f b8d7 723f d278 703f
000001b0: 39d1 7b3f 819e 763f a32b 763f cea4 7b3f
000001c0: a9be 7e3f 34fd 823f 6828 813f 5fb5 843f
000001d0: 9050 823f a640 7f3f cda5 6a3f 65a3 6e3f
000001e0: c583 803f e83c 853f f6ae 7c3f 3376 793f
000001f0: 4426 873f c1b1 743f fdef 793f 5c1e 733f

features.2.bn.bias f4 [128]
-0.07990091 -0.07929124 -0.09318559 -0.1380983 -0.11408961 -0.076555766 -0.13239788 -0.14063092
-0.039221816 -0.07287033 -0.03363246 -0.059817754 -0.01985536 -0.025460688 -0.10512739 -0.1061095
-0.1305145 -0.081402116 -0.09144801 -0.05822357 -0.050879642 -0.09339857 -0.030251278 -0.057411797
-0.10693405 -0.15147671 -0.05954851 -0.14371194 -0.011429356 -0.08540253 -0.10502742 -0.10570984
-0.12651768 -0.12225019 -0.13795255 -0.07899797 -0.030509278 -0.100137286 -0.058159165 -0.09845714
-0.11761846 -0.06451234 -0.016068578 -0.11570799 -0.060428973 -0.11178558 -0.050039317 -0.06370138
-0.060724575 -0.10829233 -0.08128587 -0.054088484 -0.10722827 -0.018014554 -0.11594167 -0.07608022
-0.08070596 -0.049050633 -0.0317851 -0.109421775 -0.16806462 -0.10290273 -0.015392288 -0.05007101
-0.090508744 -0.06311309 -0.1279011 -0.102453865 -0.16690512 -0.11254647 -0.09702744 -0.063013434
-0.04273641 -0.20721295 -0.08924814 -0.06995199 -0.13476321 -0.16232194 -0.028841218 -0.12710115
-0.07495901 -0.07376909 -0.120052055 -0.08436387 -0.108801514 -0.10071378 -0.1172642 -0.09432455
-0.01084484 -0.11510536 -0.04419495 -0.13686366 -0.14903839 -0.111710936 -0.123581216 -0.13798526
-0.01766692 -0.03712224 -0.03746917 -0.043282785 -0.058431376 -0.040245913 -0.1442699 -0.16617984
-0.033569694 -0.060716156 -0.11814468 -0.1119726 -0.100472435 -0.08941862 -0.07293445 -0.063646734
-0.14612763 -0.045424826 -0.061439633 -0.08314686 -0.10260991 -0.0070450227 -0.087568924 -0.07357736
-0.0697262 -0.039509963 -0.07692428 -0.114815176 -0.0507362 -0.06842188 -0.09680125 -0.14472423
00000000: 17a3 a3bd 7263 a2bd 16d8 bebd a469 0dbe
00000010: d0a7 e9bd 45c9 9cbd 4f93 07be 8d01 10be
00000020: 0ea7 20bd 0a3d 95bd 31c2 09bd 7603 75bd
00000030: b5a7 a2bc ef92 d0bc 074d d7bd f04f d9bd
00000040: 98a5 05be 27b6 a6bd 1849 bbbd d77b 6ebd
00000050: 2c67 50bd c047 bfbd 87d1 f7bc a228 6bbd
00000060: 3d00 dbbd b61c 1bbe 23e9 73bd 3929 13be
00000070: 3242 3bbc 86e7 aebd 9e18 d7bd 677e d8bd
00000080: da8d 01be 4f5e fabd 6f43 0dbe b0c9 a1bd
00000090: 98ee f9bc c714 cdbd 4e38 6ebd e6a3 c9bd
000000a0: f2e1 f0bd 0c1f 84bd 40a2 83bc 50f8 ecbd
000000b0: 5f84 77bd d7ef e4bd 07f6 4cbd de75 82bd
000000c0: 55ba 78bd 5ec8 ddbd 3579 a6bd e38b 5dbd
000000d0: 7f9a dbbd 4293 93bc d472 edbd f2cf 9bbd
000000e0: 2b49 a5bd 51e9 48bd 1831 02bd 8618 e0bd
000000f0: 2219 2cbe abbe d2bd ef2f 7cbc 4217 4dbd
00000100: a65c b9bd 7041 81bd 82f8 02be 55d3 d1bd
00000110: 2de9 2abe c37e e6bd 53b6 c6bd 300d 81bd
00000120: 600c 2fbd a22f 54be bbc7 b6bd fd42 8fbd
00000130: 5eff 09be b937 26be 6b44 ecbc ce26 02be
00000140: 1c84 99bd 4014 97bd dadd f5bd f7c6 acbd
00000150: 54d3 debd 0743 cebd 3628 f0bd 3b2d c1bd
00000160: 8eae 31bc 5cbc ebbd c405 35bd fd25 0cbe
00000170: 859d 18be b4c8 e4bd 2618 fdbd 024c 0dbe
00000180: 37ba 90bc 7d0d 18bd 4679 19bd 4a49 31bd
00000190: bd55 6fbd e6d8 24bd 7dbb 13be 0c2b 2abe
000001a0: 6080 09bd 81b1 78bd d7f5 f1bd e451 e5bd
000001b0: 7ec4 cdbd 1c21 b7bd a85e 95bd 3859 82bd
000001c0: 7ba2 15be 620f 3abd 20a8 7bbd e748 aabd
000001d0: 2525 d2bd efd9 e6bb 5657 b3bd baaf 96bd
000001e0: 9ccc 8ebd 33d5 21bd 7a8a 9dbd 3824 ebbd
000001f0: c3d0 4fbd c520 8cbd bc3f c6bd 9732 14be

features.2.bn.running_mean f4 [128]
0.607746 1.5319281 -0.6850106 -0.410323 -0.79474485 0.7991402 0.034963194 -1.2228762
-1.0953116 -0.71341544 1.5942473 1.5302067 -0.22006153 -0.38425756 0.3771557 -0.07520188
-1.3313273 0.1833454 -0.5862235 -0.1471642 0.447448 0.5019343 0.8225507 -1.0247272
-0.3858995 -0.4092567 0.5538216 1.4806784 0.7030182 -0.027408462 -0.059039395 -2.388675
-0.7645309 1.2674106 -0.93368596 0.47069064 2.0195131 -0.4123827 -0.20073146 0.691512
0.06887969 -1.2323835 -0.70505166 -1.0079962 0.2608497 1.1219995 0.60983026 -1.8237969
1.4168684 0.5844735 -0.87855124 -1.205333 -1.544089 -0.35962394 0.89526767 -0.8160433
-1.1968834 -1.5241325 1.1380911 -1.4040188 -0.8732072 0.10573013 1.3476243 -0.19405696
1.7623014 -0.37634254 -0.9067617 -0.9346321 -0.64758795 1.4699619 0.9278011 0.14103289
2.033469 1.1249323 0.83012605 -0.49862987 0.12727799 -0.52963567 0.6226224 0.11092241
0.27392516 -0.19142169 0.3314899 -0.72115856 -0.021589996 0.26720315 -0.80690074 1.427766
0.9231476 0.7423146 0.6170128 1.372014 -0.48984563 -0.28355953 -2.2739131 0.36685795
-0.6770454 -0.19382499 0.3766149 1.1126997 0.5959831 -0.42464793 -1.5148634 -1.0781692
-0.31605342 1.3105472 0.9284338 0.039467584 0.9431246 1.802459 -0.1854339 -1.1712556
-0.48419836 0.30562228 -0.30591476 -0.18585727 1.1073086 0.028360937 -1.8180655 0.9258434
-0.68512493 0.05473435 -2.1836877 -2.2705512 -1.0769904 1.1907793 -0.52205837 -1.2753477
00000000: 3e95 1b3f 3816 c43f db5c 2fbf db15 d2be
00000010: 6674 4bbf 7494 4c3f 9135 0f3d 3587 9cbf
00000020: 2c33 8cbf 65a2 36bf 4c10 cc3f d0dd c33f
00000030: cf57 61be 68bd c4be 8d1a c13e 7103 9abd
00000040: ef68 aabf e6be 3b3e be12 16bf 36b2 16be
00000050: e717 e53e c47e 003f af92 523f 432a 83bf
00000060: 9f94 c5be 188a d1be 41c7 0d3f df86 bd3f
00000070: 00f9 333f b687 e0bc 4bd3 71bd 0de0 18c0
00000080: 4cb8 43bf 833a a23f 0b06 6fbf 5dfe f03e
00000090: b43f 0140 d323 d3be 8c8c 4dbe ee06 313f
000000a0: cb10 8d3d bebe 9dbf 447e 34bf 0506 81bf
000000b0: 188e 853e ae9d 8f3f d61d 1c3f 2d72 e9bf
000000c0: f25b b53f 0ea0 153f bce8 60bf 5a48 9abf
000000d0: b5a4 c5bf a120 b8be 4330 653f 37e8 50bf
000000e0: 7a33 99bf c616 c3bf f8ac 913f e3b6 b3bf
000000f0: 828a 5fbf 0a89 d83d f47e ac3f deb6 46be
00000100: 1893 e13f f8af c0be 8921 68bf 0d44 6fbf
00000110: 53c8 25bf b627 bc3f 5f84 6d3f ed6a 103e
00000120: 5b24 0240 c8fd 8f3f 2483 543f 6a4c ffbe
00000130: 2955 023e 3496 07bf 2e64 1f3f 4a2b e33d
00000140: eb3f 8c3e 0c04 44be 0bb9 a93e d99d 38bf
00000150: 81dd b0bc dace 883e 0c91 4ebf 09c1 b63f
00000160: 6753 6c3f 5408 3e3f 8df4 1d3f 289e af3f
00000170: 0ccd fabe b72e 91be cb87 11c0 ced4 bb3e
00000180: d952 2dbf 0f7a 46be abd3 c03e f26c 8e3f
00000190: 5992 183f 746b d9be 0be7 c1bf 7301 8abf
000001a0: c1d1 a1be 03c0 a73f d6ad 6d3f c3a8 213d
000001b0: 9d70 713f fab6 e63f 62e2 3dbe b4eb 95bf
000001c0: d9e8 f7be 867a 9c3e dca0 9cbe 5e51 3ebe
000001d0: 4abc 8d3f 3255 e83c 5fb6 e8bf 1304 6d3f
000001e0: 5964 2fbf 2031 603d 8ac1 0bc0 b650 11c0
000001f0: d2da 89bf 756b 983f 9ea5 05bf 983e a3bf

features.2.bn.running_var f4 [128]
0.95902765 1.4813287 2.4058204 2.7047908 1.7280723 2.494257 1.3075726 2.2187908
1.3920741 1.5232965 1.4524775 1.1073419 1.7307003 2.2309463 1.7397513 2.2429988
2.495432 0.756428 1.058779 1.2747946 2.4500077 2.1807313 1.4291668 1.8096942
2.2010317 2.1542296 1.2535033 2.8830206 2.1435618 1.1307145 1.3024397 2.6761518
1.87842 2.0087223 1.3224918 2.0191786 0.7392701 1.1559159 1.5327092 2.4518175
1.0367965 1.7227514 1.1311115 1.6840951 1.4367518 2.8468244 1.1094902 2.4018538
2.2976875 1.267686 1.6435773 1.0761654 1.4566543 2.4068165 1.0778787 1.5453658
1.5262035 2.2458093 1.4242808 1.5628463 1.3411014 1.7435637 1.2142074 1.8049409
2.1617715 1.8611251 2.5047946 1.7924843 2.0974276 1.9710345 1.7812608 0.6971936
2.55249 1.6352803 1.6625254 1.5042318 1.0133133 0.9720151 1.642061 1.5168005
1.0935063 1.375183 1.0835552 1.0698446 2.7422214 0.8774449 1.2178692 2.3165176
0.9783444 1.0204643 1.0378783 1.8858202 2.527663 1.588068 3.1910508 1.065456
1.5297745 1.7415901 0.7666268 2.1588912 0.9506986 2.0165837 1.8808846 1.5592893
1.9079015 1.5464417 1.001979 1.3616551 1.7500867 2.0648015 1.5399383 1.4224986
1.5958948 0.89279276 1.4499025 1.7995193 1.4837345 1.6525925 3.0133932 1.3373286
1.758723 1.2037643 3.7122216 2.2235694 2.842357 1.033151 1.1524372 1.6232713
00000000: d682 753f 2e9c bd3f f6f8 1940 4b1b 2d40
00000010: 7931 dd3f e8a1 1f40 8a5e a73f ab00 0e40
00000020: 7c2f b23f 61fb c23f c8ea b93f 61bd 8d3f
00000030: 9687 dd3f d3c7 0e40 2cb0 de3f 4b8d 0f40
00000040: 28b5 1f40 44a5 413f 1286 873f 782c a33f
00000050: edcc 1c40 1a91 0b40 f0ee b63f 0fa4 e73f
00000060: b4dd 0c40 e6de 0940 cc72 a03f 6983 3840
00000070: 1e30 0940 41bb 903f 58b6 a63f 1246 2b40
00000080: 1170 f03f e88e 0040 6947 a93f 393a 0140
00000090: ce40 3d3f 0df5 933f d12f c43f 94ea 1c40
000000a0: bfb5 843f 1e83 dc3f 43c8 903f 6e90 d73f
000000b0: 7ce7 b73f 5f32 3640 c603 8e3f f9b7 1940
000000c0: 500d 1340 8943 a23f be60 d23f cabf 893f
000000d0: a673 ba3f 4809 1a40 eef7 893f 8cce c53f
000000e0: a35a c33f 57bb 0f40 d54e b63f 590b c83f
000000f0: 36a9 ab3f 182d df3f 266b 9b3f 4e08 e73f
00000100: 775a 0a40 5939 ee3f 8e4e 2040 2070 e53f
00000110: 413c 0640 dc4a fc3f 5b00 e43f 487b 323f
00000120: ff5b 2340 dd50 d13f a2cd d43f ab8a c03f
00000130: 40b4 813f fbd5 783f 0e2f d23f 8526 c23f
00000140: 04f8 8b3f ff05 b03f f0b1 8a3f abf0 883f
00000150: 8e80 2f40 3ba0 603f 23e3 9b3f d341 1440
00000160: c774 7a3f 939e 823f 32d9 843f 8e62 f13f
00000170: 3bc5 2140 d045 cb3f 2d3a 4c40 dd60 883f
00000180: a7cf c33f 6dec de3f a741 443f 462b 0a40
00000190: fc60 733f b50f 0140 d4c0 f03f cb96 c73f
000001a0: 1e36 f43f cdf1 c53f d940 803f b74a ae3f
000001b0: d702 e03f b525 0440 b31c c53f 6f14 b63f
000001c0: 4846 cc3f 118e 643f 6896 b93f a656 e63f
000001d0: 03eb bd3f 2788 d33f 6fdb 4040 952d ab3f
000001e0: d61d e13f f314 9a3f 0a95 6d40 f64e 0e40
000001f0: 2de9 3540 4b3e 843f 1083 933f 5bc7 cf3f

features.3.conv.weight f4 [256, 128, 3]
0.009954507 -0.015430243 0.0019590717 -0.17988521 0.082366236 -0.033409543 0.008989893 0.06695905
0.053014025 -0.09214659 -0.0022715717 -0.0278978 -0.0466964 0.037184034 0.03762455 -0.12957443
-0.11456545 0.05903566 0.07072033 0.14751182 0.045042466 -0.022702467 0.05621081 0.071429476
-0.0771717 -0.07208715 -0.041486487 -0.049198374 0.0021072414 -0.04903258 0.02235926 -0.0009490808
-0.055837005 -0.0012278508 0.010273672 -0.0077247657 -0.02873509 0.09513429 0.0049242675 -0.07914696
-0.019144792 -0.0564764 0.047512732 0.055844814 -0.01558478 -0.031872306 0.026673608 0.0052636527
-0.06803223 -0.02547244 -0.077084824 0.029902678 0.07174729 -0.08014379 -0.070597336 -0.072022006
-0.07042059 0.014222031 -0.0041501955 -0.08549727 0.0017807311 0.059523664 -0.113507204 -0.06714665
-0.0065841465 0.113159195 0.1073836 0.031932276 0.14221184 -0.0055491864 0.022946654 -0.09246673
-0.0835259 0.01604332 0.05022469 -0.092735015 0.11833198 0.024792803 -0.04226104 0.07267325
-0.03774659 -0.055891704 0.0026624147 0.0870204 -0.012208343 0.010651041 0.017789641 -0.04614587
0.20007938 0.11906025 -0.0728584 0.056415197 0.08155259 -0.03662398 -0.09571098 0.06477145
0.0021670894 0.0077461377 -0.05103019 0.03551269 -0.005483519 -0.0027578895 0.045349304 -0.00590375
-0.060704008 -0.060258493 0.034260888 -0.013692687 0.014035822 0.05796283 0.053060476 0.057322744
0.1242306 0.039239984 0.01705955 0.07076789 0.08123062 0.06786912 0.10020368 -0.0021491377
-0.0006747653 -0.014576116 0.14831837 0.042301122 -0.07096644 0.04750291 0.07310093 0.01483813
0.050775133 -0.108865775 -0.031688944 0.027123095 0.0782407 0.041359514 0.1766236 -0.10110767
-0.04212801 0.014604395 -0.053841516 -0.08898541 0.09036922 0.03993088 -0.071776755 -0.11359694
0.033812474 0.06179771 -0.0067605427 0.114378884 0.18344928 0.009557628 -0.1253319 -0.026855813
-0.07909131 -0.00256269 0.06466102 0.106053755 -0.06902166 -0.044177443 -0.11610612 0.061054543
0.011497287 0.064258575 0.0054906365 0.07002644 -0.15847391 0.04906727 -0.022096906 -0.050940845
0.041438613 -0.04860378 -0.0068074856 0.017300043 -0.05052251 -0.10790268 0.01563839 -0.024376651
-0.020442026 -0.02597304 0.122465305 -0.024463996 -0.09410149 -0.031135172 -0.03429646 -0.028656045
-0.056027044 -0.05057872 -0.014552606 -0.0185452 0.09954525 -0.119850166 0.11402445 -0.06436354
-0.08723869 0.10032983 0.0049511264 -0.06831287 -0.124454774 -0.106237516 0.055132907 0.046789505
-0.052836023 -0.07176373 -0.008914793 0.005238778 -0.19832398 -0.06919026 0.064937 0.0014525793
-0.053648714 -0.14981647 -0.024250016 -0.014318681 -0.09319456 0.026595654 0.03854153 0.074432924
-0.09423332 0.12193586 0.06340506 -0.04084515 -0.13416182 -0.060682204 -0.059368577 -0.015041315
-0.025255157 0.018886346 0.00886971 0.10200663 0.15318882 0.11399883 0.021572582 -0.056972817
0.07975064 -0.0063550626 -0.030940477 0.049241446 0.016989201 -0.094163075 0.018134635 -0.050463375
0.12065133 0.0010161083 0.06793558 0.026209736 0.10952078 0.1309156 0.12225811 0.104634956
0.03929464 0.034705333 -0.06270503 0.015701257 -0.14159198 0.056588277 0.1152146 0.1290483
00000000: 3b18 233c 21cf 7cbc c563 003b d433 38be
00000010: a1af a83d 72d8 08bd 584a 133c d421 893d
00000020: 3c25 593d 5ab7 bcbd a6de 14bb ed89 e4bc
00000030: b944 3fbd 494e 183d 331c 1a3d 29af 04be
00000040: 4aa1 eabd 60cf 713d d2d5 903d 570d 173e
00000050: 737e 383d 86fa b9bc 4e3d 663d 9e49 923d
00000060: 320c 9ebd 6da2 93bd bced 29bd 3c84 49bd
00000070: a519 0a3b 63d6 48bd c42a b73c bccb 78ba
00000080: 58b5 64bd d6ef a0ba e752 283c 0820 fdbb
00000090: da65 ebbc c4d5 c23d c05b a13b cd17 a2bd
000000a0: 8ad5 9cbc cc53 67bd b69c 423d 88bd 643d
000000b0: 4e57 7fbc 898c 02bd 9c82 da3c b87a ac3b
000000c0: 7b54 8bbd 94ab d0bc a6de 9dbd 76f6 f43c
000000d0: 3ef0 923d 6d22 a4bd 5695 90bd 4680 93bd
000000e0: ac38 90bd 8603 693c 5dfe 87bb 3119 afbd
000000f0: 6c67 e93a 16cf 733d 7776 e8bd 2f84 89bd
00000100: d3bf d7bb 02c0 e73d efeb db3d 6bcb 023d
00000110: fb9f 113e f3d5 b5bb 9ffa bb3c 325f bdbd
00000120: a10f abbd 486d 833c 68b8 4d3d dbeb bdbd
00000130: 0a58 f23d 471a cb3c ea19 2dbd b7d5 943d
00000140: 2b9c 1abd b3ee 64bd e87b 2e3b c037 b23d
00000150: 8005 48bc b481 2e3c 95bb 913c 7403 3dbd
00000160: 9ce1 4c3e dcd5 f33d c936 95bd 9f13 673d
00000170: 0b05 a73d 0703 16bd 1e04 c4bd e5a6 843d
00000180: ba05 0e3b 50d3 fd3b 0805 51bd c175 113d
00000190: 17af b3bb b5bd 34bb 31c0 393d 3f74 c1bb
000001a0: c4a4 78bd 9cd1 76bd 2555 0c3d 4b57 60bc
000001b0: 81f6 653c 6f6a 6d3d f155 593d 41cb 6a3d
000001c0: 9d6c fe3d 1bba 203d 78c0 8b3c c1ee 903d
000001d0: 3d5c a63d f7fe 8a3d 9637 cd3d 8cd8 0cbb
000001e0: bce2 30ba a9d0 6ebc c5e0 173e f143 2d3d
000001f0: da56 91bd 6992 423d f1b5 953d a11b 733c
00000200: 96f9 4f3d 05f5 debd 44cc 01bd 4131 de3c
00000210: a93c a03d 9868 293d d1dc 343e 8a11 cfbd
00000220: 6c8e 2cbd 4647 6f3c ec88 5cbd fc3d b6bd
00000230: 7f13 b93d 908e 233d b1ff 92bd 83a5 e8bd
00000240: f37e 0a3d 981f 7d3d 8b87 ddbb 7a3f ea3d
00000250: 21da 3b3e 9997 1c3c 0157 00be b900 dcbc
00000260: a0fa a1bd cef2 27bb ff6c 843d b632 d93d
00000270: 3a5b 8dbd 68f3 34bd 0cc9 edbd 5414 7a3d
00000280: 1e5f 3c3c 009a 833d ccea b33b 066a 8f3d
00000290: fc46 22be c3fa 483d 9204 b5bc 59a7 50bd
000002a0: 89bb 293d c214 47bd 5411 dfbb d2b8 8d3c
000002b0: b1f0 4ebd 15fc dcbd 151c 803c 8bb1 c7bc
000002c0: 0976 a7bc 6ac5 d4bc 17cf fa3d b868 c8bc
000002d0: 48b8 c0bd 300f ffbc 727a 0cbd 15c0 eabc
000002e0: 9d7c 65bd a22b 4fbd 0e6e 6ebc 1aec 97bc
000002f0: 61de cb3d 0174 f5bd a785 e93d 08d1 83bd
00000300: 33aa b2bd ba79 cd3d 0f3d a23b 9ee7 8bbd
00000310: 25e2 febd 0e93 d9bd 0bd3 613d 5aa6 3f3d
00000320: 966a 58bd ddf8 92bd 5a0f 12bc 0eaa ab3b
00000330: 7115 4bbe 9fb3 8dbd b1fd 843d 7964 be3a
00000340: c1be 5bbd 7d69 19be f8a7 c6bc e798 6abc
00000350: cadc bebd 21df d93c b9dd 1d3d 4a70 983d
00000360: 66fd c0bd 82b9 f93d 83da 813d 3e4d 27bd
00000370: b761 09be e78d 78bd 772c 73bd d96f 76bc
00000380: e7e3 cebc 8ab7 9a3c 4352 113c dae8 d03d
00000390: 88dd 1c3e 3878 e93d fcb8 b03c 545c 69bd
000003a0: 4e54 a33d 213e d0bb e276 fdbc 66b1 493d
000003b0: f02c 8b3c 92d8 c0bd 168f 943c afb2 4ebd
000003c0: 0b18 f73d f02e 853a cf21 8b3d cdb5 d63c
000003d0: 6e4c e03d bd0e 063e 7662 fa3d da4a d63d
000003e0: 6bf3 203d 2e27 0e3d 7f6b 80bd ec9f 803c
000003f0: 7dfd 10be 1cc9 673d a2f5 eb3d 3d25 043e
