ecg_afib_detection/checkpoints/ptbxl/100hz/cnn1d/fold_5/last.pt (torch, 626357 bytes, 22 tensors)

features.0.conv.weight f4 [32, 12, 7]
-0.15035884 -0.083772406 -0.03883387 0.029425038 -0.074895404 0.18714646 -0.0026334063 -0.0824615
0.071866974 -0.09599786 0.08675668 -0.11136814 0.1203911 -0.08974087 0.06330094 0.08172468
0.023931565 0.1319346 -0.046125464 0.14086972 -0.0076701306 -0.28404516 -0.10920083 -0.02915428
0.20899945 0.13644846 -0.111696064 -0.22937873 0.05248182 -0.06678748 -0.068227455 0.29370067
0.33198583 -0.10967164 0.16030498 0.050176337 0.370561 0.03539238 -0.07208648 -0.22505988
-0.02314208 -0.09261092 -0.122725315 0.10563719 -0.12479468 -0.095920786 0.13461986 0.16698635
-0.14385425 0.18775193 0.20372947 0.09998888 -0.0070880596 0.19592488 0.13196245 -0.2620639
0.06545002 0.19246669 0.22558388 0.37720817 -0.021780796 0.16238861 -0.1553556 -0.09727486
-0.13246302 -0.02489491 0.0018478794 -0.14230204 0.02444172 0.15702532 0.21411602 -0.0033696427
0.09316825 0.14715539 0.07948492 0.09379978 -0.1917351 -0.14585194 0.0016934788 -0.03014704
0.17460892 0.082273535 -0.21924779 0.31332248 0.28720248 0.22870608 -0.21075147 0.16208205
0.039839532 -0.19252346 -0.12284224 0.07703535 -0.109240904 0.34748018 0.26516536 -0.09772
0.1508336 0.073781446 -0.27810663 0.110465385 -0.0035607168 -0.23574148 0.0787345 0.024199065
-0.035035484 -0.09545603 0.06474945 -0.043738555 -0.06864262 -0.056218613 0.13038114 0.26948816
-0.08489028 -0.16032605 -0.21161008 0.027240224 0.0037045144 -0.11823152 0.1429115 -0.024654211
-0.27783018 -0.23718168 0.28578508 -0.2701259 -0.19408439 -0.29473123 0.17465828 -0.049152195
-0.13011046 -0.13358197 0.047585182 -0.17691742 -0.17381033 -0.01942344 0.061753057 0.011972848
0.08864974 0.02039752 -0.17224586 -0.18038695 0.07746724 0.06322395 0.13521045 -0.111067675
-0.33492348 -0.033745036 -0.20603319 0.08618939 -0.25921318 0.09361905 0.18351808 0.08126312
0.11531859 -0.14775577 0.025109977 0.19977726 0.15763776 0.1829883 -0.18479204 -0.05729262
-0.25581792 -0.13677025 0.22894794 0.37734798 0.033569034 -0.036363736 -0.09293863 -0.15752819
-0.10034008 0.09227364 0.1745214 -0.19337982 0.3062119 0.05795689 -0.06548381 -0.038802903
0.25936046 -0.05732455 0.1425443 0.012741781 0.24782096 -0.018089635 -0.07328287 -0.029419726
-0.086762525 0.29585254 -0.009670407 -0.24919689 -0.26861054 0.2894292 0.17562994 -0.13599245
0.020116467 -0.106392756 0.31341797 0.18793058 -0.18627101 0.20662223 -0.1532677 0.060278986
0.13769658 0.1163915 -0.13163272 -0.064531006 -0.087152995 0.08450101 0.08515973 -0.3063113
-0.08715783 -0.032778427 0.028753031 0.10023932 0.09177854 0.0066631264 -0.051653653 -0.30461547
-0.3357678 0.049998567 -0.2738705 -0.2215458 -0.058735926 -0.009692507 -0.16268063 0.14233634
-0.010293616 0.0020205034 -0.04949697 -0.0525952 0.04862984 0.29294154 0.25379005 0.08317855
0.03976463 0.020340197 -0.21472664 0.07438884 0.17949896 0.037232213 -0.08720277 -0.17778456
-0.06375205 -0.16714111 0.038079485 -0.15339035 0.1307735 0.009410752 -0.17031269 0.09541675
0.11961516 -0.35978985 -0.026002686 -0.20532891 0.24679351 0.22007808 0.19375576 0.058938205
00000000: abf7 19be de90 abbd 4410 1fbd c70c f13c
00000010: c362 99bd 52a3 3f3e 3a95 2cbb 93e1 a8bd
00000020: fe2e 933d 879a c4bd 7cad b13d fb14 e4bd
00000030: 9c8f f63d 10ca b7bd eca3 813d 455f a73d
00000040: 210c c43c dd19 073e 0eee 3cbd 2740 103e
00000050: b855 fbbb 5e6e 91be afa4 dfbd f5d4 eebc
00000060: f403 563e 25b9 0b3e e8c0 e4bd 42e2 6abe
00000070: 2df7 563d e0c7 88bd d6ba 8bbd ef5f 963e
00000080: 0cfa a93e 869b e0bd fd26 243e b485 4d3d
00000090: 2cba bd3e 9af7 103d 14a2 93bd 1976 66be
000000a0: 7694 bdbc cbaa bdbd 6957 fbbd 5058 d83d
000000b0: 5a94 ffbd 1e72 c4bd cad9 093e 78fe 2a3e
000000c0: 874e 13be 0b42 403e 759e 503e f8c6 cc3d
000000d0: f442 e8bb 88a0 483e 2a21 073e 3d2d 86be
000000e0: a90a 863d fd15 453e 76ff 663e 6e21 c13e
000000f0: a46d b2bc 3349 263e 8a15 1fbe 0b38 c7bd
00000100: 63a4 07be 69f0 cbbc 8b34 f23a a0b7 11be
00000110: 013a c83c 3fcb 203e 3b41 5b3e 39d5 5cbb
00000120: ffce be3d e7af 163e fdc8 a23d 191a c03d
00000130: 3556 44be 365a 15be b8f7 dd3a edf6 f6bc
00000140: aecc 323e 077f a83d 7e82 60be ce6b a03e
00000150: 340c 933e ed31 6a3e 3ccf 57be d6f8 253e
00000160: c72e 233d df24 45be b694 fbbd b6c4 9d3d
00000170: b2b9 dfbd ece8 b13e c1c3 873e 6c21 c8bd
00000180: 2074 1a3e ba1a 973d fe63 8ebe ad3b e23d
00000190: ea5a 69bb 3766 71be 8e3f a13d 1e3d c63c
000001a0: 5e81 0fbd 737e c3bd 5c9b 843d 3327 33bd
000001b0: 8194 8cbd 7d45 66bd a282 053e 5afa 893e
000001c0: f5da adbd 832c 24be 50b0 58be e426 df3c
000001d0: 70c7 723b 5e23 f2bd 6457 123e a1f7 c9bc
000001e0: c23f 8ebe c1df 72be 6c52 923e f14d 8abe
000001f0: 0fbe 46be 03e7 96be 9fd9 323e d053 49bd
00000200: ad3b 05be b6c9 08be aee8 423d d729 35be
00000210: 56fb 31be e81d 9fbc c6f0 7c3d c429 443c
00000220: ff8d b53d b318 a73c 3861 30be 5bb7 38be
00000230: 25a7 9e3d 8f7b 813d 9c74 0a3e 7377 e3bd
00000240: 177b abbe 3c38 0abd 5dfa 52be 1084 b03d
00000250: 97b7 84be 58bb bf3d 2aec 3b3e 476d a63d
00000260: 272c ec3d 4a4d 17be 70b3 cd3c 6992 4c3e
00000270: cb6b 213e 4961 3b3e 203a 3dbe abab 6abd
00000280: 91fa 82be 800d 0cbe 5471 6a3e c133 c13e
00000290: af7f 093d 24f2 14bd 9c56 bebd 124f 21be
000002a0: 1a7f cdbd f6f9 bc3d bdb5 323e 5c05 46be
000002b0: cec7 9c3e 3464 6d3d 601c 86bd cbef 1ebd
000002c0: e5ca 843e 26cd 6abd 22f7 113e e7c2 503c
000002d0: c7c4 7d3e b730 94bc 5415 96bd a301 f1bc
000002e0: 8db0 b1bd fc79 973e a070 1ebc 782d 7fbe
000002f0: 5287 89be 1030 943e 56d8 333e 9b41 0bbe
00000300: 4acb a43c 72e4 d9bd 5278 a03e e070 403e
00000310: d4bd 3ebe c794 533e 35f2 1cbe 19e7 763d
00000320: 5500 0d3e ab5e ee3d baca 06be d528 84bd
00000330: 457d b2bd de0e ad3d 3968 ae3d d6d4 9cbe
00000340: ce7f b2bd ac42 06bd 7a8b eb3c 464a cd3d
00000350: 63f6 bb3d 5b56 da3b c892 53bd 8ff6 9bbe
00000360: c2e9 abbe 4ccb 4c3d c138 8cbe e7dc 62be
00000370: 1595 70bd 52cd 1ebc c095 26be 9ec0 113e
00000380: 8ea6 28bc 6c6a 043b 56bd 4abd 106e 57bd
00000390: 1530 473d 6ffc 953e c5f0 813e 8459 aa3d
000003a0: 3de0 223d 7ca0 a63c 4de1 5bbe 2d59 983d
000003b0: 93ce 373e ce80 183d 5e97 b2bd 280d 36be
000003c0: 6f90 82bd 0a27 2bbe 3cf9 1b3d 5c12 1dbe
000003d0: 7de9 053e 8e2f 1a3c 7366 2ebe db69 c33d
000003e0: cbf8 f43d 6036 b8be 9603 d5bc be41 52be
000003f0: 70b7 7c3e 265c 613e e967 463e 3069 713d

features.0.bn.weight f4 [32]
0.9871413 0.9632402 0.9919162 1.0538607 0.9419638 0.99295485 0.95701987 0.9571942
0.9987951 0.99515766 0.9723448 1.0438348 0.95287454 1.0386851 0.9830519 1.0274435
1.0129209 1.0020155 0.96116465 0.9642062 1.090568 0.99791354 1.0368125 1.0417979
0.98986447 1.0355808 1.0002807 0.95189226 1.1148267 0.9739631 1.0263609 1.0024903
00000000: 4bb5 7c3f e996 763f 38ee 7d3f e8e4 863f
00000010: 8a24 713f 4a32 7e3f 41ff 743f ae0a 753f
00000020: 09b1 7f3f a7c2 7e3f 97eb 783f 619c 853f
00000030: 96ef 733f a2f3 843f 4aa9 7b3f 4583 833f
00000040: 64a7 813f 0b42 803f e30e 763f 38d6 763f
00000050: bb97 8b3f 4377 7f3f 46b6 843f a259 853f
00000060: c267 7d3f e98d 843f 3309 803f 36af 733f
00000070: a4b2 8e3f a555 793f cb5f 833f 9a51 803f

features.0.bn.bias f4 [32]
0.016931156 -0.010576452 0.007945481 0.028691124 -0.05251624 0.022867616 0.15915626 0.05824697
0.16037382 -0.03643236 -0.031427406 -0.0059946505 -0.094731815 0.06681001 0.09497405 -0.008790612
0.011381227 0.12936321 0.008378721 -0.04404787 0.120650314 -0.07967414 0.060428377 -0.015218607
0.07162184 0.023831757 0.03307508 0.020301798 0.15559867 0.03864633 0.027853156 0.09309868
00000000: 35b3 8a3c db48 2dbc c32d 023c a609 eb3c
00000010: 451b 57bd de54 bb3c dcf9 223e 6094 6e3d
00000020: 0939 243e 193a 15bd 06ba 00bd c66e c4bb
00000030: c102 c2bd b0d3 883d c181 c23d 8006 10bc
00000040: 5378 3a3c ca77 043e e746 093c 8a6b 34bd
00000050: 8317 f73d 322c a3bd bf83 773d 7757 79bc
00000060: 79ae 923d d13a c33c bc79 073d f54f a63c
00000070: 4255 1f3e 9d4b 1e3d 4d2c e43c 85aa be3d

features.0.bn.running_mean f4 [32]
0.0001852259 0.00020138273 3.1041352e-05 -0.00016991909 -0.00017572922 -3.324392e-05 9.74119e-05 0.00025125066
-0.000192278 -7.791436e-05 0.00015960455 0.00011459827 0.00017415188 0.00019332285 0.00012563285 0.00012513497
-6.725454e-05 1.5188417e-05 9.373005e-06 0.00018185623 -7.4734184e-05 -0.00025461934 5.1507574e-05 0.00013258406
8.802591e-05 0.00051028846 -0.00012678278 0.00010604161 -0.00023459175 0.00027263444 -0.0003715977 0.00014697417
00000000: 3339 4239 442a 5339 6632 0238 4f2c 32b9
00000010: f443 38b9 636f 0bb8 9e49 cc38 4bba 8339
00000020: 3c9e 49b9 f465 a3b8 855b 2739 7a54 f038
00000030: 8a9c 3639 b5b6 4a39 50bc 0339 aa36 0339
00000040: 020b 8db8 c1d1 7e37 c040 1d37 a9b0 3e39
00000050: 9cba 9cb8 6e7e 85b9 d609 5838 4306 0b39
00000060: 8d9a b838 e1c4 053a fef0 04b9 a862 de38
00000070: befc 75b9 60f0 8e39 00d3 c2b9 141d 1a39

features.0.bn.running_var f4 [32]
2.3815615 4.5572133 1.2100669 2.4228196 1.9997395 1.898097 4.577748 2.9014354
1.7529569 3.19853 1.3591417 2.9496222 1.4267719 1.7096633 3.1495283 2.546526
1.3999842 1.6147792 2.6798534 1.4360884 4.2171674 5.292893 1.4726281 4.596955
4.7007804 5.3831153 1.2663362 2.588148 5.323052 1.3658433 3.1004193 2.8288329
00000000: 816b 1840 b1d4 9140 79e3 9a3f 7a0f 1b40
00000010: 77f7 ff3f d8f4 f23f e97c 9240 1eb1 3940
00000020: e460 e03f b7b4 4c40 5bf8 ad3f 9cc6 3c40
00000030: 76a0 b63f 3fd6 da3f df91 4940 48fa 2240
00000040: af32 b33f 16b1 ce3f b882 2b40 bfd1 b73f
00000050: 09f3 8640 615f a940 147f bc3f 411a 9340
00000060: cb6c 9640 7b42 ac40 4e17 a23f 38a4 2540
00000070: 7156 aa40 f4d3 ae3f 456d 4640 990b 3540

features.1.conv.weight f4 [64, 32, 5]
0.049267765 -0.016483806 0.08009668 0.10942817 0.10433416 0.0058619976 -0.028071051 0.2057424
0.012007274 0.10010937 0.033226572 -0.04467388 -0.06525493 0.1570052 -0.27544346 -0.24559018
-0.066569984 -0.0043184175 -0.0324029 0.03558482 -0.04071768 -0.0673439 -0.16035578 -0.10356988
0.081230775 -0.0059466353 -0.17332011 -0.04840716 0.0040803943 0.037059635 -0.021175168 -0.025300486
0.08967412 -0.032340065 -0.0051506674 0.06563753 -0.17585929 -0.043106984 0.23825376 0.018125193
-0.028429773 0.12673534 -0.09080503 -0.030465651 0.042474605 -0.2142044 -0.035483163 -0.06095117
0.12567511 0.032891802 0.11483459 -0.037313696 0.2874332 0.07486965 -0.111834235 0.0020552983
0.09775786 0.20743951 0.025973422 -0.17476001 0.12502825 -0.079244815 -0.034266766 -0.1788697
-0.07359866 0.097509176 0.0728231 -0.0932553 -0.107767254 -0.09665551 0.024559282 -0.24250224
0.07184091 -0.13072143 -0.023654995 -0.045381684 -0.056315765 -0.02331139 -0.034904294 0.21113244
0.100318104 -0.043227993 -0.030591562 -0.02884738 0.17707986 0.008106543 -0.131069 -0.1944951
-0.11500221 0.034080844 -0.005992413 -0.014735946 0.0017463103 -0.14272223 -0.02670036 -0.014454364
0.05687492 0.017131384 -0.028853975 -0.056225013 -0.12090125 -0.15230572 0.017584017 0.13092212
0.21011579 -0.1463625 0.0934533 0.0012418528 -0.24448285 -0.07533253 -0.030456286 -0.0050327354
-0.01929434 -0.029323654 0.002845451 -0.07957308 0.04188744 -0.0045934725 0.06555157 0.054024205
0.0018661381 0.0058093457 0.19171032 0.06892596 -0.092731826 -0.12286755 0.014852848 0.050274964
-0.048224345 0.05077841 0.088998504 -0.047761522 0.0060259323 -0.19688407 -0.038402572 -0.23998642
-0.17275363 0.0029369395 0.07261933 0.2237299 -0.03101519 0.17091104 0.09173657 -0.110231064
-0.041122522 0.020419998 -0.09456914 -0.1735214 0.04155173 0.026954362 0.018787574 -0.021520443
-0.007607252 0.14987125 -0.09139212 0.018815957 -0.03805348 -0.15341288 0.31513748 -0.056442555
0.034321748 -0.23822936 0.02627398 0.060088515 0.016696911 -0.028649462 -0.13091837 -0.009028151
0.06469121 -0.13167904 -0.020719733 0.13811898 -0.008097418 -0.08301106 0.05230123 -0.055973776
0.09218136 -0.011724443 0.04725023 0.03409874 -0.16004497 -0.09002617 0.082995586 0.09117353
-0.16139449 0.02500448 0.20762175 -0.089074835 -0.006021845 0.0057482184 -0.041772693 -0.02884332
0.00057027175 -0.07157836 -0.069826014 0.08045225 -0.05093507 -0.055314552 -0.29097214 0.035223003
-0.07818478 0.070322104 0.12723918 0.09210681 0.1390393 -0.15717915 0.015862118 0.03255101
0.16783884 0.11957277 -0.17312297 0.024219267 -0.055658564 -0.06540176 0.20292152 -0.0859121
0.035201997 0.07994373 -0.055912886 0.038263615 -0.022482695 -0.12510112 0.018993258 -0.04574558
-0.15120588 -0.049477264 0.10820423 0.0047285506 -0.00131736 -0.0962755 -0.07559444 -0.036628593
-0.11973972 -0.021523915 -0.22107568 0.011470057 0.115080886 -0.15183374 -0.08767327 -0.0035718295
-0.11761525 -0.055251263 0.02880949 -0.0038793576 -0.065445386 -0.10268912 0.06889533 -0.044629067
-0.1369809 0.103060424 0.17895453 -0.19574404 0.0027062595 -0.060382854 -0.16538996 -0.16556855
00000000: ffcc 493d 0c09 87bc ba09 a43d e01b e03d
00000010: 26ad d53d 0016 c03b 43f5 e5bc 23ae 523e
00000020: 28ba 443c 2406 cd3d 9618 083d f5fb 36bd
00000030: 60a4 85bd f9c5 203e ed06 8dbe fe7b 7bbe
00000040: d855 88bd 8381 8dbb e7b8 04bd 63c1 113d
00000050: 95c7 26bd 99eb 89bd 4e34 24be 721c d4bd
00000060: 525c a63d fedb c2bb d47a 31be 9646 46bd
00000070: d4b4 853b d8cb 173d 8c77 adbc f742 cfbc
00000080: 11a7 b73d 0477 04bd eec6 a8bb f86c 863d
00000090: 7514 34be f390 30bd cbf8 733e 497b 943c
000000a0: 8ee5 e8bc e9c6 013e fdf7 b9bd 1a93 f9bc
000000b0: daf9 2d3d 6658 5bbe cb56 11bd efa7 79bd
000000c0: fab0 003e 8eb9 063d 662e eb3d 3fd6 18bd
000000d0: 722a 933e 4255 993d 5909 e5bd 2fb2 063b
000000e0: 4635 c83d 066b 543e 37c6 d43c 4af4 32be
000000f0: 6807 003e 1b4b a2bd 4f5b 0cbd 9e29 37be
00000100: e5ba 96bd e4b2 c73d 4724 953d a2fc bebd
00000110: 14b5 dcbd 53f3 c5bd 8c30 c93c 8252 78be
00000120: 5421 933d d7db 05be 1fc8 c1bc 25e2 39bd
00000130: 5cab 66bd 87f7 bebc cef7 0ebd 1a33 583e
00000140: 9473 cd3d d60f 31bd 289b fabc 5751 ecbc
00000150: 6c54 353e 4ed1 043c f436 06be b929 47be
00000160: 4786 ebbd 5b98 0b3d 015c c4bb 0a6f 71bc
00000170: 73e4 e43a c725 12be b7ba dabc ffd1 6cbc
00000180: adf5 683d 1e57 8c3c 2c5f ecbc 334c 66bd
00000190: 139b f7bd 08f6 1bbe 5b0c 903c 7310 063e
000001a0: 9828 573e 0de0 15be 7264 bf3d aac5 a23a
000001b0: b659 7abe f147 9abd 767f f9bc a5e9 a4bb
000001c0: 2a0f 9ebc 2938 f0bc bf7a 3a3b 36f7 a2bd
000001d0: 2a92 2b3d d784 96bb e73f 863d 7c48 5d3d
000001e0: 3499 f43a 535c be3b b64f 443e 0e29 8d3d
000001f0: 2fea bdbd fba1 fbbd 5c59 733c 1fed 4d3d
00000200: e486 45bd 06fd 4f3d d944 b63d 96a1 43bd
00000210: 2f75 c53b fa9b 49be 044c 1dbd 00bf 75be
00000220: 54e6 30be ab79 403b 71b9 943d 7319 653e
00000230: 9113 febc 4e03 2f3e 62e0 bb3d d3c0 e1bd
00000240: 1770 28bd d747 a73c 77ad c1bd 98af 31be
00000250: 2632 2a3d 65cf dc3c 66e8 993c a44b b0bc
00000260: 4146 f9bb d977 193e cb2b bbbd ec23 9a3c
00000270: f7dd 1bbd 4418 1dbe b359 a13e 4f30 67bd
00000280: f694 0c3d 66f2 73be 883c d73c 601f 763d
00000290: f6c7 883c 47b2 eabc 770f 06be cfea 13bc
000002a0: d37c 843d dfd6 06be 6ebc a9bc 106f 0d3e
000002b0: 08ab 04bc b401 aabd d139 563d c244 65bd
000002c0: 95c9 bc3d e117 40bc 7589 413d 1fab 0b3d
000002d0: d4e2 23be a45f b8bd 97f9 a93d 30b9 ba3d
000002e0: 9944 25be 32d6 cc3c cc9a 543e de6c b6bd
000002f0: e652 c5bb 8d5b bc3b d819 2bbd d448 ecbc
00000300: 4a7e 153a ad97 92bd f100 8fbd 26c4 a43d
00000310: 4ba1 50bd 8391 62bd 4dfa 94be ff45 103d
00000320: 581f a0bd 0905 903d fd4a 023e 7fa2 bc3d
00000330: 5160 0e3e 92f3 20be 46f1 813c 3554 053d
00000340: f2dd 2b3e 92e2 f43d 2647 31be 7c67 c63c
00000350: 3cfa 63bd 5cf1 85bd a9ca 4f3e aff2 afbd
00000360: f82f 103d 8ab9 a33d e904 65bd 4fba 1c3d
00000370: a12d b8bc 821a 00be c097 9b3c b85f 3bbd
00000380: b7d5 1abe aca8 4abd 2e9a dd3d f5f1 9a3b
00000390: 44ab acba 172c c5bd 42d1 9abd dd07 16bd
000003a0: 193a f5bd ec52 b0bc aa61 62be e8ec 3b3c
000003b0: 87af eb3d 4e7a 1bbe 0b8e b3bd 5b15 6abb
000003c0: 44e0 f0bd 264f 62bd e101 ec3c d23c 7ebb
000003d0: 3b08 86bd ac4e d2bd ff18 8d3d f8cc 36bd
000003e0: b944 0cbe 5811 d33d db3f 373e 2071 48be
000003f0: 805b 313b 0354 77bd fc5b 29be cd8a 29be

features.1.bn.weight f4 [64]
1.0673125 1.0125996 1.0255564 1.0326735 0.99902976 0.96879905 0.90792036 0.907659
0.9145155 1.031086 1.0017477 0.94442075 0.96131694 1.0034581 0.9531848 1.0915333
0.96232295 0.9822445 0.99091053 1.0178369 0.9571901 0.9957022 0.928413 0.94521046
0.890943 1.0657599 0.97174275 0.9427987 0.9877806 1.0343927 0.999147 1.0371372
0.950192 1.0270019 1.2448213 0.929948 1.0203227 0.9861163 0.9875641 0.9078039
1.2496713 1.0619217 1.049748 1.0762619 0.9681302 1.0848019 0.9086037 0.97378445
1.0253358 1.0747873 1.0461396 1.0233502 0.9943536 1.1507796 0.961744 1.0210133
0.939764 0.9269425 0.95647204 0.9982414 1.064743 0.93525743 0.99696714 1.025393
00000000: b29d 883f dd9c 813f 6f45 833f a52e 843f
00000010: 6ac0 7f3f 3703 783f 786d 683f 575c 683f
00000020: b01d 6a3f a0fa 833f 4539 803f 8fc5 713f
00000030: de18 763f 5171 803f eb03 743f 5db7 8b3f
00000040: cc5a 763f 6074 7b3f 50ac 7d3f 7b48 823f
00000050: 690a 753f 57e6 7e3f 79ac 6d3f 50f9 713f
00000060: d714 643f d26a 883f 22c4 783f 415b 713f
00000070: 30df 7c3f fb66 843f 19c8 7f3f e9c0 843f
00000080: c83f 733f cc74 833f 4e56 9f3f 1211 6e3f
00000090: ef99 823f 1e72 7c3f 00d1 7c3f d665 683f
000000a0: 3bf5 9f3f 0ded 873f 245e 863f f3c2 893f
000000b0: 61d7 773f cada 8a3f 419a 683f f049 793f
000000c0: 343e 833f a192 893f e7e7 853f 24fd 823f
000000d0: f58d 7e3f bf4c 933f db34 763f 90b0 823f
000000e0: 6094 703f 1b4c 6d3f 5adb 743f c08c 7f3f
000000f0: 8049 883f 086d 6f3f 3d39 7f3f 1440 833f

features.1.bn.bias f4 [64]
-0.054456826 -0.029376728 -0.02972211 0.013509353 0.010613861 -0.027937295 -0.090760835 -0.055870395
-0.04832055 -0.02541353 -0.025686584 -0.0014016788 -0.025684614 0.016425189 -0.017824799 -0.05519528
0.03569853 -0.054757874 0.031710375 0.01820312 -0.033406187 0.042404994 -0.044493105 -0.059258096
-0.06792041 0.06986568 0.047734592 -0.10965115 -0.0055279406 -0.013055855 -0.02433516 0.016503327
-0.012325555 -0.016796535 0.035028037 -0.12967661 -0.003655802 0.009097259 0.00765174 -0.01847081
-0.05645541 0.01511493 0.009024577 0.011867411 0.0026860381 -0.027051324 -0.053056475 0.0005361264
-0.032893766 0.022925291 -0.059220936 0.009982889 -0.062364295 -0.050177164 -0.0929891 -0.016117087
-0.009907921 -0.11193658 0.0033615853 0.0034086728 0.03183025 -0.07687097 0.019312304 0.032871887
00000000: 1f0e 5fbd 77a7 f0bc c87b f3bc 5556 5d3c
00000010: c2e5 2d3c c1dc e4bc d1e0 b9bd 5bd8 64bd
00000020: c5eb 45bd 0930 d0bc ac6c d2bc 89b8 b7ba
00000030: 8a68 d2bc 1e8e 863c 5005 92bc 7214 62bd
00000040: 9f38 123d cb49 60bd bde2 013d b61e 953c
00000050: edd4 08bd dcb0 2d3d 673e 36bd 9eb8 72bd
00000060: db19 8bbd bd15 8f3d 5985 433d c890 e0bd
00000070: ba23 b5bb 3ae8 55bc 885a c7bc fc31 873c
00000080: 20f1 49bc e398 89bc 8f79 0f3d f2c9 04be
00000090: 2e96 6fbb ab0c 153c 73bb fa3b 1950 97bc
000000a0: ca3d 67bd 9da4 773c d2db 133c 886f 423c
000000b0: 3e08 303b bd9a ddbc bf51 59bd d58a 0c3a
000000c0: 9dbb 06bd d2cd bb3c a791 72bd 458f 233c
000000d0: b471 7fbd 9286 4dbd 1271 bebd fb07 84bc
000000e0: d554 22bc 013f e5bd 0b4e 5c3b 0a64 5f3b
000000f0: 7060 023d 876e 9dbd d634 9e3c aca4 063d

features.1.bn.running_mean f4 [64]
-0.5458046 -1.6286308 -0.7690904 -0.8850474 -0.6338246 -0.5540405 1.7964127 1.8595283
1.4746968 -0.50618535 -1.0250088 -0.31663105 -0.08459818 -0.34017757 -0.07354102 -0.5886809
0.094367445 -0.27420563 -0.844619 -0.21348202 -0.71879476 -0.35949844 1.6094992 -0.3226576
0.5508396 -1.2013909 0.11381226 1.7626356 1.3205012 -1.593997 -0.8552134 -1.037363
1.6560458 -0.99528366 -0.47163132 0.46338305 -0.63568354 -1.0420521 -1.4883102 -0.5611384
-0.7105671 -1.2126552 -0.5087605 -1.5124333 0.10218455 -0.6088322 -0.08313872 -0.278311
-0.430464 -0.00051507895 -1.6580552 -1.2949198 -0.6565219 -0.15569717 1.3686194 -0.21386108
1.2792748 -0.12527272 -0.16851413 -0.21372694 -1.4322413 1.2076061 -0.38108876 -1.293802
00000000: dab9 0bbf f976 d0bf 1ce3 44bf 7792 62bf
00000010: 5442 22bf 99d5 0dbf daf0 e53f 0605 ee3f
00000020: ddc2 bc3f 5d95 01bf 7d33 83bf 771d a2be
00000030: d041 adbd c12b aebe ad9c 96bd cbb3 16bf
00000040: b843 c13d ae64 8cbe f338 58bf 089b 5abe
00000050: ef02 38bf 2e10 b8be 1204 ce3f 6033 a5be
00000060: d303 0d3f 2dc7 99bf 6716 e93d 0b9e e13f
00000070: 2f06 a93f 1808 ccbf 44ef 5abf 50c8 84bf
00000080: 4ff9 d33f e9ca 7ebf a979 f1be 8b40 ed3e
00000090: 28bc 22bf f761 85bf f380 bebf c4a6 0fbf
000000a0: bae7 35bf 4938 9bbf 213e 02bf 6a97 c1bf
000000b0: 2246 d13d 6ddc 1bbf a244 aabd c87e 8ebe
000000c0: c765 dcbe 5d06 07ba 273b d4bf efbf a5bf
000000d0: d211 28bf 146f 1fbe ec2e af3f 66fe 5abe
000000e0: 47bf a33f 7e47 00be f88e 2cbe 3cdb 5abe
000000f0: af53 b7bf d692 9a3f 111e c3be 4e9b a5bf

features.1.bn.running_var f4 [64]
0.67958295 2.3020158 1.6715672 1.9463286 1.7307196 0.97949755 2.0484264 3.030331
3.1733055 0.60749346 2.044542 1.3917958 0.4492486 1.3979934 1.7307717 1.8125863
1.1787481 0.6010104 0.9627616 0.6053349 1.6721996 0.5359042 2.40246 1.631136
1.9735358 1.6345665 0.6160163 2.8990247 2.094905 2.3642788 2.1539087 1.6712823
2.3365383 1.7086703 0.805353 2.2949595 1.0986638 1.3142102 2.1851525 1.2161363
0.834737 2.0158818 0.67755044 1.7764862 0.84451073 1.1435448 3.1229804 1.6214153
2.0961802 0.78140354 2.7985766 2.4422076 1.557535 0.8444372 1.9622291 1.0028788
2.5053818 2.3549888 2.2461684 1.1521841 1.894816 1.4905956 0.7387327 3.0131857
00000000: 26f9 2d3f 3a54 1340 eaf5 d53f 4c21 f93f
00000010: 3888 dd3f 5ac0 7a3f 6b19 0340 f1f0 4140
00000020: 7017 4b40 b184 1b3f c7d9 0240 5d26 b23f
00000030: ea03 e63e 73f1 b23f ed89 dd3f d402 e83f
00000040: 38e1 963f d1db 193f 8b77 763f 3af7 1a3f
00000050: a30a d63f 0531 093f e8c1 1940 10c9 d03f
00000060: d29c fc3f 7a39 d13f 3fb3 1d3f 9f89 3940
00000070: ec12 0640 5850 1740 a4d9 0940 94ec d53f
00000080: d889 1540 b5b5 da3f 9d2b 4e3f 9ee0 1240
00000090: 04a1 8c3f 0a38 a83f 8ad9 0b40 5baa 9b3f
000000a0: 53b1 553f 3504 0140 f273 2d3f e663 e33f
000000b0: db31 583f ad5f 923f e9de 4740 898a cf3f
000000c0: d127 0640 100a 483f e11b 3340 214d 1c40
000000d0: 4f5d c73f 092d 583f 532a fb3f 555e 803f
000000e0: 2d58 2040 23b8 1640 39c1 0f40 c57a 933f
000000f0: 5589 f23f d6cb be3f 961d 3d3f 09d8 4040

features.2.conv.weight f4 [128, 64, 5]
-0.0057102423 0.097143024 -0.031710777 -0.07159413 0.02964486 -0.03275331 -0.14363147 -0.06790156
0.13731062 0.022481661 0.15527277 0.04004625 -0.008729195 -0.09488186 -0.008589127 0.005269036
-0.0056652734 -0.057166792 0.08789466 0.0153680965 0.063228674 0.032790724 -0.0005527727 0.13340586
-0.10905186 0.0056720683 0.026237655 -0.093350165 0.1135858 0.05106971 -0.037565965 0.03010712
0.014289829 0.0122435605 0.034550216 -0.07062632 0.015535722 0.1330887 0.09376483 -0.0065382123
0.04672517 0.09266807 0.0043350495 -0.013374807 0.0552693 0.03468249 -0.08634736 -0.097449206
0.088081434 0.106912754 -0.12017437 -0.036907334 -0.030173138 -0.028501997 0.0430672 0.04951024
-0.10947775 0.007348183 0.07534766 -0.003044755 -0.12436198 -0.018290702 0.053495996 0.016982349
0.10796766 -0.0133135235 -0.07456105 -0.08665641 -0.076954074 -0.122817054 -0.03916494 -0.1548375
-0.10067306 -0.14168352 -0.06447391 -0.06454142 0.056476675 -0.10202391 -0.08233938 -0.07819196
-0.0727773 -0.18609942 0.0130054075 0.05286635 0.0032791803 -0.13363232 0.04390247 -0.06184064
0.068436824 -0.024564454 0.04923851 0.010626665 -0.043320034 -0.13646062 0.09709071 0.10932322
0.17938751 0.122366704 0.0073468643 0.0011617183 -0.08154265 -0.061725352 -0.124695115 0.23203465
-0.0049713324 0.0882754 0.07854621 -0.010652991 -0.09763315 -0.1083004 -0.001658418 -0.074494645
0.027523464 0.015191801 0.02180775 -0.032206487 0.00035986942 0.11934027 0.03938159 0.020326093
-0.08704362 -0.18954112 0.08306968 0.011365552 -0.029647993 0.05063717 -0.05701321 0.101706885
0.020212654 -0.0034958534 -0.067534976 -0.08973392 -0.07851874 -0.06291854 0.0048475177 -0.0108271
0.03804986 0.057816762 -0.0345466 -0.034169436 -0.024400603 -0.06879734 0.15443076 -0.023808865
0.036567964 0.09266779 0.1190974 0.018553615 -0.00059330487 0.11851119 -0.103802994 -0.1230032
-0.02798764 0.06950934 -0.013103695 0.03988377 -0.016796144 0.06784023 -0.064198226 -0.026296958
-0.22455876 0.04854019 -0.05811805 0.008310749 0.009651836 0.23708223 -0.04411622 -0.08046843
0.04346439 0.038871944 0.1453583 0.09323016 0.0022939416 0.20587124 0.046402983 -0.04638961
-0.009004225 0.022112133 -0.05441582 -0.06851398 -0.07124274 -0.07135046 0.14260581 -0.0034077335
0.034174915 -0.0022757917 -0.10828786 0.012373416 -0.021606645 0.06212575 0.005388438 -0.0020294993
-0.006599782 0.13833964 -0.014051365 -0.03442309 0.087099284 0.10883302 -0.111223415 0.022282079
0.11606134 0.11012474 -0.07093961 -0.0377217 0.069445044 0.036734156 -0.07782465 -0.0002971552
0.09411261 -0.035900865 0.18953633 0.0037298638 -0.09113113 -0.08084213 0.14768124 -0.00883663
-0.0014354938 0.0025601045 0.058675446 0.16227596 0.09378354 -0.042270835 0.007871418 -0.04926479
0.029634647 -0.15503459 -0.09071844 0.041357428 -0.046019442 0.06529155 0.07134924 0.008162258
0.08348867 0.007334602 -0.06147506 -0.2176295 -0.034365974 -0.07578575 -0.012048816 -0.08657626
-0.017476974 0.070247374 -0.10803009 -0.08693576 0.14665926 0.09875565 -0.11769031 -0.075877525
0.05897568 0.013033484 0.0041282508 0.1579115 0.09068816 -0.042785265 0.17624524 -0.11658048
00000000: fc1c bbbb ecf2 c63d 29e3 01bd f19f 92bd
00000010: c7d9 f23c 5628 06bd 2114 13be f90f 8bbd
00000020: 289b 0c3e 762b b83c d3ff 1e3e 8907 243d
00000030: e604 0fbc 6c51 c2bd 69b9 0cbc e1a7 ac3b
00000040: c2a3 b9bb ba27 6abd 1e02 b43d 78ca 7b3c
00000050: 097e 813d 914f 063d f3e7 10ba 8c9b 083e
00000060: 9556 dfbd c2dc b93b 5af0 d63c 5f2e bfbd
00000070: ac9f e83d 792e 513d c5de 19bd 35a3 f63c
00000080: e31f 6a3c 3799 483c 8784 0d3d 88a4 90bd
00000090: 8a89 7e3c 6748 083e c607 c03d 803e d6bb
000000a0: e462 3f3d c2c8 bd3d 080d 8e3b 0222 5bbc
000000b0: 1062 623d 3a0f 0e3d e2d6 b0bd 7393 c7bd
000000c0: 0a64 b43d 13f5 da3d fb1d f6bd 252c 17bd
000000d0: a82d f7bc 057d e9bc 3b67 303d 40cb 4a3d
000000e0: df35 e0bd 07c9 f03b e04f 9a3d 838a 47bb
000000f0: 7eb1 febd 62d6 95bc 9e1e 5b3d 911e 8b3c
00000100: 261e dd3d f720 5abc 77b3 98bd ea78 b1bd
00000110: 199a 9dbd 8287 fbbd 6b6b 20bd b98d 1ebe
00000120: ad2d cebd 7c15 11be e60a 84bd 4b2e 84bd
00000130: 1654 673d e9f1 d0bd 8da1 a8bd 1b23 a0bd
00000140: 440c 95bd d990 3ebe a214 553c 638a 583d
00000150: 84e7 563b e9d6 08be 14d3 333d 9c4c 7dbd
00000160: 9b28 8c3d 653b c9bc 52ae 493d 771b 2e3c
00000170: 5970 31bd 55bc 0bbe 7fd7 c63d dae4 df3d
00000180: 5cb1 373e 659b fa3d f7bd f03b cc44 983a
00000190: d5ff a6bd b9d3 7cbd 2760 ffbd 7e9a 6d3e
000001a0: 8fe6 a2bb bcc9 b43d d6dc a03d e289 2ebc
000001b0: e4f3 c7bd 9acc ddbd 465f d9ba a690 98bd
000001c0: e378 e13c 08e7 783c 2ba6 b23c f3ea 03bd
000001d0: dbac bc39 ac68 f43d 974e 213d e882 a63c
000001e0: ed43 b2bd 1117 42be 7020 aa3d 9536 3a3c
000001f0: 59e0 f2bc ec68 4f3d af86 69bd b34b d03d
00000200: 0295 a53c b01a 65bb c74f 8abd 6bc6 b7bd
00000210: 6fce a0bd 6fdb 80bd edd7 9e3b 2664 31bc
00000220: 2cda 1b3d 45d1 6c3d bc80 0dbd 40f5 0bbd
00000230: c6e3 c7bc 9fe5 8cbd 1923 1e3e cf0a c3bc
00000240: 4ac8 153d 9cc8 bd3d 56e9 f33d c0fd 973c
00000250: 0488 1bba ffb5 f23d aa96 d4bd 1ae9 fbbd
00000260: 5646 e5bc ea5a 8e3d e1b0 56bc 2a5d 233d
00000270: 1198 89bc d2ef 8a3d 5c7a 83bd b86c d7bc
00000280: bbf2 65be 14d2 463d 310d 6ebd cf29 083c
00000290: bc22 1e3c afc5 723e 36b3 34bd a2cc a4bd
000002a0: b707 323d 3038 1f3d ced8 143e 74ef be3d
000002b0: f455 163b e9cf 523e 0e11 3e3d 0803 3ebd
000002c0: 7586 13bc 8124 b53c 1fe3 5ebd 0f51 8cbd
000002d0: b7e7 91bd 3120 92bd 4207 123e 4854 5fbb
000002e0: fffa 0b3d 7325 15bb 07c6 ddbd deb9 4a3c
000002f0: 6b00 b1bc 9277 7e3d 7e91 b03b 5901 05bb
00000300: fc42 d8bb e8a8 0d3e b237 66bc 3aff 0cbd
00000310: 1c61 b23d d9e3 de3d 1ac9 e3bd e888 b63c
00000320: 91b1 ed3d 1489 e13d c948 91bd 1282 1abd
00000330: 3439 8e3d 8e76 163d 8862 9fbd 7fcb 9bb9
00000340: 1dbe c03d c90c 13bd d015 423e bb70 743b
00000350: f5a2 babd 8f90 a5bd c039 173e 83c7 10bc
00000360: 2e27 bcba 6dc7 273b aa55 703d ab2b 263e
00000370: 9611 c03d 2f24 2dbd 1ff7 003c e0c9 49bd
00000380: 5cc4 f23c 63c1 1ebe 97ca b9bd 6866 293d
00000390: e27e 3cbd 93b7 853d 8d1f 923d feba 053c
000003a0: 1cfc aa3d 1a57 f03b 46cd 7bbd 45da 5ebe
000003b0: 56c3 0cbd 8f35 9bbd 6668 45bc e54e b1bd
000003c0: df2b 8fbc dbdd 8f3d e13e ddbd 600b b2bd
000003d0: d82d 163e 6740 ca3d 9e07 f1bd ad65 9bbd
000003e0: 7c90 713d 658a 553c 4746 873b 8db3 213e
000003f0: b7ba b93d 9a3f 2fbd a279 343e bfc1 eebd

features.2.bn.weight f4 [128]
0.93800735 1.016735 0.9415371 1.1021991 0.9358726 1.0982263 1.0749235 1.0081484
1.0676628 0.976351 1.0164213 1.0162439 0.9895338 0.9476839 0.89170915 0.9275563
0.97336406 0.9977209 1.0222996 1.0065663 0.93360317 1.0617472 1.0573591 0.93950266
1.0437613 0.93826216 0.99319184 0.93061996 1.0030192 1.0659487 1.0354748 0.99279773
0.9485847 0.9117003 1.0027409 0.9768485 1.0086528 0.9922113 0.941192 0.96603477
0.9593608 0.9925225 1.0056669 1.0502427 1.0294126 0.85397536 1.0125256 0.9707175
0.9078758 1.0496639 0.9538292 0.93403834 1.0123558 0.9535475 0.9851237 1.022112
1.0091233 1.0339799 0.9721774 0.9700023 1.1177269 0.9337038 0.97753114 0.9735316
1.0010977 1.0862566 0.9325851 0.9393953 0.9754824 0.9909808 1.0787482 0.9880104
0.9359911 1.0146892 0.97503525 0.9605197 0.98249924 0.91211045 0.97903275 0.98214716
0.9103525 0.91508067 1.038851 0.9966905 0.89224714 0.9471306 0.9551939 0.9540148
1.0805696 0.9973031 1.0319977 0.91439456 0.9962984 0.9541869 1.0365254 0.9468296
1.0203835 0.9506209 1.0394061 0.9516665 0.99149936 0.9250363 0.95790905 0.9688729
1.0333568 0.9596556 0.9447343 0.9443442 0.98226017 0.9563236 0.9627628 0.98571295
0.99341774 1.0255581 1.0058414 1.0390567 1.0184674 0.99424726 0.90839785 0.93210226
1.0027872 1.0419954 0.9865894 0.96682155 1.056027 0.9521524 0.97632515 0.94780517
00000000: 4021 703f 5f24 823f 9308 713f dc14 8d3f
00000010: 5995 6f3f ae92 8c3f 1897 893f 020b 813f
00000020: 2da9 883f 24f2 793f 181a 823f 4814 823f
00000030: 1652 7d3f 699b 723f 0d47 643f 5474 6d3f
00000040: 632e 793f a36a 7f3f b7da 823f 2ad7 803f
00000050: 9e00 6f3f 55e7 873f 8b57 873f 3f83 703f
00000060: f899 853f f331 703f d241 7e3f 1c3d 6e3f
00000070: ef62 803f 0271 883f 708a 843f fe27 7e3f
00000080: 72d6 723f 3165 693f d059 803f be12 7a3f
00000090: 891b 813f 8f01 7e3f f5f1 703f 0e4e 773f
000000a0: ab98 753f f415 7e3f b1b9 803f 5a6e 863f
000000b0: cbc3 833f 219e 5a3f 709a 813f f180 783f
000000c0: 8c6a 683f 635b 863f 272e 743f 231d 6f3f
000000d0: e094 813f b01b 743f 1131 7c3f 91d4 823f
000000e0: f42a 813f 7459 843f 9ee0 783f 1252 783f
000000f0: ad11 8f3f 3607 6f3f 7b3f 7a3f 5e39 793f
00000100: f823 803f 750a 8b3f e6bd 6e3f 367c 703f
00000110: 37b9 793f ebb0 7d3f 6c14 8a3f 40ee 7c3f
00000120: 1d9d 6f3f 56e1 813f e99b 793f 9ee4 753f
00000130: 1285 7b3f 1280 693f e4a1 7a3f ff6d 7b3f
00000140: dd0c 693f ba42 6a3f 12f9 843f 1c27 7f3f
00000150: 4f6a 643f 2777 723f 9687 743f 503a 743f
00000160: 1b50 8a3f 424f 7f3f 8018 843f c315 6a3f
00000170: 690d 7f3f 9845 743f ddac 843f 6d63 723f
00000180: ed9b 823f e45b 733f 420b 853f 6aa0 733f
00000190: e7d2 7d3f 2ecf 6c3f 8739 753f 0e08 783f
000001a0: 0945 843f fdab 753f 1bda 713f 8bc0 713f
000001b0: 6775 7b3f a0d1 743f 9f77 763f af57 7c3f
000001c0: a050 7e3f 7d45 833f 69bf 803f cfff 843f
000001d0: 245d 823f fd86 7e3f c38c 683f 419e 6e3f
000001e0: 555b 803f 1b60 853f 1f91 7c3f 9e81 773f
000001f0: e52b 873f 42c0 733f 72f0 793f 5ca3 723f

features.2.bn.bias f4 [128]
-0.08500514 -0.08202234 -0.0957684 -0.14587049 -0.115653075 -0.08169336 -0.13816077 -0.14371186
-0.041467827 -0.07557942 -0.037825104 -0.06215155 -0.02228296 -0.032583553 -0.114329815 -0.1121841
-0.13872662 -0.082288094 -0.09576395 -0.0604746 -0.052674912 -0.09961913 -0.033398513 -0.061349835
-0.10472673 -0.15561509 -0.06346747 -0.15156792 -0.012352488 -0.09111689 -0.11009625 -0.113316685
-0.13464169 -0.12927751 -0.13940188 -0.08822539 -0.03266738 -0.10717135 -0.06420806 -0.10512275
-0.121991284 -0.07285066 -0.016561974 -0.11950175 -0.06545467 -0.12273604 -0.049266666 -0.063238986
-0.06731379 -0.1161512 -0.08120888 -0.065142006 -0.115463234 -0.021757083 -0.11981451 -0.07574066
-0.09349007 -0.048684545 -0.032639634 -0.11108835 -0.17294155 -0.10516338 -0.017362218 -0.05282295
-0.09608399 -0.067315266 -0.13521355 -0.10524349 -0.17660195 -0.113940895 -0.10100939 -0.07077185
-0.04740129 -0.21702757 -0.08961361 -0.070853524 -0.1380859 -0.16789545 -0.032068424 -0.1376659
-0.07910964 -0.07938139 -0.12536025 -0.09057049 -0.115668975 -0.10558329 -0.12208613 -0.0977722
-0.012961922 -0.11807133 -0.047425486 -0.14764823 -0.15660322 -0.113973774 -0.12949364 -0.1449385
-0.016784009 -0.039626263 -0.03734381 -0.043544054 -0.06443787 -0.045901317 -0.15329096 -0.16630512
-0.03897752 -0.06583815 -0.123178124 -0.117766626 -0.102163844 -0.09586928 -0.07479175 -0.06569222
-0.15619184 -0.046360586 -0.06518813 -0.088293634 -0.10632516 -0.009229909 -0.09592163 -0.075762585
-0.07777849 -0.043730106 -0.08331829 -0.12503576 -0.05364693 -0.075198464 -0.10088033 -0.1513045
00000000: 2d17 aebd 54fb a7bd 3922 c4bd 135f 15be
00000010: 85db ecbd d94e a7bd 047a 0dbe 3429 13be
00000020: 2bda 29bd 62c9 9abd 7fee 1abd a092 7ebd
00000030: c18a b6bc 5576 05bd c025 eabd c7c0 e5bd
00000040: 5a0e 0ebe a986 a8bd e41f c4bd 37b4 77bd
00000050: a6c1 57bd 1d05 ccbd e1cc 08bd f749 7bbd
00000060: f87a d6bd 9059 1fbe 3cfb 81bd 9f34 1bbe
00000070: 1762 4abc 7e9b babd 257a e1bd 9412 e8bd
00000080: 83df 09be 5361 04be 5ebf 0ebe 83af b4bd
00000090: 3bce 05bd a77c dbbd 847f 83bd 994a d7bd
000000a0: 91d6 f9bd ba32 95bd faac 87bc 55bd f4bd
000000b0: 190d 86bd 085d fbbd d8cb 49bd 7183 81bd
000000c0: d0db 89bd aee0 edbd d750 a6bd 2c69 85bd
000000d0: fd77 ecbd e93b b2bc 4f61 f5bd eb1d 9bbd
000000e0: b977 bfbd 7269 47bd 23b1 05bd 4a82 e3bd
000000f0: 9717 31be e65f d7bd 363b 8ebc e15c 58bd
00000100: afc7 c4bd 96dc 89bd 6c75 0abe e689 d7bd
00000110: 24d7 34be d859 e9bd 03de cebd d5f0 90bd
00000120: db27 42bd 7a3c 5ebe 5787 b7bd a71b 91bd
00000130: 6466 0dbe c9ec 2bbe 2e5a 03bd 4af8 0cbe
00000140: 3c04 a2bd b692 a2bd 705e 00be 057d b9bd
00000150: dbe3 ecbd 0d3c d8bd 4b08 fabd cb3c c8bd
00000160: 3e5e 54bc 62cf f1bd 3a41 42bd 1931 17be
00000170: 985c 20be 156b e9bd fb99 04be c26a 14be
00000180: 9e7e 89bc 264f 22bd d3f5 18bd 405b 32bd
00000190: 01f8 83bd 0503 3cbd 4ef8 1cbe e44b 2abe
000001a0: e4a6 1fbd 27d6 86bd d044 fcbd a12f f1bd
000001b0: 473b d1bd 1d57 c4bd 6b2c 99bd a589 86bd
000001c0: c1f0 1fbe 99e4 3dbd 5b81 85bd 4bd3 b4bd
000001d0: 01c1 d9bd 0b39 17bc 8f72 c4bd 6a29 9bbd
000001e0: 544a 9fbd 571e 33bd c8a2 aabd 6009 00be
000001f0: e2bc 5bbd a701 9abd 599a cebd 91ef 1abe

features.2.bn.running_mean f4 [128]
0.46319312 1.4724091 -0.76347876 -0.34274536 -0.7747819 0.8498449 0.07298785 -1.1642568
-0.97252345 -0.7924829 1.516383 1.5081872 -0.29424703 -0.46390474 0.2200326 -0.18925129
-1.2219064 0.14338386 -0.48957488 -0.1917418 0.4012427 0.55210793 0.73328876 -1.0597816
-0.3053488 -0.38761425 0.6299639 1.4488461 0.6504441 -0.045744438 -0.08950569 -2.3187428
-0.70445454 1.2030896 -0.82158476 0.3802994 1.9934047 -0.40902868 -0.26063606 0.5615839
0.06708697 -1.3206693 -0.75751114 -0.9081159 0.14144856 1.1015514 0.5824034 -1.7742101
1.2840052 0.615821 -0.8765609 -1.1330409 -1.4341462 -0.45992497 0.8549639 -0.8076511
-1.1862549 -1.5390214 1.0850934 -1.3994633 -0.78699845 -0.021063251 1.1751459 -0.33138296
1.7485982 -0.35175166 -0.8640795 -1.0442219 -0.62559766 1.418769 0.99766195 0.19772637
1.9747472 1.134408 0.8406949 -0.6083555 0.03342376 -0.6212913 0.61948013 0.10319743
0.21502784 -0.26025218 0.2325195 -0.75290495 -0.087343656 0.37330812 -0.8001689 1.4859366
0.8860692 0.8694115 0.58154535 1.3718725 -0.46860045 -0.32569304 -2.22217 0.37439924
-0.7583604 -0.3744636 0.24433377 1.0240308 0.5251395 -0.5440783 -1.5056033 -0.8591776
-0.46828848 1.1681224 0.82536614 0.079132386 0.9020791 1.8411 -0.2857233 -1.0897915
-0.44870386 0.32187015 -0.29413852 -0.1734507 1.1148603 0.034516573 -1.9062121 1.0565183
-0.63663757 0.06123894 -2.054584 -2.2439342 -0.98936385 1.1645391 -0.5557743 -1.2833915
00000000: a627 ed3e e777 bc3f 5873 43bf 527c afbe
00000010: 1b58 46bf 6f8f 593f a77a 953d 5e06 95bf
00000020: 4cf7 78bf 29e0 4abf d718 c23f 470c c13f
00000030: 8ca7 96be ec84 edbe 3a50 613e 17cb 41be
00000040: 6e67 9cbf 38d3 123e 8fa9 fabe f657 44be
00000050: af6f cd3e f256 0d3f d0b8 3b3f eca6 87bf
00000060: ae56 9cbe 6075 c6be 5045 213f ca73 b93f
00000070: 8183 263f 855e 3bbd c24e b7bd 4866 14c0
00000080: 2257 34bf d7fe 993f 6153 52bf 9ab6 c23e
00000090: e327 ff3f 356c d1be 1772 85be f6c3 0f3f
000000a0: e564 893d b10b a9bf 40ec 41bf 497a 68bf
000000b0: e4d7 103e a3ff 8c3f 6418 153f 5119 e3bf
000000c0: 485a a43f 72a6 1d3f 4c66 60bf 7c07 91bf
000000d0: 1a92 b7bf 497b ebbe eade 5a3f 39c2 4ebf
000000e0: 33d7 97bf a7fe c4bf 57e4 8a3f 9d21 b3bf
000000f0: bb78 49bf d78c acbc 2e6b 963f 07ab a9be
00000100: 11d2 df3f cb18 b4be 5034 5dbf 10a9 85bf
00000110: 2b27 20bf 399a b53f c666 7f3f c878 4a3e
00000120: 84c4 fc3f 4834 913f c837 573f 30bd 1bbf
00000130: 5ae7 083d f20c 1fbf 4096 1e3f 2d59 d33d
00000140: 4230 5c3e c63f 85be 9819 6e3e 61be 40bf
00000150: 3be1 b2bd 3e22 bf3e ded7 4cbf 2c33 be3f
00000160: 6ed5 623f c191 5e3f 28e0 143f 8599 af3f
00000170: 66ec efbe 3dc1 a6be 0938 0ec0 42b1 bf3e
00000180: e823 42bf b1b9 bfbe a232 7a3e 7113 833f
00000190: 8b6f 063f b748 0bbf 9cb7 c0bf 10f3 5bbf
000001a0: 82c3 efbe 0985 953f 324b 533f 2910 a23d
000001b0: a8ee 663f 2aa9 eb3f 534a 92be 4a7e 8bbf
000001c0: 83bc e5be 2acc a43e 5399 96be 0f9d 31be
000001d0: beb3 8e3f 4061 0d3d c2fe f3bf fe3b 873f
000001e0: aefa 22bf afd5 7a3d 4e7e 03c0 9e9c 0fc0
000001f0: f346 7dbf 9e0f 953f 3947 0ebf 2c46 a4bf

features.2.bn.running_var f4 [128]
1.033351 1.3849766 2.2696526 2.4905617 1.6410065 2.3218558 1.2476807 2.1487076
1.2892693 1.4727584 1.3465261 1.0242735 1.7014927 2.181691 1.5025051 2.4487224
2.3711538 0.6950876 1.0246929 1.2921146 2.3673177 2.0522974 1.4299254 1.7557473
1.9989198 1.9433185 1.1146104 2.7341325 2.1598983 1.0551801 1.3481524 2.611588
1.7795153 1.878277 1.22943 1.8453085 0.72362876 1.0318729 1.5618286 2.3308256
1.0054435 1.8391385 1.0443836 1.5560642 1.4430398 2.7565818 0.9331687 2.376215
2.2506006 1.2227702 1.5856799 1.017628 1.2548134 2.3384254 0.9417579 1.4625133
1.4315306 2.1786275 1.453299 1.4570076 1.2274804 1.6661336 1.2258508 1.8054988
2.092368 1.704466 2.4226658 1.7476797 2.0638635 1.7485131 1.6738343 0.67457896
2.5124266 1.6086167 1.564862 1.5707841 1.0109605 0.9021594 1.6455181 1.4594922
1.0870816 1.1853273 1.0734639 1.069952 2.5703905 0.8205558 1.1405226 2.3393528
0.92703843 0.9267198 1.0825882 1.7765393 2.3053932 1.5325506 3.0700824 1.044708
1.4381335 1.844738 0.81330436 2.0550175 0.9786392 2.1440408 1.6424148 1.1356376
1.9603636 1.6281589 1.064149 1.2986251 1.56264 2.063537 1.4965307 1.326961
1.445472 0.9227086 1.33738 1.6356717 1.4654142 1.4571085 3.1410882 1.2251757
1.6019622 1.1676303 3.2951012 1.9414616 2.4822872 0.84666556 1.1360089 1.4963391
00000000: d844 843f ea46 b13f fd41 1140 5d65 1f40
00000010: 800c d23f 4999 1440 00b4 9f3f 6d84 0940
00000020: c706 a53f 5983 bc3f f85a ac3f 651b 833f
00000030: 83ca d93f d3a0 0b40 1652 c03f deb7 1c40
00000040: fcc0 1740 43f1 313f 2329 833f 0364 a53f
00000050: 2282 1740 d758 0340 cc07 b73f 54bc e03f
00000060: 9bdc ff3f a9be f83f 8eab 8e3f 07fc 2e40
00000070: c63b 0a40 2410 873f 4290 ac3f 4224 2740
00000080: 28c7 e33f 616b f03f f65d 9d3f 1233 ec3f
00000090: bc3f 393f 6914 843f 00ea c73f 3f2c 1540
000000a0: 5fb2 803f e468 eb3f 5dae 853f 1d2d c73f
000000b0: 87b5 b83f d66b 3040 25e4 6e3f e813 1840
000000c0: d709 1040 bc83 9c3f 8ff7 ca3f a241 823f
000000d0: ba9d a03f c3a8 1540 0c17 713f a333 bb3f
000000e0: 653c b73f a26e 0b40 b405 ba3f 3a7f ba3f
000000f0: 141e 9d3f de43 d53f aee8 9c3f 961a e73f
00000100: 5be9 0540 f12b da3f f50c 1b40 f8b3 df3f
00000110: 5716 0440 47cf df3f 3440 d63f 35b1 2c3f
00000120: 99cb 2040 27e7 cd3f 664d c83f 740f c93f
00000130: 2767 813f ebf3 663f 56a0 d23f a4d0 ba3f
00000140: 7d25 8b3f ceb8 973f 4467 893f 30f4 883f
00000150: 4781 2440 f20f 523f a5fc 913f f5b7 1540
00000160: 6452 6d3f 823d 6d3f 4092 8a3f a465 e33f
00000170: 908b 1340 9e2a c43f 3b7c 4440 feb8 853f
00000180: c214 b83f 6020 ec3f b734 503f 6885 0340
00000190: 1988 7a3f f737 0940 a63a d23f 935c 913f
000001a0: 32ed fa3f 8367 d03f 0936 883f 5939 a63f
000001b0: 9604 c83f fd10 0440 518e bf3f dcd9 a93f
000001c0: 3a05 b93f a136 6c3f 452f ab3f b15d d13f
000001d0: b192 bb3f 8882 ba3f 9707 4940 8fd2 9c3f
000001e0: 190d cd3f e974 953f f0e2 5240 d081 f83f
000001f0: cbdd 1e40 13bf 583f bd68 913f 0a88 bf3f

features.3.conv.weight f4 [256, 128, 3]
0.01116928 -0.015663443 0.0008285042 -0.1731269 0.08405172 -0.03041245 0.0049556326 0.066467114
0.053490534 -0.095382154 -0.0018358199 -0.027792044 -0.044804465 0.04032918 0.04010678 -0.1326388
-0.1164142 0.05793406 0.06810595 0.14815193 0.052577376 -0.02280233 0.051082123 0.0705209
-0.07828961 -0.072947994 -0.044645134 -0.047320455 0.009215629 -0.04707267 0.024311736 0.0013457586
-0.054906886 0.004744451 0.013978873 -0.0029777882 -0.03014302 0.09693239 0.008400686 -0.07207543
-0.014399086 -0.05655379 0.05148629 0.058728956 -0.015373579 -0.03251009 0.02756964 0.0049894555
-0.06527535 -0.025204021 -0.07815098 0.029594626 0.07359757 -0.077143416 -0.071673825 -0.073347695
-0.06862348 0.016332502 -0.003004582 -0.08251991 0.0019508243 0.057543993 -0.11486458 -0.06789193
-0.008508048 0.11230382 0.11031636 0.031436868 0.14418073 -0.0008395989 0.026753396 -0.09078602
-0.08468496 0.015240662 0.046019755 -0.0908127 0.11965753 0.028804561 -0.039717387 0.07434834
-0.034032084 -0.05360492 -0.0015028107 0.084300496 -0.008450446 0.012662192 0.018512689 -0.0409373
0.20102817 0.12060502 -0.06940998 0.05569237 0.082636096 -0.04184144 -0.09801113 0.06192823
-0.0018343874 0.008091094 -0.047100767 0.037016198 -0.0053777727 -0.00037246692 0.044680595 -0.010247959
-0.062393486 -0.061939165 0.035557877 -0.013537347 0.014947129 0.056765325 0.05466935 0.058507793
0.12773935 0.042293355 0.019426258 0.07518476 0.08581535 0.0654578 0.09802347 -0.0020228343
-0.0014414394 -0.014314848 0.15218003 0.036889654 -0.06983432 0.049821027 0.07570496 0.020275949
0.0527839 -0.11528872 -0.032121617 0.027990386 0.07606046 0.043137614 0.17847489 -0.09758928
-0.04262287 0.01524768 -0.04804052 -0.08185119 0.09350019 0.03499724 -0.07362572 -0.11576737
0.035125002 0.0633688 -0.0028477455 0.114704 0.18190351 0.0113565335 -0.12137745 -0.024816014
-0.07624954 0.0032167546 0.06519519 0.10648958 -0.069572866 -0.04484009 -0.118137226 0.064619765
0.0119216 0.06222643 0.002377118 0.06639504 -0.15863629 0.04292253 -0.026452143 -0.054528914
0.043142635 -0.04757745 -0.0062002623 0.01988971 -0.050495766 -0.1071009 0.016579537 -0.024310168
-0.01688026 -0.030714529 0.118421726 -0.026673878 -0.096678585 -0.032835554 -0.035197068 -0.026180357
-0.05587532 -0.050047938 -0.01269546 -0.018677 0.09749449 -0.11867793 0.11730719 -0.0628661
-0.082257345 0.099063106 0.0081391195 -0.065080754 -0.12439037 -0.10920057 0.054623626 0.045188487
-0.051357895 -0.067733005 -0.011510862 0.0068960455 -0.19869982 -0.06841481 0.061932903 -0.0011030515
-0.056778837 -0.1506121 -0.03318972 -0.01528584 -0.090252124 0.028203702 0.04042062 0.07865526
-0.089629255 0.12022058 0.063774034 -0.044362895 -0.13536313 -0.05936165 -0.057926144 -0.019063894
-0.027501935 0.020685885 0.013130994 0.104624204 0.15308455 0.11200265 0.024230111 -0.05522849
0.08070578 -0.003309636 -0.026402893 0.051703524 0.01583535 -0.09505278 0.016527249 -0.04793734
0.11761512 0.0027183392 0.06776411 0.029238129 0.113052204 0.13177826 0.1252718 0.10736368
0.045091245 0.035392992 -0.057659544 0.019170744 -0.13999222 0.058826208 0.11748257 0.12887762
00000000: 5bff 363c 9f50 80bc fa2f 593a 2e48 31be
00000010: 4f23 ac3d 8823 f9bc dc62 a23b e91f 883d
00000020: e418 5b3d b857 c3bd e59f f0ba 24ac e3bc
00000030: e384 37bd 3630 253d 0247 243d 77d2 07be
00000040: 916a eebd 444c 6d3d 227b 8b3d 24b5 173e
00000050: 605b 573d f4cb babc 7d3b 513d 436d 903d
00000060: 4e56 a0bd c265 95bd d1dd 36bd 18d3 41bd
00000070: 26fd 163c 46cf 40bd 6829 c73c 2a64 b03a
00000080: 0be6 60bd 5777 9b3b a507 653c ff26 43bb
00000090: 7fee f6bc 7d84 c63d 08a3 093c 489c 93bd
000000a0: 25ea 6bbc f2a4 67bd 4ae3 523d c68d 703d
000000b0: 77e1 7bbc 4d29 05bd bad9 e13c 967e a33b
000000c0: 15af 85bd aa78 cebc 9f0d a0bd 6e70 f23c
000000d0: 53ba 963d 5efd 9dbd bac9 92bd 5137 96bd
000000e0: 788a 8cbd bdcb 853c 85e8 44bb 3300 a9bd
000000f0: cdb2 ff3a 40b3 6b3d 1f3e ebbd ed0a 8bbd
00000100: 5765 0bbc 8cff e53d 8bed e13d f2c3 003d
00000110: 1da4 133e 8718 5cba f029 db3c 05ee b9bd
00000120: 4f6f adbd f8b3 793c 367f 3c3d 02fc b9bd
00000130: 020f f53d 8bf7 eb3c b3ae 22bd f143 983d
00000140: 3a65 0bbd d590 5bbd f6f9 c4ba bda5 ac3d
00000150: bd73 0abc 1575 4f3c eca7 973c dfad 27bd
00000160: 54da 4d3e c4ff f63d d226 8ebd af1d 643d
00000170: 1d3d a93d ee61 2bbd 0fba c8bd 75a8 7d3d
00000180: d46f f0ba 8290 043c bcec 40bd 4c9e 173d
00000190: 0738 b0bb aa47 c3b9 0003 373d 0ee7 27bc
000001a0: 5090 7fbd ecb3 7dbd 23a5 113d c0cb 5dbc
000001b0: cee4 743c c282 683d f8ec 5f3d dea5 6f3d
000001c0: 1bce 023e cc3b 2d3d d123 9f3c 78fa 993d
000001d0: f5bf af3d bd0e 863d 87c0 c83d 8791 04bb
000001e0: aeee bcba d388 6abc 15d5 1b3e 9b19 173d
000001f0: 4c05 8fbd 2211 4c3d 340b 9b3d bf19 a63c
00000200: ee33 583d 7e1c ecbd f591 03bd 184c e53c
00000210: 96c5 9b3d 11b1 303d 1fc2 363e e3dc c7bd
00000220: 5295 2ebd 68d1 793c 23c6 44bd 99a1 a7bd
00000230: 077d bf3d 4459 0f3d 15c9 96bd 7117 edbd
00000240: 3cdf 0f3d 80c7 813d 3ea1 3abb eee9 ea3d
00000250: ea44 3a3e c110 3a3c be94 f8bd f44a cbbc
00000260: b828 9cbd 30d0 523b 0e85 853d 3517 da3d
00000270: 387c 8ebd 3eaa 37bd eef1 f1bd 5e57 843d
00000280: d152 433c 24e1 7e3d 6cc9 1b3b 1ffa 873d
00000290: 8d71 22be 89cf 2f3d 2ab2 d8bc b659 5fbd
000002a0: 55b6 303d 92e0 42bd 922b cbbb bfef a23c
000002b0: a6d4 4ebd b757 dbbd cfd1 873c 1e26 c7bc
000002c0: 7948 8abc 099d fbbc 1787 f23d 2d83 dabc
000002d0: 6cff c5bd 937e 06bd cd2a 10bd 3078 d6bc
000002e0: 85dd 64bd 11ff 4cbd 9e00 50bc 8200 99bc
000002f0: 31ab c73d 6a0d f3bd c13e f03d f1bf 80bd
00000300: 8a76 a8bd 99e1 ca3d f159 053c 0f49 85bd
00000310: 61c0 febd 8ca4 dfbd 06bd 5f3d 9017 393d
00000320: a85c 52bd 9ab7 8abd 0e98 3cbc 39f8 e13b
00000330: f777 4bbe 101d 8cbd 5bad 7d3d 4494 90ba
00000340: ed90 68bd 0f3a 1abe f2f1 07bd 7671 7abc
00000350: 1bd6 b8bd 730b e73c 1890 253d 0216 a13d
00000360: 8b8f b7bd 3536 f63d f69b 823d deb5 35bd
00000370: a29c 0abe 3425 73bd f743 6dbd e22b 9cbc
00000380: bd4b e1bc 7275 a93c 6123 573c 3745 d63d
00000390: 32c2 1c3e a561 e53d 3a7e c63c 4537 62bd
000003a0: 1249 a53d 7ae6 58bb e14a d8bc 13c7 533d
000003b0: 23b9 813c 08ab c2bd 2764 873c f259 44bd
000003c0: 32e0 f03d 2a26 323b e9c7 8a3d cd84 ef3c
000003d0: ea87 e73d e1f0 063e 4047 003e 7de1 db3d
000003e0: 99b1 383d 3ef8 103d 6a2c 6cbd f70b 9d3c
000003f0: 1f5a 0fbe c0f3 703d b49a f03d 7ff8 033e
