ecg_afib_detection/checkpoints/mit-bih/100hz/cnn1d/fold_5/best.pt (torch, 617397 bytes, 22 tensors)

features.0.conv.weight f4 [32, 2, 7]
0.5923675 0.27873757 0.7206697 0.34074828 -0.10303982 -0.1357676 -0.22276555 -0.07763147
0.52782744 0.15596476 0.48466706 -0.07710563 -0.2666208 -0.44617245 0.04009667 -0.41574317
0.3867494 0.3048028 -0.57462895 -0.15482914 -0.47633645 -0.61798006 -0.15404972 0.22376944
0.34524474 0.22424453 -0.6326169 -0.060423132 -0.3739672 -0.18303344 0.48149455 -0.0029333166
-0.08661273 -0.15794843 0.24931523 0.21937536 0.28734934 0.7567048 -0.11962828 0.66685134
-0.5296897 0.045877077 0.45354888 0.056419205 0.8541625 1.0025644 -0.109140575 -0.28114107
0.0680205 0.6919116 0.06357799 0.570467 -0.63584316 0.57593304 0.47947976 -0.32278892
0.43020782 0.19659507 0.614815 -0.2161096 -0.47963062 0.13437642 -0.0844275 -0.055800956
0.017142722 -0.035379484 0.08689391 -0.28029898 -0.3792411 0.17525664 -0.2238718 0.0025615601
-0.60387284 0.18289 0.16559425 -0.62415034 0.7457039 0.27295706 -0.091903925 0.3040315
-0.3908151 -0.47625318 0.16141002 0.5046897 -0.3611732 -0.25731254 0.48928726 0.0044614184
-0.1297561 0.03439048 0.28644693 -0.22728884 -0.2691827 1.1440485 -0.3431174 0.60432684
-1.0494803 0.39041167 -0.21208435 0.30489624 -0.17276947 -0.08149628 0.025187628 -0.25835878
-0.51052856 -1.1372722 0.13032287 -0.44458824 0.6710878 -0.1391533 -0.24945877 0.28058797
0.81106114 -0.606068 0.10458027 -0.2933229 -0.024320686 0.069838755 0.02329881 0.16848886
0.02628054 -0.64301324 -0.032129865 -0.60293907 -0.46926427 0.13751869 0.10361073 -0.06533855
0.45058298 0.12600845 0.21035486 -0.019410009 -0.41175088 -0.05776341 -0.28825593 -0.85213137
0.45798382 -0.094566956 -0.31085554 -0.00878693 0.7672177 0.22095285 0.28475285 0.2945962
-0.12319234 -0.06778578 -0.18867716 0.24643438 0.42471966 0.20093232 0.013531807 -0.24405955
0.16342184 -0.121431604 0.18096696 -0.30756083 0.07401876 -0.5029722 -0.2163366 0.3955294
-0.4571277 -0.23436914 -0.85990536 0.13667238 0.34361356 -0.58367807 -0.67312664 0.27821067
0.32580298 0.3941893 0.19930317 0.19525112 0.22872771 0.050663922 0.5626302 0.5802648
-0.13290283 0.07585499 0.36977202 0.38007927 -0.054175396 0.019418128 0.042694733 0.5363147
-0.26783797 0.34885162 -0.12888777 -0.36594582 -0.0055225473 0.49152952 0.30338472 0.29855978
-0.15293866 0.8354695 -0.27565193 0.18517046 -0.050072145 -0.44510937 0.14590254 0.34985012
-0.2773165 0.5092766 -0.2396165 0.07122263 -0.096036 0.077920794 0.20982984 -0.5619165
-0.2288322 0.46911994 0.2817409 -0.47027412 0.19501719 0.53484315 -0.013374514 -0.16073471
0.015366713 -0.3273032 -0.3182563 -0.1069966 0.13364857 -0.10347664 0.104116976 -0.019384444
-0.36747912 -0.3529507 0.09730426 0.14552607 0.23737563 0.067364104 0.12190774 0.447512
-0.03980656 -0.49895492 -0.0007661044 -0.086988695 -0.2592659 0.03227716 0.14249374 -0.048626285
-0.10393224 -0.36462045 -0.7073521 0.39043278 -0.10362872 -0.20533606 -0.008904056 0.13840161
0.7958723 0.37424654 0.021719959 -0.15553355 -0.5896169 -0.2947466 0.26551217 0.1508866
00000000: 65a5 173f b1b6 8e3e cf7d 383f 8f76 ae3e
00000010: 8b06 d3bd a906 0bbe a71c 64be 40fd 9ebd
00000020: b31f 073f 3ab5 1f3e 4826 f83e 8ee9 9dbd
00000030: 8682 88be b770 e4be 683c 243d 4adc d4be
00000040: 0404 c63e 1d0f 9c3e e21a 13bf 888b 1ebe
00000050: 5fe2 f3be f133 1ebf 36bf 1dbe d123 653e
00000060: ebc3 b03e 5ca0 653e 2ef3 21bf 3f7e 77bd
00000070: a178 bfbe 1e6d 3bbe 7486 f63e e33c 40bb
00000080: 0462 b1bd 3cbd 21be 7e4c 7f3e efa3 603e
00000090: 741f 933e 68b7 413f acff f4bd c5b6 2a3f
000000a0: bf99 07bf 9ae9 3b3d 8f37 e83e d317 673d
000000b0: 65aa 5a3f 0854 803f 1885 dfbd b9f1 8fbe
000000c0: 554e 8b3d 1e21 313f 2d35 823d 200a 123f
000000d0: 9ec6 22bf 5970 133f 5f7e f53e 9744 a5be
000000e0: 3344 dc3e 3850 493e 8464 1d3f d64b 5dbe
000000f0: 2592 f5be f999 093e 53e8 acbd 8b8f 64bd
00000100: e56e 8c3c 14ea 10bd 6ff5 b13d 5983 8fbe
00000110: e42b c2be 7a76 333e a63e 65be d9df 273b
00000120: 6997 1abf 8447 3b3e 8a91 293e 51c8 1fbf
00000130: 73e6 3e3f 07c1 8b3e 2038 bcbd 04aa 9b3e
00000140: eb18 c8be 75d7 f3be ab48 253e 5833 013f
00000150: b2eb b8be 78be 83be dc83 fa3e 1731 923b
00000160: c8de 04be 08dd 0c3d 2ca9 923e 68be 68be
00000170: 51d2 89be 2e70 923f 15ad afbe 2ab5 1a3f
00000180: 5f55 86bf 0ae4 c73e a42c 59be 5c1b 9c3e
00000190: 7bea 30be 86e7 a6bd 4956 ce3c 9a47 84be
000001a0: 00b2 02bf 2392 91bf 5c73 053e 12a1 e3be
000001b0: 69cc 2b3f 347e 0ebe 1f72 7fbe 3aa9 8f3e
000001c0: b4a1 4f3f 4627 1bbf 2e2e d63d 6b2e 96be
000001d0: 2d3c c7bc 9f07 8f3d 25dd be3c 5888 2c3e
000001e0: 494a d73c 849c 24bf 9b9a 03bd 375a 1abf
000001f0: 6843 f0be b3d1 0c3e dd31 d43d 38d0 85bd
00000200: d0b2 e63e 5c08 013e 4467 573e bd01 9fbc
00000210: 03d1 d2be 5399 6cbd 4896 93be 4825 5abf
00000220: db7c ea3e 52ac c1bd 7528 9fbe 0ef7 0fbc
00000230: 6168 443f 7741 623e 20cb 913e 50d5 963e
00000240: 444c fcbd 45d3 8abd 9634 41be 4b59 7c3e
00000250: db74 d93e 34c1 4d3e 83b4 5d3c bfea 79be
00000260: 0e58 273e 22b1 f8bd 674f 393e 9d78 9dbe
00000270: 2697 973d c9c2 00bf 5787 5dbe d482 ca3e
00000280: a40c eabe 77fe 6fbe c222 5cbf d8f3 0b3e
00000290: 1eee af3e ed6b 15bf 0752 2cbf a171 8e3e
000002a0: a6cf a63e 2ed3 c93e 2116 4c3e e9ef 473e
000002b0: 9937 6a3e f984 4f3d 8808 103f 3c8c 143f
000002c0: ae17 08be dc59 9b3d c252 bd3e c099 c23e
000002d0: 05e7 5dbd c412 9f3c ace0 2e3d ec4b 093f
000002e0: 0f22 89be ae9c b23e 28fb 03be 405d bbbe
000002f0: 7cf6 b4bb c2a9 fb3e 3e55 9b3e d4dc 983e
00000300: f49b 1cbe 54e1 553f 4022 8dbe 539d 3d3e
00000310: 7318 4dbd 60e5 e3be 7a67 153e 8e1f b33e
00000320: 6efc 8dbe f45f 023f 075e 75be 2cdd 913d
00000330: 86ae c4bd f094 9f3d a2dd 563e c2d9 0fbf
00000340: fd52 6abe 7d30 f03e 5840 903e c5c7 f0be
00000350: 96b2 473e 7beb 083f c720 5bbc a497 24be
00000360: aac4 7b3c 4994 a7be 7df2 a2be 0921 dbbd
00000370: 2cdb 083e 90eb d3bd 483b d53d 20cc 9ebc
00000380: 3926 bcbe f4b5 b4be 7547 c73d c904 153e
00000390: 9912 733e 31f6 893d c4aa f93d 4b20 e53e
000003a0: 340c 23bd 0577 ffbe 65d4 48ba 2127 b2bd
000003b0: 80be 84be 0e35 043d e1e9 113e 5b2c 47bd
000003c0: 6dda d4bd 88af babe 0715 35bf cee6 c73e
000003d0: 4b3b d4bd 9e43 52be 51e2 11bc 27b9 0d3e
000003e0: 49be 4b3f 3e9d bf3e 0eee b13c 3044 1fbe
000003f0: 22f1 16bf 07e9 96be 36f1 873e 0482 1a3e

features.0.bn.weight f4 [32]
0.9821763 0.99138796 0.98863804 0.9868041 0.9937184 1.0042229 1.048337 0.9782667
0.9543854 0.9669108 0.9801098 0.9930618 0.9812876 0.9671036 1.0446405 1.0177041
1.0317723 1.0286958 0.9829457 1.003976 0.9895439 0.98561174 0.99840176 1.0401069
0.9843853 0.9758208 1.0342019 0.9902474 0.9875843 0.9997341 0.9715257 0.9781561
00000000: e86f 7b3f 9acb 7d3f 6217 7d3f 329f 7c3f
00000010: 5464 7e3f 608a 803f e82f 863f b06f 7a3f
00000020: 9a52 743f 7787 773f 7ae8 7a3f 4c39 7e3f
00000030: aa35 7b3f 1a94 773f c8b6 853f 2144 823f
00000040: 1d11 843f 4eac 833f 54a2 7b3f 4982 803f
00000050: c052 7d3f 0d51 7c3f 4297 7f3f 3922 853f
00000060: ad00 7c3f 64cf 793f ba60 843f db80 7d3f
00000070: 53d2 7c3f 93ee 7f3f e9b5 783f 7068 7a3f

features.0.bn.bias f4 [32]
-0.0022362499 0.0025622947 0.02611028 0.020719577 -0.023961548 0.07809323 -0.0033097796 0.015788209
-0.033120982 -0.012926848 0.009008722 0.03651367 -0.01789554 0.005380253 0.095256194 -0.00013530633
0.068461426 0.0122010475 -0.007688412 -0.016147342 0.012755992 0.0697952 -0.00071232894 0.034158938
-0.017141586 0.00019472481 0.022433609 0.02782423 -0.005413076 0.014703501 -0.008864176 0.0030616168
00000000: 0c8e 12bb 2cec 273b 3ae5 d53c 1abc a93c
00000010: 024b c4bc 58ef 9f3d e3e8 58bb 4656 813c
00000020: dea9 07bd 21cb 53bc 5299 133c 5c8f 153d
00000030: ab99 92bc d54c b03b ae15 c33d 04e1 0db9
00000040: 8135 8c3d e7e6 473c 13ef fbbb 6e47 84bc
00000050: 82fe 503c c9f0 8e3d 96bb 3aba 3eea 0b3d
00000060: 836c 8cbc 0b2f 4c39 b0c6 b73c a4ef e33c
00000070: 2c60 b1bb f4e6 703c 0d3b 11bc 68a5 483b

features.0.bn.running_mean f4 [32]
0.012023799 -0.015564433 0.022268131 0.033991825 -0.0052583884 0.0031861616 0.004612296 -0.019345775
-0.02382347 -0.017797504 0.017285133 -0.031220634 0.030443862 0.02953659 -0.0010185814 -0.008974474
-0.0072219754 0.01255291 0.0116475485 -0.015055699 -0.04051659 0.0020298432 -0.010074935 -0.0029128033
-0.019562388 -0.03863042 0.004151667 -0.00823487 -0.018894672 -0.01391915 0.024401173 0.010486658
00000000: 78ff 443c f701 7fbc a86b b63c 033b 0b3d
00000010: 8f4e acbb ecce 503b be22 973b 087b 9ebc
00000020: 7029 c3bc 12cc 91bc 8d99 8d3c 6ac2 ffbc
00000030: 6865 f93c b8f6 f13c ec81 85ba ac09 13bc
00000040: 52a6 ecbb b8aa 4d3c 5cd5 3e3c 2eac 76bc
00000050: b9f4 25bd 1e07 053b 5711 25bc bbe4 3ebb
00000060: 4d41 a0bc ee3a 1ebd b50a 883b 8ceb 06bc
00000070: 00c9 9abc 260d 64bc f8e4 c73c 3bd0 2b3c

features.0.bn.running_var f4 [32]
3.050593 1.7177329 1.7547 5.668428 0.968834 0.8047282 1.0456356 1.8880285
1.8194441 1.1550462 2.1519136 2.7108405 3.7523983 1.9211223 0.36625487 0.5927469
0.49269655 1.4994713 2.25889 1.7451137 4.8949895 0.60809845 0.7528061 2.1549432
1.3747286 3.2006238 1.534425 1.9018772 0.7492468 1.157941 2.7434819 1.4984931
00000000: ea3c 4340 acde db3f 029a e03f c363 b540
00000010: 8105 783f ab02 4e3f 63d7 853f ebaa f13f
00000020: 8be3 e83f 8ed8 933f f4b8 0940 697e 2d40
00000030: 4b27 7040 56e7 f53f c285 bb3e 43be 173f
00000040: b942 fc3e adee bf3f a791 1040 e35f df3f
00000050: c1a3 9c40 57ac 1b3f e7b7 403f 97ea 0940
00000060: 1bf7 af3f 05d7 4c40 0a68 c43f b670 f33f
00000070: a3ce 3f3f 6937 943f 3595 2f40 9fce bf3f

features.1.conv.weight f4 [64, 32, 5]
-0.034723092 -0.093913004 -0.010235402 0.12575936 -0.22395585 0.016140696 -0.0118381735 -0.022627264
-0.14333186 -0.034645535 -0.028756088 0.15679614 0.013780805 -0.2316508 0.008381334 0.11567083
-0.091876574 -0.05229236 -0.018387942 0.25533473 0.124383435 -0.109975 -0.11070919 -0.377681
-0.09574316 0.018945808 -0.03811729 0.075109586 0.2677026 -0.052465815 -0.1869177 0.13694496
0.13048525 0.017001553 0.091962904 -0.11680819 0.1447897 0.09182572 -0.1042493 -0.13716605
-0.12230725 -0.16067192 0.08384024 -0.012460427 -0.079026915 0.0753834 -0.23592214 -0.036178757
-0.116145134 -0.11644846 0.14762776 0.044135626 0.07122156 -0.014482122 -0.08376918 -0.15459584
-0.081899144 0.025642375 -0.13921605 0.05632014 0.054179493 -0.1446035 0.048256002 0.052417114
0.032321557 0.045306534 0.012443172 -0.08603433 -0.30083966 0.1603017 -0.09149563 -0.04968666
0.17090508 -0.083332494 0.0988312 0.07974025 -0.00086938473 0.0039294744 0.06688487 -0.13798025
0.18920542 0.17707664 -0.049587596 -0.16162397 -0.08101903 0.06234663 -0.057881813 -0.050093114
0.052356824 0.12052648 -0.06532474 0.030781895 -0.0016616173 -0.08782891 0.15024373 -0.044643123
0.08013227 0.019049805 0.0015986767 0.040342897 0.10727391 0.06547227 -0.0023136458 -0.08569902
-0.212922 0.06923167 0.080390476 0.26592183 -0.07493867 -0.12872699 0.07032067 -0.110154875
-0.11530004 -0.2275641 -0.015653647 -0.09121009 -0.026735045 0.15187432 0.16101982 -0.08550439
0.021586638 -0.046750825 0.17490743 -0.14157699 -0.026814152 0.05573369 0.10818462 0.099304534
-0.07591129 -0.09075937 -0.069276966 -0.024778487 0.05382569 -0.21499741 -0.23317628 0.025484197
0.015152955 0.22597153 -0.029330593 0.16117619 0.08598052 -0.06523636 -0.048798993 0.12846784
0.14607769 -0.12578249 0.066838704 0.0062411367 -0.1893628 -0.077188954 -0.06966757 0.008485735
-0.022344904 -0.025788674 0.06524415 0.06302102 0.026200835 0.0035287845 0.10206338 0.061304178
-0.08060021 -0.019144746 0.032795023 0.052698452 -0.154095 0.14896956 -0.02293531 0.21484666
-0.00081900036 -0.071402095 -0.23132658 -0.110766664 -0.16789295 -0.0038622548 -0.044066686 0.034975305
0.016064754 0.023868466 0.020440146 -0.0029869128 0.0038483017 0.039465338 -0.09510276 0.06850897
0.17282878 -0.07125175 0.020667216 -0.062334903 0.18929954 0.07225015 -0.17409877 -0.041518047
-0.06379402 -0.023971796 -0.015895586 -0.1125522 -0.023532018 0.1326541 0.09251808 -0.13883859
-0.07417205 -0.008808834 -0.03955759 -0.079383165 -0.1148771 0.07064834 -0.0051097334 0.19885
-0.07619513 -0.033598162 0.012813847 -0.21138133 -0.10059914 0.1384919 -0.04652554 0.03943043
-0.14450991 0.019555578 -0.06422279 -0.02626211 0.09170427 -0.008186234 0.006968069 -0.032809593
0.0150895305 -0.11815899 -0.014654504 -0.006644673 -0.16366711 -0.03656259 -0.008307587 0.1453534
0.05978935 -0.064557 0.017819235 0.06548577 -0.048760284 -0.036968403 0.13276891 0.029489355
-0.08609049 -0.08140591 -0.14210694 0.0036046305 0.13978139 -0.2151044 -0.023841996 0.16070676
-0.0149444165 0.05781095 -0.07799055 0.1608165 -0.088994205 -0.08604058 0.08027896 0.0704223
00000000: cd39 0ebd 7655 c0bd 63b2 27bc 10c7 003e
00000010: af54 65be 7e39 843c e6f4 41bc d05c b9bc
00000020: 96c5 12be 7ae8 0dbd e391 ebbc 2b8f 203e
00000030: e3c8 613c de35 6dbe dd51 093c d4e4 ec3d
00000040: c929 bcbd 8430 56bd 4fa2 96bc 3cbb 823e
00000050: bebc fe3d 933a e1bd 80bb e2bd 675f c1be
00000060: fd14 c4bd 3d34 9b3c e020 1cbd 0ed3 993d
00000070: 5110 893e 65e6 56bd 5b67 3fbe 4d3b 0c3e
00000080: ed9d 053e d746 8b3c 0c57 bc3d 2239 efbd
00000090: c043 143e 200f bc3d a880 d5bd 4275 0cbe
000000a0: 397c fabd 2e87 24be 6fb4 ab3d d226 4cbc
000000b0: ddd8 a1bd 9d62 9a3d 9395 71be 2d30 14bd
000000c0: 80dd edbd 887c eebd bb2b 173e 8fc7 343d
000000d0: 9cdc 913d 6c46 6dbc 2d8f abbd 5f4e 1ebe
000000e0: bdba a7bd f50f d23c a78e 0ebe f2af 663d
000000f0: 51eb 5d3d f112 14be 16a8 453d 54b3 563d
00000100: 9c63 043d 5893 393d 72de 4b3c c432 b0bd
00000110: a807 9abe 2126 243e 1062 bbbd 3d84 4bbd
00000120: be01 2f3e 3aaa aabd 0368 ca3d db4e a33d
00000130: 6ce7 63ba d2c2 803b effa 883d b24a 0dbe
00000140: 11bf 413e 9453 353e 5d1c 4bbd c180 25be
00000150: 4eed a5bd 2e5f 7f3d 7b15 6dbd 702e 4dbd
00000160: 1c74 563d 96d6 f63d fac8 85bd 502a fc3c
00000170: a0ca d9ba a5df b3bd 7ed9 193e b5db 36bd
00000180: 631c a43d 560e 9c3c b08a d13a 983e 253d
00000190: 6cb2 db3d 5316 863d 89a0 17bb f882 afbd
000001a0: 3a08 5abe 55c9 8d3d c3a3 a43d e826 883e
000001b0: 7279 99bd 02d1 03be 4904 903d e198 e1bd
000001c0: 6d22 ecbd 9006 69be 143c 80bc 5bcc babd
000001d0: 7403 dbbc f184 1b3e 61e2 243e ed1c afbd
000001e0: 76d6 b03c cb7d 3fbd ef1a 333e 8ff9 10be
000001f0: 5aa9 dbbc 0249 643d e68f dd3d 2d60 cb3d
00000200: 6177 9bbd 0ce0 b9bd 15e1 8dbd 41fc cabc
00000210: 5478 5c3d 4828 5cbe c3c5 6ebe 3cc4 d03c
00000220: 1a44 783c 1565 673e b646 f0bc 5f0b 253e
00000230: 8e16 b03d a49a 85bd 74e1 47bd 138d 033e
00000240: 6495 153e 20cd 00be bbe2 883d 7382 cc3b
00000250: 52e8 41be 3e15 9ebd dfad 8ebd c107 0b3c
00000260: a90c b7bc c542 d3bc ba9e 853d 2a11 813d
00000270: 22a3 d63c 2e43 673b 9b06 d13d 171a 7b3d
00000280: b911 a5bd 71d5 9cbc 1354 063d 55da 573d
00000290: 14cb 1dbe 7a8b 183e d5e2 bbbc c300 5c3e
000002a0: 2fb2 56ba 433b 92bd e0e0 6cbe a2d9 e2bd
000002b0: 21ec 2bbe e21d 7dbb 457f 34bd 4442 0f3d
000002c0: 3b9a 833c cd87 c33c 1872 a73c 15c0 43bb
000002d0: ca33 7c3b 68a6 213d 3cc5 c2bd 6e4e 8c3d
000002e0: 07fa 303e 70ec 91bd 4b4e a93c e252 7fbd
000002f0: bdd7 413e e3f7 933d f346 32be d40e 2abd
00000300: 70a6 82bd 8060 c4bc 7637 82bc c581 e6bd
00000310: 38c6 c0bc 7ad6 073e 1e7a bd3d b42b 0ebe
00000320: 84e7 97bd ed52 10bc 2407 22bd a493 a2bd
00000330: af44 ebbd 14b0 903d 8d6f a7bb 569f 4b3e
00000340: 310c 9cbd 3a9e 09bd 2bf1 513c 5974 58be
00000350: ec06 cebd d2d0 0d3e 9191 3ebd cd81 213d
00000360: 68fa 13be 0533 a03c 3d87 83bd a323 d7bc
00000370: 73cf bb3d 8e1f 06bc 6654 e43b 5a63 06bd
00000380: 143a 773c 57fd f1bd 7219 70bc 8fbb d9bb
00000390: 5a98 27be a8c2 15bd 8c1c 08bc 86d7 143e
000003a0: ade5 743d 7636 84bd a5f9 913c 671d 863d
000003b0: ddb8 47bd 2e6c 17bd 93f4 073e a993 f13c
000003c0: 3650 b0bd 24b8 a6bd 7b84 11be aa3b 6c3b
000003d0: da22 0f3e 5444 5cbe 4a50 c3bc 5090 243e
000003e0: 6dd9 74bc 2dcb 6c3d 82b9 9fbd 15ad 243e
000003f0: 9842 b6bd 0b36 b0bd 4c69 a43d 9139 903d

features.1.bn.weight f4 [64]
0.96585155 1.0382204 0.9927678 0.97765446 0.9902171 0.96773595 0.9860498 0.9718145
0.980067 0.98489887 1.0103242 0.9811276 0.9734223 0.9996153 1.0015823 1.001639
1.0176362 0.98281324 0.9736656 1.0517514 1.0827042 1.0217977 0.98007333 0.9840488
0.99560416 0.98756236 1.0456914 1.0284485 0.96685845 0.975876 1.0299045 0.99791455
0.98957616 1.0068656 0.9777443 0.9977965 0.99473095 1.0670373 0.9909164 1.0206534
0.9876018 1.0054376 0.9676313 0.985606 0.9802721 0.99233437 0.989622 1.0092611
0.99323756 1.0482597 1.0141374 0.9841479 0.9621009 0.98520863 1.0010158 1.031562
0.9741054 1.0187483 1.0117629 0.984011 1.0243032 1.018762 1.0086462 1.0001966
00000000: 0c42 773f 68e4 843f 0826 7e3f 9047 7a3f
00000010: de7e 7d3f 8bbd 773f c26d 7c3f d6c8 783f
00000020: ace5 7a3f 5522 7c3f 4e52 813f 2e2b 7b3f
00000030: 3432 793f cae6 7f3f d933 803f b535 803f
00000040: e741 823f a699 7b3f 2642 793f ca9f 863f
00000050: 0d96 8a3f 44ca 823f 16e6 7a3f 9fea 7b3f
00000060: eadf 7e3f e3d0 7c3f 37d9 853f 33a4 833f
00000070: 0984 773f 02d3 793f e9d3 833f 5477 7f3f
00000080: dd54 7d3f f9e0 803f 734d 7a3f 976f 7f3f
00000090: b0a6 7e3f ae94 883f b2ac 7d3f c5a4 823f
000000a0: 79d3 7c3f 2eb2 803f afb6 773f ad50 7c3f
000000b0: 1df3 7a3f a009 7e3f de57 7d3f 782f 813f
000000c0: d144 7e3f 602d 863f 41cf 813f 1ef1 7b3f
000000d0: 3f4c 763f a236 7c3f 4921 803f 390a 843f
000000e0: f95e 793f 5866 823f 7281 813f 25e8 7b3f
000000f0: 5e1c 833f cb66 823f 521b 813f 7106 803f

features.1.bn.bias f4 [64]
0.0076211705 0.0204441 -0.041000623 0.0015744567 -0.030796085 -0.019865848 0.028014118 -0.008878762
0.013710284 0.027302118 0.002557939 -0.0060729333 -0.011891704 -0.038189493 0.012465285 -0.020170145
0.028447265 -0.021506235 -0.053149454 0.00799668 0.04057284 0.052326217 -0.039529555 -0.03132029
-0.005911393 0.017862389 -0.0010092916 0.054155692 0.0016683083 -5.829353e-05 0.0010678541 0.0033382908
-0.0022213315 0.010320698 0.0025350715 0.027761828 -0.022923924 -0.010319051 -0.0060940282 -0.018224077
-0.038545158 0.01152173 -0.03516918 -0.028444748 -0.011813928 0.035417814 -0.027985094 -0.0042311377
-0.024915792 -0.036007937 -0.034433827 -0.023749072 -0.014603395 -0.018629506 -0.025053525 0.016853712
-0.009212446 0.0054370724 -0.03624795 0.0028260692 0.014972125 -0.0027386122 0.027065616 -0.0044783643
00000000: 03bb f93b 637a a73c 45f0 27bd 005e ce3a
00000010: 1248 fcbc b4bd a2bc dd7d e53c 3a78 11bc
00000020: 19a1 603c b1a8 df3c 18a3 273b 75ff c6bb
00000030: 6cd5 42bc 966c 1cbd 323b 4c3c dc3b a5bc
00000040: 3d0a e93c d82d b0bc 3eb3 59bd 8204 033c
00000050: b52f 263d 0454 563d bee9 21bd b449 00bd
00000060: 5cb4 c1bb 2554 923c 354a 84ba 5cd2 5d3d
00000070: 23ab da3a 3480 74b8 3df7 8b3a 3ac7 5a3b
00000080: c293 11bb 2518 293c 7123 263b c66c e33c
00000090: f4ca bbbc 3d11 29bc 6ab0 c7bb a94a 95bc
000000a0: 87e1 1dbd a3c5 3c3c 8f0d 10bd f604 e9bc
000000b0: 358f 41bc 4512 113d ff40 e5bc 5ba5 8abb
000000c0: 341c ccbc 0f7d 13bd 7c0a 0dbd 6a8d c2bc
000000d0: 1443 6fbc e89c 98bc 0d3d cdbc cc10 8a3c
000000e0: cdef 16bc 7829 b23b bb78 14bd 9335 393b
000000f0: a54d 753c 4a7a 33bb b6b8 dd3c 3ebf 92bb

features.1.bn.running_mean f4 [64]
-0.43977088 -0.71784484 0.47650096 -0.634901 -0.7868332 0.03275823 -0.028764423 -0.66923064
-0.22660805 1.0491962 -0.097899444 0.04551213 0.332777 0.9868345 0.038881294 0.8268026
0.08763227 0.3929231 0.18879762 -0.37934923 -0.3774746 -0.12816602 0.8681273 1.2135772
0.016465241 0.21810113 -0.32017568 0.048787065 -0.21552086 -0.44406646 -1.2489164 0.64657533
-0.35066012 -0.631279 -0.070743956 -0.28315026 0.027684806 4.5774505e-07 -0.085573986 -0.25269988
0.24126932 -0.14840835 -0.21025789 -0.52818257 -0.5282912 -0.44904497 -0.0020881034 -0.8866047
0.5422398 0.119533055 -0.15253034 0.5032149 1.0705372 -0.5589396 1.1188228 -0.46829635
-0.05347394 -0.4233436 0.31617707 -0.114975825 0.036421273 -0.9683361 -0.31365252 -0.50832236
00000000: a629 e1be aec4 37bf eff7 f33e df88 22bf
00000010: e76d 49bf 7e2d 063d 5ea3 ebbc b352 2bbf
00000020: f10b 68be 104c 863f 817f c8bd ed6a 3a3d
00000030: bf61 aa3e 30a1 7c3f fe41 1f3d 56a9 533f
00000040: 8c78 b33d 372d c93e 2a54 413e 103a c2be
00000050: 5a44 c1be f43d 03be 973d 5e3f 7f56 9b3f
00000060: 1de2 863c e755 5f3e 11ee a3be f2d4 473d
00000070: 80b1 5cbe ae5c e3be 7edc 9fbf f685 253f
00000080: b989 b3be 809b 21bf 35e2 90bd 12f9 90be
00000090: 3fcb e23c 00c0 f534 6a41 afbd e161 81be
000000a0: 4e0f 773e 5cf8 17be d84d 57be f936 07bf
000000b0: 183e 07bf 39e9 e5be 90d8 08bb 87f8 62bf
000000c0: 3ad0 0a3f bfcd f43d ea30 1cbe b1d2 003f
000000d0: 5d07 893f aa16 0fbf 9635 8f3f 8ac4 efbe
000000e0: 7d07 5bbd 7ec0 d8be f6e1 a13e 7278 ebbd
000000f0: 792e 153d e0e4 77bf 1097 a0be 6a21 02bf

features.1.bn.running_var f4 [64]
1.8368431 1.2311026 1.4156008 1.2450771 1.5839711 1.481063 0.93630743 1.5683966
0.7764209 1.9768014 0.5247184 1.2069315 1.3161907 1.948579 0.8726628 1.3938261
1.322793 0.97487265 1.2808311 0.85588676 0.92468 0.7084237 1.260739 2.5332005
1.037707 1.3289831 0.70543367 0.89626294 1.4415101 1.1007603 2.6408308 1.6139463
1.9889475 0.79648674 1.3044229 0.9328768 1.6655045 0.7226115 0.47307664 0.80080634
0.7371036 0.69811785 1.2991192 1.0412904 1.0723428 0.8226125 2.0497246 2.1682692
0.8766095 0.7158321 0.676703 1.3791295 1.5965683 1.2918211 2.3296864 1.1012377
0.7638044 0.86714387 1.069357 1.0927323 0.9063841 1.2927759 1.8385874 1.7002164
00000000: ad1d eb3f c594 9d3f 6832 b53f b05e 9f3f
00000010: 91bf ca3f 7993 bd3f d8b1 6f3f 38c1 c83f
00000020: 85c3 463f d407 fd3f f253 063f bb7c 9a3f
00000030: f078 a83f 096b f93f d466 5f3f e568 b23f
00000040: 4851 a93f 4191 793f 46f2 a33f 651b 5b3f
00000050: d4b7 6c3f 415b 353f e55f a13f f51f 2240
00000060: 95d3 843f 1e1c aa3f 4d97 343f 7d71 653f
00000070: 6783 b83f b7e5 8c3f 5f03 2940 cb95 ce3f
00000080: d595 fe3f 8ee6 4b3f 54f7 a63f 04d1 6e3f
00000090: 402f d53f 11fd 383f 1a37 f23e a501 4d3f
000000a0: d2b2 3c3f dab7 323f 8a49 a63f 0149 853f
000000b0: 8742 893f bc96 523f b02e 0340 ecc4 0a40
000000c0: 7b69 603f c640 373f 683c 2d3f 5187 b03f
000000d0: 5a5c cc3f 655a a53f 9519 1540 5bf5 8c3f
000000e0: af88 433f 24fd 5d3f b1e0 883f a7de 8b3f
000000f0: ca08 683f ae79 a53f d556 eb3f b1a0 d93f

features.2.conv.weight f4 [128, 64, 5]
-0.052814133 -0.12455936 -0.13892165 -0.11246053 0.013694091 -0.11788289 -0.074076235 -0.03331039
0.021068275 -0.091521665 -0.011534646 0.049244028 -0.051708624 -0.017901255 0.05880807 0.011958981
-0.062122658 -0.11557863 -0.019383593 0.040753115 -0.025719034 -0.101858854 0.006093516 -0.032254145
-0.05042867 -0.05212955 0.04259038 0.18029541 -0.07636979 0.07463638 -0.0901203 0.060342345
0.18401124 0.03633826 0.045455977 0.12466096 0.034548998 0.04968927 -0.015265537 0.14127702
0.06736784 -0.03772377 0.03237253 -0.13285097 -0.025219698 0.016240725 0.07597749 0.040470395
0.08440563 0.16847998 0.10955204 -0.097256996 -0.015813038 -0.014099971 -0.066423155 -0.059509527
0.10020312 -0.05992545 -0.17816786 -0.05361992 0.0027391897 -0.056436867 -0.07346921 0.0024034702
0.024331782 0.11075633 -0.0965371 -0.04617358 -0.024778187 0.09325405 0.047739975 -0.010996417
-0.09502656 -0.11331909 0.16936831 -0.11672779 -0.06904551 -0.037165906 0.037030954 -0.042057145
-0.15316539 0.03426109 -0.029173756 -0.09766224 -0.062213194 -0.045119233 -0.0474536 0.0069354684
-0.013272059 -0.07461989 0.010313409 0.02908227 0.019995872 0.12167409 -0.050282404 -0.1432509
-0.13599896 0.07644002 0.066689804 -0.091962606 0.071896575 -0.01966015 -0.121428825 -0.13026883
-0.07041233 0.11767847 0.088942915 -0.08459119 -0.055792063 -0.11783313 0.029079456 0.009946296
-0.04864471 -0.117238514 0.12527232 -0.1675241 -0.07794874 -0.03786682 -0.03395662 -0.02017232
-0.015709456 0.010590324 0.1619757 -0.07864806 0.00791836 0.012237156 -0.009155962 0.014312109
-0.026833631 0.0020144961 0.13263379 0.043451764 0.18717256 0.0074965917 -0.15084603 -0.08355887
-0.052403897 -0.05395867 0.09007263 0.14854504 0.0014895769 0.021786632 -0.0594882 -0.054591354
0.022010025 0.05731915 0.025131105 0.027527718 0.14165342 -0.19773151 0.08419266 0.057893656
0.061946746 0.09957066 0.04489327 0.006298408 0.0978704 -0.13092779 -0.0454227 -0.032909896
0.04663547 0.0041585043 0.035652637 0.09003299 -0.0013740364 0.076601505 0.09223216 -0.08610382
0.1289116 -0.021872863 0.096522436 0.07597822 0.0004787472 -0.090979144 0.06942612 -0.036807958
0.05971219 0.04602029 -0.09549817 0.046281938 0.04310917 0.06578591 -0.12425033 0.039402973
-0.07458558 -0.09385563 0.033543713 0.14630744 -0.104137 -0.14179258 0.02877755 -0.08027176
0.028717976 -0.09201177 0.01841124 0.021719089 -0.04314146 -0.044051427 -0.11559606 -0.03958997
0.16110654 -0.032639075 0.07580433 -0.13346574 -0.0052475277 -0.020327015 0.09253248 0.008804561
0.029266605 0.106941305 -0.05964427 0.0745488 0.02623034 -0.11120496 0.072246484 0.0057736915
-0.0037997237 -0.012596263 -0.019601116 -0.05438582 -0.020783782 0.020787429 -0.050548226 0.041001596
-0.0073789987 0.03833928 0.11299083 0.051872436 -0.09799071 0.11239911 0.067478284 -0.07286901
0.021703966 0.030250177 0.08566771 -0.044076927 -0.039371006 -0.12124653 -0.060353663 -0.033078182
-0.057180732 0.03701814 0.12611958 -0.07190163 -0.03756852 -0.03368045 0.08617139 0.12656683
0.028376095 0.14698963 0.0099810725 -0.09998161 0.02788452 -0.0107754115 0.002339802 0.038257875
00000000: a253 58bd fa18 ffbd 7a41 0ebe b551 e6bd
00000010: 2e5d 603c 966c f1bd 48b5 97bd 7a70 08bd
00000020: 6097 ac3c b66f bbbd d0fb 3cbc 1bb4 493d
00000030: 6ccc 53bd a7a5 92bc bbe0 703d 9aef 433c
00000040: 5474 7ebd 7db4 ecbd 57ca 9ebc bdec 263d
00000050: b9b0 d2bc 609b d0bd 1eac c73b ec1c 04bd
00000060: 4b8e 4ebd cc85 55bd 4073 2e3d 5c9f 383e
00000070: c467 9cbd f5da 983d fe90 b8bd 8929 773d
00000080: 716d 3c3e 6dd7 143d 0c30 3a3d 3f4e ff3d
00000090: 4083 0d3d fa86 4b3d 4e1c 7abc ecaa 103e
000000a0: 26f8 893d 3d84 1abd 0f99 043d 160a 08be
000000b0: 8a99 cebc 450b 853c 169a 9b3d 49c4 253d
000000c0: dcdc ac3d 0486 2c3e d25c e03d ad2e c7bd
000000d0: 588a 81bc 9103 67bc dd08 88bd 43c0 73bd
000000e0: 4b37 cd3d 6374 75bd a371 36be 90a0 5bbd
000000f0: fa83 333b 582a 67bd 0677 96bd 8a83 1d3b
00000100: 7253 c73c 37d4 e23d 3eb5 c5bd 8220 3dbd
00000110: a0fb cabc fbfb be3d fe8a 433d 512a 34bc
00000120: 499d c2bd d713 e8bd e36e 2d3e fb0e efbd
00000130: bb67 8dbd 473b 18bd c5ad 173d 1d44 2cbd
00000140: 63d7 1cbe 5b55 0c3d cdfd eebc 2403 c8bd
00000150: 43d3 7ebd f2ce 38bd b55e 42bd ed42 e33b
00000160: 0d73 59bc 50d2 98bd 93f9 283c f13d ee3c
00000170: 62ce a33c 4430 f93d ecf4 4dbd 5db0 12be
00000180: 5043 0bbe 968c 9c3d aa94 883d e456 bcbd
00000190: 833e 933d 530e a1bc adaf f8bd 3165 05be
000001a0: 5734 90bd 6901 f13d b427 b63d 253e adbd
000001b0: 3886 64bd 7f52 f1bd 0a38 ee3c caf5 223c
000001c0: ad3f 47bd bf1a f0bd 6347 003e 708b 2bbe
000001d0: 97a3 9fbd 3d1a 1bbd 1916 0bbd 6c40 a5bc
000001e0: 1eb1 80bc 0a83 2d3c f5dc 253e 3c12 a1bd
000001f0: 02bc 013c 5a7e 483c e302 16bc 567d 6a3c
00000200: 34d2 dbbc a305 043b 27d1 073e 7afa 313d
00000210: 2aaa 3f3e f8a5 f53b 6277 1abe ea20 abbd
00000220: 78a5 56bd c403 5dbd 0078 b83d 311c 183e
00000230: e83d c33a e179 b23c e6a9 73bd 2f9b 5fbd
00000240: 5e4e b43c 7cc7 6a3d bfdf cd3c cf81 e13c
00000250: 980d 113e 217a 4abe 346d ac3d e621 6d3d
00000260: dfbb 7d3d b4eb cb3d 01e2 373d e062 ce3b
00000270: 4770 c83d ef11 06be 270d 3abd 87cc 06bd
00000280: d604 3f3d 1044 883b 8008 123d 3763 b83d
00000290: 0319 b4ba 40e1 9c3d 37e4 bc3d 3357 b0bd
000002a0: 6701 043e b82e b3bc 8ead c53d 789a 9b3d
000002b0: 5d00 fb39 4653 babd 482f 8e3d f1c3 16bd
000002c0: c594 743d c67f 3c3d 8b94 c3bd 2192 3d3d
000002d0: 3e93 303d c3ba 863d f576 febd 0365 213d
000002e0: 53c0 98bd 6137 c0bd 2265 093d 9ed1 153e
000002f0: c845 d5bd 1332 11be e6be eb3c 8565 a4bd
00000300: f641 eb3c ab70 bcbd 2bd3 963c 3bec b13c
00000310: 19b5 30bd 456f 34bd a1bd ecbd 1829 22bd
00000320: 1df9 243e 8db0 05bd 4d3f 9b3d 3eab 08be
00000330: 74f3 abbb d784 a6bc ab81 bd3d 0141 103c
00000340: 85c0 ef3c 0b04 db3d 8d4d 74bd 0bad 983d
00000350: 03e1 d63c 6dbf e3bd f7f5 933d 3c31 bd3b
00000360: c904 79bb 8e60 4ebc 8592 a0bc aac3 5ebd
00000370: c042 aabc 664a aa3c a80b 4fbd 4af1 273d
00000380: 87cb f1bb a609 1d3d bc67 e73d 3178 543d
00000390: 5aaf c8bd 8131 e63d 0e32 8a3d 593c 95bd
000003a0: 84cc b13c 38cf f73c 8d72 af3d 028a 34bd
000003b0: 7e43 21bd 1a50 f8bd 6735 77bd fd7c 07bd
000003c0: 5836 6abd 55a0 173d 7e25 013e 2941 93bd
000003d0: 73e1 19bd 83f4 09bd a07a b03d bc9a 013e
000003e0: fc74 e83c 7384 163e a787 233c 29c3 ccbd
000003f0: 146e e43c 5a8b 30bc 5d57 193b 4ab4 1c3d

features.2.bn.weight f4 [128]
0.99158555 0.988899 1.0114584 1.0222981 1.0354754 0.98956835 0.97701293 1.0049659
0.99475664 0.9871031 0.9791834 0.9818638 1.0176716 0.98104125 0.983834 0.9820808
1.0109421 0.9839359 0.98824525 1.0050986 1.0243278 0.9540218 0.9935886 1.0200272
0.9805903 0.96838135 0.96129316 0.97583306 0.98514074 0.99399525 1.0221329 1.0275439
0.9829051 1.0154574 0.99555755 1.0449729 0.9903252 1.010435 1.0074956 1.0270646
1.0031422 1.0215759 0.9926319 1.0173765 0.9994596 0.96831584 0.97930413 1.0292696
0.99324894 0.97929853 0.97033685 0.97794116 0.9848603 0.97076654 0.9868695 0.99844515
0.9599541 1.0095744 1.0005572 0.97926927 0.9889202 1.0078192 0.9868587 0.9782855
1.0180072 0.9828832 0.96268404 1.033511 0.973147 0.98150694 0.9866272 1.0193971
0.997178 0.9833907 0.9782097 1.0248387 1.0299654 1.0291333 1.0189439 1.0115272
1.000349 1.0021322 1.0247897 1.0000188 1.0567341 1.0074838 0.9760225 1.0040863
1.0007489 1.0233753 0.9737023 1.0089996 0.9839724 0.9783111 1.024162 0.9974553
1.0121819 0.94700974 1.013117 0.9852486 0.9605152 0.9933005 0.9859 1.0061244
0.99368894 0.9937758 0.9722687 0.98447764 1.0181216 0.96701056 1.0336183 0.9859369
1.0250803 0.9912384 0.97720903 0.9877158 0.9721735 1.0301183 0.97289896 0.99170566
0.97469676 0.99588877 1.0131587 0.99052817 1.0338361 0.9631533 0.9746069 1.0081775
00000000: 8dd8 7d3f 7c28 7d3f 7877 813f aada 823f
00000010: 758a 843f 5a54 7d3f 851d 7a3f b9a2 803f
00000020: 5fa8 7e3f cab2 7c3f c3ab 7a3f 6d5b 7b3f
00000030: 1043 823f 8525 7b3f 8cdc 7b3f a669 7b3f
00000040: 8d66 813f 39e3 7b3f a4fd 7c3f 12a7 803f
00000050: 2c1d 833f c63a 743f d35b 7e3f 4090 823f
00000060: f707 7b3f d7e7 773f 4f17 763f 32d0 793f
00000070: 2f32 7c3f 7976 7e3f 40d5 823f 8f86 833f
00000080: ab9f 7b3f 82fa 813f dcdc 7e3f acc1 853f
00000090: f485 7d3f ef55 813f 9ef5 803f da76 833f
000000a0: f766 803f 00c3 823f 201d 7e3f 6539 823f
000000b0: 96dc 7f3f 8ce3 773f adb3 7a3f 1bbf 833f
000000c0: 9045 7e3f 4fb3 7a3f ff67 783f 5a5a 7a3f
000000d0: ce1f 7c3f 2884 783f 7ba3 7c3f 1a9a 7f3f
000000e0: 8dbf 753f bc39 813f 4212 803f 64b1 7a3f
000000f0: e029 7d3f 3800 813f c6a2 7c3f eb70 7a3f
00000100: 0f4e 823f 3c9e 7b3f 7672 763f 174a 843f
00000110: 2920 793f 0a44 7b3f 9a93 7c3f 9b7b 823f
00000120: 0f47 7f3f 7ebf 7b3f f36b 7a3f ea2d 833f
00000130: e8d5 833f a4ba 833f c16c 823f b979 813f
00000140: 700b 803f de45 803f 4f2c 833f 9e00 803f
00000150: 1043 873f 3bf5 803f 9cdc 793f e685 803f
00000160: 8a18 803f f6fd 823f 8e44 793f e626 813f
00000170: 9de5 7b3f 9972 7a3f be17 833f 3b59 7f3f
00000180: 2d8f 813f 3b6f 723f d1ad 813f 4139 7c3f
00000190: 53e4 753f f148 7e3f f163 7c3f afc8 803f
000001a0: 6662 7e3f 1768 7e3f 9ae6 783f ba06 7c3f
000001b0: cf51 823f 018e 773f 9b4d 843f 5c66 7c3f
000001c0: d535 833f cdc1 7d3f 5f2a 7a3f f1da 7c3f
000001d0: 5de0 783f ebda 833f e80f 793f 6ce0 7d3f
000001e0: ba85 793f 91f2 7e3f 2faf 813f 4193 7d3f
000001f0: be54 843f 3791 763f d67f 793f f60b 813f

features.2.bn.bias f4 [128]
-0.032384753 -0.031335816 -0.008704068 -0.0370984 -0.0051864507 0.0042496263 -0.041125137 -0.035571426
-0.0049258233 -0.012843182 -0.05453169 -0.032384515 -0.046539392 0.0093547525 -0.02217025 -0.045137875
-0.01989036 -0.021508992 -0.012149535 -0.030040251 -0.0065954467 -0.06588884 -0.016566115 -0.00041468878
-0.023299035 -0.048459623 -0.066500135 -0.03182525 -0.025042195 -0.041883666 -0.021953402 -0.0039411746
-0.011438207 -0.036740206 -0.03703424 -0.024346506 -0.0072623207 -0.02361172 0.00017019422 -0.046172082
-0.01982272 0.010877933 -0.017096803 -0.0029588332 -0.059917446 -0.051128972 -0.025694512 -0.020311626
-0.01538031 -0.024581729 -0.037441585 -0.043604795 -0.03469374 -0.02159681 0.0041162013 -0.013608715
-0.03990568 -0.028246071 -0.012597269 -0.040798295 -0.04530325 -0.034810614 -0.012689078 -0.031503394
-0.04412457 -0.032612484 -0.06372498 0.010786043 -0.037332427 -0.046055183 -0.039742198 -0.0011968644
-0.016326923 -0.041633118 -0.06363562 -0.008925334 0.0010905893 -0.0041104625 -0.013753863 -0.021094404
-0.008347625 -0.019420676 -0.02364243 -0.0081768 -0.017491415 -0.03093317 -0.025629854 -0.020457583
-0.008031247 0.00089549355 -0.051362135 -0.021866139 -0.032421246 -0.027815342 0.010238394 -0.037232455
-0.029085781 -0.07248918 -0.010309341 -0.029439561 -0.034177996 -0.028885074 0.010961461 0.012518328
-0.045136176 -0.04710925 -0.018200554 -0.023819 0.012798179 -0.023791302 0.0007733285 -0.009241409
-0.017538678 -0.028106246 -0.02196925 -0.00096720277 -0.033821188 -0.041016873 -0.025632221 -0.013166245
0.0048758034 -0.019587452 0.006685499 -0.0023687782 -0.057987347 -0.051686533 -0.009664193 -0.035757396
00000000: e0a5 04bd fc59 00bd 829b 0ebc 7ef4 17bd
00000010: 1af3 a9bb 7340 8b3b d572 28bd 58b3 11bd
00000020: cd68 a1bb 366c 52bc 9f5c 5fbd a0a5 04bd
00000030: 17a0 3ebd ad44 193c 629e b5bc 7ee2 38bd
00000040: 1cf1 a2bc a033 b0bc d80e 47bc f916 f6bc
00000050: 9e1e d8bb baf0 86bd a9b5 87bc 966a d9b9
00000060: 9edd bebc 997d 46bd 3931 88bd 315b 02bd
00000070: 4a25 cdbc 358e 2bbd 9fd7 b3bc f824 81bb
00000080: 5167 3bbc e67c 16bd 37b1 17bd 5372 c7bc
00000090: c3f8 edbb 5e6d c1bc 2a76 3239 f01e 3dbd
000000a0: 4263 a2bc 5c39 323c 980e 8cbc fce8 41bb
000000b0: ff6b 75bd 9d6c 51bd 4c7d d2bc 9164 a6bc
000000c0: b2fd 7bbc 9f5f c9bc 595c 19bd f19a 32bd
000000d0: 061b 0ebd cbeb b0bc 33e1 863b 16f7 5ebc
000000e0: 2374 23bd 4e64 e7bc c764 4ebc 1d1c 27bd
000000f0: e78f 39bd 9395 0ebd dae5 4fbc b409 01bd
00000100: f7bb 34bd ab94 05bd 3e82 82bd f1b7 303c
00000110: e3e9 18bd 5ca4 3cbd b7c8 22bd 1be0 9cba
00000120: 0ac0 85bc 7d87 2abd 6453 82bd 903b 12bc
00000130: 1bf2 8e3a 0fb1 86bb e257 61bc 2cce acbc
00000140: 7ac4 08bc 1c18 9fbc c5ad c1bc fcf7 05bc
00000150: 284a 8fbc 8f67 fdbc b3f5 d1bc a996 a7bc
00000160: 7e95 03bc 8ebf 6a3a 1a61 52bd 9e20 b3bc
00000170: 24cc 04bd 00dd e3bc f0be 273c 0f81 18bd
00000180: 4e45 eebc 3575 94bd 83e8 28bc 3c2b f1bc
00000190: 3afe 0bbd 64a0 ecbc b397 333c ac19 4d3c
000001a0: b6e0 38bd a1f5 40bd 5419 95bc 1020 c3bc
000001b0: 74af 513c fae5 c2bc 32b9 4a3a 4769 17bc
000001c0: 46ad 8fbc 123f e6bc dbf8 b3bc e18b 7dba
000001d0: 1688 0abd 4f01 28bd aafa d1bc 3cb7 57bc
000001e0: 34c5 9f3b dd75 a0bc 0812 db3b 813d 1bbb
000001f0: 2484 6dbd 42b5 53bd 9056 1ebc 5976 12bd

features.2.bn.running_mean f4 [128]
-0.05804362 -1.1140193 -0.65365475 0.88000596 -0.78338706 -1.3887503 1.190511 0.7832057
-0.47865665 -0.7596578 1.7244296 -1.5223875 0.23075277 -0.41604945 -0.07416248 0.26502866
-0.23057352 -0.6787058 0.14242756 0.53836435 -0.15425202 1.1471994 -0.09649529 -0.4166943
-0.35191262 1.6883444 -1.469283 0.095905654 -0.90534157 -0.6219591 0.10188713 -0.30826464
-2.022772 0.45769623 0.3673433 -0.39960623 -1.0125406 -0.54144996 -1.2773992 0.5358501
0.14536665 -0.086757116 -0.381485 -0.7637984 1.3014188 -1.4437772 -1.2844872 -1.1391081
-1.0524448 -0.28223455 0.31451935 0.111383766 -1.4872743 -2.5296369 -0.8106178 -1.3352327
-0.93456143 -0.5822654 0.1869808 0.17038415 0.06442333 0.6118054 -0.13094854 -1.7960495
0.39501315 -0.2172426 1.6297386 -0.020909684 -0.20735657 1.6499224 1.2321198 0.1527944
-0.40154234 1.2815127 1.3513643 -0.5379653 -0.4891791 0.6358669 -0.41273364 -1.0677676
-0.31375563 -0.9836644 -0.112747885 -1.0541052 -0.40848887 -0.41243744 -0.79203314 -0.05928392
-1.1058022 0.85685575 -0.00970399 0.56135166 0.39894837 1.7017723 -0.43228793 -0.34344363
1.0030758 0.77127266 -0.5503758 -0.44585243 -0.24982938 -0.5409729 -0.091535136 0.539184
0.776837 0.43628836 -0.1919932 -0.98842186 -0.9982637 0.13045685 -0.032125562 -0.67111826
0.47246662 -0.21116157 -0.30139863 -0.47382307 -1.2422055 0.51261663 0.21938725 -1.233151
-0.8582636 -0.7112968 -0.34568503 -0.9429031 -0.42724177 -0.14231679 0.50627124 0.88295513
00000000: 26bf 6dbd 2f98 8ebf eb55 27bf 1248 613f
00000010: 0e8c 48bf 92c2 b1bf aa62 983f 2b80 483f
00000020: 7c12 f5be ef78 42bf 1cba dc3f 98dd c2bf
00000030: 744a 6c3e 6f04 d5be 80e2 97bd d6b1 873e
00000040: 771b 6cbe aabf 2dbf 88d8 113e 3fd2 093f
00000050: 3ef4 1dbe 6ed7 923f 539f c5bd f558 d5be
00000060: e42d b4be ab1b d83f 7711 bcbf 2f6a c43d
00000070: 77c4 67bf b638 1fbf 33aa d03d ddd4 9dbe
00000080: 1975 01c0 2957 ea3e 6c14 bc3e 3099 ccbe
00000090: ee9a 81bf 779c 0abf d181 a3bf 792d 093f
000000a0: ffda 143e b7ad b1bd 0052 c3be 4b88 43bf
000000b0: e494 a63f b1cd b8bf 146a a4bf 4bce 91bf
000000c0: 83b6 86bf 0c81 90be ae08 a13e 2c1d e43d
000000d0: 015f bebf 92e5 21c0 a684 4fbf e8e8 aabf
000000e0: 6b3f 6fbf 580f 15bf e577 3f3e 2f79 2e3e
000000f0: 61f0 833d 479f 1c3f 6017 06be f3e4 e5bf
00000100: 2a3f ca3e d874 5ebe 469b d03f c94a abbc
00000110: 4855 54be a830 d33f 1ab6 9d3f 2376 1c3e
00000120: f596 cdbe 9c08 a43f 81f9 ac3f 18b8 09bf
00000130: af75 fabe 2cc8 223f d351 d3be 9cac 88bf
00000140: 94a4 a0be 6ed1 7bbf 5de8 e6bd ebec 86bf
00000150: 7425 d1be 002b d3be afc2 4abf b2d3 72bd
00000160: ed8a 8dbf e65a 5b3f 7cfd 1ebc beb4 0f3f
00000170: f642 cc3e add3 d93f d854 ddbe d8d7 afbe
00000180: ca64 803f 2072 453f 6ee5 0cbf c546 e4be
00000190: 46d3 7fbe 337d 0abf c676 bbbd f607 0a3f
000001a0: cade 463f 3061 df3e de99 44be 3709 7dbf
000001b0: 368e 7fbf 7b96 053e 1896 03bd 68ce 2bbf
000001c0: 25e7 f13e bd3a 58be ec50 9abe f098 f2be
000001d0: 9700 9fbf d83a 033f 0da7 603e e4d7 9dbf
000001e0: 2ab7 5bbf 8c17 36bf a1fd b0be 1962 71bf
000001f0: 6fbf dabe 7ebb 11be fe9a 013f 5909 623f

features.2.bn.running_var f4 [128]
1.3166304 1.7045563 1.1324319 1.796729 1.0250256 5.2277317 2.9928277 1.9248123
1.6119622 1.8419067 2.904814 3.2375402 1.0799774 0.9496881 1.4362705 2.2522166
0.9019054 0.6965236 1.3354211 0.77801716 0.8631591 1.4177469 2.8674977 1.359082
2.06048 4.081263 1.2095624 1.665498 2.1901999 1.8461208 0.78941464 1.6531549
5.6933513 0.63454914 0.7706557 0.6974006 1.2451235 1.941524 2.4040375 0.91301024
1.6710663 0.8900159 1.3907975 1.4055907 2.2746792 2.2444978 2.537677 1.2870536
1.9860209 0.80303097 1.0588075 1.0968945 3.7706978 7.2428555 1.0033864 2.3389235
2.023627 1.798826 0.771271 0.7698622 0.94966584 1.5778722 0.9063015 1.4031405
1.7288873 0.63914675 2.0366378 0.9818037 2.5610247 1.70674 2.1735106 0.8385776
0.8837927 2.1571805 2.2309635 1.2123584 1.2776958 0.7193075 1.5645659 1.1669407
1.9461995 1.1875077 1.0039504 1.6923369 0.9936772 1.4353806 1.5918335 1.6134968
2.7788064 0.6921899 1.360609 1.2168219 1.3946049 3.5275235 2.2289636 1.2109942
2.2084286 1.8556961 0.77029485 1.2896438 1.3445102 1.0886493 0.97694033 0.9814888
2.398884 1.1483033 0.9127126 2.0064452 0.8613208 1.1120406 0.97256064 1.0862058
0.6440416 1.8024051 1.7469189 0.97092044 1.9022055 1.116684 0.89174724 1.2694932
1.8003389 1.708263 1.0198021 1.1222224 1.5378177 2.6604567 1.3177601 1.5668714
00000000: 5887 a83f e72e da3f 87f3 903f 37fb e53f
00000010: 0a34 833f 9449 a740 7d8a 3f40 4060 f63f
00000020: c754 ce3f 99c3 eb3f 79e8 3940 dc33 4f40
00000030: b33c 8a3f c21e 733f b6d7 b73f 5124 1040
00000040: 46e3 663f 5f4f 323f 14ef aa3f 222c 473f
00000050: fff7 5c3f bb78 b53f 1585 3740 66f6 ad3f
00000060: e8de 0340 b599 8240 f1d2 9a3f 0a2f d53f
00000070: 3c2c 0c40 b04d ec3f 1417 4a3f 949a d33f
00000080: ef2f b640 d071 223f b149 453f d988 323f
00000090: 3560 9f3f dc83 f83f c0db 1940 0abb 693f
000000a0: 80e5 d53f 15d8 633f a705 b23f 65ea b33f
000000b0: 5894 1140 daa5 0f40 4d69 2240 2cbe a43f
000000c0: ef35 fe3f 7093 4d3f 0187 873f 0a67 8c3f
000000d0: 1d53 7140 79c5 e740 f76e 803f ecb0 1540
000000e0: 1b83 0140 ee3f e63f 0472 453f b015 453f
000000f0: 4d1d 733f b7f7 c93f 6003 683f 1c9a b33f
00000100: 2e4c dd3f 1f9f 233f 4658 0240 7d57 7b3f
00000110: d4e7 2340 7576 da3f cc1a 0b40 06ad 563f
00000120: 3d40 623f 3f0f 0a40 1bc8 0e40 8f2e 9b3f
00000130: 898b a33f 8924 383f b243 c83f 505e 953f
00000140: 111d f93f 4100 983f 7281 803f 7f9e d83f
00000150: a161 7e3f 8dba b73f 33c1 cb3f 1087 ce3f
00000160: f7d7 3140 5b33 313f 7028 ae3f d2c0 9b3f
00000170: 6a82 b23f f2c2 6140 57a7 0e40 dc01 9b3f
00000180: e556 0d40 7387 ed3f 0b32 453f 0c13 a53f
00000190: e918 ac3f dc58 8b3f c318 7a3f da42 7b3f
000001a0: 5187 1940 9afb 923f 88a7 693f 9969 0040
000001b0: 857f 5c3f 5957 8e3f bcf9 783f cb08 8b3f
000001c0: e9df 243f 36b5 e63f 0a9b df3f 3e8e 783f
000001d0: 787b f33f 80ef 8e3f 8c49 643f c17e a23f
000001e0: 8171 e63f 5da8 da3f e088 823f fca4 8f3f
000001f0: 36d7 c43f ec44 2a40 5dac a83f 3e8f c83f

features.3.conv.weight f4 [256, 128, 3]
-0.0092659965 -0.09738406 -0.014015574 0.069743715 -0.08326082 0.011347548 0.14664038 -0.10982697
-0.07460957 0.08037514 -0.12046297 -0.14654368 -0.1570675 0.0006080914 0.09332803 -0.009123106
0.06373947 0.0011362021 0.04231795 0.053113732 -0.05363555 0.09924636 0.03198015 -0.08689191
0.016591026 -0.01996948 -0.10342368 0.026319325 -0.00016236203 0.1641597 -0.036935575 0.1202665
0.12073227 -0.025907697 -0.03767569 -0.08649143 -0.0087100705 -0.041925844 -0.029118435 0.055015292
0.07053917 -0.066779934 0.022699105 -0.023812406 -0.04861518 0.0012052183 0.024274474 -0.09343251
0.08564746 0.026929058 0.040158156 -0.01622051 0.065868884 0.12909068 -0.013680093 -0.16742332
-0.12408458 0.018111285 0.09366273 0.10034725 0.06435716 -0.17117798 -0.075002134 0.078214005
0.04571101 0.12187505 0.10287593 -0.013240279 -0.012613191 0.012443775 -0.08581046 0.038741756
-0.06516423 -0.12130606 0.0657485 -0.028838292 -0.086542614 0.01224665 -0.07023569 0.06142092
0.11607442 0.07788993 0.042031344 -0.030387618 0.016617196 0.0077822385 0.023343878 -0.09333143
-0.02433938 0.00030328537 -0.004205334 0.12730192 0.13059859 -0.1152484 0.015324593 0.00091393746
0.07756219 -0.011043279 -0.15115562 0.029217875 -0.051375266 0.15305442 -0.06888942 0.022331418
-0.013902728 0.19328469 -0.15963562 0.05950706 0.004627664 -0.020310976 0.032099828 -0.021260463
-4.608379e-05 -0.049796384 0.10382882 0.09650341 -0.023028884 0.015647909 0.1526571 0.056925
0.030185759 0.005849272 -0.1274477 -0.0348184 -0.072442845 0.009897035 0.03451081 -0.0052870456
-0.0046999776 -0.13672675 -0.002993493 0.13355158 -0.122895874 0.014250373 0.046454642 0.009524439
0.01919342 -0.027122509 -0.0030324035 0.018546473 -0.062008724 0.043541834 0.048923843 -0.030816255
0.012518994 -0.094268605 0.07502183 0.027140874 -0.050230853 0.075883225 -0.0044493447 -0.04005569
-0.023136925 0.06937061 0.053616133 0.03226265 -0.043632116 0.048477545 -0.13155569 -0.06664527
-0.01225006 0.113775246 0.02559011 0.05061064 0.010533531 0.017853824 0.060076743 0.007149775
0.12384667 -0.15767284 0.016265295 -0.10072099 0.0021978884 0.0146281505 0.025895504 0.04166584
-0.021359414 -0.04708506 0.0048693996 -0.040564753 0.12805015 -0.0156527 0.102092244 -0.067191124
-0.06384407 0.034739997 -0.05142823 -0.09432566 0.00888938 -0.15160125 0.022368267 0.018022558
0.011769482 -0.12773398 0.115719974 -0.060256485 0.040426522 -0.11269651 0.07643014 -0.056345116
-0.10496959 0.1614355 -0.0639531 -0.0023901558 0.13554956 0.1322516 -0.13112587 0.09708539
-0.0823358 -0.08084946 0.019395662 0.047074813 -0.039974086 -0.0011735953 0.0097798295 0.070115305
0.14129625 0.035580944 -0.089600384 -0.043511298 0.10352077 0.00022946698 0.08541998 -0.07722685
-0.059466153 -0.031633507 0.043921776 -0.0025013443 -0.039704785 -0.050779518 0.039519936 0.113846235
0.16314074 0.12713715 0.06032232 0.014447811 -0.06891029 -0.09335502 -0.15163808 -0.043096486
0.009656102 -0.1346086 -0.007610615 0.06645621 -0.00052022317 0.1511236 0.1079459 0.04223544
0.0441023 0.12673919 -0.05746289 0.12640905 0.028179632 0.068743914 0.06806912 0.12278754
00000000: 68d0 17bc 4b71 c7bd 94a1 65bc cbd5 8e3d
00000010: a684 aabd 11eb 393c e528 163e f6ec e0bd
00000020: e7cc 98bd b99b a43d 4ab5 f6bd 8c0f 16be
00000030: 4dd6 20be 5368 1f3a c422 bf3d 1479 15bc
00000040: d789 823d 9eec 943a 9655 2d3d c98d 593d
00000050: f3b0 5bbd ad41 cb3d 9efd 023d 63f4 b1bd
00000060: e7e9 873c 0997 a3bc cbcf d3bd a09b d73c
00000070: ba3f 2ab9 7b19 283e c249 17bd 484e f63d
00000080: 7b42 f73d 613c d4bc d351 1abd 6b22 b1bd
00000090: afb4 0ebc 6fba 2bbd c989 eebc b757 613d
000000a0: d776 903d ebc3 88bd 79f3 b93c 3c12 c3bc
000000b0: b620 47bd 6af8 9d3a 43db c63c 8b59 bfbd
000000c0: ef67 af3d 549a dc3c e17c 243d e0e0 84bc
000000d0: 44e6 863d 5930 043e 7822 60bc 0571 2bbe
000000e0: 0e20 febd 1e5e 943c 3fd2 bf3d dc82 cd3d
000000f0: b0cd 833d 4849 2fbe b89a 99bd aa2e a03d
00000100: 783b 3b3d a099 f93d 9eb0 d23d c1ed 58bc
00000110: 8fa7 4ebc fae0 4b3c 65bd afbd adaf 1e3d
00000120: d374 85bd 506f f8bd 26a7 863d 483e ecbc
00000130: 413d b1bd 2ca6 483c bbd7 8fbd 8194 7b3d
00000140: 6db8 ed3d c184 9f3d 0f29 2c3d 74ef f8bc
00000150: c920 883c 2602 ff3b a93b bf3c 8c24 bfbd
00000160: 6163 c7bc 4602 9f39 e6cc 89bb 6f5b 023e
00000170: a3bb 053e 5a07 ecbd 0014 7b3c 4e95 6f3a
00000180: edd8 9e3d dfee 34bc 8ac8 1abe 535a ef3c
00000190: df6e 52bd 4cba 1c3e e515 8dbd 61f0 b63c
000001a0: 45c8 63bc 6cec 453e 8577 23be adbd 733d
000001b0: a9a3 973b 3463 a6bc 1c7b 033d 6c2a aebc
000001c0: 184a 41b8 4bf7 4bbd 34a4 d43d 94a3 c53d
000001d0: 12a7 bcbc 0b30 803c 2552 1c3e 302a 693d
000001e0: 2048 f73c 40ab bf3b a681 02be bd9d 0ebd
000001f0: ea5c 94bd 2c27 223c 355b 0d3d f43e adbb
00000200: 4502 9abb 1902 0cbe 7b2e 44bb bfc1 083e
00000210: d5b0 fbbd 657a 693c 3947 3e3d 650c 1c3c
00000220: 853b 9d3c 0630 debc 4abb 46bb c6ee 973c
00000230: dcfc 7dbd ec58 323d 5e64 483d 5f72 fcbc
00000240: 771c 4d3c e60f c1bd 0ca5 993d 8a56 de3c
00000250: debe 4dbd aa68 9b3d cfcb 91bb 6f11 24bd
00000260: a689 bdbc 2e12 8e3d 979c 5b3d d725 043d
00000270: 97b7 32bd 6490 463d 89b6 06be 517d 88bd
00000280: 7ab4 48bc ff02 e93d 5aa2 d13c 1a4d 4f3d
00000290: d594 2c3c 2f42 923c 0813 763d a948 ea3b
000002a0: 53a3 fd3d fd74 21be cc3e 853c ce46 cebd
000002b0: 730a 103b e9aa 6f3c cf22 d43c cda9 2a3d
000002c0: f0f9 aebc 44dc 40bd 7c8f 9f3b 3a27 26bd
000002d0: 941f 033e 173a 80bc bd15 d13d 809b 89bd
000002e0: aec0 82bd 874b 0e3d 68a6 52bd d02d c1bd
000002f0: c3a4 113c 5c3d 1bbe a83d b73c 0ba4 933c
00000300: c9d4 403c b2cc 02be 98fe ec3d 81cf 76bd
00000310: 4896 253d 6ecd e6bd 6887 9c3d 23ca 66bd
00000320: 4cfa d6bd 594f 253e d8f9 82bd 29a4 1cbb
00000330: 81cd 0a3e f76c 073e dc45 06be b4d4 c63d
00000340: ac9f a8bd 6794 a5bd a7e3 9e3c 85d1 403d
00000350: debb 23bd 53d3 99ba 943b 203c 9d98 8f3d
00000360: f7af 103e 53bd 113d 6880 b7bd e738 32bd
00000370: b302 d43d 139d 7039 acf0 ae3d 1c29 9ebd
00000380: c892 73bd 2392 01bd 52e7 333d 98ed 23bb
00000390: 7ca1 22bd 2ffe 4fbd a8df 213d 3728 e93d
000003a0: 5e0e 273e 3e30 023e 8914 773d 83b6 6c3c
000003b0: d720 8dbd eb30 bfbd 0347 1bbe f185 30bd
000003c0: a134 1e3c d6d6 09be 7762 f9bb 321a 883d
000003d0: 965f 08ba 25c0 1a3e bd12 dd3d 12ff 2c3d
000003e0: 9da4 343d ebc7 013e 355e 6bbd 6071 013e
000003f0: f9d8 e63c 9cc9 8c3d d367 8b3d 0978 fb3d
